old results/save/MSTAGAT-Net.region785.w-20.h-15.pt (torch, 68943 bytes, 70 tensors)

feature_extractor.depthwise.weight f4 [1, 1, 3]
00000000: 63d3 8e3d 1b46 543e fc73 90bd
0.069739126 0.20729868 -0.07053372

feature_extractor.pointwise.weight f4 [16, 1, 1]
00000000: 27de 37bd 29ed b73c 743b 39bd b0f6 963d
00000010: 901a 883e 6fca 23be 9c49 833e 21f7 e03c
00000020: b339 273e 9f8c 05bd 14ee 0d3d 3a03 38bd
00000030: 5c83 3d3e 467c b63c e9df 32bd d8cc dc3c
-0.044889595 0.022451954 -0.045222715 0.07371271 0.26582766 -0.15995191 0.25642097 0.02746159
0.16330604 -0.03260481 0.034650877 -0.044924952 0.18507141 0.022276055 -0.04367057 0.026953146

feature_extractor.pointwise.bias f4 [16]
00000000: 0494 cabc be96 7536 28ce 42bc f363 ed3d
00000010: 2fbc 4abe fb37 cbbc 6455 0eba 161f a7bd
00000020: a565 dab3 9507 b3be eb98 903e da67 77be
00000030: 4554 3e3e aee7 7633 1944 10bb 7005 b93d
-0.024728782 3.6595588e-06 -0.011889972 0.115913294 -0.19798349 -0.024806967 -0.00054295943 -0.08160226
-1.0169905e-07 -0.34966722 0.28241667 -0.2416071 0.18586834 5.748705e-08 -0.0022013246 0.0903424

feature_extractor.bn2.weight f4 [16]
00000000: 4eb6 e03e 2e59 dc3e 66ac d83e 4d9a de3e
00000010: e2e8 ce3e 3423 003f 28ac c93e 5673 c63e
00000020: 8095 dc3e 301a e13e 8370 ea3e a44e e43e
00000030: 031d d23e 487b d63e 77df dc3e d470 dc3e
0.43889087 0.4303679 0.4231903 0.43477097 0.4041205 0.50053716 0.39389157 0.3875987
0.4308281 0.43965292 0.45788965 0.44591248 0.4103776 0.4189093 0.4313924 0.4305483

feature_extractor.bn2.bias f4 [16]
00000000: a28d 163d 8f06 8d3d 6414 033d dfc9 43bb
00000010: 6d43 533d c63a 973c 8120 ef3c c5ee 0b3d
00000020: 11b1 b2bc 7180 e83c b114 183c 51df 143d
00000030: 856f 29bc 3b43 30bc 186f 403d 8b4b 00bc
0.036756165 0.068860166 0.032001868 -0.0029874963 0.051577974 0.018460643 0.029190304 0.034163255
-0.021812947 0.028381558 0.009282277 0.036345784 -0.01034153 -0.0107582165 0.046980947 -0.007830511

feature_extractor.bn2.running_mean f4 [16]
00000000: d127 0dbd d5e4 913b dcb4 aebc 35fb 083e
00000010: 76b1 1bbe 31a4 68bd 7220 453d 225b a2bd
00000020: 8fbf ff3c 181a b9be f0be 963e 8487 82be
00000030: a70d 673e a6ff 833b 0bfb 32bc 6f97 c83d
-0.0344618 0.0044523277 -0.021326475 0.13377078 -0.15204415 -0.05679721 0.048126645 -0.079275385
0.031219272 -0.3615272 0.2944255 -0.25494015 0.22563802 0.0040282784 -0.010924111 0.09794509

feature_extractor.bn2.running_var f4 [16]
00000000: 23e9 8f39 e080 a438 4037 9939 1af2 543a
00000010: 5a57 253c 4c94 723b eafb 193c 9e5b e538
00000020: 66b5 7c3b 85d7 1a39 c7a9 3a39 d991 9039
00000030: dabf a13b 0f40 8738 f1a7 9539 e4f2 aa38
0.00027448786 7.844134e-05 0.00029223599 0.0008123234 0.010091627 0.0037014661 0.00939844 0.00010936636
0.003856027 0.00014766872 0.0001780159 0.00027574485 0.0049362006 6.4492335e-05 0.0002854462 8.1514736e-05

feature_projection_low.weight f4 [6, 320]
00000000: dddc 3c3d 69df 693d 5b94 393c ef32 8abc
00000010: 1ddc a3bc e274 e4bc 61e9 34bc 7742 b13a
00000020: 7b36 57bc 99e0 30bd c283 87bb 4846 97bc
00000030: cc4a 99bb 8668 c2bc bf56 dfbc 0f9f 4c3b
00000040: a89b fe3a 7e9d 543d b4c5 273d 78a7 9e3d
00000050: e83b 1cbd 78b3 65bd fc04 9dbb e909 63bc
00000060: 18d7 3ebc c35a e8bc 9935 c43c 44ed 9b3c
00000070: 2a3c 133d 5ff9 453c f227 c33c 75b0 97bc
00000080: f9e5 b0bc a754 dbbc cc43 8b3c cd24 5e3c
00000090: 0f52 d63c 4431 0dbd 9b48 1fbd 5f97 2bbd
000000a0: 786d 5d3c 35ac 173d dc5c a53c c2b6 a93c
000000b0: 87fc 25bd 1330 27bd 2bcb 7cbc 7d34 13bd
000000c0: 0def a0bc fdb7 0abd 4ccc 3bbc 5f7d 32bd
000000d0: e943 9dbc 73f7 cd3b 54ea 7fbb 4956 c33b
000000e0: 0384 2d3d f362 1b3d d02a 5e3c 26c2 3f3d
000000f0: 2e99 d7bc 3ab8 63bd 9fcb 12bd 7f3e b8bc
00000100: e632 fdbc a40a 34bc 48c1 c93b 12c7 28bb
00000110: bbe3 a53c b579 7abb b93e 62bc 0f79 d1bc
00000120: 277d 34bd 5d94 03bd e590 e33c 1375 3f3b
00000130: 8c75 383c 951f 40bd c3c5 d5bc 2fd6 d4bc
00000140: 0133 1abd a9c9 abbd 691d 14bd 4a52 adbc
00000150: 9465 67bc 3727 b7bc aa24 11ba b5ba 1b3c
00000160: 4414 103b 59c4 68bb c6b0 aeba ccab c6bc
00000170: 203b b43c 00e1 1abc d02e f03c 883b 483c
00000180: f62a 01bd 7996 463c 2aac 12bc a861 21bc
00000190: e44c 193c b622 f1b9 cf02 b43c 7e4e 86bc
000001a0: 4593 9cbb c816 38bd c978 3cbb 01c3 50bd
000001b0: 3184 cfbc b80b 11bd 65f2 54bc 8037 153b
000001c0: 42f4 153b 917f b3bc e31b 463c d7e0 8dbb
000001d0: 83e4 bc3c 8c5d 323c 3b29 803d 2f6a 163d
000001e0: d2cb bdbc 08c3 20bd e524 3abc 2d37 88bc
000001f0: d3a2 933b 3d38 49bc 77ba 6e3c b319 30bc
00000200: c05c d63c ec89 493c 4b84 1bbc 3265 913c
00000210: a250 3dbb 53c2 b6bc df21 d1bc d533 8fbc
00000220: 1e57 803b fe7b d6bb 8eda 80bc 8a9e dabc
00000230: 25d7 11bd bc31 19bd c0f7 87bb 39db f6bc
00000240: 8ea4 bbbb 4690 973b efcb 293c c040 b33b
00000250: 5eb1 b03c a442 b13c 15cb c63c 9e77 f7bb
00000260: 85c6 3fbc 10d5 ae3b 659d 60bc 8a3b 5dbc
00000270: 0396 6f3c 6ed0 d13c c512 4cbc fcf1 a6bc
00000280: 6b98 a2bc 2e7b 43bd d8c7 63bc 98df 8fba
00000290: bbbe 08bd 4c68 d5bc a549 273c 9da2 b13c
000002a0: 720e 5d3c 1d0b 5e3a db2b 9abc b328 12bd
000002b0: 7e86 a2bc eb5d 0a3c c2ab a83c 4c55 b3b9
000002c0: 7856 28bd 9fe5 eabc 5bc1 5cbc bf2e 863c
000002d0: 3d51 933d e9d0 be3c 6e4a 693c 10d5 7abc
000002e0: b036 d4bc a134 b13b a9ab 1fbd 8a0f c0bc
000002f0: eaa9 42bd 870b debb b73e 06ba f33a 05bc
00000300: 31e4 e1bc 674d 2ebd 25c0 d1bc fad4 153d
00000310: c250 003d 81fe 273d 8e8b 373d e1ff 483d
00000320: 728a b9bc a554 94bd 943b 17bd e8a7 91bc
00000330: da03 213a 9eac e4bc 0a54 563a c0c4 26bc
00000340: 0b5a 863c 6430 023c f09c bcbc 819e 5e3c
00000350: 4f20 58bc 3224 8b3c 7db2 92bc 25c3 adbc
00000360: 8a24 babc 6718 86bc 92c3 6ebc f5c9 21bd
00000370: ed49 5d3d 15e1 253c a8f4 653c 90a4 6abb
00000380: c62d 28bc b940 59bd b26b 5bbc 568c 03bd
00000390: 007b e6bc eda7 17bb adc1 ecbc fb79 cdbc
000003a0: 3b40 5bbc 30eb 0cbd b839 ea3b d71f fdbc
000003b0: a421 fd3c 9773 2c3d da9f 843d 6c8d 603d
000003c0: 4e7a 9fbc dab5 26bd 761b 57bb f183 95bc
000003d0: 7ebb 8cbc 6790 c6bc 724f 9cbb 3b3c 5d3b
000003e0: fbc5 4eba 4cf8 e0ba 9aa1 00bc f895 b03c
000003f0: 7886 e63c a51e 31bc 5f39 4abc 295f b9bc
0.04610907 0.057097826 0.011326875 -0.01686999 -0.02000242 -0.027887765 -0.01104197 0.0013523836
-0.013135548 -0.043182943 -0.00413558 -0.01846613 -0.004678106 -0.023731481 -0.027263043 0.0031222736
0.0019425051 0.05190801 0.04096003 0.07746786 -0.03814307 -0.056079358 -0.004791854 -0.013857343
-0.011647962 -0.028363591 0.023951339 0.019034036 0.03594605 0.0120833805 0.023822758 -0.018516758
-0.021594035 -0.026773764 0.017000102 0.013558579 0.026162175 -0.03447081 -0.0388876 -0.041892406
0.013514869 0.037029464 0.02018588 0.020717029 -0.040524032 -0.04081733 -0.015429298 -0.03593873
-0.019645238 -0.03386687 -0.011462282 -0.043576594 -0.019197421 0.0062856018 -0.0039049583 0.0059612137
0.042362224 0.037936162 0.013560012 0.046816014 -0.026318159 -0.055595614 -0.03583872 -0.022490738
-0.03090806 -0.010988865 0.006157074 -0.002575342 0.020250192 -0.0038219516 -0.0138089 -0.02557042
-0.044064667 -0.032123912 0.027779052 0.0029214069 0.011258494 -0.04690512 -0.026095277 -0.025981037
-0.037646297 -0.08388073 -0.03616086 -0.021157403 -0.014123339 -0.022357566 -0.00055367744 0.009504964
0.0021984736 -0.0035517423 -0.0013327829 -0.024251841 0.02200085 -0.009453058 0.029319197 0.012221225
-0.03153511 0.012120836 -0.00895218 -0.009849943 0.009356711 -0.00045992964 0.021973995 -0.01639485
-0.004778298 -0.0449436 -0.0028758517 -0.05096722 -0.025331588 -0.035411566 -0.0129972445 0.0022768676
0.0022881185 -0.021911414 0.01209161 -0.0043297815 0.023058182 0.010886561 0.06257864 0.03672236
-0.023168478 -0.039248496 -0.011361335 -0.016627872 0.004505494 -0.012281475 0.014570824 -0.010748315
0.026167274 0.01230095 -0.00949199 0.017748449 -0.0028887172 -0.022309458 -0.025528846 -0.01748077
0.003916635 -0.0065455427 -0.015729215 -0.026686925 -0.03560557 -0.037400946 -0.004149407 -0.03013383
-0.0057264036 0.004625353 0.010363563 0.0054703653 0.02156895 0.021638222 0.024266759 -0.0075521013
-0.011705046 0.0053354576 -0.013709401 -0.013502965 0.014623168 0.025612082 -0.012455647 -0.020379059
-0.01984807 -0.047724895 -0.013902627 -0.001097667 -0.03338502 -0.02605071 0.010210429 0.021683985
0.013492214 0.0008470284 -0.01881974 -0.035683345 -0.019839521 0.008445243 0.020589713 -0.00034205092
-0.041098088 -0.028673945 -0.013473834 0.016379712 0.07193229 0.023292976 0.014238937 -0.015309587
-0.025904983 0.005407885 -0.038982067 -0.02344491 -0.047525324 -0.0067762765 -0.00051210396 -0.00813173
-0.02757463 -0.042554285 -0.025604317 0.036580063 0.031327017 0.0410142 0.044810824 0.04907215
-0.022649024 -0.07242707 -0.036922053 -0.01778026 0.00061422365 -0.027914342 0.0008175975 -0.010178745
0.016400358 0.007946108 -0.023024052 0.013587595 -0.013191297 0.016985033 -0.017907375 -0.021211216
-0.022722501 -0.016369058 -0.014572995 -0.03949924 0.05402558 0.0101244645 0.014035381 -0.0035803653
-0.0102648195 -0.05304024 -0.013392376 -0.032116257 -0.028134823 -0.0023140863 -0.028900946 -0.025082579
-0.013382013 -0.03440398 0.007147994 -0.030898971 0.03089983 0.042102423 0.06475802 0.05482237
-0.0194675 -0.04070077 -0.0032822764 -0.018251391 -0.017179247 -0.024238778 -0.004770213 0.0033757824
-0.0007887778 -0.0017163842 -0.007851029 0.021555886 0.028140292 -0.010810529 -0.01234278 -0.022628384

feature_projection_low.bias f4 [6]
00000000: ff63 0fbd 0cf4 a7bb 29bf 073d 8ddd f43b
00000010: c1d2 a1bb abf0 91ba
-0.035007473 -0.005125528 0.03314129 0.0074727 -0.004938454 -0.0011134347

feature_projection_high.weight f4 [16, 6]
00000000: 2668 3cbd 5eba d03c 4220 9cbc 324b a9bd
00000010: 66d1 a03b 6899 0f3d 2c40 46bc 94d9 b33c
00000020: 9805 b83c de25 e3bc f743 013d a35f 8abc
00000030: 5c0a 99bd 9237 1e3e d02b 25be 8327 8cbb
00000040: 42e2 ae3d b04b 2c3e f857 103d e84a 3c3d
00000050: 775d 793d ae3d 303d 7ce7 943d 6a85 2d3c
00000060: 2f8b 68be 63c3 36bd 7085 3fbd 8cd2 5d3d
00000070: 9e26 54bd 5d68 723d f55c 273d 8747 6cbd
00000080: 93ae a1bd bd2e 62bd a6da 363c 2488 27bd
00000090: 31fc 05be bd6d bebd 74f0 80bd 7f39 42be
000000a0: 376c db3d b338 afbd 1f5f 09bb f1e3 9abd
000000b0: 2ec2 373a af12 5b3c 7cf7 f2bb 580c 5cbd
000000c0: 94e1 1b3d 7d84 d9bc de48 75bd 2dd9 dcbd
000000d0: bd5e 19bd fdc4 57bd 17f9 da3c e6b4 b2bb
000000e0: 9d7f 093c df86 b9bc 0c67 3a3d d58c e2bc
000000f0: b3ae 473e b5c7 26be 0157 943d f9f4 caba
00000100: a170 6dbe f083 c9bd a49a d0bc 4922 d23b
00000110: 6cba 6c3d 3a89 073e ccda c2bd 3c27 59bd
00000120: 0716 92bc b2e1 b0bd 35b5 0e3c e094 83bd
00000130: 5e0f 923a 188c afbc caab 1c3b ed32 ebbd
00000140: 383e 07be 8f76 b3bd 87a0 7e3d 6987 8e3b
00000150: 2b91 723a f07d 8f3d ac19 ab3c 688f ebbb
00000160: 0007 343d 4f8e 173c 2cac fb3d 38fd 26be
00000170: 13d5 f4bd fb75 27bc c380 8a3d b153 b33d
-0.04599776 0.025479492 -0.01905835 -0.082662955 0.0049077747 0.03505841 -0.012100261 0.021954335
0.022463605 -0.027728017 0.031558957 -0.016891306 -0.07472679 0.15450886 -0.16129994 -0.004277171
0.08539249 0.16825747 0.035240144 0.045969874 0.06088015 0.043027572 0.07270715 0.01059089
-0.22709344 -0.04461993 -0.046758115 0.05415587 -0.05179464 0.05918156 0.040860135 -0.0576854
-0.078946255 -0.055220354 0.011160528 -0.04090132 -0.13084485 -0.09298275 -0.06295863 -0.18967246
0.10714 -0.085557364 -0.0020961238 -0.075630076 0.0007009831 0.013371154 -0.0074147563 -0.05372271
0.038056925 -0.026552433 -0.059883945 -0.107836105 -0.037443865 -0.052678097 0.026730103 -0.0054536937
0.008392242 -0.02264732 0.04550843 -0.027655045 0.19500236 -0.1628712 0.07243157 -0.0015484384
-0.23187496 -0.09839618 -0.025464363 0.0064127785 0.057794973 0.13235942 -0.095143884 -0.053015932
-0.01783277 -0.08636798 0.008710195 -0.0642488 0.0011143496 -0.021429107 0.0023906105 -0.11484323
-0.13207328 -0.08762848 0.06216481 0.0043496382 0.0009253199 0.070064425 0.020886265 -0.007188726
0.04395199 0.009250238 0.122886986 -0.16307533 -0.11954703 -0.010221 0.067628406 0.08756197

feature_projection_high.bias f4 [16]
00000000: f57f 40bd 5aa5 8abd d973 07bd a538 a5bc
00000010: e137 d23d 4725 6d3c ab6e 5b3e b319 993a
00000020: 100d 163e 58eb 03bd fc94 1d3e d906 583c
00000030: 44d7 19bd 9b9b 023e 3f06 93bd 1999 3c3e
-0.04699703 -0.067698196 -0.033069465 -0.020168612 0.10264564 0.01447422 0.21428935 0.0011680633
0.1465342 -0.032206863 0.15388864 0.013185226 -0.03755881 0.12754671 -0.07178926 0.18417777

feature_norm.weight f4 [16]
00000000: c0b1 bd3e 47c2 b73e 4ebe 073f 62c0 c33e
00000010: eccc 173f c8de b83e 1501 0e3f ea1a bd3e
00000020: b7f7 cc3e 01e2 b83e 1a84 283f bdb6 e43e
00000030: 9c75 c33e bf3a cd3e 5170 b83e f61e ff3e
0.37049675 0.3589041 0.53024757 0.38232714 0.5929706 0.3610747 0.554704 0.36934596
0.4003274 0.36109927 0.6582657 0.44670668 0.38175666 0.40083882 0.3602319 0.4982831

feature_norm.bias f4 [16]
00000000: ee3e 733b 5c00 3339 32e3 ebbc e934 c33a
00000010: 36cc 893c b546 92bb 558b 673c dc2d 73ba
00000020: 066b bd3a 39e8 5db9 f881 bfbb 61ed de3b
00000030: 05bc 37bc 4b68 e63b 8f7a c6ba a7cf a7bc
0.0037116366 0.00017070904 -0.028794859 0.0014893088 0.016821008 -0.0044639953 0.01413234 -0.0009276548
0.0014451451 -0.00021162712 -0.005844351 0.0068032 -0.011214261 0.0070314757 -0.0015142726 -0.020484759

spatial_module.u f4 [8, 10, 6]
00000000: c976 2b27 53d8 10b5 9e32 082f 32e7 6a35
00000010: d51b 022d fb91 0a9e 706f 51a0 7b44 b035
00000020: 83b7 9e34 2419 edb5 ff98 6fb5 76a8 b8b6
00000030: 236e 11a5 3f1d 6e9f 8502 4da2 cb4a e02f
00000040: b4f2 88b1 62b8 0cb5 103f a1b4 0e3d 942b
00000050: f552 1438 6193 a39d 384f 299f 5d80 caa0
00000060: 1b86 34b4 99f1 c421 0f41 9fa8 8189 dd30
00000070: ce19 cf32 4b89 379e db07 91a8 ddcb 962b
00000080: 7d76 0238 09ca 0ab7 9d91 839f 876f 189a
00000090: e1f7 6b37 51a3 f6aa abfa ec1f 913f b8b5
000000a0: 3f30 b01e a5f4 ffb1 fe5a 3f1e 1835 d49b
000000b0: 0eea af26 6fbc 3da0 f5aa d0b0 e5f8 26b6
000000c0: eb7c a8b7 8f8d 1c9f 6ad1 d72c a638 1ea0
000000d0: 44f5 0626 e60f ecb0 bb92 c530 c243 872a
000000e0: b48e 1532 0391 d137 e185 e7b2 bbe1 b628
000000f0: f60b d7b3 64d4 9f30 109d 79ab e74b 5135
00000100: f30b 02b2 13ce 9b28 a455 0938 2248 f6b4
00000110: 3a2b 4fb0 8093 14a1 0cfa 91b6 428d 8320
00000120: c47d 11a4 ddbb 8735 4d70 159e 16bd bbb6
00000130: fd08 882a 4cf3 4438 d323 8ab3 4de2 0d20
00000140: 70b0 e5b2 a61b 4a26 eebc 87a1 d505 05a6
00000150: e4d0 c6a3 a7a0 98b7 22e6 d09f a364 eea3
00000160: 0e1e 0c1f 6450 1b21 76a3 d627 708e ab37
00000170: cbc8 17b5 08af c6b4 e888 1433 b77a c92c
00000180: db95 a4ac bc80 96a9 b083 cd1e 3970 caa5
00000190: 297c a635 6ddf b031 23e3 aa9d bb2e b61c
000001a0: 8ea6 d622 d1ed ad28 8248 da22 e9a4 5c21
000001b0: 628c 0f1f 9d95 0831 6ebc c09e 660d b320
000001c0: 881b 012d f686 3f23 2062 5cb7 d90a d79f
000001d0: 70fa 4d22 411f 479f 5613 2432 409c 141f
000001e0: f850 0c20 1659 02b2 4549 6ab7 275a 1427
000001f0: e042 4328 dde3 1fb4 6c90 4b20 929a 5720
00000200: b329 0236 3c00 b421 61f8 ad35 73c9 4732
00000210: d4ec c329 f1ce 3b31 ad24 15a1 2ac3 c3a1
00000220: 7582 20b6 7907 a99f 448e 5d9e de0f 4126
00000230: 888c 88a1 6e7b 1ca5 0f7e 0a31 e401 4d23
00000240: e13d 92a7 067d dc1d 6184 2aa5 dd73 d421
00000250: ae3d 7136 0658 9120 9f70 b69e 6b21 a9b6
00000260: 8fd6 5b37 8e51 a49e b974 9933 0ddc 8eaf
00000270: 2648 dfb5 e454 9c9e 4aa1 13b5 f9bc 841e
00000280: 7e27 b91c 9bc4 0da1 9b33 89ac e960 102f
00000290: e05b b3b6 2310 1bb5 b5e8 caaa ecf4 c82c
000002a0: 9162 8c9e 1ee3 3ca0 54a1 8f9f 777e a4a9
000002b0: 8365 d79b 7b81 ffa1 237d bba4 b7b1 03a7
000002c0: 15dd 7e1f 1f95 032f 60ca c49c f18a 2820
000002d0: b70e a135 48b9 3535 2cb2 341c 3530 86b5
000002e0: df39 6d9f d2e5 6220 3461 e0b4 3543 f6b6
000002f0: d0ca c01e c91f 0d38 6d75 e8b6 fcd5 dba6
00000300: 39f2 b121 41dd b4b6 c1d7 0a2d 3c6f b434
00000310: ed23 2d34 663c 4db3 cf0e 8821 d226 6bb5
00000320: f94d 01a4 c7e9 36b1 d5a9 8624 78f2 c525
00000330: 23f3 28a0 990a 7830 59b8 2724 c5bb 829e
00000340: ba32 0435 a5e6 b41f c009 031f 9506 f01b
00000350: 01b3 6d20 255a 71ac eecb aca7 5b89 a428
00000360: 82bd c137 abf7 5d2a b47e 941f 2d2e 8636
00000370: 7d05 599f 3e7e fb2c 151e 1cb6 b03d f936
00000380: d8f3 9a37 9c06 aab3 208a ebb6 7537 9da0
00000390: 9492 082d aa3a 4d20 8443 1125 2059 821e
000003a0: 16f7 1132 b8c1 d59f a271 b9a0 6763 2fb6
000003b0: 51fc 6b20 048d 99b7 0a25 d220 a6da 411d
000003c0: b9a8 44aa b0a8 811f 7c94 9b9e c329 8630
000003d0: 3458 a3ac b7a7 48b5 97c5 87b3 4796 a1a0
000003e0: 3281 bcb2 dee9 bda0 4c7e 9daf b947 24b4
000003f0: e4cf 9920 65b4 9bac 502f 95a0 0d75 43b8
2.379541e-15 -5.3958973e-07 1.2387111e-10 8.7508226e-07 7.395824e-12 -7.335847e-21 -1.773986e-19 1.3132952e-06
2.9563316e-07 -1.7665193e-06 -8.9257077e-07 -5.5032388e-06 -1.2614061e-16 -5.0422652e-20 -2.7784014e-18 4.0798506e-10
-3.985713e-09 -5.2422376e-07 -3.003447e-07 1.0532979e-12 3.536321e-05 -4.3298127e-21 -3.585267e-20 -3.4305075e-19
-1.6812594e-07 1.3345427e-18 -1.768076e-14 1.6118947e-09 2.4109706e-08 -9.716331e-21 -1.610164e-14 1.0714724e-12
3.1104766e-05 -8.272481e-06 -5.5721555e-20 -3.1522954e-23 1.4064805e-05 -4.3811702e-13 1.0036458e-19 -1.3727569e-06
1.8654679e-20 -7.4492896e-09 1.01302726e-20 -3.510677e-22 1.2206505e-15 -1.607127e-19 -1.5182581e-09 -2.4880803e-06
-2.008533e-05 -3.315138e-20 6.133917e-12 -1.3401864e-19 4.6822986e-16 -1.7175779e-09 1.437534e-09 2.4027834e-13
8.705388e-09 2.4982268e-05 -2.695282e-08 2.0303954e-14 -1.00138934e-07 1.1629138e-09 -8.868054e-13 7.796902e-07
-7.569713e-09 1.7297827e-14 3.2743104e-05 -4.5873554e-07 -7.536759e-10 -5.0339565e-19 -4.350446e-06 2.228574e-19
-3.154839e-17 1.0112959e-06 -7.9112176e-21 -5.595047e-06 2.416469e-13 4.695663e-05 -6.432642e-08 1.2018041e-19
-2.6739343e-08 7.01203e-16 -9.197965e-19 -4.615155e-16 -2.1555672e-17 -1.8194622e-05 -8.847215e-20 -2.5846633e-17
2.9671014e-20 5.262244e-19 5.9574157e-15 2.0451116e-05 -5.6544076e-07 -3.7007726e-07 3.458345e-08 5.7263877e-12
-4.6777976e-12 -6.68367e-14 2.1759684e-20 -3.511746e-16 1.2404099e-06 5.1476747e-09 -4.523348e-21 1.2055829e-21
5.8181163e-18 1.9309995e-14 5.916579e-18 7.4757156e-19 3.039755e-20 1.987565e-09 -2.0406723e-20 3.0332646e-19
7.338914e-12 1.038271e-17 -1.3135868e-05 -9.107399e-20 2.7915261e-18 -4.2165742e-20 9.550453e-09 3.1469466e-20
1.1885252e-19 -7.587252e-09 -1.3964546e-05 2.0587998e-15 1.0839176e-14 -1.4890925e-07 1.7242554e-19 1.8262351e-19
1.9395782e-06 1.2197336e-18 1.2961792e-06 1.1629129e-08 8.700823e-14 2.7329714e-09 -5.0531704e-19 -1.3265373e-18
-2.3917794e-06 -7.1586647e-20 -1.17290624e-20 6.698183e-16 -9.252917e-19 -1.3572663e-16 2.01533e-09 1.1113473e-17
-4.059023e-15 5.8362786e-21 -1.4790001e-16 1.4396348e-18 3.59477e-06 2.4622204e-19 -1.9316579e-20 -5.040483e-06
1.3103373e-05 -1.7397906e-20 7.1458494e-08 -2.5986005e-10 -1.6635793e-06 -1.6552252e-20 -5.4996474e-07 1.4054201e-20
1.2252482e-21 -4.8032863e-19 -3.8995035e-12 1.3131153e-10 -5.3453114e-06 -5.776548e-07 -3.604388e-13 5.7115337e-12
-1.4863843e-20 -1.5999366e-19 -6.082975e-20 -7.305001e-14 -3.5634367e-22 -1.7313745e-18 -8.131031e-17 -1.8276241e-15
5.3969467e-20 1.1967359e-10 -1.3022505e-21 1.4276125e-19 1.1999717e-06 6.7697374e-07 5.9787286e-22 -9.997808e-07
-5.0234572e-20 1.9218986e-19 -4.1793976e-07 -7.3391952e-06 2.0412672e-20 3.3646622e-05 -6.927809e-06 -1.5254178e-15
1.2058102e-18 -5.3901754e-06 7.892299e-12 3.3608546e-07 1.612495e-07 -4.7785214e-08 9.219638e-19 -8.7600813e-07
-2.803846e-17 -2.6617373e-09 5.840094e-17 3.4338356e-16 -1.4310601e-19 9.0236935e-10 3.63685e-17 -1.3841945e-20
4.924765e-07 7.6614535e-20 2.7748394e-20 3.9708923e-22 2.0133908e-19 -3.42982e-12 -4.796069e-15 1.8267226e-14
2.309564e-05 1.971467e-13 6.289005e-20 3.9988868e-06 -4.5956077e-20 7.1478648e-12 -2.3263322e-06 7.4279596e-06
1.847178e-05 -7.917444e-08 -7.0196256e-06 -2.6633533e-19 7.763252e-12 1.7383586e-19 1.259962e-16 1.3801147e-20
8.496292e-09 -9.052949e-20 -3.1415415e-19 -2.6134892e-06 1.9988759e-19 -1.8304687e-05 3.5599894e-19 2.5656376e-21
-1.7466834e-13 5.4912695e-20 -1.6472675e-20 9.761653e-10 -4.642531e-12 -7.4749863e-07 -6.322369e-08 -2.7373906e-19
-2.1944832e-08 -3.2172606e-19 -2.8647873e-10 -1.5299783e-07 2.6056779e-19 -4.4253928e-12 -2.527289e-19 -4.6600635e-05

spatial_module.v f4 [8, 6, 10]
00000000: 534f 9d9f 9bd3 fab1 6a37 b69f 9458 d026
00000010: 4b49 55aa 2a0a ebac d943 9931 21e8 b5a0
00000020: f8dd 6a9f 3fea 88a0 2b3c 141e 40bd 3b9d
00000030: 2c3c cc24 8a35 d621 e51c 8c36 e18f 201e
00000040: cc73 9723 c2a5 8d9e 146a 99b6 cdde 4aa0
00000050: 6fc5 c430 0674 a720 ece9 14a1 21f6 abb5
00000060: e498 16a1 def4 0da8 b695 b2ae 07ec 5623
00000070: 5ddb ebab d494 0fa1 d3a6 3ea3 bef2 86b5
00000080: dc49 352a 8f64 c020 d028 f31e a06a 6632
00000090: 9585 49b5 53b8 c51f 81c1 f5b4 edf2 3c2f
000000a0: d049 f49f 0209 b49c 12c9 8da1 d2b4 8620
000000b0: d89e 7824 a2f9 2b9f 6796 5f33 2557 e7af
000000c0: 7234 031f 7964 941f 6fb0 9e9f e1d7 3fa1
000000d0: 70db f033 7c9c ba1f 6d5b 371f 4db1 eda5
000000e0: 3edf c79f da9e 7e2a b2cd 812a 501e ec22
000000f0: 5d4c 16a1 99b5 2034 dcbe 97a6 bcad a920
00000100: 9e76 5fa1 88b6 08ad e07f c1b2 cda8 9aa1
00000110: d7f7 f7a6 7cca eea5 7733 001f 118a 39b1
00000120: 13ca 1e21 08f1 1b1f c06d 94a2 a453 9f34
00000130: b906 5123 4bd0 84a0 6e10 0da6 545a bfb5
00000140: 6f84 ecaa 7891 2c1e 0c8c 3a27 a4f7 4f9f
00000150: 55b2 a29d dc7f 0cad 33e1 f726 f653 b51f
00000160: f6ba 24a2 3b6c f520 53f7 9320 654a 80b6
00000170: dd96 0fa5 1cb2 c4a3 0c5a 2924 aa42 36b5
00000180: e8d1 b2a0 2051 7aa0 a038 4136 a2f8 3db6
00000190: c267 cd1f d161 3ca7 958f ae28 7d5a c01f
000001a0: cd46 3cb5 3ef5 7f31 1f0a 1e21 8351 12a1
000001b0: 4933 e127 21ba 9420 373f f62c dfac 4332
000001c0: 389d 8033 856e 9e31 fc63 6d21 d7b7 ea28
000001d0: 9a88 3cb3 8571 4f23 ed80 9b21 e570 0eb3
000001e0: 55ac 2eb2 63e6 92b5 120d 271e bc1d 47a0
000001f0: 3546 18a3 f165 dc35 f6e6 4ca0 3f64 cd20
00000200: c771 e51d 800c b2a8 503b 881f d65a 0c2a
00000210: de09 179e 6501 3d9f a0b9 8434 e960 1b20
00000220: a82a 9628 1c02 951f aedc 951f 4e91 55af
00000230: 3b3d 5b1f 8e4b 531e e519 a5a0 1876 2c24
00000240: 6fd7 9f22 6728 2da2 bcb6 b61f 24bc 1936
00000250: 0041 9627 b40f 0623 bc67 672b 8608 491e
00000260: 6739 969e a936 942c 3306 7323 7dc0 c6b4
00000270: ae8a 6035 bcfa 309e 6eec d01e 0d4f 8620
00000280: 6f2f 4c23 2257 782e bd79 73aa 86fd 6e1f
00000290: 29d1 f72e 6c2b a49c ceb8 fcae cb6a ae20
000002a0: e7b2 c120 2586 2f1f 0856 892c bb25 80a9
000002b0: e248 389f 46ad 91ac 0edd 1035 8051 4f1e
000002c0: 1441 aba1 f556 e5b1 d26d 0aa6 8715 f035
000002d0: 644f f2a4 9867 7a21 a65e 9f32 7b56 c3b5
000002e0: 6f8c 4020 3f19 0e20 dad0 98b6 1676 3ea7
000002f0: c10c 47ae 94df 1aa0 fd5f 0ea1 0f83 4223
00000300: 3c25 449f c0a6 f232 1d55 d49e a80b 1033
00000310: 073f 8932 93be 99b3 dcd9 8a2b 99c1 aea8
00000320: 2879 b835 6a66 bcb3 2705 f6a0 f2b5 bb21
00000330: 8ac7 a935 ee1e 1b33 5311 322e 7547 0ea6
00000340: e8d9 fa1f 6814 5035 5ff0 6223 c56a 08a1
00000350: b498 3821 57ab 61ae e968 0e24 202a 9220
00000360: 44a6 8ba1 f34d c929 f016 0721 be97 2a20
00000370: 4caa 072d 78e0 b4a8 f792 a6b3 ba30 81a1
00000380: 81ee b3b2 78ea e5b4 da8f 1f9f 8f37 0835
00000390: 4b1e bb35 3875 5ca0 eb05 1d31 d3b1 2724
000003a0: 94f0 2427 0493 a0a8 75f0 f0b5 5570 b4b0
000003b0: 2aa3 d7a2 5d36 3d1e 4c64 042c dd09 afb1
000003c0: 2de4 942d ff9b 4aa0 58b0 dfa1 aa0b 1cb6
000003d0: eb98 5734 0410 4428 f150 0123 0820 1420
000003e0: 4c4a d9a0 3aee 5c23 f3fb 4da0 4da8 a4a0
000003f0: 9890 0532 d8d4 b3b0 76c4 db22 7f40 baa0
-6.662332e-20 -7.3000144e-09 -7.717167e-20 1.4456908e-15 -1.8943629e-13 -6.68023e-12 4.4605994e-09 -3.0816203e-19
-4.9735036e-20 -2.3194307e-19 7.847497e-21 -2.4847084e-21 8.857283e-17 1.4515376e-18 4.175689e-06 8.500083e-21
1.6420495e-17 -1.4997512e-20 -4.5721044e-06 -1.7183784e-19 1.4316991e-09 2.8367678e-19 -5.0453944e-19 -1.2812126e-06
-5.1024326e-19 -7.8801694e-15 -8.121097e-11 1.1650944e-17 -1.675864e-12 -4.8647257e-19 -1.0335247e-17 -1.0054425e-06
1.6101655e-13 3.259261e-19 2.5745505e-20 1.3412006e-08 -7.507272e-07 8.3737684e-20 -4.57756e-07 1.7184805e-10
-1.0346013e-19 -1.1913729e-21 -9.607755e-19 2.282014e-19 5.3910974e-17 -3.641715e-20 5.2058024e-08 -4.2080575e-10
2.778371e-20 6.2846656e-20 -6.720749e-20 -6.499903e-19 1.1215786e-07 7.9032946e-20 3.8827383e-20 -4.123309e-16
-8.46491e-20 2.2614845e-13 2.3057733e-13 6.4000023e-18 -5.0923043e-19 1.4967226e-07 -1.0529462e-15 2.8744681e-19
-7.571233e-19 -7.771235e-12 -2.2526308e-08 -1.0480127e-18 -1.7206245e-15 -4.1423627e-16 2.7147625e-20 -2.6999525e-09
5.3799925e-19 3.3021903e-20 -4.0231683e-18 2.9676914e-07 1.1331336e-17 -2.2499507e-19 -4.894147e-16 -1.4256898e-06
-4.2013916e-13 9.1356864e-21 2.5888605e-15 -4.40388e-20 -4.3065434e-21 -7.986469e-12 1.7200108e-15 7.6795383e-20
-2.232512e-18 4.1576235e-19 2.5066434e-19 -3.823358e-06 -1.2454387e-16 -2.1325795e-17 3.6722306e-17 -6.789729e-07
-3.0293277e-19 -2.1202666e-19 2.8792201e-06 -2.8307918e-06 8.699253e-20 -2.6143267e-15 1.938015e-14 8.1464863e-20
-7.0138486e-07 3.7246788e-09 5.354588e-19 -4.9574604e-19 6.250565e-15 2.5195345e-19 6.9987588e-12 1.13898e-08
5.9890624e-08 4.61097e-09 8.043105e-19 2.6058947e-14 -4.38964e-08 1.1245531e-17 1.0537335e-18 -3.316463e-08
-1.0167317e-08 -1.0944899e-06 8.843609e-21 -1.6865794e-19 -8.2548034e-18 1.6420946e-06 -1.7355891e-19 3.4794688e-19
6.073344e-21 -1.9767391e-14 5.7696365e-20 1.2466013e-13 -7.995914e-21 -4.002346e-20 2.4721976e-07 1.3161076e-19
1.6671845e-14 6.3107444e-20 6.346904e-20 -1.942386e-10 4.6425703e-20 1.1185871e-20 -2.7969223e-19 3.7396584e-17
4.3325136e-18 -2.346726e-18 7.738231e-20 2.290829e-06 4.1703837e-15 7.26748e-18 8.2211646e-13 1.0642614e-20
-1.5905609e-20 4.2124815e-12 1.3174369e-17 -3.7020428e-07 8.364831e-07 -9.369213e-21 2.2120642e-20 2.2752794e-19
1.1068907e-17 5.646606e-11 -2.1624972e-13 5.060817e-20 1.1269414e-10 -1.0863834e-21 -1.1492461e-10 2.9547416e-19
3.281386e-19 3.7168653e-20 3.9033256e-12 -5.690887e-14 -3.9023803e-20 -4.140385e-12 5.396586e-07 1.09753426e-20
-1.1604637e-18 -6.674663e-09 -4.80272e-16 1.7887659e-06 -1.0508526e-16 8.48404e-19 1.8553077e-08 -1.4553801e-06
1.6309498e-19 1.2036221e-19 -4.5542665e-06 -2.6431811e-15 -4.525869e-11 -1.3118283e-19 -4.823851e-19 1.0544514e-17
-4.1535414e-20 2.8248337e-08 -2.2481575e-20 3.3538214e-08 1.597756e-08 -7.159283e-08 9.865958e-13 -1.940184e-14
1.3744329e-06 -8.773061e-08 -4.167743e-19 1.2719773e-18 1.2649555e-06 3.611688e-08 4.04879e-11 -4.936299e-16
1.06239614e-19 7.7515733e-07 1.2302385e-17 -4.62199e-19 6.2543726e-19 -5.1311257e-11 3.0880204e-17 2.4761238e-19
-9.463017e-19 8.939715e-14 4.5770137e-19 1.4449767e-19 7.711675e-12 -2.0081362e-14 -7.75671e-08 -8.754278e-19
-2.0946802e-08 -4.2825172e-07 -3.378855e-20 5.0744796e-07 1.3941402e-06 -1.8673509e-19 2.284987e-09 3.6362976e-17
2.288999e-15 -1.7827326e-14 -1.7951376e-06 -1.312865e-09 -5.8448623e-18 1.0016819e-20 1.8814004e-12 -5.0942917e-09
1.6926982e-11 -1.716168e-19 -1.5157746e-18 -2.32526e-06 2.0079067e-07 1.08836585e-14 7.010244e-18 1.2546686e-19
-3.6810395e-19 1.197667e-17 -1.7447538e-19 -2.7894053e-19 7.774496e-09 -1.3084458e-09 5.956808e-18 -3.1552306e-19

spatial_module.qkv_proj_low.weight f4 [18, 16]
00000000: eb8f 93bb 49f7 44bb 387f 6a3d d9a7 55bb
00000010: 7c9d aa3d dff9 51bc e5a2 09be 901a 043d
00000020: adc6 18bd 3711 dab9 8c10 363d 6fab 143e
00000030: 0860 14bd 1918 9bbd 81cd f6bb fab4 babd
00000040: 73f0 c73c ddf8 e1ba 8eb3 973d 43dd 9f3d
00000050: fd8c d8bd 486e 84bc d6b2 da3d c9fc 40bc
00000060: 2ad6 55bc 5bed 8fbb cb18 103e 1c39 abbc
00000070: 944a a2bc cdcc 4bbd 0c19 4c3a b88a bd3d
00000080: 4dd0 50bb 9499 f63a 1585 b33a 9820 bfbb
00000090: 71ba d23d 0ed7 eaba 365a 5bbd d130 eb3c
000000a0: ac18 b53d 947d 97b9 a3f4 9c3d a1d1 b23d
000000b0: b322 30ba 592e 9f3c 7e64 2b3a f4ca d83c
000000c0: bb67 b03c 9227 b93a 1ab4 9a3c 557c 1fbb
000000d0: ac42 f53d 3506 303c 865b 033e d132 b83c
000000e0: 0766 a43d b36f ea37 4d2f 89bd 176d 823d
000000f0: 59cd 9d3b e577 cb3c 7400 4bba 1166 fabd
00000100: 9c92 073b f862 a2ba 0759 8e3d 4a0e 9cbb
00000110: 8f42 843d ad1f 49bb fb33 a63d 112b f73c
00000120: 2fc8 bb3c 672c 6ab9 9632 c73d d8b2 f13c
00000130: 6f8a 29bc a98e bfbd c7d1 01bb b9cf a1bd
00000140: 38d4 703c f39d 31bb 411f f63d 6d47 163d
00000150: 5a0d d9bd 16ec acbc d349 98bd f203 23bd
00000160: 176a 9c3d e708 0bb9 d391 de3d d7e3 173c
00000170: a985 24bd f2a3 1dbd 5f4b 5cbb c246 b03d
00000180: 2b75 873b 0e5e 903a 3ac2 cabd 7a84 77bc
00000190: 6fb3 883d 7ee2 513c adcc a23d 7313 ad3c
000001a0: de4d 40bd 5fa5 2238 3c1d 34bd 8c77 f736
000001b0: 9463 f63b ed04 c3bd ed74 103a 0824 293d
000001c0: e79c 57bc 3240 00b9 d5a0 d6bd 69c5 38bd
000001d0: 61bc e6bd c95b cf3b 37b2 0fbc a994 cbbc
000001e0: cd49 9f3d c9a2 53ba df87 cb3b 773f 8fbc
000001f0: ac59 833c 1c79 133e d81d 9a3a b22e b0bd
00000200: fa79 e9bc b219 0dba 086f 6fbd 86c3 8b3b
00000210: a6a8 ea3c b72b 1e3c e97f 533d 0540 ec3b
00000220: 63da 15bc 6ce9 94b8 ef6a b6bb 0f18 aa3d
00000230: 613e 0ebc 276f 3d3c de14 01bb c84f 00be
00000240: 3ab1 a6bb 732b 3bbb d21e f43d f0c6 8b3c
00000250: 4383 a3bc e933 86bc 9cd5 7bbd c1cf a3bc
00000260: fe71 4fbc 9b27 d93a b215 b83d c999 d9bd
00000270: 54b0 9dbc b876 84bd 3962 9cbb 9e48 11be
00000280: b8a4 893b 0ad4 983a 35bd e93d a696 8a3c
00000290: 2b7a e4bd b169 75bc 3885 6a3c 2981 c8bc
000002a0: 0a4c 333d d8b5 d1b8 9061 813d ffa6 fcbd
000002b0: 6c79 b5bc 7d99 60bd 0eb9 a43b ff99 3fbb
000002c0: c6e9 2ebc 0492 18b9 3be3 29bd 2cf8 e8bb
000002d0: 8acd 2e3d 0810 0b3b 5516 2abd e26c fc3b
000002e0: c182 1bbc f0db 31b9 40ff b5bc a54b ff3c
000002f0: 1074 243c c845 c3bc 3dc8 05bb 97cd 25bd
00000300: 4c18 03bc 855a 9ab8 f965 733d 14ba a03d
00000310: 6b0d 553c eb9a 8d3c 0d93 193e b434 663d
00000320: 3692 aa3d 8b33 3bbb eac1 08be 3233 ffbd
00000330: 6575 d63c f2ad d5bd ae36 8c3b 8c39 93bd
00000340: f260 2bbc 7130 6eb8 bb58 43bc 5d85 81bc
00000350: 419e 583d a4b6 ca3a 78db eabc 7a74 bb3c
00000360: d3d6 2c3d 314e 84b8 293e afbc 27d7 92bc
00000370: 2ed6 d83a 935a a13c 7c30 84ba c5c6 25bd
00000380: d497 80bb 6cc8 01ba 33c0 b43b e6c7 18b9
00000390: e529 a0bc 3eb9 e2ba aee8 023c 1f27 45bb
000003a0: d2fd d1bc a707 14b8 f3f9 59bb ceea 4f3d
000003b0: 88d8 75ba 4a60 583b 4643 0dba fa54 c23c
000003c0: b980 e3ba b4fb acba 484e 15bd 6ae6 29bd
000003d0: eff6 ad3c 8d26 46bc 6b53 6bbc 317e 45bc
000003e0: 6c0a bb3d 9e37 4e38 27f6 923d 9a5b e23c
000003f0: c807 9fbc f526 003c b270 adba 81ae adbd
-0.0045032403 -0.003005462 0.05725023 -0.0032601266 0.08330819 -0.012815922 -0.13441046 0.032251894
-0.037298847 -0.00041593026 0.044449374 0.14518522 -0.036224395 -0.07572956 -0.007531822 -0.0911655
0.024406647 -0.0017240305 0.07407294 0.07805874 -0.105737664 -0.016165867 0.106786415 -0.011779019
-0.013051549 -0.0043923086 0.14071958 -0.020901255 -0.019810952 -0.04975586 0.00077857147 0.09254974
-0.0031862438 0.001881408 0.0013696278 -0.005832743 0.10289467 -0.0017916874 -0.05355283 0.0287098
0.088425964 -0.00028894527 0.07663848 0.0873139 -0.0006719038 0.01943128 0.0006538107 0.026463963
0.021533838 0.0014126173 0.018884707 -0.0024335582 0.11975607 0.010743667 0.12827882 0.022485169
0.08027273 2.7946988e-05 -0.06698475 0.063684635 0.004815739 0.024837444 -0.0007743903 -0.12226499
0.0020686751 -0.0012389114 0.06950574 -0.0047624456 0.064580075 -0.0030689046 0.08115383 0.030171903
0.022922603 -0.0002233252 0.097264454 0.029504225 -0.010347947 -0.09353382 -0.0019808875 -0.07900948
0.014699034 -0.0027102202 0.1201768 0.03668921 -0.1059825 -0.021108668 -0.07435956 -0.039798684
0.076374225 -0.0001325939 0.108676575 0.00927063 -0.04016653 -0.03848643 -0.003361426 0.08607246
0.0041338406 0.0011014359 -0.09900327 -0.0151072685 0.06674849 0.012810348 0.07949195 0.021127438
-0.04694926 3.8777824e-05 -0.043973193 7.3750907e-06 0.007519195 -0.09522424 0.00055105874 0.041294128
-0.013159967 -0.00012230946 -0.10479895 -0.04511014 -0.11266399 0.0063280803 -0.008770517 -0.02485116
0.07777748 -0.0008073268 0.0062112655 -0.017486317 0.01603397 0.14401668 0.0011758162 -0.086026564
-0.028500546 -0.0005382552 -0.058455497 0.0042652516 0.028644871 0.009653977 0.051635657 0.00720978
-0.009146306 -7.100668e-05 -0.0055669467 0.0830537 -0.0086818645 0.011562145 -0.0019696276 -0.12530434
-0.005087045 -0.0028559833 0.11919941 0.017062634 -0.019960051 -0.016382175 -0.06148301 -0.019996526
-0.012661455 0.001656759 0.08988513 -0.10625035 -0.019249119 -0.06467956 -0.0047724512 -0.14187858
0.004200544 0.0011659872 0.114130415 0.016917538 -0.11156114 -0.014978812 0.014313988 -0.02447565
0.04377369 -9.999768e-05 0.06317437 -0.123365395 -0.022152625 -0.054833878 0.005026943 -0.0029236076
-0.010675853 -0.00014550245 -0.04147647 -0.0071096625 0.042676486 0.0021219272 -0.041525204 0.0077034095
-0.009491623 -0.00016961969 -0.02221644 0.031164 0.010037437 -0.023836985 -0.002041354 -0.04047927
-0.008001398 -7.360153e-05 0.05942342 0.078479916 0.013003687 0.017285785 0.14997502 0.056202605
0.08328669 -0.0028564658 -0.13355222 -0.124609366 0.026179025 -0.10433568 0.0042789793 -0.071887106
-0.010460125 -5.6788736e-05 -0.01192301 -0.015810663 0.052885298 0.0015465808 -0.028669104 0.022882689
0.04219706 -6.308815e-05 -0.021391945 -0.017924858 0.0016543323 0.01969651 -0.001008525 -0.040472765
-0.0039243493 -0.00049508247 0.005516076 -0.00014570318 -0.019551227 -0.0017297638 0.0079900455 -0.0030083132
-0.025633726 -3.5293077e-05 -0.0033260554 0.050761037 -0.0009378274 0.0033016377 -0.00053887477 0.02372216
-0.0017357088 -0.0013197572 -0.036451608 -0.041479506 0.021235911 -0.012094152 -0.01436315 -0.012054012
0.09132847 4.9166025e-05 0.07175856 0.02763157 -0.01941289 0.007821788 -0.0013232438 -0.084805496

spatial_module.qkv_proj_low.bias f4 [18]
00000000: 733d 2cbb 8e27 0dbd 4ad5 d93d e759 983d
00000010: be0a d43c 54ae ce3d dc4b 32bd 3239 023e
00000020: c253 823d 1772 7abb cc3d d4bd 05b8 43bc
00000030: 4ffd dcbc 4171 153a ea5e 88bc abcc 3c3c
00000040: ed00 3e3c 56cd fdbc
-0.0026281744 -0.03446155 0.10636385 0.074390225 0.025884029 0.10091844 -0.043529376 0.12717131
0.06363632 -0.0038214976 -0.10363349 -0.011945729 -0.026976256 0.0005700775 -0.016646821 0.011523406
0.0115969 -0.0309817

spatial_module.qkv_proj_high.weight f4 [48, 18]
00000000: 3c91 8e3c 7a7c 7cbc 4232 263c c988 89bc
00000010: 4b3b cebc 1e3a 9e3c 99d1 15bc c687 82bc
00000020: 672b aabc dcce 59bc 99a6 22bc be74 2a3b
00000030: 0ed7 aebc 5fa7 a93a 8454 8c3b 6e6b 80bc
00000040: a789 02bb 63ce f8bc fbea 8d3c cf7c 7fbc
00000050: 815f 2c3c 63c0 8bbc 5b38 cdbc 4e22 a03c
00000060: 2ec6 20bc 724d 86bc cbdb a5bc 1496 5abc
00000070: 66f1 23bc f7a1 2a3b 8f1a afbc 10e4 1e3a
00000080: e9bb 903b 7334 84bc 731c 0cbb 3de1 fbbc
00000090: abe3 d7bd e2a5 6c3d 202b 17bd 4423 e93c
000000a0: c0f4 583b b650 56bb 8dab 8c3b 09c6 123d
000000b0: 7120 293b a88a 8c3c 8f55 3d3d 69c3 d0bc
000000c0: 631b 5c3d e165 3bbc 83de 10bc be57 d1bb
000000d0: 26a1 3fbc 7338 8e3c bffa c1bd e519 6f3d
000000e0: d415 edbc 6e7a 613c e6cb 753c 1799 83ba
000000f0: 9ed2 933b 917b 113d fe40 89ba 1e26 52bc
00000100: 9756 4b3d bc8c d7bc 6cb2 5f3d c36b 18bc
00000110: 3687 17bc 7ad4 563b 727e 57bb 23bc 953c
00000120: 8a67 ac3c 7321 89bc 7008 03bb 03b9 f33b
00000130: 1d2d a13c 0270 a4bc e041 4c3c 9478 15bc
00000140: 0947 8e3c 5671 ab3b af6f 84bc 95dd 153c
00000150: efdb 933b 25e7 e33b af87 7a3b f1d2 153c
00000160: 18fe fc3b eef8 833b 042a b839 2136 86bc
00000170: 1be5 32bc d049 f33c e538 f93b 4dd9 04bd
00000180: c7ce 613c 9cf5 94bb f252 6a3c fba4 06bc
00000190: 941a 85bc 4dbd 8f3b c079 3c3c 3089 993b
000001a0: bd9e cdbb e7b0 903b 0ee8 bd3a 8f35 3b3c
000001b0: d636 903b 08f5 3e3a 5fd7 f93a fea5 593c
000001c0: c897 1d3c 1659 d7bb b064 553b 7b1c 793a
000001d0: 6f81 003c 28b9 233b 8615 44bb 638b 1138
000001e0: 4972 ab3b 33cf 433a 1df3 b4ba 4352 c03b
000001f0: 10bf 14bb e0e9 fa3b aba4 59bc fed0 953a
00000200: 9c31 433b 23f5 053c bdb8 1e3c bbb3 293b
00000210: 8cce 273b 9145 dd3a f84d 263c 238f 8d3a
00000220: 3976 57bb 6c84 0f3b 8f88 7a3c 60f8 7f39
00000230: 29a0 703b 9d17 bab7 5502 dbbb f99a 273c
00000240: de0c 1e3d c714 b2bc 7142 8f3c bd82 8e3c
00000250: a43f 983c 0632 8bbc ccbb c73b a8ab d8bb
00000260: a517 b73c 6d73 983b 458e e9bc d802 5f3c
00000270: b954 9bbc 607a c63b 7fd1 393a 9545 703c
00000280: dd58 eb3b 6db0 7c3c 02d2 193d be26 babc
00000290: 9aa1 903c 0872 903c 5f34 943c e83b 96bc
000002a0: 25c5 df3b 9f8d d7bb 071c b33c bab8 993b
000002b0: 81c0 e3bc 90bc 5c3c d998 9bbc b7be c53b
000002c0: efdc 3f3a 0708 783c 59a3 df3b 5b93 7e3c
000002d0: cc6b 273b d62d 04bc 8dd7 573b 4870 92bc
000002e0: 7885 dabc 88b5 9b3c 530f 21bc ceb1 2ebc
000002f0: 6505 b9bc 23a1 4dbc f352 6a3a b6dc c9ba
00000300: 96d0 14bc 5875 c8b9 c350 5a3b 7073 92bc
00000310: c000 abbb f0f3 edbc e1bd 093b 7f05 08bc
00000320: 5a2c 093b 896a 91bc d4b5 b6bc eb01 8e3c
00000330: de5b 23bc 11da 43bc 966f b6bc ab60 48bc
00000340: f4af fb3a c62a a8ba e502 18bc a9ca 4bba
00000350: 7a8d 7b3b 27a7 96bc 083b a9bb 0353 f5bc
00000360: 1d17 423d abc8 f8bc 71e7 b43c b706 f83c
00000370: e19c ee3c d284 0bbd 5522 6d3c c715 c1bb
00000380: cc71 133d 9867 063c 6ec8 23bd 6b11 9f3c
00000390: 5f5e 86bc 07ca 103c f1a1 5339 6a4f bc3c
000003a0: d622 283c a6ef d73c 2d5d 323d 79c2 fabc
000003b0: 5989 ca3c 593f 013d 0646 f63c cfb1 04bd
000003c0: c7ef 6c3c 6548 d2bb adda 013d 7d07 e73b
000003d0: af26 20bd 8637 973c 8e6f 86bc 7e0f 143c
000003e0: 23a0 a7b8 b212 ae3c d53b 2c3c d3b1 df3c
000003f0: 4444 0b3b ad27 5e3b b770 c4ba 918e 0abc
0.017403238 -0.015410537 0.010143818 -0.016788857 -0.025174757 0.019314822 -0.00914421 -0.015933882
-0.020772649 -0.013293948 -0.009927415 0.0026009525 -0.02134278 0.0012943557 0.004282536 -0.015676226
-0.0019918473 -0.03037185 0.017323961 -0.0155937215 0.010520817 -0.01705951 -0.025051286 0.019547608
-0.009812875 -0.01639435 -0.020246407 -0.0133414455 -0.010006284 0.002603648 -0.021374969 0.00060612056
0.004416932 -0.016138291 -0.0021379262 -0.03074705 -0.10541471 0.057775386 -0.03690636 0.028459199
0.0033104867 -0.0032701916 0.0042929114 0.035833392 0.002580669 0.01715596 0.046224173 -0.025483804
0.053737056 -0.011437864 -0.008842113 -0.0063886335 -0.011696136 0.017360901 -0.09471654 0.058374304
-0.028941073 0.0137621 0.015002226 -0.0010040131 0.0045111915 0.035518233 -0.001047164 -0.012826471
0.049643125 -0.026312225 0.054613516 -0.009303036 -0.009248545 0.0032780454 -0.0032881764 0.018278187
0.021045465 -0.016739583 -0.0019994043 0.0074378266 0.019674832 -0.02007294 0.012466878 -0.009122986
0.017367857 0.0052320166 -0.016166536 0.009147068 0.004512302 0.006955045 0.0038227846 0.009144531
0.00772072 0.0040274775 0.0003512652 -0.016383233 -0.010918881 0.029698282 0.0076056593 -0.032433797
0.01378221 -0.0045458805 0.014302002 -0.008218045 -0.016248025 0.00438658 0.011503637 0.0046855435
-0.0062750266 0.0044156197 0.0014488713 0.011426344 0.004401068 0.00072844373 0.0019061378 0.0132842045
0.009618707 -0.006571899 0.0032561235 0.000950284 0.007843359 0.0024982188 -0.0029920056 3.4700508e-05
0.0052321297 0.0007469535 -0.0013805364 0.0058691814 -0.002269689 0.0076572746 -0.013283889 0.0011430082
0.0029784208 0.008176121 0.0096876 0.0025894481 0.002560529 0.0016881694 0.010150425 0.0010800104
-0.0032876863 0.0021898998 0.015291347 0.00024411222 0.0036716557 -2.2183924e-05 -0.0066836276 0.010229819
0.03858649 -0.021738423 0.017487736 0.017396325 0.018585034 -0.016991626 0.006095385 -0.00661226
0.022350142 0.0046524317 -0.028510222 0.013611518 -0.018961297 0.0060570687 0.00070884073 0.014665027
0.007182224 0.015422923 0.037553795 -0.022723552 0.017655183 0.0176325 0.018091379 -0.018339112
0.0068289214 -0.006578162 0.02186395 0.0046912106 -0.027801754 0.013472691 -0.018993782 0.006034698
0.00073189934 0.015138633 0.0068248925 0.015538062 0.002554643 -0.008067569 0.0032934875 -0.017875805
-0.026674971 0.01900746 -0.009830314 -0.010662509 -0.02258558 -0.012550625 0.0008938752 -0.001540086
-0.009082934 -0.000382344 0.0033312298 -0.01787731 -0.0052185953 -0.029046983 0.0021017718 -0.008302092
0.0020930977 -0.017750995 -0.0223035 0.017334899 -0.009970633 -0.011953847 -0.022270005 -0.012230079
0.0019202218 -0.001283013 -0.009278034 -0.0007774034 0.0038383887 -0.018390251 -0.005164508 -0.02994681
0.047385324 -0.030369123 0.022083016 0.03027664 0.02912754 -0.034062214 0.014473517 -0.0058924886
0.035997197 0.00820341 -0.039986067 0.019417485 -0.016402422 0.00883723 0.00020182856 0.022987086
0.010262212 0.02635939 0.04354589 -0.03061031 0.024723696 0.031554554 0.030062687 -0.032396134
0.014461464 -0.0064173215 0.031702686 0.007050453 -0.03909939 0.018459093 -0.016410615 0.009036897
-7.993008e-05 0.021249149 0.010512312 0.027306473 0.0021250406 0.003389816 -0.0014987205 -0.008456842

spatial_module.qkv_proj_high.bias f4 [48]
00000000: 2f04 023c 2153 cc3b 20a2 9cbc a32b c1bb
00000010: 2900 653c 340d 21bb 5a2f 603b 05b5 6dbb
00000020: a61c 833b 03c1 a13b e62f 24bb 460c 093c
00000030: d9e7 f83b 1069 cfb9 ff4e 0bbb 6653 b13b
00000040: 6cfe b7ba 8855 dbba 7f38 03bc 33f1 32bc
00000050: c308 7bba f0be 88ba 87b7 70b9 723c 94b9
00000060: 45c4 023a b6c3 0939 d248 e2ba 02b8 aeba
00000070: ef21 bb39 2727 80b8 9fd0 79b9 7988 0fb8
00000080: 5603 0fbe 1fba a23c 4ba8 a4bd b646 033e
00000090: af85 90bd 7881 2abd 9211 c53c 14e9 de3d
000000a0: c2b2 7fbd 20bb be3d fffa 2f3d b2e0 d63d
000000b0: 0589 073e 4678 a33d 3524 2ebd c8e2 babc
0.007935568 0.0062354957 -0.019120276 -0.0058950945 0.013977089 -0.002457452 0.0034207911 -0.0036271226
0.004001218 0.004936339 -0.0025052964 0.008364743 0.007595998 -0.00039560394 -0.0021256802 0.005411553
-0.0014037616 -0.0016733864 -0.008009075 -0.010921764 -0.0009576196 -0.001043288 -0.00022956553 -0.00028273795
0.0004988353 0.00013138246 -0.0017264134 -0.0013329985 0.00035692702 -6.110808e-05 -0.00023824208 -3.4220957e-05
-0.13966116 0.01986414 -0.08039912 0.12819943 -0.07056748 -0.041627377 0.02405623 0.108843
-0.062426336 0.09313035 0.042963978 0.10492076 0.13235863 0.07981925 -0.042515 -0.022813216

spatial_module.out_proj_low.weight f4 [6, 16]
00000000: c8a0 ac3d 6321 a93d 80a2 d9bc 25ce f63d
00000010: 9442 18bd 300c 4c3d 4caa 023c 4597 97bd
00000020: 3c9f b1bc faa2 84bd be1d 94ba 5141 b0bd
00000030: bcac ccbc 9e6b 01bd 8d3f dfbd 61e2 fd3c
00000040: a8f8 f1bc 05f7 203d ef67 8a3d 57dd bbbd
00000050: 222d 233d 9743 f6ba 6e3d c6bd 693d 3cbd
00000060: e7ef 893c 2463 1c3d 26a0 15bb 4711 f4bc
00000070: 4d9b 563d 9438 213d ce37 b1bd 458a cfbc
00000080: e7c1 05bd f336 9cbc c8e1 72bc fef9 1ebe
00000090: c217 2cba a93b f3bd 4741 133e 9f37 d0bd
000000a0: f754 71bc 6edf 4abd 22a0 8cbd 15a1 603c
000000b0: 48c1 f03c 472a debd a57c aebd d464 9f3d
000000c0: 13cc 08bd 4b9f b83c 1a04 863d 3472 adbd
000000d0: 2878 89bc 27ee 933d 83d1 96bd 3a2a b0bd
000000e0: c474 90bd 39af adbb 32cc e63d 3817 423d
000000f0: 681b 133d 1a93 5d3d d73f 81bd cb20 bc3d
00000100: a7c9 6fbd f168 47bd f872 df3d 1837 f3bd
00000110: d294 7cba a63c 09be e791 b23d aad8 6c3d
00000120: be7d 0fbe 482a bf3d f6c4 8d3c 9ec5 51bd
00000130: 5e6c d93d 108b c13d 0406 8d3d 632d 9cbd
00000140: 60e7 edbd dbbb 71bd 88c4 583d 4bf4 423d
00000150: 95fc 34bd 7a6a 273e 2dc9 c83d 90a1 3fbd
00000160: 0cdb 923d 90cf 50bd 0d49 013d 231e 013e
00000170: 90e0 f1bd 1aa6 b4bd 1781 183c 2d39 d43b
0.08429104 0.08258321 -0.026566744 0.12051038 -0.03717287 0.04981631 0.007975172 -0.07401899
-0.021682374 -0.06476398 -0.0011300368 -0.08606208 -0.02498471 -0.031596772 -0.10900793 0.030991735
-0.029537514 0.039298076 0.06758105 -0.091730766 0.039837964 -0.0018788454 -0.096796855 -0.045957003
0.016838027 0.038180485 -0.0022831052 -0.029793395 0.0523942 0.039360598 -0.08653222 -0.025334487
-0.032655623 -0.01906917 -0.014824338 -0.15525052 -0.00065648195 -0.11876614 0.1438037 -0.10166859
-0.01472973 -0.049529485 -0.068664804 0.01371028 0.029389039 -0.108479075 -0.08519868 0.07782903
-0.033397745 0.022536894 0.06543751 -0.08469048 -0.016780928 0.07223158 -0.0736418 -0.08601804
-0.07053521 -0.005300429 0.11269416 0.047385424 0.03591481 0.054095365 -0.063110046 0.09185942
-0.05854192 -0.048684064 0.109106004 -0.11875743 -0.0009635213 -0.13402042 0.08719235 0.057823814
-0.1401281 0.093342364 0.017305832 -0.051213853 0.106163725 0.09450352 0.06885913 -0.07625844
-0.11616397 -0.059017044 0.0529218 0.047596257 -0.044186193 0.16349211 0.09803996 -0.046784937
0.07170686 -0.050979197 0.031563807 0.12609152 -0.1181041 -0.08820744 0.009308121 0.0064765424

spatial_module.out_proj_low.bias f4 [6]
00000000: 8ebf 49bd a272 b1bc ccbf 263c af80 01bc
00000010: e1a5 d83c fe2b cf3c
-0.049254946 -0.021661106 0.010177564 -0.007904216 0.026446285 0.025289532

spatial_module.out_proj_high.weight f4 [16, 6]
00000000: 009e 333b 8c4d 80bb 65bc 7d3c 7c38 98bc
00000010: 7eaa 8f3d 1e4b 273e 8a1e d0bd 44f3 cabd
00000020: 4d14 803d 87f6 30be 2e27 233e 2765 013e
00000030: 26da fe3c b641 b9bd 7a16 0f3d baf9 39be
00000040: 0f6c 41be 588b 563e 4899 1cbe 6136 16be
00000050: a82a 69bd 8028 603c 808b 493d d704 fdbd
00000060: 67b8 95bc 8429 cfbc 1bce 1d3e 1398 4c3e
00000070: fb1c b53d ba31 483a ea03 033e 4781 2cbe
00000080: b530 4b3d f1a6 fcbd 7d15 0e3e 8615 40be
00000090: c42c 733d 39c5 08be a0b8 e03d 87be 233d
000000a0: cc64 eb3d 75b9 01be d810 a23d c5d7 dfbd
000000b0: 322b acbd e038 9f3d cc3d 19bd d37b 4bbe
000000c0: db48 26be 793b 57bd 6ab7 4bbc 41f5 4e3e
000000d0: 7c74 043e 1386 60bb 8be1 75bd dccd 17be
000000e0: 03e8 113e 5eb6 f4bd 524c 1cbd c38a 3fbe
000000f0: 165d e9bd 99b9 de3c 7475 b4bd aa09 f63c
00000100: 4d09 e6b9 73e0 fc3b df66 58bd 393b f0ba
00000110: 2d4c b03d 8971 403e 531f 4b3e 927e 62be
00000120: 193c 12be b0c4 803b 6955 99bc b83f e03d
00000130: 7942 423e f558 6c3d 5380 e5bd 7dfe 61bc
00000140: f11d 983d 465e d33d 2f86 2cbe 049e e23c
00000150: 9dc4 3ebe f5dc 28bd 6b0d b33d 9681 99bd
00000160: d65a f83d 1f5b 56be 120a ed3d 6100 893d
00000170: 347f ae3d ba1a 513d d45c 253c ba4e e7bd
0.0027407408 -0.0039154943 0.015486811 -0.018581621 0.07014941 0.16337249 -0.10162075 -0.099096805
0.06253872 -0.17281543 0.15932915 0.12636243 0.03110988 -0.090457365 0.034933545 -0.1816167
-0.18888877 0.20951593 -0.15292847 -0.14669181 -0.056925446 0.013681531 0.049205303 -0.12354439
-0.018276406 -0.02528835 0.15410654 0.19979887 0.08843418 0.00076368044 0.12794462 -0.1684619
0.049606998 -0.12336529 0.13875385 -0.1875821 0.059368864 -0.13356484 0.109727144 0.039976623
0.11493835 -0.12668402 0.07913369 -0.10929827 -0.08406676 0.0777452 -0.03741245 -0.19871454
-0.1623873 -0.052546952 -0.012433866 0.20210744 0.1293506 -0.0034259602 -0.060029548 -0.14824623
0.14248662 -0.11948846 -0.038158722 -0.18705277 -0.11394708 0.02718811 -0.08811465 0.030033905
-0.00043875948 0.007717186 -0.05283248 -0.0018328197 0.086082794 0.1879331 0.19836168 -0.22118595
-0.14280738 0.003929697 -0.018717485 0.109496534 0.1897067 0.057702024 -0.112061165 -0.013793585
0.07427586 0.103207156 -0.16848062 0.027663238 -0.1862969 -0.041226346 0.08742794 -0.0749542
0.121267006 -0.20933197 0.115741864 0.066895254 0.08520356 0.05105088 0.010092933 -0.11294313

spatial_module.out_proj_high.bias f4 [16]
00000000: b3da 0b3c 8675 c0bd 793f f13d f6f7 76bd
00000010: 003e 183d 6351 e2bd c593 803c 5328 60bd
00000020: 4d72 a6bd 6b15 7e3c 70be 18be d97f c6bc
00000030: 9ff3 aabd cacd b93d 4041 bebd e8d4 df3c
0.008536029 -0.09397416 0.117796846 -0.060295068 0.037168503 -0.110506795 0.015695462 -0.054725956
-0.0812727 0.015508036 -0.14916396 -0.024230884 -0.08347248 0.09072454 -0.09289789 0.027323201

temporal_module.fusion_weight f4 [5]
00000000: 73dd 053f d1e6 e73e 0cfd 033f 9841 f33e
00000010: 93fd 1a3f
0.5229103 0.45293286 0.51557994 0.47510982 0.60543174
