save_all/MSTAGAT-Net.nhs_timeseries.w-20.h-14.no_pprm.pt (torch, 114047 bytes, 60 tensors)

temp_conv.depthwise.weight f4 [1, 1, 3]
0	0x3e4b7c9e	0.19871756
1	0x3eb45bf9	0.3522642
2	0xbe86cb5d	-0.2632703

temp_conv.pointwise.weight f4 [16, 1, 1]
0	0xbd29acf0	-0.04142469
1	0x3d3db814	0.04631813
2	0xbd6c9487	-0.057758834
3	0x3d479d4a	0.048733987
4	0x3d5d7b65	0.054072756
5	0xbd681139	-0.05665705
6	0x3d4899e0	0.04897487
7	0x3d49c0d0	0.049256146
8	0x3d5af26b	0.053453844
9	0x3d3a10ec	0.045426294
10	0x3d2b2d4f	0.041791257
11	0xbd6444ff	-0.055729862
12	0x3d6af2cc	0.057360455
13	0x3d29cc2c	0.04145448
14	0xbd6aa270	-0.05728382
15	0x3d382c02	0.044963844

temp_conv.pointwise.bias f4 [16]
0	0x3595b4bb	1.1153965e-06
1	0x366b9fed	3.5110818e-06
2	0x35743458	9.0973253e-07
3	0x3794a7a6	1.7721042e-05
4	0xb9988ee9	-0.00029098176
5	0x34a2572e	3.0238283e-07
6	0xb55b624a	-8.1726887e-07
7	0xb6228b73	-2.4221051e-06
8	0xb54569a4	-7.3541946e-07
9	0xbb873e9a	-0.0041273357
10	0x3ad11d9d	0.001595426
11	0xba4988d8	-0.0007687933
12	0x395d2991	0.00021091687
13	0x35abcc39	1.279993e-06
14	0xb507822c	-5.0480844e-07
15	0x36a1af05	4.818549e-06

temp_conv.bn2.weight f4 [16]
0	0x3e843da2	0.25828272
1	0x3e98e5f6	0.29862946
2	0x3e871492	0.2638288
3	0x3eae5f4c	0.3405708
4	0x3e979eec	0.29613435
5	0x3e89628a	0.26832992
6	0x3e759308	0.23981869
7	0x3e8c2e4b	0.2737907
8	0x3ea05b97	0.31319878
9	0x3e8ecf8d	0.27892724
10	0x3ec6ad14	0.38803923
11	0x3e9bd666	0.3043701
12	0x3e955cc0	0.29172325
13	0x3ea99b01	0.3312607
14	0x3e8e9a5c	0.27852142
15	0x3e6fb46e	0.23408672

temp_conv.bn2.bias f4 [16]
0	0x3caf0ba5	0.021367857
1	0xbdf984fb	-0.12183567
2	0x3d05cc85	0.03266575
3	0xbdcd0281	-0.10010243
4	0xbd966964	-0.073443204
5	0x3cee480e	0.029087093
6	0xbc64a7b1	-0.013955996
7	0xbda7ad5c	-0.081873626
8	0xbd31f9f9	-0.043451283
9	0xbd25744d	-0.040394116
10	0xbde7bb34	-0.11315003
11	0x3c5a54ba	0.013325864
12	0xbdd03754	-0.10166803
13	0xbda0e62d	-0.078564025
14	0x3c9d59f9	0.019207941
15	0x3cb8ffaa	0.022582848

temp_conv.bn2.running_mean f4 [16]
0	0xbc1d2dd3	-0.009593445
1	0x3c32fdb3	0.010924744
2	0xbc5753a4	-0.0131425
3	0x3c3d24f0	0.011544451
4	0x3c4d9e4c	0.012549948
5	0xbc56a1ae	-0.013100071
6	0x3c3f58f3	0.011678922
7	0x3c3e0938	0.011598878
8	0x3c4c949c	0.012486603
9	0x3bd37aca	0.0064538466
10	0x3c3ed62c	0.011647742
11	0xbc60c640	-0.0137191415
12	0x3c627367	0.013821459
13	0x3c2036bd	0.009778676
14	0xbc58bbca	-0.013228366
15	0x3c2f473b	0.010698135

temp_conv.bn2.running_var f4 [16]
0	0x3898974f	7.276108e-05
1	0x38c5bbe0	9.4286865e-05
2	0x390f32f0	0.00013656518
3	0x38dc3cec	0.00010501765
4	0x390921ab	0.0001307788
5	0x390e3e49	0.00013565378
6	0x38e239aa	0.000107872605
7	0x38df26d6	0.000106407024
8	0x39012620	0.00012316601
9	0x38c032e0	9.16475e-05
10	0x38a4c099	7.8560035e-05
11	0x390a0826	0.00013163741
12	0x39193767	0.00014611856
13	0x389e84d0	7.558765e-05
14	0x391106b7	0.00013830779
15	0x38bd9670	9.0402435e-05

feature_process_low.weight f4 [8, 320]
0	0x3cd50efa	0.026008118
1	0x3c16afac	0.009197157
2	0x3b4b8e29	0.0031060076
3	0xbb377f29	-0.0027999377
4	0xbb957e05	-0.004562142
5	0xbbedfa1e	-0.0072624823
6	0xbc1470ef	-0.009060129
7	0xbba3a08e	-0.004993505
8	0xbc075c74	-0.008261789
9	0xbc42046d	-0.0118418755
10	0xbbcd4c33	-0.006265187
11	0xbbaf15ea	-0.0053431885
12	0xbc47b222	-0.012188466
13	0xbc301051	-0.010746078
14	0xbc4e7993	-0.012602228
15	0xbc599a47	-0.0132814115
16	0xbc646ba9	-0.013941684
17	0xbc02a988	-0.00797499
18	0xbc5e5568	-0.013570167
19	0xbcbd6446	-0.023119103
20	0x33254790	3.8482142e-08
21	0xbc9004f2	-0.017580483
22	0xbcb230e8	-0.021751836
23	0xbc8dc596	-0.01730613
24	0xbbcca87a	-0.00624567
25	0xbc2735a1	-0.010205657
26	0xbba0b996	-0.004904936
27	0xbc224fec	-0.00990675
28	0xb9de6c15	-0.00042423667
29	0xbc1dfd2b	-0.0096428795
30	0x3b3c8357	0.0028764808
31	0xbc093fd4	-0.008377034
32	0xbc2a8d3c	-0.010409649
33	0xbc4ea589	-0.012612709
34	0xbb780cf6	-0.0037849522
35	0xbc642904	-0.0139257945
36	0xbc94cf5b	-0.018165281
37	0xbcdfa1a4	-0.027298756
38	0xbd0b6168	-0.03402844
39	0x3bd5cb40	0.0065244734
40	0x3c8146ab	0.015780767
41	0x3c386911	0.0112555185
42	0x3b6c01fd	0.0036011927
43	0x3ac4b0a9	0.0015006262
44	0xbbb4153a	-0.0054956945
45	0xbbdee0c4	-0.0068016965
46	0xbba64095	-0.0050736167
47	0xbc217532	-0.009854602
48	0xbb497505	-0.0030739915
49	0xbc26caef	-0.010180219
50	0xbb9d218f	-0.0047952603
51	0xbc890755	-0.016727129
52	0xbc5f8d8c	-0.013644587
53	0xbbf10089	-0.0073548
54	0xbc5c2d46	-0.013438528
55	0xbc40365a	-0.011731708
56	0xbc24ed34	-0.010066319
57	0xbc177a23	-0.009245428
58	0xbc576360	-0.013146251
59	0xbce0b0da	-0.02742808
60	0x37f48f0a	2.9153674e-05
61	0xbcd2b1f8	-0.025719628
62	0xbcb33356	-0.021875065
63	0xbc84e2db	-0.016221454
64	0xbc90bf25	-0.01766927
65	0xbabb2898	-0.0014279066
66	0xbb8e0c4e	-0.004334963
67	0xbbd71988	-0.006564323
68	0xbb09b952	-0.0021015
69	0xbb1cf794	-0.002395128
70	0xbbb66faf	-0.005567513
71	0xbbc9ff8b	-0.0061644963
72	0xbc444d35	-0.011981298
73	0xbc6e1865	-0.014532183
74	0xbb0d802a	-0.0021591284
75	0xbc3f7f08	-0.011688001
76	0xbc841735	-0.016124347
77	0xbce1955f	-0.027537046
78	0xbcc66cac	-0.02422174
79	0x3c979109	0.018501775
80	0x38be7698	9.081996e-05
81	0xbce29cad	-0.0276626
82	0xbc8d8983	-0.017277485
83	0xbc7243a2	-0.014786633
84	0xbbe0f72b	-0.006865402
85	0xbb4c56e0	-0.0031179711
86	0xbb830747	-0.0039986703
87	0xba917944	-0.0011098762
88	0xbc03ec25	-0.008051907
89	0xbb1db079	-0.0024061485
90	0xbb4f47fe	-0.0031628604
91	0xbc392781	-0.011300922
92	0xbb75a266	-0.003748083
93	0xbc22e777	-0.009942881
94	0xbb391af4	-0.0028244825
95	0xbc2ecdec	-0.010669213
96	0xbc914e8d	-0.017737651
97	0xbc5de9a1	-0.013544471
98	0xbca6516f	-0.020302502
99	0x3c131fea	0.008979777
100	0x3c8b2b7e	0.016988512
101	0x3b913d08	0.0044323243
102	0x3b1d3aff	0.0023991463
103	0xbbf25e3a	-0.0073964866
104	0xbba50433	-0.005035901
105	0xbc355df9	-0.011069768
106	0xbbe6ff71	-0.007049494
107	0xbc49263c	-0.012277182
108	0xbbfefa27	-0.0077812853
109	0xbc243324	-0.0100219585
110	0xbbd21309	-0.0064109606
111	0xbc336cfc	-0.010951277
112	0xbbecb65a	-0.0072238864
113	0xbc814dad	-0.015784109
114	0xbc2005be	-0.009766994
115	0xbc287667	-0.010282136
116	0xbc6c8bfe	-0.014437674
117	0xbc79c7d5	-0.015245398
118	0xbc75d92d	-0.015005392
119	0xbcedeea9	-0.029044466
120	0x3b19ee71	0.002348807
121	0xbc777d1b	-0.015105511
122	0xbc13bb68	-0.009016849
123	0xbc1d079b	-0.009584333
124	0x3b570f5a	0.0032815547
125	0xbb4cdcaa	-0.0031259456
126	0x3b29180c	0.0025801687
127	0xbb1357aa	-0.0022482672
128	0x3c1f6929	0.009729662
129	0x3acb8fbc	0.0015530507
130	0x3b437474	0.002982405
131	0x3bdc71ca	0.006727432
132	0x3af930e7	0.0019011766
133	0xbbd17508	-0.006392125
134	0xbbe0868f	-0.006851978
135	0xbbba6478	-0.0056882463
136	0xbb76addd	-0.0037640252
137	0xbc7f1608	-0.0155692175
138	0xbc33b364	-0.010968063
139	0x3c1348b7	0.008989505
140	0x385e766b	5.303921e-05
141	0xbc8fd9c0	-0.017559886
142	0xbc5226d5	-0.012826641
143	0xbc68c277	-0.01420652
144	0xbbd96ece	-0.0066355234
145	0xbb8cec8d	-0.00430066
146	0x3a7f4121	0.0009737183
147	0xbbecd82a	-0.007227917
148	0xb9a11870	-0.0003072652
149	0xbabc73eb	-0.0014377808
150	0xbb177b6b	-0.0023114334
151	0xbb883ae1	-0.0041574095
152	0xbc1094e0	-0.008824557
153	0xbc1447c5	-0.009050314
154	0xbc45471d	-0.0120408805
155	0xbc2604ce	-0.010132981
156	0xbc4a2943	-0.012338939
157	0xbc4f3686	-0.012647277
158	0xbc83c471	-0.016084881
159	0x3ad26642	0.0016052204
160	0x3aae0114	0.0013275468
161	0xbcf16456	-0.02946679
162	0xbc4492c4	-0.011997882
163	0xbc42b0d6	-0.011882981
164	0xbc8823eb	-0.01661869
165	0xbc12b1bc	-0.008953508
166	0x3b4d5002	0.0031328206
167	0x3be0e464	0.006863164
168	0x3a76e487	0.00094182085
169	0x39951bd4	0.00028440228
170	0xbbe6388f	-0.0070257853
171	0xbbf1a8a9	-0.007374842
172	0xbaa8244e	-0.0012828202
173	0xbb281341	-0.0025646242
174	0xbb9d7462	-0.0048051337
175	0xbbe4bd65	-0.0069805854
176	0xbc956e72	-0.018241141
177	0xbca3908f	-0.019966392
178	0xbca4e067	-0.020126535
179	0x3d13723c	0.035997614
180	0x3aa3ca3e	0.0012496186
181	0xbc9d9b94	-0.019239224
182	0xbc330034	-0.010925341
183	0xbc8b2a13	-0.016987836
184	0xbc441b8e	-0.01196946
185	0x3bbb85ce	0.005722738
186	0xbbf178c8	-0.0073691346
187	0xbb8c748b	-0.004286354
188	0xbb1ae3c2	-0.002363429
189	0x3bdab8cc	0.0066748615
190	0xba0320e9	-0.00050021574
191	0xbaa18ba5	-0.0012324943
192	0xbbfc1c1e	-0.0076937815
193	0xbc309447	-0.01077754
194	0xbc589ab1	-0.013220475
195	0xba2522dc	-0.0006299445
196	0xbc045a57	-0.008078179
197	0xbc0b7611	-0.008512036
198	0xbca6a8b1	-0.02034411
199	0x3b87a748	0.0041398145
200	0x383ecf27	4.5492456e-05
201	0xbd12da91	-0.035852972
202	0xbcd41ea8	-0.025893524
203	0xbc9ad858	-0.018901989
204	0xbbd555f6	-0.0065104915
205	0xbc47343c	-0.01215845
206	0xbbf594e8	-0.0074945576
207	0xbc3c8274	-0.011505712
208	0xbb208e63	-0.0024498932
209	0xbb302282	-0.0026876037
210	0xbba18d2c	-0.004930159
211	0xbab197a9	-0.0013549227
212	0xbc16f1c5	-0.009212916
213	0xbc144673	-0.0090499995
214	0xbc9eca86	-0.01938368
215	0xbc99cfa5	-0.01877577
216	0xbc3496e1	-0.0110223
217	0xbcd45411	-0.025918992
218	0xbcb89cdc	-0.022535734
219	0x3cdc5f42	0.026900891
220	0x3cce0e6a	0.025153358
221	0x3b59476c	0.0033154143
222	0xbad26afe	-0.0016053615
223	0xbb17997a	-0.002313225
224	0xbb348c50	-0.0027549453
225	0xbc117d27	-0.008879936
226	0xbb5cc112	-0.0033684415
227	0xbbecd462	-0.0072274664
228	0xbc1e7900	-0.009672403
229	0xbbea5413	-0.0071511357
230	0xbc382643	-0.011239591
231	0xbc283c12	-0.010268228
232	0xbc6de5c2	-0.014520111
233	0xbc94fa0a	-0.018185634
234	0xbc101503	-0.008794072
235	0xbc7ada63	-0.0153108565
236	0xbc0d3a55	-0.0086198645
237	0xbc3f0f1a	-0.011661315
238	0xbc0dd646	-0.008657044
239	0xbced58a6	-0.028972935
240	0x372af489	1.0189725e-05
241	0xbc66cc07	-0.01408673
242	0xbc2b5781	-0.010457874
243	0xbc9c3478	-0.019067988
244	0xbc07a38c	-0.008278739
245	0xbc3fd008	-0.011707313
246	0xbb87b978	-0.0041419826
247	0xbbcb008d	-0.006195134
248	0xbb2963b7	-0.0025846788
249	0xbc60e956	-0.013727507
250	0xbbc12b57	-0.005895059
251	0x398a4d95	0.00026379214
252	0xb93bac32	-0.00017897857
253	0xbc2efb01	-0.010679961
254	0xbc844596	-0.016146462
255	0xbc3f8bfd	-0.011691091

feature_process_low.bias f4 [8]
0	0x3cdcdd7f	0.026961086
1	0x3dc6107d	0.09671114
2	0x3d713883	0.058891784
3	0xbc122cf4	-0.0089218505
4	0xbcaa4e59	-0.020789312
5	0xbba1b699	-0.0049350974
6	0x3d8a7bb0	0.06761873
7	0x3c4f8a1b	0.012667204

feature_process_high.weight f4 [32, 8]
0	0xbd83a66b	-0.06428226
1	0x3d797406	0.060901664
2	0xbb1a35ae	-0.002353053
3	0xbc328b8a	-0.0108975265
4	0x3cc8cb84	0.024511106
5	0x3c1c23ac	0.009529989
6	0x3dbf6892	0.09346117
7	0xbbbe3eed	-0.005805841
8	0x3c5c1034	0.0134315975
9	0xbc283f6c	-0.010269027
10	0xbb8b5ab6	-0.004252757
11	0x3bde3785	0.006781521
12	0xbadc6588	-0.0016814927
13	0x3b7d7880	0.003867656
14	0xbc244b38	-0.010027699
15	0x3b80cc78	0.0039306246
16	0xbc3b936a	-0.0114487205
17	0xbe10a078	-0.14123714
18	0xbe3e4f76	-0.18585
19	0x3c13e0c1	0.0090257535
20	0xbdfc777f	-0.123274796
21	0x3da9212f	0.082582824
22	0xbdbc4fc1	-0.09194899
23	0x3d36499a	0.044503786
24	0x3d36fb9a	0.04467354
25	0xbe11fc97	-0.14256512
26	0x3a372154	0.0006985862
27	0x3bb138ce	0.005408383
28	0x3d8cd1c9	0.06875951
29	0x3e476210	0.19471002
30	0xbe1e6e37	-0.15471731
31	0xbd271bf6	-0.04079815
32	0x3d7df8f4	0.062005
33	0x3d0b0117	0.033936586
34	0x3c94d0e0	0.018166006
35	0x3dedee5c	0.11617729
36	0xbdd7a264	-0.105290204
37	0x3c713508	0.014722116
38	0x3c6fe4d6	0.014641961
39	0x3d394f86	0.045241855
40	0xbdbc049f	-0.09180569
41	0x3cb3b5d3	0.021937286
42	0xbd94d956	-0.07268016
43	0xbd7705ad	-0.060308147
44	0x3dcf1753	0.101118706
45	0xbcd47f3e	-0.02593958
46	0xbda5aedd	-0.08089993
47	0xbc3bff52	-0.011474447
48	0xbc721ba6	-0.0147771
49	0xbcd38e35	-0.025824646
50	0xbc8bd960	-0.017071426
51	0xbdd69b14	-0.104787976
52	0x3db72b29	0.08943779
53	0xbda6ed48	-0.081507266
54	0x3d31ed98	0.043439478
55	0xbd6db0d0	-0.05802995
56	0x3c32c311	0.010910765
57	0xbc3cb1aa	-0.011516968
58	0xbc3670a2	-0.011135252
59	0xbb389e9c	-0.002817071
60	0xbc078ac9	-0.008272835
61	0x3b9e154d	0.0048243166
62	0xbcd1f5bd	-0.025629872
63	0x3bf5bfaf	0.007499657
64	0x3ced9cb0	0.029005378
65	0xbbd5fb89	-0.0065302295
66	0x3d15397b	0.03643177
67	0x3d873ba0	0.066031694
68	0xbdb62641	-0.08894015
69	0xbd1a8212	-0.0377217
70	0xbd811654	-0.06303087
71	0x3c111400	0.008854866
72	0x3c377559	0.011197411
73	0xbc36802a	-0.011138955
74	0xbb992bf9	-0.0046744314
75	0x3bf6ffb4	0.0075378064
76	0x3b033c49	0.0020024946
77	0x3bc5037f	0.0060123797
78	0xbc323767	-0.010877467
79	0x3b9127c6	0.00442979
80	0xbdb87142	-0.09005977
81	0x3e593664	0.21212155
82	0xbe0b57ed	-0.1360776
83	0x3be4c76e	0.0069817817
84	0xbe6e746d	-0.232866
85	0x3d56dc82	0.052456386
86	0x3e812eb2	0.25230938
87	0x3e5f2bb9	0.21794023
88	0xbc7609f0	-0.015017018
89	0x3b867101	0.0041028266
90	0x3e783976	0.2424067
91	0x3ce12511	0.027483495
92	0x3e384098	0.1799339
93	0xbdf01886	-0.117234275
94	0xbd3c1f20	-0.04592812
95	0xbdebfa7c	-0.115223855
96	0x3db1f0a0	0.08688474
97	0x3c93af52	0.018027935
98	0xbe32bec0	-0.17455578
99	0x3c532e55	0.012889464
100	0xbddaa179	-0.1067533
101	0xbab7eeec	-0.0014032996
102	0x3e08e079	0.1336688
103	0xbdc37421	-0.09543634
104	0x3cc2ed33	0.023794746
105	0xbcbc7666	-0.023005676
106	0x3c77be76	0.015121093
107	0x39959044	0.0002852698
108	0x3c450ed8	0.012027465
109	0xbb8afe59	-0.0042417464
110	0x3d49f046	0.04930141
111	0x3c83bb37	0.016080482
112	0x3d072a78	0.032999486
113	0x3d26745f	0.040638324
114	0x3c42f76a	0.011899808
115	0x3caa22dd	0.020768577
116	0x3c59aa39	0.013285213
117	0x3bdd529b	0.006754232
118	0xbac84c68	-0.001528156
119	0xbb9ba299	-0.0047496078
120	0x3b994674	0.004677588
121	0xbc67723a	-0.014126355
122	0x3b89c63c	0.0042045396
123	0xb821fd38	-3.862122e-05
124	0x3c683b90	0.014174357
125	0xbb914665	-0.0044334405
126	0x3b13e6e7	0.0022568048
127	0x3b1dcb39	0.002407743
128	0xbdac0c76	-0.08400814
129	0x3dcc2002	0.099670425
130	0x3d657f0f	0.056029376
131	0xbe03e31a	-0.12879601
132	0x3e54fbbe	0.20799157
133	0xbbba406f	-0.0056839506
134	0x3e0b72fc	0.13618082
135	0xbd884786	-0.06654267
136	0x3ac2d7eb	0.0014865374
137	0xbd8f2bd9	-0.06990785
138	0xbd48bcbd	-0.04900812
139	0x3d30c253	0.043154072
140	0x3dbbd1cf	0.09170877
141	0x3d2aca3e	0.04169678
142	0xbe566d8e	-0.2094023
143	0x3df30bda	0.11867495
144	0xbd8b7fdb	-0.06811496
145	0x3e2595fe	0.16170499
146	0x3e26c54f	0.16286205
147	0x3db056ed	0.0861033
148	0x3e46484d	0.19363518
149	0x3db5ac88	0.08870798
150	0x3d8bcff5	0.06826774
151	0xbd9a235d	-0.07526276
152	0x3d292381	0.041293625
153	0x3d000732	0.031256862
154	0x3d808a0e	0.06276332
155	0x3bc139b4	0.0058967713
156	0x3dba54d9	0.09098215
157	0x3d89e3d5	0.06732909
158	0xbe0d6d36	-0.13811192
159	0x3da40ba2	0.08010031
160	0xbdaec016	-0.08532731
161	0xbdb7c9bf	-0.08974027
162	0xbdb9dcc0	-0.09075308
163	0x3d00ca69	0.031443033
164	0xbe04003c	-0.12890714
165	0xbb7cf3b8	-0.0038597416
166	0xbdac24e3	-0.08405473
167	0x3cd973ec	0.026544534
168	0xbe4b4284	-0.19849592
169	0xbda6c3f5	-0.081428446
170	0x3c7d14b3	0.01544683
171	0x3cebb2f8	0.028771862
172	0xbe166e90	-0.14690614
173	0x3d5d5ba5	0.054042477
174	0xbe5ea6b2	-0.21743277
175	0xbe0fa8cd	-0.14029236
176	0xbc01db5d	-0.007925835
177	0x3bf57f7d	0.0074920044
178	0x3d19c817	0.037544336
179	0xbd218c75	-0.03944059
180	0xbd86caec	-0.06581673
181	0x3cb1505b	0.021644762
182	0xbda98930	-0.082781196
183	0x3d9e40ed	0.07727227
184	0x3c5df1e7	0.013546444
185	0xbc23d44f	-0.009999349
186	0xbba86eb9	-0.0051401523
187	0x3bafacab	0.00536116
188	0xbbae4f48	-0.0053195097
189	0x3b9fede1	0.0048806523
190	0xbc28696e	-0.010279043
191	0x3b8782f4	0.004135484
192	0x3c86c9a7	0.016453577
193	0xbafabe0b	-0.0019130124
194	0xbbe8632c	-0.0070919003
195	0x3c606332	0.013695525
196	0xba9eac94	-0.0012105876
197	0x3c615fe5	0.013755773
198	0xbc07feb9	-0.008300477
199	0xbae00ec8	-0.0017094249
200	0xbd1c4ab3	-0.038157176
201	0xbe2fce1a	-0.17168465
202	0xbb992711	-0.0046738465
203	0xbd33be10	-0.04388243
204	0x3e2f7e8d	0.17138119
205	0x3bd36855	0.0064516463
206	0x3c3d2b61	0.011545987
207	0xbdf1283f	-0.117752545
208	0xbd84c815	-0.06483475
209	0xbbc1ef37	-0.005918409
210	0xbc4e1ed7	-0.012580595
211	0xbc3c09e3	-0.011476967
212	0x3cbd2fd8	0.023094103
213	0x3967fee8	0.00022124837
214	0xbce55f51	-0.027999552
215	0x3d221231	0.03956813
216	0x3ccd87e2	0.025089208
217	0xbcb1dff1	-0.021713229
218	0x3c8dfefb	0.017333498
219	0x3d2803c6	0.041019224
220	0xbe0fd560	-0.1404624
221	0x3cbd203c	0.02308666
222	0xbbcebd2e	-0.006309173
223	0x3caf19ba	0.021374572
224	0x3d4023be	0.046909086
225	0xbd0e5909	-0.03475288
226	0xb946c8c3	-0.00018957541
227	0xbd86a000	-0.06573486
228	0xbe0a329c	-0.13495868
229	0x3d20ee0e	0.039289527
230	0xbd87f288	-0.06638056
231	0x3c018c8a	0.007907042
232	0x3cac0cf3	0.021002268
233	0xbca693a3	-0.02033407
234	0xbb4b1f99	-0.0030994175
235	0x3cbfa89d	0.02339583
236	0x3d479612	0.048727103
237	0xbb9cc6d1	-0.004784443
238	0x3b1a0389	0.0023500642
239	0xbac0b9b5	-0.0014703783
240	0x3c65f7df	0.014036148
241	0xbc39d94e	-0.011343313
242	0x3cea761f	0.028620778
243	0x3c7f5413	0.01558401
244	0x3bcfd04c	0.0063419696
245	0x3c12d5e6	0.00896213
246	0xbcc3c9e5	-0.023899982
247	0x3c5d7d7e	0.013518689
248	0xbd0fddb9	-0.03512356
249	0xbb574147	-0.0032845305
250	0x3c5fefd9	0.013668024
251	0x3d7c8466	0.061649702
252	0x3c885cfd	0.016645903
253	0xb9c4c403	-0.00037530073
254	0xbd7ccdcd	-0.061719704
255	0x3cc28f7e	0.023750063

feature_process_high.bias f4 [32]
0	0x3bad6bb0	0.0052923784
1	0x3b1523fc	0.0022757044
2	0x3e4f1643	0.20223336
3	0x3ce64658	0.028109714
4	0xbdfb99d2	-0.12285198
5	0x3dc3fa81	0.09569264
6	0x3dcb2b1f	0.09920334
7	0x3b26c9d7	0.0025449896
8	0x3d862a31	0.06551016
9	0x3adcca5f	0.0016844979
10	0x3dcc4e2f	0.0997585
11	0x3e61e561	0.22060157
12	0x3e14cf29	0.1453215
13	0x3d43b5b8	0.047780722
14	0x3b081f5a	0.002077064
15	0x3cccae4b	0.024985453
16	0x3dd7ac5f	0.10530924
17	0x3ca0e1af	0.019638864
18	0x3dbd48ef	0.092424266
19	0x3d0260e1	0.031830672
20	0xbd7c502d	-0.0615999
21	0xbe279737	-0.16366278
22	0xbdb6c8c8	-0.08925015
23	0x3a73dc13	0.0009302508
24	0xbc33c34d	-0.010971856
25	0x3e831fce	0.25610203
26	0x3ca59475	0.020212391
27	0xbdc55ec2	-0.09637214
28	0xbd687032	-0.056747623
29	0x3d155759	0.036460254
30	0xbbb20099	-0.0054322
31	0xbce3d731	-0.027812572

feature_norm.weight f4 [32]
0	0x3e3078bc	0.17233557
1	0x3b98a771	0.0046586324
2	0x3f0ef80d	0.55847245
3	0x3eabc2a6	0.33546942
4	0x3e2195f9	0.15779866
5	0x3e8541a4	0.26026642
6	0x3e78fbfc	0.24314874
7	0x3bfe308f	0.0077572535
8	0x3e90f2bc	0.28310192
9	0x3ba1f95a	0.004943055
10	0x3f044772	0.51671517
11	0x3f01c1ed	0.5068653
12	0x3ec52830	0.38507223
13	0x3d509c48	0.05093029
14	0x3d0fc6dd	0.03510176
15	0x3cdd3232	0.027001474
16	0x3ec0b985	0.3764154
17	0x3e7f76ac	0.24947613
18	0x3ed12fc0	0.40856743
19	0x3df56592	0.119822636
20	0x3e2ed834	0.17074662
21	0x3eea4a29	0.45759705
22	0x3db4a707	0.088209204
23	0x3bdf50ed	0.006815067
24	0x3bda7cd0	0.006667711
25	0x3efc546e	0.49283165
26	0x3d650d59	0.055920932
27	0x3dc1b334	0.094580084
28	0x3d8f3e6b	0.06994327
29	0x3c98119e	0.018563088
30	0x3ce6d9cd	0.028180027
31	0x3dbe2f68	0.09286386

feature_norm.bias f4 [32]
0	0x3cecc588	0.028902784
1	0x00001973	9.13e-42
2	0x3b70925c	0.003670833
3	0x3bd4ba8c	0.0064919647
4	0x3c2316ea	0.009954194
5	0x3c2784d9	0.010224544
6	0x3cc2c7fb	0.023776999
7	0x3a9980a7	0.0011711315
8	0x3c9fac3a	0.019491304
9	0x2d130ac8	8.3583765e-12
10	0x3c7e0e15	0.015506287
11	0xbba6b1da	-0.0050871195
12	0x3c53b08f	0.012920513
13	0x3b15471e	0.0022777985
14	0x3b9877e1	0.0046529626
15	0x3bb86019	0.00562669
16	0x3cebb800	0.028774261
17	0xbb2c5391	-0.0026294927
18	0x3d7c1043	0.061538946
19	0x3c9a3c34	0.018827535
20	0x3cb961d6	0.02262966
21	0x3c1a931b	0.009434487
22	0x3c987c0d	0.01861384
23	0xb5a4e9ad	-1.2286961e-06
24	0x351a3298	5.7443094e-07
25	0xbb9b1123	-0.0047322675
26	0x3bf3770b	0.0074299625
27	0x3c6879ed	0.014189226
28	0x3c32d2b7	0.010914496
29	0x3ae33b56	0.0017336409
30	0x3c195e4d	0.009360862
31	0x3c323ce6	0.010878777

graph_attention.u f4 [4, 7, 8]
0	0x890295e7	-1.5718665e-33
1	0x000038f7	2.0435e-41
2	0x8000120b	-6.473e-42
3	0x80004862	-2.5966e-41
4	0x0000416a	2.3466e-41
5	0x801c800a	-2.617326e-39
6	0x8ebd9c76	-4.6742764e-30
7	0x8000040e	-1.455e-42
8	0x00000ff3	5.722e-42
9	0x0557afa2	1.014151e-35
10	0x00003954	2.0565e-41
11	0x000002e6	1.04e-42
12	0x8000210d	-1.1856e-41
13	0x00289cdb	3.729689e-39
14	0x00004af4	2.6888e-41
15	0x80002a90	-1.5269e-41
16	0x8000559d	-3.0712e-41
17	0x000024b6	1.317e-41
18	0x80002e6d	-1.6654e-41
19	0x00001c96	1.0255e-41
20	0x85778d61	-1.16398514e-35
21	0x8007ac2b	-7.04611e-40
22	0x000002db	1.024e-42
23	0x0900d38d	1.550691e-33
24	0x80000555	-1.913e-42
25	0x80000a7d	-3.762e-42
26	0x8df05cc2	-1.4813473e-30
27	0x8d595798	-6.6973725e-31
28	0x8000aa74	-6.1147e-41
29	0x0001e384	1.73453e-40
30	0x03d1e004	1.2335347e-36
31	0x80001437	-7.252e-42
32	0x88c5e866	-1.1911143e-33
33	0x0a9eab2c	1.5279234e-32
34	0x100b1ce3	2.743517e-29
35	0x800005a0	-2.018e-42
36	0x8000bc58	-6.7565e-41
37	0x80d60c74	-1.9657264e-38
38	0x800028f3	-1.469e-41
39	0x0ebf4ffb	4.7162154e-30
40	0x00027d65	2.28654e-40
41	0x006bddd1	9.905971e-39
42	0x00000e23	5.071e-42
43	0x00002976	1.4873e-41
44	0x000000b4	2.52e-43
45	0x80016ea7	-1.3153e-40
46	0x000024f8	1.3262e-41
47	0x80000c2f	-4.37e-42
48	0x00c55b56	1.8124358e-38
49	0x001e6edb	2.794832e-39
50	0x0802254e	3.9164303e-34
51	0x00004fea	2.8668e-41
52	0x00000d3d	4.749e-42
53	0x0001913a	1.43933e-40
54	0x000030d5	1.7518e-41
55	0x00004079	2.3128e-41
56	0x0025fd12	3.488698e-39
57	0x0000dca1	7.9147e-41
58	0x80000ba9	-4.183e-42
59	0x80001d73	-1.0564e-41
60	0x00001483	7.358e-42
61	0x801d7540	-2.705291e-39
62	0x80001d18	-1.0437e-41
63	0x8000388b	-2.0284e-41
64	0x8d68ea35	-7.1772436e-31
65	0x80002695	-1.384e-41
66	0x000028ef	1.4684e-41
67	0x0000099d	3.449e-42
68	0x8000227d	-1.2372e-41
69	0x80155179	-1.957772e-39
70	0x00001095	5.949e-42
71	0x03d37616	1.2428577e-36
72	0x80f49ffd	-2.2465254e-38
73	0x000015f7	7.88e-42
74	0x000008fc	3.223e-42
75	0x8000287f	-1.4527e-41
76	0x80001b28	-9.742e-42
77	0x00046cd3	4.06381e-40
78	0x0fccb40e	2.0185308e-29
79	0x800017df	-8.563e-42
80	0x000ab59f	9.83508e-40
81	0x0000263a	1.3713e-41
82	0x800010b7	-5.996e-42
83	0x000010e8	6.065e-42
84	0x80001996	-9.179e-42
85	0x00193ae0	2.317008e-39
86	0x000007f0	2.847e-42
87	0x00002cba	1.6045e-41
88	0x802c32f7	-4.059045e-39
89	0x8000a648	-5.965e-41
90	0x00003796	1.994e-41
91	0x8f8e0ebb	-1.4007955e-29
92	0x800000bd	-2.65e-43
93	0x80335525	-4.714154e-39
94	0x03bf2dc8	1.1236482e-36
95	0x00003b59	2.129e-41
96	0x057fea0e	1.20330314e-35
97	0x00000f64	5.521e-42
98	0x1007273c	2.665428e-29
99	0x800030cd	-1.7506e-41
100	0x0001cdf5	1.65719e-40
101	0x802934d4	-3.784207e-39
102	0x800007e0	-2.825e-42
103	0x800018ea	-8.937e-42
104	0x0fd7aa14	2.1266149e-29
105	0x80000f28	-5.437e-42
106	0x00002ff0	1.7197e-41
107	0x801ccef8	-2.64564e-39
108	0x000008b1	3.118e-42
109	0x00003ebf	2.2509e-41
110	0x00006538	3.631e-41
111	0x00002854	1.4467e-41
112	0x00002fee	1.7194e-41
113	0x00002b72	1.5585e-41
114	0x00000dc0	4.933e-42
115	0x00002182	1.202e-41
116	0x8000181b	-8.647e-42
117	0x000020a3	1.1708e-41
118	0x085bb8cb	6.612014e-34
119	0x000014fd	7.529e-42
120	0x0000290b	1.4723e-41
121	0x0822269b	4.879548e-34
122	0x06853130	5.0101314e-35
123	0x0000435b	2.4163e-41
124	0x0000246a	1.3063e-41
125	0x80000c47	-4.404e-42
126	0x00000f18	5.415e-42
127	0x00003400	1.8654e-41
128	0x8d442d87	-6.0451965e-31
129	0x000027f5	1.4334e-41
130	0x8000332c	-1.8357e-41
131	0x00000a61	3.723e-42
132	0x00001131	6.167e-42
133	0x00001bf0	1.0022e-41
134	0x853d351d	-8.896493e-36
135	0x00002fb8	1.7118e-41
136	0x8000027f	-8.95e-43
137	0x0d0192bc	3.992782e-31
138	0x80000556	-1.914e-42
139	0x00000853	2.986e-42
140	0x8d7eccf9	-7.851652e-31
141	0x80000872	-3.03e-42
142	0x80001f72	-1.128e-41
143	0x80002776	-1.4156e-41
144	0x00001e8b	1.0957e-41
145	0x80001ba2	-9.913e-42
146	0x8000da43	-7.8298e-41
147	0x0000a760	6.0043e-41
148	0x00000d80	4.843e-42
149	0x0000246c	1.3066e-41
150	0x00003812	2.0114e-41
151	0x00006784	3.7134e-41
152	0x0000273f	1.4079e-41
153	0x00002583	1.3457e-41
154	0x8e21dd2e	-1.9951276e-30
155	0x80001532	-7.603e-42
156	0x00001e30	1.0829e-41
157	0x800003ef	-1.411e-42
158	0x80002cde	-1.6095e-41
159	0x0000a655	5.9669e-41
160	0x80000cf5	-4.648e-42
161	0x08df4be8	1.343917e-33
162	0x80001bb1	-9.934e-42
163	0x8908fc80	-1.648913e-33
164	0x00002597	1.3485e-41
165	0x000020da	1.1785e-41
166	0x000003f2	1.415e-42
167	0x00002810	1.4372e-41
168	0x00001e3f	1.085e-41
169	0x80000710	-2.534e-42
170	0x80001bfb	-1.0038e-41
171	0x100b2d04	2.7447595e-29
172	0x00002c02	1.5787e-41
173	0x800011c8	-6.379e-42
174	0x8000b53f	-6.5019e-41
175	0x800207cf	-1.86472e-40
176	0x80000bc8	-4.226e-42
177	0x00004b0b	2.692e-41
178	0x00000a20	3.632e-42
179	0x00001040	5.83e-42
180	0x80001a66	-9.47e-42
181	0x800028a6	-1.4582e-41
182	0x00002ccd	1.6071e-41
183	0x000159fd	1.24117e-40
184	0x80001c8c	-1.024e-41
185	0x00003d9c	2.2101e-41
186	0x80001356	-6.936e-42
187	0x0866f408	6.9499965e-34
188	0x80001d6b	-1.0553e-41
189	0x000011ce	6.387e-42
190	0x80002755	-1.411e-41
191	0x80002a9c	-1.5285e-41
192	0x0000231b	1.2593e-41
193	0x06599dd7	4.0929126e-35
194	0x881854e8	-4.5840643e-34
195	0x00011a44	1.01258e-40
196	0x85937103	-1.3865328e-35
197	0x00007099	4.0392e-41
198	0x00008dbd	5.0846e-41
199	0x855b4a6e	-1.0311001e-35
200	0x80000cff	-4.662e-42
201	0x0c6069e1	1.7288194e-31
202	0x00001358	6.939e-42
203	0x00002dd2	1.6437e-41
204	0x000009dd	3.538e-42
205	0x00000a40	3.677e-42
206	0x80000312	-1.101e-42
207	0x00009156	5.2137e-41
208	0x00002337	1.2633e-41
209	0x8269c032	-1.7173294e-37
210	0x8bba050d	-7.1652194e-32
211	0x0a95a5d7	1.441056e-32
212	0x8000120e	-6.477e-42
213	0x8d7d6036	-7.8077454e-31
214	0x80000ddb	-4.97e-42
215	0x800162f0	-1.27328e-40
216	0x000016f4	8.234e-42
217	0x800022a6	-1.243e-41
218	0x8228324a	-1.2357123e-37
219	0x80000fab	-5.62e-42
220	0x8000227a	-1.2368e-41
221	0x0f0a1e65	6.809779e-30
222	0x800013ae	-7.06e-42
223	0x0fef7fa8	2.3616391e-29

graph_attention.v f4 [4, 8, 7]
0	0x8000046a	-1.583e-42
1	0x80000dc0	-4.933e-42
2	0x800007c4	-2.786e-42
3	0x800002b0	-9.64e-43
4	0x80001271	-6.616e-42
5	0x00002b85	1.5612e-41
6	0x800000fb	-3.52e-43
7	0x053e22db	8.940159e-36
8	0x830a76c2	-4.0690882e-37
9	0x00004044	2.3054e-41
10	0x00000732	2.581e-42
11	0x80002867	-1.4494e-41
12	0x800012c3	-6.73e-42
13	0x000015ac	7.774e-42
14	0x8000b69b	-6.5506e-41
15	0x000000c7	2.79e-43
16	0x000292b9	2.36305e-40
17	0x89672ee0	-2.7827654e-33
18	0x80015149	-1.20995e-40
19	0x832d4a2e	-5.0925285e-37
20	0x0002379f	2.03624e-40
21	0x00001f42	1.1213e-41
22	0x0584d4ac	1.2491344e-35
23	0x0886a625	8.103892e-34
24	0x00002927	1.4763e-41
25	0x80022cf3	-1.99796e-40
26	0x008dba6c	1.301568e-38
27	0x0000448a	2.4587e-41
28	0x800001fe	-7.15e-43
29	0x8001a583	-1.5121e-40
30	0x00002a64	1.5207e-41
31	0x000021f4	1.218e-41
32	0x86c40274	-7.373061e-35
33	0x0873c20b	7.335325e-34
34	0x08b86333	1.1097419e-33
35	0x80002afb	-1.5418e-41
36	0x00001b3f	9.774e-42
37	0x8f00f70f	-6.358469e-30
38	0x80002c83	-1.5968e-41
39	0x9247b50a	-6.3016476e-28
40	0x80002d10	-1.6165e-41
41	0x00002882	1.4531e-41
42	0x800059b9	-3.2186e-41
43	0x800029ff	-1.5065e-41
44	0x0000003e	8.7e-44
45	0x03ab5bec	1.0071581e-36
46	0x8000e392	-8.1637e-41
47	0x8000123d	-6.543e-42
48	0x8739e09d	-1.3983861e-34
49	0x8000189c	-8.828e-42
50	0x0000068d	2.35e-42
51	0x000001b8	6.17e-43
52	0x03d4e224	1.25121595e-36
53	0x072245ba	1.2208016e-34
54	0x0004ec35	4.52077e-40
55	0x864f6ba0	-3.9011443e-35
56	0x0001aad2	1.53114e-40
57	0x8000b434	-6.4645e-41
58	0x8afdc089	-2.4435437e-32
59	0x0000a648	5.965e-41
60	0x000156f2	1.23026e-40
61	0x12ceb741	1.3045603e-27
62	0x90936b60	-5.8146714e-29
63	0x80005388	-2.9965e-41
64	0x00001039	5.82e-42
65	0x80000d56	-4.784e-42
66	0x00000bc8	4.226e-42
67	0x891547ed	-1.7969042e-33
68	0x8580e86e	-1.2122443e-35
69	0x00000bfd	4.3e-42
70	0x00022a39	1.98818e-40
71	0x80002339	-1.2636e-41
72	0x800260cf	-2.184e-40
73	0x8001d4c2	-1.68159e-40
74	0x0aa024ee	1.5421331e-32
75	0x0a3789c8	8.837043e-33
76	0x8000845e	-4.7484e-41
77	0x00151e5e	1.939439e-39
78	0x80007c2d	-4.4546e-41
79	0x0000c5f1	7.1008e-41
80	0x03926b6c	8.605772e-37
81	0x80009bf8	-5.5951e-41
82	0x800002f0	-1.054e-42
83	0x800090fc	-5.201e-41
84	0x044d9e64	2.4170364e-36
85	0x801e23e9	-2.767947e-39
86	0x02311982	1.3011227e-37
87	0x80ce36a8	-1.8937719e-38
88	0x80001163	-6.237e-42
89	0x80000a97	-3.799e-42
90	0x00009dce	5.661e-41
91	0x00004eec	2.8312e-41
92	0x924feaa7	-6.5606914e-28
93	0x8faabcd3	-1.6836027e-29
94	0x80001844	-8.705e-42
95	0x800000f4	-3.42e-43
96	0x8a2e4ac5	-8.391858e-33
97	0x021f2ef0	1.1694946e-37
98	0x00c314ae	1.791534e-38
99	0x00001990	9.17e-42
100	0x8002e5f9	-2.6617e-40
101	0x00013365	1.10272e-40
102	0x0001184f	1.00556e-40
103	0x0005dcfc	5.38452e-40
104	0x85800893	-1.2040212e-35
105	0x8001324b	-1.09877e-40
106	0x8000590e	-3.1947e-41
107	0x017b89b9	4.620023e-38
108	0x00000833	2.941e-42
109	0x8000035f	-1.21e-42
110	0x000004d9	1.739e-42
111	0x000022d7	1.2498e-41
112	0x00000502	1.796e-42
113	0x0583f513	1.2409207e-35
114	0x00001a74	9.49e-42
115	0x801b526e	-2.509129e-39
116	0x001aef5b	2.473587e-39
117	0x0d2ff0a8	5.421572e-31
118	0x800033a0	-1.852e-41
119	0x052a3801	8.003648e-36
120	0x800018e4	-8.929e-42
121	0x80002204	-1.2203e-41
122	0x00002996	1.4918e-41
123	0x00000852	2.985e-42
124	0x80006f0f	-3.984e-41
125	0x8b367d66	-3.5146264e-32
126	0x8e9e7afc	-3.9068437e-30
127	0x8000201d	-1.152e-41
128	0x00003512	1.9038e-41
129	0x000011f7	6.445e-42
130	0x8732328b	-1.3406085e-34
131	0x00000a99	3.802e-42
132	0x0730586d	1.3266754e-34
133	0x03d48144	1.2489918e-36
134	0x80000d1f	-4.707e-42
135	0x8d644086	-7.033559e-31
136	0x80000459	-1.56e-42
137	0x00120cf7	1.65769e-39
138	0x80001867	-8.754e-42
139	0x800024d3	-1.321e-41
140	0x800033bd	-1.856e-41
141	0x00005fe4	3.4399e-41
142	0x80007cc8	-4.4763e-41
143	0x898a3f16	-3.3281617e-33
144	0x800006b4	-2.405e-42
145	0x800019fa	-9.319e-42
146	0x00000ff5	5.724e-42
147	0x000020d2	1.1774e-41
148	0x000001da	6.64e-43
149	0x0b2c735c	3.3212782e-32
150	0x0000225a	1.2323e-41
151	0x00002803	1.4354e-41
152	0x00001346	6.914e-42
153	0x00006958	3.779e-41
154	0x0bd3b36a	8.1544196e-32
155	0x000011b0	6.345e-42
156	0x87bfe6dc	-2.8874173e-34
157	0x80002a35	-1.5141e-41
158	0x0e489a4a	2.472619e-30
159	0x80002230	-1.2264e-41
160	0x80000d92	-4.868e-42
161	0x8d0e5b17	-4.3866774e-31
162	0x00000a67	3.732e-42
163	0x80008018	-4.5951e-41
164	0x00002902	1.4711e-41
165	0x00002226	1.225e-41
166	0x00005222	2.9464e-41
167	0x00002eea	1.683e-41
168	0x00001298	6.67e-42
169	0x000018dd	8.919e-42
170	0x80707e01	-1.0330777e-38
171	0x80002c7a	-1.5955e-41
172	0x000006de	2.463e-42
173	0x80000d6a	-4.812e-42
174	0x8000082e	-2.934e-42
175	0x051c7f71	7.358492e-36
176	0x000009a7	3.463e-42
177	0x8000539e	-2.9996e-41
178	0x8d3b9e60	-5.781446e-31
179	0x0d0c5084	4.323775e-31
180	0x00001e17	1.0794e-41
181	0x00002f30	1.6928e-41
182	0x0431aba5	2.0885065e-36
183	0x800248f5	-2.09843e-40
184	0x00000c09	4.317e-42
185	0x00000bfa	4.296e-42
186	0x000027b2	1.424e-41
187	0x80001981	-9.149e-42
188	0x800195bf	-1.45554e-40
189	0x80005e48	-3.3822e-41
190	0x80004075	-2.3123e-41
191	0x0000027d	8.93e-43
192	0x0232eeaf	1.3145873e-37
193	0x8000abe2	-6.166e-41
194	0x80003f06	-2.2609e-41
195	0x00066917	5.88712e-40
196	0x80001f34	-1.1194e-41
197	0x00002850	1.4461e-41
198	0x000030e3	1.7537e-41
199	0x80000e1f	-5.066e-42
200	0x00001b46	9.784e-42
201	0x000005be	2.06e-42
202	0x00000d63	4.802e-42
203	0x092c353c	2.0728778e-33
204	0x800106c0	-9.4257e-41
205	0x8003c369	-3.45606e-40
206	0x80054045	-4.82233e-40
207	0x00027fcb	2.29514e-40
208	0x000c1dfd	1.112784e-39
209	0x00038742	3.24028e-40
210	0x80000fb0	-5.628e-42
211	0x000020d3	1.1775e-41
212	0x000016f6	8.237e-42
213	0x80001acc	-9.613e-42
214	0x8d0fdbe7	-4.4329975e-31
215	0x80005189	-2.925e-41
216	0x8000269e	-1.3853e-41
217	0x8001a432	-1.50738e-40
218	0x90095983	-2.7087443e-29
219	0x00001405	7.182e-42
220	0x81a93afa	-6.216542e-38
221	0x00005ded	3.3694e-41
222	0x01b6f8fb	6.721351e-38
223	0x0b0d27ca	2.7185546e-32

graph_attention.qkv_proj_low.weight f4 [24, 32]
0	0xbc366580	-0.011132598
1	0x00000f52	5.496e-42
2	0xbbcd3626	-0.0062625585
3	0x3cd9ddac	0.02659496
4	0x3cb2e33e	0.021836873
5	0x3dbddec3	0.09271004
6	0x3dd79605	0.10526661
7	0xbad72975	-0.0016415553
8	0xbdaec5a2	-0.08533789
9	0x33f846e3	1.1561294e-07
10	0xbdc77b36	-0.097402975
11	0x3c9b8c0d	0.01898768
12	0xbd6abf64	-0.05731143
13	0xbc590bb1	-0.013247416
14	0xbd216aeb	-0.039408606
15	0x3cbdf2f6	0.023187142
16	0x3e0defde	0.13861033
17	0x3ddc6ae6	0.10762577
18	0xbd290a67	-0.041269686
19	0xbc4e5531	-0.012593553
20	0x3c72b52f	0.014813705
21	0xbd2afac2	-0.041743048
22	0x3c2c67c6	0.010522788
23	0x3c0c7c3e	0.0085745435
24	0xba65628b	-0.0008750341
25	0x3dd62990	0.10457146
26	0x3cdfdbde	0.02732652
27	0x3cab2ef0	0.020896405
28	0x3d2464c7	0.04013517
29	0x3b79caed	0.0038115338
30	0x3c0ad604	0.008473877
31	0x3c784637	0.015153459
32	0xbcd6b4d1	-0.026209267
33	0x80001718	-8.284e-42
34	0xbd622d6e	-0.055219106
35	0x3db35767	0.08756905
36	0x3d6c14ee	0.057637148
37	0x3d55b7d7	0.052177276
38	0xbd31b7d0	-0.043388188
39	0xbaeae679	-0.0017921469
40	0xbdc20087	-0.09472757
41	0x2d84c9f4	1.5096348e-11
42	0xbe0bb90f	-0.13644813
43	0xbd9e026b	-0.07715305
44	0xbc010be4	-0.00787637
45	0x3b8f74e7	0.0043779495
46	0xbca3fa08	-0.020016685
47	0xbc931c3b	-0.017957797
48	0xbdb19618	-0.08671206
49	0x3dac7ade	0.084218726
50	0xbdf5380a	-0.11973579
51	0x3d4a8ed3	0.049452614
52	0x3d9e9c09	0.07744605
53	0x3d315273	0.04329152
54	0x3cfe5cf6	0.031050187
55	0x3a826116	0.0009947147
56	0x38bfff75	9.155172e-05
57	0x3dfffd87	0.124995284
58	0x3cc3337b	0.023828259
59	0xbd1077e8	-0.0352706
60	0x3cc42e52	0.023947868
61	0xba61c483	-0.00086123514
62	0xbc30d305	-0.0107924985
63	0x3d140dae	0.03614586
64	0xbc72b72c	-0.014814179
65	0x000007e3	2.829e-42
66	0xbccc788e	-0.024959829
67	0x3c940b23	0.018071717
68	0xbc54db33	-0.012991714
69	0xbcbec659	-0.023287939
70	0x3b2a0dc2	0.0025948142
71	0x3adc1516	0.0016790952
72	0xbcf4ee71	-0.029898854
73	0xa3416fdd	-1.0486239e-17
74	0xbd34be38	-0.04412672
75	0xbdb152b3	-0.08658352
76	0xbd9777f5	-0.07395927
77	0xbbeaefdb	-0.0071697063
78	0x3b4dfde6	0.0031431853
79	0xbae70b7a	-0.0017627322
80	0x3bbc7fee	0.005752555
81	0x39b5eb9f	0.00034698562
82	0xbd6860a4	-0.05673279
83	0xbb3bf015	-0.0028677036
84	0xba989b32	-0.0011642931
85	0xbce40392	-0.027833734
86	0xbad57f0d	-0.0016288474
87	0x3b16f754	0.0023035603
88	0x34f63f92	4.5867324e-07
89	0x3c91d6c7	0.01780261
90	0x3aeaa427	0.0017901704
91	0x3b38d272	0.0028201607
92	0x3a31d65d	0.0006783957
93	0xb7d0ffb0	-2.4914596e-05
94	0xbafd6717	-0.0019333091
95	0xbc32e6cc	-0.010919284
96	0x3c352993	0.011057275
97	0x00001fdb	1.1428e-41
98	0xbda70b27	-0.08156424
99	0x3c873d0b	0.0165086
100	0xbc38259f	-0.011239438
101	0xbcbc7992	-0.023007188
102	0xbb2028c2	-0.0024438356
103	0xbae3c4b4	-0.0017377348
104	0xbd00042d	-0.031253982
105	0x35c8a952	1.495044e-06
106	0xbde6f413	-0.11277022
107	0x3d816c3a	0.06319471
108	0x3da6a901	0.08137704
109	0x3c838c41	0.01605809
110	0x3a9c278d	0.0011913643
111	0xbc6e6ee7	-0.014552808
112	0xbca50de3	-0.020148223
113	0xbca91776	-0.02064107
114	0xbc8d1ae1	-0.01722473
115	0x3cdf185b	0.027233293
116	0xbd3d4e9c	-0.046217546
117	0xbda79d0c	-0.08184251
118	0xbbb6741c	-0.0055680405
119	0x3bc0281f	0.005864158
120	0x34fbc80a	4.689794e-07
121	0x3dcf4716	0.101209804
122	0x3bb559ab	0.005534371
123	0xbcbef1ca	-0.023308653
124	0xbc0f23f9	-0.008736604
125	0x365b8d3c	3.2715752e-06
126	0x3b4919fd	0.0030685656
127	0x3b39f734	0.0028376104
128	0xbd824eee	-0.06362711
129	0x80001efa	-1.1112e-41
130	0x3de49b09	0.11162383
131	0xbd699e09	-0.05703548
132	0x3b4d4c5a	0.0031326027
133	0xbcd5a1c9	-0.026078122
134	0x3b3d96a1	0.0028928893
135	0x3ae4810c	0.0017433478
136	0xbd85809f	-0.06518673
137	0xb69654ca	-4.480219e-06
138	0x3e04d206	0.12970743
139	0x3d6357d7	0.055503692
140	0x3dbdf0ca	0.092744425
141	0xbcff8e40	-0.03119576
142	0x3ce09ffc	0.027420036
143	0xbc19b94c	-0.009382557
144	0xbd8e267b	-0.06940933
145	0x3af8d736	0.0018985036
146	0xbcb5f336	-0.022210699
147	0xbb4247e5	-0.0029644903
148	0xbcc58acf	-0.02411404
149	0xbd3a81e7	-0.04553404
150	0xbc9ee228	-0.01939495
151	0x3be0e151	0.0068627973
152	0xba0b17e0	-0.0005305987
153	0x3d842a97	0.06453436
154	0x3d49be9a	0.049254037
155	0x3aadf358	0.0013271375
156	0xbc920e44	-0.017829068
157	0xbb2f93a5	-0.0026790884
158	0x3c03bd03	0.008040669
159	0x3cda5b12	0.026654754
160	0x3d49bf30	0.049254596
161	0x0000369c	1.959e-41
162	0x3cf5495d	0.029942209
163	0x3da060b2	0.07830943
164	0xb8ce4ad8	-9.836786e-05
165	0xbd1537ea	-0.036430277
166	0xbd6303f8	-0.055423707
167	0xb7a19244	-1.9260806e-05
168	0x3d1354c8	0.035969526
169	0x1d837ce9	3.4804565e-21
170	0xbd981821	-0.07426477
171	0x3d389b4d	0.04506998
172	0xbd62b1bd	-0.055345286
173	0xbc38f07e	-0.011287807
174	0x3b7b91ec	0.0038386537
175	0xbb85e681	-0.004086316
176	0x3d3b00df	0.045655128
177	0x3d0d5030	0.0345003
178	0xbd1332bd	-0.03593706
179	0x3c904a9e	0.017613705
180	0xbcb851b0	-0.02249989
181	0xbaed14f1	-0.0018087906
182	0x3b898c69	0.0041976464
183	0xbad78ff9	-0.0016446105
184	0x341e4b74	1.4742346e-07
185	0x3d556465	0.052097697
186	0xbb23b380	-0.0024978817
187	0xbc6e942b	-0.014561693
188	0x393bdb4a	0.00017915401
189	0xba59363a	-0.00082859735
190	0xba879278	-0.0010343334
191	0xbbddaebf	-0.006765216
192	0xbc308c4c	-0.010775637
193	0x00005238	2.9495e-41
194	0x3d2313d1	0.03981382
195	0x3d022b67	0.031779673
196	0x3a046196	0.0005049942
197	0xbc5bf1f9	-0.01342439
198	0xbcbd8897	-0.02313642
199	0x37636df6	1.3555857e-05
200	0xbc05429e	-0.008133559
201	0x00002057	1.1601e-41
202	0xbc09c478	-0.008408658
203	0xbc0adc27	-0.00847534
204	0xbd8dab93	-0.06917491
205	0xbb84ed6e	-0.004056624
206	0x3a040367	0.00050359074
207	0xba58f13e	-0.0008275694
208	0xbc931b2e	-0.017957296
209	0x3d0000ed	0.031250883
210	0xbce547e5	-0.027988384
211	0x3a59c02f	0.00083065307
212	0x3d18e7c0	0.03733039
213	0x3d084181	0.033265594
214	0x3b2b24a9	0.002611438
215	0x3203cc23	7.671619e-09
216	0x302ab234	6.209888e-10
217	0xbd277c84	-0.04089023
218	0xbb0461d0	-0.0020199902
219	0x3b75323d	0.0037413978
220	0x3b4f6a07	0.003164889
221	0xb9cc2f69	-0.00038945235
222	0xba8e38d8	-0.0010850681
223	0xbb355edb	-0.0027674946
224	0xbce440e2	-0.02786297
225	0x00000323	1.125e-42
226	0xbbd14187	-0.0063859853
227	0xbc5b626a	-0.013390163
228	0xbb8d508c	-0.0043125805
229	0x3a5fd05a	0.00085378217
230	0x3be6c2ff	0.0070422883
231	0xb79dc12a	-1.8805807e-05
232	0x3d16f760	0.03685701
233	0xaa559143	-1.8968598e-13
234	0xbc5cfe60	-0.013488382
235	0xbc00af20	-0.007854253
236	0x3ca7993c	0.02045881
237	0x3ba176f5	0.004927511
238	0x394594eb	0.0001884286
239	0x3ab3cc36	0.0013717476
240	0x3d1c71dd	0.038194526
241	0xbc3298af	-0.01090066
242	0xbb33ba86	-0.002742441
243	0xba933558	-0.0011231108
244	0x3bcd3597	0.006262492
245	0xbcc9f9aa	-0.024655182
246	0xbabb8e55	-0.0014309386
247	0x37f1e9ac	2.883825e-05
248	0x3127671d	2.4360312e-09
249	0xbd1d19df	-0.03835475
250	0xbc1c5d2d	-0.009543699
251	0xbbe4ef34	-0.006986523
252	0xb7c7eeae	-2.3833793e-05
253	0x38fdd891	0.00012104319
254	0xb69dbb4a	-4.700768e-06
255	0xbbb2219a	-0.0054361345

graph_attention.qkv_proj_low.bias f4 [24]
0	0x3d22f05d	0.03978001
1	0xbd983ba3	-0.0743325
2	0xbd4edc88	-0.050503284
3	0xbcb9e634	-0.022692777
4	0xbcd4876e	-0.025943484
5	0xbae31286	-0.0017324246
6	0xbc00bfd1	-0.007858233
7	0x3b2fc14c	0.0026818095
8	0x3d404fd8	0.046951145
9	0x3d96e45c	0.07367775
10	0xbd19c8d8	-0.037545055
11	0xbd974b72	-0.07387437
12	0x3c2710d3	0.010196882
13	0xbc463f00	-0.012099981
14	0x3c52a27f	0.012856125
15	0xbc145c9c	-0.009055283
16	0x3c530844	0.012880389
17	0xbdbec3fa	-0.09314723
18	0xbb7d57ee	-0.0038657147
19	0xbcf5bb9b	-0.029996684
20	0xbcc19b70	-0.023633689
21	0xbc7d499f	-0.015459447
22	0x3d2dec3f	0.04246163
23	0x3b66b671	0.0035203958

graph_attention.qkv_proj_high.weight f4 [96, 24]
0	0xbd2ff558	-0.042958587
1	0xb9c9ef88	-0.00038516172
2	0x392e2b12	0.00016609978
3	0xbd11dbd1	-0.035610024
4	0x3b5d3394	0.0033752667
5	0xbb89f143	-0.004209669
6	0x3caf9974	0.021435477
7	0x38fd21e3	0.00012070292
8	0x3c8ecede	0.017432626
9	0xbcacf791	-0.021114143
10	0x3d2c0bc9	0.042003427
11	0xbd5ec452	-0.054386444
12	0x3ba00590	0.0048834756
13	0x3cea2cfa	0.0285859
14	0xbcda03dd	-0.02661317
15	0x3cb61318	0.022225901
16	0xbb5a322a	-0.003329406
17	0x3cdfe70a	0.027331848
18	0xbd1ff55c	-0.039052352
19	0x3c6234a3	0.013806495
20	0xb9c403cf	-0.0003738687
21	0xbbb307a8	-0.005463559
22	0xbae7e1e8	-0.0017691227
23	0x3cbda2e4	0.023148961
24	0xbd2f619d	-0.0428177
25	0xba0c9539	-0.0005362812
26	0xb853e480	-5.0519127e-05
27	0xbd118bb8	-0.035533637
28	0x3b572c81	0.0032832923
29	0xbb89e50e	-0.0042082136
30	0x3cae88de	0.021305498
31	0x394f9147	0.00019795178
32	0x3c8e288a	0.017353315
33	0xbca890c4	-0.020576842
34	0x3d2aa75f	0.041663524
35	0xbd5ebd1f	-0.05437958
36	0x3ba0d4ab	0.0049081645
37	0x3ce8385d	0.028347189
38	0xbcc78963	-0.024357503
39	0x3cb56d04	0.02214671
40	0xbb569e14	-0.003274803
41	0x3cdd4cb3	0.027014112
42	0xbd1fe57a	-0.039037205
43	0x3c666180	0.014061332
44	0xb9c10ed7	-0.00036822885
45	0xbbb072d4	-0.0053847823
46	0xbad9eba7	-0.0016626016
47	0x3cbd0fa4	0.023078747
48	0xbd300884	-0.04297687
49	0xb9de371e	-0.00042384205
50	0xb8d7b150	-0.00010285026
51	0xbd12b8e5	-0.03582086
52	0x3b6b4d1b	0.0035904113
53	0xbb89fbd1	-0.004210927
54	0x3cafee97	0.021476073
55	0x390bac1e	0.00013320192
56	0x3c8eeeb3	0.017447805
57	0xbcab9898	-0.020946786
58	0x3d2c9cf7	0.04214188
59	0xbd6350c7	-0.055496957
60	0x3ba0c697	0.0049064863
61	0x3cea87c0	0.028629184
62	0xbcd93e4d	-0.026518965
63	0x3cb63e51	0.022246512
64	0xbb5be810	-0.0033555068
65	0x3cdbbf8a	0.026824731
66	0xbd1fe9e8	-0.03904143
67	0x3c5ff854	0.013670046
68	0xb9bd4796	-0.00036102225
69	0xbbb35864	-0.0054731835
70	0xbae90f90	-0.0017781127
71	0x3cbe691d	0.023243481
72	0xbd2f7124	-0.04283251
73	0xba0e0013	-0.0005416881
74	0xb897d664	-7.2401745e-05
75	0xbd11c3af	-0.03558701
76	0x3b5bde0b	0.0033549096
77	0xbb89b4bf	-0.004202455
78	0x3cae9ffe	0.021316525
79	0x3940361f	0.00018330709
80	0x3c8e3ea0	0.017363846
81	0xbca83f73	-0.020538067
82	0x3d2b063d	0.041753996
83	0xbd60b9fd	-0.054864872
84	0x3ba01c15	0.00488616
85	0x3ce85470	0.028360575
86	0xbcd660c6	-0.026169192
87	0x3cb57fe4	0.02215571
88	0xbb566e40	-0.0032719523
89	0x3cd97747	0.026546134
90	0xbd1feb56	-0.039042793
91	0x3c659f23	0.014014992
92	0xb9b56238	-0.0003459619
93	0xbbaff5df	-0.0053698863
94	0xbada8c63	-0.0016673919
95	0x3cbd3dc0	0.023100734
96	0xbd2f9e00	-0.04287529
97	0xb9f9e96d	-0.00047666897
98	0xb789229b	-1.6347787e-05
99	0xbd129592	-0.035787173
100	0x3b5e55c8	0.0033925641
101	0xbb8b0cde	-0.0042434772
102	0x3caeee4e	0.021353867
103	0x393fc3d4	0.00018288131
104	0x3c8e7036	0.01738749
105	0xbcaa4116	-0.020782989
106	0x3d2b4a34	0.041818812
107	0xbd5fd31a	-0.05464468
108	0x3ba13e64	0.0049207676
109	0x3ce8ccd2	0.028417978
110	0xbcda661f	-0.026660023
111	0x3cb59fb5	0.02217088
112	0xbb57e3e9	-0.0032942242
113	0x3cd33a8a	0.02578475
114	0xbd1fee6b	-0.039045732
115	0x3c67ab7d	0.014140007
116	0xb9b6f91b	-0.00034899343
117	0xbbb18897	-0.005417894
118	0xbade49f5	-0.0016959297
119	0x3cbd4b97	0.023107333
120	0xbd2f414e	-0.04278689
121	0xba071165	-0.00051524333
122	0xb93b1cb9	-0.0001784441
123	0xbd12b2bd	-0.03581499
124	0x3b61d943	0.0034461773
125	0xbb888cbd	-0.004167168
126	0x3caf2a39	0.021382438
127	0x384d5351	4.8953403e-05
128	0x3c8e8668	0.017398074
129	0xbcab00d9	-0.020874428
130	0x3d2b6a0d	0.041849185
131	0xbd605112	-0.054764815
132	0x3ba0b1e0	0.004904017
133	0x3ce94531	0.028475376
134	0xbcdce091	-0.02696255
135	0x3cb5c99e	0.022190865
136	0xbb5caacc	-0.0033671139
137	0x3cd66510	0.026171237
138	0xbd1ff37c	-0.039050564
139	0x3c64deb1	0.013969109
140	0xb9c77e6a	-0.00038050424
141	0xbbb19aff	-0.0054200883
142	0xbadef35b	-0.0017009781
143	0x3cbdb0ff	0.023155687
144	0xbd2f0e73	-0.04273839
145	0xb9e343ff	-0.00043347475
146	0x39286ce9	0.000160623
147	0xbd1223cd	-0.035678674
148	0x3b67922f	0.0035334935
149	0xbb881ce6	-0.0041538356
150	0x3caf6818	0.02141194
151	0x37f0e0c8	2.8714901e-05
152	0x3c8eca3f	0.017430423
153	0xbca5ab1b	-0.020223191
154	0x3d2c114c	0.042008683
155	0xbd615d9a	-0.055020906
156	0x3b9fb9c4	0.00487444
157	0x3ce9f995	0.028561393
158	0xbcc5fbc6	-0.024167906
159	0x3cb5f9a7	0.02221377
160	0xbb5f113c	-0.0034037372
161	0x3cdc4fc3	0.026893502
162	0xbd1ff50f	-0.039052065
163	0x3c63841c	0.013886478
164	0xb9bc0b66	-0.00035866647
165	0xbbb2af40	-0.0054530203
166	0xbae165c8	-0.0017196471
167	0x3cbe499a	0.023228455
168	0xbd2ee2b2	-0.042696662
169	0xba0725d1	-0.00051554764
170	0xb948f2d2	-0.00019163944
171	0xbd11c190	-0.035584986
172	0x3b58b428	0.0033066366
173	0xbb8867d7	-0.0041627693
174	0x3cae4349	0.021272318
175	0x38ae25d8	8.3040155e-05
176	0x3c8e276f	0.017352788
177	0xbca5e587	-0.020251049
178	0x3d2aab75	0.04166742
179	0xbd5def0b	-0.054183047
180	0x3ba10b2e	0.004914663
181	0x3ce7e2d6	0.028306406
182	0xbcd30c29	-0.025762634
183	0x3cb54e5f	0.022132097
184	0xbb5e5976	-0.0033927835
185	0x3cd66c45	0.026174674
186	0xbd1fdfa2	-0.039031632
187	0x3c630ad7	0.013857565
188	0xb9c84ff3	-0.0003820654
189	0xbbb017a6	-0.005373913
190	0xbad32990	-0.0016110409
191	0x3cbd06cb	0.023074528
192	0x3c595a95	0.013266225
193	0x3c20882b	0.00979809
194	0x3b6fe414	0.003660445
195	0x3c0c46ab	0.00856177
196	0xbb9f5494	-0.0048623774
197	0x3b90fe8f	0.004424877
198	0xbacd179b	-0.0015647294
199	0xb8f65bfe	-0.00011747329
200	0xbbb82e3c	-0.005620746
201	0x3b7738d2	0.0037723077
202	0xba2aabe8	-0.00065106014
203	0x3c023d96	0.007949254
204	0xbb6355a4	-0.0034688497
205	0xbb895598	-0.004191112
206	0xbb056193	-0.0020352348
207	0xbba6c717	-0.0050896513
208	0x3a98e460	0.0011664741
209	0xbb53ee30	-0.0032338016
210	0x3c436ea3	0.011928233
211	0xba7954c8	-0.00095112296
212	0xbb9c9929	-0.0047790003
213	0x3b5a7c5e	0.0033338289
214	0xbbb924cc	-0.0056501385
215	0xbc1aeea6	-0.009456312
216	0x3c5a815a	0.013336504
217	0x3c202fcb	0.00977702
218	0x3b6d5c5f	0.0036218388
219	0x3c0d407c	0.008621331
220	0xbb9f54cc	-0.0048624035
221	0x3b9114da	0.0044275345
222	0xbad443d7	-0.0016194534
223	0xb8ea71c4	-0.0001117918
224	0xbbb8a39b	-0.0056347377
225	0x3b7e79f4	0.0038830014
226	0xba4546c6	-0.00075254997
227	0x3c043568	0.008069374
228	0xbb6a2533	-0.003572774
229	0xbb8cb8ea	-0.0042945044
230	0xbb025a1d	-0.0019890137
231	0xbba5e76a	-0.005062987
232	0x3a95f3a4	0.0011440408
233	0xbb585952	-0.0033012223
234	0x3c438066	0.011932468
235	0xba7b4ec7	-0.0009586629
236	0xbb9d96ad	-0.0048092217
237	0x3b5b1f92	0.0033435565
238	0xbbb9db7d	-0.005671917
239	0xbc1b0947	-0.009462661
240	0x3c5b533a	0.013386542
241	0x3c20c01a	0.009811426
242	0x3b6b7e20	0.003593333
243	0x3c0d3ed7	0.008620939
244	0xbb9f5e7a	-0.0048635574
245	0x3b910f99	0.004426908
246	0xbad164a9	-0.0015975434
247	0xb9004ccd	-0.00012235642
248	0xbbb94724	-0.0056542326
249	0x3b7f7e35	0.0038985137
250	0xba350406	-0.00069052016
251	0x3c04c33c	0.008103188
252	0xbb6478f7	-0.003486214
253	0xbb8d2e72	-0.004308515
254	0xbb02b0cf	-0.0019941812
255	0xbba63952	-0.005072751

graph_attention.qkv_proj_high.bias f4 [96]
0	0x3bac1a23	0.005252139
1	0x3ac12dd7	0.0014738393
2	0x3b9a55e8	0.004709948
3	0x3b065ccb	0.0020502086
4	0x3b2f5afa	0.0026757107
5	0x3b3d0904	0.0028844485
6	0x3b134fa2	0.0022477885
7	0x38e9f029	0.00011155039
8	0x3a6363fc	0.00086742616
9	0x3a351a00	0.00069084764
10	0x3a314d1c	0.00067635044
11	0x3a446b77	0.000749282
12	0x3a21ffe0	0.0006179791
13	0x3a48676d	0.0007644806
14	0x3a913420	0.0011078157
15	0x3a66839a	0.0008793414
16	0xbc45a72f	-0.012063785
17	0xbc105d82	-0.0088113565
18	0x3ccfd523	0.025370186
19	0x3ad30710	0.0016100127
20	0xba103aff	-0.0005501955
21	0x3c5b8fb7	0.0134009635
22	0xbc11cfe7	-0.008899665
23	0xbb862890	-0.004094191
24	0xb9b96726	-0.000353628
25	0xba76b607	-0.00094112795
26	0xbb3e0ffd	-0.002900123
27	0xbb21e707	-0.0024704353
28	0xbaf36657	-0.0018569928
29	0xba87f39d	-0.0010372285
30	0xbb3130e1	-0.002703719
31	0xba29912b	-0.000646847
32	0xbbea12d0	-0.007143356
33	0xbbe2361d	-0.0069034235
34	0xbbe0877a	-0.0068520876
35	0xbbdec299	-0.0067981
36	0xbbebed38	-0.0071999095
37	0xbbe4233d	-0.0069622085
38	0xbbe1f5f4	-0.006895775
39	0xbbf2b012	-0.007406243
40	0xba0767d7	-0.00051653147
41	0xba0d9478	-0.0005400847
42	0xba0d26d7	-0.0005384511
43	0xba0a29c7	-0.00052705075
44	0xba0b885f	-0.000532275
45	0xba0f8aa9	-0.0005475679
46	0xb9f73f29	-0.0004715857
47	0xba0c6707	-0.00053559284
48	0xba929508	-0.0011183331
49	0xbacbda06	-0.0015552647
50	0xba9a27dd	-0.0011761148
51	0xbaa3d8ef	-0.0012500564
52	0xbacb5c87	-0.0015515246
53	0xba87db25	-0.0010364993
54	0xba725f05	-0.00092457264
55	0xbaeda47f	-0.0018130689
56	0xba05b7a1	-0.000510091
57	0xb958d5e2	-0.00020679043
58	0xba025aef	-0.00049726566
59	0xb98ff9b3	-0.00027461126
60	0xb9e110a5	-0.00042927745
61	0xb9da3e97	-0.00041626833
62	0xba0a2bde	-0.0005270819
63	0xb9dbc35e	-0.00041916495
64	0xbc660c32	-0.0140409935
65	0xbc550d6b	-0.013003687
66	0xbd72c60f	-0.059270915
67	0x3db82d91	0.08993066
68	0x3e00066a	0.12502447
69	0x3e0660ed	0.13122912
70	0x3d1c2bd7	0.038127746
71	0x3d2e8591	0.042607848
72	0x3d88f61d	0.066875674
73	0x3d6f4144	0.05841185
74	0xbd976ea4	-0.0739415
75	0xbd37e819	-0.04489908
76	0xbd35a1a3	-0.044343602
77	0x3d8fadb3	0.07015552
78	0x3d8e6613	0.06953063
79	0xbbc3ee43	-0.0059793307
80	0xbcf66867	-0.03007908
81	0xbdf56ec3	-0.11984017
82	0xbd2bac8d	-0.041912604
83	0x3e44dc82	0.19224742
84	0xbd5c9cbe	-0.05386042
85	0xbd8472a6	-0.0646718
86	0x3c63b08a	0.013897071
87	0xb909cda8	-0.00013141951
88	0xbd0ae0db	-0.033905845
89	0xbab48755	-0.0013773242
90	0x3d106740	0.035254717
91	0xbd0612f3	-0.032732915
92	0x3d95f911	0.07322896
93	0xbd004b4c	-0.03132181
94	0x3ba1d549	0.0049387557
95	0xbd0bbf5e	-0.03411805
