save_all/MSTAGAT-Net.australia-covid.w-20.h-7.no_agam.pt (torch, 120895 bytes, 61 tensors)

temp_conv.depthwise.weight f4 [1, 1, 3]
0.17067981 0.2701905 -0.3074611
00000000: b0c6 2e3e 6956 8a3e 8b6b 9dbe

temp_conv.pointwise.weight f4 [16, 1, 1]
-0.03694934 0.025930252 -0.06962066 0.12995735 0.35835928 -0.2367267 0.3478476 0.03053921
0.24082343 0.023487108 0.06664979 -0.0256645 0.2663867 0.022452988 -0.06104044 0.027529562
00000000: 3158 17bd ae6b d43c 4795 8ebd 8a13 053e
00000010: de7a b73e 7c68 72be 1519 b23e 5e2d fa3c
00000020: 6b9a 763e 0968 c03c af7f 883d 5c3e d2bc
00000030: d663 883e 54ef b73c 8a05 7abd ad85 e13c

temp_conv.pointwise.bias f4 [16]
-0.056278795 1.821775e-06 -0.032794513 0.18324839 -0.28136277 -0.05641233 -0.0036245643 -0.13923682
-1.1811313e-07 -0.45070544 0.37684053 -0.33117172 0.2673017 -8.75452e-06 -0.009714549 0.15071279
00000000: 9884 66bd b683 f435 8a53 06bd 77a5 3b3e
00000010: c80e 90be 9e10 67bd 198a 6dbb 1994 0ebe
00000020: 61a5 fdb3 ddc2 e6be 3ef1 c03e 578f a9be
00000030: c5db 883e 61e0 12b7 c629 1fbc 7454 1a3e

temp_conv.bn2.weight f4 [16]
0.6417717 0.5007753 0.5868899 0.5068372 0.50847197 0.6112873 0.49754307 0.49350563
0.48967147 0.47590983 0.5112687 0.6069788 0.5008799 0.4921339 0.6551862 0.5011626
00000000: 264b 243f cf32 003f 6b3e 163f 15c0 013f
00000010: 382b 023f 537d 1c3f f7bd fe3e c5ac fc3e
00000020: 38b6 fa3e 74aa f33e 81e2 023f f662 1b3f
00000030: aa39 003f f9f8 fb3e 48ba 273f 314c 003f

temp_conv.bn2.bias f4 [16]
-0.038820643 0.033692174 -0.04386797 0.024687268 0.019209607 -0.054047316 0.033199858 0.029445224
0.029471552 0.035230845 0.043242227 -0.039504405 0.04578791 0.06114025 -0.04368684 0.034604218
00000000: 6502 1fbd ce00 0a3d e7ae 33bd f43c ca3c
00000010: 775d 9d3c b860 5dbd 93fc 073d 1c37 f13c
00000020: 536e f13c 384e 103d c31e 313d 5fcf 21bd
00000030: 1b8c 3b3d 336e 7a3d f9f0 32bd 27bd 0d3d

temp_conv.bn2.running_mean f4 [16]
-0.06809104 0.0070864963 -0.05243775 0.22062516 -0.19868864 -0.11781297 0.081804626 -0.13579352
0.059710212 -0.45104745 0.40015355 -0.3436561 0.33889356 0.006242751 -0.026264695 0.1626613
00000000: 5173 8bbd d735 e83b f7c8 56bd 90eb 613e
00000010: 0975 4bbe ed47 f1bd 2f89 a73d 750d 0bbe
00000020: b292 743d b1ef e6be ede0 cc3e b1f3 afbe
00000030: 7583 ad3e fe8f cc3b 0f29 d7bc af90 263e

temp_conv.bn2.running_var f4 [16]
0.00033021052 0.0001999624 0.0012467005 0.004204742 0.031026896 0.013688763 0.029254436 0.00023755056
0.014158377 0.00015978144 0.0011481172 0.0001632075 0.017275384 0.00015556387 0.000979041 0.00022355239
00000000: 1b20 ad39 ffac 5139 5468 a33a efc7 893b
00000010: 1e2c fe3c d546 603c 00a7 ef3c fe16 7939
00000020: 8af8 673c 018b 2739 6c7c 963a ae22 2b39
00000030: 1b85 8d3c dc1e 2339 2a53 803a 6369 6a39

feature_process_low.weight f4 [16, 320]
0.0074206204 0.015395614 0.0031500096 -0.014303406 0.0017497891 -0.0063119223 0.0044645034 0.023301693
0.0040026666 -0.01933388 0.012244011 -0.0072728656 0.0055757244 -0.02842766 -0.04116701 -0.027701735
-0.043072123 -0.016741717 -0.030186996 0.05620631 0.0016168999 0.006905426 0.0065980977 -0.0010539503
0.0073556486 0.006877142 0.012370308 0.0024687785 0.0036647036 -0.0012606716 -0.005979387 -0.0082370695
0.0005924091 -0.008532912 -0.005200285 -0.011885247 -0.010171971 -0.016695915 -0.026082782 -0.041120958
-0.0037392387 -0.0006327469 -0.0025849699 0.019727554 -0.014948342 -0.019056221 0.021748053 -0.017809171
0.0043565063 -0.02071713 -0.0033273245 -0.03427569 -0.028061995 -0.0024910783 -0.009392137 -0.024742614
-0.010453665 -0.016969502 -0.03702913 0.038589146 0.0009499622 0.0044105793 0.009429858 0.007672662
0.008561709 0.010831609 0.010983546 0.0076019447 0.0017140874 -0.0029466406 -0.009415145 -0.0025609585
-0.013171416 -0.0042374637 -0.0047354256 -0.01728885 -0.010832327 -0.014668183 -0.017597409 -0.04599352
0.0015177231 0.0049137385 0.003530206 0.005201656 0.009682281 0.009550877 0.014792906 0.008691845
0.0045518815 -0.004859086 -0.0028209528 -0.0029805957 -0.012037743 -0.008133899 -0.0043945764 -0.020474736
-0.025109647 -0.011577904 -0.011701721 -0.05710617 -0.021783875 -0.032945085 -0.004024575 -0.012419151
0.0065727206 -0.016433684 0.022154381 -0.01813616 -0.011962502 -0.005584565 0.0023523031 0.009459789
0.0066592637 -0.036883984 -0.016586756 -0.03652648 -0.025940951 -0.027401943 0.005486824 0.038590096
0.0006858318 0.0068835695 0.008075408 0.005872268 0.007937033 0.015379841 0.014099592 0.0073835733
-0.0016784453 -0.0033080191 -0.010943293 0.0028577251 -0.007843778 -0.0069755227 -0.000726391 -0.015116899
-0.011515921 -0.015103342 -0.00993792 -0.041454244 0.0015544033 0.008530864 0.009579828 -0.00020245335
0.0073377923 0.012001463 0.010632533 0.006840244 0.008649281 0.002119432 -0.002735191 -0.008364238
-0.016954903 -0.003274661 -0.00577699 -0.015352986 -0.015711283 -0.014718681 -0.006578731 -0.02958246
0.0007066193 0.005412816 0.010814127 0.004359072 0.0064210696 0.010343042 0.0106336465 0.007886433
0.0028939717 -0.00028108215 -0.0036799137 -0.0033093723 -0.012078144 -0.0030349875 -0.0043451004 -0.011680131
-0.011320437 0.0029412128 -0.013571369 7.361401e-05 0.0017449392 0.0031387536 0.009695352 0.007411916
0.0008750622 0.007304819 0.012465735 0.0038925868 0.0019529468 0.0029878817 -0.004458105 0.00022245996
-0.016095655 -0.009290576 -0.009139743 -0.015213875 -0.010176464 -0.006394574 -0.0114914775 -0.0072893808
0.0015977632 0.0040483596 0.00073239865 0.0024076563 0.007301955 0.013289692 0.017064523 0.0050363415
0.005414596 -0.0027772472 -0.007966373 -0.005206308 -0.011627951 -0.004478634 -0.0067601623 -0.014935083
-0.00969108 -0.018413343 -0.013878238 -0.049854334 0.017622773 -0.028192924 0.004704455 0.009041193
0.009128109 -0.021077821 0.027428674 -0.018782817 -0.001168307 0.014479389 -0.0062095695 -0.016139671
-0.021167055 -0.037270363 -0.011371787 -0.047019538 -0.0062772194 0.005622149 -0.0007769389 0.042984936
0.0017241662 0.0049181203 0.0080352025 -7.114957e-05 0.007646901 0.0048948117 0.012959511 0.010651058
-0.002385114 -0.0061847353 -0.009170545 -0.0071484316 -0.010200047 -0.00805115 -0.009668002 -0.015136129
00000000: ad28 f33b e33d 7c3c 6470 4e3b d558 6abc
00000010: 2e59 e53a 3ed4 cebb f84a 923b 31e3 be3c
00000020: cd28 833b 1662 9ebc 1b9b 483c 3851 eebb
00000030: 91b4 b63b 20e1 e8bc bd9e 28bd c0ee e2bc
00000040: 656c 30bd ed25 89bc b84a f7bc 9638 663d
00000050: 28ee d33a e946 e23b db34 d83b b424 8aba
00000060: a707 f13b a659 e13b d5ac 4a3c 3bcb 213b
00000070: 862b 703b 1f3d a5ba bcee c3bb c6f4 06bc
00000080: e74b 1b3a a0cd 0bbc 2767 aabb 57ba 42bc
00000090: 57a8 26bc dfc5 88bc 8fab d5bc 736e 28bd
000000a0: 040e 75bb edde 25ba 9968 29bb ae9b a13c
000000b0: e4e9 74bc cb1b 9cbc f928 b23c 8ae4 91bc
000000c0: 06c1 8e3b f8b6 a9bc 3e0f 5abb aa64 0cbd
000000d0: 45e2 e5bc 5c41 23bb 7ae1 19bc 06b1 cabc
000000e0: d945 2bbc a003 8bbc dbab 17bd a70f 1e3d
000000f0: e206 793a 9f86 903b b17f 1a3c f46a fb3b
00000100: 6946 0c3c 1077 313c 55f4 333c bc19 f93b
00000110: 3bab e03a 6d1c 41bb fb41 1abc c1d5 27bb
00000120: eccc 57bc 6cda 8abb a12b 9bbb 59a1 8dbc
00000130: 137a 31bc d252 70bc 7128 90bc b463 3cbd
00000140: 56ee c63a 6d03 a13b 075b 673b a772 aa3b
00000150: 6ea2 1e3c 487b 1c3c f25d 723c 3e68 0e3c
00000160: f327 953b f838 9fbb bcdf 38bb 1956 43bb
00000170: f439 45bc 0c44 05bc 6100 90bb a2ba a7bc
00000180: bfb2 cdbc 40b1 3dbc 93b8 3fbc 29e8 69bd
00000190: 1974 b2bc 6df1 06bd 95e0 83bb b279 4bbc
000001a0: fa5f d73b ef9f 86bc 1b7d b53c 4992 94bc
000001b0: 5ffe 43bc bafe b6bb 1929 1a3b 3bfd 1a3c
000001c0: f435 da3b a913 17bd f3e0 87bc ca9c 15bd
000001d0: 1e82 d4bc 0a7a e0bc d1ca b33b a610 1e3d
000001e0: 65c9 333a 918f e13b b74e 043c 286c c03b
000001f0: 540a 023c bbfb 7b3c fa01 673c e7f1 f13b
00000200: 47ff dbba 5acb 58bb 7f4b 33bc ac48 3b3b
00000210: 3083 00bc ed92 e4bb 466b 3eba dfac 77bc
00000220: 46ad 3cbc 0274 77bc a8d2 22bc edcb 29bd
00000230: 1fbd cb3a 09c5 0b3c b6f4 1c3c a849 54b9
00000240: dd71 f03b c9a1 443c 1334 2e3c 2024 e03b
00000250: b7b5 0d3c 2be6 0a3b e440 33bb 280a 09bc
00000260: 02e5 8abc b29b 56bb e84c bdbb 178b 7bbc
00000270: f3b4 80bc 9f26 71bc 6592 d7bb ea56 f2bc
00000280: 6b3c 393a fe5d b13b bc2d 313c 8cd6 8e3b
00000290: d667 d23b dd75 293c bf38 2e3c 1936 013c
000002a0: caa8 3d3b 355e 93b9 b52a 71bb 0ee2 58bb
000002b0: 68e3 45bc a4e6 46bb 5861 8ebb 055e 3fbc
000002c0: 5b79 39bc 5dc1 403b 735a 5ebc 3861 9a38
000002d0: 72b6 e43a 8cb3 4d3b 41d9 1e3c a8df f23b
000002e0: 6e64 653a 435d ef3b 153d 4c3c c51a 7f3b
000002f0: 05fa ff3a 56d0 433b 4c15 92bb 2444 6939
00000300: 09db 83bc 8037 18bc dcbe 15bc 9e43 79bc
00000310: 2fbb 26bc 9389 d1bb c046 3cbc c2db eebb
00000320: 096c d13a 1aa8 843b 71fe 3f3a c5c9 1d3b
00000330: 3d45 ef3b 02bd 593c e6ca 8b3c e507 a53b
00000340: ec6c b13b 7a02 36bb 6485 02bc ad99 aabb
00000350: 2983 3ebc 81c1 92bb 5a84 ddbb 47b2 74bc
00000360: 56c7 1ebc 94d7 96bc 8d61 63bc 0f34 4cbd
00000370: a25d 903c d9f4 e6bc d427 9a3b 8321 143c
00000380: 108e 153c 65ab acbc 19b2 e03c 6cde 99bc
00000390: e121 99ba f63a 6d3c a579 cbbb 5837 84bc
000003a0: 8866 adbc cfa8 18bd bb50 3abc 8f97 40bd
000003b0: 22b1 cdbb 013a b83b 7dab 4bba f910 303d
000003c0: 6bfd e13a 2f28 a13b 15a6 033c 2236 95b8
000003d0: db92 fa3b a864 a03b 2154 543c c681 2e3c
000003e0: 934f 1cbb 52a9 cabb 0e40 16bc 643d eabb
000003f0: 191e 27bc f8e8 03bc 8a66 1ebc 87fd 77bc

feature_process_low.bias f4 [16]
0.0071901954 0.004713716 0.02252867 0.008438239 0.011972963 -0.026386859 -0.027509373 -0.02381837
0.026861345 0.034175728 -0.031608116 -0.06502458 0.033108238 -0.022424717 0.06322882 0.010835653
00000000: bb9b eb3b 8475 9a3b 0c8e b83c 8a40 0a3c
00000010: 3f2a 443c 4129 d8bc 565b e1bc be1e c3bc
00000020: 530c dc3c d9fb 0b3d 8377 01bd 9b2b 85bd
00000030: 819c 073d 0ab4 b7bc 1d7e 813d 0688 313c

feature_process_high.weight f4 [32, 16]
-0.033097215 -0.103899054 0.06802478 0.06585689 0.10420871 0.018810572 0.07481407 -0.1301512
0.004819399 0.026077947 0.082277596 -0.117300205 -0.016062027 -0.0949087 -0.0080667995 0.057032175
0.026492983 0.06449188 0.004497053 -0.0031817625 0.054056834 0.05985108 -0.13085304 0.029163644
0.059686176 0.086361006 -0.0402184 0.10820616 -0.08318806 0.10439093 0.13896951 0.006483101
-0.0013768007 -0.030775297 0.006747054 -0.019811114 -0.096451886 -0.012926611 0.03905087 0.008039021
0.04673343 -0.019341515 -0.00594472 0.06952526 0.023516236 -0.021385482 -0.06523145 -0.011747045
0.12661992 0.028821228 0.12854075 -0.1044375 -0.087371916 0.06836452 0.08198784 -0.088269845
0.09229072 -0.06406261 -0.11868039 0.0728037 -0.039679524 -0.07787797 -0.055631977 0.043305334
0.054254826 0.044053447 -0.021041332 -0.023331162 0.034992523 -0.021052487 -0.04865042 -0.015446951
-0.02685028 -0.054810442 0.030188149 0.022764578 -0.0014483604 0.053978637 0.048729125 0.04752476
0.100805245 0.050931808 0.09569703 0.08873274 -0.011334858 0.0008373135 -0.10732593 -0.12517188
0.09361253 -0.11069265 -0.06911271 -0.17723648 -0.044411607 0.043055773 0.04861911 -0.09558075
0.00017780904 -0.010616491 0.005558982 0.049788192 -0.038948417 -0.006742698 0.049033955 -0.0255628
-0.0023854263 -0.021991318 0.056296226 0.03432974 0.0006805848 0.02424111 0.06406062 0.06020632
-0.13425733 -0.031435642 0.114891246 0.08511822 -0.09965597 0.057726197 -0.13554782 0.026732238
0.094312966 0.061378762 -0.13528755 0.04179335 0.028431648 0.09169056 -0.09832038 -0.023732906
0.009970917 -0.03412082 -0.012621639 -0.030136868 0.10233626 0.051510893 -0.050465327 0.078956
0.003106303 0.029347794 0.06922542 -0.08481979 -0.0038832226 -0.029921899 0.08581939 -0.030858736
-0.06517552 -0.08636928 -0.014066979 0.039679788 0.009505933 -0.052453518 -0.06503618 0.030797299
0.0076008933 0.0625085 0.0012659978 -0.124347135 0.018368153 -0.07848764 0.0027566687 -0.06018404
0.02414306 -0.008919358 0.007208325 3.3959135e-05 -0.009950001 -0.009884074 -0.005753391 0.0060980334
0.008925998 0.0050662234 -0.0010184537 -0.0131831225 0.0016800452 0.002795368 0.010034663 -0.020253059
0.1111203 0.05464737 0.033544082 -0.0763846 -0.058990072 0.0273355 0.11665057 0.05669186
0.027868055 -0.05360454 -0.10218797 -0.09971758 -0.013645832 0.016549658 0.07157919 -0.06319519
0.0075069093 -0.0002683789 0.0006571951 -0.0039937356 -0.0016788816 -0.0053603337 0.0036353865 0.004169786
0.009253768 0.009543512 0.009546485 -0.030317545 -0.00018824803 -0.001735777 -0.0039874767 -0.01366637
0.1111053 0.0747222 -0.024924506 -0.04003692 0.01885206 0.008833685 0.0857757 0.04331427
0.014099434 0.026810534 0.06557339 0.06783565 -0.008045543 -0.09000689 0.054706886 -0.026674232
-0.06134533 0.006457016 0.022954147 -0.020760544 0.012524626 0.0138884 0.0725298 0.0054938393
-0.019810325 -0.035859022 -0.0014498805 0.0053468207 -0.011447193 0.07695549 0.023307635 -0.07515235
0.10037003 -0.0031546862 0.13883558 0.01913741 0.0706442 -0.09754207 -0.15835845 -0.01645223
0.09278072 -0.11391446 0.065995306 -0.13592331 -0.058490764 -0.06988901 -0.002909693 -0.0821585
00000000: f290 07bd 07c9 d4bd 9350 8b3d fadf 863d
00000010: 606b d53d a118 9a3c 1e38 993d 5b46 05be
00000020: 0dec 9d3b 6ba1 d53c 2881 a83d 173b f0bd
00000030: 8394 83bc 7e5f c2bd 9c2a 04bc 929a 693d
00000040: d007 d93c 5214 843d 045c 933b 1e85 50bb
00000050: b36a 5d3d 6826 753d 57fe 05be 98e8 ee3c
00000060: 7e79 743d 0ade b03d 0dbc 24bd 319b dd3d
00000070: 805e aabd e9ca d53d 064e 0e3e 3170 d43b
00000080: c475 b4ba 7a1c fcbc 6416 dd3b eb4a a2bc
00000090: 9188 c5bd 23ca 53bc cef3 1f3d 19b6 033c
000000a0: 8e6b 3f3d 1972 9ebc edcb c2bb 4263 8e3d
000000b0: 1fa5 c03c 9b30 afbc 1198 85bd ae76 40bc
000000c0: a7a8 013e 7f1a ec3c 30a0 033e 54e3 d5bd
000000d0: 0cf0 b2bd b302 8c3d 3ee9 a73d d2c6 b4bd
000000e0: eb02 bd3d 4233 83bd b40e f3bd 1b1a 953d
000000f0: ff86 22bd 7c7e 9fbd 5bde 63bd ef60 313d
00000100: 4f3a 5e3d 6371 343d df5e acbc fe20 bfbc
00000110: 5254 0f3d 4476 acbc aa45 47bd 3515 7dbc
00000120: 1ef5 dbbc ea80 60bd 234d f73c c87c ba3c
00000130: e9d6 bdba b418 5d3d 3198 473d 53a9 423d
00000140: fb72 ce3d df9d 503d cefc c33d 83b9 b53d
00000150: d7b5 39bc 287f 5b3a b2cd dbbd 0f2d 00be
00000160: edb7 bf3d d4b2 e2bd f78a 8dbd 7b7d 35be
00000170: f2e8 35bd 405b 303d d524 473d d7bf c3bd
00000180: 4072 3a39 caf0 2dbc 1f28 b63b b4ee 4b3d
00000190: 6088 1fbd daf1 dcbb d4d7 483d 1469 d1bc
000001a0: d054 1cbb 2327 b4bc df96 663d 579d 0c3d
000001b0: 4669 323a 4b95 c63c 3732 833d e79a 763d
000001c0: c17a 09be a9c2 00bd 1a4c eb3d 7652 ae3d
000001d0: 6e18 ccbd 4e72 6c3d 0ccd 0abe 91fd da3c
000001e0: 2827 c13d 4c68 7b3d d288 0abe 812f 2b3d
000001f0: 7de9 e83c 43c8 bb3d 325c c9bd 836b c2bc
00000200: 0f5d 233c 46c2 0bbd feca 4ebc 98e1 f6bc
00000210: ac95 d13d 16fd 523d bbb4 4ebd afb3 a13d
00000220: 1e93 4b3b c96a f03c 0fc6 8d3d 00b6 adbd
00000230: aa7d 7ebb c51e f5bc 14c2 af3d 76cb fcbc
00000240: be7a 85bd 61e2 b0bd 3079 66bc 4687 223d
00000250: c6be 1b3c 80d9 56bd b031 85bd 9e4a fc3c
00000260: ea10 f93b 7504 803d d6ef a53a b6a9 febd
00000270: cf78 963c 21be a0bd 3aa9 343b 8a83 76bd
00000280: abc7 c53c 8022 12bc d033 ec3b 586f 0e38
00000290: 5405 23bc d0f0 21bc f186 bcbb 03d2 c73b
000002a0: 593e 123c 9002 a63b a37d 85ba 06fe 57bc
000002b0: f634 dc3a 7e32 373b 6d68 243c bee9 a5bc
000002c0: 0a93 e33d ecd5 5f3d 8565 093d 876f 9cbd
000002d0: 939f 71bd b3ee df3c 7ee6 ee3d b935 683d
000002e0: 8c4b e43c 6f90 5bbd ed47 d1bd bb38 ccbd
000002f0: c592 5fbc 2693 873c 1c98 923d 7b6c 81bd
00000300: 85fc f53b 35b5 8cb9 9e47 2c3a e2dd 82bb
00000310: eb0d dcba bda5 afbb aa3f 6e3b b3a2 883b
00000320: 1e9d 173c 645c 1c3c dc68 1c3c 805c f8bc
00000330: 7264 45b9 0383 e3ba 61a9 82bb e9e8 5fbc
00000340: 2d8b e33d f407 993d 7a2e ccbc c1fd 23bd
00000350: a36f 9a3c 29bb 103c 2cab af3d 4e6a 313d
00000360: 5001 673c c4a1 db3c 574b 863d 6bed 8a3d
00000370: 74d1 03bc 8855 b8bd 5414 603d eb83 dabc
00000380: 3e45 7bbd 6095 d33b 560a bc3c 0412 aabc
00000390: 1734 4d3c 2c8c 633c 818a 943d aa05 b43b
000003a0: 4349 a2bc e9e0 12bd eb09 beba 6234 af3b
000003b0: 028d 3bbc d79a 9d3d a7ef be3c 7ae9 99bd
000003c0: cd8e cd3d dabe 4ebb ea2a 0e3e 0fc6 9c3c
000003d0: e8ad 903d 23c4 c7bd b828 22be d4c6 86bc
000003e0: d103 be3d fc4b e9bd 8c28 873d 7b2f 0bbe
000003f0: 0394 6fbd f821 8fbd 8cb0 3ebb b742 a8bd

feature_process_high.bias f4 [32]
-0.13694683 0.1261033 -0.007190196 0.085487 0.0816208 0.026996346 -0.036475983 -0.07897972
0.08345135 -0.11329415 -0.02286867 0.19223125 0.018273657 0.16079319 0.07271098 -0.040422272
-0.15446235 0.12884414 0.017905133 0.15726069 -0.104607314 0.038102373 -0.008841703 0.013344075
-0.19653085 -0.0721835 0.008724213 0.20866431 0.016698655 -0.013103332 0.23813924 0.033341102
00000000: ca3b 0cbe 3921 013e bc9b ebbb cf13 af3d
00000010: ce28 a73d 7127 dd3c d767 15bd 1fc0 a1bd
00000020: 8be8 aa3d c306 e8bd 1457 bbbc 45d8 443e
00000030: a3b2 953c f8a6 243e 7fe9 943d d391 25bd
00000040: 612b 1ebe b8ef 033e c9ad 923c f208 213e
00000050: 5c3c d6bd 3c11 1c3d cadc 10bc 1ba1 5a3c
00000060: 623f 49be f1d4 93bd 00f0 0e3c 19ac 553e
00000070: 9ecb 883c 5caf 56bc c6da 733e ae90 083d

feature_norm.weight f4 [32]
0.52439463 0.5612251 0.47596285 0.5739237 0.4947576 0.6031039 0.4873964 0.5910293
0.5429751 0.472125 0.4620515 0.5213809 0.4625228 0.4966768 0.4962829 0.59806556
0.712422 0.4935455 0.4976193 0.5371608 0.48217338 0.47495997 0.4605703 0.46098638
0.6984474 0.48682266 0.552283 0.6429557 0.5197689 0.52309036 0.77516127 0.51642525
00000000: ba3e 063f 73ac 0f3f 67b1 f33e aaec 123f
00000010: de50 fd3e 0465 1a3f 058c f93e b24d 173f
00000020: 6b00 0b3f 5eba f13e 0492 ec3e 3879 053f
00000030: cacf ec3e 6c4c fe3e cb18 fe3e d31a 193f
00000040: 4a61 363f ffb1 fc3e f5c7 fe3e 5f83 093f
00000050: 6edf f63e f42d f33e dfcf eb3e 6806 ec3e
00000060: 73cd 323f d240 f93e 6b62 0d3f bf98 243f
00000070: 930f 053f 40e9 053f f870 463f 7234 043f

feature_norm.bias f4 [32]
0.012308882 -0.0023004035 0.023912154 -0.020627193 -0.015924575 -0.009577908 0.018643353 0.013130343
0.0070172376 0.014869379 -3.0591998e-11 -0.0046709343 -0.0102719655 -0.015014166 -0.022886194 -0.009114749
-0.0045282776 -0.035290264 -0.016015215 -0.039349653 0.010826333 -0.0016572897 -9.710137e-06 -0.016076244
0.026068592 0.027687026 -0.011896881 -0.014894426 0.007827864 0.010753949 0.013348499 0.005655187
00000000: 31ab 493c 5ec2 16bb 6ce3 c33c 5cfa a8bc
00000010: 4174 82bc a8ec 1cbc f2b9 983c a620 573c
00000020: dbf0 e53b b29e 733c 878b 06ae a30e 99bb
00000030: bf4b 28bc fafd 75bc d47b bbbc 0756 15bc
00000040: f261 94bb 868c 10bd 5732 83bc 1a2d 21bd
00000050: ef60 313c 6a39 d9ba b9e8 22b7 54b2 83bc
00000060: cd8d d53c e7cf e23c 23eb 42bc c007 74bc
00000070: 7140 003c 5531 303c aab3 5a3c 264f b93b

graph_attention.adj_matrix f4 [8, 8]
1.0 1.0 0.0 0.0 0.0 0.0 1.0 0.0
1.0 1.0 0.0 1.0 1.0 0.0 1.0 0.0
0.0 0.0 1.0 1.0 1.0 0.0 0.0 1.0
0.0 1.0 1.0 1.0 1.0 0.0 0.0 0.0
0.0 1.0 1.0 1.0 1.0 0.0 1.0 1.0
0.0 0.0 0.0 0.0 0.0 1.0 0.0 0.0
1.0 1.0 0.0 0.0 1.0 0.0 1.0 0.0
0.0 0.0 1.0 0.0 1.0 0.0 0.0 1.0
00000000: 0000 803f 0000 803f 0000 0000 0000 0000
00000010: 0000 0000 0000 0000 0000 803f 0000 0000
00000020: 0000 803f 0000 803f 0000 0000 0000 803f
00000030: 0000 803f 0000 0000 0000 803f 0000 0000
00000040: 0000 0000 0000 0000 0000 803f 0000 803f
00000050: 0000 803f 0000 0000 0000 0000 0000 803f
00000060: 0000 0000 0000 803f 0000 803f 0000 803f
00000070: 0000 803f 0000 0000 0000 0000 0000 0000
00000080: 0000 0000 0000 803f 0000 803f 0000 803f
00000090: 0000 803f 0000 0000 0000 803f 0000 803f
000000a0: 0000 0000 0000 0000 0000 0000 0000 0000
000000b0: 0000 0000 0000 803f 0000 0000 0000 0000
000000c0: 0000 803f 0000 803f 0000 0000 0000 0000
000000d0: 0000 803f 0000 0000 0000 803f 0000 0000
000000e0: 0000 0000 0000 0000 0000 803f 0000 0000
000000f0: 0000 803f 0000 0000 0000 0000 0000 803f

graph_attention.linear1.weight f4 [32, 32]
-0.046321485 0.041904934 0.0039222026 0.06226991 0.027880518 0.106852755 -0.029100787 -0.004653809
-0.0406878 0.009926961 1.9181364e-08 -0.08763513 -0.011229592 -0.041615445 -0.0027311845 -0.008840236
-0.053172633 -0.0041066557 -0.05753563 0.042671442 -0.0059919585 0.0039189933 -0.0014604656 -0.005366292
0.10593977 -0.007136889 -0.042968728 -0.02463305 -0.01762688 0.0075557264 -0.04587027 -0.06300564
0.05815453 0.045656826 0.027324587 0.015591774 -0.011318671 -0.032218266 -0.0029702708 -0.025337152
-0.036406107 8.50503e-05 8.977395e-10 0.029670954 0.0045159822 -0.06876699 0.01212516 -0.014642657
-0.12566778 0.044991717 -0.036981564 -0.040064294 0.018787311 -0.004304753 4.053333e-05 0.008043768
0.083474174 0.040074714 0.059633333 -0.04683221 0.017011914 0.027857712 0.13094527 -0.04888555
-0.011139732 -0.08530493 -0.06343596 -0.10948455 -0.008914166 -0.049955346 0.0053716083 -0.06728693
0.056391947 -0.010420137 1.2104294e-10 0.01604008 -0.0059998096 0.01359787 -0.019523416 -0.030459695
0.027565423 -0.03636389 0.0043175053 -0.045806833 -0.0059580975 -0.0068608155 0.0006957136 -0.0028897373
-0.05315503 -0.0056471317 0.021227159 0.038955946 -0.05688299 -0.047605928 0.13200326 -0.07389182
-0.07901431 -0.03295559 -0.027164945 -0.071525835 0.005077116 0.03615343 -0.030688707 0.0108591
0.10587797 0.030644706 9.515516e-12 -0.0006420171 -0.0031748286 0.07257222 0.0049286 -0.001369143
-0.05839101 -0.009150796 -0.006917198 -0.048499502 -0.010440625 -0.006995994 0.0013233061 0.00092035945
-0.15814307 -0.052300107 0.016556649 -0.009730181 -0.037268423 -0.049536686 -0.0039097243 0.00027819417
-0.031834956 -0.012659428 0.0026193792 -0.08217433 0.020092983 -0.049377624 0.018027822 0.07895801
-0.026801238 -0.014710232 2.0306388e-08 -0.017481469 -4.248286e-05 -0.06427766 -0.0037113468 0.018455748
-0.024594476 -0.055325244 -0.008518464 -0.012128325 -0.02444033 -0.007949521 -0.0013732249 -0.00038174784
0.010357721 -0.015029213 0.052768603 0.068798594 0.05067135 0.005619216 -0.05482048 0.056640677
0.06578242 0.06453678 -0.0131511 -0.053776883 0.01960739 0.03421239 0.079748765 0.0605446
0.05773433 0.024121093 4.294747e-06 0.013710684 -0.0013090158 -0.0071035796 -0.0029144695 0.05436968
0.006930689 -0.0065103765 -0.0068221767 -0.08568943 0.00955799 -0.0080418885 -0.00087145634 0.0022187862
0.11479191 0.047333926 -0.004121168 -0.03639905 0.018899752 -0.06104328 -0.009094268 0.0033062722
0.0072344877 0.021590792 -0.05446199 -0.041358244 -0.01686736 0.041616734 -0.02455616 -0.032011483
0.011499365 -0.00038401957 -4.7659245e-11 0.051087815 1.1727167e-05 0.023591245 -0.013476453 0.01801361
0.075834796 0.0017244476 0.028580457 -0.012382005 -0.014654018 -0.0035819584 -0.0022971318 -0.0052397363
-0.14528668 -0.03355246 0.014210004 0.05854416 -0.055595074 -0.0770292 -0.030041106 -0.0153436
-0.026280748 -0.021506894 0.02221912 0.0376296 -0.018157806 -0.09766111 -0.03339929 -0.037368935
-0.04890872 -0.0013397203 4.334722e-10 -0.07735774 0.00012497445 0.038467623 0.026501466 -0.05189359
-0.081717305 0.023138477 -0.03127177 0.056101147 -0.028486136 0.012828445 7.05779e-07 0.0001144742
0.0042382893 -0.003639991 -0.06954307 0.02443545 0.049547818 0.054042324 -0.033137448 -0.008419208
00000000: 99bb 3dbd 82a4 2b3d d285 803b bc0e 7f3d
00000010: af65 e43c 9ed5 da3d c664 eebc fb7e 98bb
00000020: 40a8 26bd b1a4 223c 44c4 a432 0c7a b3bd
00000030: 53fc 37bc f574 2abd acfd 32bb a3d6 10bc
00000040: 8ccb 59bd 2091 86bb 7baa 6bbd 40c8 2e3d
00000050: 3158 c4bb e66a 803b 186d bfba b8d7 afbb
00000060: f3f6 d83d 90dc e9bb faff 2fbd 40cb c9bc
00000070: 3f66 90bc 0796 f73b 77e2 3bbd 1a09 81bd
00000080: 7233 6e3d a702 3b3d d0d7 df3c a474 7f3c
00000090: f271 39bc 4df7 03bd e0a8 42bb dc8f cfbc
000000a0: 921e 15bd 085d b238 cdc4 7630 8010 f33c
000000b0: cefa 933b b5d5 8cbd 9ba8 463c c1e7 6fbc
000000c0: 0eaf 00be 3c49 383d fb79 17bd 751a 24bd
000000d0: d9e7 993c e30e 8dbb 5502 2a38 02ca 033c
000000e0: 82f4 aa3d 6225 243d 1542 743d 22d3 3fbd
000000f0: 925c 8b3c db35 e43c 8416 063e 373c 48bd
00000100: 6c83 36bc 5ab4 aebd b6ea 81bd 7039 e0bd
00000110: b90c 12bc fa9d 4cbd 5104 b03b bbcd 89bd
00000120: 3efb 663d 39b9 2abc 8f16 052f 7c66 833c
00000130: 0d9a c4bb 9ac9 5e3c 92ef 9fbc 9c86 f9bc
00000140: e2d0 e13c 4df2 14bd dc79 8d3b f29f 3bbd
00000150: 253c c3bb b1d0 e0bb 8d60 363a bf61 3dbb
00000160: 17b9 59bd 930b b9bb 94e4 ad3c 4590 1f3d
00000170: 23fe 68bd 6ffe 42bd dd2b 073e 9854 97bd
00000180: 41d2 a1bd 71fc 06bd 0589 debc 237c 92bd
00000190: f05d a63b 9e15 143d e266 fbbc 5eea 313c
000001a0: 8dd6 d83d 9b0a fb3c 1366 272d 0a4d 28ba
000001b0: c910 50bb bea0 943d 1880 a13b d174 b3ba
000001c0: 692b 6fbd 38ed 15bc aaa9 e2bb 6aa7 46bd
000001d0: 280f 2bbc a73e e5bb c972 ad3a 4744 713a
000001e0: 42f0 21be a338 56bd cfa1 873c 566b 1fbc
000001f0: c6a6 18bd fbe6 4abd 251d 80bb 97da 9139
00000200: 5f65 02bd 7d69 4fbc e4a9 2b3b 044b a8bd
00000210: 0a9a a43c 3140 4abd 15af 933c bdb4 a13d
00000220: 458e dbbc 2f03 71bc 386e ae32 4c35 8fbc
00000230: a02f 32b8 01a4 83bd 113a 73bb 8230 973c
00000240: 5b7a c9bc b99c 62bd 0791 0bbc e2b5 46bc
00000250: 1637 c8bc b53e 02bc c8fd b3ba 5425 c8b9
00000260: 6eb3 293c 173d 76bc e423 583d 47e6 8c3d
00000270: c38c 4f3d 6621 b83b 718b 60bd 0e00 683d
00000280: efb8 863d dc2b 843d b677 57bc 2645 5cbd
00000290: ad9f a03c 4b22 0c3d 5253 a33d 9dfd 773d
000002a0: d57a 6c3d 9999 c53c 991b 9036 c7a2 603c
000002b0: 4893 abba 25c5 e8bb af00 3fbb beb2 5e3d
000002c0: d51a e33b ff54 d5bb 918c dfbb f17d afbd
000002d0: 1e99 1c3c 20c2 03bc 7272 64ba 0e69 113b
000002e0: 0518 eb3d 38e1 413d dd0a 87bb 2c17 15bd
000002f0: a7d3 9a3c 8508 7abd 2000 15bc 0bae 583b
00000300: 480f ed3b 2cdf b03c 8913 5fbd 4367 29bd
00000310: 6b2d 8abc 4f76 2a3d 002a c9bc 791e 03bd
00000320: d567 3c3c 3c56 c9b9 8a9b 51ae 7541 513d
00000330: ccbf 4437 6d42 c13c 57cc 5cbc 4791 933c
00000340: 464f 9b3d dc06 e23a 9021 ea3c e5dd 4abc
00000350: 6817 70bc 4abf 6abb 7a8b 16bb 18b2 abbb
00000360: 08c6 14be 4e6e 09bd 14d1 683c 00cc 6f3d
00000370: a9b7 63bd 7cc1 9dbd c418 f6bc b963 7bbc
00000380: b94a d7bc 3a2f b0bc df04 b63c 7f21 1a3d
00000390: aebf 94bc 8c02 c8bd b2cd 08bd 2b10 19bd
000003a0: 8354 48bd 8e99 afba ca4d ee2f bc6d 9ebd
000003b0: 930b 0339 3a90 1d3d 9a19 d93c 5f8e 54bd
000003c0: 675b a7bd e78c bd3c d416 00bd 51ca 653d
000003d0: c25b e9bc 662e 523c c374 3d35 de11 f038
000003e0: 59e1 8a3b ea8c 6ebb 996c 8ebd da2c c83c
000003f0: a7f2 4a3d 7c5b 5d3d 22bb 07bd b8f0 09bc

graph_attention.linear1.bias f4 [32]
0.107281156 0.028647063 -0.04133213 0.074461676 0.03870726 -0.051532462 0.002897975 0.044563774
0.0089091975 -0.006895768 -0.101596154 -0.030592946 0.053929802 0.05928842 -0.00025045086 -0.008359135
0.010445319 -6.335495e-06 0.0837671 -0.006689491 -0.008707117 -0.012945662 0.013003152 0.026695337
0.08233525 0.07249382 -0.028594514 0.004912829 0.010200802 -0.048665974 -0.09070993 -0.016250249
00000000: 39b6 db3d 3fad ea3c e14b 29bd 5d7f 983d
00000010: 818b 1e3d b413 53bd f4eb 3d3b 8188 363d
00000020: e2f7 113c e5f5 e1bb a511 d0bd 0f9e fabc
00000030: 7fe5 5c3d 6ad8 723d f24e 83b9 c1f4 08bc
00000040: d822 2b3c 7d95 d4b6 168e ab3d 8533 dbbb
00000050: 4ca8 0ebc 0b1a 54bc 2c0b 553c 2eb0 da3c
00000060: 629f a83d a477 943d 0b3f eabc ccfb a03b
00000070: 4421 273c f955 47bd 21c6 b9bd 3e1f 85bc

graph_attention.linear2.weight f4 [32, 32]
-0.038366538 -0.079974964 0.039741218 -0.00089871197 0.03136311 0.0024266636 0.00856979 0.015300918
0.025014888 0.033150718 0.059295215 0.008640986 -0.009230395 -0.025126485 -1.1340165e-08 -0.0010322666
-0.0071334867 -2.0076786e-15 -0.113730244 0.0019235222 -0.046552528 -0.019151388 0.007517108 -0.020187203
0.055986833 -0.072673194 0.016768383 0.027918763 -0.037214372 0.024732696 -0.019624013 -0.01612851
0.02083095 -0.044217736 -0.028892715 0.009344961 0.009545209 -0.031585645 0.011264498 -0.018628148
-0.012749843 -0.05306599 0.014245354 -0.031574015 0.06900032 -0.039631665 3.767226e-10 0.0012524736
-0.044447884 -9.285987e-17 -0.015045534 0.0024303393 -0.053250473 -0.0041973097 0.0015720369 -0.0037943814
0.011641704 0.02607408 0.07243637 -0.027909625 -0.08690746 -0.020694092 0.0030676196 0.04322773
-0.006215325 -0.045641612 -0.0145044755 -0.033050664 0.022116683 0.061373748 -0.015747087 0.039759416
-0.0033183545 -0.018569449 0.09280726 0.035379592 -0.010313991 0.029847335 -3.9930906e-06 0.0008435916
0.017044509 7.4465573e-14 0.08131633 0.0037010985 0.01313825 0.039160475 -0.002435799 0.04359479
0.032154642 0.027826078 0.007552239 -0.007321714 0.0556729 0.025156152 -0.0337596 -0.049291473
-0.081059694 -0.025014605 0.069204286 0.035086833 -0.029947834 0.026870856 0.071241185 -0.072014004
0.029463071 0.035872795 0.048561543 -0.043585405 0.008992403 -0.04796575 8.654695e-05 -0.0050652465
-0.07493345 2.5506874e-10 0.06747604 -0.00054528116 -0.04254403 -0.028480941 0.024184804 -0.025663719
0.10617735 -0.09445517 -0.053211283 0.033600178 0.04660978 -0.066684715 0.034051023 0.07775623
-0.019493653 -0.06237744 0.038672548 0.044812843 0.0033296926 -0.0104741985 0.035257626 0.0015750725
-0.030036712 0.014217969 0.025633141 0.043003067 -0.03594863 0.036835857 1.8415067e-06 -0.0011881747
0.014358097 1.7915931e-16 -0.107600264 -0.003062454 -0.0195 -0.011213061 0.013462071 -0.025121145
0.048687693 0.0012387076 -0.030102458 0.027176851 0.07467178 0.016506609 -0.005760332 0.019034687
-0.0038996604 -0.006640056 0.007659033 -0.0046954807 0.010359571 0.02163048 -0.029134093 -0.029705424
0.020128278 -0.0074905837 0.0020030262 -0.0067902156 -0.016973041 -0.010940071 1.9525303e-06 0.0002079108
-0.02059131 -5.5119696e-17 -0.011826224 -0.00080665457 -0.017411638 -0.012723405 0.0054963795 0.0035437061
-0.09224809 -0.060424626 0.05081458 -0.0055407444 -0.027955396 0.004710429 -0.014528197 -0.021185359
0.09112609 0.038107168 0.02479214 -0.028349798 -0.008193238 0.03461948 -0.034275938 -0.015204983
0.060394447 0.025039084 -0.036524855 0.004961245 -0.014960187 -0.021445923 1.0917998e-09 -8.024088e-05
0.027962396 6.734178e-17 -0.014478515 0.003052429 0.091971435 -0.008591212 -0.02036229 0.08301254
0.072726645 0.05910404 -0.062619664 0.027320702 0.077191465 0.032263707 0.0750379 0.03312791
-0.022908624 -0.04983675 -0.001622824 0.0031710002 -0.02367589 0.037629914 -0.019582931 -0.041521363
0.01207792 0.016609957 0.043910164 0.00585698 -0.009763759 0.034119334 -6.867268e-10 -0.00029639376
-0.027702814 -3.3143132e-17 -0.102742545 0.00067408604 0.018678868 0.010062666 0.0029117616 0.03398587
0.052999217 0.061865795 -0.020950722 -0.010953508 0.04249414 0.0028693757 -0.05158654 -0.030922664
00000000: 3b26 1dbd eac9 a3bd b0c7 223d 8a97 6bba
00000010: 9b76 003d a908 1f3b 4e68 0c3c b4b0 7a3c
00000020: 06ec cc3c 0cc9 073d 8adf 723d ec92 0d3c
00000030: 153b 17bc 0fd6 cdbc 93d2 42b2 1f4d 87ba
00000040: 06c0 e9bb 22ab 10a7 67eb e8bd b21e fc3a
00000050: ddad 3ebd 5fe3 9cbc 1352 f63b a25f a5bc
00000060: 7352 653d afd5 94bd d95d 893c e4b5 e43c
00000070: 196e 18bd 399c ca3c 8ac2 a0bc f01f 84bc
00000080: aba5 aa3c a81d 35bd 6ab0 ecbc 9b1b 193c
00000090: 8263 1c3c f35f 01bd bb8e 383c 0f9a 98bc
000000a0: b8e4 50bc b95b 59bd 5865 693c c153 01bd
000000b0: 0a50 8d3d d054 22bd fe1a cf2f 0a2a a43a
000000c0: fc0e 36bd cb1e d6a4 8b81 76bc 5446 1f3b
000000d0: 2b1d 5abd 9689 89bb ce0c ce3a 28ab 78bb
000000e0: d8bc 3e3c 4f99 d53c 8559 943d baa2 e4bc
000000f0: 8afc b1bd a886 a9bc 1e0a 493b 8f0f 313d
00000100: eda9 cbbb b3f2 3abd 2ea4 6dbc 2260 07bd
00000110: 0c2e b53c 0a63 7b3d 0900 81bc c5da 223d
00000120: c078 59bb f51e 98bc bc11 be3d 31ea 103d
00000130: 04fc 28bc 6682 f43c 63fc 85b6 7924 5d3a
00000140: eda0 8b3c 7bae a729 2d89 a63d 218e 723b
00000150: d141 573c bc66 203d eda1 1fbb 7390 323d
00000160: 96b4 033d 84f3 e33c c678 f73b fdea efbb
00000170: 4409 643d 4614 ce3c 8247 0abd dbe5 49bd
00000180: a002 a6bd 6eeb ccbc faba 8d3d 36b7 0f3d
00000190: 2955 f5bc 4520 dc3c e6e6 913d 147c 93bd
000001a0: 8a5c f13c 5aef 123d 78e8 463d 9c86 32bd
000001b0: df54 133c bc77 44bd 8a80 b538 5efa a5bb
000001c0: b576 99bd bc39 8c2f e130 8a3d 33f1 0eba
000001d0: a642 2ebd dd50 e9bc 361f c63c b83c d2bc
000001e0: 8373 d93d b671 c1bd 13f4 59bd 57a0 093d
000001f0: e6e9 3e3d ff91 88bd 1679 0b3d a93e 9f3d
00000200: 27b1 9fbc 7d7f 7fbd 1b67 1e3d ac8d 373d
00000210: f936 5a3b f99b 2bbc 4d6a 103d aa72 ce3a
00000220: 8d0f f6bc 7cf2 683c 98fc d13c fc23 303d
00000230: df3e 13bd 32e1 163d b029 f735 87bc 9bba
00000240: 393e 6b3c 7f8e 4e25 875d dcbd 74b3 48bb
00000250: 77be 9fbc fdb6 37bc 0590 5c3c dcca cdbc
00000260: bf6c 473d 215c a23a 6e99 f6bc fda1 de3c
00000270: 85ed 983d de38 873c 2bc1 bcbb a2ee 9b3c
00000280: 7291 7fbb d494 d9bb a0f8 fa3b 8cdc 99bb
00000290: 31bb 293c 6832 b13c 9faa eebc ca58 f3bc
000002a0: 0fe4 a43c 9273 f5bb 3445 033b 7580 debb
000002b0: 0c0b 8bbc fc3d 33bc 3708 0336 a102 5a39
000002c0: 1baf a8bc da31 7ea4 c7c2 41bc ac75 53ba
000002d0: daa2 8ebc d475 50bc f91a b43b 863d 683b
000002e0: 91ec bcbd d07f 77bd f322 503d 228f b5bb
000002f0: b702 e5bc f159 9a3b ad07 6ebc eb8c adbc
00000300: 51a0 ba3d 4316 1c3d e318 cb3c d63d e8bc
00000310: ee3c 06bc 28cd 0d3d ed64 0cbd 521e 79bc
00000320: 2b60 773d c41e cd3c 169b 15bd f191 a23b
00000330: 921b 75bc 5caf afbc 4a0e 9630 ff46 a8b8
00000340: 6511 e53c 9247 9b24 4b37 6dbc 430b 483b
00000350: 855b bc3d 28c2 0cbc d1ce a6bc 7b02 aa3d
00000360: b5f1 943d 1417 723d bd3e 80bd aacf df3c
00000370: 8f16 9e3d f326 043d 78ad 993d 22b1 073d
00000380: deaa bbbc 9f21 4cbd f0b4 d4ba 8ed0 4f3b
00000390: f1f3 c1bc d321 1a3d 626c a0bc 4e12 2abd
000003a0: 78e2 453c 9b11 883c 25db 333d e9eb bf3b
000003b0: 2cf8 1fbc b7c0 0b3d 1ac4 3cb0 4c65 9bb9
000003c0: 03f1 e2bc 81d8 18a4 af6a d2bd 26b5 303a
000003d0: 6d04 993c e1dd 243c 41d3 3e3b c534 0b3d
000003e0: b515 593d fd66 7d3d d9a0 abbc 5876 33bc
000003f0: 560e 2e3d 230c 3c3b 684c 53bd 8751 fdbc

graph_attention.linear2.bias f4 [32]
-0.06703579 0.0010063332 -0.01769274 0.02367426 -0.028293429 0.031421244 -0.12561072 0.009394351
-0.075672716 -0.05037144 -0.11427321 -0.102354676 -0.026453458 0.13391803 0.106515475 -0.12537795
0.05154148 -0.058606934 0.13778001 0.08584144 0.042906605 -0.12188033 0.014117823 -0.023588944
-0.12066665 -0.07114944 0.07636657 -0.047413263 0.03958055 -0.016162323 -0.0041205324 -0.06995078
00000000: 0f4a 89bd f0e6 833a 5df0 90bc 86f0 c13c
00000010: 9fc7 e7bc 90b3 003d 19a0 00be c4ea 193c
00000020: 4cfa 9abd 4852 4ebd 1308 eabd 549f d1bd
00000030: ecb4 d8bc cf21 093e c924 da3d 1463 00be
00000040: 291d 533d d30d 70bd 3416 0d3e a3cd af3d
00000050: d6be 2f3d 659c f9bd 714e 673c 9a3d c1bc
00000060: 1420 f7bd ccb6 91bd 1466 9c3d 6934 42bd
00000070: 371f 223d d966 84bc 8805 87bb 5b42 8fbd

graph_attention.norm.weight f4 [32]
0.528992 0.4798479 0.5066108 0.5974684 0.49833077 0.49532074 0.50175214 0.53263223
0.4893284 0.48310143 0.50907034 0.50340384 0.49855334 0.5401911 0.54274786 0.50713396
0.50077486 0.48841444 0.5181136 0.50922126 0.50218236 0.5191703 0.51547384 0.5113655
0.53412443 0.47701955 0.5144658 0.48821625 0.5019663 0.47593343 0.48462072 0.5337838
00000000: 056c 073f a0ae f53e 3fb1 013f b0f3 183f
00000010: 3625 ff3e ae9a fd3e d472 003f 965a 083f
00000020: 4189 fa3e 1259 f73e 6f52 023f 13df 003f
00000030: 6242 ff3e f749 0a3f 86f1 0a3f 88d3 013f
00000040: c832 003f 7511 fa3e 18a3 043f 535c 023f
00000050: 068f 003f 58e8 043f 18f6 033f d9e8 023f
00000060: 61bc 083f e83b f43e 08b4 033f 7bf7 f93e
00000070: dd80 003f 8cad f33e 3520 f83e 0ea6 083f

graph_attention.norm.bias f4 [32]
-0.025004156 0.0023145261 0.033467196 -0.041408997 -0.009298515 0.009396279 -0.0050553163 0.033172097
0.012590565 -0.009935708 -0.019221447 0.024465142 0.035449024 0.0020538315 -0.015648985 -0.0022426387
-0.028856367 -0.0040972936 -0.021151792 0.0112441415 0.0015620386 -0.009184844 0.029520115 -0.026253916
-0.030522095 0.024244275 0.018950064 0.034361724 0.0066715144 -0.019631753 0.018856846 0.010454712
00000000: 84d5 ccbc 4eaf 173b e614 093d 7b9c 29bd
00000010: cc58 18bc daf2 193c 11a7 a5bb 77df 073d
00000020: a848 4e3c 61c9 22bc 4c76 9dbc 1f6b c83c
00000030: ff32 113d 9399 063b 4d32 80bc 3cf9 12bb
00000040: 3064 ecbc 9742 86bb 8646 adbc 5939 383c
00000050: 51bd cc3a 077c 16bc 2bd4 f13c 7412 d7bc
00000060: 7909 fabc ee9b c63c 2a3d 9b3c e1be 0c3d
00000070: b89c da3b c5d2 a0bc ac79 9a3c 3e4a 2b3c

temporal_module.fusion_weight f4 [4]
0.65080124 0.7210641 0.6138442 0.53536934
00000000: e99a 263f a897 383f e524 1d3f f70d 093f

temporal_module.scales.0.0.weight f4 [32, 32, 3]
-0.0148576405 -0.025938585 0.009601518 0.01066873 -0.012626446 0.024430865 0.006486231 0.0026544635
-0.023979355 -0.07477429 -0.053528666 0.06559653 0.007910863 0.0040513314 0.0022744725 0.017678862
-0.001681304 -0.00441375 -0.011506316 0.008902055 -0.010955982 0.019218296 -0.004772308 -0.026157182
-0.036612272 0.009914501 0.015628103 0.0056692357 -0.011869352 0.01747225 -0.0021582574 0.028658146
0.016389463 -0.0058750077 -0.011385731 -0.020986483 0.020567 -0.0030854705 -0.0402804 0.015773455
0.0040769377 -0.012445374 0.028756069 0.012348116 0.014416265 -0.006969984 -0.02175303 0.0056610117
0.010161869 0.021728264 -0.0061957315 0.011550569 0.025115013 0.005364217 0.034334578 -0.011701835
0.004519355 -0.004863569 -0.008079602 -0.024219181 0.016732538 -0.027220791 -0.013688441 -0.0308309
-0.014397551 0.023547333 0.012309284 0.026455827 -0.013294635 -0.018103026 0.0020202307 0.00026390955
-0.048838817 0.017358303 0.052374087 0.023139203 0.0137389265 -0.0067379507 0.04584791 -0.0020249807
-0.0277179 0.021618837 0.0005586666 -0.0329306 0.018695204 0.006406802 -0.018219536 0.00018480614
0.015399631 0.01655508 -0.013476372 0.009125308 -0.025371132 -0.009053801 0.002503182 -0.004280202
0.02415531 -0.021110928 -0.019763775 0.0025105583 -0.006216921 -0.03655259 -0.028617712 0.011654145
0.009281539 0.015775185 -0.019003782 0.0034519322 0.0064573167 0.001920429 0.003452411 -0.0092182895
-0.015457853 -0.011023557 -0.0013536847 0.020463293 0.036149696 -0.038208686 0.012182012 0.023334214
0.008039024 -0.0027805613 -0.021567777 0.020616168 -5.27522e-05 0.008190907 0.046264187 -0.0008393228
0.007013001 0.0053588706 0.012135464 -0.016872728 -0.03283716 0.01839759 0.007855696 -0.008920512
0.011670127 -0.0144654 0.01490416 0.0024360751 -0.022537705 0.008560652 -0.0066261925 -0.0044046356
0.0119342785 -0.011873718 0.0069042295 0.018868482 -0.012534547 -0.014695895 0.008053322 0.007946412
0.012116801 -0.018225009 -0.006615647 0.00034428682 -0.010064646 0.007166937 -0.019590903 0.03472844
-0.01163108 -0.01085087 -0.040798437 -0.021298893 0.011967321 -0.0024507875 -0.03407126 0.01618181
0.042536296 -0.009388919 0.0010610428 -0.012215541 0.010370015 -0.0007154318 -0.041231256 0.016640432
-0.017971773 0.00075515977 0.009326593 -0.010217426 -0.014346248 0.020242225 0.0062341886 0.01065973
-0.0048520253 -0.0021964938 -0.011205689 0.0035659866 -0.01750725 0.0077418773 -0.0044755 0.018715486
-0.0023941232 0.011611258 -0.0113677895 -0.014958504 -0.022476813 -0.0139264595 0.021552153 -0.02154813
-0.0048950906 -0.009314421 0.008749679 -0.007844451 0.010658285 0.0023808025 0.0027140784 0.008009277
-0.009793329 -0.013680298 0.029492708 0.008613134 0.025522506 0.046431366 0.0013890195 -0.01067532
-0.02281626 -0.025279194 -0.023162734 -0.024338009 -0.011055465 0.026582142 -0.03709967 -0.034870155
-0.011512648 0.011512072 -0.04835236 -0.022643711 0.036841728 0.0144136045 -0.007776944 0.0454478
0.027298048 -0.014768166 -0.029763637 0.013813218 0.019376652 0.0040033865 -0.019619372 0.020685878
0.008679837 0.018064382 -0.003468636 -0.019880906 -0.0035468815 -0.0026189794 -0.014486639 0.043171242
0.037245944 0.033857834 0.018411273 -0.016850756 0.00842868 -0.013227237 -0.0030725098 -0.032221064
00000000: 766d 73bc 287d d4bc af4f 1d3c e6cb 2e3c
00000010: 27df 4ebc 3d23 c83c 738a d43b 82f6 2d3b
00000020: 5a70 c4bc 4323 99bd e040 5bbd 7957 863d
00000030: 909c 013c 08c1 843b 510f 153b 43d3 903c
00000040: 335f dcba 38a1 90bb fd84 3cbc edd9 113c
00000050: b880 33bc b06f 9d3c 0561 9cbb 9647 d6bc
00000060: c0f6 15bd 6e70 223c 8206 803c ffc4 b93b
00000070: ac77 42bc f721 8f3c 8d71 0dbb 7dc4 ea3c
00000080: 3243 863c 2383 c0bb 388b 3abc d8eb abbc
00000090: 207c a83c 9b35 4abb 10fd 24bd 5537 813c
000000a0: d597 853b afe7 4bbc d991 eb3c c14f 4a3c
000000b0: 3332 6c3c 7764 e4bb 6933 b2bc 0280 b93b
000000c0: f87d 263c 79ff b13c 9005 cbbb 993e 3d3c
000000d0: 00be cd3c 50c6 af3b 6aa2 0c3d 0eb9 3fbc
000000e0: 1917 943b 935e 9fbb 4f60 04bc 4e67 c6bc
000000f0: ad12 893c 23fe debc 7c45 60bc 1591 fcbc
00000100: b5e3 6bbc 56e6 c03c e1ac 493c e4b9 d83c
00000110: bed1 59bc cc4c 94bc d965 043b 575d 8a39
00000120: 360b 48bd 0033 8e3c 3686 563d 6d8e bd3c
00000130: 3c19 613c 07ca dcbb 05cb 3b3d 8ab5 04bb
00000140: a610 e3bc fd19 b13c 7b73 123a 3de2 06bd
00000150: af26 993c 27f0 d13b 2341 95bc 85c8 4139
00000160: bc4e 7c3c 859e 873c 00cc 5cbc 5182 153c
00000170: 1fd7 cfbc 6556 14bc 6d0c 243b f040 8cbb
00000180: 5be1 c53c d3f0 acbc a4e7 a1bc 2e88 243b
00000190: 50b7 cbbb 2bb8 15bd b16f eabc 07f1 3e3c
000001a0: 9911 183c f63a 813c d2ad 9bbc d039 623b
000001b0: e697 d33b e7b6 fb3a d841 623b 4f08 17bc
000001c0: ef42 7dbc 269c 34bc 1f6e b1ba a3a2 a73c
000001d0: b411 143d b680 1cbd 1097 473c 6527 bf3c
000001e0: 1cb6 033c 143a 36bb e8ae b0bc 3de3 a83c
000001f0: 3e42 5db8 2733 063c 847f 3d3d 0006 5cba
00000200: 51cd e53b 7799 af3b d3d3 463c ad38 8abc
00000210: 4280 06bd 8bb6 963c 2db5 003c 5727 12bc
00000220: 0f34 3f3c 4900 6dbc 9430 743c 8fa6 1f3b
00000230: fea0 b8bc fa41 0c3c 8820 d9bb c354 90bb
00000240: fe87 433c fc89 42bc e03c e23b 1392 9a3c
00000250: b35d 4dbc 0dc7 70bc 15f2 033c ab31 023c
00000260: 8c85 463c 9d4c 95bc 12c8 d8bb 6581 b439
00000270: 2fe6 24bc a0d8 ea3b 1a7d a0bc 693f 0e3d
00000280: 4990 3ebc d9c7 31bc 431c 27bd 047b aebc
00000290: 9512 443c 649d 20bb 4e8e 0bbd b78f 843c
000002a0: 8a3a 2e3d fbd3 19bc b012 8b3a b123 48bc
000002b0: ffe6 293c d18b 3bba 1be2 28bd 8451 883c
000002c0: 8a39 93bc eaf5 453a 91ce 183c fe66 27bc
000002d0: 860c 6bbc 06d3 a53c 2a48 cc3b 26a6 2e3c
000002e0: bdfd 9ebb 0df3 0fbb 1198 37bc 54b3 693b
000002f0: 5d6b 8fbc 93af fd3b 37a7 92bb 3851 993c
00000300: b9e6 1cbb 253d 3e3c f73f 3abc 8314 75bc
00000310: 4b21 b8bc ce2b 64bc 248e b03c b485 b0bc
00000320: ff66 a0bb 839b 18bc d05a 0f3c 0386 00bc
00000330: 16a0 2e3c 3d07 1c3b aede 313b 5839 033c
00000340: 3374 20bc 5423 60bc b19a f13c 1a1e 0d3c
00000350: 9314 d13c d12e 3e3d c30f b63a 8ae7 2ebc
00000360: 2ae9 babc 5016 cfbc c6bf bdbc 8160 c7bc
00000370: fb21 35bc cbc2 d93c d3f5 17bd 02d4 0ebd
00000380: 8c9f 3cbc 219d 3c3c 200d 46bd 4e7f b9bc
00000390: 5ae7 163d 0a27 6c3c bcd5 febb 7927 3a3d
000003a0: 28a0 df3c 2df6 71bc dfd2 f3bc d650 623c
000003b0: c9bb 9e3c d72e 833b ceb8 a0bc 6e75 a93c
000003c0: e035 0e3c c1fb 933c 0e52 63bb 48dd a2bc
000003d0: cc72 68bb 2fa3 2bbb 5e59 6dbc 54d4 303d
000003e0: 348f 183d 83ae 0a3d 3dd3 963c 990a 8abc
000003f0: 7218 0a3c 0eb7 58bc 295c 49bb 3cfa 03bd

temporal_module.scales.0.0.bias f4 [32]
9.4854286e-08 -4.9179683e-08 1.1217031e-08 -8.6411745e-08 1.0348582e-07 -2.104894e-08 5.647418e-10 -6.159029e-08
2.5786768e-08 -6.2283547e-09 -7.97357e-09 -1.1435608e-07 4.221114e-09 -5.2635002e-08 9.740183e-09 -3.345595e-08
4.3618964e-08 8.7641645e-09 -8.173196e-08 -5.3192338e-08 -1.9474818e-08 3.099106e-08 -7.3431528e-09 -4.419388e-08
8.3001794e-08 -1.8984136e-07 -2.5364105e-08 -4.359576e-08 2.4757676e-09 -1.6069822e-07 2.2908496e-07 2.7593376e-08
00000000: b2b2 cb33 a239 53b3 06b5 4032 5c91 b9b3
00000010: ee3b de33 1ccf b4b2 2c3c 1b30 9f43 84b3
00000020: b481 dd32 3001 d6b1 22fc 08b2 eb93 f5b3
00000030: 5009 9131 cc10 62b3 c755 2732 35b1 0fb3
00000040: 8f57 3b33 3491 1632 9f84 afb3 9875 64b3
00000050: 9449 a7b2 081b 0533 0e4f fcb1 afcf 3db3
00000060: b83e b233 32d7 4bb4 42e0 d9b2 0c3e 3bb3
00000070: 2a22 2a31 648c 2cb4 65fa 7534 7a06 ed32

temporal_module.scales.0.1.weight f4 [32]
0.5380028 0.46626768 0.51304495 0.48619303 0.5037773 0.5093026 0.48558822 0.512062
0.4825436 0.49996316 0.46385106 0.5784977 0.5256165 0.44951126 0.471577 0.47733107
0.4796828 0.48958325 0.4977093 0.5053281 0.5627867 0.4768812 0.49046764 0.5042963
0.4511964 0.50523835 0.49213362 0.4934039 0.47212973 0.5111949 0.46694946 0.5014614
00000000: 8dba 093f a3ba ee3e ea56 033f 4bee f83e
00000010: 8df7 003f a861 023f 059f f83e 7f16 033f
00000020: f40f f73e 2cfb ff3e e37d ed3e 6d18 143f
00000030: ce8e 063f 5726 e63e 8a72 f13e bd64 f43e
00000040: fc98 f53e a8aa fa3e c1d3 fe3e 2f5d 013f
00000050: ca12 103f c629 f43e 931e fb3e 9019 013f
00000060: 3703 e73e 4d57 013f f0f8 fb3e 709f fc3e
00000070: fdba f13e abdd 023f 0014 ef3e c65f 003f

temporal_module.scales.0.1.bias f4 [32]
-0.040848266 0.020988477 -0.039418675 0.006881849 -0.04623877 0.015487762 0.008100312 -0.049139056
-0.009782749 -0.0024822277 -0.0064644944 -0.035036948 -0.026947565 -0.022379586 0.02799717 0.016143704
-0.02166594 0.0071771266 -0.021886121 0.014760713 -0.023988012 0.0009440081 0.0066644102 0.024511892
0.013393687 -0.0040292763 0.028357126 0.012379508 -0.02252221 -0.015479844 -0.01869732 0.0074870223
00000000: 8350 27bd 07f0 ab3c 7a75 21bd 2281 e13b
00000010: dd64 3dbd 62c0 7d3c 2cb7 043c 0946 49bd
00000020: d347 20bc dfac 22bb 1cd4 d3bb e782 0fbd
00000030: 24c1 dcbc 6555 b7bc 525a e53c cd3f 843c
00000040: c57c b1bc 1a2e eb3b 864a b3bc ebd6 713c
00000050: 8282 c4bc 5077 773a 2061 da3b 2acd c83c
00000060: 3271 5b3c 0508 84bb 344d e83c 6cd3 4a3c
00000070: 7f80 b8bc 2c9f 7dbc 1f2b 99bc b255 f53b

temporal_module.scales.0.1.running_mean f4 [32]
0.053647585 -0.012551226 0.2862757 0.22788486 0.23152573 -0.12264296 -0.07120019 0.15625165
0.09714874 -0.18980736 0.100088574 -0.20585461 0.055184856 0.14244843 0.070011824 0.13198982
0.08642726 0.13602068 0.07473606 -0.012994059 -0.15758282 -0.055012796 0.024746023 -0.11316619
0.131844 -0.028648851 -7.960922e-05 0.05527538 -0.051634256 -0.32063064 -0.0030060017 -0.0005168201
00000000: 92bd 5b3d a8a3 4dbc bb92 923e a65a 693e
00000010: 1515 6d3e 3b2c fbbd 68d1 91bd 6f00 203e
00000020: ebf5 c63d dc5c 42be 3dfb cc3d 8dcb 52be
00000030: 8409 623d 00de 113e 5c62 8f3d 5728 073e
00000040: c600 b13d 0149 0b3e 380f 993d 09e5 54bc
00000050: 645d 21be 1955 61bd 2cb8 ca3c adc3 e7bd
00000060: 1d02 073e ffb0 eabc e0f3 a6b8 7068 623d
00000070: 717e 53bd b329 a4be 5700 45bb 367b 07ba

temporal_module.scales.0.1.running_var f4 [32]
0.0117093185 0.010576964 0.012047964 0.0116517125 0.016140139 0.010804552 0.012502259 0.016040768
0.008174795 0.009262026 0.0071946965 0.018015467 0.009905381 0.0074202046 0.009829814 0.013140914
0.009839212 0.010012364 0.007064612 0.0071371235 0.007185102 0.009423725 0.016782505 0.009149923
0.007406092 0.011134572 0.0106251445 0.009084397 0.0080345925 0.009415471 0.008497809 0.013660686
00000000: 71d8 3f3c 014b 2d3c d364 453c d3e6 3e3c
00000010: 5338 843c 9305 313c 46d6 4c3c ee67 833c
00000020: 93ef 053c c1bf 173c 7dc1 eb3b 2c95 933c
00000030: 2e4a 223c 3025 f33b 3a0d 213c fd4c 573c
00000040: a534 213c e60a 243c 437e e73b 88de e93b
00000050: 0171 eb3b f865 1a3c 777b 893c 8fe9 153c
00000060: cdae f23b c86d 363c 1615 2e3c b9d6 143c
00000070: 86a3 033c 5943 1a3c 653a 0b3c 12d1 5f3c
