save_all/MSTAGAT-Net.spain-covid.w-20.h-14.no_agam.pt (torch, 116897 bytes, 61 tensors)

temp_conv.depthwise.weight f4 [1, 1, 3]
0.19127536 0.34611505 -0.2510594
00000000: b0dd 433e fe35 b13e dc8a 80be

temp_conv.pointwise.weight f4 [16, 1, 1]
-0.046921097 0.029857306 -0.26834938 0.36329556 0.6490589 -0.5045067 0.6369454 0.025812028
0.50954497 0.014538276 0.26399085 -0.033645198 0.5407875 0.01365293 -0.24973242 0.06731898
00000000: 5630 40bd 4f97 f43c 1765 89be e001 ba3e
00000010: b928 263f 5a27 01bf db0e 233f bf73 d33c
00000020: 8a71 023f f331 6e3c cf29 873e 8ccf 09bd
00000030: 0d71 0a3f 8ab0 5f3c dbb9 7fbe 89de 893d

temp_conv.pointwise.bias f4 [16]
-0.24407406 -0.0015191493 -0.19419976 0.4364123 -0.558824 -0.24432719 -0.08853194 -0.3766784
9.6206255e-05 -0.75343305 0.6702306 -0.6176072 0.5419009 0.014641598 -0.12299883 0.39267063
00000000: 8dee 79be 311e c7ba 4ddc 46be 6f71 df3e
00000010: 170f 0fbf e830 7abe 3c50 b5bd fedb c0be
00000020: 57c2 c938 fde0 40bf 3c94 2b3f 811b 1ebf
00000030: 04ba 0a3f 50e3 6f3c d0e6 fbbd 200c c93e

temp_conv.bn2.weight f4 [16]
0.7779389 0.78440434 0.7778149 0.76882285 0.7855868 0.7761397 0.77140075 0.7804623
0.7802081 0.7989411 0.7756069 0.7774347 0.7798832 0.775947 0.7957056 0.77752024
00000000: 0127 473f b9ce 483f e11e 473f 93d1 443f
00000010: 371c 493f 17b1 463f 857a 453f 61cc 473f
00000020: b8bb 473f 6787 4c3f 2c8e 463f f605 473f
00000030: 6da6 473f 76a4 463f 5db3 4b3f 910b 473f

temp_conv.bn2.bias f4 [16]
-0.001411977 -0.0040906463 -0.019476322 -0.008967348 0.026917478 -0.011197477 -0.022325555 -0.0050328183
0.024485053 -0.032392517 0.024565402 -0.0068674316 -0.014710009 0.015586292 -0.021442158 -0.006821714
00000000: 1612 b9ba d40a 86bb cf8c 9fbc c9eb 12bc
00000010: 0b82 dc3c 9f75 37bc 15e4 b6bc 57ea a4bb
00000020: e194 c83c 04ae 04bd 623d c93c 3108 e1bb
00000030: 4002 71bc a65d 7f3c 77a7 afbc af88 dfbb

temp_conv.bn2.running_mean f4 [16]
-0.26487607 0.0068245763 -0.27559254 0.5448482 -0.38982424 -0.39010975 0.08032422 -0.37698138
0.139987 -0.757983 0.7522365 -0.6352854 0.69865334 0.020234825 -0.1984597 0.4202281
00000000: d69d 87be b2a0 df3b 771a 8dbe 2c7b 0b3f
00000010: 0b97 c7be 77bc c7be 0681 a43d b403 c1be
00000020: c158 0f3e 2d0b 42bf 9292 403f 10a2 22bf
00000030: f2da 323f 81c3 a53c 0539 4bbe 2328 d73e

temp_conv.bn2.running_var f4 [16]
0.0011852612 0.0005247999 0.036104914 0.065372296 0.20507523 0.12472774 0.19758168 0.00039174373
0.12719499 0.00012119512 0.034967016 0.00053069 0.14303176 7.3491545e-05 0.031370692 0.002482612
00000000: c45a 9b3a ba92 093a bfe2 133d e9e1 853d
00000010: 3eff 513e 4271 ff3d da52 4a3e f462 cd39
00000020: 673f 023e 222a fe38 9339 0f3d 011e 0b3a
00000030: eb76 123e 791f 9a38 8e7e 003d 51b3 223b

feature_process_low.weight f4 [8, 320]
0.016998967 0.03200035 0.011008875 0.000418071 0.013715441 -0.00232574 0.036150467 0.036935225
0.039632007 0.0072632018 0.028483437 0.030273816 0.023184668 -0.008983696 -0.009575541 0.0069160033
-0.014672231 0.012225048 -0.016951157 -0.03460344 -0.0011677452 -0.0055153524 -0.017636213 -0.010806125
-0.04640802 -0.001493224 -0.019215573 -0.023755934 -0.012693482 -0.017459335 0.028855743 -0.0023336832
0.007797757 -0.008186783 0.029884906 0.00864471 0.014360743 -0.026782328 -0.029082892 -0.061335765
-0.012999582 0.021482049 0.014666272 0.04270807 -0.00036901288 -0.015792608 0.024805894 -0.0020129443
0.039257992 0.013764435 0.03396004 -0.0032823838 -0.0046138368 0.018413687 0.022368554 0.018304717
0.017559018 0.0025955085 -0.037020277 -0.056183133 -0.0024862506 -0.0043596453 -0.018172456 -0.014548819
-0.042785265 0.0005971012 -0.023513945 -0.035836812 -0.020287078 -0.025971685 -0.027445305 0.014915624
-0.011198109 -0.017164698 0.019349154 0.0035628283 -0.0005220629 -0.036353923 -0.013424763 -0.03200237
-0.0005398195 -0.0041325735 -0.01736819 -0.0075552994 -0.051486783 0.00016034882 -0.019068185 -0.029190026
-0.03830466 -0.022395331 -0.006101754 -0.0022796053 0.042594098 0.006365196 0.025241287 0.0060048006
-0.042024817 0.01651519 -0.0052595893 -0.041163553 -0.010943354 -0.019957991 0.019319048 0.00028879696
0.018263802 -0.01946161 0.03932621 -0.00799795 0.008252298 0.015535035 0.026433352 0.03668168
0.02405405 -0.012583847 0.024614455 0.0029311667 0.0046569025 -0.03713605 0.0046366076 -0.063510835
-0.0015404545 -0.0091929035 -0.023042643 -0.017785242 -0.04462629 0.004308809 -0.0214768 -0.030436758
-0.013877599 -0.009644566 -0.009598006 0.04241641 0.017374936 -0.009190603 -0.014642806 -0.0064466847
0.01061717 -0.015928952 -0.018903624 -0.037534222 -0.0047234395 -0.01101192 -0.023105074 -0.009834024
-0.045413073 0.0073542036 -0.016272599 -0.023789171 -0.012878419 -0.0016904102 0.008265495 0.01323907
0.012785375 0.013841537 -0.00072538626 -0.007002276 0.007403156 0.028996259 0.0065635596 -0.03622628
-0.0054736664 -0.006993605 -0.016138354 -0.013735313 -0.05036573 -0.0010842489 -0.020217745 -0.021618785
-0.016645724 -0.024622163 -0.015110941 0.0023690658 0.0068345326 0.026697021 0.004760143 0.020741835
-0.03456239 -0.02485749 0.0028725525 -0.010375296 -0.002233133 -0.0058028325 -0.02246938 -0.006333523
-0.04669819 0.0001735426 -0.027003823 -0.025720425 -0.036073998 -0.0021449723 0.022650972 0.027151234
-0.0028900988 -0.015451409 -0.020751681 0.022049777 0.008982089 0.03546676 0.019491505 -0.016282514
0.0025909473 -0.00727672 -0.018713597 -0.012835674 -0.043661293 0.002923925 -0.02342308 -0.027297894
-0.024820296 -0.029194884 -0.020325141 0.03252785 0.010829027 0.030596768 -0.01744802 -0.017363643
-0.019475097 -0.025608726 -0.0065516545 -0.06302658 0.02306624 -0.008443819 0.025850056 0.026576653
0.0268854 -0.0065552667 0.027606012 -0.0023336152 0.030601555 0.033715464 0.018852085 0.010287298
-0.004920166 -0.00967077 0.033378486 -0.019900968 0.022583775 0.0029019278 0.010378455 -0.04816265
-0.0010519356 -0.006239072 -0.021317184 -0.016782684 -0.04895648 -0.0033735938 -0.019576138 -0.02265614
-0.027847115 -0.020830471 -0.02215635 0.03597448 0.036945675 0.0068713063 -0.0075516943 -0.013824916
00000000: 6b41 8b3c cd12 033d 925e 343c 8a30 db39
00000010: bbb6 603c 716b 18bb 8312 143d 6449 173d
00000020: 2c55 223d 2700 ee3b 1956 e93c cb00 f83c
00000030: c6ed bd3c 5a30 13bc bbe2 1cbc a49f e23b
00000040: cc63 70bc 914b 483c 27dd 8abc 56bc 0dbd
00000050: 070f 99ba 21ba b4bb d279 90bc 2c0c 31bc
00000060: 5616 3ebd 48b8 c3ba fa69 9dbc ce9b c2bc
00000070: 53f8 4fbc e106 8fbc e162 ec3c b5f0 18bb
00000080: 5484 ff3b db21 06bc 31d1 f43c 8ba2 0d3c
00000090: 5249 6b3c 9d66 dbbc 3f3f eebc 363b 7bbd
000000a0: 33fc 54bc 1ffb af3c ce4a 703c a8ee 2e3d
000000b0: 1278 c1b9 805f 81bc bb35 cb3c 9aeb 03bb
000000c0: fdcc 203d 3a84 613c af19 0b3d 431d 57bb
000000d0: ab2f 97bb 4dd8 963c 423e b73c c6f3 953c
000000e0: eed7 8f3c 6819 2a3b 93a2 17bd 4920 66bd
000000f0: 5df0 22bb 5bdb 8ebb 67de 94bc 2b5e 6ebc
00000100: 9a3f 2fbd c986 1c3a 51a0 c0bc 9fc9 12bd
00000110: 1631 a6bc 92c2 d4bc fad4 e0bc a960 743c
00000120: 4678 37bc fb9c 8cbc 1e82 9e3c 577e 693b
00000130: 0cdb 08ba dae7 14bd 8af3 5bbc eb14 03bd
00000140: ac82 0dba 8a6a 87bb bc47 8ebc 7292 f7bb
00000150: cee3 52bd 4f23 2839 e234 9cbc ec1f efbc
00000160: 59e5 1cbd 6a76 b7bc 39f1 c7bb 6e65 15bb
00000170: 2677 2e3d 2293 d03b d1c6 ce3c ebc3 c43b
00000180: 3722 2cbd dd4a 873c a258 acbb 1d9b 28bd
00000190: c14b 33bc f17e a3bc fb42 9e3c ac69 9739
000001a0: f89d 953c f46d 9fbc 8514 213d d509 03bc
000001b0: a634 073c a986 7e3c c28a d83c 873f 163d
000001c0: 000d c53c 7b2c 4ebc 41a4 c93c d118 403b
000001d0: ee98 983b f91b 18bd afee 973b f811 82bd
000001e0: 13e9 c9ba d59d 16bc edc3 bcbc 5bb2 91bc
000001f0: 0fca 36bd e930 8d3b 1df0 afbc 8256 f9bc
00000200: de5e 63bc 3e04 1ebc f440 1dbc d4bc 2d3d
00000210: e255 8e3c 2f94 16bc 61e8 6fbc b63e d3bb
00000220: a3f3 2d3c 6f7d 82bc c6db 9abc 7cbd 19bd
00000230: 15c7 9abb 576b 34bc da46 bdbc e31e 21bc
00000240: 0f03 3abd 88fb f03b 1d4e 85bc 82e1 c2bc
00000250: 0100 53bc c190 ddba 006c 073c afe8 583c
00000260: c079 513c 9dc7 623c d927 3eba 5973 e5bb
00000270: 2c96 f23b 9089 ed3c 2113 d73b 0262 14bd
00000280: 715c b3bb 9c2a e5bb 9534 84bc 140a 61bc
00000290: 4c4c 4ebd 5b1d 8eba af9f a5bc e119 b1bc
000002a0: 9d5c 88bc 6bb4 c9bc e193 77bc 5442 1b3b
000002b0: 37f4 df3b b6b3 da3c f9fa 9b3b c8ea a93c
000002c0: 4b91 0dbd efa1 cbbc 6f41 3c3b 25fd 29bc
000002d0: c159 12bb b025 bebb b511 b8bc 7189 cfbb
000002e0: 9a46 3fbd fdf8 3539 1f37 ddbc a4b3 d2bc
000002f0: 54c2 13bd aa92 0cbb 888e b93c 446c de3c
00000300: d067 3dbb e827 7dbc 6eff a9bc bca1 b43c
00000310: 9d29 133c 9845 113d a6ac 9f3c e862 85bc
00000320: e2cc 293b 8d71 eebb 424d 99bc b84c 52bc
00000330: 2fd6 32bd 529f 3f3b c2e1 bfbc d59f dfbc
00000340: ef53 cbbc 1c2a efbc e980 a6bc ec3b 053d
00000350: 3b6c 313c 13a6 fa3c 26ef 8ebc 333e 8ebc
00000360: 3d8a 9fbc 64c9 d1bc 43af d6bb 1414 81bd
00000370: 69f5 bc3c f257 0abc 7fc3 d33c 48b7 d93c
00000380: c53e dc3c 90cd d6bb 0126 e23c 91ef 18bb
00000390: 1db0 fa3c 3a19 0a3d b06f 9a3c 0e8c 283c
000003a0: 5839 a1bb 2672 1ebc e1b7 083d 5b07 a3bc
000003b0: 9c01 b93c 452e 3e3b 650a 2a3c 3346 45bd
000003c0: 1ae1 89ba 2171 ccbb 60a1 aebc d77b 89bc
000003d0: 9786 48bd 8317 5dbb 235e a0bc 5f99 b9bc
000003e0: a21f e4bc aaa4 aabc 3c81 b5bc fa59 133d
000003f0: 5954 173d b228 e13b 3474 f7bb e781 62bc

feature_process_low.bias f4 [8]
0.047335364 0.018718446 0.051558785 -0.012696155 -0.03350152 -0.010937188 0.015088622 0.026322806
00000000: bae2 413d 6d57 993c 4e2f 533d 8903 50bc
00000010: e438 09bd e431 33bc 4536 773c eda2 d73c

feature_process_high.weight f4 [32, 8]
-0.123059936 0.2044045 -0.050156567 0.024989972 -0.005034887 -0.038122647 0.21769038 0.023619495
0.06200837 -0.110467665 -0.030780574 -0.024629056 0.101190604 0.024618432 0.0053099752 -0.14647575
0.011116578 -0.14289628 -0.18220292 0.041610133 -0.15059221 0.20642036 -0.13744727 0.05640156
0.11619282 -0.12186715 0.1086608 -0.05495294 0.08307416 0.17071824 -0.091768675 -0.07907942
0.14691375 0.037250854 -0.03408806 0.21998215 -0.11269512 0.0057754824 0.11451925 0.045493763
-0.16464569 0.07181663 -0.16956146 -0.10367697 0.10435806 -0.003534539 -0.15500034 0.015944492
0.04710072 -0.104026094 -0.13738698 -0.23403506 0.055272672 -0.11064772 0.023910556 -0.030590726
-0.10711052 -0.023566958 -0.09895694 -0.08932045 -0.012328103 -0.111388676 -0.14532065 0.088779
0.045638632 -0.089694925 -0.00014751487 0.18013509 -0.17599024 -0.078869626 -0.2084579 -0.03121477
-0.00030025427 -0.1608706 0.2131497 -0.21636416 0.24931712 -0.12686628 0.019023951 -0.03211311
-0.13275461 0.23890215 -0.10650939 -0.025769683 -0.18366084 0.075810835 0.21329159 0.1976873
0.015468856 -0.067450844 0.20524873 0.04533962 0.13350059 -0.08065074 -0.08717288 -0.16664872
0.21780919 0.0071732155 -0.12885475 0.00942921 -0.08606321 -0.025389552 0.07958387 -0.072951995
0.020398851 -0.10075171 0.06612052 -0.21004571 0.058264665 0.19384904 0.18318261 0.039876617
0.19906053 0.23804528 0.048111062 0.08208873 0.029240781 0.20807186 0.17511661 -0.07319984
0.01881768 -0.09966054 0.08535414 -0.22201426 0.09165247 -0.056009997 0.04522806 0.03289896
-0.12370506 0.0667642 0.08956412 -0.19013071 0.20586842 0.15654576 0.1367904 -0.025570206
0.09175561 -0.104008794 -0.077340685 0.10494308 0.10230064 0.042364173 -0.21528417 0.14760222
-0.12602128 0.20372277 0.1572548 0.123174526 0.22315349 0.11939692 0.12788394 -0.042961046
0.18752359 0.074954696 0.12947334 -0.025424445 0.13814032 0.19921398 -0.15219519 0.13548507
-0.19306293 -0.16616732 -0.18124357 0.108345926 -0.2259434 -0.06903881 -0.088468336 0.066778906
-0.26803327 -0.07717495 -0.009351839 0.024486344 -0.103810266 0.07833182 -0.15261318 -0.14803165
0.00061968155 -0.038027428 0.057474114 -0.088492714 -0.0006987728 0.016289856 -0.10601142 0.092239685
-0.06305287 -0.01975386 -0.06910549 -0.05419196 -0.03269734 -0.12758154 0.044545457 0.008326746
0.22536723 0.14192626 0.18625002 0.072050706 0.09712389 0.22607264 0.15867788 -0.16303562
-0.054629076 -0.2107846 0.020647198 -0.089168906 0.21344747 -0.007168214 0.015897617 -0.14554963
-0.18057904 0.015378835 -0.086909086 -0.08716125 0.12450044 -0.067005135 -0.08527449 0.13520098
0.036033176 -0.05956358 0.01021317 0.15971816 -0.18036066 0.053928025 0.026950426 -0.013029893
0.14431451 -0.061054584 0.03101489 -0.042582836 -0.12622137 0.071524635 -0.045829885 -0.010725852
0.10202051 -0.13115191 -0.123567395 0.076163955 0.12026656 0.0013672048 0.14432612 0.016183227
0.065820724 -0.10700548 0.19488753 0.08238624 0.02119063 0.11549852 -0.16852626 0.03079952
-0.12537862 -0.02702609 0.066509604 0.11762717 0.052421317 -0.17120004 -0.13203807 0.009079962
00000000: d906 fcbd 6a4f 513e f970 4dbd c5b7 cc3c
00000010: b2fb a4bb 7e26 1cbd 3aea 5e3e ac7d c13c
00000020: 7dfc 7d3d df3c e2bd 8b27 fcbc e0c2 c9bc
00000030: 053d cf3d 98ac c93c 4dff ad3b bdfd 15be
00000040: 4f22 363c 6753 12be 6793 3abe 636f 2a3d
00000050: d834 1abe dc5f 533e fabe 0cbe 5205 673d
00000060: 80f6 ed3d 7c95 f9bd 8e89 de3d 5616 61bd
00000070: c922 aa3d c3d0 2e3e 37f1 bbbd 64f4 a1bd
00000080: 8f70 163e 5a94 183d ec9f 0bbd 0043 613e
00000090: b3cc e6bd 4240 bd3b 1289 ea3d ab57 3a3d
000000a0: e198 28be 9914 933d 85a1 2dbe 9754 d4bd
000000b0: aeb9 d53d b9a3 67bb 69b8 1ebe 069e 823c
000000c0: afec 403d a20b d5bd 2caf 0cbe e3a6 6fbe
000000d0: 9965 623d 469b e2bd 12e0 c33c 6799 fabc
000000e0: c35c dbbd 7e0f c1bc f0a9 cabd a4ed b6bd
000000f0: d0fb 49bc bf1f e4bd f0ce 14be c4d1 b53d
00000100: 93ef 3a3d f9b1 b7bd 39ae 1ab9 5575 383e
00000110: c936 34be 6686 a1bd fd75 55be 1eb6 ffbc
00000120: 726b 9db9 43bb 24be ea43 5a3e 918e 5dbe
00000130: fd4c 7f3e 3ce9 01be 1ed8 9b3c 0989 03bd
00000140: d3f0 07be c4a2 743e 9821 dabd f11a d3bc
00000150: 9611 3cbe b642 9b3d 1c69 5a3e 8a6e 4a3e
00000160: 1671 7d3c ab23 8abd b92c 523e 0ab6 393d
00000170: 61b4 083e 372c a5bd b287 b2bd f6a5 2abe
00000180: 5f09 5f3e 4b0d eb3b 80f2 03be f97c 1a3c
00000190: e941 b0bd c0fd cfbc defc a23d db67 95bd
000001a0: 7e1b a73c ea56 cebd 326a 873d 3916 57be
000001b0: eea6 6e3d 5d80 463e 3994 3b3e aa55 233d
000001c0: 86d6 4b3e 24c2 733e 1b10 453d 231e a83d
000001d0: 5d8a ef3c ca10 553e c551 333e cce9 95bd
000001e0: 8927 9a3c d31a ccbd 27ce ae3d b557 63be
000001f0: 4ab4 bb3d bd6a 65bd 0f41 393d 0fc1 063d
00000200: 1459 fdbd abbb 883d 656d b73d a0b1 42be
00000210: 2ccf 523e 884d 203e c812 0c3e 9c78 d1bc
00000220: 5eea bb3d 9002 d5bd cb64 9ebd 66ec d63d
00000230: ff82 d13d 0e86 2d3d 7473 5cbe 0925 173e
00000240: b90b 01be b49c 503e 6707 213e ed42 fc3d
00000250: 5982 643e 5f86 f43d 02f4 023e ecf7 2fbd
00000260: 2f06 403e d981 993d a994 043e ed46 d0bc
00000270: a874 0d3e c0fe 4b3e 0ed9 1bbe 99bc 0a3e
00000280: 4ab2 45be c427 2abe ea97 39be 78e4 dd3d
00000290: b55d 67be 3864 8dbd e32e b5bd 61c3 883d
000002a0: a83b 89be e60d 9ebd 7538 19bc 9697 c83c
000002b0: 7a9a d4bd 6f6c a03d a146 1cbe 9c95 17be
000002c0: 2072 223a a6c2 1bbd fa69 6b3d ab3b b5bd
000002d0: d92d 37ba 4e72 853c 841c d9bd 29e8 bc3d
000002e0: dd21 81bd d9d2 a1bc 2e87 8dbd 63f8 5dbd
000002f0: a5ed 05bd bca4 02be 4c75 363d e76c 083c
00000300: abc6 663e 1e55 113e 53b8 3e3e 528f 933d
00000310: e4e8 c63d 967f 673e 747c 223e cff2 26be
00000320: bdc2 5fbd ebd7 57be 5024 a93c 309e b6bd
00000330: f991 5a3e 56e3 eabb b83b 823c f60a 15be
00000340: b6e9 38be 82f7 7b3c 64fd b1bd 9981 b2bd
00000350: 16fa fe3d fd39 89bd 64a4 aebd 2072 0a3e
00000360: 8697 133d f1f8 73bd 2455 273c 288d 233e
00000370: 77b0 38be a2e3 5c3d 24c7 dc3c 557b 55bc
00000380: 2fc7 133e 5f14 7abd f012 fe3c 576b 2ebd
00000390: 2d40 01be 827b 923d 1eb8 3bbd 7cbb 2fbc
000003a0: 21f0 d03d b04c 06be e710 fdbd d9fb 9b3d
000003b0: 504e f63d c833 b33a 3aca 133e b092 843c
000003c0: 04cd 863d b025 dbbd 9990 473e 1eba a83d
000003d0: f997 ad3c 7d8a ec3d 2692 2cbe 464f fc3c
000003e0: 4163 00be d265 ddbc 3036 883d 84e6 f03d
000003f0: bcb7 563d 104f 2fbe fd34 07be 1fc4 143c

feature_process_high.bias f4 [32]
-0.11666155 -0.122955404 0.3035542 0.04500729 -0.14076969 0.13316168 0.13202533 -0.09355317
0.15939493 -0.10700541 0.097815275 0.28996247 0.1849054 0.14135608 -0.042925686 0.036457937
0.10446076 0.049843866 -0.048457947 0.057879034 -0.11395454 -0.13506225 -0.15375017 -0.15331298
-0.11737309 0.30601326 0.054629203 -0.21157962 -0.03689372 0.08002291 -0.09514582 -0.08937454
00000000: 40ec eebd 0bd0 fbbd 756b 9b3e 9059 383d
00000010: ee25 10be 895b 083e a631 073e ce98 bfbd
00000020: 6d38 233e a725 dbbd 6053 c83d f675 943e
00000030: d757 3d3e a6bf 103e d8d2 2fbd eb54 153d
00000040: 86ef d53d 1529 4c3d d77b 46bd 9112 6d3d
00000050: ff60 e9bd c24d 0abe af70 1dbe 14fe 1cbe
00000060: 4d61 f0bd c5ad 9c3e dfc2 5f3d 54a8 58be
00000070: df1d 17bd 0de3 a33d d0db c2bd 000a b7bd

feature_norm.weight f4 [32]
0.79555404 0.76551926 0.80718535 0.7741514 0.77541405 0.7796157 0.7751764 0.76574767
0.8329055 0.7838437 0.8364502 0.80650103 0.7783082 0.77271724 0.791782 0.77369815
0.77399206 0.78241515 0.7903193 0.7779374 0.8013959 0.7905214 0.7656434 0.76738375
0.7761049 0.83497226 0.77235806 0.7733908 0.766427 0.77228916 0.76934326 0.7735501
00000000: 6ea9 4b3f 12f9 433f b3a3 4e3f c92e 463f
00000010: 8981 463f e594 473f f671 463f 0a08 443f
00000020: 4b39 553f fba9 483f 9a21 563f da76 4e3f
00000030: 353f 473f ccd0 453f 3ab2 4a3f 1511 463f
00000040: 5824 463f 5c4c 483f 5e52 4a3f e826 473f
00000050: 4828 4d3f 9c5f 4a3f 3501 443f 4373 443f
00000060: d0ae 463f bec0 553f 42b9 453f f1fc 453f
00000070: 8f34 443f beb4 453f aef3 443f 6107 463f

feature_norm.bias f4 [32]
3.816588e-06 -8.0539256e-05 -0.020265136 -0.002658172 0.0115101505 -0.004042325 -0.0015091513 0.002705948
-0.010019258 0.045127064 -0.01600406 -0.011211565 -0.027381903 0.013365998 -0.004134894 -0.0018251324
0.010363428 -0.024803938 0.012337777 0.0080282865 -0.0019705757 -0.0016601771 2.901168e-08 -0.0019711494
0.03444015 -0.0062389527 0.0010703168 0.026663084 0.015767444 0.020725986 -0.013933135 -0.0025896304
00000000: 3e10 8036 2fe7 a8b8 1203 a6bc ba34 2ebb
00000010: 1295 3c3c 7b75 84bb b7ce c5ba 4656 313b
00000020: d027 24bc 28d7 383d f21a 83bc b6b0 37bc
00000030: 0350 e0bc 0ffd 5a3c 017e 87bb 4839 efba
00000040: 5ecb 293c a131 cbbc 6324 4a3c 1389 033c
00000050: c624 01bb 4d9a d9ba 5c35 f932 662e 01bb
00000060: 1d11 0d3d 2170 ccbb df49 8c3a 8a6c da3c
00000070: ba2a 813c 8bc9 a93c ce47 64bc cab6 29bb

graph_attention.adj_matrix f4 [52, 52]
1.0 0.0 0.0 0.0 0.0 0.0 0.0 0.0
0.0 0.0 0.0 0.0 0.0 0.0 0.0 0.0
0.0 0.0 0.0 0.0 0.0 0.0 0.0 0.0
0.0 0.0 0.0 0.0 0.0 0.0 1.0 0.0
0.0 0.0 0.0 0.0 0.0 0.0 0.0 1.0
0.0 0.0 0.0 0.0 0.0 0.0 0.0 0.0
0.0 0.0 0.0 0.0 0.0 1.0 1.0 0.0
0.0 0.0 0.0 0.0 0.0 0.0 0.0 0.0
0.0 0.0 0.0 0.0 0.0 0.0 0.0 1.0
0.0 0.0 1.0 0.0 0.0 0.0 1.0 0.0
0.0 0.0 0.0 0.0 0.0 0.0 1.0 0.0
0.0 0.0 0.0 0.0 0.0 0.0 0.0 0.0
0.0 0.0 0.0 0.0 1.0 0.0 0.0 0.0
0.0 1.0 1.0 0.0 0.0 0.0 0.0 0.0
0.0 0.0 0.0 0.0 0.0 0.0 0.0 0.0
0.0 0.0 0.0 0.0 0.0 0.0 0.0 0.0
0.0 0.0 0.0 0.0 0.0 0.0 0.0 0.0
0.0 0.0 1.0 0.0 0.0 0.0 0.0 0.0
0.0 0.0 0.0 0.0 0.0 0.0 0.0 0.0
1.0 0.0 0.0 0.0 0.0 0.0 0.0 1.0
0.0 0.0 0.0 0.0 0.0 0.0 0.0 0.0
0.0 0.0 0.0 0.0 0.0 0.0 0.0 0.0
0.0 0.0 1.0 0.0 0.0 0.0 0.0 0.0
0.0 0.0 0.0 0.0 0.0 0.0 1.0 0.0
0.0 0.0 0.0 0.0 0.0 0.0 0.0 0.0
0.0 0.0 0.0 0.0 0.0 0.0 0.0 0.0
0.0 0.0 0.0 0.0 1.0 0.0 0.0 0.0
0.0 0.0 0.0 0.0 0.0 0.0 0.0 0.0
0.0 0.0 0.0 0.0 0.0 0.0 0.0 0.0
0.0 0.0 0.0 0.0 0.0 0.0 0.0 0.0
0.0 0.0 0.0 0.0 0.0 0.0 0.0 0.0
0.0 0.0 0.0 0.0 0.0 0.0 0.0 0.0
00000000: 0000 803f 0000 0000 0000 0000 0000 0000
00000010: 0000 0000 0000 0000 0000 0000 0000 0000
00000020: 0000 0000 0000 0000 0000 0000 0000 0000
00000030: 0000 0000 0000 0000 0000 0000 0000 0000
00000040: 0000 0000 0000 0000 0000 0000 0000 0000
00000050: 0000 0000 0000 0000 0000 0000 0000 0000
00000060: 0000 0000 0000 0000 0000 0000 0000 0000
00000070: 0000 0000 0000 0000 0000 803f 0000 0000
00000080: 0000 0000 0000 0000 0000 0000 0000 0000
00000090: 0000 0000 0000 0000 0000 0000 0000 803f
000000a0: 0000 0000 0000 0000 0000 0000 0000 0000
000000b0: 0000 0000 0000 0000 0000 0000 0000 0000
000000c0: 0000 0000 0000 0000 0000 0000 0000 0000
000000d0: 0000 0000 0000 803f 0000 803f 0000 0000
000000e0: 0000 0000 0000 0000 0000 0000 0000 0000
000000f0: 0000 0000 0000 0000 0000 0000 0000 0000
00000100: 0000 0000 0000 0000 0000 0000 0000 0000
00000110: 0000 0000 0000 0000 0000 0000 0000 803f
00000120: 0000 0000 0000 0000 0000 803f 0000 0000
00000130: 0000 0000 0000 0000 0000 803f 0000 0000
00000140: 0000 0000 0000 0000 0000 0000 0000 0000
00000150: 0000 0000 0000 0000 0000 803f 0000 0000
00000160: 0000 0000 0000 0000 0000 0000 0000 0000
00000170: 0000 0000 0000 0000 0000 0000 0000 0000
00000180: 0000 0000 0000 0000 0000 0000 0000 0000
00000190: 0000 803f 0000 0000 0000 0000 0000 0000
000001a0: 0000 0000 0000 803f 0000 803f 0000 0000
000001b0: 0000 0000 0000 0000 0000 0000 0000 0000
000001c0: 0000 0000 0000 0000 0000 0000 0000 0000
000001d0: 0000 0000 0000 0000 0000 0000 0000 0000
000001e0: 0000 0000 0000 0000 0000 0000 0000 0000
000001f0: 0000 0000 0000 0000 0000 0000 0000 0000
00000200: 0000 0000 0000 0000 0000 0000 0000 0000
00000210: 0000 0000 0000 0000 0000 0000 0000 0000
00000220: 0000 0000 0000 0000 0000 803f 0000 0000
00000230: 0000 0000 0000 0000 0000 0000 0000 0000
00000240: 0000 0000 0000 0000 0000 0000 0000 0000
00000250: 0000 0000 0000 0000 0000 0000 0000 0000
00000260: 0000 803f 0000 0000 0000 0000 0000 0000
00000270: 0000 0000 0000 0000 0000 0000 0000 803f
00000280: 0000 0000 0000 0000 0000 0000 0000 0000
00000290: 0000 0000 0000 0000 0000 0000 0000 0000
000002a0: 0000 0000 0000 0000 0000 0000 0000 0000
000002b0: 0000 0000 0000 0000 0000 0000 0000 0000
000002c0: 0000 0000 0000 0000 0000 803f 0000 0000
000002d0: 0000 0000 0000 0000 0000 0000 0000 0000
000002e0: 0000 0000 0000 0000 0000 0000 0000 0000
000002f0: 0000 0000 0000 0000 0000 803f 0000 0000
00000300: 0000 0000 0000 0000 0000 0000 0000 0000
00000310: 0000 0000 0000 0000 0000 0000 0000 0000
00000320: 0000 0000 0000 0000 0000 0000 0000 0000
00000330: 0000 0000 0000 0000 0000 0000 0000 0000
00000340: 0000 0000 0000 0000 0000 0000 0000 0000
00000350: 0000 803f 0000 0000 0000 0000 0000 0000
00000360: 0000 0000 0000 0000 0000 0000 0000 0000
00000370: 0000 0000 0000 0000 0000 0000 0000 0000
00000380: 0000 0000 0000 0000 0000 0000 0000 0000
00000390: 0000 0000 0000 0000 0000 0000 0000 0000
000003a0: 0000 0000 0000 0000 0000 0000 0000 0000
000003b0: 0000 0000 0000 0000 0000 0000 0000 0000
000003c0: 0000 0000 0000 0000 0000 0000 0000 0000
000003d0: 0000 0000 0000 0000 0000 0000 0000 0000
000003e0: 0000 0000 0000 0000 0000 0000 0000 0000
000003f0: 0000 0000 0000 0000 0000 0000 0000 0000

graph_attention.linear1.weight f4 [32, 32]
-0.049275752 0.0018217681 -0.0063132886 -0.020376867 0.023461586 0.03500728 0.05842371 -0.003061157
-0.07382415 -0.004478006 -0.09017427 0.024444513 -0.021175634 -0.059457283 -0.07394313 0.023385638
0.038826127 0.0637238 -0.06401049 0.00078406953 -0.0074394443 -0.07126763 -0.00069268706 0.016628534
-0.049661905 0.06811074 0.016129643 0.0016981157 0.0042152135 0.02653714 0.004145465 0.026085926
-0.018559556 -0.0006757704 -0.06466095 0.07222718 -0.00553893 0.07095045 -0.013737797 -0.017867813
-0.12249901 0.081689335 -0.105784744 -0.050487522 0.054493953 0.01809552 -0.08036327 -0.03801933
-0.07162385 0.06946779 -0.08331234 0.0668489 0.057730768 -0.015844483 2.6209332e-07 0.015441573
-0.019885095 0.1600813 0.061974738 -0.021288672 -0.007517805 -0.0016976496 -0.055941135 0.02186996
-5.3954525e-05 -0.0004971527 4.6756674e-09 -2.870484e-08 -2.377397e-07 -0.0013678267 0.0001487007 0.018975347
9.5981434e-08 -0.0017432604 5.008397e-09 -0.009789727 -0.006680907 2.6560275e-07 0.0008994884 -0.004625087
-2.2296208e-08 -5.361278e-05 -0.0131671345 1.302406e-07 2.110514e-08 7.0494764e-08 0.0033395803 1.7004608e-07
0.00081750273 8.124694e-07 -4.4975973e-08 0.00012997835 -0.0010496196 3.3153814e-05 -1.7492176e-06 2.9408093e-06
-0.010941888 -0.0037848414 -0.13504782 -0.014554669 -0.040147047 -0.029789126 0.022078179 -0.0056668725
-0.08415764 0.05015085 -0.07404594 0.011629291 0.085897185 0.052045304 -0.026041685 -0.057082426
-0.012028257 -0.04309913 -0.04951201 0.06364157 -0.014413199 -0.02996328 -0.006473348 0.005631511
-0.041995786 0.13457368 0.01193823 -0.049644336 -0.0050533093 0.038849793 0.04216602 0.013864577
-0.12253895 -0.0015454881 0.12856458 -0.09778887 -0.0155275045 0.0024861004 0.0021086491 -0.0050288243
-0.0951112 -0.11036808 0.12316129 0.031153856 0.071102366 -0.076900885 0.09935179 -0.071075566
-0.0501852 0.023113746 -0.038661696 -0.035328835 -0.043904386 -0.010345763 -0.00040675187 0.0223328
-0.113855965 0.10171384 0.08752187 -0.018654348 -0.039736588 -0.080435306 0.037957124 0.09209608
0.08984766 0.00057546666 0.014789051 0.0828019 0.015500278 -0.061173216 -0.07648333 0.015719313
0.029359743 0.06222209 -0.09051356 0.057019684 -0.054001942 -0.05367328 0.03697856 -0.06658916
0.061553653 0.017110635 -0.10033171 0.018811252 -0.039322134 -0.0028124477 -3.9283253e-07 -0.035091806
-0.026908457 0.06057338 -0.0028532 -0.02769027 0.011783556 0.0115749 -0.027237747 -0.054670967
-0.06967845 -0.00086174626 0.051216565 0.0804526 -0.021139005 0.037486687 0.04492937 -0.027210139
-0.057321962 0.07069842 0.11913606 0.014201472 -0.08277114 0.04649658 -0.0752411 0.04967343
-0.0031299423 0.027253142 -0.121823944 -0.06665707 0.03793626 0.089374706 1.9160397e-07 0.036434148
-0.017519187 -0.121133715 -0.055811647 -0.03659234 -0.017598415 0.007527014 -0.08064159 -0.06441658
-0.06137306 0.006586158 0.00984146 -0.030593123 -0.0076697133 0.015310722 0.03535037 0.00027599925
0.07122794 0.042289745 0.010705396 -0.0008413952 0.018631702 0.061132524 0.004698166 0.06824408
0.03995855 -0.017693207 0.0041991007 -0.010166476 0.021681847 -0.0012077988 -2.8116557e-07 -0.0012085297
-0.024363501 -0.041457232 -0.036888693 -0.023733743 -0.027268589 -0.013108555 -0.01718047 -0.043337397
00000000: 5fd5 49bd 65c8 ee3a b4df cebb 63ed a6bc
00000010: 8332 c03c cb63 0f3d b34d 6f3d b19d 48bb
00000020: 1e31 97bd 3dbc 92bb 4aad b8bd dc3f c83c
00000030: 8678 adbc 7b89 73bd 7f6f 97bd 3d93 bf3c
00000040: 2508 1f3d a081 823d ef17 83bd 048a 4d3a
00000050: 95c6 f3bb c3f4 91bd 7195 35ba 9038 883c
00000060: 486a 4bbd a57d 8b3d 5022 843c 4f93 de3a
00000070: c61f 8a3b 6b64 d93c aed6 873b 27b2 d53c
00000080: 360a 98bc 2f26 31ba f66c 84bd d8eb 933d
00000090: ea7f b5bb 784e 913d 7f14 61bc 855f 92bc
000000a0: c3e0 fabd bd4c a73d aca5 d8bd 01cc 4ebd
000000b0: 0d35 5f3d 0e3d 943c 8095 a4bd 28ba 1bbd
000000c0: 86af 92bd 2145 8e3d a99f aabd 13e8 883d
000000d0: 1977 6c3d 4acc 81bc d5b5 8c34 a7fe 7c3c
000000e0: 11e6 a2bc 5aec 233e 39d9 7d3d 9565 aebc
000000f0: eb57 f6bb ab83 deba 8822 65bd a128 b33c
00000100: 3b4d 62b8 5a53 02ba 9ba7 a031 9c92 f6b2
00000110: 6445 7fb4 a648 b3ba 8aec 1b39 3072 9b3c
00000120: 5a1e ce33 1d7e e4ba 5316 ac31 1765 20bc
00000130: 83eb dabb 2a98 8e34 a5cb 6b3a 0b8e 97bb
00000140: e185 bfb2 49de 60b8 f7ba 57bc 43d8 0b34
00000150: b24a b532 e862 9733 dcdc 5a3b e995 3634
00000160: ae4d 563a 7918 5a35 9b2b 41b3 cc4a 0839
00000170: 6493 89ba a30e 0b38 a9c6 eab5 b85a 4536
00000180: 9b45 33bc 1a0b 78bb fa49 0abe b576 6ebc
00000190: 3b71 24bd 5308 f4bc 4cdd b43c 2cb1 b9bb
000001a0: d75a acbd fa6a 4d3d 66a5 97bd c888 3e3c
000001b0: ddea af3d 752d 553d 5f55 d5bc 43cf 69bd
000001c0: 2b12 45bc b788 30bd 1bcd 4abd 8356 823d
000001d0: 5725 6cbc 8d75 f5bc 611e d4bb 8a88 b83b
000001e0: c603 2cbd afcd 093e 9198 433c dc57 4bbd
000001f0: 3b96 a5bb f620 1f3d 47b6 2c3d 4028 633c
00000200: b3f5 fabd fa91 caba 6fa6 033e 8845 c8bd
00000210: 1367 7ebc d8ed 223b 4331 0a3b d6c8 a4bb
00000220: a9c9 c2bd a908 e2bd fd3b fc3d 5f36 ff3c
00000230: 1e9e 913d 367e 9dbd f478 cb3d 1190 91bd
00000240: ff8e 4dbd 0a59 bd3c ba5b 1ebd f8b4 10bd
00000250: 16d5 33bd 4681 29bc 5041 d5b9 47f3 b63c
00000260: 512d e9bd 594f d03d ab3e b33d 01d1 98bc
00000270: d5c2 22bd 44bb a4bd ee78 1b3d df9c bc3d
00000280: 0d02 b83d eada 163a c74d 723c 0b94 a93d
00000290: e1f4 7d3c c490 7abd 4ba3 9cbd cac5 803c
000002a0: d883 f03c 97dc 7e3d 2c5f b9bd 798d 693d
000002b0: 2431 5dbd 83d8 5bbd d576 173d e65f 88bd
000002c0: af1f 7c3d 9a2b 8c3c b67a cdbd 0e1a 9a3c
000002d0: 3f10 21bd 0b51 38bb 7ee6 d2b4 6dbc 0fbd
000002e0: 206f dcbc cb1b 783d c1fc 3abb b5d6 e2bc
000002f0: d10f 413c a6a4 3d3c b221 dfbc aaee 5fbd
00000300: 93b3 8ebd d0e6 61ba 76c8 513d 55c4 a43d
00000310: b52b adbc a48b 193d dc07 383d cce7 debc
00000320: 6fca 6abd 55ca 903d 9bfd f33d 4aad 683c
00000330: ea83 a9bd 3373 3e3d 0118 9abd 5e76 4b3d
00000340: b81f 4dbb fb41 df3c d57e f9bd 8083 88bd
00000350: 0d63 1b3d 160a b73d b3bb 4d34 f93b 153d
00000360: 6684 8fbc f414 f8bd c19a 64bd d9e1 15bd
00000370: 8d2a 90bc 2ba5 f63b 6b27 a5bd d7ec 83bd
00000380: 5162 7bbd b3d0 d73b 133e 213c 6e9e fabc
00000390: 3852 fbbb d3d9 7a3c 8dcb 103d feb3 9039
000003a0: f4df 913d 0338 2d3d af65 2f3c 1391 5cba
000003b0: 83a1 983c 1966 7a3d 13f3 993b 8dc3 8b3d
000003c0: 94ab 233d 58f1 90bc 9c98 893b 4a91 26bc
000003d0: 219e b13c 014f 9eba 1af3 96b4 8767 9eba
000003e0: f795 c7bc 0fcf 29bd 9918 17bd 446d c2bc
000003f0: 6062 dfbc 44c5 56bc 0fbe 8cbc 8e82 31bd

graph_attention.linear1.bias f4 [32]
0.061888702 -0.13867548 -0.0038698572 0.019390225 -0.06816751 0.000619395 0.10565781 0.03704909
0.12281602 -0.08102687 -0.048664726 -0.013733819 -0.022835352 -0.045547448 -0.02769439 0.08771914
-0.04860617 0.060819294 0.047431517 0.0032473358 0.021837268 -0.061472673 0.06488861 -0.104098216
-0.0013720681 0.08383184 0.11119783 -0.1252813 0.07556915 -0.010644802 0.013985784 0.12874441
00000000: 027f 7d3d f200 0ebe 6e9d 7dbb 40d8 9e3c
00000010: 689b 8bbd e55e 223a 1f63 d83d c9c0 173d
00000020: f786 fb3d 6af1 a5bd aa54 47bd d003 61bc
00000030: 3411 bbbc f68f 3abd 58df e2bc 18a6 b33d
00000040: 4317 47bd a71d 793d 8d47 423d 41d1 543b
00000050: 12e4 b23c c5ca 7bbd 52e4 843d 7231 d5bd
00000060: f7d6 b3ba 07b0 ab3d b0bb e33d be49 00be
00000070: 00c4 9a3d 8967 2ebc a124 653c 93d5 033e

graph_attention.linear2.weight f4 [32, 32]
-0.0003535363 0.017625567 0.0008916787 0.016088804 -0.0138778575 -0.052695807 0.08222735 -0.034349456
-0.011110917 -0.020041155 0.007595522 -0.05484188 -0.015841147 -0.044774506 -0.0648654 -0.024068845
-0.07831753 0.017474992 -0.026278548 4.2058233e-05 -0.07431665 -0.02821801 -0.009865176 0.05547892
1.0112034e-07 0.019471746 -0.07337881 0.05252343 0.07913049 0.03813737 0.038089857 0.03829756
0.10385331 0.047351237 8.0515304e-07 0.07466844 -0.053683713 0.039732505 0.07934393 0.010341767
0.0004589949 -0.017988358 -0.005940842 0.067658186 0.06844244 0.025499033 0.07660325 -0.009038893
0.02685301 -0.05403419 -0.055773374 2.20633e-05 0.10227741 -0.012604882 0.007962487 0.038638145
-0.018937716 -0.016196487 0.07110409 0.027207207 0.02949419 -0.10846301 0.0037067314 0.03369377
-0.05459105 -0.033679288 0.0017893229 8.0523496e-05 0.04365047 -0.07833029 0.06283991 0.015888056
-0.0030871474 0.09299945 -0.03766572 0.045228217 -0.042166013 0.043092515 0.04838226 0.03782503
0.03019676 0.06622851 -0.02134491 -0.00017565892 0.09809196 -0.096786276 0.006974409 0.06325057
-9.2922214e-08 0.033506166 0.07226758 -0.012750118 0.07230904 0.074172705 -0.036467273 0.051715173
0.10775541 0.07652086 7.3522926e-08 0.125799 -0.054886032 0.057291098 -0.02526058 -0.005458222
-0.05903024 0.03465914 -0.056252718 0.05131579 0.076238364 -0.03617452 0.0061115557 0.018438922
0.025872946 0.11066053 0.014608355 0.00025587936 0.057579074 -0.06065424 0.045394897 -0.068048425
0.0002751222 0.04025793 0.03661377 0.03657412 -0.09253319 0.038767166 0.10342489 0.018113023
0.00041473546 -0.087631784 -2.5594245e-05 -0.027810259 0.024588823 -0.11887014 -0.015110012 -0.04783329
0.07540738 -0.15715545 -0.012588984 -0.112876005 -0.0720577 -0.015114645 -0.110365316 0.060016558
-0.04772613 -0.042931758 -0.08628362 -2.1008713e-05 -0.10456527 0.02402627 -0.0067965114 0.08051589
-4.6406186e-07 0.0057784147 -0.13528615 0.06460527 -0.023283668 -0.11876283 -0.14162043 -0.11149816
0.012306941 0.022804273 5.7910206e-06 0.123129785 -0.0509995 0.050811794 0.014561995 0.00046379928
0.044823624 0.07134217 0.029963976 -0.03679557 0.047551796 0.03360262 -0.036562502 0.016510043
0.020916596 -0.073021345 0.020033421 9.345675e-05 -0.06781305 -0.023678787 -0.022069423 -0.04750911
-4.0550013e-08 0.022857567 -0.04741517 -0.028039346 -0.09053862 -0.006594841 0.005624294 -0.06745218
0.054162126 -0.052022673 0.0135016795 0.019164303 -0.0038888727 -0.034083083 0.095626906 0.040676627
-0.07675287 -0.031981986 0.094248235 -0.00862849 -0.0061919405 -0.05386376 0.062074807 -0.012776074
0.009624121 -0.05125062 0.012907189 0.0024687157 0.09046369 -0.058687843 0.04318007 -0.05821508
9.856149e-05 -0.0025700412 0.024875103 -0.037872605 0.099871196 -0.103908435 -0.052144185 -0.022148458
-0.11810078 -0.07001329 -0.00325528 0.014063025 -0.0018252548 0.052020207 -0.037149776 0.028326413
-0.014947933 0.08381385 0.05628711 -0.0027048301 0.004627982 0.025831448 0.11092032 -0.06311883
0.06896154 -0.02964267 0.09800252 0.007939395 0.11326683 0.0672251 0.0383972 0.098788105
3.942032e-06 -0.030461812 -0.004323254 -0.093428604 -0.072947286 0.03432032 0.013781199 -0.055979263
00000000: d75a b9b9 7e63 903c 8bbf 693a abcc 833c
00000010: f45f 63bc 8fd7 57bd d066 a83d 04b2 0cbd
00000020: 900a 36bc 592d a4bc dbe3 f83b e1a1 60bd
00000030: 4bc5 81bc 7965 37bd 27d8 84bd 072c c5bc
00000040: f164 a0bd b727 8f3c 1c46 d7bc af67 3038
00000050: 5433 98bd 7529 e7bc 8ca1 21bc dd3d 633d
00000060: 7f27 d933 3683 9f3c a147 96bd cf22 573d
00000070: 2b0f a23d ee35 1c3d 1c04 1c3d e7dd 1c3d
00000080: 0bb1 d43d 5ff3 413d b221 5835 c4eb 983d
00000090: 74e3 5bbd 8dbe 223d 127f a23d 8470 293c
000000a0: 41a5 f039 525c 93bc 65ab c2bb 6090 8a3d
000000b0: 8d2b 8c3d 59e3 d03c 2ae2 9c3d dd17 14bc
000000c0: d8fa db3c f452 5dbd 9f72 64bd 9314 b937
000000d0: d276 d13d b584 4ebc 1775 023c 0843 1e3d
000000e0: 4523 9bbc 7fae 84bc 059f 913d a6e1 de3c
000000f0: cd9d f13c db21 debd a2ec 723b 7b02 0a3d
00000100: dd9a 5fbd 4bf3 09bd b787 ea3a b9de a838
00000110: d6ca 323d a26b a0bd 36b2 803d ab27 823c
00000120: bd51 4abb 7f76 be3d 5f47 1abd 3941 393d
00000130: 45b6 2cbd c781 303d 7a2c 463d 6bee 1a3d
00000140: 325f f73c d0a2 873d 85db aebc 1531 38b9
00000150: 70e4 c83d e237 c6bd 9589 e43b 8489 813d
00000160: 878c c7b3 c33d 093d 0601 943d dfe5 50bc
00000170: c316 943d dce7 973d b55e 15bd 4ad3 533d
00000180: deae dc3d f8b6 9c3d a8e3 9d33 74d1 003e
00000190: 2dd0 60bd 12aa 6a3d 47ef cebc e2da b2bb
000001a0: b1c9 71bd bef6 0d3d 4069 66bd 8130 523d
000001b0: dc22 9c3d bc2b 14bd 7243 c83b 390d 973c
000001c0: 80f3 d33c fda1 e23d e257 6f3c 8c27 8639
000001d0: 09d8 6b3d 9570 78bd 00f0 393d f95c 8bbd
000001e0: 473e 9039 80e5 243d 52f8 153d bfce 153d
000001f0: 0b82 bdbd 52ca 1e3d 6ed0 d33d c361 943c
00000200: da70 d939 4b78 b3bd 39b3 d6b7 57d2 e3bc
00000210: 806e c93c 3072 f3bd fc8f 77bc d7ec 43bd
00000220: 2f6f 9a3d 5ced 20be 0742 4ebc 892b e7bd
00000230: fd92 93bd 6aa3 77bc 3607 e2bd ecd3 753d
00000240: 797c 43bd 36d9 2fbd 77b5 b0bd de3b b0b7
00000250: 5126 d6bd bdd2 c43c 45b5 debb 84e5 a43d
00000260: 2d24 f9b4 db58 bd3b 7488 0abe c54f 843d
00000270: 64bd bebc ed39 f3bd f204 11be 2659 e4bd
00000280: 0da3 493c 07d0 ba3c 7d50 c236 782b fc3d
00000290: dae4 50bd 0720 503d 6f95 6e3c 162a f339
000002a0: fa98 373d d81b 923d 0377 f53c f4b6 16bd
000002b0: acc5 423d e7a2 093d 90c2 15bd 1240 873c
000002c0: 4859 ab3c 378c 95bd 211d a43c 36fe c338
000002d0: 91e1 8abd 04fa c1bc efca b4bc ea98 42bd
000002e0: 3629 2eb3 cb3f bb3c 6936 42bd c5b2 e5bc
000002f0: 506c b9bd 8919 d8bb ff4b b83b 5e24 8abd
00000300: 1bd9 5d3d ba15 55bd 2636 5d3c 75fe 9c3c
00000310: 75dc 7ebb b49a 0bbd 0ad8 c33d 899c 263d
00000320: 9c30 9dbd 8bff 02bd 3805 c13d 835e 0dbc
00000330: c3e5 cabb 3fa0 5cbd 2742 7e3d bd52 51bc
00000340: 7dae 1d3c 2cec 51bd ad78 533c 2dca 213b
00000350: 0745 b93d aa62 70bd 96dd 303d f072 6ebd
00000360: ccb2 ce38 236e 28bb dfc6 cb3c 4e20 1bbd
00000370: 4589 cc3d f2cd d4bd 2495 55bd af70 b5bc
00000380: d2de f1bd 2163 8fbd 8956 55bb 9a68 663c
00000390: 633d efba 2413 553d 5d2a 18bd cb0c e83c
000003a0: 2de8 74bc 99a6 ab3d 508d 663d 8543 31bb
000003b0: 54a6 973b 799c d33c 312a e33d 7244 81bd
000003c0: b53b 8d3d 2fd5 f2bc 8cb5 c83d 3c14 023c
000003d0: 71f8 e73d 50ad 893d 6246 1d3d 6b51 ca3d
000003e0: cc45 8436 0d8b f9bc 15aa 8dbb 7f57 bfbd
000003f0: 6365 95bd 7793 0c3d 8aca 613c 834a 65bd

graph_attention.linear2.bias f4 [32]
0.054154214 -0.1014109 -0.09134665 0.13870813 -0.0016434212 -0.05446659 -0.17423023 0.109113164
-0.10532607 0.07798135 -0.13913608 -0.13382263 -0.18506964 0.1165312 0.15408356 -0.1565446
0.14445138 -0.07685372 -0.12644681 0.09153896 0.09363669 0.078212656 0.015177346 0.19686621
-0.106713116 0.09899478 -0.08236991 0.034194864 0.14462887 -0.123276696 0.078642756 -0.06155352
00000000: cfd0 5d3d 85b0 cfbd f413 bbbd 8109 0e3e
00000010: 1168 d7ba 5c18 5fbd 6969 32be b976 df3d
00000020: 32b5 d7bd b0b4 9f3d b079 0ebe cd08 09be
00000030: e582 3dbe e9a7 ee3d 15c8 1d3e 3a4d 20be
00000040: 10eb 133e 7c65 9dbd 467b 01be c778 bb3d
00000050: 98c4 bf3d f52d a03d 67aa 783c 4c97 493e
00000060: 688c dabd c6bd ca3d 8eb1 a8bd ea0f 0c3d
00000070: 9719 143e 7e78 fcbd 740f a13d 8b1f 7cbd

graph_attention.norm.weight f4 [32]
0.776008 0.77805364 0.77571326 0.7617757 0.7679494 0.7623443 0.7759435 0.775448
0.7719592 0.7700193 0.7899044 0.7879265 0.77297926 0.79086673 0.7757813 0.7764428
0.7812819 0.78113556 0.76806015 0.77325726 0.76178014 0.78020597 0.7825634 0.7716093
0.7905108 0.7662286 0.7848326 0.7708653 0.76275086 0.7745635 0.77750474 0.77062386
00000000: 76a8 463f 862e 473f 2595 463f bb03 433f
00000010: 5598 443f ff28 433f 3ca4 463f c383 463f
00000020: 1e9f 453f fc1f 453f 2d37 4a3f 8db5 493f
00000030: f8e1 453f 3e76 4a3f 9a99 463f f5c4 463f
00000040: 1702 483f 80f8 473f 979f 443f 30f4 453f
00000050: 0604 433f 94bb 473f 1356 483f 3088 453f
00000060: ea5e 4a3f 8f27 443f caea 483f 6e57 453f
00000070: a443 433f cb49 463f 8d0a 473f 9b47 453f

graph_attention.norm.bias f4 [32]
0.008684846 0.0069325916 0.035335947 -0.015265909 -0.012923691 -0.011320033 -0.012956115 0.0007569095
-0.007561982 0.0013555867 -0.0010395529 0.01786977 -0.00065755285 -0.028361924 -0.01005564 0.0025732028
-0.008660586 -0.015531264 0.010644445 -0.019804984 -0.012440691 -0.009419643 0.022356406 -0.0055905026
-0.0011417958 -0.018382113 0.026465207 -0.023124222 0.0036766804 -0.0032302574 -0.013365138 0.018202988
00000000: e24a 0e3c cb2a e33b 6dbc 103d dd1d 7abc
00000010: e4bd 53bc a977 39bc e345 54bc 566b 463a
00000020: 81ca f7bb f1ad b13a 9b41 88ba a063 923c
00000030: a05f 2cba 4457 e8bc 69c0 24bc 2ea3 283b
00000040: 21e5 0dbc d876 7ebc 0a66 2e3c 103e a2bc
00000050: 0ad4 4bbc d954 1abc c824 b73c 8930 b7bb
00000060: 4fa8 95ba 1696 96bc 90cd d83c 026f bdbc
00000070: 76f4 703b bab2 53bb 74f9 5abc 6f1e 953c

temporal_module.fusion_weight f4 [4]
0.7889824 0.802855 0.8330423 0.8154954
00000000: c0fa 493f e887 4d3f 4342 553f 4ec4 503f

temporal_module.scales.0.0.weight f4 [32, 32, 3]
-0.0068253134 0.010910684 0.009397622 0.03591538 -0.0097282315 -0.046786916 0.007188142 0.0032531058
0.0020182517 0.010187512 0.0031597237 0.020628948 0.020874528 -0.010916421 0.016937476 0.041511916
0.01909889 0.0032416058 -0.018298995 -0.0076645697 -0.011460176 0.0003749381 0.014724015 0.017962655
0.0014864198 -0.00044429963 -0.022327485 0.0132107325 0.03973962 -0.009898972 0.011071206 -0.010105146
-0.02650222 0.018428493 -0.013673406 -0.01646641 0.022563772 0.01704225 -0.02875934 0.009786399
-0.013976016 0.030400906 0.011813608 0.026562197 0.021711795 0.0147626605 -0.019039337 -0.0007011652
-0.0002676558 0.004167523 -0.0054017967 0.011879224 -0.03184656 0.002346725 -0.029534815 0.0037207487
-0.027415833 -0.014245683 -0.033548426 0.020034317 -0.0038401636 0.006384673 -0.0027699058 -0.024600813
0.02742197 0.027695894 0.014766446 -0.023003755 -0.008465772 -0.009227262 0.016070947 0.03472731
0.028013863 0.02041658 0.020951398 -0.0072839344 -0.00068207807 -0.0016167173 0.028042868 -0.0040518055
-0.0009601338 -0.023970693 -0.012659763 0.020069312 -0.02050998 0.028719256 0.0150793595 -0.0069471626
0.012771984 0.007039575 -0.025019422 0.034279928 0.012372446 -0.005542374 0.022697555 -0.007995509
-0.011372997 0.014954809 -0.0064498885 0.0016613143 0.022232572 0.012130981 0.024103593 0.015144862
0.030506536 -0.012736144 0.010231308 0.008643963 0.036968596 -0.0017438869 -0.015126235 -0.006031689
0.011398957 0.0063230647 -0.0058032926 -0.0015471035 0.013039198 -0.016284857 -0.038821667 0.027023
0.0019942378 -0.01655703 0.028362341 0.049236584 -0.022014534 0.016831597 0.029667806 -0.016863553
-0.013207513 0.0033977148 0.023343956 -0.014770985 0.021918163 0.031353816 0.0058428366 -0.0083501
0.0074551757 -0.026698882 0.028908797 -0.0022032089 -0.016835786 0.022189025 0.0052328273 -0.004314246
-0.014246245 0.010592329 0.026636478 0.021940568 -0.024945065 -0.0023166537 -0.0061039366 0.04046164
0.03046529 -0.013995479 0.011769237 -0.004296673 -0.038426396 -0.0028234338 0.02029314 -0.015805174
-0.0017739204 0.016410572 0.0011658692 -0.00760618 -0.0032786129 -0.017609715 0.012492049 0.030994536
-0.0137609895 -0.028396828 0.020776058 -0.013624564 0.021431165 0.012237977 0.013158189 -0.0021511822
-0.035129756 -0.02067737 -0.014857289 0.009136659 -0.027335983 -0.0142076425 0.010436992 0.02344292
-0.0071588354 0.012389878 0.037775587 -0.014724538 -0.0069657573 0.036464427 0.002314023 -0.006553515
0.031708926 0.01956648 0.0043255365 0.0061119185 -0.01928696 0.00033357387 0.0071040047 -0.00452652
0.0010509006 0.0010897325 -0.016813653 -0.010142231 -0.026706785 0.007007626 0.034540232 -0.0010522796
0.010919614 -0.0012758566 -0.011709432 -0.0017103323 0.0046851975 -0.01153348 -0.009361091 -0.017881818
0.02543518 -0.020688815 0.00711502 -0.0333851 -0.0070612733 0.0027552848 -0.007978559 -0.010086554
0.0120862415 -0.026187733 -0.019620726 -0.0033254072 -0.010228045 -0.011941637 0.02688526 0.02681246
0.007020404 0.015779682 -0.006933149 0.012308058 0.005367789 -0.012923286 -0.0021177866 -0.009147721
0.015889151 -0.0027737957 0.020943355 0.0003167798 0.011801756 0.026119594 0.014045638 0.012476861
-0.0008274505 0.0015916235 0.029882388 0.013316747 0.01136202 0.0047671045 0.012145899 -0.0062393015
00000000: e1a6 dfbb bac2 323c 7cf8 193c 011c 133d
00000010: 2963 1fbc a3a3 3fbd 818a eb3b 0f32 553b
00000020: a544 043b 86e9 263c 5e13 4f3b 0afe a83c
00000030: 0f01 ab3c cada 32bc 76c0 8a3c 6608 2a3d
00000040: 4675 9c3c 1f71 543b c6e7 95bc 1227 fbbb
00000050: 76c3 3bbc 5793 c439 ff3c 713c 6b26 933c
00000060: f9d3 c23a e3f0 e8b9 21e8 b6bc d471 583c
00000070: 03c6 223d 4c2f 22bc 0164 353c 0e90 25bc
00000080: 2f1b d9bc 5af7 963c 6c06 60bc 91e4 86bc
00000090: a9d7 b83c 309c 8b3c b598 ebbc 2257 203c
000000a0: a9fb 64bc 520b f93c dd8d 413c f798 d93c
000000b0: efdc b13c 16df 713c 62f8 9bbc 66ce 37ba
000000c0: 2754 8cb9 b78f 883b 8e01 b1bb 14a1 423c
000000d0: 8a71 02bd 83cb 193b fff2 f1bc ced7 733b
000000e0: 2b97 e0bc ba66 69bc 136a 09bd 021f a43c
000000f0: 41ab 7bbb 8536 d13b 4f87 35bb a587 c9bc
00000100: 0aa4 e03c 80e2 e23c f7ee 713c 5f72 bcbc
00000110: 05b4 0abc f12d 17bc 38a7 833c 393e 0e3d
00000120: 547d e53c ac40 a73c 44a2 ab3c 12ae eebb
00000130: 7ccd 32ba 08e8 d3ba 28ba e53c 02c5 84bb
00000140: 7db1 7bba 305e c4bc e56a 4fbc 6668 a43c
00000150: 8c04 a8bc a544 eb3c 6b0f 773c 06a5 e3bb
00000160: 9541 513c 3cac e63b 88f5 ccbc 1c69 0c3d
00000170: cdb5 4a3c ce9c b5bb 39f0 b93c 98ff 02bc
00000180: cf55 3abc 0405 753c 9659 d3bb 75c0 d93a
00000190: 1521 b63c 06c1 463c e674 c53c 2822 783c
000001a0: d8e8 f93c 42ab 50bc 37a1 273c 699f 0d3c
000001b0: 626c 173d 2293 e4ba 07d4 77bc 79a5 c5bb
000001c0: b1c2 3a3c b631 cf3b 8c29 bebb 2ec8 caba
000001d0: 5ca2 553c d267 85bc 7803 1fbd 575f dd3c
000001e0: c2b1 023b 9ca2 87bc 2458 e83c 4dac 493d
000001f0: d357 b4bc 6be2 893c e609 f33c 6f25 8abc
00000200: 5364 58bc 32ac 5e3b d33b bf3c 0002 72bc
00000210: b88d b33c dc6c 003d 4475 bf3b dcce 08bc
00000220: 8c4a f43b 9db7 dabc 24d2 ec3c b663 10bb
00000230: 34eb 89bc c2c5 b53c 2378 ab3b 855e 8dbb
00000240: 1569 69bc 738b 2d3c be34 da3c b5bc b33c
00000250: 9859 ccbc 00d3 17bb 8803 c8bb 1bbb 253d
00000260: 5892 f93c 4b4d 65bc c2d3 403c 1bcb 8cbb
00000270: ff64 1dbd 5c09 39bb cd3d a63c da79 81bc
00000280: e482 e8ba 776f 863c 14d0 983a 433d f9bb
00000290: ffdd 56bb 4042 90bc 73ab 4c3c 41e8 fd3c
000002a0: c675 61bc 77a0 e8bc 8d32 aa3c 9039 5fbc
000002b0: 6990 af3c cc81 483c 7295 573c d9fa 0cbb
000002c0: 38e4 0fbd 9663 a9bc fd6b 73bc edb1 153c
000002d0: b6ef dfbc 2cc7 68bc ebff 2a3c 5e0b c03c
000002e0: aa94 eabb eafe 4a3c 93ba 1a3d 303f 71bc
000002f0: 0241 e4bb b95b 153d dda6 173b debe d6bb
00000300: 38e1 013d e249 a03c 3bbd 8d3b 7d46 c83b
00000310: b0ff 9dbc 87e3 ae39 b6c8 e83b 3453 94bb
00000320: 5fbe 893a 5bd5 8e3a c9bc 89bc 9a2b 26bc
00000330: 30c8 dabc 3aa0 e53b 0f7a 0d3d a5ec 89ba
00000340: 2ee8 323c a53a a7ba ebd8 3fbc 3b2d e0ba
00000350: 4986 993b ecf6 3cbc 435f 19bc e47c 92bc
00000360: 705d d03c 977b a9bc 1d25 e93b d1be 08bd
00000370: 4162 e7bb 0292 343b 80b8 02bc 1342 25bc
00000380: 5f05 463c a887 d6bc a5bb a0bc 13ef 59bb
00000390: 8893 27bc dba6 43bc 7a3e dc3c cea5 db3c
000003a0: 6b0b e63b 6444 813c 782f e3bb bda7 493c
000003b0: 47e4 af3b 31bc 53bc 90ca 0abb 53e0 15bc
000003c0: f729 823c 92c8 35bb 6691 ab3c 7715 a639
000003d0: 275c 413c c2f8 d53c ad1f 663c bf6b 4c3c
000003e0: 43e9 58ba 069e d03a e9cb f43c 7c2e 5a3c
000003f0: c427 3a3c 5f35 9c3b 98ff 463c 0e73 ccbb

temporal_module.scales.0.0.bias f4 [32]
7.659436e-07 0.00024422657 2.1059298e-06 8.358194e-07 1.4277367e-07 1.1995488e-07 5.011019e-06 6.590611e-09
1.829779e-07 1.0577814e-08 -4.6162683e-08 -3.635524e-07 -2.559893e-07 2.995212e-08 1.0413355e-07 1.4493935e-07
-1.8160048e-08 -3.9087062e-08 2.7775112e-08 -9.912382e-07 1.0430698e-07 2.1936291e-08 -1.6111736e-08 -0.00015911095
3.6313943e-07 0.00020582684 1.4245288e-08 -5.5979545e-09 -1.2396528e-07 -1.573716e-05 5.0661686e-08 -1.5810581e-08
00000000: 3e9b 4d35 890b 8039 9953 0d36 125d 6035
00000010: 544d 1934 f2cc 0034 5324 a836 a173 e231
00000020: 9578 4434 b8b9 3532 6844 46b3 432e c3b4
00000030: e76e 89b4 b4a4 0033 06a0 df33 a0a0 1b34
00000040: 5efe 9bb2 aee0 27b3 1e96 ee32 af0a 85b5
00000050: 5eff df33 6a6e bc32 1566 8ab2 05d7 26b9
00000060: 81f5 c234 39d3 5739 70bb 7432 2158 c0b1
00000070: 511b 05b4 4b03 84b7 1d97 5933 d6cf 87b2

temporal_module.scales.0.1.weight f4 [32]
0.76731634 0.7429446 0.8016735 0.753885 0.79302716 0.8033633 0.77559024 0.7868016
0.77526444 0.78820014 0.7558642 0.7631929 0.765644 0.7897756 0.7605665 0.8031472
0.7649316 0.79317266 0.8097854 0.78143114 0.7894106 0.75488716 0.8163626 0.7638378
0.8065417 0.810623 0.77543205 0.7837135 0.82815975 0.773724 0.78920317 0.78521836
00000000: d86e 443f 9e31 3e3f 793a 4d3f 9bfe 403f
00000010: d403 4b3f 38a9 4d3f 158d 463f d46b 493f
00000020: bb77 463f 7cc7 493f 5180 413f 9c60 433f
00000030: 3f01 443f bc2e 4a3f 7cb4 423f 0e9b 4d3f
00000040: 8fd2 433f 5d0d 4b3f 194e 4f3f df0b 483f
00000050: d016 4a3f 4940 413f 24fd 503f e08a 433f
00000060: 8479 4e3f fd84 4f3f b782 463f 73a1 483f
00000070: 4702 543f c712 463f 3809 4a3f 1204 493f

temporal_module.scales.0.1.bias f4 [32]
-0.028246751 0.013899232 -0.016958682 0.013964534 -0.010843902 0.016835732 -0.030702492 -0.020577246
-0.026316177 -0.056248747 0.019853095 -0.007628057 0.0054369895 -0.029260729 0.033845242 -0.037533037
-0.0047405623 -0.022662025 -0.05201122 -0.044678822 -0.020728216 -0.025638834 -0.049223483 0.0119861
-0.047837675 -0.0069957916 -0.03571795 -0.046025764 -0.04141785 -0.05196612 -0.02003435 -0.021584198
00000000: bb65 e7bc 9bb9 633c efec 8abc 80cb 643c
00000010: 9faa 31bc 17eb 893c cb83 fbbc 9d91 a8bc
00000020: 0695 d7bc 1665 66bd f5a2 a23c c8f4 f9bb
00000030: c628 b23b 32b4 efbc 4fa1 0a3d 3ebc 19bd
00000040: b856 9bbb b6a5 b9bc b809 55bd 2401 37bd
00000050: 38ce a9bc 8808 d2bc 909e 49bd 5961 443c
00000060: 70f1 43bd f43c e5bb fc4c 12bd 8385 3cbd
00000070: c3a5 29bd 6dda 54bd 141f a4bc 58d1 b0bc

temporal_module.scales.0.1.running_mean f4 [32]
0.018167164 -0.061443843 -0.025363961 -0.2091271 -0.13477753 0.21300457 -0.120422795 -0.1657501
-0.28863055 0.10787424 -0.08361781 -0.11111311 0.06445245 -0.16283964 0.14091192 -0.31203854
-0.21243583 -0.15017195 -0.27560404 0.24538444 0.08720829 0.082942896 -0.76249295 -0.111864604
0.048143633 0.19099993 -0.3661004 -0.004669579 -0.5105202 0.27967688 -0.027137069 -0.10542168
00000000: 4ed3 943c 8aac 7bbd 15c8 cfbc 6a25 56be
00000010: 1f03 0abe df1d 5a3e 3aa0 f6bd 65ba 29be
00000020: 62c7 93be 2bed dc3d d03f abbd 458f e3bd
00000030: a5ff 833d 6fbf 26be 374b 103e 84c3 9fbe
00000040: c788 59be adc6 19be f91b 8dbe 0f46 7b3e
00000050: 439a b23d f7dd a93d bd32 43bf 4519 e5bd
00000060: 4232 453d 7c95 433e 8371 bbbe 4503 99bb
00000070: 74b1 02bf cf31 8f3e 8f4e debc 52e7 d7bd

temporal_module.scales.0.1.running_var f4 [32]
0.015333797 0.025531517 0.012537386 0.02796755 0.019546129 0.04093873 0.0472601 0.020684248
0.028186481 0.035467304 0.012264689 0.011402264 0.030177679 0.020959174 0.03019696 0.023756498
0.03416337 0.032203455 0.022852931 0.02197524 0.04257332 0.047792684 0.027449077 0.014729274
0.045645267 0.035864446 0.021920454 0.019232396 0.053563837 0.016482547 0.027941622 0.02747694
00000000: 9b3a 7b3c 7927 d13c 9c69 4d3c 341c e53c
00000010: 341f a03c 5faf 273d ce93 413d 0372 a93c
00000020: 56e7 e63c 2a46 113d d6f1 483c 90d0 3a3c
00000030: 2e37 f73c 93b2 ab3c 9d5f f73c fd9c c23c
00000040: e4ee 0b3d c5e7 033d 1236 bb3c 6b05 b43c
00000050: 5d61 2e3d 43c2 433d e3dc e03c 0e53 713c
00000060: 88f6 3a3d 99e6 123d 8692 b33c 428d 9d3c
00000070: c165 5b3d 6806 873c d4e5 e43c 5217 e13c
