save_all/MSTAGAT-Net.spain-covid.w-20.h-3.no_agam.pt (torch, 116055 bytes, 61 tensors)

temp_conv.depthwise.weight f4 [1, 1, 3]
000000 25 a9 c7 3e 8b 07 d8 3e 76 e5 20 be
       0.38996235 0.42193255 -0.15712532

temp_conv.pointwise.weight f4 [16, 1, 1]
000000 90 4b 10 be c9 91 fd 3d 52 ad d0 be 81 03 02 3f
       -0.14091325 0.12381322 -0.40757233 0.50786597
000010 a9 4a 4d 3f 43 72 27 bf e2 21 4a 3f 33 07 e0 3d
       0.8019205 -0.65408725 0.7895795 0.10938873
000020 92 c5 28 3f 8e bb 71 3d 77 4a ce 3e 22 4b 84 bd
       0.6592647 0.059016757 0.40291187 -0.06459643
000030 6d fa 30 3f 41 1f 91 3d 5f 72 c6 be 7e a1 34 3e
       0.6913212 0.07086039 -0.38759133 0.1763973

temp_conv.pointwise.bias f4 [16]
000000 e0 53 c3 be 78 24 2a bd 60 71 a7 be 52 79 15 3f
       -0.3814993 -0.041538686 -0.32703686 0.58388245
000010 19 b5 35 bf ac 77 c3 be 5d 9a 50 be 67 97 05 bf
       -0.7097946 -0.3817724 -0.20371385 -0.52184147
000020 0a c0 a6 3c 9b 73 68 bf 65 cf 52 3f 9b 15 45 bf
       0.020355243 -0.908014 0.8234771 -0.7698609
000030 31 45 31 3f d0 51 b6 3d 9b bd 7b be 48 db 09 3f
       0.692462 0.08902323 -0.24584047 0.5385022

temp_conv.bn2.weight f4 [16]
000000 84 98 6b 3f 68 9a 6b 3f 8c d3 6b 3f b8 a2 6b 3f
       0.92029595 0.9203248 0.9211967 0.92045164
000010 38 4f 6c 3f d0 28 6c 3f 65 af 6b 3f b9 c6 6c 3f
       0.9230838 0.92249775 0.92064506 0.92490727
000020 52 84 6e 3f 19 63 6c 3f 54 af 72 3f 4e 32 6d 3f
       0.93170655 0.9233871 0.9479878 0.92654884
000030 21 50 6c 3f f8 68 6c 3f a1 01 6c 3f 22 87 6c 3f
       0.92309767 0.9234767 0.92189986 0.92393696

temp_conv.bn2.bias f4 [16]
000000 b9 f8 ac 3c 14 58 26 3d 43 b7 3e bb 1f 5f 0d 3d
       0.021114694 0.04061134 -0.0029100932 0.034514543
000010 1b 83 99 3c 68 12 e1 bb 74 d5 e6 3c 37 3a a9 bb
       0.018739274 -0.0068686493 0.028177954 -0.0051644105
000020 a8 e1 be 3c 17 5b 1d bd 1a d2 0f 3d ae 2f 33 bc
       0.02330096 -0.03841695 0.035112478 -0.010936661
000030 65 42 47 3c 25 8c 51 3c 48 40 46 bc 0e 49 18 3d
       0.012161826 0.012789761 -0.012100287 0.037179045

temp_conv.bn2.running_mean f4 [16]
000000 3e 6b c7 be 49 10 1d bc 9b 17 db be cb 20 2b 3f
       -0.38949007 -0.009586402 -0.42791447 0.66846913
000010 a9 f8 b0 be 0b 8c 0c bf 67 af 81 3d 29 9a d0 be
       -0.34564713 -0.5490119 0.063322835 -0.40742615
000020 d6 af 81 3e 41 f1 3c bf f8 c8 54 3f 2f 9f 2e bf
       0.25329465 -0.73805624 0.83119154 -0.68211645
000030 5e 58 50 3f 61 53 03 3e 75 fa b5 be 8f 50 07 3f
       0.8138484 0.12824775 -0.35542646 0.528573

temp_conv.bn2.running_var f4 [16]
000000 f8 3a 4c 3e 19 85 49 3e a4 5c 8d 3e f6 f0 a4 3e
       0.1994437 0.19679679 0.27609742 0.3221509
000010 16 ee 02 3f 8f f4 cf 3e d0 7a 00 3f e3 73 47 3e
       0.5114454 0.4061627 0.50187397 0.19477801
000020 8a aa d1 3e aa c9 41 3e 2d 62 8c 3e d2 4b 42 3e
       0.40950423 0.18924585 0.27418652 0.18974236
000030 97 8b dc 3e f2 e8 42 3e 77 3d 89 3e e2 be 52 3e
       0.4307525 0.19034174 0.26804706 0.20580629

feature_process_low.weight f4 [8, 320]
000000 a9 02 da 3b 96 08 0c 3d 5a 3b ad bb 8d 3c d5 bc
       0.006653149 0.034187876 -0.0052866163 -0.02602985
000010 a0 6d e8 3c c1 96 c8 bb e5 75 8f 3c 1d 4a 15 3d
       0.028372586 -0.006121487 0.017512271 0.036447633
000020 49 fa ca 3c 4b 94 aa 3a 56 42 05 3d 6f ab 81 3b
       0.024777548 0.0013014165 0.032533966 0.003957204
000030 30 d2 8a 3c 32 64 51 bd 1c a1 16 bd bf f0 a7 bc
       0.016945928 -0.051120944 -0.03677474 -0.020500539
000040 ea 95 32 bd d9 c3 92 3d 87 e5 14 3c e2 31 2b 3c
       -0.0436 0.07166261 0.009087927 0.010448905
000050 ae 88 ef ba 3d 6f 9a ba c5 74 1d 3d e8 3e f9 bc
       -0.0018274987 -0.0011782419 0.03844144 -0.030425504
000060 a4 81 fe bc 0d 3a 53 bd 2e ef 6e 3c fa 7e 40 bd
       -0.031067677 -0.051569033 0.014583392 -0.046996094
000070 68 92 a4 bb df b6 40 bd a7 22 be 3b e1 80 81 bd
       -0.005022336 -0.0470494 0.0058024707 -0.0632341
000080 ce b5 33 bd 05 20 4f bc b0 43 c8 3c df 30 79 bc
       -0.043874554 -0.012641911 0.024446338 -0.015209406
000090 cb 87 a3 3c 29 7a 9a bd bb d1 94 bd 43 77 56 bd
       0.019962212 -0.075428315 -0.072665654 -0.05235983
0000a0 e7 15 31 bd 5b cf 36 3c 20 54 a2 3c 14 4f 84 3d
       -0.04323378 0.011157836 0.019815505 0.064603955
0000b0 ab 5c 13 bd 08 c8 1e bc 1f c0 61 3c a8 da 0f bd
       -0.035977047 -0.009691246 0.013778715 -0.035120636
0000c0 52 4e 03 3d c3 a1 a0 bc 58 8a c8 3c 01 0d 76 bd
       0.032057114 -0.019608384 0.02448003 -0.060070995
0000d0 08 6e 48 ba 19 c2 6b 3c 40 85 4c 3c 24 33 59 bc
       -0.00076457905 0.014389538 0.012482941 -0.013256822
0000e0 c6 2d 98 3c c1 c3 d9 3c 09 b1 6c 3b 28 b1 1d bd
       0.018576514 0.0265826 0.0036116263 -0.038499027
0000f0 0b 5d 52 3c 40 50 2d bd f2 2c a8 bc 85 6f 4d bd
       0.012839566 -0.04231286 -0.020529244 -0.05015518
000100 89 ce 71 bd 6b ab a6 bc 4f 5f ff 3b c5 f2 9f bd
       -0.059034858 -0.02034541 0.007793344 -0.078099765
000110 9c c5 93 bc f7 9b 40 bd f6 aa 55 bd d4 aa 80 bd
       -0.018038563 -0.04702374 -0.052164994 -0.06282583
000120 bb a6 a4 bd b7 d7 50 bd 1c 48 47 3d 4d 39 fd bc
       -0.08039614 -0.05098697 0.048652753 -0.030911112
000130 4c 9c 29 bb 2e 49 80 bd 02 8b 86 bd a4 be 8a bb
       -0.0025880514 -0.06263958 -0.065694824 -0.004234152
000140 88 47 7f bb ba 44 0d bd 85 b6 b1 bc 99 c5 3b bd
       -0.0038952548 -0.03448937 -0.021693477 -0.04584274
000150 31 c4 07 bd c6 29 e7 bc 7f 92 16 bd d9 35 98 bd
       -0.033146087 -0.028218161 -0.036760803 -0.074321456
000160 1a cb 8a bd 02 67 56 bd 63 0d 71 bd 7b 8a 6a bd
       -0.0677702 -0.05234433 -0.058850657 -0.05726097
000170 c8 50 6b 3b e8 f7 41 bd 67 d7 9d 3c 53 61 bf bc
       0.0035906304 -0.047355562 0.01926775 -0.023361837
000180 32 69 a5 bd 53 fc a9 3c 7c a9 e4 bc 1f 94 02 bd
       -0.08076705 0.0207502 -0.027912848 -0.03187954
000190 6f 6d 62 bd 4a bc 5e bd 8a 23 29 3c 0d b6 9f 3b
       -0.055280145 -0.054378785 0.010323415 0.004873997
0001a0 8c c9 34 3c 95 de 17 bd 70 99 1f 3d 68 ad 37 bd
       0.011034381 -0.037077505 0.03896469 -0.044843107
0001b0 80 5a 95 bc 1f e8 b5 3c e5 c1 a3 3c 63 ff b2 3c
       -0.01823163 0.02220541 0.019989917 0.021850294
0001c0 3e 00 a5 3d b0 af 93 bc 34 1d 26 3c cf 0f d0 bc
       0.08056687 -0.01802811 0.0101387985 -0.025398163
0001d0 aa ad c8 3c df ed 14 bd 63 83 90 3d 40 d0 05 bd
       0.024496872 -0.036359664 0.0705631 -0.032669306
0001e0 91 86 30 bb 57 bf 61 bc a8 0a d0 bc ee eb 5e bd
       -0.0026935677 -0.013778529 -0.025395706 -0.05442422
0001f0 93 34 7e 3c 7d 0f 91 bc 55 80 82 bc 60 3b 24 bd
       0.015515464 -0.01770758 -0.015930334 -0.040095687
000200 55 87 8a bc 70 18 fd bc 9f 78 83 bd 2d af 26 3c
       -0.016910234 -0.030895442 -0.06419491 0.010173601
000210 d3 2e af bc 7a c9 6a bd 7f 5c f5 bc 70 4b 27 bd
       -0.021384632 -0.05732105 -0.029951332 -0.040843427
000220 19 2e d1 bb 96 72 2b bd 71 2c 77 bd 6b ea 80 bc
       -0.006383669 -0.041857325 -0.060345117 -0.01573678
000230 cf 4c 05 bd 51 cf ad bc 9b e3 46 3c ae af 9a bd
       -0.032543954 -0.02121702 0.012139226 -0.075530395
000240 98 67 8b bc 89 29 13 bb aa d3 9c bc b5 6b 61 bd
       -0.01701717 -0.0022455177 -0.019143898 -0.055034358
000250 eb 45 d4 bb b1 47 13 3c c4 55 29 bb 81 12 27 bd
       -0.0064780614 0.0089892605 -0.0025838474 -0.04078913
000260 73 c2 4c bd 86 53 77 3c 73 22 39 bb fb e8 51 bd
       -0.04999013 0.015095597 -0.0028249293 -0.051247578
000270 fa 91 9d bb 1e 58 8a 3c 11 1d c2 bc f7 8a ae bc
       -0.0048086615 0.01688772 -0.0236955 -0.021306498
000280 a8 e7 9a bb be 62 f0 bc 3d c7 42 bc 33 62 06 bc
       -0.0047273226 -0.029343959 -0.011888322 -0.008202123
000290 80 69 93 bd a0 48 1b bd e4 b2 dc 3c d6 0b c7 bc
       -0.07197857 -0.037911057 0.02694077 -0.024297636
0002a0 5d b0 c7 bc ee 20 46 bd a2 0f 4d bd 9f e1 a4 bd
       -0.024376089 -0.048371248 -0.050063737 -0.08050846
0002b0 ee 0c 22 bd e4 d3 10 3a 6d e6 00 3d 77 78 9f bc
       -0.039563112 0.0005524738 0.03146975 -0.019466622
0002c0 0a 5d 73 bd fb fc 30 bd 18 04 1b bd 41 da 28 3d
       -0.0594149 -0.04321001 -0.0378457 0.04122377
0002d0 3e d9 22 bc 18 f1 13 bd 3e 88 a7 bc 90 34 48 bd
       -0.00993949 -0.036118597 -0.020450708 -0.048878253
0002e0 28 cf 68 bd 73 a2 19 3c 95 55 63 bd e2 c0 4b bd
       -0.056838185 0.00937711 -0.05550154 -0.049744494
0002f0 b3 d4 a6 bd 39 a1 b8 3c 05 65 4a bb 8c 20 6c bc
       -0.08146038 0.022537814 -0.0030882966 -0.014412057
000300 18 c9 92 bd 4c f5 54 bd be cf 0a bd c3 57 38 bb
       -0.07167262 -0.051991746 -0.033889525 -0.0028128482
000310 50 5b 6e 3c c6 d2 f0 3c 87 76 b9 bb 6f 61 d4 3b
       0.014548138 0.02939738 -0.0056598815 0.0064813416
000320 50 e5 d2 3a 53 9e 70 bd 10 62 60 bd be 29 90 bd
       0.0016090069 -0.05874474 -0.05478102 -0.07039212
000330 df 4e 2d bc 17 30 4a bd f8 15 f9 bc a2 1e 85 bd
       -0.010577886 -0.04936227 -0.030405983 -0.06499983
000340 d6 72 34 bd 24 03 33 bd 2e e3 84 bd 06 d4 9c bc
       -0.04405483 -0.043704167 -0.064886436 -0.01914407
000350 07 55 61 bd 2c 2f c8 bb c1 b9 c6 bc 41 f1 92 bd
       -0.05501273 -0.006109139 -0.024258496 -0.07174922
000360 7b f5 3d bd 26 7c 5c bd 17 85 3b bd a9 7c 7b bd
       -0.046376687 -0.053829335 -0.04578122 -0.061398182
000370 1f 3d 30 3c df 64 f4 bc b4 94 26 3d de 3f 14 3d
       0.01075676 -0.029833255 0.040669158 0.03619372
000380 5e a4 08 3d 64 96 e0 bc 5f f9 b6 3c dd 1b 80 bc
       0.033359878 -0.027415462 0.022335706 -0.015638286
000390 e1 ad 9b 3c bd 32 11 3d 03 5f 2f 3c ab 06 90 bb
       0.01900381 0.03544878 0.010703805 -0.004395326
0003a0 ad 1f 55 bb 20 39 e7 bc 33 27 42 3c 3c bc 67 bd
       -0.00325201 -0.028225482 0.011850166 -0.056576
0003b0 d3 36 fc 3c ec 81 ea 3c 0b ba 2e 3d 16 ae 7c bb
       0.030787861 0.028626405 0.042657893 -0.0038555912
0003c0 a8 6b 9f 3b 86 4b 84 bc 0e 4c 56 bc 57 78 62 bd
       0.0048651285 -0.016149294 -0.013079656 -0.055290546
0003d0 33 03 3d bd 65 a4 2a bd 10 d2 19 3c 67 b1 79 bd
       -0.04614563 -0.041660685 0.009388462 -0.0609602
0003e0 96 2b 12 bd 96 9b ec bc 34 4a aa bd 5b 3c db 3b
       -0.035686098 -0.028882783 -0.083149344 0.0066905445
0003f0 39 58 19 3c 3c 3c 26 3a c1 9d 86 bc 2d e5 72 bd
       0.009359413 0.0006341373 -0.016432645 -0.05930059

feature_process_low.bias f4 [8]
000000 22 0d 04 3d 58 d5 60 3c c7 cb 77 3d da 48 56 bc
       0.032239087 0.01372274 0.06049707 -0.013078893
000010 dc 1e ad bd 7c a5 0d bd 7f 9c e9 3c c7 b8 8c 3c
       -0.084531516 -0.034581646 0.028517006 0.017177952

feature_process_high.weight f4 [32, 8]
000000 b4 a9 29 be 61 68 67 3e c6 e1 71 3d 0e b7 51 bd
       -0.16568643 0.22598411 0.059053205 -0.051199965
000010 af 3b a2 bc 45 c6 87 bd 99 4c 89 3e 7f e7 24 bc
       -0.01980385 -0.06629614 0.26816252 -0.010064959
000020 19 cd 34 3e 0e c4 73 be 6d 6c e1 bd 52 57 58 bb
       0.17656364 -0.23805258 -0.11007009 -0.0033011031
000030 ec fd 53 3e c3 df ec 3d 5a a9 b4 3c 59 a7 8f be
       0.20702332 0.11566117 0.02205341 -0.28057364
000040 2a 28 a1 3c 96 36 57 be f9 40 8e be 19 c2 87 3d
       0.019672472 -0.21016917 -0.27783945 0.06628818
000050 a1 cc 47 be 2d a2 9b 3e 4f 9a 26 be 8b 29 c1 3d
       -0.19511653 0.30397168 -0.16269802 0.09431752
000060 44 21 18 3e 28 63 7e be e4 24 0f 3e f8 11 8d bd
       0.1485644 -0.24842513 0.13978916 -0.06888193
000070 cc b9 2e 3e d1 cc 92 3e 9e 63 ed bd 41 7b f4 bd
       0.17063063 0.28671888 -0.11591266 -0.11937571
000080 0a 9a 73 3e dd 46 21 3d 4d 8d a3 3b 66 73 6c 3e
       0.2378923 0.03937422 0.0049912096 0.23090896
000090 a8 20 0f be d9 b6 46 bd 41 bd 51 3e dc f4 af 3d
       -0.13977301 -0.04851422 0.20482351 0.08591625
0000a0 af 8b 6f be fc ba c1 3d d5 12 85 be f9 5b 29 be
       -0.23393129 0.094594926 -0.2599093 -0.16538991
0000b0 ce ef 5b 3e ee 9c 99 bd 07 50 f8 bd 7f 95 81 3d
       0.21478197 -0.07500635 -0.12124639 0.06327342
0000c0 fa dc c8 3d a4 e2 34 be 73 32 4c be 43 bf 8a be
       0.09807773 -0.17664582 -0.1994112 -0.27099046
0000d0 67 60 a4 3d 46 34 34 be ed 01 6e 3a fc 97 71 bd
       0.080262 -0.17598066 0.00090792665 -0.058982834
0000e0 5b bd 66 be 81 5e b3 bd 63 7d 5f be 6e 42 2b be
       -0.22533171 -0.087582596 -0.21825175 -0.1672456
0000f0 45 28 e7 bb f1 c3 73 be 1a 54 78 be be 38 55 3e
       -0.007054361 -0.23805214 -0.24250832 0.20822427
000100 11 ef 56 3d 62 5f f0 bd 92 c9 5b bd 21 00 66 3e
       0.052474085 -0.11736943 -0.05365903 0.22460987
000110 47 a9 81 be b7 71 09 be b0 5b 5f be d1 41 a3 3c
       -0.2532446 -0.13422285 -0.2181232 0.019928845
000120 64 23 6a ba ef 1d 79 be 6a 4e 5a 3e bb 7e 54 be
       -0.0008931665 -0.24327825 0.21318975 -0.20751469
000130 72 45 85 3e f7 60 56 be 05 d5 00 bd 47 89 3d 3b
       0.26029545 -0.20935427 -0.03145315 0.0028920935
000140 6a 01 08 be 7b 0a 8c 3e 7b 16 69 be 49 9c 73 3c
       -0.1328179 0.27351746 -0.22762482 0.014868804
000150 f8 86 7c be 40 82 f3 3d fb 74 8d 3e d9 5b 8b 3e
       -0.24660861 0.118900776 0.27628312 0.27218512
000160 b9 e1 22 3d 6f ba 23 be 8b 02 b1 3e dd ac 7c bc
       0.039766047 -0.15989088 0.34572253 -0.015422073
000170 19 7f 76 3e 85 7d 4e be 29 57 f5 bd bd 81 81 be
       0.24071921 -0.2016507 -0.11979515 -0.25294295
000180 7d 1c 93 3e cb 22 42 3d 17 91 4d be 06 24 99 3c
       0.28732672 0.047396462 -0.20074879 0.018693935
000190 5b e5 2c be 71 e2 bd 3c 55 84 a7 3d a4 41 23 be
       -0.16884367 0.023179265 0.08179537 -0.15943009
0001a0 62 a0 f1 3c a5 de 47 be f1 52 4a 3d f6 2a 8c be
       0.029495422 -0.19518526 0.049395505 -0.27376527
0001b0 d7 05 1b 3d 55 ab a1 3e 37 5b 95 3e 28 40 bf 3d
       0.037847366 0.31576028 0.29171154 0.09338409
0001c0 99 0f 76 3e 88 2f 8c 3e ac 50 c4 3d 33 8c 4f 3d
       0.24029388 0.27380013 0.095856994 0.050670814
0001d0 ea 1b 7e 3d 91 a5 78 3e 7d c0 81 3e ec c9 f7 bd
       0.06203834 0.24281909 0.2534217 -0.120990604
0001e0 03 30 3f 3c 91 5f f8 bd cb 4c 6e 3d 29 b7 92 be
       0.011669162 -0.12127603 0.058178704 -0.28655365
0001f0 a9 4b 28 3e c5 5b 17 bd a4 7a ab 3d e0 5e 19 3e
       0.16435112 -0.036952753 0.08373001 0.14977598
000200 a1 5d 32 be e1 0b f6 3d 78 84 1b 3e 5e e0 6d be
       -0.17418529 0.120139845 0.15187252 -0.2323012
000210 45 34 92 3e 05 f8 71 3e d2 a5 45 3e 17 26 52 bc
       0.28555503 0.23629768 0.19301537 -0.012826464
000220 dc 02 04 3e 5a 0e 3d be e4 9c f3 bd ca 6d 36 3e
       0.12891716 -0.18462506 -0.11895159 0.17815319
000230 01 d9 0e 3e ec e7 bb 3d 57 6d 8b be 4e 76 73 3e
       0.13949968 0.09175095 -0.27231857 0.23775598
000240 c8 1d 19 be 76 dd 80 3e 75 87 66 3e f9 59 9a 3d
       -0.14952767 0.2516896 0.2251261 0.07536692
000250 66 ad 90 3e 25 ca 46 3e 1b 74 2c 3e 40 44 02 be
       0.28257293 0.1941305 0.16841166 -0.12721348
000260 76 3e 83 3e 46 ce 89 3d fc 27 1f 3e 25 96 e0 bc
       0.2563359 0.06728797 0.15542597 -0.027415344
000270 ef 18 38 3e ba bf 71 3e 22 aa 63 be cb 88 7c 3e
       0.17978261 0.23608294 -0.2223287 0.24661557
000280 7e 15 42 be a9 a1 5c be 47 e8 8e be 65 b8 c6 3d
       -0.18953511 -0.21546043 -0.2791159 0.09703139
000290 31 ca 7e be 0f a1 c0 bd 98 6f 58 be 1c a3 bb 3d
       -0.24881817 -0.094057195 -0.2113632 0.0916197
0002a0 12 b2 b5 be 8d a9 1d be 41 93 ee bc bd b1 de 3c
       -0.3548742 -0.1539671 -0.02912295 0.027184362
0002b0 33 e6 0b be 83 92 12 3e 6c a5 4b be 8f 49 75 be
       -0.13662033 0.14313702 -0.19887322 -0.23953842
0002c0 72 47 69 bd 05 7e 09 be 5a 3a 15 3e ba 8d 2d be
       -0.0569529 -0.13426979 0.1457304 -0.16948596
0002d0 73 42 ef 3b c3 72 d1 3d d9 fd 6c be c6 86 4d 3e
       0.0073016225 0.10226967 -0.2314371 0.20070943
0002e0 ac 80 33 be e7 f5 bc bd 72 ed 50 be 42 07 9f bd
       -0.17529553 -0.0922659 -0.20403078 -0.07765056
0002f0 06 80 18 be c2 cb 89 be 74 eb fc 3d 37 0a 26 3d
       -0.14892587 -0.26913267 0.123495966 0.040537085
000300 5c f2 8d 3e 5d 46 34 3e 2a 79 6d 3e 53 b1 2d 3d
       0.27723968 0.17604966 0.23190752 0.042405438
000310 a3 b5 fd 3d 76 c6 82 3e a2 16 5f 3e 1f 21 47 be
       0.1238816 0.2554204 0.21785977 -0.19446228
000320 b8 e6 81 bd 26 d0 a5 be c6 10 5d 3d 4c cc f1 bd
       -0.06342834 -0.32385367 0.053971075 -0.11806545
000330 15 41 85 3e c1 81 dc 3c 05 57 42 bc 02 8f 8d be
       0.26026216 0.02691734 -0.011861567 -0.2764817
000340 a4 4f 70 be 1d 2a b2 3d c3 eb 01 be 29 28 26 be
       -0.2346788 0.08699439 -0.12687592 -0.16226257
000350 22 9d 6d 3e 66 e4 0a be 90 71 1a be 71 15 65 3e
       0.23204473 -0.1356369 -0.15082383 0.2237146
000360 a9 b6 d1 3d c5 b2 43 be fa 3f 65 3d ff 83 0f 3e
       0.10239918 -0.19111164 0.055969216 0.14015196
000370 4d 02 87 be 68 ec 15 3d 1c c2 bf 3d 67 4a 3d bb
       -0.26368943 0.036602408 0.09363195 -0.0028883459
000380 b0 ef 8e 3e 89 7d 75 be a5 9b 24 3e 16 76 22 be
       0.27917242 -0.23973669 0.16074999 -0.15865359
000390 c2 24 99 be 1a 1d 4c 3e 58 86 36 be a7 d4 7a bc
       -0.29910856 0.19932976 -0.17824686 -0.015309489
0003a0 0c bf 2d 3e b4 b9 80 be 30 38 7b be 56 c0 c2 3d
       0.1696741 -0.2514168 -0.24533153 0.095093414
0003b0 96 39 8a 3e f2 13 6d bd 6f 45 37 3e 0d 92 c9 3d
       0.2699706 -0.05788035 0.1789758 0.0984231
0003c0 df c3 e1 3d 2f fe 27 be 76 56 88 3e e5 e9 0c 3e
       0.110236876 -0.16405557 0.26628464 0.13761099
0003d0 fa 59 3e 3d a2 0c 36 3e 3c cf 98 be c0 4b 81 3d
       0.046472527 0.17778257 -0.29845607 0.06313276
0003e0 50 95 43 be 10 1e 97 bd 15 25 fb 3d b5 4e 0e 3e
       -0.19099927 -0.07378781 0.12262932 0.13897212
0003f0 60 83 28 3d d3 26 66 be 0b d8 1e be 0d 79 0d bd
       0.041140914 -0.22475748 -0.15512101 -0.03453927

feature_process_high.bias f4 [32]
000000 86 91 0a bd 05 22 80 be 95 2a a0 3e d7 41 93 3c
       -0.03383019 -0.25025955 0.31282488 0.01797573
000010 b8 95 6a be 11 c4 df 3d dd 9d 1b 3e 42 ec 1c be
       -0.22908676 0.109260686 0.15196939 -0.153245
000020 cd 60 0e 3e 83 99 1a be 38 ad 0b 3e 4e b8 ae 3e
       0.13904114 -0.15097623 0.13640296 0.34124988
000030 ae 1e 70 3e e3 75 44 3e 8e 10 a1 bd 9f 78 d2 3c
       0.23449203 0.19185595 -0.07864486 0.025692282
000040 a3 1e b5 3d 2b 33 a6 3d 51 83 52 bd e1 f8 b3 3c
       0.08843734 0.08115228 -0.051394764 0.02196926
000050 0a 96 d1 bd 64 7d 32 be 09 42 81 be 62 53 7a be
       -0.10233696 -0.17430645 -0.25245693 -0.2444587
000060 65 6a 13 be 5e 33 b6 3e 3f 0b e6 3c ad 25 89 be
       -0.14396055 0.35586065 0.028081534 -0.26786557
000070 6b 4b 02 be 73 37 88 3d 03 99 a9 bd 26 c8 66 bd
       -0.12724082 0.06651201 -0.08281138 -0.05634322

feature_norm.weight f4 [32]
000000 64 9f 6b 3f dd b6 6b 3f 0e bd 6d 3f 84 d8 6d 3f
       0.92040086 0.920759 0.928666 0.929085
000010 bc ee 6b 3f 82 c4 6b 3f 79 41 6c 3f 66 a0 6b 3f
       0.92161155 0.9209672 0.92287403 0.92041624
000020 c1 fe 6e 3f 6a ab 6b 3f 23 52 6d 3f 83 42 76 3f
       0.93357474 0.9205843 0.92703456 0.9619524
000030 be 17 6e 3f f1 59 6c 3f be 84 6b 3f fd e2 6b 3f
       0.9300498 0.9232474 0.91999424 0.9214323
000040 a7 b7 6b 3f 90 d7 6b 3f 84 c4 6b 3f 24 0a 6c 3f
       0.92077106 0.921258 0.92096734 0.92202973
000050 d6 30 6e 3f 2b 3b 6e 3f 94 95 6b 3f a5 9e 6b 3f
       0.9304327 0.93059033 0.92025113 0.9203895
000060 a9 a3 6b 3f 5b fa 6d 3f 7c 15 6d 3f 05 a6 6b 3f
       0.920466 0.9296014 0.9261091 0.920502
000070 83 b2 6b 3f 9e 02 6c 3f 4f 71 6b 3f c3 51 6b 3f
       0.9206926 0.92191494 0.9196977 0.91921633

feature_norm.bias f4 [32]
000000 6e 5e 1d 3d 34 8e a0 bc 0c 48 ca bc 93 fd b1 bc
       0.038420133 -0.019599058 -0.024692558 -0.021727359
000010 73 17 91 bc 36 3b 24 bc ac e0 77 bb 98 47 93 3a
       -0.017711377 -0.010023883 -0.0037823124 0.0011236547
000020 74 a5 ee bc 4c 36 c7 3c 5f ba 43 bb a2 78 43 3c
       -0.029131629 0.024317883 -0.0029865725 0.011930617
000030 94 6a 41 3c e9 2c a5 3c be 3c b1 bc 90 59 ed bc
       0.011805195 0.020163016 -0.02163541 -0.02897337
000040 90 86 cd bc e4 ca 48 bb 58 75 5c 3c 7e 38 be bc
       -0.025088578 -0.003063851 0.013455711 -0.023220297
000050 aa e8 f7 bb 56 33 31 3c fc c9 43 39 85 6b 85 3c
       -0.0075655775 0.010815462 0.00018671894 0.01628662
000060 61 ac b6 bb dc 56 e9 3c 1b 05 2e bd 8e b3 51 3b
       -0.0055747484 0.0284838 -0.042485338 0.0031997892
000070 73 dd 18 3d 42 1a 0f bc 43 5b 35 3c 59 84 dc 3c
       0.037320565 -0.008734288 0.011069122 0.026918577

graph_attention.adj_matrix f4 [52, 52]
000000 00 00 80 3f 00 00 00 00 00 00 00 00 00 00 00 00
       1.0 0.0 0.0 0.0
000010 00 00 00 00 00 00 00 00 00 00 00 00 00 00 00 00
       0.0 0.0 0.0 0.0
000020 00 00 00 00 00 00 00 00 00 00 00 00 00 00 00 00
       0.0 0.0 0.0 0.0
000030 00 00 00 00 00 00 00 00 00 00 00 00 00 00 00 00
       0.0 0.0 0.0 0.0
000040 00 00 00 00 00 00 00 00 00 00 00 00 00 00 00 00
       0.0 0.0 0.0 0.0
000050 00 00 00 00 00 00 00 00 00 00 00 00 00 00 00 00
       0.0 0.0 0.0 0.0
000060 00 00 00 00 00 00 00 00 00 00 00 00 00 00 00 00
       0.0 0.0 0.0 0.0
000070 00 00 00 00 00 00 00 00 00 00 80 3f 00 00 00 00
       0.0 0.0 1.0 0.0
000080 00 00 00 00 00 00 00 00 00 00 00 00 00 00 00 00
       0.0 0.0 0.0 0.0
000090 00 00 00 00 00 00 00 00 00 00 00 00 00 00 80 3f
       0.0 0.0 0.0 1.0
0000a0 00 00 00 00 00 00 00 00 00 00 00 00 00 00 00 00
       0.0 0.0 0.0 0.0
0000b0 00 00 00 00 00 00 00 00 00 00 00 00 00 00 00 00
       0.0 0.0 0.0 0.0
0000c0 00 00 00 00 00 00 00 00 00 00 00 00 00 00 00 00
       0.0 0.0 0.0 0.0
0000d0 00 00 00 00 00 00 80 3f 00 00 80 3f 00 00 00 00
       0.0 1.0 1.0 0.0
0000e0 00 00 00 00 00 00 00 00 00 00 00 00 00 00 00 00
       0.0 0.0 0.0 0.0
0000f0 00 00 00 00 00 00 00 00 00 00 00 00 00 00 00 00
       0.0 0.0 0.0 0.0
000100 00 00 00 00 00 00 00 00 00 00 00 00 00 00 00 00
       0.0 0.0 0.0 0.0
000110 00 00 00 00 00 00 00 00 00 00 00 00 00 00 80 3f
       0.0 0.0 0.0 1.0
000120 00 00 00 00 00 00 00 00 00 00 80 3f 00 00 00 00
       0.0 0.0 1.0 0.0
000130 00 00 00 00 00 00 00 00 00 00 80 3f 00 00 00 00
       0.0 0.0 1.0 0.0
000140 00 00 00 00 00 00 00 00 00 00 00 00 00 00 00 00
       0.0 0.0 0.0 0.0
000150 00 00 00 00 00 00 00 00 00 00 80 3f 00 00 00 00
       0.0 0.0 1.0 0.0
000160 00 00 00 00 00 00 00 00 00 00 00 00 00 00 00 00
       0.0 0.0 0.0 0.0
000170 00 00 00 00 00 00 00 00 00 00 00 00 00 00 00 00
       0.0 0.0 0.0 0.0
000180 00 00 00 00 00 00 00 00 00 00 00 00 00 00 00 00
       0.0 0.0 0.0 0.0
000190 00 00 80 3f 00 00 00 00 00 00 00 00 00 00 00 00
       1.0 0.0 0.0 0.0
0001a0 00 00 00 00 00 00 80 3f 00 00 80 3f 00 00 00 00
       0.0 1.0 1.0 0.0
0001b0 00 00 00 00 00 00 00 00 00 00 00 00 00 00 00 00
       0.0 0.0 0.0 0.0
0001c0 00 00 00 00 00 00 00 00 00 00 00 00 00 00 00 00
       0.0 0.0 0.0 0.0
0001d0 00 00 00 00 00 00 00 00 00 00 00 00 00 00 00 00
       0.0 0.0 0.0 0.0
0001e0 00 00 00 00 00 00 00 00 00 00 00 00 00 00 00 00
       0.0 0.0 0.0 0.0
0001f0 00 00 00 00 00 00 00 00 00 00 00 00 00 00 00 00
       0.0 0.0 0.0 0.0
000200 00 00 00 00 00 00 00 00 00 00 00 00 00 00 00 00
       0.0 0.0 0.0 0.0
000210 00 00 00 00 00 00 00 00 00 00 00 00 00 00 00 00
       0.0 0.0 0.0 0.0
000220 00 00 00 00 00 00 00 00 00 00 80 3f 00 00 00 00
       0.0 0.0 1.0 0.0
000230 00 00 00 00 00 00 00 00 00 00 00 00 00 00 00 00
       0.0 0.0 0.0 0.0
000240 00 00 00 00 00 00 00 00 00 00 00 00 00 00 00 00
       0.0 0.0 0.0 0.0
000250 00 00 00 00 00 00 00 00 00 00 00 00 00 00 00 00
       0.0 0.0 0.0 0.0
000260 00 00 80 3f 00 00 00 00 00 00 00 00 00 00 00 00
       1.0 0.0 0.0 0.0
000270 00 00 00 00 00 00 00 00 00 00 00 00 00 00 80 3f
       0.0 0.0 0.0 1.0
000280 00 00 00 00 00 00 00 00 00 00 00 00 00 00 00 00
       0.0 0.0 0.0 0.0
000290 00 00 00 00 00 00 00 00 00 00 00 00 00 00 00 00
       0.0 0.0 0.0 0.0
0002a0 00 00 00 00 00 00 00 00 00 00 00 00 00 00 00 00
       0.0 0.0 0.0 0.0
0002b0 00 00 00 00 00 00 00 00 00 00 00 00 00 00 00 00
       0.0 0.0 0.0 0.0
0002c0 00 00 00 00 00 00 00 00 00 00 80 3f 00 00 00 00
       0.0 0.0 1.0 0.0
0002d0 00 00 00 00 00 00 00 00 00 00 00 00 00 00 00 00
       0.0 0.0 0.0 0.0
0002e0 00 00 00 00 00 00 00 00 00 00 00 00 00 00 00 00
       0.0 0.0 0.0 0.0
0002f0 00 00 00 00 00 00 00 00 00 00 80 3f 00 00 00 00
       0.0 0.0 1.0 0.0
000300 00 00 00 00 00 00 00 00 00 00 00 00 00 00 00 00
       0.0 0.0 0.0 0.0
000310 00 00 00 00 00 00 00 00 00 00 00 00 00 00 00 00
       0.0 0.0 0.0 0.0
000320 00 00 00 00 00 00 00 00 00 00 00 00 00 00 00 00
       0.0 0.0 0.0 0.0
000330 00 00 00 00 00 00 00 00 00 00 00 00 00 00 00 00
       0.0 0.0 0.0 0.0
000340 00 00 00 00 00 00 00 00 00 00 00 00 00 00 00 00
       0.0 0.0 0.0 0.0
000350 00 00 80 3f 00 00 00 00 00 00 00 00 00 00 00 00
       1.0 0.0 0.0 0.0
000360 00 00 00 00 00 00 00 00 00 00 00 00 00 00 00 00
       0.0 0.0 0.0 0.0
000370 00 00 00 00 00 00 00 00 00 00 00 00 00 00 00 00
       0.0 0.0 0.0 0.0
000380 00 00 00 00 00 00 00 00 00 00 00 00 00 00 00 00
       0.0 0.0 0.0 0.0
000390 00 00 00 00 00 00 00 00 00 00 00 00 00 00 00 00
       0.0 0.0 0.0 0.0
0003a0 00 00 00 00 00 00 00 00 00 00 00 00 00 00 00 00
       0.0 0.0 0.0 0.0
0003b0 00 00 00 00 00 00 00 00 00 00 00 00 00 00 00 00
       0.0 0.0 0.0 0.0
0003c0 00 00 00 00 00 00 00 00 00 00 00 00 00 00 00 00
       0.0 0.0 0.0 0.0
0003d0 00 00 00 00 00 00 00 00 00 00 00 00 00 00 00 00
       0.0 0.0 0.0 0.0
0003e0 00 00 00 00 00 00 00 00 00 00 00 00 00 00 00 00
       0.0 0.0 0.0 0.0
0003f0 00 00 00 00 00 00 00 00 00 00 00 00 00 00 00 00
       0.0 0.0 0.0 0.0

graph_attention.linear1.weight f4 [32, 32]
000000 0d ae 57 bd 16 7b 1a 3a e4 bd bb bc de bb a3 bc
       -0.052656222 0.0005892975 -0.022917695 -0.019987043
000010 90 0a db 3d a2 e8 80 3d 66 2d dc 3d 53 21 4d 3c
       0.10695374 0.06294371 0.107508466 0.012520152
000020 3f f6 d6 bd 3a 92 a8 3c 68 8e b8 bd 9f 8f 41 3d
       -0.104961865 0.020577539 -0.09011537 0.04725611
000030 22 6d 70 bd 4a b2 b1 bd d0 fd 92 bd 3f 09 a9 3d
       -0.058697827 -0.08676584 -0.07177317 0.08253717
000040 20 ef 85 3d 3f cb ec 3d 4a f1 80 bd 5e 64 9e 3c
       0.0653975 0.115622036 -0.06296022 0.019334968
000050 e4 9f 87 3c 0e d4 17 be f4 fd 83 bd 5f 1d cc 3d
       0.016555734 -0.14826986 -0.06444922 0.099665396
000060 0a 9d e3 bc 90 1b b9 3d 4f 52 83 3d e8 10 99 3d
       -0.027784843 0.0903846 0.064121835 0.07473928
000070 ad 90 9e 3d 8f 48 b0 3d 5d c3 06 3d ac ec d1 3d
       0.077424385 0.086075895 0.032901157 0.1025022
000080 8d 50 59 bd 04 18 f9 bc a1 08 8b bb 23 08 ac 3d
       -0.053055335 -0.03040696 -0.004242972 0.083999895
000090 da 31 bb 3d 35 92 e4 3d 87 3e d7 bc 45 b6 0d 3c
       0.09140368 0.11160699 -0.026274933 0.0086494135
0000a0 ce 7f a7 bd 3b 4c 39 3d 49 d2 a1 bd fb 11 42 bd
       -0.08178674 0.045238715 -0.07901437 -0.04738043
0000b0 26 8c 23 3e 2c c2 6a 3d 40 7e f1 bc f8 39 bc bd
       0.15971431 0.057314083 -0.029479146 -0.09190744
0000c0 01 ad 23 be 54 e3 0a 3e 96 f7 d8 bd f8 54 c4 3d
       -0.15983965 0.13563281 -0.10594098 0.09586519
0000d0 48 b4 37 3e c8 43 46 3d 48 6e b0 bc 7a 17 fa 3d
       0.17939866 0.048404485 -0.021536961 0.12211509
0000e0 a6 b4 f1 3c 1d 1b 36 3e 00 e2 ec 3d 9d e8 77 bd
       0.029505085 0.1778378 0.115665436 -0.06052457
0000f0 10 5c 00 3e fe 9b 73 3d 34 c7 56 bd 7a 45 65 3d
       0.12535119 0.059474938 -0.05243607 0.05597446
000100 f0 f8 c7 bc da 96 fe bc ab b7 1c 3d 9f e2 23 3c
       -0.024410695 -0.031077791 0.038261097 0.010002761
000110 15 1d 1a 3c 71 8c 71 bd 3a e1 03 3d 48 86 0e 3e
       0.009406348 -0.058971826 0.032197215 0.13918412
000120 f4 fd 28 3c 73 cb 2d bd 94 11 ad 3c f3 fe 98 bd
       0.010314453 -0.042430352 0.021126546 -0.07470503
000130 4a aa 85 bd 26 97 b5 3a 45 3b 12 3d db 30 6f bd
       -0.06526621 0.001385425 0.035701055 -0.0583962
000140 00 21 53 3b bb da 02 bd e0 f8 af bd 7e 7d 50 3c
       0.0032215714 -0.03194688 -0.08592391 0.012725232
000150 19 7f d0 3c bf d9 19 3c 7c 29 7e 3d cb d8 7a 3d
       0.02545123 0.009390294 0.06205128 0.061241906
000160 33 54 0e 3d f2 6e 45 3d 01 34 fa 3c 11 a1 09 3d
       0.034748267 0.04820151 0.030542376 0.03360087
000170 3a 33 0b bd 7a bb 3a 3d a5 81 4f 3c fc 53 7c bc
       -0.0339844 0.045588948 0.012665187 -0.015400883
000180 1c 69 39 bd 84 13 7b bd da c7 fd bd 4c bb 41 3c
       -0.045266256 -0.06129791 -0.12391634 0.01182444
000190 4a 94 f8 39 aa 59 fd bc 1c 2a 85 3d 09 e0 c9 bd
       0.0004741273 -0.030926544 0.06502172 -0.098571844
0001a0 7c be 50 bd bb ab 93 3d 5e e7 35 be 86 ab 85 3d
       -0.05096291 0.07210489 -0.17764041 0.06526856
0001b0 26 29 0d 3e 0e a0 c4 3d 98 6e 57 3b e3 02 16 be
       0.13785228 0.096008405 0.0032872315 -0.14649539
0001c0 1e 13 bf bc f4 f0 a4 bc 40 c2 94 bd 15 30 c3 3d
       -0.023324545 -0.020134427 -0.07263613 0.09530655
0001d0 78 bf 72 bd 18 e9 fc bd 19 27 92 bd 78 d9 8b 3d
       -0.05926463 -0.123491466 -0.071363635 0.06828588
0001e0 c6 96 4f bc dd de 35 3e 8d c8 85 bb d8 df 00 be
       -0.0126702245 0.17760797 -0.0040827454 -0.1258539
0001f0 e2 e7 c5 3c 7f ff e6 3d c9 fa 2c 3d c4 80 76 3d
       0.024158422 0.11279201 0.042231355 0.060181394
000200 d5 5b 19 be bc b2 65 bd c6 fd 05 3e fa c1 97 bd
       -0.14976437 -0.056078658 0.13085088 -0.07410045
000210 68 ae 78 3c 6f 31 84 bd 15 99 9e 3d a2 f7 0b bd
       0.0151783 -0.06454741 0.07744042 -0.034171708
000220 cd f7 ec bd 81 5e c4 bd 18 bd d2 3d 04 df 22 3d
       -0.11570702 -0.09588338 0.10289973 0.039763466
000230 d2 ec ea 3d a3 58 9b bd 7f 34 87 3d d1 7d 41 bd
       0.11470951 -0.075852655 0.0660181 -0.04723913
000240 55 cf 89 bd 5d 8d cd 3c 1c 32 9c bd 46 3e dd bc
       -0.067289986 0.025091821 -0.07626745 -0.027007233
000250 08 ed 0f bd c6 a6 dd bb 93 55 93 bd a1 d2 dd 3c
       -0.03513816 -0.0067642657 -0.07194056 0.027077975
000260 6f 4d c2 bd e3 ff 06 3e ed e7 eb 3d c2 4e 2a 3d
       -0.094874255 0.1318355 0.11518846 0.041579016
000270 7d 42 a9 b9 8d 35 01 be fe 9e 18 3d 38 91 c1 3d
       -0.0003228373 -0.12618084 0.037261 0.094515264
000280 de 9f f4 3d 0b 95 d2 b9 13 9b 99 3c 8d 5d 10 3e
       0.11944555 -0.00040165367 0.018750703 0.14098187
000290 e0 00 d1 bb 02 62 9d bd f4 f3 14 be c9 19 3a 3d
       -0.006378278 -0.07684709 -0.14546186 0.045434747
0002a0 02 86 30 3d 11 40 21 3e 40 f4 f3 bd 62 59 b3 3d
       0.04309655 0.15747096 -0.11911821 0.08757283
0002b0 9d 7f 9b bd d8 59 21 bd 18 a5 14 3d 4e aa ce bd
       -0.075927 -0.039392322 0.03629026 -0.10091077
0002c0 e2 c6 ff 3d 78 42 05 3d c8 ca 7e bd 3f ad 1a 3d
       0.12489106 0.032534093 -0.062205106 0.037762877
0002d0 cc 49 ac bd 0e 66 61 3b 19 94 76 bb 0a cb ed bd
       -0.08412513 0.0034393105 -0.0037624894 -0.11610992
0002e0 52 cd a9 3c 67 cb ba 3d 11 a0 23 bc 50 a1 ab bd
       0.020727787 0.09120827 -0.009986893 -0.08380377
0002f0 c7 77 be bb 69 21 10 bc 35 1a 84 bd fc 7a 9a bd
       -0.0058126184 -0.008797028 -0.06450311 -0.07542989
000300 4b 76 a5 bd 15 a6 85 bc 27 92 ae 3d a0 74 13 3e
       -0.08079203 -0.016314546 0.0852397 0.14399958
000310 da a7 7c 3c 93 94 9b 3d 2f a4 f2 3d 6e ad 87 bd
       0.015420878 0.07596698 0.11847722 -0.06624876
000320 a8 77 00 bd cb e3 bf 3d 4e 04 06 3e d6 ab 64 3d
       -0.031364113 0.0936962 0.1308758 0.055827938
000330 bb 71 d3 bd a0 82 d4 3d a8 be 95 bd 36 6f b4 3d
       -0.10324427 0.10376477 -0.073117554 0.08810274
000340 c2 27 af 3c 3f 17 2b 3d ae 85 1b be e2 b7 dd 3b
       0.021381263 0.041770216 -0.15187714 0.0067663053
000350 0f d8 af 3d 5e 9d 00 3e e4 f3 2e bd f0 34 14 3e
       0.08586132 0.12560031 -0.04271306 0.14473319
000360 1b 67 23 3c 7c fd aa bd bc 7a 7a bd a5 ac 94 3c
       0.009973313 -0.083491296 -0.061152205 0.01814873
000370 f8 dd 94 bc bf df c8 3d ab 96 88 bd 19 dd 28 bd
       -0.01817225 0.09808301 -0.06669363 -0.04122648
000380 66 24 05 be c2 69 9e 3d bf c8 60 bc 78 cc 82 bd
       -0.13002166 0.077350155 -0.013719737 -0.063866556
000390 2c 53 b4 bc c0 fa 2e bb 6d 94 bf 3c a8 c0 89 bc
       -0.022012316 -0.0026699752 0.023386205 -0.016815498
0003a0 f3 4d 9c 3d 43 2b f7 3a 36 79 81 bd 7f e5 f7 bc
       0.07632055 0.0018857497 -0.06321947 -0.0302608
0003b0 39 34 bd 3b 18 2a cf 3d a9 1b 3a bc 79 f1 ad 3d
       0.0057740477 0.101154506 -0.011359134 0.08493323
0003c0 e9 42 9a 3d 21 ac 4c bd 37 a0 ca bc 38 f9 7f bc
       0.07532293 -0.049968842 -0.0247346 -0.015623383
0003d0 8b 6b ed 3c 7d 4f 83 bd 3b 8f 06 bc 52 c9 83 bc
       0.028981945 -0.064116456 -0.00821286 -0.016087208
0003e0 47 88 21 bd 65 b6 e5 bd 9e 3e c0 bd 7c 0d b7 bd
       -0.039436605 -0.112164296 -0.09386943 -0.08938119
0003f0 27 a7 1c 3b 92 10 63 bc a0 a1 db 3d 60 9e a2 bd
       0.0023903341 -0.013858931 0.10724187 -0.07940364

graph_attention.linear1.bias f4 [32]
000000 93 ca a0 3d cf 45 07 be fd fa 90 bd c3 b1 38 3d
       0.07851138 -0.13210224 -0.07079122 0.0450914
000010 b3 2b 82 bd ac 9a 6b 3c 98 6d 25 3e 25 0d 2c 3d
       -0.06355991 0.014380138 0.16155088 0.042004723
000020 8d 9e 19 3e bf 4c 7b bd 1e c9 ad bd ca ee 79 bd
       0.15001889 -0.061352488 -0.08485626 -0.061018743
000030 37 34 60 bd d7 51 06 bd 73 fe 25 bd 3c 54 10 3e
       -0.054737296 -0.032792892 -0.040525865 0.14094633
000040 b5 d3 20 bd c1 0e 02 3e b7 d2 3c 3d f2 ff 83 3d
       -0.0392644 0.1270094 0.04609939 0.06445302
000050 b1 a8 92 3d 4d e6 cc bd 21 7e cd 3d 8a 22 09 be
       0.071610816 -0.10004864 0.10033823 -0.13392082
000060 b9 65 0c bd d1 78 04 3e 70 b9 0d 3e 6b 43 1c be
       -0.034276698 0.12936713 0.1384027 -0.15260093
000070 c4 8b f0 3d e6 15 66 3d c3 49 a0 3d 57 b7 08 3e
       0.11745408 0.056173228 0.07826569 0.13351189

graph_attention.linear2.weight f4 [32, 32]
000000 14 07 ec ba 57 ca 50 bd 81 da 41 3d b3 5d 70 bc
       -0.001800748 -0.050974216 0.047327522 -0.014670777
000010 68 f3 87 bd 71 31 a8 bd 6c 8f 26 3e 6e d1 41 3d
       -0.06638223 -0.08212555 0.16265649 0.04731887
000020 3e 44 ee bc 39 06 fa 3c 87 2e 58 bc 19 78 69 bd
       -0.029085275 0.030520545 -0.013194687 -0.0569993
000030 b0 a0 22 3b 5c 3c 0e be b8 53 ed bc 8b c8 64 3c
       0.0024815015 -0.13890213 -0.028970584 0.013963829
000040 de ee 59 bb ae a0 f3 3d 3a 29 44 3c ed 12 38 3d
       -0.0033253948 0.118958816 0.01197272 0.044939924
000050 72 f2 d0 bd 13 fa 6a 3c 38 75 64 3d 77 ea 86 3d
       -0.10202493 0.014341849 0.05577585 0.06587689
000060 86 59 34 3c ac df bf bc 40 82 ca bd 80 dc 9c 3d
       0.011007672 -0.023422085 -0.098881245 0.076592445
000070 d3 38 f1 3d 71 03 e6 3d 4b b4 f8 3d f3 61 43 3d
       0.117784165 0.11231125 0.12143763 0.047700834
000080 9a 26 0d 3e 37 e1 e6 3c b5 a8 0c bc 9a 80 fa 3c
       0.13784257 0.028183563 -0.008585145 0.0305789
000090 cf 2d 5a bd e7 f5 bd 3a f3 57 58 3d 94 7a 9f bd
       -0.053266343 0.001449284 0.05281825 -0.07787052
0000a0 7e 15 d4 bc 4e 7b d1 bd 15 56 94 bd a4 1d 88 3d
       -0.025889155 -0.10228597 -0.07242981 0.066462785
0000b0 29 2e 8b 3d 50 a0 bb bc c4 bc 25 3d 14 28 36 3b
       0.06795914 -0.022903591 0.040463224 0.0027794885
0000c0 da fb 43 bc 49 2c a3 bc eb 0a c1 bd 95 7a e3 ba
       -0.011961902 -0.019918578 -0.094259106 -0.0017355258
0000d0 55 1d 13 3e 0c 04 25 bb 58 92 1e bd cb 28 f9 3c
       0.14366658 -0.0025179414 -0.038713783 0.03041496
0000e0 a0 60 ca bd c3 e4 6b bb 96 2a aa 3d 37 83 98 bc
       -0.09881711 -0.0035994507 0.08308904 -0.018617256
0000f0 56 20 a4 3c 0e 29 2a be 4f 0b 95 bd 4a 9b a2 3d
       0.02003495 -0.16617224 -0.072775476 0.07939775
000100 65 a8 b3 bd 5c f6 85 bd ec d7 35 3d f5 09 17 3d
       -0.08772353 -0.0654113 0.044395372 0.03687473
000110 fa 47 c1 3d 20 cb 0b be 4c b6 bc 3d e3 8b 8b bc
       0.094375566 -0.13651705 0.09214458 -0.017034477
000120 a7 48 84 b9 d6 91 f3 3d 99 16 23 be 53 8f 15 3d
       -0.00025231132 0.118930504 -0.15926589 0.036513638
000130 ea 8d b5 bd de e0 e5 3d 47 00 64 3d bf 49 81 3d
       -0.088649586 0.11224531 0.055664327 0.06312894
000140 36 56 0f bc da 37 8a 3c 75 59 39 bd 38 4d 8d bb
       -0.008748582 0.016872335 -0.04525133 -0.0043121837
000150 60 8f 19 3e ab fd b2 bd c6 55 38 bc 46 60 bf 3d
       0.149961 -0.087397896 -0.011250919 0.093445346
000160 54 90 12 bc c1 48 eb 3a 55 1e e7 3d ba 97 0d bd
       -0.008945543 0.001795076 0.11285082 -0.034568526
000170 b6 28 af 3d 6a 1b 01 3e 66 78 5d bc 3e 0a 71 3d
       0.08552687 0.12608114 -0.013517475 0.05884766
000180 f3 b4 c0 3d 79 e6 76 3d 62 a1 86 3b 65 2f 1c 3e
       0.09409513 0.06027839 0.004108594 0.15252455
000190 27 2f e6 bd 50 eb 6b 3d fd d5 47 3d c3 ff 70 3d
       -0.11239462 0.05759746 0.04878806 0.058837663
0001a0 49 98 0a be 97 e2 d5 3c 9e 85 01 be a3 24 8f 3d
       -0.13534655 0.026109023 -0.12648627 0.0698941
0001b0 9e e1 d8 38 69 3f 44 be 07 ba 40 bd 40 e9 7e 3c
       0.00010341707 -0.19164814 -0.04705241 0.015558541
0001c0 e5 62 92 3b 40 16 b3 3d 4f ae 68 3d 6c e9 f7 3a
       0.0044673556 0.08744478 0.05680686 0.001891417
0001d0 2f d6 fd 3d af 8e cc bd b3 67 1f 3e 42 67 1a bd
       0.12394368 -0.09988152 0.15566902 -0.03769613
0001e0 6d df ce 3c fb fe ea ba 5c e7 a0 bc 9f 09 e6 3d
       0.025253022 -0.0017928773 -0.01964157 0.11232304
0001f0 76 bb fa bd df e0 43 3d 13 a6 22 3d 68 f2 83 bc
       -0.122427866 0.047821876 0.039709162 -0.0161068
000200 54 0a 1e 3d a7 b5 07 be 07 3a 57 bc 6a a9 5d 3d
       0.03858407 -0.13252889 -0.013136393 0.054116644
000210 48 1c 66 3d 36 cb e6 bd 92 0c 08 3d 44 11 0c bc
       0.056179315 -0.11269228 0.033215113 -0.008549038
000220 d1 67 14 3e 8d 2e 19 be 1e 5a b5 bc 6d 90 7b bd
       0.14492728 -0.14959164 -0.022137698 -0.061417032
000230 b0 a2 12 bd 25 50 d7 bb cf bc 08 be a7 2f f0 3d
       -0.035799682 -0.0065708333 -0.13353275 0.11727839
000240 84 1d b1 3b 28 aa 50 3d 8b 5e 77 bd ab 25 f2 bb
       0.00540513 0.050943524 -0.060392898 -0.0073897443
000250 90 fe da bd 4e e3 9b 3d 3c e1 ac 3d b9 ee 0c 3e
       -0.10693085 0.07611714 0.084413975 0.1376294
000260 32 3d c1 3b 39 ed 93 3d 72 c9 c2 bd 6f 3e 81 3d
       0.0058971876 0.07222981 -0.09511079 0.063107364
000270 cb c8 69 bd cd 62 e3 bd 4c 8d d8 bd 82 72 c6 bd
       -0.057076257 -0.11102829 -0.10573825 -0.096898094
000280 d5 07 cb 3b e1 f7 b0 bd 9a 38 1c bc a8 18 08 3e
       0.006196002 -0.08641029 -0.009534979 0.13290656
000290 29 f6 8c bd e1 27 0f 3d 11 50 5c bd cf 08 27 3d
       -0.06882889 0.03495014 -0.053787295 0.040779885
0002a0 7c 00 9f 3d 4f 26 a0 3d a9 c3 09 3d 35 19 4e bd
       0.07763764 0.07819807 0.03363386 -0.050317008
0002b0 1e bd c6 3d b3 5c b3 ba 57 12 a3 bd e0 d3 a1 3c
       0.0970404 -0.0013684243 -0.079624824 0.01975435
0002c0 f8 73 ca 3b 91 c4 99 bd 47 14 23 3c 42 58 0e 3c
       0.0061783753 -0.07508195 0.009953565 0.0086880345
0002d0 ca 86 b3 bd d2 89 95 bd 25 95 aa bd 08 af 8f bd
       -0.08765943 -0.07301678 -0.08329228 -0.070158064
0002e0 fa 9b 41 3b 41 06 c1 3d 10 98 93 bd a2 5f 33 bd
       0.0029542432 0.09425021 -0.07206738 -0.043792374
0002f0 ca 08 15 be 2b 1c fe bc 31 dc 45 3b 90 80 80 bd
       -0.14554134 -0.03101929 0.0030191059 -0.06274521
000300 77 4e 93 3d 09 d6 ee bd 44 1d b6 3d b1 1c d8 3c
       0.071927 -0.11661918 0.08892301 0.026380869
000310 00 5c 0f 3c a7 02 1f bd d3 2c c8 3d 07 d8 82 3d
       0.008749962 -0.03882089 0.097741745 0.0638886
000320 3d 24 b7 bd b2 a5 fd bc e9 ef 05 3e 65 5a b7 bb
       -0.08942459 -0.030962799 0.130798 -0.0055954927
000330 53 24 77 bd 5d f2 7b bc 62 f3 a2 bb 5b bb b0 bc
       -0.060337376 -0.015377608 -0.004972861 -0.021573713
000340 db b5 37 bd 5f 22 35 bd ed 0f 6a 3d 68 a5 74 3d
       -0.044851165 -0.044222232 0.057144094 0.059728056
000350 81 94 02 3e 45 54 20 3c 55 3f 7a 3d d2 12 cc bd
       0.12751962 0.009785716 0.061095554 -0.09964527
000360 9e 73 a4 3c b4 bb e5 3d 89 14 86 3d 35 71 44 bd
       0.020074662 0.11217442 0.065468855 -0.047959525
000370 f0 c9 25 3e ec e3 33 be 2b a0 f3 3b f6 42 53 bc
       0.16190314 -0.17567414 0.007434865 -0.012894383
000380 37 33 14 be e5 d2 c3 bd be 7f 56 bd 28 94 bf 3c
       -0.14472662 -0.09561709 -0.05236792 0.023386076
000390 4b 3d cb bc 3d 33 83 3d b7 66 75 bd ad c0 a5 3d
       -0.0248095 0.06406257 -0.05991241 0.080933906
0003a0 63 1b a1 ba 2e 28 20 3e 6f d5 08 3e 89 8a 13 be
       -0.0012291487 0.15640327 0.13362668 -0.14408316
0003b0 30 78 7e bd 1f 49 71 3d af 51 2c 3e 48 0e 37 be
       -0.06212634 0.058907624 0.16828035 -0.17876542
0003c0 99 95 6d 3b 04 28 68 bd 57 37 ed 3d 60 36 9a 3d
       0.0036252497 -0.056678787 0.11582821 0.075299025
0003d0 5f 41 c4 3d 6f fe 4d 3d fa ed 0a bd bd 92 20 3e
       0.09582781 0.050291475 -0.03391836 0.15680976
0003e0 9b 34 26 bc 3d fd ac 3b b8 86 7c bd b2 20 20 be
       -0.010144378 0.005279212 -0.061651915 -0.15637472
0003f0 e2 50 ab bd 1e eb 28 3d 1e 89 eb bc 40 a7 96 bd
       -0.083650365 0.04123985 -0.028751906 -0.07356119

graph_attention.linear2.bias f4 [32]
000000 f2 78 6b 3d 34 68 a4 bd 57 6d 10 be 23 aa 41 3e
       0.05748839 -0.08027688 -0.1410421 0.18912558
000010 60 15 97 3d 1f 9f 47 bd b2 c5 d2 bd ff 3e 8c 3d
       0.07377124 -0.048735734 -0.10291614 0.06847953
000020 ce e3 1c be 9b e4 cf 3d b5 97 4e be 73 01 15 be
       -0.15321276 0.10151025 -0.20175059 -0.14551334
000030 8b 19 2a be 6c 9e 1b 3e 7f 80 0c 3e 1f eb d9 bd
       -0.16611306 0.15197152 0.13720892 -0.10640549
000040 61 f8 e9 3d 87 55 0f be ec ed 22 be 94 2c f0 3d
       0.11424328 -0.1399747 -0.15911072 0.117272526
000050 bd 70 f6 3d d1 80 7e 3d 67 1a f6 3c 2e 7b 4f 3e
       0.12033222 0.062134568 0.030041886 0.20261833
000060 dc d5 1d be 15 f2 15 3d 6f 97 8e bc a5 a5 27 3d
       -0.15413612 0.03660782 -0.017406194 0.040929455
000070 1d e5 0c 3e 50 65 01 be 33 42 0e 3d 94 95 7f bd
       0.13759275 -0.12636304 0.0347311 -0.06239851

graph_attention.norm.weight f4 [32]
000000 70 96 6c 3f 53 c4 6c 3f 94 fa 6c 3f ae 2d 6d 3f
       0.9241705 0.92487067 0.9256985 0.92647827
000010 82 d6 6d 3f 6a 96 6b 3f 41 7d 6c 3f 4c e6 6b 3f
       0.9290544 0.9202639 0.9237862 0.9214828
000020 41 a0 6f 3f a3 bd 71 3f 0f cb 6b 3f 43 08 6c 3f
       0.93603903 0.9442999 0.9210672 0.92200106
000030 1a 42 6c 3f 6e f0 6d 3f a3 53 6c 3f f0 73 6c 3f
       0.9228836 0.9294499 0.9231512 0.92364407
000040 f3 f7 6c 3f 04 38 72 3f 44 c1 72 3f 31 8b 6d 3f
       0.9256584 0.94616723 0.9482615 0.92790514
000050 99 15 6c 3f 30 59 6c 3f 1f 10 6c 3f 11 95 6d 3f
       0.92220455 0.9232359 0.922121 0.9280558
000060 64 cd 71 3f 43 0f 6d 3f c9 3e 6d 3f 53 1f 6f 3f
       0.94454026 0.9260141 0.9267393 0.9340717
000070 70 f6 6b 3f c3 23 6c 3f 76 79 6c 3f 7b 86 70 3f
       0.9217291 0.9224207 0.92372835 0.939552

graph_attention.norm.bias f4 [32]
000000 54 b1 94 bb d7 4b 32 bc 44 f5 ee bb b4 f5 bc 3c
       -0.0045377407 -0.010882339 -0.0072924215 0.02306638
000010 ef 54 4d 3c bf fb 77 bc de c4 d6 3c 93 16 f3 bc
       0.012532457 -0.015135705 0.02621692 -0.02967385
000020 d1 1a b1 bc 0a c3 ee 3b e1 ad 24 bd 2d 86 1b 3c
       -0.021619232 0.007286434 -0.040204886 0.009492439
000030 2c 92 49 3c a6 51 7d bc 0b a4 37 3c e6 ac 25 3d
       0.0123029165 -0.015461361 0.0112085445 0.040448092
000040 92 d9 80 3c e7 ea 03 bd 67 d9 4d 3c 51 39 03 3b
       0.015728746 -0.032206442 0.01256404 0.0020023177
000050 7c 98 b0 3c 7c 92 0e 3b e7 49 3e bc 0c a0 e5 bb
       0.021557085 0.0021754792 -0.011614299 -0.0070076045
000060 53 69 07 bd d5 cd 2c bd 7a 6d b7 3c b8 b0 72 bb
       -0.03305943 -0.042188484 0.02239107 -0.0037031602
000070 17 37 f6 3c 93 d9 02 bd 4d 42 e9 bc e0 78 6a bc
       0.030055566 -0.031945776 -0.028473997 -0.014311045

temporal_module.fusion_weight f4 [4]
000000 bc f0 77 3f 12 b0 6f 3f 9a 66 6d 3f f2 bb 72 3f
       0.96851707 0.93628037 0.9273468 0.9481803

temporal_module.scales.0.0.weight f4 [32, 32, 3]
000000 aa d3 8a 3d 03 22 cc bb 4e 95 47 3d 1f f2 86 3d
       0.06778653 -0.0062296405 0.048726372 0.0658915
000010 ff 24 c7 bc 9b b3 cb bd ed bb a1 3d 95 8c c3 bc
       -0.024309633 -0.099463664 0.07897172 -0.023870746
000020 ee eb 75 bc b9 50 a9 3d 04 e7 51 bd f7 e8 c7 3d
       -0.015009863 0.0826735 -0.051245704 0.097612314
000030 8f 86 57 3d 2b ab e5 bc 3d e9 36 3d ae f2 96 b9
       0.05261856 -0.02803572 0.044656027 -0.0002879104
000040 d8 17 88 3d f2 e3 ea 3c 21 de 90 bd 1a f5 c3 3c
       0.06645173 0.028673146 -0.07073618 0.023920584
000050 51 2f 85 3b d2 62 87 3d e8 fa 55 3d 60 b9 78 3d
       0.0040644784 0.06610645 0.052241236 0.060723662
000060 b0 12 cc bc b3 b4 19 bc 51 e1 dd bd 96 a8 9f 3d
       -0.024911255 -0.009381461 -0.10833991 0.07795827
000070 88 6d c7 3d eb 86 63 bc 20 41 c6 bd 0a 6c cd 3d
       0.09737688 -0.013887147 -0.0968039 0.100303724
000080 22 40 a0 bd 27 3a 35 3d 72 00 c1 bd fe 00 61 bd
       -0.07824732 0.04424491 -0.09423913 -0.054932587
000090 c5 c9 4b bd 22 4d ca 3d ad 45 8d bd 65 6e c0 3d
       -0.04975297 0.09877993 -0.06898055 0.09396056
0000a0 48 d1 b6 3c d2 2a f7 3d e5 02 91 3d 4f aa 84 3d
       0.02231659 0.12068714 0.0708063 0.06477796
0000b0 45 21 d3 3d 13 51 44 bd 85 80 cf bc 25 47 30 3d
       0.1030908 -0.04792888 -0.025329838 0.0430366
0000c0 e8 f2 8f 3d ec d2 4e bd 69 7b bb bc 0c cc 86 bd
       0.070287526 -0.05049412 -0.022885995 -0.065818876
0000d0 bc d7 a2 bc 50 0a b8 3a 59 57 4c bb 67 bf 48 bd
       -0.01987826 0.0014041159 -0.0031179993 -0.04901066
0000e0 d4 7c b8 bd 03 80 0b 3c 87 8d 56 bd 57 33 bb 3d
       -0.09008184 0.008514407 -0.052381065 0.09140652
0000f0 cb d0 04 bc 8a 0e 8a bc a7 a4 40 3c a9 0b 13 3c
       -0.008106421 -0.016852636 0.011758006 0.008974948
000100 1d 3d 11 3d d5 95 78 3c 08 5f dd 3b a1 5f 80 bd
       0.035458673 0.0151724415 0.0067557134 -0.0626824
000110 cc 44 1c 3d dd 88 1f 3d 4a 95 a7 bb 39 b5 3b 3d
       0.038151547 0.038948882 -0.005114232 0.045827124
000120 c0 80 96 3d 2e 53 50 3d 4a 63 b6 3c a6 fb 1e bc
       0.07348776 0.050860576 0.022264142 -0.009703552
000130 e7 be 33 3c 1f 5c 83 bd 8d 78 bf bd 46 a7 94 3b
       0.010970808 -0.06414055 -0.09349165 0.004536542
000140 36 76 2c 3d 12 f4 18 bd 77 d9 a7 bd cf f6 30 bc
       0.042104922 -0.03734214 -0.08195775 -0.010801031
000150 de 89 64 3d a3 48 0c bd 23 16 ad 3d 61 6a 5e bd
       0.055795543 -0.03424896 0.08451488 -0.05430067
000160 db 10 7d 3d 0d a4 e4 bb eb 5e a4 bb de 7b 50 3d
       0.061783653 -0.006977564 -0.005016198 0.05089938
000170 7f 1a 9c bc e6 b2 61 bd ab c9 cb 3d 7e fa 4f bc
       -0.019055603 -0.05510225 0.099505745 -0.012693999
000180 82 e0 95 bd 85 3a 62 bc fc 8b 12 bd 67 ec 66 3d
       -0.07318212 -0.013807897 -0.03577803 0.056377795
000190 95 1c 4f 3d fe 9f cd 3c 11 92 52 bc 42 dc d4 bb
       0.050564367 0.025100704 -0.012852208 -0.0064959833
0001a0 6b 1c 88 3c 68 50 55 bc 62 67 19 3d f8 c8 25 3d
       0.016615113 -0.013019659 0.03745211 0.04047486
0001b0 41 9f 0d 3d 3f b9 d9 bc a9 88 4f 38 2d 8a 76 3b
       0.034575704 -0.02657759 4.947992e-05 0.003761898
0001c0 85 6b 39 3d 0c 04 02 3d 45 ff 1a bd 31 5b 45 bb
       0.045268554 0.03174214 -0.0378411 -0.0030114169
0001d0 66 d7 9f 3b dc d0 a8 bd ec 13 9f bd 7e 4a c1 bc
       0.0048779724 -0.08242962 -0.07767472 -0.023595091
0001e0 21 0f 58 3d a3 5e 83 bd a6 53 63 3d 8a fe 5d 3d
       0.052748803 -0.06414535 0.055499695 0.054197825
0001f0 b7 f9 9c bd f7 f7 67 3c db dc c1 3c 86 f3 a1 bd
       -0.07664817 0.0141582405 0.023664882 -0.079077765
000200 35 6f 39 3c c1 bb a5 bd a3 0a 8a 3d af 5f 66 3d
       0.011318018 -0.08092452 0.0674031 0.056243595
000210 f4 75 5e 3d c8 4b 8f 3d c7 8a 67 3d ad 66 98 3d
       0.054311708 0.06996876 0.056528833 0.07441459
000220 ab 70 16 3d 38 95 66 bd 7f d9 db 3d da 5f f3 3c
       0.036728542 -0.05629465 0.107348435 0.029708792
000230 17 b6 b4 bc ee 1a dd ba 25 fd 90 3d ef 17 1d bc
       -0.022059483 -0.0016868988 0.070795335 -0.009588226
000240 0c 26 e0 3c c7 87 72 bc 62 af 17 3d 01 85 d0 bc
       0.027361892 -0.01480288 0.037032492 -0.025454046
000250 88 e3 3f 3c 14 4b 69 3c 4e fa 99 bc 2c 26 c3 3d
       0.0117119625 0.014239091 -0.018796112 0.09528765
000260 0b c7 21 3d 97 7e d5 3c 49 7a 00 3d d2 4d f6 bc
       0.039496463 0.02606134 0.03136662 -0.030066404
000270 47 ac 13 3c 21 54 61 bd 53 56 e4 bc 4b 84 2a bd
       0.009013242 -0.055011872 -0.027873194 -0.04163007
000280 69 9a c4 3c 43 d6 b1 3d 0c 3b a6 bd 2d 16 f1 bb
       0.02399941 0.08683445 -0.08116731 -0.00735738
000290 b2 35 7c 3d 51 96 d7 bc 2f 93 cc 3d 9c 35 f6 3c
       0.061574645 -0.026316794 0.099890105 0.03005486
0002a0 1a 88 83 bc fd 64 43 bd 02 1e a9 3d 61 57 e4 3c
       -0.01605611 -0.04770373 0.08257677 0.027873697
0002b0 34 33 4b 3d c4 ca 08 3c cd 29 83 3d db 32 df bd
       0.049609378 0.008349124 0.06404457 -0.10898372
0002c0 e6 98 4d 3b db f1 7b bc 04 95 49 3d 48 fe ad bc
       0.0031371652 -0.015377487 0.049214378 -0.021239415
0002d0 53 e1 95 3c 87 3f d1 bc 39 a7 1e bd 91 df 1a bc
       0.01829592 -0.025542988 -0.038733695 -0.009452716
0002e0 6d cd fd 3c 1f 52 4d 3d 2f 6d 0b 3c bc 55 5b 3c
       0.030981744 0.050127145 0.008509918 0.01338714
0002f0 d5 a6 9f 3c c0 a9 68 3d db 6a 8b bd ea 6f 2a bb
       0.019488731 0.05680251 -0.068074904 -0.0026006647
000300 3f 74 55 3d 80 82 a0 3d ad d2 e6 bc 13 af 81 3d
       0.052112814 0.07837391 -0.02817663 0.06332221
000310 c9 c7 87 bd fb 9d 32 bb a9 0f 0d 3d fb 72 b5 bc
       -0.06629903 -0.0027254808 0.034438763 -0.022149554
000320 32 f9 c9 3b ed a3 20 bd 93 60 83 bd b8 8b b3 ba
       0.0061637396 -0.03921883 -0.064149044 -0.0013698256
000330 3a 11 63 bd 6b e6 48 3c df c8 48 3d f5 93 bd bc
       -0.05543635 0.012261967 0.04901969 -0.02314184
000340 e7 39 49 3d 43 65 24 bd df 48 c1 3c 7f ec 99 3d
       0.049127486 -0.040135633 0.023594318 0.07515811
000350 11 53 6a 3d 1c fa 1d bd 81 f3 76 bd 12 41 08 bc
       0.057208125 -0.0385686 -0.060290817 -0.008316295
000360 ee 35 28 3d fa 72 f6 bb 7a 8f b3 3d 9b 69 1e bd
       0.041067056 -0.0075210305 0.087676 -0.038674932
000370 42 75 aa bc 4d 1d 37 3c 2f e6 9b bc 0c 92 2b bd
       -0.020807866 0.011176419 -0.019030659 -0.041887328
000380 a0 59 4d 3d 96 76 83 bb 51 99 6c bd 51 c9 90 bc
       0.0501343 -0.0040119393 -0.0577634 -0.01767412
000390 d4 eb 9e bd f0 51 37 bd aa 3a 08 bc 8d d8 1a 3c
       -0.077598244 -0.044755876 -0.008314768 0.009451044
0003a0 18 5e cd 3c 68 a5 a3 3d 22 4a 0a bc 0d 39 03 3c
       0.025069281 0.07990533 -0.008440526 0.008009207
0003b0 67 57 b9 3d e5 65 a9 bc 5b 0a 3c bd c8 9a b6 bc
       0.09049874 -0.02067847 -0.045908313 -0.022290602
0003c0 e5 a6 53 bd d4 f8 c5 bd 60 87 78 3d 03 d2 2c bc
       -0.051672835 -0.09666601 0.06067598 -0.010548118
0003d0 57 50 3f 3d 5e e9 22 3d 7f 1d 9e 3c 26 8d cc 3c
       0.046707477 0.039773338 0.019301174 0.024969649
0003e0 5c 88 57 3d e3 de 9b 3a 39 d5 c7 3d e7 44 46 3d
       0.052620277 0.0011891987 0.09757466 0.048405554
0003f0 6b e9 eb bc ab 3a c7 bc c7 7b b8 ba a6 a7 ce bc
       -0.028797826 -0.024319967 -0.0014074974 -0.025226425
