save_all/MSTAGAT-Net.region785.w-20.h-15.no_agam.pt (torch, 106381 bytes, 61 tensors)

temp_conv.depthwise.weight f4 [1, 1, 3]
0.15277188 0.20037872 -0.11689912
00000000: 3b70 1c3e 1430 4d3e ce68 efbd

temp_conv.pointwise.weight f4 [16, 1, 1]
-0.03961292 0.029961796 -0.06468959 0.12194643 0.34614894 -0.22631332 0.33576357 0.028311806
0.23028082 0.0284067 0.061853744 -0.038982023 0.255431 0.028517606 -0.05663864 0.035164397
00000000: 2841 22bd 7172 f53c fa7b 84bd 0dbf f93d
00000010: 6f3a b13e aebe 67be 34e9 ab3e 29ee e73c
00000020: bcce 6b3e 2bb5 e83c 5a5a 7d3d 9dab 1fbd
00000030: dac7 823e c19d e93c ebfd 67bd 8b08 103d

temp_conv.pointwise.bias f4 [16]
-0.051270936 4.976922e-06 -0.029240455 0.17387193 -0.27016947 -0.051396888 -0.002927887 -0.13099149
4.296273e-09 -0.4375624 0.36442554 -0.3192902 0.25632548 1.1694315e-06 -0.008225108 0.14213908
00000000: 7901 52bd 6fff a636 ae89 efbc 7c0b 323e
00000010: a753 8abe 8b85 52bd cbe1 3fbb a222 06be
00000020: 6b9e 9331 2e08 e0be fc95 ba3e 017a a3be
00000030: 183d 833e 5cf5 9c35 9ac2 06bc e88c 113e

temp_conv.bn2.weight f4 [16]
0.50772077 0.47726676 0.51211786 0.46105775 0.47454703 0.507221 0.4727154 0.4662018
0.47694835 0.4793386 0.48409846 0.50767475 0.4990958 0.4724578 0.5233243 0.48023292
00000000: fdf9 013f 4f5c f43e 281a 033f c30f ec3e
00000010: d4f7 f23e 3cd9 013f c107 f23e 01b2 ee3e
00000020: 9332 f43e de6b f53e c1db f73e f9f6 013f
00000030: 7c89 ff3e fde5 f13e 95f8 053f 17e1 f53e

temp_conv.bn2.bias f4 [16]
0.005733979 0.08535732 -0.0014987199 0.06616412 0.030828489 0.005057612 0.061950102 0.0075208535
6.956304e-05 0.056301553 0.023458311 0.004520966 0.024942195 0.056522798 -6.2748645e-06 0.015100292
00000000: 1ae4 bb3b d2cf ae3d b270 c4ba 0e81 873d
00000010: 078c fc3c 53ba a53b 64bf 7d3d 7e71 f63b
00000020: 5fe2 9138 759c 663d a52b c03c 9d24 943b
00000030: 9353 cc3c 7384 673d ad8c d2b6 3767 773c

temp_conv.bn2.running_mean f4 [16]
-0.06317983 0.0062941597 -0.046516772 0.20733109 -0.19525991 -0.106816545 0.074839994 -0.12855546
0.053830206 -0.43783268 0.38534427 -0.3343342 0.3214365 0.0064491737 -0.022538733 0.15422511
00000000: 6d64 81bd 3d3f ce3b 5f88 3ebd 9a4e 543e
00000010: 37f2 47be a2c2 dabd b645 993d 0ba4 03be
00000020: 107d 5c3d 9b2b e0be d84b c53e da2d abbe
00000030: 5393 a43e 9753 d33b 26a3 b8bc 30ed 1d3e

temp_conv.bn2.running_var f4 [16]
0.00033442932 0.00014944049 0.0009099142 0.0031312874 0.024483267 0.010581948 0.023052946 0.00016230048
0.010950737 0.00014990363 0.00081946084 0.0003131872 0.01343488 0.00015705997 0.0006966249 0.00023027715
00000000: 5856 af39 20b3 1c39 4f87 6e3a 4936 4d3b
00000010: 2291 c83c e85f 2d3c 88d9 bc3c 342f 2a39
00000020: b86a 333c 732f 1d39 16d1 563a 4633 a439
00000030: f91d 5c3c 77b0 2439 b59d 363a 8d76 7139

feature_process_low.weight f4 [8, 320]
0.021858862 0.041534234 0.027997214 0.0039329287 0.001353152 -0.02299363 -0.0054354654 -0.01147562
-0.01766119 -0.037967667 -0.02491383 -0.034442883 -0.029873002 -0.050215807 -0.03625793 -0.016225887
0.0036221903 0.032307275 0.04276826 0.033826694 -0.010643405 -0.048918955 -0.036090735 -0.010212151
-0.0070801214 -0.0057569593 0.010099544 0.010389407 0.009447069 0.025738826 0.0426519 0.026120855
0.037100498 0.02317113 0.046728916 0.029320667 0.013845143 -0.03727125 -0.04563635 -0.06224656
0.017608387 0.029972278 0.020017099 0.02012936 -0.008853918 -0.017913245 -0.016901664 -0.018465562
-0.00989155 -0.03858118 -0.031575914 -0.043444086 -0.03840585 -0.020842083 -0.022104235 -0.015097371
0.0044008847 0.030512596 0.032516424 0.022019181 -0.008572821 -0.06276606 -0.052054387 -0.010301052
-0.013194998 0.0069700484 -0.0039944574 -0.008497 0.016523223 0.030845584 0.023611458 0.039885905
0.0149010625 0.02111978 0.04762541 0.02499805 0.0029462266 -0.04620542 -0.030075256 -0.057723165
-0.0036714273 -0.048939064 -0.03769795 -0.00078794267 -0.012762373 -0.0028087639 0.0011724456 -0.0074616396
0.0010037819 0.024914738 0.028392665 0.024148997 0.0527326 0.01592067 0.04168216 0.025294976
-0.026583828 -0.0021482718 -0.028829569 -0.05864008 0.027476378 0.024224548 0.021468023 0.011073156
-0.004511064 -0.019757155 -0.008555996 -0.015726486 -0.01602012 -0.024557935 -0.029015185 -0.025687555
-0.033423394 -0.03644081 -0.028290877 -0.024203584 0.0046056225 0.015005318 0.049872514 0.032621365
-0.0067971773 -0.048703168 -0.038593102 -0.020668682 -0.0011461846 -0.0018942973 -0.0016364033 0.0012059413
0.024957452 0.028181227 0.030821431 0.043587543 0.039526846 0.024216145 0.01090719 0.019823728
0.0140939485 -0.017566893 -0.02908154 -0.0533942 -0.0056899935 -0.051469386 -0.033064965 -0.02298891
-0.013055859 0.00307861 -3.712786e-05 0.0037374543 0.015381565 0.026153944 0.038814805 0.033011723
0.021317588 0.025300177 0.015935123 0.011503339 0.017414493 -0.012475437 -0.025807636 -0.054987
-0.006203573 -0.03560075 -0.027715597 -0.025337433 -0.020141087 -0.009782322 0.010788487 -0.0031551626
0.0023945621 -0.0007538086 0.016184736 0.017822959 0.028331986 0.029459916 0.033035457 0.02408382
-0.02199103 -0.025620548 -0.025549514 -0.040612776 -0.010913499 -0.053656556 -0.03966743 -0.005498649
-0.00656803 0.00790912 0.019170675 0.004549593 -0.01827011 0.027208555 0.051502254 0.03501915
0.016129656 0.007395397 0.008314372 0.033380307 -0.0007095577 -0.00040364903 -0.00949955 -0.033437047
-0.009118038 -0.050925963 -0.04370753 -0.018949358 -0.0099418005 -0.0012863248 0.0075227395 -0.000156883
0.011912217 0.015712893 0.025026131 0.032968383 0.024167951 0.032080952 0.015044858 -0.0022270204
-0.0039783404 -0.032482784 -0.027568588 -0.074253 0.03299206 0.021248426 0.024744846 0.026578208
0.0050160717 -0.014110034 -0.012770303 -0.015219718 -0.017219191 -0.028375499 -0.029404739 -0.0318882
-0.030265013 -0.04089143 -0.019511335 -0.023605067 0.0050341785 0.023775175 0.04369284 0.04156185
-0.009713463 -0.049913485 -0.041742276 -0.026065322 -0.016412837 -0.0071455445 -0.0013882426 6.0781542e-05
0.0019114576 0.027867945 0.034883738 0.038509198 0.04758713 0.021611476 0.0229798 0.014637529
00000000: 5b11 b33c cd1f 2a3d 6a5a e53c ccdf 803b
00000010: 3f5c b13a 235d bcbc fd1b b2bb 3d04 3cbc
00000020: 33ae 90bc fc83 1bbd 1718 ccbc fb13 0dbd
00000030: 3ab8 f4bc 17af 4dbd 3283 14bd 27ec 84bc
00000040: 4562 6d3b a254 043d c52d 2f3d dc8d 0a3d
00000050: ad61 2ebc 3e5f 48bd e1d3 13bd de50 27bc
00000060: 5d00 e8bb e0a4 bcbb 8f78 253c 5538 2a3c
00000070: e1c7 1a3c 3bda d23c c2b3 2e3d 67fb d53c
00000080: b1f6 173d 62d1 bd3c d266 3f3d e531 f03c
00000090: bdd6 623c bda9 18bd 2eed 3abd 40f6 7ebd
000000a0: 773f 903c 6c88 f53c e6fa a33c 54e6 a43c
000000b0: 0610 11bc ccbe 92bc 5c75 8abc 1745 97bc
000000c0: 2b10 22bc 4d07 1ebd bf55 01bd 6df2 31bd
000000d0: 744f 1dbd 04bd aabc f113 b5bc f75a 77bc
000000e0: 4c35 903b 8df5 f93c f12f 053d 9261 b43c
000000f0: 0475 0cbc 7e8b 80bd fb36 55bd bec5 28bc
00000100: d52f 58bc 0165 e43b f0e3 82bb 0037 0bbc
00000110: b65b 873c e1af fc3c d16c c13c 675f 233d
00000120: 9623 743c 6403 ad3c dd12 433d b6c8 cc3c
00000130: 7b15 413b e541 3dbd 6260 f6bc 206f 6cbd
00000140: 549c 70bb 5474 48bd 2a69 1abd f08d 4eba
00000150: 4619 51bc 3d13 38bb bfac 993a c580 f4bb
00000160: 5591 833a fe19 cc3c bc97 e83c 1ed4 c53c
00000170: 24fe 573d 116c 823c eaba 2a3d 6937 cf3c
00000180: 54c6 d9bc 05ca 0cbb fd2b ecbc 9530 70bd
00000190: 2416 e13c 8f72 c63c b5dd af3c 2f6c 353c
000001a0: 8cd1 93bb c2d9 a1bc 732e 0cbc d5d4 80bc
000001b0: a03c 83bc b92d c9bc 41b1 edbc b56e d2bc
000001c0: f8e6 08bd f542 15bd 45c2 e7bc 9846 c6bc
000001d0: c3ea 963b ded8 753c 1f47 4c3d fb9d 053d
000001e0: dbba debb f97c 47bd cd13 1ebd 5e51 a9bc
000001f0: 933b 96ba 124a f8ba 957c d6ba ad10 9e3a
00000200: 9273 cc3c 51dc e63c 3a7d fc3c da88 323d
00000210: e7e6 213d f060 c63c 12b4 323c 5f65 a23c
00000220: 4eea 663c 72e8 8fbc 693c eebc e0b3 5abd
00000230: 2073 babb 90d1 52bd 216f 07bd 3d53 bcbc
00000240: 3ee8 55bc 81c2 493b bcb9 1bb8 14f0 743b
00000250: f602 7c3c cc40 d63c 46fc 1e3d 4d37 073d
00000260: 39a2 ae3c 5142 cf3c 608a 823c 8078 3c3c
00000270: d7a8 8e3c c665 4cbc 896a d3bc 0c3a 61bd
00000280: 5847 cbbb 18d2 11bd d20b e3bc 7390 cfbc
00000290: ecfe a4bc 0846 20bc 32c2 303c d8c6 4ebb
000002a0: 16ee 1c3b 3d9b 45ba da95 843c 7401 923c
000002b0: 7b18 e83c ec55 f13c 3050 073d 6e4b c53c
000002c0: 8826 b4bc 2fe2 d1bc 374d d1bc 9559 26bd
000002d0: 88ce 32bc fac6 5bbd 517a 22bd 032e b4bb
000002e0: a138 d7bb 4195 013c d20b 9d3c c114 953b
000002f0: 33ab 95bc 7ae4 de3c 07f4 523d 3d70 0f3d
00000300: 5722 843c 1655 f23b 0139 083c cab9 083d
00000310: 9c01 3aba dba0 d3b9 00a4 1bbc 49f5 08bd
00000320: d363 15bc be97 50bd ab06 33bd af3b 9bbc
00000330: efe2 22bc e699 a8ba 5081 f63b f680 24b9
00000340: 762b 433c 53b8 803c 9a03 cd3c db09 073d
00000350: defb c53c 5167 033d b57e 763c 34f3 11bb
00000360: bd5c 82bb ab0c 05bd 85d7 e1bc f511 98bd
00000370: af22 073d 2e11 ae3c b4b5 ca3c 8bba d93c
00000380: dc5d a43b c62d 67bc 883a 51bc 205c 79bc
00000390: 430f 8dbc bc73 e8bc 35e2 f0bc 349d 02bd
000003a0: 55ee f7bc c67d 27bd 3cd6 9fbc 6a5f c1bc
000003b0: c0f5 a43b 28c4 c23c 43f7 323d c23c 2a3d
000003c0: 3725 1fbc 1572 4cbd f3f9 2abd f186 d5bc
000003d0: 3774 86bc 2c25 eabb b1f5 b5ba afef 7e38
000003e0: e089 fa3a 514b e43c 40e2 0e3d d2bb 1d3d
000003f0: b9ea 423d 8d0a b13c 2240 bc3c 3fd2 6f3c

feature_process_low.bias f4 [8]
0.04665052 0.029356353 0.020441871 0.0057075205 -0.035284925 0.00390822 0.015984753 0.04264984
00000000: 9e14 3f3d bc7c f03c b675 a73c 2706 bb3b
00000010: ed86 10bd 8710 803b 75f2 823c 99b1 2e3d

feature_process_high.weight f4 [32, 8]
-0.056864064 0.038285725 0.039170954 -0.06414372 0.056142088 -0.015354446 0.18174285 -0.05648911
-0.04117117 -0.008739382 0.014163241 -0.00035448384 0.022791767 -0.02883375 -0.012138445 -0.04368805
0.025699066 -0.06574274 -0.11255616 0.013498798 -0.08463274 0.084476605 -0.055359125 0.0546324
0.0031399687 -0.0122581255 0.055034213 -0.0063001667 0.029936425 0.06895014 -0.06636715 -0.0498331
0.0037157491 0.0054304283 0.0065175444 0.059484035 -0.0050217183 -0.023875678 0.0054994635 -0.0030961742
-0.05134009 0.018864477 -0.045552634 -0.017751858 0.045472823 -0.031053377 -0.07010805 -0.0140757095
0.01570658 -0.021720715 -0.040354475 -0.026700087 -0.016068628 -0.023343526 -0.021721125 0.0061614583
-0.043421157 -0.00077005214 -0.034684304 -0.0067592505 -0.034026835 -0.005555791 -0.02262522 0.033404622
-0.013745916 -0.06055149 -0.014450191 0.06764996 -0.087077565 -0.07031214 -0.08964471 0.016499285
-0.048902087 -0.018735928 0.07472655 -0.09223665 0.087107934 -0.027001744 0.0917088 -0.042711858
-0.0911626 0.01724251 -0.046977654 0.020323232 -0.06764345 -0.018679097 0.012268459 0.029708663
0.03400893 -0.028518753 0.12532033 0.047472764 0.06968765 -0.06276186 -0.11868269 -0.08256969
0.17454748 -0.007574299 -0.0877169 0.031317744 -0.04793667 0.037040435 0.043493617 -0.047496393
0.01572682 -0.027169578 0.026023999 -0.115195334 0.035423625 0.104843915 0.15886325 0.016903263
0.0880961 0.079076044 0.04617396 0.049893502 0.02270408 0.06164369 0.085598 -0.05430667
0.0010081262 -0.016171437 0.034052752 -0.06541057 0.02498031 0.00033558044 0.047798313 0.0048447074
-0.019375987 0.0007141416 0.035622407 -0.10311074 0.11083656 0.10668326 0.12762897 -0.003410377
0.121052235 -0.041985508 -0.053009674 0.11034345 -0.004239452 0.059375234 -0.14820531 0.13688369
-0.035837777 0.024709728 0.0875098 0.004740949 0.07500027 0.025729513 0.057289336 -0.023349551
0.16042359 0.0067597833 0.04647915 0.029991593 0.018183554 0.051644992 -0.11160962 0.065756805
-0.14886141 -0.018972155 -0.09243371 0.032227315 -0.11797474 -0.034791235 -0.06550432 0.03353231
-0.08650383 0.0070700506 -0.005471223 0.008128583 -0.022874327 -0.005396136 -0.05118831 -0.047089692
-0.02958983 0.007235458 0.015983807 -0.005061998 0.008758774 -0.011273365 -0.022624202 -0.0049576117
-0.022570787 0.008787608 0.003851535 -0.0053735157 0.0028828343 -0.010935056 0.000506453 -0.001182885
0.1157335 0.057421245 0.11259146 0.022329792 0.046086777 0.080454834 0.13241068 -0.07675627
-0.06624157 -0.10975381 -0.024974348 -0.09110592 0.10539224 0.023857232 0.016297206 -0.089646086
-0.08891069 -0.0047878204 -0.019977508 -0.015256692 0.0034101375 -0.012304723 -0.012978307 0.036055107
-0.0060148854 0.023143485 0.027147438 0.056298565 -0.029328538 -0.016890595 -0.023432847 -0.020097764
0.024356663 0.017100824 0.033187732 0.0051518744 -0.023706906 0.007927008 -0.05745728 -0.014923844
-0.0019705265 -0.01991175 0.0002168912 0.023654865 0.050240293 -0.018333377 0.050851017 -0.02424655
0.055552207 0.0074128876 0.095894806 0.076939575 0.017700564 0.043185383 -0.113978274 0.0024372048
-0.02176449 0.045322254 0.050661564 0.07268462 0.023724044 -0.054420464 -0.07565349 -0.023809277
00000000: 4bea 68bd 7ed1 1c3d b971 203d c85d 83bd
00000010: 3ff5 653d 3791 7bbc cc1a 3a3e 2061 67bd
00000020: 1aa3 28bd a02f 0fbc f00c 683c 04da b9b9
00000030: cdb5 ba3c c234 ecbc 54e0 46bc 3ef2 32bd
00000040: d986 d23c 21a4 86bd d883 e6bd 102a 5d3c
00000050: ee53 adbd 1202 ad3d 40c0 62bd 39c6 5f3d
00000060: efc7 4d3b 4ed6 48bc 8e6b 613d a171 cebb
00000070: 3c3d f53c bb35 8d3d 80eb 87bd cb1d 4cbd
00000080: ed83 733b bcf1 b13b 2091 d53b 88a5 733d
00000090: 3a8d a4bb ed96 c3bc d834 b43b 2fe9 4abb
000000a0: fc49 52bd ad89 9a3c 6695 3abd 586c 91bc
000000b0: b641 3a3d a763 febc cf94 8fbd ce9d 66bc
000000c0: 16ab 803c a4ef b1bc bc4a 25bd 24ba dabc
000000d0: 5ba2 83bc ec3a bfbc 80f0 b1bc 0fe6 c93b
000000e0: 62da 31bd 53dd 49ba 2111 0ebd b47c ddbb
000000f0: b95f 0bbd 5a0d b6bb 8658 b9bc 49d3 083d
00000100: 8d36 61bc d704 78bd 7ec0 6cbc 108c 8a3d
00000110: b955 b2bd d0ff 8fbd a597 b7bd 8229 873c
00000120: 8e4d 48bd 177c 99bc 3c0a 993d 92e6 bcbd
00000130: a565 b23d c332 ddbc d3d1 bb3d a1f2 2ebd
00000140: 75b3 babd 2a40 8d3c a46b 40bd e87c a63c
00000150: a688 8abd e804 99bc a601 493c 955f f33c
00000160: f34c 0b3d 29a0 e9bc f953 003e cd72 423d
00000170: 66b8 8e3d 4a89 80bd e90f f3bd 4c1a a9bd
00000180: 93bc 323e d331 f8bb eba4 b3bd 0947 003d
00000190: 3e59 44bd b6b7 173d 5d26 323d 948b 42bd
000001a0: 88d5 803c bc92 debc 4830 d53c 88eb ebbd
000001b0: 5d18 113d 68b8 d63d 0cad 223e b678 8a3c
000001c0: ba6b b43d 9ff2 a13d e820 3d3d 215d 4c3d
000001d0: e8fd b93c 187e 7c3d 014e af3d ac70 5ebd
000001e0: 1a23 843a f679 84bc e67a 0b3d faf5 85bd
000001f0: 82a3 cc3c d8f0 af39 2ac8 433d 5ac0 9e3b
00000200: 64ba 9ebc 3b35 3b3a cde8 113d b92b d3bd
00000210: 47fe e23d c17c da3d 2bb1 023e a280 5fbb
00000220: 3cea f73d fff8 2bbd ac20 59bd bffb e13d
00000230: 1aeb 8abb 7233 733d 22c3 17be 3d2b 0c3e
00000240: a2ca 12bd 0e6c ca3c 5738 b33d f659 9b3b
00000250: be99 993d b3c6 d23c 39a8 6a3d 8f47 bfbc
00000260: 1546 243e 2c81 dd3b ec60 3e3d eeb0 f53c
00000270: adf5 943c b389 533d 9693 e4bd 81ab 863d
00000280: 206f 18be 7e6b 9bbc e34d bdbd ca00 043d
00000290: be9c f1bd 4181 0ebd 2127 86bd 2d59 093d
000002a0: ec28 b1bd e2ab e73b f247 b3bb c02d 053c
000002b0: f162 bbbc 12d2 b0bb d5aa 51bd 1fe1 40bd
000002c0: 5f66 f2bc 6c17 ed3b 79f0 823c 1edf a5bb
000002d0: f680 0f3c ebb3 38bc 6456 b9bc 7673 a2bb
000002e0: 5fe6 b8bc e6f9 0f3c 096a 7c3b 5114 b0bb
000002f0: efed 3c3b f328 33bc 7cc3 043a 090b 9bba
00000300: af05 ed3d 8a32 6b3d 5a96 e63d f8ec b63c
00000310: 7dc5 3c3d 81c5 a43d aa96 073e 6432 9dbd
00000320: a9a9 87bd 9bc6 e0bd 0197 ccbc be95 babd
00000330: e3d7 d73d 3e70 c33c b881 853c 5e98 b7bd
00000340: cf16 b6bd 26e3 9cbb dfa7 a3bc 34f7 79bc
00000350: 9d7c 5f3b c099 49bc f7a2 54bc 85ae 133d
00000360: 8418 c5bb 6897 bd3c 4e64 de3c 5399 663d
00000370: 6742 f0bc 255e 8abc 3ef6 bfbc 11a4 a4bc
00000380: a087 c73c 0717 8c3c dcef 073d 0ed1 a83b
00000390: fc34 c2bc 48e0 013c 5358 6bbd 2383 74bc
000003a0: f323 01bb f71d a3bc 4a6d 6339 d9c7 c13c
000003b0: c4c8 4d3d e12f 96bc 2849 503d b3a0 c6bc
000003c0: b68a 633d cfe7 f23b 7f64 c43d 7f92 9d3d
000003d0: c600 913c 28e3 303d 716d e9bd 83b9 1f3b
000003e0: 724b b2bc d4a3 393d 8082 4f3d addb 943d
000003f0: ed58 c23c fee7 5ebd 38f0 9abd ac0b c3bc

feature_process_high.bias f4 [32]
-0.00902284 0.009761645 0.21235335 0.012341108 0.0012396353 0.08339501 0.05240687 0.027814677
0.116416834 -0.019395553 0.06219642 0.2180747 0.16520399 0.10435089 -0.0057079108 0.041330617
0.08334907 0.11346505 -0.013066134 0.045743827 -0.004560325 -0.020075673 0.010893252 0.0081960205
-0.026494956 0.23770621 0.025616864 -0.023925832 -0.025937084 0.040770777 -0.06286326 -0.04225296
00000000: 89d4 13bc 4fef 1f3c 2873 593e 5c32 4a3c
00000010: 427b a23a 01cb aa3d 96a8 563d 9bdb e33c
00000020: f36b ee3d 6ce3 9ebc acc1 7e3d f94e 5f3e
00000030: 3c2b 293e ebb5 d53d 6d09 bbbb 4b4a 293d
00000040: ebb2 aa3d 5d60 e83d 5713 56bc e15d 3b3d
00000050: c76e 95bb bd75 a4bc 9c79 323c 9a48 063c
00000060: f30b d9bc 4269 733e 75da d13c 1b00 c4bc
00000070: 027a d4bc 42ff 263d 74be 80bd 7111 2dbd

feature_norm.weight f4 [32]
0.5059205 0.44899905 0.57216454 0.47716627 0.45762587 0.45434424 0.45238674 0.44946015
0.5477625 0.4728458 0.47929287 0.6009926 0.547148 0.49592406 0.46301147 0.45848218
0.50378126 0.5579741 0.47068733 0.50214523 0.48773986 0.4563573 0.4480111 0.44932252
0.4886022 0.60571134 0.46096075 0.45745602 0.4553956 0.4559566 0.49860695 0.46156538
00000000: 0284 013f 34e3 e53e 6079 123f 234f f43e
00000010: f04d ea3e cf9f e83e 3c9f e73e a41f e63e
00000020: 2a3a 0c3f d818 f23e e065 f53e a7da 193f
00000030: e411 0c3f c2e9 fd3e d70f ed3e 2dbe ea3e
00000040: cff7 003f 64d7 0e3f eefd f03e 978c 003f
00000050: 0ab9 f93e aaa7 e93e b661 e53e 9a0d e63e
00000060: 112a fa3e e60f 1b3f 0c03 ec3e ad37 ea3e
00000070: 9d29 e93e 2573 e93e 6949 ff3e 4c52 ec3e

feature_norm.bias f4 [32]
0.007531755 0.0005056967 -0.038908586 -0.01914405 -0.0021201607 -0.03003481 -0.022004826 -0.012953376
-0.01850802 0.013277679 -0.011602048 -0.048093874 -0.016139934 -0.009510823 0.017760282 -0.009573946
-0.014481816 0.025589261 -0.0022824402 0.010883764 0.0067667686 -0.004995762 -0.015503166 -0.024023877
0.016089998 -0.04166409 -0.010190991 -0.0015858304 0.0005338165 -0.01258618 0.00041325102 -0.007150754
00000000: f1cc f63b bb90 043a 9c5e 1fbd fcd3 9cbc
00000010: 65f2 0abb 900b f6bc 7743 b4bc 663a 54bc
00000020: 229e 97bc 9f8a 593c 8416 3ebc 15fe 44bd
00000030: e537 84bc 48d3 1bbc 037e 913c 0adc 1cbc
00000040: 2445 6dbc 92a0 d13c fe94 15bb d151 323c
00000050: c5bb dd3b 7db3 a3bb fe00 7ebc b9cd c4bc
00000060: 2ccf 833c f7a7 2abd 1df8 26bc a3db cfba
00000070: d2ef 0b3a 4436 4ebc 9da9 d839 df50 eabb

graph_attention.adj_matrix f4 [10, 10]
1.0 1.0 0.0 0.0 0.0 0.0 0.0 0.0
0.0 0.0 1.0 1.0 1.0 0.0 0.0 0.0
0.0 0.0 0.0 0.0 0.0 1.0 1.0 1.0
1.0 0.0 0.0 0.0 0.0 0.0 0.0 0.0
1.0 1.0 1.0 1.0 1.0 0.0 0.0 0.0
0.0 0.0 1.0 1.0 1.0 0.0 1.0 1.0
0.0 0.0 0.0 0.0 0.0 1.0 0.0 1.0
1.0 1.0 1.0 0.0 0.0 0.0 0.0 1.0
1.0 1.0 1.0 1.0 0.0 0.0 0.0 0.0
0.0 0.0 1.0 1.0 1.0 1.0 1.0 1.0
0.0 0.0 0.0 0.0 0.0 1.0 0.0 1.0
1.0 1.0 0.0 0.0 0.0 0.0 0.0 0.0
0.0 1.0 1.0 1.0
00000000: 0000 803f 0000 803f 0000 0000 0000 0000
00000010: 0000 0000 0000 0000 0000 0000 0000 0000
00000020: 0000 0000 0000 0000 0000 803f 0000 803f
00000030: 0000 803f 0000 0000 0000 0000 0000 0000
00000040: 0000 0000 0000 0000 0000 0000 0000 0000
00000050: 0000 0000 0000 803f 0000 803f 0000 803f
00000060: 0000 803f 0000 0000 0000 0000 0000 0000
00000070: 0000 0000 0000 0000 0000 0000 0000 0000
00000080: 0000 803f 0000 803f 0000 803f 0000 803f
00000090: 0000 803f 0000 0000 0000 0000 0000 0000
000000a0: 0000 0000 0000 0000 0000 803f 0000 803f
000000b0: 0000 803f 0000 0000 0000 803f 0000 803f
000000c0: 0000 0000 0000 0000 0000 0000 0000 0000
000000d0: 0000 0000 0000 803f 0000 0000 0000 803f
000000e0: 0000 803f 0000 803f 0000 803f 0000 0000
000000f0: 0000 0000 0000 0000 0000 0000 0000 803f
00000100: 0000 803f 0000 803f 0000 803f 0000 803f
00000110: 0000 0000 0000 0000 0000 0000 0000 0000
00000120: 0000 0000 0000 0000 0000 803f 0000 803f
00000130: 0000 803f 0000 803f 0000 803f 0000 803f
00000140: 0000 0000 0000 0000 0000 0000 0000 0000
00000150: 0000 0000 0000 803f 0000 0000 0000 803f
00000160: 0000 803f 0000 803f 0000 0000 0000 0000
00000170: 0000 0000 0000 0000 0000 0000 0000 0000
00000180: 0000 0000 0000 803f 0000 803f 0000 803f

graph_attention.linear1.weight f4 [32, 32]
-0.035529803 -0.011601645 -0.004045464 0.012921155 0.025467847 0.024052393 0.0056109563 -0.0044425977
-0.021843154 -0.029812036 -0.022793476 0.03922585 -0.030295443 -0.05933679 0.012481775 -0.022919245
-0.02524025 0.023220364 -0.022757478 0.015804688 -0.013486467 -0.028747547 -0.008332405 -0.0020029007
0.0038574077 0.04865174 0.0043229647 0.03220114 0.04006015 -0.0034460295 0.069158725 0.03992819
-0.0048354785 -1.0579225e-05 -0.026597159 0.017695174 3.654985e-08 0.008358896 -4.5051267e-05 -1.51606555e-05
-0.056754153 -0.0024064411 -0.0068018553 -0.039406095 0.03594624 -0.0065321825 -0.00043772339 -0.0028089937
-0.0073974645 0.023759997 -0.0008515147 0.022033663 0.0148432935 0.00031349072 1.2860141e-06 4.2141353e-05
-0.0008108884 0.0475869 0.00031785926 -3.0893454e-09 7.697616e-05 -0.0007782355 -0.010539593 0.00035942468
-1.4372618e-09 -3.5021845e-09 -8.5940115e-08 -1.0654141e-09 5.640472e-09 -4.807906e-08 -2.0277614e-08 7.073239e-06
-2.8353252e-08 -3.8912307e-10 -2.0720755e-08 -7.0565316e-06 -8.9075627e-07 1.3480943e-08 -9.066632e-10 -1.1554918e-08
6.2666747e-09 -8.700586e-08 -2.0969314e-06 -9.764618e-10 -1.7794483e-07 1.0588021e-08 -2.5206135e-09 -8.512895e-09
-5.3932203e-10 -5.507275e-09 -5.718597e-08 -2.0606693e-08 -7.789846e-09 -2.6988212e-09 -8.108785e-09 -4.0221856e-08
-0.005715232 0.00663186 -0.09172152 -0.00019909404 0.0105865495 0.009107109 0.015432066 0.005251897
-0.02668375 0.0041561825 -0.015205856 0.0112855295 0.05574253 0.028407328 -0.026408631 0.0016079544
0.004465829 -0.0086121 -0.019003186 0.022617059 0.0067719687 0.0065428885 0.0027264976 0.0016792031
-0.03515743 0.09701746 0.004202193 0.020691875 0.018839361 0.004093604 0.04609766 0.028357353
-0.052139197 -0.0017974344 0.07432068 -0.004497267 0.00012290016 0.0013100763 -0.0065290965 -0.009077094
-0.07607613 -0.037658945 0.04325184 0.044482086 0.042173494 -0.0221971 -0.013861601 -0.0012079827
-0.022444967 -0.026367156 -0.006276468 -0.025149599 -0.019140068 0.0024770873 -0.0016931735 0.0042294203
-0.02440698 0.06723933 -0.0038055747 0.003865978 -0.0027748554 -0.0010306479 0.012183669 0.03528642
0.037158538 -0.012176847 0.02228312 0.037340302 0.01998028 -0.036644567 -0.010266064 -0.013893155
0.03567672 0.019798068 -0.017359387 0.023723766 -0.012361108 -0.029466202 0.053735375 -0.013650132
-0.007572512 0.044849794 -0.015089517 0.058372963 -0.051116414 -0.025716059 -0.011349075 0.003731679
0.037631962 0.020226406 -0.008025466 0.012749327 0.030628724 -0.0029968033 0.040015742 -0.0059347413
-0.07616432 -0.022640998 0.029706404 0.038660817 0.0007238356 0.04595867 0.015777042 0.015389257
-0.010852456 -0.038688026 0.031670414 0.067549795 -0.090487495 -0.014853292 -0.044379156 -0.024671987
-0.023702035 -0.051451303 -0.025654035 -0.06556096 0.04803525 0.009069564 -0.008256613 0.0035788075
-0.037886657 -0.043458086 0.0012201973 0.005597797 0.0018101933 -0.005793956 -0.01322347 0.021136107
-0.0048199636 -0.0053486037 -0.0025809708 0.011502127 0.0044165724 -0.021756854 -0.00874449 0.0062241047
0.025964325 -0.0056148944 -0.008834967 0.007671683 0.01929479 -0.033863023 0.03280395 -0.015237756
-0.037483327 0.045528144 -0.0020774084 0.05961968 -0.0025407188 0.00216668 0.0027044374 0.00014290199
0.034616303 -0.045802683 0.009478133 0.0010401487 0.0053946087 -0.0045067817 0.027417379 0.0038254864
00000000: b387 11bd d314 3ebc d08f 84bb 41b3 533c
00000010: f2a1 d03c 8609 c53c 1ddc b73b 3693 91bb
00000020: 6af0 b2bc 5f38 f4bc 62b9 babc 49ab 203d
00000030: 262e f8bc 220b 73bd 5c80 4c3c 24c1 bbbc
00000040: a4c4 cebc a238 be3c e46d babc d578 813c
00000050: 58f6 5cbc fa7f ebbc a484 08bc 1943 03bb
00000060: 90cc 7c3b 0c47 473d a8a7 8d3b 58e5 033d
00000070: 1d16 243d c8d6 61bb 17a3 8d3d be8b 233d
00000080: ef72 9ebb 6d7d 31b7 49e2 d9bc 78f5 903c
00000090: fcfa 1c33 c0f3 083c 6ef5 3cb8 855a 7eb7
000000a0: 0b77 68bd 62b5 1dbb 19e2 debb 4968 21bd
000000b0: 5d3c 133d eb0b d6bb 3d7e e5b9 1817 38bb
000000c0: 6e66 f2bb 53a4 c23c 2f38 5fba f17f b43c
000000d0: 4931 733c 035c a439 1c9b ac35 efc0 3038
000000e0: cd91 54ba 7bea 423d 59a6 a639 574c 54b1
000000f0: 436e a138 8002 4cba 42ae 2cbc 2a71 bc39
00000100: 2789 c5b0 15ab 70b1 148e b8b3 ed6d 92b0
00000110: 1ece c131 7c7f 4eb3 f22e aeb2 a956 ed36
00000120: 768d f3b2 34ec d5af 6cfd b1b2 25c7 ecb6
00000130: 4e1c 6fb5 d099 6732 c038 79b0 1183 46b2
00000140: 4152 d731 fad7 bab3 02b9 0cb6 3234 86b0
00000150: 1a11 3fb4 9ce6 3532 1a37 2db1 1c40 12b2
00000160: 6a3f 14b0 813a bdb1 a49c 75b3 9902 b1b2
00000170: 1bd4 05b2 2a76 39b1 d04e 0bb2 66c0 2cb3
00000180: d746 bbbb 1350 d93b 7ed8 bbbd e6c3 50b9
00000190: 3573 2d3c fc35 153c c7d6 7c3c 1b18 ac3b
000001a0: e197 dabc 9630 883b fc21 79bc f1e6 383c
000001b0: 4752 643d 7cb6 e83c ea56 d8bc ffc1 d23a
000001c0: 1756 923b c419 0dbc 92ac 9bbc 6947 b93c
000001d0: 64e7 dd3b ba65 d63b 0aaf 323b b518 dc3a
000001e0: 3d01 10bd 17b1 c63d 8db2 893b 0282 a93c
000001f0: 0155 9a3c a423 863b e6d0 3c3d ae4d e83c
00000200: e98f 55bd e497 ebba 7135 983d cf5d 93bb
00000210: c3de 0039 deb6 ab3a 08f2 d5bb 17b8 14bc
00000220: cdcd 9bbd 4440 1abd d728 313d d932 363d
00000230: 1dbe 2c3d b1d6 b5bc c51b 63bc 2c55 9eba
00000240: 82de b7bc efff d7bc d4aa cdbb 8806 cebc
00000250: a2cb 9cbc a156 223b 7aed ddba f396 8a3b
00000260: 26f1 c7bc c6b4 893d f366 79bb 595c 7d3b
00000270: 59da 35bb ce16 87ba 039e 473c 7e88 103d
00000280: 8d33 183d 6681 47bc 178b b63c 25f2 183d
00000290: afad a33c 9d18 16bd fe32 28bc 1ea0 63bc
000002a0: c121 123d 8f2f a23c 4635 8ebc 5858 c23c
000002b0: 3f86 4abc 1b63 f1bc a019 5c3d cea4 5fbc
000002c0: d622 f8bb 6bb4 373d 063a 77bc 7d18 6f3d
000002d0: 725f 51bd 7caa d2bc 78f1 39bc 2f8f 743b
000002e0: f923 1a3d d9b1 a53c 3f7d 03bc 8ee2 503c
000002f0: 17e9 fa3c 0466 44bb 8ce7 233d 3878 c2bb
00000300: 0afc 9bbd 9d79 b9bc d85a f33c ce5a 1e3d
00000310: c9bf 3d3a 293f 3c3d db3e 813c 3923 7c3c
00000320: 80ce 31bc 5677 1ebd d6b8 013d 8c57 8a3d
00000330: 8251 b9bd 395b 73bc ebc6 35bd e81c cabc
00000340: c52a c2bc 9abe 52bd 6928 d2bc d344 86bd
00000350: 9cc0 443d 8298 143c bf46 07bc 6d8a 6a3b
00000360: 0a2f 1bbd 1b01 32bd 07ef 9f3a ba6d b73b
00000370: 0244 ed3a 3adb bdbb 41a7 58bc a125 ad3c
00000380: c9f0 9dbb 5743 afbb 8125 29bb 6b73 3c3c
00000390: e5b8 903b 6e3b b2bc 0d45 0fbc 93f3 cb3b
000003a0: 23b3 d43c 26fd b7bb 8ac0 10bc be62 fb3b
000003b0: 1c10 9e3c f4b3 0abd 6f5d 063d c8a7 79bc
000003c0: 1e88 19bd b87b 3a3d 2125 08bb c433 743d
000003d0: 3082 26bb dcfe 0d3b ee3c 313b f6d7 1539
000003e0: d3c9 0d3d 989b 3bbd 2c4a 1b3c 9955 883a
000003f0: 42c5 b03b a0ad 93bb 699a e03c 03b5 7a3b

graph_attention.linear1.bias f4 [32]
0.04219589 -0.04811675 -1.3948329e-07 0.027902925 -0.028480811 0.004164722 0.06423359 -0.004062998
0.07889269 -0.08560423 -0.02591412 -0.016513377 -0.018192636 -0.0016069209 -0.017206408 0.04968565
-1.36800245e-05 0.0003576065 0.040681373 0.0019311489 0.012264504 -0.047008872 0.015153172 -0.080178335
-1.5444575e-10 0.079530686 0.06782524 -0.07214122 0.049476735 -0.012181153 0.007232937 0.03252917
00000000: 99d5 2c3d 1216 45bd e0c4 15b4 ad94 e43c
00000010: 9750 e9bc 3878 883b e78c 833d e622 85bb
00000020: 7e92 a13d 4551 afbd d949 d4bc 1047 87bc
00000030: b908 95bc 519f d2ba 74f4 8cbc 2e83 4b3d
00000040: 4283 65b7 227d bb39 83a1 263d 9b1e fd3a
00000050: 0ff1 483c 608c 40bd 0345 783c 8a34 a4bd
00000060: 9dd0 29af fce0 a23d f6e7 8a3d c7be 93bd
00000070: 1ea8 4a3d 7593 47bc 4602 ed3b 4f3d 053d

graph_attention.linear2.weight f4 [32, 32]
0.010545046 0.0015266348 -9.556262e-10 -0.027353158 0.0030252433 -0.016101854 0.03726715 -0.0044559003
0.029545609 0.00074488175 0.016450858 -0.030841049 0.0021182646 0.022103846 0.00018055989 0.0008490867
2.4789806e-08 -2.5864578e-05 0.0050441967 -0.00074600644 -0.010508959 -0.022574062 -7.485526e-06 0.027389817
-2.3303047e-11 -0.004844579 -0.01907506 0.02740621 0.041050427 0.03426515 0.023139942 -0.008663442
0.036533646 -0.0001466635 -1.2840597e-09 0.01862015 0.00020527955 0.002540172 -0.009076297 -0.0065174033
-0.01055025 -0.02649703 -0.0027398092 0.0112386625 0.0050181397 0.005068367 0.015963215 -0.028047586
3.110863e-08 0.0001664682 0.010313959 -0.0003180064 0.031286232 -0.0044131097 -0.008283 0.01348987
-6.301567e-06 0.026547676 0.019186242 -0.024510363 0.00061855576 -0.047373395 -0.019602746 0.0039406745
-0.028975021 0.0011381395 6.9802852e-09 0.005008271 0.027014744 -0.06836202 0.0323867 -9.648977e-05
0.038414944 0.039705016 0.0073607587 0.012297286 -0.006544964 0.017546901 0.030664477 0.013939357
7.949557e-07 -5.4002918e-05 -0.004858618 -0.003291161 0.01905976 -0.015669774 -0.017859308 0.025419243
-6.902915e-11 -0.011048934 0.02710279 0.0310182 0.041587498 0.0232671 -0.0026311474 -0.0012354922
0.036051884 -0.0003067176 7.087866e-09 0.027189024 -0.011563656 0.030259615 0.008818268 0.0072236834
0.019374967 0.010970496 -0.002647238 0.02356813 -0.008724825 0.030834416 -0.0004985633 0.014743149
1.6896903e-06 6.477104e-05 0.010860706 0.001412089 0.026142994 -0.023490177 0.013374451 0.0060664127
3.216813e-11 0.040300243 0.0050651226 0.015673023 -0.013952418 0.029776072 0.018060124 0.008453292
0.005362512 -0.0011388797 2.9345133e-08 -0.0008844832 0.0016027064 -0.036153063 0.027273642 -0.014165406
0.055707417 -0.06366447 0.010952189 -0.020305486 -0.020819413 0.0028169884 -0.04973141 0.05288514
-3.620102e-06 -0.0006331372 -0.04091871 -0.0045566233 -0.026745861 0.008848062 -0.0060801907 0.036436543
-2.4416967e-11 -0.011112123 -0.03207886 0.05888736 -0.010301167 -0.06336589 -0.058169212 -0.011152442
0.0015991557 -0.0006308612 -9.215847e-09 0.025449146 -0.022765357 0.016542356 -0.0061662206 0.0046517346
-0.009554471 0.021371996 -0.011342237 -0.0015263339 0.0031059657 0.0029194856 -0.022826783 0.0053940504
6.7680304e-08 9.673502e-06 -0.003178345 -9.3001574e-05 -0.019177184 0.004551789 -0.0017921529 -0.02754414
6.4992976e-11 0.0006256421 -0.021143168 -0.011335834 -0.046191677 -0.003490846 -0.0053046364 0.0029831377
0.011837954 0.0005452146 1.1008445e-06 0.013544921 0.033958536 -0.023618849 0.01488633 -0.030566372
-0.03116184 -0.01927221 -0.0050888094 0.002812911 0.011254496 -0.0017185378 0.03405192 -0.009218982
-1.6912292e-06 6.455251e-05 0.036388107 -0.00063024246 0.014184521 -0.013131641 -0.01008991 -0.05320736
-1.1099996e-11 -0.00087136973 0.037122708 -0.041317936 0.05334021 -0.06591705 -0.016364366 -0.0043974593
-0.019169543 0.00018224168 -2.6135929e-08 0.025169501 0.04056508 0.01670262 -0.04838418 0.028297791
-0.028030323 0.046069995 -0.008637381 -0.008451734 0.01820202 -0.013587463 0.039210025 -0.048743684
1.9788371e-07 0.0002258533 0.056678765 0.0047154273 0.028407387 -0.011723422 0.014562392 0.0728361
1.7796488e-11 0.027708188 0.010655815 -0.037968025 -0.03622305 0.022196183 -0.01692277 0.018770935
00000000: 21c5 2c3c 5d19 c83a 1c57 83b0 bb13 e0bc
00000010: 2943 463b 09e8 83bc 70a5 183d cd02 92bb
00000020: a209 f23c 2b44 433a f3c3 863c 5ea6 fcbc
00000030: 95d2 0a3b 2013 b53c ad54 3d39 3e95 5e3a
00000040: 5cf1 d432 c2f7 d8b7 ca49 a53b a58f 43ba
00000050: c52d 2cbc 3ded b8bc 2e2c fbb6 9c60 e03c
00000060: ccf9 ccad 46bf 9ebb 4d43 9cbc fd82 e03c
00000070: 7e24 283d 9d59 0c3d fa8f bd3c 1cf1 0dbc
00000080: 4ea4 153d afc9 19b9 d67a b0b0 4989 983c
00000090: 4f40 5739 0479 263b c0b4 14bc f18f d5bb
000000a0: f5da 2cbc 4d10 d9bc 5f8e 33bb 5e22 383c
000000b0: 356f a43b 8b14 a63b 4ac5 823c 0dc4 e5bc
000000c0: 4d9c 0533 f88d 2e39 e1fb 283c 19ba a6b9
000000d0: fe25 003d d99b 90bb 6cb5 07bc 9e04 5d3c
000000e0: 0c72 d3b6 837a d93c 772c 9d3c f5c9 c8bc
000000f0: 9326 223a 9b0a 42bd f095 a0bc c620 813b
00000100: 065d edbc a02d 953a 3dd7 ef31 6c1c a43b
00000110: 064e dd3c 6301 8cbd eba7 043d 8d5a cab8
00000120: fd58 1d3d baa1 223d 8532 f13b 8e7a 493c
00000130: 2377 d6bb 85be 8f3c 1234 fb3c e761 643c
00000140: f164 5535 3181 62b8 0b35 9fbb 85b0 57bb
00000150: 3723 9c3c e65d 80bc af4d 92bc 043c d03c
00000160: f5cb 97ae 9706 35bc ac06 de3c e119 fe3c
00000170: a757 2a3d a59a be3c 546f 2cbb 3df0 a1ba
00000180: 24ab 133d f0ce a0b9 8789 f331 84bb de3c
00000190: 7d75 3dbc 03e3 f73c 7f7a 103c a6b4 ec3b
000001a0: 40b8 9e3c 98bd 333c 497d 2dbb f311 c13c
000001b0: 92f2 0ebc 7598 fc3c 04b2 02ba 408d 713c
000001c0: 51c9 e235 b0d5 8738 1af1 313c d815 b93a
000001d0: d529 d63c 796e c0bc 8320 5b3c c2c8 c63b
000001e0: 187a 0d2e de11 253d 54f9 a53b b664 803c
000001f0: af98 64bc f3ec f33c d3f2 933c ad7f 0a3c
00000200: 03b8 af3b 7646 95ba a112 fc32 aadc 67ba
00000210: e711 d23a 3c15 14bd f96c df3c 0516 68bc
00000220: 762d 643d 8562 82bd cf70 333c b157 a6bc
00000230: 798d aabc 399d 383b 2ab3 4bbd 179e 583d
00000240: e1f0 72b6 1ef9 25ba 619a 27bd ba4f 95bb
00000250: 231a dbbc 76f7 103c 563c c7bb 7c3e 153d
00000260: 1fc6 d6ad 9f0f 36bc 1f65 03bd df33 713d
00000270: 3ac6 28bc fac5 81bd d742 6ebd bbb8 36bc
00000280: c39a d13a 6160 25ba b953 1eb2 ba7a d03c
00000290: 6a7e babc d683 873c 020e cabb 946d 983b
000002a0: 5b8a 1cbc 5314 af3c cad4 39bc 440f c8ba
000002b0: 758d 4b3b d754 3f3b 3cff babc 93c0 b03b
000002c0: a457 9133 604b 2237 c84b 50bb d709 c3b8
000002d0: 7819 9dbc 2c27 953b ace6 eaba 40a4 e1bc
000002e0: cbeb 8e2e 2102 243a 7034 adbc efb9 39bc
000002f0: 7c33 3dbd adc6 64bb 84d2 adbb bf80 433b
00000300: faf3 413c bcec 0e3a bbc0 9335 84eb 5d3c
00000310: 1b18 0b3d 517c c1bc cbe5 733c 5466 fabc
00000320: 1d47 ffbc c1e0 9dbc 07c0 a6bb d158 383b
00000330: c764 383c 8f40 e1ba 077a 0b3d 370b 17bc
00000340: 31fe e2b5 5d60 8738 b20b 153d db36 25ba
00000350: 3166 683c 1826 57bc 2650 25bc f6ef 59bd
00000360: f045 43ad a26c 64ba fb0d 183d ff3c 29bd
00000370: 447b 5a3d 85ff 86bd 900e 86bc 9018 90bb
00000380: 7209 9dbc 2118 3f39 8481 e0b2 4530 ce3c
00000390: 9227 263d efd3 883c 7d2e 46bd c5d0 e73c
000003a0: d99f e5bc e4b3 3c3d cd83 0dbc 2479 0abc
000003b0: 671c 953c f39d 5ebc b19a 203d 75a7 47bd
000003c0: dc79 5434 09d3 6c39 fe27 683d df83 9a3b
000003d0: 9cb6 e83c 9913 40bc 1997 6e3c 182b 953d
000003e0: 218a 9c2d 48fc e23c ba95 2e3c 5c84 1bbd
000003f0: 9f5e 14bd c5d4 b53c 9fa1 8abc 81c5 993c

graph_attention.linear2.bias f4 [32]
0.0031864943 0.0010412744 -0.05213841 0.050462637 0.03355826 0.027468966 -0.043499723 0.015233262
-0.0022164078 0.05855267 -0.061898552 -0.08352815 -0.09017972 0.07603192 0.048357062 -0.059394196
0.057661768 -0.036287114 -0.07828994 0.02164066 0.06460246 -0.026024787 0.018959897 0.08518253
-0.019856626 0.018603025 -0.010542049 0.014952272 0.04574465 -0.084663644 0.00927793 -0.022389337
00000000: 81d4 503b 5f7b 883a 168f 55bd e9b1 4e3d
00000010: 6374 093d 9906 e13c c42c 32bd ef94 793c
00000020: 2741 11bb edd4 6f3d 5689 7dbd cf10 abbd
00000030: 25b0 b8bd a0b6 9b3d 0e12 463d 5447 73bd
00000040: bf2e 6c3d cca1 14bd 7a56 a0bd c147 b13c
00000050: 4b4e 843d ef31 d5bc c951 9b3c 2e74 ae3d
00000060: 5daa a2bc 5f65 983c 8fb8 2cbc 60fa 743c
00000070: be5e 3b3d 2264 adbd 7502 183c d869 b7bc

graph_attention.norm.weight f4 [32]
0.44541344 0.45792615 0.46121034 0.46018875 0.46597627 0.4496078 0.4586394 0.47521946
0.46953282 0.48822644 0.44894785 0.46492174 0.47342962 0.49213344 0.45451263 0.47381136
0.46586242 0.48702887 0.46725988 0.48585266 0.47244927 0.48055947 0.45416978 0.5045732
0.47454408 0.49067324 0.47870192 0.4646923 0.4677781 0.4928513 0.46620715 0.46084708
00000000: 3b0d e43e 4c75 ea3e c323 ec3e dc9d eb3e
00000010: 7194 ee3e fe32 e63e c9d2 ea3e f74f f33e
00000020: 9b66 f03e d1f8 f93e 7edc e53e 390a ee3e
00000030: 5e65 f23e eaf8 fb3e e1b5 e83e 6797 f23e
00000040: 8585 ee3e d95b f93e b03c ef3e aec1 f83e
00000050: dfe4 f13e e40b f63e f188 e83e b62b 013f
00000060: 71f7 f23e 8639 fb3e 6b18 f53e 26ec ed3e
00000070: 9c80 ef3e 0157 fc3e b4b2 ee3e 26f4 eb3e

graph_attention.norm.bias f4 [32]
-0.0016380738 -0.015087537 0.011926759 -0.0042687473 -0.0022581732 -0.0044930116 0.0018967381 -0.005513981
0.0037942561 -0.0014952505 0.00032420544 -0.0043230234 0.004075259 -0.01293392 -0.012597903 7.158632e-05
-0.008311591 0.0034124479 0.008492519 -0.005061268 0.0010990407 0.0038024343 0.0017181995 -0.009184697
-0.0014719771 0.0011883313 -0.002359443 -0.0023550994 -0.0005678063 0.009832729 -0.006249147 0.0040628887
00000000: a3b4 d6ba b731 77bc 7468 433c d9e0 8bbb
00000010: dcfd 13bb 1d3a 93bb f89b f83a a0ae b4bb
00000020: 0ea9 783b 48fc c3ba 1efa a939 26a8 8dbb
00000030: c089 853b cbe8 53bc 6f67 4ebc 9d20 9638
00000040: 572d 08bc 60a3 5f3b 3524 0b3c fed8 a5bb
00000050: b00d 903a 4332 793b 3535 e13a 697b 16bc
00000060: 5bef c0ba c8c1 9b3a e3a0 1abb 0358 1abb
00000070: d6d8 14ba 7419 213c a5c5 ccbb fb21 853b

temporal_module.fusion_weight f4 [4]
0.5468575 0.5240767 0.48251903 0.4792574
00000000: dafe 0b3f e429 063f bc0c f73e 3a61 f53e

temporal_module.scales.0.0.weight f4 [32, 32, 3]
0.002769071 0.0003887346 0.0018060855 -0.0049267844 -0.00562533 -0.005331923 -0.003032721 -0.004617375
0.008703825 0.00060769025 0.008424052 0.0058386987 0.023594273 0.015546912 0.018200101 0.0035812466
0.0068366346 0.0023074548 -0.011960143 -0.010830933 -0.0101723345 -0.014181622 -0.012588365 -0.017614467
-0.0111354925 -0.009584741 -0.0061401012 0.017848594 0.007264527 0.0002551102 0.0024287545 -0.009526826
0.00027432013 -0.02441537 -0.018299308 -0.00072977674 -0.0022727551 0.0016800994 0.011628488 0.009760627
0.0049841306 -0.013035154 0.014242851 0.008309367 -0.0010034152 -0.0065291794 -0.011903827 0.0010210326
0.016800398 0.005413332 -0.00013813593 0.016258009 0.010794454 0.0062814374 -0.024975402 -0.010124714
-0.0018392483 -0.0021589804 -0.0007002018 -0.015896121 0.011836824 0.009365184 0.0010209669 -0.010972093
0.003083473 0.0016654698 0.0024973939 0.008158117 0.0066953534 0.014123667 -0.00044800932 -0.0063921358
-0.0039959745 0.0027194037 0.0013934064 -0.0045054317 0.0048595676 -0.0067024846 0.013479409 0.008285144
0.015184518 -0.016319798 -0.01518163 -0.01899498 0.011656723 0.015821094 0.010736 -0.027083848
-0.016792692 -0.0057677873 -6.300159e-05 -0.00220573 0.0003154754 0.014545535 0.018494619 0.019471403
-0.0067423694 -0.005670549 -0.008869312 -0.011243888 0.0024930215 0.0054131155 -0.010181966 0.0010579105
0.009905954 -0.028816823 -0.0009801259 -0.0177078 0.025696902 0.009355932 0.0074518905 0.009270795
-0.0024561146 -0.0066355797 0.0050230897 0.010377395 0.020848047 -0.022264512 -0.019259874 -0.0125340605
-0.015976725 0.01435522 0.0089497315 0.016036188 0.0006576105 -0.0010099902 0.026378788 -0.0072289477
0.012986218 -0.048737742 -0.024122337 -0.01650811 0.020018976 -0.002237095 0.01195592 0.0314439
0.0030997659 0.0020916387 0.014995022 -0.0034953547 -0.006436672 0.0060105873 -0.014477474 -0.003413954
0.021433655 -0.010127699 -0.01557928 0.033802323 0.0036195463 0.018785061 -0.032468565 -0.004604909
-0.009503288 0.008347123 0.021944411 0.009024848 0.017774304 0.013208991 0.0075794603 -0.027670404
0.005394872 -0.0041949316 -0.0020399194 0.003033716 0.0037888484 -0.0058966777 -0.017209312 -0.019013397
-0.009469579 0.0039241654 0.008919108 -0.0067067635 0.012483696 0.0036544169 -0.00019530591 -0.009295853
-0.009067798 -0.000873489 0.00336759 0.004883331 -0.011463261 0.0012032508 -0.0014097117 -0.021688161
0.00042690165 0.0119933095 -0.00427675 0.001778094 -0.002584024 0.007605559 -0.0031852622 0.0052440506
0.009110599 -0.0032704184 -0.0055780574 0.0010659007 0.007439195 0.003558263 0.009602463 -0.015308607
-0.012791476 0.013019243 0.0060698222 0.015008807 -0.026389202 -0.0076718153 -0.021288604 -0.0030788814
0.0031199695 0.0057028863 0.0010691863 -0.0032247473 6.1031304e-05 -0.009754809 0.012908598 0.015439225
0.014756781 -0.0076409755 0.012645391 -0.026511712 -0.00055889745 -0.011977111 -0.017530581 -0.0016303953
-0.01683272 0.016115747 0.010315671 0.0018341066 0.021694686 -0.008005885 -0.01481621 -0.024463596
0.0080133 0.008521512 -0.010713107 0.01131018 0.0057281293 -0.018599536 0.0060379733 -0.012787418
-0.026692998 0.005308763 -0.0040703393 -0.00938619 -0.010115395 -0.016401237 0.038858112 0.00084695726
0.013021083 -0.016405355 -0.0024672793 0.0069760447 0.0022361474 -0.0003052749 0.010951216 0.023709813
00000000: 4d79 353b 13cf cb39 2cba ec3a dd70 a1bb
00000010: b054 b8bb 69b7 aebb 9ec0 46bb 594d 97bb
00000020: 7d9a 0e3c 674d 1f3a 0905 0a3c 8e52 bf3b
00000030: c748 c13c 7ab8 7e3c 6118 953c 59b3 6a3b
00000040: d905 e03b ab38 173b 7af4 43bc 3a74 31bc
00000050: dda9 26bc 095a 68bc 6e3f 4ebc 374c 90bc
00000060: a471 36bc 5109 1dbc e732 c9bb 3737 923c
00000070: 450b ee3b 50c0 8539 bd2b 1f3b 6816 1cbc
00000080: a0d2 8f39 be02 c8bc 6ee8 95bc 7d4e 3fba
00000090: 81f2 14bb c836 dc3a 6a85 3e3c 09eb 1f3c
000000a0: eb51 a33b 6691 55bc d95a 693c 0324 083c
000000b0: 0785 83ba baf2 d5bb 4508 43bc 2bd4 853a
000000c0: fda0 893c 5262 b13b 95d8 10b9 842f 853c
000000d0: 39db 303c 84d4 cd3b 3799 ccbc 21e2 25bc
000000e0: ef12 f1ba ae7d 0dbb bf8d 37ba 9538 82bc
000000f0: 3def 413c 6e70 193c f7d1 853a 4bc4 33bc
00000100: 1814 4a3b e54b da3a 51ab 233b 9fa9 053c
00000110: b264 db3b f466 673c cbe2 eab9 1f75 d1bb
00000120: aaf0 82bb 0638 323b f6a2 b63a 4da2 93bb
00000130: 023d 9f3b 84a0 dbbb bdd8 5c3c 6abe 073c
00000140: 7cc8 783c 19b1 85bc 5fbc 78bc 5c9b 9bbc
00000150: d7fb 3e3c 3d9b 813c 0ce6 2f3c f2de ddbc
00000160: d490 89bc b5ff bcbb b91f 84b8 028e 10bb
00000170: 6466 a539 6550 6e3c 0782 973c 7e82 9f3c
00000180: 18ef dcbb 03d0 b9bb 9750 11bc 4938 38bc
00000190: f661 233b 8160 b13b 43d2 26bc 96a9 8a3a
000001a0: 954c 223c 4211 ecbc 9177 80ba f30f 91bc
000001b0: 4f82 d23c 9f49 193c fd2e f43b 88e4 173c
000001c0: c4f6 20bb 476f d9bb bb98 a43b f305 2a3c
000001d0: 86c9 aa3c 1164 b6bc e2c6 9dbc a95b 4dbc
000001e0: 9fe1 82bc 2832 6b3c e5a1 123c 535e 833c
000001f0: 7e63 2c3a a661 84ba 5418 d83c cfe0 ecbb
00000200: 25c4 543c 3aa1 47bd 359c c5bc 043c 87bc
00000210: d6fe a33c 3a9c 12bb c3e2 433c 52cb 003d
00000220: 7125 4b3b e013 093b aead 753c 5212 65bb
00000230: b8ea d2bb 76f4 c43b ed32 6dbc a5bc 5fbb
00000240: a295 af3c a6ee 25bc 3d40 7fbc 4e74 0a3d
00000250: e935 6d3b 21e3 993c c2fd 04bd c7e4 96bb
00000260: aeb3 1bbc 5fc2 083c c4c4 b33c f5dc 133c
00000270: 6b9b 913c 866a 583c 1f5d f83b 0bad e2bc
00000280: 77c7 b03b a375 89bb 2bb0 05bb 4fd1 463b
00000290: 544e 783b eb38 c1bb 8bfa 8cbc fcc1 9bbc
000002a0: 4b26 1bbc 4996 803b 7321 123c 69c4 dbbb
000002b0: 6b88 4c3c f17e 6f3b 08cb 4cb9 a24d 18bc
000002c0: 1a91 14bc dbfa 64ba c9b2 5c3b 5904 a03b
000002d0: 67d0 3bbc 66b6 9d3a 13c6 b8ba 5fab b1bc
000002e0: c5d1 df39 967f 443c fb23 8cbb ef0e e93a
000002f0: bb58 29bb 0e38 f93b d5bf 50bb 49d6 ab3b
00000300: 9f44 153c 8454 56bb 23c8 b6bb b1b5 8b3a
00000310: 7ec4 f33b bf31 693b a653 1d3c f4d0 7abc
00000320: 5793 51bc aa4e 553c 5ce5 c63b 80e7 753c
00000330: 2b2e d8bc da63 fbbb 7065 aebc 0fc7 49bb
00000340: 6778 4c3b 47df ba3b f023 8c3a 4856 53bb
00000350: ddfb 7f38 a2d2 1fbc 967e 533c cef4 7c3c
00000360: 6dc6 713c 2661 fabb 9d2e 4f3c 172f d9bc
00000370: f982 12ba a53b 44bc 4b9c 8fbc fdb2 d5ba
00000380: c6e4 89bc 2c05 843c 0f03 293c 6866 f03a
00000390: 0eb9 b13c 1e2b 03bc b0bf 72bc e167 c8bc
000003a0: 374a 033c d09d 0b3c 0786 2fbc 554e 393c
000003b0: 08b3 bb3b 0e5e 98bc 31da c53b 5282 51bc
000003c0: 46ab dabc 22f5 ad3b 7b60 85bb 89c8 19bc
000003d0: 0bbb 25bc e35b 86bc af29 1f3d 5706 5e3a
000003e0: 6156 553c 8664 86bc 14b2 21bb 4e97 e43b
000003f0: 548c 123b 4e0d a0b9 bb6c 333c 153b c23c

temporal_module.scales.0.0.bias f4 [32]
-1.6575639e-08 -1.4716315e-08 -3.285176e-08 -1.1814808e-08 -6.394711e-09 -6.2978414e-09 1.0618716e-07 1.8006395e-08
7.114788e-08 -3.96971e-08 -2.9600976e-08 -1.2801002e-08 6.5274453e-09 -1.8722494e-08 3.0254932e-07 2.502239e-07
-2.0099575e-08 -1.2186384e-09 1.0799861e-07 -2.29094e-08 4.8712796e-08 -4.9988067e-08 9.523398e-08 9.3241095e-09
-2.5196438e-09 5.903311e-09 4.1599137e-08 7.255285e-08 6.158807e-08 -6.912625e-10 4.4402483e-08 1.00603295e-07
00000000: 3762 8eb2 0ad3 7cb2 e418 0db3 13fa 4ab2
00000010: 79b8 dbb1 6664 d8b1 0209 e433 7bac 9a32
00000020: f6c9 9833 6c7f 2ab3 3c45 feb2 67eb 5bb2
00000030: 0448 e031 33d3 a0b2 106e a234 8356 8634
00000040: 6fa7 acb2 077d a7b0 ddec e733 4eca c4b2
00000050: 4938 5133 76b2 56b3 6f83 cc33 de2f 2032
00000060: 0b26 2db1 13d6 ca31 bcaa 3233 5ace 9b33
00000070: 6642 8433 4603 3eb0 0cb5 3e33 3f0b d833

temporal_module.scales.0.1.weight f4 [32]
0.46600637 0.4686603 0.5073988 0.42064878 0.47184923 0.4208066 0.466462 0.46931726
0.45777863 0.47984052 0.4442258 0.459117 0.44025084 0.48783 0.45691413 0.50243825
0.44903946 0.4473283 0.4806996 0.48479775 0.5185149 0.45973054 0.48854262 0.46475118
0.47448558 0.45448342 0.4602198 0.43626845 0.47542557 0.44997308 0.45613936 0.48693052
00000000: 6398 ee3e 3ef4 ef3e e3e4 013f 475f d73e
00000010: 3996 f13e f673 d73e 1bd4 ee3e 5a4a f03e
00000020: f661 ea3e a8ad f53e 9071 e33e 6211 eb3e
00000030: 8f68 e13e dbc4 f93e a6f0 e93e cb9f 003f
00000040: 80e8 e53e 3708 e53e 421e f63e 6937 f83e
00000050: 64bd 043f cd61 eb3e 4222 fa3e def3 ed3e
00000060: c6ef f23e 0db2 e83e eea1 eb3e 945e df3e
00000070: fb6a f33e df62 e63e 198b e93e f54e f93e

temporal_module.scales.0.1.bias f4 [32]
-0.0050410572 0.009647785 -0.029198198 0.010650733 -0.005055285 -0.014950542 -0.032857865 0.020150684
0.00784044 -0.012762985 -0.0010999878 0.02062648 -0.010928766 -0.013298161 -0.03140267 -0.020822162
0.021442153 0.0033139833 -0.006450255 -0.042301547 -0.028270513 -0.02141433 -0.015562545 -0.04211712
0.0057948697 -0.0151310675 0.0009964848 -0.02790784 -0.0032187155 0.01423645 0.00835097 -0.008902381
00000000: 742f a5bb be11 1e3c 0f31 efbc 6980 2e3c
00000010: cea6 a5bb 1ef3 74bc f895 06bd 0c13 a53c
00000020: 3075 003c d71b 51bc 772d 90ba ddf8 a83c
00000030: 910e 33bc 88e0 59bc 16a0 00bd 3d93 aabc
00000040: 74a7 af3c 6a2f 593b a95c d3bb 6344 2dbd
00000050: 9097 e7bc 1b6d afbc 0bfa 7ebc 0083 2cbd
00000060: e4e2 bd3b 4ce8 77bc 7b9c 823a fc9e e4bc
00000070: 16f1 52bb 0040 693c 82d2 083c 4bdb 11bc

temporal_module.scales.0.1.running_mean f4 [32]
-0.0486687 -0.12751675 0.10118311 0.05486885 0.055385362 0.13641992 0.09682283 -0.038362335
-0.033513147 -0.00914337 -0.003539399 0.018900253 0.109379984 0.14706923 0.045511313 -0.13833632
0.08594477 -0.032928128 -0.1923667 -0.10244581 -0.02229734 0.06554732 -0.14637575 0.15080331
0.052429356 0.114672214 0.061985485 0.053486384 -0.025610605 0.14168732 -0.0017835847 0.008610828
00000000: d558 47bd c093 02be 1739 cf3d 29be 603d
00000010: c3db 623d aab1 0b3e 0c4b c63d d321 1dbd
00000020: 1545 09bd 13ce 15bc 43f5 67bb b4d4 9a3c
00000030: 9d02 e03d 5199 163e 126a 3a3d 09a8 0dbe
00000040: d003 b03d a5df 06bd c7fb 44be 1ccf d1bd
00000050: e9a8 b6bc ac3d 863d 86e3 15be 2f6c 1a3e
00000060: 2ac0 563d 44d9 ea3d 7ee4 7d3d 8a14 5b3d
00000070: 55cd d1bc 7b16 113e 2cc7 e9ba 6e14 0d3c

temporal_module.scales.0.1.running_var f4 [32]
0.006509357 0.016471928 0.007152237 0.013771348 0.007385531 0.008903992 0.006536031 0.007860954
0.009862471 0.0073993634 0.011395295 0.016863944 0.004704515 0.014784581 0.013662419 0.012780094
0.0064795427 0.005807896 0.00993611 0.024205266 0.0060491497 0.00861565 0.008201202 0.010698733
0.008226599 0.009189684 0.012167406 0.013071598 0.0029104613 0.005887477 0.006233522 0.004330145
00000000: 724c d53b 23f0 863c 505d ea3b 38a1 613c
00000010: 5302 f23b 0de2 113c 342c d63b 3bcb 003c
00000020: 3496 213c 5c76 f23b 55b3 3a3c 4126 8a3c
00000030: 5528 9a3b 073b 723c 57d8 5f3c 9963 513c
00000040: 5852 d43b 2a50 be3b 11cb 223c 1f4a c63c
00000050: f237 c63b a828 0d3c 565e 063c bd49 2f3c
00000060: dbc8 063c 5490 163c cd59 473c 412a 563c
00000070: 70bd 3e3b bdeb c03b 9342 cc3b e4e3 8d3b
