save_all/MSTAGAT-Net.nhs_timeseries.w-20.h-3.no_mtfm.pt (torch, 69871 bytes, 43 tensors)

temp_conv.depthwise.weight f4 [1, 1, 3]
0	0x3d7f1ef5	0.062285382
1	0x3e2f3f8d	0.17114086
2	0xbe055b3c	-0.13023084

temp_conv.pointwise.weight f4 [16, 1, 1]
0	0xbd0c4c3a	-0.034252383
1	0x3d2b186b	0.041771334
2	0xbce3189e	-0.0277217
3	0x3d2785e3	0.04089917
4	0x3d464315	0.04840382
5	0xbd0fb82e	-0.035087757
6	0x3d377669	0.04479066
7	0x3d232b3a	0.039836146
8	0x3d39a77e	0.04532575
9	0x3d3f306d	0.04667704
10	0x3d3155b4	0.043294623
11	0xbd04b7b2	-0.032401748
12	0x3d3a8008	0.045532256
13	0x3d2a36c6	0.041556142
14	0xbcffaeab	-0.031211218
15	0x3d3628fe	0.044472687

temp_conv.pointwise.bias f4 [16]
0	0xb33ba45c	-4.3688814e-08
1	0x356d9cd5	8.85176e-07
2	0xb3b7dfda	-8.56232e-08
3	0x3665f504	3.4266277e-06
4	0xb8bfbdac	-9.142919e-05
5	0x33360dcf	4.2387736e-08
6	0x34bfac4c	3.5701885e-07
7	0xb4ebe804	-4.3940975e-07
8	0xb416e1db	-1.4052004e-07
9	0xbaf9149e	-0.0019003337
10	0x3a285ed8	0.0006422824
11	0xb992228a	-0.00027873024
12	0x38853863	6.352437e-05
13	0xb48f47d7	-2.6688096e-07
14	0x32c418ec	2.2828736e-08
15	0x351a5162	5.74879e-07

temp_conv.bn2.weight f4 [16]
0	0x3d63de36	0.05563184
1	0x3da4a9a9	0.080401726
2	0x3d2ee42a	0.042698063
3	0x3d97140f	0.07376873
4	0x3dc8b71f	0.098005526
5	0x3d69856d	0.05701201
6	0x3daf6526	0.085642144
7	0x3d9d21b2	0.076724425
8	0x3db1102c	0.08645663
9	0x3dbb7f6d	0.09155164
10	0x3da417fa	0.08012386
11	0x3d574354	0.052554443
12	0x3dafc69f	0.08582806
13	0x3da681fb	0.081302606
14	0x3d4f2b47	0.050578382
15	0x3da65aa7	0.08122759

temp_conv.bn2.bias f4 [16]
0	0x3d19c2dd	0.03753935
1	0x3c114eae	0.008868856
2	0x3ce696c1	0.028148057
3	0x3c33fae7	0.010985113
4	0x3c04f844	0.008115832
5	0x3d1d8bc6	0.038463376
6	0x3bc220b7	0.00592431
7	0x3c3673c3	0.011135998
8	0x3cc1c7ef	0.023654906
9	0x3c9ddd49	0.019270556
10	0x3cb8fe52	0.022582207
11	0x3d0af0cd	0.03392105
12	0x3c52acbe	0.012858568
13	0x3c2e59e7	0.010641552
14	0x3d0810d9	0.033219192
15	0x3c56b714	0.013105173

temp_conv.bn2.running_mean f4 [16]
0	0xbb15e45b	-0.0022871706
1	0x3b39c943	0.002834872
2	0xbaf18c40	-0.0018428639
3	0x3b31fb20	0.0027157739
4	0x3b4ebae4	0.00315445
5	0xbb187d23	-0.0023267947
6	0x3b443f7d	0.0029945069
7	0x3b2dd2e0	0.0026523396
8	0x3b44a6e7	0.0030006708
9	0x3a995121	0.0011697152
10	0x3b6bdd5b	0.0035990092
11	0xbb219d08	-0.0024660248
12	0x3b4ad18a	0.003094765
13	0x3b33ac10	0.002741579
14	0xbb07a95c	-0.0020700311
15	0x3b4039cb	0.0029331322

temp_conv.bn2.running_var f4 [16]
0	0x379e90a6	1.8902425e-05
1	0x37f32fd9	2.8990138e-05
2	0x374e3ffb	1.2293453e-05
3	0x37de67c1	2.6512776e-05
4	0x38200ee1	3.816083e-05
5	0x37a41aea	1.9562856e-05
6	0x38079a60	3.233028e-05
7	0x37d4d1c7	2.5370055e-05
8	0x380828b7	3.2462845e-05
9	0x3817994b	3.614397e-05
10	0x3800e393	3.0729523e-05
11	0x378ec4af	1.7019307e-05
12	0x380a791e	3.3014563e-05
13	0x37e33a1e	2.7087572e-05
14	0x3781ff9c	1.5497026e-05
15	0x38020306	3.099723e-05

feature_process_low.weight f4 [8, 320]
0	0xba488c23	-0.00076502765
1	0xb94b0250	-0.0001936045
2	0x3a72c7fa	0.0009261366
3	0xb918b5ea	-0.00014563618
4	0x3824a583	3.925479e-05
5	0xb901a281	-0.00012362936
6	0x38bc57a1	8.980861e-05
7	0xbaaa616b	-0.0012999004
8	0xba8fb0fa	-0.0010962777
9	0xb9a4b8c6	-0.00031418185
10	0xba4fbdb5	-0.0007924692
11	0xba2c66bf	-0.00065765897
12	0xb850478c	-4.9657698e-05
13	0xb9d71212	-0.0004102146
14	0xb9abf151	-0.00032795456
15	0x397261c1	0.00023115335
16	0x3a1a3521	0.00058825506
17	0x3a1581ef	0.00057032605
18	0x3a7136d4	0.00092015904
19	0x3b8eae07	0.004354242
20	0xb7b502a0	-2.1578104e-05
21	0x38864a23	6.403427e-05
22	0x39cd93b7	0.00039210703
23	0xb9a4df9f	-0.00031447128
24	0xb7828fe6	-1.5564216e-05
25	0x39dbeb78	0.00041946373
26	0xba989eaf	-0.0011643971
27	0x39e374c6	0.00043383817
28	0x39fbc4fd	0.00048021218
29	0x3a12cae6	0.0005599692
30	0x3929ecd2	0.00016205318
31	0xb894ddc2	-7.0984956e-05
32	0xb9244c57	-0.00015668698
33	0x395fcf68	0.00021344202
34	0xba142688	-0.00056514936
35	0xb8033531	-3.1282372e-05
36	0xba7ce17e	-0.0009646638
37	0xba920e33	-0.0011143148
38	0xbab20b39	-0.0013583667
39	0xbc033efc	-0.008010622
40	0xb9c2b4a3	-0.00037137148
41	0x39ff98d1	0.00048751247
42	0xb909a3c1	-0.00013126341
43	0x39a2ea14	0.0003107345
44	0x3a083c5f	0.0005196984
45	0xb9a1d9ce	-0.0003087059
46	0xb8981765	-7.2522824e-05
47	0xba3bdd0b	-0.0007166422
48	0xba133ff8	-0.0005617137
49	0xb9ac2f0d	-0.00032841452
50	0xb8dc0267	-0.00010490865
51	0xb8d91e25	-0.00010352981
52	0xba0735fb	-0.0005157885
53	0xb9dc5ca9	-0.00042030707
54	0xb6dce319	-6.5829486e-06
55	0x391f247d	0.00015177015
56	0x39eb9750	0.0004493543
57	0x38e0a3ea	0.00010711684
58	0x3a38a54a	0.0007043673
59	0x3b451242	0.0030070697
60	0xb88397f1	-6.274868e-05
61	0xb9c834ad	-0.0003818622
62	0x3a051231	0.0005076258
63	0x39f8ac6b	0.00047430707
64	0xb8217330	-3.8492668e-05
65	0x3a01d746	0.0004953038
66	0x39c909c0	0.00038344972
67	0x3a0169a5	0.0004936702
68	0x3a42306b	0.00074077275
69	0xb98a346c	-0.00026360468
70	0x3a775094	0.00094343093
71	0xb97face5	-0.00024383103
72	0xb8efb66e	-0.00011430388
73	0xb9a83fcc	-0.0003209099
74	0xb95194c8	-0.00019987219
75	0xb9db7307	-0.00041856637
76	0xba820c52	-0.0009921885
77	0xbae9fa83	-0.0017851148
78	0xbab835fe	-0.0014054177
79	0xbc001296	-0.007816931
80	0xb927adfa	-0.00015991172
81	0xb9a242eb	-0.00030948906
82	0x385571f3	5.088928e-05
83	0x393c62fe	0.00017965955
84	0x36ef1ca2	7.1260883e-06
85	0xba0d0953	-0.00053801126
86	0xba1da9bf	-0.0006014369
87	0x3a8726da	0.0010311261
88	0x390e7e25	0.00013589168
89	0xb942a533	-0.00018562823
90	0x3a6766c6	0.0008827265
91	0xb9b515e7	-0.0003453933
92	0xba56f9db	-0.00082006835
93	0x39c0d1b2	0.0003677733
94	0xb9dd07be	-0.00042158173
95	0xb8b368e6	-8.554924e-05
96	0xb80b6a8b	-3.323941e-05
97	0xba6ae88e	-0.0008961045
98	0xbaa83dc1	-0.0012835787
99	0xbc258683	-0.010102871
100	0xb8f95e7f	-0.000118908465
101	0x3a5f2c30	0.00085133594
102	0x39d2735b	0.00040140268
103	0x39e157e5	0.0004298083
104	0xb9f5bba2	-0.0004686984
105	0xb9fcdd6b	-0.00048230155
106	0xb9d365ff	-0.0004032105
107	0xba3afd70	-0.0007133102
108	0xba9a8700	-0.0011789501
109	0xbabb2132	-0.0014276861
110	0xba42b1f0	-0.00074270274
111	0x38a88472	8.035534e-05
112	0xba29f333	-0.0006483078
113	0x39897191	0.0002621529
114	0xba00df10	-0.00049160514
115	0xba122753	-0.0005575318
116	0x39bc3b41	0.00035902302
117	0x3a2e69ce	0.00066533394
118	0x3a52845d	0.0008030588
119	0x3b79104f	0.0038004105
120	0xb84277c7	-4.6364756e-05
121	0xb95051a9	-0.00019866847
122	0xba0b6417	-0.0005317344
123	0xb9c04982	-0.0003667586
124	0x37d14a5a	2.4949364e-05
125	0x393b2d4f	0.00017850588
126	0xb8c69ecf	-9.470956e-05
127	0x3a381a2b	0.00070229423
128	0xb9e39227	-0.00043405706
129	0x3a6132cb	0.00085906376
130	0xb9274621	-0.00015952486
131	0x39836d6e	0.000250678
132	0x399c50e1	0.00029814898
133	0x38feb782	0.00012145845
134	0xb9087526	-0.00013013612
135	0xba70b6b0	-0.0009182496
136	0xba47cd6b	-0.0007621857
137	0xba236446	-0.00062328984
138	0xbac6c9ea	-0.0015166376
139	0xbc06ac12	-0.008219736
140	0xb847e2c0	-4.7656475e-05
141	0x38d815e7	0.00010303762
142	0x39fdb31f	0.00048389376
143	0xb9be6e1e	-0.00036321668
144	0xb8d06b2c	-9.938175e-05
145	0xb8d56d10	-0.00010176946
146	0xb8e9465c	-0.00011123411
147	0xb97bb9f7	-0.00024006503
148	0x39df1659	0.00042550525
149	0xb83daf9c	-4.522466e-05
150	0x3a373593	0.0006988879
151	0x3a30ec02	0.0006749035
152	0xb9b96583	-0.00035361582
153	0xba13645b	-0.0005622559
154	0xb739ec13	-1.1081825e-05
155	0xba36ad84	-0.0006968605
156	0xba84afea	-0.0010123227
157	0xba2690ca	-0.0006353973
158	0xbac5e8b0	-0.0015099254
159	0xbc06dc9b	-0.008231307
160	0xb9938515	-0.0002813718
161	0xb9dfeb49	-0.00042709176
162	0xb96e4eed	-0.00022726851
163	0xb8fbdb44	-0.00012009454
164	0xb8ff9b0f	-0.000121882294
165	0x3a06a6ac	0.00051365304
166	0x399919b4	0.00029201584
167	0x3a160eaf	0.0005724234
168	0x39d9d61c	0.0004154899
169	0x39f4e189	0.00046707343
170	0x3a7d3e56	0.0009660473
171	0x3a0b198e	0.0005306237
172	0x392c02f4	0.00016404298
173	0x39b6dadf	0.00034876817
174	0xb9e94a12	-0.0004449641
175	0xba487740	-0.0007647164
176	0xba786f4e	-0.0009477035
177	0xbabc1544	-0.0014349599
178	0xbae8540c	-0.0017725243
179	0xbc09a0c5	-0.008400147
180	0x3888c48e	6.5215965e-05
181	0xbac41d6d	-0.0014962383
182	0x395497ca	0.00020274441
183	0xb9f6c184	-0.00047064957
184	0x39ce9dfe	0.00039409095
185	0x3a5a0233	0.0008316368
186	0x3a507d19	0.00079532113
187	0x39cdbda2	0.00039241934
188	0x3a6d8277	0.00090602733
189	0x3a91f3a7	0.0011135236
190	0x3a390b95	0.0007058916
191	0x3abc07af	0.0014345552
192	0xba3a0723	-0.00070964004
193	0x39c887a4	0.00038248033
194	0xb9c42fba	-0.00037419592
195	0xb89a9a5c	-7.372044e-05
196	0xba9eacfb	-0.0012105996
197	0xbabf2c26	-0.0014585301
198	0xbabfc3fe	-0.0014630554
199	0xbc261a2b	-0.010138075
200	0xb87c69e2	-6.0180093e-05
201	0x38aaa55e	8.137034e-05
202	0xb9406115	-0.00018346713
203	0xb914edda	-0.00014202986
204	0x399cfade	0.0002994155
205	0x3a1a64f4	0.0005889677
206	0x39825d3c	0.00024864997
207	0x3a615597	0.0008595823
208	0x3a055c60	0.00050873123
209	0x3a1e7dab	0.00060459477
210	0x3a11aa12	0.00055566535
211	0x39eed17e	0.0004555098
212	0x39033254	0.00012511882
213	0xba2d0bdb	-0.0006601193
214	0xb9e130a4	-0.00042951584
215	0xba0db2df	-0.0005405377
216	0xba5d711f	-0.00084473373
217	0xbaa08646	-0.0012247048
218	0xbadfa30f	-0.0017062145
219	0xbc19f9ba	-0.009397918
220	0x393a34a0	0.00017757947
221	0x3a5691aa	0.0008185158
222	0xb95d884a	-0.00021126974
223	0xb9c41a02	-0.0003740341
224	0x39b5b4e1	0.00034657776
225	0xb7cb07e9	-2.420317e-05
226	0xba7afd0e	-0.0009574451
227	0xba23412a	-0.0006227667
228	0xba319cab	-0.00067753595
229	0xba8607bc	-0.0010225694
230	0xba1ccfc6	-0.00059818884
231	0xb9ee880a	-0.00045496254
232	0x3870212e	5.725136e-05
233	0xb9496e77	-0.00019210005
234	0x3780b5fd	1.5343534e-05
235	0x38e4b6fe	0.00010905972
236	0x38dba037	0.00010472576
237	0x3a0ee236	0.0005450578
238	0x3a46b2e6	0.00075797585
239	0x3b63870d	0.0034717948
240	0x3929955c	0.00016172737
241	0xb9bb3a6d	-0.0003571095
242	0x398fa330	0.0002739667
243	0x39cc0e5b	0.00038920608
244	0x39bb86a4	0.00035767735
245	0x39eaf705	0.00044816002
246	0x3a00b82d	0.0004910257
247	0x39bd1aa7	0.00036068747
248	0x38d1ad93	9.998227e-05
249	0x3a0d95a8	0.00054010237
250	0x393316c1	0.00017079247
251	0x3a49f2ad	0.0007703703
252	0x3a20060e	0.0006104418
253	0x3958ed90	0.00020687864
254	0xb9ff7bd9	-0.00048729664
255	0xba5d6965	-0.0008446186

feature_process_low.bias f4 [8]
0	0x3a15f1a3	0.00057199056
1	0x39f0031f	0.00045778693
2	0x3c6eda5a	0.014578426
3	0xbb0e8752	-0.0021748138
4	0x3bcca25f	0.006244942
5	0xbc854c5d	-0.016271764
6	0x3c591992	0.013250725
7	0xbbbfe861	-0.005856559

feature_process_high.weight f4 [32, 8]
0	0xbc9bf979	-0.019039856
1	0x3947ac42	0.0001904229
2	0x3c1f6d72	0.009730684
3	0xbb0baa51	-0.0021311233
4	0x3c4cd558	0.012502037
5	0xbb0a2989	-0.0021081886
6	0x3d54e437	0.051975455
7	0x3aafa1b3	0.001339963
8	0x39bdfa42	0.00036235346
9	0x370d4c6c	8.422048e-06
10	0x3a4e5903	0.000787154
11	0xb99657e4	-0.00028675713
12	0x3abae10e	0.0014257745
13	0xb92b7772	-0.00016352328
14	0xbb8963fe	-0.004192828
15	0xb955d333	-0.00020391941
16	0x3bfd5c32	0.007731938
17	0xb9f3a85c	-0.0004647401
18	0xbd3d0874	-0.04615064
19	0x3c528fe6	0.012851691
20	0xbd6950dc	-0.05696188
21	0x3d2dd5b4	0.04244013
22	0xbdcd347d	-0.10019777
23	0x3d0dc260	0.0346092
24	0xb7f4a8d4	-2.9165683e-05
25	0xb8398925	-4.4235163e-05
26	0xba91d9e2	-0.0011127556
27	0x3a0f8b7d	0.00054758025
28	0x3a340960	0.0006867852
29	0x3a2f710b	0.0006692565
30	0xbb853a6a	-0.0040658014
31	0xba0ce7fe	-0.00053751457
32	0xb89175a7	-6.936053e-05
33	0x37ed1618	2.826289e-05
34	0x39f16e76	0.00046049402
35	0x38de9011	0.000106126194
36	0x3a81dd81	0.0009907932
37	0xb8a8052a	-8.011826e-05
38	0xbb0eef16	-0.0021809987
39	0xb991ce36	-0.00027810194
40	0xbb1c673b	-0.002386524
41	0xb85568cb	-5.0880753e-05
42	0xba88cdc8	-0.0010437304
43	0x3a056197	0.00050880894
44	0x38b2fbad	8.53458e-05
45	0x3a5010f5	0.0007937097
46	0xbb69b569	-0.0035661107
47	0x3a244bc4	0.00062673935
48	0x39131f96	0.00014030779
49	0x38035a5d	3.131699e-05
50	0x38ff8f13	0.00012185997
51	0xb8dff1fe	-0.00010678543
52	0x3adb3cbe	0.0016726477
53	0xb8296927	-4.039067e-05
54	0xbb0d4091	-0.0021553377
55	0x35e6bd18	1.7191369e-06
56	0x3968370f	0.00022145755
57	0x385acc58	5.216556e-05
58	0x3af45efb	0.0018644029
59	0xba7ef536	-0.00097258703
60	0x3b3f53f1	0.002919432
61	0xba2b74ef	-0.0006540557
62	0xbb2d4607	-0.0026439445
63	0xba8976e0	-0.0010487698
64	0xb99ccde4	-0.0002990804
65	0xb8516236	-4.992095e-05
66	0xbab4d995	-0.0013797755
67	0x3a3ff512	0.000732259
68	0x37f705f0	2.944746e-05
69	0x3a319039	0.0006773505
70	0xbb4ab631	-0.0030931348
71	0x3a493586	0.0007675517
72	0x39f18bb9	0.00046071204
73	0x34ca638d	3.7697865e-07
74	0x3985d703	0.00025527933
75	0x384522ee	4.700099e-05
76	0x3a69b668	0.0008915425
77	0x3886d2d9	6.428891e-05
78	0xbb6b88a4	-0.0035939598
79	0xb9a69e89	-0.00031780105
80	0xbc988232	-0.01861677
81	0xb8a83bf6	-8.022033e-05
82	0xbd67df8b	-0.05660967
83	0x3c454b4c	0.012041878
84	0xbe0be8f3	-0.13663082
85	0x3c8f88e3	0.017521327
86	0x3d3badac	0.045819923
87	0x3d302e4a	0.043012895
88	0x3a4f905b	0.0007917934
89	0x3a62a333	0.00086455344
90	0x3d8dd327	0.0692504
91	0xbd06f5d4	-0.032949284
92	0x3da56c5c	0.080773085
93	0xbcf03ef0	-0.029326886
94	0x3dc4692e	0.09590374
95	0xbd502bd9	-0.050823066
96	0x3a1b8ae3	0.00059334765
97	0xb846068f	-4.7212987e-05
98	0xbaac35b2	-0.0013138561
99	0x3a707a81	0.0009173528
100	0x388bf54f	6.673729e-05
101	0x3a4d099a	0.000782156
102	0xbafd0b83	-0.0019305799
103	0xba4eddbd	-0.0007891318
104	0x3b82a2ab	0.0039866767
105	0xb8503240	-4.9637863e-05
106	0xbad33a8c	-0.0016115471
107	0x387d4135	6.038063e-05
108	0x3b96a84c	0.0045976993
109	0x3b1342bd	0.00224702
110	0x3b8bc4a1	0.0042653834
111	0x3ade100c	0.0016942038
112	0xb7bef1a0	-2.276228e-05
113	0xb827a92e	-3.9973464e-05
114	0xbad60990	-0.0016329754
115	0x3a2bfb8d	0.00065606163
116	0xb8bbef45	-8.961422e-05
117	0x3a5387d3	0.00080692506
118	0xbb490a09	-0.0030676147
119	0x3aa0d326	0.0012269958
120	0xb8087256	-3.253141e-05
121	0x37b411ff	2.1466052e-05
122	0x3a9ec1d0	0.0012112204
123	0xb935bca5	-0.0001733178
124	0x3b0308f9	0.0019994362
125	0xb9f83325	-0.00047340352
126	0xbaf8ccc7	-0.0018981927
127	0xba81006f	-0.0009842048
128	0xbb99a8df	-0.0046893205
129	0xb8dd1687	-0.00010542297
130	0xbb2bae35	-0.0026196365
131	0x3a6478f6	0.00087155343
132	0x3c559e34	0.013038207
133	0x3bc8c5ce	0.006127096
134	0x3bde373f	0.006781488
135	0x3b933a53	0.004493037
136	0xb93bd63f	-0.00017913523
137	0xb84bc624	-4.8583504e-05
138	0xba7e5903	-0.0009702595
139	0x3a38da3f	0.0007051564
140	0x3a358c48	0.00069255056
141	0x3a18316a	0.0005805703
142	0xbb883963	-0.0041572317
143	0x3acb7207	0.0015521654
144	0xb9ab0222	-0.0003261725
145	0xb7190399	-9.120348e-06
146	0xba1f57fe	-0.00060784805
147	0x39c819cd	0.00038166196
148	0x388a4aa2	6.594254e-05
149	0x39d23ff3	0.00040101967
150	0xbb08fde5	-0.0020903286
151	0x3a22fdf8	0.0006217654
152	0xb99454ac	-0.00028291845
153	0x3579d2a3	9.3066245e-07
154	0xb7c3617a	-2.3291203e-05
155	0x398d45de	0.0002694567
156	0x39dcce86	0.00042115542
157	0x39731db3	0.0002318535
158	0xbacae605	-0.0015479928
159	0x39d02940	0.00039703585
160	0x3a43f481	0.00074750936
161	0x38923dfd	6.973369e-05
162	0x3b9693f6	0.004595275
163	0xba6717be	-0.00088154885
164	0xbc024eb9	-0.007953339
165	0xbb2afb7c	-0.0026089838
166	0xbbbc4b51	-0.005746283
167	0xbb833fb8	-0.0040053986
168	0xbc818ef6	-0.01581524
169	0xb84aff15	-4.8398117e-05
170	0xba9059dd	-0.001101311
171	0x39a9750a	0.00032321393
172	0x3af750f3	0.0018868729
173	0x3a2b9064	0.0006544648
174	0xbbce402c	-0.006294271
175	0xba2d9855	-0.00066221255
176	0x38e43533	0.00010881796
177	0xb78b46d6	-1.6603077e-05
178	0xba16c662	-0.0005751607
179	0x39cb6854	0.00038796908
180	0x39c3be90	0.00037335278
181	0x39b0839e	0.00033667398
182	0xbb2cbcfe	-0.0026357765
183	0x3a0f16f8	0.00054584397
184	0x38c27f68	9.274372e-05
185	0x37e11c0a	2.6835147e-05
186	0x3a650efe	0.0008737891
187	0xb9c876e6	-0.0003823556
188	0x3aef5148	0.0018258477
189	0xb980a352	-0.00024535746
190	0xbb29c547	-0.002590494
191	0xba707a6e	-0.0009173517
192	0xb90cb8ec	-0.00013420329
193	0x37070012	8.046643e-06
194	0x39065718	0.00012811681
195	0x388951ca	6.5479035e-05
196	0x3a71dc8d	0.0009226285
197	0x38a98cd1	8.084777e-05
198	0xbb065e66	-0.0020503043
199	0xb95d2cbb	-0.00021092866
200	0x3aaaaa65	0.0013020752
201	0xb8ceb59f	-9.856675e-05
202	0xba237ce9	-0.00062365696
203	0xb9ecf28c	-0.0004519414
204	0x3c0435a5	0.0080694305
205	0x3a987395	0.0011631126
206	0xbadbada0	-0.0016760118
207	0xba4a745a	-0.0007723026
208	0xbb9a2cf8	-0.0047050677
209	0xb7a41c1e	-1.9563417e-05
210	0xba8cd384	-0.0010744189
211	0x3a0bea19	0.00053373125
212	0x3932f389	0.00017066127
213	0x3a2ef655	0.00066742796
214	0xbb6d4bef	-0.003620859
215	0x3a0e3d7f	0.0005426034
216	0xb9efeae9	-0.00045760654
217	0xb74add62	-1.2091683e-05
218	0xba6841fe	-0.0008859931
219	0x3a022682	0.00049648446
220	0xb781d392	-1.5476518e-05
221	0x3a019009	0.00049424224
222	0xbade9204	-0.0016980772
223	0x3a5f6582	0.0008521901
224	0xb9856c68	-0.00025448506
225	0xb7444e5f	-1.1700758e-05
226	0xb963a35a	-0.0002170926
227	0x396c445f	0.00022532184
228	0x39fe737d	0.000485327
229	0x3998c75e	0.0002914024
230	0xbb195f3b	-0.002340271
231	0x393683b3	0.00017405934
232	0xb9dd84c1	-0.00042251314
233	0xb7e97aec	-2.7833004e-05
234	0xba961653	-0.0011450745
235	0x3a2b1892	0.00065267936
236	0xb9986d5a	-0.00029073172
237	0x3a39fe1b	0.00070950546
238	0xbb1a96dc	-0.0023588454
239	0x3a93bf2b	0.0011272182
240	0xb98ff206	-0.00027455407
241	0xb8421dd5	-4.6280988e-05
242	0xbaaeb11a	-0.0013327927
243	0x3a46c520	0.00075824745
244	0x39859663	0.00025479784
245	0x3a5cc44d	0.0008421585
246	0xbb5bdd70	-0.0033548735
247	0x3a3194db	0.00067741954
248	0xb9e922bd	-0.00044467105
249	0xb8309237	-4.2097843e-05
250	0xbab65b66	-0.0013912737
251	0x3a41cf8c	0.00073932926
252	0xba05f818	-0.0005110516
253	0x3a40dde4	0.0007357283
254	0xbb47513a	-0.0030413405
255	0x39f8cae5	0.00047453414

feature_process_high.bias f4 [32]
0	0x3c9661d5	0.018357197
1	0x3c6dc88e	0.014513148
2	0x3c194393	0.00935449
3	0x3c661293	0.014042514
4	0x3c6ebee8	0.014571883
5	0x3c6b2b1c	0.01435354
6	0x3c6f65a4	0.014611635
7	0x3c757342	0.014981093
8	0x3c6b6a05	0.014368539
9	0x3c6d0657	0.014466844
10	0x3c7bba91	0.015364305
11	0x3d81ae6b	0.06332096
12	0x3c6dd9e8	0.014517285
13	0x3c712998	0.014719389
14	0x3c6c9324	0.014439378
15	0x3c6efa5f	0.01458606
16	0x3c79cd34	0.015246678
17	0x3c6aed87	0.0143388575
18	0x3c6d2f24	0.014476571
19	0x3c6c472c	0.014421266
20	0x3c51b052	0.012798386
21	0x3c69f04f	0.014278485
22	0x3c6ae097	0.014335773
23	0x3c6d294e	0.01447518
24	0x3c6e7857	0.014555058
25	0x3c7c763c	0.015409049
26	0x3c6bc0b7	0.0143892085
27	0x3c6d3185	0.014477138
28	0x3c6be051	0.014396743
29	0x3c6d277a	0.014474744
30	0x3c6a2b22	0.01429251
31	0x3c6bc749	0.014390775

feature_norm.weight f4 [32]
0	0x3d842b2f	0.06453549
1	0x3b0eb491	0.0021775106
2	0x3e538529	0.20656265
3	0x3bbeea1c	0.005826248
4	0x3b4025c9	0.0029319397
5	0x3b84f916	0.0040580137
6	0x3b33ac29	0.0027415848
7	0x3b1c2548	0.0023825932
8	0x3bed7808	0.007246975
9	0x3b0ed90f	0.0021796857
10	0x3eb569fa	0.35432416
11	0x3e7d1c7c	0.24717897
12	0x3c071c97	0.008246562
13	0x3c1fc322	0.009751113
14	0x3b9c7c6d	0.004775575
15	0x3b10b7aa	0.0022082129
16	0x3c53c923	0.012926373
17	0x3b8d7486	0.004316869
18	0x3b3fd421	0.0029270726
19	0x3b2f6dcd	0.0026768327
20	0x3bf0d4f7	0.007349606
21	0x3c020ed4	0.007938106
22	0x3b0ea2c7	0.0021764503
23	0x3b13690c	0.0022493033
24	0x3b25f80a	0.0025324845
25	0x3c886869	0.01665135
26	0x3ba3545c	0.0049844217
27	0x3b38ac05	0.0028178704
28	0x3b13850e	0.0022509727
29	0x3b269af0	0.002542194
30	0x3b4e49e8	0.0031477157
31	0x3b6f5383	0.0036518283

feature_norm.bias f4 [32]
0	0x3c0e16c2	0.008672418
1	0xb3ba4302	-8.6734886e-08
2	0x3d358b82	0.0443225
3	0x392a67b7	0.000162511
4	0xb632ca6a	-2.6641887e-06
5	0x357d39eb	9.4334126e-07
6	0xb648f499	-2.9944697e-06
7	0xb5050c92	-4.9564653e-07
8	0x33fb792d	1.171014e-07
9	0x32d82939	2.5164455e-08
10	0x3d8651b0	0.065585494
11	0x3cba3257	0.022729082
12	0xb505a8bc	-4.97919e-07
13	0x3a33f87f	0.0006865337
14	0xb5cbc738	-1.5182659e-06
15	0xa8abf1b1	-1.908963e-14
16	0x3afc01f4	0.0019226656
17	0xb41d474c	-1.4647702e-07
18	0x3601c845	1.933907e-06
19	0x328ad8b2	1.6163856e-08
20	0x3ac7bfef	0.0015239696
21	0x3623f8cc	2.4433712e-06
22	0xb30da30b	-3.2977407e-08
23	0xafe8ccdf	-4.2346124e-10
24	0xb5863978	-1.0000504e-06
25	0x3b3ea32a	0.0029088953
26	0x365beca0	3.2771277e-06
27	0x3190adf9	4.21073e-09
28	0x31cf2505	6.0287015e-09
29	0x343e3b8e	1.7716795e-07
30	0x3426acf1	1.552287e-07
31	0xb468149b	-2.161418e-07

graph_attention.u f4 [4, 7, 8]
0	0x30cb221a	1.4779886e-09
1	0x308e478f	1.0352198e-09
2	0x304eb21e	7.5195483e-10
3	0xb0445154	-7.141996e-10
4	0xb1497bcf	-2.9319727e-09
5	0x31a793e3	4.8771525e-09
6	0x2f2e01a2	1.5825788e-10
7	0x2f1eb5ee	1.4434651e-10
8	0xb112b226	-2.1347062e-09
9	0xaf0e9eea	-1.2971282e-10
10	0x300803ae	4.948174e-10
11	0x311a2d16	2.2435578e-09
12	0xaf324663	-1.6214012e-10
13	0xb09e1009	-1.150057e-09
14	0xb1621594	-3.2899594e-09
15	0xb0b8d9ee	-1.3449701e-09
16	0xb14c73c0	-2.9751703e-09
17	0xb1a10d33	-4.6872173e-09
18	0x308300c5	9.531723e-10
19	0x303df13a	6.9100603e-10
20	0x2fc35a97	3.553466e-10
21	0x307062ba	8.745179e-10
22	0x30c20f9c	1.4119794e-09
23	0xb06d4d10	-8.632961e-10
24	0xb0c9ecf0	-1.4692016e-09
25	0x30c28741	1.4153799e-09
26	0xaf134a69	-1.3396008e-10
27	0x30778899	9.0052193e-10
28	0x31b57d7f	5.2820606e-09
29	0xaff9bbc0	-4.542624e-10
30	0xb04faa3f	-7.5548096e-10
31	0x309aea5c	1.1271584e-09
32	0xaf1c7175	-1.4228425e-10
33	0x2eb30baa	8.1420495e-11
34	0x30b7ba36	1.3367927e-09
35	0x30750b83	8.914684e-10
36	0xb2c8efca	-2.3392108e-08
37	0xb059b8b8	-7.920664e-10
38	0x30c10862	1.4044981e-09
39	0x2f2d0fe6	1.5739907e-10
40	0x3061ded9	8.217121e-10
41	0x2f747a48	2.2235114e-10
42	0x32001864	7.456126e-09
43	0x310187b1	1.8849102e-09
44	0xad62aa8f	-1.2884484e-11
45	0xb06a8cea	-8.5328955e-10
46	0xb05239f8	-7.6479933e-10
47	0x303d31a3	6.882834e-10
48	0xb01dc3f1	-5.7394717e-10
49	0x2eb9257c	8.4194846e-11
50	0x2fc3affa	3.5595332e-10
51	0x30fdad63	1.8457452e-09
52	0x30db1b70	1.5942145e-09
53	0xae7945db	-5.667809e-11
54	0xb0db0df4	-1.5938313e-09
55	0x311ac252	2.2520408e-09
56	0x3497bf6a	2.8265214e-07
57	0x34034d81	1.2228521e-07
58	0x33691bfb	5.4274988e-08
59	0x3417525f	1.4092937e-07
60	0x33baa0d4	8.6905544e-08
61	0xb462e07d	-2.1129559e-07
62	0xb3537116	-4.9230117e-08
63	0x3459924e	2.0262925e-07
64	0xb0f468c8	-1.7783117e-09
65	0xb3cbd314	-9.491319e-08
66	0x33e762aa	1.07747226e-07
67	0x342adae8	1.5912121e-07
68	0x343f2561	1.780186e-07
69	0x3391eecc	6.7955256e-08
70	0xb3ba1f20	-8.6669615e-08
71	0xb3813b02	-6.017764e-08
72	0xb3012985	-3.0072915e-08
73	0xb439cfc9	-1.730506e-07
74	0xb3544299	-4.9420667e-08
75	0xb3c25832	-9.0498716e-08
76	0x33561316	4.9843116e-08
77	0x33026f9a	3.0369485e-08
78	0xb280e857	-1.5006817e-08
79	0x31b0ae6d	5.142104e-09
80	0x3412c120	1.3667568e-07
81	0xb41cff8b	-1.4621598e-07
82	0xb3029335	-3.0401868e-08
83	0x34720b7b	2.2542183e-07
84	0xb20ff0fe	-8.378491e-09
85	0x33c37f73	9.103578e-08
86	0x33420a50	4.5178524e-08
87	0x34130cdf	1.3695124e-07
88	0xb10a06cd	-2.0085509e-09
89	0x35fb5d70	1.8728151e-06
90	0x3492344f	2.723268e-07
91	0x330da15a	3.297587e-08
92	0xb48f253e	-2.6662923e-07
93	0xb4848944	-2.468679e-07
94	0x338d7cb4	6.5885075e-08
95	0x33b1f1bc	8.286176e-08
96	0xb338603d	-4.2928367e-08
97	0x3209962d	8.008596e-09
98	0xb2e02246	-2.6092618e-08
99	0x3387c40a	6.322087e-08
100	0xb2bb47e1	-2.1802352e-08
101	0xb4b74749	-3.4138273e-07
102	0xb1c14e1a	-5.6259184e-09
103	0x33403cd6	4.4758814e-08
104	0x2fdb9d9e	3.9947862e-10
105	0x342c0173	1.6019276e-07
106	0xb4a1501e	-3.004688e-07
107	0xb2bbe8dc	-2.1875557e-08
108	0xb38fc280	-6.694336e-08
109	0xb36ab850	-5.4650002e-08
110	0xb513bc07	-5.5035383e-07
111	0xb39318de	-6.849744e-08
112	0xb0da8eed	-1.590221e-09
113	0x31404c48	2.7983038e-09
114	0x31330995	2.6053375e-09
115	0xb01f9c40	-5.806591e-10
116	0x311c5190	2.274735e-09
117	0x2f557fcf	1.9417644e-10
118	0x2f6f6382	2.1772276e-10
119	0x30160f5e	5.459152e-10
120	0xb103a0f2	-1.9154496e-09
121	0xaf99f012	-2.8001118e-10
122	0xb15f41e6	-3.248823e-09
123	0xb1d9f49c	-6.34334e-09
124	0xb0b3c3df	-1.3079634e-09
125	0x31f51efc	7.133961e-09
126	0x318d7862	4.117326e-09
127	0xb1347786	-2.6261389e-09
128	0x2fb1a5d2	3.2313935e-10
129	0xb20e1fc8	-8.272714e-09
130	0xb2e9c0ae	-2.721239e-08
131	0x314ae843	2.9526894e-09
132	0xb283e684	-1.5355234e-08
133	0xaf3c08c4	-1.7101615e-10
134	0x305947a8	7.904597e-10
135	0x319a5457	4.491578e-09
136	0x3127b001	2.4401745e-09
137	0x318cafaf	4.094509e-09
138	0x3115fa85	2.1824758e-09
139	0x3156a51e	3.1234957e-09
140	0x310dd617	2.0639896e-09
141	0xb1aa8a7a	-4.963394e-09
142	0x317a3d4b	3.641463e-09
143	0x322706bb	9.72221e-09
144	0x319f6fef	4.6402344e-09
145	0x31fc371c	7.3404305e-09
146	0x2f813261	2.350076e-10
147	0x300151cc	4.7046167e-10
148	0xb20b2d3c	-8.10115e-09
149	0xb0abf124	-1.2510424e-09
150	0x30b667f9	1.3271794e-09
151	0x31da1975	6.347529e-09
152	0xb053abde	-7.700559e-10
153	0xb11f9b6f	-2.32259e-09
154	0xb130935b	-2.5695133e-09
155	0x304fc146	7.558082e-10
156	0xb1a0b3bd	-4.6770467e-09
157	0xb06ae882	-8.545912e-10
158	0x30269436	6.060107e-10
159	0xb3a24e76	-7.557985e-08
160	0x3019e590	5.5987304e-10
161	0xb15e2610	-3.2326888e-09
162	0xb21d4db0	-9.156267e-09
163	0x3032995f	6.4973976e-10
164	0x30ddf42b	1.6149263e-09
165	0xb039dc0f	-6.761533e-10
166	0x3129c145	2.4702598e-09
167	0xb16e08c3	-3.4638539e-09
168	0xb0ac2999	-1.252647e-09
169	0xb0272b5b	-6.081586e-10
170	0x2fc7ad83	3.6321177e-10
171	0x2f9d517b	2.861603e-10
172	0x31cd3cf9	5.973217e-09
173	0xafded1ae	-4.053055e-10
174	0xb26aa28d	-1.3657552e-08
175	0xb06f2ff0	-8.7015817e-10
176	0x301041ae	5.248023e-10
177	0xb08676da	-9.783563e-10
178	0xb0d7fc97	-1.5715099e-09
179	0x2faf607a	3.1900865e-10
180	0xad9a13d6	-1.7516582e-11
181	0x2ec186e8	8.800588e-11
182	0x309f3ce6	1.1586081e-09
183	0xb008441d	-4.9573307e-10
184	0x2f95dae8	2.7258484e-10
185	0xb0c38ef5	-1.4228748e-09
186	0xaf9bba06	-2.8326513e-10
187	0x2f215f02	1.4676618e-10
188	0x30d1f4b9	1.5276306e-09
189	0x2fbf99b7	3.4851919e-10
190	0x2fb42d57	3.2774025e-10
191	0x2fe1b09a	4.1052745e-10
192	0x30602145	8.1538004e-10
193	0x303732a1	6.664696e-10
194	0x30b36be0	1.3054624e-09
195	0xb22780b8	-9.749947e-09
196	0x2ffb6b25	4.5732765e-10
197	0x3015a644	5.444216e-10
198	0x311b0475	2.2558002e-09
199	0x310a5e48	2.0135236e-09
200	0xb0fc1123	-1.8340284e-09
201	0xb00cd42e	-5.123323e-10
202	0x30ccec6b	1.4910148e-09
203	0x30134f7d	5.359125e-10
204	0xafa05f34	-2.9171476e-10
205	0xae37ac80	-4.1762593e-11
206	0x2feccdfd	4.3074513e-10
207	0x3029dc22	6.179467e-10
208	0x308ea9e0	1.0380141e-09
209	0x2f919b44	2.648567e-10
210	0x30cde972	1.4982062e-09
211	0xaee4de16	-1.040769e-10
212	0xb16386a7	-3.3109389e-09
213	0xb0017180	-4.709122e-10
214	0x30a74ebb	1.2173226e-09
215	0xb10f167a	-2.0822015e-09
216	0xb009668d	-4.9986043e-10
217	0xb0026247	-4.7433385e-10
218	0x30db57d2	1.5959307e-09
219	0xaed4facb	-9.6851936e-11
220	0xb0c6a8ab	-1.4454334e-09
221	0xb0145a2a	-5.3970217e-10
222	0xaf61c3cb	-2.053319e-10
223	0xb04939f6	-7.320574e-10

graph_attention.v f4 [4, 8, 7]
0	0x372cd0bf	1.0300601e-05
1	0x36f13d0c	7.1894665e-06
2	0xb4f2df48	-4.523847e-07
3	0xb4bd6f98	-3.5285188e-07
4	0xb7062ec5	-7.997912e-06
5	0x368e1a89	4.235019e-06
6	0xb68d5ed3	-4.2131664e-06
7	0x368d1306	4.204342e-06
8	0x361234aa	2.178635e-06
9	0x36ebaad7	7.023434e-06
10	0xb6d93fed	-6.474546e-06
11	0xb6887f69	-4.0679483e-06
12	0xb75c79ae	-1.3141353e-05
13	0xb6899761	-4.100541e-06
14	0x36d4963f	6.3355833e-06
15	0x371d2558	9.366624e-06
16	0xb5048837	-4.937205e-07
17	0x35539df4	7.883348e-07
18	0xb65687d6	-3.1967552e-06
19	0xb644c96c	-2.932352e-06
20	0xb855d13d	-5.0978026e-05
21	0x37756105	1.4625727e-05
22	0x360ba7fe	2.0810398e-06
23	0x36575a7e	3.209017e-06
24	0xb5c4bc02	-1.4657855e-06
25	0xb65846e5	-3.2227774e-06
26	0xb62ed19b	-2.6050027e-06
27	0xb70b1ef8	-8.292256e-06
28	0x36b06fec	5.258238e-06
29	0xb54c8746	-7.619277e-07
30	0xb643f8c3	-2.9202063e-06
31	0x37417ea8	1.1533186e-05
32	0xb638ce8f	-2.753837e-06
33	0xb67352d4	-3.6258034e-06
34	0xb66c0058	-3.516694e-06
35	0x376c6bfe	1.409184e-05
36	0x3655574b	3.1790285e-06
37	0x367d14f8	3.7712143e-06
38	0xb7050c7d	-7.930325e-06
39	0xb630e825	-2.636117e-06
40	0xb7c428b1	-2.338397e-05
41	0xb6868f9a	-4.0102286e-06
42	0x371274b6	8.729452e-06
43	0x36b40773	5.3652852e-06
44	0x36a6c593	4.970186e-06
45	0x34a6444a	3.0969596e-07
46	0x372f62b8	1.0453798e-05
47	0xb58ce10c	-1.049631e-06
48	0xb66c666a	-3.5226353e-06
49	0x36c0f69b	5.7507546e-06
50	0x365df0e8	3.3071792e-06
51	0xb6917936	-4.3354476e-06
52	0x34a5d715	3.0890138e-07
53	0xb63a0457	-2.7718686e-06
54	0xb61859d5	-2.2702054e-06
55	0xb66c5f8c	-3.5222356e-06
56	0xba8047bd	-0.0009787005
57	0x3801699d	3.0854357e-05
58	0xb8bc35fe	-8.9745954e-05
59	0x38005b7a	3.0602772e-05
60	0xb9a96fe0	-0.00032317545
61	0x388d5187	6.7385896e-05
62	0x3953f6e8	0.00020214508
63	0xba07308b	-0.0005157075
64	0xb9868583	-0.00025657946
65	0x3967962b	0.00022085819
66	0x39984d8b	0.00029049473
67	0x393197aa	0.00016936535
68	0x382b3cdc	4.0826257e-05
69	0x39418965	0.00018457098
70	0xba806e70	-0.0009798538
71	0xb95c0451	-0.00020982443
72	0x39c71d81	0.0003797822
73	0x39936fb9	0.00028121265
74	0x392eb802	0.00016662481
75	0x385e1477	5.2947984e-05
76	0x38ee13fc	0.00011352447
77	0xb94c2d11	-0.00019471745
78	0xb84addc6	-4.8367096e-05
79	0x39cb18d5	0.0003873768
80	0x3440c643	1.795352e-07
81	0xb9d962d8	-0.0004146311
82	0x39983801	0.00029033425
83	0x37eeb556	2.8456252e-05
84	0xb93a260e	-0.00017752519
85	0xb92f1390	-0.00016696588
86	0xb89524b7	-7.111712e-05
87	0x373fdb9d	1.143562e-05
88	0xb9e43764	-0.00043528818
89	0x39adb3f5	0.0003313121
90	0x399964b6	0.0002925747
91	0xba667f07	-0.0008792732
92	0xb8e099df	-0.00010709813
93	0xb8cffbe1	-9.917445e-05
94	0x38ff70ed	0.000121803816
95	0xb9887d18	-0.00026033144
96	0x38566502	5.1115647e-05
97	0x394cc1fe	0.00019527224
98	0xb9493437	-0.00019188305
99	0xb9ba8cca	-0.0003558158
100	0x39ac0b6e	0.00032814912
101	0x3997dcaf	0.00028965386
102	0xb993baa3	-0.0002817708
103	0x39a5441f	0.00031522007
104	0x394e9b5d	0.00019703568
105	0xba801767	-0.00097726
106	0xb94c5a15	-0.00019488514
107	0xb89290ad	-6.9887705e-05
108	0x39ab335c	0.00032653927
109	0xb99fa6c1	-0.00030451085
110	0xb8ba94b9	-8.896873e-05
111	0x3940e81b	0.00018397013
112	0xb75af938	-1.3051838e-05
113	0xb738052c	-1.0968459e-05
114	0x377d4750	1.5096579e-05
115	0x369fd9bc	4.763917e-06
116	0x371ce530	9.3516865e-06
117	0xb54d885f	-7.65669e-07
118	0xb6283496	-2.506456e-06
119	0xb740cf1f	-1.1492316e-05
120	0xb70b322b	-8.296726e-06
121	0x37816663	1.5425676e-05
122	0x37eaf63e	2.800964e-05
123	0x37739f14	1.4520967e-05
124	0xb75608b1	-1.2757418e-05
125	0x37431033	1.1626677e-05
126	0xb731e3db	-1.0603074e-05
127	0xb778baa8	-1.4825411e-05
128	0x3737340b	1.0919767e-05
129	0x3759a17f	1.2971809e-05
130	0x37076adc	8.071507e-06
131	0x3715880d	8.912769e-06
132	0x374408d1	1.1684563e-05
133	0xb744dda5	-1.1734116e-05
134	0xb7637dfd	-1.3559588e-05
135	0xb34c7072	-4.759972e-08
136	0x37e3cf46	2.7157028e-05
137	0x371644c6	8.956709e-06
138	0xb6e970b7	-6.957063e-06
139	0x374624a0	1.1810247e-05
140	0xb813bda8	-3.5224162e-05
141	0xb8182c13	-3.628067e-05
142	0x3697335b	4.5061292e-06
143	0x362be3fb	2.5613688e-06
144	0x378ba324	1.664606e-05
145	0xb7507856	-1.2425784e-05
146	0x3715e847	8.935173e-06
147	0xb814594d	-3.5369118e-05
148	0xb7a6e7d1	-1.989669e-05
149	0x3453b0a9	1.9715175e-07
150	0x38097d31	3.277994e-05
151	0xb6fa434c	-7.458415e-06
152	0xb6abb039	-5.116712e-06
153	0x37d4df19	2.5376257e-05
154	0xb7353e97	-1.08030135e-05
155	0xb764bcfe	-1.3633862e-05
156	0x350d79fc	5.2704104e-07
157	0x37f9271e	2.9701328e-05
158	0x36f99903	7.438591e-06
159	0xb714047c	-8.8225315e-06
160	0x37468879	1.1833495e-05
161	0xb733e710	-1.072303e-05
162	0xb7622282	-1.3478684e-05
163	0x380e7616	3.3965414e-05
164	0x37ccdcbf	2.4421488e-05
165	0xb61c1dd1	-2.3263167e-06
166	0xb6644f2a	-3.4020727e-06
167	0x36beb393	5.6833464e-06
168	0x36740146	3.6359575e-06
169	0x35a7c6fb	1.250038e-06
170	0x35dd48b1	1.6486939e-06
171	0xb55522e1	-7.939944e-07
172	0xb5e30eba	-1.6917104e-06
173	0x34f32a8d	4.5293237e-07
174	0xb5fdb516	-1.8902672e-06
175	0x36196cb6	2.2862055e-06
176	0x351bacd2	5.7993486e-07
177	0x36b03164	5.2509586e-06
178	0x352f2955	6.5252726e-07
179	0xb5ea34fb	-1.7449778e-06
180	0x35051fa7	4.959242e-07
181	0xb68feb97	-4.2891584e-06
182	0x36197be4	2.287089e-06
183	0x3497b4d6	2.8257517e-07
184	0xb455a685	-1.989775e-07
185	0xb535bce5	-6.770263e-07
186	0xb5c6b313	-1.4804267e-06
187	0xb5c1ad2e	-1.4430022e-06
188	0xb5bc2c61	-1.4020007e-06
189	0x366732f4	3.445134e-06
190	0x360b7300	2.0779553e-06
191	0xb52dc1dd	-6.472963e-07
192	0x3500b1f4	4.794267e-07
193	0xb60d557b	-2.1060393e-06
194	0xb6708d16	-3.584491e-06
195	0xb7ba1f7b	-2.2187587e-05
196	0x36745a29	3.6411313e-06
197	0x360b7cfd	2.0785367e-06
198	0x36c3ea31	5.8387163e-06
199	0xb4998f98	-2.860295e-07
200	0xb62f0924	-2.6082353e-06
201	0xb5ad5a4b	-1.2915783e-06
202	0xb623e2fb	-2.4421013e-06
203	0x36190653	2.2802458e-06
204	0xb6cdbfa6	-6.131787e-06
205	0x36a9c452	5.059447e-06
206	0x333e6708	4.433153e-08
207	0xb61626a7	-2.237424e-06
208	0xb6ca9d89	-6.0384086e-06
209	0xb5d73dd7	-1.6036746e-06
210	0x363191e5	2.6459977e-06
211	0xb68a4778	-4.1210405e-06
212	0xb56887e4	-8.662448e-07
213	0x3534bd4c	6.733069e-07
214	0xb5eb7117	-1.7541778e-06
215	0xb7312b76	-1.0560141e-05
216	0xb72c1ed2	-1.0259175e-05
217	0x36828474	3.8897215e-06
218	0xb26e1690	-1.3858553e-08
219	0xb5af4816	-1.3059496e-06
220	0x34fb734d	4.6836286e-07
221	0x370fea12	8.577963e-06
222	0xb5e88231	-1.7323238e-06
223	0xb5b82504	-1.3719841e-06

graph_attention.qkv_proj_low.weight f4 [24, 32]
0	0xba97217e	-0.0011530367
1	0x336a6932	5.4578045e-08
2	0xbd1278aa	-0.035759605
3	0x394028a1	0.00018325682
4	0x37aad5ba	2.0365103e-05
5	0x3a204055	0.0006113102
6	0x38f842b9	0.000118379896
7	0xb6c15c9b	-5.762629e-06
8	0xbb226412	-0.0024778885
9	0x33954834	6.951487e-08
10	0xbdc37ad6	-0.095449135
11	0x3d69e2ce	0.057101063
12	0xb90dde56	-0.00013529634
13	0x386214d6	5.3902004e-05
14	0xb9014e9e	-0.00012331686
15	0x3626547e	2.4785109e-06
16	0x3b54d229	0.0032473898
17	0x387cbc14	6.0256643e-05
18	0xba392d3b	-0.000706393
19	0x32c08746	2.2413257e-08
20	0xb8b3ff96	-8.582992e-05
21	0xb6da445c	-6.5048644e-06
22	0x30c92d88	1.4637616e-09
23	0xb2b85666	-2.1459709e-08
24	0x364141dd	2.8797579e-06
25	0x3c4eec73	0.012629616
26	0x383c98f6	4.496515e-05
27	0x3333ae75	4.1835353e-08
28	0x3109e8e5	2.006851e-09
29	0x36a984de	5.0520603e-06
30	0x350fe6ed	5.360769e-07
31	0x377ecb7e	1.5186959e-05
32	0xbc677834	-0.01412778
33	0x33634d8d	5.2923088e-08
34	0x3c96863d	0.018374557
35	0x3663afc7	3.3927952e-06
36	0xb65012d2	-3.100537e-06
37	0x37923bf0	1.7432467e-05
38	0xb6519a18	-3.1233121e-06
39	0x3647ef56	2.9792623e-06
40	0xb89cb0eb	-7.471613e-05
41	0xb384b1b0	-6.17905e-08
42	0xbd893091	-0.066987164
43	0xbce9159e	-0.02845269
44	0x375ecd97	1.3280099e-05
45	0xb98faae8	-0.0002740242
46	0xb75c82b0	-1.314345e-05
47	0xb0db8830	-1.5973054e-09
48	0xba582a4f	-0.00082460506
49	0xb48a22e7	-2.5729898e-07
50	0xb6d8f878	-6.466227e-06
51	0xae81de67	-5.9057474e-11
52	0x3a4ec992	0.00078883127
53	0x366cb5d9	3.527259e-06
54	0x31c6e143	5.7881677e-09
55	0x33c9a59b	9.389915e-08
56	0x31aa6376	4.9589586e-09
57	0x3c0f8a45	0.008760993
58	0xb68ba96e	-4.162247e-06
59	0xb2ab5d26	-1.9949379e-08
60	0xb335d2c6	-4.2334044e-08
61	0xb61745a1	-2.2541283e-06
62	0xb2475844	-1.1603394e-08
63	0xb4bb410f	-3.48788e-07
64	0xbc7a6ad2	-0.015284257
65	0xb3e5e060	-1.0704457e-07
66	0x3d27a1dc	0.040925846
67	0x375c5a21	1.3134007e-05
68	0xb70e0427	-8.464826e-06
69	0xb7cba2d8	-2.4275316e-05
70	0xb6dd75dd	-6.6000343e-06
71	0x36d01e8c	6.202439e-06
72	0xb88182db	-6.175573e-05
73	0x3387d570	6.3252514e-08
74	0xbbbdd77e	-0.005793511
75	0xbd876d54	-0.066126496
76	0xbb237016	-0.0024938635
77	0xb9c2cf28	-0.00037156907
78	0xb787eff7	-1.6204996e-05
79	0xaa80aec8	-2.2858646e-13
80	0xba950eaa	-0.0011372168
81	0x3788ae2d	1.629357e-05
82	0xb80072d0	-3.0624506e-05
83	0xb52e9f58	-6.5051927e-07
84	0x39c6e553	0.00037936363
85	0xb650a91b	-3.1092848e-06
86	0x319f8466	4.642561e-09
87	0x340c2c95	1.3054735e-07
88	0xb641f451	-2.8901452e-06
89	0x3ba53657	0.005041878
90	0xb69ab5c7	-4.6107193e-06
91	0xb32a8b26	-3.9707764e-08
92	0xb33a1ac4	-4.3330843e-08
93	0xb6cc5ebc	-6.0907023e-06
94	0xb60313d2	-1.9532058e-06
95	0xb5de4092	-1.6559081e-06
96	0xb9b2c684	-0.0003409871
97	0xb40821ff	-1.2678355e-07
98	0xbd9aebf2	-0.07564534
99	0x390c2c88	0.0001336803
100	0x371a11cc	9.183259e-06
101	0x3855fec4	5.1020426e-05
102	0x375587b3	1.2727384e-05
103	0xb723c1d1	-9.7606835e-06
104	0xba170842	-0.00057614234
105	0xb3c09882	-8.968438e-08
106	0xbe2cdfd2	-0.16882256
107	0x3dbce388	0.09223086
108	0x3a52ffdd	0.0008048991
109	0x395951a7	0.0002072515
110	0x383dc4a0	4.5244233e-05
111	0x345c8cae	2.0540276e-07
112	0x3ac6a3de	0.0015155037
113	0x367389fd	3.6290141e-06
114	0xb8b22bc1	-8.495851e-05
115	0x3234492a	1.04940145e-08
116	0xb9f73e7e	-0.00047158072
117	0xb8516874	-4.9926763e-05
118	0x31220ed0	2.3582523e-09
119	0x3610602c	2.1513652e-06
120	0x366130b9	3.3555973e-06
121	0x3c4d5ea0	0.012534767
122	0x3854a452	5.0697774e-05
123	0x32c5b738	2.3017137e-08
124	0x33adde02	8.096323e-08
125	0x370db42c	8.446204e-06
126	0x3233835d	1.044904e-08
127	0x36cd3df3	6.116688e-06
128	0xbc7cf1d3	-0.015438515
129	0xb3f30dd9	-1.1318088e-07
130	0x3d6b974d	0.05751734
131	0xba849d43	-0.0010117668
132	0xb6aa1eac	-5.0699655e-06
133	0xb931262c	-0.00016894256
134	0x357700c8	9.201581e-07
135	0x370a21cf	8.233313e-06
136	0xbbae0c02	-0.00531149
137	0x33b05b99	8.2123e-08
138	0x3da2d1df	0.07950186
139	0xbd4f9cfb	-0.050686818
140	0x3ad8263f	0.001649089
141	0xbb0a408f	-0.0021095609
142	0x3903bb38	0.00012562878
143	0xb69c89dd	-4.6652117e-06
144	0xbbb680c7	-0.0055695507
145	0x392d1501	0.0001650639
146	0xbabf7581	-0.0014607162
147	0xb4bbe4b3	-3.4997865e-07
148	0x3912c440	0.00013996754
149	0xb69c3919	-4.6558093e-06
150	0xb1224587	-2.3613624e-09
151	0x3405b3d1	1.2452007e-07
152	0xb6ce9b1a	-6.1573346e-06
153	0x3b94e434	0.0045438055
154	0x39469d74	0.00018941407
155	0xb3897a84	-6.401845e-08
156	0x33d63812	9.975351e-08
157	0xb6ead11e	-6.998088e-06
158	0xb60b1450	-2.0724437e-06
159	0x378dfc82	1.6926093e-05
160	0x3b8ee2e8	0.0043605454
161	0x339047ea	6.7186036e-08
162	0xbc9cb5a9	-0.019129591
163	0x37f83c45	2.9591969e-05
164	0x36400f8b	2.8619277e-06
165	0x362af7a3	2.5476118e-06
166	0x35ee2fb2	1.7746263e-06
167	0xb6439171	-2.9141922e-06
168	0x38e54a7c	0.00010933445
169	0x33194f8f	3.5695447e-08
170	0xbd0158cf	-0.031578835
171	0x3cd501f6	0.026001912
172	0xb90884ab	-0.00013019393
173	0x38a383bd	7.796984e-05
174	0x37e8709a	2.770899e-05
175	0xb4a3a454	-3.048068e-07
176	0x3aa353e6	0.0012460917
177	0x35b881b0	1.3746812e-06
178	0xb9680039	-0.00022125327
179	0x3011b64e	5.3009763e-10
180	0xb97b0d89	-0.00023942268
181	0x368e5203	4.241477e-06
182	0xb1709753	-3.5010614e-09
183	0xb34edbb5	-4.8162935e-08
184	0x352ecd6a	6.511897e-07
185	0x3a0c47cc	0.0005351275
186	0x365c917a	3.2867233e-06
187	0x319f1602	4.630011e-09
188	0xb2eb1798	-2.736833e-08
189	0x3563db51	8.4883237e-07
190	0x33a2eb0f	7.58647e-08
191	0xb58429db	-9.846948e-07
192	0x3a27e5e5	0.00064048014
193	0x32823442	1.5157756e-08
194	0xbac8c3f1	-0.0015317184
195	0x341a1b98	1.4352406e-07
196	0x336ddbbf	5.538072e-08
197	0x32d92d79	2.5282803e-08
198	0x33cd22d3	9.552391e-08
199	0x33adda2c	8.0956255e-08
200	0xb64528c0	-2.9379007e-06
201	0x3176a96e	3.589402e-09
202	0x3b7a4d2a	0.0038192966
203	0x3b6fac86	0.0036571338
204	0x342e4169	1.6228809e-07
205	0x37077a8d	8.075161e-06
206	0x35557458	7.9517986e-07
207	0x2c69e6f5	3.3239498e-12
208	0x3824cff8	3.9294333e-05
209	0x31f799b7	7.2061215e-09
210	0xb65eefff	-3.3220274e-06
211	0x2d325a28	1.0138147e-11
212	0xb60b14fd	-2.072483e-06
213	0x32c56abf	2.2982361e-08
214	0xb03d9cde	-6.898072e-10
215	0xb0b069d6	-1.2835766e-09
216	0xb30edaa0	-3.326079e-08
217	0xb89a89ac	-7.3689356e-05
218	0x351af85e	5.773089e-07
219	0xaa3377a4	-1.5939902e-13
220	0x31a63c6e	4.838106e-09
221	0x30e73452	1.6822332e-09
222	0x311940b0	2.23012e-09
223	0x31d9d1ba	6.3393744e-09
224	0xb95c1ecf	-0.00020992312
225	0x300e5b90	5.1789417e-10
226	0x39ecaa6e	0.00045140408
227	0xb60ede94	-2.1289206e-06
228	0xb38708c6	-6.288023e-08
229	0x32db9831	2.5564164e-08
230	0xb3956635	-6.9569445e-08
231	0xb338ef9e	-4.305877e-08
232	0x3913caee	0.0001409461
233	0xb01e2a8b	-5.754052e-10
234	0xba29d0f5	-0.00064779754
235	0xbb0d79f7	-0.002158759
236	0x3719cfe5	9.167915e-06
237	0xb54cbb99	-7.626891e-07
238	0xb4cbe32e	-3.7976992e-07
239	0xa901838e	-2.875786e-14
240	0xb696a11a	-4.489103e-06
241	0xb4924dfc	-2.725136e-07
242	0xb44482b2	-1.8301469e-07
243	0xae65eb24	-5.227742e-11
244	0x3606dffc	2.0097932e-06
245	0xb4126dcc	-1.3637253e-07
246	0x2f87b216	2.4682895e-10
247	0xada448f1	-1.8677034e-11
248	0xb2c4ec5b	-2.2924885e-08
249	0xba165a3b	-0.0005735491
250	0xb49caa84	-2.918133e-07
251	0xac1798c8	-2.1543201e-12
252	0x30ff3e75	1.8571443e-09
253	0x313053be	2.5658973e-09
254	0xb01bdea9	-5.670509e-10
255	0xb2870d13	-1.5722014e-08

graph_attention.qkv_proj_low.bias f4 [24]
0	0xbc1400a8	-0.00903336
1	0x3b9e8972	0.004838162
2	0x3c3d86ad	0.011567754
3	0xbca70794	-0.020389356
4	0x3c7a3347	0.0152710145
5	0xbbc54bf2	-0.0060210163
6	0xba24ecf9	-0.0006291415
7	0x396dc552	0.00022675589
8	0x3c89cb8a	0.016820688
9	0xbc5b5e15	-0.01338913
10	0x3c200735	0.009767343
11	0xbca5a7b0	-0.020221561
12	0xbb95c703	-0.004570843
13	0x3c845e29	0.01615818
14	0x3c5026b6	0.012704542
15	0x3a02bfb4	0.00049876724
16	0xbc0440d9	-0.0080721015
17	0x39e747ed	0.00044113342
18	0x3c2e5d20	0.01064232
19	0xbc35e86c	-0.011102777
20	0x3bcd838d	0.0062717856
21	0xbc24b46a	-0.01005278
22	0xbbb584c6	-0.0055395095
23	0x3a340667	0.0006867409

graph_attention.qkv_proj_high.weight f4 [96, 24]
0	0x394a00f8	0.00019264582
1	0x380dc45a	3.3799886e-05
2	0xb8d21a0f	-0.00010018434
3	0x39b83abe	0.0003513898
4	0xb91c00a8	-0.00014877564
5	0x38a39d57	7.8017525e-05
6	0x3616aa12	2.2450736e-06
7	0xb62629df	-2.47603e-06
8	0xb98fbc04	-0.00027415168
9	0x392f2846	0.00016704304
10	0xb8c36f29	-9.31903e-05
11	0x3978d994	0.00023732177
12	0x37cda8cd	2.4516508e-05
13	0xb907c605	-0.00012948371
14	0xb92721c0	-0.00015938934
15	0x35cdba0a	1.5327835e-06
16	0x3857d94b	5.1462364e-05
17	0xb7852324	-1.58712e-05
18	0xb8041ece	-3.149994e-05
19	0x3961c368	0.00021530467
20	0xb9180421	-0.00014497388
21	0x3970e20e	0.00022972396
22	0x37ecc862	2.8226703e-05
23	0xb767cfec	-1.38170835e-05
24	0x394a70b3	0.00019306205
25	0x37f72895	2.9463592e-05
26	0xb8ce4610	-9.8358956e-05
27	0x39b07dd1	0.00033663076
28	0xb90a9be3	-0.00013218778
29	0x389ad633	7.38319e-05
30	0x35b44a66	1.3432698e-06
31	0xb624ea6c	-2.4574356e-06
32	0xb97d5500	-0.00024159625
33	0x3923650d	0.00015582536
34	0xb8b817b2	-8.778217e-05
35	0x396c13d0	0.00022514095
36	0x37d4f55e	2.5386627e-05
37	0xb903ac8d	-0.00012557414
38	0xb9282eb2	-0.00016039124
39	0x35e2918f	1.6880675e-06
40	0x38586bf2	5.1598945e-05
41	0xb7853059	-1.587735e-05
42	0xb82a1d66	-4.0558538e-05
43	0x39577c22	0.00020550241
44	0xb923381c	-0.00015565794
45	0x396c6acb	0.00022546497
46	0x37e0573c	2.6743503e-05
47	0xb76ba48a	-1.4045401e-05
48	0x3951d4b8	0.00020011037
49	0x37f2946c	2.8917762e-05
50	0xb8cf1768	-9.874889e-05
51	0x39aa3313	0.0003246298
52	0xb9299c10	-0.00016175234
53	0x389b1548	7.39494e-05
54	0x35c1c15e	1.4435898e-06
55	0xb625d72d	-2.4712165e-06
56	0xb9841d9a	-0.00025199057
57	0x392c05b2	0.0001640532
58	0xb8be32c9	-9.0693655e-05
59	0x397b3f70	0.00023960858
60	0x37d17ecb	2.4973784e-05
61	0xb9033e50	-0.00012516347
62	0xb92070b2	-0.00015300771
63	0x36059151	1.990313e-06
64	0x38586172	5.1589166e-05
65	0xb7803173	-1.5281816e-05
66	0xb80b56b5	-3.3220935e-05
67	0x3957f625	0.00020595694
68	0xb9208e35	-0.00015311765
69	0x3960ff4e	0.00021457413
70	0x37e70f65	2.7544515e-05
71	0xb7618c25	-1.3443675e-05
72	0x394b523b	0.00019390222
73	0x37fdc383	3.0250992e-05
74	0xb8cea061	-9.852718e-05
75	0x39aea666	0.00033311843
76	0xb8d56d37	-0.00010176974
77	0x38a5d50d	7.907497e-05
78	0x366e0ad6	3.547107e-06
79	0xb628248c	-2.5055224e-06
80	0xb98d0c36	-0.00026902714
81	0x39218320	0.00015403004
82	0xb8c4606f	-9.3639705e-05
83	0x39778e9e	0.00023608885
84	0x37cd1648	2.444828e-05
85	0xb9044c4f	-0.00012616928
86	0xb9241b57	-0.00015650444
87	0x35db33d6	1.6331858e-06
88	0x38585832	5.158055e-05
89	0xb7787fb3	-1.4811684e-05
90	0xb80c73b4	-3.3486358e-05
91	0x395917e7	0.00020703637
92	0xb924916c	-0.00015694433
93	0x395ae24c	0.00020874402
94	0x37e40e84	2.7186477e-05
95	0xb761d3de	-1.3460374e-05
96	0x39462681	0.00018897095
97	0x38023c1a	3.105039e-05
98	0xb8cf3ca0	-9.8818215e-05
99	0x39ae90db	0.00033295792
100	0xb9332f2d	-0.00017088345
101	0x3897cea2	7.2387294e-05
102	0x36179f38	2.259343e-06
103	0xb629c867	-2.5299612e-06
104	0xb98de99d	-0.0002706767
105	0x392c188d	0.00016412344
106	0xb8bfec44	-9.1515976e-05
107	0x39616634	0.00021495746
108	0x37d7784f	2.568602e-05
109	0xb903a8e8	-0.00012556056
110	0xb92699aa	-0.00015888238
111	0x35dcac8f	1.6441498e-06
112	0x3857cef3	5.145273e-05
113	0xb787b907	-1.6179414e-05
114	0xb82522ed	-3.9371593e-05
115	0x395e23d4	0.00021184917
116	0xb9214597	-0.00015380081
117	0x3968a556	0.00022186837
118	0x37d52f43	2.5413587e-05
119	0xb76e02bc	-1.4186542e-05
120	0x394f67fc	0.00019779796
121	0x3806b5af	3.2117296e-05
122	0xb8cf7460	-9.892206e-05
123	0x39ad7ff4	0.00033092464
124	0xb9365f15	-0.00017392293
125	0x38a3340c	7.78214e-05
126	0x35d19bac	1.561702e-06
127	0xb622acab	-2.4240387e-06
128	0xb985f429	-0.0002554965
129	0x39285d21	0.00016056422
130	0xb8beb460	-9.0935035e-05
131	0x395ea179	0.00021231723
132	0x37d74ddb	2.5666252e-05
133	0xb901cfe7	-0.00012379848
134	0xb9258812	-0.00015786316
135	0x360aad22	2.066438e-06
136	0x3857e610	5.1474257e-05
137	0xb76f27ef	-1.4254808e-05
138	0xb829b7c0	-4.046387e-05
139	0x3949e1df	0.00019252997
140	0xb924aab1	-0.00015703846
141	0x396aca0b	0.00022391246
142	0x37e397f4	2.7131267e-05
143	0xb763db9d	-1.3581387e-05
144	0x39522625	0.0002004137
145	0x380502e1	3.1712352e-05
146	0xb8cf61ba	-9.888732e-05
147	0x39b02de3	0.00033603524
148	0xb9359154	-0.00017315644
149	0x38a0633c	7.6478784e-05
150	0x35cb5782	1.5150147e-06
151	0xb628d409	-2.5157372e-06
152	0xb98a96c0	-0.0002643373
153	0x392757c4	0.00015959056
154	0xb8beee54	-9.104298e-05
155	0x3965deb2	0.00021922102
156	0x37ced2f6	2.465535e-05
157	0xb9056243	-0.00012720474
158	0xb921a5a1	-0.00015415858
159	0x36018abc	1.9303252e-06
160	0x38583e46	5.155641e-05
161	0xb77c9e28	-1.5057194e-05
162	0xb7feca6a	-3.0373416e-05
163	0x394fee2d	0.00019829786
164	0xb91b3ed1	-0.00014805353
165	0x39668149	0.00021982672
166	0x37e8fdf5	2.7774813e-05
167	0xb781e59e	-1.5484922e-05
168	0x394a4a25	0.00019291842
169	0x38029e4f	3.114185e-05
170	0xb8cf4100	-9.8826364e-05
171	0x39a49b72	0.00031396333
172	0xb8ced672	-9.862789e-05
173	0x38a2401d	7.736704e-05
174	0x365da8da	3.302985e-06
175	0xb6299011	-2.526682e-06
176	0xb9778a67	-0.00023607315
177	0x39267201	0.00015873463
178	0xb8c02203	-9.1616086e-05
179	0x3975d080	0.00023442693
180	0x37d28906	2.5097757e-05
181	0xb8f9e5db	-0.00011916059
182	0xb90ad4e3	-0.00013240012
183	0x3605e4db	1.9951756e-06
184	0x3857bfed	5.143874e-05
185	0xb76ed020	-1.4234363e-05
186	0xb805dc5b	-3.1914893e-05
187	0x394ffd0a	0.00019835323
188	0xb9239c3f	-0.00015603098
189	0x396742f0	0.00022054813
190	0x37eb9ded	2.8087723e-05
191	0xb75d12e3	-1.3177024e-05
192	0xbcfd85e6	-0.030947637
193	0xbc2ae61c	-0.010430839
194	0x3c18293d	0.009287176
195	0xbd5f53a8	-0.05452314
196	0x3ce41e00	0.027846336
197	0xbc3c484c	-0.011491846
198	0x39a53eae	0.00031517952
199	0x391b2868	0.00014797004
200	0x3d346fff	0.04405212
201	0xbcb38954	-0.02191607
202	0x3c493fcb	0.012283276
203	0xbd09acd9	-0.033612106
204	0xbabf39bc	-0.001458935
205	0x3c7d4d0f	0.015460267
206	0x3cd6abe8	0.026205018
207	0x399cf16f	0.0002993452
208	0xbb8f7df8	-0.0043790303
209	0x3b276ebe	0.0025548185
210	0xb9f2ad97	-0.0004628717
211	0xbd0a1cf6	-0.033719026
212	0x3cfa39ad	0.03054508
213	0xbd15ae68	-0.03654328
214	0xbac6df6b	-0.0015172785
215	0x3b3770ff	0.0027990935
216	0xbcfd9a68	-0.030957416
217	0xbc2aa7f8	-0.010416023
218	0x3c1731d9	0.009228193
219	0xbd5f5cb4	-0.054531768
220	0x3ce4065a	0.02783506
221	0xbc3b9a11	-0.0114503065
222	0x39a4d429	0.0003143859
223	0x39062b53	0.00012795375
224	0x3d3473bb	0.04405568
225	0xbcb3b034	-0.021934606
226	0x3c49e65d	0.012322989
227	0xbd09b1d0	-0.03361684
228	0xba7f84e0	-0.0009747278
229	0x3c7d1a0c	0.015448105
230	0x3cd6cbb6	0.026220184
231	0x399d61d7	0.0003001827
232	0xbb936dfd	-0.0044991956
233	0x3b2e343a	0.0026581422
234	0xb9f833ee	-0.00047340937
235	0xbd0a22e7	-0.03372469
236	0x3cfa2785	0.030536423
237	0xbd15b48a	-0.03654913
238	0xbac7adf6	-0.001523434
239	0x3b38b8e2	0.002818637
240	0xbcfdd963	-0.030987447
241	0xbc2a3894	-0.010389466
242	0x3c188f82	0.009311559
243	0xbd5f5fde	-0.054534785
244	0x3ce3f435	0.027826408
245	0xbc3b4d11	-0.011431948
246	0x39a52c38	0.00031504198
247	0x391b5bbc	0.00014816126
248	0x3d347801	0.044059757
249	0xbcb3bea3	-0.021941489
250	0x3c493e77	0.012282959
251	0xbd09bbb5	-0.033626277
252	0xba97915d	-0.0011563707
253	0x3c7d4d27	0.015460289
254	0x3cd6c40d	0.026216531
255	0x399e0580	0.00030140206
