save_all/MSTAGAT-Net.spain-covid.w-20.h-3.none.pt (torch, 168421 bytes, 64 tensors)

feature_extractor.depthwise.weight f4 [1, 1, 3]
000000 4a 23 d4 3e d1 70 e9 3e 18 c5 1f be
       0.41433173 0.45593885 -0.15602529

feature_extractor.pointwise.weight f4 [16, 1, 1]
000000 ba b4 2e be 11 28 1d 3e a8 ff df be 0d ae 09 3f
       -0.17061129 0.15347315 -0.43749738 0.53781205
000010 e0 f6 54 3f db 1d 2f bf 0d ce 51 3f 8d 5c 0e 3e
       0.831892 -0.6840493 0.81955034 0.13902493
000020 27 71 30 3f 69 f7 b4 3d fa 9c dd 3e b4 36 bf bd
       0.68922657 0.08836252 0.43283826 -0.09336606
000030 38 a6 38 3f ce 02 cd 3d f2 c3 d5 be ab 1e 53 3e
       0.7212863 0.100103006 -0.41751057 0.20617168

feature_extractor.pointwise.bias f4 [16]
000000 74 a5 d2 be fb 01 90 bd 5a c0 b6 be 7f 24 1d 3f
       -0.41141856 -0.07031628 -0.35693628 0.61383814
000010 fa 60 3d bf 3c c9 d2 be 5c 1f 6f be 1c 42 0d bf
       -0.739761 -0.41169155 -0.23351806 -0.55179
000020 86 04 46 3d 13 20 70 bf a6 7b 5a 3f b0 c1 4c bf
       0.048344158 -0.9379894 0.8534492 -0.79983044
000030 fa f0 38 3f b8 9c f2 3d 27 27 8d be 1e 86 11 3f
       0.722427 0.11846298 -0.27568933 0.5684527

feature_extractor.bn2.weight f4 [16]
000000 04 f3 77 3f 2e dc 77 3f 52 9a 77 3f f7 44 76 3f
       0.9685519 0.9682034 0.9671985 0.9619898
000010 aa f6 75 3f 9e 22 74 3f e6 cc 75 3f 2a e3 75 3f
       0.96079504 0.9536532 0.96015775 0.9604975
000020 d7 29 78 3f ee 39 77 3f 86 d4 75 3f c6 a1 78 3f
       0.9693884 0.9657277 0.9602741 0.97121847
000030 8a 3a 75 3f eb 3f 74 3f 9b fe 77 3f ea db 74 3f
       0.9579245 0.9541003 0.9687287 0.9564806

feature_extractor.bn2.bias f4 [16]
000000 57 6e cd 3b 42 9f e3 ba 51 e8 f4 b9 61 47 c9 3c
       0.006269257 -0.0017366188 -0.00046712396 0.024570169
000010 9c 40 b2 3c 05 be 7d bc ef 84 b9 3b e7 eb 26 3b
       0.021759324 -0.015487199 0.005661599 0.0025470199
000020 81 e4 9d 3c 58 8f 40 3c 53 04 4b 3c 8b 15 f1 3a
       0.019273998 0.011752926 0.012391168 0.0018393261
000030 78 09 ea 3c 1e 30 c5 3c 36 d4 e8 ba 49 36 02 3d
       0.028568968 0.024070796 -0.0017763439 0.03179005

feature_extractor.bn2.running_mean f4 [16]
000000 14 43 f9 be b0 08 8a bc 85 a9 08 bf 9a da 53 3f
       -0.4868399 -0.016849846 -0.53383666 0.82755435
000010 68 76 da be 58 89 2e bf e5 9c 94 3d 1a 99 00 bf
       -0.42668462 -0.6817832 0.07256488 -0.50233614
000020 d9 56 a4 3e 38 ee 67 bf 4f 5a 83 3f df 0f 58 bf
       0.3209751 -0.9059787 1.0261935 -0.8439922
000030 4a a8 80 3f fc 11 2c 3e 2e 05 e4 be 93 19 28 3f
       1.0051358 0.16803735 -0.44535202 0.65664023

feature_extractor.bn2.running_var f4 [16]
000000 69 9a c6 3c 2e 32 aa 3c e6 b2 fb 3d ad 08 3a 3e
       0.02424355 0.02077588 0.122899815 0.18167372
000010 1e 34 d8 3e 6d c1 93 3e 4a fc d1 3e 35 6d 94 3c
       0.42227262 0.2885851 0.41012794 0.01811848
000020 0d ee 95 3e 1f f3 2f 3c a5 b2 f6 3d a1 0d 3a 3c
       0.2928318 0.010739117 0.120457925 0.011355788
000030 f7 c0 a3 3e a6 cf 47 3c cf 9d e6 3d 39 4d 05 3d
       0.31983158 0.012195503 0.11260568 0.03254435

feature_projection_low.weight f4 [16, 320]
000000 43 22 36 3c ab ea 39 3d c7 f4 11 3c 65 49 6a bc
       0.011116567 0.045389812 0.008908457 -0.014299725
000010 8a 14 81 3c a0 42 8d bc 36 c5 b0 3c b5 9e 35 3d
       0.015756864 -0.017243683 0.021578413 0.044340808
000020 d2 dc 12 3d 1d e6 6a bc cc 46 f4 3c d4 35 16 3c
       0.035855122 -0.01433709 0.029818915 0.009168107
000030 f3 ec a8 3c 5c c9 00 bd 00 9d 59 bd 31 27 5a bc
       0.020620799 -0.03144203 -0.053128242 -0.013315008
000040 34 70 1f bd 23 d8 33 3d dd a6 2a 3c 3a 5b 00 3c
       -0.038925365 0.043907296 0.01041576 0.00783425
000050 89 31 92 3c 13 12 32 3a 60 fe 2a 3d 85 42 21 bd
       0.017845886 0.00067928544 0.041746497 -0.03937008
000060 aa 4f 4c 3b 47 81 16 bd a7 56 65 3c 10 28 ba bc
       0.0031175413 -0.036744382 0.01399771 -0.022724181
000070 74 74 2d 3c 68 9e 86 bc 50 68 33 3d ab bb dc bc
       0.010586847 -0.016432956 0.043800652 -0.026944956
000080 7b 8a b3 bc ed a1 c5 bc df 8a 5f 3d 47 d6 a9 3c
       -0.021916619 -0.024125064 0.054575797 0.020732058
000090 ae 36 4e 3d 7b d5 16 bd 2e 2b 3f bd c7 67 04 bd
       0.050345115 -0.036824685 -0.04667204 -0.032325532
0000a0 73 61 15 bd 69 04 dc 3c 55 44 b2 3c d5 f0 3b 3d
       -0.036469888 0.026857572 0.021761099 0.045883972
0000b0 cf 10 c2 bc 00 80 08 bd 3f 7a cb 3c 2c 50 81 bc
       -0.023689656 -0.033325195 0.024838565 -0.0157853
0000c0 63 b1 10 3d 9f 09 4b bb 7c 58 15 3d 3a 1d 20 bd
       0.03532542 -0.0030981076 0.03646134 -0.039090373
0000d0 d1 25 f2 bc 78 58 80 3c d6 d6 41 3c bd e0 70 bc
       -0.029559048 0.015667185 0.011831006 -0.014702019
0000e0 6e e8 db 3c dd 17 f9 3c bd c9 2a bd cb 53 32 bd
       0.02684423 0.030406887 -0.0416963 -0.043536942
0000f0 ad b0 3d 3d 8f 70 92 bc 93 c7 9a bc cc b8 60 bd
       0.04631107 -0.017875938 -0.018893993 -0.054863736
000100 5d a3 ef bc 89 62 53 3c 1b a6 23 bc e3 83 2a bd
       -0.029252702 0.012901911 -0.009988333 -0.041629683
000110 ba df 79 bb 9f 3d 29 bd 19 f3 2e bd 4d 33 bf bc
       -0.0038127736 -0.041318532 -0.042712305 -0.023339892
000120 01 4c 23 bd 6e 73 e0 bc bb c0 6b 3d 07 73 53 3c
       -0.039867405 -0.027398791 0.05755685 0.012905843
000130 ca f0 7e 3c f6 17 2d bd 57 4a e5 bc 2c e9 00 bc
       0.015560338 -0.04225918 -0.02798955 -0.0078680925
000140 4b ae 14 3c 7e 7f 46 bd 33 61 c4 bc f6 03 0a bd
       0.009074758 -0.04846143 -0.02397213 -0.033695184
000150 6c 27 48 3a f8 ec ab bc 79 d1 e0 bb 5c 91 22 bd
       0.0007635269 -0.020987019 -0.0068609086 -0.039689407
000160 4e f1 30 bd 6a 22 13 bd 84 e0 8c bc e6 93 12 bd
       -0.043198876 -0.03592149 -0.017196901 -0.03578558
000170 a2 e2 58 3d 78 35 0c bb 7e e4 4d 3d a6 25 aa 3c
       0.05295051 -0.0021394175 0.050266735 0.020769905
000180 9e 55 3e bd 31 c2 33 3d 99 73 02 bc b3 01 27 bc
       -0.04646837 0.043886367 -0.007962131 -0.010193276
000190 5f d3 29 bd e8 f2 4c bd e1 a0 ab 3c 3f 98 07 bc
       -0.041461345 -0.05003634 0.020950736 -0.008276044
0001a0 71 27 c4 3c 4b 5b 30 bd e8 f0 2e 3d 96 c0 22 bd
       0.023944588 -0.043055814 0.042710215 -0.039734446
0001b0 e8 e3 d4 bb cf 21 69 3c 6b f8 f2 3c de 14 24 3d
       -0.006496895 0.014229252 0.02965947 0.040058963
0001c0 4d a6 45 3d 5e 0b 12 bd 09 c4 73 3c 22 e4 b8 bc
       0.0482543 -0.03565537 0.014878281 -0.02256972
0001d0 79 1c 98 bb d6 81 38 bd a0 4e 1c 3d ee 68 50 bd
       -0.004642066 -0.045045696 0.03816092 -0.05088132
0001e0 1e 8d e4 3c 3f 2f 9a 3c 00 c0 84 3c a6 a5 f6 bc
       0.027899321 0.018821357 0.016204834 -0.030108284
0001f0 dd f5 4d 3d 96 d9 51 3c cc 28 a2 3b ad 05 52 bd
       0.0502833 0.012808224 0.004948711 -0.051274944
000200 94 fc 8f 3c 95 8e 43 bc 5f 9b b6 bc 36 69 53 3d
       0.017576493 -0.01193585 -0.022290884 0.05161401
000210 75 f2 95 3c ff cc ab bc 32 fd b4 bc da a3 79 39
       0.01830409 -0.020971773 -0.02209339 0.0002380753
000220 c8 1f ee 3c 10 81 e1 bb b1 7c b1 bc 66 32 24 bc
       0.029067889 -0.0068818405 -0.021665903 -0.010021782
000230 a1 7d 0a bd a7 c4 a0 3c 2c cb 27 3d 5e ab 51 bd
       -0.033811215 0.019625021 0.040965244 -0.05118882
000240 28 2e 5e 3c 7e 56 e0 3c 7d d2 0c 3c 58 22 bf bc
       0.013560809 0.027384993 0.008595106 -0.023331806
000250 c9 6d b5 3c 9d ea cb 3c 5c 58 ad 3c a4 b6 8d bb
       0.022147076 0.024892146 0.021160297 -0.004324751
000260 16 06 be bb 0f 0b 4d 3c e4 41 aa bb ff 51 48 bc
       -0.0057990653 0.012514844 -0.005195843 -0.012226581
000270 f8 51 08 3d 5d fa 57 3d 9e 21 f1 3a 77 49 5d bb
       0.033281296 0.052729 0.001839686 -0.0033765712
000280 0d 17 81 3b 1a e3 40 bb 61 56 4c 3c c6 33 6d 3c
       0.0039395154 -0.0029432238 0.012471766 0.014477676
000290 43 6f 4a bd 89 f7 9a bc 39 81 2c 3d c3 bd 95 3c
       -0.049422514 -0.018916862 0.042115424 0.018278962
0002a0 64 77 03 bc 9c e2 0f bd 4a 53 fe bc b8 68 2d bd
       -0.00802407 -0.03512822 -0.031045575 -0.042336196
0002b0 e4 c4 0d bc 30 dc dc 3c 72 2b 22 3d c9 3a e6 3c
       -0.008652899 0.026960462 0.039592214 0.028104203
0002c0 eb ef 3b bd c0 0e f8 bc 9e f7 a9 ba 84 41 84 3d
       -0.0458831 -0.03028047 -0.0012967472 0.064578086
0002d0 bf 53 41 3c 5e 6f 52 bc 22 18 a7 3c bd b4 ae bc
       0.011799752 -0.012843935 0.02039725 -0.021326417
0002e0 31 6a 0f bd b5 36 21 3d cb 28 de bc 4e cc 77 bc
       -0.03501338 0.039358813 -0.027119061 -0.015124394
0002f0 93 aa 6d bd 14 e9 f7 3c 2b 7b 2a 3d 53 9c cc 3c
       -0.058024 0.030262507 0.04162137 0.024976885
000300 c2 70 ea bc 21 4b 3c bd 99 42 19 bd fd 8e 2c 3d
       -0.02861822 -0.045970086 -0.037417028 0.04212855
000310 a2 fc d8 3c 21 ba 4d 3d c7 7f 07 3d fd a2 c0 3c
       0.026487652 0.050226334 0.033080842 0.023515219
000320 80 7c ec 3a 86 1d 24 bd e2 0b 3f bd 30 c2 52 bd
       0.0018042475 -0.04006722 -0.04664219 -0.051454723
000330 94 b4 ca 3c c7 3c d7 bc b0 8d 52 bc f6 82 08 bd
       0.02474431 -0.026274098 -0.012851164 -0.03332802
000340 4f 0d 5a bc 1f f7 2f bd f7 bd 11 bd 99 19 c7 3c
       -0.013308837 -0.042960282 -0.035581555 0.024304198
000350 7f 75 1c bc 67 b6 22 3d 4e 63 33 bc 6b 72 0c bd
       -0.009549498 0.039724734 -0.010948969 -0.034288805
000360 9d 73 2f bc a2 1f 99 bc 2b dd 2a bc 3f 7d 28 bd
       -0.010708717 -0.018691842 -0.010428707 -0.04113507
000370 31 13 c6 3c 59 75 04 bd 8a f8 03 3d d6 6a f6 3c
       0.024179073 -0.032338474 0.032219447 0.03008024
000380 52 b6 27 3d d5 66 26 bd 86 0f 1b 3d 85 51 c2 bc
       0.04094536 -0.040625412 0.0378566 -0.023720512
000390 89 42 c6 3c 06 8d 3d 3d 86 f4 8c bb 30 e0 90 b9
       0.024201648 0.04627707 -0.0043016104 -0.00027632853
0003a0 df ef 4b bc 5b 00 18 bd 82 a0 a2 3c 49 f4 41 bd
       -0.012447326 -0.037109714 0.019851927 -0.04735211
0003b0 c9 89 f8 3c 75 31 f5 3c a5 75 3e 3d 1c ca ad bc
       0.030339139 0.02993081 0.046498913 -0.021214537
0003c0 8e 13 16 bd 0d 89 64 3c 43 85 ee 3c 6a ae 5d bd
       -0.036639743 0.013948691 0.029116279 -0.054121412
0003d0 18 44 19 bc fd ae 02 bd e1 c9 bb bb 91 d3 fc bc
       -0.009354614 -0.031905163 -0.005730853 -0.030862601
0003e0 64 63 db bc bd 18 b3 bc 64 97 4a bd 7e b3 4e 3d
       -0.026780792 -0.021862382 -0.049460784 0.050464146
0003f0 ca 7e 57 3d 9a be a3 ba d7 cd c6 3a 7e 8c 83 bc
       0.05261115 -0.0012492717 0.0015167546 -0.016058203

feature_projection_low.bias f4 [16]
000000 0f 8b 42 3c 84 3e 16 3b 4b 00 10 3d e4 97 09 bb
       0.011873974 0.0022925446 0.03515653 -0.0020995075
000010 c5 58 21 bc 4a c0 41 bd 60 6c b4 39 15 77 c6 bc
       -0.009847824 -0.04730252 0.0003441302 -0.024226705
000020 1c 80 ec 3c 2e 9d 5b 3d c8 00 4d bd db 77 02 bd
       0.028869681 0.053616695 -0.050049573 -0.031852584
000030 f9 55 72 3d 21 e8 f5 bc 14 9d 34 3d 98 35 62 3d
       0.05916402 -0.030017914 0.044095114 0.055226892

feature_projection_high.weight f4 [32, 16]
000000 80 2a 62 bd c3 92 32 be 90 98 fc 3d 30 07 c5 3d
       -0.055216312 -0.17438798 0.123337865 0.096205115
000010 7f c1 51 3e 94 f8 74 3c 68 3d 15 3e 3f 95 3d be
       0.20483969 0.014951844 0.14574206 -0.18513964
000020 eb f7 4d 3d fc 3e 52 3d 0c 75 1f 3e 77 c5 e7 bd
       0.05028526 0.051329598 0.15571994 -0.1131696
000030 79 32 38 bd 82 8b 05 be d6 3a 20 be ab b9 b7 3d
       -0.04497001 -0.130415 -0.15647444 0.0897096
000040 79 8c 26 3d 8b 5d c1 3d 1b 68 ca bb 5c a5 07 bb
       0.04066131 0.0944167 -0.006176961 -0.0020697927
000050 94 95 0c bc 66 4c 08 3e 23 d3 30 be 24 e7 50 3d
       -0.008580584 0.13310394 -0.17268042 0.051001683
000060 51 0f 04 3e 43 e5 ff 3d a0 7a ea bd 4d cb 40 3e
       0.12896468 0.124949 -0.1144917 0.18827553
000070 31 3a 26 be f8 5a 04 3e 69 8b 4a 3e 7a 9b 09 3a
       -0.16233136 0.12925327 0.19779743 0.0005249303
000080 7f ef 9c 3d 4e d2 5c be d9 72 c5 bd 81 07 bc bd
       0.07662868 -0.215646 -0.09641046 -0.09181119
000090 9a a3 61 be 36 25 62 bd 2e 28 30 3e f9 1d a1 bc
       -0.22035065 -0.05521127 0.17202827 -0.019667612
0000a0 e3 94 77 3e f5 2e 48 be 52 c4 b6 3d 2e cb 57 3e
       0.2417789 -0.19549163 0.08924164 0.210736
0000b0 8e ea 70 3e 5a 3e c5 bd 7e f2 60 be f3 61 b3 bd
       0.23526976 -0.09631033 -0.21967503 -0.08758917
0000c0 9f e1 3b 3e f4 32 98 3c 7b 86 63 3e 89 ea 30 be
       0.18347786 0.018578984 0.22219269 -0.17276968
0000d0 ea 08 20 be c5 a5 fb 3d 10 82 a7 3d ab d0 1c be
       -0.156284 0.122874774 0.08179104 -0.15313976
0000e0 de fc 57 3e 5f c1 af bd 0d 65 4f be 75 98 7e 3d
       0.21092555 -0.085818045 -0.20253392 0.062157113
0000f0 7c 65 06 be a6 e3 fc bd 13 f0 0d be 07 c0 81 3d
       -0.1312465 -0.12348108 -0.13861112 0.063354544
000100 e8 fe df 3d 05 68 1a 3e a6 ae ed bd cd 57 80 bd
       0.109372914 0.15078743 -0.11605577 -0.06266747
000110 72 9f 71 3e 9a 24 f1 bd 15 cc b0 bd ff 75 1b bd
       0.2359598 -0.11774559 -0.086326756 -0.037954327
000120 15 23 4c be d4 5d 2f be 47 ca 6b 3e 57 dc 34 3d
       -0.19935258 -0.17125636 0.23026381 0.044155445
000130 a5 52 2c 3d 57 04 dd 3d 40 e7 20 3e ee 3b 15 3e
       0.042071003 0.107918434 0.15713215 0.14573643
000140 b4 5f 2e 3e c6 79 ab 3d cd 1b 30 3e d7 c3 15 3e
       0.17028695 0.08372836 0.17198105 0.14625488
000150 c4 00 05 bd a8 f3 6a 3c b9 b6 f7 bd 91 93 25 be
       -0.032471433 0.014340319 -0.120953985 -0.16169573
000160 b0 e5 5f 3e 25 2a 21 be 28 d5 11 be 12 14 6a be
       0.21864963 -0.15738733 -0.14241469 -0.22859219
000170 a7 44 3a be 41 c3 7b 3d c4 c3 dc 3d 96 47 3a be
       -0.18190251 0.061465506 0.10779527 -0.1819137
000180 4d f9 a4 3c 2a d4 20 be 9b e3 18 3d dd de ff 3d
       0.020138407 -0.15705934 0.037326436 0.1249368
000190 16 bf 88 bd f7 87 d2 bd bf f2 12 3e 09 bc 04 be
       -0.06677072 -0.102798395 0.14350413 -0.12962355
0001a0 6d e2 57 bd 95 85 2d be 32 57 34 3e 1c 70 87 3d
       -0.05270617 -0.16945489 0.17611387 0.0661318
0001b0 cc d2 95 bd ab 37 16 3e 07 ad 64 3e 8c 26 c1 3d
       -0.07315597 0.14669673 0.2233163 0.0943118
0001c0 b6 12 2e be 2f 3b 2c bd 3d 31 49 3e a5 7d 2c 3e
       -0.16999325 -0.04204863 0.19647689 0.16844805
0001d0 39 62 8e bd 8e cf 21 3e 0b 4d 26 be c0 9f 84 3d
       -0.06952328 0.15801832 -0.16240327 0.064757824
0001e0 73 a7 47 3e 64 c0 0d 3d c2 14 3c be ee 2a 70 3d
       0.1949747 0.034607306 -0.18367293 0.05863469
0001f0 2c ff 00 3e 66 64 37 3e 3b c6 24 be dd f4 5e bd
       0.1259734 0.17909393 -0.16091244 -0.05443274
000200 e4 ff 1d bc 4e b7 34 bd 3f 71 5d bd a8 c9 a4 bd
       -0.009643529 -0.044120125 -0.054063078 -0.080462754
000210 b6 01 af 3d 50 f5 f7 3d e7 9c 65 bd 42 2c 40 3e
       0.08545248 0.121073365 -0.056057837 0.18766883
000220 4d 39 0b bc d7 65 69 3d a7 68 88 3d c2 eb be bd
       -0.008497548 0.056981888 0.06660586 -0.09322311
000230 46 9d 4a bb dd 64 12 bd 9b 1e bd 3d 13 b7 03 be
       -0.0030916496 -0.035740722 0.09234353 -0.12862806
000240 d8 a2 ce bd 36 ca 66 be a2 0a be bd 68 0a 95 3d
       -0.10089654 -0.22538075 -0.09279372 0.072773755
000250 98 76 48 3e a1 62 6d be 5d 29 b1 bd 4d 8c 1c 3e
       0.1957649 -0.23182155 -0.086504675 0.15287896
000260 f6 fc 03 be 48 9e 21 3e fa 0a ab 3c 51 00 6a be
       -0.12889466 0.15783036 0.020879257 -0.22851683
000270 74 62 1e 3d 0f a9 11 be 41 31 40 3d 9b 1b 65 be
       0.03866811 -0.14224647 0.046921972 -0.22373812
000280 9e 8b 6f 3e ec d3 ed bd b1 c4 1c 3e 97 d8 10 be
       0.23393103 -0.116126865 0.15309407 -0.14145122
000290 76 b9 5b be 7c 51 c6 3d 7c 1b 1e 3e d8 a2 d1 bb
       -0.21457466 0.09683511 0.15440172 -0.0063975863
0002a0 09 ac 4a be 3f 59 6a bd 8d 9c 38 be d5 9b 9b 3d
       -0.19792189 -0.057214018 -0.1802847 0.07598082
0002b0 e9 90 4e 3d 60 0d 22 3e 41 f0 75 3e e4 14 e1 bd
       0.050431166 0.15825415 0.24017431 -0.10990313
0002c0 cf 84 46 3e fa 0e 1f 3e 97 65 2f 3d e1 24 79 be
       0.193866 0.15533057 0.042821493 -0.24330474
0002d0 d4 d3 1e be 1e 22 cb 3d 32 39 43 3e f4 7b 0c 3e
       -0.15510494 0.09918617 0.19064787 0.1371916
0002e0 4d 01 ec 3c a7 d9 16 be 98 20 58 be 32 93 0a be
       0.028809214 -0.14731465 -0.21106184 -0.13532713
0002f0 37 fb 19 bc d4 7e 3d 3d 54 bb 41 3e 1b 70 34 be
       -0.009398273 0.04626353 0.18919116 -0.1762089
000300 84 a8 f4 3d 93 65 33 3e 23 16 69 be c0 fd c6 bd
       0.11946204 0.17519216 -0.2276235 -0.09716368
000310 c6 df a7 bd 63 8e 0a 3d 32 3c 61 3e 45 ea 40 3d
       -0.08196978 0.033827197 0.21995619 0.047098417
000320 fc 7e 12 3e b9 32 3d 3e fd d2 30 3e 00 5c 50 be
       0.14306253 0.1847638 0.17267986 -0.20347595
000330 90 48 06 be d6 ea 05 bd 8a 47 b6 bc 83 b5 0d 3d
       -0.13113618 -0.03269466 -0.02225091 0.03459693
000340 12 d7 4a 3e 7f 6f 53 3e b3 27 58 bd 95 4d d8 bd
       0.19808605 0.20648001 -0.052772235 -0.105616726
000350 6a f0 f9 3c a0 2d 08 3d 7e e3 13 3e b3 e8 a5 3d
       0.030510146 0.033246636 0.1444225 0.081010245
000360 3c fe 80 3d 89 9d 9c 3d d9 c6 41 3e 2c 3f 0c 3e
       0.06298491 0.07647235 0.1892351 0.13695973
000370 60 95 9a bc 8d a0 2e be 03 45 30 3e 8b 6e 5f bc
       -0.018870056 -0.17053433 0.17213826 -0.013637195
000380 21 52 2a be b0 ea 6c bd a2 10 2c 3e 26 5c bd bd
       -0.16632892 -0.057841003 0.1680322 -0.092460915
000390 0c 7c b8 bc 18 4f 9b 3d 06 f6 37 3e e1 1b e8 bc
       -0.022520088 0.07583445 0.17964944 -0.028333606
0003a0 b4 b1 22 be fa 64 aa bd 56 5e a1 bd 66 77 f7 3c
       -0.15888101 -0.08320041 -0.07879321 0.0302083
0003b0 6f b9 18 be 98 21 52 3e 53 d6 7d 3d 85 c6 2f be
       -0.14914487 0.20520627 0.061971974 -0.17165573
0003c0 51 37 fe 3d c7 c5 75 3c cb 99 5a 3e 40 87 5e ba
       0.124128945 0.015000767 0.2134773 -0.0008488782
0003d0 d4 72 63 b9 5b 1c 4b be 47 24 42 be 7d 22 a3 3b
       -0.00021691184 -0.19835036 -0.18959151 0.0049784766
0003e0 0f 39 40 3e e1 77 05 be 5c 78 3d 3d b8 f9 1e be
       0.18771766 -0.13034011 0.04625736 -0.15524948
0003f0 37 57 38 be 91 97 ad bd 10 51 10 be 4b 8a 48 be
       -0.1800202 -0.084761746 -0.14093423 -0.19584005

feature_projection_high.bias f4 [32]
000000 83 bf 53 be c9 d8 0a 3e b9 c0 fd bc 2c 92 06 3e
       -0.20678525 0.1355926 -0.030975686 0.13141698
000010 6e d4 e0 3d df b0 88 3c 8a e6 1d bd 94 be 08 be
       0.10978018 0.016685901 -0.038549937 -0.1335395
000020 b9 a2 82 3d 67 b2 61 be db 7b d9 bd 89 60 42 3e
       0.06378693 -0.22040711 -0.10619327 0.18982138
000030 9d c4 fd bc 3f 4a 4f 3e c7 b9 11 3e f8 eb 5d bd
       -0.030977542 0.20243166 0.14231025 -0.054180115
000040 9b cd 4b be 0e 87 41 3e ee 1d bf 3c 12 33 6d 3e
       -0.19902651 0.18899176 0.023329701 0.23164013
000050 d3 0b 59 be 9c c2 32 3d 5c b7 4d be e3 0e b9 bc
       -0.21195917 0.043642625 -0.20089477 -0.022590106
000060 df 26 5d be 6c 33 58 be 52 08 5f 3c 9a 9d 73 3e
       -0.2159686 -0.21113366 0.013612824 0.23790589
000070 79 85 da 3c 0b 45 88 bc f8 d1 6c 3e 6b 38 0d 3d
       0.026674973 -0.016634485 0.23126972 0.034477632

feature_norm.weight f4 [32]
000000 db ec 73 3f 84 d6 75 3f 4f 75 74 3f 36 ec 76 3f
       0.9528329 0.9603045 0.954915 0.9645418
000010 fd 7f 75 3f 91 e0 73 3f 77 84 74 3f 4f 97 75 3f
       0.9589842 0.95264536 0.95514625 0.95934004
000020 d3 86 78 3f 09 90 75 3f 61 a4 75 3f ee fb 74 3f
       0.97080725 0.95922905 0.9595395 0.95696914
000030 46 37 73 3f 2a 20 75 3f a8 60 74 3f f0 52 73 3f
       0.95006216 0.95752203 0.95459986 0.9504843
000040 42 d4 75 3f a3 1c 76 3f 00 d6 75 3f 75 37 7a 3f
       0.96027005 0.96137446 0.96029663 0.9774087
000050 00 11 76 3f b3 df 76 3f 34 49 73 3f 11 45 73 3f
       0.9611969 0.9643509 0.95033574 0.9502726
000060 00 f3 7d 3f a2 bb 76 3f 75 e4 78 3f 0b f3 77 3f
       0.99198914 0.96380055 0.972236 0.9685523
000070 ad a2 76 3f 91 12 76 3f a2 09 78 3f b9 b4 7b 3f
       0.96341974 0.9612208 0.968897 0.98322636

feature_norm.bias f4 [32]
000000 f9 3e 72 bc b9 6d b7 ba fc bf c8 ba 48 db 44 3a
       -0.014785522 -0.0013994492 -0.0015316005 0.0007509482
000010 05 72 29 bc c0 2d dc bb fa 4d f9 bb e4 8c 37 bc
       -0.010342126 -0.006719321 -0.0076081725 -0.011203025
000020 fb 5e 19 3c f6 61 90 bb 5e c9 ae 3b 2d f1 54 bc
       0.009361024 -0.004406209 0.0053340634 -0.012996954
000030 8b c5 82 3c e1 ce 2e 3c a3 77 80 bb 76 5b 22 bb
       0.015963336 0.010669441 -0.003920512 -0.0024773753
000040 16 1f 5a bb a8 0b 27 bc 4c 0a b1 39 9f 46 3d 3a
       -0.0033282689 -0.01019565 0.00033767743 0.0007220301
000050 47 18 90 3b 86 df b1 bb ab 92 91 3b 18 3e f9 39
       0.0043974253 -0.0054282574 0.004442533 0.00047539244
000060 59 62 31 b9 72 33 82 3b 44 ab c7 3b 62 0a d9 bb
       -0.00016916673 0.003973418 0.0060934145 -0.006623552
000070 40 a3 06 3c 7e 13 28 3b ab 26 bf 3b 59 d5 61 3c
       0.008217633 0.0025646384 0.005833467 0.013783776

spatial_module.u f4 [4, 52, 16]
000000 a4 1d 1c 3b c5 57 d3 3c e8 93 b9 39 e8 c4 38 3a
       0.0023821378 0.025798688 0.00035396148 0.0007048384
000010 e9 65 15 bb 9e c6 39 b8 c0 fa d3 bc 1a 90 bb bc
       -0.002279634 -4.4292414e-05 -0.025876403 -0.022895861
000020 cc 4c bc ba b9 a7 9e bc 9c 72 82 3b 95 08 8f 3c
       -0.0014366149 -0.019367086 0.0039809477 0.017460147
000030 9c 0f f6 ba e4 12 b6 ba da 25 f3 bc c6 e1 96 ba
       -0.0018772963 -0.0013891128 -0.029681135 -0.0011511378
000040 92 64 85 bc 29 b7 05 bd 42 eb 7f b9 44 ae ad b9
       -0.016283307 -0.03264538 -0.00024406335 -0.0003312697
000050 ef b7 06 3d 04 70 c5 3a 29 05 49 bc bb 48 d6 bc
       0.032890256 0.001506329 -0.012269297 -0.026157727
000060 28 de 94 39 9f fb ae bb 3c 1a 57 3a 09 5c 48 3c
       0.0002839428 -0.005340054 0.00082055083 0.012228974
000070 0f ce d2 3c 06 e9 5f ba 52 70 3c bc be ee a5 bb
       0.025733022 -0.0008541498 -0.011501389 -0.0050638607
000080 6a 83 2c 3c c4 7e 95 ba 83 6b 9b 39 c5 eb 0c bd
       0.010529378 -0.0011405577 0.00029644006 -0.034404535
000090 fc 26 9e 3b e0 f8 29 3c b4 55 f0 b9 e8 ef 4f ba
       0.0048264246 0.010374278 -0.0004584022 -0.0007932172
0000a0 71 a7 da ba 32 8e 35 b8 11 c1 b4 b8 30 08 d5 ba
       -0.0016681982 -4.3286193e-05 -8.61903e-05 -0.001625305
0000b0 3a f4 46 39 ea ab 05 3d fe 79 36 3c a8 f3 7a b9
       0.00018973733 0.032634653 0.011137484 -0.00023932627
0000c0 f2 8b e6 bc 68 af eb ba 31 88 9d ba 3c 38 38 bc
       -0.028142903 -0.0017981352 -0.0012018738 -0.011243876
0000d0 a7 76 cd ba 76 76 51 ba 98 ed 25 bc 83 93 fd 39
       -0.001567562 -0.00079903693 -0.010127448 0.00048365825
0000e0 dc 87 45 b9 44 49 92 3c 0e 1a c2 38 74 6c dd 3c
       -0.00018837996 0.017857201 9.255494e-05 0.027029254
0000f0 f8 18 db 3c be 9d 02 3b 24 7f 62 3a 23 e9 bf 3a
       0.026745304 0.0019930447 0.0008640161 0.0014641624
000100 90 a3 b2 3c 16 3b f7 3a f4 6e 12 38 d0 9a 0d 3c
       0.021806508 0.0018862213 3.4912446e-05 0.008642867
000110 09 ea b3 bc b4 9a 8b 3a 42 d6 b6 39 56 77 05 bd
       -0.021962183 0.0010650964 0.0003487338 -0.03258451
000120 37 3c de 3c ba 02 31 b9 c7 e8 e3 3c 03 f8 e6 3a
       0.027128322 -0.00016881051 0.027820958 0.0017621521
000130 01 c6 83 39 d8 2b c6 3a d0 b6 3a 3a a4 14 d4 3a
       0.00025133791 0.0015119268 0.0007122578 0.0016180468
000140 b7 02 69 3c ee 08 ed 3c 32 d6 e0 ba 3f e7 c1 3b
       0.014221839 0.028934922 -0.0017153679 0.0059174593
000150 c0 ac c3 38 50 1c 0a b7 4a 02 92 bc 36 7a 76 ba
       9.330502e-05 -8.232033e-06 -0.017823357 -0.0009402366
000160 aa f1 fd 3a ce dc b5 ba 9d e1 3c bc f7 34 8a b9
       0.001937439 -0.0013875009 -0.0115284 -0.00026360873
000170 80 05 98 3a 6e 3e fd bc ca e0 fc bc 84 bb fb 3c
       0.0011598319 -0.030913558 -0.030868907 0.030729063
000180 88 e6 96 36 50 04 d7 bc 9b d2 60 3a c3 1e 9a b9
       4.4971857e-06 -0.026247174 0.00085763045 -0.00029396088
000190 f3 37 c0 3c 72 f1 03 3d 10 da 8f 3a d3 eb 08 bc
       0.023464179 0.032212682 0.0010975022 -0.008357006
0001a0 ae 68 dd bb 80 37 ab 3a c4 97 b0 bb 75 c3 ee 3c
       -0.0067568636 0.0013062805 -0.0053891856 0.029145936
0001b0 d5 9d b7 3a 78 df 6b 3b 38 dc 44 3a b7 4b f6 b9
       0.001400883 0.0035991352 0.0007509622 -0.00046977188
0001c0 4f a5 13 3b de e2 cd 3c ff 85 73 b9 36 e9 8f 39
       0.0022528952 0.025132593 -0.00023224203 0.0002744884
0001d0 bb 44 c9 bc 13 14 ba 39 2b 95 df b8 f6 5a a8 3c
       -0.024568906 0.0003549164 -0.00010661253 0.020551186
0001e0 2e 00 34 b9 d0 2e a5 3c cc bd a2 3c 42 f9 ac ba
       -0.00017166205 0.020163924 0.019865893 -0.0013196843
0001f0 5c 0e 0e 3a b6 59 07 3d 1a 90 f2 ba 2b f3 ce 3b
       0.000541901 0.03304454 -0.001850608 0.006315609
000200 8f ea 54 ba 0d 3d 01 3b f6 37 20 ba be 49 68 bc
       -0.000812211 0.0019720227 -0.00061118545 -0.014177738
000210 23 b2 fb 3c 38 65 49 39 57 93 a3 3c d6 85 75 bc
       0.03072459 0.0001920656 0.019967718 -0.014985522
000220 c1 4f f9 bc 93 2d e1 b8 7c 08 1e b9 38 36 63 3a
       -0.030433537 -0.00010737325 -0.00015071215 0.0008667442
000230 48 a7 84 3b b5 b5 3c bc e4 96 df 3c 47 5a 0e bd
       0.004048262 -0.011517932 0.02729363 -0.034754064
000240 e6 80 aa 39 85 b7 f3 bb 40 3a 32 37 c9 df 11 3d
       0.00032520964 -0.0074376487 1.0623189e-05 0.03561381
000250 db f6 ce 38 14 f3 e2 b9 86 8d 96 3a b2 05 65 bb
       9.868826e-05 -0.00043287186 0.0011486269 -0.0034946022
000260 67 50 d2 bc 67 46 e5 3b 21 bd 31 b8 4e 57 fb ba
       -0.025673104 0.006996918 -4.237623e-05 -0.0019175799
000270 ea 33 a0 bc d0 67 c5 bc 97 98 f3 bc 5f 86 e3 bb
       -0.019556005 -0.024097353 -0.029735846 -0.0069435085
000280 0e d1 5b b9 3d 8e 3e ba 92 bd 89 39 fa 6e fd ba
       -0.00020963346 -0.000726912 0.00026271917 -0.0019335442
000290 95 c9 0d 3d 98 bf 65 ba 03 50 03 bd 49 ef 98 3c
       0.03461607 -0.00087642064 -0.032058727 0.018668788
0002a0 4b 73 34 bc dd 00 f2 b9 41 8f f6 39 1e 40 77 b9
       -0.011013816 -0.0004615848 0.0004702751 -0.00023579641
0002b0 c8 41 11 38 24 91 10 bd 46 7b ed 3c 42 4b 3b bc
       3.4631958e-05 -0.035294667 0.028989445 -0.011431517
0002c0 57 91 12 3c 2a 4f 00 bc 2a 3a 56 3a 3e de e0 38
       0.0089457845 -0.007831374 0.0008172119 0.00010722548
0002d0 00 a2 94 3a e8 1a 03 b8 cb dc ca bc 3b c6 63 bc
       0.0011339784 -3.1257892e-05 -0.024763485 -0.013902242
0002e0 bf 5e 2f 39 1f 34 e9 3a ec b8 04 ba 4f 86 89 ba
       0.00016724596 0.0017792023 -0.0005062956 -0.0010492298
0002f0 cc a9 20 b9 ba 3a 05 bd a8 f5 d9 3a f5 14 fc ba
       -0.00015322043 -0.03252671 0.0016628997 -0.001923232
000300 4c bb e8 ba bc d4 08 3b 6e a2 09 39 cd 53 60 3c
       -0.0017756014 0.0020878753 0.00013125848 0.013691855
000310 59 04 61 bc 87 5a c9 bc ec 5a ad 3a a4 cf 04 38
       -0.013733947 -0.0245793 0.0013225949 3.1664633e-05
000320 03 aa 87 3c 85 4c e4 bb 51 a3 72 bc 78 a8 0d b7
       0.01656056 -0.0069671297 -0.0148094455 -8.44348e-06
000330 3d de 86 ba da 4b f5 bc fa 1c 6d 3a 4d be a9 bc
       -0.0010289621 -0.029943395 0.00090451504 -0.020720625
000340 e6 8c f4 b9 96 a4 e6 b9 ee 6b e7 bc 13 14 4d bc
       -0.00046644284 -0.00043991645 -0.028249707 -0.012516993
000350 bc 7e 3d b9 fa 91 a8 3a fa ba a2 bc 1a ba f8 3a
       -0.00018071657 0.0012860887 -0.019864548 0.0018976361
000360 99 24 f9 bc 24 e5 88 39 9a d8 4f 39 40 a7 97 37
       -0.030412959 0.00026110664 0.00019821749 1.8078485e-05
000370 e4 9a 86 b9 6a 4c 5d ba b9 09 b1 3c d5 ce eb 3a
       -0.00025673874 -0.00084418675 0.021611081 0.0017990718
000380 e3 41 3e 3a 94 bf c3 ba 68 34 b6 37 68 7b 8b bc
       0.00072577427 -0.0014934414 2.1720494e-05 -0.017026618
000390 83 62 cb bc aa a9 c8 ba 11 ba fb ba 54 5b 0f 3c
       -0.024827247 -0.0015309353 -0.0019205232 0.008749802
0003a0 f7 9b c2 b9 43 85 b6 3c 5e b1 15 3d c2 27 59 ba
       -0.00037118766 0.022280341 0.036546104 -0.00082838174
0003b0 84 65 a2 3a 6e 4c 01 3b cc 6f db bc ea e9 e3 3b
       0.0012389873 0.0019729394 -0.026786707 0.006955375
0003c0 72 c3 c5 b9 2e 85 8d 3a 3b 46 34 3c a6 b0 87 39
       -0.00037720386 0.0010797137 0.011003072 0.0002588082
0003d0 40 36 c6 35 8f 1d b7 3c b8 3f a1 bc e2 59 e1 3c
       1.4767938e-06 0.022352962 -0.019683704 0.02750868
0003e0 d8 ec 7b 3b c2 48 01 3b 16 e6 bb bc 15 3a 96 3b
       0.003844073 0.0019727205 -0.022936862 0.0045845606
0003f0 08 86 e9 3a 10 13 48 ba 90 96 e3 3a ee 63 f0 ba
       0.0017816434 -0.0007632235 0.0017363597 -0.0018340328

spatial_module.v f4 [4, 16, 52]
000000 51 b1 4d 3c 6a c4 17 ba 22 16 0f 3a 54 e0 fe 3c
       0.012554483 -0.0005789461 0.0005458315 0.031112827
000010 54 c3 fb bc e8 2b 1a b9 12 a5 db 3a ca c1 3b ba
       -0.030732788 -0.00014702941 0.0016757569 -0.00071623607
000020 7f 83 8a b8 4b 66 dd b9 f6 92 ee 3c 4a 87 c6 ba
       -6.604846e-05 -0.0004222862 0.02912281 -0.001514652
000030 8f c4 f0 bb 19 94 ed 3c 0a c6 91 3a e1 57 a7 39
       -0.0073476504 0.029001283 0.0011121642 0.00031918197
000040 2a 0d a0 b9 e4 c0 5e bc 76 72 cd 3a 58 24 cc bb
       -0.00030527386 -0.013595793 0.0015674371 -0.0062299185
000050 d7 10 c2 bc e6 02 a6 3c cf 18 bd 3b ce e1 a5 3a
       -0.02368967 0.020265054 0.0057707797 0.0012655796
000060 a1 74 4b bc d2 c2 c8 3c 85 f8 02 bb 12 0d 19 bc
       -0.012417943 0.02450696 -0.0019984555 -0.009341495
000070 16 73 a1 bc 84 bd b2 3a 1c f2 6d bb 0c 31 98 39
       -0.019708198 0.0013636802 -0.0036307639 0.00029028242
000080 05 f3 bc b9 a9 f8 f2 bc 3e dd a8 3a 82 01 d1 3a
       -0.00036039218 -0.029659586 0.0012883318 0.0015945884
000090 00 7e ca bc de 1c 93 3c f3 20 d6 3a 1f 49 ed 3a
       -0.024718285 0.0179581 0.0016336724 0.0018103457
0000a0 33 42 f4 3c a2 27 b2 3b be 4e 20 3c 1d b6 0e 39
       0.029816722 0.0054368535 0.009784399 0.00013610018
0000b0 f7 3a ca 39 e4 15 ac bc 7f 2b 55 bc cf e3 93 3c
       0.00038572375 -0.021006532 -0.013010859 0.018052964
0000c0 58 c6 ce bc 61 34 82 ba ba e8 ac bb fd ec b4 3c
       -0.025241062 -0.0009933823 -0.0052767666 0.022085661
0000d0 29 93 61 3c 1a 72 57 b9 b0 62 10 39 89 ba 35 bc
       0.013767996 -0.00020546504 0.00013769674 -0.011091837
0000e0 be 3a d9 3c 48 c4 c3 bb 2e a6 02 bb 5a 9e 3c 3c
       0.026517268 -0.0059743263 -0.0019935477 0.011512363
0000f0 68 24 ea bc fa cf f5 bc 86 ad 3d bc 24 91 fa b9
       -0.028581813 -0.030006398 -0.011577016 -0.00047791854
000100 d6 f3 e4 3b dd e6 d5 3a 36 a2 b4 3a 27 9d 1a 3c
       0.0069870753 0.0016319413 0.0013781253 0.009436882
000110 2c 0d 92 3c e2 9f 18 3b 75 69 b3 3c e3 00 c8 bc
       0.017828546 0.0023288657 0.021900872 -0.024414485
000120 10 8e c2 bc eb 7b 4b 3a 8e cd a5 bc 51 80 96 3a
       -0.023749381 0.00077623007 -0.020239618 0.0011482333
000130 ec 2f ce 3b 47 1a ef 3c dc d7 39 ba b2 22 bd bc
       0.006292334 0.029187335 -0.00070893555 -0.023087833
000140 8c 09 7e ba ac 31 ef 3c 2e 47 60 ba 0d bb d7 bc
       -0.00096907536 0.02919849 -0.00085555285 -0.02633431
000150 ed b9 1f bb 3b 9d e8 bb f8 be 39 3a b5 ae 53 bc
       -0.0024372295 -0.0070988215 0.00070856465 -0.012920071
000160 71 50 01 3b 23 5e d0 3c ef 27 87 b9 d0 0d f1 b9
       0.0019731785 0.025435513 -0.0002577896 -0.00045977393
000170 23 c0 7f 3b eb 37 da bc 45 91 13 bb 72 09 68 38
       0.0039024435 -0.026637992 -0.0022517007 5.5321907e-05
000180 6b d1 89 3c 34 e4 3d 39 94 d8 a6 b7 25 f0 fd 3a
       0.016823491 0.00018109457 -1.9889594e-05 0.0019373937
000190 c0 44 b3 b8 4a dc 84 3a e4 51 22 ba 10 3a 81 3a
       -8.548191e-05 0.0010136452 -0.0006192012 0.0009859223
0001a0 b0 ac fa ba fb ad fd 3c ac 98 72 bc 96 ac 99 b9
       -0.0019124951 0.03096675 -0.014806908 -0.0002931102
0001b0 7f 42 98 b9 3e 84 a3 ba 73 9a 48 bc 3f e6 8e 3a
       -0.00029041243 -0.0012475324 -0.012243855 0.0010902359
0001c0 fe 48 87 bc 1c 92 77 3c a5 96 44 bc ff 79 d0 3b
       -0.016514298 0.015110519 -0.011998807 0.0063621993
0001d0 6b 55 9f 3c 24 71 61 ba 64 f7 d7 3c d3 44 52 3c
       0.01944991 -0.0008599928 0.026363082 0.012833792
0001e0 bb 41 39 bc 27 d8 8e 3b 6e 13 1f ba 72 13 8a 3c
       -0.011307175 0.0043592635 -0.0006068264 0.016854975
0001f0 6e ad 76 bc 43 a1 85 3c 05 d8 88 39 a6 22 51 3a
       -0.015055997 0.016312247 0.00026100888 0.00079778803
000200 20 23 6c bb 0f 17 14 3c 18 46 93 b9 39 14 9e 3c
       -0.0036031678 0.009038701 -0.0002809025 0.019296752
000210 40 2e 8f b8 d8 52 e3 3b 79 4b f7 bb 7f 80 bf bc
       -6.827386e-05 0.006937366 -0.007546839 -0.023376701
000220 2b e7 02 bb cb 7b 20 3b 90 6b 8f ba 42 f7 e7 ba
       -0.0019974213 0.002448785 -0.001094209 -0.001769759
000230 d0 42 14 3c 1a 41 ec ba ec 5c 30 3b 41 09 f0 39
       0.0090491325 -0.0018024773 0.0026910855 0.00045783262
000240 e0 27 95 3a e4 70 b6 bb 70 36 fb bc 20 22 5f 3c
       0.0011379682 -0.005567657 -0.030665606 0.013618976
000250 f1 5d 64 38 73 23 12 39 cb 81 43 bc 64 e4 6f bc
       5.4446926e-05 0.00013936851 -0.0119328005 -0.014641855
000260 f2 f1 9b 3c 4c 5b 40 3c 3e bb 40 3b 1a d1 90 3c
       0.019036267 0.011740517 0.002940848 0.017677832
000270 3e c9 93 3c dd 67 af 3b f0 fc 51 3c d1 dd ff 38
       0.018040296 0.0053529576 0.012816653 0.00012200664
000280 1f e6 35 ba fb e1 b0 bc 98 6d 02 3b a6 1c a1 39
       -0.0006938893 -0.02159213 0.0019901749 0.00030729658
000290 db fe 4b 39 41 59 f7 3c 7f 70 99 3c 21 22 e9 ba
       0.0001945453 0.030193927 0.0187304 -0.001778666
0002a0 ce 17 d9 3c 10 09 d3 ba e0 26 4f 3a 79 6d 8d bc
       0.026500609 -0.0016100723 0.0007902216 -0.017264115
0002b0 0c 15 ac bc 8e a7 2e 3b 4b 30 f2 ba 69 ed 9f 38
       -0.02100613 0.0026650163 -0.0018477527 7.625932e-05
0002c0 03 71 09 bc 3c 8e 50 3c 8c ab 4a b9 94 11 2b 3c
       -0.0083887605 0.012729224 -0.00019328127 0.010441203
0002d0 15 02 33 bc 5b 84 80 3c d4 b4 52 39 69 2c e5 3a
       -0.010925789 0.015688112 0.00020094524 0.0017484549
0002e0 0c c7 c2 b7 92 f3 81 bc 08 f7 61 ba ca af c6 38
       -2.321929e-05 -0.015863214 -0.00086198794 9.474119e-05
0002f0 ef 2e 64 bc a4 64 3e 3b 1a ea df 3c e9 ee f1 3a
       -0.0139272055 0.0029051686 0.027333308 0.0018458042
000300 9a 52 68 ba 5b 89 e4 bb e1 0a 8d bc 59 c5 db bb
       -0.0008862406 -0.006974382 -0.017217102 -0.0067068753
000310 c1 e5 b9 3b 1d c0 22 b9 88 6f fa 3a 14 53 52 b7
       0.0056731408 -0.00015521092 0.0019106725 -1.25363185e-05
000320 a3 bb 27 ba 1b 15 89 b8 a5 fb fb bc 6e 14 a9 3c
       -0.00063985045 -6.5366e-05 -0.030759642 0.020639624
000330 a2 0c 03 3b e0 ed b1 bc 0e d3 8d b8 f4 37 ca ba
       0.0019996543 -0.021719873 -6.762716e-05 -0.0015428052
000340 97 75 80 b9 03 34 ba ba ba c8 8b b9 40 07 6d bc
       -0.00024501674 -0.0014206175 -0.000266617 -0.014467061
000350 47 f0 71 bc 43 af 15 bc b6 67 f0 bb f5 30 f0 3b
       -0.014766759 -0.009136024 -0.007336582 0.007330055
000360 b5 30 c8 bc e6 b6 1d ba 74 7e b0 3a 4e 50 13 3c
       -0.024437288 -0.00060163287 0.001346542 0.008991314
000370 2c 48 88 b9 ce 4a 5d bb af 5c 97 3c 73 76 76 bc
       -0.00025993714 -0.003376651 0.018476812 -0.015042889
000380 62 54 f5 3a 17 f6 cd bc 57 ed e0 b8 7b 41 a6 ba
       0.0018717165 -0.025141759 -0.0001072536 -0.001268431
000390 83 b0 b8 3c 56 b2 54 bc b7 7c 1c bc 38 c3 fe 3c
       0.022545105 -0.012981972 -0.009551219 0.031098947
0003a0 aa 2b 60 3a b6 3c 26 bc 06 8d 80 ba bf 57 ea 3c
       0.00085514283 -0.010146311 -0.0009807653 0.028606294
0003b0 db 4e d3 38 8b 47 6e 39 10 90 2e bb f6 32 02 3b
       0.00010075952 0.000227241 -0.002663616 0.00198668
0003c0 6a cb d2 3a ff 74 43 bc d9 60 cc 3c 2c d6 df bb
       0.0016082351 -0.0119297495 0.024948524 -0.006830951
0003d0 d3 2f 9a ba 46 2f fc 3c 82 ff 37 3a 22 88 1d bc
       -0.001176352 0.03078426 0.00070189696 -0.009614976
0003e0 16 ad 00 bb 2e be a3 3a 77 8c d7 bb a1 d6 f6 bc
       -0.0019634417 0.0012492591 -0.006578024 -0.03013164
0003f0 ee 12 e9 ba dd ed 02 3b ba a0 b4 3c 8b ab 57 ba
       -0.0017782131 0.0019978203 0.022049297 -0.0008227161

spatial_module.qkv_proj_low.weight f4 [48, 32]
000000 50 87 a6 bd a3 24 ce 3d 37 25 eb 3d 6b 5e 10 3e
       -0.081312776 0.10065582 0.114817075 0.14098518
000010 67 6b 03 3e a1 76 16 3e f7 a2 6f bd 38 be e5 3c
       0.1283394 0.14693691 -0.058505025 0.028044805
000020 86 72 78 bd 16 8d 8e bc 6f 19 09 3e cf d7 0c be
       -0.060656093 -0.01740126 0.13388608 -0.137542
000030 0b db a4 3d 6a da d4 bd ff 52 c9 3b ec 81 55 bc
       0.08049592 -0.10393222 0.006143927 -0.013031464
000040 29 9c 96 bd 6b e1 31 3c 91 9c b0 bd 6a a7 1a 3e
       -0.07354004 0.0108569665 -0.08623613 0.15102926
000050 52 b2 6f bd 83 e2 ce 3d 62 5e b8 bb 63 ef bd bd
       -0.05851967 0.101017974 -0.0056264857 -0.09274175
000060 59 19 10 3e 56 31 4c bd 37 33 9c bd 0c 65 ea 3b
       0.1407217 -0.049851738 -0.07626956 0.007153159
000070 d0 d9 5b 3b aa d8 1f 3d b0 d4 4c bd b6 7c 78 bd
       0.0033546574 0.039024986 -0.050007522 -0.06066581
000080 c5 13 c0 3d 1a d4 83 3d bc 32 1a 3e 20 29 29 3c
       0.09378771 0.064369395 0.15058416 0.010324746
000090 a5 dd 51 bd 26 f6 35 bd da 42 07 bd b5 c2 5a bd
       -0.051236767 -0.0444242 -0.03302274 -0.053408343
0000a0 3f c8 82 bd 7a 7c 40 bd 7c 5a 72 3d e1 79 78 3d
       -0.0638585 -0.04699371 0.059168324 0.060663108
0000b0 39 54 fb 3d c4 75 38 be 8f 20 0e 3e e3 28 bb bc
       0.122719236 -0.18013674 0.13879608 -0.022846645
0000c0 b8 f2 2c be 36 d9 d3 3d 89 97 d5 bd 63 55 b2 bd
       -0.16889465 0.10344164 -0.10429294 -0.087076925
0000d0 62 68 71 3d 25 d0 90 3c 49 29 9d 3d 0c 5a 9f bd
       0.058937438 0.017677376 0.0767389 -0.07780847
0000e0 68 21 c8 3d d5 51 a8 3d 6e 6c ca 3d f6 f5 83 bd
       0.09771997 0.08218733 0.098839626 -0.06443398
0000f0 4e d4 0e 3d 9e 96 33 3d a3 31 20 3e f8 d0 ee bd
       0.03487044 0.04384481 0.15643935 -0.116609514
000100 42 57 19 be 52 e5 10 be 73 1a f6 3b ca 86 0e be
       -0.14974692 -0.14149979 0.007510477 -0.13918605
000110 3e ce 17 bc 57 51 8a bd 93 d9 16 3d 34 ad f7 bd
       -0.009265481 -0.067537956 0.03682859 -0.12093583
000120 fb 27 f4 3d e2 bf 17 be 87 2f a8 bd d1 31 3f 3c
       0.11921688 -0.14819291 -0.0821219 0.011669592
000130 fd 5b 2c be 6e dd 42 3d 50 db 82 bd 85 6f 5c bd
       -0.16831966 0.047574453 -0.06389487 -0.05381729
000140 f5 ea dc 3d 7f b1 4b bd 06 f0 16 3d c3 63 a7 bd
       0.10787002 -0.04972982 0.036849998 -0.08173325
000150 c6 22 a8 3d 5b b2 1d 3e 0b 41 fc 3d 30 49 84 bd
       0.082097575 0.15400068 0.123170935 -0.06459272
000160 86 68 2f be ab f3 00 be 31 5b 83 3d 55 97 8f 3d
       -0.17129716 -0.12592952 0.06413878 0.07011286
000170 7a e4 b5 3d 7e 28 91 3d e5 e0 37 3e f8 14 0f be
       0.08881469 0.070878014 0.17956884 -0.13972843
000180 7e ec 0a be 87 fd 25 bd 4b ae fa 3d 53 e3 07 be
       -0.13566777 -0.040524986 0.12240275 -0.13270311
000190 74 99 16 3e 4e 92 0d 3d 44 f3 db 3d d7 6e 26 3e
       0.14706975 0.034563355 0.107397586 0.1625322
0001a0 36 8d 34 3e 7b f2 23 3e f3 33 d7 bc 68 c8 93 bd
       0.17631993 0.16010468 -0.026269889 -0.07215959
0001b0 37 18 46 3d 3d c4 20 3e 79 d0 7d 3b 1e 89 9a bc
       0.048362937 0.15699859 0.0038728996 -0.01886421
0001c0 50 8f 10 bd 61 5f 57 bd 69 eb 97 3d ad 94 31 be
       -0.035292923 -0.052581195 0.07417948 -0.17341872
0001d0 f6 77 11 3e 2b 59 32 3a a8 ea 77 bd 28 6c a3 bc
       0.14205918 0.0006803448 -0.06052652 -0.019949034
0001e0 be 64 e1 bd c8 e4 1f be db c6 03 3d 00 7e ec bc
       -0.11005543 -0.15614617 0.032172065 -0.028868675
0001f0 3e 09 a6 bd c0 1f ce bc 6c 75 48 bc 2d 0a 93 3d
       -0.081072316 -0.025161624 -0.012235027 0.07179675
000200 a3 24 f3 bd 5c 3a 09 bc da a2 fb 3b d9 33 0f be
       -0.11872222 -0.00837573 0.0076793255 -0.13984622
000210 5d 4a 1f 3e a5 24 93 bd 2f e0 08 3e 40 f0 03 3e
       0.15555711 -0.07184724 0.13366769 0.12884617
000220 b6 b7 97 3b 9d 9d f7 3d 72 bc db bd f1 96 79 bc
       0.0046300543 0.12090609 -0.107293025 -0.015233741
000230 e9 f0 f4 bd 1f 8e dc bd 3f fc 63 3d 66 4e bc 3d
       -0.119600125 -0.10769295 0.055660482 0.09194641
000240 15 19 c4 bd 48 6e 91 bd ea 65 b6 bd 56 21 8e bc
       -0.095750965 -0.071011126 -0.08906157 -0.01734988
000250 5e e5 0f be b5 25 0b be dd 58 54 bb 4f b0 f8 3d
       -0.1405234 -0.13588603 -0.00324016 0.12143003
000260 20 1f fc 3c ed 43 83 bd 2d 5f e5 3d 0c 35 df 3d
       0.03077656 -0.0640944 0.11199794 0.1089879
000270 82 c2 eb 3d f0 17 6f 3b 5c 90 9e bc cc 5d e2 3d
       0.11511709 0.0036482774 -0.019355945 0.110530466
000280 a6 64 9d 3d d2 64 02 3e c4 c8 f5 3d b1 bf 2e bd
       0.07685213 0.12733772 0.12001184 -0.04266328
000290 97 8a 1a 3e 79 00 25 3d 61 87 26 3e 32 9e 2c 3e
       0.1509193 0.040283654 0.1626258 0.16857222
0002a0 e9 e5 0f 3e 8c 3e dc 3d 5e 09 dd 3d 19 2a 9f bd
       0.14052548 0.10754117 0.10792802 -0.07771701
0002b0 84 a7 67 bd 5a b1 0d bd c8 96 c2 bd 34 b8 b0 3d
       -0.05655624 -0.034592964 -0.095014155 0.08628884
0002c0 5b 01 8d 3c 3d e8 24 bd fd 38 8a bd c5 33 18 be
       0.01721256 -0.040260542 -0.06749151 -0.14863499
0002d0 28 a7 ef 3b da 88 22 3e 25 5c 8d 3d c4 ce c3 3d
       0.0073136277 0.15872517 0.06902341 0.09560922
0002e0 7c e8 e8 3d 16 3a 9d 3d 86 0a 1c ba 60 40 fe bd
       0.11372468 0.07677095 -0.0005952496 -0.12414622
0002f0 da 6e fb 3d 1b 04 f3 bd da f2 cd bd 2c 2c 9c 3d
       0.12277003 -0.118660174 -0.10056086 0.076256126
000300 9a 05 86 3d 16 1b b2 bd a7 f0 e8 3d 0b d7 13 be
       0.06544037 -0.086965725 0.11374026 -0.14437501
000310 aa 44 0c 3d 3c 51 8f 3d 1f 2e 7b 3c 2d 17 c4 bd
       0.03424517 0.06997916 0.01533082 -0.09574733
000320 15 d9 ee bd 04 b7 dc 3d 5e 64 ca 3c 94 98 7c bd
       -0.11662499 0.10777095 0.024706062 -0.061668947
000330 9c bc 0e 3e f0 ac 11 bd 5e 0f 2e bd cc 43 d7 3c
       0.13939136 -0.035565317 -0.042495124 0.026277445
000340 17 81 f7 3d 09 f0 8f bd 75 3d e9 3a 6b 18 94 bd
       0.12085169 -0.07028205 0.0017794805 -0.0723122
000350 61 25 b6 bd 0f f8 90 bc 14 63 4f bb 2a 21 4a 3d
       -0.08893848 -0.017696409 -0.0031644749 0.049348034
000360 8d b2 16 be 77 ee d7 3d e2 d0 02 3e 19 30 96 bc
       -0.14716549 0.105435304 0.12774995 -0.018333482
000370 49 9d e1 bc fc 73 12 3d e7 07 23 be 23 c6 10 3e
       -0.02754082 0.035755143 -0.15920983 0.14138083
000380 64 73 05 bd 41 1c a5 3c 6e ba 97 3d e0 39 a8 3d
       -0.03258075 0.020155074 0.074086055 0.08214164
000390 c0 97 97 bd 7a df ed bd 96 7f 23 be 42 ff 0f be
       -0.07401991 -0.116148904 -0.15966639 -0.14062217
0003a0 e5 d3 f3 bc 61 60 03 be 46 ca 57 bc 51 18 a3 bd
       -0.029764125 -0.12829734 -0.013170784 -0.07963622
0003b0 1a 33 a6 3d d2 bb 02 3e 26 06 13 3e 29 f0 af bd
       0.081152156 0.1276696 0.14357814 -0.08590729
0003c0 87 aa df bd 6c 19 91 3d 69 80 fd bc 2a ba 0c 3e
       -0.109211974 0.07084927 -0.03094502 0.13742891
0003d0 81 3c 21 be 71 5b 2c 3e a8 85 9f bd 63 47 c1 bd
       -0.15745737 0.16831757 -0.07789165 -0.09437444
0003e0 e6 0f 9c bc 3e 6f 93 bd 28 67 d1 bd 03 ce d9 3d
       -0.01905055 -0.07198952 -0.102247536 0.10634997
0003f0 b7 a7 07 3e 8a 55 c5 3d 68 c4 e9 3c 41 58 80 bc
       0.13247572 0.09635456 0.028536037 -0.015667083

spatial_module.qkv_proj_low.bias f4 [48]
000000 93 a0 f1 bd 7e a5 c0 3c a6 dd 06 3e 9b 0e 82 3d
       -0.11798205 0.023516413 0.1317049 0.06350442
000010 99 b5 0c 3e 27 a9 97 3d bb bc e1 3c 71 11 c9 bc
       0.13741149 0.0740531 0.027555814 -0.02454445
000020 8b aa 13 be 59 13 d8 bc 78 28 20 3e 01 f4 13 3e
       -0.14420526 -0.026376413 0.15640438 0.14448549
000030 59 9a 51 bd 81 44 1a 3e 64 2e 05 3e 17 dd 0d be
       -0.051172588 0.15065195 0.13005978 -0.1385387
000040 66 f6 25 be 86 d5 bd bd 6e c1 d1 bc 96 47 78 3d
       -0.16207275 -0.09269242 -0.02560493 0.060615145
000050 e7 29 7e 3d 4a 8b c9 3d 27 70 96 bd eb 84 f9 3d
       0.06205168 0.098410204 -0.0734561 0.12183555
000060 a3 da ec 3c 3c 16 e1 bd 3d 92 06 be 2d 5d 8e 3d
       0.028912848 -0.10990569 -0.13141723 0.069513656
000070 32 61 19 3e ea 82 cf bd 7c f7 be 3c b2 79 1f be
       0.14978483 -0.10132392 0.02331137 -0.15573767
000080 68 96 c6 3d 13 98 1d 3d 03 33 09 bd e6 8b 9d 3d
       0.096966565 0.038475107 -0.033495914 0.07692699
000090 c4 05 a1 3d 27 d1 df 3d de 7d b2 3c 18 a7 4d 3c
       0.07862428 0.109285645 0.021788534 0.012552045
0000a0 da 00 97 3d d9 7e 87 3d 29 ce 0b be 37 dc 60 bd
       0.07373209 0.06615991 -0.13652863 -0.054897513
0000b0 ea 63 b6 3d e0 ab a9 bd 9d df 09 3e 7a 06 01 bd
       0.08905776 -0.08284736 0.13464208 -0.031500317

spatial_module.qkv_proj_high.weight f4 [96, 48]
000000 54 31 c8 3d da 8c 7b bd 11 06 af 3d 16 44 6e bd
       0.097750336 -0.061413623 0.08546079 -0.0581704
000010 a5 bb 8e 3d 78 72 99 3d 88 95 5f 3d 9c 61 e3 3c
       0.06969384 0.07492536 0.054585963 0.027756505
000020 94 99 86 3d 27 a0 17 bd 0f 2f 12 bd 0b c6 93 3c
       0.065722615 -0.037017968 -0.03568941 0.01803877
000030 68 ff ad bd 5b 95 03 3c b3 d7 1f 3d 1d 9e b5 bd
       -0.084959805 0.008031215 0.039024066 -0.08868048
000040 ef 35 3b bc 35 3a 46 bb c3 6c e1 bd 3f 42 be 3d
       -0.011426433 -0.0030247096 -0.11007073 0.09289979
000050 e3 56 b7 bb ea bb da bd 41 2e ef bc f7 d7 44 3c
       -0.0055950745 -0.10680373 -0.02919686 0.012014381
000060 99 6e b6 3d d1 94 06 bd 53 80 b1 3d ef 22 1f bd
       0.089078136 -0.032856766 0.08667054 -0.038851675
000070 61 d8 b0 bd 4d 2d c1 bc c5 d9 b5 bd 59 dc 06 3d
       -0.08635021 -0.023581171 -0.08879427 0.032924984
000080 3e da b9 3d 6d 7e d9 bd f6 f1 8f bd 08 d7 58 3d
       0.090748295 -0.10619817 -0.07028572 0.052939445
000090 bd 80 93 bc d0 fe b9 3d 28 bb e3 3d 7e 7f 9c bd
       -0.018005723 0.09081805 0.111196816 -0.07641505
0000a0 8b ca 9f 3d ee 93 e8 bd 85 05 ca 3c 89 bf aa bd
       0.07802304 -0.1135634 0.024660835 -0.08337314
0000b0 f5 91 ec 3b 45 bc de 3d 12 96 70 3b f7 2f 71 bd
       0.007219548 0.10875753 0.0036710543 -0.058883633
0000c0 69 89 1c 3d c5 38 c5 bc 6a f5 e0 3d a3 03 c3 bd
       0.038216982 -0.024074921 0.10984309 -0.09522178
0000d0 53 17 df bc 0c 1b ce bd 2e d0 56 bd ad 59 25 bd
       -0.027232802 -0.100637525 -0.05244463 -0.040368725
0000e0 e2 cd b1 bd ce 7a 88 bd 44 36 d4 bc 55 0b 89 bd
       -0.08681847 -0.06664048 -0.025904782 -0.066916145
0000f0 85 51 90 bd 7d e8 c4 3b 48 ba 8c bd ec c0 45 3d
       -0.070467986 0.00600916 -0.06871468 0.048279688
000100 9d 8e 93 3d 8c 5d bc 3d 5f d9 07 3d ee 16 86 bc
       0.07204936 0.0919753 0.033166286 -0.016368356
000110 54 1b a3 bc fa 52 41 bd fc 45 8c 3d bb 2a 76 3d
       -0.019910492 -0.047198273 0.06849286 0.060099345
000120 68 37 b4 3d 4f 0f 7d bc 9c f4 80 bd 4f 28 fd 3c
       0.087996304 -0.015445544 -0.062966555 0.03090301
000130 fc b1 bb 3d a5 5a 66 bc cc 18 ca 3d 1f 7d 9d 3d
       0.09164807 -0.014059697 0.09868011 0.076898806
000140 b7 3c 51 3d b9 6a 2a bd 3f 50 bb bc 6e 48 8f bc
       0.051083293 -0.041605685 -0.022865413 -0.017490592
000150 74 50 d6 bb 30 a0 93 bc 90 05 06 be 83 0f 9f bd
       -0.0065403525 -0.01802072 -0.1308806 -0.077666305
000160 c0 41 fd bc f0 08 a4 3d 7a b4 d8 3c 05 21 03 be
       -0.030915141 0.08009517 0.026453245 -0.12805565
000170 b0 0d b4 bd 2a 63 93 bd 83 f9 c9 3d c3 c5 39 3c
       -0.08791673 -0.071966484 0.09862044 0.011338654
000180 35 8a 9a 3d 8d 6b a3 bd 64 9f e8 3d 9d c5 b6 3d
       0.07545892 -0.07979498 0.11358526 0.089244105
000190 9d 89 f8 ba 4b f3 52 bd 4c ff 39 3d 38 4c 8b bd
       -0.001896191 -0.051501554 0.045409486 -0.06801647
0001a0 c7 f6 68 bd 1e 38 06 3d 13 2a b5 bd 61 63 5d 3c
       -0.05687597 0.03276836 -0.08845916 0.013512463
0001b0 80 18 19 bc bf be f8 39 17 9e 29 3c 97 83 a7 3c
       -0.00934422 0.00047444363 0.010352633 0.02044849
0001c0 00 e7 92 bd ce cb e4 3c 92 cd 04 be ba ed 38 3d
       -0.07172966 0.027929213 -0.12969044 0.04514859
0001d0 60 1f 9c bd b0 ac e7 3d 0f ef a3 3c 39 c0 b4 3c
       -0.07623172 0.113122344 0.020011453 0.022064315
0001e0 40 42 d9 3c fb be f7 3c 54 78 e9 bc 4b f5 d1 bd
       0.026520848 0.030242434 -0.02849976 -0.10251864
0001f0 68 f4 7a 3d 7a 2b 6d 3d 88 d7 e9 bc f1 d3 e5 b9
       0.06126824 0.05790279 -0.028545156 -0.00043836192
000200 3e 8e 86 ba 33 d9 08 bd b5 aa 8e 3d 49 53 6a bd
       -0.001026578 -0.033410262 0.069661535 -0.057208333
000210 c1 b5 c0 bd 55 9f 66 bc b1 45 a1 bd 8c b6 96 bd
       -0.09409667 -0.014076074 -0.07874621 -0.07359037
000220 b6 7e e1 bc ea 10 26 bc 06 3c 64 3d 7e 06 85 3d
       -0.02752624 -0.010135869 0.055721305 0.06495379
000230 58 5f ee 3d 14 f2 a0 3d 4f 6a a8 3c 7e 81 25 bc
       0.11639279 0.07858673 0.020558504 -0.010101674
000240 29 16 a3 bb 77 ca 9e bd df 7b 57 3b eb d9 0e bd
       -0.004977007 -0.07753461 0.003288023 -0.03487579
000250 b1 fa 16 bd 8c 8d e0 3d ed 8a 71 3d 46 2f 8b 3d
       -0.03686017 0.10964498 0.05897038 0.06796126
000260 75 e0 93 3d ba 5a 77 bd c2 10 13 3d 98 1c c4 bc
       0.07220546 -0.060389258 0.035904653 -0.023939416
000270 a1 5d 0b 3d 20 7e 7e 3d 79 85 83 bc 10 f6 97 3d
       0.03402484 0.062132 -0.016054856 0.074199796
000280 63 6f fa b8 21 21 b4 bc 7d 5d a2 3d 86 27 bb 3d
       -0.00011941676 -0.021988453 0.07927988 0.09138398
000290 1f d3 b6 bc e7 25 8f 3d aa fb 9d bc 07 4f 85 bc
       -0.022317467 0.06989651 -0.019285042 -0.016273035
0002a0 92 c7 ce bd be 67 39 bd 61 04 48 3c 0b 0b 96 bc
       -0.10096659 -0.045264952 0.012208075 -0.018315813
0002b0 c1 95 f9 bb 20 89 ab 3c c1 de 5f bd b0 29 66 3d
       -0.007616729 0.02093941 -0.054655794 0.0561921
0002c0 b6 3a 06 3e 54 4f ae 3d 8c 02 c8 3d 4d b7 d8 bc
       0.13108334 0.085112244 0.09766111 -0.026454592
0002d0 bf 56 d2 ba c9 c9 02 bd 15 23 8a bd 7b ba a4 bc
       -0.0016047581 -0.03193072 -0.067449726 -0.020108452
0002e0 cd 75 a3 3d d5 2a e5 bd 38 8e 52 bd 35 0e 74 3d
       0.07981453 -0.1118981 -0.05140516 0.05958386
0002f0 96 de 9e 3d 26 2a 1b bd 9d 25 fe bc a0 54 ce bc
       0.07757299 -0.037881993 -0.031023795 -0.025186837
000300 7d 0e 91 3d 18 21 90 3d 45 4d 92 bd 14 34 1f 3c
       0.070828415 0.07037562 -0.07143644 0.009717006
000310 e4 8a df bd 3e f8 9d bd 71 c2 04 3b 55 c8 41 bd
       -0.10915163 -0.07713364 0.0020257498 -0.047310192
000320 63 bb 81 bd aa d3 b9 3d 6a aa 72 3d cd cd 3a bb
       -0.06334569 0.09073575 0.05924455 -0.0028504014
000330 52 62 13 bd 88 58 7b 3a f8 04 a9 3d 30 d1 40 39
       -0.035982437 0.00095880823 0.08252901 0.00018388475
000340 8e c5 50 3b 81 7e a0 3c 67 3d 92 3d 4e 30 8d 3d
       0.0031856033 0.019591572 0.07140618 0.06893979
000350 73 57 2e bd fa d1 45 3d 2b 79 89 3c f1 68 f4 3b
       -0.042563867 0.048295952 0.01678141 0.007458799
000360 ee 6b fb bd 3e 45 f7 3d d1 c2 fb 3c 13 c2 2b 3c
       -0.12276445 0.12073754 0.030732544 0.010483283
000370 58 3d 10 3d f8 4d ac bc b0 6b ca bd de 8c 13 bd
       0.035214752 -0.021033272 -0.09883821 -0.036023013
000380 4d 7b da bd 7c fe c2 3d 1b 40 40 3d 82 77 a5 3c
       -0.10668049 0.09521195 0.046936136 0.020198587
000390 9e 6d 7b bd c2 6e 7c bd 2b df 87 3d 53 aa bf bd
       -0.061383836 -0.061629064 0.06634363 -0.09358659
0003a0 6a be fe 3c bf cd 9f 3d 95 74 ad bd e3 3b ad 3d
       0.031096656 0.07802915 -0.08469502 0.08458688
0003b0 8a e8 d2 bd ee da f5 bc 8b 87 89 3d 0c 76 90 3d
       -0.102982596 -0.03001162 0.06715306 0.07053766
0003c0 df b4 b7 3d 4d aa a3 3d 8d a2 0a be c7 45 3d 3c
       0.08970045 0.07991467 -0.1353857 0.011552281
0003d0 45 5c ca bd 37 d3 9b 3d 67 ab 2a 3d 6d 7b af 3d
       -0.0988088 0.076086454 0.04166737 0.085684635
0003e0 96 da 9e 3c 3d 26 91 3d 0c 34 b9 ba 8e 00 b9 bd
       0.01939134 0.070873715 -0.0014129891 -0.09033309
0003f0 79 4b a1 bd 47 6f 80 3b 8b 87 b8 bd 31 4b af 3d
       -0.078757234 0.0039195153 -0.09010228 0.085592635
