save_all/MSTAGAT-Net.state360.w-20.h-3.no_mtfm.pt (torch, 166757 bytes, 64 tensors)

temp_conv.depthwise.weight f4 [1, 1, 3]
00000000: 356c 963e 5a74 cf3e 417c 24be
0.2937943 0.40518457 -0.16063024

temp_conv.pointwise.weight f4 [16, 1, 1]
00000000: 41c8 15bd 0184 e43c 9cd8 15be 099c 683e
00000010: 244e fb3e 7fc5 b5be 366a f53e de57 e23c
00000020: 2f29 b83e 1ae5 be3c 0b2f 123e b520 11bd
00000030: 810b c73e 7194 d03c 4569 06be 1de5 f13c
-0.03656793 0.027894976 -0.14633411 0.22715773 0.49083054 -0.3550224 0.47932595 0.027629789
0.3596892 0.023302604 0.14275758 -0.035431582 0.38875964 0.025461407 -0.13126095 0.029528195

temp_conv.pointwise.bias f4 [16]
00000000: 76ba 01be bcaa e137 3318 b5bd adc9 953e
00000010: afae cfbe 04ec 01be 3d12 b7bc 8cb3 74be
00000020: f6fb 26b5 8934 17bf dfcf 023f f607 ecbe
00000030: a993 c73e 6e90 eb39 6e21 27bd dba0 813e
-0.12668785 2.6901595e-05 -0.08842506 0.2925543 -0.4056296 -0.12687689 -0.022347564 -0.23896617
-6.220647e-07 -0.5906454 0.51098436 -0.46099824 0.38979843 0.000449303 -0.040803365 0.25318035

temp_conv.bn2.weight f4 [16]
00000000: 5a16 373f 3105 323f e777 303f 13ab 1e3f
00000010: b525 223f e6b7 2d3f a527 223f e171 253f
00000020: 9a51 243f c7d6 223f 8dae 1f3f 2df3 343f
00000030: 13d4 1d3f 7bbf 1e3f 7893 2b3f 1fed 1d3f
0.7151848 0.6953917 0.68932956 0.6197979 0.63338786 0.6785873 0.6334174 0.6462689
0.64187014 0.63608974 0.6237572 0.70683557 0.61651725 0.62010926 0.67021894 0.61689943

temp_conv.bn2.bias f4 [16]
00000000: da3e 87bc 5ed4 d63c 3a7a cfbc cbbe 393d
00000010: a97a 233d afe7 cfbc 5925 b93b 6c17 b73c
00000020: 829b 2a3d 9bc1 673d 3494 1c3d 70d1 d0bc
00000030: 811c 083d 2708 6e3d e83c dcbc 3892 8f3d
-0.016509462 0.026224311 -0.025326837 0.04534797 0.0399119 -0.02537903 0.005650204 0.022350036
0.04165221 0.05658112 0.038227275 -0.025490493 0.03323031 0.058113243 -0.026884511 0.07010311

temp_conv.bn2.running_mean f4 [16]
00000000: 0868 10be 9bf9 f73b e5db 07be 37c4 b83e
00000010: 94be 8fbe cc11 69be 1e61 d63d 6f7c 73be
00000020: b7ed c63d c39a 17bf 6ac5 0e3f c47c f4be
00000030: 5472 003f ad7e f33b c41c a3bd 84a3 883e
-0.14102185 0.007567597 -0.13267477 0.360872 -0.28075087 -0.22760695 0.104677424 -0.23777936
0.09713309 -0.5922052 0.5576998 -0.4775144 0.5017445 0.0074308724 -0.07964471 0.26687253

temp_conv.bn2.running_var f4 [16]
00000000: 6342 a739 836a 5139 18e6 ba3b b059 5d3c
00000010: 0f74 7c3d eb37 053d 78e5 703d cc80 4639
00000020: 3fb1 083d f926 0f39 8e1b b23b 92fe 9a39
00000030: a454 1f3d db85 2e39 0f15 973b 1a90 4d39
0.00031902184 0.00019971472 0.005703699 0.013510153 0.06163412 0.03252403 0.05881259 0.00018930732
0.03337216 0.00013652061 0.0054354137 0.0002956284 0.03889908 0.00016643798 0.0046106647 0.00019604006

feature_process_low.weight f4 [16, 320]
00000000: e3db 8dbb e6d7 2c3d 7d0c 8e3c 16f9 8b3b
00000010: e5c9 b13c 0d2c bc3b 140b bc3c 2046 d33c
00000020: 1671 a63c 49c5 aabb c6c4 303c 63fe 84bc
00000030: 4ccf a3bc 1d3c 2ebd 043f 33bd cac9 85bc
00000040: 25eb 86bc 9660 d83c a318 9b3c 9d5c b53b
00000050: a728 92b9 86e0 2ebb ee2a c33c 733b a7bc
00000060: 2298 7d3b 76c6 58bc ffd2 863c 4d6a 5239
00000070: 70e0 d43b e686 6ebc bcd2 c93b 7787 27bb
00000080: 7d13 493c 572d 94bb db86 06ba 48fb b0bc
00000090: 5100 103c b75f 09bd 967d 25bd d639 b2bc
000000a0: 155b abbc 3f7d 023d 0e2f ec3c 4f6c 233d
000000b0: 4df1 f03a cc92 babb b1cf fb3c 1827 cebb
000000c0: c7d2 c43c 7da3 47bb c6c2 3b3c 3f6d 21bd
000000d0: 6e7f 17bd 0349 99bc 48fc 22bc 9694 33bc
000000e0: 43df 463c a4b6 9b3c ec3b 11ba ddad 5bbc
000000f0: b443 26b9 b74d 37bc f251 46bc f3aa ebbc
00000100: a81f 7abc 9d39 843c 44d5 153b 0719 1cbc
00000110: 3497 85ba ce16 a0bc fe48 c3bc 8057 b7ba
00000120: 6356 883a 2937 2cbb dc5b bc3a 9d53 8fbc
00000130: b988 17bc fe9e 14bd b5d9 07bd ff0e 5fbc
00000140: 6fe7 37ba 79af d6bc e39d 74bc d511 8ebc
00000150: 8a7c 2d3b 050e 74bb badc bf3b 13c7 27bc
00000160: 38aa 86bc fb7c 8dbc 7f62 76bc 1c37 ecba
00000170: 055b be3c 8fe8 a83b 805d 0d3a 6dcd 99bc
00000180: 7d1f 21bd 4ed3 963c 7b23 32bc c720 94bc
00000190: 9bf3 c7bc 7a84 99bb 204c a03c 4686 1cbb
000001a0: 4de3 b93c 4dcf 60bc 0219 093d 079c 89bc
000001b0: c83c bd3b 886b 393c bc20 623c ee50 c83b
000001c0: 0f07 e1bb d268 38bd 68f2 07bc 2429 38bc
000001d0: 0be3 5fbb 8fa4 77bc 939c 113d 6d25 a0bc
000001e0: 12e9 8fb9 bcee 033c 9d3d 1f3c 62ae 73bc
000001f0: c4dd 023d deb7 633c 7aa7 293c 0b46 48bc
00000200: e3c0 053c 4537 5cbc 1c7e 8dbc 8bfc 583c
00000210: cca2 833c f629 40ba f339 a2bc 09c2 fdbc
00000220: 3a39 6dbb 3fac 32bc 33a0 09bd 2f8a 45bc
00000230: 684c 7aba d7f4 033c 5df1 bf3c 6295 d2bc
00000240: 39e9 1f3c 0d48 ba3c 7e7a 443c 649f e038
00000250: 2650 413c a5b8 6a3b 3a31 b5ba 9182 9d3b
00000260: ff3d 2a3c 2769 293c 40d0 47bc 2e3c f0bc
00000270: cf5e 14b9 d752 d83c 1454 71bc 911a 11bb
00000280: 8c39 36b9 cb51 54bb e7d5 d03b 1e78 163c
00000290: cead d2bc 7cb5 85bb f879 ed3c 8aa6 953c
000002a0: a7d5 10bb e601 a0bc bcba a3bc c4e5 0dbc
000002b0: be44 f03b ac35 123c 62bc 27bc 6930 a3bc
000002c0: c073 38bd 42db 9bbc cada 51bc aa82 263d
000002d0: 35c5 04ba 4108 07bc df93 2c3c 4e4c 20bc
000002e0: 7cb8 93bc d83e ff3c 462a eebb 667f 5d3b
000002f0: 06d8 c9bc 5312 a43b aa3d 893b 76ed 2a3c
00000300: b1b5 853b 56d0 853a 432d bbbc dac5 85bc
00000310: b883 0bbc 87db d73c cac1 643c c5da 9d3c
00000320: c8b3 7fba 8eaa babc c12d e5bc 276a dfbc
00000330: 851d 7d3c 15f5 e9bb 2be8 d63a 2b86 bbbb
00000340: 7b41 a0bb e75c babc dce9 9dbc bfca c23b
00000350: 8890 193c 3b57 2f3c 66b4 7dbc 9304 3fbd
00000360: 9693 b4bc a318 b0bc 59ce 8ebc 9b1c 27bd
00000370: 05f6 123c 6cef de3a 1489 083d 1fa1 943c
00000380: d884 0f3d 0fdd 58bc d053 de3c 223d 81bb
00000390: b723 a03c b87a fe3c de57 02bc 1cfb a8bc
000003a0: 08a1 1bbd 45e5 46bd e4dd 4abb 71a5 f8bc
000003b0: 7079 333c 31b2 b63c 8c5f 1c3d b01b 43bc
000003c0: 214c 92ba 8007 b93b a200 823c be36 e1bc
000003d0: 441a 9fbb d4c4 1abc 2fec 823b 73fe 93bb
000003e0: 7726 34bc ece9 5cbc 33c1 c0bc 69f7 7d3c
000003f0: 5056 b83c 989e f6b9 5fc2 9fbc f670 14bd
-0.004329191 0.042198084 0.01733994 0.0042716367 0.021702716 0.005742556 0.022954501 0.025790274
0.020317595 -0.0052115065 0.010789102 -0.016234582 -0.019996308 -0.042537797 -0.04376127 -0.016331572
-0.016469548 0.026413243 0.018932646 0.005534722 -0.00027877578 -0.002668412 0.023824181 -0.02041409
0.0038695415 -0.0132309105 0.016458033 0.00020066761 0.0064964816 -0.0145585295 0.0061591547 -0.002556292
0.012272713 -0.0045220065 -0.00051317894 -0.021604195 0.008789138 -0.033538546 -0.04040297 -0.021756094
-0.020917455 0.031857725 0.028831031 0.039898213 0.001838246 -0.005693769 0.030738683 -0.0062912814
0.024026288 -0.0030462437 0.011460012 -0.039410826 -0.03698676 -0.018711573 -0.009947844 -0.010960719
0.012138191 0.019007988 -0.000554024 -0.013408151 -0.00015856215 -0.011187962 -0.012104498 -0.028768038
-0.0152663365 0.016140753 0.0022862712 -0.009527451 -0.0010192157 -0.019542124 -0.023838516 -0.0013987869
0.0010401722 -0.0026277995 0.0014370638 -0.017495925 -0.009248906 -0.03628444 -0.033166606 -0.013614415
-0.0007015382 -0.026206719 -0.014930221 -0.017342487 0.0026471936 -0.0037239802 0.00585517 -0.010240334
-0.016438589 -0.01727151 -0.015038132 -0.0018021795 0.02323676 0.0051546763 0.0005392656 -0.018774712
-0.03933667 0.018411305 -0.010872717 -0.018082036 -0.024408152 -0.004684982 0.01956755 -0.0023883744
0.022691393 -0.013721299 0.033471115 -0.016798032 0.005775068 0.011317141 0.01380175 0.006113163
-0.0068672965 -0.04502184 -0.00829754 -0.011240277 -0.0034162428 -0.015114917 0.03554971 -0.019549096
-0.00027448736 0.008052524 0.00971928 -0.014873119 0.031949773 0.013898818 0.010354871 -0.012223731
0.008163664 -0.013440912 -0.017272048 0.013243805 0.016068839 -0.00073304714 -0.019803023 -0.030976312
-0.003619744 -0.0109053245 -0.033600044 -0.012056871 -0.00095481286 0.00805398 0.02343052 -0.025705997
0.009760194 0.022739435 0.011992095 0.00010710841 0.011798894 0.0035815623 -0.0013823875 0.0048068245
0.010390758 0.010340012 -0.012195647 -0.02932557 -0.00014149699 0.026406689 -0.014729518 -0.002214108
-0.0001737831 -0.0032397385 0.0063731554 0.009183912 -0.025717642 -0.0040804725 0.028988823 0.018267889
-0.0022100003 -0.019532155 -0.019986503 -0.008660737 0.0073324135 0.008923929 -0.010237785 -0.019920545
-0.045032263 -0.019025449 -0.012808511 0.040651955 -0.00050647865 -0.008241714 0.010533302 -0.009783817
-0.018032305 0.031157896 -0.007268223 0.003379786 -0.02463914 0.005007067 0.004188259 0.010432592
0.004080497 0.0010209184 -0.02284873 -0.016329695 -0.008515291 0.026349796 0.013962219 0.019269357
-0.00097542675 -0.022786405 -0.027975919 -0.027272297 0.015448933 -0.0071398118 0.0016396096 -0.005722781
-0.0048906184 -0.022749377 -0.019276552 0.0059445794 0.009372838 0.01070195 -0.015484905 -0.04663522
-0.02204303 -0.021496123 -0.017432379 -0.040798765 0.008969788 0.0017008609 0.033333853 0.018143235
0.0350388 -0.013236298 0.027139574 -0.003944055 0.01954828 0.031064376 -0.0079555195 -0.02062755
-0.03799537 -0.048558492 -0.003095501 -0.030352326 0.010954246 0.022301765 0.038177058 -0.011908457
-0.0011161604 0.005646646 0.015869442 -0.027491923 -0.004855426 -0.009446342 0.0039954404 -0.0045164167
-0.010995499 -0.013483506 -0.023529625 0.015500882 0.022502095 -0.00047038938 -0.019501863 -0.03624054

feature_process_low.bias f4 [16]
00000000: d64f d03b 4c65 573b 63a2 2e3d 7e7b 9bbc
00000010: a259 12bc 4f2a 20bd 1c5a 3c3b d95e 55bc
00000020: 9ad3 e43c 4dd8 4b3d c0d0 62bd e7e1 94bc
00000030: 69ca 403d 4fe8 a8bc b5be 1e3d 9e68 7b3d
0.0063571734 0.0032866774 0.042635333 -0.018979784 -0.008932503 -0.03910285 0.0028740233 -0.013023102
0.02793293 0.049766827 -0.05537486 -0.018174125 0.047068033 -0.020618586 0.03875609 0.061379068

feature_process_high.weight f4 [32, 16]
00000000: 3062 b2bc f331 ccbc 6625 013c 0524 f63c
00000010: 98c4 103d f26c f43b f91f 443d 01da 8bbd
00000020: 8174 e43b 43f2 943c 6904 843d 680a d9bb
00000030: a560 ab3b c14f 41bd 02aa 93bc d772 493d
00000040: 1380 f23c b2b1 353d e9e6 b5bb 2739 9cbb
00000050: 6ec3 59bb 614c ab3d 4766 e1bd 9223 493d
00000060: af86 493d 77f9 9f3d acf3 82bd af0a 3a3d
00000070: 4d17 83bd 5e0a be3d e4e6 103e d8e1 003c
00000080: c583 d63c 5ff8 05be 8da4 81bd f115 7ebd
00000090: 70ef 49be 0481 f3bc 189b bf3d cd1f 26bd
000000a0: 19bc 9c3d 6137 18be 94c5 633d bb18 7a3d
000000b0: 244f 1d3e 03fe adbd 8757 25be 468a 94bd
000000c0: 1c80 bb3d e5cc 34bc 7c56 313e 7c47 1bbe
000000d0: 6583 f8bd 3fe9 8d3d 80c6 373d 0873 f1bd
000000e0: 3fde c43d 7a43 bfbd 6138 1ebe 0493 733c
000000f0: 3a29 5fbd 1aaa b5bd 72d3 88bd 395c a33d
00000100: 85f4 9d3d 6561 4b3d c5e0 18bd 6d3b 02bd
00000110: 59a9 263d 9992 f1bc 40ed 29bd 878f c2bc
00000120: 1e8b efbc e6ca 65bd 6030 9e3d 1563 b83c
00000130: 245f 293d 527a 443d e6c1 7a3d 3073 e83d
00000140: 89ad ce3d feb8 193d 1e5b d33d 3228 d53d
00000150: f8bf c6bc 1d8f a03c a820 92bd 9524 eabd
00000160: f32a 793d ef99 f9bd 5edb cbbd 69a8 8bbd
00000170: 6b6c b2bd de5f 5e3d 4032 803d 8577 d0bd
00000180: ac72 8a3c 29bd f5bc 85ca 5d3c 7145 1d3d
00000190: 0b62 b6bc 2bb8 64bc c506 e4ba 6ca7 68bd
000001a0: 7a39 fc3b 2a65 a2bc 7765 3c3d d515 753b
000001b0: f572 08bb 9bd4 073c 00d5 bd3d 1450 0f3d
000001c0: 37f4 cebd 2853 c7bc 4e04 103e 8218 123e
000001d0: 2462 8abd 3710 eb3d 2a48 e3bd 9c8e 653d
000001e0: fe2d 853d ce74 c23c 12af 0bbe 9678 ae3c
000001f0: 385a be3d e21e 0b3e 1e5a eebd 6196 c3bc
00000200: e22b 1ebc a234 e7bb 1426 dbbc 08da 31bd
00000210: 6c67 f63c 47be 683d eb14 cebc 5b7e d13d
00000220: 3fd1 74bb b01d 5f3d c03a 943b a85e f5bc
00000230: de25 7bbb ac5d a5bc 11ff 373d 8e63 58bd
00000240: ed0b 2dbd 67f1 57bd fe93 03bd e83e 083d
00000250: 6f3f 793c 73a4 48bd c232 36bc f58f b83c
00000260: 0fff dfbb 4df1 2c3d 2c96 0cbc 12cf f6bc
00000270: 327d 673c 6574 5dbd 6193 9a3b bba0 87bd
00000280: 3cb5 fb3d e0f5 04bd daf9 903d 504f 50bd
00000290: ed08 61bd dc75 f43c 6f5d 023d 5502 aabc
000002a0: 8c60 e6bc 6dc2 c93a 20de 81bd 5fb4 77b9
000002b0: 8b07 ef3c b547 263b c8f1 e83d c582 44bd
000002c0: 4954 d23d b18a 7c3d 921b bd3c 0efd 0ebe
000002d0: a476 6bbd d7e1 473d a136 963d 7dc5 a33d
000002e0: ab4f 10bc 59a1 3bbd f378 71bd 6192 06bd
000002f0: c2a3 d43b f01e 923c c41f e23d d49f b1bd
00000300: 6535 ab3b 3030 ce3c 4b98 debc 3fbe debb
00000310: 1039 e93b b6c6 cb3a 5f62 d43c d599 023c
00000320: 9410 b2bb 3b0e 8d3d 1b29 ef3c 3d40 b9bc
00000330: 17f0 86bb a2ab c9bb e407 44bb 42e8 683c
00000340: 0e70 c23d f8e4 c03d 51e6 f4bc 249c cbbd
00000350: a366 513d a450 c53b 69a8 fe3d 2ebd 9a3d
00000360: d3ae b6bc 8edd 293d bdde cb3d 899b 703d
00000370: c6af f0bc 36f2 ddbd 9e7d c93d 6c8a e23b
00000380: 0b85 73bd 829a 86bc 2c73 a43d 39ee 32bd
00000390: c813 ba3b fb25 bf3c 13ac 053d df7c 3dba
000003a0: ac06 d6bb e017 2ebd 5eeb 79bc 3f86 463b
000003b0: 35e6 19bd aa88 cb3d 2512 1f3d 7967 89bd
000003c0: ef57 fc3c fb98 9fbb d89a d13d 741d 903c
000003d0: cb15 8abc 3b7c 26bd eddf f0bd b7b3 24bb
000003e0: 6b5c 743d c0e2 ffbc dc8f 3dbc d625 92bc
000003f0: 872d bdbd 3262 6ebd 2ffa 71bd 5432 4abd
-0.021775335 -0.024926161 0.007882452 0.030046472 0.035343736 0.0074592764 0.047882054 -0.0682869
0.006971896 0.018181926 0.06446154 -0.006623555 0.005230027 -0.0471952 -0.018025402 0.049181785
0.029602086 0.044358917 -0.0055512083 -0.0047675553 -0.0033228057 0.083641775 -0.11005836 0.049106188
0.04920071 0.078112535 -0.06394133 0.045420345 -0.06400929 0.09279321 0.14150578 0.007866345
0.02618588 -0.13083027 -0.06330214 -0.062032644 -0.19720244 -0.029724605 0.09355754 -0.04055767
0.07653064 -0.14864875 0.055608347 0.06105874 0.15362221 -0.084957145 -0.1614667 -0.07252936
0.09155294 -0.011035179 0.17318147 -0.15163988 -0.121344365 0.06929254 0.04486704 -0.117895186
0.096127026 -0.09339042 -0.15451194 0.014866594 -0.054482676 -0.08870335 -0.06680955 0.079765745
0.07712654 0.04965343 -0.037323732 -0.031794954 0.040688846 -0.029488849 -0.041486025 -0.02375008
-0.029241141 -0.056101702 0.077240705 0.022508183 0.0413505 0.047968216 0.061220072 0.11350095
0.10091693 0.037529938 0.103201136 0.10408057 -0.02426146 0.019599492 -0.07135135 -0.11432759
0.060831975 -0.12187564 -0.0995395 -0.06819231 -0.08712085 0.054290645 0.062595844 -0.101790465
0.016900383 -0.029997425 0.013537054 0.038396303 -0.022263547 -0.013959925 -0.0017397037 -0.05680029
0.0076972814 -0.01982363 0.045995202 0.0037397046 -0.0020820473 0.008290435 0.09269142 0.034988478
-0.10105174 -0.024331644 0.14064142 0.14267161 -0.06757 0.11477702 -0.110977486 0.056044206
0.06502913 0.023737337 -0.13641003 0.021297734 0.092945516 0.13586 -0.11638282 -0.023875417
-0.009654017 -0.007055835 -0.026751556 -0.04342082 0.030078612 0.056822088 -0.025156459 0.102291785
-0.0037356166 0.05447167 0.004523605 -0.029952362 -0.003832213 -0.020186268 0.044920985 -0.052829318
-0.0422477 -0.052720454 -0.03212356 0.033263117 0.015212878 -0.048984956 -0.0111205 0.022529582
-0.0068358253 0.04222231 -0.008580726 -0.030128036 0.01412897 -0.05406608 0.004717276 -0.06622454
0.12290427 -0.032461047 0.070789054 -0.05085689 -0.054940153 0.029841356 0.031827386 -0.020753065
-0.028122209 0.0015393026 -0.06341195 -0.00023622949 0.029178401 0.002537233 0.11374241 -0.047976274
0.10269982 0.061655704 0.023084436 -0.1396372 -0.05748619 0.048799362 0.073346384 0.07996652
-0.008808057 -0.04580817 -0.058953237 -0.03285444 0.006489248 0.017837018 0.11041215 -0.08673063
0.005224871 0.025169462 -0.027172228 -0.0067975814 0.007117398 0.0015546891 0.025925813 0.007971247
-0.005434105 0.0688748 0.029194405 -0.022613639 -0.0041179764 -0.0061544934 -0.002991193 0.014215531
0.09494029 0.09418672 -0.02989498 -0.09941891 0.051123273 0.006021576 0.124344654 0.075556144
-0.02230016 0.041471057 0.09954593 0.05874208 -0.02938069 -0.10837214 0.09838413 0.006913474
-0.05945305 -0.016431097 0.0802978 -0.043684218 0.0056786276 0.02333354 0.032634806 -0.0007228385
-0.006531557 -0.042503238 -0.01525387 0.003029242 -0.03757306 0.09938176 0.038835663 -0.06709189
0.030803649 -0.0048705316 0.10234612 0.01759217 -0.016856095 -0.04064582 -0.117614605 -0.0025131532
0.05965845 -0.031236053 -0.011569943 -0.017840307 -0.09237199 -0.058199115 -0.059076484 -0.049364403

feature_process_high.bias f4 [32]
00000000: 1f17 f1bc 7609 df3d 1540 d0bc 8211 143e
00000010: ffdb cf3d 0908 37bc 7396 dabb 8f19 bbbd
00000020: ec8b 3f3d 1ccb 74bd 4e07 36bc 4f96 1e3e
00000030: 6b72 ec3b d41c 1e3e 4207 be3d 6bf3 28bd
00000040: 28fc 0fbe 6f3b 203e f417 49bc 2802 5e3e
00000050: d0bd 1abe 51e4 ed3c 2ee6 30bd 54a0 7e3c
00000060: b20d 39be dd4f 42be a53b 8d3c 8ec4 633e
00000070: 1b16 143d 3c71 eabc 6f0f 153e ec95 353c
-0.02942997 0.108904764 -0.025421182 0.14459804 0.10149383 -0.011171349 -0.006670767 -0.09135734
0.0467643 -0.059764013 -0.01111014 0.15487026 0.007215788 0.15440685 0.09278728 -0.041247766
-0.14061034 0.15647672 -0.012273777 0.2168051 -0.1511147 0.029039534 -0.043188266 0.015541155
-0.1807163 -0.18975778 0.017240355 0.22242948 0.036153894 -0.028618447 0.14556669 0.011083107

feature_norm.weight f4 [32]
00000000: 4a5e 1d3f 405e 223f 8afc 233f 2b46 2f3f
00000010: defb 1b3f d015 1e3f b1b7 1c3f 3483 323f
00000020: 1609 1d3f 1204 1b3f ff49 1c3f 9a06 1e3f
00000030: de70 1a3f b231 203f 7ef2 1d3f 8a8b 1a3f
00000040: 3276 2a3f 3dff 223f bd86 1c3f 5ba1 2c3f
00000050: 6622 253f f633 2b3f 472e 1a3f 502f 1a3f
00000060: 5d21 2d3f 61cd 273f 709a 303f 6154 253f
00000070: a328 233f a9c8 1d3f 5fd3 203f aa10 343f
0.61472 0.63425064 0.6405722 0.6846644 0.60931194 0.61752033 0.6121779 0.6973145
0.6134199 0.60553086 0.6105041 0.61728823 0.6032847 0.6257583 0.6169814 0.6036917
0.665866 0.6367071 0.61143094 0.6743371 0.6450561 0.6687616 0.60226864 0.60228443
0.67629033 0.6554776 0.6898565 0.64581877 0.6373388 0.6163431 0.62822527 0.7033793

feature_norm.bias f4 [32]
00000000: 0747 103a a96b 333b 7816 953b ac2f e03c
00000010: 0ee2 d8bb 6281 02bb d8c2 0239 5263 e33b
00000020: d417 50bb fd1a b9b9 9b7a efbb 84ea 16bc
00000030: 092f 8dbb 51a4 fcbc f022 18bc 17b3 edba
00000040: 6d37 bb3c 5f66 9dbc e15e 39bb 4bb9 cfbb
00000050: e1c3 d43b 8f32 2abb 7742 7f3a 5336 9cbb
00000060: a080 bcbc 94c9 f03b 799e a83a 4fc2 edba
00000070: e011 6b38 8aeb 83bb 290b 1cbb 8bd8 19bc
0.0005503748 0.0027377403 0.0045497976 0.027366482 -0.0066187447 -0.0019913544 0.00012470351 0.00693933
-0.0031752484 -0.00035306058 -0.007308317 -0.009211186 -0.0043085855 -0.03084007 -0.0092856735 -0.0018135038
0.022853578 -0.019213853 -0.0028285312 -0.0063392273 0.006493077 -0.0025970077 0.0009737382 -0.004767218
-0.023010552 0.0073482487 0.0012864611 -0.0018139574 5.6045013e-05 -0.004025881 -0.0023810363 -0.009390007

graph_attention.u f4 [4, 49, 16]
00000000: a4b0 31ac 00f0 88ae 318f be2b 30ab 71ab
00000010: e2d2 e32b 3828 33a9 1f94 862e 5724 ca2d
00000020: 5040 052c deb5 08ae defc 67ab 7c47 822c
00000030: 92af 422c 6fc1 d7ab a47e f9ae 73f7 9eac
00000040: e9ec 712d e4ae 10af e2a9 5fac 2a53 d2ab
00000050: e5a1 ff2e 1330 98ab 0aeb 18ad 84f1 762e
00000060: 672e 99aa 72af f9ac 3bea 7e2b f7c8 1e2d
00000070: 59b1 8aae 7435 a0a9 e5e0 5dad e650 efac
00000080: 95d5 282d 076d aeab 42f5 ca2a bdbf 332e
00000090: 6574 ce2c e7be 132d a1d6 172b 888b 252a
000000a0: 45c2 80ac 506e 5829 32fe 462a a2bd b6ab
000000b0: fdb5 682a 0459 112f 56f1 5b2d 58c6 cbab
000000c0: 3c52 e2ad 880e 41ac 37b1 e32b eadd 5ead
000000d0: b82c 04aa e122 492b e876 daac 517f 922a
000000e0: dd36 ed2a f8ae 3c2d 3063 96aa 2e62 00ae
000000f0: 08f3 2eae 087b 042c 75d3 97ab dd4a eaab
00000100: 8ab2 fe2c 5623 0e2c 572f 59a9 a98f 02ad
00000110: 8f7c 67ac bf1c ff2b 75f8 c4ab 375f 14af
00000120: bbef dcad e279 b92a d434 0e2d 167b f02b
00000130: d0c1 a72a 24b6 8aab 3f80 1aac 7677 4f2c
00000140: 9b37 71ad 2df8 9d2e 94d1 17ac 1600 b02c
00000150: 84ef 8bac 20b6 2da9 ec2f 32ad 05e8 acab
00000160: fd8c 19ac d813 d4ab a91b 5dad b4e0 a3aa
00000170: de1b 1bac ddc8 2faf 46c6 2eaf 6220 2b2f
00000180: 7415 c228 9732 6e2e 4664 aeaa 262c b1aa
00000190: d31c 2bae 5093 262f 002c e82b 6419 192d
000001a0: ac71 152c ccbb b5ab ae4a f8ac a0e7 b82e
000001b0: a323 f22b 1524 88ac da2d ef2b e0c6 11a8
000001c0: 424a c1ab 35d6 90ae bcf9 65ac 4e06 53ac
000001d0: 4390 872e 451e fdaa 4db5 dba9 3008 022e
000001e0: 9ecb 80ac 2dba 0d2e 804e 102e 9238 a9ac
000001f0: 28be 35aa 200a e72e 7226 252c f090 072c
00000200: 63ff 592c 5665 3bab 31c7 dc2b 0f93 692d
00000210: 90ff 2a2f 2af9 b7aa c40b 102e f321 a52d
00000220: a32b 21af 00d7 e927 c521 582b 9376 70ac
00000230: 485f 78aa cf6b 5dad 4c8c 9dad b0f3 c52e
00000240: c762 c0ab f4dc 022d 1ebe c12b 68e9 74af
00000250: 48a3 23aa a20d 10ab 2410 25ac a19d 9e2c
00000260: 521a 8c2e 32d3 95ac 6e6d 9929 6c7c 3d2c
00000270: 0044 0dae 68d7 6c2e d2a2 ffae eaaf 852c
00000280: baa7 092a 7a5b 632b 1226 59ac ffff e1ab
00000290: 784e 9aae e5aa 48ac 1cf6 2baf f84d d12d
000002a0: c128 56ad 604d ec2a 9808 20ab 9ef6 fa2a
000002b0: 9c38 2529 b649 3d2f 28fa a42e a048 5fad
000002c0: 3e62 bbac fc26 1e2d 0bdc 03ab a2f2 dea9
000002d0: 3e5a 31ac 0c72 902c e745 8c2e 3551 352d
000002e0: e388 07aa 46e3 c02b a43f 462b 91b6 01ac
000002f0: 4e80 542b e1b0 17af f392 272c 9910 262c
00000300: e595 bd2a f0da 492a 9b48 a82a 0a4d 09ad
00000310: da52 122d 5eda 872e 9781 d2ab d6a7 9aa8
00000320: b127 38ad 3fe0 8c2c 0cfb 9e2d 325d 06aa
00000330: 4c21 01ac f1f2 0aaf bad2 79ac 9fe9 f3ad
00000340: 886b 75a9 39d2 05ab f8d3 0bae cbb4 e0ac
00000350: 7f17 892a ba6f 8dab 5a4e 10ae 1378 14ac
00000360: 9f5f 20af e3c5 b6aa 5a99 382b 628d a82a
00000370: 5e4a 85aa 7f1b 91ab 105a 512d ecdb 8fab
00000380: f2d5 cb2b c423 4bac 7ce4 55ab 3aea 7f2c
00000390: 767b 8d2e 10bb 322b 4612 262c c9dc edac
000003a0: 17fb 192c 5289 baac ccd7 caaf 12b0 90ab
000003b0: 0304 92ab 4a1f 27ab 7f9d 282e 604f 89ac
000003c0: 003c 1cab d075 942c c289 552d 5661 572c
000003d0: ce0b f5a8 5717 01ad 5434 0fae f39a 09ad
000003e0: 467b 0dac 6203 2cab 0e92 d42d 4227 992c
000003f0: 5c01 4a2c 8d0e 00ac 9180 612c 5e7f 742a
-2.5251268e-12 -6.2271965e-11 1.3540056e-12 -8.585797e-13 1.6187852e-12 -3.978087e-14 6.119926e-11 2.298088e-11
1.8936137e-12 -3.108435e-11 -8.241861e-13 3.7027586e-12 2.766652e-12 -1.5330357e-12 -1.1345705e-10 -4.5181025e-12
1.3751869e-11 -1.3158857e-10 -3.178451e-12 -1.494448e-12 1.1624816e-10 -1.0813593e-12 -8.692389e-12 5.6148433e-11
-2.7210458e-13 -7.096484e-12 9.056399e-13 9.025883e-12 -6.307017e-11 -7.1147e-14 -1.2612332e-11 -6.80177e-12
9.597119e-12 -1.2393705e-12 3.605259e-13 4.0870186e-11 5.8677945e-12 8.398371e-12 5.3943834e-13 1.4703354e-13
-3.659547e-12 4.8057316e-14 1.7674124e-13 -1.2984511e-12 2.0668879e-13 1.3219298e-10 1.2502296e-11 -1.4479069e-12
-2.5729745e-11 -2.7435016e-12 1.6178507e-12 -1.2668514e-11 -1.173947e-13 7.145795e-13 -6.209134e-12 2.6023153e-13
4.2137726e-13 1.0725414e-11 -2.6714178e-13 -2.919103e-11 -3.9778875e-11 1.8826624e-12 -1.0787886e-12 -1.6647479e-12
7.238936e-12 2.019903e-12 -4.822474e-14 -7.421543e-12 -3.2896218e-12 1.8126818e-12 -1.3995598e-12 -1.3494349e-10
-2.5117566e-11 3.2947175e-13 8.083496e-12 1.7087189e-12 2.9799644e-13 -9.856044e-13 -2.1955907e-12 2.9482783e-12
-1.3711611e-11 7.183618e-11 -2.157473e-12 5.0022304e-12 -3.977209e-12 -3.8571685e-14 -1.0128769e-11 -1.2285733e-12
-2.1820872e-12 -1.5069014e-12 -1.2568537e-11 -2.9110536e-13 -2.2042294e-12 -1.5987518e-10 -1.5895649e-10 1.5563864e-10
2.154763e-14 5.4159868e-11 -3.0978188e-13 -3.147215e-13 -3.89065e-11 1.5149948e-10 1.6496804e-12 8.702681e-12
2.1237274e-12 -1.2912948e-12 -7.056875e-12 8.408496e-11 1.7205025e-12 -3.8693584e-12 1.6994698e-12 -8.092241e-15
-1.3734085e-12 -6.586413e-11 -3.2681488e-12 -2.9988403e-12 6.164715e-11 -4.4962832e-13 -9.7570044e-14 2.956585e-11
-3.660585e-12 3.2225046e-11 3.281153e-11 -4.8095495e-12 -1.6142003e-13 1.05064624e-10 2.3469252e-12 1.926511e-12
3.0979323e-12 -6.657638e-13 1.5687227e-12 1.327717e-11 1.5552204e-10 -3.2680222e-13 3.275226e-11 1.8773405e-11
-1.4658368e-10 6.4903595e-15 7.678548e-13 -3.4171873e-12 -2.2059882e-13 -1.2586334e-11 -1.7911138e-11 9.0018104e-11
-1.3669837e-12 7.438706e-12 1.3766243e-12 -2.2274593e-10 -1.4533958e-13 -5.1177996e-13 -2.345687e-12 4.5081304e-12
6.371138e-11 -4.258282e-12 6.813548e-14 2.6927583e-12 -3.2120084e-11 5.3851507e-11 -1.162498e-10 3.7996177e-12
1.2226236e-13 8.077355e-13 -3.0858688e-12 -1.6058265e-12 -7.017048e-11 -2.8516575e-12 -1.5639795e-10 2.3795174e-11
-1.2173541e-11 4.197571e-13 -5.6855345e-13 4.4580046e-13 3.668646e-14 1.7215637e-10 7.502293e-11 -1.2692208e-11
-5.3257667e-12 8.9899165e-12 -4.684592e-13 -9.9008705e-14 -2.5203307e-12 4.105388e-12 6.37888e-11 1.030669e-11
-1.2037901e-13 1.3705502e-12 7.043205e-13 -1.8433347e-12 7.549559e-13 -1.379621e-10 2.38137e-12 2.3599232e-12
3.3677154e-13 1.7928345e-13 2.9893175e-13 -7.8046545e-12 8.317536e-12 6.177879e-11 -1.4957366e-12 -1.7170222e-14
-1.0468002e-11 4.0039356e-12 1.8074008e-11 -1.1933924e-13 -1.8350486e-12 -1.2637337e-10 -3.5502005e-12 -2.772965e-11
-5.4494197e-14 -4.7542834e-13 -3.1793207e-11 -6.386535e-12 2.4352392e-13 -1.0049663e-12 -3.28114e-11 -2.109872e-12
-1.4585887e-10 -3.2467006e-13 6.558275e-13 2.99409e-13 -2.3677149e-13 -1.0310501e-12 1.19002724e-11 -1.0221802e-12
1.4483399e-12 -2.886789e-12 -7.5989887e-13 3.6367701e-12 6.433869e-11 6.3497905e-13 2.3600163e-12 -6.760457e-12
2.188199e-12 -5.3016836e-12 -3.689692e-10 -1.0280685e-12 -1.0375037e-12 -5.937374e-13 3.8338662e-11 -3.9025866e-12
-5.55056e-13 4.219493e-12 1.2138237e-11 3.060737e-12 -2.7205584e-14 -7.3379835e-12 -3.2560912e-11 -7.821954e-12
-2.0105736e-12 -6.111137e-13 2.4166471e-11 4.35288e-12 2.8706681e-12 -1.8197971e-12 3.2045792e-12 2.1715743e-13

graph_attention.v f4 [4, 16, 49]
00000000: ab94 d2ac f1be 11ab bb50 33ac dc40 fbaa
00000010: 0551 0c2e 5a9f 532b 26a2 b22c bbe8 332c
00000020: 4a0f 852d c534 862d 8089 8f2c 7ad3 5cab
00000030: e472 adab 121f c3ab fe95 20ad 1cb5 802b
00000040: be8b 3029 82f0 2fab 8ca4 d02c 3efc 15aa
00000050: 0bd5 ceac 25ab 392c 75d8 332f 683a 0e2c
00000060: 5e5d 8fae af5c c0ab 27c1 feab 6fa9 252c
00000070: d2e9 212c e309 692c 06e2 342f c400 63ac
00000080: ec70 fc2b fc1f 47ad c349 242c e4a8 51ab
00000090: 80d7 75a8 82a6 efaa b6e2 af2d e057 baab
000000a0: 2872 78a9 665a 5cad b0a5 24af 8ef5 782c
000000b0: b52b 902e 8b1d a62b 5490 072c 3cb4 27ab
000000c0: 4ad3 482c 6bd2 0a2d 5606 fa2c f6bd 17ac
000000d0: 061f 242b 0a9d 33ac 7297 bf2b f743 81ab
000000e0: bcd2 0c2b 2b1a e62c 1641 822c d8e2 5e28
000000f0: fe33 42ab 90d9 192a 45f4 33ac 3144 a0ad
00000100: ea36 332e 569e f729 a97e 14ac dee4 b5ad
00000110: 1ca3 cb2c 8ef2 0a2b 4038 30ac f427 532d
00000120: 69bf 0fae 1799 8c2c 08e9 58ac dc7d e3ad
00000130: 5284 8d2a 7f8a 6fab 8e56 fb2b 0a21 342c
00000140: e084 9a2c 2ec4 662c eed9 f92c 335f 32af
00000150: 1fe9 1bad 4f4c 36ac e99c 832a f904 5b2d
00000160: 1003 b0a9 d1f6 0fae a30e afac b25f edab
00000170: 4e5e a4ab 1efd 51ac d6c9 56ab 24ec 322e
00000180: cc7b eb2a d289 a0ad 1198 982b 7bd3 9aad
00000190: a78b ec2b 890a 5bac 54e9 02ab e07f d129
000001a0: b5df ea2e 269a 962a 1814 882a d85f 1f2b
000001b0: 5e05 7c2a aba8 932d 66ee a22a 3f33 ad2c
000001c0: 94f7 d329 c933 ebac f603 a82d b121 bb2d
000001d0: 9fa8 25ac 70f2 872b da5f ad2d 99e8 1a2f
000001e0: 6e29 6b2a d225 952b 001f ef26 adb2 ed2b
000001f0: 2cd2 6bab ef95 a42b a019 02ad b8be d9aa
00000200: 5030 af2d bb20 dbab f9af 07ab 8233 102e
00000210: 8410 1c2a f32f 732a b05c 09a9 a3a9 f92c
00000220: 9e59 89ab a1e6 3dad 9d49 a4ac 72e3 aea9
00000230: 9cc0 8a2b 20c3 c1ab 95d5 f7ae 6071 1fac
00000240: 4bb6 2a2c 0e0f ecaa d4b1 b32b 4882 7dac
00000250: aeb3 20ac a286 952a 3837 5cad b349 d7aa
00000260: b6b2 ce2b 174c 522c f20f bd2d 9922 5ead
00000270: dbb9 38ad 4d9a 8e2b 7779 a0ac b085 362c
00000280: c167 5dab c2c6 6dab b44c 932b 8da3 622c
00000290: 0615 01ad 95fa f7aa 2622 aaaa 455a 842e
000002a0: 13e1 cfaa 986c b029 c0f1 a42d 0ebf c3ad
000002b0: 7c0f d3ab fd31 122c e561 4e2d bac0 f9ab
000002c0: 8977 7d2c 666d bf2c f843 59ad 36ff 572e
000002d0: c36d c12b 69be bcad cb55 ef2c b777 d1ab
000002e0: 00f6 1cac fcb5 51ad 2a43 21ad a8d2 342f
000002f0: 9eb5 d1ad a618 3eac 6ac2 262c f58d 23ac
00000300: 937d af2c feb2 b8ab f83c 6929 56ef 342f
00000310: 451b 2faf c033 8eab f01a 272c 967f 4a2b
00000320: 66ae 52aa 6efc 842b d050 c82e 7686 4eac
00000330: 6a5f 012d c20a b92e 8732 c52b 0e35 5a2b
00000340: d485 cdaa aaf5 092d 3a2c 8c2c 440a 11ac
00000350: cf5c 522e 8630 082e 66c4 c02c 6404 81ab
00000360: 2428 e2ac aa75 89ae aa95 29ac 6bcb 802b
00000370: 503d 10ae 2174 622b 6e5b 642c 7af5 5caa
00000380: d4c7 162b a8bc 03af 6e2b a92c 4cc9 862c
00000390: d1e7 8d2e cc3a 7e2d b7f6 4d2c 789e 1f2c
000003a0: cc09 0c2f 9b54 f12c 2eea 802c 5fb6 08aa
000003b0: e43b bea9 c7b7 bead 94ba f52a 8649 8d2d
000003c0: 6874 902e 177a 7c2c 45a3 f9ac 243a 6fac
000003d0: 824b 2ead de5a 68aa 1b11 c42a 5866 5dad
000003e0: fe0d 3cae 3586 91ac 321c f6ab f546 5a2d
000003f0: b506 83ae 524f 15af 5d10 57ad b94e 732b
-5.9850644e-12 -5.1779333e-13 -2.5482244e-12 -4.4631562e-13 3.1904274e-11 7.5183403e-13 5.0770664e-12 2.5566621e-12
1.5127139e-11 1.525747e-11 4.07957e-12 -7.8453184e-13 -1.2324278e-12 -1.3864207e-12 -9.128252e-12 9.145215e-13
3.9201057e-14 -6.250626e-13 5.929984e-12 -1.3321373e-13 -5.8785247e-12 2.6385086e-12 1.6356856e-10 2.0211836e-12
-6.5194725e-11 -1.3668145e-12 -1.8101396e-12 2.3541965e-12 2.3009272e-12 3.311678e-12 1.6451204e-10 -3.2259065e-12
1.7937019e-12 -1.1318942e-11 2.3346748e-12 -7.44861e-13 -1.3646961e-14 -4.2570466e-13 1.9995876e-11 -1.3240485e-12
-5.5166077e-14 -1.2525625e-11 -1.4974577e-10 3.537923e-12 6.556126e-11 1.1803209e-12 1.9264772e-12 -5.9580444e-13
2.8538998e-12 7.891114e-12 7.106131e-12 -2.156384e-12 5.830756e-13 -2.5524604e-12 1.3613401e-12 -9.184865e-13
5.0030444e-13 6.5398984e-12 3.702048e-12 1.23726645e-14 -6.89948e-13 1.3664612e-13 -2.5573027e-12 -1.8220177e-11
4.074866e-11 1.09964704e-13 -2.1102375e-12 -2.0678955e-11 5.787716e-12 4.936406e-13 -2.504233e-12 1.2002833e-11
-3.2684442e-11 3.9960357e-12 -3.0824805e-12 -2.5862805e-11 2.5138447e-13 -8.510206e-13 1.7858646e-12 2.5597879e-12
4.3916953e-12 3.2793867e-12 7.1012007e-12 -1.6222827e-10 -8.862493e-12 -2.5906115e-12 2.3379153e-13 1.2449813e-11
-7.8165014e-14 -3.2733653e-11 -4.975424e-12 -1.6866424e-12 -1.1679076e-12 -2.9841195e-12 -7.6308176e-13 4.068225e-11
4.1830287e-13 -1.8251099e-11 1.0842456e-12 -1.760169e-11 1.680757e-12 -3.112762e-12 -4.6509086e-13 9.303647e-14
1.06808264e-10 2.6752315e-13 2.4172396e-13 5.662116e-13 2.2383958e-13 1.6786869e-11 2.8942403e-13 4.922645e-12
9.41323e-14 -6.684851e-12 1.9101148e-11 2.12744e-11 -2.3541514e-12 9.659617e-13 1.971039e-11 1.4088854e-10
2.0886567e-13 1.0597584e-12 1.6592359e-15 1.6889455e-12 -8.3780444e-13 1.1694516e-12 -7.395334e-12 -3.867928e-13
1.9916652e-11 -1.556997e-12 -4.8205846e-13 3.2787557e-11 1.3861313e-13 2.1599371e-13 -3.0500504e-14 7.095839e-12
-9.759309e-13 -1.0794616e-11 -4.669333e-12 -7.766608e-14 9.85895e-13 -1.3767633e-12 -1.12701994e-10 -2.2658195e-12
2.4259646e-12 -4.1932468e-13 1.2768072e-12 -3.6025783e-12 -2.283711e-12 2.6561137e-13 -1.2517813e-11 -3.824281e-13
1.4686783e-12 2.9885033e-12 2.1493893e-11 -1.2626921e-11 -1.0500457e-11 1.0132534e-12 -4.560959e-12 2.5937967e-12
-7.865896e-13 -8.4475146e-13 1.0466268e-12 3.220732e-12 -7.337469e-12 -4.404989e-13 -3.0221762e-13 6.0187e-11
-3.6926763e-13 7.834808e-14 1.8752e-11 -2.2253779e-11 -1.499675e-12 2.0775597e-12 1.1731481e-11 -1.7746006e-12
3.6019818e-12 5.440692e-12 -1.2350114e-11 4.9112013e-11 1.374394e-12 -2.1457685e-11 6.8023135e-12 -1.4883571e-12
-2.230549e-12 -1.1920683e-11 -9.166704e-12 1.6445745e-10 -2.3841203e-11 -2.7014307e-12 2.369794e-12 -2.3242495e-12
4.9877407e-12 -1.3123667e-12 5.1789275e-14 1.6455934e-10 -1.5925845e-10 -1.010407e-12 2.374708e-12 7.194188e-13
-1.8712253e-13 9.449227e-13 9.109302e-11 -2.9349002e-12 7.353987e-12 8.414737e-11 1.4011716e-12 7.7522786e-13
-3.6508177e-13 7.842097e-12 3.9839495e-12 -2.0611438e-12 4.7830902e-11 3.0965917e-11 5.478773e-12 -9.16722e-13
-6.427763e-12 -6.25094e-11 -2.4099425e-12 9.151407e-13 -3.2796266e-11 8.045249e-13 3.2451502e-12 -1.9625092e-13
5.356802e-13 -1.1981405e-10 4.8080906e-12 3.8308575e-12 6.4531165e-11 1.4451284e-11 2.9269206e-12 2.2683227e-12
1.2736406e-10 6.859025e-12 3.663978e-12 -1.2142499e-13 -8.4480844e-14 -2.1682113e-11 4.3650207e-13 1.6062495e-11
6.56904e-11 3.5879127e-12 -7.095132e-12 -3.3996217e-12 -9.907521e-12 -2.0637265e-13 3.4828463e-13 -1.25851204e-11
-4.275868e-11 -4.136048e-12 -1.7487177e-12 1.2407621e-11 -5.958382e-11 -1.3579651e-10 -1.2224968e-11 8.644019e-13

graph_attention.qkv_proj_low.weight f4 [48, 32]
00000000: 4d77 5abb 4920 393d 8c0c 0d3d e772 d33d
00000010: aa3b 7a3d ab82 ff3c e6ad 09bc 648a 5b3c
00000020: f69b 8ebc 56ec 62bc e59a 973c b250 79bd
00000030: 455a 33bc 666e 6abd 7153 5c3c 3bf9 a3bb
00000040: effa 5ebd e111 e43b 8507 a2bc 9cf0 b03d
00000050: a474 a8bc 9824 623d 81d8 bbbb fba1 4a39
00000060: bfd5 ac3d ed6a 10bd 8e7b 1ebd fb48 a83c
00000070: 321e 473c 6b69 023c 35bc 7cbc e5c4 e3bc
00000080: 5da1 22bb 7003 103d 8c28 443d b85b 0c3d
00000090: 556c a4bc 1c1f 43bc b64a b3bb 9cf2 cabc
000000a0: 1cb3 85bc 3646 99bb d52f 023b 6899 293d
000000b0: 5c62 c3bb 2497 bebd b58e 823d de31 04bb
000000c0: 3bf3 c7bd 7343 9d3d bd95 ebbc 4163 5abc
000000d0: 9b94 493c 20db bd3c ca69 acba 95c7 47b9
000000e0: 3618 6d3d d05b 423d 1158 7a3d 1bf5 07bd
000000f0: 961d 973c 4d25 9b3c c108 ef3d fa03 57bd
00000100: 593d b4bb 31ad 94bd c899 c0bb 9681 e1bd
00000110: 6d06 4abc 95ce 98bc 38c0 fc3b 8767 babd
00000120: c313 123d 86cf e6b9 5977 37bc a5d9 883c
00000130: be02 773b 41d6 f93c 7485 18bd de04 d13b
00000140: b60a cf3d bbe0 35bd e72a dc3c 02ee 62bd
00000150: ec8c 243d 7d13 cc3d eb6b c83a e610 763a
00000160: 7e6e e1bd 2aed afbd 8116 3f3d 6884 393d
00000170: df24 983d 5660 0a3d 5994 993d e048 ebbd
00000180: 0f7b 673a 8955 dbbc acd5 313d 099c bbbd
00000190: 6bc4 203d 58b2 f13b c502 ab3c 5381 a93d
000001a0: 334d 0c3d 6c4b 5c3c fff2 fe3a c9ec 02bd
000001b0: 7f2b 6f3c 947a 883d 1d31 87bb f875 a83b
000001c0: 34e7 37bc a46d e4bc e617 ed3c e793 aabd
000001d0: 3eb1 293d 593e 82bb 86f6 5e3b 158a 3e3a
000001e0: 3472 78bd 0f36 b3bd 4d98 8e3c fdf2 edbc
000001f0: 69dc 35bd 19dc 2bbc d235 fbbc af57 1f3d
00000200: 33d3 38bc 8246 e23b ce57 933c 4b98 7bbd
00000210: eba9 523d 8956 d5bc 9d44 2d3d 335a bc3d
00000220: dc87 47bc 7131 f4b9 e887 e6bc a9a5 4bbc
00000230: 416a 42bc 1a45 a2bd 8eab 2b3d 7462 5fba
00000240: e47d 80bd 3f4e 5abd 8469 18bd 496a 443c
00000250: 1307 76bd 1f39 97bd 6ee6 0ebb 1f70 9739
00000260: 688b e83c c55d 27bd a6da 823d f3d5 923d
00000270: 1b00 a43d 27ad dc3b 51ac 67bc a64d 9b3d
00000280: 4137 7f3b e9f0 353d 3ef5 1e3d 244e 1ebd
00000290: 1bea 3c3d 9cec 583c 3497 b03c d1e3 9a3d
000002a0: b578 1a3d 3610 943a 18bd df3c a16a 22bd
000002b0: 79b0 453c 714e 97bc f0b3 1abd 3a79 333c
000002c0: 7868 06bc 3156 cfbc 784b 6ebc 5fe9 b8bd
000002d0: 6bc1 d73b d6be be3d e22c 103a a4ae 6f3a
000002e0: c6d4 f23c 4358 433d bbad 4d3b 3a84 88bd
000002f0: f301 993d ac2c 08bd f511 71bd 36fb 2d3d
00000300: 4393 8e3b 9fcd cfbc 5888 af3d b780 f8bd
00000310: ec05 d53c 78eb 4f3d ba6b b43b 8681 9ebd
00000320: e2f0 36bd 3795 763b 7d23 b33c 3d4b 4bbd
00000330: 297a f93c 6ec3 d6bc f6cc 71bc 928a 483c
00000340: 01d8 bc3d 8dfa 80bd e782 7a3c 5b5f 84bd
00000350: e503 0bbd c96a a8bb e7d2 1f3a 082d a23a
00000360: b232 d2bd 81e1 cf3d 3cd7 d23d 4ed6 7cba
00000370: f172 51bc 6644 183d 1cf3 f6bd 9bf7 ec3d
00000380: a0d9 28bb 5783 24bc a877 883c 7210 6c3d
00000390: 5f5c 34bd 0035 5dbd b203 8ebd e222 debd
000003a0: 84dd 84bc 7f15 1bbc dfad 1dbb 3884 8fbd
000003b0: abf2 7bba b44c a73d cd41 a73d 77a6 c8bb
000003c0: 84c4 cdbd a21e 2f3d d3d4 09bc e5f6 823d
000003d0: d245 a8bd e3cc d33d a215 b3ba 0453 a0b9
000003e0: 704d adbc e4c3 5bbd 4839 aebd 31de 7f3d
000003f0: 4d9e b93d 5f7d 0e3d 8ced d33c 43ec 15bc
-0.003333527 0.045196805 0.034435794 0.1032465 0.061092056 0.031190237 -0.008403277 0.013399694
-0.017408352 -0.013850292 0.018506477 -0.060867973 -0.010946815 -0.05723419 0.013447628 -0.005004076
-0.054438528 0.006960139 -0.019778976 0.086396426 -0.020563431 0.05521068 -0.0057325964 0.00019324564
0.08439206 -0.035258222 -0.03869205 0.020542612 0.012153195 0.007959704 -0.015425731 -0.027803848
-0.0024815418 0.03515953 0.04789023 0.034267157 -0.020071188 -0.0119092725 -0.0054715527 -0.024773888
-0.016320758 -0.0046775592 0.0019864936 0.041406065 -0.005962653 -0.093061715 0.063748755 -0.0020171325
-0.097631894 0.076788805 -0.028757924 -0.013329328 0.012303497 0.023175776 -0.0013154086 -0.00019052469
0.057884417 0.04745084 0.061119143 -0.033192735 0.018446725 0.018938685 0.116715916 -0.052494027
-0.0055004773 -0.07259596 -0.005877707 -0.11011045 -0.012330634 -0.018653193 0.007713344 -0.091017775
0.035663377 -0.00044023636 -0.011197888 0.016705343 0.0037690843 0.030497672 -0.037236646 0.006378754
0.10109465 -0.044403773 0.026875926 -0.055402763 0.040173456 0.099646546 0.0015290951 0.00093866733
-0.11007403 -0.08590157 0.04665232 0.045292288 0.074289076 0.03378328 0.07498998 -0.11488509
0.0008830288 -0.026774185 0.043416664 -0.09160621 0.03924982 0.0073759966 0.020875344 0.0827662
0.03425331 0.013445716 0.0019451081 -0.031964097 0.014597773 0.06664005 -0.004125728 0.005141016
-0.011224557 -0.027884312 0.02894206 -0.083289914 0.041428797 -0.0039747176 0.003402145 0.00072685006
-0.060655788 -0.08750545 0.017406607 -0.02904653 -0.044399653 -0.010489487 -0.030665312 0.03890198
-0.011280823 0.006905378 0.017986204 -0.061424535 0.051431578 -0.02604224 0.042301763 0.09196892
-0.0121783875 -0.00046576143 -0.028140977 -0.012429633 -0.011866153 -0.07923336 0.041911654 -0.00085214456
-0.06274012 -0.053297278 -0.037210003 0.011988231 -0.06006534 -0.07383942 -0.0021804827 0.000288845
0.028386787 -0.04086091 0.0638936 0.07169714 0.080078326 0.0067345086 -0.0141402045 0.0758317
0.0038942846 0.044419203 0.0388081 -0.03864874 0.046121698 0.013240006 0.021556474 0.07562984
0.03771277 0.0011296335 0.027311847 -0.03965247 0.012066 -0.018470021 -0.037769258 0.010954196
-0.008203618 -0.025309654 -0.01454436 -0.09028887 0.0065843365 0.09313743 0.0005499852 0.000914315
0.029642474 0.047691595 0.003138407 -0.06665845 0.07471075 -0.033245727 -0.058855016 0.0424759
0.004351051 -0.025366602 0.085709274 -0.121339254 0.0260038 0.05076167 0.005506006 -0.077395484
-0.044663318 0.003762556 0.021867508 -0.0496323 0.030453758 -0.026216235 -0.014758339 0.012240069
0.09220887 -0.06297789 0.015289999 -0.064635 -0.03393926 -0.005139683 0.00060967956 0.001237304
-0.102635756 0.10150433 0.10294959 -0.0009644971 -0.012783752 0.037174605 -0.12058088 0.115706645
-0.002576448 -0.0100410795 0.016658619 0.05763287 -0.044033404 -0.054005623 -0.069342986 -0.10846497
-0.016218908 -0.009465574 -0.0024059934 -0.070076406 -0.00096110505 0.08168927 0.081668474 -0.00612336
-0.10047248 0.042753823 -0.008412558 0.06394748 -0.08216442 0.103418134 -0.0013663063 -0.0003057943
-0.02115509 -0.053653613 -0.08507019 0.062467758 0.090633966 0.034787532 0.025870107 -0.009150567

graph_attention.qkv_proj_low.bias f4 [48]
00000000: 7990 35bb b56d c53c 072e 1f3d d014 d13a
00000010: 572d d33c 91d9 ae3c 48d4 c23c f98c d7bc
00000020: 8827 18bd a44d eabc 5d35 2d3d 36af 383d
00000030: 6ea5 18bd 8267 fd3b 3fab 0f3c 75ff 5bbd
00000040: 80b8 e5bc 5f31 6cbc beee 3bbb 10d8 963b
00000050: 5ad2 efba f393 94bb b378 64bb 2bd7 263c
00000060: da48 8e3c 909f 05bc a5e5 fcba a826 ef3c
00000070: 39e1 813d 7a4f a0bc c825 333c fce1 02bd
00000080: 96a6 5b3c 753b 2bbc c414 13ba 6ef5 bd3b
00000090: f6e0 433b 1ff2 913c 4b0e a93c 8a7d 8e3c
000000a0: 4d4f 89bc 9436 7dbc 56df 27bd f068 64bd
000000b0: 7c48 66bc cc1e 1bbd 14c2 193c 5426 b7bb
-0.002770452 0.024100164 0.038862254 0.0015951637 0.025778456 0.021343978 0.023782864 -0.026312338
-0.037147075 -0.028601475 0.04228722 0.04508897 -0.03726714 0.0077332864 0.008768856 -0.05371042
-0.028042078 -0.014416068 -0.0028676237 0.0046033934 -0.0018296943 -0.0045342385 -0.0034861981 0.010183136
0.017368723 -0.008155718 -0.0019294514 0.029193237 0.06341786 -0.019569147 0.010934301 -0.031953797
0.013406416 -0.010451187 -0.00056106993 0.0057970798 0.0029888726 0.017815648 0.020636698 0.017393846
-0.016761446 -0.015454907 -0.040984474 -0.05576414 -0.014055368 -0.037871167 0.009384651 -0.005589286

graph_attention.qkv_proj_high.weight f4 [96, 48]
00000000: d779 d0bc 341f 46bc e699 cf3c d44b cc3c
00000010: 83f8 17bc 5bf5 913c 1373 de3c 6c48 eabc
00000020: ddea de3c 7aca 2f3c d951 a23c b18e 61bc
00000030: f93e c43b 5666 03bc 8134 213c f9bd 32bc
00000040: 7797 9bbc 4feb 263c 4460 0abd 8d34 833c
00000050: 1799 55bc 9b58 c3ba 2c36 e83c 904b 4ebb
00000060: 3793 403b a203 44bc b133 acbb a9b6 3cbc
00000070: 0e87 b4ba 9571 3fbb d543 09bb a467 6dbc
00000080: 767c 92bb 0587 f23b 37cc 7ebc b976 633c
00000090: c4ca 83bc 6c2b d8bc e450 41bc a705 92bb
000000a0: 5792 5abc 0d5e 7f3b 141a 573c 259e 403c
000000b0: ceb8 b63a 0094 4e3b 9ebb 8e3c 82bb 7e3c
000000c0: ad10 d0bc 905f 41bc b827 d33c 4fb4 cc3c
000000d0: c74a 2ebc 42c0 823c fe35 da3c 65d2 ecbc
000000e0: 3df5 ab3c 9905 133c 83ed a13c 74a8 61bc
000000f0: 0e31 c53b bfe5 02bc 9164 1d3c a3df 20bc
00000100: dfe6 9dbc a6ff 323c 2d8a 08bd 408f 773c
00000110: d7a4 54bc 9f11 c9ba 8002 e83c fe23 4dbb
00000120: 2d70 3e3b f3d4 41bc 0686 aebb bcbb 39bc
00000130: d10a c23b 13fe 43bb 7e76 ebb8 4a00 6bbc
00000140: 496e 91bb 9376 fd3b 935f 70bc 15d4 643c
00000150: 6bb8 82bc 8973 e1bc b581 41bc 59ab 92bb
00000160: 8d85 57bc c88d 2f3c 7d6a 553c e69c e53b
00000170: 5084 6b3a e96f 45ba a525 963c c23b 883c
00000180: e502 d2bc d5d9 48bc 8d19 d83c 5b9a ce3c
00000190: 7e08 2dbc b6b8 8e3c f4c9 dd3c ab8e f0bc
000001a0: 8be6 b43c a3a0 4b3c 1218 723c 34f5 61bc
000001b0: 2b35 c83b fd83 03bc db4c 213c 879e 27bc
000001c0: 4c50 9ebc 240c 253c eeac 0bbd dcc1 7c3c
000001d0: 97f9 5fbc 4b15 a4ba 50cf e73c 15c1 50bb
000001e0: ca20 133b 0132 3bbc 08b6 a8bb affe 47bc
000001f0: 082d a03b 07d6 35bb 25a2 ceba 05f0 6dbc
00000200: 30b2 96bb 2a34 ff3b e3eb 47bc 76ea 623c
00000210: c8cf 86bc d7fe e1bc b874 4dbc dcf5 9abb
00000220: c085 58bc 27d4 023c 5143 563c 2ad7 843c
00000230: cb41 813a 032a 033b 626e 8e3c 842b 853c
00000240: 933f cebc d923 47bc 5289 c83c ad65 c93c
00000250: e351 2cbc 961e 923c 0e2c de3c 7b44 e2bc
00000260: b563 d93c 5794 283c 6308 b53c c761 5ebc
00000270: f804 c53b e1cf 06bc 9098 1f3c c082 1cbc
00000280: 7d6e 9abc c866 263c c191 06bd 9e2a 7e3c
00000290: 8810 54bc cce2 c9ba feeb e53c 1cce 4ebb
000002a0: cb69 473a 63fe 40bc 69d5 a0bb 7823 3bbc
000002b0: d0f8 053b 8844 46bb d556 dbba b160 6bbc
000002c0: bc87 58bb d7fb 003c b238 24bc aa26 643c
000002d0: a797 82bc f859 e0bc 34c6 4dbc b82f 67bb
000002e0: 40a8 58bc d838 953b 5c97 533c 8228 723c
000002f0: 87ae a83a f0fc 30b8 ccd4 8b3c e302 863c
00000300: 014c cfbc e907 44bc fd10 c53c e2d4 c83c
00000310: 5ee5 61bc aae0 8b3c 42ac de3c 3cd5 e9bc
00000320: 1a2a b33c 60ff 703c 90ed c13c 0c75 5ebc
00000330: 5f10 c43b 6482 02bc 4fb7 213c da28 25bc
00000340: 75a7 9abc 628b 253c 0dc6 04bd a245 793c
00000350: eb75 55bc ebdd f3ba acac e53c 2dad 4cbb
00000360: 4563 b3b9 41c2 07bc fd78 a0bb 5393 3bbc
00000370: 3334 663b b3ca 3ebb 2824 0ebb 5d4c 6bbc
00000380: 8cd7 b2bb 2b18 033c 1bbe 60bc b1ce 633c
00000390: 2b8d 83bc 1c96 e0bc db45 4bbc e1be a0bb
000003a0: f41c 56bc 651c 263c 1120 483c e712 853c
000003b0: 3b5a d039 50de 6537 f0e4 8e3c 168b 8d3c
000003c0: fa7c cebc 0384 43bc 2fa3 ab3c efc5 c83c
000003d0: c3a1 5abc 30ff 8f3c 42a0 dd3c 442c d4bc
000003e0: a43e d13c 20ec 683c 6a61 a43c 0893 64bc
000003f0: 9fcb c23b 8847 01bc 0ec3 143c c132 12bc
-0.025448723 -0.0120924 0.02534194 0.024938501 -0.009275558 0.01781719 0.027154481 -0.028598987
0.0272116 0.0107294265 0.019814419 -0.01376693 0.0059889522 -0.008020004 0.009839178 -0.010909551
-0.018993123 0.010187938 -0.033783212 0.01601627 -0.013036988 -0.0014903726 0.028346144 -0.0031478144
0.0029384622 -0.011963757 -0.0052551855 -0.011518159 -0.001377316 -0.0029211987 -0.0020944972 -0.014490042
-0.0044704033 0.0074013495 -0.015551618 0.013883286 -0.016087897 -0.026387893 -0.011799071 -0.00445624
-0.013340554 0.003896597 0.013128776 0.011756455 0.0013940574 0.003152132 0.017423447 0.015547635
-0.025398577 -0.011802569 0.025775775 0.024988322 -0.0106379455 0.015960816 0.026637074 -0.028908918
0.020990962 0.008973503 0.019766575 -0.0137730725 0.0060178107 -0.007989346 0.009606496 -0.009818944
-0.019275127 0.010925209 -0.0333349 0.015109837 -0.012978754 -0.0015340335 0.028321505 -0.003130197
0.0029058561 -0.011830556 -0.0053260354 -0.011336263 0.0059216996 -0.0029906079 -0.00011227744 -0.014343331
-0.004438196 0.0077350824 -0.014671224 0.01396658 -0.015957078 -0.027520912 -0.01181071 -0.0044759926
-0.0131544 0.010714956 0.013025877 0.007007229 0.00089842547 -0.00075316295 0.018328497 0.016630057
-0.025636146 -0.012258966 0.026379371 0.025220087 -0.010561107 0.017422061 0.027073838 -0.029364904
0.022082588 0.0124284355 0.014776247 -0.013791371 0.0061098537 -0.008027074 0.009844984 -0.010230667
-0.019325398 0.010073695 -0.034100465 0.015427079 -0.013670347 -0.0012518553 0.028297096 -0.0031853367
0.0022449964 -0.011425496 -0.005148653 -0.012206717 0.0048881806 -0.0027745978 -0.0015764876 -0.014522557
-0.0045988783 0.007788201 -0.012202236 0.013849845 -0.0164565 -0.027587337 -0.012540035 -0.0047290158
-0.013215482 0.007985151 0.013077573 0.01621588 0.0009861527 0.0020014055 0.017386619 0.016256101
-0.025176799 -0.012154543 0.024479542 0.024584616 -0.01051757 0.01783685 0.027120616 -0.027620545
0.026536802 0.010289273 0.022098726 -0.013573117 0.006012555 -0.008228273 0.009740964 -0.009552658
-0.018851513 0.010156341 -0.032853846 0.01551309 -0.0129433945 -0.0015402674 0.028066631 -0.0031555956
0.0007607012 -0.0117794005 -0.004908253 -0.011422031 0.0020442493 -0.003025325 -0.0016734252 -0.014366315
-0.0033039888 0.007872543 -0.010023283 0.013925234 -0.015941454 -0.02738665 -0.012559462 -0.0035276245
-0.013223708 0.0045538954 0.012914505 0.014780166 0.0012869396 -4.2197236e-05 0.017069243 0.016358798
-0.025304796 -0.011964777 0.024055952 0.024515573 -0.013787596 0.017074902 0.027181748 -0.02854406
0.021870662 0.014709324 0.023672849 -0.013577711 0.005983397 -0.007965658 0.009870364 -0.010080541
-0.018878678 0.010104032 -0.03241544 0.015214356 -0.013028602 -0.0018605565 0.028036438 -0.003123115
-0.00034215502 -0.00828606 -0.0048972354 -0.011448699 0.0035126328 -0.0029112517 -0.0021689031 -0.014361468
-0.005457824 0.008001368 -0.0137172 0.01390426 -0.016058525 -0.027415328 -0.012406792 -0.004905567
-0.013068426 0.010138606 0.0122146765 0.016244365 0.00039740079 1.3701225e-05 0.01744315 0.017278235
-0.025206078 -0.0119333295 0.020951835 0.024508445 -0.013344231 0.017577738 0.027053956 -0.025900014
0.025542565 0.014216453 0.020065982 -0.013951071 0.0059446837 -0.00789059 0.009079708 -0.0089232335

graph_attention.qkv_proj_high.bias f4 [96]
00000000: dc89 953b d6c8 a4bb 28f9 3d3b 83bd b2bb
00000010: 109b a5bb 109d 93bb 3519 b93a d9b1 223c
00000020: a9f6 82bc 7ae0 d3bb f3c5 63ba bdd3 873a
00000030: 41d6 8aba 52c9 5dbc d6c6 46bb a623 123a
00000040: 34f2 e2bb 1d28 43bb 0984 1abb e587 20bb
00000050: de3b cd3a 30ee d8ba 54f3 c539 1ae3 d3bb
00000060: 62fb 43bb fc35 2ebb 00e4 2abb 24ca 30bb
00000070: 3031 0ebb 4544 63bb 8fcd 3cbb d97c 40bb
00000080: a3bb 07bc 33d7 01bc 7249 05bc 73fb 0ebc
00000090: 27ca 13bc 637b 1cbc 39ec 07bc f39e 13bc
000000a0: 9e61 21b9 2eb5 0fb9 2f48 83b9 1ef5 b9b9
000000b0: d890 a4b9 52c7 10b9 a5cd a5b9 048e a7b9
000000c0: 2995 91b8 942e 25b9 f42b 81b8 6184 05b9
000000d0: 63f4 a3b8 f7c4 4ab8 14c7 46b8 f0c7 71b7
000000e0: 03d1 6cb9 b1d5 51b9 b8d3 45b9 469d 3db9
000000f0: 7a92 f0b8 24ff e5b8 8b06 10b9 4fbf 20b9
00000100: c2a5 81bd 4b1b 353d b969 863d 639e 3abd
00000110: de29 533d 126d ccbc 6d6d 9e3c 043f 35bc
00000120: 751b 9dbd adc5 87bc 5204 4e3d e231 84bd
00000130: 25c8 c73c 1b09 68bc 3f42 833d 4791 703d
00000140: 5669 86bc 8d27 9b3c 22b7 86bc 1105 81bd
00000150: 5c5b 20bb a617 2b3d 733f 513d 0f78 593d
00000160: 0096 f0bc 2a9e 4d3d cbfb 3bbd 4d19 133d
00000170: df43 253d 4410 9a3a e9ff 8ebd d7e4 fdbc
0.0045635533 -0.0050288243 0.002898762 -0.0054547205 -0.0050538853 -0.0045048073 0.0014121892 0.0099300975
-0.015986757 -0.0064659687 -0.00086888595 0.0010362786 -0.0010592417 -0.013536768 -0.0030330918 0.000557477
-0.0069258455 -0.0029778548 -0.0023577234 -0.0024495062 0.0015658101 -0.0016550478 0.00037756062 -0.0064662816
-0.0029904475 -0.002658247 -0.002607584 -0.0026975954 -0.0021696799 -0.0034678143 -0.0028809046 -0.002937129
-0.008284482 -0.007924843 -0.0081351865 -0.008726942 -0.009020365 -0.009550902 -0.008296066 -0.009010064
-0.00015390522 -0.00013705037 -0.00025040048 -0.00035468576 -0.00031388435 -0.00013807163 -0.0003162447 -0.00031958532
-6.941922e-05 -0.00015752978 -6.159386e-05 -0.00012733183 -7.817966e-05 -4.834399e-05 -4.7392285e-05 -1.4411271e-05
-0.00022584577 -0.000200114 -0.00018866255 -0.00018083034 -0.00011471375 -0.000109670946 -0.00013735348 -0.00015330057
-0.06330444 0.04421548 0.06563134 -0.045561206 0.0515536 -0.024954353 0.019339288 -0.011062387
-0.07671253 -0.016573751 0.05029709 -0.06454827 0.024387429 -0.014162327 0.0640912 0.058732297
-0.01640765 0.018939758 -0.016444746 -0.062997945 -0.0024468517 0.0417706 0.0510859 0.053093012
-0.0293684 0.050199665 -0.045894425 0.0359128 0.04034793 0.0011754115 -0.06982405 -0.030992908
