save_all/MSTAGAT-Net.state360.w-20.h-15.none.pt (torch, 168393 bytes, 64 tensors)

feature_extractor.depthwise.weight f4 [1, 1, 3]
0.25598657 0.1559751 -0.25948903
00000000: ac10 833e f0b7 1f3e bfdb 84be

feature_extractor.pointwise.weight f4 [16, 1, 1]
-0.04597158 0.03946679 -0.046970647 0.040237203 0.04577221 -0.053299375 0.048593152 0.043035347
0.04036507 0.04249985 0.041860033 -0.045479104 0.045650445 0.039605785 -0.052281648 0.040577464
00000000: b24c 3cbd eea7 213d 4b64 40bd c4cf 243d
00000010: a47b 3b3d 7250 5abd 9d09 473d d545 303d
00000020: d855 253d 5314 2e3d 6d75 2b3d 4c48 3abd
00000030: f6fb 3a3d ad39 223d 4825 56bd 8e34 263d

feature_extractor.pointwise.bias f4 [16]
-0.0001670542 0.000118291646 -7.891535e-06 0.0054196077 -0.020079488 -4.842383e-05 -5.4839334e-06 -0.0021997339
-8.349216e-06 -0.07182756 0.045228552 -0.031853464 0.017289972 1.3213674e-06 -4.467822e-05 0.0028599943
00000000: 452b 2fb9 5813 f838 e265 04b7 f796 b13b
00000010: bd7d a4bc b11a 4bb8 a102 b8b6 6929 10bb
00000020: 9c13 0cb7 541a 93bd 9341 393d c778 02bd
00000030: b3a3 8d3c d759 b135 e064 3bb8 be6e 3b3b

feature_extractor.bn2.weight f4 [16]
0.5257282 0.2469762 0.5361544 0.24673644 0.23921542 0.5007794 0.28833252 0.29522863
0.29042614 0.28158614 0.22622766 0.55495006 0.31541172 0.2562186 0.501024 0.25983018
00000000: 2096 063f 54e7 7c3e 6a41 093f 7aa8 7c3e
00000010: e3f4 743e 1433 003f 52a0 933e 3528 973e
00000020: bcb2 943e 0f2c 903e 39a8 673e 3511 0e3f
00000030: a57d a13e 162f 833e 1c43 003f 7608 853e

feature_extractor.bn2.bias f4 [16]
-0.05479301 0.01501646 -0.058637053 0.020990167 0.04314024 -0.053976826 -0.02726239 -0.027275637
-0.007018053 0.016967358 0.06318406 -0.05637217 0.009891748 0.022326944 -0.05687913 0.03120979
00000000: a36e 60bd 9907 763c 682d 70bd 92f3 ab3c
00000010: d2b3 303d ce16 5dbd 6055 dfbc 2871 dfbc
00000020: b2f7 e5bb 21ff 8a3c a566 813d 81e6 66bd
00000030: 0011 223c ffe6 b63c 17fa 68bd acab ff3c

feature_extractor.bn2.running_mean f4 [16]
-0.013389634 0.010876378 -0.013532469 0.01654593 -0.007916901 -0.015365368 0.013464018 0.009620542
0.011111291 -0.061995693 0.05828706 -0.046016507 0.030698149 0.011061088 -0.015060895 0.014251938
00000000: 3260 5bbc d632 323c 4ab7 5dbc 558b 873c
00000010: e4b5 01bc 06bf 7bbc 2f98 5c3c 7a9f 1d3c
00000020: 220c 363c 32ef 7dbd 6abe 6e3d ce7b 3cbd
00000030: af7a fb3c 9139 353c f9c1 76bc f680 693c

feature_extractor.bn2.running_var f4 [16]
0.0003321546 0.00022116715 0.0003475637 0.00022314943 0.0003194021 0.00044481788 0.00034440908 0.00027186825
0.00023483075 0.00026282945 0.0002570698 0.00032355794 0.00030603536 0.00023264872 0.00042810198 0.00023892401
00000000: 0925 ae39 1be9 6739 3639 b639 38fd 6939
00000010: 6d75 a739 7236 e939 ce91 b439 8a89 8e39
00000020: e63c 7639 5fcc 8939 53c7 8639 36a3 a939
00000030: 5f73 a039 2af3 7339 e072 e039 ad87 7a39

feature_projection_low.weight f4 [16, 320]
0.007481 0.022812417 0.015439599 -0.003824252 0.017205136 0.00957687 0.016273942 0.013482986
-0.0028315682 -0.00867748 0.0033928086 0.018718228 0.01440717 -0.003574831 -0.04028117 -0.025381684
-0.0077149644 0.015062797 6.548781e-05 0.0035477437 0.0039069196 -0.013521099 -0.010249222 -0.023236569
-0.03444859 -0.022442907 -0.01438148 -0.017402079 -0.0022213547 0.014702146 0.013984875 0.0033119635
-0.0062405164 -0.0010145127 -0.006047019 -0.0033632503 -0.0077205403 -0.005184355 -0.009475223 -0.028200198
-0.012293393 0.014451204 0.013574465 0.009566739 0.008400361 0.011334931 0.019329466 -0.006777225
-0.006720025 -0.011377569 0.002403921 -0.0027676965 -0.0013562372 -0.005425957 -0.015515739 -0.021847447
0.008980449 0.004694004 -0.005792817 -3.940602e-05 0.0026588226 -0.019306011 -0.01941544 -0.025099022
-0.03838503 -0.011115497 -0.01484423 -0.018781107 -0.0049286373 0.014361759 0.009923155 0.0017709917
-0.010900654 -0.0032776978 -0.0091571305 -0.004893054 -0.00995074 -0.0022774232 -0.006908357 -0.032595284
0.00488167 -0.029143456 -0.01597055 -0.022079896 -0.03633392 -0.022917874 -0.016521182 -0.020663965
-0.004723517 0.013464422 0.008205303 -0.0027261877 -0.011372953 -0.0043651816 -0.011559531 -0.004125647
-0.01119945 -0.0064887144 -0.009083269 -0.03274713 -0.014566192 -0.0033042794 0.006023423 -0.0011111435
0.013198741 0.0036423218 0.020050824 -0.009315704 -0.017106242 0.00023543931 0.0097536305 0.008255238
0.013853357 -0.004978414 -0.024352035 -0.021578168 0.0019523127 -0.00601637 0.006546964 -0.0038465497
0.0020672788 -0.0037410473 -0.010172518 -0.022113271 -0.026695142 -0.014679324 -0.014731074 -0.018273529
-0.002580759 0.013417527 0.020053748 0.00786836 -0.003574737 0.0022327793 -0.0012206539 -0.00070962816
-0.0033634063 -0.0089973565 -0.010117833 -0.027325597 0.0013486004 -0.0069894455 -0.004764469 -0.027562713
-0.03084817 -0.011600217 -0.016988289 -0.020322789 -0.0033125621 0.014233008 0.015016584 0.004621545
-0.0043269647 0.0005509292 -0.00056327414 -0.0028723103 -0.002241231 -0.008258044 -0.007247693 -0.029909855
0.0019264674 -0.012405324 -0.01668392 -0.02217718 -0.03628458 -0.018732803 -0.013740903 -0.018452343
-0.0039052994 0.014458705 0.0151120955 0.004602842 -0.0034395915 0.0005649908 -0.004493995 0.0008621459
-0.0046056705 -0.006978754 -0.0154083865 -0.008367926 0.0017498326 -0.017431429 -0.012280314 -0.02449613
-0.037601855 -0.009616782 -0.01539456 -0.02011742 -0.002624225 0.016258292 0.017617298 0.0038594243
-0.010043804 -0.0002222017 -0.006299986 -0.0008490845 -0.0041659772 -0.008607347 -0.009232129 -0.017456044
0.005478228 -0.02174169 -0.017836187 -0.022213468 -0.03342025 -0.016801419 -0.017741876 -0.013433751
0.00084269146 0.011874907 0.009341247 -0.0036876886 -0.016606849 -0.0074784635 -0.012767626 -0.0059414725
-0.015401294 -0.008819942 -0.011859968 -0.041112356 -0.0019244687 0.0013490712 0.012041483 0.007840786
0.0155685535 0.0013111042 0.01729862 -0.008216396 -0.009852101 -0.0013132888 -0.0011120929 0.0045355824
0.0014413482 -0.011602411 -0.022961624 -0.016042043 0.010635581 0.009921453 0.006816532 0.0043005003
0.00497652 -0.014116792 -0.010296473 -0.037018504 -0.036392678 -0.022249792 -0.024681916 -0.026135037
-0.0011368671 0.014354159 0.015891235 0.006146655 -0.007325187 0.0017842754 -0.01010953 -0.0004382267
00000000: 2d23 f53b 1be1 ba3c 5ff6 7c3c 4da0 7abb
00000010: c9f1 8c3c 4ee8 1c3c ee50 853c bee7 5c3c
00000020: d591 39bb fd2b 0ebc e259 5e3b f856 993c
00000030: 0d0c 6c3c b647 6abb defd 24bd 40ed cfbc
00000040: d0cd fcbb f3c9 763c 8056 8938 4381 683b
00000050: 9e05 803b 9a87 5dbc 5aec 27bc 9e5a bebc
00000060: f719 0dbd 30da b7bc 4da0 6bbc ce8e 8ebc
00000070: 2694 11bb 45e1 703c d120 653c 870d 593b
00000080: 3f7d ccbb 66f9 84ba 1226 c6bb fa69 5cbb
00000090: 96fc fcbb 86e1 a9bb f73d 1bbc 1a04 e7bc
000000a0: 3a6a 49bc bec4 6c3c 6f67 5e3c d0bd 1c3c
000000b0: aba1 093c 25b6 393c d458 9e3c 7c13 debb
000000c0: a833 dcbb fc68 3abc 1a8b 1d3b 3e62 35bb
000000d0: c5c3 b1ba 3acc b1bb ba35 7ebc 6bf9 b2bc
000000e0: bc22 133c 29d0 993b acd1 bdbb e447 25b8
000000f0: a43f 2e3b a427 9ebc 210d 9fbc 779c cdbc
00000100: 9f39 1dbd c61d 36bc 3735 73bc d6da 99bc
00000110: 6880 a1bb 954d 6b3c bb94 223c 9f20 e83a
00000120: a898 32bc a5ce 56bb ca07 16bc e955 a0bb
00000130: 6e08 23bc d240 15bb 805f e2bb a282 05bd
00000140: 6af6 9f3b 42be eebc acd4 82bc e6e0 b4bc
00000150: e0d2 14bd 44be bbbc 6e57 87bc 7a47 a9bc
00000160: bcc7 9abb e199 5c3c 896f 063c d7a9 32bb
00000170: 9f55 3abc cc09 8fbb 3064 3dbc 6f30 87bb
00000180: e67d 37bc 489f d4bb fed1 14bc db21 06bd
00000190: 0aa7 6ebc 9c8c 58bb 2260 c53b caa3 91ba
000001a0: 883f 583c 05b4 6e3b a041 a43c e5a0 18bc
000001b0: 6422 8cbc 42e0 7639 b1cd 1f3c fa40 073c
000001c0: 31f9 623c f721 a3bb eb7d c7bc b3c4 b0bc
000001d0: bee4 ff3a f824 c5bb ea87 d63b 6516 7cbb
000001e0: 2f7b 073b 5c2c 75bb a2aa 26bc e426 b5bc
000001f0: c5af dabc 8c81 70bc 9a5a 71bc 5eb2 95bc
00000200: f421 29bb 30d5 5b3c c247 a43c 4bea 003c
00000210: 2346 6abb d253 123b 59fe 9fba 5706 3aba
00000220: 986c 5cbb a669 13bc 44c5 25bc eed9 dfbc
00000230: 85c3 b03a b807 e5bb 431f 9cbb 33cb e1bc
00000240: 4db5 fcbc d60e 3ebc 062b 8bbc fa7b a6bc
00000250: 9217 59bb 9031 693c 1e08 763c 5470 973b
00000260: 36c9 8dbb 3c6c 103a b0a8 13ba 5f3d 3cbb
00000270: 9ee1 12bb bf4c 07bc 0e7e edbb 8305 f5bc
00000280: 8581 fc3a b33f 4bbc b7ac 88bc ebac b5bc
00000290: 249f 14bd 8975 99bc 8621 61bc 5e29 97bc
000002a0: 0df0 7fbb 34e4 6c3c b998 773c 70d3 963b
000002b0: c56a 61bb e41b 143a 5d42 93bb a201 623a
000002c0: 2aeb 96bb 08ae e4bb 7573 7cbc a019 09bc
000002d0: a45a e53a 5bcc 8ebc 5f33 49bc 1cac c8bc
000002e0: 6704 1abd b58f 1dbc 7739 7cbc 4acd a4bc
000002f0: 31fb 2bbb 1c30 853c 2752 903c 65ee 7c3b
00000300: c48e 24bc d1fe 68b9 1d70 cebb 1995 5eba
00000310: c082 88bb d405 0dbc 5b42 17bc faff 8ebc
00000320: b582 b33b a11b b2bc 321d 92bc 05f9 b5bc
00000330: ace3 08bd 21a3 89bc 6957 91bc 3c19 5cbc
00000340: 11e8 5c3a f88e 423c 080c 193c 26ad 71bb
00000350: 160b 88bc e60d f5bb 4e2f 51bc afb0 c2bb
00000360: b655 7cbc 8581 10bc 5050 42bc 6e65 28bd
00000370: 743e fcba 51d3 b03a a449 453c a476 003c
00000380: 3f13 7f3c 5bd9 ab3a d6b5 8d3c 109e 06bc
00000390: b56a 21bc a922 acba a5c3 91ba 399f 943b
000003a0: 9feb bc3a 0a18 3ebc 041a bcbc 9a6a 83bc
000003b0: dc40 2e3c 978d 223c 375d df3b 36eb 8c3b
000003c0: 1312 a33b 1e4a 67bc 8ab2 28bc b7a0 17bd
000003d0: 7d10 15bd 3245 b6bc bb31 cabc 2519 d6bc
000003e0: ee02 95ba b52d 6b3c 562e 823c e169 c93b
000003f0: 1f08 f0bb 59de e93a 71a2 25bc cbc1 e5b9

feature_projection_low.bias f4 [16]
-0.00079307216 -0.0037928245 0.026736313 0.024749367 -0.024664925 -0.0298708 0.028403185 -0.0712643
0.019590147 0.044112567 -0.0539862 -0.0103927385 0.04597853 -0.053017735 0.024681605 0.06524057
00000000: 2ce6 4fba 0991 78bb 1d06 db3c 2fbf ca3c
00000010: 190e cabc 9cb3 f4bc ccad e83c 04f3 91bd
00000020: 847b a03c 61af 343d a220 5dbd 4e46 2abc
00000030: fc53 3c3d 2029 59bd 1431 ca3c d99c 853d

feature_projection_high.weight f4 [32, 16]
-0.030685548 -0.055120282 0.040689196 0.007584998 0.0037908442 0.0013438521 0.022971325 -0.031398267
0.02616227 0.04659044 -0.032090176 -0.0042067976 -0.007891842 -0.039502982 -0.024274493 0.035584573
0.03459881 0.064829975 -0.006040263 0.014813069 -0.0047382126 0.074312344 -0.08792485 0.01226237
0.047103725 -0.0026964766 -0.058321185 0.057847355 -0.09431105 0.066413976 0.0877668 0.00044657238
0.034881435 -0.046429675 -0.060663722 -0.022657901 -0.046677236 -0.0774467 0.07682684 -0.035410926
0.0534618 -0.085907504 0.026742313 0.041857693 0.12931019 -0.06974493 -0.06108588 -0.027031552
0.08520337 0.033462174 0.113152355 -0.11212153 -0.049427822 0.07643009 0.07014354 -0.053881798
0.09468252 -0.037411824 -0.11601595 -0.004223319 -0.07498195 -0.0736545 -0.06682119 0.040296018
0.05232889 0.0065828613 -0.079215296 -0.04612262 0.07997416 -0.06036448 -0.05332657 -0.0422165
-0.12014249 -0.09023557 0.16557017 0.027415574 0.052148197 0.0692928 0.07419516 0.0649402
0.0069224457 -0.0062704384 0.02627367 0.03638379 -0.00020269089 -0.014908869 -0.023683105 -0.01732942
0.02147637 -0.010185345 -0.03199692 0.0009996103 -0.029151997 0.007451221 -0.0055001997 -0.011441117
0.005683162 -0.024971006 0.0024030567 0.02320179 -0.0027938613 -0.0312368 0.016502026 -0.012219644
-0.0062927096 -0.026084246 0.0011127209 0.0064105205 0.011731101 -0.02646148 -0.016064448 0.030655751
-0.053162925 -0.015848612 0.033348404 0.019443586 -0.015374903 0.027554806 0.0015186588 -0.0047432636
0.03220168 0.032668833 -0.06052903 -0.0069148294 0.0017509608 0.020928534 -0.023719965 0.010871322
0.011939484 0.0027253355 -0.017504273 -0.016145509 -0.011112633 0.020046756 0.015918914 0.0026291467
-0.0033841846 -0.004099954 -0.021024404 0.0041042455 -0.0060026296 -0.027363611 -0.011063224 0.0036696144
-0.06206241 -0.058355715 -0.06568959 0.06314635 0.09298097 -0.11266046 -0.09079322 -0.016427107
-0.09331528 0.07596941 0.05016683 -0.08633568 0.039374325 -0.08310331 0.074742585 -0.1400676
0.014622934 -0.0048450627 0.0008409157 0.01866007 -0.0015452342 -0.013401429 0.005299769 -0.007501086
-0.0068217134 0.0022513475 -0.016294062 0.0023212878 0.006702073 -0.023673618 -0.00863989 0.01586211
0.049748164 0.047972064 -0.008793671 -0.06890726 -0.012715346 0.040579006 0.049700852 0.028223969
0.0065351934 -0.047749016 -0.049467076 0.00039414054 -0.034816284 0.030373434 0.03193898 -0.04240744
0.01507971 -0.0019390393 -0.0014314166 0.01640445 -0.0029660487 -0.011240905 0.011038508 -0.010418688
-0.0063526435 0.008901416 -0.01077965 0.0026254475 0.0074508972 -0.028630292 -0.013061409 0.017835872
0.06650961 0.056330577 -0.032626063 -0.05210043 -0.0085854065 0.037988275 0.0850106 0.005757671
0.0022086485 -0.0074103316 0.04275323 0.02254742 -0.020148154 -0.06108581 0.020498877 -0.004233134
-0.072191134 0.014701947 0.07082247 -0.060376592 0.001080962 0.04058371 0.092911474 -0.015890317
-0.033200018 -0.03654782 -0.0085285865 0.015340769 -0.06056209 0.11367961 0.019356813 -0.045785565
0.021169385 -0.007646588 0.03265346 0.034409236 -0.0052648964 -0.034168348 -0.037373986 -0.005072255
0.013767947 -0.014870555 -0.026689399 -0.0073244506 -0.010239227 -0.04928786 -0.031079205 -0.0056225685
00000000: 4260 fbbc cec5 61bd b7a9 263d 938b f83b
00000010: d06f 783b 3224 b03a 5c2e bc3c 789b 00bd
00000020: 4252 d63c 9ed5 3e3d fd70 03bd 2dd9 89bb
00000030: c94c 01bc e1cd 21bd 4ddb c6bc 21c1 113d
00000040: 7bb7 0d3d 94c5 843d 66ed c5bb 84b2 723c
00000050: 0243 9bbb 1231 983d f211 b4bd 1ce8 483c
00000060: d6ef 403d 5fb7 30bb 32e2 6ebd 59f1 6c3d
00000070: 2726 c1bd 0d04 883d 14bf b33d ee21 ea39
00000080: d6df 0e3d 0b2d 3ebd 867a 78bd 109d b9bc
00000090: a130 3fbd 609c 9ebd 6457 9d3d 0c0b 11bd
000000a0: c3fa 5a3d 46f0 afbd b212 db3c f972 2b3d
000000b0: e469 043e 6ed6 8ebd 3035 7abd 4671 ddbc
000000c0: 1b7f ae3d a20f 093d 6cbc e73d f99f e5bd
000000d0: d474 4abd 6187 9c3d 6ba7 8f3d 29b3 5cbd
000000e0: e9e8 c13d 243d 19bd c599 edbd c463 8abb
000000f0: 2390 99bd 2cd8 96bd 8cd9 88bd 700d 253d
00000100: d156 563d 0bb5 d73b a13b a2bd 13eb 3cbd
00000110: 7ec9 a33d bf40 77bd f66c 5abd 35eb 2cbd
00000120: 440d f6bd 6dcd b8bd 3a8b 293e a096 e03c
00000130: 5999 553d 62e9 8d3d a2f3 973d 5eff 843d
00000140: afd5 e23b 4078 cdbb e13b d73c 2b07 153d
00000150: 6c89 54b9 5444 74bc 1203 c2bc 6ef6 8dbc
00000160: 36ef af3c 6fe0 26bc 340f 03bd 5b05 833a
00000170: 2bd0 eebc 5f29 f43b 053b b4bb 8673 3bbc
00000180: d139 ba3b ff8f ccbc 9a7c 1d3b ae11 be3c
00000190: 3719 37bb 51e4 ffbc 422f 873c e734 48bc
000001a0: 1333 cebb a1ae d5bc b8d8 913a 580f d23b
000001b0: ce33 403c bfc5 d8bc 9799 83bc c521 fb3c
000001c0: 5ec1 59bd f3d4 81bc 5698 083d 2848 9f3c
000001d0: 04e7 7bbc 9eba e13c bc0d c73a 616d 9bbb
000001e0: e9e5 033d c1cf 053d 4aed 77bd cb95 e2bb
000001f0: 7f80 e53a 5172 ab3c 5f50 c2bc a11d 323c
00000200: d39d 433c 8b9b 323b 1f65 8fbc 9643 84bc
00000210: c311 36bc 1839 a43c 6268 823c c34d 2c3b
00000220: 32c9 5dbb e858 86bb 5f3b acbc e87c 863b
00000230: b5b1 c4bb a729 e0bc 8642 35bc ea7d 703b
00000240: 2735 7ebd 6706 6fbd 4488 86bd e052 813d
00000250: cf6c be3d 87ba e6bd ccf1 b9bd 2492 86bc
00000260: 151c bfbd da95 9b3d bc7b 4d3d c3d0 b0bd
00000270: f946 213d 1132 aabd a412 993d e26d 0fbe
00000280: 0895 6f3c 55c3 9ebb e670 5c3a 01dd 983c
00000290: 7589 caba ab91 5bbc afa9 ad3b accb f5bb
000002a0: ae88 dfbb 588b 133b 207b 85bc bf20 183b
000002b0: 109d db3b 2def c1bc 538e 0dbc 41f1 813c
000002c0: bbc4 4b3d 5b7e 443d 5413 10bc 401f 8dbd
000002d0: 0754 50bc 2c36 263d 1f93 4b3d f435 e73c
000002e0: 2d25 d63b 7994 43bd fd9d 4abd a6a4 ce39
000002f0: 859b 0ebd b5d1 f83c 73d2 023d 6cb3 2dbd
00000300: e310 773c 5d27 feba 5f9e bbba a062 863c
00000310: 0a62 42bb c62b 38bc dcda 343c 25b3 2abc
00000320: d629 d0bb 3fd7 113c 219d 30bc b30f 2c3b
00000330: a826 f43b 138a eabc 85ff 55bc 891c 923c
00000340: 3136 883d e4ba 663d e8a2 05bd 4367 55bd
00000350: cea9 0cbc 9899 1b3d 0a1a ae3d d8aa bc3b
00000360: f9be 103b 5ed2 f2bb 031e 2f3d 5eb5 b83c
00000370: be0d a5bc 1d35 7abd 43ed a73c 1ab6 8abb
00000380: f2d8 93bd 6fe0 703c 5f0b 913d 724d 77bd
00000390: 11af 8d3a 1b3b 263d 5f48 be3d 692c 82bc
000003a0: befc 07bd 2bb3 15bd 7cbb 0bbc d957 7b3c
000003b0: f40f 78bd dbd0 e83d 2e92 9e3c a589 3bbd
000003c0: 6b6b ad3c 3b90 fabb a2bf 053d b3f0 0c3d
000003d0: 2785 acbb 1cf4 0bbd 7715 19bd 2935 a6bb
000003e0: f592 613c a1a3 73bc baa3 dabc f201 f0bb
000003f0: 6ec2 27bc 11e2 49bd d199 febc 863d b8bb

feature_projection_high.bias f4 [32]
-0.03795639 0.118245855 0.02222415 0.116271324 0.081617504 0.028145041 0.021660622 -0.004836084
0.03319346 -0.15249611 0.018237233 0.11347622 0.018122219 0.08591495 0.09216213 0.003311789
-0.09341132 0.06752216 0.007957228 0.17103013 -0.11881266 0.03873226 0.0025084992 0.015996272
-0.09005964 -0.06829179 0.013995181 0.15540971 0.022925626 0.015899247 0.20531213 0.006415928
00000000: 2978 1bbd e22a f23d 6c0f b63c a91f ee3d
00000010: 1427 a73d 6e90 e63c 9e71 b13c 0378 9ebb
00000020: def5 073d f127 1cbe 4066 953c 3866 e83d
00000030: 0c75 943c 2df4 af3d 80bf bc3d 990a 593b
00000040: 6f4e bfbd 0f49 8a3d 095f 023c 8622 2f3e
00000050: 0d54 f3bd b8a5 1e3d a265 243b 9d0a 833c
00000060: 3071 b8bd 91dc 8bbd 0b4c 653c b923 1f3e
00000070: 86ce bb3c 233f 823c 583d 523e b43c d23b

feature_norm.weight f4 [32]
0.16247207 0.28899592 0.23517859 0.39676744 0.51730895 0.08497672 0.08018664 0.1042521
0.0836261 0.4549728 0.075803526 0.16423588 0.07658407 0.12688825 0.20597462 0.081501625
0.2707892 0.1379804 0.4279345 0.607764 0.44689995 0.30377373 0.07593084 0.07584549
0.39541826 0.30559215 0.16433516 0.57592475 0.30907336 0.28735623 0.58948666 0.25939426
00000000: 145f 263e 46f7 933e a8d2 703e 1a25 cb3e
00000010: 5c6e 043f 4608 ae3d e538 a43d 2082 d53d
00000020: 2944 ab3d 32f2 e83e e13e 9b3d 732d 283e
00000030: 1cd8 9c3d feee 013e 03eb 523e 53ea a63d
00000040: e2a4 8a3e bc4a 0d3e 3b1a db3e 6c96 1b3f
00000050: 12d0 e43e 3b88 9b3e a181 9b3d e154 9b3d
00000060: 4374 ca3e 9376 9c3e 7a47 283e ce6f 133f
00000070: dd3e 9e3e 5b20 933e 99e8 163f 53cf 843e

feature_norm.bias f4 [32]
-0.02337431 0.008158668 0.017157765 0.011683948 0.019697007 -0.0017734845 -0.0027125734 -0.008498809
-0.0058267764 0.0072246757 -0.007364627 -0.005787111 0.006705331 -0.0070809037 -0.033731006 -0.002216465
-0.017945495 -0.018735858 0.008354787 0.0073710093 -0.012094271 -0.0008083053 -0.006866179 -0.008678595
-0.00080777577 0.056187764 -0.007293098 -0.08101178 0.011378555 0.032496702 -0.034649298 -0.0213255
00000000: 7b7b bfbc efab 053c 718e 8c3c 086e 3f3c
00000010: 9e5b a13c 4474 e8ba 6ec5 31bb 973e 0bbc
00000020: 8bee bebb f9bc ec3b f852 f1bb cea1 bdbb
00000030: 65b8 db3b ed06 e8bb 8629 0abd 1d42 11bb
00000040: 6e02 93bc f17b 99bc 84e2 083c 8288 f13b
00000050: 0d27 46bc 73e4 53ba affd e0bb aa30 0ebc
00000060: eac0 53ba 2425 663d f1fa eebb 81e9 a5bd
00000070: 1e6d 3a3c 431b 053d 6cec 0dbd d1b2 aebc

spatial_module.u f4 [4, 49, 16]
1.530352e-37 1.8790373e-36 -5.6769975e-38 3.9969623e-38 -2.381874e-39 4.181992e-39 -1.5447261e-36 -1.7061157e-36
1.7853818e-38 9.114692e-37 -1.8305243e-38 -9.540836e-39 1.1171438e-37 1.2220449e-37 4.3122225e-36 -1.2478214e-37
-2.999389e-37 4.6249224e-36 -1.5212914e-37 9.980968e-39 -7.010828e-36 4.358181e-39 -4.8792356e-37 3.0138455e-38
1.0833434e-38 -2.4443448e-37 -4.245538e-38 5.0751232e-37 2.1133165e-36 -3.1726395e-38 3.8497494e-37 -1.0499046e-37
4.411026e-37 4.6604878e-38 4.431136e-39 -6.9715475e-36 -2.1827477e-37 3.54556e-37 -5.694099e-39 1.2208067e-38
-1.6260884e-37 -5.402853e-38 3.2361789e-38 -2.7808174e-38 4.100384e-39 -4.4984897e-36 -3.4533279e-37 3.855971e-38
-3.3864867e-36 -1.5706123e-37 2.4425518e-38 4.4743106e-37 1.317106e-38 5.114655e-38 1.97831e-38 4.499718e-38
-1.4043481e-38 8.7226655e-37 -5.1817444e-38 -2.9707083e-36 -2.9224293e-36 -9.4009796e-38 -3.5495978e-38 6.877242e-38
-1.1337157e-36 3.4624737e-38 1.7866443e-38 -4.3704033e-38 6.564297e-37 5.101357e-38 -5.2775125e-38 3.887387e-36
-2.715307e-36 2.05883e-38 1.5996244e-36 -8.156602e-38 5.23757e-39 -1.5823731e-38 6.8680653e-38 -1.0753592e-37
4.0093315e-37 1.4255934e-36 -8.4101506e-38 -2.4211751e-37 1.9349275e-38 -3.98372e-38 -8.265338e-37 2.1090432e-38
4.16917e-40 1.2220173e-37 3.5331537e-37 2.400204e-38 -1.2020836e-37 -2.6314722e-36 -2.169633e-36 6.6609613e-37
-5.8349205e-38 5.849387e-37 -3.9600095e-38 -7.923083e-39 -1.977453e-37 1.0349827e-36 -4.0679336e-38 3.531625e-37
8.6399276e-38 1.0271975e-38 -2.0233497e-37 -3.6583625e-37 -1.2655939e-37 -1.0944867e-37 -1.6938298e-37 -1.5015338e-38
-4.1784243e-38 1.817608e-36 -1.5153559e-37 -1.3763695e-37 9.568247e-37 3.545937e-39 -1.6853257e-38 1.0353594e-36
-7.95023e-38 1.189845e-36 5.096118e-37 1.451062e-37 -3.6229986e-38 -7.858062e-36 -1.5090465e-38 2.6752075e-37
1.3677024e-37 -7.3321675e-38 -3.653393e-38 -4.6760693e-37 6.16407e-37 1.3047398e-38 7.985049e-37 6.7349574e-37
2.3433082e-36 -2.7606185e-38 2.1634015e-38 -1.0607504e-37 8.806003e-38 3.6607985e-37 -1.9996494e-36 -1.04158105e-35
-3.0874484e-38 -1.6999313e-37 -2.1331196e-38 2.4864195e-36 2.871811e-39 -6.1930386e-38 -1.3393093e-37 -5.405739e-38
-2.2839386e-36 -3.1465146e-37 1.0122582e-38 -1.0840248e-37 4.6140386e-37 2.0975073e-36 4.5237243e-36 2.9561781e-37
4.0311276e-38 -3.4903985e-38 -1.4763464e-37 4.5578665e-38 9.448768e-36 7.417946e-38 -2.9043275e-36 -3.108674e-37
1.5922593e-37 1.5409337e-38 -2.2393103e-38 5.636127e-38 4.595287e-38 -8.0536494e-36 9.855852e-37 4.4496217e-37
3.5594414e-37 -2.2329198e-37 -6.8779075e-38 9.107353e-38 -1.3175709e-37 -1.2811239e-37 -1.6295352e-38 -6.1077784e-37
-1.3758496e-38 -6.0184755e-38 -3.1755262e-38 -7.209619e-38 2.5589207e-38 3.1519395e-36 6.402823e-38 8.264337e-38
9.567653e-38 -1.998331e-37 2.073385e-39 3.812813e-37 -4.4698623e-37 9.0863995e-37 5.7486016e-38 -3.1533655e-38
-3.6637285e-37 3.0652825e-37 6.491762e-37 -2.2722287e-38 -5.7891064e-38 4.827846e-36 -1.9217839e-38 -5.935841e-37
-2.664736e-38 -4.36584e-39 -3.698496e-36 -1.5841633e-37 -1.2288585e-38 -5.194748e-38 -5.056445e-37 8.75413e-38
2.5243892e-36 1.0302851e-38 -1.398301e-38 5.448307e-39 -1.4968824e-38 4.0479617e-38 -1.4644813e-36 2.0012624e-38
-1.5224126e-37 -1.1309777e-37 -2.7788208e-38 8.381134e-37 -3.5486572e-37 6.879279e-38 6.750254e-38 1.2994007e-37
-2.9144772e-38 5.8844966e-37 -1.4204354e-35 -6.608752e-39 8.0572436e-38 -8.1490556e-38 3.0001347e-36 -3.0239445e-37
4.619272e-39 1.7732205e-37 -1.4131193e-37 1.506707e-37 -3.6889832e-38 8.629661e-37 7.0008737e-38 -6.5661052e-37
-1.982738e-37 -7.991914e-38 -1.653858e-36 -1.5158545e-37 1.7206739e-37 1.7220664e-37 1.9121583e-37 -1.4229791e-38
00000000: fc4c 5002 cfd9 1f04 e68a 9a81 869d 5901
00000010: b2ef 1980 b189 2d00 2869 0384 e923 1184
00000020: 2e69 c200 1514 9b03 9253 c780 f8e3 6780
00000030: c80e 1802 0d56 2602 f26b b704 3bd8 2982
00000040: ba20 cc82 f2b8 c404 4511 4f82 e1ae 6c00
00000050: 941a 1585 d674 2f00 2308 2683 e016 2401
00000060: 35f7 7500 7e5a a682 2a26 6781 8fb2 2c03
00000070: f5c7 3304 24bc 2c81 0c00 0303 d6e7 0e82
00000080: 7519 1603 b8bd 7d01 3440 3000 b744 1485
00000090: d48c 9482 5e4c f102 d500 3e80 20ef 8400
000000a0: e954 5d82 6414 9381 c031 3001 f066 1781
000000b0: 34a6 2c00 3758 bf84 7505 eb82 64f0 5101
000000c0: 930b 9084 dac7 5582 34fc 0401 be40 1803
000000d0: 8e6b 8f00 f13b 8b01 3c6b d700 eafc 7401
000000e0: 83eb 9880 9168 9403 7d0f 8d81 4cb8 7c84
000000f0: e09c 7884 44eb ff81 2c42 4181 6237 bb01
00000100: 48e4 c083 d783 3c01 608c c200 88f2 6d81
00000110: 175f 5f03 45df 8a01 e5aa 8f81 e559 a504
00000120: 26fe 6684 ce2f e000 bc14 0804 380b de81
00000130: 3708 3900 204e ac80 6ef7 ba01 cd5e 1282
00000140: 346e 0803 5a8d f203 32f2 e481 d2c6 a482
00000150: e8b1 d200 f4e4 5881 a0a0 8c83 8ba7 e500
00000160: 328a 0400 1755 2602 3874 f002 f6ad 0201
00000170: 809e 2382 64dc 5f84 6c92 3884 28a9 6203
00000180: 76d7 9e81 590b 4703 7a9a 5781 5546 5680
00000190: 1794 8682 db17 b003 b87a 5d81 9659 f002
000001a0: 8233 eb01 16da 6f00 b9b3 8982 aaf9 f882
000001b0: 8343 2c82 4cf9 1482 5b8d 6682 a780 a380
000001c0: bc7e 6381 ff9f 1a04 7242 4e82 7a57 3b82
000001d0: 98cb a203 a19c 2600 0684 b780 4328 b003
000001e0: 046d d881 0f71 ca03 7369 2d03 2282 4502
000001f0: 3b41 4581 5c1f 2785 1452 a480 b010 b602
00000200: 7929 3a02 c099 c781 dee8 4681 4f1e 1f83
00000210: 9fc0 5103 d612 8e00 cbdb 8703 c12d 6503
00000220: bc58 4704 684d 1681 d592 eb00 c261 1082
00000230: e2b8 ef01 1b24 f902 821c 2a84 1185 5d85
00000240: c018 2881 f661 6782 b246 e880 6c85 5304
00000250: 7145 1f00 2e97 a881 1e4c 3682 8128 9381
00000260: c74b 4284 0424 d682 a439 6e00 c08c 1382
00000270: f201 1d03 aa6f 3204 ff6a c004 e32f c902
00000280: b879 5b01 0e09 3e81 2af3 4882 6327 7801
00000290: fcf3 4805 8aef c901 a712 7784 bd90 d382
000002a0: 24ba 5802 f6ca a700 dcd6 f380 136e 9901
000002b0: f430 7a01 3d48 2b85 4ab0 a703 ac69 1703
000002c0: 373e f202 f3f6 9782 053c bb81 fdec f701
000002d0: a556 3382 a760 2e82 d070 b180 41d6 4f83
000002e0: 17d1 9580 a7d6 a381 60e4 2c81 b643 c481
000002f0: 2652 0b01 9511 8604 2a4d ae01 06fa e001
00000300: 683a 0202 d6ff 8782 c193 1600 49be 0103
00000310: fe19 1883 da98 9a03 e87d 9c01 80af 2b81
00000320: 2757 f982 c19c d002 39e7 5c03 7e6c f780
00000330: 2f98 9d81 965a cd04 8443 d180 78fc 4983
00000340: 0015 1181 308a 2f80 0e51 9d84 09a0 5782
00000350: 93cf 8580 1c6a 8d81 d90f 2c83 624f ee01
00000360: 54c0 5604 2830 7000 f142 9880 aa53 3b00
00000370: fefe a280 5a64 5c01 282b f983 0eeb d900
00000380: 5638 4f82 d2f0 1982 1c4b 1781 fd98 8e03
00000390: 5482 f182 9445 bb01 68c2 b701 82dd 3002
000003a0: e2ad 1e81 323d 4803 ee0b 9785 83f6 4780
000003b0: cb56 db01 a1d6 dd81 2639 7f04 8bcc cd82
000003c0: a74c 3200 b75b 7102 0558 4082 1415 4d02
000003d0: ecd8 4881 7ad3 9203 f894 be01 d86e 5f83
000003e0: 2bf0 8682 838f d981 d6b1 0c84 d253 4e82
000003f0: bc34 6a02 4265 6a02 7f22 8202 def2 9a80

spatial_module.v f4 [4, 16, 49]
2.8203309e-37 2.3407592e-38 -1.0157561e-37 -2.2901908e-38 3.066204e-36 -1.6805702e-38 -1.9520839e-37 1.466175e-38
9.452386e-37 -5.926551e-37 1.9660195e-37 -7.5702504e-38 1.3799858e-37 4.7091285e-38 -2.6440368e-37 2.7484645e-38
-1.190296e-38 1.5299454e-37 -2.6406866e-37 -1.0018183e-38 7.895638e-38 -2.0462866e-37 4.7796286e-36 -8.9941983e-38
2.5292532e-36 8.179729e-38 -4.960255e-38 -1.2816673e-37 -1.2207339e-37 1.4798891e-37 5.462214e-36 -3.1630833e-37
2.999601e-38 -2.554271e-37 9.0765173e-38 -2.1893205e-38 1.7481072e-38 2.4170947e-38 -1.7627558e-36 -3.519409e-39
3.1268148e-38 3.229755e-37 1.455132e-36 1.767201e-37 -2.5016972e-36 -1.4338066e-37 2.6741505e-37 2.8387139e-37
1.1290014e-37 -2.695925e-37 2.569539e-37 -8.376472e-38 -5.779885e-39 -9.802845e-38 -2.6401466e-38 3.9392972e-38
-2.6408005e-38 5.2370795e-38 1.1245191e-37 1.7539139e-38 -1.7861408e-38 1.3268731e-38 -5.136019e-38 6.2110727e-37
3.8313105e-36 -5.741533e-39 -1.0841338e-37 -3.0688605e-37 -2.3040746e-37 6.2147665e-38 1.8921839e-37 7.149012e-38
-9.036011e-37 -8.2711563e-38 -1.521406e-37 7.249405e-37 -2.83417e-39 3.6523808e-38 8.766151e-38 2.390098e-38
-5.3161273e-38 2.5095336e-37 2.6788766e-37 -3.9344554e-36 -4.0459635e-37 -5.9918396e-38 1.2829479e-38 -2.726629e-37
-1.9498445e-37 -8.321722e-37 -8.641722e-37 -4.6937748e-38 -4.5151277e-38 -5.578065e-38 4.2641445e-38 2.8597028e-36
-1.7477521e-38 -6.7356574e-37 -3.8044494e-38 7.4123895e-37 -9.62711e-38 -1.0257381e-37 -6.939383e-39 -1.1756956e-37
-3.6411178e-36 3.0757442e-38 2.2247638e-38 2.5621857e-38 -9.70412e-39 8.378793e-37 1.9688046e-38 -2.3220989e-37
-9.2870226e-38 1.4865003e-37 5.3915575e-37 -1.7523915e-36 -5.071204e-38 1.0833438e-38 2.9103406e-36 -3.5605727e-36
3.0836862e-38 -1.6834588e-37 5.977939e-39 -1.1328167e-37 -6.693839e-38 3.6732968e-38 3.245735e-37 -2.9701715e-38
4.3768546e-37 -2.2547147e-38 5.717862e-39 7.0923513e-37 1.1905143e-38 1.166948e-39 -2.5274957e-38 2.671837e-37
-1.893912e-38 -3.074105e-37 -1.803444e-38 5.561265e-38 3.3566715e-38 -6.841092e-38 4.2477293e-36 -6.454433e-38
6.562087e-38 2.2747054e-38 -1.5894198e-37 7.177757e-38 9.962159e-39 2.102479e-38 3.5531618e-37 1.0020598e-38
2.9980514e-38 1.242024e-37 -8.423878e-37 4.2161775e-37 1.2346233e-36 -1.9351265e-38 1.8720452e-37 -1.0284611e-37
4.2019204e-38 2.4505835e-38 2.364316e-39 -2.7156876e-38 -1.8937585e-37 3.2615166e-38 -5.1758573e-38 1.4032732e-36
-3.880029e-38 2.2159978e-38 -3.8863114e-37 -2.464759e-36 -1.8890238e-38 2.211494e-37 -1.3577253e-36 4.4515956e-37
-6.909842e-38 -2.5569336e-37 1.47771205e-36 3.596395e-36 3.206811e-38 -1.6222062e-37 -2.3542583e-37 -5.1597626e-38
1.1040479e-37 3.3536234e-38 5.369761e-37 5.419074e-36 -2.6101497e-36 -1.0715577e-37 -3.071197e-38 2.2696921e-38
-9.698708e-38 -4.6309708e-38 -2.2605492e-38 5.501028e-36 -2.3179007e-36 2.800655e-38 6.411287e-38 -1.2501686e-38
-2.808485e-39 -1.8638566e-38 -1.449295e-36 -1.196796e-37 -1.4781155e-37 -3.7582892e-37 -7.1958896e-38 1.2888738e-38
1.479471e-38 -3.858756e-37 9.2456064e-38 -2.5589351e-37 1.6436263e-36 1.2615004e-36 -2.8184545e-37 9.962511e-38
-1.6532448e-37 -6.18808e-37 -5.9920615e-38 6.33098e-38 -3.89896e-37 -2.1503216e-38 2.084312e-37 9.187284e-39
-2.2719374e-38 4.7196773e-36 -1.5646185e-37 1.3179857e-37 -4.8595035e-37 9.67795e-37 -1.0223371e-37 8.1497635e-38
-4.8123974e-36 5.154214e-38 -3.7096429e-37 2.750292e-39 1.6550739e-38 8.0901135e-37 5.5595725e-37 8.942692e-37
-2.4649483e-36 -1.2718874e-37 -2.4161576e-37 3.1617114e-37 5.920033e-37 -2.7643737e-38 -1.3450913e-38 3.965127e-37
-2.67552e-36 9.491626e-38 1.008882e-37 -2.463894e-37 -2.8434044e-36 4.2783187e-36 1.3750475e-37 3.3053077e-38
00000000: 18f1 bf02 d8e2 fe00 ef41 0a82 3461 f980
00000010: 016c 8204 76ff b680 19da 8482 fea6 9f00
00000020: f3d2 a003 8aab 4983 e4cc 8502 f214 ce81
00000030: 7dd5 3b02 d631 8001 9ef1 b382 01a4 1501
00000040: 9c9c 8180 d13e 5002 40b7 b382 9e16 6d80
00000050: 91f0 d601 5743 8b82 8c4d cb04 6ad8 f481
00000060: 422a 5704 64ac de01 ef07 8781 9673 2e82
00000070: 5e28 2682 9c6e 4902 3e56 e804 af44 d782
00000080: 5650 2301 add5 ad82 1816 f701 5965 ee80
00000090: 1e5a be00 6299 0301 6cf5 1584 ae52 2680
000000a0: 703d 2a01 45ce db02 f093 f703 f889 7002
000000b0: 24d2 5484 de28 4382 46fe b502 5f31 c102
000000c0: f5ab 1902 a379 b782 afdf ae02 7d07 e481
000000d0: f8ef 3e80 ee6d 0582 46be 0f81 ca79 5601
000000e0: 63c7 0f81 1e91 8e01 c60f 1902 fcfb be00
000000f0: 577e c280 d37b 9000 d4d0 8b81 135a 5303
00000100: 47f7 a204 0f85 3e80 8d90 1382 17db d082
00000110: a4ce 9c82 9a2e a901 7ec6 8002 589d c201
00000120: 61bd 9983 8c29 e181 4315 4f82 39af 7603
00000130: 83dc 1e80 c2da 4601 28a3 ee01 1b21 0201
00000140: 00b8 9081 3eca aa02 9d50 b602 6d5a a784
00000150: 50ad 0983 071d a381 5eb3 8b00 9490 b982
00000160: 15b3 8482 3696 8d83 0208 9383 ac8d 7f81
00000170: b2d3 7581 71d9 9781 8029 6801 d046 7304
00000180: 3850 be80 da33 6583 4922 4f81 053b 7c03
00000190: 9509 0382 c29d 0b82 2d90 4b80 0307 2082
000001a0: 43e0 9a84 9e75 2701 5d41 f200 a87f 0b01
000001b0: 23ab 6980 ca8e 8e03 4362 d600 ab08 9e82
000001c0: 1ad1 fc81 fa54 4a02 1777 3703 b513 1584
000001d0: 220d 8a81 38f7 7500 9b95 7704 3473 9784
000001e0: 50e4 2701 fa23 6582 1018 4100 e730 1a82
000001f0: 4039 b681 49fe 4701 aee4 dc02 26b6 2181
00000200: c8ef 1403 4684 f580 1343 3e00 1857 7103
00000210: b2a2 8100 fab4 0c00 269c 0981 f7d5 b502
00000220: 903a ce80 7636 d182 ae60 c480 5c64 9701
00000230: 2cc1 3601 743b ba81 adad b404 d5b4 af81
00000240: 12a3 b201 88b1 f700 3257 5882 aa65 c301
00000250: 727a 6c00 90f0 e400 cfd0 f102 5a1d 6d00
00000260: bd3a 2301 380e 2902 2a53 8f83 1678 0f03
00000270: 6e0f d203 74b7 d280 41cf 7e02 a4fc 0b82
00000280: 39c6 6401 266c 0501 c0be 1900 29db 1381
00000290: ede1 8082 e892 3101 76e6 8c81 2bc1 ee03
000002a0: b63f 5381 014d f100 8c3e 0483 b3ad 5184
000002b0: 4cb2 cd80 a981 9602 4701 e783 de7a 1703
000002c0: 921a bc81 1104 ae82 706b fb03 46f9 9804
000002d0: 6c98 2e01 a3cd 5c82 f738 a082 4c76 8c81
000002e0: 7446 1602 b096 3601 37b9 3603 7e80 e604
000002f0: 070c 5e84 56da 1182 3d36 2781 c825 f700
00000300: 1103 0482 5022 7c81 ea26 f680 e4fc e904
00000310: 682f 4584 6f7b 1801 2688 ae01 9d21 8880
00000320: ea94 1e80 bdf4 ca80 b395 f683 41e6 2282
00000330: cf30 4982 a2c6 ff82 08e4 c381 8f58 8c00
00000340: a219 a100 814e 0383 79b0 fb01 f026 ae82
00000350: 03d3 0b04 17a2 d603 67d0 bf82 499a 0702
00000360: 2c07 6182 c891 5283 931e a381 7e58 ac01
00000370: bbac 0483 3826 ea80 d6d9 8d02 690a 6400
00000380: 5f64 f780 bcc0 c804 fff6 5482 1965 3302
00000390: 3f5c 2583 6ba9 a403 4027 0b82 90db dd01
000003a0: 5eb2 cc84 a14f 8c01 1877 fc82 b2f2 1d00
000003b0: ba38 b400 6aa5 8903 b52e 3d03 eb26 9803
000003c0: d2b1 5184 cf1e 2d82 676f a482 c82c d702
000003d0: c372 4903 bf81 1681 ac77 9280 21ed 0603
000003e0: aa9b 6384 7d31 0102 6852 0902 16af a782
000003f0: dde3 7184 c4fa b504 6a29 3b02 44f5 3301

spatial_module.qkv_proj_low.weight f4 [48, 32]
-0.004367871 -0.022786858 0.008569236 0.034240402 0.03882518 -0.0018136472 0.0015651016 0.00012064877
0.00139272 0.050183088 0.00022980743 -0.008480782 0.0031082171 0.0025160355 0.014320529 0.0011107612
-0.0121776555 0.0050796727 -0.02124871 0.05409026 -0.018081676 0.023508055 0.0011318855 0.00042868336
0.037276942 0.028848823 0.0043419264 0.08411917 0.00798072 0.020682506 -0.045326836 0.018863963
0.0060174908 -0.0048531494 0.03126295 0.016000375 -0.015811779 -0.0014834416 0.0027164682 -0.0013392395
-0.0006432943 0.019994913 0.0005889543 -0.00287934 0.002301097 -0.006353146 0.014898567 0.0021817326
-0.010857112 0.00872191 -0.043093543 -0.014478556 -0.0047005233 0.02670387 0.0010365664 0.0007221059
0.03445223 0.031180752 0.007976006 0.06883499 0.026411122 0.030827073 0.070551746 0.009503601
-0.037256822 -0.014526057 0.040041175 -0.090407796 -0.036124956 0.00079338753 0.0015599892 -0.013660344
0.001078537 -0.084689915 0.0005283714 0.01193755 -0.003169424 0.00036148503 -0.028078703 0.0009119991
0.027666764 -0.015389579 0.043741807 -0.05027161 0.0468481 0.06531808 -0.0011780136 -0.00048195597
-0.0872079 -0.02039729 0.0007707449 -0.06413087 0.05454342 0.027425578 0.114000715 -0.043723248
-0.012268879 -0.018643932 0.02602281 -0.05146664 0.04957178 0.0006147388 0.0013063172 -0.0044394387
0.0007230395 0.07121519 0.0001567209 -0.006437124 0.0008562681 0.007840261 -0.014228887 -0.0010703822
-0.018786158 -0.0082507115 0.078461334 -0.0937828 0.027508494 0.02013053 -0.0011171588 -0.00064049364
-0.039106805 -0.0076241023 0.008334311 -0.03785539 -0.033551354 -0.0040718224 -0.016020408 -0.011903467
-0.037134368 -0.017671272 -0.017798645 -0.0056247823 0.10654911 -0.008937785 0.004504627 0.015204391
0.0023861707 0.07871687 0.0010879457 -0.018602278 0.0055107516 -0.0142554445 0.040596377 -0.00053843565
-0.031217227 0.0046066465 -0.078230314 -0.015103052 -0.06172557 -0.014662753 0.003031663 0.0009389465
0.038762785 0.035883702 0.034689475 0.17944735 0.03825776 0.0045534344 -0.031335328 0.04527891
0.006792801 0.019048264 -0.008359905 -0.013778086 0.07154638 0.002136657 -0.0020014027 0.00431789
0.0016199845 -0.010451481 -0.0005570897 0.0026653518 -0.0013365644 0.0016902203 -0.014261661 -0.0009246371
-0.002816781 -0.0091396645 -0.005378752 -0.032278955 0.0006770165 0.013405707 -0.0012472306 -0.00063144346
0.019277988 -0.0030665325 -0.0033468455 -0.07454178 0.010196301 -0.054900594 -0.033858098 -0.00036524914
0.0050201267 -0.024343584 0.009157747 -0.045850784 0.03601197 -0.0010325395 0.00024171104 -0.010748147
0.0011332443 0.059211433 0.0003856816 -0.0044775493 0.0013903405 -0.0003700697 -0.000108072025 -0.00019123586
-0.009313458 -0.004356527 0.023277462 -0.040732242 -0.044903986 0.0033979279 -0.00058601494 -2.3914727e-06
-0.05520226 0.024686033 0.0040815296 0.02758217 -0.0280746 -0.0069588274 -0.083900794 0.017905466
-0.0033801976 -0.021674085 0.060059726 0.005725085 -0.049237907 -0.0021355627 0.0063446485 -0.016736891
-0.000670063 -0.0101826135 0.0026374871 -0.0077845063 0.0028025208 0.019694444 0.028881215 0.0013037674
-0.014275953 0.010846954 -0.011121541 0.06979085 -0.04705999 0.06598691 -0.00012222219 0.00035220713
-0.015694248 0.0066618724 -0.015700707 0.026718916 0.090389125 0.06702876 -0.010484325 0.0014365584
00000000: 5c20 8fbb 81ab babc fb65 0c3c aa3f 0c3d
00000010: 2707 1f3d e7b7 edba 1824 cd3a d104 fd38
00000020: ee8b b63a c88c 4d3d 76f8 7039 faf2 0abc
00000030: 3bb3 4b3b 12e4 243b a7a0 6a3c f696 913a
00000040: ca84 47bc 6273 a63b c611 aebc c08d 5d3d
00000050: 0620 94bc f793 c03c c65b 943a e8c0 e039
00000060: b5af 183d 5e54 ec3c b846 8e3b ac46 ac3d
00000070: 91c1 023c 5c6e a93c a2a8 39bd 9988 9a3c
00000080: 5f2e c53b 2b07 9fbb 940d 003d 3813 833c
00000090: b487 81bc 0a70 c2ba c606 323b 6c89 afba
000000a0: c0a2 28ba 5fcc a33c 0e64 1a3a 4fb3 3cbb
000000b0: 00ce 163b 0d2e d0bb 1f19 743c 66fb 0e3b
000000c0: 07e2 31bc 58e6 0e3c db82 30bd 7737 6dbc
000000d0: d906 9abb 13c2 da3c 66dd 873a b54b 3d3a
000000e0: c81d 0d3d c76e ff3c cbad 023c 5cf9 8c3d
000000f0: 235c d83c 0f89 fc3c 6f7d 903d feb4 1b3c
00000100: 9c9a 18bd b3fe 6dbc 3702 243d b927 b9bd
00000110: c3f7 13bd 56fb 4f3a 8d78 cc3a a3cf 5fbc
00000120: b25d 8d3a e871 adbd 6882 0a3a b795 433c
00000130: 1cb6 4fbb b385 bd39 4f05 e6bc 3913 6f3a
00000140: 69a5 e23c 9324 7cbc 9c2a 333d 9be9 4dbd
00000150: cbe3 3f3d 7cc5 853d 9467 9aba 09af fcb9
00000160: 0e9a b2bd 3818 a7bc d10b 4a3a 0c57 83bd
00000170: ec68 5f3d 9bab e03c 3579 e93d 2617 33bd
00000180: 6903 49bc 29bb 98bc ca2d d53c afce 52bd
00000190: c70b 4b3d 6c26 213a bb38 ab3a b678 91bb
000001a0: 5c8a 3d3a 45d9 913d 7255 2439 83ee d2bb
000001b0: 2e77 603a 7074 003c 4720 69bc 114c 8cba
000001c0: 6ee5 99bc fe2d 07bc 56b0 a03d 3211 c0bd
000001d0: 7e59 e13c c8e8 a43c a16d 92ba cde6 27ba
000001e0: 752e 20bd 9bd3 f9bb a28c 083c 410e 1bbd
000001f0: 256d 09bd ec6c 85bb 3b3d 83bc c206 43bc
00000200: 351a 18bd 58c3 90bc 77ce 91bc 1850 b8bb
00000210: 6b36 da3d ca6f 12bc 8d9b 933b d71b 793c
00000220: 4d61 1c3b 4f36 a13d 6699 8e3a ce63 98bc
00000230: 8993 b43b ab8f 69bc 6348 263d ce25 0dba
00000240: 45bb ffbc 5af3 963b 3737 a0bd cb72 77bc
00000250: f4d3 7cbd 0b3c 70bc ddae 463b a223 763a
00000260: bac5 1e3d cafa 123d 8d16 0e3d 0cc1 373e
00000270: 2bb4 1c3d fa34 953b 7959 00bd 6176 393d
00000280: 2596 de3b 1b0b 9c3c fcf7 08bc 7bbd 61bc
00000290: e986 923d 2807 0c3b f729 03bb 167d 8d3b
000002a0: a955 d43a b03c 2bbc a809 12ba 2fad 2e3b
000002b0: a92f afba 628a dd3a bea9 69bc 5863 72ba
000002c0: be99 38bb 88be 15bc 3e40 b0bb f036 04bd
000002d0: cf79 313a 9ca3 5b3c 1d7a a3ba 7487 25ba
000002e0: dfec 9d3c e1f7 48bb c056 5bbb 5ca9 98bd
000002f0: 630e 273c 72df 60bd caae 0abd e97e bfb9
00000300: e07f a43b 326c c7bc 600a 163c 08ce 3bbd
00000310: 4a81 133d 4756 87ba d073 7d39 ff18 30bc
00000320: 5e89 943a b087 723d 4f35 ca39 68b8 92bb
00000330: 163c b63a ea05 c2b9 baa4 e2b8 7c86 48b9
00000340: 7997 18bc 32c1 8ebb 60b0 be3c dad6 26bd
00000350: 3eed 37bd c5af 5e3b cc9e 19ba 307d 20b6
00000360: c41b 62bd 5d3a ca3c 5abe 853b 01f4 e13c
00000370: b4fc e5bc e006 e4bb 2ed4 abbd 7cae 923c
00000380: 4e86 5dbb da8d b1bc 3001 763d 7e99 bb3b
00000390: b0ad 49bd ccf4 0bbb c5e6 cf3b ce1b 89bc
000003a0: 2ba7 2fba fad4 26bc b1d9 2c3b 2c15 ffbb
000003b0: 7faa 373b 3e56 a13c 4c98 ec3c 2de3 aa3a
000003c0: b0e5 69bc 6cb7 313c 2037 36bc 81ee 8e3d
000003d0: fac1 40bd 2524 873d c528 00b9 71a8 b839
000003e0: 3991 80bc d64b da3b c59e 80bc a1e1 da3c
000003f0: ef1d b93d 6046 893d 72c6 2bbc e74a bc3a

spatial_module.qkv_proj_low.bias f4 [48]
0.024417784 0.019912215 0.02149967 -0.0052183615 0.016075112 -0.01124664 -0.0088101365 0.037547745
-0.027025634 -0.013026601 0.020614667 0.030972999 -0.006142076 0.011669904 0.0073859226 0.004538621
-0.007137143 -0.0017836106 -0.020960102 0.037160695 0.0063680443 -0.007847185 -0.00800723 0.049910218
0.008530454 -0.010853703 0.017797207 0.016350115 0.00468539 -0.020517208 0.016864842 -0.025687143
0.00024292826 0.0034362904 -0.030388366 0.012722729 0.014183964 0.041120596 0.003144879 0.0060113505
0.00096932286 -0.017569607 -0.009999329 -0.054976597 -0.010889312 -0.0049505136 -0.010639882 0.012249659
00000000: ce07 c83c f11e a33c 1320 b03c cafe aabb
00000010: f4af 833c d443 38bc 6458 10bc aacb 193d
00000020: dd64 ddbc 866d 55bc 17e0 a83c 16bb fd3c
00000030: 7843 c9bb 2033 3f3c 9c05 f23b b6b8 943b
00000040: b2de e9bb 0ac8 e9ba 85b4 abbc d035 183d
00000050: 07ab d03b 7b91 00bc c230 03bc a86e 4c3d
00000060: 51c3 0b3c bbd3 31bc 73cb 913c adf0 853c
00000070: e687 993b b413 a8bc 2328 8a3c d86d d2bc
00000080: 8fba 7e39 6333 613b 06f1 f8bc fe72 503c
00000090: db63 683c 126e 283d 501a 4e3b ddfa c43b
000000a0: 281a 7e3a 23ee 8fbc 3ad4 23bc 242f 61bd
000000b0: 1669 32bc eb37 a2bb e652 2ebc cbb2 483c

spatial_module.qkv_proj_high.weight f4 [96, 48]
-0.0068304255 0.0044064205 0.020613568 0.031235902 0.0138447 0.0047367113 0.013769985 -0.013210667
0.044251516 0.01862563 -0.028392147 0.025981532 0.0052711596 -0.005635896 -0.0002280458 0.02693553
-0.026112469 0.022045195 0.0030876733 0.01422632 -0.0025096321 -0.005270744 -0.0014686609 0.0108895125
0.011839694 -0.010084858 -0.0020691387 0.0022122238 -0.00042503214 -0.04199068 0.0017387588 0.008039076
-0.0034320261 0.0032763148 0.0040644524 0.006542591 -0.0018488026 -0.02036279 0.005372678 -0.015647959
-0.041470457 0.032564316 0.0008353296 -0.006714501 -0.0029407023 0.0021306952 0.0022265946 0.035637397
-0.006820396 0.004414477 0.020610483 0.03123406 0.013839089 0.004746815 0.013775441 -0.013224854
0.043299094 0.018633323 -0.028394874 0.025988586 0.0052571767 -0.0056378236 -0.00019158996 0.026941596
-0.026108416 0.02204079 0.00304486 0.01396495 -0.0025137044 -0.0053296466 -0.0014500258 0.0109396055
0.011831161 -0.010083721 -0.002060031 0.0022093095 -0.0004318674 -0.04198567 0.0020601838 0.00804734
-0.0034442008 0.0032169695 0.004068484 0.006544577 -0.0018514704 -0.020359214 0.0053630536 -0.015641946
-0.0416702 0.03258205 0.0008370964 -0.0067171035 -0.0029368952 0.002159494 0.0020667666 0.03563436
-0.006829756 0.004395877 0.020611659 0.031242803 0.01384104 0.0047372496 0.013773943 -0.0132224085
0.04343248 0.018631434 -0.02839213 0.025975442 0.0052463594 -0.005637711 -0.00023066731 0.026944676
-0.026107874 0.022044927 0.0031022525 0.014117034 -0.0025596751 -0.0052835424 -0.0014653923 0.010918162
0.011817595 -0.010085199 -0.0020522662 0.0021482485 -0.00042619993 -0.041977808 0.0018896951 0.008043064
-0.0034421652 0.0032170727 0.0040718555 0.0065427995 -0.0018609641 -0.020360911 0.005397755 -0.015649784
-0.041691028 0.032582153 0.0008406365 -0.0066347546 -0.0029284784 0.002153333 0.0022149773 0.035638086
-0.0068084737 0.004402401 0.020618059 0.03123165 0.013836545 0.0047398275 0.013766823 -0.013212475
0.044209637 0.018625043 -0.028391127 0.02600432 0.005235858 -0.005631565 -0.00023183478 0.026941461
-0.026111888 0.022043701 0.0030559967 0.014195128 -0.002505693 -0.00532693 -0.0014731941 0.0108732525
0.011755739 -0.010083449 -0.0020425813 0.0022167813 -0.00039817675 -0.04198852 0.0018104269 0.008039868
-0.003420487 0.003236759 0.004067498 0.0065456727 -0.0018477577 -0.020341905 0.005400807 -0.015630588
-0.041487426 0.032562047 0.000835775 -0.006709508 -0.0029381588 0.0021775463 0.002232431 0.035638206
-0.0068247425 0.004401676 0.020606216 0.031235302 0.013848155 0.004730441 0.013772178 -0.013219925
0.043449957 0.018631803 -0.028392669 0.026001513 0.005241667 -0.005637841 -0.00019745584 0.026941108
-0.026110962 0.02204297 0.0030608436 0.014131997 -0.0025177158 -0.005336559 -0.0014638329 0.010896727
0.011750802 -0.010092232 -0.002053839 0.0022105463 -0.00040358794 -0.041985855 0.0017103308 0.0080431625
-0.0034348858 0.003246741 0.00406973 0.0065438324 -0.0018541799 -0.020355769 0.005395197 -0.015643096
-0.041595563 0.03257791 0.000844403 -0.006662711 -0.0029346137 0.0021776245 0.0021528774 0.03563054
-0.0068280883 0.004388157 0.020581784 0.031229269 0.013843104 0.0047219456 0.013764415 -0.013218256
0.043932218 0.01862559 -0.028392348 0.02596609 0.0052630506 -0.005636018 -0.00015352927 0.026941035
00000000: c3d1 dfbb bc63 903b c9dd a83c 6fe2 ff3c
00000010: e1d4 623c 6a36 9b3b 819b 613c 8e71 58bc
00000020: 1441 353d c794 983c a696 e8bc 39d7 d43c
00000030: b1b9 ac3b 53ad b8bb 941f 6fb9 e7a7 dc3c
00000040: d1e9 d5bc 2098 b43c 905a 4a3b 8315 693c
00000050: a478 24bb 35b6 acbb 1580 c0ba ed69 323c
00000060: 47fb 413c f63a 25bc 639a 07bb f5fa 103b
00000070: d9d6 deb9 6bfe 2bbd 10e7 e33a 54b6 033c
00000080: d8eb 60bb 71b7 563b 192f 853b 3b63 d63b
00000090: 8553 f2ba decf a6bc 4a0d b03b 2630 80bc
000000a0: eddc 29bd 2962 053d 05fa 5a3a 5105 dcbb
000000b0: ccb8 40bb 22a3 0b3b 0fec 113b 85f8 113d
000000c0: a17d dfbb 51a7 903b 51d7 a83c 92de ff3c
000000d0: 59bd 623c 2c8b 9b3b 63b2 613c 0fad 58bc
000000e0: 645a 313d e9a4 983c 5e9c e8bc 04e6 d43c
000000f0: 6544 ac3b 7ebd b8bb 8ae5 48b9 9fb4 dc3c
00000100: 51e1 d5bc e38e b43c 468c 473b 3fcd 643c
00000110: f6bc 24bb 51a4 aebb cb0e beba 083c 333c
00000120: 7cd7 413c 3136 25bc 9601 07bb 10ca 103b
00000130: 436c e2b9 2af9 2bbd 2604 073b fed8 033c
00000140: 1ab8 61bb cbd3 523b eb50 853b e473 d63b
00000150: 0aad f2ba 5ec8 a6bc 8ebc af3b 8a23 80bc
00000160: 5fae 2abd c174 053d 9770 5b3a 261b dcbb
00000170: ed78 40bb 4c86 0d3b 9772 073b 56f5 113d
00000180: 25cc dfbb 4a0b 903b c8d9 a83c e8f0 ff3c
00000190: 88c5 623c ee3a 9b3b 1bac 613c cda2 58bc
000001a0: 42e6 313d f3a0 983c 9d96 e8bc 73ca d43c
000001b0: a7e9 ab3b 8cbc b8bb 49df 71b9 15bb dc3c
000001c0: 2ee0 d5bc 9097 b43c 294f 4b3b 224b 673c
000001d0: 39c0 27bb 9121 adbb 6812 c0ba 17e2 323c
000001e0: 969e 413c 643c 25bc 507f 06bb a1c9 0c3b
000001f0: 9673 dfb9 ecf0 2bbd a5af f73a 0ec7 033c
00000200: f395 61bb 86d5 523b 336d 853b fb64 d63b
00000210: 98eb f3ba edcb a6bc a7df b03b fa33 80bc
00000220: 36c4 2abd dd74 053d 295e 5c3a 5b68 d9bb
00000230: b7eb 3fbb ef1e 0d3b 2729 113b 3ef9 113d
00000240: 9e19 dfbb 0442 903b 34e7 a83c 84d9 ff3c
00000250: adb2 623c 8e50 9b3b 3e8e 613c 2379 58bc
00000260: 2a15 353d 8c93 983c 8294 e8bc 0307 d53c
00000270: 8f91 ab3b fe88 b8bb ad18 73b9 57b4 dc3c
00000280: 99e8 d5bc fe94 b43c 1e47 483b af92 683c
00000290: 8d36 24bb 878d aebb 3118 c1ba ba25 323c
000002a0: 259b 403c 0d35 25bc d4dc 05bb 6b47 113b
000002b0: 61c2 d0b9 28fc 2bbd d94b ed3a a7b9 033c
000002c0: 402a 60bb ce1f 543b a548 853b 157d d63b
000002d0: 7630 f2ba 11a4 a6bc 41f9 b03b b80b 80bc
000002e0: b8ee 29bd c85f 053d e917 5b3a 6fdb dbbb
000002f0: 208e 40bb 2ab5 0e3b fa4d 123b 5ef9 113d
00000300: 17a2 dfbb ef3b 903b 5ece a83c 2de1 ff3c
00000310: 5fe3 623c d101 9b3b b4a4 613c 6298 58bc
00000320: 95f8 313d b9a1 983c be97 e8bc 2001 d53c
00000330: 4ac2 ab3b a3bd b8bb 260c 4fb9 99b3 dc3c
00000340: a8e6 d5bc 7593 b43c 6f98 483b e489 673c
00000350: 4300 25bb 4dde aebb 15de bfba 3088 323c
00000360: 7086 403c e459 25bc b399 06bb d0de 103b
00000370: a898 d3b9 5cf9 2bbd 2e2d e03a 78c7 033c
00000380: d21b 61bb 46c7 543b 5f5b 853b a56d d63b
00000390: f407 f3ba 24c1 a6bc 31ca b03b f325 80bc
000003a0: 1c60 2abd 6a70 053d ed5a 5d3a df52 dabb
000003b0: a652 40bb 7ab6 0e3b 4a17 0d3b 54f1 113d
000003c0: 28be dfbb 87ca 8f3b 219b a83c 86d4 ff3c
000003d0: 30ce 623c 8dba 9a3b 2484 613c 6291 58bc
000003e0: 45f2 333d b194 983c 1297 e8bc d6b6 d43c
000003f0: ab75 ac3b 58ae b8bb b3fc 20b9 72b3 dc3c

spatial_module.qkv_proj_high.bias f4 [96]
-0.0007267872 -0.0008033305 -0.0007793638 -0.00071941403 -0.00079093216 -0.0007434416 -0.00080262206 -0.0007976302
0.0021247657 0.002134348 0.0021409746 0.002142967 0.0021402393 0.0021329958 0.0021463754 0.002144369
-0.0033228225 -0.0033497564 -0.0033321949 -0.0033474534 -0.0033393835 -0.0033262304 -0.0033341548 -0.003326437
-0.004410411 -0.0044080284 -0.0044093053 -0.0044093756 -0.0044060387 -0.0044125277 -0.0044057188 -0.0044081174
-0.0065485616 -0.0065825917 -0.0065431558 -0.0066738934 -0.0066554495 -0.0067728474 -0.006776076 -0.0065816604
-0.0037888845 -0.004020826 -0.0044696555 -0.0045439936 -0.0047178236 -0.0045424053 -0.005004931 -0.0049031894
-0.0006789294 -0.00046332364 -0.00070547353 -0.00045674513 -0.00050507317 -0.00063548354 -0.00057686446 -0.000692172
-6.696074e-05 -9.98339e-05 -0.00011092712 -7.11226e-05 -0.00010500965 -7.9139005e-05 -7.471476e-05 -0.00011366422
-0.015898846 0.022722559 0.00048481795 0.022226656 0.010582464 -0.109851725 -0.088538416 -0.075880155
-0.002640227 0.07999854 0.08424309 -0.08177526 0.093373805 -0.001236686 0.114039615 0.057180032
-0.002658062 -0.012900827 -0.047474153 -0.04399768 0.038415793 -0.010860797 0.017772233 0.021929007
-0.024667477 0.05222691 0.022729384 0.032433778 0.012550628 0.01782219 -0.03405926 -0.002280937
00000000: dd85 3eba 9996 52ba 384e 4cba 0f97 3cba
00000010: 8f56 4fba 85e3 42ba 0e67 52ba 0e18 51ba
00000020: a73f 0b3b 6be0 0b3b 984f 0c3b 0571 0c3b
00000030: 4243 0c3b bbc9 0b3b 34aa 0c3b 8b88 0c3b
00000040: b6c3 59bb 9687 5bbb f460 5abb f360 5bbb
00000050: 8fd9 5abb e3fc 59bb d681 5abb 5a00 5abb
00000060: 3685 90bb 3971 90bb ef7b 90bb 867c 90bb
00000070: 8860 90bb f796 90bb d95d 90bb f871 90bb
00000080: 5195 d6bb c8b2 d7bb f867 d6bb adb0 dabb
00000090: f515 dabb c3ee ddbb d809 debb f8aa d7bb
000000a0: ef4e 78bb 22c1 83bb 3076 92bb c8e5 94bb
000000b0: f997 9abb 75d8 94bb 6700 a4bb efaa a0bb
000000c0: 2efa 31ba 3fea f2b9 87ef 38ba 4b77 efb9
000000d0: e366 04ba 9496 26ba b838 17ba e072 35ba
000000e0: 466d 8cb8 eb5d d1b8 8ba1 e8b8 a827 95b8
000000f0: a038 dcb8 6ef7 a5b8 2eb0 9cb8 035f eeb8
00000100: 4c3e 82bc a924 ba3c 2a2f fe39 ad14 b63c
00000110: 1262 2d3c f1f9 e0bd a153 b5bd 0e67 9bbd
00000120: a907 2dbb 46d6 a33d a487 ac3d ca79 a7bd
00000130: c43a bf3d 4c18 a2ba 9a8d e93d 9c35 6a3d
00000140: e132 2ebb fe5d 53bc 4274 42bd e936 34bd
00000150: e159 1d3d 7cf1 31bc 1397 913c 76a4 b33c
00000160: 7313 cabc e2eb 553d f932 ba3c 48d9 043d
00000170: 26a1 4d3c d7ff 913c b981 0bbd c67b 15bb
