save_all/MSTAGAT-Net.region785.w-20.h-3.no_pprm.pt (torch, 114301 bytes, 60 tensors)

temp_conv.depthwise.weight f4 [1, 1, 3]
0	0x3d75029c	0.05981694
1	0x3ec6c377	0.38821003
2	0xbe79bb1a	-0.2438778

temp_conv.pointwise.weight f4 [16, 1, 1]
0	0xbd529936	-0.051415645
1	0x3ccfed80	0.025381804
2	0xbd4cf0e4	-0.05003442
3	0x3d381585	0.044942398
4	0x3e462fd3	0.19354181
5	0xbdd7d1bb	-0.1053805
6	0x3e3dd567	0.18538438
7	0x3d0b6840	0.034034967
8	0x3ddb45e8	0.10706693
9	0x3d162394	0.036655024
10	0x3d18f91f	0.037346955
11	0xbd36bfff	-0.044616695
12	0x3e0009f2	0.12503794
13	0x3d0b94f9	0.03407762
14	0xbd3a17da	-0.045432903
15	0x3d1d66d5	0.038428146

temp_conv.pointwise.bias f4 [16]
0	0xbc232b44	-0.009959046
1	0x35ef207c	1.7816342e-06
2	0xbb7c8dcc	-0.0038536666
3	0x3d906613	0.07050719
4	0xbe0b1e78	-0.13585842
5	0xbc23d440	-0.009999335
6	0xb886a4bf	-6.420304e-05
7	0xbd3a7640	-0.04552293
8	0x3594c994	1.1085526e-06
9	0xbe8912f9	-0.26772287
10	0x3e55061e	0.20803115
11	0xbe30d458	-0.17268503
12	0x3e00ddb7	0.12584578
13	0x35cb42f6	1.5144167e-06
14	0xb9daf99c	-0.00041766174
15	0x3d53cade	0.05170714

temp_conv.bn2.weight f4 [16]
0	0x3f1ae8fb	0.6051175
1	0x3f0212a9	0.50809723
2	0x3f0c7f0b	0.5488135
3	0x3ef16376	0.47146195
4	0x3eefc8d3	0.46832904
5	0x3ee33a32	0.44380337
6	0x3ef0172d	0.46892682
7	0x3ec4cfc1	0.38439754
8	0x3f0f10d1	0.55885035
9	0x3f29d66d	0.6634281
10	0x3f0e72e2	0.5564405
11	0x3f238a24	0.6388266
12	0x3ee2bc92	0.44284493
13	0x3f0866b9	0.5328174
14	0x3f178275	0.59183437
15	0x3f0b4a42	0.54410183

temp_conv.bn2.bias f4 [16]
0	0x3d292d5a	0.041303016
1	0xbc9b8cd1	-0.018988045
2	0x3d37f9a6	0.044915818
3	0xbc09ec56	-0.008418163
4	0x3d6bc3cd	0.057559777
5	0x3d1b1ab4	0.037867263
6	0x3b6888f2	0.0035482016
7	0x3ac3664d	0.0014907807
8	0x3d1845e1	0.037176017
9	0xbce2ec4f	-0.027700571
10	0xbb5f4f1b	-0.003407425
11	0x3cbbd359	0.022927927
12	0x3dc66d5a	0.09688826
13	0x3d2bbcf1	0.041928235
14	0x3c9b74e2	0.018976633
15	0xbd5cf299	-0.053942297

temp_conv.bn2.running_mean f4 [16]
0	0xbc969ede	-0.0183863
1	0x3b72523f	0.0036975292
2	0xbc3fe96c	-0.011713367
3	0x3da356ce	0.07975541
4	0xbddedf6c	-0.10882458
5	0xbce0913e	-0.027413007
6	0x3cef5c3e	0.02921879
7	0xbd2e7a53	-0.042597126
8	0x3c8b8a7e	0.017033812
9	0xbe88b528	-0.2670071
10	0x3e5f34a2	0.21797422
11	0xbe3c1b70	-0.18369842
12	0x3e18aa3f	0.14908694
13	0x3bafec17	0.0053687203
14	0xbbf61f96	-0.0075110896
15	0x3d73a4ad	0.05948322

temp_conv.bn2.running_var f4 [16]
0	0x399d23c1	0.00029972012
1	0x388e6943	6.790694e-05
2	0x3993fa33	0.00028224438
3	0x3970a3dd	0.00022949227
4	0x3b981542	0.004641206
5	0x3ab6ec1c	0.0013955864
6	0x3b8bb034	0.0042629484
7	0x38f10f43	0.00011494618
8	0x3abcfe28	0.0014419006
9	0x392277f6	0.00015494213
10	0x3922b4de	0.00015516902
11	0x3980967d	0.00024526185
12	0x3b004969	0.0019575006
13	0x39160fff	0.00014311074
14	0x3980f90e	0.00024599623
15	0x392bdb7a	0.00016389592

feature_process_low.weight f4 [8, 320]
0	0xbc700d6a	-0.014651636
1	0x3c44e94b	0.012018512
2	0xbbc9bdb2	-0.0061566466
3	0xbc79148c	-0.015202653
4	0xbbe4ec8b	-0.006986206
5	0xbd0e943a	-0.03480933
6	0xbb3744fa	-0.0027964697
7	0x3cdac4c2	0.02670515
8	0x3cae023e	0.021241304
9	0xbbfb54d1	-0.007670023
10	0x3d008eab	0.03138606
11	0x3c94f684	0.018183954
12	0x3cd6d70b	0.026225587
13	0xbbb9bbb4	-0.005668128
14	0xbcb1d394	-0.021707334
15	0x3c755502	0.014973881
16	0xbbcd84c3	-0.00627193
17	0x3d486f3d	0.04893421
18	0x3d0acb6f	0.033885416
19	0x3ca14e36	0.019690614
20	0x3c680315	0.014160891
21	0x3c99fa1c	0.01879602
22	0x3c0dda2f	0.008657976
23	0xbcf26261	-0.029587926
24	0xba0ff0c5	-0.00054908945
25	0xbc836f24	-0.016044207
26	0xbc02685c	-0.0079594515
27	0xbcf1a7a1	-0.029498877
28	0xbb927457	-0.004469435
29	0xbc607c28	-0.013701476
30	0x3bce375e	0.0062932214
31	0xbce907aa	-0.028446037
32	0xbcb409f8	-0.02197741
33	0xbd08bcf5	-0.03338333
34	0x3c839221	0.01606089
35	0x3ca05ef0	0.01957652
36	0x3d2e2610	0.042516768
37	0xbc62594c	-0.013815235
38	0xbd957d50	-0.07299292
39	0xbd4f8a1a	-0.050668813
40	0xbd3667b9	-0.04453251
41	0x3b2ab858	0.002604982
42	0x3b885f25	0.0041617327
43	0x3c76e169	0.01506839
44	0xbd0d1848	-0.034446985
45	0xbd47aecc	-0.048750684
46	0xbc1ba576	-0.009499898
47	0xbc9c211b	-0.019058755
48	0x3cc2f291	0.023797305
49	0xbb4be275	-0.003111032
50	0x3ca0a11f	0.019608079
51	0xbc5a3002	-0.01331711
52	0xbc35bc8b	-0.011092315
53	0x3cd5e876	0.026111823
54	0x3ccc5cf6	0.024946671
55	0x3c63a14b	0.013893436
56	0x3d19dc98	0.03756389
57	0x3d37bd59	0.04485831
58	0xbbbfe6e2	-0.005856381
59	0xbc17d592	-0.009267228
60	0x3c8b2ba5	0.016988585
61	0x3c8ca163	0.017166799
62	0xbc746672	-0.014917003
63	0xbcfe8492	-0.031069074
64	0xbc462508	-0.01209379
65	0x3b831f19	0.00400151
66	0xbcb75e9a	-0.022383977
67	0xbd1a7a76	-0.037714444
68	0xbc3224c5	-0.010873024
69	0xbc9aa7e6	-0.018878888
70	0xbca10484	-0.019655474
71	0xbcd6ee1d	-0.026236588
72	0xbd0b5eed	-0.034026075
73	0xbd02bb83	-0.031917106
74	0x3c920352	0.017823849
75	0x3ca5249a	0.020159055
76	0x3cc04d30	0.023474306
77	0xbbfd387a	-0.00772768
78	0xbd6f67b7	-0.05844852
79	0xbd19f796	-0.037589632
80	0x3cc2cb88	0.023778692
81	0x3bd367d3	0.006451586
82	0xbb059dcf	-0.002038825
83	0xbcbc9e26	-0.02302463
84	0x3c357d3d	0.011077222
85	0xbc77f9ea	-0.015135268
86	0xbbe0e202	-0.0068628797
87	0xbcd43da6	-0.025908303
88	0xbcab9de7	-0.020949317
89	0xbcbf9d24	-0.02339036
90	0xbc3f4d2d	-0.011676115
91	0xbcda6b82	-0.026662592
92	0x3af5cacb	0.0018752454
93	0xbce5229e	-0.027970608
94	0x3c583181	0.013195396
95	0x3c55e7e6	0.013055777
96	0xbbd5f2ec	-0.0065292027
97	0x3d3a2c15	0.045452196
98	0xbd63780f	-0.05553442
99	0xbd0b01f1	-0.0339374
100	0xbd3f0125	-0.04663195
101	0xbd532c87	-0.051556136
102	0x396f60dd	0.000228289
103	0xbc828934	-0.015934564
104	0xba2d727c	-0.0006616486
105	0xbd447914	-0.04796703
106	0x3c154186	0.00910986
107	0xbcf428c4	-0.029804595
108	0xba94769d	-0.0011326853
109	0x3c186754	0.009301979
110	0x3cd0a8b2	0.025471065
111	0x3d079bc6	0.03310754
112	0x3d0a3807	0.033744838
113	0xbc8dca50	-0.017308384
114	0x3c9d3ca0	0.019193947
115	0x3c16fb5a	0.0092152
116	0x3c2a33bc	0.010388311
117	0xbb7b3373	-0.0038330227
118	0x3d421eb1	0.04739255
119	0xbc702f46	-0.014659708
120	0x3cc52590	0.024065763
121	0x3caf2fae	0.02138504
122	0x3c5e8ef1	0.013583885
123	0xbcdabe3f	-0.026702045
124	0x3cd967ad	0.026538694
125	0x3bc62c73	0.006047779
126	0xbb1b9fdf	-0.0023746414
127	0xbd06c6e7	-0.03290453
128	0xbb55c2a9	-0.0032617247
129	0xbc093e3b	-0.008376653
130	0xbc96274a	-0.018329281
131	0xba2ebdd0	-0.00066658575
132	0xbbec894b	-0.007218515
133	0xbd00b5f7	-0.031423535
134	0xbccefae7	-0.025266124
135	0x3c1d9d06	0.009619957
136	0x3cdcef86	0.026969682
137	0x3b927f11	0.004470714
138	0xbd5922a6	-0.05301156
139	0xbcc7f245	-0.024407515
140	0x3c5ee208	0.013603695
141	0x3ce1a2fe	0.027543541
142	0x3be95990	0.0071212724
143	0xbcdae092	-0.026718412
144	0x3b2f14d0	0.0026715286
145	0x3c2f36e5	0.01069424
146	0xbba6e6f4	-0.0050934497
147	0xbcc89ce2	-0.02448887
148	0x3b55f48a	0.0032646977
149	0x3b03fd61	0.002014004
150	0xba8b75c7	-0.0010639959
151	0xbca138ad	-0.019680345
152	0xbc9895be	-0.01862609
153	0xbcb80502	-0.022463325
154	0xbc7ecc23	-0.0155516
155	0xbb763a5f	-0.0037571413
156	0x3cd56bbe	0.026052352
157	0x3d2e3731	0.042533103
158	0xbd276cdc	-0.0408753
159	0xbd05a98f	-0.032632407
160	0x3cbcdc30	0.023054212
161	0x3cb91012	0.02259067
162	0x3c03187f	0.008001446
163	0x3b1ee3d8	0.0024244692
164	0xbccc97ed	-0.024974788
165	0xbc0426da	-0.008065904
166	0x3c7f9fbe	0.01560205
167	0xbc5f3883	-0.013624313
168	0xbc872fec	-0.016502343
169	0xbcd1813d	-0.02557432
170	0xbc938434	-0.018007375
171	0xbcd9c76d	-0.026584351
172	0xbca920cb	-0.02064552
173	0xbc87c020	-0.016571105
174	0x3bae2bba	0.005315271
175	0x3cb47a36	0.022030931
176	0xbbb17205	-0.0054152035
177	0x3ae8c63f	0.0017759277
178	0xbd659851	-0.056053463
179	0x3c0081bf	0.007843434
180	0x3cbd7285	0.023125896
181	0x3c697065	0.014247988
182	0xbb69d468	-0.0035679583
183	0xbc9ca2ba	-0.019120563
184	0xbce25277	-0.027627213
185	0x3c89142e	0.016733255
186	0xbc975ff5	-0.018478373
187	0xbca25c4c	-0.019819401
188	0xbd15a942	-0.03653837
189	0x3b9ec622	0.0048453966
190	0x3c0a370b	0.008435975
191	0xbc521b84	-0.012823943
192	0xbcf818df	-0.030285297
193	0xbd49a6f3	-0.04923148
194	0xbcf84809	-0.030307787
195	0x3cbed886	0.023296606
196	0x3cd36dad	0.025809133
197	0x3d21ce51	0.0395034
198	0xbd184b5c	-0.037181243
199	0xbc070332	-0.008240508
200	0x3c6eb5bb	0.014569695
201	0x3b6a53c8	0.0035755504
202	0xbcd2a573	-0.025713658
203	0xbcf2b473	-0.02962706
204	0x3c4c2665	0.012460326
205	0xbcd27d63	-0.025694555
206	0xbc91523a	-0.017739404
207	0xbd220404	-0.03955461
208	0xbcbee2a4	-0.02330143
209	0xbcc5a873	-0.024128174
210	0xbcf5b540	-0.029993653
211	0xbc457599	-0.012051963
212	0xbcbad2d0	-0.022805601
213	0xbc480b08	-0.012209661
214	0xbc9eec59	-0.019399809
215	0xbc92823c	-0.017884366
216	0x3c5401de	0.012939898
217	0x3a06db38	0.00051443605
218	0xbd53946b	-0.051655214
219	0xbd677618	-0.056509107
220	0x3b6e48bc	0.003635927
221	0xbd3179ba	-0.043328978
222	0x3c1a618f	0.009422674
223	0x3c4a5e1c	0.012351539
224	0x3c597266	0.013271904
225	0xbd46aa14	-0.048502043
226	0x3b1bd3fd	0.0023777478
227	0xbcacb227	-0.021081043
228	0x3c71e14c	0.014763188
229	0x3d1ce51c	0.038304433
230	0x3a1fdc6a	0.0006098213
231	0x3c2851e4	0.0102734305
232	0xba3b310d	-0.0007140793
233	0xbc013734	-0.007886697
234	0x3d064fc2	0.032790907
235	0xbc98b8de	-0.018642839
236	0x3d2c4642	0.04205919
237	0x3d386848	0.045021325
238	0x3d57d572	0.05269379
239	0x3afebed3	0.0019435532
240	0x3c5a7b58	0.0133350715
241	0x3cf884ba	0.030336726
242	0x3cb33a71	0.021878453
243	0xbce98b94	-0.028508939
244	0x3c2d22f8	0.010567419
245	0xbcb78d79	-0.022406327
246	0xbc211cda	-0.009833539
247	0xbcd41c55	-0.025892416
248	0xbd0cd2e1	-0.034380797
249	0xbc5a3e1b	-0.013320471
250	0xbcb16474	-0.021654345
251	0xbc4c8671	-0.012483225
252	0x3c316e08	0.010829456
253	0xbcca9914	-0.024731196
254	0xbc8dc705	-0.017306814
255	0xbc18f74d	-0.009336305

feature_process_low.bias f4 [8]
0	0x3d257b1a	0.040400602
1	0x3cb8161e	0.022471484
2	0x3cf5ed78	0.03002046
3	0xbbb12806	-0.0054063825
4	0xbd0815e0	-0.033223987
5	0xbce44bd7	-0.027868195
6	0x3c4ce4c5	0.012505715
7	0x3d1ca322	0.038241513

feature_process_high.weight f4 [32, 8]
0	0xbdfa52de	-0.12222837
1	0x3ddeac18	0.10872668
2	0x3d83137f	0.06400203
3	0xbc9562d9	-0.01823561
4	0x3c982bb3	0.018575525
5	0xbd08dcf8	-0.033413857
6	0x3e54e304	0.20789725
7	0xbd06113e	-0.032731287
8	0xbcbbc315	-0.02292017
9	0xbd8d056b	-0.06885799
10	0x3c6c56bf	0.014424979
11	0xbccb50ee	-0.024818864
12	0x3cd6e8fe	0.026234146
13	0x3cc19347	0.023629798
14	0xbc61dfb9	-0.01378625
15	0xbc033d9b	-0.008010293
16	0x3ce4debf	0.027938245
17	0xbe0ec956	-0.13943991
18	0xbe4af10d	-0.19818516
19	0x3db68219	0.08911533
20	0xbe1f37a0	-0.15548563
21	0x3e6dcefb	0.23223488
22	0xbde85d1b	-0.113458835
23	0x3d864e1c	0.06557867
24	0x3dbb9c7c	0.091607064
25	0xbe0add19	-0.13560905
26	0x3e0fe484	0.14052016
27	0xbc7bfddc	-0.015380349
28	0x3df367fc	0.11885068
29	0x3e833f3f	0.2563419
30	0xbe0dc48a	-0.13844505
31	0xbdf62103	-0.12018015
32	0xbc5520c1	-0.013008297
33	0xbcdf00b5	-0.027222017
34	0x3c079271	0.00827466
35	0x3d2872f2	0.041125245
36	0xbc8810b2	-0.016609523
37	0x3cd799d7	0.026318474
38	0x3c9ae021	0.018905701
39	0x3cb249e3	0.021763748
40	0xbe43b0f6	-0.19110474
41	0x3d3a25ed	0.045446325
42	0xbe28aff0	-0.16473365
43	0xbdac9fc0	-0.084289074
44	0x3e1a3873	0.15060596
45	0xbd845474	-0.06461421
46	0xbdd04994	-0.10170284
47	0x3c5f868e	0.01364292
48	0x3de15a85	0.11003593
49	0xbd892f6f	-0.066985
50	0xbe27511a	-0.16339532
51	0xbe18f5dc	-0.14937538
52	0x3d2c6dc0	0.042096853
53	0xbe541ddf	-0.2071452
54	0x3c02d864	0.007986162
55	0xbcfba289	-0.030717151
56	0xbe3bc163	-0.1833549
57	0xbdb6f51e	-0.08933471
58	0xbca3b671	-0.019984456
59	0xbde1eefb	-0.1103191
60	0x3ca6c0d4	0.02035562
61	0xbdfb4db2	-0.122706786
62	0xbdb3490b	-0.08754166
63	0x3dbdb3d6	0.092628166
64	0x3d913128	0.07089454
65	0xbce3d29b	-0.027810385
66	0xbcdfc55b	-0.027315786
67	0x3e08ffe2	0.13378862
68	0xbe58dff8	-0.21179187
69	0xbe0f8b6f	-0.14018033
70	0xbe3a66cb	-0.18203275
71	0xb9d3766d	-0.0004033329
72	0xbd2a585a	-0.041588165
73	0xbddc5707	-0.10758787
74	0x3e034c4b	0.12822072
75	0xbe0bce3c	-0.13652891
76	0x3dd19075	0.10232631
77	0xbd7c8a16	-0.061655127
78	0xbcbef82d	-0.023311699
79	0x3aa4ad7c	0.0012563909
80	0xbd968e43	-0.07351353
81	0x3e4a0fcf	0.19732593
82	0xbddbcd07	-0.10732465
83	0x3bf8a539	0.0075880555
84	0xbe2c0998	-0.16800535
85	0x3d1ae6b2	0.037817664
86	0x3e3dc54c	0.18532294
87	0x3e1ad45c	0.15120071
88	0x3dd92bba	0.10604043
89	0x3d04bb51	0.0324052
90	0x3e4c7747	0.19967376
91	0x3d79bcc4	0.060971037
92	0x3e1e2ad5	0.15446027
93	0xbe317db8	-0.17333114
94	0xbdec1004	-0.11526492
95	0xbe5fe950	-0.21866345
96	0x3e5343fa	0.206314
97	0x3ba79c84	0.0051150937
98	0xbdf6ed8b	-0.120570265
99	0x3c6c467b	0.014421101
100	0xbdcefc6e	-0.10106741
101	0x3ca5463d	0.020175094
102	0x3d802b85	0.06258301
103	0xbdabfa36	-0.08397333
104	0x3d159e99	0.036528204
105	0xbdc93c5a	-0.09825964
106	0x3d0c2c50	0.034221947
107	0xbe07027a	-0.13184538
108	0x3d4519f6	0.04812046
109	0x3e4af756	0.19820914
110	0x3e80c785	0.2515222
111	0x3da4274d	0.080153085
112	0x3d3452d3	0.0440243
113	0x3b8c6a99	0.0042851684
114	0x3c9d4805	0.01919938
115	0x3ca72581	0.020403625
116	0xba96ac0d	-0.0011495367
117	0x3d50ce07	0.050977733
118	0x3d6d8852	0.057991333
119	0xbbd295fa	-0.00642657
120	0xbd2dd998	-0.04244384
121	0xbdd8d6c0	-0.10587835
122	0x3c40203f	0.011726438
123	0xbe0123dd	-0.12611337
124	0x3d4e56e3	0.05037583
125	0x3b191418	0.0023357924
126	0x3da654ae	0.0812162
127	0x3d97c157	0.074099235
128	0xbdb1e98c	-0.08687124
129	0x3d431654	0.047628716
130	0x3d294887	0.041328933
131	0xbe12d417	-0.14338718
132	0x3e3ce22e	0.18445656
133	0x3e32c876	0.17459282
134	0x3df0f2f7	0.11765092
135	0xbcae06da	-0.021243501
136	0x3ddf14cf	0.10892641
137	0xbdbc30b5	-0.09188978
138	0xbdab1066	-0.08352737
139	0x3dec637d	0.115424134
140	0x3df86980	0.121294975
141	0x3dce41e0	0.100711584
142	0xbe8d5f91	-0.27611974
143	0x3e71c941	0.23611929
144	0xbdd1d7d7	-0.10246246
145	0x3d8f3eba	0.06994386
146	0x3e28a664	0.16469723
147	0x3d2d7fda	0.042358257
148	0x3e423136	0.18964085
149	0x3d4fb4fd	0.050709713
150	0x3dd124ce	0.10212098
151	0xbd91ee31	-0.071255095
152	0x3dcbaecf	0.099454515
153	0xbb727d40	-0.0037000924
154	0x3d80049f	0.062508814
155	0xbc2acaf6	-0.010424366
156	0x3dc4c833	0.096084975
157	0x3c652622	0.013986142
158	0xbdcab462	-0.098976865
159	0x3dfeba0e	0.12437831
160	0xbe4bab06	-0.19889459
161	0xbe206f62	-0.15667489
162	0xbd8e1748	-0.06938034
163	0x3cc75f27	0.024337364
164	0xbdd3bea4	-0.10339096
165	0xbda85cac	-0.08220801
166	0xbdb80217	-0.089847736
167	0x3d5a49a0	0.05329287
168	0xbe8dbd1f	-0.2768335
169	0xbdad13f3	-0.08451071
170	0x3c0844dd	0.0083172
171	0x3d092137	0.03347894
172	0xbdc11d04	-0.094293624
173	0x3dc63c54	0.096794754
174	0xbdc84536	-0.09778826
175	0xbe440633	-0.1914299
176	0xbd5d1cbd	-0.053982485
177	0xbe00001e	-0.12500045
178	0x3dab2f7b	0.083586656
179	0xbe274a4a	-0.16336933
180	0x3cebc8e9	0.028782325
181	0x3cbc84a4	0.023012467
182	0xbdd2910e	-0.10281573
183	0x3dd58a85	0.10426811
184	0xbdc425cf	-0.09577524
185	0xbd1ea7fe	-0.03873443
186	0xbc64735f	-0.013943522
187	0xbcfe420b	-0.031037351
188	0xbc647bbf	-0.013945519
189	0xbd06cfd1	-0.032913033
190	0x3c9d1cb5	0.019178728
191	0x3c194712	0.009355323
192	0xb9be88c1	-0.00036341514
193	0xbce0aa4a	-0.02742495
194	0x3c90b392	0.01766375
195	0xbc103f80	-0.008804202
196	0xbb8759b9	-0.004130569
197	0x3d1b7758	0.037955612
198	0x3c96fb99	0.018430518
199	0x3c3878e7	0.011259294
200	0xbd4f9d39	-0.05068705
201	0xbe29ba4e	-0.16574976
202	0xbc52377f	-0.012830614
203	0xbd1bfeb9	-0.03808472
204	0x3e51d85d	0.20492692
205	0x3d877a99	0.066151805
206	0xbbdf6bf4	-0.006818289
207	0xbe53ccd5	-0.20683606
208	0xbe5ff722	-0.21871617
209	0x3afcbcaa	0.00192823
210	0xbd87709c	-0.066132754
211	0xbd8fd94d	-0.07023869
212	0x3e15cbeb	0.1462857
213	0xbdd2f018	-0.102997005
214	0xbdccfe49	-0.100094385
215	0x3e2cda02	0.16880038
216	0xbd1b2f2f	-0.037886795
217	0xbd0e0bc5	-0.034679193
218	0x3c75f9f8	0.0150132105
219	0xbcd8fab8	-0.02648674
220	0xbc64b1c2	-0.013958396
221	0x3cde1111	0.027107747
222	0xbc06f26d	-0.00823651
223	0x3c7a0f24	0.015262399
224	0x3d073876	0.03301283
225	0xbd0b46cf	-0.034003075
226	0x3ca87063	0.020561403
227	0xbcc2764f	-0.023738055
228	0xbd8317d3	-0.064010285
229	0x3d4075b3	0.046987247
230	0xbd15859a	-0.036504366
231	0x3cb37a2f	0.021908848
232	0x3df37d59	0.118891425
233	0xbdd33e1b	-0.1031458
234	0xbd6371ed	-0.05552857
235	0x3d83d08d	0.06436262
236	0x3e050570	0.12990355
237	0xbd9d9208	-0.07693869
238	0x3e1bdb33	0.15220337
239	0x3dbb218e	0.091372594
240	0x3d11bc7e	0.03558015
241	0xbdae9e91	-0.08526338
242	0x3e226c55	0.15861638
243	0x3db03f11	0.08605779
244	0x3d06e9b5	0.032937724
245	0x3e03249b	0.12806933
246	0xbe3f485a	-0.18679944
247	0x3d049e3e	0.032377474
248	0xbdbdbee4	-0.09264925
249	0xbbfdeba2	-0.007749037
250	0x3d6f81a3	0.05847324
251	0x3d92ff56	0.07177608
252	0x3d255275	0.04036184
253	0xbdda6580	-0.10663891
254	0xbdb4a7e2	-0.088210836
255	0xbc1b5b9b	-0.00948229

feature_process_high.bias f4 [32]
0	0xbd39ae4e	-0.045332246
1	0xbdc51dd7	-0.09624832
2	0x3e9989c1	0.2998791
3	0x3d5e8b12	0.054331847
4	0xbd60c038	-0.054870814
5	0x3e061e1e	0.13097426
6	0x3e14df8b	0.145384
7	0xbdb692c1	-0.0891471
8	0x3e170274	0.1474703
9	0xbe0c3e8e	-0.13695738
10	0x3dca1c75	0.09868709
11	0x3e9428d3	0.28937396
12	0x3e490334	0.19630128
13	0x3e0e12f4	0.13874418
14	0xbce6b352	-0.028161678
15	0x3d0709a4	0.03296818
16	0x3d9bd0ea	0.076082066
17	0x3da9872e	0.082777366
18	0xbd891c08	-0.066948
19	0x3d0fd2fd	0.035113323
20	0xbdd74670	-0.10511482
21	0xbe2352bb	-0.15949528
22	0xbe611a31	-0.21982647
23	0xbda776d2	-0.0817696
24	0xbd4a54a6	-0.049397133
25	0x3e8b9f96	0.27270192
26	0x3daa3589	0.08310992
27	0xbdabb23e	-0.083836064
28	0xbd63d4d1	-0.05562288
29	0x3db8e48d	0.090279676
30	0xbd97986a	-0.074021176
31	0xbd9f932d	-0.077917434

feature_norm.weight f4 [32]
0	0x3f001f7a	0.5004803
1	0x3e8ff270	0.28114653
2	0x3f4eaaa0	0.80729103
3	0x3f1dff81	0.61717993
4	0x3e96ca02	0.29450995
5	0x3ee42b2c	0.44564188
6	0x3f131e79	0.5746837
7	0x3edb3b09	0.42818478
8	0x3f24fd44	0.6444895
9	0x3ebf3199	0.37342528
10	0x3ef85483	0.48501977
11	0x3f50387f	0.81336206
12	0x3f2b8455	0.669988
13	0x3ee8cf71	0.45470765
14	0x3ea122e0	0.3147192
15	0x3ed6d3a3	0.4195834
16	0x3ee6c103	0.4506913
17	0x3f2ea9f9	0.6822811
18	0x3f0654dc	0.52473235
19	0x3ea79db0	0.32737494
20	0x3ef53498	0.47891688
21	0x3f1ce5c7	0.6128811
22	0x3eb7fdac	0.35935724
23	0x3eb2ce51	0.34923032
24	0x3e91fb6b	0.2851213
25	0x3f314799	0.69249874
26	0x3f0e4e68	0.5558839
27	0x3e8c7603	0.27433786
28	0x3e90e7b5	0.28301778
29	0x3efe068e	0.49614376
30	0x3eb149d5	0.34626642
31	0x3ecd7a43	0.4013234

feature_norm.bias f4 [32]
0	0x3c78b7f4	0.015180577
1	0x37b6253c	2.171343e-05
2	0xbcab308f	-0.020897178
3	0x3c86c45d	0.016451055
4	0xb8be6fde	-9.080743e-05
5	0xba513deb	-0.0007981944
6	0x3beb51b0	0.007181369
7	0x3ccdeb3f	0.025136588
8	0x3b10d53c	0.0022099754
9	0x3cf67a4d	0.030087614
10	0xbcd84529	-0.026400166
11	0x3c0c2c61	0.008555503
12	0xbbba0d50	-0.0056778565
13	0xbbf57beb	-0.007491579
14	0xba926f1f	-0.0011172033
15	0xbaa1d783	-0.0012347553
16	0x3bd2e6c0	0.006436199
17	0xbb9d304e	-0.004797018
18	0x3b0c5e38	0.0021418463
19	0x3bcb2a59	0.0062001166
20	0x3bdfb3f3	0.0068268715
21	0x3b8fa5af	0.0043837647
22	0x3cbdf38b	0.02318742
23	0xbb9e05c7	-0.004822466
24	0x350b7c9b	5.196286e-07
25	0x3b95c88d	0.0045710267
26	0x3d0e214f	0.034699734
27	0x39b441c3	0.00034381272
28	0xba958eab	-0.0011410316
29	0x3cb3bc6d	0.021940434
30	0x3c0ff536	0.00878649
31	0xbb385418	-0.0028126296

graph_attention.u f4 [4, 10, 8]
0	0x344b4d9e	1.8934085e-07
1	0x340221bf	1.211947e-07
2	0xb3fad28f	-1.16798326e-07
3	0x3266db21	1.3437586e-08
4	0xb2ff692b	-2.9733732e-08
5	0xb3fb1157	-1.16912524e-07
6	0xb4e9fd49	-4.358392e-07
7	0x347c5201	2.3499162e-07
8	0xb3b89c59	-8.596607e-08
9	0xb31e3231	-3.683289e-08
10	0xb463f391	-2.1229631e-07
11	0xb200a3bc	-7.4878095e-09
12	0xb04201ea	-7.057951e-10
13	0x3381900d	6.033233e-08
14	0x33c285ee	9.0581906e-08
15	0x33e5c128	1.06987784e-07
16	0xb4507b67	-1.9416403e-07
17	0x34088b6e	1.2716711e-07
18	0x338c5a16	6.5356446e-08
19	0x3313a515	3.4376246e-08
20	0xb2f05905	-2.7980159e-08
21	0x3391248c	6.7587365e-08
22	0x337998d9	5.8113844e-08
23	0x33bc07e3	8.755867e-08
24	0x3390c31d	6.7410134e-08
25	0x3352721f	4.8998228e-08
26	0xb4feb048	-4.7439448e-07
27	0x350d819c	5.27152e-07
28	0x35a727a1	1.2454003e-06
29	0xb3a539bb	-7.693912e-08
30	0x323daae8	1.10401075e-08
31	0xb33610d6	-4.239049e-08
32	0xb479e1bf	-2.3272058e-07
33	0xb5127ba3	-5.4569153e-07
34	0x354b9a70	7.584813e-07
35	0x339499c9	6.9197604e-08
36	0xb5c6294a	-1.4764166e-06
37	0xb446e1b3	-1.8522296e-07
38	0x3427c0c7	1.5623219e-07
39	0x35172470	5.6304907e-07
40	0xb3eb8538	-1.09672726e-07
41	0x33979a7d	7.059587e-08
42	0x3413a581	1.3750652e-07
43	0xb2c009c8	-2.235619e-08
44	0x331fe55b	3.722867e-08
45	0xb3e61ddc	-1.0715641e-07
46	0xb3a52d49	-7.6916486e-08
47	0xb2c9be30	-2.3485967e-08
48	0xb3c55ba4	-9.190197e-08
49	0x30164ace	5.4675986e-10
50	0xb2fc8b7e	-2.9400095e-08
51	0xb198d990	-4.4485162e-09
52	0xb3880636	-6.334123e-08
53	0xb31e3043	-3.6831135e-08
54	0x33d09103	9.712132e-08
55	0xb38c8603	-6.5436346e-08
56	0xb483adf4	-2.452722e-07
57	0xb2a3768e	-1.902961e-08
58	0x328ee019	1.6632884e-08
59	0xb3a5d5bf	-7.7222914e-08
60	0xb3202c9a	-3.7293468e-08
61	0xb3232a64	-3.798995e-08
62	0x33827f65	6.07677e-08
63	0x3514903f	5.53442e-07
64	0xb4aa1b8f	-3.168502e-07
65	0xb31503cf	-3.469523e-08
66	0x33131e71	3.425379e-08
67	0x33315cc5	4.1295397e-08
68	0x33dd1ca1	1.0296322e-07
69	0x33ec6029	1.1007098e-07
70	0xb2f99a71	-2.9057647e-08
71	0x33a681ac	7.7535645e-08
72	0xb4a4d291	-3.0700588e-07
73	0xb42bd918	-1.6004594e-07
74	0x3356f9b0	5.0052847e-08
75	0xb3e60011	-1.0710222e-07
76	0xb2607872	-1.3065902e-08
77	0xb48fbc9b	-2.6773054e-07
78	0x356c3ff2	8.8009904e-07
79	0xb41c911d	-1.4581424e-07
80	0x338f03c3	6.659641e-08
81	0x32e1c28f	2.6281922e-08
82	0xb20f68f4	-8.347559e-09
83	0x33779f3b	5.765399e-08
84	0xb3826227	-6.0714505e-08
85	0x3385f360	6.237565e-08
86	0xb3fc9a02	-1.1762678e-07
87	0xb33225a9	-4.1478106e-08
88	0x337030e0	5.5923806e-08
89	0x35209fa3	5.9836947e-07
90	0xb474bea6	-2.2793628e-07
91	0xb51c1882	-5.815019e-07
92	0xb3a893b6	-7.849978e-08
93	0x3428f0be	1.5733801e-07
94	0x344f28ff	1.9293292e-07
95	0x33c277e9	9.0556405e-08
96	0xb3bad7f8	-8.7005844e-08
97	0xb4bc1a7d	-3.5037002e-07
98	0x35416276	7.204138e-07
99	0xb4d76c16	-4.0125514e-07
100	0xb43a1a2b	-1.733212e-07
101	0x3488b788	2.546551e-07
102	0xb40b5bfe	-1.297885e-07
103	0x3265ab41	1.3368493e-08
104	0x355fc1fe	8.335627e-07
105	0x3212cdb8	8.5450935e-09
106	0xb38bf0b5	-6.516476e-08
107	0xb48ff25c	-2.6812165e-07
108	0xb4108b40	-1.3461704e-07
109	0xb4b7d957	-3.4244542e-07
110	0x307c13e2	9.170532e-10
111	0xb388998a	-6.360922e-08
112	0xb2f2c0c4	-2.8260168e-08
113	0xb3db5f79	-1.02153486e-07
114	0x338823ab	6.3394815e-08
115	0xb3a33a59	-7.6008924e-08
116	0xb204f6c9	-7.739524e-09
117	0x32927a06	1.7052127e-08
118	0xb24915ac	-1.17046675e-08
119	0x333b646e	4.363067e-08
120	0x33d8ee4b	1.0101629e-07
121	0xb209f322	-8.0297315e-09
122	0xb2595f39	-1.26527135e-08
123	0xb480e80d	-2.4010697e-07
124	0xb37af780	-5.843276e-08
125	0x3474d4b6	2.2801655e-07
126	0xb34738b3	-4.6384866e-08
127	0x32548bee	1.237184e-08
128	0x3466979b	2.1475573e-07
129	0xb38d1914	-6.570386e-08
130	0x30184a2c	5.540268e-10
131	0xb41572da	-1.3918489e-07
132	0xb3ba48d4	-8.674547e-08
133	0xb288def2	-1.5933868e-08
134	0xb357f259	-5.0279002e-08
135	0x33636fdf	5.2954302e-08
136	0xb274c6fc	-1.4247913e-08
137	0xb4bb1cbb	-3.4852368e-07
138	0xb32f78d8	-4.085527e-08
139	0xb381f978	-6.052409e-08
140	0x34a49796	3.0657674e-07
141	0xb3735e04	-5.6663353e-08
142	0x32a21a99	1.8871377e-08
143	0x3419e85a	1.4333764e-07
144	0x3396f3ce	7.029267e-08
145	0xb129ea6b	-2.4725988e-09
146	0xb2cba63c	-2.3707905e-08
147	0xb22969d4	-9.861157e-09
148	0xb3018af7	-3.016154e-08
149	0x33752f93	5.7086776e-08
150	0xb32c92ff	-4.0180563e-08
151	0x32c41873	2.2828521e-08
152	0x326137d5	1.3109418e-08
153	0x34474dff	1.8561694e-07
154	0xb4a4b7d3	-3.068113e-07
155	0x338a1ebd	6.431717e-08
156	0x3307dbf9	3.16322e-08
157	0x331d5680	3.6633082e-08
158	0x3291f217	1.6990311e-08
159	0x33c47531	9.148278e-08
160	0xb196d538	-4.3898147e-09
161	0xb31b3fe5	-3.614686e-08
162	0xb1069eaf	-1.9589768e-09
163	0x337c61f5	5.8762414e-08
164	0xb2df850a	-2.6021116e-08
165	0x320a8868	8.063672e-09
166	0xb29eb37d	-1.8475243e-08
167	0x32f65010	2.8674577e-08
168	0xb3292ca0	-3.9388965e-08
169	0xb41212ff	-1.360422e-07
170	0xb354618c	-4.9448815e-08
171	0x3587855a	1.0097094e-06
172	0x33df8f6f	1.0410337e-07
173	0xb432e753	-1.6661697e-07
174	0xb4b0f205	-3.2958647e-07
175	0xb422e600	-1.5171099e-07
176	0xb2498cac	-1.1731725e-08
177	0xb32057f7	-3.7332907e-08
178	0xb260c765	-1.3083853e-08
179	0x321f84bc	9.285198e-09
180	0x2f519d45	1.9064313e-10
181	0x329faa2b	1.858742e-08
182	0xb08d5544	-1.0283334e-09
183	0x31494349	2.9287597e-09
184	0x30774014	8.9949137e-10
185	0xb201b9bf	-7.551022e-09
186	0x323a4a1f	1.0843478e-08
187	0xb21f176e	-9.260345e-09
188	0xb1ff9ccd	-7.439303e-09
189	0xb0f4b1ba	-1.780385e-09
190	0xb11039de	-2.0987652e-09
191	0x32069b3b	7.835122e-09
192	0xb2e24f4e	-2.6345926e-08
193	0x3234d077	1.0524778e-08
194	0x31eeeff1	6.95399e-09
195	0x343ce6ef	1.7592878e-07
196	0xb24b340b	-1.1827988e-08
197	0xb3b88206	-8.591819e-08
198	0x345a5476	2.0333559e-07
199	0x32ca240d	2.3532289e-08
200	0xb3905f83	-6.722896e-08
201	0xb46b225a	-2.1898578e-07
202	0x315341d7	3.0741967e-09
203	0xb2db3190	-2.5517494e-08
204	0x335ee929	5.190046e-08
205	0x33750106	5.704444e-08
206	0x32d522d0	2.4812294e-08
207	0x3347b380	4.6496552e-08
208	0xb32f1310	-4.07627e-08
209	0xb407cb3c	-1.2646791e-07
210	0x342a5e7b	1.5866856e-07
211	0xb23ef74f	-1.1115687e-08
212	0xb3b9e6f1	-8.656742e-08
213	0x34ab261b	3.1878957e-07
214	0xb4483fda	-1.864968e-07
215	0xb33d2f4f	-4.404802e-08
216	0xb460a5a1	-2.0921881e-07
217	0xb43c64d6	-1.7545548e-07
218	0xb41f3b01	-1.4829494e-07
219	0xb45c06f1	-2.0491622e-07
220	0xb4a33f28	-3.0407068e-07
221	0x359c7d4a	1.165937e-06
222	0xb4868572	-2.505654e-07
223	0x35633a2c	8.464874e-07
224	0xb161e9d0	-3.2874716e-09
225	0xb13705dd	-2.6633338e-09
226	0xb20dbd66	-8.250344e-09
227	0xb20dcdb6	-8.254053e-09
228	0xb1314f60	-2.580201e-09
229	0x32c00be5	2.235715e-08
230	0xb1d88ec4	-6.302658e-09
231	0x30bb0139	1.3606388e-09
232	0x30299898	6.169869e-10
233	0xb1c742e0	-5.799265e-09
234	0xb26f9a11	-1.3946662e-08
235	0xb1a3cf1a	-4.767469e-09
236	0xb2a5f66a	-1.9320584e-08
237	0x3206db75	7.849725e-09
238	0x318c8f36	4.0908175e-09
239	0x3228b715	9.820515e-09
240	0xb4851ec3	-2.4795563e-07
241	0xb0aabc8a	-1.2422714e-09
242	0x339056bc	6.7212994e-08
243	0x338eb909	6.646048e-08
244	0x3584a694	9.883247e-07
245	0x348e325b	2.64862e-07
246	0xb3e553a3	-1.0678857e-07
247	0xb43b9493	-1.7469783e-07
248	0x329c0c50	1.816639e-08
249	0x326e994c	1.3888279e-08
250	0x328f1606	1.6657406e-08
251	0x33d6c6b8	1.0001298e-07
252	0xb38516be	-6.197432e-08
253	0x34972525	2.8152968e-07
254	0x32a5d488	1.9305176e-08
255	0xb40a2356	-1.2865107e-07

graph_attention.v f4 [4, 8, 10]
0	0xba2211bb	-0.00061824516
1	0x3ac679f3	0.0015142545
2	0x399eaef5	0.00030266462
3	0xbaebbdf3	-0.0017985686
4	0xb90bda03	-0.00013337289
5	0xba331e10	-0.0006832788
6	0xb8444662	-4.679559e-05
7	0x3a41e13d	0.0007395929
8	0x3a4f8772	0.0007916606
9	0x3a4328f6	0.00074447633
10	0xba29a64e	-0.00064716197
11	0x3ac811d8	0.0015264107
12	0x39e8686c	0.0004432829
13	0xbad3c8cd	-0.0016157866
14	0xb8f232a4	-0.00011548892
15	0xba8767cc	-0.0010330616
16	0xb93b2ae6	-0.0001784969
17	0x39ba6e52	0.0003555888
18	0x3a4bcbac	0.0007774185
19	0x39d3a94d	0.00040371195
20	0xba282da8	-0.0006415495
21	0x3ab67a2d	0.0013921909
22	0x3a30c274	0.0006742843
23	0xbac41066	-0.00149585
24	0xb90c570f	-0.00013383872
25	0xb90b777e	-0.00013300587
26	0xb8f45643	-0.00011650894
27	0x39c5cf02	0.00037729
28	0xb9d3163d	-0.00040261625
29	0x39e58f5c	0.00043785095
30	0xba20501f	-0.00061154546
31	0x3adf545c	0.0017038691
32	0x39e2f835	0.00043291008
33	0xbadccfd7	-0.0016846609
34	0xb92dd41e	-0.00016577585
35	0xb9a207cf	-0.00030904866
36	0xb92ea576	-0.00016655572
37	0x39ba9538	0.0003558786
38	0x3a606cd5	0.0008561139
39	0x39e752f1	0.0004412155
40	0xba181a9e	-0.0005802306
41	0x3ac88d77	0.0015300949
42	0x39be16ce	0.00036256615
43	0xbad39ae0	-0.0016144179
44	0xb90cc0f8	-0.00013423327
45	0x3a84d9ba	0.0010135688
46	0xba5babaa	-0.0008379767
47	0x39bab125	0.00035608668
48	0x3a5bef9f	0.00083898933
49	0x392459a5	0.00015673654
50	0xba2f1746	-0.0006679188
51	0x3af0dc33	0.0018376171
52	0x39dbb76a	0.0004190759
53	0xbabea299	-0.0014544307
54	0xb9973351	-0.00028839198
55	0xba2bdc12	-0.00065559254
56	0xb94e9cb8	-0.00019704073
57	0x3a4cc13d	0.0007810777
58	0x3a466020	0.00075674243
59	0x39c9979f	0.00038450674
60	0xba22b9f3	-0.0006207518
61	0x3ae66a3d	0.0017579269
62	0x398f7810	0.0002736454
63	0xbae151d9	-0.001719053
64	0xb8fb8a75	-0.00011994402
65	0xba5628d6	-0.0008169537
66	0xb9413595	-0.00018425875
67	0x3a4ba681	0.00077686465
68	0x3a4cba55	0.0007809748
69	0x3892b9ca	6.9964284e-05
70	0xba2a1a8c	-0.0006488941
71	0x3af6dba3	0.0018833767
72	0x39cb4800	0.0003877282
73	0xbaec2d4d	-0.0018018872
74	0xb91271e8	-0.00013966078
75	0xba5f166b	-0.00085101154
76	0xb95d7909	-0.00021121292
77	0x39c8e08f	0.00038314282
78	0x3a60e113	0.00085784605
79	0x39dd4472	0.000422034
80	0xba7eb78f	-0.00097166834
81	0x3aaaa561	0.0013019257
82	0x39b48e25	0.0003443818
83	0xba36f824	-0.0006979725
84	0xba2d549b	-0.00066120335
85	0x39ca6970	0.00038607
86	0x37c9e4db	2.4067636e-05
87	0x39b84fef	0.0003515477
88	0x39d81a57	0.00041218355
89	0x3a29e353	0.00064807123
90	0xba7db24a	-0.0009677751
91	0x3a10cbd3	0.0005523536
92	0x39c08229	0.0003671807
93	0xba731c22	-0.00092739065
94	0xba341a8c	-0.0006870411
95	0x39075ced	0.00012909221
96	0x380c319e	3.342481e-05
97	0x39d7823f	0.00041105037
98	0xb9c5982e	-0.0003768815
99	0x3a31aea4	0.00067780376
100	0xba7e02e8	-0.0009689764
101	0x3a3015db	0.0006717124
102	0x3a1a78c2	0.0005892628
103	0xba6b58cb	-0.000897777
104	0xba22e552	-0.0006213981
105	0xb9129148	-0.00013977767
106	0x39883eb4	0.0002598666
107	0x39a29cad	0.0003101578
108	0xba83117d	-0.0009999719
109	0x3a0f0ca4	0.00054569007
110	0xba55e861	-0.00081599323
111	0x3a21dc30	0.0006174473
112	0xb91372b5	-0.00014061744
113	0xba76768d	-0.0009401821
114	0xba1177e0	-0.0005549174
115	0x39670073	0.00022030044
116	0x397830f9	0.00023669367
117	0x39dfb0de	0.0004266565
118	0x39cea4b5	0.00039414098
119	0x3a21ed3f	0.0006177015
120	0xba85b91b	-0.001020226
121	0x3aa5370c	0.0012604906
122	0x39b26146	0.0003402328
123	0xba85654b	-0.0010177282
124	0xba0af78e	-0.0005301171
125	0x3a810dbd	0.0009846013
126	0x3811d2b4	3.4766927e-05
127	0x39a09cd5	0.00030634427
128	0xb9de334a	-0.00042381353
129	0x3a2b5d1f	0.00065370084
130	0xba7b46b3	-0.0009585425
131	0x3a99c751	0.0011732375
132	0x3a1eaca5	0.0006052948
133	0xba9d7249	-0.0012012209
134	0xba49c8b2	-0.00076974474
135	0x3ab487bd	0.0013773363
136	0x38983b41	7.258962e-05
137	0x39d76131	0.0004108041
138	0x39cf27a1	0.00039511643
139	0x3a25ccbb	0.00063247577
140	0xba442764	-0.00074826763
141	0x3a0e3236	0.0005424352
142	0x39daf9a0	0.00041766185
143	0xba334d3c	-0.0006839817
144	0xba184f93	-0.00058101973
145	0xb899c1dc	-7.331718e-05
146	0x381250f6	3.4884513e-05
147	0x389a4276	7.3556716e-05
148	0x38a6329f	7.924926e-05
149	0x3a2b24dd	0.00065286254
150	0xba3c28af	-0.0007177693
151	0x3a26a3dd	0.0006356815
152	0x39bf47ab	0.00036483756
153	0xba5f8603	-0.0008526744
154	0xba2259d3	-0.00061931944
155	0xb918d652	-0.0001457569
156	0x35ecce7e	1.7643467e-06
157	0x39fafaf7	0.000478707
158	0x39d856cc	0.000412634
159	0x3a2b4964	0.00065340684
160	0xb866cec3	-5.5028835e-05
161	0x3a3b136a	0.0007136377
162	0xb980be2b	-0.0002455575
163	0x384e420b	4.9175735e-05
164	0xba8e257e	-0.0010844914
165	0x37b21afa	2.1231815e-05
166	0xbab86965	-0.0014069496
167	0xb9128206	-0.00013972083
168	0x39c172ac	0.00036897266
169	0x38f27a17	0.000115622
170	0xb82ebc5d	-4.166026e-05
171	0x3a461ba7	0.0007557221
172	0xb97ad443	-0.00023920932
173	0x38db3c0e	0.0001045392
174	0xb8ed82aa	-0.00011325379
175	0xb85118ba	-4.985251e-05
176	0xb9aca8b4	-0.0003293209
177	0xb914271f	-0.00014128954
178	0xb81df7cc	-3.7662496e-05
179	0x3901fe87	0.00012397218
180	0xb85f0d4f	-5.3179738e-05
181	0x3a325a2c	0.0006803598
182	0xb9522404	-0.00020040578
183	0x383a2bfa	4.4386812e-05
184	0xb91284e4	-0.0001397315
185	0x3a4d2ef5	0.00078271265
186	0xba0bfc6a	-0.0005340042
187	0xb9ae6e45	-0.00033270023
188	0xb83e3908	-4.5352645e-05
189	0x39091614	0.00013073563
190	0xb5f25f2b	-1.8058103e-06
191	0x3a454454	0.00075251353
192	0xb95bb72d	-0.00020953706
193	0x392a7f78	0.00016259949
194	0xb9561e03	-0.0002041981
195	0xb801c4fe	-3.093946e-05
196	0xb9b1a0ef	-0.00033879976
197	0xb9372f07	-0.00017469759
198	0x36693f95	3.4756715e-06
199	0x3914fd7f	0.00014208815
200	0xb83c8793	-4.4948956e-05
201	0x3a369786	0.0006965328
202	0xb88c99d8	-6.704376e-05
203	0x393a1f6a	0.00017750045
204	0xb93f18bf	-0.00018224398
205	0xb8384eac	-4.3942287e-05
206	0xb98249e1	-0.00024850576
207	0xb9748279	-0.00023318258
208	0x39eea932	0.00045520958
209	0x3907207a	0.00012886702
210	0xb84f7bf5	-4.946809e-05
211	0x3a7f3552	0.00097354234
212	0xb8b0aa56	-8.4240615e-05
213	0xb80c442b	-3.3442087e-05
214	0xb9648453	-0.00021793069
215	0xb85b8eaa	-5.2346535e-05
216	0xb9f8b922	-0.0004744018
217	0xb996cedd	-0.00028764355
218	0xb8203d11	-3.8203845e-05
219	0x3981ff7f	0.00024795157
220	0xb7a0a061	-1.9148169e-05
221	0x3a6c4f4a	0.00090145005
222	0xb956cb4c	-0.00020484364
223	0x38efa931	0.000114279224
224	0xba061745	-0.0005115162
225	0x392ae2a3	0.00016296892
226	0xb9bbd1c3	-0.00035823704
227	0xb98a345c	-0.00026360422
228	0x38ba01eb	8.8695284e-05
229	0x382c3e70	4.1066145e-05
230	0x32442112	1.1416221e-08
231	0x3a814f38	0.0009865528
232	0xb982bd42	-0.0002493654
233	0x39144872	0.00014141368
234	0xb95e421d	-0.00021196199
235	0xb838ecd6	-4.408959e-05
236	0xb9dd61a3	-0.0004222515
237	0xb9a32cbc	-0.00031123112
238	0x39f5a2e6	0.0004685141
239	0x37b27ee0	2.1278334e-05
240	0x3a3e4a6b	0.0007259014
241	0x3b20a05d	0.0024509646
242	0xb9ad6074	-0.00033068995
243	0x39c3a2ab	0.00037314495
244	0xb93a1180	-0.00017744862
245	0xba51c9c9	-0.00080027856
246	0xba4d884c	-0.0007840439
247	0xba113a46	-0.00055399945
248	0xbb00220c	-0.0019551544
249	0xba166146	-0.0005736541
250	0x3a41b370	0.0007389104
251	0x3b521682	0.0032056873
252	0xb98702ce	-0.00025751296
253	0x39d79575	0.0004111935
254	0xb9401cf9	-0.0001832134
255	0xba241c8d	-0.0006260358

graph_attention.qkv_proj_low.weight f4 [24, 32]
0	0xbd33ede2	-0.043928035
1	0xbb5b0bb5	-0.0033423726
2	0x3ca7bc48	0.020475522
3	0x3bda3dd2	0.0066602016
4	0x3ccdbece	0.025115397
5	0x3dbad9fb	0.09123608
6	0x3e050fda	0.12994328
7	0xbc9ea639	-0.01936637
8	0xbd8dfa6d	-0.069325306
9	0xbc9ec956	-0.019383114
10	0xbda121fb	-0.078678094
11	0x3d99c3e9	0.0750807
12	0xbc8529e2	-0.016255323
13	0xbd049b68	-0.03237477
14	0xbcc9df20	-0.024642527
15	0x3d87b288	0.06625849
16	0x3dbcb114	0.092134625
17	0x3e00f9fb	0.1259536
18	0xbd224f61	-0.039626483
19	0x3d021de1	0.031766776
20	0x3c2b4f3b	0.010455902
21	0xbda6e8ec	-0.08149895
22	0xbd4044b5	-0.046940524
23	0x3d51065d	0.05103146
24	0xbb2edba6	-0.0026681214
25	0x3dfb9635	0.12284509
26	0x3d44d446	0.048054002
27	0x3b845710	0.004038699
28	0x3b8bf56b	0.0042711995
29	0x3d9baea4	0.076016694
30	0x3d0e961a	0.034811117
31	0x3d80da9a	0.06291695
32	0xbd39ec33	-0.045391273
33	0xba67261a	-0.0008817628
34	0xbd0678a0	-0.03282988
35	0x3d87f115	0.066377796
36	0x3c52b0a5	0.012859498
37	0x3dc192ab	0.09451803
38	0xbd2bdc20	-0.041957974
39	0xbc634a3d	-0.01387268
40	0xbde28e22	-0.11062266
41	0x3d405a4e	0.04696112
42	0xbd99ca01	-0.07509232
43	0xbd8546f7	-0.06507676
44	0x3df6d59c	0.120524615
45	0x3d0634e4	0.032765284
46	0xbb91d9b0	-0.004450999
47	0xbd98aa38	-0.07454342
48	0xbdaf650b	-0.08564194
49	0x3da91e28	0.08257705
50	0xbdd67728	-0.10471946
51	0x3d633b2e	0.05547636
52	0x3d55a735	0.052161414
53	0x3c438d00	0.0119354725
54	0xbb7b186c	-0.0038314117
55	0x3d5c9384	0.05385162
56	0x39c72bae	0.00037988782
57	0x3e1967ab	0.14980952
58	0x3dcdb10f	0.10043537
59	0xb892bf6b	-6.997477e-05
60	0xb93634fa	-0.00017376608
61	0x3d56943a	0.052387454
62	0xbc68e93b	-0.014215763
63	0x3d246a13	0.040140223
64	0xbd9b1381	-0.075720794
65	0xba87e3a1	-0.0010367521
66	0x3c7ebb8a	0.0155476425
67	0xbbfa07e3	-0.0076303347
68	0xbbf418e8	-0.007449258
69	0xbd650099	-0.055908773
70	0x3da8da74	0.082447916
71	0x3d963db5	0.073359884
72	0xbd2ea336	-0.04263612
73	0xbdce2f06	-0.10067563
74	0xbcb0ebf2	-0.021596882
75	0xbe094429	-0.13404907
76	0xbdffe8bd	-0.12495563
77	0xbb9b031c	-0.0047305953
78	0x3bdc6e26	0.006726998
79	0xbd9119a9	-0.070849724
80	0x3b2d4a0a	0.0026441836
81	0xbd84d89d	-0.06486628
82	0xbdfd8174	-0.12378207
83	0xbc77181c	-0.015081432
84	0xbb0958d9	-0.0020957498
85	0x3b1c74cc	0.0023873327
86	0xbc9181d3	-0.0177621
87	0x3c9d3583	0.019190555
88	0x39d0d04b	0.00039828042
89	0x3da11f17	0.07867258
90	0x3ccc7e94	0.0249627
91	0x3a8fb5cc	0.0010964214
92	0x3a410820	0.00073635764
93	0x3d6b6ebb	0.057478648
94	0x3d85488a	0.06507976
95	0xbd3eba5d	-0.04656445
96	0xbc814e72	-0.015784476
97	0xbb7130b0	-0.0036802702
98	0xbe103469	-0.14082493
99	0x3cdfdf81	0.027328255
100	0x3b8b0cf8	0.0042434894
101	0xbcaef0fa	-0.021355141
102	0x3d8eff95	0.06982342
103	0xbde2791a	-0.110582545
104	0xbdbe2af8	-0.092855394
105	0x3d01cc88	0.031689197
106	0xbe073c0e	-0.13206503
107	0x3d01f6bc	0.031729445
108	0x3dfab01b	0.12240621
109	0x3da70adc	0.08156368
110	0x3bc58847	0.0060282084
111	0xbde58dbe	-0.11208676
112	0x3d06ea83	0.03293849
113	0xbd4663ee	-0.048435144
114	0xbd30b156	-0.04313787
115	0x3da90428	0.08252746
116	0xbd2fffa1	-0.042968396
117	0xbd885118	-0.066560924
118	0xbdb9903d	-0.090607144
119	0x3d0c8c85	0.034313697
120	0x389013b3	6.870124e-05
121	0x3e29abe2	0.16569474
122	0x3c46bd26	0.012130057
123	0xbaacbdf4	-0.0013179169
124	0x3b0128f9	0.001970826
125	0x3e01a808	0.12661755
126	0x3d9b1650	0.07572615
127	0x3cb5a94d	0.022175455
128	0xbde089ce	-0.10963784
129	0xbc192cea	-0.009349087
130	0x3deef230	0.11667287
131	0xbdb8a005	-0.09014896
132	0x3be7ce87	0.0070741805
133	0xbc3dc23b	-0.011581953
134	0x3d515135	0.051102836
135	0x3a91b739	0.0011117227
136	0xbe058715	-0.13039811
137	0xbd392754	-0.04520352
138	0x3dcd639d	0.10028765
139	0x3c772d4b	0.015086482
140	0x3d9c749f	0.07639431
141	0xbd7131dd	-0.058885444
142	0x3cc12e4e	0.02358165
143	0xbcb63659	-0.022242712
144	0xbd421c29	-0.047390137
145	0x3cfbf994	0.030758657
146	0xbd88327b	-0.066502534
147	0xbd33cd59	-0.043897007
148	0xbc264c8b	-0.010150085
149	0x3bf3e5a3	0.0074431463
150	0xbcdd645d	-0.027025396
151	0x3d06851b	0.032841783
152	0xbbd8b959	-0.006613892
153	0x3dd629c1	0.10457183
154	0x3e0ecfa6	0.13946399
155	0x3a39b0ef	0.0007083555
156	0xb63748c4	-2.731148e-06
157	0xbe0256cd	-0.12728424
158	0x3d5c628d	0.053804923
159	0x3dad8614	0.08472839
160	0x3dad7359	0.084692664
161	0x37d21b2f	2.504661e-05
162	0x3d9c6f5c	0.076384276
163	0x3e0dcb86	0.1384717
164	0x3af77de9	0.0018882129
165	0xbd8d314a	-0.06894167
166	0xbdf66681	-0.1203127
167	0x3c0b6d48	0.008509941
168	0x3d807132	0.0627159
169	0x3da84063	0.08215406
170	0xbd750f32	-0.059828945
171	0x3d942181	0.07232953
172	0xbcee67aa	-0.029102165
173	0xbc8eec8d	-0.01744678
174	0x3c18e18b	0.009331117
175	0xbdee3c56	-0.11632602
176	0x3dad83dd	0.084724165
177	0x3d52fcea	0.05151073
178	0xbcf73c06	-0.030179989
179	0x3d16476c	0.036689207
180	0xbd16f039	-0.036850188
181	0x3d0c1b23	0.034205567
182	0xbcd29dc5	-0.025709996
183	0xbdad3e0f	-0.08459102
184	0xb7d4e1da	-2.537754e-05
185	0x3dbfecf0	0.09371364
186	0xbd426303	-0.047457706
187	0xbbeec59c	-0.0072867405
188	0xbb617e9c	-0.003440774
189	0x3cc07fb4	0.023498394
190	0xbb83f997	-0.004027556
191	0xbd687005	-0.056747455
192	0xbd19c9a3	-0.03754581
193	0xb1ae13e7	-5.066329e-09
194	0x3d85218b	0.065005384
195	0x3dab83f0	0.083747745
196	0x3a166074	0.00057364185
197	0x3d48c9cc	0.049020573
198	0x3d9e6c9c	0.07735559
199	0xbd385d61	-0.045010928
200	0xbd4307f8	-0.04761502
201	0x3c98e1c3	0.01866234
202	0x3d5ad175	0.05342241
203	0x3d1fc82f	0.03900927
204	0xbd9d1fa7	-0.07672053
205	0x3d8eeeac	0.06979117
206	0xb9afc789	-0.00033527266
207	0x3d4a8ece	0.049452595
208	0x3d30e04a	0.04318265
209	0x3c999d7f	0.018751858
210	0xbd99bda8	-0.07506877
211	0xbc451e50	-0.012031153
212	0x3d8c92ec	0.068639606
213	0x3e09148e	0.13386747
214	0xbd273bb3	-0.040828418
215	0x3d10ebf8	0.035381287
216	0xb017b943	-5.519675e-10
217	0xbd63a2e9	-0.055575285
218	0xbcfed728	-0.031108454
219	0x384ad243	4.8356374e-05
220	0x3a1281e4	0.0005588813
221	0x3d7de065	0.061981577
222	0xbc9e3f65	-0.019317338
223	0xbc58b6fe	-0.0132272225
224	0xbd9810e7	-0.07425099
225	0x3a49af61	0.0007693675
226	0xbd118ada	-0.03553281
227	0xbda7490c	-0.081682295
228	0xb951ef5a	-0.00020020959
229	0xbc612327	-0.013741291
230	0x3cbdac91	0.023153575
231	0xbcb92d25	-0.022604534
232	0x3dac3c92	0.0840999
233	0xbc8ffd0b	-0.017576715
234	0xbd285007	-0.041091945
235	0xbd3cc903	-0.046090137
236	0x3ccb382c	0.024807058
237	0x3d68a464	0.0567974
238	0xb910e579	-0.00013818395
239	0x3d506a82	0.050882824
240	0x3d9c08f9	0.07618899
241	0xbd900c25	-0.070335664
242	0xbc3d2bb5	-0.011546065
243	0xbd07a1f1	-0.033113424
244	0x3b1db27e	0.0024062688
245	0xbcc25ac3	-0.02372492
246	0xbb87922e	-0.004137299
247	0xbadcafb8	-0.0016837036
248	0xb9d7f200	-0.000411883
249	0xbdd35ae9	-0.10320074
250	0xbdffaa0c	-0.12483606
251	0xb7079de3	-8.083388e-06
252	0x392d9830	0.0001655526
253	0x3b65f233	0.003508699
254	0x3c4a7447	0.012356824
255	0xbd67e718	-0.056616873

graph_attention.qkv_proj_low.bias f4 [24]
0	0x3def4b58	0.116842926
1	0xbdb5dcf6	-0.088800356
2	0xbdd17ae3	-0.10228517
3	0xbc901e94	-0.017592706
4	0xbdf7715d	-0.12082169
5	0x3cf28acd	0.029607201
6	0x3c8fb10d	0.01754048
7	0xbd7fee05	-0.062482852
8	0x3da52e99	0.080655284
9	0x3da3f557	0.08005779
10	0xbdef82f5	-0.116949
11	0xbdaa0eed	-0.08303628
12	0x3dab12ab	0.0835317
13	0xbdb9ed03	-0.090784095
14	0x3c83f6a1	0.016108813
15	0xbccba916	-0.0248609
16	0x3d2c98db	0.04213796
17	0xbd3dc6f6	-0.046332322
18	0xbc46256f	-0.012093886
19	0xbce12b4a	-0.027486462
20	0xbd951995	-0.0728027
21	0xbd418db1	-0.047254268
22	0x3cceff67	0.02526827
23	0x3d90eaed	0.070760585

graph_attention.qkv_proj_high.weight f4 [96, 24]
0	0xbb1627d6	-0.0022911928
1	0x3c09ea01	0.008417607
2	0x3c40dbb0	0.011771128
3	0xbcb327fc	-0.021869652
4	0x3c8c23db	0.017106941
5	0xbb80e66c	-0.0039337184
6	0x3b3e25b6	0.0029014177
7	0xbbcd9e18	-0.0062749498
8	0x3c9451d8	0.018105432
9	0xbb09b880	-0.0021014512
10	0x3c8470bd	0.016167039
11	0xbce31ded	-0.02772423
12	0xbc7e42f3	-0.015518892
13	0x3c748939	0.014925295
14	0x3be53334	0.0069946293
15	0xb9b17b2c	-0.0003385184
16	0x3c1dd074	0.009632219
17	0xbaf5ac9c	-0.0018743458
18	0x3b63e0c0	0.0034771413
19	0xbc3e6843	-0.011621538
20	0xbc9579ed	-0.018246615
21	0xbc37d046	-0.01121909
22	0xbcb11386	-0.021615755
23	0x3b25a178	0.0025273245
24	0xbb9deecc	-0.0048197266
25	0x3c064cff	0.008197068
26	0x3c23c1a9	0.009994903
27	0xbcaf1e0a	-0.021376628
28	0x3c8a7a09	0.016903894
29	0xbaae5e06	-0.0013303168
30	0x3b49a0b2	0.0030765948
31	0xbbd61121	-0.0065328036
32	0x3c9f3ec9	0.019439118
33	0x3ba17778	0.004927572
34	0x3c82cb11	0.01596597
35	0xbce997fa	-0.02851485
36	0xbc7c5322	-0.01540068
37	0x3c622673	0.013803112
38	0x3bea6517	0.007153164
39	0x3a902c18	0.0010999469
40	0x3c227fd9	0.009918177
41	0xbab50219	-0.0013809829
42	0x3b44b2a6	0.003001371
43	0xbc37191e	-0.011175422
44	0xbc9dca3a	-0.019261468
45	0xbc2e2080	-0.010627866
46	0xbcaab601	-0.02083874
47	0x3adcee5d	0.0016855706
48	0xbc05d34f	-0.008168056
49	0x3c071ede	0.008247105
50	0x3c01cf92	0.007923024
51	0xbcb5a6d1	-0.02217427
52	0x3c89c41f	0.01681715
53	0xbae70cdf	-0.0017627737
54	0x3b4d243d	0.0031302117
55	0xbbd26798	-0.0064210407
56	0x3c99ac66	0.018758964
57	0xbb60f4cb	-0.0034325595
58	0x3c85d240	0.016335607
59	0xbcf6cc0b	-0.030126592
60	0xbc820737	-0.01587258
61	0x3c7adcaf	0.015311404
62	0x3be2cf62	0.0069216946
63	0x3a62bc75	0.0008649298
64	0x3c275c7f	0.010214924
65	0xbaaff9f6	-0.0013425935
66	0x3b632df4	0.0034664841
67	0xbc40592c	-0.01174001
68	0xbca1864a	-0.019717354
69	0xbc363f03	-0.011123422
70	0xbcb03ddc	-0.021513872
71	0x3c0a74b5	0.008450677
72	0xbbbf8686	-0.005844894
73	0x3c05230d	0.008126033
74	0x3c266c72	0.010157691
75	0xbcb0b529	-0.021570759
76	0x3c8bc1ab	0.017060122
77	0xbb8910b1	-0.004182898
78	0x3b3e06de	0.0028995792
79	0xbbd47bc2	-0.0064844796
80	0x3ca2068c	0.019778512
81	0x3ba9de0a	0.00518394
82	0x3c82a56d	0.015948022
83	0xbcf23a75	-0.02956889
84	0xbc7019c7	-0.014654583
85	0x3c626b85	0.01381958
86	0x3be2f8a9	0.0069266153
87	0x3a8daa13	0.0010808132
88	0x3c237868	0.009977438
89	0xbb5fa2de	-0.0034124176
90	0x3b3f6cd7	0.002920916
91	0xbc375b2c	-0.011191171
92	0xbc78a5ea	-0.015176276
93	0xbc33811a	-0.010956073
94	0xbcac1083	-0.021003967
95	0x3b482da4	0.0030544782
96	0xbb07c25a	-0.0020715208
97	0x3c0b9d91	0.0085214535
98	0x3c2d00e6	0.010559296
99	0xbcbdde05	-0.023177156
100	0x3c8a73f2	0.01690099
101	0xbb0ea1a4	-0.0021763826
102	0x3b45fe6f	0.0030211469
103	0xbbd46fbd	-0.006483047
104	0x3c9c4580	0.019076109
105	0x3a9019b3	0.0010993987
106	0x3c827885	0.015926609
107	0xbcf37f67	-0.029723836
108	0xbc834725	-0.016025135
109	0x3c81a726	0.015826773
110	0x3be7f606	0.007078889
111	0x397059da	0.00022921656
112	0x3c2db04d	0.010601115
113	0xbbd4cf95	-0.0064944723
114	0x3b3dbb7f	0.0028950868
115	0xbc3a501e	-0.0113716405
116	0xbc8eeb03	-0.017446047
117	0xbc377c8b	-0.011199127
118	0xbcb227b8	-0.021747455
119	0x3b59caa9	0.0033232367
120	0x3b98523b	0.0046484745
121	0x3bf2b6bf	0.007407039
122	0x3b90bd7b	0.004417119
123	0xbcc0a0fb	-0.023514261
124	0x3c83dacd	0.016095543
125	0x3ad03d96	0.0015887495
126	0x3b427c18	0.0029676016
127	0xbbc156fa	-0.005900261
128	0x3c9a07cd	0.018802548
129	0xbb0e4848	-0.0021710563
130	0x3c879503	0.016550547
131	0xbceddbea	-0.029035527
132	0xbc7d3714	-0.015455026
133	0x3c7ed62c	0.015553992
134	0x3bcbf1e1	0.0062239026
135	0x39dbcbac	0.00041922682
136	0x3c0d13c9	0.008610674
137	0xbbb908f2	-0.0056468183
138	0x3b494729	0.003071258
139	0xbc3c266d	-0.011483771
140	0xbcaa045e	-0.020754036
141	0xbc2e6080	-0.010643125
142	0xbcb11d9e	-0.021620568
143	0x3c0a2f42	0.008434119
144	0x3c181318	0.009281896
145	0x3c018201	0.0079045305
146	0x3c72d00f	0.014820113
147	0xbca75640	-0.02042687
148	0x3c8319f9	0.016003596
149	0xb96377fb	-0.00021693103
150	0x3b47582e	0.003041755
151	0xbbc8d4f0	-0.0061288998
152	0x3c8b7479	0.017023312
153	0x3c35b825	0.011091267
154	0x3c87f156	0.01659457
155	0xbcf135fb	-0.029444685
156	0xbc77e3cb	-0.015129994
157	0x3c846ed9	0.016166138
158	0x3be1f36b	0.0068954728
159	0xb9594d3c	-0.00020723505
160	0x3c3466fb	0.011010881
161	0x38c52279	9.400113e-05
162	0x3ae4c933	0.0017454982
163	0xbc3f06b3	-0.011659312
164	0xbc9f9270	-0.019479007
165	0xbc3a5f43	-0.011375251
166	0xbcae3461	-0.02126521
167	0x3ca5337c	0.020166151
168	0xba20d76c	-0.0006135616
169	0x3c024580	0.00795114
170	0x3b7a5820	0.00381995
171	0xbcb510f8	-0.022102818
172	0x3c8741ed	0.016510928
173	0xbb8f1c24	-0.0043673683
174	0x3b41f80c	0.002959731
175	0xbbcdb27a	-0.0062773796
176	0x3c9d9774	0.019237258
177	0x3c25418a	0.0100864265
178	0x3c8292a4	0.015939064
179	0xbcda56ac	-0.026652656
180	0xbc77dd7a	-0.015128488
181	0x3c6d1500	0.014470339
182	0x3bd8d85e	0.00661759
183	0x3a407152	0.0007341105
184	0x3bff96ad	0.0077999444
185	0xbbb307b4	-0.005463565
186	0x3b2e15c3	0.0026563264
187	0xbc3ddb08	-0.011587866
188	0xbca69262	-0.020333473
189	0xbc2a8636	-0.010407975
190	0xbcad4fa6	-0.021156143
191	0x3b9c773a	0.004774955
192	0x3ca3ca10	0.019993812
193	0xbc651593	-0.0139821945
194	0xbd04bdf6	-0.032407723
195	0x3d44e4cf	0.04806977
196	0xbd0fabb6	-0.035075866
197	0x3ca44a59	0.020054983
198	0xbbc9ef3d	-0.0061625526
199	0x3b890ffa	0.0041828128
200	0xbd250c63	-0.040295016
201	0x3b0ef7f1	0.0021815265
202	0xbd098cc8	-0.033581525
203	0x3d8a6b6a	0.06758769
204	0x3d194f76	0.037429295
205	0xbd39654d	-0.045262624
206	0x3a23d930	0.000625032
207	0x3b01e0d5	0.0019817848
208	0xbce3ced5	-0.027808586
209	0x3ad6eaf5	0.0016396927
210	0x3b4245b0	0.0029643588
211	0x3c8547b6	0.016269546
212	0x3d14c9a4	0.036325112
213	0x3cda3188	0.026634946
214	0x3d1ca598	0.03824386
215	0xbc751dc6	-0.014960712
216	0x3cb7afef	0.022422759
217	0xbc691aa6	-0.014227545
218	0xbd0b96a2	-0.0340792
219	0x3d302cca	0.043011464
220	0xbd11e375	-0.03561731
221	0x3ca3e049	0.020004408
222	0xbbcf6ed2	-0.0063303495
223	0x3b709bf3	0.0036714047
224	0xbd46ba9e	-0.048517816
225	0x3c3afb5b	0.011412467
226	0xbd065186	-0.03279259
227	0x3d8bb571	0.068217166
228	0x3d1a8b41	0.03773046
229	0xbd347fb1	-0.04406709
230	0x3ab34a55	0.0013678769
231	0x3addf2e9	0.0016933355
232	0xbcce3375	-0.025171021
233	0xba59412d	-0.0008287605
234	0x3b32dd60	0.0027292594
235	0x3c8d738e	0.017267015
236	0x3d2e6cbe	0.042584173
237	0x3ce51f6a	0.027969081
238	0x3d214b21	0.03937829
239	0xbc52407d	-0.012832758
240	0x3d0d41b9	0.034486506
241	0xbc68611a	-0.014183307
242	0xbd1a3012	-0.0376435
243	0x3d614f6f	0.055007394
244	0xbd12e661	-0.035864238
245	0x3c9d66f4	0.019214131
246	0xbbd72af3	-0.0065663992
247	0x3b94f02a	0.0045452313
248	0xbd5b7312	-0.053576536
249	0x3c80b74e	0.015712406
250	0xbd0a9745	-0.033835668
251	0x3d954510	0.07288563
252	0x3d1b1768	0.03786412
253	0xbd3cb2dc	-0.04606901
254	0x3a9149f3	0.0011084661
255	0x3a6ecf0f	0.00091098336
