save_all/MSTAGAT-Net.state360.w-20.h-5.no_agam.pt (torch, 114233 bytes, 61 tensors)

temp_conv.depthwise.weight f4 [1, 1, 3]
00000000: 3a1c 4bbd 5fe5 983e e19c 24be
-0.049587466 0.29862496 -0.1607547

temp_conv.pointwise.weight f4 [16, 1, 1]
00000000: 5f10 63bd 386c 763d e14e 81bd 3c1b 3b3d
00000010: 4cbc 613d a5d5 60bd dcdf 673d 30d7 653d
00000020: 4271 513d 51e9 603d eeb3 363d 62a6 44bd
00000030: 5666 383d c02f 493d f18f 7ebd 3f9c 5b3d
-0.055435535 0.0601618 -0.06313873 0.04568027 0.055111215 -0.054891247 0.056609973 0.056113422
0.0511334 0.054910008 0.044605188 -0.048010238 0.04501947 0.049117804 -0.062148992 0.053615805

temp_conv.pointwise.bias f4 [16]
00000000: 9542 8435 f6fc ba36 79e2 8636 c2ad 9035
00000010: cfac d734 51d4 0136 366d 59b6 8965 28b5
00000020: e849 b934 3928 b835 d5f6 8d34 9df9 2b36
00000030: 9e28 3235 93c9 4333 bcf5 0b35 17ec 9935
9.854144e-07 5.5726805e-06 4.019876e-06 1.0779406e-06 4.0172606e-07 1.9346082e-06 -3.239909e-06 -6.273263e-07
3.451271e-07 1.3720775e-06 2.644289e-07 2.562628e-06 6.6369273e-07 4.5585306e-08 5.2139126e-07 1.14681e-06

temp_conv.bn2.weight f4 [16]
00000000: 58c0 2f3e 18c4 473e e221 733e 10ef 1a3e
00000010: ad87 183e dcf4 6a3e b55a 2b3e 97f3 0d3e
00000020: eee0 1f3e 9d1e 453e 30f2 063e 9858 4f3e
00000030: 2e6b 003e 1d9c 033e 0939 803e 8c03 2b3e
0.17163217 0.19508398 0.23743394 0.15130258 0.14895506 0.22944969 0.1673382 0.13862453
0.15613148 0.1924996 0.13178325 0.2024864 0.12540886 0.12852521 0.25043514 0.16700572

temp_conv.bn2.bias f4 [16]
00000000: ec9a 96ba 0178 82bb bce6 d0bb 63f8 b0bc
00000010: 4514 e1bc 0fc8 0cbc b692 c7bc f256 96bc
00000020: 4388 9cbc ac22 b73b 8766 9ebc 1e85 8ebc
00000030: 6be2 15bd df9c e6bc 6470 32bb a074 9abc
-0.0011490262 -0.0039815907 -0.006375162 -0.021602815 -0.027475486 -0.00859262 -0.02436195 -0.018352006
-0.019107943 0.00558885 -0.019335998 -0.01739746 -0.036592882 -0.028150974 -0.0027227635 -0.01885444

temp_conv.bn2.running_mean f4 [16]
00000000: aa17 f5bb cffd 0d3c bf1b 10bc cf0d d73b
00000010: e3ae 063c 7518 fbbb 5b66 0a3c 16f6 093c
00000020: a4df ee3b 70a9 083c aada d83b 52b5 f1bb
00000030: 8afe e83b 50e9 ef3b b01e 16bc d910 043c
-0.0074796276 0.00866647 -0.008795678 0.0065629254 0.008220407 -0.0076628276 0.008447255 0.008420488
0.0072898436 0.008341178 0.0066178637 -0.0073763514 0.0071104215 0.007321514 -0.00916259 0.008060657

temp_conv.bn2.running_var f4 [16]
00000000: 36ed 2c39 34d0 6739 be64 6f39 b426 0539
00000010: 6290 5039 6c57 3539 1344 5c39 0823 5b39
00000020: 001d 2439 5f75 5639 0e74 0739 07b6 2839
00000030: a8fe 1b39 886e 2539 f27c 8139 4960 4839
0.00016491566 0.00022107438 0.00022830346 0.00012698286 0.00019890213 0.00017294072 0.00021006195 0.00020898518
0.00015651062 0.00020452355 0.00012917837 0.00016089539 0.00014876819 0.00015776802 0.0002469789 0.00019109355

feature_process_low.weight f4 [8, 320]
00000000: 971a 92bb ccac 173c d942 883c 0647 c53a
00000010: 8c82 07bc f449 9ebb 9039 433c 5d49 8cbb
00000020: 9566 e8bb 1065 7fbc 35fa 283b 3b98 38bc
00000030: 692c 50bc 153d c3bc 67bf c6bc 6206 aeb9
00000040: cc22 aabc 9a7f 873b 6381 81bc e10c f7ba
00000050: 9c97 7ebb b1ab 01ba 594b 843b 92de c03b
00000060: 5400 353c 4eb6 3d3c fb8b 033c 809d 393c
00000070: 6eba 9d3c c915 b93c 12e7 c03b 1036 723c
00000080: e7c7 973c 3f3f 483c 12e0 a43c 7167 74bc
00000090: d9fd 963a ba73 8dbc fa5e 173c 5b18 923c
000000a0: dc9e bdbb 1b29 1b3c 2306 793c c7cb dc3b
000000b0: 022b c5bb 42c3 d8bb 70e0 803c b44d a73b
000000c0: f757 a7ba 03e7 9dbc b5fe 773b 165c 3dbc
000000d0: 06d5 83bc 13c3 d8bc 2597 bebc 3eb3 a4bb
000000e0: 8a4e b1bc b953 85bb e419 b5bc dc58 39bb
000000f0: 9ec3 58bb ebcb bb3a 60f1 3e3b 9197 963b
00000100: 8f91 993b 4cad bd3b 5e47 b73b 1722 1c3c
00000110: 62c6 193c cff5 783c 9bdb 003c 14bb 593c
00000120: 0389 843c 2f1b 513c 6b27 453c 2274 c7bb
00000130: 183a 41bb 7b71 2bbc be59 bd39 43a3 22bc
00000140: 4f33 56bb a55e 8e3a fec6 013b e373 873b
00000150: 38ae ac3b 9781 fe3b 5c02 033c 3899 4c3c
00000160: d8b4 4b3c d91c 853c 5ae2 303b b783 3e3c
00000170: f9fb 5e3c 30ef 0d3c d607 3d3c b38d 60bc
00000180: a057 28bc 90a5 78bc cdea c63b f1b1 fb3a
00000190: 8b34 b5bb 2491 7c3c 24ba 863c e750 b8bb
000001a0: 9ad0 dbbb 5a5b 0cbc ee3c 093c 93ac d23b
000001b0: de49 0abc b435 9bbc 0c6e 113b aa72 85bb
000001c0: c072 d5ba c04c ecbc 56a0 ecbc 8553 83bc
000001d0: 38f9 fbbc 641e 3bbb e2fc b5bc da06 d2ba
000001e0: 7f50 2239 c857 c6b8 c093 5a3b 660b d63a
000001f0: 3b75 943b 50b1 303c 1c8b ee3b e0fa 643c
00000200: 3112 583c 3863 9d3c e69f 183c 60e5 443c
00000210: 5d33 2c3c 0138 163c 794a 843c 24b1 3dbc
00000220: a20b 95bb 4891 76bc de46 b1ba 672e c6bb
00000230: 9a95 91bb 8b97 b53a 786b 1e3b a5db 2e3b
00000240: 96c5 ad3b 9028 0c3c 3d04 1f3c 979e 0e3c
00000250: 10df 5f3c 75da 5b3c e258 f13b 969d 5e3c
00000260: 6ee5 743c c23c 2b3c eacf 103c efea 58bc
00000270: 159c d8bb 753c 54bc f6f2 27bb 5d5b ad3b
00000280: b5fd 2dbb d08b 963a 0398 2e3b 243a 453b
00000290: 8478 5d3b 0539 123c f961 aa3b 95bf 363c
000002a0: 227c 503c ec53 423c 6e74 8f3b ce6e 803c
000002b0: a0f3 643c bd3d d63b f69e 873b 5eac 1ebc
000002c0: 0bf0 40bb f97d 80bc e1d7 bf39 af8d 8e3a
000002d0: f36f d8bb de1d 063b 3422 073b 36a5 b43b
000002e0: 8d6c 233c 2725 7a3c c7cd 563c a1d0 a73c
000002f0: 5fd0 a53c 7933 c23c a5c4 173c 27c2 683c
00000300: c446 893c b9b1 933c d745 c43c e1b5 83bc
00000310: 43e8 53bb d399 dfbc 47aa 173c ec96 bb3b
00000320: fd63 aabb 0016 3539 890a cd3a 7478 363b
00000330: a4f5 963b b169 cd3b 8b42 ea3b bb9c 343c
00000340: e74c 283c 61b4 713c cee7 9b3b 7747 353c
00000350: 12da 733c 6697 183c 7859 213c 498c 42bc
00000360: d7bc 6c3a 9856 56bc 01f6 563b 9a9e 283c
00000370: a31b 1fbc a8bd 6d3c 68b6 563c 0492 4fbb
00000380: b456 bebb 65ec edba a353 f93b 984c ec3a
00000390: b206 35ba 2cde 54bc fbca 893c 11bf 3dbc
000003a0: 71ae 23bc 1987 bcbc 7fe4 c1bc e77e 19bc
000003b0: 3316 a9bc 02b3 4e3a e421 94bc 1d13 b439
000003c0: 31d8 62bb d4a2 7eb9 92d9 863a 5aec 8e3b
000003d0: 059d c03b 27df b53b 570e b53b f0a6 f63b
000003e0: b240 253c 138a 293c bae4 183b 6f8a d53b
000003f0: 347e 0d3c 6ecd 003c 94dc 073c 7c05 d2bb
-0.004458736 0.009257507 0.016633438 0.0015051074 -0.008270871 -0.0048305932 0.011915579 -0.0042812065
-0.007092307 -0.01558806 0.00257839 -0.011266763 -0.012705901 -0.023832837 -0.02426119 -0.00033192622
-0.020768546 0.0041350843 -0.015808767 -0.0018848443 -0.003884769 -0.00049465435 0.0040373025 0.0058859074
0.0110474415 0.011579109 0.008028979 0.011329055 0.019253936 0.022593396 0.0058869207 0.014783397
0.018527938 0.01222211 0.020126376 -0.0149172405 0.0011519744 -0.017267097 0.009238953 0.01783388
-0.00578676 0.0094702495 0.015199217 0.0067381593 -0.00601709 -0.0066150734 0.01573202 0.0051056985
-0.0012767304 -0.019275194 0.0037841026 -0.0115575995 -0.016092788 -0.026460206 -0.02326543 -0.00502625
-0.021643896 -0.0040688184 -0.022107072 -0.0028281724 -0.0033075581 0.001432774 0.002913557 0.004595705
0.0046865414 0.005788481 0.0055932244 0.009529612 0.009385677 0.015195324 0.007864858 0.013289232
0.016178614 0.012762829 0.012033324 -0.006086842 -0.002948409 -0.010464068 0.00036115752 -0.00992662
-0.003268439 0.0010861947 0.0019802446 0.004133688 0.005269792 0.007766913 0.007996168 0.012487702
0.012433253 0.016249107 0.0026990385 0.011628083 0.01360988 0.008662984 0.011537513 -0.013705659
-0.010274798 -0.015176192 0.006070471 0.0019202811 -0.0055299453 0.015415464 0.01644618 -0.0056248787
-0.006708217 -0.008566702 0.008376343 0.006429264 -0.008440463 -0.018946506 0.0022190837 -0.004072507
-0.0016284809 -0.028845191 -0.028885048 -0.016031036 -0.030758485 -0.002855205 -0.02221531 -0.001602377
0.00015479511 -9.457726e-05 0.0033352226 0.0016330301 0.0045305765 0.010784462 0.0072797667 0.013975829
0.013187931 0.01921235 0.0093154665 0.012017578 0.010510293 0.009168626 0.016148793 -0.011577878
-0.004548506 -0.015049286 -0.0013525148 -0.006048012 -0.0044428827 0.0013854367 0.0024172943 0.0026681211
0.005303095 0.008554593 0.0097056 0.008704803 0.013664022 0.013418783 0.007365332 0.013587376
0.014947278 0.0104514975 0.008838633 -0.013239606 -0.0066104033 -0.012953867 -0.0025626994 0.0052904324
-0.0026548926 0.0011485759 0.00266409 0.003009447 0.0033793757 0.008924727 0.0051996675 0.011154075
0.012724908 0.011860829 0.004377893 0.015677836 0.0139741 0.0065381215 0.0041388227 -0.00968465
-0.0029439952 -0.015685068 0.000365912 0.0010875965 -0.0066051423 0.002046458 0.0020619752 0.0055128587
0.009974611 0.015267647 0.013110585 0.020485224 0.02024096 0.023706185 0.009263192 0.014206446
0.016757376 0.01802908 0.023959083 -0.016077938 -0.0032334484 -0.027295029 0.009256906 0.0057247784
-0.005199908 0.00017269701 0.0015643399 0.0027842792 0.0046069194 0.006268703 0.007149046 0.011023696
0.010272241 0.014752478 0.004757858 0.011064402 0.014883535 0.00931344 0.009847991 -0.011874267
0.0009030825 -0.013082169 0.0032800438 0.01029172 -0.009711179 0.01451055 0.0131050125 -0.0031672725
-0.0058086757 -0.0018152116 0.007608847 0.0018028198 -0.00069056 -0.012992423 0.016820421 -0.011581198
-0.009990321 -0.023013638 -0.023668526 -0.009368635 -0.020640468 0.00078849506 -0.018082567 0.00034346516
-0.0034613723 -0.00024283986 0.001028823 0.0043616714 0.005878093 0.0055502835 0.005525391 0.0075272247
0.010086225 0.010347861 0.002332969 0.0065167467 0.008636046 0.007861478 0.008292336 -0.006409345

feature_process_low.bias f4 [8]
00000000: f565 8d3c d14f 0e3e b3db 603d bf87 b4bb
00000010: d1b5 203c 037f f93a e069 de39 552e c9ba
0.017260531 0.13897635 0.05489702 -0.0055093463 0.009808973 0.0019035045 0.00042422023 -0.0015348891

feature_process_high.weight f4 [32, 8]
00000000: 5692 24bc e99c 1d3d f4d7 053d c0c5 a2b9
00000010: 5b84 c7bb 2112 30b8 8ceb 04bb 7772 643a
00000020: a2f5 493d 8912 50be eb13 f7bd cb54 2739
00000030: 5e15 6fbc d367 a2b9 713d bc3b 1e8f a5bb
00000040: b626 4ebd 49b1 4abd 371b 8d3d 2291 333c
00000050: 3601 9dbc 5263 b93b 69b6 4e38 52fd 583c
00000060: 5d5c d43b a09c c0bb 90ea 72bb 875e 27bb
00000070: 8a4e b1bb 21d7 39b9 d4e9 b1bb 1012 d3ba
00000080: a7c6 8c3b 2b13 89bb fb03 17ba 4338 ccba
00000090: 437e a3bb b1ea 1039 2b7c 6cbb c311 8dba
000000a0: 7f33 61bb 7b07 b63b aa91 5c3c d044 7cb9
000000b0: fae7 81bb d450 a438 b185 ae39 f06e 9f39
000000c0: 3c78 68bb 9161 8a3b 9a42 5a3c 5b4d 0e38
000000d0: a71e 67bb ae74 3239 411b 973a 8427 013a
000000e0: 5738 bc3a a55b 41bb 276a 583b 826b bab9
000000f0: 56ea 71bb 9003 1839 79e6 2cb9 1ea1 84b9
00000100: b5c8 e7bb 25c7 9a3c f1c4 af3c fa57 7ab9
00000110: a720 c8bb 82f1 a4b8 d731 9eba 0ee1 2e3a
00000120: 9dea a1bc d15c 623b 8b0a eb3c 620b 043c
00000130: a153 2e3b 859c a03a 6fec 8f3c 9441 bd3b
00000140: dd61 4dbc 94d1 4a3d ad20 1d3d c63e 49b9
00000150: 8d78 c5bb 9052 4ab7 6f38 a1ba 311b 9a3a
00000160: 1f47 bb3b 599a d0bc b7ce 563d de77 c2ba
00000170: c74d 8d3d 273f 05bb 42fc d83a 995f 503a
00000180: 9247 823d 3e73 fcbd 2671 48be 8166 2239
00000190: 363a 33be 07de 5a3a 8809 74ba 8614 11bc
000001a0: 219f 58bb fe53 873b 3da7 443c 2eb1 4138
000001b0: dcab 84bb 1151 3239 e953 993a 17ae e839
000001c0: e3ca aabc 28c6 ba3d 5a46 803d 6d8a 7239
000001d0: ceb1 fabb 4031 5938 dcd0 1cbb 3d3f 263b
000001e0: 747e ce3b 4d79 aabb 644e ffba ebba 78bb
000001f0: a9dd c4bb 43fd e6b9 5c52 b2bb f477 0abb
00000200: 1b10 b6bc c5ec bb3d cafb 863d 792d 5238
00000210: b617 d2bb 55cc 5a38 1061 3bbb a37d 353b
00000220: 6fae 92ba 7005 883b b4fe fe3b 03e4 abb9
00000230: 5b57 c5bb 8fcc 6d38 3fbe daba 188c 91b8
00000240: 247f ac3d 32a5 8e3e fbb4 a2bd 6183 6a39
00000250: acce 06bc 70b8 323b c7f2 b7bb b6cc 3dbc
00000260: 512f 46bb 23b2 6c3b aca3 4c3c 930b 2338
00000270: a910 73bb e44a 1839 920d 993a c419 eb39
00000280: 4da4 1aba 2e9a 433b c7be cb3b 359e d3b9
00000290: f44d e1bb 9d12 b338 b778 44ba 6e9f a6b8
000002a0: 8194 6f3b 9d54 17bb 1026 cb3a 8363 b8ba
000002b0: 0ae6 b9bb e637 3638 02d1 2abb 4dab 60ba
000002c0: fa80 333b 2a70 12bb 154f 023b c4b3 86ba
000002d0: b4df abbb 5c5b c5b7 6488 00bb 6f7d 35ba
000002e0: 6ed2 243c 9597 1abc 4801 25bc 0c4a 8cbb
000002f0: 2d2b f4bb 3c33 aab9 1eaa 29bc cee6 3bbb
00000300: dbc1 c1bb e1fe 633c 5db7 9a3c a3a6 8aba
00000310: f8f7 76bb 9ccb edb8 5c0e 93ba cd9a 5d39
00000320: b5e9 1f3d 8f02 0bbe 3229 363d ff63 eb3a
00000330: f4cb bf3e 54c5 b33a 7ac7 67ba 4920 bfbb
00000340: bd04 c43b b45c 8abb f3af 1fbb 07ae 08bb
00000350: 36bf c8bb 2d33 48b9 a422 b0bb 0f3a d4ba
00000360: d586 393a 2c4a 1fbb c310 9d3b f329 d538
00000370: e834 66bb 0abf 8639 fdd9 7f3a a76f 3fb7
00000380: bd76 833b 24ce 6cbb 5f5a 00ba 60a5 aeba
00000390: d595 b3bb 5eff 8fb8 4446 62bb 0baf 86ba
000003a0: cfca e5bb 6721 823b fe88 a43c 073d c439
000003b0: 0066 bb38 419a 5939 411a 363b b326 7d3a
000003c0: 1ce0 f33a 46ea 3dbb c0b6 123b 393a e4b9
000003d0: a3b4 88bb 7135 0c39 4a74 22b9 e8ed 73b9
000003e0: 68d4 e7bb cbc7 e83b cfa8 c23c 7b9b 06ba
000003f0: 4c30 c53a 01dc b338 3cd9 973a 52e2 713a
-0.010044655 0.03847972 0.032676652 -0.00031046383 -0.006088776 -4.1978554e-05 -0.0020281998 0.00087145664
0.04930652 -0.2031957 -0.12064346 0.00015957949 -0.014592497 -0.00030976403 0.005744629 -0.0050524613
-0.050329886 -0.04948548 0.068899564 0.010959895 -0.019165616 0.005657592 4.928411e-05 0.01324399
0.006480737 -0.005878046 -0.003706608 -0.002553852 -0.005410974 -0.00017723117 -0.005429486 -0.0016103406
0.004296142 -0.004183193 -0.0005760786 -0.0015580732 -0.004989417 0.0001382034 -0.0036084752 -0.001076274
-0.003436297 0.005555091 0.013462463 -0.00024058227 -0.0039644213 7.835185e-05 0.00033287474 0.00030409498
-0.0035472056 0.0042230566 0.013321543 3.392748e-05 -0.0035266073 0.0001701887 0.0011528508 0.0004926848
0.0014360052 -0.0029504087 0.0033022256 -0.00035556784 -0.0036913357 0.00014497177 -0.00016489056 -0.00025297044
-0.0070734867 0.018893788 0.021456214 -0.00023874632 -0.006107408 -7.865114e-05 -0.0012069297 0.0006671109
-0.019765193 0.0034540186 0.02869155 0.0080593545 0.002660014 0.0012253678 0.017568795 0.00577564
-0.012535539 0.049516276 0.03836124 -0.00019192239 -0.0060263337 -1.2059361e-05 -0.0012300144 0.0011757371
0.0057152654 -0.025464224 0.052443232 -0.0014836749 0.068996005 -0.0020331831 0.0016554671 0.00079488155
0.06361307 -0.12326668 -0.19574413 0.0001548771 -0.17502674 0.00083491247 -0.00093092816 -0.008854991
-0.0033053833 0.0041298857 0.012002763 4.6179797e-05 -0.0040488075 0.00017005602 0.0011697981 0.00044380195
-0.020848697 0.091198266 0.062634185 0.00023130486 -0.0076505905 5.17827e-05 -0.00239282 0.0025367283
0.0063016955 -0.0052024485 -0.0019478318 -0.0037953209 -0.0060078693 -0.00044057713 -0.005441947 -0.0021128627
-0.022224477 0.091760196 0.06590994 5.011025e-05 -0.006411518 5.216555e-05 -0.002859179 0.0027693294
-0.0011190901 0.004151039 0.007781828 -0.00032785544 -0.0060223765 5.6695713e-05 -0.0016688778 -6.940233e-05
0.08422688 0.2786041 -0.079446755 0.00022364921 -0.008227985 0.0027270578 -0.005613658 -0.011584451
-0.0030240605 0.003611692 0.012490194 3.8873008e-05 -0.0037088788 0.00014523749 0.0011677018 0.0004484189
-0.00058991165 0.0029846537 0.006217811 -0.0004036293 -0.006875748 8.538852e-05 -0.00074947946 -7.945193e-05
0.003655702 -0.0023091205 0.0015499014 -0.0014067743 -0.0056731747 4.344424e-05 -0.002606452 -0.00085704477
0.0027390108 -0.0022344687 0.0019883562 -0.0010276963 -0.0052451733 -2.3526773e-05 -0.0019612545 -0.0006923293
0.010059936 -0.009435554 -0.010071106 -0.004281288 -0.007451436 -0.000324631 -0.0103555005 -0.0028671506
-0.005913002 0.013915748 0.018886263 -0.0010578226 -0.0037684422 -0.00011338966 -0.0011219489 0.0002113387
0.03904124 -0.13575195 0.04447288 0.0017958878 0.3746029 0.0013715425 -0.0008841675 -0.005832706
0.00598201 -0.004222477 -0.0024366349 -0.0020855682 -0.0061263097 -0.00019092551 -0.0053752232 -0.0016191619
0.00070772815 -0.0024305684 0.004793258 0.00010164445 -0.003512675 0.00025700807 0.0009759961 -1.1410483e-05
0.0040119574 -0.0036133612 -0.0004896279 -0.0013324432 -0.005480508 -6.866337e-05 -0.0034526745 -0.0010275556
-0.007012702 0.003971267 0.020084854 0.00037429502 8.935854e-05 0.00020752197 0.0027786645 0.0009656951
0.0018606219 -0.002897875 0.002238676 -0.00043530928 -0.004171924 0.00013371349 -0.00015492845 -0.00023262913
-0.0070748813 0.0071038953 0.023762135 -0.0005134863 0.0015044301 8.576364e-05 0.0011585127 0.0009227145

feature_process_high.bias f4 [32]
00000000: 55ce 153d 35a6 4abc 7dd0 513d 89cc e33c
00000010: 9432 ea3c 08f9 ff3c f24f fd3c 4070 f13c
00000020: ff06 093d e87e dc3c f4c3 1b3d dc7e 2b3d
00000030: 8180 5a3d aa38 fc3c 155c 363d 8bd3 f43c
00000040: 59a2 393d 21d1 fd3c e890 843d 2e3b fc3c
00000050: 1735 fa3c f475 f13c d9f9 f13c 673c e33c
00000060: f15a 073d ce0b bb3c 5c8c eb3c feb5 f33c
00000070: 7843 ed3c 7a28 003d a308 f03c f392 043d
0.036573727 -0.012368728 0.05122422 0.02780749 0.02858857 0.031246677 0.03092191 0.02947247
0.033453938 0.026915982 0.038028672 0.04186903 0.053345207 0.030788738 0.04452141 0.029886028
0.045320842 0.03098351 0.06472951 0.030789938 0.030542893 0.02947519 0.029538082 0.027738763
0.033045713 0.022832777 0.028753452 0.029749867 0.028962836 0.0312886 0.029300993 0.032366704

feature_norm.weight f4 [32]
00000000: 620f 4630 9163 c03d 15e5 203e 37ad 3329
00000010: fe47 c331 78ce cd28 95dd 7232 87b3 b12a
00000020: f77d 6c38 8fd7 593a f427 08b6 755a c03d
00000030: 7f4f 8f3e 0911 b32c 50e5 0d39 9f4a 3a2d
00000040: 50e1 2139 f52b ca2f 1846 2e3e 42b9 cc2c
00000050: c689 bb2f 513c b931 4e08 9e2b 8200 7935
00000060: 9355 66ac a269 a63e 727d 6f2e 02d6 7136
00000070: 1d9e de2d 54e8 5bad cf1b ae32 8d11 3fbb
7.205384e-10 0.09393991 0.15712388 3.9896224e-14 5.6834315e-09 2.2849114e-14 1.4136636e-08 3.1566088e-13
5.63841e-05 0.0008310014 -2.0288835e-06 0.09392253 0.27990338 5.0893773e-12 0.00013532233 1.0589445e-11
0.00015438092 3.677482e-10 0.17018926 5.8185965e-12 3.4112996e-10 5.391066e-09 1.122888e-12 9.276047e-07
-3.273247e-12 0.32502466 5.4453726e-11 3.6036367e-06 2.5308694e-11 -1.2500296e-11 2.0268912e-08 -0.0029154748

feature_norm.bias f4 [32]
00000000: 0d61 ffaf 8b6b 26b9 41a7 6ebd 57b6 8faa
00000010: bc0f a2b3 ad0a eaaa e6cc 5433 29d2 5629
00000020: 84f7 12b8 13d9 adbb bc94 17b8 f5f0 1bbd
00000030: b3bd 1bbe d1ba 5fad de33 72b9 afce bb2d
00000040: b58e ecb8 676d efaf 1ef3 dbbc 6a67 b8ad
00000050: a32f 98ae 436f 74b2 392a 01ab 6d73 fb35
00000060: 7b1f 8dab 87a1 f93c 342e 052f fc74 afb7
00000070: 613f bfae 885d c02e af19 82b3 e8be 8dbc
-4.6453189e-10 -0.00015871057 -0.058264975 -2.5528426e-13 -7.546575e-08 -4.1574158e-13 4.954645e-08 4.769983e-14
-3.503963e-05 -0.0053054183 -3.6139725e-05 -0.03807159 -0.15209083 -1.2717564e-11 -0.0002309824 2.1351225e-11
-0.00011279938 -4.3551582e-10 -0.026849326 -2.0964303e-11 -6.920622e-11 -1.4227967e-08 -4.58886e-13 1.8734551e-06
-1.002739e-12 0.03047253 1.2112694e-10 -2.09161e-05 -8.696933e-11 8.7477636e-11 -6.0582686e-08 -0.017302945

graph_attention.adj_matrix f4 [49, 49]
00000000: 0000 803f 0000 0000 0000 0000 0000 0000
00000010: 0000 0000 0000 0000 0000 0000 0000 0000
00000020: 0000 803f 0000 0000 0000 0000 0000 0000
00000030: 0000 0000 0000 0000 0000 0000 0000 0000
00000040: 0000 0000 0000 0000 0000 0000 0000 0000
00000050: 0000 0000 0000 0000 0000 803f 0000 0000
00000060: 0000 0000 0000 0000 0000 0000 0000 0000
00000070: 0000 0000 0000 0000 0000 0000 0000 0000
00000080: 0000 0000 0000 0000 0000 0000 0000 0000
00000090: 0000 0000 0000 0000 0000 0000 0000 0000
000000a0: 0000 803f 0000 0000 0000 0000 0000 0000
000000b0: 0000 0000 0000 0000 0000 0000 0000 0000
000000c0: 0000 0000 0000 0000 0000 803f 0000 0000
000000d0: 0000 0000 0000 0000 0000 0000 0000 0000
000000e0: 0000 0000 0000 0000 0000 0000 0000 0000
000000f0: 0000 0000 0000 0000 0000 0000 0000 0000
00000100: 0000 0000 0000 0000 0000 0000 0000 0000
00000110: 0000 0000 0000 0000 0000 0000 0000 0000
00000120: 0000 0000 0000 0000 0000 0000 0000 0000
00000130: 0000 0000 0000 0000 0000 0000 0000 0000
00000140: 0000 0000 0000 0000 0000 0000 0000 0000
00000150: 0000 0000 0000 0000 0000 0000 0000 0000
00000160: 0000 0000 0000 0000 0000 0000 0000 0000
00000170: 0000 0000 0000 0000 0000 0000 0000 0000
00000180: 0000 0000 0000 0000 0000 0000 0000 0000
00000190: 0000 803f 0000 0000 0000 803f 0000 0000
000001a0: 0000 0000 0000 0000 0000 0000 0000 0000
000001b0: 0000 0000 0000 0000 0000 0000 0000 0000
000001c0: 0000 0000 0000 0000 0000 0000 0000 0000
000001d0: 0000 0000 0000 0000 0000 0000 0000 0000
000001e0: 0000 0000 0000 0000 0000 0000 0000 0000
000001f0: 0000 803f 0000 0000 0000 0000 0000 803f
00000200: 0000 0000 0000 0000 0000 0000 0000 0000
00000210: 0000 0000 0000 0000 0000 0000 0000 0000
00000220: 0000 0000 0000 0000 0000 0000 0000 0000
00000230: 0000 803f 0000 0000 0000 0000 0000 0000
00000240: 0000 0000 0000 0000 0000 0000 0000 0000
00000250: 0000 0000 0000 0000 0000 803f 0000 0000
00000260: 0000 0000 0000 0000 0000 0000 0000 0000
00000270: 0000 0000 0000 0000 0000 0000 0000 0000
00000280: 0000 0000 0000 0000 0000 0000 0000 803f
00000290: 0000 0000 0000 0000 0000 0000 0000 0000
000002a0: 0000 0000 0000 803f 0000 803f 0000 0000
000002b0: 0000 0000 0000 0000 0000 0000 0000 0000
000002c0: 0000 0000 0000 0000 0000 0000 0000 0000
000002d0: 0000 0000 0000 803f 0000 0000 0000 0000
000002e0: 0000 0000 0000 0000 0000 0000 0000 803f
000002f0: 0000 803f 0000 0000 0000 0000 0000 0000
00000300: 0000 0000 0000 0000 0000 0000 0000 0000
00000310: 0000 0000 0000 0000 0000 803f 0000 0000
00000320: 0000 803f 0000 0000 0000 0000 0000 0000
00000330: 0000 0000 0000 0000 0000 0000 0000 0000
00000340: 0000 0000 0000 0000 0000 0000 0000 0000
00000350: 0000 0000 0000 0000 0000 0000 0000 0000
00000360: 0000 0000 0000 0000 0000 0000 0000 0000
00000370: 0000 0000 0000 0000 0000 803f 0000 0000
00000380: 0000 0000 0000 0000 0000 0000 0000 0000
00000390: 0000 0000 0000 0000 0000 0000 0000 803f
000003a0: 0000 0000 0000 0000 0000 0000 0000 0000
000003b0: 0000 0000 0000 0000 0000 0000 0000 0000
000003c0: 0000 0000 0000 0000 0000 0000 0000 0000
000003d0: 0000 0000 0000 0000 0000 0000 0000 0000
000003e0: 0000 0000 0000 0000 0000 803f 0000 0000
000003f0: 0000 0000 0000 0000 0000 0000 0000 0000
1.0 0.0 0.0 0.0 0.0 0.0 0.0 0.0
1.0 0.0 0.0 0.0 0.0 0.0 0.0 0.0
0.0 0.0 0.0 0.0 0.0 0.0 1.0 0.0
0.0 0.0 0.0 0.0 0.0 0.0 0.0 0.0
0.0 0.0 0.0 0.0 0.0 0.0 0.0 0.0
1.0 0.0 0.0 0.0 0.0 0.0 0.0 0.0
0.0 0.0 1.0 0.0 0.0 0.0 0.0 0.0
0.0 0.0 0.0 0.0 0.0 0.0 0.0 0.0
0.0 0.0 0.0 0.0 0.0 0.0 0.0 0.0
0.0 0.0 0.0 0.0 0.0 0.0 0.0 0.0
0.0 0.0 0.0 0.0 0.0 0.0 0.0 0.0
0.0 0.0 0.0 0.0 0.0 0.0 0.0 0.0
0.0 0.0 0.0 0.0 1.0 0.0 1.0 0.0
0.0 0.0 0.0 0.0 0.0 0.0 0.0 0.0
0.0 0.0 0.0 0.0 0.0 0.0 0.0 0.0
0.0 0.0 0.0 0.0 1.0 0.0 0.0 1.0
0.0 0.0 0.0 0.0 0.0 0.0 0.0 0.0
0.0 0.0 0.0 0.0 1.0 0.0 0.0 0.0
0.0 0.0 0.0 0.0 0.0 0.0 1.0 0.0
0.0 0.0 0.0 0.0 0.0 0.0 0.0 0.0
0.0 0.0 0.0 1.0 0.0 0.0 0.0 0.0
0.0 1.0 1.0 0.0 0.0 0.0 0.0 0.0
0.0 0.0 0.0 0.0 0.0 1.0 0.0 0.0
0.0 0.0 0.0 1.0 1.0 0.0 0.0 0.0
0.0 0.0 0.0 0.0 0.0 0.0 1.0 0.0
1.0 0.0 0.0 0.0 0.0 0.0 0.0 0.0
0.0 0.0 0.0 0.0 0.0 0.0 0.0 0.0
0.0 0.0 0.0 0.0 0.0 0.0 1.0 0.0
0.0 0.0 0.0 0.0 0.0 0.0 0.0 1.0
0.0 0.0 0.0 0.0 0.0 0.0 0.0 0.0
0.0 0.0 0.0 0.0 0.0 0.0 0.0 0.0
0.0 0.0 1.0 0.0 0.0 0.0 0.0 0.0

graph_attention.linear1.weight f4 [32, 32]
00000000: 9d0b bc99 66be 43b3 c14c 03ba 9277 729a
00000010: 14ba 4d1d 6494 699c cc0c 8b9a a9ed 921a
00000020: e4c6 dea2 c1f2 801f 12b3 18a3 735b 7db3
00000030: 045d bab7 412d b299 bbeb 7821 94a0 4b9b
00000040: 097a 7eaa f8ec a998 d894 9538 71ab f41a
00000050: 92ce ac1c b79a 3a9b 52a7 ca9b 70d2 0a1c
00000060: e08a 7318 2983 d3b6 897d 179a 8356 fa9d
00000070: 5b38 2b97 9fcc c899 49a2 5c1a e907 129b
00000080: 596c 5013 396e ce27 4f63 0eaf 59c2 7f97
00000090: 08a8 511d 4c84 3816 2cb1 2c1d 9165 229b
000000a0: 65bf 611e 1e53 9926 fd2e bcae 2567 0da8
000000b0: 2d03 a92b 4791 a217 3ec7 8499 52c5 8d19
000000c0: 3fc6 cb1f b4a3 4f94 21f3 ed28 60f3 4f17
000000d0: afdd d017 1787 271c bc68 9898 f3c1 941c
000000e0: cfec 4718 3e71 0faa 3e4a 079a e74b 8020
000000f0: 809b 1419 4202 b918 2207 0f9e 05c9 e026
00000100: 8c03 9493 4df6 23aa 5526 8e31 2493 5f98
00000110: fb6c 4da1 3c47 a097 c77e fca1 db6c 8814
00000120: a551 4693 70d5 7028 8595 42b3 c5c9 212b
00000130: 048c ec2d 1e69 441b 2b81 199b a2dd 089c
00000140: d3de 3623 7c9f 460d d362 6cae 7bb4 d69a
00000150: fbc8 c78c f55e 16a1 2eb6 9396 8122 81a5
00000160: 30f0 8197 66ef 152c b4e7 1d9e 5cff 3724
00000170: 5807 269d c230 939d 7dd7 c79e 47d1 fe28
00000180: 6a04 06ac 625f 8b3b e283 433b fe17 0526
00000190: 1f0f 4332 8433 b2a8 3a31 20b1 058c 6829
000001a0: 3ec4 a834 84d5 423a 6e7e 84b6 59a4 103c
000001b0: 71b5 04bd d0eb c52c 4a93 05b5 a28d bda8
000001c0: a22e d1b7 2a57 12a3 4cce bc3b e3f3 2e2c
000001d0: 958f 2926 9fe4 e131 afc6 b6a8 955d e6b3
000001e0: 97dd b228 426f bf3d f28e 67ab a9cd 8935
000001f0: 4caa 25ac 236a b0ab 4fe6 2e30 3422 523b
00000200: 55de 3121 2c74 72bd fe4f a93c 1f97 8aa8
00000210: 07e2 46b2 85d8 472a 5c9c b031 4efd ec29
00000220: e1ed 1531 c061 6cba c4a5 0537 6b8c f8ba
00000230: 32eb c13d bf72 772d ccf0 1d32 7f1d 9dab
00000240: ba07 8436 0078 691f b603 5cbc 09c3 3aac
00000250: 5122 31a8 e7fb 2e30 de7b a9aa 7ea3 1835
00000260: 22ca 8e29 7906 cfbd 79c8 b02d bc6d 87b6
00000270: 8a02 96ad 93af 092d 8733 2fb1 b061 cdbb
00000280: fc27 87a3 220b e4bc fc29 f03b 72c8 0927
00000290: fa7c 1630 dfcf 3ea9 bbcf 0ab1 2b11 04a9
000002a0: 7a29 7b32 0409 bdba f907 8337 d312 3e3b
000002b0: f49b f0bb dea0 7cac 8be3 7db2 6fd4 deac
000002c0: 4358 a0b6 7a84 22a0 1148 763c f0ba 202b
000002d0: bc2c 5626 97c2 9b30 d64f 71a9 d29f 48b4
000002e0: 239a fa26 0479 b83c 5f28 fe2a 2119 2032
000002f0: 49da 9aad 647d e7ac 0bfb 3bb0 f57d 743a
00000300: d2d4 e60b 9caf 5cb3 e228 a4b3 8efa 4e1a
00000310: e9cb 2b21 dcfd 8d1f b86e 0a23 426b 971c
00000320: 44fc e123 6ca8 7830 f4e0 ef20 ab16 82b2
00000330: 5d24 f0b4 4ffd 66a4 fdd2 bf9e 20d2 501e
00000340: 1b33 8eae 1172 b48c 6785 d2b4 61fe 941f
00000350: c51a 849e 867a 3925 f3f2 a31f 03dc 8b27
00000360: c56e af1f 3148 61b4 673b 9b22 6e40 a8aa
00000370: 6707 3624 1e1f 2f9e 0080 21a9 d1d5 9527
00000380: 75cd 120c 33fe 093d e250 ab3a 73c7 3e25
00000390: 5b70 4a31 471d 4825 9920 67b2 c037 8627
000003a0: ac7d 0628 8ef0 4e36 75dc cda8 d4ac 0b3a
000003b0: 1fe1 a23c bcc8 4aa7 bf88 7491 f014 f1aa
000003c0: 783a b7b6 3d4e 4397 c40c 8dbc db2b b029
000003d0: 395c 1e20 6275 4a2c b908 12a6 218c aeb3
000003e0: 6555 9528 93c1 04bb bfcc 92ad a7a9 a134
000003f0: 9b16 d22c 8ae0 01ae cc99 23ab ad9d a3b2
-1.9443435e-23 -4.5575142e-08 -0.00050086906 -5.0141015e-23 2.7227724e-21 -7.7285023e-22 -5.750973e-23 6.0768145e-23
-6.0383804e-18 5.461171e-20 -8.277856e-18 -5.8989325e-08 -2.2216242e-05 -1.8423047e-23 8.4337655e-19 -1.6843652e-22
-2.2602071e-13 -4.3924753e-24 7.132598e-05 1.01193013e-22 1.1435402e-21 -1.543555e-22 -3.3526225e-22 4.5932354e-22
3.1477128e-24 -6.303559e-06 -3.1327475e-23 -6.62639e-21 -5.532421e-25 -2.0762161e-23 4.5626027e-23 -1.2079393e-22
2.630671e-27 5.729599e-15 -1.2950106e-10 -8.2640245e-25 2.774779e-21 1.4905147e-25 2.2855606e-21 -1.3433144e-22
1.195098e-20 1.0639037e-15 -8.557597e-11 -7.849438e-15 1.2009054e-12 1.0505678e-24 -1.3728953e-23 1.4658755e-23
8.6301815e-20 -1.0483114e-26 2.6417726e-14 6.719249e-25 1.3497646e-24 5.5430264e-22 -3.9396834e-24 9.843953e-22
2.5839705e-24 -1.274024e-13 -2.7977318e-23 2.1734271e-19 7.682824e-24 4.782366e-24 -7.571832e-21 1.5597609e-15
-3.736395e-27 -1.4562761e-13 4.1371018e-09 -2.8896362e-24 -6.9600936e-19 -1.035774e-24 -1.7109742e-18 1.3775427e-26
-2.5031367e-27 1.3368958e-14 -4.5305132e-08 5.74787e-13 2.6892273e-11 1.6246705e-22 -1.26976e-22 -4.528508e-22
9.913425e-18 6.1205433e-31 -5.374796e-11 -8.879991e-23 -3.0781765e-31 -5.094765e-19 -2.3864102e-25 -2.2401314e-16
-8.397061e-25 2.1307066e-12 -8.359426e-21 3.9898097e-17 -2.1973714e-21 -3.896099e-21 -2.1159068e-20 2.8290424e-14
-1.9044996e-12 0.004253314 0.0029833247 4.617616e-16 1.1353932e-08 -1.9784311e-14 -2.3311046e-09 5.1635796e-14
3.1435223e-07 0.0007432329 -3.948625e-06 0.008828246 -0.0323996 5.625257e-12 -4.9760695e-07 -2.1044639e-14
-2.4936457e-05 -7.9331336e-18 0.005761897 2.4862272e-12 5.8828243e-16 6.574353e-09 -2.0292224e-14 -1.0727232e-07
1.9858069e-14 0.093473926 -8.226606e-13 1.026715e-06 -2.3542444e-12 -1.2535011e-12 6.362812e-10 0.0032063844
6.0264187e-19 -0.05919282 0.020668026 -1.5386616e-14 -1.15765095e-08 1.7749871e-13 5.14005e-09 1.0524447e-13
2.1817572e-09 -0.00090172514 7.966013e-06 -0.0018962746 0.09468688 1.4065803e-11 9.193354e-09 -1.1163708e-12
3.934806e-06 4.943893e-20 -0.013428619 -2.6540456e-12 -9.832915e-15 6.3658806e-10 -3.010638e-13 5.6862325e-07
6.341131e-14 -0.101086564 2.0097911e-11 -4.0360883e-06 -1.7054153e-11 7.826534e-12 -2.5495142e-09 -0.006267749
-1.4653663e-17 -0.02783734 0.0073292237 1.912123e-15 5.4747284e-10 -4.2368774e-14 -2.0199724e-09 -2.932478e-14
1.4619554e-08 -0.0014422243 1.562013e-05 0.002900292 -0.00734281 -3.5900653e-12 -1.47782755e-08 -6.3332044e-12
-4.7786466e-06 -1.3765767e-19 0.01503183 5.7102847e-13 7.430679e-16 1.133304e-09 -5.3581996e-14 -1.8684594e-07
1.7389014e-15 0.022518642 4.5147477e-13 9.318939e-09 -1.7604711e-11 -6.579336e-12 -6.8386957e-10 0.00093266304
8.8912994e-32 -5.1382457e-08 -7.644282e-08 4.2802198e-23 5.8206926e-19 6.01358e-20 7.504441e-18 1.0020067e-21
2.4501388e-17 9.0461216e-10 4.0637036e-19 -1.51443e-08 -4.472994e-07 -5.008786e-17 -2.0310174e-20 1.1054881e-20
-6.4664905e-11 -2.7802042e-31 -3.921261e-07 6.310127e-20 -1.3987115e-20 1.6087705e-16 6.943511e-20 3.8818787e-15
7.4298636e-20 -2.0981021e-07 4.207573e-18 -2.9887502e-13 3.947123e-17 -9.270858e-21 -3.5860204e-14 4.1587628e-15
1.1309258e-31 0.03368969 0.001307037 1.6547449e-16 2.9458735e-09 1.7357154e-16 -1.34533815e-08 3.7252916e-15
7.465745e-15 3.0836413e-06 -2.285518e-14 0.00053281826 0.019882737 -2.814195e-15 -1.9290344e-28 -4.2824728e-13
-5.4606317e-06 -6.310665e-25 -0.017218001 7.823578e-14 1.3413634e-19 2.8771087e-12 -5.0665747e-16 -8.127996e-08
1.6579357e-14 -0.002025698 -1.6689204e-11 3.0112025e-07 5.9710687e-12 -2.9530635e-11 -5.812267e-13 -1.90474e-08

graph_attention.linear1.bias f4 [32]
00000000: 6567 ceba f969 8c29 7210 87b0 f0af 943c
00000010: 5201 45bc 0d46 9f3c 4073 b7b5 f9a2 143c
00000020: c7ea 393c d549 ba3c 8016 79b4 e4dc e93c
00000030: 380a a5a3 8161 36bc b4f2 183d 7f2f b73c
00000040: c59a 45b7 fd24 b43c 9af8 20bc 0fe4 cb3c
00000050: 28d7 e53c d77d e03c 8759 45bc 19cb cfba
00000060: a17e 07bd 461b c83c 0a9a cc3c d763 67bc
00000070: b360 4b3b e071 bea7 0bf8 223c 9e8f 68ad
-0.0015747367 6.235632e-14 -9.827217e-10 0.0181503 -0.012024241 0.019442583 -1.3668105e-06 0.009072059
0.011347479 0.022740284 -2.3198118e-07 0.028547712 -1.7893664e-17 -0.011131645 0.037340835 0.022361515
-1.177815e-05 0.021990294 -0.009824896 0.02488902 0.028056696 0.027403755 -0.012045271 -0.0015853374
-0.033079747 0.024427067 0.024975795 -0.014122925 0.003103298 -5.2859057e-15 0.009946833 -1.3219563e-11

graph_attention.linear2.weight f4 [32, 32]
00000000: cbda f41e 86c1 a2a7 f096 1c2c 24cb ffba
00000010: 365f 693b 2964 e1ba 3b56 9c31 c3ec 93ba
00000020: c2fb 01bb 960d 8b3b c4fc 3814 be73 96b9
00000030: d4e9 0721 593e 6e3b d1a2 02bb c222 44bb
00000040: 4d3d c996 a3d1 b23b bc47 463a 535f 9d3a
00000050: 1c54 0bba cc9e aebb bd89 ff3b 2c9b 811b
00000060: a2a9 e42c 651e 1c3c de1f 44ba 3f6c 843a
00000070: eee2 a43a 75a9 71a5 8c3c 8539 c287 c2aa
00000080: bc27 70a0 f96a 94a7 b9c6 712c 3351 8239
00000090: 8c79 063b 7685 21bb 2292 5331 a2de 8fba
000000a0: 105f 3ebb 3d9a e43b 9dd5 d993 4343 d2b9
000000b0: be73 e320 a273 553b 351a 80bb bc91 91ba
000000c0: 8ba2 0d96 421e bc3b 61b2 0a3b 702b f93a
000000d0: 0b32 e6b9 ea6f 7cbb 3991 0f3c 1cbf 7b9c
000000e0: 3bc3 392d 3e9a 3e3c 003a 633a 4791 3b3b
000000f0: 7231 813a 4512 8da5 1491 e23a 672c 77ab
00000100: cdec 3ea1 ceae 3fa7 8d02 002c 3dd4 f2ba
00000110: 8a40 4a3b 8774 b1ba 1838 ae31 f6a8 91ba
00000120: 1d9d e7ba afee 863b 97b6 3394 ff12 05ba
00000130: dafd c120 5643 703b 6ead 02bb 06f9 4bbb
00000140: b4ce 9e16 46da a33b d400 3e3a 1a54 693a
00000150: ef57 05ba b9f2 aebb 7228 fe3b 502d 5e9d
00000160: 534d d62c 38ba 253c 032d 27ba a3ae a03a
00000170: e46c b93a 0452 89a5 a842 dc38 5e62 15ab
00000180: ca16 3a21 b5fc 5ea7 1d05 442c fb45 9aba
00000190: 86d9 ca3a 24c2 d6ba 42b2 ba31 5c74 a7ba
000001a0: d141 43bb 06c2 b03b b321 ca91 2a07 8939
000001b0: 4017 37a1 8224 593b fe50 4cbb 4135 eaba
000001c0: a55f 8c96 6e30 c63b 9064 ed3a e1d8 023b
000001d0: bbb9 c5b9 2b08 86bb 78d2 083c 01b4 c31a
000001e0: 085e a82b e4e6 333c 82d3 f2b9 d596 ee3a
000001f0: 5531 0139 48e1 0025 aa14 8b3a d72d 39ab
00000200: eded b521 3d10 e525 8165 8aa8 4e1c fdbb
00000210: bbd2 a83b d1fb 8c3b 000d 0831 a03a dfb9
00000220: 3a2c 533b 6967 87bb a529 b91e 0a35 8eba
00000230: 1fdc 3221 08e2 293b 9b53 6a3b d8c7 cebb
00000240: e928 5099 07a5 fa3a 74db 8939 d196 b0ba
00000250: b5d7 ffba 49c8 e4bb 153f 123b 30f7 ef27
00000260: 3f85 e92b 50a3 703b 84be a7bb 3092 6f3b
00000270: 745d 763b 2441 0225 f294 cdbb 4e18 6daa
00000280: b706 8f20 1bef a7a7 5afa 3a2c c7eb c2ba
00000290: 7120 fa3a 687a f7ba ba56 b8b0 47e5 aaba
000002a0: 5587 25bb 8c23 983b 5011 d313 b80e e8b8
000002b0: ae83 0521 411d 603b cf8c 35bb 4526 2bbb
000002c0: da3c ef96 43b1 aa3b 3e8d ec3a 1b43 ad3a
000002d0: c97e ccb9 cd2d a2bb bcea fd3b c2b6 971b
000002e0: fae3 ce2c dc91 3a3c 3244 28ba ca59 da3a
000002f0: e3a3 793a 2939 df24 8ce0 2f3a 5ce0 47ab
00000300: c7e3 819f 2f9a 95a7 838c 002c abd0 09bb
00000310: 50eb 5b3b 24eb 7dba a224 8f30 ae6b 83ba
00000320: 1eaa c4ba c597 7a3b d7f1 4e14 a44a 30ba
00000330: 5caf 7820 4219 583b 8449 f2ba 4473 62bb
00000340: fad8 c896 62cb 953b 3894 683a d58a 233a
00000350: 083e d3b9 fc23 b6bb 9d3b f83b 37b3 861d
00000360: ae1e e8ac e863 1e3c 9b28 61ba 9349 e33a
00000370: a3e1 9d3a 2075 83a5 e008 bab8 d823 dfaa
00000380: f547 a3b2 e2e4 3728 d802 242e 6051 ba3d
00000390: 867a 36bd ca13 cb3c 402a 82b3 adb7 873b
000003a0: 291f 473d e822 a73d e3cd 962e caf0 a33d
000003b0: 970b fca1 1b73 96bd 0b13 53bb 79d9 823d
000003c0: 0e95 4f2b ce80 713d cdc2 bd3d 6600 873d
000003d0: d4f9 eb3c 0437 aa3d 90b8 2e3c 87ba 13b1
000003e0: 2f7a 262e 99e0 cb3c 097a a73d e6a2 833d
000003f0: c757 9abc 03e6 9526 e713 823d 9c8d 1e2c
2.5924996e-20 -4.517385e-15 2.225272e-12 -0.0019515497 0.0035609729 -0.0017195988 4.550001e-09 -0.001128577
-0.0019833897 0.004243563 9.339475e-27 -0.00028696464 4.604925e-19 0.003635308 -0.0019933472 -0.0029927944
-3.2511988e-25 0.0054571196 0.000756379 0.0012006558 -0.00053149625 -0.0053289887 0.007798402 2.1441537e-22
6.4989828e-12 0.009528731 -0.0007481555 0.0010103061 0.0012579837 -2.0960832e-16 0.00025412848 -3.4555524e-13
-2.0341938e-19 -4.119423e-15 3.4358473e-12 0.0002485603 0.0020519225 -0.00246462 3.0787608e-09 -0.0010976384
-0.002904836 0.0069763944 -5.498914e-27 -0.00040104435 3.8531888e-19 0.0032570143 -0.003909374 -0.0011106054
-1.1441179e-25 0.0057409117 0.002116345 0.0019010138 -0.00043906303 -0.0038518854 0.008762651 -8.3295937e-22
1.0559382e-11 0.011633454 0.00086680055 0.0028620528 0.0009856655 -2.447198e-16 0.0017285668 -8.781365e-13
-6.4687907e-19 -2.6601337e-15 1.819131e-12 -0.0018526387 0.0030861222 -0.0013538756 5.0704436e-09 -0.0011112976
-0.0017670725 0.004117809 -9.0732e-27 -0.0005076378 3.2863457e-19 0.003666123 -0.0019939798 -0.0031123771
2.5656725e-25 0.0050003855 0.0007248048 0.0008900777 -0.00050866505 -0.0053389934 0.0077562863 -2.9404881e-21
6.0908305e-12 0.010115199 -0.00063772517 0.0012259077 0.0014146832 -2.3821288e-16 0.00010502833 -5.3071946e-13
6.304941e-19 -3.0945682e-15 2.7856114e-12 -0.0011770123 0.0015476204 -0.0016384763 5.433578e-09 -0.0012775767
-0.0029793868 0.005394223 -3.189075e-28 0.00026136014 -6.2033583e-19 0.0033133333 -0.0031176205 -0.0017868654
-2.267858e-25 0.0060482537 0.0018111635 0.0019965696 -0.00037713148 -0.004090329 0.008350961 8.094092e-23
1.1963217e-12 0.010980342 -0.00046315423 0.001820291 0.00012320776 1.1178559e-16 0.0010611017 -6.578882e-13
1.2328016e-18 3.973617e-16 -1.5365098e-14 -0.0077243214 0.005152074 0.00430248 1.9797994e-09 -0.00042577554
0.0032222406 -0.0041322005 1.960486e-20 -0.0010849547 6.0600074e-19 0.0025922079 0.00357554 -0.0063104443
-1.076161e-23 0.0019122668 0.00026294182 -0.0013472681 -0.0019519242 -0.0069818837 0.0022315432 6.6603827e-15
1.6592629e-12 0.0036718436 -0.005119147 0.003655564 0.0037592323 1.1297773e-16 -0.006273859 -2.1058261e-13
2.4229586e-19 -4.661105e-15 2.6571163e-12 -0.0014871293 0.0019083155 -0.0018881084 -1.3412411e-09 -0.0013038301
-0.0025257666 0.0046429094 5.328096e-27 -0.00011065364 4.523643e-19 0.0034197124 -0.0027702337 -0.002611534
-3.8650935e-25 0.0052091195 0.0018047465 0.0013218852 -0.00039004374 -0.0049493075 0.00774893 2.509896e-22
5.8801826e-12 0.011387315 -0.00064188533 0.0016658839 0.0009523017 9.680767e-17 0.00067091803 -7.1010363e-13
-5.501045e-20 -4.1522974e-15 1.8267894e-12 -0.0021028917 0.0033557005 -0.0009686223 1.0415031e-09 -0.0010026598
-0.0015004312 0.0038237434 1.0448037e-26 -0.00067249895 2.1064439e-19 0.003297404 -0.0018485044 -0.0034553567
-3.2448674e-25 0.0045713643 0.0008872184 0.0006238644 -0.00040291273 -0.005558489 0.007575466 3.565481e-21
-6.5972427e-12 0.009667374 -0.00085891195 0.0017340652 0.0012045394 -2.2804245e-16 -8.870824e-05 -3.963763e-13
-1.900842e-08 1.0208172e-14 3.729181e-11 0.09097552 -0.04455044 0.02478971 -6.061282e-08 0.004141769
0.0486137 0.08160955 6.857783e-11 0.08004911 -1.7079252e-18 -0.073461734 -0.0032207395 0.06389136
7.374803e-13 0.05896073 0.09265671 0.06591873 0.02880565 0.08311275 0.01066412 -2.1497344e-09
3.785255e-11 0.02488737 0.08177573 0.06427555 -0.018840684 1.0401297e-15 0.06351452 2.253176e-12

graph_attention.linear2.bias f4 [32]
00000000: b489 5b3b 87c1 903b 31f8 5a3b 5538 653b
00000010: 1236 61ba c1ad 443b dfa5 2a3b c662 bc3d
00000020: 6080 333b b18d 993d 28ba 133b f1f1 243b
00000030: bf83 383b 1ecf 123e eda8 a83b 77b1 733b
00000040: 717b 813b 2f93 46bb d9ce 5f3b 71e1 a13b
00000050: fb64 993b 3aef 753b 4e9b 743b 0733 083c
00000060: dc16 63bc e607 ad3b 2e3c 8c3b 02f3 713b
00000070: 21f0 0f3c 2ec8 873b 0bdd 813b 3127 913b
0.0033498826 0.0044176015 0.0033412094 0.0034976203 -0.0008591126 0.0030010792 0.0026038808 0.09198527
0.002738975 0.074977286 0.0022541378 0.0025168622 0.0028154699 0.14336821 0.0051470906 0.0037184635
0.003951483 -0.003030013 0.003415039 0.004940205 0.0046812273 0.0037526623 0.0037324014 0.008312947
-0.013860431 0.0052804826 0.004279635 0.0036918526 0.008785279 0.0041437363 0.003963118 0.004429721

graph_attention.norm.weight f4 [32]
00000000: 71b7 9038 4e63 d6ba 8c15 1e3a 4287 0038
00000010: 8c61 7730 769a 2638 441f f538 6022 c23d
00000020: d71e 3e38 9588 233e 3715 2536 5b78 97b8
00000030: 90f2 1abb 69d0 143e a566 5838 dde6 bc37
00000040: ec97 2139 a964 62ae ddb6 d4b0 c24d 8b38
00000050: daf2 173b 4781 3539 ce79 90b7 916c 11ae
00000060: 3e55 033e 8c6d 08b7 dfdf 0e39 99a6 633a
00000070: c717 2538 326a 70b6 8ec9 97b6 97e7 a7ba
6.900624e-05 -0.0016356499 0.00060304324 3.0643547e-05 8.99967e-10 3.9721337e-05 0.00011688334 0.09479213
4.5328252e-05 0.1597007 2.4599265e-06 -7.222659e-05 -0.0023643114 0.14532627 5.159401e-05 2.251885e-05
0.00015410752 -5.1475855e-11 -1.5477003e-09 6.64252e-05 0.0023185522 0.00017309665 -1.7222857e-05 -3.306561e-11
0.12825486 -8.131738e-06 0.00013625574 0.0008684188 3.936121e-05 -3.58246e-06 -4.5236147e-06 -0.0012810108

graph_attention.norm.bias f4 [32]
00000000: aee5 b3ba 8331 de3c 9538 51bc 93b2 dfb9
00000010: 2639 1c32 a89d d2b9 119c d1ba 0b1e 0cbd
00000020: 5a5b 2eba 7d68 d33c d550 bfb8 c2fe af3a
00000030: c4b8 5f3d 474b 30bc af48 09ba 78cd 8eba
00000040: e8ec 61bb 6ff2 9530 0644 84b5 755e 95bb
00000050: addb f7bd a429 99bb dd4e 7d39 1e4a 9faf
00000060: 1c24 a3bc 8b91 46bb 185b d4bb 282c 3ebc
00000070: 64c3 a239 5d6c 6e38 a217 4a39 1287 613d
-0.0013725066 0.027123218 -0.012769838 -0.00042666923 9.093389e-09 -0.00040171784 -0.0015991946 -0.03420834
-0.00066511857 0.02580666 -9.122646e-05 0.0013427364 0.054619566 -0.010760135 -0.0005236966 -0.0010894975
-0.0034473483 1.0910081e-09 -9.854564e-07 -0.0045583793 -0.12102447 -0.0046741534 0.00024157339 -2.8974595e-10
-0.01991468 -0.0030299153 -0.006480586 -0.011607207 0.00031044625 5.6844543e-05 0.00019273025 0.055060454

temporal_module.fusion_weight f4 [4]
00000000: 4067 fd3c 92f2 2b3c 8a46 1cbd a14a 90bb
0.030933022 0.010494845 -0.03815321 -0.0044034277

temporal_module.scales.0.0.weight f4 [32, 32, 3]
00000000: 6527 24b8 f762 e6b2 f323 f536 a87b 9e3a
00000010: af33 8236 5e9d 08b8 c34e 62ba 8c88 1db6
00000020: 7463 9bb7 c196 10b6 bca3 2934 f924 0637
00000030: bcf2 c32f 27de 98ad fc1b 92ae 2845 5db8
00000040: c37d 93b4 f2d0 06b7 3603 85b8 63f8 8eb4
00000050: 2e47 4534 4444 54bc acf8 353b 66f9 5e3b
00000060: a7a6 0db8 6265 0cb4 e5a2 8cb4 8080 923c
00000070: bc9a 0abb d905 883c cf5e 1cb6 c2e1 1932
00000080: ac2d 4635 aa8a a138 a69f b434 367f 2837
00000090: e4b2 843b ed7b 1037 c10c 6b39 76f1 5cbc
000000a0: 2319 743c c2f9 79bc c379 dbb7 38f1 77b3
000000b0: 5048 8eb4 39a1 e1b7 7610 fa32 7ddc 8336
000000c0: f7c3 03b9 2921 b233 eac2 9f37 3529 ab2e
000000d0: 35b6 722a bc1a 142d f3df 27b3 a766 9aae
000000e0: 7e1b 2631 c2bd 40b9 6efd 2fb4 0f99 d434
000000f0: 7abb 3bbb 212e a2b4 da77 6239 46a3 62b9
00000100: 9f9f 1db5 ab14 e8b6 11da 3a37 dbd2 4733
00000110: 0a07 90b4 06af 88ad a8ca a229 e930 b62b
00000120: 8ade 2dbc 3767 fc3a 130c 72bb 5997 9bb9
00000130: 93c3 99b4 e188 41b7 f68a 44b9 2c15 1fb3
00000140: 0c34 1037 632a f9b9 2c88 f7b5 51fa 3038
00000150: 57a9 cb37 aed6 23b4 e5e4 9a36 5c58 d435
00000160: 432b adaf 3862 4ab5 6d67 1c37 452c ff31
00000170: 8767 2fb4 9fac e73a 2d7d c5b4 e234 b0b8
00000180: 972d 1924 9587 569f 06df a9a2 42ac 2627
00000190: 681d 0b24 fffb 36a6 b225 0e25 12d4 c922
000001a0: cc3f ba24 d925 c0a6 b178 67a4 1242 95a5
000001b0: 9c1a 719f 36e3 0f9e 360d 929d 1590 7924
000001c0: 3188 e222 10e0 e523 e970 0fa4 eae8 4da3
000001d0: b58c e6a3 b6ac 3b29 c702 1428 a3dd 39a9
000001e0: 4f9a 16a5 dd81 6822 13fd 3924 362b 92aa
000001f0: 2714 88aa 166e 20ab aaec b9a2 39dd 04a1
00000200: cc4a fba1 5166 0ea4 3358 79a3 c454 46a4
00000210: f11b 08a7 34ab d7a4 f76d 55a6 55e4 50aa
00000220: b3d3 ccaa 8742 6a2a 88c5 57a6 a746 3f23
00000230: d9ea 1925 7645 18a4 3062 43a0 f15a 99a3
00000240: 3e57 55a5 bf93 6f23 1018 03a4 702a 929c
00000250: a5e8 e399 92dc 059b cf49 639f 0f0c d89d
00000260: bb47 1d9f 544f 8224 6563 6020 3db8 f923
00000270: ed94 14a5 f933 86a4 25da 8723 6562 0724
00000280: 7c04 d0a3 5415 f023 3d59 2924 8952 67a1
00000290: f6d7 a422 f302 3e1d 5317 8b1c dd29 989c
000002a0: 7474 5fa9 1582 44aa a726 3aa8 dc84 f625
000002b0: 8274 1f24 8ec2 5424 4653 2224 ddfa 8ea1
000002c0: 09d5 ff22 b126 1aa7 8dea b1a4 8a14 1e26
000002d0: 9875 8823 1173 2423 c854 b421 12ca ce23
000002e0: 0e88 cd23 96c4 be23 3e4e 669f c6a2 349f
000002f0: 6133 1820 0417 f8a4 1580 9e23 c732 b7a4
00000300: d844 a7b7 9a7e 59b4 7c26 4236 3c33 0c3a
00000310: 7aa3 f136 1a08 1738 cb5b 24b9 9209 16b6
00000320: dd8d 9a37 947c 13b7 9e65 ac32 a096 6fb4
00000330: 8ab5 9b2d 217a 06ae 49c2 98aa d322 5eb7
00000340: 699a 72b4 b411 fc35 d446 f9b7 9969 01b5
00000350: 229d e535 dfd6 1fbc b7bf 943a 2ea2 a738
00000360: b424 32b7 15e4 65b4 6113 a935 9072 943c
00000370: 3e7f a23b 5a90 1d3c 23a8 99b5 8953 4eaf
00000380: 8d64 eb34 9636 7937 855b 3e34 e26f e4b5
00000390: 8a82 433a 245c 4e37 578d b2b8 dafa 4ebb
000003a0: 4350 0a3b f2c5 3cbc 98d7 0ab7 b00e b1b4
000003b0: d4bc c135 acb1 3bb7 a67a 06b3 4975 5436
000003c0: 4586 63b8 292d c5b4 2925 fb36 7281 3b2d
000003d0: 2792 af2b 96f0 a52a 4faf 9eb1 c7fc 4dad
000003e0: 09dd 0131 c7b5 33b8 4345 70b4 006b 0e37
000003f0: 9f3a 96ba 50ab f2b6 e053 9839 bea9 90b8
-3.9137336e-05 -2.6820528e-08 7.305754e-06 0.0012091296 3.8803187e-06 -3.2571486e-05 -0.0008632952 -2.3474304e-06
-1.8523751e-05 -2.1545422e-06 1.5798918e-07 7.995631e-06 3.5642767e-10 -1.7379055e-11 -6.644282e-11 -5.2754913e-05
-2.7472387e-07 -8.035671e-06 -6.342532e-05 -2.6630286e-07 1.837295e-07 -0.012955729 0.0027766628 0.0034023165
-3.3772227e-05 -1.3075399e-07 -2.6195553e-07 0.01788354 -0.0021149358 0.01660435 -2.3300997e-06 8.9571035e-09
7.382721e-07 7.7029064e-05 3.3643772e-07 1.0043199e-05 0.0040496457 8.611923e-06 0.00022416098 -0.013485303
0.014898571 -0.015257301 -2.6163534e-05 -5.7728556e-08 -2.6502175e-07 -2.6897165e-05 2.9111316e-08 3.9297724e-06
-0.00012566136 8.294803e-08 1.9045041e-05 7.7834995e-11 2.1557134e-13 8.418762e-12 -3.9086398e-08 -7.021344e-11
2.4171807e-09 -0.00018381237 -1.6390342e-07 3.9599442e-07 -0.002864568 -3.0208415e-07 0.00021597688 -0.00021613864
-5.8719337e-07 -6.916545e-06 1.11372365e-05 4.652507e-08 -2.6827212e-07 -1.5539136e-11 7.2294005e-14 1.2945453e-12
-0.0106121395 0.0019256835 -0.0036933466 -0.00029676667 -2.864077e-07 -1.1535566e-05 -0.00018743784 -3.7039328e-08
8.595187e-06 -0.00047524562 -1.8442565e-06 4.2194795e-05 2.427834e-05 -1.5258658e-07 4.6162045e-06 1.5820947e-06
-3.1499256e-10 -7.539379e-07 9.322405e-06 7.4265096e-09 -1.6335808e-07 0.0017675346 -3.6785187e-07 -8.402184e-05
3.3215203e-17 -4.5428414e-20 -4.6043677e-18 2.3130509e-15 3.016573e-17 -6.3485453e-16 1.2329308e-16 5.4705697e-18
8.077272e-17 -1.3332935e-15 -5.019237e-17 -2.589215e-16 -5.1055746e-20 -7.617343e-21 -3.865954e-21 5.411531e-17
6.140162e-18 2.4923124e-17 -3.110382e-17 -1.1162394e-17 -2.4996242e-17 4.1672144e-14 8.216253e-15 -4.127049e-14
-1.3062708e-16 3.1510612e-18 4.0329843e-17 -2.5964793e-13 -2.4172437e-13 -5.6996194e-13 -5.039493e-18 -4.5016125e-19
-1.702822e-18 -3.0878007e-17 -1.3516994e-17 -4.3006205e-17 -1.8888938e-15 -9.3531416e-17 -7.404825e-16 -1.855333e-13
-3.6384575e-13 2.0806456e-13 -7.4860814e-16 1.0369092e-17 1.3350204e-16 -3.3018582e-17 -1.654963e-19 -1.6626808e-17
-1.8504364e-16 1.2987502e-17 -2.842648e-17 -9.672439e-22 -2.3565214e-23 -1.1072772e-22 -4.8130173e-20 -5.7187192e-21
-3.3305377e-20 5.65129e-17 1.9006425e-19 2.7074662e-17 -1.2887412e-16 -5.820128e-17 1.4729117e-17 2.9356802e-17
-2.2553304e-17 2.6029885e-17 3.672162e-17 -7.837508e-19 4.4680947e-18 2.5147815e-21 9.204278e-22 -1.0069338e-21
-4.9616954e-14 -1.7453428e-13 -1.03334555e-14 4.2764227e-16 3.4576315e-17 4.6134966e-17 3.5198686e-17 -9.688697e-19
6.934345e-18 -2.1392768e-15 -7.715886e-17 5.48451e-16 1.4794952e-17 8.914824e-18 1.2219716e-18 2.2420145e-17
2.2283766e-17 2.0683099e-17 -4.8769115e-20 -3.8251126e-20 1.2891901e-19 -1.07591845e-16 1.718464e-17 -7.944962e-17
-1.994001e-05 -2.0255757e-07 2.8930654e-06 0.00053482107 7.201391e-06 3.600875e-05 -0.00015674454 -2.2357312e-06
1.842429e-05 -8.790888e-06 2.0069646e-08 -2.2313407e-07 1.770208e-11 -3.0576545e-11 -2.7135436e-13 -1.3240339e-05
-2.259418e-07 1.8780615e-06 -2.9716095e-05 -4.820991e-07 1.7107561e-06 -0.009755819 0.0011348639 7.993389e-05
-1.0618172e-05 -2.1410263e-07 1.2597121e-06 0.018121034 0.004959016 0.009616936 -1.1448323e-06 -1.8765269e-10
4.384532e-07 1.4854266e-05 1.7728424e-07 -1.7019886e-06 0.00074581115 1.230001e-05 -8.514028e-05 -0.0031582625
0.0021104969 -0.011521803 -8.275638e-06 -3.2979506e-07 1.4434577e-06 -1.1187436e-05 -3.1310854e-08 3.165873e-06
-5.4246066e-05 -3.6726968e-07 7.484709e-06 1.0658462e-11 1.2475063e-12 2.9476828e-13 -4.6183355e-09 -1.1709029e-11
1.8897615e-09 -4.284622e-05 -2.2376939e-07 8.488772e-06 -0.0011461562 -7.2321054e-06 0.0002905419 -6.898072e-05

temporal_module.scales.0.0.bias f4 [32]
00000000: e88c c033 767f cea1 2579 0c34 f365 2c21
00000010: 9ba6 8e34 5663 b833 ece2 1f34 cd71 ac34
00000020: 8145 9da4 91cb e635 1c0c 5922 eed8 6d16
00000030: 4216 bc34 c4b1 1ab6 fb6d 1134 bcd4 98b4
00000040: 830e 5527 2ec5 69a7 0730 3635 8095 9cb4
00000050: a31c 93b6 0e34 8334 40b1 91b7 8e5a 5933
00000060: eb89 4bb6 25c7 5234 42ef afb0 1cd4 bc23
00000070: 852c bc34 31c4 2635 8b7a 8d9e fd13 0134
8.9663274e-08 -1.3992842e-18 1.3082588e-07 5.8410795e-19 2.6570783e-07 8.586237e-08 1.4890583e-07 3.2120298e-07
-6.820564e-17 1.7195581e-06 2.9415395e-18 1.9213158e-25 3.5033923e-07 -2.3051261e-06 1.3544188e-07 -2.846699e-07
2.9567555e-15 -3.2442137e-15 6.787017e-07 -2.916604e-07 -4.384275e-06 2.4438526e-07 -1.7367885e-05 5.060661e-08
-3.0329636e-06 1.9630222e-07 -1.2800927e-09 2.0472833e-17 3.505012e-07 6.2125315e-07 -1.4979638e-20 1.2021333e-07

temporal_module.scales.0.1.weight f4 [32]
00000000: 756b 373d 00a2 4b2b 0eec f63c 339f 26ad
00000010: 33ce f63c 36b1 a23d 8246 bc3c 77c8 623d
00000020: a151 662f 019d 033e 4c58 12aa 0231 b32f
00000030: d402 cf3d 1296 053e fea3 e43d 7d89 eb3c
00000040: 748a 81b0 bc36 4cb1 84e6 f13c f162 fc3d
00000050: dbea f53d 64bc 313d 2f03 0d3e bb84 fb3d
00000060: 39bf 063e dd5d d53d 1a0e d93c f624 5e2a
00000070: f88c 823d ca17 873d fa43 eeab 6146 1b3d
0.044780213 7.234491e-13 0.030141857 -9.471357e-12 0.03012762 0.079439566 0.02298284 0.05536696
2.0947379e-10 0.12852861 -1.2998039e-13 3.2594732e-10 0.10107961 0.13045529 0.111640915 0.028752083
-9.425336e-10 -2.971702e-09 0.029528864 0.12323559 0.12007686 0.043392554 0.13770746 0.12281176
0.13158883 0.104182936 0.026495982 1.9730384e-13 0.06374544 0.06596334 -1.6929784e-12 0.037908915

temporal_module.scales.0.1.bias f4 [32]
00000000: 603b c83b b398 d6b8 9708 c23b 4caa a2b7
00000010: 942f 5e3b 0745 213d f3e5 cf3b 2933 f43b
00000020: 0fea 2eb8 0b8e cc39 de1b 16bc 94b1 a6aa
00000030: 1f40 7a3c c35f f6bb d319 0e3c 39f9 9a3a
00000040: 7b14 06bb cb7d cbba 339b 603b 8678 14b8
00000050: 4c28 2bbd 086d c23b 3d2f a6bd 80ff babb
00000060: ab69 81bd bc48 0dbc 99fb bf3b 064f c8bb
00000070: 976f 193c 6345 f93b 95ee cbbb 145f c23b
0.0061105937 -0.000102327576 0.005921434 -1.9391206e-05 0.003390287 0.03937247 0.0063445508 0.007452388
-4.1702817e-05 0.00039015742 -0.0091619175 -2.9610743e-13 0.015274077 -0.00751874 0.008673149 0.0011823542
-0.0020458985 -0.001552516 0.0034272193 -3.5398196e-05 -0.041786477 0.0059334077 -0.08114479 -0.0057067275
-0.06318983 -0.008623298 0.00585885 -0.006112936 0.009364984 0.0076071485 -0.0062235096 0.0059317444

temporal_module.scales.0.1.running_mean f4 [32]
00000000: 960f 07bc 89f7 ac2a 4ce3 b5bb 4460 792a
00000010: 09c0 ccbb c214 553a 8ba7 b6b9 5f9b 30bc
00000020: 0814 ab2d b141 1abb fddb 2d2a 3197 7aa0
00000030: 389c e8bb 130c 50bc 0991 e2bb e3e4 91bb
00000040: efac 5bae b93c bb2d 574b dbbb 06f8 c6bb
00000050: 41c7 13bd 0fcf 28bc eb21 52bd 452a 59ba
00000060: 1d45 d2bc 7607 a23c 0b13 8cbb 2a93 d22c
00000070: 2dc0 78bc 618e 0ebc a2c5 552b 3eba 2dbc
-0.008243462 3.07251e-13 -0.0055507775 2.2149041e-13 -0.0062484783 0.00081283983 -0.00034838574 -0.010779231
1.9449345e-11 -0.002353769 1.544181e-13 -2.1225849e-19 -0.007098701 -0.012698191 -0.006914262 -0.0044523343
-4.994843e-11 2.1286405e-11 -0.006692331 -0.006072047 -0.036078695 -0.010303273 -0.051301878 -0.0008284192
-0.025667721 0.019778948 -0.004274731 5.9848975e-12 -0.015182537 -0.008700938 7.594707e-13 -0.010603486
