save_all/MSTAGAT-Net.spain-covid.w-20.h-3.no_agam.pt (torch, 130519 bytes, 61 tensors)

temp_conv.depthwise.weight f4 [1, 1, 3]
000000 60 b1 c1 3e 61 5d e3 3e 06 5f 35 be
       0.3783064 0.4440718 -0.1771203

temp_conv.pointwise.weight f4 [16, 1, 1]
000000 52 83 f6 bd 32 f3 d4 3d b9 54 c3 be e1 51 f6 3e
       -0.12036766 0.10397948 -0.38150576 0.48109344
000010 21 27 46 3f bf 6b 20 bf 54 00 43 3f 72 88 b9 3d
       0.77403456 -0.6266441 0.76172376 0.09059228
000020 cc bd 21 3f 86 17 37 3d 4b f7 c0 3e d9 b4 49 bd
       0.6318023 0.044700168 0.3768867 -0.049244735
000030 95 eb 29 3f ba 7e 63 3d db 30 b9 be 00 1c 1e 3e
       0.66375095 0.055540778 -0.36170086 0.15440369

temp_conv.pointwise.bias f4 [16]
000000 09 1a b6 be 4d 91 fa bc 27 86 9a be 61 85 0e 3f
       -0.35566738 -0.030586863 -0.30180475 0.5567227
000010 57 a2 2e bf 90 3d b6 be fa 1e 39 be 56 6f fd be
       -0.6821646 -0.35593843 -0.18078223 -0.49499005
000020 1a 1d 70 3c ba 40 61 bf 6b a8 4b 3f 7b f7 3d bf
       0.014655376 -0.8798939 0.7955386 -0.7420575
000030 0b 36 2a 3f 90 04 93 3d 35 3c 63 be a5 f5 02 3f
       0.66488713 0.071786046 -0.22190936 0.51156074

temp_conv.bn2.weight f4 [16]
000000 91 cf 6f 3f 7a 67 6a 3f 58 46 6e 3f 28 6b 69 3f
       0.93676096 0.9156414 0.93076086 0.9117913
000010 2d 4b 67 3f b2 e3 6a 3f 09 a0 6a 3f 47 19 69 3f
       0.90349084 0.91753685 0.91650444 0.91054195
000020 14 40 69 3f 18 ba 67 3f 2f e3 67 3f 7d df 70 3f
       0.911134 0.9051833 0.9058103 0.94091016
000030 8a 04 6b 3f 9e d5 6b 3f fd 7f 6c 3f 56 40 6a 3f
       0.918038 0.9212283 0.92382795 0.9150442

temp_conv.bn2.bias f4 [16]
000000 6b 5c 98 bb b9 a7 a3 3c dd d1 3e bc a9 48 a0 3c
       -0.004649689 0.019977437 -0.011646715 0.019565897
000010 f9 a3 b8 3c f7 73 88 bb e6 cb 10 3d 44 26 50 3b
       0.022539126 -0.0041642147 0.035350703 0.003176109
000020 03 5e e6 3c 91 35 af 3b 85 e1 81 3c a9 34 2a ba
       0.028121 0.005346962 0.015854606 -0.00064928323
000030 7d a7 74 3c ab 67 97 3c fc 19 23 bc 17 c2 ad 3c
       0.01493251 0.01848205 -0.009954926 0.021210713

temp_conv.bn2.running_mean f4 [16]
000000 28 2d d2 be ad 91 7c 3b 9c 75 e6 be 18 b6 3d 3f
       -0.41050076 0.0038538978 -0.45011604 0.7410598
000010 84 f8 d2 be ac 89 17 bf 4c 2f b0 3d 2a 42 f0 be
       -0.41205227 -0.59194446 0.08602771 -0.4692548
000020 55 8a 7d 3e 76 06 5f bf 91 5c 71 3f 90 79 45 bf
       0.247598 -0.87119234 0.9428187 -0.77138615
000030 29 1f 6a 3f e7 ba ce 3d ca c5 b9 be ff 33 14 3f
       0.91453797 0.100942425 -0.36283714 0.5789184

temp_conv.bn2.running_var f4 [16]
000000 95 cc 15 3c c5 7b e3 3b e4 43 ad 3d e4 81 08 3e
       0.009143014 0.0069422447 0.08460215 0.133308
000010 90 3f ae 3e 78 a8 65 3e 39 d0 a8 3e c3 8b af 3b
       0.3403287 0.22427547 0.3297136 0.005357237
000020 8e 66 69 3e ac 67 c1 3a 64 2f a9 3d df 65 e3 3a
       0.22793028 0.0014755628 0.08260992 0.0017349086
000030 78 a0 80 3e a2 95 0d 3b 59 1d 9c 3d 7c 9c 70 3c
       0.25122428 0.002160408 0.07622785 0.014685746

feature_process_low.weight f4 [16, 320]
000000 aa 09 10 3c c7 cf 12 3d a7 eb 71 3b 7f f6 83 bc
       0.008791367 0.035842683 0.0036914141 -0.01610875
000010 27 60 15 3c 2b ad a7 bc 04 61 a2 3c 8d 27 29 3d
       0.009117163 -0.020468315 0.019821651 0.041297484
000020 a8 58 fa 3c 12 8f a1 bc 68 49 e2 3c 15 e9 3c 3c
       0.030559853 -0.019721542 0.027622893 0.01153018
000030 c6 a0 9e 3c c1 c3 ef bc a0 7d 43 bd db 6b 9a bc
       0.019363772 -0.029268147 -0.047727227 -0.018850258
000040 ee 47 fb bc 53 db 27 3d 76 84 39 3c ee b6 72 3c
       -0.030673947 0.04098065 0.011323085 0.014814122
000050 74 0b 8c 3c 53 c2 fb 3a 61 5d ff 3c 55 d6 28 bd
       0.017095305 0.0019207693 0.031172456 -0.041220028
000060 80 bd b4 36 de 76 d9 bc 93 25 96 3c c6 93 a9 bc
       5.3864787e-06 -0.026545938 0.018328464 -0.020700347
000070 6a 3b 34 3b f3 d8 8f bc 69 47 f5 3c 89 3a 19 bd
       0.0027501234 -0.017559504 0.029941278 -0.03740934
000080 4c 6b 8f bc cd 7d 7d bc 63 ed 4a 3d 35 89 fc 3b
       -0.017507218 -0.015471888 0.049542796 0.007706786
000090 5b 10 26 3d 88 31 23 bd 93 77 54 bd 51 a0 f7 bc
       0.04054294 -0.03984216 -0.051871847 -0.030227812
0000a0 f2 79 24 bd 66 51 77 3c ff 4a 87 3c ac 1c 16 3d
       -0.04015536 0.0150950905 0.016515253 0.036648437
0000b0 66 66 ea bc 5b 36 1f bd 38 f6 6c 3c 73 1a ae bc
       -0.02861328 -0.038870197 0.014463 -0.021252846
0000c0 32 80 f6 3c 9b 24 42 bc 53 8a f6 3c ac 08 18 bd
       0.030090425 -0.011849548 0.030095255 -0.037117645
0000d0 76 59 d6 bc ea a2 75 3c 04 4e 2b 3c f6 39 46 bc
       -0.026165705 0.014992455 0.010455612 -0.01209878
0000e0 92 7c f4 3c 8a 90 15 3d d3 a9 11 bd 3b 0c 06 bd
       0.029844556 0.036514796 -0.035562348 -0.032726508
0000f0 e8 30 1a 3d 86 e3 ac bc de a8 14 bd 73 69 63 bd
       0.037644297 -0.021104585 -0.036293857 -0.055520486
000100 26 1f d7 bc 80 fc 67 3c 74 42 93 bb 4f ae 40 bd
       -0.02625997 0.014159322 -0.004494006 -0.047041234
000110 5f 83 2a bc 6b 53 3c bd 99 bc 56 bd db 91 26 bd
       -0.010407298 -0.04597799 -0.052425954 -0.040666442
000120 51 27 11 bd 95 58 7b bc 89 25 39 3d 23 6d 28 3b
       -0.035437886 -0.015340944 0.045201812 0.0025699816
000130 9b dd 04 3c e8 dc 41 bd 80 bb 0a bd e9 3f 92 ba
       0.0081094755 -0.047329813 -0.03387022 -0.0011157963
000140 77 0d 72 3c 90 58 27 bd 64 5d fe bc f7 f8 1f bd
       0.014773718 -0.040855944 -0.031050391 -0.03905579
000150 ae 95 a3 ba f9 96 68 bc 95 5e 35 39 d0 45 2e bd
       -0.0012480521 -0.014196151 0.0001729674 -0.042547047
000160 91 55 33 bd ff c5 2d bd 56 21 d3 bc 17 bf 2d bd
       -0.043782774 -0.042425152 -0.025772732 -0.042418566
000170 09 b6 4e 3d 4a f0 67 3b 3b 3b 2f 3d 56 9c d2 3a
       0.05046657 0.0035391026 0.042781096 0.001606832
000180 70 d3 56 bd 7b c5 03 3d d5 4a 46 bc 76 75 99 bc
       -0.052447736 0.032170754 -0.012102802 -0.018732768
000190 ec c2 37 bd 96 95 5e bd 9a 1b 8d 3c 75 f7 3d bc
       -0.044863626 -0.054341875 0.017225076 -0.011594643
0001a0 a8 7f a5 3c ad 9b 2d bd 95 93 e7 3c 9f e5 12 bd
       0.020202473 -0.042384792 0.028268615 -0.035863515
0001b0 11 ed 7d bb 21 2f 56 3c f5 2c db 3c 15 e3 2f 3d
       -0.003874604 0.01307276 0.026754836 0.04294117
0001c0 de 90 2c 3d 3c 37 1a bd 55 0a 32 3c 70 7a 99 bc
       0.042130344 -0.03765033 0.010866721 -0.01873514
0001d0 57 ab eb 38 2d de 16 bd ae a4 42 3d 49 3a 28 bd
       0.00011237588 -0.036832977 0.047520332 -0.04107121
0001e0 19 ff cd 3c 0f 70 9e 3c e2 6a 41 3a 67 3e 06 bd
       0.025146054 0.019340543 0.00073782925 -0.032774355
0001f0 a9 1d 36 3d 45 5c 50 3c 3c ee 1a 3c 90 b1 53 bd
       0.04446188 0.012717311 0.009456214 -0.05168301
000200 af 31 3a 3c d4 9e 96 bc 8d 62 07 bd 94 dc f6 3c
       0.011364385 -0.018386282 -0.03305297 0.030134477
000210 fd c4 95 3c b0 83 6a bc 58 e7 c3 bc 89 18 50 bc
       0.018282408 -0.014313623 -0.023914024 -0.012701162
000220 4d 9c 86 3c 93 51 72 bc 9a 66 ee bc a4 10 9c bb
       0.016431952 -0.014789957 -0.029101659 -0.004762726
000230 8b ab a4 bc f3 2c 82 3c 57 8c e0 3c 13 4b 60 bd
       -0.02010133 0.015890574 0.02741067 -0.054759096
000240 6a aa 4c 3c 7c f5 0e 3d 60 dc 40 3c bb 74 ed bc
       0.012491802 0.03490208 0.0117712915 -0.028986325
000250 1e 6a 63 3c a3 f5 65 3c f5 b1 b7 3b 67 c1 81 bc
       0.013880281 0.014035615 0.005605931 -0.015839292
000260 5c 1f c7 b9 c7 a6 95 3c d5 a1 0b bc c3 62 b8 bc
       -0.00037979602 0.018268002 -0.0085224705 -0.02250803
000270 56 bc d0 3c e9 47 28 3d ee d8 d3 bb a6 5c 93 bb
       0.02548043 0.041084204 -0.006465069 -0.0044971285
000280 3b 37 1b 3c 74 a9 00 bb c9 21 a4 3b f4 cc 8f 3b
       0.009473617 -0.0019632252 0.0050089103 0.004388446
000290 38 a9 36 bd b7 c6 8b bc 01 3e 30 3d b0 cb 52 3c
       -0.044594973 -0.017062528 0.04302788 0.012865946
0002a0 8d 5f 8d bc cf 00 27 bd 2e 35 36 bd 73 9b 5a bd
       -0.017257476 -0.040772256 -0.04448431 -0.053370904
0002b0 f0 99 0a bc 3a 75 e9 3c 11 d1 fe 3c e1 c8 0a 3c
       -0.008459553 0.02849828 0.03110555 0.008470745
0002c0 cd b0 57 bd 29 ac f2 bc b9 c2 82 bc 5d 5d 7c 3d
       -0.052658845 -0.029623108 -0.015961992 0.061612476
0002d0 e9 13 73 3c 1e dd 0e bc 10 82 5f 3c 47 0c d6 bc
       0.01483629 -0.008719711 0.013641849 -0.026128901
0002e0 06 9d 16 bd 68 47 1c 3d 3a 93 9c bc dd bc a6 bc
       -0.036770843 0.038154036 -0.019113172 -0.020353729
0002f0 3f bc 70 bd c0 92 b8 3c 8c c5 e5 3c 97 31 18 3c
       -0.058773275 0.022530913 0.0280483 0.009289167
000300 a5 57 9f bc 6d 06 0e bd 13 75 29 bd 2c 31 e4 3c
       -0.019450972 -0.034674097 -0.041371416 0.027855478
000310 45 4f 8d 3c 12 b7 28 3d 54 5f a1 3c 38 3f 9c 3c
       0.017249713 0.041190214 0.019698776 0.019073114
000320 3e 3f 9d 3b 0e e5 0a bd de b2 3b bd 29 92 5a bd
       0.004798799 -0.03390985 -0.045824878 -0.053362045
000330 bd 88 a2 3c 26 2e a7 bc 8c 16 06 bc 67 8d 07 bd
       0.019840593 -0.020407747 -0.0081840865 -0.033093836
000340 f7 f6 c6 bc ad a3 40 bd dc e6 31 bd 8b 63 af 3b
       -0.024287684 -0.047031093 -0.043433055 0.0053524426
000350 11 7f bf bb 6e 2a 34 3d 2c d7 8d bc 06 3e 1c bd
       -0.005844005 0.043985777 -0.017314516 -0.038145088
000360 20 25 91 bc 9d 90 c5 bc e0 41 a2 bc 7a 8a 28 bd
       -0.017717898 -0.024116809 -0.019806802 -0.041147687
000370 35 88 d6 3c ea 7a 1a bd 19 e1 c8 3c fc 41 6a 3c
       0.026187995 -0.037714876 0.024521397 0.014297958
000380 e7 6e 01 3d 5a 3a 27 bd b5 f7 06 3d e3 09 f2 bc
       0.031599905 -0.040827133 0.032951076 -0.02954573
000390 72 56 9f 3c 56 32 3e 3d 41 b3 08 bc ce 68 38 bb
       0.0194504 0.046434723 -0.008343519 -0.002813864
0003a0 1d a9 87 bc 7d d9 29 bd 37 19 a4 3c bd e7 36 bd
       -0.016560132 -0.04146718 0.020031555 -0.044654597
0003b0 c4 85 0b 3d 0e 40 02 3d d5 26 2a 3d 74 34 6d bc
       0.034063116 0.03179937 0.04154094 -0.014477838
0003c0 51 98 ad bc c1 b4 64 3c ce 8e 98 3c 50 66 70 bd
       -0.021190794 0.013959111 0.018622782 -0.058691323
0003d0 9c 6c 4c bc be b1 d5 bc 86 e5 e6 ba 43 5b 04 bd
       -0.012477066 -0.02608573 -0.0017616011 -0.032313596
0003e0 d1 17 02 bd 43 0c e6 bc 62 5d 71 bd b8 d1 01 3d
       -0.031760994 -0.028082019 -0.058926947 0.031694144
0003f0 04 62 59 3d 5e 4e 81 3b 43 62 43 bb 47 9b e6 bc
       0.05307199 0.0039461097 -0.0029813207 -0.028150214

feature_process_low.bias f4 [16]
000000 ff 60 e6 3b c6 9c 6e 3a 3a cf 43 3d 56 e5 91 3a
       0.007030606 0.00091023406 0.04780505 0.001113097
000010 0b 92 20 bb 1f d4 3b bd 32 19 23 3a 01 f4 ca bc
       -0.002450111 -0.04585659 0.0006221711 -0.024774553
000020 dd 65 10 3d a7 d9 5c 3d 0a b9 45 bd ad 5a 21 bd
       0.035253394 0.053918507 -0.04827217 -0.039393116
000030 a1 ce 60 3d 31 50 09 bd 59 ca 2d 3d 59 6b 6d 3d
       0.054884557 -0.033523742 0.042429302 0.057963703

feature_process_high.weight f4 [32, 16]
000000 16 7d 14 bd f5 c6 45 be a6 8e 02 3e 99 6f e7 3d
       -0.036252104 -0.19314177 0.12749729 0.113005824
000010 cf 03 6e 3e 02 bf 37 3d eb e0 eb 3d e9 8d 52 be
       0.2324364 0.044859894 0.11517509 -0.20561947
000020 be e7 62 bb 53 a6 42 3d ad 0e 3d 3e e2 84 17 be
       -0.0034622992 0.0475219 0.1846263 -0.14796785
000030 3b 2f 91 bc 44 d8 18 be f1 9c 1a be 78 2c 94 3d
       -0.017722717 -0.14926249 -0.15098931 0.07235044
000040 ca cb 08 3d 1a f3 b9 3d 95 7b a5 bc 53 73 7d bc
       0.033397473 0.09079571 -0.02020053 -0.01546939
000050 31 20 f3 bb be bd d8 3d 81 da 16 be 05 0f a3 3d
       -0.007419609 0.105830655 -0.1473179 0.07961849
000060 29 bb 0c 3e fb f9 ee 3d d0 79 fc bd d4 2b 40 3e
       0.13743271 0.11668774 -0.123279214 0.18766719
000070 f5 30 27 be fe 8f 16 3e a4 da 59 3e ef f1 c3 3b
       -0.1632727 0.14703366 0.21274811 0.0059797685
000080 85 e5 9a 3d 50 af 45 be 42 5e b1 bd 25 08 bc bd
       0.075633086 -0.19305158 -0.086605564 -0.09181241
000090 35 e5 5f be ad 2c 2f bd 60 bb 23 3e f7 e5 77 3b
       -0.2186478 -0.042767216 0.15989447 0.0037826279
0000a0 08 6c 6e 3e a3 28 33 be ed b9 a3 3d 02 5c 53 3e
       0.23283398 -0.1749597 0.07994447 0.20640567
0000b0 e3 17 3d 3e d3 f4 8e bd 90 b0 4f be 62 cf 97 bd
       0.18466143 -0.0698029 -0.20282197 -0.07412602
0000c0 bd da 27 3e 04 d3 97 3c b7 e3 5c 3e f7 b7 25 be
       0.16392036 0.018533237 0.21571241 -0.16183458
0000d0 d4 95 1e be 59 4b 01 3e 4b 27 af 3d dd 61 31 be
       -0.15486842 0.12626399 0.085524164 -0.17322488
0000e0 36 9d 46 3e 18 42 a2 bd 5c ee 54 be 14 72 7e 3d
       0.19395909 -0.07922763 -0.20794052 0.062120512
0000f0 ae d9 f4 bd 58 e1 01 be 15 8f 10 be ef ad 91 3d
       -0.119555816 -0.12683618 -0.14117081 0.07113253
000100 ff 89 f1 3d 3a 37 20 3e 92 d3 f4 bd f6 59 86 bd
       0.11793899 0.15646067 -0.11954416 -0.065601274
000110 1d 65 5f 3e 81 4f b2 bd 8e fe a4 bd dd 55 0b bd
       0.21815915 -0.087065704 -0.08056365 -0.034017432
000120 e4 57 28 be d4 ec 1f be d1 fa 42 3e 4f 2d 33 3d
       -0.16439778 -0.15617687 0.19040991 0.04374438
000130 dc c6 e5 3c be 6d d5 3d 86 e6 0a 3e f4 3f 0e 3e
       0.028048925 0.10421322 0.135645 0.13891584
000140 38 99 1c 3e ba 71 cd 3d 98 94 27 3e 4a 2f 11 3e
       0.15292823 0.10031457 0.16365278 0.14178196
000150 0d cc 16 bd fd ee 71 3c f1 d3 f2 bd 51 ae 24 be
       -0.03681569 0.014766452 -0.11856831 -0.16082121
000160 57 26 4f 3e ba bb 22 be e7 c1 1b be d0 de 59 be
       0.20229469 -0.15891925 -0.15210687 -0.21276402
000170 99 9e 37 be 92 80 7c 3d 2c f0 ef 3d 1f 7c 3c be
       -0.17931594 0.06164605 0.11715731 -0.18406723
000180 65 a4 56 3c 5a 48 1e be 1e 64 12 3d 24 23 01 3e
       0.013100718 -0.15457287 0.03574001 0.12611061
000190 2c 49 bc bd c0 c8 cc bd 1a 43 17 3e 91 10 03 be
       -0.09193644 -0.099992275 0.14771691 -0.12799288
0001a0 8a b3 ec bc 86 41 2b be 47 05 20 3e 44 44 86 3d
       -0.028894205 -0.16724214 0.15627013 0.065559894
0001b0 db ab 9f bd 0f e0 12 3e 34 96 65 3e 9f 05 bf 3d
       -0.07796451 0.14343284 0.22420579 0.09327244
0001c0 4c c3 30 be eb b0 31 bd ce 5c 34 3e 94 8d 24 3e
       -0.17262 -0.043381613 0.17613527 0.16069633
0001d0 e0 96 b7 bd b8 7b ff 3d cf 97 15 be 05 24 20 3d
       -0.08964324 0.12474769 -0.14608692 0.03909685
0001e0 73 ec 34 3e 91 b9 6c 3d 21 2f 4a be 6b 5c 81 3d
       0.17668323 0.057794157 -0.19744541 0.063164555
0001f0 b7 c7 00 3e 26 69 13 3e 75 ca 23 be cb b9 95 bc
       0.12576185 0.1439558 -0.159952 -0.01827707
000200 58 1f 47 ba fd 7f 62 bd 76 b8 32 bd 92 5a 88 bd
       -0.0007595918 -0.05529784 -0.043632947 -0.066579
000210 57 5f aa 3d 9c a1 d0 3d f1 c7 6e bd e7 35 28 3e
       0.08318966 0.101870745 -0.058296148 0.16426812
000220 ce dd cb bc a9 a5 59 3d f6 cd b4 3d ac 3c d3 bd
       -0.024886038 0.0531365 0.088283464 -0.103143066
000230 23 f1 13 3b cd bb 25 bd 2a 59 c4 3d c5 40 08 be
       0.0022574149 -0.040462304 0.09587319 -0.13305958
000240 76 4e e1 bd a2 42 52 be 0f bb c0 bd fb 97 75 3d
       -0.11001293 -0.20533231 -0.094106786 0.059959393
000250 3a 20 39 3e e9 a5 39 be 92 9b 8f bd 15 63 05 3e
       0.180787 -0.18129696 -0.070120946 0.13026078
000260 5c f8 d5 bd c2 53 0f 3e 3d b1 4b 3c 30 be 55 be
       -0.104477614 0.13996795 0.012432394 -0.20873332
000270 33 60 00 3d af b8 08 be 05 75 4b 3d a9 b1 33 be
       0.031341743 -0.13351701 0.049672145 -0.1754824
000280 19 2f 60 3e cc d1 b8 bd 38 3a 08 3e ce dc ff bd
       0.21892966 -0.090243906 0.13303459 -0.12493287
000290 8f d4 44 be 41 93 95 3d bc 47 00 3e 10 df 3a 3b
       -0.1922171 0.07303477 0.12527364 0.0028514303
0002a0 47 30 37 be 05 76 36 bd 44 6f 27 be 8c d2 7d 3d
       -0.1788951 -0.044546146 -0.16351038 0.06196837
0002b0 dc 50 25 3d cf 8b 11 3e a7 a0 64 3e a5 63 bb bd
       0.040360317 0.14213489 0.22326909 -0.09149865
0002c0 0b 14 37 3e 4b ec 2b 3e a0 85 04 3d df 93 6f be
       0.1787874 0.16789357 0.032353997 -0.23396252
0002d0 23 84 33 be 6b c7 a7 3d 53 30 3e 3e 17 1b 1f 3e
       -0.17530875 0.08192333 0.18573122 0.15537678
0002e0 5b b5 3b 3d 66 83 18 be 7c 64 63 be 24 21 d0 bd
       0.04582725 -0.14893875 -0.222063 -0.10162571
0002f0 ff 81 33 bc 73 cc 38 3d a1 52 44 3e 6f c9 1f be
       -0.010956286 0.045116853 0.19172145 -0.15604185
000300 a0 2e cc 3d 4e 4d 0d 3e a4 34 28 be bf b5 aa bd
       0.099698305 0.1379902 -0.16426331 -0.083354466
000310 12 11 6f bd 25 64 7a 3c 9d 18 2f 3e f1 84 30 3d
       -0.05836589 0.015282665 0.17099233 0.043095533
000320 9b 26 01 3e ed cd 2d 3e 71 86 15 3e 3e 31 32 be
       0.12612383 0.16973086 0.14602067 -0.17401597
000330 cd 85 ed bd 26 52 9e bc 0c c1 6d bc 85 6d fb 3c
       -0.11597786 -0.01932628 -0.014511358 0.030691871
000340 c2 67 46 3e f2 95 47 3e f4 16 2b bd 25 99 b6 bd
       0.19375518 0.19490793 -0.041769937 -0.08915929
000350 76 b1 84 3c 40 81 2b 3d 5b 95 04 3e a3 02 7b 3d
       0.016197901 0.04187131 0.129476 0.06128181
000360 ed e3 89 3d 78 8b be 3d b0 0a 35 3e 20 39 f4 3d
       0.067329265 0.09303945 0.17679858 0.11924958
000370 ab 4d fb bb 65 59 3a be 85 e9 1a 3e 7c d0 9e bc
       -0.007669171 -0.18198164 0.15128143 -0.019386522
000380 70 c2 26 be 47 d1 53 bd 77 b3 1d 3e e5 67 ac bd
       -0.1628511 -0.051713254 0.15400492 -0.08418254
000390 cd 82 a8 bc 7d bc 9b 3d 9c f9 13 3e 93 39 2f bd
       -0.020570183 0.07604311 0.14450687 -0.042779516
0003a0 33 13 16 be a0 c3 9f bd 5d 85 91 bd 5d 6a be 3c
       -0.14655761 -0.078009844 -0.07105515 0.023244077
0003b0 f0 a5 06 be 95 7a 3e 3e be 76 61 3d ac c1 13 be
       -0.13149238 0.18601449 0.055044882 -0.14429349
0003c0 3c 2f ff 3d d2 eb 63 3c 95 e1 5d 3e 30 98 00 3b
       0.12460181 0.013911204 0.21668084 0.001962196
0003d0 7b bf d1 3c 67 dc 58 be 5c 66 4e be 0f 69 cb bb
       0.025604 -0.21177827 -0.20156235 -0.0062075923
0003e0 c3 61 21 3e b0 09 16 be a5 94 98 3d 8f a5 32 be
       0.1575995 -0.14652133 0.07450227 -0.17445968
0003f0 63 a9 35 be c7 93 b6 bd 5c 66 16 be 80 e1 4a be
       -0.17740397 -0.08914905 -0.14687485 -0.19812584

feature_process_high.bias f4 [32]
000000 95 b0 39 be e0 7f ef 3d 09 73 36 bd 74 93 0a 3e
       -0.18133767 0.11694312 -0.0445433 0.13532811
000010 97 f8 db 3d 18 db 31 3c 82 67 e1 bc 24 3b ce bd
       0.10740774 0.010855459 -0.027515177 -0.10069874
000020 f7 fe 8c 3d 3e 14 5e be 0c 74 d0 bd 12 2e 41 3e
       0.06884568 -0.2168741 -0.10178384 0.1886523
000030 0f 80 19 bd f5 4d 5d 3e 26 88 05 3e 4d ed 4c bd
       -0.03747564 0.2161177 0.13040218 -0.050030995
000040 35 a3 3b be 07 79 39 3e d6 91 69 3c 2a fa 68 3e
       -0.18323977 0.18112575 0.014255961 0.2275168
000050 62 0c 46 be b7 08 28 3d 51 31 2e be b5 99 f1 bb
       -0.19340661 0.041023936 -0.17011 -0.0073730596
000060 ef a3 5d be c0 d7 55 be 79 57 90 3c 9f 4b 71 3e
       -0.21644567 -0.20883083 0.017619835 0.23564003
000070 7b 71 ce 3c 43 5c d9 bc 67 1d 70 3e 48 a8 d6 3c
       0.025200596 -0.026533252 0.23448716 0.02620329

feature_norm.weight f4 [32]
000000 3c d2 6b 3f 80 73 6b 3f e8 c0 66 3f e7 ca 72 3f
       0.9211767 0.91973114 0.901381 0.94840854
000010 74 60 68 3f 1e 41 6a 3f 66 a0 67 3f 5c af 67 3f
       0.90772176 0.9150561 0.90479124 0.9050195
000020 08 e8 66 3f 8b ec 65 3f 30 5c 66 3f 17 05 6b 3f
       0.901978 0.8981406 0.89984417 0.9180464
000030 e1 16 64 3f 26 5e 69 3f 5a 1d 67 3f ef 47 6e 3f
       0.8909741 0.91159284 0.9027916 0.9307851
000040 9a 90 69 3f 5a 71 67 3f 2b eb 66 3f ff 92 6d 3f
       0.9123627 0.90407336 0.9020259 0.92802423
000050 66 30 67 3f 4a f9 6e 3f 31 84 64 3f 5d 90 64 3f
       0.90308225 0.93349135 0.8926421 0.8928278
000060 7b c9 6e 3f 82 fc 66 3f b7 40 6e 3f d8 1b 6a 3f
       0.93276185 0.90229046 0.93067497 0.91448736
000070 25 f6 6b 3f b7 6d 66 3f cc 1a 71 3f 18 80 6c 3f
       0.9217246 0.9001116 0.94181514 0.92382956

feature_norm.bias f4 [32]
000000 96 76 5b 3b 39 01 0c bc 04 cd 73 bc db ba 39 bb
       0.003348743 -0.008545213 -0.0148804225 -0.0028340134
000010 d7 ea 62 bc 99 2a 1e bc 3b 27 ae 3b 7c be 8f 3b
       -0.0138499355 -0.009653711 0.005314735 0.004386721
000020 f4 00 76 3c 57 fb d1 bb 9d e8 d9 bb c5 c1 b0 3a
       0.015014876 -0.006408136 -0.006650044 0.0013485482
000030 b0 e1 b5 ba 1c b7 5e 3c fa ef c6 bb 0c 32 29 3a
       -0.0013876464 0.013593461 -0.006071088 0.0006454296
000040 7e 84 b7 3b 95 93 a5 bc 2a d0 f4 3a 1d 57 18 bc
       0.005600511 -0.020211974 0.001867776 -0.009298113
000050 87 e8 b7 3b 93 87 6c bc b2 23 79 ba de e5 ec 3b
       0.005612436 -0.01443662 -0.0009503915 0.0072295507
000060 7e 20 32 bc 37 da 1f 3c fb b1 c4 3b 3b c3 53 bc
       -0.010872005 0.009756616 0.0060026622 -0.012924965
000070 df 92 b0 3a 76 af c7 3a 97 4b 1a 3c fe 20 96 bb
       0.0013471505 0.0015234787 0.009417436 -0.0045815697

graph_attention.adj_matrix f4 [52, 52]
000000 00 00 80 3f 00 00 00 00 00 00 00 00 00 00 00 00
       1.0 0.0 0.0 0.0
000010 00 00 00 00 00 00 00 00 00 00 00 00 00 00 00 00
       0.0 0.0 0.0 0.0
000020 00 00 00 00 00 00 00 00 00 00 00 00 00 00 00 00
       0.0 0.0 0.0 0.0
000030 00 00 00 00 00 00 00 00 00 00 00 00 00 00 00 00
       0.0 0.0 0.0 0.0
000040 00 00 00 00 00 00 00 00 00 00 00 00 00 00 00 00
       0.0 0.0 0.0 0.0
000050 00 00 00 00 00 00 00 00 00 00 00 00 00 00 00 00
       0.0 0.0 0.0 0.0
000060 00 00 00 00 00 00 00 00 00 00 00 00 00 00 00 00
       0.0 0.0 0.0 0.0
000070 00 00 00 00 00 00 00 00 00 00 80 3f 00 00 00 00
       0.0 0.0 1.0 0.0
000080 00 00 00 00 00 00 00 00 00 00 00 00 00 00 00 00
       0.0 0.0 0.0 0.0
000090 00 00 00 00 00 00 00 00 00 00 00 00 00 00 80 3f
       0.0 0.0 0.0 1.0
0000a0 00 00 00 00 00 00 00 00 00 00 00 00 00 00 00 00
       0.0 0.0 0.0 0.0
0000b0 00 00 00 00 00 00 00 00 00 00 00 00 00 00 00 00
       0.0 0.0 0.0 0.0
0000c0 00 00 00 00 00 00 00 00 00 00 00 00 00 00 00 00
       0.0 0.0 0.0 0.0
0000d0 00 00 00 00 00 00 80 3f 00 00 80 3f 00 00 00 00
       0.0 1.0 1.0 0.0
0000e0 00 00 00 00 00 00 00 00 00 00 00 00 00 00 00 00
       0.0 0.0 0.0 0.0
0000f0 00 00 00 00 00 00 00 00 00 00 00 00 00 00 00 00
       0.0 0.0 0.0 0.0
000100 00 00 00 00 00 00 00 00 00 00 00 00 00 00 00 00
       0.0 0.0 0.0 0.0
000110 00 00 00 00 00 00 00 00 00 00 00 00 00 00 80 3f
       0.0 0.0 0.0 1.0
000120 00 00 00 00 00 00 00 00 00 00 80 3f 00 00 00 00
       0.0 0.0 1.0 0.0
000130 00 00 00 00 00 00 00 00 00 00 80 3f 00 00 00 00
       0.0 0.0 1.0 0.0
000140 00 00 00 00 00 00 00 00 00 00 00 00 00 00 00 00
       0.0 0.0 0.0 0.0
000150 00 00 00 00 00 00 00 00 00 00 80 3f 00 00 00 00
       0.0 0.0 1.0 0.0
000160 00 00 00 00 00 00 00 00 00 00 00 00 00 00 00 00
       0.0 0.0 0.0 0.0
000170 00 00 00 00 00 00 00 00 00 00 00 00 00 00 00 00
       0.0 0.0 0.0 0.0
000180 00 00 00 00 00 00 00 00 00 00 00 00 00 00 00 00
       0.0 0.0 0.0 0.0
000190 00 00 80 3f 00 00 00 00 00 00 00 00 00 00 00 00
       1.0 0.0 0.0 0.0
0001a0 00 00 00 00 00 00 80 3f 00 00 80 3f 00 00 00 00
       0.0 1.0 1.0 0.0
0001b0 00 00 00 00 00 00 00 00 00 00 00 00 00 00 00 00
       0.0 0.0 0.0 0.0
0001c0 00 00 00 00 00 00 00 00 00 00 00 00 00 00 00 00
       0.0 0.0 0.0 0.0
0001d0 00 00 00 00 00 00 00 00 00 00 00 00 00 00 00 00
       0.0 0.0 0.0 0.0
0001e0 00 00 00 00 00 00 00 00 00 00 00 00 00 00 00 00
       0.0 0.0 0.0 0.0
0001f0 00 00 00 00 00 00 00 00 00 00 00 00 00 00 00 00
       0.0 0.0 0.0 0.0
000200 00 00 00 00 00 00 00 00 00 00 00 00 00 00 00 00
       0.0 0.0 0.0 0.0
000210 00 00 00 00 00 00 00 00 00 00 00 00 00 00 00 00
       0.0 0.0 0.0 0.0
000220 00 00 00 00 00 00 00 00 00 00 80 3f 00 00 00 00
       0.0 0.0 1.0 0.0
000230 00 00 00 00 00 00 00 00 00 00 00 00 00 00 00 00
       0.0 0.0 0.0 0.0
000240 00 00 00 00 00 00 00 00 00 00 00 00 00 00 00 00
       0.0 0.0 0.0 0.0
000250 00 00 00 00 00 00 00 00 00 00 00 00 00 00 00 00
       0.0 0.0 0.0 0.0
000260 00 00 80 3f 00 00 00 00 00 00 00 00 00 00 00 00
       1.0 0.0 0.0 0.0
000270 00 00 00 00 00 00 00 00 00 00 00 00 00 00 80 3f
       0.0 0.0 0.0 1.0
000280 00 00 00 00 00 00 00 00 00 00 00 00 00 00 00 00
       0.0 0.0 0.0 0.0
000290 00 00 00 00 00 00 00 00 00 00 00 00 00 00 00 00
       0.0 0.0 0.0 0.0
0002a0 00 00 00 00 00 00 00 00 00 00 00 00 00 00 00 00
       0.0 0.0 0.0 0.0
0002b0 00 00 00 00 00 00 00 00 00 00 00 00 00 00 00 00
       0.0 0.0 0.0 0.0
0002c0 00 00 00 00 00 00 00 00 00 00 80 3f 00 00 00 00
       0.0 0.0 1.0 0.0
0002d0 00 00 00 00 00 00 00 00 00 00 00 00 00 00 00 00
       0.0 0.0 0.0 0.0
0002e0 00 00 00 00 00 00 00 00 00 00 00 00 00 00 00 00
       0.0 0.0 0.0 0.0
0002f0 00 00 00 00 00 00 00 00 00 00 80 3f 00 00 00 00
       0.0 0.0 1.0 0.0
000300 00 00 00 00 00 00 00 00 00 00 00 00 00 00 00 00
       0.0 0.0 0.0 0.0
000310 00 00 00 00 00 00 00 00 00 00 00 00 00 00 00 00
       0.0 0.0 0.0 0.0
000320 00 00 00 00 00 00 00 00 00 00 00 00 00 00 00 00
       0.0 0.0 0.0 0.0
000330 00 00 00 00 00 00 00 00 00 00 00 00 00 00 00 00
       0.0 0.0 0.0 0.0
000340 00 00 00 00 00 00 00 00 00 00 00 00 00 00 00 00
       0.0 0.0 0.0 0.0
000350 00 00 80 3f 00 00 00 00 00 00 00 00 00 00 00 00
       1.0 0.0 0.0 0.0
000360 00 00 00 00 00 00 00 00 00 00 00 00 00 00 00 00
       0.0 0.0 0.0 0.0
000370 00 00 00 00 00 00 00 00 00 00 00 00 00 00 00 00
       0.0 0.0 0.0 0.0
000380 00 00 00 00 00 00 00 00 00 00 00 00 00 00 00 00
       0.0 0.0 0.0 0.0
000390 00 00 00 00 00 00 00 00 00 00 00 00 00 00 00 00
       0.0 0.0 0.0 0.0
0003a0 00 00 00 00 00 00 00 00 00 00 00 00 00 00 00 00
       0.0 0.0 0.0 0.0
0003b0 00 00 00 00 00 00 00 00 00 00 00 00 00 00 00 00
       0.0 0.0 0.0 0.0
0003c0 00 00 00 00 00 00 00 00 00 00 00 00 00 00 00 00
       0.0 0.0 0.0 0.0
0003d0 00 00 00 00 00 00 00 00 00 00 00 00 00 00 00 00
       0.0 0.0 0.0 0.0
0003e0 00 00 00 00 00 00 00 00 00 00 00 00 00 00 00 00
       0.0 0.0 0.0 0.0
0003f0 00 00 00 00 00 00 00 00 00 00 00 00 00 00 00 00
       0.0 0.0 0.0 0.0

graph_attention.linear1.weight f4 [32, 32]
000000 78 29 fd bd 08 ad c7 3d c9 89 b8 3d 32 7f 11 3e
       -0.12361425 0.097498 0.090106554 0.14208677
000010 82 9e bf 3d eb b8 12 3e 93 8b 8a bd a7 6c c7 3c
       0.09356405 0.14328353 -0.06764903 0.024343802
000020 12 4c c0 bd 05 0b 5c bd 71 76 be 3d d0 16 1b be
       -0.09389509 -0.053721447 0.09299935 -0.15145421
000030 27 c0 98 3d f5 ad f7 bd e8 04 2d bb 6a 02 29 bd
       0.07458525 -0.120937265 -0.002640063 -0.041262068
000040 eb 77 8c bd f7 b5 4c 3c 40 a1 b7 bd 38 f5 1c 3e
       -0.0685881 0.012494556 -0.08966303 0.15327919
000050 e4 35 42 bd 61 e2 ac 3d c7 22 2f bb 7f d0 8c bd
       -0.047414675 0.08441616 -0.002672361 -0.06875705
000060 57 f1 08 3e 96 ba 2f bd db 20 be bd e8 20 6f 3b
       0.13373314 -0.04290255 -0.092836104 0.003648812
000070 04 6c 0a bc e5 95 31 3d 5b b9 9c bd d4 0c 56 bd
       -0.0084486045 0.04335584 -0.07652541 -0.052258328
000080 ba 2f 85 3d cc 77 b5 3d c0 96 22 3e 8d 87 5f 3c
       0.06503244 0.0886074 0.15877819 0.013643158
000090 3d 47 5f bd 9b a5 47 bd 1c 63 0b bd 65 af 3b bd
       -0.054511297 -0.048741918 -0.034030065 -0.045821566
0000a0 8b 7a ad bd bf 05 45 bd 53 4c 4c 3d cf 1a 92 3d
       -0.08470639 -0.048101183 0.049877476 0.071340196
0000b0 69 d3 c1 3d 35 1e 3e be 11 5b ff 3d 2c 3c 69 bd
       0.094641514 -0.1856621 0.124685414 -0.05694215
0000c0 6f 54 23 be 92 59 b9 3d 96 d9 b3 bd 97 51 9b bd
       -0.15950178 0.09050287 -0.087817356 -0.075839214
0000d0 64 a4 61 3d b7 0a 19 3c 16 d6 33 3d bc 71 69 bd
       0.055088416 0.0093409335 0.04390534 -0.05699323
0000e0 f0 17 d0 3d 84 e4 bb 3d d8 f5 a6 3d 47 bb 80 bd
       0.10160816 0.09174445 0.0815236 -0.0628572
0000f0 08 10 f0 3c e4 c6 5a 3d 36 4d 0d 3e 13 b9 d7 bd
       0.02930452 0.053412333 0.13798985 -0.10533347
000100 b3 75 10 be e7 49 02 be 77 9a a7 3c 72 45 ff bd
       -0.14107399 -0.12723504 0.020459397 -0.124644175
000110 62 eb bd bc b4 3e 8c bd 4e fe 3d 3d 61 6a 37 bd
       -0.023183528 -0.06847897 0.046385102 -0.044779185
000120 39 1a aa 3d 3a d4 d3 bd 40 b1 c5 bc 46 b7 11 3d
       0.08305783 -0.103432134 -0.024132371 0.035575174
000130 e1 f1 a3 bd 9b 9d 15 3d 2f dc 34 bc f4 03 ad bd
       -0.08005119 0.036527257 -0.011038824 -0.084480196
000140 db 7d 5c 3d c2 bf 39 bd 76 3e 1e 3d bf 16 84 bd
       0.053830963 -0.04534889 0.038633786 -0.06449651
000150 06 00 e5 3c 50 86 0f 3e 1e 35 9c 3d fd 6b c5 bc
       0.027954113 0.1401608 0.07627319 -0.024099344
000160 7e 8a b3 bd 71 70 9d bd 94 52 32 3d fc 5e 80 3d
       -0.0876665 -0.07687462 0.043535784 0.06268117
000170 3a d7 8e 3d 95 e1 62 3d 1d 00 2a 3e 3c 1a e9 bd
       0.06974645 0.055390913 0.16601606 -0.11381957
000180 6d 74 15 be 04 52 70 bd e4 40 e9 3d a0 84 11 be
       -0.14595194 -0.058671966 0.1138933 -0.14210749
000190 10 fe dc 3d ff a3 ab 3c 95 20 cf 3d 18 1a 13 3e
       0.10790646 0.020952223 0.101136364 0.14365423
0001a0 1c d1 08 3e ed 08 ff 3d 48 ca 00 bd 1a 94 98 bd
       0.13361019 0.12452874 -0.03144291 -0.07450123
0001b0 d3 4f 41 3d cf 68 00 3e 7a b6 02 3c 2b 87 55 bd
       0.047195267 0.12539981 0.007978076 -0.05213086
0001c0 f1 1c 10 bd 2a 07 63 bd b5 47 94 3d d6 e1 33 be
       -0.03518385 -0.055426754 0.072402395 -0.17566618
0001d0 82 ad ba 3d 02 f6 83 bc b9 cd f3 bc be c2 67 bc
       0.09115125 -0.016108517 -0.029761182 -0.014145551
0001e0 42 d3 c6 bd 59 76 0e be 5d d2 a7 ba ba 6a 32 bd
       -0.09708263 -0.13912334 -0.0012803782 -0.043558814
0001f0 19 0f ba bd 79 14 04 bd 14 f9 08 bd b9 de 82 3d
       -0.09084911 -0.032246087 -0.033440664 0.06390137
000200 41 88 10 be b6 94 2f bc cd 7c 2f bc f3 e7 11 be
       -0.14114477 -0.010716608 -0.010710907 -0.14248638
000210 e1 1d fa 3d dd 27 99 bd f2 29 01 3e d0 20 fe 3d
       0.1221273 -0.074783064 0.12613657 0.12408602
000220 70 32 02 bc 36 d6 c2 3d 02 92 ee bd ba 92 de bc
       -0.007946596 0.09513514 -0.116489425 -0.027169574
000230 af 76 95 bd ad 40 e1 bd 64 be 44 3d 02 7f ed 3d
       -0.07298028 -0.10998664 0.048033133 0.115964904
000240 72 6a ac bd 26 61 81 bd 46 9e b4 bd 53 f8 bd bc
       -0.0841874 -0.06317358 -0.08819251 -0.0231897
000250 a9 8c e7 bd ee e0 08 be 91 6e 59 bc 3a 81 9b 3d
       -0.11306126 -0.13367054 -0.01327099 0.075930074
000260 de 13 25 3d 52 62 74 bd 0a 77 d7 3d ef 45 db 3d
       0.04030215 -0.059664078 0.10520752 0.10706698
000270 87 4c c2 3d 4d b5 ab 3b b1 f0 f5 bc a6 1c ce 3d
       0.09487253 0.0052401186 -0.030021997 0.10064058
000280 a6 0d a3 3d fc e5 00 3e 1d c7 d2 3d 8d 1e 67 bd
       0.079615876 0.12587732 0.10291884 -0.05642562
000290 17 41 dd 3d 1e 1e d1 3c 24 26 04 3e b4 19 2a 3e
       0.108034305 0.025527056 0.12905174 0.16611367
0002a0 05 a0 02 3e 85 25 bd 3d 99 eb bf 3d 33 f0 c4 bd
       0.12756355 0.09235672 0.093711086 -0.09616127
0002b0 34 ae 40 bd dd 19 5d bd a1 7e df bd a1 6a e7 3d
       -0.047041133 -0.053979743 -0.109128244 0.11299635
0002c0 c3 7e ea 3b b9 9f 10 bd b9 68 91 bd 8c 5c 22 be
       0.0071562245 -0.035308573 -0.071000524 -0.15855616
0002d0 96 c6 1f bb 3d 86 0c 3e 2e b5 3e 3d d6 26 82 3d
       -0.002437984 0.13723083 0.046559505 0.063550636
0002e0 1a 4f cd 3d c4 0c 81 3d a8 94 87 bc 74 cd f5 bd
       0.10024853 0.06301263 -0.016550377 -0.12002078
0002f0 25 4f e0 3d 0b 7e 00 be 42 17 f0 bd 39 8b 77 3d
       0.109525956 -0.12548082 -0.11723186 0.060435507
000300 c3 8f 96 3d 6c 20 0b bd 0e 14 a2 3d 77 d3 28 be
       0.07351639 -0.033966467 0.079139814 -0.16486917
000310 3b 3e 75 3c 06 c6 5a 3d 05 01 18 bc 20 50 83 bd
       0.01496845 0.053411506 -0.009277587 -0.06411767
000320 28 e3 b9 bd 7e c2 ae 3d 6d 87 fa bb d7 b5 fb bc
       -0.0907653 0.0853319 -0.0076455385 -0.030726356
000330 64 3f a2 3d f6 a7 18 bd 6b fc 15 bc da b0 f4 3c
       0.07922247 -0.037269555 -0.009154419 0.029869486
000340 98 97 bf 3d 71 9d cb bc e0 95 c4 bb 87 75 9c bd
       0.09355086 -0.024855347 -0.005999312 -0.07639604
000350 92 fa 8c bc e2 66 06 bd 37 f6 2f 39 e8 5f 68 3c
       -0.017209325 -0.03281296 0.00016781023 0.014183022
000360 c5 47 82 bd 47 41 6c 3d c6 16 f0 3d 63 ec 24 bc
       -0.06361345 0.05767944 0.11723094 -0.010066125
000370 0a 88 ad bc 9e 33 25 3c d4 2c 12 be cb 03 d5 3d
       -0.021183033 0.010083107 -0.14274913 0.10401114
000380 e5 fd 62 bd 19 03 2e 3c b6 f7 87 3d b7 bd 83 3d
       -0.055417914 0.010620856 0.06639044 0.064326696
000390 50 f0 a5 bd b7 41 03 be 19 c2 1b be d1 48 08 be
       -0.081024766 -0.12818037 -0.15210761 -0.13309027
0003a0 d2 27 6c bd 4f 40 0c be 20 8c 70 bc 27 5e c7 bd
       -0.057655163 -0.13696407 -0.014681846 -0.09734755
0003b0 85 62 7f 3d 29 d3 c2 3d f8 f3 06 3e b4 d2 02 be
       0.062349815 0.09512932 0.13179004 -0.1277569
0003c0 d0 ee dc bd 6a cf 64 3d b8 ff 34 bd a4 e5 ee 3d
       -0.10787737 0.055861868 -0.044189185 0.11664894
0003d0 2c 55 1e be d4 1f 11 3e ee ae 2d bd 0f f8 91 bd
       -0.15462178 0.14172298 -0.042403154 -0.071273915
0003e0 81 35 b6 bc c2 90 93 bd eb 7c fe bd 74 27 c2 3d
       -0.02224231 -0.07205345 -0.1242617 0.09480181
0003f0 c8 ff fe 3d 62 44 ac 3d 6c 17 06 3c 53 93 01 bd
       0.1245113 0.084114805 0.008184295 -0.03163464

graph_attention.linear1.bias f4 [32]
000000 fe 0c 1b 3e c2 5f dc 3c bb 20 02 bd 4f 32 ef 3d
       0.15141675 0.02690113 -0.031769495 0.116795175
000010 e3 d4 8c 3d fe 02 06 be 0d 9a c7 bc 2a 01 d3 3d
       0.068765424 -0.13087079 -0.02436545 0.103029564
000020 69 d0 09 3d e0 39 64 bc a4 05 f1 bd f4 ac d5 bd
       0.03364602 -0.013929814 -0.11768654 -0.10433379
000030 47 0e aa 3d 3f 4b b5 3d 36 46 ca bd 7f 61 b6 bc
       0.083035044 0.08852243 -0.09876673 -0.022263287
000040 51 03 39 3d c9 34 0a be 07 c4 06 3e 83 59 c7 bc
       0.04516918 -0.13496698 0.13160716 -0.024334675
000050 29 88 83 bd de 46 ae 3b 97 cf 6c 3d 5e f6 02 3d
       -0.06422455 0.0053185066 0.05781516 0.031973235
000060 a8 9b 18 3e 04 64 a8 3d 2b 44 de bc 87 30 bf 3c
       0.14903128 0.082222015 -0.027132114 0.02333857
000070 63 55 a4 3c f3 1a 89 bd da 33 14 be 65 68 bd bc
       0.020060247 -0.06694593 -0.14472905 -0.023121068

graph_attention.linear2.weight f4 [32, 32]
000000 a9 08 97 bd 9f af 29 be cb f8 4d 3d be 9c 73 bd
       -0.07374699 -0.165709 0.050286096 -0.059475653
000010 45 a7 04 3e f3 05 22 3d 17 a7 c4 3c 60 dd 11 3d
       0.12954433 0.039556455 0.024005456 0.03561151
000020 89 92 02 3d ce 29 ed 3c 06 31 d8 3d dd 55 a1 bc
       0.031878028 0.028950598 0.105562255 -0.019694263
000030 4b 2f 22 bd 09 2c 18 3d 81 09 cc bc 9d c1 ee bc
       -0.039595883 0.03715137 -0.024906876 -0.029145056
000040 b5 7c 24 3d 96 11 80 3c d4 0f 23 be d4 91 2e 3d
       0.040157992 0.015633386 -0.15924007 0.04261954
000050 97 09 50 bd 6f ca f9 bd 22 c8 91 bd 16 99 9f bc
       -0.050790396 -0.12196814 -0.071182504 -0.019482177
000060 00 4c b3 3d 06 56 1d be c4 c2 03 3d b4 4b fa 3d
       0.0875473 -0.15364847 0.032168165 0.122214705
000070 f6 7e db bd 26 56 b6 3c c1 9e 58 bd e0 5d 21 3d
       -0.10717575 0.022257876 -0.052885775 0.039396167
000080 23 e8 b8 3d a7 bd a7 bd 0c 7f 24 3c d1 5d fc 3d
       0.090286516 -0.0819047 0.010040056 0.123225816
000090 19 86 10 3d 1d 8e e6 bd 34 ea be bc 44 86 17 3d
       0.035284135 -0.11257575 -0.023305036 0.03699328
0000a0 91 2f f7 3c 5f 7d 54 bb 37 05 9f bc b0 83 ce bc
       0.030174049 -0.003242336 -0.019411666 -0.025209278
0000b0 8b e4 dc 3d c7 af 02 be 86 b2 37 3b ac 8c e5 3d
       0.107857786 -0.12762366 0.0028029992 0.11208472
0000c0 89 b1 9a bd 8d 29 af ba 58 86 ab bd b2 d3 ee bd
       -0.075533934 -0.0013363824 -0.083752334 -0.116614714
0000d0 a6 7d 16 3d 83 64 49 bd 92 12 af bd 2d 99 5d bd
       0.03674092 -0.04916812 -0.08548464 -0.054101158
0000e0 4d 88 fc 3c 2b 39 2c 3e 42 96 2b 3e 73 9c 99 3b
       0.030826712 0.16818683 0.16756538 0.0046878397
0000f0 0e 16 e6 bd c1 c5 91 3c a4 e8 f0 bc 4b de 01 3e
       -0.11234675 0.017794492 -0.029407807 0.12682454
000100 1a 90 c7 bc 0d 06 23 be d7 21 04 3d 14 cb 21 bd
       -0.024360705 -0.15920277 0.032258835 -0.03950031
000110 96 20 6d 3d 50 2c 49 3d 15 f2 ab 3c 04 2f b2 3d
       0.057892404 0.049114525 0.020989457 0.08700374
000120 c1 2c 02 be 30 b6 59 bd a8 7a 1b 3e 1a d8 13 3e
       -0.12712385 -0.053152263 0.15183508 0.14437905
000130 18 95 a8 bd 4d 17 19 3e 32 a0 ce bc 3d 90 a1 bc
       -0.082315624 0.14950295 -0.025222871 -0.019722098
000140 31 b0 a2 bd 64 5c c8 bc 9a b0 0f 3e 0d 89 dc bd
       -0.07943762 -0.024458118 0.14032212 -0.10768328
000150 32 2f 5c bd b0 2a 1f 3e 39 b4 9c bd fb 23 2c 3e
       -0.053755946 0.15543628 -0.07651562 0.168106
000160 a2 dd 5b 3d 07 63 ad 3d f7 be 45 3d bf 6d 74 bd
       0.053678162 0.084661536 0.04827782 -0.059674975
000170 85 b2 c5 3d df 76 8b 3d 9a 31 d2 bd 92 4f 0c be
       0.096531905 0.06809782 -0.10263367 -0.13702229
000180 5a 49 12 be 1d 54 1f 3a 03 f4 2c 3d 26 82 3d bd
       -0.14285794 0.00060779025 0.042224895 -0.046266697
000190 75 76 dd 3c 62 19 e2 3d cf 86 a7 3d 22 20 79 bd
       0.027034024 0.11039998 0.081800096 -0.06082166
0001a0 4c ee 58 3d e8 32 7c bd e0 b0 c5 3d 1e 88 1b be
       0.052961633 -0.061571985 0.09652877 -0.15188643
0001b0 a8 c0 8b 3c dd e4 06 bd 86 03 61 bd e8 d6 07 be
       0.01705964 -0.032933105 -0.054935 -0.13265574
0001c0 1c 3d ec bd 08 ad 66 bd 11 15 02 3e 08 b5 a5 ba
       -0.11535093 -0.05631736 0.12703349 -0.0012642452
0001d0 af 71 8a bd d3 a0 47 3c 96 a1 67 bd 5e 63 52 bc
       -0.06759965 0.01218434 -0.056550585 -0.012841074
0001e0 76 a7 13 3e 41 a0 1d be 3c cc 23 be fd 0a 39 3d
       0.1441935 -0.15393163 -0.15995878 0.045176495
0001f0 21 bc bd 3d 9e a2 1f be 2d a2 8f 3d c3 4e 30 3e
       0.09264398 -0.15589377 0.070133545 0.17217545
000200 cd 73 16 bd 81 74 bc bd a4 01 9d 3d 02 9b 96 3d
       -0.03673153 -0.09201909 0.076663285 0.07353784
000210 54 b9 b7 bc 2a 49 17 be 53 66 62 3c 8b 9c c5 bd
       -0.022427239 -0.14774004 0.013818341 -0.09648999
000220 fa 91 e0 bd b5 8e e3 3c 09 81 f5 3d 10 95 02 3d
       -0.10965343 0.027778009 0.11987502 0.03188044
000230 4e 20 d2 bd 7b a0 17 3e 8c 12 38 3d 5b 91 e3 3d
       -0.10260068 0.14807312 0.044939563 0.11111709
000240 42 e8 09 bc 61 56 8e ba 5a 15 0e be 80 dc f8 3d
       -0.008417191 -0.0010859483 -0.13875332 0.12151432
000250 46 42 3e 3c 8f 2e 27 be 83 a1 1a 3e 14 5b b5 ba
       0.0116124805 -0.16326354 0.15100674 -0.0013836347
000260 3d e4 e7 3d 4b f0 39 bd ae f6 f6 bc 94 b2 08 3e
       0.1132283 -0.045395177 -0.030146923 0.13349372
000270 de c0 f2 3d 8d a5 80 bd cb 45 a0 3c 59 d4 d4 3d
       0.11853193 -0.06281576 0.01956453 0.103920646
000280 71 67 1d bb 77 ea 31 bd 2a 8d eb 3d cb e8 f5 3d
       -0.0024017955 -0.043436494 0.11501534 0.12007292
000290 32 cb 5e bd 0a 50 e1 3d 96 45 0b 3b 04 77 81 b7
       -0.054393 0.11001594 0.0021251193 -1.543342e-05
0002a0 64 0c 0d 3e 59 53 3d 3c 42 b6 d5 bc 25 f6 bd bd
       0.13774258 0.011555516 -0.026087884 -0.09275464
0002b0 ed 76 03 be 45 9e 16 3e 61 5e 53 bd b4 01 f0 bd
       -0.12838335 0.14708813 -0.05160368 -0.11719075
0002c0 1a 8e 2a 3d fe 1a cc ba 94 c0 e0 3c 92 d4 27 3d
       0.041639425 -0.0015572009 0.027435578 0.040974207
0002d0 0d e3 fe 3d 7a b4 3a be 53 06 98 bd 29 f7 e7 3c
       0.1244565 -0.18232909 -0.07423081 0.028316097
0002e0 74 45 ff bd ba 39 1a be 6e f2 e1 3d 5f a9 76 3d
       -0.12464419 -0.15061083 0.11032568 0.06022012
0002f0 94 86 7f bd f5 0d 1b 3d 0e 48 57 3d c0 3b 0b bb
       -0.062384203 0.037855107 0.05255895 -0.002124533
000300 85 8b 0b 3e 9c b7 13 3c d5 31 c1 3d 02 59 b2 bd
       0.13627441 0.009015944 0.09433333 -0.08708383
000310 3c e7 54 bd f3 23 90 3c 47 23 41 3d 9a 03 89 bd
       -0.051978335 0.017595267 0.047152784 -0.0669014
000320 19 4c ac 3d 2a 5e 62 bd 6e 0c 6e bd 78 ca e6 3d
       0.08412952 -0.055265583 -0.058117323 0.112690866
000330 f9 96 a3 bd ce e8 22 be 92 7f 18 bc a0 7a d7 bd
       -0.0798778 -0.1590912 -0.009307759 -0.10521436
000340 56 d7 3d 3d 84 8d 39 bb 09 78 35 bd 35 17 96 3d
       0.04634794 -0.002831311 -0.044303928 0.07328645
000350 9b b8 b4 3c 33 63 0b be f5 83 1f be bc 88 df 3d
       0.022060683 -0.1361206 -0.15577681 0.10914752
000360 7d da 8f 3d 00 a7 bc 3d b7 a1 05 be dd 92 62 bc
       0.07024095 0.0921154 -0.1304997 -0.01382896
000370 52 5c 0d 3e 79 21 09 3e 99 f9 d2 3d 75 5c 0f 3e
       0.13804749 0.13391675 0.10301513 0.14000113
000380 eb 30 90 bd c5 b9 e4 bd 5e b9 97 3d 20 7c 90 3d
       -0.0704058 -0.11168245 0.07408403 0.07054925
000390 db a9 41 bd 1d 1a 63 bc 30 58 40 bb 03 cc 1e be
       -0.047281127 -0.013861206 -0.002934944 -0.15507512
0003a0 43 a6 3e bd de 2e e6 ba f3 af 60 3d cc 35 63 bd
       -0.04654528 -0.0017561575 0.0548553 -0.055471227
0003b0 c2 65 4f 3d ba bf 1b 3e 04 b7 3f bb 61 14 59 bd
       0.050634153 0.15209857 -0.0029253373 -0.05299795
0003c0 2a 9f ed bd b3 eb 11 ba f8 a9 0b be 42 52 c4 3d
       -0.11602624 -0.0005566433 -0.13639057 0.09586002
0003d0 26 c2 dd 3d 10 f5 12 3d 28 ed 17 3e 2c f5 b0 3d
       0.108280465 0.03587824 0.14836562 0.08640513
0003e0 68 79 dc 3d 21 f5 09 3e 4a 9f 04 be 26 be 86 bc
       0.10765344 0.13472416 -0.12951389 -0.016448092
0003f0 64 ac 34 3d 6b 0e 68 bd b2 1c dd bd aa ee 3e bd
       0.044109717 -0.056654375 -0.10796489 -0.046614327

graph_attention.linear2.bias f4 [32]
000000 f8 f9 bd bd 4d 06 0c bc 70 64 f5 bd 3f 0e c5 3d
       -0.092761934 -0.008546424 -0.119820476 0.09621858
000010 54 29 b9 bc 74 b0 72 3c aa 8a 30 be 2e 45 02 3d
       -0.022602715 0.0148125775 -0.17240396 0.031804256
000020 c2 06 9c bd a4 30 04 be a6 66 64 bd 6b 37 04 be
       -0.076184765 -0.1290918 -0.055761956 -0.12911765
000030 51 c2 09 be 22 62 1f 3e 66 6d 30 3e 4a be 01 be
       -0.13453032 0.15564778 0.17229232 -0.12670246
000040 86 bb 21 3d 0f 42 d6 bd d9 6e 1a 3e fa 5d dd 3d
       0.039485477 -0.104618184 0.15081348 0.1080894
000050 f3 34 85 3d 10 7d 20 be ec 4f 87 bd 54 f3 71 bd
       0.0650424 -0.15672708 -0.06607041 -0.059069946
000060 d4 79 22 be ca fa 04 be 90 18 98 3d 96 12 17 be
       -0.15866786 -0.12986293 0.0742656 -0.14753184
000070 4c a7 27 3d 52 c2 26 3c 29 39 3e 3c 36 80 6c bd
       0.04093103 0.0101781655 0.011610308 -0.05773946

graph_attention.norm.weight f4 [32]
000000 06 d5 6c 3f ee 53 68 3f db 06 71 3f 85 a8 6e 3f
       0.9251255 0.90753067 0.94151086 0.9322589
000010 f8 64 69 3f 6b 54 68 3f b4 3e 6b 3f 9f d2 69 3f
       0.9116969 0.9075381 0.9189255 0.9133701
000020 f3 c4 67 3f b1 4a 68 3f f9 72 6c 3f d0 88 6b 3f
       0.90534896 0.9073897 0.92362934 0.92005634
000030 19 2f 67 3f f6 c0 69 3f a6 b8 6b 3f c2 df 6a 3f
       0.9030624 0.9131006 0.92078626 0.9174768
000040 52 47 6c 3f 24 2d 68 3f b7 c4 6c 3f 57 eb 67 3f
       0.92296326 0.9069388 0.92487663 0.90593475
000050 55 25 68 3f c9 33 64 3f 53 c3 6b 3f bf 41 6a 3f
       0.90681964 0.8914152 0.92094916 0.9150657
000060 29 24 69 3f 79 c2 67 3f a1 33 68 3f c6 c3 6a 3f
       0.910708 0.90531117 0.9070378 0.91704977
000070 0c ed 6b 3f 4c 74 69 3f 17 66 6a 3f 50 83 70 3f
       0.9215858 0.9119308 0.91562027 0.93950367

graph_attention.norm.bias f4 [32]
000000 6e 17 fc bc c3 ad 47 3b a9 29 1d 3b ea 88 3f b9
       -0.03077289 0.003046856 0.002398113 -0.00018266184
000010 80 43 34 bb d2 9b 17 3c 96 79 42 3c 15 0c 3d bc
       -0.0027506053 0.009253459 0.011869809 -0.011538525
000020 71 d1 2e bb 47 dc c2 bc 7e 4b 95 3c b8 13 06 3c
       -0.002667513 -0.023786677 0.018224474 0.008183412
000030 78 ae c5 3c 64 b0 5d 3c c4 0e b6 3c 41 ea 9a bc
       0.024131045 0.013530824 0.022223838 -0.01891053
000040 e9 bd 8b bc 1a 0a fd bc 0c 32 36 3c 3a a1 74 3c
       -0.01705833 -0.030888606 0.011120331 0.0149310175
000050 16 a4 f0 bb 53 5d cd 39 c1 34 c2 3c a4 47 0e ba
       -0.0073437793 0.0003917018 0.023706796 -0.00054275454
000060 bc 66 9c bc 58 dd 68 3b df c5 d3 3b d2 11 2c 3c
       -0.019091956 0.0035532322 0.006462797 0.010502296
000070 aa ae 50 bc c7 1f 3b bb e1 3e cb ba fe 32 1f 3c
       -0.012736956 -0.0028552876 -0.001550641 0.009716747

temporal_module.fusion_weight f4 [4]
000000 24 60 73 3f bf fe 70 3f f6 77 6e 3f 7c 54 71 3f
       0.95068574 0.9413871 0.93151796 0.9426954

temporal_module.scales.0.0.weight f4 [32, 32, 3]
000000 17 78 79 bd 7d 06 af bd ac 2e 4c bd 60 c1 81 3d
       -0.060905542 -0.085461594 -0.049849197 0.063357115
000010 62 d3 4c 3c 5b ad e6 3d bf 34 d8 3b 22 9b 1f bc
       0.012501569 0.11263534 0.0065980847 -0.009741576
000020 c2 9f f3 3c 9a 42 a0 bd 79 40 98 bd bb b0 33 3d
       0.029739264 -0.07825203 -0.07434172 0.043869715
000030 e2 4a 07 bd 74 55 87 3d 5d b4 90 bc 2c e1 4c 3d
       -0.0330304 0.06608096 -0.017664129 0.050019428
000040 f5 8c 3f bc 79 24 18 3c e6 c1 75 bd 04 c0 2d bc
       -0.011691322 0.0092860395 -0.05999937 -0.010604862
000050 34 aa f7 bb 8a 83 b9 3c ea 2b 7b 3c e3 fe e5 bc
       -0.0075581316 0.02264573 0.015330294 -0.028075641
000060 18 3a 3e 3b 32 bc 35 3d e8 fa 0c 3d 7d ae 3e 3c
       0.0029026326 0.04436893 0.03441897 0.011638281
000070 39 19 87 bd 31 05 2c bd 04 2d 60 3d 90 d6 86 3d
       -0.06596608 -0.04199714 0.05473043 0.06583893
000080 a4 6e 56 bd 4b 1e 54 3d 6e a7 b0 ba e4 44 1d 3d
       -0.05235161 0.051786702 -0.0013477632 0.038395777
000090 8c 9c ac bc 55 8c 34 bd 2b 58 a7 bd dd ac 44 bc
       -0.021070741 -0.044079144 -0.081711136 -0.012004104
0000a0 0c 8a 05 3d 5a 00 cc bc 7c f8 83 3d 8b 53 11 3d
       0.032602355 -0.024902511 0.06443879 0.035480063
0000b0 f8 28 48 3d 9e 75 bb 3c 4e 66 c6 bd 4c 90 2c bd
       0.048867196 0.022883233 -0.09687482 -0.0421298
0000c0 1f f1 5b 3d 6b c3 1b 3d 34 22 a0 bd 0a 8a 76 bd
       0.053696748 0.038028162 -0.07819024 -0.060190238
0000d0 dd 26 82 3d be 57 40 bd d4 33 9e 3d d8 2f 12 bd
       0.06355069 -0.046958677 0.07724729 -0.03569016
0000e0 39 b0 9a 3b 8c 15 7a 3d c1 36 c4 3c af 01 3f bd
       0.0047207144 0.061055705 0.02395189 -0.046632465
0000f0 b0 6d 0e 3d 47 53 96 bd 97 44 3a bd 06 10 c0 bb
       0.034772575 -0.07340103 -0.04547557 -0.005861285
000100 d0 ea b2 bc 59 c9 43 3d 7d 15 26 bd 30 00 c8 3d
       -0.021840483 0.047799442 -0.040547837 0.09765661
000110 d4 ba 6d 3d 5c 2a 2a 3d db 70 51 3d 51 f9 5c bd
       0.0580395 0.041544303 0.051133018 -0.053948704
000120 71 14 86 bd 71 00 17 bc 10 b2 06 3d e4 eb 57 3d
       -0.06546868 -0.009216414 0.032884657 0.052715197
000130 99 62 9d 3c d9 a0 7c 3d f8 cc da 3c e4 26 66 3d
       0.019212054 0.061676834 0.026709065 0.056189433
000140 22 ca e0 bc 5d 2c 72 3c 3b 4d 2a bd d2 b7 b6 bd
       -0.027440134 0.014781085 -0.04157756 -0.0892178
000150 fb 40 63 bd e1 26 27 bd 3d 0e 37 3c 7d 87 e5 bc
       -0.055481892 -0.040808562 0.011172828 -0.028018707
000160 df 01 a0 3d e5 fe 7b 3d 6d 6f 7a bd 78 09 ab 3c
       0.07812857 0.061522383 -0.06114142 0.020878538
000170 72 f7 a2 3d 7f cc be bc 30 57 df 3c 11 3f 06 3d
       0.07957353 -0.02329087 0.027263254 0.03277499
000180 a7 1e 94 bc 87 40 56 bd 74 66 a5 bb ef 72 ff ba
       -0.018081022 -0.05230763 -0.0050476138 -0.0019489209
000190 de 6e 57 3d b6 2a 9b bd 90 66 97 bb 6c 48 3c bd
       0.052595966 -0.07576506 -0.0046203807 -0.045967504
0001a0 e8 95 51 bc 94 e8 aa 3a 28 83 ed 38 1e b5 cf 3c
       -0.012792088 0.0013039284 0.000113254704 0.025354918
0001b0 2e e0 4d 3c e2 a9 5b bd 8d e9 87 3d e7 ce 78 3d
       0.012565656 -0.05362881 0.06636343 0.060744192
0001c0 da cb 0d bd 2d 67 0f 3d 5b c1 0c bc 37 31 58 3d
       -0.034618236 0.035010505 -0.008591021 0.05278131
0001d0 86 db ea bb b1 b4 99 bd 20 c7 e3 3c 75 20 ab 3d
       -0.0071672825 -0.07505167 0.027804911 0.083558
0001e0 9d 42 c9 bc 4a 6e 8a bc a5 f3 ff 3a 75 2a 69 3d
       -0.024567897 -0.016898293 0.0019527568 0.056925256
0001f0 af 2b a4 3d f5 92 e0 bb f6 f3 8f 3c a6 2f 74 3d
       0.080161445 -0.006853456 0.017572384 0.059615754
000200 25 90 bd 3d e6 44 91 3d 8c 8a 9c bd 62 40 93 bd
       0.09256009 0.070932195 -0.07643613 -0.071900144
000210 c1 d5 65 bd 66 31 13 3d 92 ba 36 bd 87 16 e5 3c
       -0.056112055 0.035935782 -0.04461152 0.027964843
000220 7a 7b 95 bb a9 bf 42 bd 97 06 17 3d f7 aa 7a bc
       -0.0045618387 -0.047546063 0.03687152 -0.01529955
000230 95 37 53 bd cc 94 98 bc 75 65 f6 bc 5e 1e 80 bd
       -0.05156668 -0.01862564 -0.030077675 -0.06255792
000240 e7 70 0c 3b a5 40 6a 3c 8d 8a 70 bd 72 e9 94 3d
       0.00214296 0.014297639 -0.058725882 0.07271089
000250 e5 b7 9c bc 83 bd d5 bc de ab 81 3d 32 42 89 3c
       -0.019130656 -0.026091343 0.06331609 0.016755197
000260 e4 c6 cd bc 9f 1c 91 3c 21 1d 89 bd 1d 9f 88 3d
       -0.025119253 0.017713843 -0.06695009 0.066709734
000270 19 39 c6 bb 56 7f 10 3d 71 cc 81 bd 10 fa 3c 3d
       -0.006049287 0.035277687 -0.06337822 0.046136916
000280 da a7 8a bd 4c 71 d3 bb 71 8b 1b bd 7a 97 79 bd
       -0.067702964 -0.006452715 -0.03797478 -0.060935475
000290 30 44 1b 3c ff 2e 8d bd a4 20 98 bd 89 e7 b6 3c
       0.009476706 -0.068937294 -0.07428101 0.022327201
0002a0 b3 35 18 3d 74 94 4d 3b ed bb 0d bd 4b 63 05 bd
       0.037160587 0.0031369003 -0.034603048 -0.032565396
0002b0 d7 99 af bc aa 4d 2b bc 42 a7 44 bd 7d cf 69 3d
       -0.021435661 -0.010455528 -0.048011072 0.057082642
0002c0 e1 59 db 3a 43 6b a1 bd 0e 2d fe bc 30 b8 4e bd
       0.001673516 -0.07881787 -0.031027343 -0.050468624
0002d0 a8 00 33 bd a2 b6 60 3d ab b6 a8 3b f5 7d 3f 3d
       -0.043701798 0.054861672 0.005148729 0.04675098
0002e0 d0 c4 63 bc 02 79 36 bd 2b bb af 3c 06 93 84 bd
       -0.013901904 -0.044548996 0.021451553 -0.06473355
0002f0 54 18 b8 bd 13 3c 73 3d 6d 84 8d 3b 6e 1b 72 3d
       -0.08989015 0.059383463 0.004318765 0.05910819
000300 bf 19 8b 3d 69 83 15 3d c7 dd f6 bc 31 08 cb bc
       0.0679202 0.036502276 -0.030135049 -0.02478418
000310 56 4b 36 3c d4 04 09 3d d8 e4 b9 3c 5f a0 6f bd
       0.01112636 0.03345187 0.022692129 -0.05850255
000320 53 f6 86 bd 0b 6d 80 3d 01 00 bd bc cf ae 39 bd
       -0.06589951 0.06270798 -0.02307129 -0.045332726
000330 43 dc 92 3d 4a 03 f4 bc 06 18 37 bd 47 59 b1 3d
       0.07170918 -0.029786725 -0.044700645 0.086596064
000340 b0 e8 92 bd 4e 0d 22 bd ba 3b 39 3d 79 f9 26 bc
       -0.07173288 -0.03956347 0.045222975 -0.010191315
000350 f8 78 65 bd 68 ec 91 3d e7 d6 b5 bc 4e 5b d3 bd
       -0.056023568 0.07125169 -0.0221972 -0.10320149
000360 84 a5 27 bd ca 25 7d bc 3c 9e 16 bc d0 11 bc bd
       -0.040929332 -0.015450904 -0.009192999 -0.09183085
000370 04 ac 81 bd 32 d4 ef 3a e9 8f 6a bd b4 c8 b0 bd
       -0.063316375 0.0018297492 -0.05726615 -0.08632031
000380 36 d8 d4 3c e0 62 76 3b 77 61 9a bd dd 90 bb bd
       0.025982004 0.0037595555 -0.07538121 -0.0915849
000390 b2 d3 61 3d 36 6a b3 3d d0 b6 3e bd 92 24 c0 3d
       0.05513353 0.087604925 -0.046561062 0.09381975
0003a0 93 e5 82 3d 0f 0b d9 3d 66 70 36 bc 0e 30 24 3a
       0.06391444 0.105978124 -0.011135196 0.0006263264
0003b0 35 63 98 3d 87 be b1 3c 79 2b db bd 67 fc b5 3c
       0.07440797 0.021697296 -0.10701651 0.022215081
0003c0 9c 7a 9f 3d c5 66 aa bd 54 c4 aa bd a2 79 b2 bd
       0.07787058 -0.08320383 -0.08338228 -0.08714606
0003d0 0e 93 0e bd a3 90 f0 bc ab 53 13 bd bb 7b b4 bd
       -0.03480821 -0.029365843 -0.035968464 -0.08812662
0003e0 05 4f 67 3d af 34 d9 3d e4 08 a4 3d 97 04 9d 3d
       0.056471843 0.10605752 0.08009508 0.07666891
0003f0 ec 20 62 3d c3 0c b1 bc e6 ab 86 bd b1 8c 17 bd
       0.055207178 -0.02161253 -0.06575756 -0.03699941
