save_all/MSTAGAT-Net.japan.w-20.h-3.no_pprm.pt (torch, 123461 bytes, 60 tensors)

temp_conv.depthwise.weight f4 [1, 1, 3]
0	0x3e5c997f	0.21542929
1	0x3ea855b6	0.32877892
2	0xbebc1c61	-0.367404

temp_conv.pointwise.weight f4 [16, 1, 1]
0	0xbcd91895	-0.02650098
1	0x3d04eb45	0.032450933
2	0xbdd04912	-0.10170187
3	0x3e30e3c1	0.17274381
4	0x3ed6f72b	0.4198545
5	0xbe94d131	-0.2906585
6	0x3ed15196	0.40882558
7	0x3cd9cfdc	0.026588373
8	0x3e970e8a	0.2950328
9	0x3d19110c	0.037369773
10	0x3dc9fc04	0.09862521
11	0xbcf45fb4	-0.029830791
12	0x3ea51d6c	0.3224901
13	0x3cab4e67	0.020911409
14	0xbdb66102	-0.089052215
15	0x3ce3d560	0.027811706

temp_conv.pointwise.bias f4 [16]
0	0xbdaee0ec	-0.08538994
1	0x338280bd	6.077014e-08
2	0xbd5fff11	-0.05468661
3	0x3e6dfc43	0.23240761
4	0xbead4bff	-0.33847043
5	0xbdaf37d2	-0.08555569
6	0xbc18a806	-0.009317404
7	0xbe3bc380	-0.18336296
8	0xb3691afb	-5.427408e-08
9	0xbf042666	-0.5162109
10	0x3ee0e366	0.4392349
11	0xbec85215	-0.39125124
12	0x3ea59d1c	0.32346427
13	0x38329975	4.2581425e-05
14	0xbca76d61	-0.020437898
15	0x3e48fa82	0.19626811

temp_conv.bn2.weight f4 [16]
0	0x3f69b07a	0.91284907
1	0x3f544f96	0.8293394
2	0x3f450c73	0.7697212
3	0x3f4d600d	0.80224687
4	0x3f5b9e42	0.8578836
5	0x3f4fd085	0.8117755
6	0x3f3cd5fd	0.7376402
7	0x3f58c35e	0.84673107
8	0x3f55a7f0	0.8345938
9	0x3f60302c	0.87573504
10	0x3f4fd9a5	0.81191474
11	0x3f61d5da	0.88216937
12	0x3f60b0c2	0.8776971
13	0x3f31ae16	0.6940626
14	0x3f5cfffb	0.86328095
15	0x3f4b83e9	0.79498154

temp_conv.bn2.bias f4 [16]
0	0xbc2e3301	-0.0106322775
1	0x3d814bf5	0.06313316
2	0xbce7d1d0	-0.028298289
3	0x3cf91c43	0.030408984
4	0x3d0b327d	0.033983696
5	0xbd1f598a	-0.03890375
6	0x3e03eb73	0.12882785
7	0x3ac5edf7	0.0015100826
8	0x3dc38001	0.09545899
9	0xbce8ba01	-0.028409006
10	0x3db0c363	0.08631017
11	0xbc95f5e6	-0.01830573
12	0x3d2a12a0	0.04152167
13	0x3de04581	0.10950757
14	0xbca133e3	-0.019678062
15	0x3da0a9b0	0.07844865

temp_conv.bn2.running_mean f4 [16]
0	0xbdc50f3f	-0.096220486
1	0x3c0e57e3	0.008687946
2	0xbdaf7818	-0.08567828
3	0x3e921708	0.28533196
4	0xbe6d0583	-0.23146634
5	0xbe2c2617	-0.16811405
6	0x3dcd4140	0.10022211
7	0xbe39396e	-0.18088314
8	0x3da3f7b9	0.08006234
9	0xbf03727b	-0.5134656
10	0x3ef264af	0.4734244
11	0xbecfe1c3	-0.4060193
12	0x3ed59c0f	0.41720626
13	0x3ba98570	0.0051733777
14	0xbd3f4a97	-0.046701994
15	0x3e564d05	0.20927818

temp_conv.bn2.running_var f4 [16]
0	0x398e6e31	0.0002716645
1	0x39d148e2	0.00039917888
2	0x3b88f4b1	0.00417956
3	0x3c4195a6	0.011815464
4	0x3d8b4816	0.06800859
5	0x3d06c928	0.03290668
6	0x3d8424d6	0.064523384
7	0x39a34879	0.0003114378
8	0x3d0ad108	0.033890754
9	0x3a098a96	0.0005246786
10	0x3b80f92b	0.003935953
11	0x39b45a83	0.00034399712
12	0x3d2572de	0.04039275
13	0x391197d0	0.00013884832
14	0x3b532391	0.0032217244
15	0x39a47bbe	0.00031372713

feature_process_low.weight f4 [8, 320]
0	0x3c11dbf5	0.0089025395
1	0x3d26ce61	0.040724162
2	0x3b370e7f	0.0027932224
3	0xbc91807f	-0.017761467
4	0x3c3cbeb4	0.011520077
5	0xbc5152c6	-0.012776082
6	0x3c9f7e3c	0.019469373
7	0x3d2642b4	0.040590957
8	0x3cdfa341	0.027299525
9	0xbcb9bb31	-0.022672268
10	0x3cd58ba4	0.026067562
11	0x3c07bc87	0.0082846945
12	0x3cc7e8cd	0.024403
13	0xbcccd216	-0.02500252
14	0xbd3e3c52	-0.046444245
15	0xbc9b906c	-0.018989764
16	0xbd1b1ec9	-0.037871156
17	0x3d2581d8	0.04040703
18	0x3bd1fed8	0.0064085536
19	0xbcabc95d	-0.020970041
20	0x3b951a8f	0.004550285
21	0xbc49c860	-0.0123158395
22	0x3ce41047	0.027839793
23	0xbd2a87ba	-0.041633345
24	0xbc04bf77	-0.008102289
25	0xbd32e4a9	-0.0436751
26	0xbc22e26b	-0.009941678
27	0xbcf19229	-0.02948864
28	0xbc11f75b	-0.008909072
29	0xbcfca1c6	-0.030838858
30	0x3bb8a0a6	0.005634385
31	0xbd1f78ce	-0.038933568
32	0xbd1b96a2	-0.03798545
33	0xbd1773f3	-0.036975812
34	0x3d0c1b02	0.034205444
35	0x3bd0c418	0.0063710324
36	0x3d1e1a11	0.038599078
37	0xbd40bffc	-0.04705809
38	0xbd619904	-0.055077568
39	0xbd1ac158	-0.037782043
40	0xbd1382bf	-0.03601336
41	0x3cd7717b	0.026299229
42	0x3c843f3d	0.016143436
43	0x3d1fdb5d	0.03902756
44	0xbcc0b2dc	-0.023522787
45	0xbd1224e3	-0.03567971
46	0x3cc93794	0.024562635
47	0xbcbc31cf	-0.02297297
48	0x3ce9936b	0.028512677
49	0xbc5a91ee	-0.013340456
50	0x3cd50b2f	0.02600631
51	0xbd1e9ace	-0.038721852
52	0xbcac737e	-0.021051165
53	0x3c8965e2	0.016772214
54	0x3c22b059	0.00992974
55	0xbc411082	-0.011783721
56	0x3cf85961	0.030316057
57	0x3cfab73b	0.03060495
58	0xbd38b1f8	-0.0450916
59	0xbd85cf13	-0.06533637
60	0x3ceb2ae7	0.02870698
61	0xbcead683	-0.02866674
62	0xbce8c7b5	-0.02841554
63	0xbd5d674d	-0.054053593
64	0xbd139cdb	-0.03603826
65	0xbbd453ad	-0.0064797015
66	0xbcc21683	-0.023692375
67	0xbd2a47bd	-0.04157232
68	0xbc99e0ac	-0.01878389
69	0xbd485168	-0.04890576
70	0xbd4d1161	-0.050065402
71	0xbd11f4c7	-0.03563383
72	0xbd452e95	-0.048140127
73	0xbd15ca1e	-0.036569707
74	0x3d1f9182	0.038957126
75	0xba56f91c	-0.00082005723
76	0x3bebc5b9	0.0071952012
77	0xbd58703f	-0.05284142
78	0xbd1ac4d4	-0.037785366
79	0xbc7d0b4e	-0.01544459
80	0xbaf56735	-0.0018722775
81	0xbd61c4d3	-0.055119347
82	0xbd02b564	-0.03191127
83	0xbd17f01f	-0.03709423
84	0xbc3de603	-0.011590484
85	0xbcf60f09	-0.030036466
86	0xbca3b03d	-0.019981498
87	0xbd2a14fe	-0.041523926
88	0xbd30c8cf	-0.043160256
89	0xbd3bb461	-0.04582632
90	0xbd0c1009	-0.03419498
91	0xbd3d7ee3	-0.046263587
92	0x3c9dd071	0.019264432
93	0xbc9d6312	-0.01921228
94	0x3d03461d	0.032049287
95	0x3b98cce8	0.0046630986
96	0xbd4f8eee	-0.050673418
97	0x3ce86f45	0.02837337
98	0xbc9b3051	-0.018943937
99	0xbc902728	-0.017596796
100	0xbd2ec7d5	-0.042671043
101	0xbd4587c0	-0.048225164
102	0x3c4c0f6a	0.012454847
103	0xbc6f89f8	-0.014620297
104	0x3c98d3c6	0.018655669
105	0xbd26b29c	-0.04069768
106	0x3d1686bd	0.03674959
107	0xbd1accd6	-0.037793003
108	0xbc4ad60d	-0.012380135
109	0x3b8cdad9	0.0042985496
110	0x3cbb0447	0.022829188
111	0x3d136971	0.03598923
112	0x3d333410	0.043750823
113	0xbd2491c1	-0.040178064
114	0x3c112fec	0.008861523
115	0xbcab9d3c	-0.020948999
116	0xbbb132ec	-0.0054076817
117	0xbd1d0bb9	-0.038341258
118	0x3d1399ce	0.03603535
119	0xbd984ac7	-0.07436138
120	0x3c4f6181	0.012657524
121	0x3bf840b8	0.0075760745
122	0x3bbd0291	0.005768128
123	0xbd08f9d8	-0.033441395
124	0x3ce1cff9	0.02756499
125	0xbc0e05a8	-0.008668341
126	0xbc8106d3	-0.015750324
127	0xbd46d12f	-0.048539337
128	0xbb56ebb6	-0.0032794303
129	0xbce2e187	-0.02769543
130	0xbd1ec78c	-0.03876452
131	0x3c785700	0.015157461
132	0xbb855a97	-0.004069637
133	0xbd0aafbd	-0.033859003
134	0xbd02d68f	-0.0319429
135	0xbc3809e5	-0.011232828
136	0x3c98facc	0.018674277
137	0xbc90ecf2	-0.01769111
138	0xbd04bf97	-0.032409277
139	0xbc4b0f75	-0.012393822
140	0xbd13b58f	-0.03606182
141	0x3bd82435	0.006596113
142	0x3cd3b758	0.025844261
143	0xbd5a552a	-0.053303875
144	0xba9a2d1f	-0.0011762715
145	0x3b88d0ff	0.004175305
146	0xbc54e19e	-0.012993244
147	0xbce7d3eb	-0.028299293
148	0x3af10ca5	0.0018390609
149	0xbba6e4e9	-0.005093206
150	0xbc0b2894	-0.008493561
151	0xbcb7c195	-0.022431174
152	0xbcc9e8a1	-0.024647059
153	0xbb9410ad	-0.0045185895
154	0xbc822502	-0.015886787
155	0xbcbb4fcb	-0.022865197
156	0x3cc7e30f	0.024400262
157	0x3d15edde	0.0366038
158	0xbc10ae91	-0.008830682
159	0xbc186063	-0.009300324
160	0xbc029ab3	-0.0079714535
161	0xbc56599b	-0.013082887
162	0x3a16e110	0.0005755583
163	0x3b968949	0.0045940024
164	0xbd506559	-0.050877903
165	0xbd006102	-0.031342514
166	0x3c0fd020	0.008777648
167	0xbbc1b843	-0.0059118583
168	0xbcbc5779	-0.022990929
169	0xbd36faa3	-0.04467262
170	0xbd2ee990	-0.04270321
171	0xbd46ae67	-0.048506167
172	0xbcdf6c78	-0.027273402
173	0x3b784909	0.003788533
174	0x3cb2bab1	0.021817537
175	0x3c422da5	0.011851703
176	0xbd54e4c5	-0.051975984
177	0xbd13f514	-0.036122397
178	0xbc4058e2	-0.011739941
179	0x3d633a0a	0.055475272
180	0xbb010a42	-0.0019689952
181	0xbccd2dd5	-0.025046268
182	0x3c1a9ea2	0.009437235
183	0xbcdd2c4f	-0.026998667
184	0xbd20701a	-0.03916941
185	0x3c4daef1	0.012553916
186	0xbd0f63e8	-0.035007387
187	0xbcc06262	-0.023484413
188	0xbd60ad39	-0.054852698
189	0x3ac4b4d0	0.00150075
190	0x3b656416	0.0035002283
191	0xbb144748	-0.0022625495
192	0xbd25b332	-0.040454097
193	0xbd5b293b	-0.053506117
194	0xbd3bd254	-0.04585488
195	0x3cd4bc96	0.025968831
196	0x3c74bb9d	0.014937309
197	0x3d1f6dff	0.03892326
198	0x3cae138b	0.021249553
199	0x3c688c43	0.014193597
200	0xbc0fc608	-0.008775242
201	0xbd48606c	-0.04892008
202	0xbd5a2454	-0.0532573
203	0xbd557e52	-0.05212242
204	0x3be60f7c	0.007020889
205	0xbd1288e7	-0.03577509
206	0xbce2318f	-0.027611522
207	0xbd1aee0d	-0.03782468
208	0xbcd2d8b6	-0.025738101
209	0xbd4d2b04	-0.05008985
210	0xbd3518a5	-0.044212956
211	0xbb86d03f	-0.0041141803
212	0xbcd92d33	-0.02651081
213	0x3c8fcfb4	0.017555095
214	0xbcbc82eb	-0.023011645
215	0xbd3c7d26	-0.04601779
216	0xbc88ff19	-0.016723203
217	0xbcf1202c	-0.029434286
218	0xbc95a850	-0.018268734
219	0xbd392692	-0.0452028
220	0x3cea1596	0.028574746
221	0xbd05a3b9	-0.03262684
222	0x3cc2681c	0.023731284
223	0x3cb4a481	0.022051098
224	0x3cf84463	0.030306047
225	0xbd1c3d89	-0.038144622
226	0x3d0a8ac3	0.03382374
227	0xbcc4f365	-0.02404184
228	0x3c8f6fd4	0.017509378
229	0x3d316a75	0.043314416
230	0xbc21961b	-0.009862448
231	0xbb404f61	-0.0029344189
232	0xbc5647b6	-0.013078621
233	0xbd312149	-0.043244634
234	0x3cb7635d	0.022386247
235	0xbd4eeba9	-0.05051771
236	0x3cff96c0	0.031199813
237	0x3d0c6e1a	0.03428469
238	0x3d2579a2	0.0403992
239	0xbd4d36c7	-0.050101068
240	0xbd263b66	-0.04058399
241	0xba6707da	-0.00088131207
242	0x3c81d1af	0.015847055
243	0xbd61a84c	-0.05509214
244	0xbca75a97	-0.020428939
245	0xbd25af42	-0.040450342
246	0xbcba5e1d	-0.022749955
247	0xbd0eafdc	-0.03483568
248	0xbd0e0e5f	-0.034681674
249	0xbd165195	-0.036698896
250	0xbd59ba51	-0.0531562
251	0x3c62b88f	0.0138379475
252	0x3ca2c6d2	0.019870196
253	0xbc897e73	-0.016783928
254	0xbc582cea	-0.013194302
255	0xbcf7cd15	-0.030249158

feature_process_low.bias f4 [8]
0	0x3d1686a2	0.03674949
1	0x3d060f1d	0.032729257
2	0x3d02fef4	0.031981423
3	0xbc56b0db	-0.013103689
4	0xbd2701db	-0.040773254
5	0xbcf9c53a	-0.030489553
6	0x3cc0a298	0.02351503
7	0x3d6372ed	0.055529524

feature_process_high.weight f4 [32, 8]
0	0xbe00fc9f	-0.12596367
1	0x3e2524fd	0.16127391
2	0x3d38fde7	0.045164015
3	0xbc0e43cb	-0.008683155
4	0x3d119c4d	0.03554945
5	0xbd3378a4	-0.043816224
6	0x3e8e2724	0.27764237
7	0x3ba54adc	0.0050443243
8	0x3d5922c2	0.053011663
9	0xbdcf2d2c	-0.10116038
10	0xbcb8b3a6	-0.0225466
11	0x3d715786	0.05892136
12	0x3d9e9d1a	0.077448085
13	0x3d5b7e7c	0.05358742
14	0x3800deba	3.072501e-05
15	0xbdf5d831	-0.12004126
16	0x3be64544	0.0070273
17	0xbe74ac28	-0.23893797
18	0xbe8d73a8	-0.276273
19	0x3d435e24	0.0476972
20	0xbe66177d	-0.22469898
21	0x3ea1cfd9	0.31603888
22	0xbe36d494	-0.1785453
23	0x3df11d1e	0.11773132
24	0x3e2ef622	0.1708608
25	0xbe57a9ec	-0.21060914
26	0x3e038f38	0.12847602
27	0xbd878a0c	-0.06618127
28	0x3e2c3464	0.1681686
29	0x3e6e3803	0.23263554
30	0xbe04851d	-0.12941404
31	0xbe0f072e	-0.13967583
32	0x3e1ed98c	0.15512675
33	0xbc307909	-0.0107710445
34	0xbc6d23b0	-0.014473841
35	0x3e7623c0	0.24037075
36	0xbdf869ae	-0.12129532
37	0x3d1e552b	0.03865544
38	0x3e1b55f4	0.15169507
39	0x3d7c3187	0.06157067
40	0xbe5ecb99	-0.21757354
41	0x3dbf17fc	0.093307465
42	0xbe4e191b	-0.20126764
43	0xbe35e018	-0.17761266
44	0x3e4fd3f6	0.202957
45	0xbdbaba11	-0.091175206
46	0xbe2471d8	-0.16059053
47	0x3c8010e1	0.015633048
48	0x3dad0f79	0.08450217
49	0xbe479405	-0.19490059
50	0xbe5fc275	-0.21851523
51	0xbe9eed5f	-0.31040475
52	0x3dc3c7a6	0.09559564
53	0xbe68cd88	-0.22734654
54	0x3c9c6770	0.019092292
55	0xbd91d322	-0.071203485
56	0xbe5493e5	-0.20759542
57	0xbdae9c25	-0.08525876
58	0xbe23317e	-0.15936849
59	0xbde0ddde	-0.10979818
60	0xbc8f1f92	-0.017471109
61	0xbe44dc1e	-0.19224593
62	0xbe4ae3b4	-0.19813424
63	0x3e0592e6	0.13044319
64	0x3d01cdc8	0.03169039
65	0xbdb83a0e	-0.08995448
66	0xbac2c99d	-0.0014861111
67	0x3e66a0fa	0.22522345
68	0xbe80a7a6	-0.25127906
69	0xbe1d6554	-0.15370685
70	0xbe583919	-0.21115531
71	0xbd07ca36	-0.033151828
72	0xbc85b287	-0.01632048
73	0xbe0b5747	-0.13607512
74	0x3e1a560c	0.15071887
75	0xbdd5e6be	-0.10444401
76	0x3e48cefe	0.19610211
77	0xbd8d0d33	-0.06887283
78	0xbd11c235	-0.0355856
79	0x3d1dcd9d	0.038526166
80	0xbe215dab	-0.15758388
81	0x3e8887ab	0.26666006
82	0xbe23f7ab	-0.16012447
83	0xbcdff7d2	-0.02733985
84	0xbe4f3e4f	-0.20238613
85	0x3d91c7cc	0.07118186
86	0x3e97c34a	0.2964118
87	0x3e8dcf8e	0.27697414
88	0x3d131580	0.035909176
89	0xbe14fd6d	-0.145498
90	0x3e8bf6e4	0.273368
91	0xbad05431	-0.0015894232
92	0x3e6d497a	0.2317256
93	0xbe2b2bf7	-0.1671599
94	0xbe17da4b	-0.14829366
95	0xbe8e36d3	-0.27776203
96	0x3e8a9395	0.2706572
97	0x3d531077	0.051529374
98	0xbe3392c4	-0.17536455
99	0x3ced95ee	0.029002156
100	0xbe0ef368	-0.1396004
101	0x3c11362c	0.008863013
102	0x3df442d3	0.11926808
103	0xbe1af925	-0.15134104
104	0x3d6a4603	0.057195675
105	0xbe3d0d9a	-0.1846222
106	0x3d7fa899	0.062416647
107	0xbe8658ae	-0.26239532
108	0x3d7f5fd2	0.06234724
109	0x3e7b5ba3	0.24546675
110	0x3e9d7798	0.30755305
111	0x3de97393	0.11398997
112	0x3e4a102d	0.19732733
113	0x3e6f775f	0.2338538
114	0x3d7a528b	0.061113875
115	0x3e0107c0	0.12600613
116	0x3c0899f3	0.008337486
117	0x3e5236e3	0.2052875
118	0x3e6a491d	0.22879453
119	0xbddc0aa6	-0.107442185
120	0xbc6ae889	-0.014337667
121	0xbdf1db1b	-0.11809369
122	0x3dbe2995	0.09285275
123	0xbe473600	-0.19454193
124	0x3db02fb5	0.086028494
125	0xbd6f6ca0	-0.058453202
126	0x3df76f31	0.12081755
127	0x3d957c3f	0.07299089
128	0xbe2d36c2	-0.1691542
129	0x3de21397	0.11038893
130	0x3dbe4728	0.09290916
131	0xbe61551a	-0.2200512
132	0x3e63511f	0.22198914
133	0x3e36870c	0.17824954
134	0x3e3bf970	0.18356872
135	0xbc983f9e	-0.018585023
136	0x3e036239	0.12830438
137	0xbe1eb8ac	-0.15500134
138	0xbdd0c367	-0.1019352
139	0x3e26e753	0.1629918
140	0x3e05be7e	0.13060948
141	0x3e115c09	0.14195265
142	0xbea1ad90	-0.3157773
143	0x3e87cec3	0.26524934
144	0xbde57451	-0.11203826
145	0x3e096358	0.13416803
146	0x3e6cc70a	0.23122802
147	0x3dfef9b0	0.12449968
148	0x3e80a103	0.25122842
149	0x3deab453	0.11460175
150	0x3e12dd97	0.14342342
151	0xbd787a00	-0.060663223
152	0x3e76dc26	0.24107417
153	0x3db0a0ce	0.08624421
154	0x3e170610	0.14748406
155	0xbde023fd	-0.10944364
156	0x3e57bafe	0.21067426
157	0x3e06d680	0.13167763
158	0xbe58c59c	-0.21169132
159	0x3e61c009	0.22045912
160	0xbe67e1c6	-0.2264472
161	0xbe7f25fa	-0.2491683
162	0xbe7fc61a	-0.24977913
163	0x3dce0181	0.100588806
164	0xbe758200	-0.23975372
165	0xbddd0773	-0.107924365
166	0xbe41e51a	-0.18935052
167	0x3db89300	0.09012413
168	0xbea23372	-0.31679875
169	0xbdfdcfd1	-0.123931535
170	0x3ba014d1	0.004885294
171	0x3d2f4c04	0.042797104
172	0xbe1a7414	-0.15083343
173	0x3deb05b5	0.11475698
174	0xbe59b238	-0.21259391
175	0xbe810e3d	-0.25206175
176	0xbd28e176	-0.04123064
177	0xbd792808	-0.060829192
178	0x3e01c3b0	0.12672305
179	0xbdebca53	-0.115132
180	0xbceb6258	-0.028733417
181	0x3d881d85	0.066462554
182	0xbe3bc687	-0.18337451
183	0x3de9d42b	0.11417421
184	0xbe0dc4d2	-0.13844612
185	0xbd965c47	-0.07341819
186	0xbe018abd	-0.1265058
187	0xbcf85ab2	-0.030316684
188	0xbdee5665	-0.11637572
189	0xbe1cf6d9	-0.1532854
190	0x3d4eb8dd	0.050469268
191	0x3cb02e4a	0.021506447
192	0x3e6b7b84	0.22996336
193	0x3d8ad0d6	0.067781135
194	0x3db60b4d	0.08888874
195	0x3d9ed9b7	0.077563696
196	0x3d886d94	0.06661525
197	0x3dd8f802	0.10594179
198	0x3e10ecfc	0.14152902
199	0xbd8282cd	-0.063726045
200	0xbdae7839	-0.085190244
201	0xbe670c30	-0.22563243
202	0x3b9138c5	0.0044318163
203	0xbe163576	-0.14668831
204	0x3e832af1	0.256187
205	0x3cc92269	0.02455254
206	0x3d14bf47	0.03631523
207	0xbe5802a2	-0.21094754
208	0xbe8c07ae	-0.2734961
209	0x3d3319b2	0.043725677
210	0xbe1f9c6d	-0.15587015
211	0xbe072090	-0.13196015
212	0x3e70d908	0.23520291
213	0xbe3f37c7	-0.18673621
214	0xbe1d9e29	-0.15392365
215	0x3e794424	0.243424
216	0x3dd27712	0.10276617
217	0xbe29783b	-0.1654977
218	0x3d760e49	0.060072217
219	0x3e3ef405	0.18647774
220	0xbe9d336f	-0.30703303
221	0x3d6091b1	0.054826442
222	0x3d949380	0.07254696
223	0xbbea7e81	-0.0071561937
224	0x3e52952f	0.20564722
225	0xbe531270	-0.20612502
226	0x3db38088	0.0876475
227	0xbe149773	-0.14510898
228	0xbe80a43e	-0.25125307
229	0x3e2c2c9e	0.16813895
230	0xbe2fce35	-0.17168505
231	0x3d108dc6	0.035291456
232	0x3e2bad58	0.16765344
233	0xbe7a9ffc	-0.24475092
234	0xbe62c113	-0.22143964
235	0x3d83d6e7	0.06437474
236	0x3e98bb0e	0.2983021
237	0xbd3d6def	-0.04624742
238	0x3e70abab	0.23502986
239	0x3dcf98ef	0.10136592
240	0x3dbf4821	0.09339929
241	0xbe5e5afc	-0.21714395
242	0x3e820b18	0.2539909
243	0x3e29aa73	0.16568927
244	0x3d1bd00f	0.038040217
245	0x3e6b7058	0.22992074
246	0xbe93192e	-0.28730148
247	0x3db3b066	0.0877388
248	0xbe186e8a	-0.14885917
249	0x3b489f20	0.0030612424
250	0x3dbe5673	0.09293833
251	0x3e0adfe9	0.13561977
252	0x3d5cb461	0.05388296
253	0xbe7acaa9	-0.24491371
254	0xbe3ccf12	-0.18438366
255	0xbc97603d	-0.018478507

feature_process_high.bias f4 [32]
0	0xbd448f83	-0.047988426
1	0xbe5beffd	-0.21478267
2	0x3eaabf05	0.3334886
3	0x3d2f4d1f	0.042798158
4	0xbe68135d	-0.22663637
5	0x3e1af7f4	0.15133649
6	0x3e24c8c9	0.16092218
7	0xbe009a16	-0.12558779
8	0x3e16cc16	0.1472629
9	0xbdec6322	-0.115423456
10	0x3def06b8	0.116712034
11	0x3ea38b12	0.3194204
12	0x3e5f79e1	0.21823837
13	0x3e308635	0.17238696
14	0xbd783bb1	-0.0606038
15	0x3d48f52f	0.04906195
16	0x3debaae2	0.11507203
17	0x3dac535c	0.08414337
18	0xbd2637d1	-0.040580574
19	0x3d17c0de	0.037049167
20	0xbd823a84	-0.06358817
21	0xbe507120	-0.20355654
22	0xbe6d40a3	-0.23169188
23	0xbe62d3cb	-0.22151105
24	0xbe10632d	-0.14100333
25	0x3e951af3	0.29122123
26	0x3da0b27c	0.07846543
27	0xbe9e92c6	-0.30971354
28	0xbda6ea00	-0.08150101
29	0x3dac5c6a	0.08416064
30	0xbdc93cac	-0.09826025
31	0xbdd3665d	-0.103222586

feature_norm.weight f4 [32]
0	0x3f50e61d	0.81601125
1	0x3f07a2a8	0.5298257
2	0x3f79c771	0.9756995
3	0x3f4d4d04	0.8019564
4	0x3f23fc5a	0.6405693
5	0x3f29243e	0.66070926
6	0x3f6a3d60	0.914999
7	0x3f3c7e4c	0.73630214
8	0x3f50a687	0.815041
9	0x3f1b0685	0.60556823
10	0x3f66b905	0.9012607
11	0x3f6cc129	0.9248224
12	0x3f5d40af	0.86426824
13	0x3f48ca29	0.7843347
14	0x3f204fdb	0.6262185
15	0x3f2894ca	0.65852034
16	0x3f417613	0.7557079
17	0x3f68e53e	0.90974796
18	0x3f2dc627	0.6788048
19	0x3f365f0f	0.712388
20	0x3f6bc66e	0.92099655
21	0x3f588daf	0.8459119
22	0x3f0aa595	0.5415891
23	0x3f282861	0.65686613
24	0x3f083aa6	0.5321449
25	0x3f517a0b	0.8182685
26	0x3f55371c	0.83287215
27	0x3f4ca328	0.79936457
28	0x3f14ad44	0.5807688
29	0x3f53aa9e	0.82682216
30	0x3f449798	0.76793814
31	0x3f3dd492	0.7415248

feature_norm.bias f4 [32]
0	0xbbf53c06	-0.007483962
1	0xbb2541eb	-0.0025216292
2	0xbc5217c5	-0.01282305
3	0x3ac58ff7	0.0015072812
4	0xbb888185	-0.0041658306
5	0x3b660f44	0.0035104314
6	0x3c2520b7	0.010078601
7	0x3a9e4a50	0.001207659
8	0xbc44c3c0	-0.012009561
9	0x3a26c151	0.0006361204
10	0xbabbfa07	-0.0014341482
11	0xbbe386da	-0.006943566
12	0xbba7b946	-0.005118522
13	0x3a20e33a	0.0006137375
14	0x3b9baac6	0.0047505824
15	0xbc653028	-0.013988532
16	0xbb71f0c2	-0.0036917184
17	0xbbd1f4ec	-0.006407371
18	0x3a8d814e	0.0010795982
19	0xbbc32e82	-0.005956472
20	0x3cc038f3	0.023464656
21	0xbb69e39e	-0.003568865
22	0xba8117e3	-0.0009849038
23	0xbb6762f3	-0.003530678
24	0xbc009a8d	-0.007849348
25	0xbcdb8502	-0.026796822
26	0x3c90c669	0.017672734
27	0x3c3e980a	0.011632929
28	0x3d15fc32	0.036617465
29	0xb9513f4b	-0.00019955372
30	0x3bb5d516	0.0055490835
31	0xbbb3ecb5	-0.005490864

graph_attention.u f4 [4, 47, 8]
0	0x2f1e473c	1.4395324e-10
1	0xa7ad890b	-4.816573e-15
2	0xabd100a4	-1.4850521e-12
3	0xa7bc1029	-5.2198003e-15
4	0xa8206e55	-8.905709e-15
5	0xa7330be1	-2.484768e-15
6	0x3131de7d	2.588336e-09
7	0x29bebf2b	8.4708573e-14
8	0xaa4c9391	-1.8170037e-13
9	0xae62d2cb	-5.1573672e-11
10	0x27c2a0b1	5.402004e-15
11	0xa8f80818	-2.7537041e-14
12	0xab559fdc	-7.589465e-13
13	0xa81bc5d3	-8.647125e-15
14	0xa766e6d1	-3.2044038e-15
15	0xa8bd2268	-2.0998136e-14
16	0xa79bd1ae	-4.3248477e-15
17	0xa7ee9015	-6.6214484e-15
18	0xa842e756	-1.0819326e-14
19	0xab3810bc	-6.5393155e-13
20	0x2e042b91	3.005202e-11
21	0x2912837d	3.253256e-14
22	0x2b4658e3	7.0467086e-13
23	0xaf49ea8d	-1.8364173e-10
24	0xabf244f3	-1.7214271e-12
25	0xa7266129	-2.3089798e-15
26	0x31222ddf	2.3600177e-09
27	0xb0bd769e	-1.3785273e-09
28	0x25c3c9fb	3.3963975e-16
29	0x278d6615	3.924604e-15
30	0xad9774cd	-1.7218582e-11
31	0x2b46fa02	7.0690686e-13
32	0x2f4c7a6c	1.8597185e-10
33	0x301fc19f	5.8119015e-10
34	0xb147d6ef	-2.9080487e-09
35	0xa8556484	-1.1845671e-14
36	0x2668d413	8.0778583e-16
37	0x2d3ef25c	1.0854064e-11
38	0xaa066f2f	-1.1940165e-13
39	0xb13204a0	-2.5905038e-09
40	0x2cd04f5a	5.9205254e-12
41	0xacd2d59e	-5.9922753e-12
42	0x272e0ce2	2.4154335e-15
43	0xaa499a9c	-1.7906027e-13
44	0x280fc0b0	7.979877e-15
45	0xa9c6f55e	-8.835531e-14
46	0xab0e6a0e	-5.0595715e-13
47	0x28d923cd	2.4107366e-14
48	0xad2baad7	-9.758159e-12
49	0xabee5238	-1.6933737e-12
50	0xaf48480b	-1.8215489e-10
51	0x27512cbc	2.9028827e-15
52	0x26ee5e7b	1.6540176e-15
53	0xa9ac1128	-7.6413105e-14
54	0xa8094ccc	-7.62168e-15
55	0x24de47ba	9.639866e-17
56	0x25eb78f1	4.0847955e-16
57	0x2cc61602	5.629942e-12
58	0x2a62c48d	2.0141025e-13
59	0x27c3c3ef	5.4335804e-15
60	0xa8df4c1d	-2.4790982e-14
61	0xa733eff9	-2.497133e-15
62	0x2b2c2108	6.1152515e-13
63	0xa6a93836	-1.1741967e-15
64	0x311bef26	2.2691409e-09
65	0x253a465f	1.6156771e-16
66	0xa98d1060	-6.2644985e-14
67	0xa8871d10	-1.5000615e-14
68	0xa8008bee	-7.13577e-15
69	0xa69930d2	-1.062974e-15
70	0x29dc5a3a	9.7856144e-14
71	0xada955e2	-1.9251215e-11
72	0x2d318cb2	1.0092526e-11
73	0x2969f49a	5.194855e-14
74	0x292c5921	3.826898e-14
75	0xa8383ef1	-1.02277e-14
76	0xa8227b1a	-9.0195e-15
77	0x29646c28	5.071998e-14
78	0xb13abdf1	-2.7174532e-09
79	0x2891f955	1.6206364e-14
80	0x282b5f2b	9.513043e-15
81	0x282f01a3	9.714806e-15
82	0xab5d41b8	-7.8606175e-13
83	0x273d8a4d	2.6303992e-15
84	0xabb4209d	-1.2798821e-12
85	0xa87b64c5	-1.395515e-14
86	0xa7788205	-3.4487397e-15
87	0xa735230b	-2.5137793e-15
88	0x2a128621	1.301394e-13
89	0xa76501ca	-3.1781104e-15
90	0xa8371ab7	-1.01643335e-14
91	0x31455378	2.871472e-09
92	0x286339a7	1.2613533e-14
93	0xa7b2d6e5	-4.9637914e-15
94	0xadbd6c1e	-2.1534826e-11
95	0xa80c00ac	-7.771707e-15
96	0xae440b78	-4.4575427e-11
97	0xa68143fe	-8.969602e-16
98	0xb1449d9b	-2.8611342e-09
99	0x2786aa52	3.7377133e-15
100	0x2cc56a51	5.6108803e-12
101	0x27b4379d	5.0020332e-15
102	0x2a7c5cbd	2.2414271e-13
103	0x27aeb82d	4.8494385e-15
104	0xb14b2a6b	-2.95645e-09
105	0x27f48979	6.7872653e-15
106	0xa7daf1ee	-6.0769456e-15
107	0x2b63e910	8.097004e-13
108	0xa7b193b2	-4.92875e-15
109	0x2b8e6d27	1.0120003e-12
110	0xa784b117	-3.682936e-15
111	0x2b7bc668	8.944846e-13
112	0x274d5442	2.8495141e-15
113	0xa8723cd8	-1.3446892e-14
114	0xab0e5631	-5.056815e-13
115	0x2bd88a51	1.5386114e-12
116	0x2a51f1a8	1.864677e-13
117	0xa954b669	-4.7231672e-14
118	0xaf4b8733	-1.8510775e-10
119	0xa82d6d75	-9.627164e-15
120	0x287f5549	1.4173837e-14
121	0xaf49bbde	-1.8347587e-10
122	0x2ed5dbd0	9.725165e-11
123	0xa7ca0692	-5.6073386e-15
124	0xa8e8edb2	-2.5860258e-14
125	0xa7ff0917	-7.0786573e-15
126	0x2907e650	3.0175786e-14
127	0xa7be62d4	-5.2842743e-15
128	0xb0b4396b	-1.3113043e-09
129	0x29ed1f05	1.0530295e-13
130	0x277779ed	3.4344232e-15
131	0x27eccc36	6.5724564e-15
132	0xa87d9b44	-1.4077989e-14
133	0x28c24b1e	2.1570904e-14
134	0xaea39ad6	-7.439886e-11
135	0xa7bbaf6a	-5.209311e-15
136	0x28c4079c	2.1763671e-14
137	0x3098894c	1.1098478e-09
138	0x28934e69	1.6354283e-14
139	0xa948d499	-4.459332e-14
140	0xb0fce798	-1.8401236e-09
141	0x28c17fe8	2.1482775e-14
142	0x28a42dab	1.8227463e-14
143	0x28112e15	8.059109e-15
144	0xa9324e7c	-3.9592014e-14
145	0x2b58f088	7.707242e-13
146	0x2ca5e222	4.714688e-12
147	0xa6f512f2	-1.7005425e-15
148	0xa892eb2c	-1.6311246e-14
149	0xa8a4cad4	-1.829562e-14
150	0x29656579	5.0936228e-14
151	0xa70581ba	-1.8527783e-15
152	0x2803c2df	7.314217e-15
153	0xa995ab19	-6.64661e-14
154	0x31259547	2.4095514e-09
155	0xa92da9c5	-3.8560968e-14
156	0x292d9062	3.853895e-14
157	0x2ba0048c	1.1369946e-12
158	0xa8a3aa00	-1.8170361e-14
159	0xa54053fc	-1.66818e-16
160	0x261e3f9e	5.490348e-16
161	0xaf4bb1fd	-1.8525977e-10
162	0xa8903947	-1.6012052e-14
163	0x2f207f45	1.459713e-10
164	0xa9974f9a	-6.719556e-14
165	0xa82d92ae	-9.635235e-15
166	0xa7a36797	-4.53539e-15
167	0xa811a36a	-8.084552e-15
168	0xa8e24ec2	-2.5125196e-14
169	0xaa25da8c	-1.4730768e-13
170	0xa8579d90	-1.19690634e-14
171	0xb14842cc	-2.91418e-09
172	0xa6b47064	-1.2520473e-15
173	0x2ad6dda7	3.8167839e-13
174	0xa63f832d	-6.6444213e-16
175	0xa836b5bc	-1.0142437e-14
176	0xa8ad2daf	-1.922667e-14
177	0x27630240	3.1503798e-15
178	0xa837033f	-1.01592446e-14
179	0x292f9df2	3.89948e-14
180	0x2b3f555a	6.797528e-13
181	0xa9b7f4f9	-8.1693285e-14
182	0x28ff03c5	2.8312322e-14
183	0xaaa94bc5	-3.0073006e-13
184	0xa99f7255	-7.080852e-14
185	0x27b98340	5.1490116e-15
186	0x288d4dea	1.5687934e-14
187	0xaf4bc552	-1.8532845e-10
188	0x29afa7a7	7.800644e-14
189	0x299313f7	6.531575e-14
190	0xa88b2335	-1.5447369e-14
191	0x28404f98	1.06754e-14
192	0xa856b9bb	-1.191966e-14
193	0x2f37c3da	1.6713333e-10
194	0x2f4953ca	1.8310611e-10
195	0x268904b5	9.50756e-16
196	0xaeab7fda	-7.798891e-11
197	0xa731327d	-2.4591054e-15
198	0x2655e490	7.420898e-16
199	0x2dd5cfd7	2.4307596e-11
200	0xa83f8023	-1.0630415e-14
201	0x306bf6c1	8.584316e-10
202	0x290f03d8	3.1755712e-14
203	0x28587652	1.2016065e-14
204	0xa87d2532	-1.4052387e-14
205	0xa8aec6fe	-1.940418e-14
206	0x289728a8	1.6782e-14
207	0x2a6259b4	2.0103954e-13
208	0x2bce63c5	1.4664872e-12
209	0x2de8c8ba	2.6464487e-11
210	0xb0417bd2	-7.038895e-10
211	0xad8d2732	-1.604725e-11
212	0x290355f0	2.9162382e-14
213	0xb0fd8c05	-1.8447969e-09
214	0xa84dce75	-1.1424554e-14
215	0x26e20e77	1.5685821e-15
216	0xaa34f114	-1.6070852e-13
217	0xa941c268	-4.302323e-14
218	0xadcdcd10	-2.3396868e-11
219	0xa9e2c21b	-1.0070088e-13
220	0xa93f172d	-4.243062e-14
221	0xb12de822	-2.5306766e-09
222	0xa92140a1	-3.5805238e-14
223	0xb14bc776	-2.9653768e-09
224	0xa990c1ce	-6.4285044e-14
225	0xa8d5eb95	-2.3749918e-14
226	0x278da4a7	3.931388e-15
227	0x27f2d93c	6.740402e-15
228	0xa990e63c	-6.434824e-14
229	0xa80c41d2	-7.785834e-15
230	0xaa57b969	-1.9160163e-13
231	0x2dbbfd31	2.1371878e-11
232	0x2de9ea66	2.6593127e-11
233	0x2629cc3d	5.891045e-16
234	0x28bbded9	2.0857815e-14
235	0xab4c9f89	-7.269676e-13
236	0xa74f3b86	-2.8759288e-15
237	0xaa2a7d53	-1.5142514e-13
238	0xaac68d9f	-3.5270135e-13
239	0xa835d17e	-1.0092945e-14
240	0x28746e2e	1.3568612e-14
241	0xaf4bfebc	-1.8553242e-10
242	0x2bcd0696	1.4567954e-12
243	0x2dbc4f1d	2.1408259e-11
244	0xa730e499	-2.454883e-15
245	0xa817fb7a	-8.436714e-15
246	0x2d7edb5b	1.4486935e-11
247	0xaf04c84d	-1.2076491e-10
248	0xab537ed0	-7.5138246e-13
249	0xac4c4b24	-2.9031855e-12
250	0x2c6e7885	3.3888736e-12
251	0x27ae7c57	4.842951e-15
252	0x2b32b672	6.3491497e-13
253	0xa72a054d	-2.3595113e-15
254	0x295da770	4.9217087e-14
255	0xa80c4b1f	-7.7878505e-15

graph_attention.v f4 [4, 8, 47]
0	0x2dcd4c66	2.333973e-11
1	0xaaeeb586	-4.240325e-13
2	0x2a10d3bf	1.2863233e-13
3	0xa788c4c8	-3.7960933e-15
4	0xab42af0f	-6.916559e-13
5	0x287fd891	1.4202304e-14
6	0x26d94f29	1.5078856e-15
7	0xac94a530	-4.2247525e-12
8	0xa881cd23	-1.4410841e-14
9	0xa8bc4f0f	-2.0906479e-14
10	0xa3df40c2	-2.4205134e-17
11	0xa9816862	-5.746858e-14
12	0x2a1daea5	1.4004993e-13
13	0x29907af3	6.416213e-14
14	0xa8333296	-9.947465e-15
15	0xa897aa61	-1.6838258e-14
16	0xa8e54f9f	-2.5458637e-14
17	0xa8ddddb9	-2.4632086e-14
18	0x2c1bf9e3	2.216554e-12
19	0x29f1c28e	1.07363e-13
20	0x28f174d6	2.6807044e-14
21	0xa7b64ffd	-5.060187e-15
22	0xa75a736b	-3.0316146e-15
23	0xaba01d64	-1.1376841e-12
24	0x2ba6d304	1.1853578e-12
25	0xa84efcc7	-1.14901095e-14
26	0xa973c58b	-5.412818e-14
27	0xadd22178	-2.3889099e-11
28	0xac8bfb99	-3.9785506e-12
29	0x26e47707	1.585294e-15
30	0x287e8028	1.4127622e-14
31	0xa9409630	-4.276283e-14
32	0xa901da78	-2.8833245e-14
33	0x282e6700	9.681275e-15
34	0x28f60172	2.7312113e-14
35	0xa93655d7	-4.0486572e-14
36	0x28a7608c	1.8582595e-14
37	0x2766b01f	3.2014387e-15
38	0xa934bf43	-4.0133922e-14
39	0x2cef9fd0	6.8105313e-12
40	0x2cd2da26	5.9927783e-12
41	0x28d844ab	2.4010597e-14
42	0xa6f463c7	-1.6957946e-15
43	0xad69bbb3	-1.3286194e-11
44	0x2989ba95	6.116389e-14
45	0x2bc605e0	1.4070377e-12
46	0xa98f73b9	-6.3705504e-14
47	0x26f4ae28	1.6978106e-15
48	0xadb720a8	-2.0819194e-11
49	0x28567695	1.19051e-14
50	0xab4ce4e4	-7.279301e-13
51	0xab39ff0c	-6.607915e-13
52	0x28f317f5	2.698881e-14
53	0x27ae6f4a	4.841536e-15
54	0xaa4aabb1	-1.8000772e-13
55	0x28406a78	1.0681228e-14
56	0x29a56aba	7.345986e-14
57	0xa8f391a8	-2.7041588e-14
58	0xab196467	-5.4495856e-13
59	0xa78049b3	-3.560704e-15
60	0xa9011867	-2.866492e-14
61	0x2dcb0246	2.3079438e-11
62	0x2a4db7b0	1.8271387e-13
63	0xa904aa18	-2.945742e-14
64	0x281de097	8.763951e-15
65	0xa8b4d579	-2.0076593e-14
66	0x2890c601	1.6073082e-14
67	0x2b5929d1	7.715192e-13
68	0x292553c9	3.6710032e-14
69	0x2ad9a30b	3.8660077e-13
70	0x2cd85b23	6.1492074e-12
71	0xaa0e1b95	-1.2621703e-13
72	0xab3d601f	-6.7279683e-13
73	0xaa618620	-2.0030548e-13
74	0xac072e42	-1.9210332e-12
75	0xa8b9a4bd	-2.061057e-14
76	0x2cd4c6e5	6.047484e-12
77	0xa8100376	-7.994356e-15
78	0x29089e5f	3.033543e-14
79	0x28d78487	2.392727e-14
80	0xa89c0c3b	-1.7324783e-14
81	0xa8827630	-1.4484155e-14
82	0xac755422	-3.4863297e-12
83	0x2a3e5927	1.6906321e-13
84	0xa8916b53	-1.6144778e-14
85	0xab9fdbc7	-1.135863e-12
86	0x2b41d8ab	6.886806e-13
87	0x2d3b71e2	1.0655006e-11
88	0x2a40e61e	1.7132864e-13
89	0xa8c21b7e	-2.155025e-14
90	0x29218b35	3.5869924e-14
91	0xaac5971a	-3.5099078e-13
92	0x29aed776	7.764529e-14
93	0x2c8f76b4	4.077483e-12
94	0x2c03f9cc	1.8754885e-12
95	0xa7f7a850	-6.8738757e-15
96	0xa69af926	-1.0753428e-15
97	0xaa118646	-1.2925173e-13
98	0xada6cba8	-1.8962457e-11
99	0x297f5f40	5.670399e-14
100	0x2be16f97	1.6018184e-12
101	0xac6df725	-3.3816918e-12
102	0xa98fe362	-6.38992e-14
103	0xabcaa20b	-1.4397939e-12
104	0x279d1996	4.3603994e-15
105	0xa81e5403	-8.788979e-15
106	0x28b96d0c	2.0586417e-14
107	0xade091bb	-2.5530569e-11
108	0x2945b4bd	4.3899553e-14
109	0xaa441f53	-1.7419165e-13
110	0x2a42c20b	1.7297984e-13
111	0x28d4811e	2.3592724e-14
112	0xada264fb	-1.8462112e-11
113	0xa90b49e5	-3.0928293e-14
114	0xaa7a0ead	-2.2209552e-13
115	0xa976e7ec	-5.4824133e-14
116	0x290b9a3f	3.0997987e-14
117	0x2c8dd503	4.03111e-12
118	0xa92a3d19	-3.7800577e-14
119	0xa6c5517b	-1.3691706e-15
120	0x27dc1daf	6.109445e-15
121	0xac0d9fcc	-2.012601e-12
122	0xa97a2c27	-5.5549447e-14
123	0xa8eeb937	-2.6503632e-14
124	0xa649756e	-6.989503e-16
125	0x29158e58	3.320811e-14
126	0xa9c9b726	-8.957964e-14
127	0x2827a584	9.306253e-15
128	0x2c16911d	2.1396836e-12
129	0x27873288	3.7524813e-15
130	0xaaa36551	-2.902492e-13
131	0x2ae03b14	3.9831387e-13
132	0xa92e12f4	-3.86522e-14
133	0xa92c0f9c	-3.820521e-14
134	0xa919e515	-3.417152e-14
135	0x2c1024e2	2.0484105e-12
136	0x292cea91	3.8395126e-14
137	0xa91fc3bd	-3.5474868e-14
138	0xa7f1fccc	-6.716502e-15
139	0xa94354f3	-4.337238e-14
140	0x290537d2	2.958035e-14
141	0x28bc1d2a	2.088484e-14
142	0xa7c9550c	-5.5880915e-15
143	0xa8da5a5d	-2.424205e-14
144	0xaa78d69b	-2.2101281e-13
145	0xa5c713b5	-3.453435e-16
146	0x2a75749f	2.1800832e-13
147	0x2c9a1d7c	4.3802167e-12
148	0xa9c29a62	-8.642112e-14
149	0xa94e0129	-4.5742195e-14
150	0x287c8360	1.40172975e-14
151	0x29130e9a	3.2653222e-14
152	0x271748b5	2.0994874e-15
153	0x2c9f990e	4.5360443e-12
154	0xaa98c740	-2.7138881e-13
155	0x2c082b77	1.935089e-12
156	0x28042a4d	7.3366445e-15
157	0xa8de8649	-2.4705188e-14
158	0x2818aeb3	8.475577e-15
159	0x28ccfa1b	2.2757016e-14
160	0xa92e5e55	-3.871758e-14
161	0x2af0045a	4.2635584e-13
162	0xabe40897	-1.6202759e-12
163	0x291c32ad	3.4682913e-14
164	0x28911e66	1.6111417e-14
165	0x280d3c19	7.840104e-15
166	0x288ad06e	1.541147e-14
167	0xabb69039	-1.2971908e-12
168	0x2ad6f1cb	3.8181814e-13
169	0x2cce83ba	5.8694967e-12
170	0xa548f4f9	-1.7430235e-16
171	0x28873693	1.5011679e-14
172	0x266852f4	8.060359e-16
173	0xa857e7b6	-1.1985142e-14
174	0xab14b61d	-5.2832895e-13
175	0xada1e105	-1.840351e-11
176	0x29d8e34c	9.6317567e-14
177	0x297e4ed4	5.6467702e-14
178	0x2a622856	2.0086827e-13
179	0x2c094647	1.9507883e-12
180	0xa91b8e3e	-3.454029e-14
181	0xa7dfe2c9	-6.2140815e-15
182	0x299e8043	7.0388594e-14
183	0x2cd6cf6e	6.105275e-12
184	0x28867cdb	1.4931136e-14
185	0x28b425eb	2.0000459e-14
186	0xa901fde5	-2.8863972e-14
187	0x28161c21	8.332772e-15
188	0x2978a088	5.52063e-14
189	0x2aa2bf67	2.8909793e-13
190	0xa90372a9	-2.9187295e-14
191	0x2902c677	2.903794e-14
192	0x292de603	3.861322e-14
193	0x299f7917	7.082024e-14
194	0xa8baed07	-2.0752942e-14
195	0xaab933ea	-3.2898624e-13
196	0x27eb07ad	6.5233925e-15
197	0x2932e63c	3.9723636e-14
198	0xa8bb825a	-2.0817702e-14
199	0x292590ac	3.6762843e-14
200	0x28c3caf2	2.1737362e-14
201	0x27bdee7b	5.27166e-15
202	0x29b5c666	8.0724313e-14
203	0xacd98554	-6.1823133e-12
204	0xa91742aa	-3.3586557e-14
205	0x273bf166	2.6082326e-15
206	0xa951ef09	-4.6614652e-14
207	0x2819735b	8.51822e-15
208	0x28334899	9.952238e-15
209	0xaa9db322	-2.80131e-13
210	0x2a96c4a9	2.6781813e-13
211	0xaa897f2a	-2.4424326e-13
212	0xaaa480ca	-2.9221618e-13
213	0x294c4a51	4.536156e-14
214	0x2cf8a6bf	7.0670965e-12
215	0x2c444322	2.7890541e-12
216	0x297d219f	5.6206447e-14
217	0xaddf7775	-2.5405214e-11
218	0xa8e25421	-2.5127525e-14
219	0xa7bbe99a	-5.2156198e-15
220	0x2c12a973	2.0841911e-12
221	0x294489b1	4.364017e-14
222	0xaa29b7aa	-1.5073937e-13
223	0x2ab6a17e	3.2441752e-13
224	0xa6fdbd8e	-1.760678e-15
225	0x28118368	8.077611e-15
226	0xa95d17f6	-4.909264e-14
227	0x2a6a28f2	2.0797581e-13
228	0x2bb4ccdf	1.2846632e-12
229	0x28b46817	2.0029156e-14
230	0xab18d214	-5.429279e-13
231	0xacd32cfa	-6.001974e-12
232	0xaa78852e	-2.2073031e-13
233	0xa8b2f9dc	-1.9870329e-14
234	0x2c10c27d	2.0571593e-12
235	0x27d95bc9	6.0329113e-15
236	0xa972164f	-5.3754144e-14
237	0x2813b473	8.199268e-15
238	0x28efa7bf	2.6607079e-14
239	0xa904e266	-2.9506257e-14
240	0x2b426bd9	6.9072314e-13
241	0x2a01fe16	1.1545655e-13
242	0xa890f1e3	-1.6092113e-14
243	0x2d02949d	7.422643e-12
244	0xad1f457c	-9.053532e-12
245	0x276947c8	3.2374158e-15
246	0x2cd72868	6.1151535e-12
247	0xa8fa941e	-2.7819811e-14
248	0xa9b0a312	-7.844258e-14
249	0x2977720c	5.4943937e-14
250	0xa989865f	-6.107332e-14
251	0xa8f2e74a	-2.6967703e-14
252	0xa91fd0b1	-3.5486103e-14
253	0xa8894c28	-1.5243083e-14
254	0x2ac16572	3.435408e-13
255	0xa8e846e1	-2.5787913e-14

graph_attention.qkv_proj_low.weight f4 [24, 32]
0	0xbd7b37d1	-0.061332528
1	0xbc31e556	-0.010857901
2	0x3ca37ef4	0.019957997
3	0x3be39d61	0.0069462513
4	0x3dc473c4	0.09592393
5	0x3df57aaa	0.11986287
6	0x3e1d5c1b	0.15367167
7	0xbc7080f5	-0.014679183
8	0xbd92582d	-0.071457244
9	0xbbf335b8	-0.0074221753
10	0xbdd3e4b2	-0.103463545
11	0x3da6855a	0.081309035
12	0xbc016cc1	-0.007899464
13	0xbd138e93	-0.03602464
14	0xbd8d5ba7	-0.06902247
15	0x3d9d58c6	0.07682948
16	0x3dc0373f	0.09385537
17	0x3e1aaefa	0.15105811
18	0xbd7a2cc4	-0.061077848
19	0x3d51a413	0.051181864
20	0xbb514247	-0.0031930374
21	0xbdcb4931	-0.099260695
22	0xbd180d02	-0.03712178
23	0x3d996d58	0.07491559
24	0xbcf65460	-0.03006953
25	0x3e08fc7d	0.13377567
26	0x3d820ba3	0.06349876
27	0x3d86425b	0.06555625
28	0x3d5e3c5c	0.054256782
29	0x3daad9d2	0.08342327
30	0x3d327712	0.043570586
31	0x3dac2b11	0.08406652
32	0xbd819ca9	-0.06328709
33	0xbc738e82	-0.0148655195
34	0xbc9a3100	-0.018822193
35	0x3dba6214	0.09100738
36	0x3dac9c7c	0.084282845
37	0x3dde84ea	0.10865195
38	0xbd460939	-0.04834864
39	0xbcf5c0e4	-0.029999204
40	0xbdc9fc1a	-0.09862538
41	0x3d994968	0.07484704
42	0xbde960d8	-0.113954246
43	0xbd879b84	-0.06621459
44	0x3e0dec2e	0.13859627
45	0x3d4b1137	0.049576964
46	0xbd1ed467	-0.03877678
47	0xbdb8d73a	-0.09025426
48	0xbdcbc8db	-0.099504195
49	0x3e0b9b12	0.13633373
50	0xbe09fbb5	-0.13474925
51	0x3e07d4b3	0.13264732
52	0x3e015981	0.126318
53	0x3c68b7eb	0.014204006
54	0xbc3aa30f	-0.011391415
55	0x3de43794	0.11143413
56	0x3c7a8913	0.01529147
57	0x3e2a42c1	0.16627027
58	0x3dec10f0	0.11526668
59	0xbdc8f39e	-0.09812091
60	0x3d8320fc	0.06402776
61	0x3d9663d9	0.07343263
62	0xbdd26b61	-0.10274387
63	0x3d887ff0	0.06665027
64	0xbd9fde74	-0.078061014
65	0xbbef3b16	-0.0073007448
66	0xbb20276c	-0.002443756
67	0xbcca8e17	-0.024725957
68	0xbc355981	-0.011068703
69	0xbdb0698b	-0.08613881
70	0x3dd477b6	0.103743955
71	0x3e309539	0.17244424
72	0xbd17e905	-0.03708746
73	0xbdcc509c	-0.099763125
74	0x3c17cff3	0.009265888
75	0xbe113dd3	-0.1418374
76	0xbe070637	-0.13185965
77	0xbd341eaa	-0.043974556
78	0x3d895146	0.06704955
79	0xbdf54eb4	-0.11977902
80	0xbcd6a6ad	-0.026202524
81	0xbdb4f90c	-0.088365644
82	0xbe186781	-0.14883234
83	0xbceca4d0	-0.028887182
84	0xbb97cc2c	-0.0046324935
85	0xbcfc814a	-0.030823369
86	0x3da31909	0.079637595
87	0x3d926774	0.07148638
88	0x3c4f3a04	0.012648109
89	0x3d8d89ae	0.06911026
90	0x3cc8e62c	0.024523817
91	0x3da6c10d	0.0814229
92	0xbd934eb8	-0.07192749
93	0x3db28470	0.08716667
94	0x3d705c2c	0.058681652
95	0xbd784d44	-0.06062056
96	0xbc2e690c	-0.010645162
97	0xbc31a46a	-0.010842422
98	0xbe220285	-0.15821274
99	0xbc016db9	-0.007899695
100	0x3cfc7b18	0.030820414
101	0xbcfafdcb	-0.030638596
102	0x3d54e109	0.051972423
103	0xbdcc4374	-0.09973803
104	0xbdc90120	-0.09814668
105	0x3da66272	0.08124246
106	0xbe15c542	-0.14626029
107	0x3c893e7a	0.016753424
108	0x3ddf3a65	0.1089981
109	0x3dc151d8	0.094394386
110	0x3cc5a426	0.024126124
111	0xbde3edfb	-0.111293755
112	0x3c8b527a	0.017007101
113	0xbd8d31da	-0.06894274
114	0xbd2d436d	-0.04230063
115	0x3dd064a1	0.101754434
116	0xbd28ea2b	-0.041238945
117	0xbdddf95b	-0.108385764
118	0xbd08c754	-0.03339322
119	0x3dc905c8	0.09815556
120	0x3ab06f4e	0.0013460906
121	0x3e1e962b	0.15486972
122	0x3d25f67a	0.04051826
123	0xbd8e70f1	-0.069551356
124	0x3c650efb	0.013980622
125	0x3e0f6904	0.14004904
126	0x3daaa64a	0.08332498
127	0x3d4c0af7	0.049815144
128	0xbde201c0	-0.1103549
129	0xbcfd7e0d	-0.030943895
130	0x3de11262	0.10989834
131	0xbde1c4c0	-0.11023855
132	0x3d1e224d	0.03860693
133	0xbd028913	-0.031869005
134	0x3d3b03e7	0.04565802
135	0x3ce0d57e	0.027445551
136	0xbe05123f	-0.12995242
137	0xbd545c18	-0.05184564
138	0x3e187558	0.14888513
139	0x3c4f956c	0.012669902
140	0x3da105c6	0.07862429
141	0xbdb24d8f	-0.087061994
142	0x3da616fb	0.08109852
143	0xbd0a0640	-0.033697367
144	0xbd65b13f	-0.05607724
145	0x3d0116c8	0.031515867
146	0xbd53eb0e	-0.051737837
147	0xbd82fe4b	-0.06396159
148	0xbc08fdeb	-0.00836132
149	0xbc1bee43	-0.009517255
150	0xbca25e75	-0.019820431
151	0x3d90bab3	0.0706686
152	0xbd6091ba	-0.054826476
153	0x3dc373f6	0.09543602
154	0x3e186ab7	0.14884458
155	0x3cc87653	0.024470484
156	0xbc43e0e6	-0.011955475
157	0xbe13fa25	-0.14450891
158	0x3daff4ee	0.085916385
159	0x3e0ae224	0.13562828
160	0x3e05ce6e	0.13067028
161	0xbbbac28d	-0.005699462
162	0x3d860905	0.06544689
163	0x3e264dd2	0.16240624
164	0xbc467ae1	-0.012114258
165	0xbdc10085	-0.09423927
166	0xbe2e1a82	-0.170023
167	0x3d8be698	0.06831092
168	0x3d8a46b3	0.06751766
169	0x3e036f34	0.1283539
170	0xbdc60d43	-0.09670498
171	0x3d8fb2d3	0.0701653
172	0xbd686322	-0.056735165
173	0xbd3cf55a	-0.046132423
174	0x3d8b5cce	0.068048105
175	0xbe0eac5c	-0.13932937
176	0x3df47def	0.119380824
177	0x3dae95fb	0.085247
178	0xbdc02c92	-0.09383501
179	0x3da48c05	0.08034519
180	0xbd352879	-0.04422805
181	0x3c61907b	0.013767357
182	0xbd08163b	-0.033224326
183	0xbe2c3d92	-0.16820362
184	0xbc589770	-0.013219699
185	0x3da87f0f	0.082273595
186	0xbd002f4f	-0.031295117
187	0xbde39a24	-0.11113384
188	0xba9e55f1	-0.0012080056
189	0x3c88c85b	0.0166971
190	0xbd0f4a60	-0.03498304
191	0xbe128d23	-0.14311652
192	0xbdb05b27	-0.08611136
193	0x3ae8dddd	0.0017766316
194	0x3d4e3e17	0.050352182
195	0x3e1273e9	0.14302029
196	0x3d1edbb3	0.03878374
197	0x3da4b87e	0.080430016
198	0x3df0b612	0.11753477
199	0xbd8eadd3	-0.06966748
200	0xbd7f2562	-0.06229151
201	0x3db538be	0.08848713
202	0x3df6c3f3	0.12049093
203	0x3d49c34c	0.049258515
204	0xbe04d968	-0.12973559
205	0x3dc32471	0.09528435
206	0xbd3c6e58	-0.04600367
207	0x3da2f8ff	0.079576485
208	0x3cc0ee78	0.02355121
209	0x3d5c066f	0.053717073
210	0xbe1e764d	-0.15474816
211	0xbd5945db	-0.053045135
212	0x3d889669	0.066693135
213	0x3e02afdd	0.12762399
214	0xbc800505	-0.015627393
215	0x3e08478f	0.13308547
216	0x3a869244	0.0010266979
217	0xbdc1114e	-0.09427129
218	0xbd51982f	-0.051170524
219	0x3d5e34d4	0.0542496
220	0xbd0044d1	-0.03131563
221	0x3db36029	0.087585755
222	0xbdc5855a	-0.096445754
223	0xbd0263ed	-0.031833578
224	0xbe1eae84	-0.1549626
225	0x3b174c88	0.0023086388
226	0xbce2afb7	-0.027671678
227	0xbdf3a02c	-0.11895785
228	0xbd211cb3	-0.03933401
229	0xbcb9938d	-0.022653366
230	0x3cbf2ebf	0.02333772
231	0xbc3e569a	-0.011617327
232	0x3db66646	0.08906226
233	0xbcd3466f	-0.025790421
234	0xbd6d27a5	-0.057899136
235	0xbd3f1082	-0.046646602
236	0x3c6bc69e	0.014390616
237	0x3ddc0f5f	0.10745119
238	0xbce03cc8	-0.027372733
239	0x3ddea898	0.108720005
240	0x3df8aad5	0.121419586
241	0xbda4beaa	-0.08044179
242	0xbbf4b825	-0.007468241
243	0xbd98f7d4	-0.074691445
244	0x3d88cdb1	0.066798575
245	0xbd8a8384	-0.06763366
246	0x3be8b5fb	0.007101772
247	0x3c6fae6b	0.014628987
248	0xbc8d828b	-0.017274162
249	0xbdeec953	-0.11659493
250	0xbe196e2e	-0.14983436
251	0xbdefdb7e	-0.11711787
252	0x3cc3be47	0.023894442
253	0x3b959550	0.0045649186
254	0x3dfe9433	0.124306105
255	0xbe184b5c	-0.14872497

graph_attention.qkv_proj_low.bias f4 [24]
0	0x3e01c733	0.12673645
1	0xbd626675	-0.055273492
2	0xbdec3b84	-0.11534789
3	0xbcfc1df2	-0.030775998
4	0xbdeed8bd	-0.11662433
5	0xb9c85235	-0.00038208222
6	0x3c4bdb28	0.012442388
7	0xbd8ea326	-0.06964712
8	0x3df7ffd4	0.12109342
9	0x3d138da9	0.03602377
10	0xbe07c97e	-0.13260457
11	0xbdf9dfb6	-0.122008726
12	0x3d8467d7	0.064651184
13	0xbdb1091a	-0.08644314
14	0xbb27a2e7	-0.0025579275
15	0xbd0251c7	-0.03181627
16	0x3d0ca1a0	0.034333825
17	0xbd9ee1a5	-0.07757882
18	0x3b78fd20	0.003799267
19	0xbcb703fd	-0.022340769
20	0xbd9c1bfc	-0.07622525
21	0xbd5454b8	-0.051838607
22	0x3d3b42bd	0.045717943
23	0x3d8d794d	0.06907902

graph_attention.qkv_proj_high.weight f4 [96, 24]
0	0xbacb5f90	-0.0015516151
1	0xbb3ac05f	-0.002849601
2	0x3cad06ba	0.021121372
3	0x3d8e47a5	0.06947259
4	0xbbb52c73	-0.0055289804
5	0xbd272d00	-0.0408144
6	0xbb8d516e	-0.0043126857
7	0x3ca6ba08	0.020352378
8	0xbd83cf66	-0.064360425
9	0xbcd487cb	-0.025943657
10	0x3c9ab2c0	0.018884063
11	0x3d964112	0.0733663
12	0xbcf65605	-0.030070314
13	0xbc6b69fd	-0.014368531
14	0xbc8d8ac6	-0.017278086
15	0xbcd12f95	-0.025535384
16	0x3b99ee22	0.004697577
17	0x3cb400df	0.021973072
18	0x3d1ab2ab	0.037768047
19	0xbd2ddf63	-0.042449366
20	0x3bed4471	0.007240825
21	0xbd6d2394	-0.057895258
22	0xbb8f729f	-0.0043776776
23	0xbcf16771	-0.02946827
24	0xbd160817	-0.03662881
25	0xbcb29112	-0.02179769
26	0x3c203dba	0.009780342
27	0x3d6f4713	0.05841739
28	0xbbc718b1	-0.0060759415
29	0x3cf8febb	0.030394902
30	0x3c2d3310	0.010571256
31	0x3c578727	0.013154781
32	0xbb7409c7	-0.0037237273
33	0xbba56367	-0.00504725
34	0x3c830e62	0.01599807
35	0x3d325d95	0.043546278
36	0xbb5a0979	-0.0033269806
37	0xbc8765c5	-0.01652802
38	0x3c5cd920	0.013479501
39	0x3bb43206	0.0054991273
40	0x3c8172b9	0.015801774
41	0x3cd5c793	0.026096141
42	0x3bf66845	0.007519754
43	0x3c3cfd3c	0.011534985
44	0xbd334cb4	-0.04377432
45	0x3d80d3e2	0.062904134
46	0x3c7e5b07	0.015524632
47	0xbd042838	-0.032264918
48	0xbd85c409	-0.06531531
49	0xbc809fba	-0.015701164
50	0xbc513823	-0.012769732
51	0x3cdcfc07	0.026975645
52	0xbb397616	-0.0028299144
53	0x3c5d0afd	0.013491389
54	0x3c44cbda	0.012011493
55	0x3c88bcea	0.016691644
56	0xbd16ef52	-0.036849327
57	0xbce345e9	-0.027743297
58	0x3cd99711	0.026561292
59	0xbddabfa2	-0.10681082
60	0xbc5727aa	-0.013132015
61	0x3cec007e	0.028808828
62	0xbcc73447	-0.02431692
63	0x3adc413b	0.0016804108
64	0x3cfaaec9	0.030600922
65	0x3c7cb65f	0.01542434
66	0x3d27c0c4	0.04095532
67	0xbd692e70	-0.056929052
68	0xbd19822c	-0.037477657
69	0xbd09cc7a	-0.03364227
70	0xbd26a03a	-0.040680148
71	0x3d05ee50	0.032697976
72	0xbd5e3417	-0.054248895
73	0xbd0d45c1	-0.03449035
74	0x3c54438c	0.012955558
75	0x3d2fc62d	0.042913605
76	0xbbb461fb	-0.0055048442
77	0xbd59e867	-0.05320015
78	0xbbd270b1	-0.0064221253
79	0x3cdbb2fa	0.026818741
80	0x3d26e5ce	0.040746503
81	0xbb9c23a6	-0.004764992
82	0x3cd0d4f0	0.025492162
83	0xbd884afb	-0.066549264
84	0x3be6ebb8	0.007047143
85	0xbcbc7b8a	-0.023008127
86	0xbcb46628	-0.022021368
87	0x3b59193a	0.0033126608
88	0x3c9d4865	0.01919956
89	0x3c55ba37	0.013044885
90	0xbcb1ab4d	-0.021688128
91	0x3c0fb133	0.008770275
92	0x3d583f63	0.052794825
93	0x3c522bd1	0.012827829
94	0x3b9447c0	0.004525155
95	0xbc9d6db8	-0.019217357
96	0xbc5c38f2	-0.013441311
97	0x3c39a306	0.011330372
98	0x3c7a209d	0.015266565
99	0xbd5b453c	-0.053532824
100	0xbb3f508c	-0.0029192297
101	0x39fff053	0.00048816446
102	0xbc66578f	-0.0140589615
103	0x3c91c76c	0.017795287
104	0xbd89e5df	-0.067332976
105	0xbcda8d9a	-0.026678849
106	0x3cb07475	0.021539906
107	0x3cb82867	0.022480203
108	0xbbabb350	-0.0052398816
109	0x3bdef0b8	0.0068035983
110	0xbcde742e	-0.027155008
111	0xbc96cf78	-0.018409476
112	0x3d46ab48	0.04850319
113	0xbd40de17	-0.0470868
114	0x3c98e90d	0.018665815
115	0x3ccacddc	0.024756365
116	0x3d4be8e0	0.049782634
117	0xbd4fb264	-0.050707236
118	0xbcbb98aa	-0.022899944
119	0xbd47763c	-0.04869674
120	0x3d79de61	0.061003093
121	0xbd87a065	-0.0662239
122	0xbd0a2b0e	-0.033732466
123	0xbd9629bb	-0.07332178
124	0xba282344	-0.00064139464
125	0x3d9f559d	0.07780001
126	0x3baebb14	0.00533236
127	0x3d4e4b8b	0.050365012
128	0xbd3f2a91	-0.046671454
129	0xbd057468	-0.032581717
130	0x3b809aae	0.0039246893
131	0x3caa6876	0.020801764
132	0xbb09b85c	-0.0021014428
133	0x3d0f5b6b	0.034999292
134	0xbd088669	-0.03333131
135	0xbb357962	-0.0027690758
136	0xb9056b3c	-0.00012723816
137	0xbcb3b611	-0.021937402
138	0xbad16fd0	-0.0015978757
139	0xbc6ea70f	-0.014566197
140	0xbd711978	-0.05886218
141	0x3d8b1b24	0.06792286
142	0xbcfcbf0c	-0.030852817
143	0x3cc97c01	0.024595262
144	0x3d89e91a	0.06733914
145	0x3caf803c	0.021423452
146	0x3d1d2aeb	0.038371008
147	0x3d6e9bc2	0.05825401
148	0x3ad617ab	0.0016333958
149	0x3d251d3b	0.04031108
150	0x3c33ef16	0.0109822955
151	0xbbc4925b	-0.0059988922
152	0xbd7ff91f	-0.06249344
153	0x3ca190f6	0.019722443
154	0x3cd002b7	0.02539192
155	0xbc245118	-0.0100291
156	0xbd34b0bf	-0.04411387
157	0x3d40d23b	0.04707549
158	0x3c42a07f	0.011879086
159	0xbc155bc5	-0.009116118
160	0x3d082865	0.03324165
161	0x3c91ff46	0.01782192
162	0xbd7cad36	-0.061688624
163	0xbcabdf9f	-0.020980654
164	0xbcb9e4a8	-0.02269204
165	0xbd503d41	-0.050839666
166	0x3c14c6e9	0.009080627
167	0x3d6b4607	0.05743983
168	0x3c28fa31	0.0103135565
169	0x3d0efad0	0.034907162
170	0xbcf5f339	-0.030023204
171	0x3c14cd90	0.009082213
172	0xbbb90eab	-0.0056475005
173	0xbd228ad6	-0.039683186
174	0xbbbf98ca	-0.0058470713
175	0x3cf2752c	0.029596888
176	0xbc0a9a56	-0.008459648
177	0x3c9a6f42	0.01885188
178	0x3cd76c70	0.026296824
179	0x3d4503b9	0.048099253
180	0xbc3bb269	-0.0114561105
181	0x3ca329e5	0.019917438
182	0xbc3470b0	-0.011013195
183	0xbab6c4a0	-0.0013944097
184	0xbbd8b4f4	-0.006613368
185	0xbc5b81c3	-0.013397637
186	0xbd1d9ce2	-0.038479693
187	0xbd0c9da9	-0.034330044
188	0xbd6c316a	-0.057664312
189	0x3d337772	0.043815084
190	0xbcecc133	-0.028900718
191	0xba80c9cb	-0.0009825764
192	0x3d0eb2ef	0.034838613
193	0x3d8264f9	0.06366915
194	0x3cd7ddaa	0.026350815
195	0xbc91979e	-0.017772492
196	0x3c8278cc	0.015926741
197	0xbd99e042	-0.07513477
198	0x3c77d97d	0.015127537
199	0x3c47ef2a	0.012203017
200	0x3ca5de74	0.020247675
201	0x3abdde3e	0.0014485789
202	0xbd3c6491	-0.045994345
203	0x3d8a491c	0.06752226
204	0x3ce2767e	0.027644392
205	0xbd9c40b0	-0.07629526
206	0x3b247ebb	0.0025099951
207	0xbc603480	-0.013684392
208	0xbd036145	-0.032075185
209	0x3bb0e5dd	0.0053984956
210	0x3c603439	0.013684326
211	0x3ca56ab7	0.020192487
212	0xbd97e099	-0.074158855
213	0x3c434c88	0.011920102
214	0x3c8bbeee	0.017058816
215	0xbcfda012	-0.030960117
216	0x3d5f4266	0.05450668
217	0xbd13ed0f	-0.03611475
218	0xbb8db125	-0.004324096
219	0xbd41047a	-0.04712341
220	0xbb79f4f5	-0.003814039
221	0xbd6ff09f	-0.058579084
222	0x3c2c0b4d	0.010500741
223	0xbd158cdb	-0.036511283
224	0xbccedb4f	-0.025251059
225	0x3d9cc819	0.07655353
226	0x3cb54ced	0.022131408
227	0x3d81b2fe	0.06332968
228	0x3cb70d86	0.022345316
229	0xbd49d136	-0.049271785
230	0x3d0cc323	0.034365784
231	0xbc800f2e	-0.015632238
232	0xbca1d586	-0.019755136
233	0xbd9b8308	-0.075933516
234	0xbc8e097e	-0.01733851
235	0x3d45dadb	0.04830442
236	0xbcf89161	-0.03034276
237	0x3d49908d	0.04921012
238	0x3d321c51	0.043484036
239	0x3d419812	0.047264166
240	0x3def969f	0.116986506
241	0xbc70a99a	-0.014688874
242	0xbd321267	-0.04347458
243	0x3cd59fdc	0.026077203
244	0x3a5b1a67	0.0008358121
245	0xbd250a64	-0.040293112
246	0x3c62e150	0.013847664
247	0x3cc8705d	0.024467641
248	0xbd97b83c	-0.07408187
249	0x3d9d5848	0.07682854
250	0x3c29eb3b	0.010371025
251	0x3dc6a6dc	0.09699795
252	0x3ce2d306	0.027688514
253	0xbd945801	-0.07243348
254	0x3cd39cdd	0.025831634
255	0xbc85faa3	-0.016354864
