save_all/MSTAGAT-Net.state360.w-20.h-15.none.pt (torch, 126519 bytes, 64 tensors)

feature_extractor.depthwise.weight f4 [1, 1, 3]
000000 8d fb 5c 3e bd 56 bb 3d a3 d2 57 be
       0.21580334 0.091474034 -0.21076445

feature_extractor.pointwise.weight f4 [16, 1, 1]
000000 b1 71 41 bd 69 3a 2c 3d 74 49 43 bd bd ab 37 3d
       -0.047227565 0.04204789 -0.047677472 0.044841517
000010 a1 65 94 3d 49 07 5b bd 82 cd 8a 3d 11 1f 38 3d
       0.07245947 -0.053473745 0.06777479 0.044951502
000020 46 f3 4a 3d 60 7e 29 3d ab c1 37 3d 8c 9d 45 bd
       0.04954841 0.041380286 0.04486243 -0.04824595
000030 a3 7c 46 3d de 0b 27 3d 17 66 41 bd 62 bd 2b 3d
       0.048458707 0.0407828 -0.0472165 0.041928656

feature_extractor.pointwise.bias f4 [16]
000000 05 2f ef b9 43 29 60 b6 e4 83 b5 b8 8b eb 5c 3c
       -0.00045620665 -3.3402619e-06 -8.655319e-05 0.013483892
000010 d0 b6 21 bd 9d 7e f2 b9 60 9e 82 33 e9 85 d3 bb
       -0.039480984 -0.0004625217 6.082405e-08 -0.0064551723
000020 73 3c 2d 36 b9 24 e9 bd 8a 6c 9e 3d 2f d6 6c bd
       2.5814195e-06 -0.113839574 0.07735546 -0.05782145
000030 36 f8 0e 3d 18 c4 bd b4 38 e0 d0 b5 f4 3b 03 3c
       0.03490468 -3.534667e-07 -1.5562464e-06 0.008009899

feature_extractor.bn2.weight f4 [16]
000000 cf b2 f8 3e d6 3c 88 3e c6 9a f7 3e b0 b4 96 3e
       0.4857392 0.26608914 0.4836027 0.2943473
000010 3f 50 9c 3e 36 be 04 3f 6f 45 88 3e 71 41 9a 3e
       0.30529973 0.5185274 0.26615474 0.30128053
000020 23 37 a4 3e f3 e1 a3 3e 85 d5 96 3e ea 4d 0f 3f
       0.32073316 0.32008323 0.29459777 0.5597826
000030 37 bc 9e 3e 99 c8 8f 3e 05 bb f4 3e 14 b5 94 3e
       0.31002972 0.2808273 0.47798935 0.29044402

feature_extractor.bn2.bias f4 [16]
000000 20 6f 01 bd 3d 60 71 3d 95 ff b5 bc 57 a5 01 3d
       -0.031600118 0.05892967 -0.022216598 0.03165182
000010 4a 78 a2 3d 59 37 02 bd 36 9a 75 3d ef 97 06 3d
       0.079330996 -0.031791065 0.05996152 0.03285974
000020 56 bc b4 3d ec ee 00 3d 29 12 66 3d 88 69 03 bd
       0.08824985 0.031477854 0.056169663 -0.032083064
000030 c7 d0 19 3d f9 ac 4c 3d 75 47 95 bc 6e 46 91 3c
       0.03755262 0.049969647 -0.01822255 0.017733779

feature_extractor.bn2.running_mean f4 [16]
000000 d8 28 5a bc 85 a2 3a 3c a8 4d 59 bc 5b ca d7 3c
       -0.013315402 0.011391287 -0.013263144 0.026341608
000010 2e 49 a9 bc 82 51 77 bc e1 81 9a 3c f8 b9 b2 3b
       -0.020664778 -0.015095117 0.01886076 0.005454298
000020 e9 58 5a 3c fa 9b d7 bd e4 22 bc 3d 01 f3 94 bd
       0.013326862 -0.10527797 0.09186342 -0.07272912
000030 d5 68 4a 3d 7d d7 33 3c bb 80 53 bc 28 88 a3 3c
       0.049416382 0.010976669 -0.01290911 0.019962385

feature_extractor.bn2.running_var f4 [16]
000000 60 9a 97 39 28 9c 6f 39 e4 02 a0 39 c7 a5 89 39
       0.00028915983 0.00022850989 0.00030519732 0.0002625419
000010 cd 8d 3c 3a 73 77 c4 39 ce 44 24 3a 68 2a 8b 39
       0.0007192761 0.0003747303 0.0006266356 0.0002654374
000020 5b e4 a3 39 ef c3 6a 39 45 e5 8c 39 72 cf 9e 39
       0.0003125992 0.0002238897 0.000268737 0.00030290667
000030 8e a5 a1 39 ad 77 5e 39 d6 c6 99 39 e7 d9 74 39
       0.0003083166 0.00021216153 0.00029330578 0.00023350828

feature_projection_low.weight f4 [8, 320]
000000 fe a6 b0 bc 8b 5b cf 3d 7f 04 90 3d 0f bd 45 3d
       -0.021564003 0.10124882 0.070321076 0.048276003
000010 39 33 4d 3d 86 a4 2a 3d ef 3c bd 3c 48 cf f3 3c
       0.050097678 0.041660808 0.023100344 0.029761925
000020 a9 b9 b7 3c 39 81 b5 3c a4 3d 31 3d db 3d ab 3c
       0.022427397 0.022156345 0.043271676 0.020903518
000030 65 24 df 3c 2c 11 49 bc 37 e1 e0 bc b9 f9 25 3c
       0.027239034 -0.0122721605 -0.02745114 0.010130339
000040 9c e6 3b 3a 0e e5 e1 3c 00 0c 34 3d a9 ed 7f 3c
       0.00071678474 0.027575042 0.043956757 0.015620627
000050 87 7a 6d 39 50 0c 94 bd 00 14 93 bc 3e bd f3 bc
       0.00022647726 -0.07228911 -0.017953873 -0.029753324
000060 04 40 0d bc 55 e8 1c bc c2 7a 0e 3c 34 c7 ab 3c
       -0.00862122 -0.009576877 0.00869626 0.02096901
000070 78 04 44 3d c5 e1 3e 3d de 93 52 3d 97 3d 12 3d
       0.047855824 0.04660203 0.05141055 0.035703268
000080 39 17 f8 3c d7 58 97 3c 7f bf b1 3c 34 71 15 3c
       0.03028451 0.01847498 0.021697758 0.009121228
000090 ae 2b 34 3c be 51 ac bc 4b ab 2f bc ed 32 cf bc
       0.010996742 -0.021035071 -0.010721992 -0.025292838
0000a0 76 ca 11 bd 22 57 d7 3d 8f d1 88 3d 2f 1a a0 3d
       -0.035593472 0.10514666 0.06680595 0.07817494
0000b0 8a 09 32 3d 92 bb 18 3c af fa ff 3c ac 6f 35 bc
       0.04346613 0.009322064 0.031247465 -0.011073988
0000c0 6e c1 89 3c f5 70 f7 3c 4b 33 05 3d ea 57 07 3c
       0.016815867 0.03020523 0.03251962 0.008260706
0000d0 b7 58 c8 3b 56 f6 92 bb b0 90 24 3b 57 4d bb 3c
       0.0061140913 -0.004484932 0.0025110655 0.022864027
0000e0 e7 40 78 3c 82 33 1d 3d 65 ce 58 3c ca e4 d0 ba
       0.015152193 0.0383792 0.013232802 -0.0015937325
0000f0 44 a3 fc b9 97 3c 50 bd e2 2e c4 bb 48 db 99 bc
       -0.00048186828 -0.050839033 -0.005987034 -0.01878132
000100 05 b0 0c bb d6 7b 38 3b 49 02 79 3c 93 31 1f 3c
       -0.002146722 0.0028149984 0.015198299 0.009716409
000110 3e 23 1a 3d cb 7b 39 3d 78 14 20 3d dd 47 13 3d
       0.037631266 0.045284074 0.03908202 0.035957206
000120 da 29 d4 3c 38 8c 8f 3c 47 67 b0 3c 1f 6a 0f 3c
       0.025898863 0.017522916 0.021533621 0.008753329
000130 e5 a4 c8 3b 52 b6 04 bc 62 67 b3 3b 96 84 d9 bb
       0.0061231726 -0.008100109 0.0054749707 -0.00663812
000140 22 96 bd 3a 06 68 b7 bd 74 6d 21 bd b5 c1 24 bd
       0.0014464299 -0.08955388 -0.039411023 -0.040223796
000150 d9 3b a8 bc 53 51 8e ba 05 bb 11 3c b0 81 d6 3c
       -0.02053635 -0.0010857977 0.008894687 0.026184887
000160 73 c4 3d 3d 9c 2e 54 3d 51 19 5b 3d b6 a9 26 3d
       0.046329927 0.051802263 0.05349094 0.040689193
000170 4e e9 57 3d 2c ef e7 3c 17 38 cd 3c 0c c8 5d 3b
       0.05271273 0.028312288 0.02505116 0.003384116
000180 f2 fb 58 bc 12 dd 16 bc fc e2 52 bc 36 d9 b6 bb
       -0.013243662 -0.009207981 -0.0128715 -0.005580093
000190 10 2c ef bc 13 ea 95 3d 87 8c 8d 3d 9c 76 71 3d
       -0.029195815 0.07320037 0.06911569 0.058951005
0001a0 7d 97 86 3d e9 e2 f5 3b 82 d1 03 3d 66 d0 57 bc
       0.06571863 0.0075038564 0.032182224 -0.013172245
0001b0 ff 7b 9a 3b 8e c7 16 3d 1f cd 05 3d 04 36 d5 3c
       0.0047144885 0.036811404 0.03266632 0.026026733
0001c0 97 47 d9 3c 6e fa c2 bc e6 08 e5 3b 9c b9 a7 3c
       0.026523395 -0.023801055 0.006989586 0.020474248
0001d0 d2 41 19 3c 5d a8 45 3c 64 8e 1b 3d 0b 0e 6f bb
       0.009354072 0.012064067 0.03797759 -0.0036476876
0001e0 7b ee 39 3a 9b 2f 88 bd 2b dd cb bc 67 86 18 bd
       0.00070927263 -0.06649705 -0.024885735 -0.03723755
0001f0 93 e2 97 bb 64 da f1 39 e0 b3 90 3c b4 9e 8c 3c
       -0.004635164 0.00046129816 0.017663896 0.01716552
000200 c9 df 55 3d 58 d1 45 3d 63 fa 3a 3d dd d8 52 3d
       0.05221537 0.04829535 0.045648944 0.05147635
000210 f1 f4 1e 3d d7 33 ce 3c 65 53 25 3c 6d 84 5b 3b
       0.038807813 0.025171204 0.010090684 0.003349568
000220 ae 78 b7 3b 85 7c 7b bc 05 63 f1 bb 3b b1 1b bc
       0.005599103 -0.015349512 -0.0073665404 -0.009502704
000230 c9 6e 1e ba 89 ea 34 bd f1 84 16 3c 0b 6b 0a bd
       -0.000604373 -0.044168983 0.009186969 -0.03379349
000240 07 64 58 ba d2 59 97 3b 1c 11 83 3c e3 23 8d 3c
       -0.00082546513 0.0046188617 0.01599937 0.017229026
000250 d5 42 33 3d 6c 32 4e 3d 03 e4 41 3d ff 5a 1b 3d
       0.043764908 0.050341055 0.04733659 0.037928578
000260 31 82 f9 3c 8b 41 e7 3c f9 cb fb 3b cf 51 8b 3b
       0.030457588 0.028229496 0.0076842275 0.0042516957
000270 cc 0d 55 3c 04 9e b5 3b 28 e2 4e 3c ee d1 bd bb
       0.013003778 0.0055425186 0.012627162 -0.005792848
000280 5f b2 28 3b 86 d2 ce bd 2d ac fc bc 61 92 d9 bc
       0.0025741083 -0.10098748 -0.030843819 -0.026559057
000290 8c bb 1b bd 09 fe 1c bc f5 fa b7 3c 95 55 15 3d
       -0.038020656 -0.009582051 0.022458533 0.03645857
0002a0 0f 8a 3d 3d ab 69 5a 3d 24 f9 5b 3d a3 e3 35 3d
       0.04627424 0.05332343 0.053704396 0.044406544
0002b0 bf 1a 27 3d 6b c6 10 3d dc a9 b4 3c d0 cb 3f 3c
       0.04079699 0.035345476 0.022053652 0.0117063075
0002c0 1e 7c 7d bc b2 16 be bc 52 aa 31 bc b5 9a 8d 3c
       -0.015471486 -0.023204181 -0.01084383 0.017285684
0002d0 50 62 16 ba eb de 69 bd 41 71 90 3b 84 3e 91 bc
       -0.00057366956 -0.057097357 0.004408032 -0.017730005
0002e0 53 43 0b bc 9b fd 82 3c f8 9a 35 3c d7 a7 db 3c
       -0.008499938 0.01599007 0.011084311 0.02681343
0002f0 17 38 10 3d 5f 37 64 3d 99 19 52 3d b4 c0 2e 3d
       0.03520974 0.05571687 0.051293943 0.042664245
000300 2d 02 ec 3c 38 b0 7a 3c 1f d7 8e 3b d6 73 81 3c
       0.028809631 0.015300803 0.0043591405 0.015802305
000310 55 77 a3 3b 14 7a bb 3b 7c 0e a2 3c af 7e 88 bb
       0.0049885907 0.00572134 0.019782297 -0.0041654925
000320 31 bc 59 39 25 0c a0 bd b2 ef bd bc 81 73 0b bd
       0.0002076484 -0.078148164 -0.023185585 -0.0340457
000330 4b b5 3c bc 66 57 80 bb 40 4e 5d 3c f7 64 ac 3c
       -0.011517833 -0.0039166687 0.013507426 0.021044238
000340 0c 0a 38 3d e0 8d 46 3d 84 a6 2d 3d 4a 0c 44 3d
       0.044931456 0.048475146 0.04239513 0.047863282
000350 38 40 13 3d 93 36 08 3d 90 4a 29 3c 3a 74 7f bb
       0.035949916 0.03325517 0.0103327185 -0.0038979189
000360 28 ad a8 bb fb 5c 5c bc 4e 4a bd b9 2c 1e 0f bd
       -0.005147595 -0.013449903 -0.0003610425 -0.034940884
000370 0d 33 3b bc 41 ce 94 3d c9 7a 96 3d c9 00 85 3d
       -0.011425746 0.07265902 0.07347638 0.064942904
000380 44 7d 90 3d ec ab 13 3c f1 e1 00 3d 16 bf fb bb
       0.070551425 0.009013157 0.031465475 -0.0076826913
000390 ff 23 b9 3c 1c 33 19 3d a7 0a d2 3c 11 9f 9f 3c
       0.022600172 0.037402257 0.025639845 0.019485028
0003a0 60 10 71 3c ad b7 b9 bc 58 2e 5e 3c 7f c6 cb 3b
       0.014713377 -0.022670591 0.013560854 0.006218731
0003b0 2f 26 a8 3c da 97 a8 3c 3a bd 1a 3d e6 2d 20 3b
       0.02052602 0.020580221 0.037778117 0.002444142
0003c0 bd 66 68 ba b6 24 80 bd 4a b7 84 bb 6f 5b d0 bc
       -0.0008865407 -0.06257002 -0.00405017 -0.025434224
0003d0 b3 00 96 bb 3b b2 d8 3a 37 cb 31 3c 28 88 97 3c
       -0.00457772 0.0016532609 0.010851673 0.018497542
0003e0 6a e3 18 3d 38 6a 36 3d 00 50 1f 3d 4f 24 29 3d
       0.037326254 0.04453489 0.038894653 0.041294392
0003f0 bd e5 2d 3d e2 49 c5 3c a9 19 2d 3c 74 24 7e 3b
       0.042455424 0.024083082 0.0105652 0.0038779052

feature_projection_low.bias f4 [8]
000000 72 a3 68 3a f2 4d 94 3d 78 76 ed 3c a5 ad 35 3d
       0.0008874453 0.072414294 0.028987154 0.044355053
000010 d6 ef 28 bd 2b 99 03 bd 8b 54 b4 38 77 24 a1 3a
       -0.04124435 -0.032128494 8.598816e-05 0.0012294193

feature_projection_high.weight f4 [32, 8]
000000 f4 5d 88 bc bb 9c 64 3c 4a 74 cf 3c b7 66 39 3b
       -0.016646363 0.013953383 0.025324006 0.0028289983
000010 bb 74 8d 39 19 de ae 3c a7 0a 06 3d d1 ab a5 bb
       0.00026980587 0.021346139 0.032725003 -0.0050558825
000020 d0 6b 2b 3d 5c ca c0 3c 46 cf af 3c d3 47 96 3c
       0.041850865 0.023533992 0.02146114 0.018344795
000030 86 6e 2c bb 1e 48 90 3c 69 b8 9a 3c c6 80 5c bc
       -0.0026310994 0.017612513 0.018886762 -0.013458436
000040 3c f6 64 bd 7b c4 f9 bd 61 f2 5b be 28 21 e2 bc
       -0.05589889 -0.12195679 -0.21479179 -0.0276037
000050 38 7e 57 bd 10 95 31 3e 20 8d aa bd 67 3c 9c 3d
       -0.052610606 0.17342019 -0.08327699 0.07628708
000060 e5 a2 df 3d db 3a c2 bd 3d 99 e2 3d 14 e1 06 bd
       0.109197415 -0.09483882 0.11064384 -0.032929495
000070 89 8d 56 3d ae 29 62 3e 66 5a e0 bd 73 c9 b2 bd
       0.052381072 0.22086212 -0.10954742 -0.0872983
000080 61 af 9f 3d e5 a8 11 3d 92 57 13 3c 6d dc 4b 3d
       0.07797123 0.03556146 0.008993046 0.04977076
000090 96 d6 3c bd 55 7e f4 3b 15 95 96 3c 52 87 0d bc
       -0.046103083 0.007461349 0.018381635 -0.00863822
0000a0 21 cd 53 bd e2 b9 36 3b 46 90 c5 39 ed be 0d bd
       -0.051709298 0.002788179 0.0003768226 -0.03460591
0000b0 25 0a 13 3d 4c 0a f5 3b 97 2a 88 bc 98 f6 88 bb
       0.035898346 0.007478034 -0.01662187 -0.004179787
0000c0 44 e5 25 3b 20 a0 e7 bc a0 b8 da bd 44 fa 09 be
       0.0025313655 -0.028274596 -0.10679746 -0.13474375
0000d0 78 54 be 3c 25 50 a1 bd 93 c9 f3 b9 45 21 91 bc
       0.023233637 -0.078766145 -0.00046498756 -0.01771606
0000e0 59 a5 f9 bd 0d 9b 70 bc ad 9b ab bd 2a 8a 59 bd
       -0.12189741 -0.0146854045 -0.08379302 -0.05311028
0000f0 3d e4 18 bd 38 00 ad bc 14 e0 20 be 2d 99 be 3c
       -0.03732704 -0.021118268 -0.15710479 0.0232664
000100 87 c6 0e 3e fc 74 a9 bd 24 6c 66 ba 5b d0 e8 3d
       0.1394292 -0.08274266 -0.0008789918 0.11367866
000110 db 08 fd bd 7a aa 7c bd ba e5 38 bd 54 f9 7e 3c
       -0.12355205 -0.061686017 -0.04514096 0.015562374
000120 ef 18 2a 3d 14 67 be 3c 34 88 ba 3c 7b 66 91 3c
       0.041527685 0.02324251 0.022770025 0.017749062
000130 69 8b fb bb 31 13 81 3c 4e 43 a2 3c 85 83 36 bc
       -0.007676531 0.015756221 0.019807484 -0.011139755
000140 9b 1b cc bd 9b 68 6e 3d d9 32 c8 bd e9 cd 03 bd
       -0.09966203 0.05820523 -0.097753234 -0.032178793
000150 06 f9 80 bd 13 17 dd 3c 5c db aa 3d 60 c7 e4 3d
       -0.062974975 0.026988542 0.08342621 0.1117084
000160 bd cb dc 3c db 5d ec bd 34 2a 3b 3e a4 67 e1 bc
       0.026952619 -0.11541339 0.18277818 -0.02751524
000170 44 49 c9 3d f3 a4 06 be 5e 65 3d bd 64 7d 52 bd
       0.098284274 -0.1314886 -0.04623925 -0.051389113
000180 7d fe 62 3e eb 38 d1 3c 13 44 34 be 04 71 57 3d
       0.22167392 0.025539836 -0.17604093 0.052598014
000190 c8 e6 a8 bd c8 cd a9 bc a7 29 91 3d 2a 47 fc bd
       -0.08247143 -0.020728007 0.07088023 -0.12318261
0001a0 fd 0c 83 3d d6 30 e1 bd 80 fe 19 3c c4 bf 72 be
       0.06398962 -0.10995643 0.009399056 -0.23705965
0001b0 f4 42 07 3d 0b 6c 77 3e bf 1b 75 3e 54 7d b2 3d
       0.033022836 0.24162309 0.23936366 0.08715311
0001c0 3e 9e b7 3d 4f 82 84 3d 83 6b 33 3d 18 83 8a 3d
       0.08965729 0.06470167 0.043803703 0.067632854
0001d0 bc 93 b1 bc a2 d1 bd 3d b8 90 94 3d 0c 72 a8 bc
       -0.02167689 0.092685 0.072541654 -0.020562194
0001e0 52 34 dd 3c 18 c7 a1 3c f9 54 82 3c d0 e1 9b ba
       0.027002487 0.019748256 0.015909659 -0.0011892859
0001f0 27 a0 da 3a 74 19 9b 3c 80 da d7 3c b3 3f 04 bc
       0.0016679809 0.018933035 0.026349306 -0.008071828
000200 2e 69 ef bd a4 a2 e3 3c 43 89 7a 3d 00 51 ec bd
       -0.11689983 0.027787514 0.06116606 -0.11538887
000210 b9 44 17 3e 9d 10 d7 3d 6f 38 8b 3d 45 19 15 bc
       0.1477231 0.105012156 0.06797873 -0.009100263
000220 58 20 c4 3d 52 cb cd bc 33 de 11 bd ae 42 2a 3d
       0.095764816 -0.025121365 -0.035612296 0.041567497
000230 d9 d9 31 3d 2f 99 2e 3d aa 40 b5 bd 88 41 b9 3d
       0.043420646 0.042626556 -0.08850224 0.09045702
000240 70 0f 84 bd ab 2a 9d 3c f5 ed 13 3e 32 dc 3b 3d
       -0.06448257 0.019185385 0.14446242 0.04586429
000250 7b f3 71 3c ca 7e 90 3d 01 09 5e 3d fb d5 6c bc
       0.014767523 0.07055433 0.054207806 -0.014455314
000260 22 96 20 3e 46 08 84 3c 3c 14 83 3d 08 7d 45 bb
       0.15682271 0.016117226 0.06400344 -0.003013434
000270 3e 4a ee 3c 99 6b fa 3d 56 fd de bd d5 ae f3 3d
       0.029088136 0.12227554 -0.10888164 0.11898581
000280 97 23 d7 bd c2 59 5f bd 64 04 f7 bd 02 79 8d 3c
       -0.10504835 -0.05452896 -0.12061384 0.017269615
000290 ef d1 32 be 96 47 41 bd d7 32 e4 bd d0 ef a1 3b
       -0.17462896 -0.04718741 -0.111425094 0.004941918
0002a0 e8 10 3b be 5f 31 00 3d 8e f1 88 3d 46 cf c1 3d
       -0.18268168 0.031297084 0.06686698 0.094633624
0002b0 54 14 96 bc bf bc 3a 3d b6 08 17 be bc dc 0e be
       -0.01832024 0.04559016 -0.14749417 -0.13951391
0002c0 40 66 2b 3d f7 ca c9 3c 6f 37 ab 3c 16 b6 92 3c
       0.04184556 0.024632914 0.020900456 0.017909091
0002d0 8a af e9 bb d0 c3 87 3c 17 ad 4e 3c f9 1d 1d bc
       -0.0071315216 0.016572863 0.01261451 -0.009589666
0002e0 30 4b 48 3c 30 37 cc 3c 15 f6 c7 3c 84 f5 4b 3c
       0.012224957 0.02492866 0.024409333 0.012448672
0002f0 cb a2 a7 bc 69 16 73 3c 81 32 e0 3b d1 89 ec bb
       -0.020463368 0.014836886 0.006841958 -0.0072185774
000300 4b 4d 5e 3e 87 a0 d3 3d d1 7e 4d 3e 50 bc b7 3d
       0.21709172 0.103333525 0.20067908 0.08971465
000310 98 a2 84 3b a3 f5 60 3e 5e 13 31 3e f1 4e 8e bd
       0.004047703 0.21968703 0.17292544 -0.06948651
000320 6c 88 bd bd f4 b8 55 bd 75 1a 2d 3c 34 8a bc bd
       -0.09254536 -0.05217834 0.01056539 -0.09206048
000330 e9 96 e6 3d 0d 27 d2 3c f5 a6 ab 3c c2 72 be bc
       0.112592526 0.025653386 0.020953635 -0.02324808
000340 43 5b ae bc c0 8d 3f 3c 3e 9f ad 3c e9 41 0c bc
       -0.021283751 0.011691511 0.021194097 -0.008560636
000350 b9 d8 41 3c 33 c9 8c 3c df 1c ca 3c 1d 53 9d bb
       0.011831456 0.017185783 0.02467197 -0.0048011676
000360 e5 b1 5f 3d 6d 85 ed 3c fa 08 cf 3a 8d 39 cf 3c
       0.054613013 0.028994286 0.0015795522 0.025295997
000370 2b 15 c9 bd a5 f2 40 3c 67 66 48 3c f7 b1 c2 3b
       -0.098184906 0.011776601 0.012231446 0.005941625
000380 03 dc ec 3d 3e 21 29 bd 08 2b 1b 3e 29 cf 21 bc
       0.115654014 -0.041291468 0.15153134 -0.009876051
000390 11 2f f1 bd 3c 28 f3 3d 1a 72 20 be 30 d9 2d bd
       -0.11776555 0.118729085 -0.15668526 -0.042443454
0003a0 f6 e2 76 3d 69 d9 7b 3c e7 36 a6 bc 77 11 1f 3d
       0.06027504 0.015371659 -0.020289851 0.038835015
0003b0 7b a0 63 3d 36 68 9e 3b ed af 56 3c c6 a8 30 39
       0.055572968 0.0048342003 0.013103467 0.00016847541
0003c0 75 1e 86 3d 6f 26 f6 bc 88 c6 1b 3e 03 32 82 3d
       0.06548778 -0.030047623 0.15212452 0.06357195
0003d0 aa 4c ea ba aa 56 90 3d e3 a2 e2 bd b4 b0 2a bb
       -0.0017875631 0.0704778 -0.110662244 -0.0026045265
0003e0 27 03 ca bd 29 03 13 3d 77 a2 7a 3d 80 92 fb 3d
       -0.098638825 0.035891686 0.061190095 0.12283802
0003f0 e3 62 ba 3b fc cf e0 bd 98 9b 10 be e9 98 05 bd
       0.0056880577 -0.1097717 -0.14121854 -0.03261653

feature_projection_high.bias f4 [32]
000000 cc 4f 6c 3c 0b 03 8f 3c 97 4d 84 3e 56 cb fa 3c
       0.014423322 0.017457506 0.25840446 0.030614536
000010 27 88 01 bc f6 36 2f 3d 01 08 6a 3d d0 52 70 3a
       -0.007905996 0.042777024 0.05713654 0.00091676135
000020 40 3a b1 3d 9b 00 6a 3c 47 ad 28 3d 74 f3 06 3e
       0.086536884 0.014282371 0.041180875 0.13178807
000030 9c ed 3c 3e 43 e3 c4 3d 6f 32 64 bc de e3 d0 3c
       0.18450016 0.09613659 -0.01392804 0.02549928
000040 d5 d9 eb 3d de 13 53 3d d1 3b 90 bc 7d b4 49 3c
       0.115161575 0.05153262 -0.017606648 0.012311098
000050 ce e0 21 bd 7d 9a 64 bd e1 12 31 3c a4 8c 94 bc
       -0.03952103 -0.055811394 0.010807724 -0.018133469
000060 19 fb f3 bd 2b 18 0a 3e 5b 5f a5 3c 39 dd e4 bc
       -0.119131275 0.13485782 0.02018707 -0.027937518
000070 71 70 e6 bd 25 0c 2c 3d 6b 8a 99 bd 09 14 97 bc
       -0.11251915 0.04200377 -0.07497104 -0.01844217

feature_norm.weight f4 [32]
000000 de a1 22 3e 36 1d f2 3d f9 dd 07 3f 81 15 02 3f
       0.1588206 0.11821978 0.5307308 0.5081406
000010 ad 0c 14 3e 42 79 10 3e 46 93 71 3e eb e5 9c 3e
       0.1445796 0.14108756 0.23591337 0.30644163
000020 6d 93 c1 3e 3c c7 fe 3d 42 5f a7 3e 1d 22 04 3f
       0.3780779 0.12440345 0.32689863 0.5161455
000030 c6 36 00 3f f1 f7 13 3f f8 cd 0b 3e d9 0b 03 3e
       0.5008358 0.57800204 0.1365279 0.12797488
000040 eb b2 ac 3e 6c d8 5c 3e eb 7c 4b 3e 63 ff b7 3e
       0.33730254 0.21566933 0.19871871 0.35937032
000050 5c 38 d7 3e 41 e1 d4 3e cc 56 f5 3d db bf 01 3e
       0.42035186 0.41578105 0.11979446 0.12670843
000060 7f 3a f9 3e 95 62 85 3e 91 07 10 3e 98 fe 21 3e
       0.4867744 0.26051775 0.14065386 0.15819776
000070 24 09 af 3e 84 6e 0e 3e c0 99 9b 3e 5b 0a d4 3e
       0.3418666 0.13909346 0.3039074 0.4141415

feature_norm.bias f4 [32]
000000 c4 34 23 3b 52 bc 60 bc 68 c3 ad bc b0 b7 06 3d
       0.0024903277 -0.013716774 -0.021211341 0.03289002
000010 e2 b7 6f bc be 6f cb 3c 6b c8 4c bb 06 35 51 3d
       -0.014631243 0.024833556 -0.0031247388 0.051075958
000020 87 d7 5e 3d 8f 7d 86 bc c0 df c6 bb e5 2b 88 bc
       0.05440476 -0.016417293 -0.0060691535 -0.016622493
000030 ce 33 33 3c 2a e1 a3 bc 8b 64 ea bb 3a 39 af bb
       0.010937644 -0.020004828 -0.007153099 -0.005347398
000040 8e b7 8a 3b f6 6d ab 3c e7 ba 12 3b 15 dd 9e 3c
       0.004233307 0.020926457 0.0022389235 0.01939253
000050 81 fb 2b 3d d8 da 29 3b 68 f6 5c bc 66 fd 0c 3a
       0.0419879 0.0025917795 -0.013486482 0.00053783355
000060 f5 d2 e0 3b c1 c4 87 3b ec c8 0c 3b c4 b9 70 3b
       0.0068610855 0.004143328 0.0021482063 0.0036731819
000070 2a bb 22 3c a9 80 7a bc 0e df 38 3c c5 65 45 3b
       0.009932319 -0.015289464 0.011283649 0.0030120474

spatial_module.u f4 [4, 49, 8]
000000 fd 14 f4 2f 68 e6 cb 2f f2 61 be 2f 14 06 a2 30
       4.4398255e-10 3.7089198e-10 3.4630393e-10 1.1788779e-09
000010 4c af 20 30 f6 fc dc 30 df 53 09 af 3d 97 f2 ad
       5.845677e-10 1.6079003e-09 -1.2489874e-10 -2.7579378e-11
000020 31 90 01 b0 5b e5 17 2f 6c fc 01 31 e3 68 56 2f
       -4.7134835e-10 1.3814853e-10 1.8915456e-09 1.950045e-10
000030 5d 98 9a 2f 06 59 0c 30 fb 5c 37 b0 59 c4 18 b1
       2.8120697e-10 5.1058213e-10 -6.6707145e-10 -2.2230522e-09
000040 d6 f9 0f 31 cc 2d 97 30 a9 b3 b3 2f 40 9c fb af
       2.0951254e-09 1.0999712e-09 3.2687567e-10 -4.5767656e-10
000050 8a f8 bb ae 24 93 35 2f 66 55 81 af d7 6e 5e af
       -8.547925e-11 1.6514129e-10 -2.3525643e-10 -2.023016e-10
000060 99 0f e5 2f 28 90 19 b0 a6 8c 8d 2f 44 05 75 af
       4.166594e-10 -5.5865934e-10 2.5747687e-10 -2.2284491e-10
000070 4b 9b 4c b2 b4 f4 96 30 fa 41 40 af b0 8f 23 2f
       -1.1909672e-08 1.0983485e-09 -1.7485738e-10 1.4875812e-10
000080 3e ef b4 2f 50 08 53 2f 7d 0e ea ad 96 27 15 b1
       3.29118e-10 1.9193291e-10 -2.6609154e-11 -2.1704856e-09
000090 dd d2 6a b3 36 a0 8c ae 6a f1 a5 30 47 2b 2e ae
       -5.467415e-08 -6.394922e-11 1.2073944e-09 -3.9601458e-11
0000a0 d3 ac 01 af af cb ed ae 8c 54 1e b1 02 79 9d ad
       -1.1793881e-10 -1.0813694e-10 -2.3040085e-09 -1.7902572e-11
0000b0 1c 0a da af 48 fb 93 2f 20 3d 54 af cd 62 11 af
       -3.9661152e-10 2.691769e-10 -1.9303004e-10 -1.3222774e-10
0000c0 83 b0 9f af 24 57 6c 2f ff 68 b7 ae 49 01 8c b0
       -2.904735e-10 2.1495034e-10 -8.3405276e-11 -1.0186706e-09
0000d0 47 6e d0 af db 51 2b af 43 80 b7 b0 d0 93 1d b2
       -3.7913336e-10 -1.558144e-10 -1.3351457e-09 -9.172211e-09
0000e0 d0 c6 56 2f cc eb 5b ad e8 26 45 30 2f 52 51 30
       1.9533819e-10 -1.2501066e-11 7.172347e-10 7.6150547e-10
0000f0 0b 85 aa ae 2c 36 24 31 03 57 74 2f af 04 e8 2f
       -7.754338e-11 2.3895934e-09 2.2222583e-10 4.2203882e-10
000100 1e bc 9c ae 45 9c 01 b1 ca a5 db ae 9a 30 82 b0
       -7.127475e-11 -1.88608e-09 -9.988417e-11 -9.472558e-10
000110 3d 18 47 b1 9a 24 24 af ae d1 e3 af ef ea a3 ad
       -2.897209e-09 -1.4928717e-10 -4.1440046e-10 -1.8635286e-11
000120 0a f9 a0 ae 1e 6d ca af be 68 05 30 61 dd 07 30
       -7.320196e-11 -3.6821118e-10 4.8533966e-10 4.942731e-10
000130 2e 26 dc 2f bc 04 9f 2e ff b5 ed ae d5 ae f2 ac
       4.0044895e-10 7.231324e-11 -1.0809841e-10 -6.897464e-12
000140 0f b6 38 af 98 53 65 2f c5 9b 98 ae 0c 7f b0 30
       -1.6799383e-10 2.0857127e-10 -6.93983e-11 1.2841794e-09
000150 36 2e 82 2f 90 ac 83 30 ce 73 4e af 4a 14 61 30
       2.3679697e-10 9.58055e-10 -1.8776733e-10 8.1883356e-10
000160 cf f5 f6 af 45 5c 32 b2 f2 58 8a 30 5d da bf 2d
       -4.4921797e-10 -1.0381943e-08 1.0066101e-09 2.1811159e-11
000170 0c 29 95 b0 08 32 8d b1 68 25 f2 2e 33 1d 82 30
       -1.0852843e-09 -4.109328e-09 1.10115306e-10 9.467044e-10
000180 40 fa 1c 2f 18 73 85 ac ef 9a b7 2d 66 0b d7 30
       1.4277024e-10 -3.7928653e-12 2.0873496e-11 1.5646549e-09
000190 a3 81 99 ae c8 42 2f b0 13 10 41 b0 03 60 40 af
       -6.9806626e-11 -6.375953e-10 -7.0235834e-10 -1.7496408e-10
0001a0 6b 7c 61 2f bb f3 27 31 48 0a a0 b0 83 a5 f1 af
       2.0507833e-10 2.4440243e-09 -1.1644454e-09 -4.3955248e-10
0001b0 3e 02 17 30 5f 1e 9d b0 84 ea de 30 d4 ac 28 30
       5.4936666e-10 -1.1431885e-09 1.6219279e-09 6.136365e-10
0001c0 f8 4a 23 b0 61 04 9e af 0a 86 fc 2e fa 89 5d af
       -5.940559e-10 -2.8743144e-10 1.14834434e-10 -2.0148852e-10
0001d0 d1 63 2c b0 46 e5 43 af b7 b7 fe ae 98 b3 3c b0
       -6.2715083e-10 -1.7816601e-10 -1.1583217e-10 -6.864922e-10
0001e0 a2 c4 d4 30 e6 bb 38 2e 8c 86 0a ac 01 0b 4d 2f
       1.5480917e-09 4.2003644e-11 -1.9685668e-12 1.8648551e-10
0001f0 e2 8c 61 2f 7d 78 ec 30 69 33 b8 b0 a1 ef 62 b0
       2.0513682e-10 1.7205505e-09 -1.3402374e-09 -8.2558854e-10
000200 ae b7 a7 ae 34 3b c8 af 94 2e 17 b0 60 e8 c2 30
       -7.626909e-11 -3.6421854e-10 -5.499967e-10 1.4181403e-09
000210 1a ef 12 b0 17 43 9a 2f 79 61 0a 2f 16 d3 80 31
       -5.3454274e-10 2.8060107e-10 1.2585656e-10 3.749288e-09
000220 6f 1e 63 b0 57 41 e5 af 69 30 ac ae 89 2a 36 af
       -8.262537e-10 -4.1701284e-10 -7.830254e-11 -1.6567915e-10
000230 46 83 0d ac 16 6d 08 30 8d 9f 02 b0 af 2b 54 b0
       -2.0110177e-12 4.963153e-10 -4.752046e-10 -7.718723e-10
000240 62 bb 05 b1 4d 8e 67 af 96 33 54 af ff 7f 9f b1
       -1.9460562e-09 -2.1059883e-10 -1.9299615e-10 -4.6420605e-09
000250 bf fb e0 af 56 63 9e af 07 62 73 b0 4d 32 cf b0
       -4.092424e-10 -2.8810615e-10 -8.854219e-10 -1.5075529e-09
000260 12 34 8f b0 e0 75 86 b0 18 c4 90 af 28 61 8b b0
       -1.0419419e-09 -9.783285e-10 -2.633278e-10 -1.0141195e-09
000270 26 3e 9d af ad 2a 03 b0 1e 35 99 ae 0c 66 0a b3
       -2.8602293e-10 -4.771817e-10 -6.96707e-11 -3.222344e-08
000280 b7 84 d9 2e 22 86 0c b0 2d 4c 1f b0 04 75 b6 af
       9.8915924e-11 -5.112232e-10 -5.7952115e-10 -3.3188752e-10
000290 68 60 2b 2e 5c 36 b8 af 07 36 6b 2e f2 d6 48 b0
       3.8966524e-11 -3.350803e-10 5.34808e-11 -7.306503e-10
0002a0 ac c6 1e 30 c7 c2 2b 2d e0 63 86 30 22 76 98 af
       5.7762395e-10 9.763474e-12 9.778169e-10 -2.7732577e-10
0002b0 1d bd a2 30 b1 f9 e8 af 89 69 81 33 ac b1 ad 30
       1.1840801e-09 -4.237797e-10 6.026227e-08 1.2637904e-09
0002c0 d5 a3 7c ae 06 75 d0 30 d9 8b ce af c2 27 8a b0
       -5.744368e-11 1.5167252e-09 -3.757055e-10 -1.0052121e-09
0002d0 07 77 76 2f e7 65 1b 2f 49 74 36 30 46 9c 89 30
       2.2415857e-10 1.4133371e-10 6.6376465e-10 1.0012478e-09
0002e0 e1 63 e8 2e a9 70 da 30 c3 82 92 30 92 04 bf af
       1.05678806e-10 1.5893608e-09 1.0660063e-09 -3.4745945e-10
0002f0 cd e7 02 b0 9e ae 58 ae f3 ba 1c b0 05 cc e0 b0
       -4.7623133e-10 -4.9267805e-11 -5.701814e-10 -1.6356131e-09
000300 78 2f f5 ae 89 a4 a9 2e 8e 9b 3b 2f 96 df 5d 33
       -1.1149742e-10 7.7144575e-11 1.7062815e-10 5.1658922e-08
000310 9a e2 2a 30 95 3f d1 ae 2a de b3 32 b1 54 15 30
       6.216766e-10 -9.515514e-11 2.0939371e-08 5.432624e-10
000320 e1 57 45 af 91 ae b6 af 09 ff b7 2f 2c e6 b4 30
       -1.7948266e-10 -3.3229644e-10 3.346872e-10 1.3162142e-09
000330 62 61 96 ad dc bc f4 2e 92 ad 46 2e 8a d8 6f 2f
       -1.7096272e-11 1.11293835e-10 4.517415e-11 2.1813854e-10
000340 5b 3e 79 af 42 d8 73 2d 2f 86 80 af 96 a5 89 ac
       -2.2668571e-10 1.386097e-11 -2.3378408e-10 -3.912158e-12
000350 a3 0f 94 b0 dd 0f 65 af 26 10 24 b0 e7 44 12 30
       -1.0772861e-09 -2.0833064e-10 -5.96858e-10 5.3212407e-10
000360 af 35 03 2f 12 18 12 30 49 b1 8f 2f 76 85 f5 2e
       1.1933453e-10 5.3148697e-10 2.6137517e-10 1.11650175e-10
000370 ce cf ef 2e 39 9f 8b af c6 81 24 af 9c c7 fd 2f
       1.0905375e-10 -2.5397087e-10 -1.4961818e-10 4.6162263e-10
000380 6e a3 14 b0 50 f0 b4 af e7 a1 9b af 0f 0d 39 31
       -5.4074334e-10 -3.2912562e-10 -2.8309374e-10 2.6928466e-09
000390 e8 4c af af 15 32 72 b0 75 89 04 af ed a3 11 2f
       -3.188696e-10 -8.811026e-10 -1.2054165e-10 1.3245911e-10
0003a0 22 69 cb 2f 0f 9d e6 30 f0 27 02 31 cc 9e 65 2f
       3.7000186e-10 1.6779341e-09 1.8940192e-09 2.0883845e-10
0003b0 3f 64 83 af 28 b9 af af 49 cb 4e ad 1b e9 73 af
       -2.389999e-10 -3.1963876e-10 -1.1754883e-11 -2.2183537e-10
0003c0 dc 24 f6 30 88 1d ca ae 6e c6 60 30 55 88 1a b0
       1.7909332e-09 -9.191142e-11 8.177271e-10 -5.6218613e-10
0003d0 47 57 63 32 f4 96 1d 31 ec 96 16 ae d9 af 95 2f
       1.3232984e-08 2.2932314e-09 -3.4240097e-11 2.722789e-10
0003e0 50 e6 33 2f e2 12 2f 2e df b1 b7 af f2 e0 45 b1
       1.6361779e-10 3.9807165e-11 -3.341389e-10 -2.879514e-09
0003f0 97 96 48 af 63 6b 32 b3 ce e5 b5 2f a3 0c 80 b0
       -1.8243394e-10 -4.1541522e-08 3.3086994e-10 -9.316817e-10

spatial_module.v f4 [4, 8, 49]
000000 fb a7 f3 b7 44 28 b4 38 55 7c 5c 37 9f 87 96 b6
       -2.904608e-05 8.590569e-05 1.314197e-05 -4.4861367e-06
000010 8e 70 c7 b6 a7 d8 81 b7 02 76 64 b7 1c 3d ce 35
       -5.9437652e-06 -1.5478885e-05 -1.3617335e-05 1.5365981e-06
000020 31 e3 e1 b8 40 dd e8 b7 d8 34 47 b8 19 5a 12 38
       -0.00010771154 -2.7759583e-05 -4.749451e-05 3.4893023e-05
000030 ac 55 51 b4 fb 6e 69 38 a0 00 65 37 2d 5e f3 b7
       -1.9495809e-07 5.5654888e-05 1.3649609e-05 -2.9011711e-05
000040 2f 98 e5 37 13 5c 51 b8 17 46 d8 38 e0 6f 26 b8
       2.7369793e-05 -4.9915234e-05 0.00010312738 -3.9681676e-05
000050 89 0c c8 b8 f1 56 4b 38 83 73 a7 b4 ae f5 77 37
       -9.539078e-05 4.8479942e-05 -3.119022e-07 1.4779549e-05
000060 21 02 99 37 98 e4 1f 37 ec 92 ea b6 10 ad e5 b5
       1.8240013e-05 9.530362e-06 -6.9908474e-06 -1.7112197e-06
000070 ea a4 d9 38 07 76 55 35 88 47 cf 37 eb c4 48 38
       0.00010378084 7.9520436e-07 2.4709632e-05 4.786711e-05
000080 ef a4 d3 b8 69 b5 8b b7 67 ac 60 37 ef d4 a2 b8
       -0.00010091985 -1.6654567e-05 1.3391581e-05 -7.764424e-05
000090 65 ee 77 b7 e0 01 94 b7 dd 5b 03 b9 fe 35 19 37
       -1.4777853e-05 -1.7643848e-05 -0.00012527355 9.132082e-06
0000a0 0d c7 ab b7 c8 f5 43 38 c6 e5 69 b7 ce 84 c1 37
       -2.0477479e-05 4.6720525e-05 -1.39413805e-05 2.3069235e-05
0000b0 00 f7 27 b7 bb ee 08 b6 af 38 81 b7 fc bc 0a 37
       -1.0011485e-05 -2.0404539e-06 -1.5404394e-05 8.269442e-06
0000c0 e4 06 e4 36 63 89 ed b7 54 1b ed 38 1e b9 d7 b6
       6.7957317e-06 -2.8316577e-05 0.00011306131 -6.42905e-06
0000d0 f7 fa fa 36 f4 6c b8 37 ae 59 71 b7 98 d0 69 36
       7.4797967e-06 2.1985245e-05 -1.43856e-05 3.4841123e-06
0000e0 4b 87 25 38 35 7d dd b8 ec cf 3a b8 0e af c4 b8
       3.9465067e-05 -0.00010561423 -4.4539498e-05 -9.378615e-05
0000f0 47 d6 10 b8 8c ee ac 37 4a a7 31 37 13 78 83 37
       -3.4531837e-05 2.061508e-05 1.0588972e-05 1.567233e-05
000100 a2 ec ea 37 93 5e 97 38 af e5 81 b8 58 11 e8 38
       2.8005164e-05 7.217857e-05 -6.193981e-05 0.000110658526
000110 27 e1 fb b7 10 73 b9 b8 c5 b1 72 38 91 80 ae b5
       -3.0026376e-05 -8.8429195e-05 5.7862857e-05 -1.3001428e-06
000120 d6 ff 56 36 92 bc 29 38 89 fb 1a 39 2f 2d 30 b8
       3.20374e-06 4.046836e-05 0.00014780289 -4.200375e-05
000130 8c bb b9 36 0b d1 b9 38 ce a0 15 b6 b0 1c f1 37
       5.535263e-06 8.860425e-05 -2.229633e-06 2.8742797e-05
000140 c3 a2 17 36 a7 dc 44 b8 ea d8 b2 b7 ac c1 48 37
       2.2595493e-06 -4.693554e-05 -2.1320262e-05 1.1966022e-05
000150 cd d7 83 b8 65 84 5e b7 74 66 95 36 99 64 0d b9
       -6.286763e-05 -1.3263057e-05 4.452473e-06 -0.00013484283
000160 e8 38 94 b8 43 6e 53 b7 53 28 f0 36 0b a5 0c 38
       -7.0677896e-05 -1.2602252e-05 7.1572517e-06 3.353231e-05
000170 c7 6c bb b8 ee dc 07 b7 78 ef 04 38 29 63 47 b9
       -8.937116e-05 -8.098066e-06 3.1694275e-05 -0.00019015059
000180 cc 55 43 b7 10 fc f8 36 db 56 02 b7 6a 8b b7 38
       -1.1642882e-05 7.42032e-06 -7.768826e-06 8.752088e-05
000190 e3 74 83 37 f5 5c e6 37 32 3d c9 b7 32 c9 8d b7
       1.5670847e-05 2.7461423e-05 -2.3989563e-05 -1.6902199e-05
0001a0 74 b3 38 b7 fb f6 e4 b6 a3 04 1b b9 ff 00 93 b8
       -1.1009037e-05 -6.823682e-06 -0.00014783679 -7.009692e-05
0001b0 61 b1 f8 b8 57 f0 c9 37 f5 e6 80 b4 50 1c 38 35
       -0.00011858601 2.4072984e-05 -2.40099e-07 6.858654e-07
0001c0 42 29 db 36 93 fb ca 37 c4 d4 5c 38 2f a0 88 b8
       6.5315116e-06 2.4197425e-05 5.265024e-05 -6.514822e-05
0001d0 7d 00 17 39 ba 34 42 38 8b c4 ca b8 c6 8d 4d 38
       0.00014400664 4.630231e-05 -9.6687196e-05 4.9007846e-05
0001e0 ba 76 78 39 c9 db 48 b4 d9 69 4a 37 e0 ce 17 39
       0.00023695352 -1.8706409e-07 1.2064783e-05 0.00014477549
0001f0 6d ff 07 b9 1c b2 01 b6 5d 2b a5 b8 38 cc 43 b6
       -0.00012969757 -1.9326171e-06 -7.87589e-05 -2.9176135e-06
000200 4e 33 71 b9 fc a5 46 36 5a 00 db b8 d8 01 aa b7
       -0.00023002664 2.9600915e-06 -0.00010442799 -2.0266438e-05
000210 7c 31 b0 b7 13 82 10 b9 fe cb 57 b7 f2 1e ff b6
       -2.1003878e-05 -0.00013781367 -1.2862494e-05 -7.6031947e-06
000220 56 2d e9 b7 6b 5e f0 36 4b 2f 01 b8 d8 97 dd 36
       -2.7796876e-05 7.163549e-06 -3.080004e-05 6.60399e-06
000230 98 93 0e 38 35 02 b5 b8 98 3b 94 b7 10 91 ee b8
       3.3992896e-05 -8.631164e-05 -1.7670725e-05 -0.00011375744
000240 6b 96 a9 36 f0 ac f1 b6 84 91 f1 36 93 67 19 b7
       5.0541034e-06 -7.2024923e-06 7.1993e-06 -9.143626e-06
000250 12 08 f5 38 a2 6c 99 36 11 eb 91 b6 d7 7e b7 37
       0.000116840136 4.572402e-06 -4.348702e-06 2.1874364e-05
000260 ce e6 a8 b7 d6 e1 61 b7 e8 2e 66 37 29 02 cf 38
       -2.0134637e-05 -1.3463627e-05 1.37199895e-05 9.8709315e-05
000270 44 9d a2 b7 64 da 99 b8 bf 60 1e 38 a4 65 a8 b3
       -1.9385137e-05 -7.336287e-05 3.7760237e-05 -7.841598e-08
000280 8e ab f5 37 ad 92 c2 b5 f5 07 a0 37 4e 58 5c 38
       2.9286162e-05 -1.4496815e-06 1.9077192e-05 5.2534328e-05
000290 de 56 88 b8 bb 7c 59 39 4d 22 29 b8 54 55 cc b8
       -6.5011656e-05 0.00020741198 -4.0324685e-05 -9.7433716e-05
0002a0 d7 75 63 38 fd d4 2f b8 10 90 69 37 ce d9 8f 38
       5.4230764e-05 -4.1921612e-05 1.3921424e-05 6.859341e-05
0002b0 a0 74 f2 38 72 5d 82 b8 ac 0a 4b 37 b8 f1 b9 38
       0.00011561182 -6.2162886e-05 1.2102228e-05 8.866511e-05
0002c0 9c c6 09 b5 7c bd c8 37 a8 5c 1d 38 87 5a 8e b8
       -5.132549e-07 2.3930093e-05 3.751801e-05 -6.78795e-05
0002d0 db 54 8c b7 1b 58 80 b7 2a de 76 b8 22 8e 4d b7
       -1.6728814e-05 -1.5299816e-05 -5.8857877e-05 -1.2252045e-05
0002e0 36 54 da b8 63 1c 81 b7 78 fd 3b 37 22 52 eb b8
       -0.000104107356 -1.5391217e-05 1.1205084e-05 -0.00011220972
0002f0 ef 73 0b 38 1c 63 ae b6 91 5b de 37 d0 2b 9b 36
       3.3248154e-05 -5.197142e-06 2.6507101e-05 4.6244604e-06
000300 60 00 81 b8 a9 10 84 b7 36 f9 20 36 91 c4 e3 36
       -6.151269e-05 -1.5743384e-05 2.3986918e-06 6.7880105e-06
000310 2c 22 96 37 f6 59 2a 39 8b 5f 0d b6 59 c8 8e b6
       1.7897306e-05 0.00016245976 -2.106625e-06 -4.2552533e-06
000320 f2 c9 9b 37 e4 23 8f b7 6a ac a7 b6 cf b0 ee b6
       1.8571478e-05 -1.7063641e-05 -4.9970595e-06 -7.113536e-06
000330 02 85 02 b9 9f ae 5f b8 8b 76 05 38 ad cd de 37
       -0.00012447315 -5.332997e-05 3.1820073e-05 2.6560238e-05
000340 ec 73 92 b4 47 cd 7a 36 33 8c 68 b7 cd 09 a1 b8
       -2.7278963e-07 3.737239e-06 -1.386092e-05 -7.678904e-05
000350 75 f8 39 38 b9 c1 87 b8 15 2c 82 39 83 c0 29 b8
       4.433883e-05 -6.473385e-05 0.00024828376 -4.047203e-05
000360 bb 06 cc b8 a7 59 a8 38 47 bd a9 b5 30 7e 71 b7
       -9.728732e-05 8.027563e-05 -1.2646568e-06 -1.43941e-05
000370 df 0d 6d 38 48 a5 6b 38 a6 ac 87 b5 8f 81 07 37
       5.651812e-05 5.6182296e-05 -1.0108531e-06 8.076792e-06
000380 ab a6 ba 38 5f ab 28 36 b5 9c d5 37 0e 85 a0 36
       8.9002155e-05 2.5133702e-06 2.5464551e-05 4.783861e-06
000390 f4 f3 ac b8 e7 63 99 b7 46 99 d4 b8 b6 bd a5 b9
       -8.247039e-05 -1.8285542e-05 -0.00010137497 -0.00031612598
0003a0 9a 98 19 b9 75 37 35 b7 1c 55 42 38 cc 05 2c 37
       -0.00014648066 -1.0801353e-05 4.633247e-05 1.0253349e-05
0003b0 e4 4a d7 b7 54 c3 32 37 8b 91 0f 38 9c 79 d5 b8
       -2.5664871e-05 1.0655105e-05 3.4229404e-05 -0.00010179283
0003c0 24 e8 b4 b7 6d 9d b2 b6 db b6 dc 36 56 64 35 38
       -2.1565771e-05 -5.32314e-06 6.577798e-06 4.3247208e-05
0003d0 ff 61 5b 37 c8 92 c7 b7 23 1d dc 38 1d e5 87 b6
       1.3076234e-05 -2.3790999e-05 0.000104958446 -4.049986e-06
0003e0 92 3b 6c 37 a7 18 ad 37 09 8a 8d b7 30 11 9d 36
       1.4080566e-05 2.0634687e-05 -1.6872787e-05 4.6809655e-06
0003f0 39 cc 9c 37 bc 94 e2 b8 92 68 92 b8 3c 77 ff b8
       1.8691748e-05 -0.00010804224 -6.9813e-05 -0.00012181557

spatial_module.qkv_proj_low.weight f4 [24, 32]
000000 19 1e 4f bc 9d 22 15 bb eb c1 c0 3c 14 4f 8a bb
       -0.012641453 -0.0022756227 0.023529967 -0.0042208526
000010 44 c0 f6 3c e3 42 7b 3c fe 2f df 3c 29 fb f8 3c
       0.030120976 0.015335771 0.027244564 0.0303932
000020 01 d0 41 bd fd aa a6 3a cf 14 64 bd d5 8a 47 3d
       -0.04731751 0.0012715753 -0.055683907 0.048716385
000030 74 0e 27 bc 5f 1f 11 bd 91 93 57 bc 79 fb 2f 3c
       -0.010196317 -0.03543031 -0.013157741 0.010741108
000040 78 d9 7d 3d 5d 00 5d 3d 5d 8b 6c bc 83 d9 ae 3c
       0.061974972 0.053955425 -0.014437524 0.021343952
000050 3e c2 f2 3c f2 c3 75 bd fd 3d b7 3a c0 0a 2d 3c
       0.029633638 -0.06000132 0.0013980266 0.010561645
000060 68 57 05 bd a7 e9 86 3d 5b 61 4a 3c e9 43 dd 3c
       -0.03255406 0.065875344 0.012352313 0.027009921
000070 84 29 09 bc e2 58 91 3b 40 9f 92 3c 08 18 94 3c
       -0.0083717145 0.0044356445 0.017898202 0.018077865
000080 20 a8 19 bb ca 4a 29 b9 aa 04 25 3c 60 23 41 3d
       -0.0023446158 -0.00016144957 0.010071913 0.047152877
000090 b4 57 12 bb ac 4b b5 3b 57 ab 63 bc 42 45 cd 3c
       -0.0022330107 0.0055327024 -0.013895831 0.025057439
0000a0 88 b0 e3 bc 8b 38 c2 3a ee f5 90 bd 16 15 49 bc
       -0.027794138 0.0014817877 -0.07078157 -0.012273094
0000b0 69 72 4b 3d c8 1b ce 3c 38 a0 1b ba 24 ee 62 bb
       0.049669657 0.025159732 -0.0005936655 -0.0034626806
0000c0 b7 81 63 3c 59 ed 42 b9 27 cf 2d 3a 70 95 f9 3c
       0.013885907 -0.000185897 0.00066302944 0.030466765
0000d0 08 ce 5a 3d 3b 56 90 3c fd e8 a2 3a 32 07 99 3a
       0.053419143 0.017619243 0.0012429055 0.0011675118
0000e0 0a ec d0 3c 3f 9e d9 3c 8b 62 af 3b f4 a7 82 bc
       0.025503177 0.026564715 0.0053523234 -0.015949227
0000f0 40 b1 62 bd be 6d 10 3b a5 b1 7e bd b5 f9 02 3d
       -0.05534482 0.0022038068 -0.062181134 0.03197642
000100 f1 4e df 3a ab 9a 9f bb a3 4b f6 3b 10 92 e6 bc
       0.0017037076 -0.004870733 0.007516341 -0.02814582
000110 4a 7e b4 3b 9d d4 22 3c 24 02 97 3d 10 c1 bb 3d
       0.005508219 0.009938386 0.07373455 0.09167683
000120 ba 4e 46 bd 9a 26 b0 ba 4e 10 ca 3c 97 11 05 be
       -0.048414923 -0.0013439239 0.024665978 -0.12994991
000130 24 0f f3 bd f8 b4 c4 bd 15 9d 00 3d 67 26 bb bb
       -0.11868122 -0.096048295 0.031399805 -0.005711365
000140 07 ca a7 3d cf 88 80 bd dd d0 7d bd 8e 5d 2e bd
       0.081928305 -0.06276094 -0.061966766 -0.04256969
000150 20 8c 16 3d a9 0c ab bd ff 81 6f 3a e7 ec 15 3b
       0.036754727 -0.08352024 0.00091364974 0.00228768
000160 c7 cb bb 3d 1b ab a5 3d 26 68 a5 3b 2a 44 46 3d
       0.09169727 0.080892764 0.005047816 0.04840485
000170 88 3d d0 bd 26 94 d6 3b c2 9b 3c 3d 88 78 ea bd
       -0.10167986 0.0065484224 0.04604698 -0.11448771
000180 27 69 f4 ba 36 d4 5f 3b f7 e2 d5 bd 79 18 16 bc
       -0.001864706 0.0034153587 -0.10443681 -0.009161108
000190 b0 02 9b bb 44 55 77 bc 4b 1a dd bb ca 3f 75 bd
       -0.004730545 -0.0150960125 -0.006747519 -0.059875287
0001a0 dc c1 83 bd fe 60 61 3a bd 0c a0 bd 46 76 0a bc
       -0.0643346 0.0008597522 -0.0781493 -0.00845105
0001b0 5a dd 3e 3d dd 1c 9b 3d 95 fb 09 3c c1 a4 b0 bb
       0.046597816 0.075738646 0.008421798 -0.005390734
0001c0 36 11 9e bc 6f 8b ba bc c9 85 a3 bb 98 5c 36 3d
       -0.019295316 -0.022771565 -0.0049903137 0.044521898
0001d0 2d e9 73 bd da 29 1d bd 17 90 27 3a 8e d9 88 3b
       -0.059548546 -0.03836999 0.00063920155 0.004176325
0001e0 11 96 8e bb 81 f3 78 bb 6d a8 34 3b 08 1a a0 bc
       -0.0043513854 -0.0037986937 0.002756621 -0.019543663
0001f0 0b 43 d4 3c e0 d1 50 3b 0b 1a 0e 3d dc 84 18 3d
       0.025910875 0.0031863376 0.034692805 0.03723608
000200 11 3e da bc d8 f8 38 39 eb ea 88 3d 09 94 9a bd
       -0.026640924 0.00017640309 0.06685432 -0.07547767
000210 44 c7 fe 3b 5b 7c 9c bb 40 c5 96 3c 03 4a af bb
       0.007775219 -0.0047755665 0.018404603 -0.005349399
000220 c7 8d 9f bd fc 37 2e bb c4 ce b7 3d dd 77 df 3b
       -0.07790714 -0.0026583662 0.08974984 0.0068197087
000230 b8 58 52 3d cf 26 fd bc 0d 1e 41 3c b8 d0 35 bb
       0.05135414 -0.030902294 0.01178695 -0.0027742814
000240 bc f0 d2 bc 19 d1 9d 3c ef 28 96 bc aa 1b e7 bc
       -0.025749557 0.019264745 -0.018330066 -0.028211433
000250 d9 c9 54 bc e7 a5 c8 bc 91 68 a0 ba 49 f6 dd 3b
       -0.012987577 -0.02449317 -0.0012238194 0.0067737442
000260 ef 09 b2 bd f6 65 2c 3d b0 fa 14 3d 4d 11 ce 3b
       -0.08693301 0.042089425 0.036371887 0.0062886835
000270 78 e5 a3 3c ae 2b ea bb 5b 91 ca 3c 67 5a 22 3d
       0.02000688 -0.0071463203 0.024727514 0.039636996
000280 d1 68 34 3b ed c9 2f ba 68 bf 74 3d ef a6 c4 3d
       0.0027528296 -0.00067058095 0.05975285 0.096021526
000290 36 cf 34 3c 1d 53 c4 3c c1 36 08 bd ad c5 94 3d
       0.011035731 0.023965413 -0.033255342 0.07264266
0002a0 83 32 1b 3d 69 55 d1 3b 38 f0 8b bd 2d 77 80 3d
       0.03788997 0.0063883555 -0.068329275 0.06272731
0002b0 98 a6 3e bd 2c 55 51 bd 32 00 41 3c d5 5d 72 bc
       -0.046545595 -0.051106617 0.011779832 -0.014792879
0002c0 95 15 bc 3d af f0 0d 3b 6d 7b ad bc 26 f0 e5 3c
       0.09183804 0.0021658351 -0.021177018 0.028068613
0002d0 e5 30 6a 3c 42 dd 71 3c 6f b6 61 3b 17 4e 46 bb
       0.014293884 0.014762225 0.0034441014 -0.0030258948
0002e0 fc d6 7e bb e2 9c a1 3d ba 7a 07 bb 02 0a 4b bc
       -0.0038885465 0.07891251 -0.0020672516 -0.012392523
0002f0 87 e7 89 bd ec bf 82 3a 3a db 62 bd 66 ff 76 bd
       -0.067336135 0.000997541 -0.055384852 -0.06030216
000300 d3 a4 75 ba 3c 9f 51 bb 2c 08 43 3d b2 12 89 3d
       -0.0009370569 -0.003198578 0.047615215 0.06693019
000310 a2 61 75 3c 34 3a cf 3a 72 d3 cf 3a b5 8c 0d 3b
       0.014976891 0.0015810193 0.0015855862 0.002159876
000320 ae d7 e8 bc 42 94 fa 3a 11 a5 5e 3c 8f 78 df 3c
       -0.028423157 0.0019117671 0.01358916 0.027279167
000330 f0 12 15 bd 9c 7f 58 3d 76 e0 80 3c 06 90 10 3b
       -0.036395013 0.052856073 0.015732031 0.00220585
000340 3f 8d 5b 3d f2 8c e9 bb 14 3d ad bb 28 b4 42 bc
       0.0536015 -0.0071273977 -0.005286822 -0.011883773
000350 c7 7b 84 3c 3e a0 aa 3b 02 4d 85 39 8d b8 a5 b6
       0.016172303 0.0052070906 0.00025425112 -4.9388677e-06
000360 af 2e ed 3c 60 fc 42 bc b6 78 87 ba 6f 27 8b 3c
       0.028952925 -0.011900991 -0.0010335657 0.016986577
000370 2c a9 1a bd aa 19 14 3b 0c 82 54 bd 6e ff 3c bc
       -0.03775899 0.0022598305 -0.051881835 -0.011535509
000380 97 a4 97 ba 8a e3 8c ba 71 79 e0 bb 40 52 b0 bb
       -0.0011569437 -0.0010748964 -0.0068504144 -0.0053808987
000390 bf 76 05 bb 4b dd 88 b9 bb 76 42 ba 8a ea cf b9
       -0.0020364968 -0.00026104818 -0.0007418205 -0.00039656862
0003a0 e9 24 ca 3b 0b 73 f1 b9 4a 98 bc bb 9d 70 ac 3a
       0.006168951 -0.00046052816 -0.005755459 0.001315612
0003b0 be e1 83 bb d4 7f ae 3b 19 c1 65 ba 3b 26 03 38
       -0.0040247133 0.005325297 -0.00087644305 3.126844e-05
0003c0 2e 75 8e 3a e8 59 84 bb 42 c8 e8 39 75 c9 3b bb
       0.0010868663 -0.004039038 0.00044399692 -0.0028654013
0003d0 c0 ff 4a 3b 9a e7 eb bb ae f7 8c ba 09 25 a2 b6
       0.0030975193 -0.00719924 -0.0010754967 -4.8322877e-06
0003e0 72 b9 d1 3a f8 3b 49 bb 4c 15 4b ba 58 76 04 bb
       0.0016000702 -0.003070591 -0.0007747009 -0.002021214
0003f0 af e5 1c 3a 36 05 3e ba 3e bf 71 3a 95 e7 bb ba
       0.0005985153 -0.00072487013 0.0009221918 -0.0014335985

spatial_module.qkv_proj_low.bias f4 [24]
000000 2e 49 e7 3c 1e dc 4b bb eb 95 8d bd 91 82 32 bd
       0.028233137 -0.0031106542 -0.0691336 -0.04358155
000010 3b 06 fb bb b3 52 7d 3c a1 b7 9d 3c 95 62 89 bb
       -0.007660655 0.015461612 0.0192526 -0.00419266
000020 db 76 1b 3d df 2c 77 3c 74 65 62 b8 45 1c 8a bd
       0.037955146 0.015086382 -5.3977084e-05 -0.06743673
000030 2d 37 4d 38 65 80 8a bc a6 eb 99 bb bf 58 d3 3c
       4.8927195e-05 -0.016906926 -0.004697281 0.025799153
000040 d2 37 93 3c 44 9b 46 bc 10 80 9d bb ab 63 9d bc
       0.017970953 -0.012121979 -0.004806526 -0.019212564
000050 e1 d0 4d 3c 2e a1 18 bd 2c 79 61 ba be c8 3f 3d
       0.012562008 -0.037263088 -0.0008601125 0.046822302
