old/old results/save/MSAGATNet.japan.w-20.h-3.pt (torch, 66529 bytes, 64 tensors)

temp_conv.depthwise.weight f4 [1, 1, 3]
00000000: b3eb be3d 6cd7 8e3e abc9 75be
0.093223 0.2789873 -0.24002711

temp_conv.pointwise.weight f4 [16, 1, 1]
00000000: 56ef 32bd 550d a83d 4a35 29bd ee66 903d
00000010: 73b1 a83d fb3e 60bd 5adb ce3d 3d9b 533d
00000020: 1f48 a33d ec5b 443d ab67 9d3d 1b4b 45bd
00000030: f072 ca3d c0c7 a43d 47cb 3cbd a321 a43d
-0.04368528 0.08205668 -0.041310586 0.07050882 0.08236971 -0.054747563 0.10100432 0.05166172
0.079727404 0.047939226 0.07685789 -0.04816733 0.09885204 0.08045912 -0.046092298 0.08014228

temp_conv.pointwise.bias f4 [16]
00000000: 4dcf 7735 7afe 4cb5 89be cdb5 5aff 84b5
00000010: 95e7 93b7 d08e 2cb6 efb9 8333 25ef 8db4
00000020: e10e a534 6cec 53ba 1194 6339 b474 9bb8
00000030: 98cb 1c37 e595 3535 70a5 fab3 caed 95b5
9.231633e-07 -7.6366234e-07 -1.5329143e-06 -9.909083e-07 -1.7631604e-05 -2.5713125e-06 6.133984e-08 -2.6437297e-07
3.074447e-07 -0.0008084241 0.00021703566 -7.4127136e-05 9.345727e-06 6.764588e-07 -1.1671625e-07 -1.1170571e-06

temp_conv.bn2.weight f4 [16]
00000000: 03ab 603e e7f9 973e 3406 2a3e f327 803e
00000010: 2162 8c3e 9b7a 993e 29e5 8a3e 8b4b 643e
00000020: 1c68 b43e 0592 583e 19ea 983e ce99 753e
00000030: cab6 803e 77db a13e 7591 163e b66f 913e
0.21940236 0.29682848 0.16603929 0.2503048 0.27418616 0.29976353 0.2712796 0.22294442
0.3523568 0.21149452 0.29866102 0.23984453 0.25139457 0.3161275 0.14703925 0.2840554

temp_conv.bn2.bias f4 [16]
00000000: ad6a 16bc 87b6 ea3d 48fa a0bb 0c6a af3d
00000010: c10c 823d 6364 c7ba 4226 963d beb0 9a3c
00000020: db68 1a3e 6260 eb3d 493d 7c3d b745 4dbb
00000030: 6e68 6b3d 7c39 cf3d c0f1 99bc e33e cc3d
-0.009180707 0.114605956 -0.0049126484 0.08565149 0.06350089 -0.0015212413 0.07331516 0.018883105
0.15079062 0.11492993 0.061581884 -0.003132207 0.05747264 0.10118386 -0.018792033 0.09972932

temp_conv.bn2.running_mean f4 [16]
00000000: 778b 1abc a19f 933c 1844 13bc f9cc 7d3c
00000010: 0b5b 953c 4495 44bc 2f5e b43c 0e3d 393c
00000020: 3812 913c ecd3 1e3c 5334 8d3c 894c 2dbc
00000030: b417 b13c bf5b 8f3c 1f43 23bc c187 8f3c
-0.009432665 0.018020453 -0.008988403 0.015490764 0.01823189 -0.011998478 0.022017566 0.0113060605
0.017708883 0.009694081 0.017236864 -0.010577329 0.021617748 0.017499803 -0.009964733 0.017520787

temp_conv.bn2.running_var f4 [16]
00000000: 2d92 3939 fa57 293a 09a8 2839 8f30 fa39
00000010: feda 2d3a c31e 9639 7c31 7d3a fe3e 8539
00000020: e77c 233a c77d 6939 f18f 163a 36a0 6539
00000030: 9eed 733a 77b3 1f3a c1ee 4f39 462a 203a
0.0001769743 0.0006459948 0.00016084326 0.00047719895 0.00066320586 0.0002863315 0.0009658558 0.0002541467
0.00062365684 0.00022267467 0.0005743495 0.00021898825 0.0009305122 0.0006092111 0.00019830001 0.0006109815

feature_process_low.weight f4 [6, 320]
00000000: 8503 f1ba c8ef 24bb b327 febb 0b3f d2bb
00000010: 0292 3f38 272d 953a 135a 133c 9844 843c
00000020: a09a cc3a e393 fb3a c05f 153d abb3 e23c
00000030: e382 a03c d3a2 dcbc 0aed 9cbd 52c0 b3bd
00000040: 450c b5bd 9720 80bd 561b 33bd 9fae 2b3d
00000050: 7868 fe3b dba3 1d3c 9bb7 ef3b b358 6d3b
00000060: 576b 333c a401 1b3c f332 b138 50bb d23b
00000070: 1c63 103b a67b febb 891f cebc 00f4 c0bc
00000080: f400 d9bb f62a d73c 1324 8a3d 2f30 d93d
00000090: 388d 9b3d 02be 683d 85e5 83bc 7143 423d
000000a0: e1aa f1bb 11cc 99bb 46a0 91ba fa7f ec3b
000000b0: df52 05bc 584b 863a f2ab ae3b 6398 c23a
000000c0: d332 083a f5b6 873b 8d54 f53c 8bf2 823c
000000d0: b61a 8e39 674c 74bc bf3f 25bd 089a 7abd
000000e0: 522c 3abd f676 66bd 9cdd 42bd 6112 f13c
000000f0: 2dde ad3b eb49 743c 3e71 8f3b d970 973b
00000100: 292e ba3b c842 d23a 9adb 973b f75d e03b
00000110: b42b 953b 9b4f 35bc 3736 b4bc f75e c8bc
00000120: 1c5c 09bc 3d05 cb3c 763e 8b3d c8cc b33d
00000130: 299c 863d 8cc7 083d 2a43 90bc 2bf2 763d
00000140: a525 293c 2a46 f33b 30b5 e53b 8cd6 293c
00000150: c4ee 0a3c b58e 2f3c 2cfb 7e3b 979a 183c
00000160: ff90 e73b e62f 21bb fe2b b0bc 908f 46bc
00000170: 3cd6 943a da5d dc3c d85f 793d 17b9 b53d
00000180: 0448 6c3d cbbc 803d 77f8 493a 2705 9a3d
00000190: 47c0 98bc 7d8d eebc 97cc a5bc b230 10bc
000001a0: c4ac 4abc 3819 7ebc a7e1 2b3c 46d5 38bc
000001b0: 87f7 1dbc 57ee 083c 3b7b a83c 0671 263d
000001c0: dca9 4d3c f12b 27bd 8048 91bd 2cbb d9bd
000001d0: 5bc7 d7bd aa8a e7bd ed53 28bd 6c5c 5e3d
000001e0: 24f0 473c 3817 813c fc73 553c b325 353c
000001f0: ec67 1a3c dae5 3d3c bc28 0e3c 4027 343c
00000200: b0ee 243c b89f 87ba 3eb5 1abc de85 2abc
00000210: 4ce8 153c aff0 da3c 053d 883d e363 ae3d
00000220: 2150 613d 667e 563d b539 3dbb 6ca6 923d
00000230: e886 803a 0fb4 cd3a d9a4 023b 7be9 8d3a
00000240: 14ac d33b 9510 233c 74dd e53b 11c4 273c
00000250: deda f63b 9d0f 93ba b727 02bc c247 acbb
00000260: 66ec 2e3c 15a9 9d3c de9e 013d d2b6 2d3d
00000270: ce79 173d 5cae 263d e021 a7bb 3c83 8d3d
00000280: 1963 7db9 7158 3a3c 42a5 313b 1e5f c9bb
00000290: abb8 f63b 6e63 2dbb 946d 90bb 0570 4b3b
000002a0: b824 75b9 b6b1 afbc a539 30bd 5f20 e1bc
000002b0: 83cd 15bc 8595 2c3d aac6 b23d 013e 063e
000002c0: 06b0 a63d a41d 973d 798f 933b 8e4a f23d
000002d0: 4864 633a f4ce 103c 019f 5c3b 906f 503b
000002e0: 330b c0ba 2ba3 47bb fef0 7e3a 1a9e 8c3a
000002f0: ad6f 3abb 190e e9bb ea31 6ebc df11 48bc
00000300: af1b 983b 9944 be3c afa7 3e3d 509b 8d3d
00000310: 5fa7 273d 53c0 5b3d f55b 1f3c 683f 913d
00000320: 69f2 403c 3769 8e3c 3e85 183c f926 133c
00000330: db09 9b3c 7bd7 553c f668 5c3c 7e66 203c
00000340: b14c 263c b81e 16bb 46be 24bc 6763 45bc
00000350: 8b77 4f3c 5066 003d eff8 843d 5b03 b83d
00000360: 8ead 5b3d 0eaa 3d3d 757f e63b 102d 703d
00000370: d523 a7bb d063 c0bc 9886 2fbc 5f63 e2bb
00000380: 5713 c53b 5cd6 45bc 6bcb 483c 76aa 6a3b
00000390: 4e9d 803b c94d 903c 9146 cf3c b49a 053d
000003a0: d4e2 133c 6e27 05bd 3b4a 75bd 9bb3 c1bd
000003b0: 781c 86bd f94a 9ebd ac52 2abd 7588 2b3d
000003c0: 1a2a 463c 2e40 253c b24d 1f3b 8f76 ed3b
000003d0: fda7 553c eb52 373c 4803 d43b 9e1e 1a3c
000003e0: b16c 0f3c d286 7239 4e29 b4bc 5c96 cfbb
000003f0: d9ec b6b9 5776 aa3c f5dd 823d 9d15 b73d
-0.001838789 -0.0025167335 -0.0077561974 -0.0064162067 4.567393e-05 0.0011381254 0.008993643 0.01614599
0.0015610047 0.0019193854 0.036468267 0.027673563 0.019593662 -0.02693311 -0.07662399 -0.087769166
-0.08840231 -0.06256216 -0.04372724 0.04191458 0.0077639185 0.009621586 0.0073155886 0.00362162
0.010950885 0.00946084 8.449508e-05 0.006431021 0.002203173 -0.007766205 -0.025161522 -0.023553848
-0.006622428 0.026265603 0.06745162 0.106048934 0.07595295 0.05682183 -0.016100654 0.0474276
-0.0073751067 -0.004693516 -0.0011110387 0.0072174044 -0.008137434 0.0010245843 0.005330556 0.001484644
0.00051955617 0.004141683 0.029947544 0.015984794 0.00027104252 -0.014910794 -0.040343996 -0.061182052
-0.045452423 -0.056265794 -0.047574624 0.029427709 0.0053060264 0.014910202 0.004377513 0.004621607
0.0056817723 0.0016041631 0.004634333 0.006847139 0.004552329 -0.011066343 -0.021998508 -0.024459345
-0.008383777 0.024782771 0.06799023 0.08779293 0.06572754 0.033393428 -0.017610151 0.060289543
0.010323917 0.0074241357 0.0070101246 0.010366093 0.008479778 0.010715176 0.0038907034 0.009314201
0.0070668454 -0.00245952 -0.021505352 -0.012119189 0.0011355351 0.02690022 0.06088242 0.08873194
0.057685867 0.062860094 0.00077045657 0.07520514 -0.018646372 -0.029120201 -0.020239158 -0.008800672
-0.012370292 -0.015508942 0.010490811 -0.011281317 -0.009641535 0.008357606 0.020566573 0.04063513
0.012552705 -0.04081339 -0.070939064 -0.10631403 -0.10536071 -0.11305745 -0.041095663 0.05428736
0.01220325 0.015758142 0.013028141 0.0110563515 0.009424191 0.011590445 0.008676704 0.010995686
0.010066673 -0.0010347283 -0.009442626 -0.010407893 0.009149622 0.026726095 0.066522636 0.08515146
0.055008058 0.052366637 -0.0028873507 0.07160649 0.000980583 0.001569392 0.0019934683 0.0010827029
0.0064597223 0.009952684 0.0070149247 0.010239617 0.007533415 -0.0011219863 -0.007944039 -0.0052575776
0.010676479 0.019245664 0.03164565 0.04241068 0.036981396 0.040693626 -0.0051004738 0.069097966
-0.00024164877 0.011373625 0.0027106558 -0.006145372 0.0075293384 -0.002645697 -0.004407594 0.003104211
-0.000233787 -0.021447044 -0.043023724 -0.027481256 -0.009143236 0.04213478 0.087292984 0.1310959
0.081390426 0.073787004 0.0045031873 0.118306264 0.0008674306 0.008838404 0.003366411 0.0031804778
-0.0014651775 -0.0030462246 0.00097252417 0.001072827 -0.0028447912 -0.0071122763 -0.014538268 -0.012211292
0.004641972 0.02322607 0.046546634 0.06914389 0.040931102 0.05365021 0.009726514 0.07092172
0.011776545 0.017384155 0.009309111 0.00898146 0.018925598 0.013051863 0.013452759 0.009790061
0.010150121 -0.0022906493 -0.01005513 -0.012047625 0.012662779 0.031347573 0.06492793 0.08985015
0.05363231 0.046304755 0.007034237 0.058636725 -0.005100707 -0.023485094 -0.010713242 -0.0069088186
0.0060142684 -0.012075033 0.01225553 0.003580717 0.003925002 0.017615216 0.025302203 0.03261824
0.009026248 -0.032508306 -0.059885245 -0.09458085 -0.06548399 -0.07729144 -0.04158275 0.041878182
0.012094999 0.010086102 0.0024307785 0.0072467993 0.01304054 0.011189203 0.0064701177 0.009406714
0.008753941 0.00023129143 -0.021992352 -0.006335063 -0.0003489021 0.020808382 0.06389991 0.08939669

feature_process_low.bias f4 [6]
00000000: 110c febd 3c93 8a3b a7e1 8d3c e42f 70bd
00000010: 22d4 c93c d92a 7d3c
-0.12404645 0.0042289775 0.017319513 -0.058639422 0.024637286 0.01545211

feature_process_high.weight f4 [16, 6]
00000000: 201d c6bd 954b 073c e8ed d2bc bd4e 00be
00000010: dc94 c7bb f654 023d 5b7d 8ebc 9156 bc3c
00000020: b2a7 abba 3b8e 783a 5170 98bb 9ff7 79bb
00000030: 7a93 f4bd c172 dc3d 46c3 d0bd 28bf 033e
00000040: 20b4 06bb 49d5 2c3e c3dd 943d b2ab 4a3d
00000050: 2dbd d73c b146 ea3d 2cb0 083b 9226 503b
00000060: 2218 b0bd 4982 4fbd 4e92 41bc 7b38 833a
00000070: 0187 c2bb f3c4 a03c adfc 293e 52a1 a7bc
00000080: 28b9 efbd 9ff7 ca3c 3006 87bd 70f1 ed3d
00000090: 2b75 31be 9ff9 c0bd dc15 d7bc 7c4b b8be
000000a0: 7d0e 8b3d 9564 01be c0a3 00bd 7353 4f39
000000b0: 3b7b b2bc 070d a9bd ae24 29bb b6a5 1cbc
000000c0: 5afe 313d 8cff 97bd 9f43 67bd 60fa 61be
000000d0: 999c acbb 4678 d3bd 665c 823e 7d00 cbbb
000000e0: 2b1a c3bd b0c4 183e 1e02 5c3d 331b af3d
000000f0: cb3c 683d 8f5c 18bd f4d0 8cbc 8ad2 19bd
00000100: f599 4cbc 0839 66bd ec8b 613d 81fd a93c
00000110: c133 8b3c 7fb7 a63d 01c1 abbc 4dbf 12bd
00000120: 22aa 3bbe 14db 7cbd 23ec 81bd e9f5 54be
00000130: 7ebf 023d 4daf ab3d 88c8 d13b 737d 0fbe
00000140: 9b8e c5bd a3da 35be 13a5 153d 2a33 26bd
00000150: d5ec 573d f093 f63c 0f14 2cbc 2099 923d
00000160: 2d27 9dbb a468 a03c efd3 ab3d 4173 41be
00000170: 0f63 65bd dd18 a2bc ea15 483d 67c1 853b
-0.09673524 0.008257766 -0.025748208 -0.12530036 -0.0060907435 0.031819306 -0.017393759 0.022990497
-0.0013096242 0.0009481643 -0.004652061 -0.0038141978 -0.119421914 0.10764075 -0.101934955 0.12865889
-0.002055414 0.16878237 0.0726886 0.049480148 0.026335323 0.114392646 0.002085696 0.003176127
-0.08598353 -0.05066136 -0.011814667 0.0010011339 -0.005936504 0.019625163 0.16600294 -0.020462666
-0.117052376 0.024776278 -0.06592977 0.11618316 -0.17329852 -0.094226114 -0.02625554 -0.3599509
0.06789873 -0.12636025 -0.031406164 0.00019772146 -0.021787276 -0.08254438 -0.0025809216 -0.009560993
0.04345546 -0.074217886 -0.056460973 -0.22068167 -0.0052676913 -0.10325675 0.2546112 -0.0061951266
-0.095264755 0.1491878 0.053712957 0.0855011 0.0566986 -0.037197646 -0.01718948 -0.0375543
-0.012487878 -0.056206733 0.05506508 0.020750763 0.016992452 0.08140468 -0.020966055 -0.03582697
-0.1832662 -0.061732367 -0.06343868 -0.20796932 0.031920902 0.08383045 0.006402079 -0.14012699
-0.096463405 -0.17759185 0.03653438 -0.040576138 0.052716095 0.030099839 -0.010502829 0.071581125
-0.00479593 0.019581147 0.083900325 -0.18891622 -0.056002673 -0.019787246 0.048849024 0.0040818932

feature_process_high.bias f4 [16]
00000000: 61e0 de3c efbc 20bc ea76 733d c926 69bd
00000010: 34eb b43c add1 09be 7853 613e 1418 2e3d
00000020: b57b 413e d1ed 5dbe cffe 913d f958 b0bc
00000030: 651c 2a3d 9ca8 0a3e f3f9 24bd f937 193e
0.027206602 -0.00981067 0.059439577 -0.056921754 0.02208481 -0.13458891 0.22004497 0.04250343
0.18894847 -0.21672751 0.07128679 -0.0215268 0.041530985 0.13540882 -0.040277433 0.14962758

feature_norm.weight f4 [16]
00000000: 249a 223c ef73 b93a be5e 1f3f f071 c23c
00000010: 00a4 073e 8bc5 9f3e 3f5f 243e 059f 6e3a
00000020: 615e 6e3d ee8f e03e 7c97 d03d 58c8 8d3c
00000030: e2df 513d 475c 103e 5b0f 243c 3767 673e
0.009924445 0.0014148931 0.6225394 0.02373597 0.13246155 0.312054 0.16051959 0.0009102675
0.058195475 0.4385981 0.10185143 0.017307445 0.051238902 0.14097701 0.010013427 0.22597967

feature_norm.bias f4 [16]
00000000: 4c1d 90bc 02f3 71b9 5507 63be beb8 d7bc
00000010: c36a 543c 33b4 57bc 3ee6 a3bd 9bbd bab9
00000020: f2f6 41bd e40f ea3b 6b41 dabc d8fc 70bc
00000030: 074d 37bd 8d5a 40bd d864 44bc 4e11 91bb
-0.017592095 -0.00023074078 -0.22170766 -0.02633321 0.012964907 -0.013165521 -0.080028996 -0.00035617952
-0.047354646 0.0071430076 -0.026642522 -0.01470872 -0.044751193 -0.046961356 -0.011986934 -0.0044271117

graph_attention.learnable_adj_u f4 [4, 47, 6]
00000000: 5742 9024 8acd 4a26 517b 7525 5d49 b625
00000010: 9e70 e4a5 f6ad 4a23 f534 7225 61bb 6926
00000020: 976b 8fa5 c96e dda5 5d85 d0a5 a828 98a5
00000030: ff6b cca5 51ae f024 c836 b123 9254 0626
00000040: 1b21 8d25 2362 5326 8594 a225 72c3 d625
00000050: c9e9 5c26 e155 15a3 73f5 cda4 e060 8725
00000060: c55d 50a6 9c8e 5da4 4018 39a4 efba 0da6
00000070: 5e8c 2aa5 fae8 e7a3 994d f523 9c76 d725
00000080: 5ad6 3c26 ff89 5ca6 7e8a 2525 c919 8224
00000090: 32f4 23a6 d09d 85a5 e8f5 b424 dea1 63a6
000000a0: 585a 77a4 ba28 04a6 5a9d 80a4 eb0e d124
000000b0: d70d e7a5 de23 84a4 a342 0426 0dd8 1026
000000c0: 1d77 2926 1347 bd24 9045 d0a5 bd8f 9822
000000d0: 2154 d6a5 f73d 1626 be03 f5a5 fb62 5425
000000e0: 2b28 2626 c32e 7024 96b4 b425 49e6 b5a5
000000f0: da62 dba5 fac2 99a5 1ebd cca5 e239 2224
00000100: 4f4a 08a6 f51c e5a5 a6cf 5126 86d5 6526
00000110: 842e f5a4 e6af 33a3 9594 e925 6fb0 4c24
00000120: 7f7a f2a4 3094 3026 1063 c2a2 6f9a b2a5
00000130: 8538 5f25 c7e2 6325 36cf e625 3516 ac23
00000140: 7825 ae25 c554 be22 2546 8525 cdc1 9325
00000150: 1a18 3625 ce62 5626 9b4d 2525 5c1f 68a5
00000160: 3373 92a4 0779 9225 a85d d925 e7d4 1da6
00000170: b9a8 3926 9e7f 3b26 aeea 2ea6 7042 b9a5
00000180: 7149 4925 3a6d c825 ee41 eda3 ee91 bc25
00000190: 398d 6a26 1766 5a24 2971 0724 aecb afa2
000001a0: 7a06 97a4 1e27 dea5 96e1 04a3 4ae5 8da5
000001b0: 7e31 d224 80f9 22a6 e975 b824 2762 38a3
000001c0: f15b 2ca4 faeb 83a5 dc52 e725 f692 02a5
000001d0: c87b b3a3 77a8 6aa3 8cda 3226 99aa 0d24
000001e0: 7ff0 7ca3 a9e0 08a6 db69 1f26 759d dc25
000001f0: 5139 1724 612b 5ba6 d4a2 1fa5 6675 3824
00000200: 9163 2725 13b6 8b25 7e9f 6a26 f386 3726
00000210: 0c49 dba5 ee4a 18a6 0e9f 4aa5 3afc a824
00000220: 1343 ed25 8890 0ca5 000a b6a3 1685 eca5
00000230: 198c d124 5f53 e0a5 4fa5 23a6 c7ad c0a5
00000240: 060b aaa5 81cb 68a3 8b6e 28a3 5e09 7725
00000250: d713 5ba6 27af 8923 e16a 80a3 bdd6 22a3
00000260: 3e74 e3a5 0ba3 6aa4 3b32 85a5 d343 0ea6
00000270: bc78 15a6 c5f4 9824 f64e 4426 5faa f923
00000280: 3390 8523 054c f724 55c2 8ca5 2cdd 8b25
00000290: c0b2 50a5 6a8f 3026 7560 60a5 ae4c b8a5
000002a0: b789 57a4 df87 3825 7756 d9a4 ffd7 d025
000002b0: 8edb 2021 895e 85a5 0ea0 5524 5df7 8025
000002c0: f4b7 f4a4 2df9 6025 f82f 2223 b0af dda3
000002d0: 426b 6726 5723 b0a5 3ee1 86a4 9fe0 2aa6
000002e0: bce1 d1a3 66ec 9a24 d6d4 5d26 a90b 64a6
000002f0: debc 3224 e6a2 5826 4de1 56a6 55a0 be25
00000300: 218b 8a25 5c6b 6ca5 7bf9 bea5 dc49 10a6
00000310: aeb4 5626 b98f 4626 f1a9 a5a2 c7b7 b7a5
00000320: a663 9725 314e 1b26 e1f7 aca4 9e51 7624
00000330: 6a77 e0a4 b7ef 5ba4 23c4 aea5 34ae 0024
00000340: 016b 60a6 ba7d 4c24 fdc7 3fa4 f8f4 65a2
00000350: db2b 84a3 fc43 84a4 5f16 8b25 7514 e5a5
00000360: 7fab 6ca5 8476 b925 a279 f3a4 4315 2ca6
00000370: 3092 4023 d541 fea5 c4eb c525 0471 6526
00000380: 83bd 51a6 3ac2 5724 16ce 5aa6 22f0 8d24
00000390: 3a8a cfa5 8cd7 33a5 a5bf c425 01b4 cb24
000003a0: b2d4 2126 fc8f 10a4 d895 8725 98e0 2d26
000003b0: 172a 9825 f2a1 5426 78ed cca3 f603 50a4
000003c0: 96b3 4c25 28b7 7525 ef80 0ea5 0b97 06a5
000003d0: 9856 6ea5 982d a024 de4a f525 505f c924
000003e0: ee5e 8322 55fc f1a3 365d 11a6 1fc6 5aa6
000003f0: 3ad6 bca4 c7a0 1725 310c 0d24 20e5 80a5
6.256243e-17 7.0361386e-16 2.1292144e-16 3.162168e-16 -3.9628008e-16 1.098728e-17 2.1008097e-16 8.109206e-16
-2.4879451e-16 -3.841246e-16 -3.617262e-16 -2.6395347e-16 -3.546154e-16 1.0437871e-16 1.921358e-17 4.6605203e-16
2.4482034e-16 7.333833e-16 2.820316e-16 3.725552e-16 7.664467e-16 -8.095492e-18 -8.9320385e-17 2.3484412e-16
-7.229158e-16 -4.804253e-17 -4.013602e-17 -4.9172544e-16 -1.4792708e-16 -2.514374e-17 2.6595817e-17 3.7376928e-16
6.5516103e-16 -7.651485e-16 1.4358392e-16 5.6422195e-17 -5.688293e-16 -2.317876e-16 7.847914e-17 -7.8975817e-16
-5.363611e-17 -4.5851895e-16 -5.5777715e-17 9.0664574e-17 -4.008149e-16 -5.7306636e-17 4.588701e-16 5.025284e-16
5.879508e-16 8.208609e-17 -3.6129386e-16 4.135187e-18 -3.718009e-16 5.212568e-16 -4.250326e-16 1.8421605e-16
5.7647257e-16 5.2081313e-17 3.1347392e-16 -3.1554542e-16 -3.8057429e-16 -2.667339e-16 -3.551651e-16 3.517718e-17
-4.7285185e-16 -3.974479e-16 7.279286e-16 7.9739713e-16 -1.06330613e-16 -9.740857e-18 4.051974e-16 4.4384894e-17
-1.0515829e-16 6.12631e-16 -5.268869e-18 -3.0982726e-16 1.9361316e-16 1.9765947e-16 4.0039052e-16 1.8657682e-17
3.0209578e-16 5.1589356e-18 2.3119354e-16 2.563176e-16 1.579415e-16 7.438007e-16 1.4337762e-16 -2.0133417e-16
-6.351256e-17 2.5408974e-16 3.7706963e-16 -5.4758854e-16 6.441343e-16 6.505161e-16 -6.0686427e-16 -3.2137404e-16
1.7458854e-16 3.4768484e-16 -2.5723514e-17 3.2711687e-16 8.137645e-16 4.7357688e-17 2.936931e-17 -4.76495e-18
-6.549678e-17 -3.8537368e-16 -7.203504e-18 -2.4614973e-16 9.1156826e-17 -5.6543176e-16 7.999703e-17 -9.9954446e-18
-3.7374432e-17 -2.2884781e-16 4.012826e-16 -1.1325495e-16 -1.9459642e-17 -1.2720839e-17 6.205234e-16 3.0719003e-17
-1.3711874e-17 -4.748895e-16 5.530767e-16 3.8270614e-16 3.2791454e-17 -7.603968e-16 -1.384622e-16 3.999808e-17
1.4518675e-16 2.4236035e-16 8.140121e-16 6.367377e-16 -3.8039943e-16 -5.283714e-16 -1.7574597e-16 7.3285674e-17
4.1158398e-16 -1.2192033e-16 -1.9736715e-17 -4.1029657e-16 9.0876636e-17 -3.89143e-16 -5.677602e-16 -3.3424447e-16
-2.949777e-16 -1.2619839e-17 -9.130707e-18 2.1427009e-16 -7.6007776e-16 1.492775e-17 -1.3923053e-17 -8.82751e-18
-3.9456992e-16 -5.0878764e-17 -2.310586e-16 -4.9358066e-16 -5.1858385e-16 6.633415e-17 6.810817e-16 2.7068789e-17
1.448096e-17 1.0724796e-16 -2.4417813e-16 2.4262528e-16 -1.8101687e-16 6.125663e-16 -1.9461584e-16 -3.1970872e-16
-4.6737342e-17 1.6005491e-16 -9.4255226e-17 3.6228613e-16 5.4500687e-19 -2.3135882e-16 4.6322584e-17 2.237208e-16
-1.0612976e-16 1.9513327e-16 8.792195e-18 -2.4035275e-17 8.0289586e-16 -3.055508e-16 -5.849481e-17 -5.9285017e-16
-2.2755428e-17 6.718733e-17 7.6963224e-16 -7.9119193e-16 3.8757574e-17 7.5160823e-16 -7.4551504e-16 3.306839e-16
2.4033461e-16 -2.0506112e-16 -3.31288e-16 -5.0060134e-16 7.449103e-16 6.888983e-16 -4.4903272e-18 -3.1869972e-16
2.626185e-16 5.3882397e-16 -7.501303e-17 5.341188e-17 -9.734681e-17 -4.76911e-17 -3.0317096e-16 2.790313e-17
-7.786063e-16 4.4341943e-17 -4.158592e-17 -3.1164973e-18 -1.4330042e-17 -5.7361045e-17 2.4127816e-16 -3.973903e-16
-2.0527842e-16 3.2172694e-16 -1.05590505e-16 -5.97033e-16 1.0439297e-17 -4.4106586e-16 3.4333813e-16 7.96035e-16
-7.276828e-16 4.678521e-17 -7.591324e-16 6.1555803e-17 -3.6002442e-16 -1.5598805e-16 3.4130444e-16 8.8342155e-17
5.614635e-16 -3.1346982e-17 2.3520305e-16 6.0325814e-16 2.6396318e-16 7.377175e-16 -2.2218296e-17 -4.5106165e-17
1.7755026e-16 2.1312418e-16 -1.2360221e-16 -1.1673823e-16 -2.0672548e-16 6.946618e-17 4.2551457e-16 8.733132e-17
3.560813e-18 -2.6236139e-17 -5.0433305e-16 -7.590245e-16 -8.189492e-17 1.3151636e-16 3.0584828e-17 -2.2359722e-16

graph_attention.learnable_adj_v f4 [4, 6, 47]
00000000: 4f9e 4326 4b19 1425 5d26 39a6 d0d2 d1a5
00000010: a74a 11a4 cec8 7325 28aa e724 311b 2125
00000020: 3963 f125 ce28 0da6 4dfa e624 0f6b f222
00000030: ff91 ea25 d42e 22a5 8898 e7a5 270d f7a5
00000040: 727b 9423 771a b825 4167 bba5 2444 3d25
00000050: d37f 3324 3339 47a5 21d9 0ca6 aaa5 42a4
00000060: 64a6 eca5 1828 4625 6ca5 6fa5 5ed6 2825
00000070: 2b23 f8a4 f47e aca3 e30d 8a23 a6db 3225
00000080: 01c1 c3a5 4841 8aa5 c440 8525 81f4 e2a4
00000090: 8eaa 8225 5d52 f3a5 1ddf 1324 8e0a e823
000000a0: e711 1923 0d7e b9a4 2b29 1aa4 f7eb 11a5
000000b0: c858 4d25 6987 34a5 b24a 4ca5 c1ec 8c22
000000c0: 0a7f eb25 1715 ab23 09e9 75a3 7787 d025
000000d0: c6a9 eea5 772d 66a5 53b0 0226 c6c8 e7a4
000000e0: 816d b125 1853 0b24 2080 2ca5 1d32 b5a3
000000f0: 99b6 f7a4 32f8 17a5 ddbb 2126 5e0f 1624
00000100: 0dae 5724 c842 35a4 d0cb a6a5 2683 2a22
00000110: a723 f6a5 24fa 3225 3143 a3a5 8c36 be23
00000120: cd7d 41a4 bcbf 61a6 e162 53a4 bab0 6c25
00000130: afac 84a5 3eb2 86a5 314d 59a6 322f 7b25
00000140: 742f 5e26 15a9 1da5 f3ca 4e25 b016 06a5
00000150: 4c1b bda4 0f63 1ba6 f366 25a6 919c daa5
00000160: ae17 0a26 4bef 8225 bf85 95a3 e307 1226
00000170: b90c aca3 2f07 0625 aacf cba4 b7cf 06a5
00000180: ed1d e125 8fd9 54a6 e0f6 52a3 99ee d225
00000190: 2e88 2e26 93c2 6925 73e9 6425 299a 5e24
000001a0: 81a3 2725 2db4 0e26 02dd 17a6 1f28 6125
000001b0: 9b8f 0424 0375 c2a4 f89c 3ca4 6235 9724
000001c0: 2b7d 39a6 7407 eb24 86f1 49a5 d2f8 a2a5
000001d0: b50b 15a3 51f3 b1a5 e144 2da4 7537 90a4
000001e0: c41c 8b25 7d1c 2625 9ff3 2fa4 3920 69a5
000001f0: 23c4 b023 b363 45a5 88b7 2224 4062 9125
00000200: cb6b 5c24 a4ac 92a5 90b8 eca4 1078 a324
00000210: 0e75 baa4 3113 3ba5 6ed9 6223 12f2 9da5
00000220: 688c 3726 81bb 3a23 f89d a2a5 7cb4 0125
00000230: 6954 7e25 7f6e 7aa5 5886 e3a1 70e5 f123
00000240: 76f3 9625 6cd2 0b24 3e58 21a3 eab6 5ea6
00000250: c799 5aa3 c70c aa24 e700 d025 354a 3025
00000260: 3a94 0224 60d6 bda2 7bd5 c6a5 1130 3426
00000270: 7f67 65a3 6771 8c24 249e e5a3 8002 3f25
00000280: e7dc aca3 a378 5fa4 0400 4aa5 eeb5 d325
00000290: 1be4 4326 7d91 4925 b877 2025 468f e1a5
000002a0: 131a bea4 11be 9aa4 595f caa5 8ddb 94a4
000002b0: e841 8fa4 f4df 21a6 870d 1325 9269 d0a5
000002c0: b854 2226 887f 2aa6 a8b1 d024 ef94 9a23
000002d0: e98a 82a5 2fcc 1f22 d833 3926 31e2 7fa5
000002e0: 5996 cca5 87e4 a9a4 be35 f525 016e d4a5
000002f0: a000 a924 7441 daa4 e3a1 93a4 413d 7f23
00000300: df78 1a26 d8e9 86a5 37ff b023 e92a c8a5
00000310: 7ab9 0d25 7b89 9a24 9331 0c25 7c87 a724
00000320: 796c f6a4 c14e d2a3 2628 04a6 457a 09a4
00000330: ebbb 9b23 db0b 18a6 1e11 d325 3527 7325
00000340: 94a0 0726 4ad3 b625 f2b3 8fa4 07bc 1d25
00000350: 45e4 01a5 2d3b dba5 6fe9 4626 08b9 92a5
00000360: 2643 b824 ef32 8725 9453 7f25 a37f eea5
00000370: 5bce 19a5 9899 03a6 6757 af23 2aca 26a5
00000380: 60c3 a024 3d37 9525 f6c0 1ea5 4c00 26a5
00000390: 0999 3da5 b756 d224 5025 0f26 8d05 1a22
000003a0: c0a8 e425 a803 8aa4 1361 f025 380f f6a4
000003b0: 15e7 8e25 7774 1ea6 d156 7fa5 2eae c223
000003c0: e5a2 4c24 03ef 55a6 cba1 0d25 49e2 0a26
000003d0: 74e5 7fa3 8d8f aaa3 4e07 8aa5 823a 0ea5
000003e0: a79a 1725 ed59 10a6 9328 4526 43f4 eea5
000003f0: c068 9ea3 9cfa 3625 951c 76a5 2e92 7023
6.7868764e-16 1.2845523e-16 -6.423676e-16 -3.6398573e-16 -3.1505096e-17 2.1144926e-16 1.00468537e-16 1.3973737e-16
4.1874072e-16 -4.8974503e-16 1.00170626e-16 6.5707584e-18 4.069146e-16 -1.4067126e-16 -4.0175471e-16 -4.2856582e-16
1.6098473e-17 3.1936845e-16 -3.2509297e-16 1.6416224e-16 3.892271e-17 -1.7279878e-16 -4.886652e-16 -4.2207367e-17
-4.1052225e-16 1.7187347e-16 -2.0785993e-16 1.4644308e-16 -1.0761243e-16 -1.8702044e-17 1.4967871e-17 1.5513459e-16
-3.3957892e-16 -2.398342e-16 2.311571e-16 -9.842608e-17 2.2666978e-16 -4.2209592e-16 3.2064528e-17 2.515796e-17
8.297938e-18 -8.04445e-17 -3.3428298e-17 -1.2656693e-16 1.7810996e-16 -1.565839e-16 -1.7719487e-16 3.819775e-18
4.0852087e-16 1.8548789e-17 -1.3330824e-17 3.6174043e-16 -4.1401462e-16 -1.9964724e-16 4.5341774e-16 -1.00520404e-16
3.0778808e-16 3.0211204e-17 -1.4962032e-16 -1.9645283e-17 -1.0742851e-16 -1.3181254e-16 5.61127e-16 3.2539082e-17
4.676812e-17 -3.9304685e-17 -2.8934518e-16 2.3108726e-18 -4.2698356e-16 1.552379e-16 -2.8321523e-16 2.0622943e-17
-4.195676e-17 -7.8322405e-16 -4.5837085e-17 2.0529614e-16 -2.3015365e-16 -2.3366076e-16 -7.5391613e-16 2.178677e-16
7.7086033e-16 -1.3674867e-16 1.7936414e-16 -1.1630334e-16 -8.201193e-17 -5.3910677e-16 -5.7385397e-16 -3.7923065e-16
4.791046e-16 2.2713556e-16 -1.6211256e-17 5.0664614e-16 -1.8653666e-17 1.1625081e-16 -8.838901e-17 -1.1693024e-16
3.9051557e-16 -7.384712e-16 -1.1436401e-17 3.6590873e-16 6.0552935e-16 2.0275453e-16 1.9854943e-16 4.8269155e-17
1.4540338e-16 4.951033e-16 -5.268817e-16 1.9529233e-16 2.8744576e-17 -8.4332314e-17 -4.089896e-17 6.5576245e-17
-6.4354403e-16 1.0192763e-16 -1.7515802e-16 -2.8271128e-16 -8.079785e-18 -3.0869483e-16 -3.7571738e-17 -6.254399e-17
2.4132149e-16 1.4407857e-16 -3.815343e-17 -2.0220446e-16 1.9165025e-17 -1.7120806e-16 3.5283607e-17 2.5220067e-16
4.77962e-17 -2.5443949e-16 -1.02661346e-16 7.0893375e-17 -8.086294e-17 -1.6226167e-16 1.2297527e-17 -2.7399192e-16
6.3681165e-16 1.0122786e-17 -2.8209564e-16 1.1250117e-16 2.2059587e-16 -2.1721481e-16 -1.5417679e-18 2.6226443e-17
2.6185828e-16 3.0319055e-17 -8.7465135e-18 -7.7269617e-16 -1.1850367e-17 7.3747393e-17 3.608286e-16 1.5290709e-16
2.831481e-17 -5.145553e-18 -3.4492185e-16 6.2515187e-16 -1.2436031e-17 6.090743e-17 -2.4895205e-17 1.6567456e-16
-1.8741833e-17 -4.84576e-17 -1.7520712e-16 3.6725946e-16 6.7963356e-16 1.7483264e-16 1.391835e-16 -3.9128364e-16
-8.2443537e-17 -6.710884e-17 -3.5106024e-16 -6.45567e-17 -6.2128014e-17 -5.616161e-16 1.2754801e-16 -3.6153786e-16
5.6319856e-16 -5.9153435e-16 9.050658e-17 1.675979e-17 -2.2645534e-16 2.1656612e-18 6.425503e-16 -2.2194361e-16
-3.5490238e-16 -7.367921e-17 4.2537142e-16 -3.685068e-16 7.3293126e-17 -9.465331e-17 -6.4025335e-17 1.3836549e-17
5.3593294e-16 -2.3403753e-16 1.9190046e-17 -3.4723547e-16 1.2292642e-16 6.7019755e-17 1.2159861e-16 7.2654225e-17
-1.06869254e-16 -2.28016e-17 -4.585111e-16 -2.9810706e-17 1.688472e-17 -5.275166e-16 3.6614264e-16 2.1090174e-16
4.705516e-16 3.1715142e-16 -6.2321203e-17 1.3681285e-16 -1.1266307e-16 -3.8030543e-16 6.901141e-16 -2.5452345e-16
7.9911034e-17 2.345328e-16 2.2146042e-16 -4.137291e-16 -1.334055e-16 -4.5657913e-16 1.9010554e-17 -1.4466701e-16
6.971992e-17 2.588481e-16 -1.3769693e-16 -1.4398305e-16 -1.6444987e-16 9.121988e-17 4.966366e-16 2.087383e-18
3.9666045e-16 -5.9854154e-17 4.1699143e-16 -1.06711275e-16 2.478966e-16 -5.49751e-16 -2.2147139e-16 2.110729e-17
4.4373426e-17 -7.422314e-16 1.2284618e-16 4.818504e-16 -1.3872166e-17 -1.8492233e-17 -2.3944134e-16 -1.233636e-16
1.314956e-16 -5.008191e-16 6.8403093e-16 -4.1451937e-16 -1.7174758e-17 1.5870893e-16 -2.1346783e-16 1.3041381e-17

graph_attention.qkv_proj_low.weight f4 [18, 16]
00000000: d969 1dba 1836 4ab5 6bfb 7f3d 1b32 15b9
00000010: cdee b53c e6de e1bc e49f 8fbd 4b41 2732
00000020: f60c 3fbb 7790 9cbd c12e 29bb 7dea 553a
00000030: defd 10bc c395 8cbb 8af2 b9b5 a8d5 b5bc
00000040: 61ab 193b 3bb4 00b7 be10 643c 6440 883a
00000050: 5f18 40bc 9a81 9fba 0b84 c13c 2eac ad30
00000060: 79a2 32bc cce8 c5ba 1777 ef3b 813a a138
00000070: 8152 2f3b 84df 7dbc 44f5 1e32 dc2f a53c
00000080: 00b8 c4b6 48d0 4c34 d64a adbb 2801 c237
00000090: db13 31ba 8d82 8fbc 3748 213c b6d7 dfaf
000000a0: 5542 ec3b 69f3 2dbc b8ac 393a 3a55 a338
000000b0: f0e3 a439 0217 2d3c 3fec 1233 3b92 253c
000000c0: 58d0 083b 7ee3 2835 92c7 a13d 44b7 803a
000000d0: f8dd ac3b 850f b2bc 2ee7 453d d88c b0b0
000000e0: 581e 403c 0576 40bd 920a d93b 1109 c13a
000000f0: 3238 283b 2250 8d3c 67e1 b336 0b0f 253a
00000100: 6c98 db3a 3195 a0b7 383b 103e 5806 593a
00000110: eaee b83b 8397 d3bc 78ad 533d b62f 3c31
00000120: 9fcd 273b aa0f e2bd 24bf b93b 570a 443b
00000130: d4b6 aa3c 5257 31bd b613 e437 55bf 4abc
00000140: c2eb 883b 6aa3 b3b4 4590 943c 6874 2039
00000150: a59c 0ebc b01b e6bb dfd7 103b 77b8 90b0
00000160: 9072 253c a0c2 76bc e7e0 783b a347 4439
00000170: d12e 08bc 0412 edbb a49c a5b3 1940 143c
00000180: a392 2b3a 175b d7b6 3039 d0bd 25df 82b9
00000190: e0ff 9bbb 3bf3 f93c 68be 0a3d ba90 28b1
000001a0: 53e9 b0bc 23e8 9d3d bb63 f8bb fab8 86ba
000001b0: 7edd 2dbc 7aee 4ebd 016c c8b5 09eb 963c
000001c0: 903c 45bc 49e1 bf38 da3a 61be f16f 9837
000001d0: f26e b4bd 96ef 763d bfdf dcbb c233 adb3
000001e0: ad78 1c3d 1f3a c53d 4752 453b 9d49 dbba
000001f0: d953 f53c a15d 333d 0a35 843a 1a88 b9bd
00000200: 0705 92bc 777a d237 da55 59be 1eb5 a23b
00000210: 55bd e5bc 95a9 f13d e8d5 613d 4295 a0b0
00000220: 6be0 b23c 6315 293e a7de 97bb 81d9 333b
00000230: 36dc 84bd 9165 4a3d c605 043a e57e d8bd
00000240: 5248 8438 c0fa 6b33 f5c5 80bc a1f0 a6b9
00000250: 43b1 eaba 7d07 0ebb e4c6 8abc 24f5 5830
00000260: bfa7 c03b d5e4 5f3b 8f84 233a 007e 02ba
00000270: 23f8 c13a d615 bfbb 4a94 78b5 fe7a 8abc
00000280: 0f77 0c3c 2669 d1b8 bffa 893e aa1b 13bb
00000290: 37e2 92bc 6d7b 08be acd1 a1bc 9cf9 3036
000002a0: e96a d03c c006 32be b000 813c 2e8d 4bbc
000002b0: 0bd3 49bd 1a15 f8bc d149 74ba 9443 793c
000002c0: ce88 72b9 b684 bbb5 79de 1ebc 9794 e437
000002d0: 5e21 b9b9 fda0 8b3a 3f82 6abc 39f2 c12f
000002e0: 40ac 0ebb 8eb2 13bb 9cbb 00ba de10 2238
000002f0: 7a12 cc3a 2e63 99bb dc01 00b2 026c febb
00000300: d0f4 04ba bd6a 1eb8 dd9e d43d 411e c43a
00000310: 8f8b 6d3b 7602 49bc db12 613d 322c feb0
00000320: 63e4 e33c 1bbc 60bd 5018 aebb 48a6 af3a
00000330: d559 c93b 8bdb 4ebc 57fb 2336 d17b 173b
00000340: 4784 35bc 7b19 5536 f42b b83d 3ff3 883a
00000350: d00c 9f3c e34a 17bd e0d2 2bbd 6bad 5db1
00000360: d975 473d c58e a4bd 4b6a 46bc 7978 5f3b
00000370: a8f7 fb3a f8fe 013d 4eb7 d938 4feb cfbc
00000380: 4f5a 7ab4 0235 ad34 0289 dc39 da78 27b5
00000390: 196b e236 2f48 243c b77b b5bb f15d a8af
000003a0: fb29 1cbb a9b5 623c 977f dcb8 a0a6 e734
000003b0: f88c e3b8 bd6e a7bb 23ee dd33 57af e2ba
000003c0: 0031 f439 936b d937 84fb 16be 2bc2 19bb
000003d0: 211d 8cbb 6090 a23c 5efb 9ebc c01a 12b2
000003e0: 6d70 423d 4be9 da3d 3420 80bb d22c b0bb
000003f0: c13c dcbc 93f7 c13b 47ca 4ab9 6e8e 13bd
-0.0006004847 -7.532958e-07 0.06249563 -0.00014228413 0.022208596 -0.027572107 -0.070129186 9.735525e-09
-0.0029152012 -0.07644742 -0.002581522 0.00081602467 -0.008849589 -0.004290314 -1.3854162e-06 -0.022196606
0.0023448097 -7.671358e-06 0.013920007 0.0010395166 -0.0117245605 -0.0012169362 0.023622533 1.2636343e-09
-0.010902994 -0.0015099286 0.007307898 7.6879754e-05 0.0026752057 -0.015495185 9.252577e-09 0.020164423
-5.8626756e-06 1.9074753e-07 -0.005288462 2.312714e-05 -0.0006754973 -0.017518306 0.0098438775 -4.0716736e-10
0.007210056 -0.010617116 0.0007082927 7.78832e-05 0.00031450344 0.0105645675 3.420814e-08 0.010105665
0.0020876136 6.291592e-07 0.07899393 0.0009820242 0.005275484 -0.021735916 0.048316173 -1.2845716e-09
0.0117259845 -0.046987552 0.0066235745 0.0014727433 0.002566826 0.017250124 5.360856e-06 0.0006296492
0.0016753799 -1.9142959e-05 0.1408509 0.00082788384 0.005643715 -0.025829082 0.051679105 2.7384721e-09
0.0025604737 -0.11038144 0.0056685377 0.002991339 0.020839132 -0.043296166 2.7188897e-05 -0.012374719
0.004178495 -3.3460248e-07 0.0181352 0.00015302154 -0.008704339 -0.0070223436 0.0022101325 -1.0529807e-09
0.010098115 -0.015061051 0.003797585 0.00018718703 -0.008311943 -0.0072348136 -7.711904e-08 0.009048485
0.0006544983 -6.4181036e-06 -0.10167158 -0.00024961788 -0.0047607273 0.03051149 0.03387299 -2.4529485e-09
-0.021595633 0.07710292 -0.007580248 -0.0010278516 -0.01061189 -0.050520398 -1.4932594e-06 0.01842262
-0.012038365 9.149552e-05 -0.21995106 1.8171939e-05 -0.08810224 0.06028708 -0.00674054 -8.065355e-08
0.038201023 0.09630226 0.0030108856 -0.0016730312 0.029947208 0.043790463 0.0010086608 -0.090591624
-0.017824663 2.5090978e-05 -0.21224156 0.0049654385 -0.028044382 0.11799923 0.055135638 -1.1683954e-09
0.021835526 0.16512065 -0.0046346965 0.0027442875 -0.064873144 0.049413268 0.00050362607 -0.10571078
6.307721e-05 5.4943257e-08 -0.015719393 -0.0003184127 -0.0017905611 -0.0021671944 -0.016940542 7.892871e-10
0.005879372 0.0034163494 0.00062377093 -0.0004977882 0.0014798682 -0.0058314605 -9.260299e-07 -0.01690435
0.008573308 -9.985482e-05 0.26949117 -0.002244691 -0.017930133 -0.13328333 -0.0197533 2.6371335e-06
0.025441604 -0.17385387 0.015747398 -0.012423797 -0.049273532 -0.0302835 -0.0009318861 0.015213866
-0.00023129882 -1.397121e-06 -0.009696596 2.724891e-05 -0.0003531081 0.0010652837 -0.01431328 3.5278605e-10
-0.002177015 -0.0022536847 -0.00049107685 3.863952e-05 0.0015569471 -0.0046810126 -7.451003e-09 -0.0077643404
-0.00050718803 -3.7769543e-05 0.10381863 0.001496263 0.0036246513 -0.012268653 0.054949623 -1.8493493e-09
0.027818864 -0.05486689 -0.005312957 0.0013400996 0.006144742 -0.012625585 2.4435192e-06 0.0023114572
-0.011078901 3.1754305e-06 0.089927584 0.001044847 0.01941529 -0.036936652 -0.041949153 -3.225831e-09
0.048696373 -0.080350436 -0.012110303 0.0034098907 0.0019223588 0.031737298 0.000103815095 -0.025380759
-2.3315918e-07 3.226233e-07 0.0004206375 -6.238821e-07 6.7477927e-06 0.010026976 -0.0055384296 -3.062577e-10
-0.0023828733 0.0138372565 -0.00010514183 4.314834e-07 -0.00010850461 -0.0051096366 1.0334431e-07 -0.0017294687
0.00046575814 2.5918509e-05 -0.14744383 -0.002346168 -0.0042759334 0.019844234 -0.01940697 -8.504401e-09
0.0474705 0.10689028 -0.003910089 -0.0053764367 -0.026884438 0.0059194057 -0.00019339575 -0.036024503

graph_attention.qkv_proj_low.bias f4 [18]
00000000: 3c83 ddbc 68ce 6c3b 5751 23bc 23a9 0d3d
00000010: 810c 1bbc 00c6 bdbc ee62 8cba daa8 663c
00000020: abda 7a3c dc77 fbbb 04a1 c6bc 72f8 0fbc
00000030: b48c 913c 3969 c4bc 9508 e53b 4e87 89bb
00000040: 2d7d 0d3c b3de 87bc
-0.027040116 0.003613377 -0.009968123 0.03458513 -0.00946343 -0.023165703 -0.0010710636 0.014078343
0.015310924 -0.0076742005 -0.0242467 -0.008787261 0.017767288 -0.023975955 0.0069895484 -0.004197038
0.008635801 -0.016585683

graph_attention.qkv_proj_high.weight f4 [48, 18]
00000000: 251a 88bc b9e5 31bb b7cf 153c 529c 96bc
00000010: 9845 f9bc 50ea 48bb fab0 cf3c 0613 093d
00000020: 9a52 4f3d 0181 143b dc00 66bd ca19 123a
00000030: f7ff b2bc eb58 a6bc 4275 adbb 5d38 fe3c
00000040: 39b4 64bb 5e0e a93c dac8 8abc b508 34bb
00000050: f90c 1f3c b71c 97bc 84f4 f9bc 96a7 53bb
00000060: f8d3 d43c bf34 093d 488e 4f3d b0ec 153b
00000070: 674e 66bd ab3c 0d3a a2e9 b4bc fba3 a7bc
00000080: 67b9 aabb ed06 003d 6b4a 94bb 936d aa3c
00000090: 5fc1 8cbc 85e4 37bb dbe4 3c3c 24ca 96bc
000000a0: 28f7 f8bc 81ff 62bb 206a d53c 58fa 083d
000000b0: 728c 4f3d aa0a 183b 555e 66bd 3f5d 2c39
000000c0: b92e b5bc 6e86 a7bc b760 bcbb 913f ff3c
000000d0: 6ce6 a5bb c55d aa3c 0baf 8ebc 6fdc 3dbb
000000e0: 48f8 443c d554 97bc 6275 f9bc d04d 6abb
000000f0: d370 d63c f612 093d 3074 503d 1b69 183b
00000100: 8d93 66bd ec85 3439 b02b b6bc 6775 a7bc
00000110: 8401 c4bb bc9e 003d b21e c8bb bfc8 aa3c
00000120: 953a 843c 7519 1d3b 2e50 12bc 4c3d 833c
00000130: 1f4c e23c 1261 833b da16 bdbc 677b 1bbd
00000140: f148 41bd 298a ffba 5950 613d c8e0 5137
00000150: f053 a63c f8ac 9a3c 9e07 2c3b 92a9 e7bc
00000160: fb0e 353b df38 aabc cc9b 833c 147d 063b
00000170: bddf 13bc a9ac 833c 1807 e33c 1ed0 803b
00000180: f489 babc 25c4 1bbd 1470 41bd 4c77 01bb
00000190: 32e7 613d 5b6f 77b8 7914 a43c c254 9a3c
000001a0: 22c3 353b a98a e6bc 1c3a e33a 4b80 aabc
000001b0: 4210 843c 9779 1b3b 29d1 17bc f740 833c
000001c0: 741a e23c 87e1 843b 90d6 babc 0f63 1bbd
000001d0: be48 41bd f1ae ffba bc90 613d ab00 ecb8
000001e0: f02e a53c 09a9 9a3c ad75 383b d42e e7bc
000001f0: 460a d73a cf80 aabc d779 823c 56fd 113b
00000200: 1b02 03bc 9cff 833c b2e6 e23c 05e7 7a3b
00000210: 9f4d bbbc dcc1 1bbd af6e 41bd 52c2 02bb
00000220: b5b5 613d 5db2 29b6 871b a23c d71b 9a3c
00000230: 91b1 2d3b aa8c e6bc 8d0e f53a 98ed a9bc
00000240: 7a1b f7b8 8c09 0db7 f659 32b8 bad4 98b8
00000250: 9c2c 32b9 42e9 b0b7 2db4 0439 260a 0d39
00000260: 3633 b339 b7fc 0137 4cec 86b9 635e 1fb6
00000270: 8a20 a4b8 9930 2cb9 3660 8b38 7842 3339
00000280: 3566 3538 a600 b238 e4a3 d2b8 17d9 d1b6
00000290: ffde 4cb8 fc37 94b8 13eb 41b9 8f1b 1cb8
000002a0: 4c50 d238 61de 0c39 360d a239 596d 2836
000002b0: 5249 81b9 779b 5ab6 c104 a4b8 a382 33b9
000002c0: b1c9 9538 9e00 3239 e800 4f38 6227 b138
000002d0: d828 f4b8 b11d 88b6 d43a 34b8 8903 9cb8
000002e0: 08cf 59b9 3aa2 2fb8 5fda 0239 d477 0b39
000002f0: baf6 b139 c450 7834 978f a1b9 a41f 35b6
00000300: c23f 9cb8 0dc0 13b9 cdb4 8138 bd5c 3339
00000310: 327e 8438 5f42 b338 3066 a7b8 9d75 8a36
00000320: 36c6 34b8 a909 94b8 4775 29b9 0b20 d6b7
00000330: 6ed0 fa38 3617 0d39 4d8d b439 88be a336
00000340: 784e 77b9 239d 4535 fc4b a4b8 5e15 37b9
00000350: 80a9 3d38 d3bc 3139 a7ef 3d38 028a b138
00000360: 0e87 953b 6b40 053a d852 3bbb b58c ad3b
00000370: c901 093c 3eec 833a ba09 dbbb 9e52 31bc
00000380: 811a 5abc f9c4 03ba 99b6 823c d080 dcb8
00000390: 287f bc3b b290 b33b a69c 643a 5633 05bc
000003a0: e72b 5a3a 83ca babb 624b 953b e0a3 003a
000003b0: f200 3abb a844 bd3b e050 0c3c a9d2 763a
000003c0: 11fb d8bb fe06 34bc 77a2 5abc 43df 01ba
000003d0: 4439 823c 7492 89b8 78bc be3b 6536 b33b
000003e0: df6c 513a 70bc 05bc 0313 5f3a a07a bbbb
000003f0: e3fa 963b 63a5 fe39 76f7 3fbb 1bba c33b
-0.01661403 -0.0027144982 0.009143761 -0.018385086 -0.030428693 -0.003065724 0.025352944 0.033465408
0.050615884 0.00226599 -0.056153163 0.0005573301 -0.02185057 -0.020306071 -0.0052935192 0.031032735
-0.003489746 0.020636734 -0.016941477 -0.002747101 0.009707683 -0.01844631 -0.030512102 -0.0032295934
0.02597998 0.03349757 0.0506728 0.0022876672 -0.056227114 0.00053877634 -0.022084061 -0.020463934
-0.00521009 0.031256605 -0.004525473 0.020804202 -0.01718205 -0.0028059792 0.011529173 -0.018406935
-0.03039129 -0.0034637155 0.02605158 0.03344187 0.05067105 0.0023199716 -0.056242306 0.00016437935
-0.022117006 -0.020449843 -0.005748834 0.03115824 -0.005062869 0.020796666 -0.017417451 -0.00289705
0.0120220855 -0.018473068 -0.03045148 -0.0035751946 0.026176846 0.03346535 0.050892055 0.0023256007
-0.05629306 0.00017216027 -0.022237629 -0.020441724 -0.005981626 0.03140138 -0.006107175 0.020847676
0.016141215 0.0023971472 -0.008930249 0.01602044 0.027624188 0.0040093744 -0.023082186 -0.037959483
-0.047188703 -0.0019496131 0.055008266 1.2509707e-05 0.020303696 0.018881306 0.0026249657 -0.0282791
0.0027627337 -0.020779071 0.0160655 0.002052133 -0.009025511 0.016073542 0.027713344 0.0039310595
-0.02277086 -0.038028855 -0.047226027 -0.0019754944 0.055152126 -5.8993097e-05 0.020029293 0.018839244
0.0027734716 -0.02814229 0.0017336044 -0.020813128 0.016121034 0.0023723596 -0.009266176 0.016022189
0.027600504 0.0040552053 -0.02280739 -0.037936267 -0.047188513 -0.0019507093 0.05506967 -0.00011253481
0.020163983 0.01887943 0.0028146312 -0.028220572 0.001640626 -0.020813374 0.015927238 0.0022276244
-0.007996107 0.016113095 0.027697895 0.003828467 -0.022864161 -0.038026676 -0.047224697 -0.001995225
0.05510493 -2.5286784e-06 0.019788517 0.018812103 0.0026503543 -0.028143246 0.0018696353 -0.020743176
-0.00011782996 -8.406478e-06 -4.252229e-05 -7.287548e-05 -0.00016992021 -2.1089454e-05 0.00012655622 0.00013450588
0.00034179696 7.747839e-06 -0.00025734527 -2.3747787e-06 -7.82619e-05 -0.00016421302 6.645957e-05 0.00017095532
4.324895e-05 8.487822e-05 -0.00010044107 -6.253958e-06 -4.884507e-05 -7.067618e-05 -0.00018493486 -3.7218964e-05
0.00010028537 0.00013434283 0.0003090889 2.50976e-06 -0.00024659425 -3.2575024e-06 -7.821015e-05 -0.00017119436
7.1424416e-05 0.00016975633 4.935349e-05 8.447353e-05 -0.000116424344 -4.0565724e-06 -4.2970132e-05 -7.439318e-05
-0.00020771858 -4.1874337e-05 0.00012479116 0.00013300712 0.00033943896 2.3126182e-07 -0.00030815296 -2.698952e-06
-7.4505355e-05 -0.00014090557 6.184876e-05 0.00017105318 6.317756e-05 8.547748e-05 -7.9822144e-05 4.1264125e-06
-4.3099943e-05 -7.058989e-05 -0.00016160785 -2.552571e-05 0.00011959752 0.00013455455 0.00034437553 4.8799593e-06
-0.00023584988 7.3616883e-07 -7.8342826e-05 -0.000174602 4.521897e-05 0.00016950378 4.5284305e-05 8.465724e-05
0.004563219 0.00050831464 -0.0028583314 0.0052963146 0.008362242 0.0010064912 -0.006684509 -0.01082292
-0.013311983 -0.00050266046 0.01595621 -0.00010514411 0.005752463 0.0054798955 0.0008720852 -0.008129915
0.0008322582 -0.005700411 0.0045561055 0.0004907232 -0.002838191 0.0057760067 0.008564204 0.0009415546
-0.0066217263 -0.010987995 -0.013344399 -0.0004954228 0.015896447 -6.559948e-05 0.005820807 0.005469131
0.00079889403 -0.008162603 0.0008509608 -0.005721405 0.0046075447 0.00048569878 -0.0029291785 0.0059731132

graph_attention.qkv_proj_high.bias f4 [48]
00000000: ce58 42ba d559 63ba d9d9 95ba 269d adba
00000010: 3998 a6bb c66e a6bb 4ee6 a6bb 8406 a7bb
00000020: d092 11b9 6c5e 02b9 140b 0bb9 963b 25b9
00000030: 4def baba eda4 c6ba 1ccc edba 3c0e c8ba
00000040: e602 46bc 1823 5ebc 7825 2ebc 2d97 4bbc
00000050: de88 8aba 54e4 b4ba 7a73 8bba 1e3a b1ba
00000060: f95b 17b4 7a6a 6eb4 6315 d0b3 6498 37b4
00000070: 43a5 b9b8 1b04 33b8 67f5 3bb8 c076 e8b8
00000080: c8d3 733c 0fd0 383d e7ba b73c e23b 6f3e
00000090: 9ee6 033d 1aff 53be d7e0 3a3d b4a0 e3bc
000000a0: e545 bebb be80 26bb c0b4 853c 118a 81b9
000000b0: bfb9 d63d 4a4b 58ba f147 9ebc 98dd c13a
-0.00074137456 -0.0008672749 -0.0011432722 -0.0013245686 -0.0050840643 -0.005079123 -0.0050933724 -0.0050972123
-0.0001388297 -0.00012432941 -0.000132602 -0.00015757824 -0.0014261991 -0.0015155353 -0.0018142494 -0.0015263031
-0.012085652 -0.013558172 -0.01062905 -0.01242618 -0.0010569354 -0.0013800957 -0.0010639273 -0.0013521349
-1.409643e-07 -2.2204213e-07 -9.689645e-08 -1.7098643e-07 -8.85227e-05 -4.268075e-05 -4.4812823e-05 -0.00011084741
0.014882036 0.045120295 0.02242799 0.23362687 0.032202356 -0.20702782 0.04562458 -0.02778659
-0.005806672 -0.0025406326 0.01632154 -0.00024707665 0.10484647 -0.0008250965 -0.019321414 0.0014790772

graph_attention.out_proj_low.weight f4 [6, 16]
00000000: e649 013c 6e01 ec39 f6a7 083d 2995 933d
00000010: 88a5 8bb7 0f7f 493d 5b4e afba 8c2f 00bc
00000020: ab28 bebc 48dd 26bb 3bdb 5d3c b0ff 74bd
00000030: ab03 fbbb cdbd babb 2a53 b7bc 4e5b bbba
00000040: 6fca cebb 8dc0 843b dbd9 ca3c 9dc4 1cbd
00000050: 2356 333c e1db 243b 14b6 2d39 4e86 71b9
00000060: e141 f9ba b9c8 de3a d8a3 4cbb 1629 88bc
00000070: 34e6 2a3c a46d 8cbb 2099 4ebb 6b2f 823a
00000080: 32b4 2fbc e439 bfbc c28d f6bd b41d 11be
00000090: 5a80 263d 0f43 17be b23f 323d d636 8fbc
000000a0: 41b7 eebb bbf2 94bb 3093 2fbd 275f 683d
000000b0: 454f 7e3d 63ed 7ebc 7d1d aebc 9ccb 3c3c
000000c0: 7f3a 1abc 9c32 043c a96c 5a3d 9621 b7bd
000000d0: 585a 95bc 383a f3bb 0788 ccbc 5cc0 bdbc
000000e0: 2dc4 b6bb 3a2e 7fbc 8546 853d 4c39 49bb
000000f0: c075 903d 4519 23bb c566 bdbc e33e 463b
00000100: eadb 1c3b b899 c3bc de0d df3d 4ec9 f9bd
00000110: 583a 2e3c d9ca 06be 099b 033d 1dbf ad3b
00000120: 6c5d 55bb 0d52 273c 7476 74ba f6bb 67bd
00000130: 02e1 573d c1b8 403c 75f2 263c d933 f8bb
00000140: 59a3 86bc f025 2c3a d429 683c 1b3b f63c
00000150: c3be cfbb 5dab 403d cfe2 27ba 0ccc 0abb
00000160: 4eab 3fbb 2e4c b3ba 7606 a63b 78df 8e3c
00000170: c3cb 22bc 8320 d7bb ad4a 18bb 7295 423a
0.007891154 0.00045014493 0.033363305 0.072061844 -1.6647173e-05 0.04919344 -0.0013374792 -0.007823836
-0.023212751 -0.0025461484 0.013541038 -0.059814155 -0.0076603494 -0.0056988955 -0.022378523 -0.0014294179
-0.006310753 0.004051274 0.024762085 -0.038273443 0.01094583 0.0025155472 0.00016566395 -0.00023033583
-0.0019016826 0.0016997076 -0.0031225588 -0.016621154 0.010430861 -0.004285531 -0.0031524375 0.0009932345
-0.010724114 -0.023343034 -0.12038757 -0.14171487 0.04064975 -0.14771675 0.043517776 -0.017482203
-0.007285029 -0.0045455373 -0.04286498 0.05673137 0.062087316 -0.015559527 -0.021254295 0.011523154
-0.009413361 0.008068707 0.053326283 -0.08941953 -0.018231556 -0.0074227117 -0.024967207 -0.023163013
-0.005577585 -0.015574986 0.06507591 -0.0030704318 0.07053709 -0.0024886888 -0.023120293 0.0030249886
0.002393479 -0.02387701 0.10891317 -0.12196599 0.010634027 -0.13163318 0.032130275 0.0053023235
-0.0032556904 0.0102124335 -0.0009325512 -0.056575738 0.05270482 0.011762799 0.010189642 -0.00757454
-0.016435312 0.00065669324 0.014170129 0.03005748 -0.0063398792 0.047038425 -0.00064043415 -0.002117875
-0.0029246393 -0.001367932 0.005066688 0.017440543 -0.009936276 -0.006565155 -0.002323787 0.0007422782

graph_attention.out_proj_low.bias f4 [6]
00000000: 1f3b c3bb 232f d73b 0f60 243c b55b 9c3c
00000010: 96d4 383c a119 88bb
-0.0059579755 0.0065668984 0.010032668 0.019086698 0.011281153 -0.004153446

graph_attention.out_proj_high.weight f4 [16, 6]
00000000: a454 7e3c 7381 77bb e2b6 5d3b 5a6e 6bbb
00000010: edda 0a3b 93f5 793d 0fa7 abbc a990 30bc
00000020: 5a3c bd3c 93b5 84bd 06d2 833d ac29 2b3d
00000030: 14ee 623c c025 a6bc 7471 1ebd d07c 8abd
00000040: eeb5 acbd ff6f 673d 1e9f 1abc 420f 22bb
00000050: 3c67 0fbc 9879 82bb 288e b9bb 8fa9 99bc
00000060: bbb9 02bd a991 093c ccb7 053e 20b8 c83d
00000070: 4695 903d 85ca 3cbc e70f c93b 44ca dcbb
00000080: e2ec 043c 07d5 17bc d448 0a3d 248e 99bc
00000090: 6796 cb3b 4662 9dbb acac 13bb 39ac 08bb
000000a0: fc7f 693a 8d61 60bd 1819 193c a54a 55bd
000000b0: 13f4 84bc 89d7 033d d4cd b8ba 2292 94bb
000000c0: e2c9 78bd 0361 03bc 82ea a73d 6787 ba3d
000000d0: f544 b13d 8047 8ebb 8103 b7bc fc8e 6bbd
000000e0: 43e3 013e cb53 85bd 8a6e 4ebd fab6 95bc
000000f0: b897 553b f455 88bb d801 503b 3fde e9bb
00000100: 4cf9 cfbb 8f5e b03b e79f abbc dbda e13b
00000110: af17 c43d e6ea 503d a284 8c3d 3d12 d3bb
00000120: 44ad 953b 7460 7f3a 1e7c a3bc 3130 4c3a
00000130: 9fa4 28bc 918b cc3b 71b0 96bc 2b0e a83b
00000140: e1f0 b53c 647e f33c c720 a3bd 5ff3 91b9
00000150: 62b0 c8bc 3a3f cdbc 90bf 8f3d 1288 5dbd
00000160: 6364 913d f9fc 5fbc 596b 8c3c 0a1f 3f3b
00000170: 3276 083c f917 303b a077 cdbb d728 e23a
0.01552311 -0.0037766367 0.003383093 -0.003592393 0.002118762 0.061025213 -0.020953683 -0.010776677
0.023100067 -0.06479945 0.06436543 0.04178779 0.013850708 -0.020281672 -0.038682416 -0.06762087
-0.08433138 0.056503292 -0.009437351 -0.0024728333 -0.00875264 -0.0039817803 -0.0056626983 -0.01875761
-0.031915408 0.0083965445 0.13058394 0.09800744 0.07059722 -0.011522894 0.006135929 -0.006737979
0.008113118 -0.009267098 0.03376086 -0.018744536 0.0062129977 -0.004802975 -0.002253334 -0.0020854606
0.0008907316 -0.05478053 0.009344362 -0.05207314 -0.016229665 0.032187972 -0.0014099427 -0.004534022
-0.060739405 -0.008018735 0.08199026 0.09107857 0.08655731 -0.0043420196 -0.022340538 -0.057509407
0.1268435 -0.06510123 -0.050398387 -0.018275727 0.0032591652 -0.004160637 0.003173938 -0.0071370895
-0.006346857 0.005382366 -0.02095027 0.0068925447 0.0957483 0.051005267 0.06861235 -0.006441383
0.004567774 0.00097418507 -0.019956645 0.00077891635 -0.010293155 0.0062422235 -0.01839468 0.005128642
0.022209587 0.029723354 -0.07965236 -0.0002783788 -0.024498168 -0.025054563 0.070189595 -0.054084845
0.07099225 -0.013671153 0.017141031 0.0029162788 0.008328961 0.0026869758 -0.006270364 0.0017254603

graph_attention.out_proj_high.bias f4 [16]
00000000: cf51 a23b 95c8 a2bc 5083 a8bc 493e 80bc
00000010: d79c cc3c f07f 83bb 0fe0 5bbc 899a 803b
00000020: 792d dc3c b688 27bc 650c 3f3c ae00 cd3c
00000030: fa4e 7cbc dc59 de3b ffa0 58bb 0764 73bb
0.0049536 -0.019871036 -0.020570427 -0.0156547 0.02497713 -0.004013054 -0.013420119 0.003924672
0.026877152 -0.0102254655 0.01166067 0.025024738 -0.015399689 0.0067856144 -0.0033054946 -0.0037138478

temporal_module.fusion_weight f4 [4]
00000000: d1a7 a43d 27b2 233e 30f9 023e ca55 c43d
0.08039821 0.15985928 0.1279037 0.095866755
