optim_results/models/trial_4_best.pt (torch, 97683 bytes, 70 tensors)

temp_conv.depthwise.weight f4 [1, 1, 5]
00000000: 1388 a43e 1e32 ab3e ee97 e1bd 85bc c53e
00000010: ff6b cfbd
0.32135066 0.33436674 -0.110153064 0.3862039 -0.101280205

temp_conv.pointwise.weight f4 [12, 1, 1]
00000000: 49f5 d5be ec96 043f 6fc3 4f3f c3f5 29bf
00000010: 669b 4c3f e2d5 f93d 9248 2b3f ee09 953d
00000020: 0494 d33e 9258 a0bd d07a 333f e635 ad3d
-0.417887 0.5179279 0.81157583 -0.6639063 0.7992462 0.12198998 0.6690761 0.072772846
0.41323864 -0.078293934 0.7010927 0.08457546

temp_conv.pointwise.bias f4 [12]
00000000: 5bc2 cbbe a990 403e 80a6 c8be 9d1a 66bd
00000010: 4cdf acbe 9103 183f 1334 38bf 2dca c8be
00000020: 153f 5cbe f128 08bf 3dc6 133d b5e6 6abf
-0.3979672 0.18805183 -0.3918953 -0.056177724 -0.33764112 0.5938044 -0.7195446 -0.39216748
-0.21508439 -0.5318747 0.036077727 -0.9175828

temp_conv.bn2.weight f4 [12]
00000000: da47 713f 7543 6f3f 4014 703f a531 713f
00000010: 2a73 703f 25e6 6f3f daca 6f3f e06d 6f3f
00000020: c4a1 703f ab6b 723f 12ef 6f3f 13cc 703f
0.9425026 0.93462306 0.937809 0.94216377 0.93925726 0.9371055 0.936689 0.9352703
0.93996835 0.9469554 0.9372417 0.9406139

temp_conv.bn2.bias f4 [12]
00000000: adc6 48bc 315a 993c 27c9 c33a d46a 5ebc
00000010: 607f 243c 7bfc 2e3c ae5b 923c 18f3 583c
00000020: d232 453c 0d08 fbba 6acd 523c df3f 24bc
-0.012254399 0.018719764 0.0014937267 -0.0135752745 0.010040134 0.010680313 0.017865982 0.013241552
0.012036042 -0.001915218 0.012866357 -0.010024994

temp_conv.bn2.running_mean f4 [12]
00000000: 7df1 07bf e218 b43e 096a 13be 1750 87be
00000010: 9e6e bfbd 3bb7 223f 0b01 04bf 9591 bebe
00000020: 38eb b7bd 5a64 0fbf 18be 823e 59e2 64bf
-0.53102857 0.35175234 -0.14395918 -0.2642829 -0.093472704 0.6356084 -0.5156409 -0.37220445
-0.08980411 -0.560125 0.25535655 -0.8940788

temp_conv.bn2.running_var f4 [12]
00000000: 94d5 e53d 8302 303e d51a d73e 4135 903e
00000010: 18a5 d03e b9c8 213c 9873 923e c4e5 6b3b
00000020: 9fc9 e03d 401a 883b 1fbb a03e e31a 9e3b
0.112223774 0.17188458 0.4201266 0.2816563 0.40750957 0.009874516 0.28603816 0.0035995105
0.10975956 0.00415352 0.31392762 0.0048249825

feature_process_low.weight f4 [16, 240]
00000000: bc3f 5b3d cd37 43bd 94b3 413d 48e1 203c
00000010: 7e10 8cbc 4fb7 1d3d 2c5b 133c e8c9 393d
00000020: 9fd7 e43b 5148 8fbc f1fb 7e3c 05bc 76bc
00000030: 63f9 d23c 2e9f 5d3d b1a2 f63c f784 c4bc
00000040: 148f 093d d26f 1e3c ea83 fc3c 0120 10bd
00000050: 6e07 8fbc 47e0 b2bc 4c39 32bd a262 473d
00000060: 8476 913c a96e c03c 1db5 8e3c a2ae dab9
00000070: 604f 393d af61 1fbd 5653 dc3b 2281 14bd
00000080: 7764 913c 0c48 89bc 70f8 a93c d871 01bc
00000090: 549b 4f3d 4f57 0cbd 1c5e 1fbd b3bc fabc
000000a0: c3cb 8f3c 4768 643c 047d 603d a7f4 49bd
000000b0: 84c5 6fbd f147 46bd 5ace 1fbd 13a0 c33c
000000c0: e481 af3c 970c 433d a0be d9bc a7c9 13bd
000000d0: 38de f73c 14d3 99bc d7b6 203d fc0a 1cbc
000000e0: 1989 1c3d 6d01 36bd 6a3d ffbc 8d35 893c
000000f0: 4df3 6a3c 5241 81bc c99e 193d 5db4 2c3d
00000100: b56e 2ebd d1df f6bc 65dd 643d 379d 99bc
00000110: 799f bdbc 3272 5fbd a573 06bd 038f 553c
00000120: fb02 e2bb 2791 30bd f958 c63b da4a 22bd
00000130: d339 3dbd e1f7 f9bc 5d6b 3bbd ce8d 02bd
00000140: d226 ac3c ab52 0e3c fee9 9d3c 719f 67bd
00000150: df02 28bd 8062 98bc a16a 253c 7f4d 53bd
00000160: 0b25 bcbc 3d47 08bd 1b20 823a 742d a8bc
00000170: 9c71 e7ba ff82 0abd a221 0fbd 6f14 fabc
00000180: 15c4 83bc 0fc2 40bd 4043 4b3d f811 2cbc
00000190: 923b 593c 31f0 533c cecf 4cbd 496c 203d
000001a0: b62c 8dbc f99f bbbc 9601 45bd ad9b 6dbd
000001b0: 8d2c 9e3c f61d 19bc 494b c63c 035f 34bd
000001c0: 17b5 263d fd4d 1bbd 3b32 e4bb ff3b 6e3c
000001d0: 98ce 0b3d c31e 503d cf9f 5c3d 3e8e 24bd
000001e0: d0bd 813a 2bb4 babc bef2 38bc d640 33bd
000001f0: 3e26 5a3d 906a 3abd 1647 f13c 1cff 983c
00000200: db97 a83c 7de3 e9bc 11bf 5c3d 5884 633c
00000210: f5e2 fc3b 19ae 3dbd 456a e63c 0cce 98bb
00000220: 2c9b c1bc a830 543d aee0 493c c06a 03bd
00000230: 8992 04bb 292a 83bb 4abf 053d 0679 4bbc
00000240: fd61 09bd 8a27 92bc e091 32bd 9589 973c
00000250: edec 343d 2e72 5abd 033b 6b3c 2f75 f73c
00000260: 2378 4d3c 7659 99bc b754 083d 650c 0d3d
00000270: 1f38 d03c 4c60 0bbc 5520 85bc 3868 cd3b
00000280: 8a91 b8ba 66c9 8bbc c610 113d 89a8 4d3d
00000290: 5749 d5bb 5e3c 71bc 3eac b4ba 3989 b0bb
000002a0: 5ab3 463c e324 8f3c ee8b 45bd 9790 a1bc
000002b0: 0d17 433d f85c cf3c 5021 73ba 58bd ffbc
000002c0: fa6d 0bbd 6560 58bd cf8c b1bc b2b7 8d3c
000002d0: a59a 1c3d 4ffd e93c 6199 52bd 3114 0cbd
000002e0: 9d56 13bc 67c5 663d 80ac b73b 63a0 70bc
000002f0: 9a61 c93c e005 aabc 161c 1abd 8aa3 353d
00000300: 0c2d bebc b786 27bc 0784 72bd db59 1b3d
00000310: 7978 453d b19f bd3c f16f 25bd 5cde 57bd
00000320: edbc 37bc 4c6e 1f3d cd6e c73c 853c 533d
00000330: 7a3a 023d e353 733c c53b a1ba f4a2 38bd
00000340: 5c2c 48bd e999 5abd 365e d43c a421 debc
00000350: 3146 f2bb 02a3 fbbc 1843 a3bb c348 16bd
00000360: 13a8 0abd 22e2 ba3c f3fd 94bc a2b1 013d
00000370: de35 3fbb 51bf 29bd a8c7 4dbc 8c1c ecbc
00000380: a458 98bc 4450 69bd 6b37 013d 5915 29bd
00000390: 756b f63c 7059 d93c 7058 2a3d f658 2cbd
000003a0: 0402 2d3d d4f4 cabc a804 c93c e54d 753d
000003b0: 807c 97bb 62e8 e73a 40a9 73bc cfa6 36bd
000003c0: 7ef6 053d 4ec4 5cbd 054d 323d 54ee 423d
000003d0: 4c27 843d 4046 d3bb ac38 29bd 9e0e aa3c
000003e0: 455f 1a3d 55ac 53bd c600 04bc 159d debc
000003f0: 415f 113b 1b6b a8bc 02a3 8abc fa61 1bbc
0.05352758 -0.047660638 0.0472904 0.009819336 -0.017097708 0.038504895 0.008993905 0.04535857
0.006983712 -0.017490538 0.015562997 -0.015059476 0.025753682 0.054106884 0.030106874 -0.023989184
0.033583716 0.009670215 0.03082462 -0.03518677 -0.017459597 -0.02183546 -0.043511674 0.048678048
0.017756708 0.023490267 0.017420346 -0.00041710312 0.045241714 -0.038911518 0.0067238016 -0.036255963
0.0177481 -0.016757987 0.020748347 -0.007900678 0.05068524 -0.03426295 -0.03890811 -0.030607557
0.017553216 0.013940877 0.054806724 -0.049305584 -0.058537975 -0.048408452 -0.03901515 0.02388004
0.021424241 0.04761943 -0.026580155 -0.036080983 0.03025733 -0.018777408 0.03923687 -0.009524103
0.038216684 -0.044434953 -0.031157214 0.016749168 0.014340234 -0.015778217 0.037504945 0.042164195
-0.042586047 -0.03013602 0.0558752 -0.018751724 -0.023147332 -0.054552265 -0.03282513 0.013034585
-0.006897328 -0.043107178 0.006053087 -0.039622165 -0.046197724 -0.030513706 -0.045756686 -0.031873517
0.021014605 0.008686702 0.019276615 -0.05654854 -0.041018363 -0.018601656 0.010096223 -0.051587578
-0.022966882 -0.033271063 0.0009927781 -0.020529486 -0.001765776 -0.033816334 -0.034944184 -0.030527322
-0.01608471 -0.04706007 0.04962468 -0.010502331 0.013258832 0.012935684 -0.050002865 0.03916577
-0.017233234 -0.02290343 -0.048097216 -0.058009792 0.019308353 -0.009345522 0.02420582 -0.044035923
0.040700044 -0.037916172 -0.0069639958 0.014540671 0.03413257 0.050810587 0.053863343 -0.040174715
0.0009898487 -0.022790989 -0.011288343 -0.043763004 0.053259127 -0.045511782 0.029452842 0.018676333
0.020580223 -0.028550858 0.053893153 0.013886534 0.007717485 -0.04630861 0.028126845 -0.0046632346
-0.023633562 0.051804215 0.012321634 -0.032084227 -0.0020228943 -0.0040028286 0.03265313 -0.012418991
-0.033540715 -0.01784112 -0.04359615 0.018498221 0.044171263 -0.053331546 0.014357331 0.030207245
0.01254085 -0.018719416 0.033283915 0.03443565 0.025417386 -0.008506846 -0.016250769 0.0062685274
-0.001408146 -0.017063808 0.035416387 0.050209556 -0.006508987 -0.014723865 -0.0013784242 -0.005387452
0.012127722 0.017473644 -0.04822915 -0.019722266 0.047629405 0.025312886 -0.00092746783 -0.031218216
-0.03404043 -0.052826304 -0.021673588 0.017299507 0.038233418 0.02856317 -0.051415805 -0.034198944
-0.008992818 0.0563406 0.0056052804 -0.014686677 0.024582673 -0.020754755 -0.03762444 0.044345416
-0.02321484 -0.01022499 -0.059207942 0.03792749 0.048210595 0.023147436 -0.04038996 -0.052702293
-0.011214477 0.038923547 0.024344826 0.051571388 0.03179405 0.014851543 -0.0012301138 -0.04507728
-0.04887043 -0.053369436 0.02592383 -0.02711565 -0.0073936214 -0.030717377 -0.0049823634 -0.036690485
-0.033851694 0.022812907 -0.018187499 0.031663544 -0.0029176394 -0.04144222 -0.012559809 -0.028822206
-0.018596955 -0.056961313 0.03154699 -0.041280124 0.030080536 0.026531905 0.041588247 -0.042077027
0.04223825 -0.024774946 0.024538353 0.05988874 -0.004622996 0.0017693157 -0.014871895 -0.044592675
0.032705776 -0.05389815 0.043530483 0.04759057 0.06452808 -0.0064475834 -0.041313812 0.020758923
0.037688512 -0.05167802 -0.008056825 -0.027174512 0.002218202 -0.020558884 -0.016923431 -0.009483809

feature_process_low.bias f4 [16]
00000000: b191 4fbd 508b 27bd 6d4f 51bd 9617 4b3d
00000010: a6af 1cbd 656c 3abc b876 bdb9 1ead 803d
00000020: c5c0 123d 4792 4cbd af01 8d3d 0963 7ebd
00000030: 3d86 c93b ea9d 5c3d b821 5e3d 4104 b0bc
-0.05067605 -0.040904343 -0.051101137 0.04958304 -0.03825345 -0.011378382 -0.00036137342 0.062830195
0.03582837 -0.04994419 0.06885087 -0.062106166 0.0061500357 0.053861536 0.054231375 -0.021486403

feature_process_high.weight f4 [16, 16]
00000000: db05 1bbe f2d0 df3d 5a23 483e 9650 0fbe
00000010: 9b19 d6bc 18e5 0fbe d8ea bb3d 92ca ef3c
00000020: 38fa c53d 7338 a7bd b8ab 81be c698 e9bd
00000030: 76d7 3abe bded 7bbd bde5 b13d 99e4 38be
00000040: 0192 9abc 6de8 67be 7306 2ebe adf8 1dbe
00000050: 89cd 8ebd dc98 e1bd f4c6 d13c 01f1 1d3e
00000060: 0561 353e 040e 913d a176 4e3c ff21 fdbc
00000070: 4617 1e3e 07fa fbbd fbb9 1c3e d0a7 56be
00000080: d3e0 2fbe 3dd6 873d 9bdd bbbd 274f 1f3d
00000090: 66d1 463e fa25 e23d 1dda 673e 14f1 ccbd
000000a0: ee2e debd 313b bebc 160c 3dbd 5d0a d3bd
000000b0: dee2 2bbc 65ac 523e e544 03be 25c7 003e
000000c0: 3d3a c13d 004f f63d 5ebb 683d 5df2 8dbd
000000d0: 7e6d a43d ac9a d9bd e4af 13be 6d7e 733e
000000e0: 3b37 483e 50b5 3ebe d0a0 5b3e f99b 4c3d
000000f0: 2b38 7b3d 0a9e 643e 9b28 d6bc 4296 9dbd
00000100: d688 143e 8735 5dbd a48a 59bd c9bc c1bd
00000110: bd51 603e 4887 d73d b5d7 e1bc 0e36 8cbc
00000120: aae5 0a3b 2b78 07be 1969 453d fdd3 40be
00000130: 6752 48bc f44c 35bd d391 a4bd 3303 4c3e
00000140: f532 8f3d bd68 ed3d e114 15be c3e5 eb3c
00000150: 8cfe 5e3d 6466 ed3d 76ac 83bd 65e1 52bd
00000160: 9a80 35be 6358 1a3e 3eda 133e 5355 dc3d
00000170: cf86 e33d 6e2a 053e 9f31 5d3e c01a 913d
00000180: 231d 8d3d d780 733d 0d9d e9bd ddda 263d
00000190: a76b 6a3d 0e6c 32be 20f5 3ebd bf15 01be
000001a0: 4e49 fdbd 3b90 0a3e 9b7e 223e ceaa 14bd
000001b0: b927 633d 3fbe 34bd c26f 1b3d c3a8 debc
000001c0: 1d1d febd 6c1a d0bd 7aac 653e f864 4d3d
000001d0: b073 00be 0f80 b63c 3304 6cbe 9bcb 923c
000001e0: e166 423e ed0b c43c 25f1 8f3d 7aca 63be
000001f0: 30ac 3dbd b6dd 173e 2067 2cbe d893 e2bd
00000200: ccae 1d3e dc2f 923d 1ae0 ce3d 1f40 4fbe
00000210: 68bb 063e a297 4bbd 7787 333d dac3 3a3e
00000220: e333 48be 3c8e 903d 9224 55be 44ac 2f3e
00000230: 7a9d 813d f986 a43c 68a6 a9bd e000 a53d
00000240: 69bd febd 3b93 2e3d bb54 423e be4a 2abe
00000250: c338 8dbd 7c4e 693d 82ae 0e3d 4ec7 013c
00000260: 2d15 4c3e dc70 7abd 70f5 8a3d 480a 033e
00000270: 219f 30bd b2e3 183e e8df 143e d38f c93d
00000280: 4108 4abd 7c93 333e 907d d4bd 5aca 513d
00000290: 89d9 1b3d aaf9 143e e27c 21be 0622 c73c
000002a0: 6af7 dabd 69d6 cc3d 4142 773d 2e4d 27be
000002b0: 8131 32bc 7a83 353d 5572 973d d4ba 273e
000002c0: d568 a93d 4c72 123d 18c0 d43d 9906 35be
000002d0: e808 fa3d 4a97 a3bc 21e5 cc3d 0704 493d
000002e0: cd80 62bc 46be 0c3e e6e9 dfbd c413 553d
000002f0: 3dd3 a93d 7559 70bd 7305 853d aaff 48be
00000300: 2323 eebd edbf eb3d e295 e53d 2f72 4cbe
00000310: bcf9 983d f25d a03c 1868 623e 0883 5dbe
00000320: c885 4cbd a50d 07be 46a8 0dbe dc8a 1ebd
00000330: 2488 59be 9db5 343e 8cd1 9bbd 04de a03d
00000340: 4735 0bbe 1f2f 29bb e23c 2cbe 627a 3c3e
00000350: f4a8 3b3e 20f9 393e 0656 97bd a7aa 1c3e
00000360: 9e3f 39be 9714 d33d 0051 89bc a8d0 40be
00000370: 7dd2 38be 2dfe 54be 9fb1 223d 8195 a3bd
00000380: f597 dfbd 00d9 503e 7876 82bd ddc5 8b3d
00000390: e4e4 30bd a7e6 093e c63f 5e3d cb10 0b3e
000003a0: ac9a 703d ba2b 7dbd f2e0 4c3e abb2 45bc
000003b0: c26b ebbd c7b9 583d f1e2 08bd b449 18be
000003c0: 4f96 f53c 1490 44bd 3570 abbd 1ddb d1bd
000003d0: f91a abbd 03c5 b7bd d033 963c 8f70 5a3e
000003e0: 9f2a f4bd 25e2 cdbd 003e 1ebe 33f8 5abc
000003f0: ef4a 233c 7b98 10be 0751 b33d 6de4 37be
-0.15138952 0.10928525 0.19544736 -0.13995585 -0.026135257 -0.14052236 0.09175652 0.029271398
0.09666866 -0.08165064 -0.25326324 -0.11406092 -0.18246254 -0.06150602 0.08686397 -0.18055953
-0.018868448 -0.22647257 -0.16994648 -0.15426894 -0.069727965 -0.11015484 0.025607564 0.15423967
0.17712791 0.070827514 0.0126015255 -0.0309 0.15438566 -0.12303548 0.15305321 -0.20962453
-0.17175607 0.066326596 -0.09173127 0.038893845 0.19415817 0.110424 0.22641797 -0.100069195
-0.10848795 -0.023221584 -0.046154104 -0.10304711 -0.010491101 0.20573576 -0.1281925 0.12575968
0.09434936 0.12026787 0.056819312 -0.06930993 0.080286965 -0.106252044 -0.14422566 0.23778696
0.19552319 -0.18623853 0.21448064 0.049953435 0.061332863 0.22325912 -0.02614241 -0.07694675
0.14505324 -0.054006126 -0.053110734 -0.09459836 0.2190618 0.1052385 -0.027568677 -0.017115619
0.002119402 -0.13229434 0.048195932 -0.18830867 -0.0122266775 -0.04426284 -0.08035626 0.19923095
0.06992141 0.11592243 -0.14558746 0.028796082 0.054441974 0.11591795 -0.06429379 -0.051484484
-0.17724839 0.1507278 0.14438722 0.10758462 0.11109697 0.13004467 0.2160096 0.0708518
0.06890323 0.059449043 -0.11406908 0.040736068 0.05723157 -0.17424032 -0.04662049 -0.12605952
-0.123674974 0.13531582 0.15868609 -0.036295705 0.055457804 -0.044126745 0.037948377 -0.027180081
-0.12407897 -0.101612896 0.22429076 0.05014512 -0.12544131 0.02227786 -0.23048477 0.017919352
0.18984558 0.023931468 0.070284165 -0.22245207 -0.04630679 0.1483067 -0.16836214 -0.11063355
0.15398711 0.07138035 0.10101338 -0.20239304 0.13157427 -0.049705155 0.04383036 0.18238774
-0.19551043 0.07058379 -0.20814732 0.17155558 0.063288644 0.020083891 -0.082836926 0.080568075
-0.12438471 0.04262088 0.18977635 -0.16630074 -0.06895592 0.056959614 0.034834392 0.007921053
0.19929953 -0.061142787 0.06785095 0.1279689 -0.043120507 0.14930609 0.14538538 0.098418854
-0.049324278 0.1753673 -0.10375512 0.051218368 0.038049255 0.14548364 -0.15770295 0.024308216
-0.10691722 0.10001833 0.06036592 -0.16338035 -0.01087606 0.04431484 0.07394854 0.16379863
0.08271948 0.035753533 0.103882015 -0.17678298 0.1220873 -0.019969601 0.1000464 0.049076106
-0.013824654 0.13744459 -0.109332845 0.052020803 0.08292244 -0.058679063 0.0649518 -0.19628778
-0.116277955 0.11511216 0.112102285 -0.19965433 0.07469508 0.019576047 0.22110021 -0.21632016
-0.04993227 -0.13188799 -0.13833722 -0.038706645 -0.2124334 0.17647405 -0.07608327 0.07854846
-0.13594542 -0.002581544 -0.168201 0.1840606 0.18326169 0.1816144 -0.073894545 0.15299474
-0.18090674 0.103066616 -0.016762257 -0.18829596 -0.18049045 -0.20800085 0.039720174 -0.079875
-0.109176554 0.20395279 -0.06370252 0.06824849 -0.043187037 0.13466893 0.054260038 0.13580625
0.058741257 -0.06180928 0.20007685 -0.012066524 -0.114951625 0.052911546 -0.033419553 -0.14871866
0.0299789 -0.047988966 -0.08371011 -0.10246871 -0.08354754 -0.08973124 0.018335253 0.21332
-0.11922192 -0.10052899 -0.15453339 -0.013364839 0.009966596 -0.14120667 0.08755689 -0.17958231

feature_process_high.bias f4 [16]
00000000: 3882 6d3e f971 353d 97d0 fbbc 5ceb 92bd
00000010: 4000 e23d 817f 333e 0ecb 0ebe 56fe 77bd
00000020: 233d 343e 7146 49bd 3f0c 24be bc18 99bd
00000030: 81b3 ad3b de70 2cbd c1c1 15be cd38 19be
0.23194206 0.044298146 -0.030739112 -0.071737975 0.11035204 0.17529108 -0.13944647 -0.060545288
0.17601447 -0.049139444 -0.16020297 -0.07475421 0.0053009395 -0.042099826 -0.14624692 -0.14963074

feature_norm.weight f4 [16]
00000000: 74cc 773f 64b6 713f 4d52 703f cdca 6f3f
00000010: f7ec 703f 62d2 723f fd29 6e3f b5ac 713f
00000020: 12eb 703f 3ad4 6e3f b207 6e3f c725 6e3f
00000030: cebc 703f c47d 6f3f 9162 6e3f 179a 6e3f
0.96796346 0.9441893 0.9387558 0.93668824 0.9411158 0.9485227 0.9303282 0.94404155
0.9410869 0.9329258 0.9298049 0.93026394 0.94038093 0.9355128 0.9311915 0.9320387

feature_norm.bias f4 [16]
00000000: 55e8 1dba f4f5 02bb ec12 dcbb 2907 763c
00000010: 7a32 47bb 0854 b8bb af9e 22bb 6482 c33a
00000020: 5b79 90bb f7ae f6ba e776 473a ca48 c8b9
00000030: 4261 30bb cfe8 883a 4209 d13b b1a7 a7bb
-0.0006023695 -0.0019983025 -0.006716123 0.015016356 -0.0030395077 -0.0056252517 -0.002481382 0.0014916179
-0.004408998 -0.0018820454 0.00076089654 -0.00038201205 -0.002691344 0.0010445359 0.0063792774 -0.005116426

graph_attention.learnable_adj_u f4 [4, 10, 16]
00000000: e08b 883d 196e b83c 83d6 223d eb98 aa3c
00000010: b85e c0bd 5c41 98b8 fc09 e83c 98f6 cd3c
00000020: 2f0b afbd ae34 0ebd e297 6d3d c051 95bd
00000030: 0051 7f3d 354f 24b9 14ea 5fb4 1e4f c63c
00000040: 480c 2a3b 39fb 38bd 00de d53b 08e5 9ebd
00000050: 6629 d8bc 15c0 fdb7 ff9a 80b9 f705 6d3d
00000060: 9780 02bd 04cf 983d edb5 af3c e6ff d43b
00000070: dc73 633d 78d9 51bd 18db 9fbd 6472 1db4
00000080: 7acc cb3c b14e d83c ebd6 0834 54cc bd3d
00000090: d334 163c 606d 8e3c 4723 c3bc 7f97 a03b
000000a0: dee5 34bc 2111 8fbd e493 3ebd 0140 23bd
000000b0: 6112 ea36 1ade 81bc bdd6 b13d 02bf 793c
000000c0: 0065 96bd 5820 2534 6913 a03d f98f efb2
000000d0: 7f37 5db6 73e8 373b 1689 e1bb 13c0 3cbd
000000e0: baa7 35bc 7bbc 0dbb 9b95 883d 18a2 90bd
000000f0: 3faa bcb3 1a49 42bc 54fb 1335 a926 82b4
00000100: 62fa 4bbc f802 763a 0f4b 933a 6765 12bd
00000110: f96c 293d d095 ac3d 581b 7bbc 5cbb 9e39
00000120: 0839 2ebc eb60 533d 50ad 32b4 4748 a9bd
00000130: 6634 833a a38d 953d dcff 48b2 080c fdba
00000140: 5223 dc32 abdf 0d3d 5f9b 9e3d 3c99 daba
00000150: bd7b f63c 5bcc 083d d9da a93d d105 663d
00000160: a8b1 94bd e6c3 94bd e3eb 95bd ca8b 313d
00000170: 0b89 dbbc 971b 063d e0fa d736 672b 77bc
00000180: dfff 7b3d 11aa 26b9 4825 febc 184f f636
00000190: 5906 36bd 8edb bfbd 3807 eeb7 2a8f 49b4
000001a0: 8ff9 0fbd 359c a73d 78b0 3dba 026a f0ba
000001b0: 3150 8a3d 92b7 2034 fd55 8eba 9c5f 6f3a
000001c0: 8e09 adbd f74e c63d fa43 173b 68a6 103c
000001d0: 24df 72bd 12b3 813d 756f 93bd 0f3f 0abc
000001e0: 4713 39bd d591 d8bc 338b fc39 830c c9bd
000001f0: 2ffc c4bd 7f6d 633a e87b e03b efff 8e32
00000200: b648 3ebc 95b7 51bb 2337 d435 19d9 95b9
00000210: 53e1 2bbd 3222 7c3d 9deb 9239 ba8c 49bd
00000220: 6ee6 99b9 7461 6abd 9715 18bd a12a 803d
00000230: 762a a13b c235 943c 17ad a5b5 f574 d6ba
00000240: e4fb b135 4365 62bd 3b1b cabd ccec 5d3d
00000250: 64d0 9833 b1df 243d ebf5 7b3d 9586 933c
00000260: bdbe 01bc 429c 98b8 3c2a 1434 0112 8734
00000270: 0f34 c4b3 8e03 87bd 659f 04bd d781 6d3d
00000280: dbc4 e133 d93f a3bc 55c2 4d3d 643c 8dbb
00000290: 6f75 6dbc 7b70 5b3d 2638 89bd fb23 bdbc
000002a0: f1a4 7e3d 525f 3735 c3be 77bc e5e4 953d
000002b0: f7c3 f2b6 8072 b8bd 600b 74bd 3865 edba
000002c0: 8435 aeb3 aa42 7cbd 3b17 39bc 008b f83b
000002d0: dc3a b6bd d1ac b7bd b9c2 0a3b 97be 0d39
000002e0: 41c2 c0bd fd8d b5bd 703d 963d 320e cb3d
000002f0: 3d35 93bc 6275 ca3d 277d 563d d86c a83d
00000300: 63b6 8cbc 5d5a bcba 401c 1b3d 5744 2f3c
00000310: 6d0e 8cbd af35 203d 9fc5 c33d d577 35bd
00000320: 94ec b4bd eb93 bcbd aa11 34bd 156e 96bc
00000330: d93e 0dbd d450 a4bd 0953 2f3d 4bb0 c43d
00000340: a236 983d 7c48 303d bcf7 993c 360d 57bc
00000350: 78cc 8ebd 6db6 1bbd 20a5 a23c 777f 1e3a
00000360: fcb6 d235 e613 25bd e27b b4bc 9897 84bc
00000370: b180 ddb5 8bc0 f0b8 7418 25b5 d11e eabb
00000380: 07be 08b5 dc05 36bd ce0c cd3c bc4a 96bd
00000390: d3b2 8c38 1932 bcbd 5a26 10bd b323 c13d
000003a0: 4927 d4b8 cc5d 9db8 d533 e43c 9f2f a0bd
000003b0: 80d8 72ba 4144 f3b3 dd31 c834 26e4 aab5
000003c0: cc5b 5fbd ab25 b1bd 1161 09b3 828b 973d
000003d0: e6cc 9ebc c994 e335 f9cf 353d 8c5f c4bd
000003e0: 362d a73d bb85 9a3d 8b9a 93bc 0100 a33d
000003f0: dcf3 513d 5f2f 963d 293d a13d ea7d 6a3a
0.06667304 0.022513436 0.039755356 0.02082487 -0.09393066 -7.260099e-05 0.028325073 0.025142
-0.08547055 -0.034718208 0.058006175 -0.07290983 0.062333107 -0.00015669766 -2.085365e-07 0.024207648
0.0025947262 -0.04516146 0.0065267086 -0.07758528 -0.026386928 -3.0249395e-05 -0.00024529544 0.057867017
-0.031860914 0.0746136 0.021449054 0.006500232 0.055530414 -0.051232785 -0.07805461 -1.466338e-07
0.024877775 0.02640471 1.2744174e-07 0.09267488 0.009167868 0.017386138 -0.023820532 0.0049008722
-0.011041133 -0.06985689 -0.04652776 -0.03985596 6.975883e-06 -0.015852977 0.08683536 0.015243294
-0.07343483 1.5378589e-07 0.07816202 -2.7888733e-08 -3.296387e-06 0.0028062135 -0.006882797 -0.046081614
-0.011087352 -0.0021627236 0.0666916 -0.07062167 -8.7854e-08 -0.011858249 5.51275e-07 -2.4242516e-07
-0.012449833 0.00093845977 0.0011237579 -0.035741236 0.04136369 0.08427012 -0.0153263435 0.00030275702
-0.0106337145 0.0516061 -1.6640593e-07 -0.08265739 0.0010010123 0.07302406 -1.1699708e-08 -0.0019305954
2.5627433e-08 0.034637135 0.077444784 -0.0016677747 0.0300883 0.033398014 0.08293695 0.05615789
-0.07260448 -0.07263927 -0.073203824 0.043346204 -0.026798746 0.032741155 6.436705e-06 -0.0150860315
0.061523315 -0.00015894348 -0.031023636 7.340579e-06 -0.044439647 -0.093680486 -2.8375172e-05 -1.8771667e-07
-0.035150107 0.08184091 -0.0007236074 -0.001834214 0.067535765 1.4967944e-07 -0.0010859367 0.00091313734
-0.08449088 0.0968303 0.0023081289 0.008828737 -0.059294835 0.06332983 -0.07198993 -0.008437886
-0.0451844 -0.026436726 0.00048168897 -0.098168395 -0.09618413 0.0008675679 0.0068507083 1.664736e-08
-0.011614015 -0.0032000293 1.5811278e-06 -0.00028581245 -0.041962933 0.06155605 0.00028022836 -0.049206473
-0.00029354118 -0.057221845 -0.037129965 0.06258131 0.004918392 0.01809204 -1.2343834e-06 -0.001636176
1.3260837e-06 -0.055272352 -0.09868475 0.054180905 7.1159576e-08 0.04025239 0.061513823 0.01800851
-0.007919011 -7.27703e-05 1.3798939e-07 2.515881e-07 -9.1364306e-08 -0.06592475 -0.032378573 0.057985153
1.0513187e-07 -0.019927906 0.050234158 -0.0043101776 -0.01449333 0.053574067 -0.067001626 -0.023088446
0.06216902 6.831152e-07 -0.015121165 0.07319049 -7.2349753e-06 -0.09006214 -0.05958116 -0.001811183
-8.112241e-08 -0.061587013 -0.0112970425 0.0075849295 -0.08897945 -0.08968509 0.0021173193 0.00013517808
-0.09412051 -0.08864973 0.07335937 0.09914817 -0.017969722 0.0988567 0.05236545 0.08223885
-0.017176813 -0.0014370192 0.03786874 0.010697446 -0.06838689 0.039113697 0.095591776 -0.044303734
-0.08834186 -0.092079006 -0.04396216 -0.018363038 -0.034483764 -0.08023229 0.042803798 0.09603938
0.074322954 0.043037876 0.018794887 -0.013125708 -0.06972593 -0.03801577 0.019854128 0.00060462154
1.5699475e-06 -0.04030218 -0.022031728 -0.016185567 -1.6503237e-06 -0.00011479956 -6.1502874e-07 -0.007144787
-5.0940474e-07 -0.04443918 0.02503052 -0.07338473 6.709029e-05 -0.09189243 -0.035192825 0.09430637
-0.00010116265 -7.5038144e-05 0.027856747 -0.07821583 -0.00092638284 -1.13279846e-07 3.7289183e-07 -1.2732387e-06
-0.054530904 -0.08649763 -3.198608e-08 0.07399656 -0.019384813 1.695612e-06 0.04438779 -0.095885366
0.0816292 0.07545038 -0.018018028 0.07958985 0.051257953 0.07333254 0.078729935 0.0008945154

graph_attention.learnable_adj_v f4 [4, 16, 10]
00000000: 0501 89b3 d674 503d 422a 9336 3d07 1abd
00000010: f2b8 a63b ea12 1dbd a489 423d 52b3 a03d
00000020: 4e9b 3037 fb60 f0b9 8a12 0a34 ab9c ce3c
00000030: a842 8fbd 1a02 60bb 252f 3bbd 7b0f bebd
00000040: 19e6 7ebd 3315 50bd 9770 8e3d 0b69 3c3d
00000050: 0c44 67bd 0a93 97bd d00b bb3d bcfb df3a
00000060: c3e8 c53c c325 3e35 7828 59bc 06fb 10bd
00000070: 1fa5 0f3d b340 dabd 25d3 a5bd 5861 c53b
00000080: 9f18 49bb 1e3b 9339 a1db 0c3d 54ce 25bd
00000090: 1da3 1ebd fbcd 3ebd da22 b4bd 8678 a634
000000a0: 2b82 ab3d 1360 ce33 a8e1 153d 8280 efbc
000000b0: 2a2e 36b5 3bfd 8abd 91b7 bc34 c842 813a
000000c0: bdac a2bc 99a5 c23d f2d6 913b d1ce f23c
000000d0: 29c2 dc3d 2485 9e3c 1d67 05b5 ff01 d93c
000000e0: cd6e d93d 26bb d1bd c7c5 79b9 e214 e23c
000000f0: e891 ffba 20a9 9fbd 8863 29bd 08d1 04bd
00000100: e1db 943c ef60 4c3d 1c21 d7b5 4036 a1bd
00000110: 46aa e6b6 de26 8b3b 53da 5fbc 887c 253c
00000120: 7ca2 8ebc f8be 173c 8de3 7e3d c11e f13c
00000130: e9e0 5535 92f8 d03d 978f 6934 1ad7 b9bd
00000140: f085 803d 0b9c c63d 8959 c13c b99d b43d
00000150: c4e3 103d d74e 8e3c 3176 283d b5a9 90bd
00000160: 19d0 3733 79f8 a1bc 1197 803b 6b48 b7bd
00000170: fb7f bd33 85d2 7a3c 2750 55bc f56a 89bc
00000180: b9e8 53bd e224 813b 1d40 a8bd 3fb6 14ba
00000190: 6dc1 8f34 4933 993b 4ea0 aebd 2a40 fe39
000001a0: 4cf8 7cbc 99d1 eeb5 8a11 84bd dd57 96bd
000001b0: 2211 99b6 70e6 5138 9df2 ae3d 315b ca3d
000001c0: 925f 843d 1687 733c e96b 5e3d 7fd0 a13c
000001d0: 8f31 c7bd 476f 833d c75c c335 92b4 17bb
000001e0: c3bf b8bb 4162 9a3d 5d74 733d 4aba 4035
000001f0: b879 59bc d26a 0fbd 83eb 263d 646d 39bd
00000200: ec11 5dbd 877d 35bd c50d a63b dc21 903d
00000210: ff13 e839 e778 573c a7b1 9dbd 0b0c 83bd
00000220: a792 2cbd 0b6d 4ebd cd75 b6bc 5850 39bd
00000230: 7b69 08bc 734b 41bd 9f09 ba3b dea0 6cb2
00000240: 1fd2 f5b1 2399 9e3c 77a9 bcbd be5c 7bbc
00000250: bf92 bf33 4923 c8bd 4cb2 0b3d 7afc 8abd
00000260: 0868 653d f5db da3d ee2b 1a3a bb5b e3bc
00000270: 8997 783d c35f 58bd c12d 65b4 9346 463d
00000280: 0930 c93d bd84 3334 a648 d1b4 5a9d a233
00000290: 0708 d4bd 03e4 e438 6716 99bd 1b5b f0b4
000002a0: 1e8b e1ba 0ce4 4b3d f87b 86bc c3ce 7b3d
000002b0: c3a5 e5ba 5e19 a6b9 5c08 c0bd 152b b23d
000002c0: c2b5 32b3 a6f8 bcbd c53f 8b34 69ba 8f3c
000002d0: a858 3fba 5d7b a03d 860d e63c b895 1135
000002e0: b44c de3d d341 783d 0eca a3b5 27c4 ee32
000002f0: 5352 d33b cabf 2bbc 0225 3f3d bb83 d1bd
00000300: 5c49 0ebd 3c93 c33c eab9 d0bd e30b 0fbc
00000310: 7fe4 0bbd 69dc 113d becb 84b3 6f7d 7bbd
00000320: cd17 9d3d c2fb c0bc b50a 95b5 9009 193c
00000330: 1b86 5fbd 501b 3435 ed23 18bc 74ed deba
00000340: db0f 45bc 8a8c 4e3d 13b5 e8bc 39b1 64bd
00000350: dd02 a73c 2b5d 033c a577 c6b1 ca0b c934
00000360: 9818 d83d 1448 14bc 53ff b9bd c344 d9bd
00000370: 90fd 3c3b 06f3 773c 05bb 42b3 df78 a5bd
00000380: d3ed 94bd 2fde 68bd 07e2 503d e3a6 be39
00000390: 7e08 1bbd 41f7 cbbd b4b4 253d ff1e 0133
000003a0: 9158 dc3d 4a92 a1bd 4cd6 9ebd c486 8d38
000003b0: f1b9 613d 008b 5b3d d269 dc3d 9f5d 4c3d
000003c0: e7c5 b63c 0fae 3ebd 9570 d93d 5d55 b2bc
000003d0: ea6d 503d 1996 913c 69eb 30bd 8c7c ce34
000003e0: f6e6 a3b4 cd5c 8c3d 30af 8f3d a580 573a
000003f0: 98e9 21bd 48f0 973b e590 a13d 83d0 0abd
-6.379745e-08 0.050892673 4.385861e-06 -0.03760456 0.005087965 -0.038348116 0.047494546 0.07846703
1.0526577e-05 -0.00045848623 1.2858996e-07 0.02522119 -0.069951355 -0.003418094 -0.045699257 -0.092802964
-0.062231157 -0.050801467 0.069550686 0.045998614 -0.05646138 -0.07401092 0.091331124 0.0017088572
0.024158841 7.0835466e-07 -0.013254277 -0.035395645 0.03506958 -0.10656872 -0.08096913 0.006023567
-0.0030684841 0.0002808207 0.034389142 -0.040479973 -0.038729776 -0.046583157 -0.0879571 3.1007602e-07
0.08374437 9.610098e-08 0.036592156 -0.029236082 -6.786746e-07 -0.06786581 3.515129e-07 0.0009861821
-0.019857759 0.095042415 0.0044506723 0.029639633 0.107792206 0.019350596 -4.969641e-07 0.02649021
0.10616837 -0.10240774 -0.00023820168 0.027597848 -0.001949844 -0.0779593 -0.041354686 -0.03242591
0.018171253 0.04989713 -1.6028384e-06 -0.078716755 -6.8743566e-06 0.0042465767 -0.013662892 0.010100491
-0.017411463 0.009261839 0.062228728 0.02943361 7.967597e-07 0.10203661 2.1752054e-07 -0.090742305
0.062755466 0.096977316 0.023602264 0.08819146 0.035373464 0.017371578 0.04112834 -0.07063619
4.279727e-08 -0.019771801 0.0039242585 -0.089493595 8.824278e-08 0.015308981 -0.013019598 -0.016774634
-0.051735613 0.0039411644 -0.08215354 -0.0005672909 2.677656e-07 0.004675303 -0.085266694 0.0004849446
-0.015440058 -1.7793383e-06 -0.06448658 -0.07340977 -4.56175e-06 5.0044095e-05 0.085423686 0.09880675
0.06463541 0.01486375 0.05430213 0.019752739 -0.097262494 0.06417709 1.4555634e-06 -0.00231484
-0.005638094 0.07538272 0.059437145 7.179666e-07 -0.013273649 -0.03501398 0.040751945 -0.04527034
-0.05397217 -0.044309165 0.0050675594 0.07037708 0.00044265387 0.013151384 -0.076999 -0.063987814
-0.042132046 -0.05039696 -0.022272969 -0.045242637 -0.00832593 -0.047191095 0.0056774165 -1.3773585e-08
-7.1543265e-09 0.01936013 -0.0921201 -0.015341936 8.9208235e-08 -0.09772355 0.034105584 -0.06786437
0.056007415 0.10686485 0.000588118 -0.027753701 0.06069139 -0.0528257 -2.1343932e-07 0.04840715
0.09823615 1.6718964e-07 -3.8982142e-07 7.572335e-08 -0.103530936 0.00010914358 -0.07474976 -4.4769772e-07
-0.0017207598 0.04977803 -0.016416535 0.06147648 -0.0017520714 -0.00031680887 -0.093765944 0.086996235
-4.1609162e-08 -0.092271134 2.5937166e-07 0.017544942 -0.00072992826 0.0783603 0.02808262 5.423458e-07
0.10854474 0.06060965 -1.2203252e-06 2.7796046e-08 0.006449023 -0.010482738 0.046666153 -0.10230204
-0.03473793 0.023873918 -0.1019171 -0.008730861 -0.034153458 0.03561059 -6.1837895e-08 -0.06139892
0.07670555 -0.023557547 -1.1104481e-06 0.009340659 -0.054571252 6.709497e-07 -0.009285909 -0.0017008022
-0.012027706 0.050426997 -0.028406655 -0.055833075 0.020387108 0.008017818 -5.7761604e-09 3.7447745e-07
0.10551566 -0.009050388 -0.09081902 -0.106088184 0.0028837658 0.015133625 -4.5339238e-08 -0.08079695
-0.07271924 -0.056852516 0.050996806 0.00036363964 -0.037849896 -0.09959269 0.040455535 3.0063344e-08
0.1075908 -0.078892305 -0.07755718 6.748506e-05 0.05510897 0.053599358 0.10762371 0.04989397
0.022311164 -0.046552714 0.106171764 -0.02176922 0.050886072 0.017771767 -0.043193255 3.846111e-07
-3.0529162e-07 0.06853638 0.07015836 0.00082207687 -0.039529413 0.004636798 0.078889646 -0.03389026

graph_attention.qkv_proj_low.weight f4 [48, 16]
00000000: 81cf 893d 3703 203e 04ba 4f3e 4e9b e0bc
00000010: e398 c23d 83fe 38be 5594 a63d af5b 543e
00000020: 4105 013e 1d70 abbd 2729 103e bd99 30be
00000030: 8db4 b3bc a081 61bd 4c53 62be 4134 f4bd
00000040: d8b0 2ebe b118 773d 30c9 abbc 8e06 cf3d
00000050: 12d5 61bd 3ee0 393e 5b7b 203c a0b0 333e
00000060: ccbd 3e3e 0c3e 39be f380 dabd 27a5 b53d
00000070: add5 553e d816 3bbe 44e2 bbba 8a4d 92bd
00000080: b108 693e 5f9f 393e ed0d 203e fad6 d83d
00000090: 71f6 88bc 543c 543e 0aa5 85bd b94f 083c
000000a0: 02aa 5abd d01e 1cbe 5509 85bd 7714 823c
000000b0: 6cd4 42bc 0145 0cbe 3cf6 13bd e9a8 d93c
000000c0: 6c16 39be 2f27 1a3e a3e3 36be 03a5 da3c
000000d0: dcaa 45be 4848 4fbe a091 2abc 24aa 5d3e
000000e0: af4e 563e b422 b23d 8d04 043e 71b8 9bbd
000000f0: ba48 e03d a18d 093e e11a 50be c362 1abe
00000100: 4ab6 e43d 71f7 343c e718 0fbe 6c70 4cbe
00000110: 571a 2e3e c9dc 9f3c 8fad 28ba d340 5ebe
00000120: ec3b 543e 22a1 15be a62b 803d ea8d 5fbb
00000130: 3926 aa3c a9bf cc3d 371c 91bd 9d78 66bd
00000140: ee9d 433e 0cf8 36be 090a bf3d f86e 6dbd
00000150: 66e0 afbd 2d71 1a3e a6e3 b43c 6ce3 54be
00000160: 3ad0 523e 4a4f ddbd 9b20 1d3e 5b13 06bd
00000170: a34c 613e ec04 7d3d bb13 2dbc 6ac5 a43d
00000180: 3dd3 85bc 444f c5bd 557a c43d 5405 093e
00000190: bab3 d3bc d4fe 4a3e 45f4 df38 c904 c4bd
000001a0: c4d8 efbd 1671 fe3d 5224 3fbd 2ab2 c03d
000001b0: 5434 4abe 8a8d 233c c1cc 05be 7ee0 363d
000001c0: 7bba 403e 34d6 a43d ac2d 89bd 04ce 67be
000001d0: 26c7 dabd 05af 0bbe c6a1 343e c2bd fbbd
000001e0: b664 aa3d 3ed9 243e e295 3b3d d2be 1ebe
000001f0: 6e2f 93bc 23b0 7cbd 494d 023e 7010 96bc
00000200: b4dc 9cbc 51f3 523e 3ac6 503d 254b fc3d
00000210: 88cd a0bd e7e9 1b3e 5ec4 563c 7ac6 d7bc
00000220: 11b8 273d 4303 25be f644 5f3b c892 633d
00000230: 81c4 5bbe 1f58 e2bd 47d8 1e3e 8321 783b
00000240: d0ac a7bb 5741 ac3c 3597 c7bd e3b5 3c3e
00000250: 581f bdbc 43fa b9bd caf9 a43d 8590 38be
00000260: 91c7 25bd 31d9 c03c c7f2 1dbd a36d a43d
00000270: bfed 43be 8907 6dbd 274b b7bd d59b 3f3e
00000280: 3312 d03d 8cfa 25be d8d6 a63d de0b 83bc
00000290: d7a2 5a3e eec9 033e fcd6 b9bd ca55 3b3e
000002a0: 574d 0cbd 8b50 4ebd ef65 d93c 8931 3a3e
000002b0: 736a 893d d05b 4ebe 3f59 99bd 87c8 383e
000002c0: 8dd0 b7bd d0ed d4bd 48b0 21be 203d e6bd
000002d0: 7654 04be 983e 603d 1624 473d 7c7c 4e3e
000002e0: 8a5f 0f3e bb86 0c3b 0995 983d 1fc4 a33d
000002f0: b7d8 43be 961b d43d 1bb8 0cbe 427c 133e
00000300: 2c01 cfbd ea73 313d c025 99bb 274a b63d
00000310: 0a7e 133d 265d 31be f4a5 583d 1c42 033e
00000320: 72ea e9bd e08c 10be 0996 e6bd ef01 7cbd
00000330: 597d 97bc 3bde 913c de10 16bc e8d4 55bd
00000340: 351f 163e e6bc 003c f463 eebd 30cc 62bd
00000350: e8b5 05be 50bc 98bd 4db9 30be 2140 283d
00000360: fef7 33be 8145 a53d 590b e33d 18fc ffbd
00000370: 2382 e7bd 9d7e 26be 6a12 773d facc 0f3d
00000380: 4cb9 f6bd 7e4a 0f3e 97e0 a73d 9620 40be
00000390: 38e0 e6bb 4a89 b3bd 449e abbc 98ff f33d
000003a0: 95d5 b1bc 4cd6 12be e4f1 eb3d f63f 27be
000003b0: 00f2 97bd 71a8 9d3d 5a4c 403e 1c65 4b3e
000003c0: 273d 49bd 8659 a93d 2505 3bbe 1c46 f6bc
000003d0: b6c2 8dbd 0134 953d 89df d8bd eca0 3c3d
000003e0: 6e54 f83d 1dd2 233e f1fb 71bc f029 273e
000003f0: dd17 52be 7c05 4fbd 62e9 b83d e33e 423d
0.06729031 0.15626226 0.20285803 -0.027417805 0.09501817 -0.18065839 0.08133761 0.207381
0.1259966 -0.08370993 0.14078198 -0.17246147 -0.02193668 -0.05505526 -0.22102088 -0.11924029
-0.17059648 0.060326282 -0.020969957 0.10108672 -0.05513484 0.18151948 0.009795035 0.17547846
0.1862709 -0.18090075 -0.10669126 0.08869391 0.20882292 -0.18270433 -0.00143344 -0.07143696
0.22757222 0.18127201 0.15630312 0.105878785 -0.016719075 0.20726138 -0.06525619 0.008319789
-0.05338479 -0.15246129 -0.064959206 0.015878899 -0.011891466 -0.13698198 -0.0361235 0.0265698
-0.1807496 0.1505401 -0.17860274 0.026690012 -0.19303459 -0.20242417 -0.010410696 0.21646935
0.20928453 0.08698025 0.12892361 -0.07603539 0.109513715 0.13432933 -0.20322753 -0.15076737
0.111675814 0.011045323 -0.13974343 -0.1996476 0.17002235 0.019514458 -0.00064345537 -0.21704416
0.20725983 -0.14612249 0.06258325 -0.0034111687 0.02077018 0.09997494 -0.0708546 -0.05626737
0.19103214 -0.1786806 0.09328086 -0.057967156 -0.085877225 0.15082236 0.022081207 -0.2078988
0.20587245 -0.10806139 0.15344469 -0.032733303 0.22001891 0.061772272 -0.010563786 0.08045466
-0.016336078 -0.09634259 0.095936455 0.13380939 -0.025842536 0.19823772 0.000106789674 -0.09571225
-0.11711267 0.12423913 -0.046665497 0.09408982 -0.19746524 0.009982476 -0.13066389 0.044647686
0.18821137 0.080486685 -0.06698164 -0.22637182 -0.10682516 -0.13640983 0.17639837 -0.12292053
0.0831999 0.16098496 0.045797236 -0.1550248 -0.017966952 -0.061691415 0.12724794 -0.018318385
-0.019148208 0.2060063 0.050970294 0.1231902 -0.07851702 0.15225945 0.013108341 -0.026339758
0.040947024 -0.16114525 0.0034068204 0.055559903 -0.21461679 -0.11051964 0.15512191 0.0037861771
-0.0051170364 0.02102725 -0.09745637 0.1842876 -0.023086235 -0.09080937 0.08055456 -0.1802388
-0.040473524 0.023541065 -0.03856161 0.08028724 -0.19133662 -0.057868514 -0.08949881 0.18711789
0.10159721 -0.16208857 0.08146447 -0.01599687 0.21351181 0.12869999 -0.09074208 0.18294445
-0.034253445 -0.05036978 0.026537864 0.18182959 0.06709757 -0.20152211 -0.074877255 0.18045245
-0.08975325 -0.10396922 -0.15789902 -0.112421274 -0.12922844 0.054747194 0.0486184 0.20164675
0.14001289 0.002144261 0.07450301 0.079963915 -0.19125639 0.10356824 -0.13742106 0.1440287
-0.101076454 0.043323435 -0.0046736896 0.08900862 0.036008872 -0.1732069 0.05289264 0.12818187
-0.1142167 -0.1411624 -0.11259086 -0.06152528 -0.018492388 0.017806163 -0.009159295 -0.052204996
0.14660342 0.007857537 -0.11640158 -0.05537051 -0.13057673 -0.07457793 -0.17258187 0.041076783
-0.1757507 0.080698974 0.11086149 -0.12499255 -0.113041185 -0.16259237 0.060320295 0.03510759
-0.12047061 0.1399326 0.08197134 -0.1876243 -0.007045772 -0.0876642 -0.02094949 0.11913985
-0.02170829 -0.1433956 0.11520746 -0.16332993 -0.07419205 0.07698143 0.18779126 0.19862789
-0.049130585 0.08269028 -0.18263681 -0.030062728 -0.06921904 0.072853096 -0.10589511 0.046051905
0.12125479 0.1599812 -0.01476954 0.16324592 -0.20516916 -0.05054234 0.09028889 0.047423255

graph_attention.qkv_proj_low.bias f4 [48]
00000000: 78e5 fb3d e562 313e e0f0 333e b5e4 26be
00000010: 8aad 673c 11b7 4abe 8bb7 10be 86f5 243e
00000020: 3174 3cbe cd59 e9bd a924 e03d 6aeb 5d3e
00000030: afdd 67be f2c6 13be 7747 a5bd 850d 3f3e
00000040: 37c4 063e 671d 013e 9079 183e acb1 5bbd
00000050: c2b8 253e 4750 98bb 99d3 cb3c c41d 79bd
00000060: 4015 c53d 42db c53d 6ca2 babc 49c6 4f3e
00000070: cc9e 5cbd c1de 683d d514 5b3e c6b0 033e
00000080: 51e5 abbd 7826 cabd 607d 283d 5a92 8dbb
00000090: ee4f 4a3c 7734 193e 7643 a23d b81f 07be
000000a0: 9c7b 42be 96d0 5d3e 767e e5bc 29d4 bbbd
000000b0: e30e 2cbe 104d 633e 1570 e93d b0eb 13be
0.12299627 0.17322882 0.17572355 -0.16298182 0.014140496 -0.19796397 -0.14132516 0.16109285
-0.18403699 -0.11394081 0.10944492 0.21671835 -0.2264316 -0.1443136 -0.080702715 0.18657501
0.13160788 0.12608872 0.14890122 -0.053636238 0.16183761 -0.0046482417 0.024881171 -0.060819402
0.09623194 0.09660961 -0.022782527 0.20290484 -0.053862378 0.05685306 0.21394666 0.12860402
-0.08393348 -0.098706186 0.041135192 -0.004320425 0.012348158 0.1496142 0.079230234 -0.13195693
-0.18992466 0.216616 -0.028014403 -0.09171326 -0.16802554 0.22197366 0.11398331 -0.14445376

graph_attention.qkv_proj_high.weight f4 [48, 48]
00000000: 6698 b7bd f928 ab3d 85d0 503d 59d4 9cbc
00000010: f4d8 babd 145f 833d 2aff 89bd d769 523d
00000020: 6caa c9bd 45b3 bdbd 88d0 d8bd 53c4 b33d
00000030: 2ec1 c83d 27dc b1bd 6054 a03d cca8 5fbd
00000040: 2b36 c3bd 335b 343d 4b2a 753d d2f9 463d
00000050: 2eaa 983c 8cac d53d 40a5 c0bd 0c89 363d
00000060: 23c9 ebbc 0613 7c3a ca31 743d fa0a a3bd
00000070: 6642 253d dd4a 8bbc dca3 743d e9bd 23bb
00000080: e3db 463d 08b2 ca3d 9c4a 12bd 6e68 dabd
00000090: 1d3c d43d e736 49bd 8cf8 963c 7651 693d
000000a0: 9c47 a0bc fb62 b13d 9497 913d 54a3 92bc
000000b0: 78c1 b03c a0dc d93b 9f8b db3d abb8 873d
000000c0: 0483 89bd f069 fa3b d66b 833d 29b8 a63d
000000d0: 931d 1b3d 4856 373d 9de7 8abc b4c5 f33a
000000e0: e86a 8fbd dbdf ac3d dacd b63d 2436 53bd
000000f0: fcb0 bbbd 97a4 a53d e85c bbbd 52c1 6a3d
00000100: 9411 d1bd 40a9 5dbd 7963 3fbd 5a43 bb3d
00000110: 7262 84bc 87af c23d 05ff f03c 4faa d03d
00000120: c31e 8a3d de8c 8a3d ff0e a83d 67db 05bd
00000130: 6beb e2bc b910 fb3c fda5 b33d 18a1 efbc
00000140: 1900 a2bd 29ba a5bd 03a8 40bd f981 6a3c
00000150: 2613 64bc b0b9 b2bc ff8d 4dbd 4e39 c43c
00000160: a745 c3bd 9809 e23d e63f 51bc 1f08 6f3c
00000170: b49b e23c 666f eebc 20a8 ae3d 4a2d 43bb
00000180: e391 623c 4f30 dabd 71c8 a33c d44a 163d
00000190: cf88 9b3c 8b85 3cbc 69df b43d 3de0 c43d
000001a0: 5c54 a13d 20cc b5bc 634e d43c 9374 a0bd
000001b0: f0e3 b9bd bda5 abbc 28c4 283c 7702 82bd
000001c0: f362 c5bd 1b91 3f3d 8b00 333d 06d2 96bd
000001d0: 8e0b a63d 7a06 b5bd 95a8 b53d cc6a 7e3d
000001e0: cd88 13bd 764e d23d 95a8 7bbd b5d7 62bd
000001f0: 808f b63d 89a0 d9bc 0b32 2ebd ef85 6e3c
00000200: 05ca 9dbc c541 903d b511 d23d 9475 4d3d
00000210: 8ab4 bf3c 58a4 023d cfa7 41bb e350 4e3c
00000220: e9c5 9cba 032b af3d 04de 933d e741 40bc
00000230: b17c 293d 441a ee3b 48c3 373d 224a ba3d
00000240: 5af2 7dbd d714 2c3c aed2 8dbc 39fc d7bd
00000250: 944a d1bd 2a68 42bc aae2 853d 5512 82bd
00000260: 9376 df3c d23e 553d cfea 94bd 6587 023d
00000270: 40bb 7a3c 869c babd fe85 78bb 0344 afbd
00000280: 8fd2 b63d 2f88 1a3d 1211 1e3d 07ba 893d
00000290: 2d36 9e3d 3314 d83d bf9f 193d 8ad0 89bd
000002a0: 63cb bd3d 9448 923c 74c1 00bd 0a9d 0fbd
000002b0: f6de b53d a633 a43c 2fc1 883d 9de7 873b
000002c0: ca5e b63d 1ab8 8dbd fac5 d13c 0d9b a63c
000002d0: be64 61bb f2e7 ad3d 971d 503c 44b1 993b
000002e0: 728c 8d3d ff93 9cbb d48c 82ba d6f7 93bd
000002f0: 3dfb 273b fbcd 03bd 3f55 683d c4e2 a73d
00000300: 5ef8 cdbd d72b 81bd 6ab8 023e 70af 82bd
00000310: a863 093e aaa5 153e d67b 31bd b26b abbd
00000320: 3a5b 253d 9b31 1b3d 71cd f53d 5047 253c
00000330: 772f 4c3d 3836 c4bd 25b6 023b f1d1 763c
00000340: 4ff0 b63d 8d7c a6bd 103a b63a ed72 80bd
00000350: 5c4c 89bd ee9c 963d 055e f23a c02f 183d
00000360: 790c 4d3c 37e1 60bc 448f 4d3c c64c a33d
00000370: d97f 9ebd 01c7 8d3c 63b2 343d 75f5 4e3d
00000380: ef6d a5bd d740 b53d a5df 8bbd eaf1 3a3d
00000390: 35e0 b83d 8531 763a d6d6 ac3c ab74 c2bd
000003a0: d9e7 93bd 37e7 14bd c51e cfbd 627f e3bc
000003b0: 1cc0 8a3d 66fb 4c3b 783e fe3d 9373 bcbd
000003c0: c5a8 4b3d 9081 a63d 2409 e73d 3e44 41bd
000003d0: 6f90 babd df87 b4bc dcee 833d 81d7 cc3c
000003e0: 4ad4 bb3d ba31 9dbd 663f 6ebd 2438 2e3d
000003f0: 56c9 b13c c3d6 76bd 2923 bd3d bcc3 34bd
-0.089646146 0.08357424 0.05098011 -0.019144224 -0.09123412 0.06414619 -0.06738122 0.051370468
-0.098469585 -0.092627086 -0.10586649 0.0877768 0.09802471 -0.08684569 0.07828593 -0.054604337
-0.09531816 0.044032287 0.059854787 0.04857809 0.018635835 0.10433301 -0.09406519 0.04456429
-0.028782433 0.0009615872 0.059617795 -0.07961078 0.040346526 -0.017003471 0.05972658 -0.0024985021
0.048549544 0.09897238 -0.035715684 -0.1066445 0.10363028 -0.049124625 0.018429063 0.056962453
-0.019565396 0.08661457 0.07108989 -0.017900147 0.021576628 0.006648615 0.1071999 0.066270195
-0.06714442 0.0076420233 0.064170524 0.081405945 0.03787 0.04476002 -0.016956145 0.0018598349
-0.070028126 0.084411345 0.08925982 -0.051565304 -0.091646165 0.08088034 -0.0914858 0.05731327
-0.10208431 -0.054116488 -0.046725724 0.09143706 -0.016160224 0.095061354 0.029418478 0.10188734
0.067441486 0.067651495 0.08205985 -0.03267994 -0.027700147 0.030647622 0.08771894 -0.02925162
-0.07910175 -0.08092148 -0.04703523 0.014313214 -0.013920581 -0.021817058 -0.050184246 0.023953106
-0.095347695 0.11036986 -0.012771582 0.014589339 0.027662136 -0.029105853 0.08528161 -0.0029781633
0.013828727 -0.106537454 0.019993039 0.036692455 0.018986134 -0.0115064485 0.088316746 0.096130826
0.078774184 -0.022192061 0.025916284 -0.07834735 -0.09076679 -0.020953054 0.010300674 -0.063481264
-0.09638014 0.046769243 0.04370169 -0.073642775 0.08107673 -0.08839126 0.08870045 0.06211357
-0.036019135 0.102688715 -0.06144007 -0.055381496 0.08914089 -0.026565807 -0.042528193 0.014558299
-0.01926137 0.070437945 0.102572836 0.05016096 0.023401517 0.03189501 -0.0029549485 0.012592527
-0.0011960837 0.08553126 0.072200805 -0.011734462 0.04137868 0.0072663147 0.04486397 0.09096171
-0.061998703 0.0105030155 -0.017312374 -0.105461545 -0.10219303 -0.011865655 0.06537373 -0.06351153
0.02727822 0.052061863 -0.07271349 0.031867404 0.015303433 -0.09111886 -0.0037921662 -0.08557894
0.089268796 0.03772753 0.0385905 0.06724935 0.07725177 0.10550728 0.03750586 -0.06729229
0.092673086 0.017856874 -0.03143449 -0.035061873 0.08880417 0.02004416 0.06677472 0.0041474835
0.08904798 -0.0691988 0.025607098 0.020337606 -0.0034392322 0.08491506 0.012702367 0.004690321
0.069115534 -0.0047783847 -0.0009960183 -0.07225005 0.0025631927 -0.03217886 0.056721922 0.08197549
-0.10057138 -0.0630719 0.12765661 -0.06381118 0.13416922 0.14613977 -0.04333099 -0.083701506
0.040370204 0.037889104 0.120020755 0.010087803 0.049849954 -0.09580654 0.0019944992 0.015064702
0.08932554 -0.08129225 0.0013902802 -0.0627192 -0.067040175 0.07354151 0.0018491155 0.037154913
0.012515181 -0.01372557 0.012546364 0.07973628 -0.07739229 0.017306807 0.044115435 0.050527055
-0.08077609 0.08850258 -0.06829766 0.045640863 0.09027139 0.0009391534 0.021098536 -0.09494909
-0.07221956 -0.036353316 -0.10113291 -0.027770702 0.06774923 0.0031277775 0.12414259 -0.092017315
0.049721498 0.08130181 0.1128104 -0.04718422 -0.0910958 -0.022037445 0.06442043 0.025005104
0.0917135 -0.076755 -0.05816593 0.04253401 0.02170245 -0.060263406 0.09235222 -0.04413198

graph_attention.qkv_proj_high.bias f4 [48]
00000000: 4897 a9bd 3853 283d 717f f43d 63b0 8bbd
00000010: 133c c23c a5df ccbd 9613 9d3d 554b 243d
00000020: 2b0c 02bd 915a 323d deb2 0e3d e0a1 7e3d
00000030: a6f1 2e3b f43a 0fbc ed35 423d 2e66 d33c
00000040: 9977 99bd 29b5 11bd 9bc7 443d faf8 50bd
00000050: 526f 6e3d 67fb 14bd e589 a93d 36fa 4ebd
00000060: 6254 423d 1dc6 88bc ddc2 443d 1202 f33c
00000070: ac67 053d 3e1f 2b3c 12b9 443d 35ed a4bc
00000080: 47e5 3fbd 1253 373d ab93 c7bd 6578 c63b
00000090: 07d1 683d 8640 e1bd 2f20 17bb da43 273c
000000a0: 12cc e1bd 448e e83d b97f ab3b 2177 08be
000000b0: a17b 38bd c3f0 e53c 3e31 d33d 3c1d 52bd
-0.08280808 0.04109499 0.1193837 -0.068207525 0.023710286 -0.10003594 0.07669751 0.040110905
-0.031749886 0.043543402 0.03483855 0.062166095 0.0026694327 -0.008742083 0.04741471 0.025805559
-0.074935146 -0.03557316 0.04804192 -0.051018693 0.058211632 -0.03637257 0.082782544 -0.05053159
0.047443755 -0.01669603 0.0480374 0.029664073 0.032569572 0.01044446 0.04802806 -0.02013264
-0.046849515 0.044756956 -0.09744962 0.0060568326 0.05683997 -0.10998635 -0.0023059954 0.010209048
-0.110252514 0.1135526 0.0052337316 -0.13326694 -0.045039777 0.028068906 0.103121266 -0.05129741

graph_attention.out_proj_low.weight f4 [16, 16]
00000000: 5a4d 553e 3d6d c5bd 17d3 49be 2bf1 84bd
00000010: 5dad 1cbe aa3c 9f3d ad42 1e3e 25a8 4ebe
00000020: 9a07 28be ee69 f63d 1500 2fbd 81a9 563e
00000030: 06f1 513e 7e14 21be 67c8 fb3d 3ff0 69be
00000040: e9aa c73d d824 0bbe 894b b2bb e8d6 653e
00000050: 2acd 193d e159 07be 64a3 cd3d 3056 2abd
00000060: cda9 573e a2d2 27be 7536 02bd 627f 3bbe
00000070: 0702 02be 956b 89bd bc2d 17be 37cf 22be
00000080: c9a3 74bd 1321 07be 17d8 0fbe 7270 d73b
00000090: 330f 39be d7d7 0c3e 1fbb 213e 77e8 563e
000000a0: 73b5 943d ab2d f3bc a29d 1dbd 90bb d6bd
000000b0: 50d2 193e 961e 0c3e 5d9a 1f3e af16 51bd
000000c0: a247 26be 517c a93d 888b 663e 684e 37bd
000000d0: d748 323e 48f5 383e 78a4 cb3d f7f6 2ebd
000000e0: f673 b1bd b1ee 5fbd 92de f2bc 9d42 40bd
000000f0: 3fc8 63be 0535 25be 0de2 abbd 0b40 2a3e
00000100: a03c c63d c62f 58be 0d2a 24be 8136 10be
00000110: fc92 5c3e ed3a 8b3d b511 443e 8ec0 32be
00000120: 42dc 593e 4bfc 343e 3b5e 543c df54 cebd
00000130: cc83 a53d 9b69 fcbd daa8 babd 52f1 a83d
00000140: bbd9 3dbe cc09 5f3d 8ee4 5dbc 9e87 65bb
00000150: bbd0 be3b 39ae 6f3d 64dd 0cbe e5c7 cb3d
00000160: 944f 62be 2e64 b93d 1584 46be d5e3 613e
00000170: 2a84 4c3d 6b6c 903d 9c3f 5e3d 2e80 313d
00000180: 4fbd c1bd 9e68 60be dc63 113e f8df 183e
00000190: 2637 26bd ff23 613c f822 66bc 6879 3fbd
000001a0: a563 1e3e 3317 03be 9a0d 5fbe fe29 28bd
000001b0: b9ba f8bd b532 2bbe 4f93 68bd 0721 a5b9
000001c0: b164 253e ab43 fe3d c0ea 3c3e 9b10 2d3e
000001d0: 268d ab3d 162d 33bc e84a a4bc cbb4 40be
000001e0: 67d6 a93c f153 4dbd 6245 64bd df83 3f3e
000001f0: b6dc d53d c6c5 1e3e 2ba0 193e 2299 0bbe
00000200: 8c4b 953d 7f84 10bd fe0d a43d 7d8c 023e
00000210: fb81 74bd 3827 343e 4927 273c 986c 2fbd
00000220: 413d 143e 8a37 2c3e cc66 8cbd e01d 033e
00000230: 5d45 38bd a00e b1bb fdec 24be dd6c d2bd
00000240: 6fb5 fa3c 7297 5fbd 2054 81bc 7f2f 643d
00000250: cbf3 d4bd 6bd6 0a3e c097 733e f8bf 473e
00000260: 63d4 4d3e 8afd 81bd be67 063b a121 9abd
00000270: 101f e9bd c794 5bbd 53ec 103e af75 62be
00000280: f182 09be a12b 003e 2b02 0f3e 07e2 89bd
00000290: a9dc 95bd ff88 adbc e1fd 3c3e ad5d 383e
000002a0: 9b20 dfbd 28c3 db3c 841e 6ebe ee53 1abe
000002b0: ef25 cabc 28d3 b0bd 3df0 fcbd 74ec 3f3e
000002c0: 091d f23d 96ad 813c c675 90bd 5ea9 a93b
000002d0: 7241 483e 3465 35bd 8a48 7f3c f508 8b3d
000002e0: be11 0d3e 1bd0 133e 0dad e0bd dc70 b23d
000002f0: 30e2 0a3d 79ca 083d 2f7a 49be 6832 603e
00000300: e3cc d43d d316 133d c0e3 c63d b169 5bbd
00000310: 64c2 30be 9124 6bbd 04a3 4ebe 4c5a 4d3e
00000320: beea bf3d 9a09 5c3d 9ed4 22be 6dfe 12be
00000330: 4e0c 003e 3096 47be f2e5 143d 0e34 353e
00000340: b07e 4ebe ee21 213e 2f2c 50be 0b6c 34bd
00000350: 316c 2e3e 2a88 2d3e cae6 4a3e 41dd 343e
00000360: 43fc 62be f6cf 483d e4f5 49be 1f12 f53d
00000370: cb64 8e3d 9ed8 3b3e 29d8 823d 98f9 1c3e
00000380: c9a6 4bbc 7d3b 43be 3f28 1fbe 21a1 c2bb
00000390: 8adc 5ebe e053 513e 0645 0abe b0b7 2dbe
000003a0: 37ea 683e 9197 10be 7cc2 d2bd c771 283b
000003b0: 7e25 903d e2cb b4bd 2b48 ed3d b009 1bbe
000003c0: 4a16 453d 8abe 62be 15ac 63be 9e84 bf3d
000003d0: 394e 013e e048 e7bd 0ef8 9b3d 7fd4 8dbd
000003e0: 114b 043e 0486 d13c a1f5 3cbd 4f1e 303d
000003f0: c1ea 5dbe fb63 0c3e ebff 5b3e 41f7 503e
0.20830289 -0.09639976 -0.1970943 -0.06491312 -0.15300508 0.077752426 0.15455122 -0.2018133
-0.1640915 0.12031923 -0.042724688 0.20963098 0.205021 -0.15730473 0.12294083 -0.22845553
0.097493954 -0.13588274 -0.0054411334 0.22445261 0.037549175 -0.1321788 0.1004093 -0.0415861
0.21060868 -0.16388944 -0.031790216 -0.18310311 -0.12696086 -0.06709973 -0.1476354 -0.15899359
-0.05972651 -0.1319621 -0.14047275 0.006574684 -0.18072204 0.13754211 0.15794037 0.20987116
0.07261171 -0.029684862 -0.03848041 -0.104849935 0.15021634 0.13683543 0.15586229 -0.051047023
-0.16238263 0.082756646 0.22514164 -0.04475251 0.17410599 0.18062317 0.09943479 -0.042715993
-0.08664696 -0.054670993 -0.029647145 -0.046938527 -0.22244357 -0.16133507 -0.08392725 0.16625993
0.09679532 -0.21111974 -0.16031666 -0.14083292 0.21540445 0.067983486 0.1914738 -0.17456266
0.21275428 0.17674367 0.012961919 -0.100747816 0.08081779 -0.1232483 -0.09114237 0.08249153
-0.18540089 0.054452702 -0.013543261 -0.003502346 0.0058232225 0.05851576 -0.13756329 0.09950236
-0.22100669 0.09052311 -0.19386323 0.22059567 0.04993073 0.07051929 0.05425988 0.043335132
-0.09459936 -0.21914908 0.1419825 0.14929187 -0.040579937 0.013741492 -0.014046423 -0.04674664
0.15467699 -0.12801819 -0.21782532 -0.041055672 -0.121449895 -0.16718562 -0.05678111 -0.0003149586
0.16151692 0.124152504 0.18448925 0.16900866 0.08376531 -0.010936042 -0.02005525 -0.18818967
0.020732118 -0.05012888 -0.05573023 0.18702649 0.10442488 0.15505132 0.15002505 -0.13632634
0.072898 -0.035282608 0.08010481 0.12748905 -0.05969427 0.17593086 0.010202237 -0.042828172
0.14476492 0.16818061 -0.068555444 0.12804365 -0.044988025 -0.0054033548 -0.16106029 -0.1027467
0.030604092 -0.05458779 -0.015787184 0.05570936 -0.10398062 0.13558356 0.23788357 0.19506824
0.2010055 -0.06347187 0.0020508613 -0.075259455 -0.11382878 -0.053608682 0.1415265 -0.22115205
-0.13428856 0.12516643 0.13965671 -0.067325644 -0.07317478 -0.021183489 0.18456222 0.18004484
-0.10894891 0.026826456 -0.23253828 -0.15071079 -0.024676291 -0.08634025 -0.12350509 0.18742543
0.11821944 0.015829843 -0.070537135 0.005177661 0.19556215 -0.044285968 0.0155812595 0.06788818
0.137763 0.14434855 -0.10970507 0.087129325 0.033907115 0.033396218 -0.19675516 0.21894228
0.103906415 0.03591044 0.097114086 -0.053567592 -0.17261654 -0.05740792 -0.20179373 0.20053977
0.093709454 0.053720094 -0.1590142 -0.14354868 0.12504694 -0.19490886 0.036352105 0.17695639
-0.20165515 0.157356 -0.20329355 -0.04404835 0.17033459 0.16946474 0.19814602 0.17662527
-0.22166543 0.049026452 -0.19722706 0.11966347 0.069528185 0.18344352 0.063888855 0.15329587
-0.012429901 -0.19065662 -0.15542696 -0.005939618 -0.21763816 0.20442152 -0.13502893 -0.16964602
0.22745596 -0.14120318 -0.10291001 0.0025702582 0.07038401 -0.0882795 0.115860306 -0.15140414
0.04811696 -0.22142997 -0.22233613 0.093514666 0.12627496 -0.11293197 0.07615672 -0.06925296
0.1291926 0.025576599 -0.046132687 0.042997655 -0.21671583 0.13710015 0.21484344 0.2040682
