optim_results/models/trial_14_best.pt (torch, 489792 bytes, 70 tensors)

feature_extractor.depthwise.weight f4 [1, 1, 5]
000000 17 da b2 3e 46 90 c0 3e 3d 04 ce bd a3 be d0 3e
       0.34932014 0.37610072 -0.10059402 0.40770444
000010 7d c1 b1 bd
       -0.08679483

feature_extractor.pointwise.weight f4 [16, 1, 1]
000000 5e 75 ee be ec ed 10 3f d6 3e 5c 3f 45 62 36 bf
       -0.4657392 0.5661304 0.8603338 -0.712437
000010 b9 15 59 3f 0a 49 2d 3e dd b5 37 3f fd de 00 3e
       0.8479877 0.16922393 0.71761876 0.12585063
000020 df 10 ec 3e af 52 0b be 0f ec 3f 3f 74 ee 09 3e
       0.46106622 -0.1360576 0.7496957 0.13469869
000030 c3 35 e4 be ad 06 70 3e 22 15 e1 be 75 09 da bd
       -0.44572267 0.23440047 -0.43961436 -0.10646335

feature_extractor.pointwise.bias f4 [16]
000000 39 26 c5 be ac 66 24 3f db a6 44 bf 9b 38 e1 be
       -0.38505724 0.64219165 -0.768171 -0.439885
000010 4f d1 85 be d3 81 14 bf 3e 85 97 3d e3 69 77 bf
       -0.26136252 -0.58010596 0.07398461 -0.96645945
000020 04 c4 61 3f 0e 09 54 bf 72 36 40 3f 20 1c 15 3e
       0.8818972 -0.82826316 0.75083077 0.1456151
000030 56 78 9b be 7f c6 18 3f e5 52 0a 3e 45 69 49 3f
       -0.30365247 0.5967788 0.13508184 0.78676254

feature_extractor.bn2.weight f4 [16]
000000 48 de 7f 3f e5 3b 7d 3f 9e 45 7f 3f f4 80 7f 3f
       0.9994855 0.98919517 0.997156 0.9980614
000010 a4 da 7f 3f 76 d7 7e 3f e4 c1 7e 3f 72 09 80 3f
       0.99942994 0.9954752 0.99514604 1.0002882
000020 56 a9 7f 3f e0 dc 7f 3f a7 5a 7f 3f 37 c4 7e 3f
       0.9986776 0.99946404 0.997477 0.9951815
000030 0c 08 80 3f 3b e1 7f 3f aa 26 7f 3f f2 d4 7e 3f
       1.0002456 0.9995305 0.9966837 0.9954368

feature_extractor.bn2.bias f4 [16]
000000 0d 90 27 38 d0 57 47 bc 07 fc 8b 3b fc ec 0e bb
       3.995006e-05 -0.012166932 0.0042719874 -0.0021808734
000010 3d 1a cb bb 62 04 04 bc f9 39 cf bb 51 a0 9a bb
       -0.006198196 -0.008057686 -0.0063240496 -0.0047188182
000020 60 e4 15 bb 25 69 f4 b6 1f 96 ac bb 2c 42 e7 bb
       -0.0022871718 -7.284007e-06 -0.0052669193 -0.007057449
000030 16 82 6e b7 c7 53 05 bb f9 37 59 bb a1 b7 80 bb
       -1.4216193e-05 -0.0020344125 -0.0033144935 -0.0039281403

feature_extractor.bn2.running_mean f4 [16]
000000 c4 e7 0b bf b8 5f 56 3f c9 10 f3 be ad 76 2f bf
       -0.5465052 0.83739805 -0.47473744 -0.6854046
000010 97 41 dc 3c 99 de 05 bf a3 c8 a4 3e 75 73 6c bf
       0.026886744 -0.5229278 0.32184324 -0.92363673
000020 66 38 85 3f 41 2c 60 bf 1f 15 81 3f 02 da 46 3e
       1.0407836 -0.87567526 1.0084571 0.19419101
000030 af b6 ea be 31 ca 2d 3f 5e 53 5f bc 94 3b 40 3f
       -0.45842502 0.67886645 -0.013630716 0.7509091

feature_extractor.bn2.running_var f4 [16]
000000 82 6f 19 3e ac 51 61 3e e8 08 01 3f 5c 80 b1 3e
       0.14983943 0.22003812 0.50404215 0.34668243
000010 1f c4 fa 3e d1 cd b2 3c 83 11 b4 3e a8 62 53 3c
       0.48977754 0.021826657 0.3516961 0.012901939
000020 7c 6e 16 3e f3 9e 6e 3c f6 5f c4 3e 71 a8 6d 3c
       0.14690584 0.014564264 0.38354462 0.014505492
000030 de c5 0c 3e 42 1a 23 3d ee 03 09 3e ef 11 21 3c
       0.13747355 0.039819963 0.13380405 0.009830936

feature_projection_low.weight f4 [4, 320]
000000 4d 11 c2 3b 3e 29 8e bc 53 ff 81 3c 36 88 6f bc
       0.0059224726 -0.01735365 0.015868818 -0.014619878
000010 cf e1 ce 3c ce c3 4e 3d 1e fa 0a 3d fb be b5 bc
       0.025254158 0.050479703 0.033929937 -0.022185793
000020 ab 2b 0b 3d 66 3d 41 3c 9f 6b f1 3c cb 92 0c bd
       0.033977192 0.011794424 0.029470263 -0.03431968
000030 af 5a 65 bd 19 2a b8 bc d2 8f 3c bd a3 bf 2f 3d
       -0.055994686 -0.022481011 -0.046035595 0.04290737
000040 83 41 3b 3c 48 53 91 3c 44 22 2c 3c a6 f9 91 bb
       0.011429193 0.017739907 0.010506216 -0.0044548092
000050 56 4b 38 3d 10 bd 2b bd 8c b9 a5 3b cf ef 23 bd
       0.04499372 -0.04192835 0.0050575193 -0.04002362
000060 90 10 64 3c 10 85 ab bc 04 9f 4a 3c 6d 70 87 bc
       0.013919964 -0.020937473 0.012367014 -0.016533101
000070 1c 4a 26 3d 99 9e 1d bd 5d 3b 16 bd 98 05 08 bd
       0.04059802 -0.03848133 -0.036677707 -0.03320846
000080 64 34 49 3d 61 d1 9e 3c fd 68 5a 3d cd 92 3b bd
       0.04912223 0.019386949 0.05332278 -0.045794297
000090 80 c1 66 bd e3 4c 2b bd d6 97 10 bd 58 e8 d3 3c
       -0.05633688 -0.04182137 -0.035301052 0.025867626
0000a0 a7 37 c3 3c c5 5f 39 3d 6b 8d ed bc 65 91 1e bd
       0.023830248 0.04525735 -0.028998097 -0.038712878
0000b0 bd 84 d4 3c d7 76 d0 bc dd 4b f1 3c 15 e3 94 bc
       0.0259422 -0.025447292 0.02945512 -0.018174687
0000c0 76 f5 d9 3c 57 9e 46 bd 92 a6 01 bd 02 0b 86 3c
       0.026606303 -0.04849085 -0.031652994 0.01636267
0000d0 76 44 38 3c 3c 0f 60 bc 1b 49 08 3d 70 7a 1c 3d
       0.011246791 -0.013675507 0.033272844 0.038202703
0000e0 28 d2 24 bd b8 af de bc 0b 82 59 3d 4b 4a 85 bc
       -0.040239483 -0.027183399 0.053102534 -0.016270777
0000f0 92 3a a1 bc d8 dd 59 bd af c4 01 bd f0 32 65 3c
       -0.019681249 -0.053190082 -0.031681713 0.013989195
000100 e0 a2 de bb 5d ae 25 bd b2 8d 31 3b 64 f0 12 bd
       -0.0067943186 -0.04044949 0.0027092514 -0.035873786
000110 f1 47 3a bd 20 b6 f3 bc 79 76 44 bd 52 6d 0f bd
       -0.045478765 -0.02974993 -0.047964547 -0.035016365
000120 bf 46 60 3d 9c 7f 1b 3c e0 06 74 3c e3 9b 62 bd
       0.05475497 0.009490874 0.014894217 -0.055324446
000130 cc 1f 27 bd 22 51 c3 bc fd d0 cb 3a e9 a0 56 bd
       -0.04080181 -0.023842398 0.0015549954 -0.05239955
000140 87 b4 8f bc 13 f6 10 bd ef f0 00 39 01 31 b1 bc
       -0.017542137 -0.035390925 0.00012296786 -0.021629812
000150 2f b9 fa bb c7 6f 27 bd f6 fe 32 bd bd 01 1b bd
       -0.00765147 -0.040878084 -0.04370018 -0.037843455
000160 46 b4 cf bc c5 ad 4b bd ac b8 30 3d a1 eb 44 bc
       -0.025354516 -0.049726266 0.043144867 -0.012019069
000170 03 59 40 3d 4e 25 89 3c b9 7c 3d bd 63 23 23 3d
       0.04695989 0.016741421 -0.046261523 0.03982867
000180 23 ac 82 bc b1 6a 9c bc e1 58 33 bd 43 9b 58 bd
       -0.015951222 -0.019093843 -0.043785933 -0.052882444
000190 68 b3 ae 3c 2d 3a 5e bc 2e d5 b6 3c f8 ac 41 bd
       0.021325782 -0.013563675 0.022318449 -0.047284096
0001a0 67 30 1b 3d 42 3a 33 bd 49 cb 63 bc 65 52 d6 3b
       0.037887957 -0.04375673 -0.013903447 0.006540584
0001b0 84 6c bb 3c 21 91 21 3d e2 e9 42 3d 9b 42 36 bd
       0.022878893 0.039445046 0.04758633 -0.044497114
0001c0 79 67 64 3c 64 2b be bc d3 e9 ae bb 03 fc 25 bd
       0.013940685 -0.02321405 -0.0053379326 -0.04052354
0001d0 8c 58 47 3d d5 47 1e bd c2 47 fd 3c 55 d0 b4 3c
       0.04866843 -0.038642723 0.030918006 0.022071997
0001e0 e8 2e c0 3c 94 4d 01 bd 95 82 4e 3d 54 2f 3a 3c
       0.023459867 -0.031568125 0.0504175 0.011363823
0001f0 3f 28 3b 3b f2 65 52 bd cf ad 9f 3c 1d 57 59 bc
       0.0028557924 -0.051366754 0.019492058 -0.013265398
000200 53 f6 fb bc 9d 2e 2d 3d 3e 61 1e 3c cb 9e fe bc
       -0.030757105 0.042280782 0.009666739 -0.031081578
000210 86 14 e8 bc cd c7 12 bb a8 5e 03 3d d3 25 5e bc
       -0.028330099 -0.0022396923 0.032072693 -0.013558823
000220 ed 46 0a bd 76 c6 84 bc fe cb 22 bd eb 36 b6 3c
       -0.033759046 -0.016207915 -0.039745323 0.022242984
000230 bb 2f 41 3d 39 6f 5e bd 5e 10 81 3c 7f 6b df 3c
       0.04716466 -0.05430529 0.015754875 0.027272938
000240 d8 38 d5 3b 65 d0 b9 bc 1b 18 cd 3c 82 dd c9 3c
       0.0065070204 -0.022682378 0.025035908 0.024641756
000250 04 e2 7f 3c 7d 68 78 bc 49 37 8d bc 29 4e c9 3b
       0.015617851 -0.015161631 -0.017238276 0.0061433506
000260 14 7b 2c bc c6 cb 76 bc 45 f4 11 3d 1b 6c 45 3d
       -0.010527391 -0.015063232 0.035633344 0.0481988
000270 2c 0f e5 bb 87 a2 26 bc 3a 61 1e 3b 07 bc d7 39
       -0.006990334 -0.0101705855 0.0024166838 0.00041148087
000280 3a 25 98 3c e7 e8 71 3c 0a 42 4a bd b7 3d b3 bc
       0.018572439 0.014765001 -0.049379386 -0.021880014
000290 00 98 32 3d b5 21 94 3c 6c 21 f9 bb ea 73 1e bd
       0.04360199 0.018082479 -0.007602861 -0.038684763
0002a0 1c 4b 23 bd c5 ae 65 bd 59 15 ac bc 3a af 90 3c
       -0.03986655 -0.056074876 -0.021006273 0.01766168
0002b0 15 31 0c 3d d0 89 dc 3c cb ff 46 bd 46 f9 05 bd
       0.034226496 0.026921183 -0.048583787 -0.03270843
0002c0 5e e6 28 bc 17 93 62 3d ba ec 2c 3c 37 84 39 bc
       -0.01030883 0.055316057 0.010554487 -0.011323026
0002d0 f6 99 bb 3c 45 64 9c bc a8 ad 0e bd b2 f3 2d 3d
       0.022900563 -0.019090781 -0.03483358 0.042468734
0002e0 a4 3f be bc cf c3 18 bc 49 20 5c bd 47 91 1e 3d
       -0.023223706 -0.009324028 -0.053741727 0.038712766
0002f0 f1 b7 31 3d 0c aa ad 3c 00 e6 1b bd 7b ae 61 bd
       0.04338831 0.021199249 -0.038061142 -0.05509804
000300 bb d0 3d bd 67 eb 24 3d 4c 8d c9 3c 1d 23 2e 3d
       -0.04634164 0.04026356 0.024603508 0.042513955
000310 0f ad c6 3c 76 0f 04 3c d2 9b f6 bb bd 5f 3c bd
       0.024252443 0.008060327 -0.0075258994 -0.04598974
000320 ed 74 2b bd 16 89 59 bd e3 f7 c1 3c ba 39 f0 bc
       -0.041859556 -0.05310925 0.023677772 -0.029324401
000330 b4 56 73 bc 07 d7 0e bd 8a 93 6a bc f6 78 36 bd
       -0.014852215 -0.034873035 -0.014317403 -0.04454895
000340 ce 00 2a bd 62 bf 4b 3c 57 71 a6 bc 15 86 0c 3d
       -0.041504674 0.012435766 -0.020317717 0.034307558
000350 05 5f 97 bc ee 7d 1f bd b8 3e 1c bc 92 61 db bc
       -0.018477926 -0.038938455 -0.009536438 -0.026779924
000360 b2 6b 91 bc a7 f1 4c bd d1 f4 04 3d c7 b3 12 bd
       -0.017751548 -0.050035145 0.032460038 -0.03581598
000370 06 f4 03 3d d6 50 c5 3c 32 39 23 3d cd e7 36 bd
       0.03221514 0.024086397 0.039849468 -0.044654656
000380 d2 41 17 3d 8a b5 df bc 64 e8 88 3c ff a3 3f 3d
       0.036928006 -0.027308244 0.016712375 0.04678726
000390 29 85 5c bc fa 60 cd bb d2 4d 70 bc 93 ba 40 bd
       -0.013459482 -0.006267664 -0.014666991 -0.04705293
0003a0 69 c8 d8 3c d4 28 63 bd 7b 57 0b 3d cf 8a 2d 3d
       0.02646275 -0.05545886 0.034018975 0.042368706
0003b0 53 5c 50 3d e9 ef 27 bc b2 38 30 bd 99 4f 7b 3c
       0.050869297 -0.01025007 -0.04302282 0.015338802
0003c0 35 04 f9 3c 0f 40 5f bd 27 70 36 bc 2c 8f 04 bd
       0.030397514 -0.05450445 -0.011135138 -0.0323631
0003d0 8c a9 3f bb 51 14 cf bc d6 98 b5 bc cf 07 74 bc
       -0.0029245345 -0.025278242 -0.022167604 -0.01489444
0003e0 44 ee 51 bd f8 7b 3e 3d 94 15 43 3d 1b fa 19 bc
       -0.05125262 0.046504945 0.047628 -0.009398009
0003f0 d3 66 e0 bb 08 33 cb bc 2c b5 57 bd b1 bf 70 bd
       -0.006848195 -0.024804607 -0.052663013 -0.05877656

feature_projection_low.bias f4 [4]
000000 7c b6 2b bd 82 23 1b 3c 0a 08 1a bd 7e 98 6d 3b
       -0.041922078 0.009468915 -0.037605323 0.0036254223

feature_projection_high.weight f4 [64, 4]
000000 ac f6 5f 3d ef e1 90 3d ee ff d8 be c2 6c f2 be
       0.054678604 0.070743434 -0.4238276 -0.473486
000010 a5 d5 6d 3e de fa dc 3e c6 9e e2 be a4 3f 3a 3e
       0.2322603 0.43160146 -0.4426176 0.1818834
000020 73 a6 bc be bb 81 06 3d 6d 33 ee 3e 2b 0a c1 3e
       -0.3684574 0.032838564 0.4652361 0.3770307
000030 ae c8 bc be 44 ea 9d 3e 9b a6 86 3e ff 8f 3d 39
       -0.36871856 0.30842793 0.26298985 0.00018078087
000040 ce 8e fa 3e 66 ca 46 be 5b f5 f2 bd 89 5a 82 be
       0.48937076 -0.19413146 -0.11863204 -0.25459698
000050 33 bc 8e 3d 7e 78 0b 3e 03 b5 2c 3d c8 5e 92 be
       0.0696949 0.13620183 0.042164814 -0.28587937
000060 e6 56 65 be d3 9a 2c 3e ce a9 e1 be 7a 21 99 bd
       -0.2239643 0.16855936 -0.44074863 -0.07477088
000070 31 2f 0f bc 0f 32 4f be 2c 5e 39 3e 5d 88 f9 3c
       -0.008739279 -0.2023394 0.1810233 0.03046053
000080 7e 64 b5 3e 6e 9a 23 bd c5 31 a0 be 08 93 b2 3e
       0.35428232 -0.039942198 -0.3128797 0.348778
000090 3d 6e 83 3d 75 a9 15 be da a5 aa be de 79 f2 3d
       0.06417511 -0.14615424 -0.3332966 0.118396506
0000a0 c7 bc f4 be 88 8a 07 3e 5c 8b 7e 3e d9 20 df be
       -0.47800276 0.13236439 0.24857849 -0.43579748
0000b0 2e 9d a6 be 3a f5 b8 be b8 e6 d4 3e bd bf d9 3e
       -0.32541794 -0.36124593 0.41582274 0.42529097
0000c0 84 2e 1c 3d 8b 4f f2 3e 67 59 2d be 51 48 fa be
       0.0381303 0.4732631 -0.16928636 -0.48883298
0000d0 0e 64 36 3e ff 31 38 3e e2 9c fa 3e 86 75 79 bb
       0.17811605 0.17987822 0.48947817 -0.0038064434
0000e0 df 5d c5 3e f9 20 9e 3e 9d 4b b8 3e 30 4d fe be
       0.3854818 0.3088453 0.35995188 -0.49668264
0000f0 94 c7 d5 3e 73 7d d7 be 53 e7 e2 3e 8e 26 a2 bc
       0.4175383 -0.42087898 0.4431711 -0.019793775
000100 67 40 e0 be f5 5a 0a 3e 1d ee dd bd 9e 7a e3 be
       -0.43799135 0.1351126 -0.10836432 -0.44429487
000110 e2 6f 33 be 07 b7 54 3d 06 2d c5 3e 88 35 1d be
       -0.17523149 0.05193236 0.38510913 -0.15352452
000120 9f 33 9b 3e f7 be 79 3d 65 89 3c 3c 91 d3 c4 3d
       0.3031282 0.060973134 0.011507367 0.096106656
000130 da e5 a6 be 42 1d d4 be 8d 03 20 be 4c 14 ef be
       -0.32597238 -0.41428572 -0.15626355 -0.46695173
000140 bc bb 65 be fc 87 d6 3c f7 9c a7 be 67 ec 56 be
       -0.22434896 0.02618789 -0.32736942 -0.20988618
000150 52 cb af bd 32 da 7a bd 2c a9 8f be 22 9b d3 3c
       -0.08583702 -0.061243244 -0.28058755 0.025830809
000160 a2 91 82 bd df 1b 16 3e ed d0 97 3c 22 08 81 be
       -0.063754335 0.1465907 0.01853224 -0.25201517
000170 2d b6 2a be ca 2d d7 bb ee 43 a0 be b3 9f 2c 3d
       -0.16671057 -0.006566738 -0.31301826 0.04214449
000180 31 85 eb bc 53 9b 41 3e c2 9c e6 3d a2 93 c0 3e
       -0.028750034 0.18906908 0.11260368 0.37612635
000190 8f ec 88 bc ec 49 bd be de c8 64 3e 98 fe ab be
       -0.016714362 -0.3697046 0.2234225 -0.33592677
0001a0 50 d7 91 bd ef 9a 21 be db 6b 3b be 2d a4 41 be
       -0.07121146 -0.15781759 -0.18302862 -0.18910284
0001b0 09 f6 ea 3e fb 76 90 3e 89 66 0a 3e 77 fc f0 3e
       0.45890835 0.28215775 0.13515677 0.47067615
0001c0 0d 03 e7 be b3 4f ab 3d 1f 2f a4 3e 80 71 a8 3e
       -0.45119515 0.08364811 0.320672 0.32899094
0001d0 23 e0 c9 be 7a ad 35 3e 94 79 91 be 0c c9 9b bc
       -0.39428815 0.17741957 -0.2841307 -0.019016765
0001e0 f7 90 dd bd bd ba d5 be e4 41 f3 be 57 96 a8 be
       -0.108186655 -0.41744033 -0.47511208 -0.329272
0001f0 3f f5 68 3e c1 41 67 3e 0a 6f df be 30 9b 3f be
       0.22749804 0.22583677 -0.43639404 -0.18711543
000200 0e e3 39 3c 9e 13 df be f1 78 8f 3e 7b 33 ea 3e
       0.011345638 -0.43569654 0.28021958 0.457424
000210 20 0a b2 3d 97 92 bc be 9e ab f5 3d 2b b0 38 3e
       0.086933374 -0.3683059 0.11995624 0.18035953
000220 d7 5c cc 3e 9c 57 89 be 0b 70 e6 be 34 71 63 3e
       0.3991458 -0.26824653 -0.45007357 0.22211152
000230 c7 5a 16 3d 8e 41 27 be fc 42 5a be 00 40 83 be
       0.036707666 -0.16333601 -0.21314615 -0.25634766
000240 a7 dc ce 3e a7 43 ac bd 38 e4 b9 3e 80 75 e4 3e
       0.4040272 -0.08411341 0.3630693 0.44620895
000250 37 4d 87 3d 63 87 d4 3d c7 24 16 bd 86 47 b0 3e
       0.066065244 0.103773855 -0.036656167 0.34429568
000260 d8 1d e6 be 36 da 50 3e a0 63 96 bd cd 1c 66 3e
       -0.44944644 0.20395741 -0.07343221 0.22471924
000270 14 66 f0 3a b4 4f 38 be 35 d6 4d bd 85 d5 87 3e
       0.0018340969 -0.17999154 -0.050253112 0.2653009
000280 b2 5e b2 be bb d6 a0 be 1e 04 dd bd 5e 0c 39 be
       -0.34837872 -0.31413826 -0.10791801 -0.18071124
000290 d5 60 4c 3e 56 c8 ad 3e 43 4a 56 bd 1c 61 f0 3e
       0.19958813 0.33941907 -0.052316915 0.4694909
0002a0 6d 46 59 be be 88 92 be dc 29 6d be 92 62 ad be
       -0.21218272 -0.2861995 -0.231605 -0.33864266
0002b0 de ff b0 be d8 7b e2 be be 49 e0 be ff 4e 05 3e
       -0.3457021 -0.4423511 -0.4380626 0.13018416
0002c0 69 a3 99 3e 1e c8 ec 3e 54 59 da 3e 78 2b e3 bc
       0.30007485 0.46246427 0.42646277 -0.027730688
0002d0 28 48 b9 3d 08 6e 96 be e2 c9 4d 3e c3 1b f7 be
       0.09046966 -0.29380822 0.20096543 -0.48263368
0002e0 c6 5e 6e 3e 1f d0 b3 3d 7c 13 17 3e 1b 49 3b 3e
       0.2327834 0.0877993 0.14753526 0.18289606
0002f0 f0 bf 6d be 27 21 db 3e 89 7b 75 3e 71 3f a8 3e
       -0.2321775 0.4279873 0.23972906 0.32860902
000300 e2 3f 83 3d 34 da a0 3e 3e 4b ad 3e 3b 1b 66 3e
       0.06408669 0.31416476 0.33846468 0.22471325
000310 1b 00 c6 3e 3c 8d b2 bd b5 29 a7 3e 99 3c eb 3d
       0.38671955 -0.087183446 0.32649007 0.114861675
000320 bb 45 98 3e ea c3 f4 3e 25 57 eb 3d ad 19 37 be
       0.297407 0.4780572 0.11491231 -0.17880888
000330 85 49 40 bd c2 5a 0c 3e 38 fb a3 3d e7 eb 07 be
       -0.046945114 0.13706496 0.080069005 -0.13273583
000340 cb 65 c5 3e 4e ae 9a 3e 53 fc 9b be 49 ad 2a bd
       0.38554224 0.3021111 -0.30465946 -0.041669164
000350 59 cb 29 bd 6c 01 9e be ee a6 8f 3d 75 5b 20 be
       -0.041453693 -0.3086046 0.07014261 -0.15659888
000360 55 0e 84 be 36 0a 27 be 0c 09 39 be a7 28 f6 3e
       -0.25792184 -0.16312489 -0.18069857 0.4807789
000370 ad a5 3e 3e a0 a8 f9 3e c1 4d 10 3e 95 01 f7 3d
       0.18617888 0.48761463 0.14092161 0.120608486
000380 76 d8 57 3e ec fe b2 3d c8 da cb be 94 95 97 be
       0.21078667 0.08740029 -0.39815354 -0.29606307
000390 eb 97 f2 bd ea 2c 15 3c 78 53 3c 3e 11 35 43 3e
       -0.11845382 0.009104947 0.18391216 0.19063212
0003a0 db ee cd 3e 4a 65 db 3d f0 e7 2e be 67 78 c2 be
       0.40221295 0.10712679 -0.17080665 -0.37982485
0003b0 8b 05 ba be 8b 30 99 be 79 41 1a 3e 2e 32 8b 3e
       -0.36332354 -0.29919848 0.15064038 0.27186722
0003c0 68 96 e0 3e d2 b4 23 be 3b 66 24 bd 91 bb 14 be
       0.4386475 -0.15986946 -0.040136557 -0.14524676
0003d0 ea 15 db bb 3c 4c 20 3e 78 cc 77 bc 84 2d c7 3c
       -0.006685962 0.15654081 -0.015124433 0.024313696
0003e0 d7 39 78 3d cb 4c 3d 3e 04 06 19 be c3 cd 9a be
       0.060602035 0.18486325 -0.14943701 -0.3023511
0003f0 a4 62 eb 3d 8f 14 87 bd e6 d9 6e be 5f 7d 5b 3e
       0.114934236 -0.06595718 -0.23325309 0.21434544

feature_projection_high.bias f4 [64]
000000 c0 ea f6 ba 4f de a0 bd c0 3f 78 be d6 73 7d bd
       -0.0018838271 -0.07854902 -0.24243069 -0.061878048
000010 e5 70 dc be b4 dc ed 3d f9 73 b4 3b ca 30 99 3e
       -0.43054882 0.116143614 0.005506989 0.29920036
000020 6a 34 e4 3c 35 66 37 3d 6d 83 0d 3e 90 6b c0 3e
       0.027857024 0.044775207 0.13819666 0.37582064
000030 94 02 79 be df 2b 97 3e da bc f5 3d f2 ea ad be
       -0.2431739 0.29525658 0.11998911 -0.33968312
000040 a0 ea 2b 3e e2 c1 9c be cf 36 28 be db 56 77 be
       0.16788721 -0.3061667 -0.16427158 -0.24154226
000050 a0 03 b2 be c5 a1 c7 3e c2 29 e8 be b4 b0 7c 3e
       -0.3476839 0.38990608 -0.4534436 0.24676782
000060 e8 49 ea be 19 6f 77 bd c4 fb 0d 3d 89 f9 b4 3e
       -0.4575951 -0.060408685 0.03466393 0.3534663
000070 92 c7 3a be db f8 12 3e c7 47 a7 3d 47 e7 95 3e
       -0.18240193 0.14352743 0.08167987 0.29278013
000080 e5 71 d7 3c 46 d2 41 3e 0b 91 9c be 55 fb b4 be
       0.026299426 0.18927869 -0.3057941 -0.35348
000090 45 84 e4 3e 43 93 bd be 1c e9 a1 bd ed 45 83 bd
       0.44632164 -0.37026414 -0.0790579 -0.06409822
0000a0 95 38 fc 3e 88 40 e6 bd e9 ac c4 be 48 b2 05 be
       0.4926192 -0.11242777 -0.3841317 -0.1305629
0000b0 6c a7 86 3e 17 3b 52 3e bf cf d2 3e 16 e1 cd bd
       0.26299608 0.20530353 0.41174123 -0.10052697
0000c0 18 31 73 3e ce 02 f4 be 4e bb 49 3e 1d 66 67 3e
       0.23749197 -0.4765839 0.19700357 0.22597547
0000d0 2d 9a a8 3e c3 f4 95 be 50 e5 0b be e1 55 01 3e
       0.32930127 -0.292883 -0.13661695 0.12630416
0000e0 6a ba b8 be 6c 03 ce be a9 40 f9 be c3 d5 e0 3c
       -0.36079723 -0.40236986 -0.48682144 0.02744568
0000f0 0b 8f 9e 3e 09 ae 04 3e 12 52 08 3d 7a 5c 31 3e
       0.30968508 0.12957014 0.033281393 0.17320433

feature_norm.weight f4 [64]
000000 a9 0f 7e 3f 65 86 7e 3f e9 20 7f 3f ca 52 80 3f
       0.99242646 0.9942382 0.9965959 1.0025265
000010 c0 90 7a 3f 40 5f 80 3f dd b8 7f 3f 74 1b 7f 3f
       0.9787712 1.0029068 0.99891454 0.99651265
000020 3a 80 7e 3f 83 3f 80 3f 56 2f 80 3f 3f 3b 7f 3f
       0.9941441 1.0019382 1.0014446 0.9969978
000030 af b1 7a 3f 0d 89 7f 3f 24 0d 7f 3f 7a d0 7b 3f
       0.97927374 0.998185 0.99629426 0.98364985
000040 de 72 7e 3f eb a9 7a 3f 57 a5 7a 3f 3e 26 7f 3f
       0.99394023 0.97915524 0.9790854 0.9966773
000050 d7 cf 7c 3f 05 30 7f 3f 4a 91 7a 3f 75 03 7f 3f
       0.9875464 0.99682647 0.97877944 0.9961465
000060 d6 e4 7c 3f 59 1e 7f 3f 59 5f 7f 3f e3 fd 7d 3f
       0.98786676 0.9965568 0.99754864 0.99215525
000070 4d db 7e 3f 3d 5d 7f 3f b0 e8 7f 3f 41 81 7f 3f
       0.99553376 0.99751645 0.9996443 0.998066
000080 3e 69 80 3f 0a d0 7f 3f 6f 97 7f 3f c6 8f 7a 3f
       1.0032117 0.9992682 0.99840444 0.9787563
000090 ef 48 80 3f 07 08 7f 3f d7 e2 7e 3f 5a 95 7e 3f
       1.0022258 0.99621624 0.9956488 0.9944664
0000a0 f4 3c 80 3f e0 96 7e 3f b1 99 7e 3f 5c df 7e 3f
       1.0018601 0.99448967 0.99453264 0.9955957
0000b0 fc 52 80 3f f6 cd 80 3f 7d 9a 7f 3f 74 bc 7f 3f
       1.0025325 1.0062854 0.99845105 0.9989693
0000c0 53 53 80 3f 8b 8c 7a 3f 89 0d 80 3f 31 42 7f 3f
       1.0025429 0.978707 1.0004131 0.99710375
0000d0 44 de 80 3f 8b 1f 7d 3f e4 34 80 3f 85 a9 80 3f
       1.006783 0.98876256 1.0016141 1.0051733
0000e0 45 a0 7a 3f 1a 9a 7e 3f 4a 91 7a 3f aa c7 7f 3f
       0.979008 0.9945389 0.97877944 0.9991404
0000f0 79 c9 7f 3f fb 03 80 3f 90 35 7f 3f 88 9f 80 3f
       0.999168 1.0001215 0.99691105 1.0048685

feature_norm.bias f4 [64]
000000 1b 42 bd ba f8 bc 5c bb bf cc 55 bb a2 3d 72 3b
       -0.0014439257 -0.003368197 -0.003262326 0.0036963006
000010 c9 54 7a b9 7d 39 38 3b 6c 34 20 3a 60 9f 6e bb
       -0.00023873443 0.0028110438 0.0006111327 -0.0036410913
000020 a8 ca 8d bb d5 60 69 3b 57 12 0f 3b 6d 1a 48 bb
       -0.004327137 0.0035610695 0.0021831 -0.003053333
000030 fe 16 87 bb 73 aa 34 bb 35 e1 d2 ba 63 20 19 bb
       -0.004122614 -0.0027567416 -0.0016088845 -0.0023365251
000040 68 6e b0 bb 08 56 00 3b 08 41 2d bb 51 a5 cd ba
       -0.005384255 0.0019582529 -0.0026436467 -0.0015689527
000050 fe 15 c1 bb 22 86 00 bb 00 00 00 00 b5 f6 1c 3b
       -0.0058925143 -0.00196112 0.0 0.002395076
000060 1b cb 6f 3a 42 ee 48 3a fe 12 45 3b 12 de b1 38
       0.00091473915 0.0007664898 0.0030071135 8.4813815e-05
000070 f9 89 f4 b9 66 04 37 3b ef 89 6e 3b ee 04 57 ba
       -0.00046642104 0.0027926206 0.0036398133 -0.00082023337
000080 15 41 8b ba 6a d0 28 3a 93 a1 b1 ba b2 5e 08 bb
       -0.0010624254 0.00064397475 -0.0013552181 -0.0020808396
000090 80 11 8e 3a 7b 3d 05 b8 51 d4 6c 3b 12 d4 86 bb
       0.0010838956 -3.176693e-05 0.0036137293 -0.004114636
0000a0 99 88 19 3b ba 0b 61 bb 25 65 f3 3b 02 35 39 bb
       0.0023427366 -0.0034339265 0.007427829 -0.0028260355
0000b0 98 fd a7 3b 1a d9 d5 3b 64 2a 61 ba 1e c3 7f 3b
       0.0051266663 0.0065261247 -0.00085893855 0.003902621
0000c0 d5 f7 68 3b db 27 88 3b b9 48 7b 3b 99 5e 3a bb
       0.003554811 0.0041551418 0.0038342907 -0.0028437732
0000d0 1b 17 cc 3b d2 c0 b3 bb aa 2f e6 b9 70 f5 da 3b
       0.0062283403 -0.0054856325 -0.0004390453 0.0066820905
0000e0 79 c6 ce 3b 0b fc 13 bb 00 00 00 00 0c 6f a2 3b
       0.006310281 -0.002258065 0.0 0.0049570855
0000f0 fb 4f b6 3a 3f ca 7f 3b 0c ee 75 3b df 97 37 3b
       0.0013909334 0.003903046 0.003752592 0.0028014106

spatial_module.u f4 [8, 52, 4]
000000 74 53 9b 3d 8b 07 fd bd bc 9d b3 bc 52 4b fb 3d
       0.07584277 -0.12354954 -0.0219258 0.122702256
000010 34 2a ee 3b 10 71 69 3b 6c de 67 b9 0d fd 12 bd
       0.0072682146 0.003562037 -0.00022112735 -0.03588586
000020 8e 94 b6 bc f2 3e 94 b9 32 93 c9 3d cb 4e cf bc
       -0.022287633 -0.00028275658 0.098425284 -0.025306126
000030 a8 b2 b6 bc 3c c5 44 3c ca 0c 1c bd 2e 11 f0 3d
       -0.022301987 0.012009915 -0.038098134 0.11722027
000040 cf 6a c9 3d ae 0c d1 b8 6f 79 a7 bd 6c e5 cc 3c
       0.09834825 -9.9682584e-05 -0.081774585 0.02501174
000050 6c 43 e8 3d f7 27 05 3d 29 9c 3d 3d 31 e0 81 bd
       0.11340985 0.032508817 0.046291504 -0.06341589
000060 ff 3a 0a be 48 5d 22 bd 38 4b b4 38 c8 4a f5 3d
       -0.13499068 -0.03963974 8.5970794e-05 0.11977154
000070 72 19 6f 3c 53 d1 34 bc 81 0b aa bc d1 a1 46 bc
       0.014593469 -0.011036235 -0.020757439 -0.012123541
000080 48 90 84 bd 1f 4b 3d bd f4 73 3a 3c 7e 48 b1 3d
       -0.06472832 -0.04621422 0.011380184 0.08656405
000090 30 b0 e8 3d 44 13 28 3d 5b b4 b5 bd 94 72 00 3e
       0.1136173 0.041033998 -0.08872291 0.12543708
0000a0 b5 15 07 3e a8 36 e2 bc a3 87 0c 38 c7 af fa 3d
       0.13191874 -0.027613953 3.3504923e-05 0.12240558
0000b0 b0 09 13 bd f1 7e 60 3d 27 9e 0f 3c 73 dd 8a 3d
       -0.03589791 0.05480856 0.008765734 0.06780519
0000c0 5b 02 11 3d 6a 5d 0b 3e dc 15 e8 3d e9 ed b2 bd
       0.035402637 0.13609853 0.11332294 -0.08736784
0000d0 93 13 99 3d 71 d9 55 bc 3d dc 7f bd 0d 8b 12 3c
       0.074744366 -0.01305233 -0.062465895 0.008944285
0000e0 c8 d7 a3 bb 5e 14 a9 bd e0 6c f3 bd 4a d4 8a bd
       -0.0050000884 -0.08255838 -0.11886001 -0.06778772
0000f0 54 c6 d2 3a 98 86 9b 3d 7f 0f 95 3d 4d bf bc 3c
       0.0016080835 0.07594031 0.07278346 0.023040438
000100 8c 58 04 3e 36 fb ea bd 96 f0 a1 bd 0e c7 44 3d
       0.12924403 -0.11473696 -0.07907216 0.048041396
000110 de 81 fc bd 4a 75 03 3e d1 90 aa 3b b3 a7 1d bd
       -0.12329458 0.12837711 0.0052052517 -0.03849001
000120 14 86 f6 3d 74 84 5b 3d f2 fe e5 3d c2 c6 c9 3d
       0.12037292 0.053593114 0.112302676 0.09852363
000130 01 4c 20 bc 20 85 fb 3d ad a9 94 3b 30 86 94 3a
       -0.009783746 0.12281251 0.0045368285 0.0011331495
000140 eb 6c 10 3d 7c 45 d3 bd 23 d6 97 bd 58 f6 03 3e
       0.035260122 -0.103159875 -0.0741389 0.12886941
000150 6b f5 a9 bd 0f 66 85 3d 8c e7 99 3d 9f 99 dc bd
       -0.08298763 0.06513607 0.07514867 -0.107714884
000160 c6 67 2f bb 55 40 08 38 96 14 c6 3d c0 45 c5 bc
       -0.0026764735 3.248484e-05 0.09671895 -0.024081111
000170 90 0a fa 3d 9a 62 e5 bd 33 bb 3c 3d 9e 35 87 3d
       0.12209046 -0.112004474 0.046076965 0.066020235
000180 69 6f 18 bd 86 ca 04 bd 12 5a a4 bd db 12 bb 3c
       -0.037215624 -0.032419704 -0.08024992 0.02283614
000190 60 b0 08 3d ac f0 12 bd 10 96 db 3d f4 e3 e7 bb
       0.03337133 -0.035874054 0.107219815 -0.0070767347
0001a0 47 a9 f2 bb 67 ac d2 3d d0 f9 22 3c 41 ca 83 3d
       -0.0074054333 0.102867894 0.009947255 0.06435061
0001b0 55 1d 95 3d 34 02 aa bd 25 87 e1 36 5f 94 f3 3d
       0.07280985 -0.083012015 6.7212554e-06 0.11893534
0001c0 2a 63 9e bd 2d 9f 90 3b 75 61 c6 3d e9 7e 15 3b
       -0.07733758 0.0044135065 0.09686557 0.002281124
0001d0 55 b1 89 bc 8c 4a 19 3d 67 87 e1 bd 25 bd df 3d
       -0.016808191 0.03742461 -0.11012154 0.10924748
0001e0 d8 22 d4 3d eb 19 cd bc 98 62 19 bd 40 c6 50 bc
       0.103582084 -0.025036773 -0.037447542 -0.012742579
0001f0 87 d2 0b 3e 91 4c 27 bd 78 03 e5 3c 08 78 04 be
       0.13654529 -0.040844504 0.027955756 -0.12936413
000200 e3 82 e8 3c 00 65 9a 3d 10 8f 01 3d 55 a1 73 39
       0.028382724 0.075387955 0.031630576 0.00023234387
000210 f3 ce 1a b9 d6 0a ee 3d 58 64 47 3d 08 cd 91 bc
       -0.00014763679 0.116231605 0.04867968 -0.017797962
000220 47 d1 d9 bd 06 df c1 3d e5 03 20 bd b4 07 a0 3d
       -0.106356196 0.094663665 -0.039066214 0.07813969
000230 e7 08 5d bc e8 7a 23 38 22 20 d5 bd 19 78 25 bd
       -0.013490892 3.8976694e-05 -0.104065195 -0.040397737
000240 7b 9a 74 39 8e 36 07 be 8a 2f 68 bc 67 6d 92 3d
       0.00023327202 -0.13204405 -0.01417149 0.07149773
000250 bd 85 b9 3d ba 5f c4 3d 7d da eb bc 74 38 13 38
       0.09058712 0.09588571 -0.028790707 3.5100107e-05
000260 1d 93 d9 bd 1b 87 7c 3d 76 05 27 3c 16 b6 e4 3d
       -0.10623763 0.061652284 0.010194173 0.11167543
000270 d1 8f f1 bb 37 99 05 3e 2c 1e 6e 3d e6 fd e9 3d
       -0.0073718806 0.13046728 0.058134243 0.114253804
000280 27 5c a1 39 9c d5 d3 bd 5a b6 d3 bd a8 6b 03 be
       0.00030776972 -0.10343477 -0.10337515 -0.12834036
000290 1f 5f 0f 3c e1 2f d0 bd 2c 69 03 bd 4c 39 76 3d
       0.008750706 -0.10165382 -0.03208272 0.060113236
0002a0 ad f0 fb 3d dc 7f a9 bc 1f 26 b6 3d a2 01 5a 38
       0.12301765 -0.02069085 0.0889399 5.197677e-05
0002b0 3b 11 5b bc d7 0e 48 bb a1 5d 53 bd 3a 4f c5 3c
       -0.013370807 -0.0030526423 -0.051602963 0.02408563
0002c0 b4 ae f1 37 10 e3 68 bd 5f 11 a4 3d 9f 1b 4f bd
       2.8810791e-05 -0.05685717 0.08011126 -0.05056345
0002d0 d2 4d b1 bd ef 36 10 3d 6d ab b2 39 70 a5 88 bd
       -0.08657421 0.03520864 0.00034078528 -0.0667218
0002e0 20 0b de bd 79 40 e5 bc 25 bb cd bd 83 89 86 3d
       -0.10841966 -0.027984845 -0.100454606 0.06569197
0002f0 52 94 72 bb 30 a4 7a 3d 65 96 68 3d 68 78 1e 39
       -0.0037014675 0.061191738 0.056784052 0.00015112909
000300 4d 0d eb bb b2 13 7b bd 91 c0 8a 3c 59 31 ef bd
       -0.0071732164 -0.06129808 0.016937526 -0.11679334
000310 a9 ec 68 bd f0 f7 d7 3d cc 42 4d bc 1c f3 da 3d
       -0.05686632 0.10545337 -0.012528133 0.10690901
000320 89 fe 95 3d ab ed 73 bc 44 5c da bd bc c7 d9 3d
       0.07323939 -0.014888207 -0.106621295 0.106337994
000330 f9 cd aa 39 59 c4 03 3e a4 6e fa bd b1 e1 68 3c
       0.00032578388 0.1286787 -0.12228134 0.014213965
000340 72 a0 ec bd d3 8c 5c bb d8 6f f1 bd 9b 4a fc bd
       -0.1155404 -0.0033653274 -0.117889106 -0.12318917
000350 8c 6e a0 b9 ee 5a 0a 3e a9 68 70 b8 a7 e8 51 ba
       -0.00030599942 0.1351125 -5.731793e-05 -0.0008007385
000360 de af 01 3e 40 6c 4a 3a 9b 2a 8b bd 1e 03 a4 3d
       0.12664744 0.0007721819 -0.06795236 0.08008407
000370 5e f6 bc 3d 3c 67 ee 3d 5e 69 d4 3d 84 45 01 3e
       0.09226678 0.11640784 0.1037166 0.12624174
000380 c3 1c 1f bd ab ce c1 3b 63 5b 1b bd ed 90 98 bb
       -0.03884579 0.0059145293 -0.03792895 -0.0046559484
000390 f6 c2 d5 3d 0a 9b d5 bd ba 5b 87 3d e1 61 91 bd
       0.104375765 -0.10429962 0.06609292 -0.07098747
0003a0 83 da a5 b7 ba 03 4c bb f9 74 51 bd 99 51 c9 39
       -1.9771285e-05 -0.003113015 -0.051136944 0.00038398503
0003b0 10 37 75 bd 7f dc fa 3d 90 8a 19 bd eb 11 a3 3d
       -0.059866965 0.122490875 -0.03748566 0.07962402
0003c0 08 59 9a bc 23 b4 d4 bd e6 25 d1 3d aa 51 c8 bc
       -0.018841282 -0.10385921 0.10212307 -0.024453003
0003d0 b3 82 3a bd 6a a6 84 b8 86 b5 6c 38 17 bb cf 3c
       -0.0455348 -6.3252475e-05 5.643584e-05 0.025357766
0003e0 96 a4 9f bc cf 8a d7 bc 2f 92 87 3d e8 7d 56 3d
       -0.01948766 -0.026311306 0.06619679 0.052366167
0003f0 2f d1 f3 3d 5c a5 14 3b 90 24 b4 bc 6c 0d 79 bc
       0.11905133 0.002268157 -0.02199009 -0.015200954

spatial_module.v f4 [8, 4, 52]
000000 31 af 05 3b 8f 6e 8b 37 4d 35 99 38 66 14 8d 3d
       0.0020398612 1.6621574e-05 7.3055366e-05 0.06888656
000010 a7 ad 68 bd 49 1c d0 3c 9c 5d 4d bd 62 e6 d6 b9
       -0.056806233 0.025404112 -0.0501381 -0.0004098891
000020 de f6 93 bd 45 8a 32 3d 3c 35 0f bd e7 ab 72 b8
       -0.072248206 0.043588895 -0.034962878 -5.7857393e-05
000030 73 7e 2a bd 3d 67 b3 b9 97 31 e8 bc 94 fc fa bc
       -0.041624498 -0.0003421846 -0.028343959 -0.030638017
000040 e2 46 bf bc ca e1 27 3d 3a 18 f0 39 bb 72 01 bc
       -0.02334923 0.040986814 0.00045794417 -0.007900889
000050 8d 84 81 3d 01 d8 5d 3b 97 4d 5c bc 5c 4e 9d b8
       0.0632411 0.0033850672 -0.013446233 -7.500939e-05
000060 69 69 9f bc 05 b9 a3 bc 84 55 4c bc c9 8d d1 3b
       -0.019459443 -0.019985685 -0.01247156 0.006395076
000070 1a 32 89 bd 6a 2a 66 bd b2 ce 3b 3d 4b 2d d5 bb
       -0.06699009 -0.056192793 0.045851417 -0.0065056435
000080 7c 74 da b8 4e b0 80 3c ef d9 c9 bc 6b 4f 47 3d
       -0.00010416747 0.015709069 -0.024640052 0.048659723
000090 b5 41 b4 bb b5 6e 42 b8 25 8d 44 bd 06 29 ab 3c
       -0.005500997 -4.635631e-05 -0.04798617 0.020893585
0000a0 58 53 4b bd d4 0d 23 3d 9a 8d 01 ba 1d 4d 8c bc
       -0.04964003 0.03980811 -0.000494206 -0.017126614
0000b0 5f 60 6c bc 68 5f 98 3c b8 df 9a 3d 5b 23 14 3c
       -0.0144272735 0.01860018 0.07562202 0.0090416325
0000c0 23 f1 24 3d 63 8f 7f bd ef d2 cb bb 75 be 12 bd
       0.04026903 -0.062392604 -0.0062202136 -0.035826165
0000d0 3e 14 4e bd 8c 7d fe 3a 42 95 4c bc 71 ac b4 3b
       -0.050312273 0.0019416078 -0.012486758 0.0055137207
0000e0 36 63 a4 bc 42 72 8d bd d6 7a fd bc d7 40 97 bd
       -0.020066839 -0.069065586 -0.030942362 -0.07385414
0000f0 b3 d9 9c 3b 00 17 5b bd 2d 30 62 3d 95 de be 3c
       0.004786694 -0.05348873 0.055221725 0.023299495
000100 17 bb 10 bd 6a 3c 27 bc 30 4b 8a bd e7 23 4f 3d
       -0.035334673 -0.010207275 -0.06752622 0.05057135
000110 72 c7 c9 bc b0 26 8d bb 5a 37 9d b9 4b 0e e7 3c
       -0.024631236 -0.0043075904 -0.00029986614 0.028205058
000120 01 6e 38 bc ac b2 ea 3c 2e 34 fd 3c 3d 18 86 b7
       -0.011256696 0.02864965 0.03090867 -1.5985332e-05
000130 01 90 38 3d 22 84 86 bd d9 47 0a bd 0c 19 85 39
       0.045059208 -0.06568171 -0.033759926 0.00025386398
000140 81 89 ad 39 55 ae 84 3c cc da 4f 3d 36 c9 4f bd
       0.0003309958 0.01619641 0.05074577 -0.050729
000150 7f a5 02 3d e1 78 d5 3b 0e a2 7a 3d f3 1e 06 3d
       0.03189611 0.006514654 0.061189704 0.03274436
000160 7f 48 9f bb 25 9d 00 ba b2 85 39 bd 16 2d a6 3b
       -0.004860937 -0.0004906229 -0.045293517 0.0050712926
000170 df a7 67 3d cd f1 79 3c 77 f1 71 3d de af a5 3c
       0.05655658 0.015255404 0.05906817 0.020225462
000180 f0 1c 4e 3b db 90 9c bb a3 f0 83 bd 9c f2 39 bb
       0.0031450354 -0.0047780103 -0.06442382 -0.0028373366
000190 2a f4 80 3d 77 0b 85 3d 71 2d 71 bc 53 c9 76 3d
       0.062965706 0.06496327 -0.014720307 0.06025059
0001a0 57 30 78 3d 9f d4 81 bd 86 44 9c bd e3 b8 f0 bc
       0.060592975 -0.063393824 -0.07630257 -0.029385036
0001b0 0a 35 b0 39 c1 c5 9c 3c 41 3d b4 3c 7a fd 2c 3d
       0.00033608853 0.019137265 0.022001864 0.04223392
0001c0 df 47 ea bc f2 d8 3a 3d 7d 7b b7 3b 4d fe 4a bd
       -0.028598724 0.04561705 0.0055994377 -0.049558926
0001d0 59 7a 56 bd bf 2d 85 3c ce 44 91 3d f8 ea 38 bd
       -0.052362774 0.016257165 0.070932016 -0.04514596
0001e0 8f 98 30 b9 75 5e 94 bd 99 f9 33 3d 32 0a 34 3c
       -0.000168415 -0.07244579 0.043939207 0.010988759
0001f0 c5 7a fb bb f0 03 04 3d 2f 35 b1 3c 41 e0 3c 3d
       -0.0076745474 0.032230318 0.021631805 0.046112303
000200 02 8c be b9 ef 1b a8 b7 a5 b4 e2 3c a3 13 70 3c
       -0.00036343938 -2.0040168e-05 0.027674029 0.014653119
000210 63 b3 80 bd 06 25 9a bc e2 05 27 3d 6f 62 f9 bc
       -0.06284215 -0.018816482 0.040777095 -0.030442445
000220 58 1c 64 3d 77 f1 4d bb b6 95 96 3d 62 23 1b bd
       0.055691093 -0.0031424442 0.07352774 -0.03787554
000230 64 f0 49 3d 5a 81 c5 bc 7b eb 49 3d 4c 40 0d 3d
       0.04930152 -0.024109531 0.049296837 0.034485146
000240 66 30 a8 3c a9 a6 30 3c 92 dd 1e 3d e0 1c a5 bc
       0.02053089 0.010781922 0.038785525 -0.02015537
000250 0c ca 5a bc e3 5c 14 3c 7a c1 4a bd bc 17 e6 38
       -0.013353836 0.009055349 -0.04950092 0.000109716755
000260 8b 34 b3 3c 69 c9 8c bd 74 ac 21 b8 9b 15 63 b8
       0.02187564 -0.068743534 -3.8546e-05 -5.414114e-05
000270 12 a6 62 bd 8e a5 68 3d 98 00 0a 37 56 3d 93 bd
       -0.05533416 0.05679851 8.225579e-06 -0.07189433
000280 75 ce 7d bc bd 4d 22 3b 5a b7 50 3d 39 63 5b bc
       -0.015491118 0.0024765574 0.050956108 -0.013390356
000290 9b 14 86 3d 3a 71 b7 bc bd f8 70 bd 7d 63 16 bc
       0.06546899 -0.022392858 -0.058830965 -0.009178993
0002a0 cd 73 34 bd b2 be 68 3c d1 83 37 3d 2b 01 80 bd
       -0.04405575 0.014205622 0.044803444 -0.06250223
0002b0 46 b8 53 bd 84 a9 0e 3d 5a ed 96 bb 44 71 8d 3d
       -0.05168941 0.03482963 -0.004605931 0.06906369
0002c0 98 a7 8c 3d 5c c9 38 bd da 97 1b 3d f1 e2 97 bd
       0.068679035 -0.045113906 0.037986614 -0.074163325
0002d0 1e 13 a8 3c 51 66 14 bd b4 ef 9a 38 52 38 99 3d
       0.020516928 -0.03623039 7.3879404e-05 0.07481445
0002e0 b1 83 97 39 9b 8f 07 bd 04 3b d3 3c 32 f2 b3 ba
       0.00028899082 -0.033095937 0.025784977 -0.0013728796
0002f0 de 96 8a 3d 63 f2 59 bd ab a3 ec ba a9 77 7e bd
       0.06767057 -0.053209674 -0.0018054148 -0.062125836
000300 66 1a 13 bd ec a8 26 bc 53 46 37 bd e7 b8 3f bd
       -0.035913847 -0.01017211 -0.0447448 -0.046807196
000310 ca aa ea bb e0 a7 14 bd ac 32 22 bd 2f df 77 37
       -0.007161473 -0.03629291 -0.039599106 1.4774311e-05
000320 04 32 5b bd 91 85 16 3d 45 f9 36 3d 0e 16 8f 3d
       -0.053514495 0.036748473 0.044671316 0.069866285
000330 f9 e3 48 3c 12 37 9d 39 1c 60 07 bb 2d 51 df bc
       0.012261384 0.00029986404 -0.002065665 -0.027260387
000340 81 47 3f 3d 6c e5 0d 3d 65 cd 4f 3d 3f 6a 56 bb
       0.04669905 0.034642622 0.05073299 -0.0032717136
000350 1f 82 43 bd 32 c2 6a 3c f4 72 86 3d 5b 1e a5 ba
       -0.047731515 0.014328526 0.06564894 -0.0012597548
000360 e1 91 71 3d a8 7f 49 3d 08 68 82 3c 57 71 12 bc
       0.05897701 0.049194008 0.015918747 -0.008938155
000370 35 41 6d bc ca ac 0c bb 85 8d 02 39 b8 78 84 bb
       -0.014480879 -0.0021465295 0.00012450486 -0.004042711
000380 e4 d0 99 bd c9 87 41 bd 9d 15 53 bc 09 13 62 3d
       -0.07510546 -0.047248635 -0.012883571 0.055193935
000390 ed 09 b0 3c 87 3a 8d bd 14 5d 4d bd 4d b7 1a bd
       0.021489108 -0.06895929 -0.050137594 -0.037772465
0003a0 17 b4 94 3d 34 d8 e9 3b 27 f5 6e 3d 93 89 71 bd
       0.07260912 0.007136369 0.058339264 -0.05896909
0003b0 2d e1 91 3d 26 fd 73 3d 15 a5 5f b8 63 64 d9 bc
       0.07123027 0.059567593 -5.3321088e-05 -0.026537126
0003c0 e0 2f a0 3c b1 7f 07 bd ef 03 b1 bc 28 b4 93 3c
       0.019554079 -0.03308076 -0.021608321 0.018030241
0003d0 fe ec 61 bd 95 8d de 3b e3 25 e4 b8 16 b5 56 37
       -0.055157654 0.0067917802 -0.00010878944 1.2797556e-05
0003e0 fb fa 02 39 36 70 d9 3b 11 fd 1e bd ae e0 ae 3c
       0.00012491264 0.006635691 -0.03881556 0.02134737
0003f0 4d a8 92 bd 35 a8 b5 3c 2c 8a 73 bd 80 7b 97 3d
       -0.07161007 0.022174934 -0.059457943 0.07396603

spatial_module.qkv_proj_low.weight f4 [12, 64]
000000 7b 9e 9f bd 5f 49 59 3c bc 75 ce bc 9a e1 83 bd
       -0.077938996 0.013262122 -0.025202624 -0.064395145
000010 da 09 bb 3d 54 3c cf bd c1 5f a6 3c 08 5b df bd
       0.091327384 -0.101189286 0.02030933 -0.10906035
000020 2b a9 12 bb c2 29 58 bd 04 26 1a 3d 1d de 89 bd
       -0.0022378664 -0.0527742 0.03763391 -0.06731818
000030 aa 78 9b 3d a3 96 d3 bd 7a b5 8e 3d 67 ee b7 bd
       0.07591374 -0.10331466 0.06968208 -0.089810185
000040 0d 1c 83 3d 35 85 4e bd a7 17 a6 ba 3c 8c c0 bc
       0.06401835 -0.050420005 -0.0012671844 -0.023504369
000050 f6 8d a6 3d 99 98 2d 3d f0 87 b7 bd 73 38 5d 3c
       0.08132546 0.042381857 -0.08961475 0.013502228
000060 86 42 a5 bd 5b 49 ae 3d c7 9b 9b 3c 16 eb e4 bc
       -0.08069329 0.08510085 0.018995179 -0.027944129
000070 5b 6d 6d bd b1 70 37 3d 1d 63 99 bd dd f7 69 3d
       -0.057965618 0.044785205 -0.074896075 0.057121146
000080 b6 a0 94 3d 06 28 a3 3d e7 4b f8 3c 97 33 d5 bd
       0.07257216 0.07966618 0.03030963 -0.104102306
000090 60 59 be 3d e9 b2 0b bd 11 5d 02 bd af ee 1b bc
       0.09294391 -0.03410617 -0.031827036 -0.009517356
0000a0 bf 7a bb 3d b2 01 cf 3d ec a5 94 3c 35 b9 80 3d
       0.09154271 0.10107745 0.018145524 0.062853254
0000b0 89 88 f5 bd 02 09 7c bb 47 e2 df bd 0f 5e 4d 3d
       -0.11988933 -0.0038457518 -0.10931831 0.05013853
0000c0 27 64 b4 bd da 3e 37 bd e6 d4 a8 3d 0e d6 ef 3d
       -0.08808165 -0.044737674 0.08243732 0.117107496
0000d0 09 27 9d bd fd 6f 91 bd e8 11 a2 3c 40 50 43 3d
       -0.07673461 -0.07101438 0.019783929 0.047683954
0000e0 df 8b 67 bc 70 ca 0d bd d8 56 7d bd 3d 01 6a 3d
       -0.014132469 -0.034616888 -0.0618504 0.057130087
0000f0 af 86 f3 3d 85 cb 77 bd 93 97 5b 3d 3f 61 84 3d
       0.11890923 -0.060496826 0.05361135 0.06463861
000100 aa 9b c6 3d b8 46 96 bc 31 3e 3c 3b bd 0d c5 3d
       0.09697659 -0.018344268 0.0028723592 0.09621761
000110 d7 b7 70 3d 4c 8a 02 3e 3d 17 19 bd ed 75 58 3d
       0.058769073 0.12748069 -0.037375677 0.052846838
000120 30 4c ac 3d d8 74 b4 bd 72 c1 f4 3c 17 0d d6 bc
       0.08412969 -0.08811349 0.029877398 -0.026129289
000130 8d 44 9f 3d 45 c2 4f bd 64 87 cb 3b 6b 88 8f 3d
       0.07776747 -0.05072238 0.006211208 0.070084415
000140 c3 17 e0 bd 07 4b e2 bd 2c 94 86 bd 6a cf 99 3d
       -0.10942032 -0.110494666 -0.0657123 0.07510264
000150 b2 f4 a3 3d 03 5d aa bd 60 cb dd 3b 0c 0f 85 bd
       0.08005656 -0.08318522 0.006768629 -0.064970106
000160 f3 68 69 bd d2 84 db 3d 52 fd 73 3d bc 55 fc bc
       -0.056984853 0.10718693 0.059567757 -0.0308026
000170 3e a0 94 3c e2 61 da 3c cc 43 de 3c f2 4b 1a bd
       0.018142816 0.026658002 0.027131937 -0.037670083
000180 84 05 99 bd 0e 1f aa 3d a0 36 5b 3c da 8a 46 3d
       -0.07471755 0.083067045 0.013379723 0.048472263
000190 a2 66 36 bd cf 5e 76 3d 31 38 b9 3d 4b 96 95 3d
       -0.044531472 0.06014901 0.09043921 0.07304057
0001a0 bc 68 17 3d 7a 6e f9 3d 75 4a 89 bb a2 fd be 3c
       0.036965117 0.12179275 -0.004189784 0.0233143
0001b0 e8 c9 fc 3d 97 4e 01 3e 3c ef 45 bd c9 77 e9 3d
       0.12343198 0.12627636 -0.048323855 0.113998
0001c0 53 03 53 3d e4 05 38 bc b8 dd e4 3d 3c b1 72 bd
       0.051516842 -0.011231873 0.11175102 -0.059251055
0001d0 35 26 b4 3d 0f 07 f2 3d ee 6c b6 bd 33 3f 8d bd
       0.0879635 0.118177526 -0.089074954 -0.0689682
0001e0 65 79 fd bd a6 c2 b4 bc c9 64 be bd 3a ef 2b bd
       -0.1237667 -0.022065472 -0.09296567 -0.04197619
0001f0 63 c8 30 3d 58 44 c0 3d 85 46 83 3d 56 72 8c 3d
       0.043159854 0.093880355 0.06409935 0.06857745
000200 10 62 57 3d be 33 97 bd 34 1b c5 bd 5c f5 df 3b
       0.052583754 -0.07382916 -0.09624329 0.006834669
000210 3a 3a ce 3d 9b d5 18 3c a5 80 59 bc dc 3d ad bd
       0.100696996 0.009328271 -0.0132753 -0.08459064
000220 04 02 6d bd 4f d6 c1 bd b2 0c cd 3d 2e a4 91 bc
       -0.05786325 -0.09464704 0.10012187 -0.017778482
000230 1d ec e0 bd df 63 70 3c 99 fe 8d 3c 61 34 3e bc
       -0.10982535 0.014672249 0.017333316 -0.011609168
000240 dc d1 33 3d df cb 8e 3d 76 cb e6 bd 89 8e c4 bd
       0.04390131 0.06972479 -0.11269276 -0.09597499
000250 d0 63 d5 bb 38 e7 f0 bd f6 6e be bd cc 99 d8 3d
       -0.0065121427 -0.117628515 -0.09298508 0.105762094
000260 b7 8c a7 bb 50 1a 75 bd fe 4f 4b bd 3d d1 bb bd
       -0.00511321 -0.059839547 -0.049636833 -0.091707684
000270 3b d7 cd 3d 68 d5 f8 bc e8 3e 97 bd 0f 5b c1 bd
       0.100508176 -0.030375198 -0.07385045 -0.09441196
000280 64 e8 98 3d c6 d2 7e bc b6 2a 13 bc 02 a2 e7 bc
       0.074662 -0.015553182 -0.008982351 -0.028275494
000290 87 4e 65 bd fd c5 e0 3c 46 30 c5 3d 31 a7 8e bd
       -0.055983093 0.027438158 0.09628348 -0.06965483
0002a0 5d e1 8c 3b 1d 31 b8 bd b9 f9 6b bd ad 22 e2 3d
       0.0042993263 -0.089937426 -0.0576112 0.1104177
0002b0 e8 f9 84 3b b3 68 f7 3d 5f db a7 bc 46 a6 72 bd
       0.0040581115 0.12080517 -0.020490346 -0.059240602
0002c0 fe 47 95 bd 86 db bd 3d 6f 7a ba bd 5d 17 86 3d
       -0.07289122 0.092703864 -0.091053836 0.06547425
0002d0 bd bd 0a 3d ec 90 27 3d cc 1c 94 3d 3b 1b df bc
       0.033872355 0.040909693 0.07232055 -0.027234664
0002e0 a4 85 9e 3d fb f2 c3 bd e9 ce ca bc 6e 83 bc 3d
       0.07740334 -0.09567829 -0.024756866 0.09204756
0002f0 bf c6 19 3d c9 df 86 bc a8 c2 94 bc a2 22 9a bd
       0.037543055 -0.016464131 -0.018159226 -0.07526137
000300 1e c6 9a 3d 85 76 95 bb e3 e1 b7 bb 0c 73 f0 3c
       0.07557319 -0.004561248 -0.0056116446 0.029351734
000310 79 74 97 3d e3 1c 83 bd 77 f9 37 bd 7d d1 a5 3d
       0.07395262 -0.06401994 -0.044915643 0.08096597
000320 8d b1 8d 3d 47 70 80 bd 0c fa fd bd 45 c7 a5 3c
       0.06918631 -0.06271415 -0.12401208 0.02023662
000330 01 9e 82 3d c4 88 ec 3c c1 58 b3 3d 9f 69 ce bd
       0.06377793 0.028873809 0.08757163 -0.100787394
000340 f8 02 80 3d e1 cc 93 bd 69 b0 8d 3d 19 df c2 3d
       0.06250566 -0.07216812 0.06918413 0.09515209
000350 0d 3e 1c 3d 3d 6a c7 3d 41 81 7e bd 98 bd eb bd
       0.038145114 0.0973706 -0.062134985 -0.115107715
000360 b7 3c f9 bd 8b 2f a4 3d e1 bf 2f 3d ad 08 c3 bd
       -0.121697836 0.080168806 0.0429076 -0.09523139
000370 45 18 71 3d b5 a2 e0 3d 82 55 fd bd ba ed b6 3d
       0.058861036 0.10968534 -0.12369825 0.089320615
000380 b5 fc 8f 3c 7c 5a 1b 3c d6 0d e5 3d 18 b2 e8 3d
       0.017576555 0.009482022 0.111842796 0.11362094
000390 9b df 49 3d f3 a1 c6 3d 19 c5 4c 3d 40 47 9c 3c
       0.049285512 0.09698858 0.049992654 0.019076943
0003a0 ba bb e8 bd c9 a5 ad 3c 08 01 b2 bd 60 54 19 3d
       -0.11363931 0.021197217 -0.08691603 0.037433982
0003b0 3a 55 b0 3c 5b a5 21 3b 3f 73 b7 bd 82 f7 9f bd
       0.021525014 0.002466521 -0.08957528 -0.0781088
0003c0 9c 3d b8 3d 3b 78 56 3d f6 df 85 3d 84 a9 1b bd
       0.08996126 0.052360754 0.06536858 -0.03800346
0003d0 df 3f bd bc df fe ef bc 85 4c ad 3d 53 47 61 bd
       -0.023101745 -0.029296337 0.084618606 -0.05499966
0003e0 51 e7 9d 3d b5 76 ae 3d 45 02 c0 bd 18 92 a0 ba
       0.07710136 0.08518735 -0.09375433 -0.001225057
0003f0 4c 3b cb bc 3c 55 91 bd da 97 54 3d a3 95 8c bc
       -0.024808548 -0.07096335 0.05190263 -0.017161196

spatial_module.qkv_proj_low.bias f4 [12]
000000 0a 17 89 bd cd a3 18 3d f5 53 e1 3d cc ad 7f bd
       -0.066938475 0.037265588 0.11002342 -0.062421605
000010 7d 2b b1 bd 2c 3d 4f 3d ec ee dc bd ba 23 e7 3d
       -0.08650873 0.050595447 -0.10787758 0.11286111
000020 c6 3c 79 bd 89 21 6c 3d dc 19 d1 bd df 35 b4 bd
       -0.060848974 0.05764917 -0.102100104 -0.087993376
