optim_results/models/trial_37_best.pt (torch, 50301 bytes, 58 tensors)

temp_conv.depthwise.weight f4 [1, 1, 3]
0	0x3e54659b	0.20741884
1	0x3eba9220	0.3643961
2	0xbeb08784	-0.3447839

temp_conv.pointwise.weight f4 [12, 1, 1]
0	0xbeabc85c	-0.335513
1	0x3e50dd0e	0.20396826
2	0xbf0ad5de	-0.54232585
3	0x3f17434f	0.5908708
4	0x3f645c05	0.8920291
5	0xbf3f8302	-0.7480928
6	0x3f5b6c1b	0.8571183
7	0x3e2ce25d	0.16883226
8	0x3f361bff	0.7113647
9	0x3e1462c2	0.14490798
10	0x3edffcf3	0.43747672
11	0xbe313a8c	-0.1730749

temp_conv.pointwise.bias f4 [12]
0	0x3f43d3a6	0.76494825
1	0x3e167d00	0.14696121
2	0xbeefe65e	-0.46855444
3	0x3e825d56	0.25461835
4	0xbeeba5ac	-0.46024835
5	0xbdecba9d	-0.11559031
6	0xbed007a1	-0.4063082
7	0x3f2a53df	0.6653423
8	0xbf4a27d2	-0.7896701
9	0xbee9ebe7	-0.45687792
10	0xbe90c5c9	-0.28275898
11	0xbf18e9ad	-0.5973156

temp_conv.bn2.weight f4 [12]
0	0x3f905dda	1.1278641
1	0x3f8079fe	1.0037229
2	0x3f88b1d8	1.0679274
3	0x3f806401	1.0030519
4	0x3f815281	1.0103303
5	0x3f85650f	1.0421466
6	0x3f7c9afe	0.98674
7	0x3f7bdb9c	0.9838197
8	0x3f77f041	0.96850973
9	0x3f809092	1.0044119
10	0x3f752b82	0.9576951
11	0x3f842f9d	1.032703

temp_conv.bn2.bias f4 [12]
0	0xbc2489e5	-0.010042642
1	0x3ca57ed9	0.020202087
2	0x3bf2559c	0.0073954593
3	0x3d194fb4	0.037429526
4	0x3c4c465a	0.012467945
5	0xbda8bd97	-0.082392864
6	0x3d1d5d25	0.038418908
7	0x3b4dc25c	0.0031396365
8	0xbd70cda4	-0.058789864
9	0x3d4dbfd1	0.05023176
10	0xbd102bba	-0.03519795
11	0xbc5ae153	-0.013359386

temp_conv.bn2.running_mean f4 [12]
0	0x3f26b8d8	0.651258
1	0x3e5d76de	0.21627375
2	0xbf2719c6	-0.652737
3	0x3ee919af	0.45527408
4	0xbe2147a6	-0.15749988
5	0xbebd355c	-0.36954772
6	0xbdec3f2a	-0.11535485
7	0x3f38fca3	0.72260493
8	0xbf0c529f	-0.5481357
9	0xbed0b4f6	-0.40763062
10	0xbe0955e8	-0.13411677
11	0xbf27e22a	-0.65579474

temp_conv.bn2.running_var f4 [12]
0	0x3d1aeaf4	0.037821725
1	0x3c6628bb	0.014047797
2	0x3dcaeeb5	0.09908811
3	0x3df11cab	0.11773046
4	0x3e8931c1	0.26795772
5	0x3e40e5fc	0.18837732
6	0x3e7d701e	0.247498
7	0x3c1dba0c	0.009626877
8	0x3e2ea428	0.17054808
9	0x3be8b984	0.0071021933
10	0x3d844784	0.06458953
11	0x3c25957e	0.0101064425

feature_process_low.weight f4 [4, 240]
0	0x3c07c101	0.008285762
1	0xbd14233f	-0.036166426
2	0x3d8f1f0f	0.06988346
3	0xbd2ad99f	-0.041711446
4	0x3d5fdd27	0.054654267
5	0x3c970e74	0.018439509
6	0xbc48f3d1	-0.012265162
7	0x3d2f4c94	0.04279764
8	0x3c0efdde	0.008727519
9	0x3d4d8d2b	0.050183456
10	0x3b872fa9	0.0041255546
11	0xbca02807	-0.019550337
12	0x3c4af62f	0.012387796
13	0xbca42bd5	-0.020040432
14	0x3ce495a8	0.027903393
15	0x3d779aff	0.06045055
16	0x3d2c1cc2	0.042019613
17	0xbcb5bd96	-0.022185128
18	0x3d0e6950	0.034768403
19	0xbdc68661	-0.096935995
20	0x3d2d2674	0.042273
21	0xbcf01791	-0.029308112
22	0xbd824035	-0.06359903
23	0xbd1f3e41	-0.03887773
24	0xbd796d71	-0.060895387
25	0x3d1ff96a	0.03905622
26	0x3c23dd47	0.010001487
27	0x3c936d77	0.017996533
28	0x3c1e75f6	0.009671679
29	0xbc7ffb12	-0.015623825
30	0x3d33c3d7	0.04388794
31	0xbd3a64f2	-0.045506425
32	0x3b692a7e	0.0035578306
33	0xbd208d5d	-0.039197315
34	0x3c9a94dd	0.018869812
35	0xbcba4294	-0.022736825
36	0x3b16c59a	0.0023005963
37	0xbce66bb5	-0.02812753
38	0x3d369e70	0.04458469
39	0xbd190ce5	-0.037365813
40	0xbd08014b	-0.033204358
41	0xbc103588	-0.008801825
42	0x3d94e85b	0.07270881
43	0x3cf43035	0.029808143
44	0x3d81a25a	0.06329794
45	0xbd4bf6fe	-0.049796097
46	0xbd6ede6b	-0.058317583
47	0xbd40f4ab	-0.047108334
48	0xbd3ae387	-0.045627143
49	0x3d046a30	0.03232783
50	0x3c9499ea	0.018139798
51	0x3d565757	0.052329388
52	0xbd022edd	-0.031782974
53	0xbd322366	-0.04349079
54	0x3d0f2ca4	0.034954682
55	0xbc89b412	-0.016809497
56	0x3d3db14a	0.046311654
57	0xbbb3b33c	-0.005484013
58	0x3d22385c	0.03960453
59	0xbe1e51d9	-0.1546091
60	0xbca91439	-0.020639526
61	0x3cfa2e23	0.030539578
62	0x3c797cb0	0.015227482
63	0xbcefce31	-0.029273124
64	0x3cd1ae3e	0.02559578
65	0x3cfbfec6	0.030761134
66	0xbd66faa5	-0.056391377
67	0xbd309d4f	-0.04311877
68	0x3d42210e	0.047394805
69	0xbd110be5	-0.035411734
70	0xbced24e4	-0.028948255
71	0xbd77bb77	-0.060481515
72	0xbd19bea9	-0.037535343
73	0x3ca46135	0.020065883
74	0xbc27b189	-0.010235199
75	0xbd373eb5	-0.044737536
76	0xbc85235c	-0.016252212
77	0xbd69617d	-0.056977738
78	0xbd814c87	-0.063134246
79	0xbd0a8484	-0.033817783
80	0xbd4a105b	-0.049332004
81	0xbd05ab28	-0.03263393
82	0x3d80678f	0.06269752
83	0xbac1890b	-0.0014765573
84	0x3c0247ae	0.00795166
85	0xbd949674	-0.07255259
86	0xbd52dd99	-0.051480863
87	0xbcf81b7f	-0.030286549
88	0xbab29511	-0.0013624748
89	0xbd936373	-0.07196703
90	0xbd0800a7	-0.033203747
91	0xbd15766b	-0.036489885
92	0xbaa86c8c	-0.0012849732
93	0xbc93f310	-0.018060237
94	0xbb874a59	-0.004128736
95	0xbd2a0de4	-0.041517153
96	0xbd76d496	-0.06026133
97	0xbd5ae24b	-0.053438466
98	0xbccee44e	-0.025255349
99	0xbd4d9e8c	-0.05020003
100	0x3d574adf	0.052561637
101	0x3c607ab4	0.01370113
102	0x3d8591ad	0.06521926
103	0x3cf60403	0.03003121
104	0xbd3d4fa1	-0.04621852
105	0x3d3fe871	0.046852533
106	0xbc9aec1a	-0.01891141
107	0xbce6f791	-0.02819422
108	0xbd38702d	-0.045028854
109	0xbd72f229	-0.059312973
110	0x3c84ec5c	0.016225986
111	0xbc57146b	-0.013127427
112	0x3cecf98d	0.028927589
113	0xbd484c40	-0.048900843
114	0x3d3fee80	0.04685831
115	0xbd1514e9	-0.036396895
116	0xbb56c56b	-0.003277148
117	0x3cb234c8	0.021753684
118	0x3d1a908e	0.037735514
119	0xbd82a6b4	-0.06379452
120	0x3d8b0a58	0.06789082
121	0xbd27af7c	-0.04093884
122	0x3c900ffc	0.017585747
123	0xbd2f43cc	-0.042789266
124	0xbc9f505d	-0.0194475
125	0xbd74e375	-0.059787232
126	0x3d4622b6	0.048372947
127	0xbd68b8fa	-0.056817032
128	0x3cb9f7e4	0.022701211
129	0x3beba22c	0.0071909633
130	0x3c6c8e8a	0.014438281
131	0xbd09574c	-0.03353052
132	0x3d709631	0.058736984
133	0x3c84e4fb	0.016222468
134	0x3bce0fe8	0.0062885173
135	0xbd5e8fa6	-0.054336213
136	0x3c20b340	0.0098083615
137	0xbccfa50b	-0.025347253
138	0xbd0af001	-0.03392029
139	0x3d379bc9	0.044826303
140	0x3cc36398	0.023851201
141	0xbcdd4438	-0.027010068
142	0xbd06c92b	-0.032906692
143	0xbc8d6bf9	-0.0172634
144	0x3cbb2491	0.022844585
145	0xbcf40ec6	-0.0297922
146	0xbd3ab352	-0.04558117
147	0xbcfdcbf7	-0.030981047
148	0xbd703b9a	-0.05865059
149	0x3c0b358f	0.008496656
150	0x3d341a0b	0.04397015
151	0xbd7136d9	-0.058890197
152	0x3c71b66e	0.014752967
153	0x3d0a69b5	0.033792216
154	0x3c253d46	0.0100854095
155	0xbcaf14d1	-0.02137223
156	0x3c8e6d91	0.01738623
157	0x3c86be85	0.016448269
158	0x3c92fa56	0.017941635
159	0xbc78038b	-0.015137563
160	0xbc57bbca	-0.013167331
161	0x3c4f856a	0.012666086
162	0xbc89f976	-0.016842585
163	0xbd14eaaf	-0.036356624
164	0x3cde652b	0.02714785
165	0x3d2e6bbd	0.042583216
166	0xbc89c364	-0.016816802
167	0xbcc4a28d	-0.024003292
168	0xbc327343	-0.010891738
169	0xbc8ceebf	-0.017203687
170	0x3c2292ca	0.009922693
171	0x3c94c32b	0.01815947
172	0xbd6fcede	-0.058546893
173	0xbcb65bbd	-0.022260541
174	0x3d53e309	0.05173019
175	0x3cd5d4d8	0.026102468
176	0xbc93d94d	-0.018047953
177	0xbd529cd5	-0.051419098
178	0xbd33772b	-0.04381482
179	0xbd818d68	-0.06325799
180	0xbc1f6874	-0.009729493
181	0x3d063be4	0.03277196
182	0x3d285926	0.041100644
183	0x3c86269b	0.01637583
184	0xbd916920	-0.07100129
185	0xbd564158	-0.05230841
186	0xbc97fd40	-0.018553376
187	0x3d59b79d	0.053153623
188	0xbb858199	-0.004074287
189	0xbcf3ca4c	-0.029759549
190	0x3caeed44	0.021353371
191	0xbcc52aa8	-0.024068192
192	0xbd30121f	-0.04298603
193	0x3d4570e5	0.048203368
194	0xbd050890	-0.03247887
195	0xbc39c5d5	-0.011338671
196	0xbd9ea06a	-0.0774544
197	0x3cda380a	0.02663805
198	0x3d32ae43	0.04362322
199	0x3c9eaa57	0.019368334
200	0xbd201a10	-0.039087355
201	0xbd64b8e1	-0.055840377
202	0xbd61e0ab	-0.0551459
203	0x3d0b1ebc	0.033964857
204	0x3c8f53b4	0.017495967
205	0x3d24fea2	0.0402819
206	0x3ccfbcdb	0.025358608
207	0x3bffc90c	0.007805949
208	0xbc4c5063	-0.012470338
209	0xbd84c11a	-0.06482144
210	0xbd798b9b	-0.060924154
211	0xbd6f3776	-0.0584025
212	0x3cd7b03b	0.02632915
213	0xbcd9264e	-0.026507523
214	0xbc7d1a9e	-0.015448241
215	0xbd16bfbf	-0.036803957
216	0xbce192a2	-0.02753574
217	0xbd76efa7	-0.060287144
218	0xbd39ffce	-0.04540997
219	0x3c14193e	0.009039221
220	0xbc60a10b	-0.013710271
221	0x3d8a96ba	0.0676703
222	0xbbf522a0	-0.0074809343
223	0xbd11314b	-0.0354474
224	0xba7ca432	-0.0009637504
225	0xbceeb87a	-0.0291407
226	0xbcadcf4d	-0.021217013
227	0xbd6c42c5	-0.057680864
228	0x3d33fd6b	0.04394285
229	0xbd23befd	-0.039977062
230	0x3d075021	0.0330354
231	0x3ce5dfc1	0.028060796
232	0x3d3b4fdf	0.045730468
233	0xbd39b801	-0.045341495
234	0x3d3b0dbc	0.045667395
235	0xbcb26d20	-0.02178055
236	0x3d07d193	0.03315885
237	0x3d90d6a7	0.07072192
238	0xbbe29898	-0.0069151632
239	0xbddbdded	-0.10735688
240	0xbca1f21a	-0.019768763
241	0xbdae66f1	-0.08515728
242	0x3c8ea606	0.01741315
243	0xbd9836cc	-0.07432327
244	0x3d0c1e59	0.03420863
245	0x3d28bc3d	0.041195143
246	0x3d5fb379	0.054614518
247	0xbca0ff2c	-0.019652925
248	0xbd58daf3	-0.05294318
249	0x3c2cf6b2	0.010556864
250	0x3d0589cc	0.032602116
251	0xbd8cb646	-0.068707034
252	0xbc7e9364	-0.01553807
253	0xbd35c321	-0.044375543
254	0xbc6aa244	-0.014320914
255	0xbd287be8	-0.04113379

feature_process_low.bias f4 [4]
0	0x3cbb8688	0.022891298
1	0xbc955263	-0.018227762
2	0xbd10b68a	-0.035330333
3	0xbc325318	-0.010884069

feature_process_high.weight f4 [16, 4]
0	0xbdee590a	-0.116380766
1	0xbee751d6	-0.45179623
2	0x3ecd3a30	0.40083456
3	0xbe8805d0	-0.26566935
4	0xbd5e6990	-0.05429989
5	0x3d029d18	0.031888098
6	0xbd13a93b	-0.036050063
7	0xbeeff91d	-0.46869746
8	0x3e6d05a6	0.23146686
9	0xbe60d3f9	-0.21955861
10	0xbe789324	-0.2427488
11	0x3e0a80d0	0.135257
12	0xbe8d1f87	-0.27563116
13	0xbe6c3937	-0.230687
14	0xbe4c848c	-0.19972438
15	0xbe6b090d	-0.22952671
16	0xbe4bd28d	-0.19904537
17	0xbe11def7	-0.1424521
18	0x3e14e337	0.145398
19	0xbec67cec	-0.38767183
20	0xbe9ce160	-0.30640697
21	0xbd614841	-0.055000547
22	0x3dc2da56	0.095143005
23	0x3e7c2627	0.24623929
24	0xbead3e4e	-0.33836597
25	0x3e29105a	0.16510144
26	0x3e95bcff	0.29245755
27	0x3e8df9ce	0.27729648
28	0xbef7c121	-0.48389533
29	0xbe4e521a	-0.20148507
30	0xbee59eee	-0.44847816
31	0xbeb0e8cc	-0.3455261
32	0x3e9f061d	0.31059352
33	0xbd956056	-0.07293765
34	0x3e726147	0.23669921
35	0xbe841630	-0.25798178
36	0x3dad32d1	0.08456958
37	0xbe918b3a	-0.28426534
38	0x3e77a0a4	0.24182373
39	0xbe696aa8	-0.22794592
40	0xbdcabd6b	-0.0989941
41	0xbed5fe62	-0.4179564
42	0x3d2b31ca	0.04179553
43	0x3ef51d8b	0.47874102
44	0x3e7db331	0.24775387
45	0xbe8668f6	-0.26251954
46	0x3d2273dd	0.039661277
47	0xbcbab5f2	-0.022791836
48	0xbed1140c	-0.40835607
49	0x3ee2b2ca	0.4427703
50	0xbc804792	-0.015659127
51	0x3dd48add	0.103780486
52	0xbe49bdbc	-0.19701284
53	0xbe633f8c	-0.2219221
54	0x3d96a679	0.07355971
55	0x3e38c09b	0.18042223
56	0x3ddbdc66	0.10735397
57	0xbe8169c9	-0.2527602
58	0x3efa132e	0.48842758
59	0xbd866a40	-0.06563234
60	0xbe907ca9	-0.28220108
61	0xbe6b821c	-0.22998852
62	0x3f084a80	0.5323868
63	0x3d5575c2	0.052114256

feature_process_high.bias f4 [16]
0	0xbd98fddf	-0.07470297
1	0xbe1a788c	-0.15085047
2	0xbe0d65db	-0.13808386
3	0xbebf9827	-0.3742077
4	0xbeb16218	-0.34645152
5	0x3e9e464a	0.30913
6	0x3ed84347	0.4223883
7	0x3efd00aa	0.4941457
8	0xbea0dd90	-0.3141904
9	0x3e8c08aa	0.2735036
10	0xbe9aa7a6	-0.3020603
11	0x3e9845b0	0.29740667
12	0x3eb32fd2	0.34997422
13	0x3ec432c6	0.38319987
14	0x3eb36e90	0.3504529
15	0x3e91c8c0	0.28473473

feature_norm.weight f4 [16]
0	0x3f85dde4	1.0458341
1	0x3f71e49f	0.94489473
2	0x3f7a1ad6	0.976972
3	0x3f80b8ff	1.0056456
4	0x3f7ce441	0.9878579
5	0x3f7f354e	0.9969071
6	0x3f809e86	1.0048378
7	0x3f811af7	1.0086354
8	0x3f7cd466	0.98761594
9	0x3f7e6af1	0.9938193
10	0x3f78d04b	0.9719283
11	0x3f81a0d4	1.0127206
12	0x3f8270b2	1.0190642
13	0x3f7e5feb	0.9936511
14	0x3f7f786b	0.9979312
15	0x3f7facd4	0.9987309

feature_norm.bias f4 [16]
0	0x3b78d6bc	0.0037969789
1	0xbd43192c	-0.047631428
2	0xbcd76538	-0.026293382
3	0x3c88cd57	0.016699476
4	0xbc20bfd8	-0.009811364
5	0x3cf19fc9	0.029495137
6	0x3b74713f	0.0037298945
7	0x3ba6cb8e	0.0050901836
8	0xbc362a8b	-0.0111185415
9	0xbc88dee1	-0.01670784
10	0xbcd4f8dc	-0.025997572
11	0x3c045d98	0.008078955
12	0xbcae1919	-0.021252202
13	0xbd26496b	-0.04059736
14	0x3ba61085	0.0050678873
15	0xbd43c2ca	-0.047793187

graph_attention.learnable_adj_u f4 [4, 47, 4]
0	0x3da32024	0.07965115
1	0x3d170b5b	0.036876064
2	0xbd0e1f67	-0.034697916
3	0x3da62607	0.08112722
4	0x3d807e6d	0.06274114
5	0xbe1e1230	-0.15436625
6	0xbdcf7964	-0.10130575
7	0x3bbca0db	0.00575648
8	0x3d85456d	0.065073825
9	0x3daadfbc	0.08343455
10	0xbdd11445	-0.10208944
11	0xbe2e3ace	-0.1701462
12	0xbc125e62	-0.008933635
13	0xbca09b33	-0.019605255
14	0x3d4bd6dc	0.049765453
15	0xbd412e36	-0.04716321
16	0x3e0642e6	0.13111457
17	0x3c3b7bda	0.011443103
18	0x3e003df2	0.1252363
19	0xbdf490dc	-0.11941692
20	0x3d8c8118	0.0686056
21	0x3ca76786	0.020435106
22	0xbdafaaa9	-0.08577473
23	0x3dae1efd	0.08502004
24	0xbe2ccee1	-0.16875793
25	0x3e0dfa84	0.13865095
26	0x3c627068	0.013820745
27	0x3c87a5fa	0.016558636
28	0x3da26ca3	0.07930877
29	0x3c694034	0.014236499
30	0x3d968e0e	0.073513135
31	0x3ddf74f8	0.10910982
32	0xbe090f53	-0.13384752
33	0x3de85bf9	0.113456674
34	0xbcd25ed8	-0.02567999
35	0xbd235b23	-0.039881837
36	0x3d0d6452	0.0345195
37	0x3e095b73	0.13413791
38	0xbdbeeef9	-0.09322924
39	0xbdecb448	-0.115578234
40	0x3dd9f9af	0.106433265
41	0xbda4f606	-0.08054738
42	0x3d62280e	0.05521398
43	0xbccefb1a	-0.025266219
44	0x3d415a8b	0.04720549
45	0x3e06039c	0.13087314
46	0xbdb200a7	-0.08691531
47	0xbdaa704e	-0.08322202
48	0x3dac51fe	0.08414076
49	0x3c19d864	0.00938997
50	0xbc9a9f60	-0.018874824
51	0xbe1a41fb	-0.15064232
52	0x3e14ca78	0.1453036
53	0xbbd4d25b	-0.006494803
54	0xbd01624b	-0.03158788
55	0xbd902d0e	-0.070398435
56	0xbd0a9f32	-0.033843227
57	0x3daab59a	0.08335419
58	0xbb812895	-0.0039416053
59	0x3e162fe4	0.14666706
60	0xbc223995	-0.009901424
61	0xbcc98bd2	-0.024602804
62	0x3dc64077	0.096802644
63	0xbb91697b	-0.004437623
64	0xbd0c34a9	-0.03422991
65	0x3d6ac7bc	0.057319388
66	0x3e0a7ebd	0.1352491
67	0x3d2f4c50	0.042797387
68	0x3df49134	0.11941758
69	0x3de39c22	0.11113764
70	0x3d46a755	0.048499424
71	0x3d743c97	0.059628095
72	0x3d62ac11	0.055339877
73	0x3c91ba37	0.01778899
74	0x3e1566d5	0.14590009
75	0x3e221dee	0.1583173
76	0x3d7a112f	0.061051544
77	0xbc0c51aa	-0.008564392
78	0x3e1d7478	0.1537646
79	0xbe08af36	-0.13348088
80	0x3e0109eb	0.1260144
81	0x3dba1714	0.09086433
82	0x3de18971	0.11012543
83	0xbc57e531	-0.013177202
84	0xbe030691	-0.12795474
85	0x3dfa8b9d	0.1223366
86	0xbd9993af	-0.074988715
87	0x3d38d358	0.045123428
88	0x3dc6fcb5	0.09716169
89	0xbe241dc5	-0.16026981
90	0x3c3a78b7	0.01138132
91	0xbd79881d	-0.060920823
92	0x3df94966	0.12172203
93	0xbddfa0ca	-0.1091934
94	0x3dd54174	0.10412875
95	0x3ddb0413	0.106941365
96	0x3dc1c740	0.09461832
97	0x3e289796	0.16464075
98	0x3cd4c6b2	0.025973652
99	0xbe1f2c78	-0.15544307
100	0x3dfabaea	0.12242682
101	0x3c809d95	0.015700141
102	0x3b5f0b6c	0.0034033908
103	0xbe2749dd	-0.1633677
104	0xbd1de1c2	-0.038545378
105	0xbdaa79ac	-0.08323988
106	0x3e2bffb3	0.1679676
107	0x3dfa15d3	0.12211194
108	0x3e0301a3	0.12793593
109	0x3df088d8	0.11744851
110	0xbdd9b7be	-0.10630749
111	0xbd96d79b	-0.07365342
112	0xbd89741f	-0.067116015
113	0xbd8ccd30	-0.06875074
114	0x3e08b43a	0.13350001
115	0x3d6eac09	0.058269534
116	0x3e0cbabc	0.13743109
117	0xbc0370e1	-0.008022518
118	0xbe1c8c2e	-0.1528785
119	0xbd4bcca8	-0.049755722
120	0x3df6d789	0.12052829
121	0x3dd5d489	0.104409285
122	0x3d597607	0.053091075
123	0xbd4e0ce9	-0.05030528
124	0xbe23e9de	-0.16007182
125	0xbdbcb98a	-0.09215076
126	0x3db71fbd	0.089416005
127	0xbd8dabc5	-0.06917528
128	0x3da801a6	0.082034394
129	0x3d3fcccb	0.046826165
130	0xbd86e714	-0.065870434
131	0x3dd5ed0f	0.10445606
132	0xbd61b903	-0.05510808
133	0xbbbab348	-0.0056976415
134	0xbd85c9a9	-0.06532604
135	0xbe26953d	-0.16267867
136	0x3ce286b4	0.027652122
137	0x3d4afd24	0.04955782
138	0xbdb0d65a	-0.08634634
139	0x3dd775db	0.10520526
140	0xbe1d8937	-0.15384375
141	0xbe2949cf	-0.16532062
142	0xbdd8efb0	-0.10592592
143	0xbd72c5e3	-0.05927075
144	0xbc9c0701	-0.019046308
145	0xbd07bf9d	-0.03314172
146	0x3da04c02	0.07826997
147	0xbe1a1fb0	-0.1505115
148	0x3cceded9	0.025252746
149	0x3b42a38a	0.0029699528
150	0x3d398a5b	0.04529796
151	0x3e2e932e	0.17048332
152	0x3dd829d5	0.10554854
153	0xbdc27a28	-0.09495956
154	0xbe0fe865	-0.14053495
155	0xbd2a10d8	-0.04151997
156	0xbdb02f9d	-0.086028315
157	0x3d755f4d	0.05990534
158	0x3ace0f97	0.0015721199
159	0x3e0d403c	0.13794035
160	0x3d89f707	0.0673657
161	0xbd012945	-0.0315335
162	0x3bc125c9	0.005894397
163	0x3d283a98	0.041071504
164	0xbcae5508	-0.02128078
165	0x3e0db59f	0.13838814
166	0xbe095025	-0.13409479
167	0x3dab30ee	0.08358942
168	0xbddfe38b	-0.10932072
169	0xbe19da47	-0.15024672
170	0xbd10365a	-0.035208084
171	0x3dab27da	0.083572105
172	0x3df82a44	0.121174365
173	0x3d3046cf	0.04303628
174	0xbc72d9dd	-0.0148224505
175	0xbc1d8476	-0.009614101
176	0xbd8e61b8	-0.06952232
177	0xbc7c25aa	-0.015389839
178	0xbc422476	-0.011849513
179	0x3e157101	0.14593889
180	0x3dcd8e06	0.100368544
181	0xbe0c87ed	-0.13723727
182	0x3a39f961	0.00070943503
183	0xbdd807ca	-0.10548361
184	0xbcdf0485	-0.027223835
185	0xbe0b92a6	-0.1363016
186	0x3d369ca0	0.044582963
187	0xbdfd437a	-0.12366386
188	0x3e2d5ed1	0.16930701
189	0x3e049fe3	0.12951617
190	0xbdf1c58c	-0.11805257
191	0xbe2555b3	-0.16145973
192	0x3bdb442c	0.0066914763
193	0xbd4417a6	-0.047874115
194	0x3d4e37e5	0.050346274
195	0xbdedc07e	-0.116089806
196	0x3d8fc5c6	0.07020144
197	0xbe17afdc	-0.14813179
198	0xbdb95e42	-0.090511814
199	0xbdb8a44a	-0.09015711
200	0x3da9f4ec	0.08298668
201	0xbb932134	-0.004490042
202	0xbe28c546	-0.16481504
203	0xbdc8980e	-0.09794627
204	0xbda28a6c	-0.07936558
205	0xbe22f0bd	-0.15912147
206	0x3cb3e528	0.021959856
207	0x3d7a4fff	0.061111446
208	0xbd00e2a8	-0.031466156
209	0xbd8bc511	-0.06824697
210	0xba885297	-0.001040059
211	0xbe0b7cc8	-0.13621819
212	0xbdd5dd2a	-0.10442574
213	0xbb8029e8	-0.0039112456
214	0x3e1c0311	0.15235545
215	0xbd580303	-0.052737247
216	0x3dae170c	0.085004896
217	0xbd8a39f2	-0.067493334
218	0xbd3afe2a	-0.045652546
219	0xbe272ce0	-0.16325712
220	0x3e117e78	0.142084
221	0x3e2b0030	0.1669929
222	0xbb6c0ffc	-0.003602027
223	0x3ddf290d	0.10896502
224	0x3e0fa478	0.14027584
225	0x3dae7630	0.08518636
226	0x3db4e3c7	0.088325076
227	0xbe272ef3	-0.16326503
228	0xbe250514	-0.16115218
229	0xbe06ca8f	-0.13163207
230	0x3d5bb805	0.05364229
231	0xbe17e709	-0.14834227
232	0xbe060def	-0.13091253
233	0xbdaa3de2	-0.083125845
234	0xbe21dc82	-0.15806773
235	0x39724e5a	0.00023108107
236	0x3ccaaf48	0.024741784
237	0xbdcd8a17	-0.10036104
238	0x3de5f8ff	0.11229133
239	0xbd8557a3	-0.06510856
240	0xbd45c2cf	-0.048281487
241	0x3e05cbde	0.1306605
242	0x3e16c62f	0.14724039
243	0xbca12c33	-0.019674396
244	0xbdfc23c2	-0.12311508
245	0xbdb03365	-0.08603553
246	0x3cb2e6a7	0.0218385
247	0x3dcde34b	0.10053118
248	0x3daedb88	0.08537966
249	0xbd9b18bb	-0.07573076
250	0xbe260527	-0.16212903
251	0xbe19b044	-0.15008646
252	0xbd5f7dd0	-0.054563344
253	0x3b0cfce8	0.0021513049
254	0xbd9dc377	-0.077032976
255	0xbe0adbfd	-0.13560481

graph_attention.learnable_adj_v f4 [4, 4, 47]
0	0x3d87f0e9	0.06637747
1	0x3df24052	0.118286744
2	0x3dd4690f	0.10371601
3	0xbdc6cab1	-0.09706629
4	0xbce80a48	-0.028325215
5	0xbdf9840d	-0.1218339
6	0x3b9c9849	0.004778896
7	0xbd36bf2c	-0.04461591
8	0x3de089b4	0.10963765
9	0x3ca39cf1	0.019972296
10	0x3ab63a80	0.0013902932
11	0xbdbb2349	-0.091375895
12	0xbdcb045b	-0.0991294
13	0x3ca2e86d	0.01988622
14	0xbd808c43	-0.06276753
15	0xbd6da025	-0.058014054
16	0x3db577ac	0.08860716
17	0xbd86deb0	-0.06585443
18	0xbd664e2a	-0.056226887
19	0x3dc6a388	0.0969916
20	0x3d4a2797	0.049354162
21	0xbd93001d	-0.07177756
22	0x3d1cb301	0.03825665
23	0x3d826cc8	0.063684046
24	0xbde5c91b	-0.112199984
25	0x3cc150a1	0.023598017
26	0x3cec6dd4	0.028860964
27	0xbba1372c	-0.004919907
28	0x3df80cef	0.12111842
29	0xbdab001f	-0.083496325
30	0x3d8c401e	0.06848167
31	0xbd896e37	-0.06710475
32	0xbddd7b83	-0.108145736
33	0x3db050a6	0.086091325
34	0xbd78378e	-0.060599856
35	0x3bc28dcb	0.005937313
36	0x3d880e44	0.06643346
37	0xbdd7ef13	-0.10543647
38	0xbddd73be	-0.10813092
39	0x3d302924	0.043007985
40	0x3de1933b	0.1101441
41	0xbc5b0116	-0.013366958
42	0x3db63045	0.088959254
43	0x3d35d231	0.044389907
44	0x3d139eee	0.03604024
45	0xbda4f216	-0.08053987
46	0x3df637dc	0.12022373
47	0x3d6cff9f	0.057860967
48	0x3ca00291	0.019532474
49	0x3db6fc6a	0.08934863
50	0xbdde4a37	-0.10853999
51	0x3cdefd96	0.027220529
52	0xbd739044	-0.059463754
53	0xbc522b98	-0.012827776
54	0x3d2985f5	0.041387517
55	0x3d6529b2	0.055947967
56	0x3ced65ed	0.028979266
57	0xbdc83a89	-0.0977679
58	0xbda1e898	-0.07905692
59	0x3b108d00	0.0022056699
60	0xbcb33983	-0.02187801
61	0xbdd88b0f	-0.10573398
62	0x3dfedf18	0.124448955
63	0x3c822a3f	0.015889285
64	0xbdb7d367	-0.08975869
65	0x3d62eeaf	0.055403408
66	0x3d60d158	0.054887146
67	0xbd7dd3dc	-0.061969623
68	0x3d81ba69	0.06334383
69	0xbda07d0d	-0.078363515
70	0x3d334692	0.043768473
71	0x3df5bfc2	0.119994655
72	0x3daac829	0.08338959
73	0x3d7f7191	0.062364165
74	0xbcd289ed	-0.025700534
75	0x3cc24653	0.023715174
76	0x3d348fac	0.04408233
77	0x3cfcc168	0.030853942
78	0xbcd1a652	-0.025592003
79	0x3c906348	0.017625466
80	0xbd519208	-0.051164657
81	0xbd923d5f	-0.07140612
82	0xbdeebf02	-0.116575256
83	0xbdd2ed84	-0.10299209
84	0xbda26548	-0.07929474
85	0x3df74c27	0.12075072
86	0x3ccf161b	0.025279095
87	0xbdea0896	-0.11427419
88	0xbd843e7a	-0.06457229
89	0x3cf1b769	0.029506402
90	0xbd1addd3	-0.037809204
91	0xbd1275e6	-0.035756968
92	0xbd424c57	-0.047436085
93	0xbcfcbf8b	-0.030853054
94	0x3c6e1191	0.014530555
95	0x3bf51fdb	0.007480604
96	0x3da63746	0.08116011
97	0x3da58f25	0.08083943
98	0x3dd4ea56	0.103962585
99	0xbb83ad5d	-0.0040184692
100	0xbd670994	-0.05640562
101	0x39e1ffd7	0.0004310596
102	0xbdab5223	-0.08365276
103	0x3d53afdd	0.05168139
104	0xbc79b4f4	-0.0152408965
105	0xbd25b785	-0.04045822
106	0xbddb562c	-0.10709795
107	0x3d795a31	0.06087703
108	0x3d9067b2	0.07051028
109	0x3dec005b	0.11523505
110	0xbd374e48	-0.04475239
111	0x3d1be74f	0.03806239
112	0x3b9c07e6	0.0047616838
113	0xbda4ca3b	-0.08046385
114	0xbda1bb4e	-0.07897054
115	0x3d847b25	0.064688005
116	0xbd94952b	-0.07255014
117	0x3dbc633f	0.09198617
118	0x3d34c3d0	0.044132054
119	0x3d30b3e4	0.043140307
120	0x3daa6125	0.0831931
121	0x3d7d3b94	0.061824396
122	0x3d5f2746	0.054480813
123	0x3d863aa4	0.065541536
124	0xbd5b933a	-0.053607203
125	0xbd893049	-0.06698663
126	0xbcbd9560	-0.023142517
127	0x3d8fa088	0.07013041
128	0x3db50d3b	0.08840414
129	0x3dbe8436	0.09302561
130	0xbd233673	-0.03984685
131	0xbc834e0d	-0.016028428
132	0xbdb1afc3	-0.08676102
133	0x3d9f84e0	0.07789016
134	0xbdab8e95	-0.08376805
135	0xbd54e961	-0.05198038
136	0x3dd5a20e	0.104313
137	0x3cfb7a84	0.030698068
138	0xbd589b89	-0.052882705
139	0xbdae3518	-0.085062206
140	0xbdb1e853	-0.086868905
141	0x3dd0c8ed	0.101945736
142	0xbdec7612	-0.115459576
143	0x3ddf8edf	0.109159224
144	0x3dcef551	0.10105384
145	0x3c003dd7	0.007827244
146	0xbc25e4f7	-0.01012539
147	0x3dc93428	0.09824401
148	0x3d642b5c	0.055705413
149	0x3df49cc2	0.11943962
150	0x3dd0fd07	0.10204511
151	0xbda9a6a5	-0.08283738
152	0x3d9fa787	0.07795625
153	0x3d827986	0.06370835
154	0xbdb7afc7	-0.08969074
155	0x3d788059	0.060669277
156	0xbd866069	-0.065613575
157	0xbd9a2306	-0.075262114
158	0x3b1a7287	0.0023566799
159	0xbc7e5305	-0.015522723
160	0xbd0b1fcc	-0.03396587
161	0xbda9a9d1	-0.08284343
162	0x3d8d8610	0.06910336
163	0x3e00f9bc	0.12595266
164	0xbce54d08	-0.027990833
165	0xbdae4fbb	-0.08511301
166	0xbbd5712d	-0.0065137357
167	0xbde0c4e2	-0.109750524
168	0xbdd21612	-0.10258116
169	0xbd2c5d0e	-0.04208093
170	0x3da28c54	0.07936922
171	0xbdc6335f	-0.09677767
172	0xbca52483	-0.020159012
173	0xbd865704	-0.06559566
174	0xbdee376f	-0.11631667
175	0xbce8f3ea	-0.02843662
176	0xbbf11f00	-0.007358432
177	0xbcadff90	-0.021240026
178	0x3dbd26bf	0.09235906
179	0x3d4f4219	0.050600145
180	0x3da11229	0.07864792
181	0x3d4aaac7	0.049479272
182	0x3c59251a	0.013253475
183	0x3d8c6aaf	0.06856286
184	0xbda50b19	-0.08058757
185	0x3d83d22a	0.0643657
186	0x3d76740f	0.060169276
187	0xbd5b9884	-0.053612247
188	0xbb8e1096	-0.0043354733
189	0xbdc3b514	-0.09556022
190	0xbde26204	-0.11053851
191	0xb9125444	-0.00013955036
192	0x3cb94aff	0.022618769
193	0xbcdf385b	-0.027248552
194	0x3d1fdb3b	0.039027434
195	0xbdc7b957	-0.09752148
196	0xbd8e3534	-0.069437414
197	0x3db28f53	0.08718743
198	0xbdfbc4b9	-0.12293381
199	0x3ca27dd0	0.019835383
200	0x3dc72c4b	0.09725245
201	0x3dc1f36f	0.094702594
202	0x3d30803a	0.043091036
203	0xbdeba885	-0.11506752
204	0x3c8538c1	0.016262414
205	0xbd35f454	-0.044422463
206	0xbd117386	-0.035510562
207	0x3dc6388f	0.096787564
208	0xbd2fd735	-0.042929847
209	0xbdb947a6	-0.09046869
210	0xbdcfacf6	-0.101404116
211	0x3da3583f	0.07975816
212	0x3bc7bbee	0.006095401
213	0x3dff8494	0.12476459
214	0x3cd3a0a8	0.025833443
215	0xbdf11889	-0.11772258
216	0x3d000363	0.03125323
217	0x3decbaef	0.11559092
218	0x3da07583	0.078349136
219	0x3d1b4595	0.037908155
220	0xbdc25e82	-0.09490682
221	0xbd9b2182	-0.075747505
222	0x3dafaacc	0.08577499
223	0xbdacfce5	-0.08446673
224	0x3cec14ad	0.028818453
225	0xbc84961d	-0.01618486
226	0x3d2d6076	0.04232832
227	0x3c076c48	0.008265562
228	0xbdc50d10	-0.09621632
229	0xbd4e3f3b	-0.05035327
230	0x3de1a4cf	0.11017763
231	0x3c73a20c	0.014870178
232	0x3d832e04	0.06405261
233	0xbd8284fa	-0.063730195
234	0x3dcccdfb	0.10000225
235	0xbcdd8565	-0.027041147
236	0xbd2e6726	-0.04257884
237	0x3cd1ebd5	0.025625149
238	0xbd3965d7	-0.045263138
239	0xbd4fec9a	-0.05076275
240	0xbc941486	-0.018076193
241	0xbbec511f	-0.007211819
242	0xbd93244a	-0.07184656
243	0x3d30dc4d	0.043178845
244	0xbdfabc7d	-0.122429825
245	0x3d9ecfdf	0.07754492
246	0x3deff17a	0.1171598
247	0x3ca76b35	0.020436862
248	0xbcf1cc51	-0.029516371
249	0xbdecf3ad	-0.11569915
250	0x3d72fb18	0.059321493
251	0x3dd3fb2a	0.1035064
252	0x3ddd2d4f	0.107996576
253	0x3c388d8c	0.011264216
254	0x3d2c058c	0.041997477
255	0x3df7e5c2	0.1210437

graph_attention.qkv_proj_low.weight f4 [12, 16]
0	0x3c9683c3	0.018373376
1	0x3dad9887	0.08476358
2	0xbdb834b2	-0.08994426
3	0x3e150f1a	0.14556542
4	0xbca0365f	-0.019557176
5	0x3cbeb824	0.023281164
6	0xbe4a9e24	-0.19786888
7	0xbd48ed04	-0.04905416
8	0xbe0557f4	-0.13021833
9	0xbdb6cf24	-0.08926228
10	0xbe09be99	-0.13451613
11	0xbe57a429	-0.21058716
12	0x3d059432	0.032612033
13	0x3e4b5909	0.19858183
14	0x3e66ed30	0.22551417
15	0x3e1c2984	0.15250212
16	0xbe315de2	-0.1732097
17	0xbe164176	-0.14673409
18	0x3dba5b26	0.090994164
19	0x3e079890	0.13241792
20	0xbe570c08	-0.21000683
21	0x3dc4499e	0.09584354
22	0x3e607bd3	0.21922235
23	0x38a4fe08	7.8674464e-05
24	0xbe11f4f7	-0.14253603
25	0x3e53510a	0.20636383
26	0x3d9c39ea	0.07628234
27	0x3e3751a5	0.17902239
28	0xbe3752a9	-0.17902626
29	0x3e2027d4	0.15640193
30	0xbe1cd675	-0.15316184
31	0x3e73c47c	0.23805422
32	0xbe105cac	-0.14097852
33	0x3e1b9692	0.15194157
34	0x3d37e29e	0.044893853
35	0x3d1b32bb	0.037890177
36	0xbda33495	-0.079690136
37	0x3dd990f0	0.10623348
38	0xbdd1cf91	-0.10244668
39	0xbe6c22cd	-0.2306015
40	0xbdce0966	-0.10060386
41	0x3e42d5f8	0.19026935
42	0xbd7e6591	-0.06210858
43	0x3dab373f	0.08360147
44	0xbd9413a0	-0.07230306
45	0x3e4817c3	0.19540314
46	0x3e127cd1	0.14305426
47	0x3d96cc80	0.07363224
48	0xbdc9c5ae	-0.098521575
49	0xbe9e2eb3	-0.30895004
50	0x3c2c61ac	0.010521334
51	0xbe11af5e	-0.14227054
52	0x3e572a44	0.21012217
53	0xbe70534e	-0.23469278
54	0x3dec541b	0.11539479
55	0x3e871e36	0.26390237
56	0x3dfd586a	0.12370379
57	0x3dac4b8d	0.08412848
58	0xbe579dc6	-0.2105628
59	0x3e76a3e0	0.24085951
60	0xbcb5c42c	-0.022188269
61	0xbe679476	-0.22615227
62	0x3e6fcab0	0.23417163
63	0xbdc86f9f	-0.09786915
64	0x3c3bdc90	0.01146616
65	0x3e1499bb	0.14511769
66	0xbe2c83be	-0.1684713
67	0xbe3b2c64	-0.18278652
68	0x3c65d334	0.0140274055
69	0xbd163be2	-0.036678202
70	0x3d58581d	0.052818406
71	0xbe473aeb	-0.19456069
72	0xbb723031	-0.0036954994
73	0xbdfda959	-0.12385816
74	0xbdbc474a	-0.09193285
75	0xbe735319	-0.23762168
76	0x3e1abdcb	0.15111463
77	0x3d24a16d	0.04019301
78	0xbe7381c8	-0.23779976
79	0x3e435bd1	0.19077994
80	0x3d21d908	0.039513618
81	0x3dda1b56	0.10649745
82	0xbe1b1051	-0.15142943
83	0x3cf51f62	0.029922191
84	0x3e62f631	0.22164227
85	0x3e280cac	0.16411084
86	0xbe5016b8	-0.20321167
87	0x3e6a718e	0.2289488
88	0x3c485ff9	0.012229913
89	0x3df3ec34	0.119102865
90	0x3e2fc623	0.17165427
91	0x3e581f93	0.21105795
92	0xbe617249	-0.22016253
93	0x3e598528	0.21242201
94	0xbe255a49	-0.16147722
95	0x3cb4a7c4	0.022052653
96	0xbe618360	-0.22022772
97	0xbcfc3edf	-0.030791698
98	0xbca596e2	-0.020213548
99	0xbd88c486	-0.06678109
100	0xbdb34e83	-0.08755209
101	0x3c6573fe	0.0140047055
102	0x3e7c980d	0.24667378
103	0x3e08cf6f	0.1336038
104	0x3e0db075	0.13836844
105	0x3dcac1a5	0.09900216
106	0x3e3411b8	0.17584884
107	0xbbca27e4	-0.006169306
108	0x3cdcb244	0.026940472
109	0x3d270d6c	0.040784284
110	0xbe5c8288	-0.21534169
111	0xbe5ff5bc	-0.21871084
112	0x3d249b6d	0.040187288
113	0xbe06aff2	-0.13153055
114	0x3c6756dc	0.01411983
115	0xbd409e2f	-0.047025856
116	0xbbbf9e0f	-0.0058476995
117	0x3e21106c	0.1572892
118	0xbdb489f1	-0.08815373
119	0x3e4d3127	0.20038281
120	0x3e412667	0.18862306
121	0xbe33db07	-0.17564021
122	0xbe436986	-0.19083223
123	0xbe4b6645	-0.19863231
124	0xbe1b34eb	-0.15156905
125	0xbdd3fbc7	-0.10350757
126	0xbc8e057c	-0.0173366
127	0xbd81ca1f	-0.0633738
128	0xbe102a6a	-0.1407868
129	0x3c719008	0.014743812
130	0xbdb87cea	-0.090082005
131	0x3e8135dd	0.25236407
132	0xbd9fb1ab	-0.07797559
133	0xbe4000d6	-0.18750319
134	0x3dc4ab79	0.09603018
135	0xbcb0b9f5	-0.021573046
136	0x3e49c14a	0.1970264
137	0x3e22e0d2	0.15906075
138	0x3e531ae6	0.2061573
139	0xbe3f00ed	-0.18652697
140	0x3e0d4528	0.13795912
141	0x3e4c3232	0.19941023
142	0xbde4682b	-0.11152681
143	0x3e6fdc91	0.23423983
144	0x3e4bbffc	0.19897455
145	0x3d12f538	0.03587839
146	0x3def2300	0.116765976
147	0xbd791dde	-0.0608195
148	0xbe2a7bf6	-0.1664885
149	0x3d7a0261	0.061037425
150	0x3d9162ce	0.070989236
151	0xbe2467eb	-0.16055267
152	0x3e088e1d	0.13335462
153	0xbe5a3f14	-0.21313125
154	0x3e562a8d	0.2091467
155	0x3e714986	0.23563203
156	0x3d394e28	0.04524055
157	0xbe1c23d0	-0.15248036
158	0x3e02507c	0.12726015
159	0x3d5fd79a	0.054648973
160	0x3dc4037c	0.09570977
161	0x3cb5bdde	0.022185262
162	0x3e4955de	0.19661662
163	0xbdeff228	-0.117161095
164	0xbda1b6a7	-0.07896166
165	0x3d99ab09	0.075033255
166	0x3d0fd34a	0.03511361
167	0x3e4e7090	0.20160127
168	0xbe00443e	-0.12526032
169	0xbb9909cb	-0.004670357
170	0x3d8eee43	0.069790386
171	0xbd7b4932	-0.0613491
172	0x3e4b09fc	0.19828027
173	0x3d14fdeb	0.036374968
174	0xbe735ab4	-0.23765069
175	0xbd085690	-0.033285677
176	0xbd8c15b6	-0.068400785
177	0xbd0f8ceb	-0.0350465
178	0xbc8d1221	-0.017220559
179	0xbe812ed3	-0.25231037
180	0xbd9a30ef	-0.075288646
181	0xbd21c83c	-0.0394976
182	0xbdbd096f	-0.09230315
183	0x3e81f4a9	0.25381973
184	0xbd88e636	-0.06684534
185	0x3e1752e4	0.14777714
186	0x3daee306	0.08539395
187	0xbe6cf309	-0.23139586
188	0x3d9571ea	0.07297118
189	0x3e43af45	0.19109829
190	0xbe48712e	-0.19574425
191	0xbe26b308	-0.16279233

graph_attention.qkv_proj_low.bias f4 [12]
0	0x3e9b099c	0.3028077
1	0x3e420cc5	0.18950184
2	0xbe1c7230	-0.15277934
3	0x3e3c26d3	0.18374185
4	0xbd29ac7e	-0.041424267
5	0xbe881e53	-0.26585636
6	0xbd07aea7	-0.033125546
7	0x3db1b508	0.08677107
8	0xbdb4f1fa	-0.08835216
9	0x3dde6ae0	0.108602285
10	0xbe56333f	-0.20917986
11	0x3e22d2fa	0.15900794

graph_attention.qkv_proj_high.weight f4 [48, 12]
0	0x3e6c150b	0.23054902
1	0x3e6148c5	0.22000416
2	0x3dc83a59	0.09776754
3	0x3e178262	0.14795831
4	0xbe713892	-0.23556736
5	0xbdb52b12	-0.08846106
6	0x3ca18b89	0.019719856
7	0xbe50c0a1	-0.20385982
8	0xbe4f0321	-0.20216037
9	0x3e4eaa47	0.20182143
10	0x3e31804c	0.17334098
11	0xbe855150	-0.260386
12	0x3d9dc684	0.077038795
13	0x3e36c0e6	0.17847022
14	0x3ea98e61	0.3311644
15	0x3e61714d	0.22015877
16	0x3e73c91b	0.23807184
17	0xbdeada17	-0.114673786
18	0x3e78cb80	0.24296379
19	0x3e407096	0.18792948
20	0xbe8632e5	-0.26210704
21	0xbe6013a0	-0.21882486
22	0x3ceafd9c	0.028685383
23	0x3e16b55d	0.14717622
24	0xbe265e57	-0.16246925
25	0x3d943f18	0.07238597
26	0x3d3cd4db	0.046101432
27	0x3dc4c9c4	0.09608796
28	0xbe21196b	-0.15732352
29	0x3e105bee	0.14097568
30	0x3e650155	0.2236379
31	0xbe720a53	-0.23636751
32	0xbb3919c9	-0.002824413
33	0x3c5d067a	0.013490314
34	0x3d5ebc14	0.054378584
35	0x3e7f12bf	0.24909495
36	0x3d83433c	0.06409308
37	0xbcc21675	-0.023692349
38	0x3e9d206d	0.306888
39	0xbda86f6e	-0.082243785
40	0xbdb8306d	-0.089936115
41	0xbb4403a3	-0.0029909394
42	0xbe380891	-0.17972018
43	0xbbdf1a93	-0.006808588
44	0xbe45a4dc	-0.1930117
45	0x3d16aed5	0.036787827
46	0xbae42441	-0.0017405824
47	0x3cd47480	0.025934458
48	0xbe750b2a	-0.2393004
49	0xbe9a8e48	-0.30186677
50	0x3df3f69f	0.119122736
51	0x3e62c23c	0.22144407
52	0xbe6c6b33	-0.23087768
53	0x3dd9ef24	0.106413156
54	0xbe7cf4ba	-0.24702731
55	0x3cd7285b	0.02626436
56	0x3e8344e8	0.2563851
57	0x3e63c76c	0.22244042
58	0xbe354980	-0.1770382
59	0x3e37833e	0.17921159
60	0x3e21759c	0.1576752
61	0xbd26427e	-0.040590756
62	0x3e7e5212	0.24835995
63	0xbe128f30	-0.14312434
64	0xbd39d7f6	-0.045371972
65	0xbe166537	-0.14687048
66	0xba83a91c	-0.0010044905
67	0x3dc5060e	0.096202955
68	0x3bfe8b48	0.0077680685
69	0xbe243a4f	-0.16037868
70	0xbdc1271d	-0.094312884
71	0x3dbde62b	0.09272417
72	0xbe885f6b	-0.26635298
73	0xbd906e83	-0.070523284
74	0xbd00613c	-0.03134273
75	0xbe05c5b2	-0.13063696
76	0x3df001a6	0.117190644
77	0x3c79ce45	0.015246932
78	0x3e36bc9f	0.1784539
79	0xbc5442bf	-0.012955367
80	0xbe41f025	-0.18939264
81	0x3e4f229d	0.20228048
82	0x3db385e4	0.08765772
83	0xbd953fc2	-0.072875515
84	0xbe3838d9	-0.17990436
85	0x3d106e8f	0.035261687
86	0xbea14173	-0.31495246
87	0x3d721ff0	0.05911249
88	0x3e1b91f7	0.151924
89	0xbe7acd16	-0.24492297
90	0xbe688117	-0.22705494
91	0xbe3e7639	-0.18599786
92	0x3e6baa29	0.2301413
93	0x3e7b5a9d	0.24546285
94	0x3d821f69	0.06353647
95	0x3e90b896	0.28265828
96	0xbdde4bda	-0.10854311
97	0xbe9a9986	-0.30195254
98	0x3e0d97ba	0.1382741
99	0x3d15de45	0.036588926
100	0x3eb248da	0.34821206
101	0xbd017810	-0.03160864
102	0x3e36dee6	0.17858467
103	0x3e1c843e	0.15284821
104	0x3e34bc05	0.17649849
105	0xbe7f03a6	-0.24903736
106	0x3e46c817	0.19412266
107	0xbe9c6191	-0.30543187
108	0x3e85cf52	0.26134735
109	0xbcb18220	-0.021668494
110	0xbe6cbabf	-0.23118113
111	0x3d1a4a00	0.03766823
112	0xbc72d570	-0.014821395
113	0xbe923c7a	-0.28561765
114	0xbe0c1ef4	-0.13683683
115	0x3c540ab1	0.012942002
116	0x3e4a743b	0.19770901
117	0xbd52cf42	-0.051467188
118	0x3e0ea00d	0.13928242
119	0xbca3f83f	-0.020015834
120	0x3c43dfaf	0.011955186
121	0x3d4e2b7d	0.050334442
122	0xbe244d46	-0.16045102
123	0xbe8bcb03	-0.27303323
124	0xbd67d33c	-0.056597933
125	0xbe97e64d	-0.29667893
126	0xbe268d8f	-0.16264938
127	0xbbd78e30	-0.0065782294
128	0xbe59f26f	-0.21283887
129	0xbda7b343	-0.08188488
130	0xbdb03901	-0.08604623
131	0xbdba1228	-0.09085494
132	0xbe2b318b	-0.16718118
133	0xbb2cde06	-0.0026377453
134	0xbc0521ac	-0.008125704
135	0x3cd109e3	0.02551741
136	0x3d9009bf	0.07033109
137	0xbe32a897	-0.17447124
138	0xbe09a5a6	-0.13442096
139	0xbcc894dd	-0.024485046
140	0xbe5a7a06	-0.21335611
141	0x3d781a92	0.060572214
142	0xbd6f3851	-0.058403317
143	0x3d5c2fac	0.0537564
144	0x3d5b94e1	0.05360878
145	0x3e6f019b	0.23340456
146	0x3d05f89f	0.032707807
147	0xbe79cf55	-0.24395497
148	0x3e200e05	0.15630348
149	0xbe6b7de7	-0.22997247
150	0xbd3d6ada	-0.04624448
151	0xbe0acb63	-0.13554148
152	0xbdd4451b	-0.10364743
153	0xbd77488e	-0.060371928
154	0x3e679807	0.22616588
155	0x3e01947d	0.126543
156	0x3d99c09a	0.07507439
157	0x3e9f17ea	0.31072932
158	0xbe723c5b	-0.23655836
159	0x3d3d32af	0.046190914
160	0x3e3d2914	0.18472701
161	0x3e2cc819	0.16873206
162	0xbe529bea	-0.20567289
163	0x3d8cf863	0.068833135
164	0xbe1cbeb6	-0.15307125
165	0x3cd6398f	0.026150493
166	0xbda0694d	-0.078325845
167	0xbe85336a	-0.26015788
168	0xbe925298	-0.2857864
169	0xbe1fc389	-0.15601934
170	0x3e2917ea	0.16513029
171	0x3dfa2e17	0.12215822
172	0xbe78b674	-0.2428835
173	0xbe0ddd72	-0.13854006
174	0x3cc0ec58	0.023550197
175	0xbe94ae93	-0.2903944
176	0x3e2cc5f6	0.16872391
177	0x3e9c3c85	0.30514923
178	0x3ccd5c65	0.025068471
179	0xbe774989	-0.24149145
180	0x3d50561b	0.050863367
181	0x3e005567	0.12532578
182	0x3e87be7e	0.26512522
183	0xbe37f991	-0.17966296
184	0xbe7058d0	-0.2347138
185	0x3dc162c6	0.09442668
186	0x3ca36191	0.019943984
187	0xbe0807c4	-0.13284212
188	0xbdeb327c	-0.114842385
189	0xbdd97b6b	-0.10619243
190	0x3e4e3de5	0.20140798
191	0xbdad41ce	-0.08459817
192	0x3e89c4e7	0.26908037
193	0x3e93b44c	0.28848493
194	0x3dba06d5	0.09083334
195	0x3d468f71	0.04847664
196	0xbd0e5657	-0.03475031
197	0x3e761e7b	0.24035065
198	0xbeaea092	-0.3410688
199	0x3e045be3	0.12925677
200	0xbde5e552	-0.1122538
201	0x3e1daca4	0.15397888
202	0xbda07ad7	-0.0783593
203	0xbe24a724	-0.16079384
204	0x3d6130d2	0.0549782
205	0x3e233279	0.15937223
206	0xbe13f778	-0.1444987
207	0xbe44fe1b	-0.19237559
208	0xbdc4d627	-0.09611159
209	0xbd1a5c89	-0.037685905
210	0xbd0cce28	-0.034376293
211	0x3e484d3c	0.19560713
212	0xbdf82092	-0.12115587
213	0x3e9e307d	0.3089637
214	0xbe5ebb0f	-0.21751045
215	0xbe78f1f3	-0.24311046
216	0xbd4671ea	-0.04844848
217	0xbe5a39cb	-0.21311109
218	0xbe131421	-0.14363147
219	0xbe8a0be3	-0.26962194
220	0xbe8c8cb1	-0.2745109
221	0x3df8721e	0.12131141
222	0x3cc94692	0.024569783
223	0x3e87849a	0.26468354
224	0x3e1ee6c6	0.1551772
225	0x3c7ea7c6	0.01554293
226	0xbd330941	-0.043709997
227	0xbe7ced47	-0.24699889
228	0x3e1776df	0.1479144
229	0xbeabfce9	-0.33591393
230	0x3e103312	0.14081982
231	0xbc6402fa	-0.013916725
232	0x3e040883	0.12893872
233	0x3e086249	0.13318743
234	0xbe7a0646	-0.24416456
235	0x3e944bee	0.2896418
236	0x3d846397	0.06464308
237	0x3e3c65fa	0.18398276
238	0xbb3edc01	-0.0029122832
239	0x3e057fbd	0.1303701
240	0x3e063d42	0.13109306
241	0x3e157e0b	0.14598863
242	0x3e8195bc	0.2530955
243	0xbd6a26bf	-0.057165857
244	0x3e4f9bfb	0.20274346
245	0x3cd55079	0.026039349
246	0x3e66130f	0.22468208
247	0x3e6a38b8	0.22873199
248	0x3dd8dd66	0.105891034
249	0xbdc32c25	-0.09529904
250	0xbd418eec	-0.04725544
251	0x3d85cfb2	0.06533755
252	0xbd2946a2	-0.041327126
253	0xbd875be3	-0.06609323
254	0x3e849b5a	0.25899774
255	0x3e2327c6	0.15933141

graph_attention.qkv_proj_high.bias f4 [48]
0	0x3e3ac2f8	0.18238437
1	0x3e7052f6	0.23469147
2	0x3db4d9d6	0.088306114
3	0x3e6d9807	0.23202525
4	0xbe57c3e0	-0.21070814
5	0xbe8fefdf	-0.28112695
6	0xbe96d720	-0.29461002
7	0x3e2c3ae1	0.16819336
8	0x3d8e1a73	0.069386385
9	0xbe6118a5	-0.21982057
10	0x3e09e27e	0.13465306
11	0x3e7767af	0.24160646
12	0xbe94931c	-0.29018486
13	0x3e6b95e1	0.23006393
14	0x3d6787dc	0.05652605
15	0x3cd1f57c	0.025629751
16	0x3e84b4fe	0.25919336
17	0x3e7bd052	0.24591187
18	0x3dc184df	0.09449171
19	0x3e22f1c4	0.15912539
20	0x3ddd32ae	0.10800682
21	0x3cb98c57	0.022649927
22	0xbe6fce45	-0.2341853
23	0x3d79fe3a	0.061033465
24	0xbe65b41b	-0.22431986
25	0x3d6b3f95	0.057433683
26	0x3ddb3636	0.10703699
27	0xbbc3c9d2	-0.0059749866
28	0xbe6fa1cd	-0.23401566
29	0xbe1d6ed9	-0.15374316
30	0x3e72f686	0.23726854
31	0x3dc731a8	0.09726268
32	0x3e11e9b4	0.14249307
33	0xbd87dc2e	-0.06633793
34	0xbccb4067	-0.024810983
35	0xbda2ad94	-0.07943264
36	0x3e4cc176	0.19995674
37	0xbe1fc5cd	-0.15602799
38	0x3e5c9eac	0.21544904
39	0x3e28f5fa	0.16500083
40	0xbe3f4dd7	-0.18682037
41	0xbd0c66b3	-0.03427763
42	0xbd0ebe55	-0.034849484
43	0xbe4c9622	-0.19979146
44	0x3e0300bd	0.1279325
45	0xbb81b430	-0.0039582476
46	0x3e8024b8	0.25028014
47	0xbe41efad	-0.18939085

graph_attention.out_proj_low.weight f4 [4, 16]
0	0x3de45657	0.111492805
1	0xbe58aa82	-0.21158794
2	0xbe1140bf	-0.14184855
3	0x3c5d381c	0.013502147
4	0x3e3e176c	0.18563622
5	0x3e0787bd	0.13235374
6	0xbe51fc16	-0.2050632
7	0x3c8c4e41	0.017127158
8	0xbe07eebf	-0.13274668
9	0xbad03855	-0.0015885929
10	0xbe5a2f6a	-0.2130715
11	0xbd91538e	-0.07096015
12	0x3e2d11b6	0.16901287
13	0xbe7102cd	-0.23536225
14	0xbe805904	-0.25067914
15	0x3d3d7c09	0.046260867
16	0x3d22b629	0.039724503
17	0xbd58c115	-0.052918512
18	0x3e61642c	0.22010869
19	0xbe1371e9	-0.14398922
20	0xbe0c18f8	-0.136814
21	0xbe3a59ca	-0.18198314
22	0xbc944de4	-0.018103547
23	0xbcf700e9	-0.030151801
24	0x3e16ac16	0.14714083
25	0xbc11e5cb	-0.008904885
26	0x3dac62d1	0.08417285
27	0xbe00357a	-0.125204
28	0x3e3733dd	0.17890878
29	0x3e59eeb6	0.21282467
30	0xbe5ef28f	-0.21772216
31	0xbd5418f0	-0.051781595
32	0xbe74f0d5	-0.23919995
33	0x3dde9873	0.10868921
34	0xbe6aff52	-0.2294896
35	0xbdc56610	-0.096386075
36	0x3e79c72f	0.24392389
37	0xbe69f779	-0.2284831
38	0x3e2fefa8	0.17181265
39	0x3c8e2381	0.017350914
40	0x3e39539c	0.180983
41	0xbe222443	-0.15834145
42	0x3e25208a	0.16125694
43	0x3d01cb50	0.031688035
44	0x3d0e5d64	0.034757033
45	0x3e3f81bb	0.18701832
46	0xbe78dd86	-0.24303254
47	0xbe558be3	-0.20854144
48	0x3e84103b	0.25793633
49	0xbe144eb5	-0.1448315
50	0xbe359390	-0.17732072
51	0xbc2639d0	-0.0101456195
52	0xbdb00dc3	-0.08596375
53	0xbd0add96	-0.033902727
54	0xbe4a6611	-0.19765498
55	0x3d8314b0	0.0640043
56	0xbe57c236	-0.2107018
57	0x3d2378d8	0.039910167
58	0x3e15ff2f	0.14648126
59	0x3d944356	0.07239406
60	0x3b4d77fa	0.003135203
61	0x3d26a084	0.040680423
62	0xbd9ed972	-0.07756318
63	0xbbdce0d1	-0.0067406674

graph_attention.out_proj_low.bias f4 [4]
0	0xbe0b36c7	-0.13595115
1	0xbe0e5d24	-0.13902718
2	0xbe050597	-0.12990414
3	0x3e65f7c2	0.22457793

graph_attention.out_proj_high.weight f4 [16, 4]
0	0xbdc57eab	-0.096433006
1	0x3e2a5689	0.16634573
2	0x3eb466c8	0.35234666
3	0xbd580d7c	-0.052747235
4	0xbe8c4f9c	-0.27404487
5	0xbea6e47e	-0.325962
6	0xbe3e38b2	-0.18576315
7	0x3e34879a	0.17629853
8	0xbedcb116	-0.43103856
9	0xbdbc7205	-0.09201435
10	0x3e342319	0.17591514
11	0x3ed07bb0	0.40719366
12	0x3e2b37bb	0.16720478
13	0x3dca4527	0.09876471
14	0x3eb7a5a9	0.35868576
15	0x3e70fc4a	0.2353374
16	0x3e22ac4c	0.15886039
17	0xbe2780fd	-0.16357799
18	0xbed0eb17	-0.4080436
19	0xbe0281d3	-0.12744837
20	0xbdc54e70	-0.096341014
21	0x3d09309d	0.033493627
22	0xbd9f813c	-0.077883214
23	0x3e50fa6e	0.20408031
24	0x3ead0e5e	0.33800024
25	0xbe5b17d7	-0.21395813
26	0xbee8f5f0	-0.45500135
27	0xbe6b9cfb	-0.23009102
28	0xbe67e715	-0.22646745
29	0x3e8a8ccc	0.27060544
30	0xbeadd1ba	-0.3394907
31	0xbd22fb88	-0.03979066
32	0xbdcfb1af	-0.10141312
33	0xbe943f64	-0.28954613
34	0x3e7841b7	0.24243818
35	0xbe57a3d3	-0.21058588
36	0xbcd3c6a4	-0.025851555
37	0xbeb44aa1	-0.35213187
38	0xbd806a7f	-0.062703125
39	0x3da91ca4	0.08257416
40	0xbbfc761f	-0.007704511
41	0xbe569694	-0.20955878
42	0x3e227009	0.1586305
43	0xbde9719e	-0.11398624
44	0xbe8a6be3	-0.27035436
45	0xbebd0842	-0.36920363
46	0xbde3f213	-0.11130156
47	0xbef369ab	-0.47541556
48	0x3edcba6e	0.43110985
49	0xbe6c6a91	-0.23087527
50	0xbe5582aa	-0.20850626
51	0x3d487ac6	0.04894521
52	0x3dea57ac	0.11442503
53	0xbd797278	-0.06090018
54	0x3eb4bc99	0.3530014
55	0xbe9c8d22	-0.30576426
56	0x3e2fad74	0.17156011
57	0xbb361d16	-0.0027788333
58	0xbed0775e	-0.4071607
59	0xbe5132d6	-0.20429549
60	0x3df88ba6	0.12136011
61	0x3db3a5e8	0.087718785
62	0x3eb0e2b7	0.3454797
63	0x3ea3a690	0.31963015

graph_attention.out_proj_high.bias f4 [16]
0	0xbe7dbebe	-0.24779794
1	0xbe631e43	-0.22179513
2	0xbdd9a762	-0.10627629
3	0xbeb61fe8	-0.35571218
4	0xbe0bdaf6	-0.13657746
5	0xbed0b929	-0.40766266
6	0x3e6efcdb	0.23338644
7	0x3ec1d8dc	0.37860763
8	0x3c8732ef	0.01650378
9	0xbeae3336	-0.34023446
10	0xbeb63505	-0.35587326
11	0xbe3b199e	-0.18271491
12	0x3d6d3f84	0.0579219
13	0x3c59e418	0.013299011
14	0x3dcc4ca5	0.09975556
15	0x3eff6cd0	0.49887705

temporal_module.fusion_weight f4 [3]
0	0x3f7a7b11	0.97844034
1	0x3f8272b7	1.0191258
2	0x3f80ad85	1.0052954

temporal_module.scales.0.0.weight f4 [16, 16, 3]
0	0xbdd06022	-0.10174586
1	0xbe0499a4	-0.12949234
2	0xbe0b8318	-0.13624227
3	0xb7c17ca2	-2.306543e-05
4	0xbdecbfd8	-0.11560029
5	0xbc995ae8	-0.018720105
6	0xbdcc9281	-0.09988881
7	0xbe168234	-0.14698106
8	0x3d5e7194	0.054307535
9	0x3d28c068	0.041199118
10	0x3d09fe61	0.03368986
11	0x3dc000fe	0.09375189
12	0xbdbca1e1	-0.092105635
13	0xbd6bd7f7	-0.057579007
14	0xbdc68573	-0.09693422
15	0x3df61d91	0.12017358
16	0x3db17d4a	0.08666475
17	0x3dbd3343	0.09238293
18	0xbdbb7193	-0.09152522
19	0xbd795a6d	-0.060877252
20	0x3e1a9163	0.15094523
21	0xbd31506a	-0.04328958
22	0xbc9f5e84	-0.019454248
23	0x3de7e708	0.113233626
24	0xbe4568cf	-0.19278263
25	0xbddb2ef5	-0.10702316
26	0x3ca63954	0.020291008
27	0x3db9c8d6	0.090715095
28	0xbd624932	-0.055245586
29	0xbe20217c	-0.15637773
30	0x3c53011f	0.012878685
31	0x3d952647	0.072826914
32	0xbe1c8332	-0.15284422
33	0xbbf2aaf7	-0.0074056345
34	0xbdce906a	-0.100861385
35	0xbd64cafb	-0.05585764
36	0x3d189aa5	0.037256856
37	0x3d5014aa	0.050800957
38	0x3d3a8f42	0.045546778
39	0xbe2cca67	-0.16874085
40	0xbd95eab0	-0.07320154
41	0x3d522ea6	0.05131402
42	0x3c8c4aba	0.017125476
43	0x3b02c7ff	0.0019955633
44	0xbd3088d1	-0.04309923
45	0x3db8adc1	0.09017516
46	0xbe3f92b8	-0.18708313
47	0xbe2ca2a2	-0.16858914
48	0x3de310ff	0.11087226
49	0xbd15f81a	-0.03661356
50	0x3de508bc	0.111833066
51	0xbdb4282a	-0.08796723
52	0xbd31bb00	-0.043391228
53	0xbda721fb	-0.08160778
54	0x3defbf38	0.11706394
55	0x3dd49acf	0.1038109
56	0x3c37308d	0.011181009
57	0x3c0972af	0.008389159
58	0xbcdbcdc4	-0.026831515
59	0xbd6da1e3	-0.058015715
60	0xbd75acd8	-0.05997929
61	0x3bd5b507	0.0065218243
62	0xbd2d9c25	-0.04238524
63	0x3de2581b	0.11051961
64	0x3c264e2c	0.010150474
65	0x3c89e9ab	0.016835054
66	0xbdc505f9	-0.0962028
67	0x3cdf50ac	0.027260147
68	0xbe194fbb	-0.14971821
69	0x3d327c3f	0.04357552
70	0x3d3b391b	0.045708757
71	0x3cdfda61	0.02732581
72	0x3da979b4	0.08275166
73	0x3d0ee549	0.034886632
74	0xbd5c9351	-0.05385143
75	0xbde4586f	-0.1114968
76	0xbe1a4c5b	-0.1506819
77	0x3d7e2838	0.062050074
78	0x3d744d9c	0.059644327
79	0xbde37f95	-0.11108319
80	0x3cddc4fd	0.02707147
81	0xbd9ad97d	-0.07561014
82	0x3dd88065	0.10571364
83	0xbd954ac7	-0.07289653
84	0x3dec6510	0.11542714
85	0x3da2ed43	0.0795541
86	0x3d8c4483	0.06849005
87	0x3da95577	0.08268254
88	0x3dbd30a6	0.092377946
89	0x3d460384	0.048343197
90	0xbdedd833	-0.11613502
91	0xbd5d277d	-0.053992737
92	0xbccf589b	-0.025310805
93	0x3d95bed1	0.07311786
94	0xbd1353e8	-0.03596869
95	0x3da0699d	0.07832644
96	0x3dc41d08	0.0957585
97	0x3d8b070c	0.067884535
98	0x3d69747e	0.05699586
99	0xbc998488	-0.018739954
100	0x3d8a1329	0.06741936
101	0xbd344fcb	-0.04402141
102	0x3e089d2b	0.13341205
103	0x3bf9e91e	0.0076266667
104	0xbacae4f2	-0.0015479608
105	0xbdf0053e	-0.1171975
106	0x3e19268b	0.14956109
107	0xbcba90bc	-0.022774093
108	0x3dd294cd	0.10282288
109	0xbdee2002	-0.11627199
110	0xbddcda6d	-0.10783849
111	0xbbdf5d99	-0.0068165776
112	0xbdd03d7f	-0.101679794
113	0x3d4e56b4	0.050375655
114	0xbc0b4999	-0.008501434
115	0xbd9b7726	-0.07591085
116	0x3dc5be55	0.096554436
117	0x3dce8e6d	0.10085759
118	0xbdf6b71e	-0.120466456
119	0xbdcaed89	-0.099085875
120	0x3d8e4066	0.06945877
121	0xbdcef6fe	-0.10105704
122	0x3ba84984	0.005135717
123	0xbd2bf5ba	-0.04198239
124	0x3ca4cc72	0.020117018
125	0xbda8bfbd	-0.08239696
126	0xbc64ed4a	-0.01397259
127	0xbd8505b0	-0.064952254
128	0xbdb4afc6	-0.088225886
129	0xbda9536e	-0.08267866
130	0x3c97e957	0.018543882
131	0x3d9e9c6e	0.0774468
132	0xbb2b45d8	-0.002613416
133	0xbb993bd8	-0.0046763234
134	0x3e018110	0.1264689
135	0x3dcf38b7	0.101182394
136	0xbd011338	-0.03151247
137	0xbe173150	-0.14764905
138	0x3d13de79	0.03610084
139	0x3d113396	0.035449587
140	0xbdc25bd3	-0.0949017
141	0xbdf86c36	-0.121300146
142	0x3cf53e3f	0.029936908
143	0x3e13ce97	0.14434277
144	0xbdf7ec0e	-0.12105571
145	0xbce4f878	-0.02795051
146	0xbd5e4d8e	-0.05427318
147	0xbe09aa70	-0.13443923
148	0xbdf0febd	-0.117673375
149	0x3df52409	0.11969764
150	0x3e02eb3f	0.12785052
151	0xbda35512	-0.0797521
152	0x3cb4f9c3	0.022091752
153	0xbdacdf65	-0.084410466
154	0x3df36aac	0.118855804
155	0xbd8f209e	-0.06988643
156	0xbdc1c4be	-0.09461354
157	0xbde7cf47	-0.11318832
158	0x3c3feaed	0.0117137255
159	0x3e114d88	0.14189732
160	0xbd9d2a01	-0.07674027
161	0x3db6dda7	0.089289956
162	0x3dbf3fd9	0.0933835
163	0xbd55bc69	-0.052181635
164	0x3acd2afd	0.001565307
165	0x3cd36fb2	0.025810096
166	0xbc214eb8	-0.009845428
167	0x3dc42485	0.09577278
168	0x3d4ed5e3	0.050496947
169	0xbd9f968a	-0.07792385
170	0x3de08528	0.109628975
171	0x3d8b757e	0.06809519
172	0xbd29cfad	-0.04145782
173	0x3df7125a	0.12064047
174	0xbc9699c9	-0.018383877
175	0x3db87e86	0.090085074
176	0xbe1427d0	-0.14468312
177	0x3db76b33	0.089559935
178	0x3dc80309	0.09766204
179	0xbe1419df	-0.14462994
180	0xbe00dbd5	-0.1258386
181	0xbd7f1255	-0.062273342
182	0xbd930447	-0.0717855
183	0x3d2ba11b	0.04190169
184	0x3e005a9f	0.12534569
185	0xbce4c8df	-0.027927814
186	0x3d9b5a0b	0.07585534
187	0xbd381d5b	-0.04494987
188	0xbd802537	-0.06257098
189	0xbdb613b4	-0.08890477
190	0x3dcd1fbf	0.10015821
191	0xbddd02d7	-0.10791557
192	0xbcf68a7f	-0.030095337
193	0x3b642d40	0.003481701
194	0xbdba0fbd	-0.09085033
195	0x3d6c976a	0.057761587
196	0x3d170ab7	0.036875453
197	0x3dd7b9fa	0.10533519
198	0x3dc348b1	0.09535349
199	0xbde23c55	-0.11046664
200	0xbdcf5f1b	-0.10125562
201	0xbd667e91	-0.056273047
202	0xbdd7c8db	-0.10536357
203	0x3d355b5d	0.044276584
204	0xbdae1c04	-0.08501437
205	0xbdd3c065	-0.10339431
206	0x3d60dd80	0.05489874
207	0x3db3c7cd	0.08778343
208	0xbd09f399	-0.03367958
209	0xbe0d7191	-0.13812853
210	0x3ce78fd5	0.028266827
211	0x3d9bfc9e	0.07616542
212	0x3df46774	0.119337946
213	0x3c9c9752	0.019115124
214	0x3de8c425	0.113655366
215	0xbdf81643	-0.12113621
216	0x3dfe9172	0.12430085
217	0xbdef09ac	-0.11671767
218	0xbdf9ca49	-0.12196786
219	0x3ddbd8d6	0.107347175
220	0xbd11bc06	-0.035579704
221	0x3dbc6f22	0.092008844
222	0xbdf1ce25	-0.11806897
223	0x3dacccb9	0.08437485
224	0x3de52f35	0.11190645
225	0x3d36c88b	0.044624846
226	0x3de4b126	0.11166601
227	0xbdd9ee7f	-0.10641193
228	0xbc5ff363	-0.013668868
229	0x3d4c7407	0.04991534
230	0x3db70282	0.08936025
231	0xbdafbecc	-0.085813135
232	0x3da04f25	0.078275956
233	0xbd6b9b73	-0.057521295
234	0xbd9933d9	-0.07480592
235	0x3d02199e	0.03176271
236	0xbde14f4a	-0.11001451
237	0xbe065ee0	-0.1312213
238	0x3d465c30	0.04842776
239	0x3d4f0d1f	0.050549623
240	0x3d0da969	0.03458539
241	0xbd2e2327	-0.042513993
242	0xbdd8522e	-0.105625495
243	0xbde1d02e	-0.11026035
244	0x3e14ca00	0.14530182
245	0xbe067b3f	-0.13132952
246	0x3d102ccc	0.03519897
247	0x3dd91aa0	0.106007814
248	0x3dd4d85c	0.1039283
249	0xbde02953	-0.10945382
250	0xbd8c9543	-0.06864407
251	0xbdfb130f	-0.122594945
252	0x3ddca360	0.10773349
253	0xbde93965	-0.113879
254	0xbe042ff6	-0.1290892
255	0xbdd709c6	-0.10499911

temporal_module.scales.0.0.bias f4 [16]
0	0x3d63ecdf	0.05564582
1	0xbb5eec93	-0.003401552
2	0x3e06d5a8	0.13167441
3	0x3da232e7	0.07919865
4	0xbdacc40a	-0.08435829
5	0x3e039f25	0.12853678
6	0xbcd62671	-0.026141377
7	0xbd076827	-0.03305831
8	0x3d344d9e	0.044019334
9	0x3e130ecb	0.14361112
10	0x3d32bbe4	0.043636218
11	0xbe0ea062	-0.13928369
12	0xbd3c0d5f	-0.04591119
13	0x3e0954f6	0.13411316
14	0xbd50f947	-0.05101898
15	0xbd8e4d2f	-0.06948315

temporal_module.scales.0.1.weight f4 [16]
0	0x3f722188	0.94582415
1	0x3f794e80	0.97385406
2	0x3f812cdc	1.0091815
3	0x3f80c8ff	1.0061339
4	0x3f7cc198	0.987329
5	0x3f7c796f	0.9862279
6	0x3f771284	0.9651263
7	0x3f7868d3	0.9703495
8	0x3f801581	1.0006562
9	0x3f86a1b3	1.0518097
10	0x3f89d58b	1.0768293
11	0x3f821a0e	1.0164201
12	0x3f80e8b4	1.0071015
13	0x3f81d07e	1.0141752
14	0x3f7d20b4	0.98878026
15	0x3f78a707	0.97129864
