optim_results/models/trial_8_best.pt (torch, 349737 bytes, 52 tensors)

temp_conv.depthwise.weight f4 [1, 1, 9]
000000 73 b5 54 3e 66 32 71 3e 21 ed e2 bd 9c e0 93 3e
       0.20772342 0.23554382 -0.11080385 0.288823
000010 20 04 8c bd c4 5a 81 3d b9 62 0b be a6 76 6d 3e
       -0.06836724 0.0631614 -0.13611878 0.23189792
000020 f6 52 a5 3e
       0.32289857

temp_conv.pointwise.weight f4 [12, 1, 1]
000000 ab b8 31 3f 76 a6 8a 3d df be 10 3f c2 d1 4f 3d
       0.69422406 0.06770031 0.56541246 0.05073715
000010 74 0c a1 3e d1 f1 8b bc 89 d7 18 3f 34 99 32 3d
       0.31454813 -0.01708308 0.5970388 0.043603137
000020 48 74 99 be a1 8c d8 3d 1d 6d 96 be a8 08 75 ba
       -0.29971528 0.10573698 -0.29380122 -0.0009347298

temp_conv.pointwise.bias f4 [12]
000000 c7 af 77 be 16 7d fb 3e 76 83 1d bf 8a a7 96 be
       -0.24188147 0.4911887 -0.6152872 -0.29424697
000010 08 bd 02 be 1a 56 dc be 44 15 43 3b e5 c6 4f bf
       -0.12767422 -0.4303444 0.0029767314 -0.81162864
000020 49 50 3a 3f 4f b8 2c bf 7f 21 19 3f 78 35 10 3d
       0.72778755 -0.6746873 0.59816736 0.03520724

temp_conv.bn2.weight f4 [12]
000000 b8 db 7d 3f 37 17 7c 3f 6c 2a 7c 3f 4d 33 7c 3f
       0.9916339 0.98472923 0.9850223 0.9851578
000010 b4 4f 80 3f a4 f5 75 3f 59 e6 7b 3f af fa 76 3f
       1.0024323 0.9607794 0.9839836 0.9647626
000020 2e 3b 74 3f 26 da 7b 3f b5 ec 7a 3f 3a 67 74 3f
       0.954028 0.98379743 0.98017436 0.9547001

temp_conv.bn2.bias f4 [12]
000000 18 c4 67 3b 52 6c dc 3b 0b 23 88 bc e0 f9 83 b7
       0.0035364684 0.00672678 -0.016618272 -1.5732774e-05
000010 53 35 84 3a f5 f3 7e bc c5 49 2c 3c 6b 42 29 3a
       0.0010086693 -0.015561094 0.010515635 0.00064567354
000020 4e 5f 4f bc 84 61 1f bc 0c 59 dd ba d7 96 64 bc
       -0.012657 -0.009727839 -0.00168875 -0.013951979

temp_conv.bn2.running_mean f4 [12]
000000 48 17 58 bd 9d c3 02 3f 27 47 ec be 12 ef 8f be
       -0.052756578 0.5107973 -0.46148035 -0.28112084
000010 70 e7 2c bd 66 2c df be 14 7e 2a 3e 5a e6 4c bf
       -0.042212903 -0.4358856 0.16649657 -0.8003899
000020 02 89 25 3f ab 89 25 bf 25 c3 04 3f 99 21 11 3d
       0.6466218 -0.6466319 0.51860267 0.03543243

temp_conv.bn2.running_var f4 [12]
000000 f3 5d 68 3e c3 7b 0f 3b b9 39 1a 3e 0b c1 a1 3a
       0.22692089 0.0021893836 0.15061082 0.0012340856
000010 b7 5a 3f 3d 83 0d 0c 39 f5 ee 2b 3e 14 6c 76 3a
       0.04671737 0.00013356474 0.16790374 0.000940026
000020 45 c7 2d 3d cc a1 ad 3b cf 00 27 3d 20 3d c8 34
       0.042426366 0.0052988287 0.040772256 3.7297377e-07

feature_process_low.weight f4 [4, 240]
000000 e9 37 b3 bc 00 3b 56 3d 93 f9 ea 3b 33 53 58 3d
       -0.021877246 0.05230236 0.007170865 0.05281372
000010 7f ba 67 3c 21 c1 28 bc 93 5c a7 3c 01 02 96 bc
       0.014143585 -0.010299952 0.020429885 -0.018311502
000020 d8 5b cb 3c 17 d3 4b 3d d3 c8 e3 3c 96 fb 03 bd
       0.024824068 0.049761858 0.027805721 -0.032222353
000030 55 d0 10 3d ec a1 fe 3b 15 02 bd 3c 2d f4 64 bd
       0.03535493 0.0077707674 0.023072282 -0.055896927
000040 2c fb 8f bd 49 a2 c6 bc c3 63 6a bd 5d d3 38 3d
       -0.07030329 -0.024247305 -0.057224046 0.045123447
000050 f4 4f 8f 3c f8 75 19 3d fa 39 64 3c 8e b9 8c b9
       0.01749418 0.03746602 0.013929838 -0.0002684113
000060 eb 16 6b 3d a2 9e 0d bd 9b 23 cd 3b 74 8c 34 bd
       0.057394903 -0.034575112 0.006260348 -0.04407926
000070 45 e0 8c 3c af 04 db bc 6a 04 56 3c 11 7c 99 bc
       0.017196784 -0.026735632 0.013062576 -0.018735917
000080 f8 28 56 3d f6 6d 22 bd c3 af 30 bd 1a 42 59 bd
       0.052285165 -0.03965565 -0.04313637 -0.053041555
000090 41 7b 48 3d b2 f2 bb 3c ab 29 4d 3d 74 6e 7a bd
       0.04894567 0.022942875 0.050088566 -0.061140493
0000a0 2c 62 76 bd 8b 70 0e bd 02 e5 3f bd 29 24 d4 3c
       -0.060152218 -0.034775298 -0.04684926 0.025896149
0000b0 8b 93 f1 3c 94 9f 73 3d ed 8d db bc 24 54 2f bd
       0.0294893 0.059478357 -0.026801074 -0.042804852
0000c0 f3 a8 f5 3c e1 08 05 bd b5 4d f9 3c e5 c4 b2 bc
       0.029987788 -0.03247917 0.030432561 -0.021822402
0000d0 e6 a3 09 3d 20 1c 61 bd dd 92 2f bd f8 6d 20 bc
       0.03360357 -0.054958463 -0.04286467 -0.009791844
0000e0 0a 01 ce 3b f6 e0 81 bc 01 87 f4 3c 06 f7 04 3d
       0.006286745 -0.01585434 0.029849531 0.032462142
0000f0 55 9d 35 bd 68 5d b2 bc 19 1b 53 3d be d2 b5 bc
       -0.044339497 -0.021773055 0.051539514 -0.022195216
000100 b1 be 63 bc af ed 59 bd 07 92 08 bd 6f f4 7d 3c
       -0.013900445 -0.05320519 -0.033342388 0.015500172
000110 9c 6e 53 bc b3 c1 54 bd 3f cc d0 bb e8 17 40 bd
       -0.012904789 -0.05194254 -0.0063720043 -0.0468978
000120 c8 2c 65 bd c2 4b 24 bd 77 4c 81 bd 87 6c 75 bd
       -0.05595091 -0.04011131 -0.06313413 -0.059917953
000130 ac 32 68 3d ee fd 5b 3c 58 ec 1a 3c ed 98 83 bd
       0.05668895 0.013427241 0.009455763 -0.06425653
000140 08 14 1b bd 5c 79 c9 bb cc de c0 3b 36 14 5b bd
       -0.0378609 -0.0061485004 0.0058859345 -0.05348607
000150 42 ca b9 bc e5 92 ff bc bf a2 83 3b 11 6b cc bc
       -0.022679452 -0.031197974 0.0040172036 -0.024953397
000160 35 a0 e7 bb 10 36 4a bd e7 06 52 bd 6b f5 2f bd
       -0.0070686587 -0.049367964 -0.051276114 -0.04295866
000170 76 be c9 bc dd 9d 5e bd 6c 15 36 3d b4 71 f8 bc
       -0.024626952 -0.05434977 0.044454023 -0.030327655
000180 c0 c1 44 3d 56 47 9a 3c 55 b9 82 bd 6e e3 1c 3d
       0.048036337 0.018832844 -0.063830055 0.03830283
000190 fb 3c 9f bc 8c a0 f4 bc 1b ee 5c bd 39 35 86 bd
       -0.019438257 -0.029861711 -0.053938013 -0.0655312
0001a0 f0 b1 53 3c 3f a5 8f bc 72 c8 aa 3c c3 65 55 bd
       0.012920842 -0.01753485 0.020847533 -0.052099
0001b0 76 98 30 3d ff 7e 3e bd 36 c1 24 bc 23 4c 43 3c
       0.043114148 -0.04650783 -0.010055831 0.011920008
0001c0 47 dc 0e 3d 0c 80 5a 3d 76 39 83 3d 66 12 09 bd
       0.03487804 0.05334477 0.06407444 -0.03346481
0001d0 ea 74 8d 3c 53 6c 07 bd 7b 18 13 bc e0 d7 42 bd
       0.017267663 -0.03306229 -0.008978005 -0.047569156
0001e0 62 a1 69 3d c5 bd 08 bd 91 65 ed 3c e7 32 b9 3c
       0.057038672 -0.033384103 0.028979095 0.02260728
0001f0 dc 7a ec 3c b2 54 da bc e6 67 79 3d 4a b7 4a 3c
       0.028867178 -0.026651714 0.0608901 0.012372801
000200 58 ec 86 3b b1 81 7c bd 7d 4f 94 3c 2b d5 6b bc
       0.00411753 -0.06164712 0.01810431 -0.014394085
000210 87 c5 fc bc d0 23 46 3d ab 93 c5 3b 3e 61 57 bd
       -0.030855907 0.048373997 0.0060295663 -0.05258297
000220 76 77 21 bd be bd 73 bb a3 de ee 3c c5 ab d4 bc
       -0.039420567 -0.0037191953 0.029158896 -0.025960812
000230 06 d1 f8 bc fc 00 7c bb 3f b5 58 bd 52 90 c3 3c
       -0.030373108 -0.0038452735 -0.052907225 0.023872528
000240 92 41 68 3d 3e b1 4f bd 68 25 90 3c 3f 2c 04 3d
       0.056703158 -0.05070614 0.017595962 0.03226876
000250 a3 03 1a 3c f4 1b e7 bc f9 33 d1 3c f1 44 f6 3c
       0.009400281 -0.028211571 0.025537478 0.03006217
000260 76 ba ac 3c 96 96 7d bc 88 16 b4 bc 98 0d 5d bc
       0.021085005 -0.015477797 -0.0219834 -0.0134920105
000270 71 a8 94 bc c2 f1 8b bc 0e b9 02 3d a6 67 3b 3d
       -0.018146725 -0.017083053 0.031914763 0.045753144
000280 77 4f 3b bc 72 3d 94 bc 86 69 a2 ba 7c 5a 0c bc
       -0.01143252 -0.018095706 -0.0012391068 -0.008566495
000290 91 8a 0e 3c 0a 18 6a 3c 3b cb 66 bd db 1b c5 bc
       0.008700029 0.014287958 -0.05634616 -0.024061134
0002a0 ee 32 54 3d 4a 2f c6 3c c5 5c 89 bb 2d d2 19 bd
       0.051806383 0.024192471 -0.004191967 -0.037553955
0002b0 0e c5 1a bd 2b 4b 50 bd 6f 0f 0b bc 3c 5c 0b 3d
       -0.037785582 -0.050852936 -0.008487566 0.03402351
0002c0 48 d7 1d 3d 0c 61 be 3c 3f a4 5a bd f3 ee 13 bd
       0.038535386 0.023239635 -0.053379294 -0.03611655
0002d0 46 09 31 bc 0b 7e 97 3d 18 9c c0 3b 7a 89 81 bc
       -0.010805434 0.07397088 0.005877983 -0.015812624
0002e0 9f d2 11 3d 66 dd 8b bc 93 79 1c bd 47 24 39 3d
       0.035601255 -0.017073344 -0.03820188 0.045200612
0002f0 30 7b 04 bd bb 06 93 bc 4a 3c 91 bd 09 dc 16 3d
       -0.032344043 -0.017947545 -0.07091577 0.036830936
000300 16 f6 33 3d 25 02 87 3c 43 16 5a bd b5 d6 99 bd
       0.043935858 0.016480515 -0.053243887 -0.07511655
000310 a0 1d 70 bd e4 3d 46 3d 18 29 b7 3c 85 17 20 3d
       -0.058622003 0.048398867 0.022358462 0.03908493
000320 51 a5 ec 3c 38 07 37 3c f5 cd 29 bb 74 5b 50 bd
       0.028887423 0.011171155 -0.0025910113 -0.050868466
000330 24 42 6d bd 54 41 79 bd 0f a0 bb 3c 37 33 fa bc
       -0.057924405 -0.060853317 0.02290347 -0.030542
000340 88 c7 3a bc e7 ac 0a bd 1d 96 5a bc 0b 65 36 bd
       -0.011400111 -0.0338563 -0.013341454 -0.044529956
000350 ba ab 1a bd fc 5b d3 3c 96 58 19 bc 76 88 50 3d
       -0.037761427 0.025800698 -0.009359499 0.05091139
000360 20 e6 92 bc b5 2b 66 bd 10 3f 5f bc fd 69 f2 bc
       -0.017931998 -0.056194026 -0.013625875 -0.029591555
000370 6d 24 b9 bc 81 36 7a bd 72 b0 f1 3c 33 0b 43 bd
       -0.022600377 -0.061087135 0.029503081 -0.047618102
000380 3d 85 e3 3c 8e 22 c1 3c 91 af 2c 3d c9 7f 49 bd
       0.027773494 0.023576047 0.04215962 -0.04919413
000390 09 ab 37 3d ab 15 01 bd fd 53 aa 3c 46 62 62 3d
       0.044840846 -0.031514805 0.020792002 0.055269502
0003a0 ac 42 1e bc 1e 50 0b b9 09 87 3b bc b5 39 38 bd
       -0.0096594505 -0.00013285919 -0.011445769 -0.04497691
0003b0 20 68 ea 3c 68 05 8b bd 38 ac 13 3d 6c b4 3c 3d
       0.028614104 -0.067881405 0.036052912 0.0460705
0003c0 f4 60 4d 3d 0c 30 3c bc 96 ec 69 bd 64 c5 71 3c
       0.05014129 -0.011486065 -0.05711039 0.014756534
0003d0 1c 39 12 3d 5b c8 62 bd eb 45 65 bb fe c7 03 bd
       0.035698995 -0.055366855 -0.0034984301 -0.03217315
0003e0 1a 8c 3f bb 33 a4 07 bd 9e be 09 bd fd 7a e7 bc
       -0.0029227794 -0.033115577 -0.033629052 -0.028256888
0003f0 24 46 88 bd 82 5b 4d 3d ad 14 67 3d 4b 05 b6 3a
       -0.06654003 0.050136097 0.056416202 0.0013887075

feature_process_low.bias f4 [4]
000000 3b d0 43 3d 5b 03 fa bc de 55 a5 3b 38 a5 20 3c
       0.047806006 -0.030519178 0.0050456366 0.009805016

feature_process_high.weight f4 [64, 4]
000000 e0 cc c2 bc c7 78 ed be d3 53 4c 3e 7c 23 65 be
       -0.023779333 -0.46381208 0.19953851 -0.22376817
000010 01 38 81 be c6 97 f0 3d 6c bb 83 be 4d 2f 71 be
       -0.2523804 0.117476985 -0.2572893 -0.235532
000020 4e 6e 1e be 3b ee 35 be bb 85 50 be 63 2c 0e be
       -0.15471765 -0.17766659 -0.20363514 -0.1388412
000030 67 0c 0a 3e 08 d5 cb be 9d cb 9e be 73 59 07 3c
       0.13481294 -0.39810967 -0.3101472 0.008261072
000040 46 4c a1 3d f5 2f 8e 3e 21 da aa be b9 17 10 3e
       0.07875876 0.27770963 -0.33369544 0.1407155
000050 44 d9 7c 3e a5 cd 76 3e cb ec d8 be ee 24 26 be
       0.24692255 0.24101885 -0.4236816 -0.16225025
000060 11 01 cf be c8 d3 98 be 0a 3c 97 3e da 80 7b bd
       -0.404305 -0.29849076 0.29537994 -0.06140218
000070 cb 82 55 3e c8 94 90 be 77 6f a0 3d 50 6f 8e be
       0.20850675 -0.2823851 0.0783376 -0.278193
000080 bc 97 73 3e b8 ac 61 be 9b 70 e9 bd fd 8e da be
       0.23788351 -0.22038543 -0.11398431 -0.42687216
000090 70 b9 94 ba 97 1e e0 3e 78 6b 63 3e e7 2c 5d be
       -0.0011346769 0.43773338 0.22208965 -0.2159916
0000a0 15 29 b7 3b e9 4c 47 bd 5b a1 c6 be 14 09 c9 3e
       0.005589614 -0.04865733 -0.3879498 0.3926474
0000b0 e4 32 1c 39 5d fd d3 3d dc 16 51 be 51 8a 64 be
       0.00014896278 0.103510596 -0.20418876 -0.22318389
0000c0 5e 36 93 3d 9e c8 28 3e 7d 41 ba 3d a2 bc 46 be
       0.07188104 0.1648278 0.09094522 -0.19407895
0000d0 d2 04 f5 3e fa 87 94 bd cf 92 9b be 78 33 68 be
       0.4785524 -0.07252498 -0.30385444 -0.22675884
0000e0 2d 72 da 3e 32 6a 5d bb a9 5e a1 bd 02 90 3d be
       0.42665234 -0.0033785221 -0.07879383 -0.18511966
0000f0 79 aa 08 be 30 05 d7 be 72 c3 c8 be 1d 59 8e 3e
       -0.1334628 -0.41996145 -0.39211613 0.27802363
000100 91 3a c0 3e e7 ba e1 3e 19 4a 97 be ae 0a 67 3e
       0.37544683 0.44087908 -0.2954872 0.22562668
000110 a3 d4 9a be 2c 3e 90 3e 53 61 b8 3e ac 27 b0 3e
       -0.30240354 0.28172433 0.36011752 0.34405267
000120 ea 8d 9a 3e 6d ef 91 3e 37 59 36 3c 25 db 3b 3e
       0.30186397 0.2850298 0.011129669 0.18345316
000130 5b ab 37 be 26 ef 53 3e 98 cf 1a be d0 1d 4f bc
       -0.1793646 0.20696697 -0.15118253 -0.012641385
000140 7b d6 db be 40 bd 05 be c7 75 8d be 33 be 26 be
       -0.42937073 -0.13060474 -0.2762892 -0.16283493
000150 7a 42 a0 be 3a b1 e5 be 52 98 18 3d 8d b4 9f 3e
       -0.31300718 -0.44861776 0.03725464 0.31192437
000160 34 1a e4 3e f1 cb 93 3e 88 26 7f be 57 58 fa be
       0.4455124 0.28866532 -0.24917042 -0.48895523
000170 f9 cc 2c 3e 25 63 7e 3e fe 49 d3 be 0a 99 37 3e
       0.16875066 0.24842508 -0.4126739 0.17929474
000180 ab b9 d6 3e 1b e9 e7 3c 5f 8e 93 be 75 fe be 3e
       0.41938528 0.028309396 -0.28819558 0.3730351
000190 75 94 53 3e a5 78 a0 3e de 92 a9 be ce fd 8b 3e
       0.206621 0.31342044 -0.33119863 0.27342075
0001a0 d0 3a 9f be d1 6e f4 3e 39 01 1e be cf 85 89 3e
       -0.31099558 0.47740796 -0.15430154 0.268599
0001b0 45 57 af 3d c6 bd fb 3d fc 1c 79 bd 3b a9 2f 3e
       0.08561567 0.12292056 -0.060818657 0.171544
0001c0 c8 0b 54 be 6e b4 ed be 99 16 28 be 13 38 c0 3e
       -0.20707619 -0.4642672 -0.1641487 0.3754278
0001d0 4b f4 16 be 3a 13 08 3e 00 ac 3c be 0d 25 b7 3e
       -0.14741628 0.13288584 -0.18424988 0.35770455
0001e0 60 9d 87 3e 20 bb 22 3e 4a 7c 50 be e0 46 ae be
       0.26487255 0.15891695 -0.20359913 -0.34038448
0001f0 ba 09 7e 3c b3 28 94 be d4 81 c9 3e e4 21 ec be
       0.015505249 -0.289373 0.39356863 -0.46119606
000200 8d 34 5c 3e 43 aa ee 3e 6a 6d 81 3e 33 e5 1e 3e
       0.21504422 0.46614274 0.2527879 0.1551712
000210 8d 4d f0 be 2e d0 d9 3e 33 5f d8 bd 66 bc d6 be
       -0.46934167 0.4254164 -0.10565033 -0.41940612
000220 50 35 fb 3e ec 5c 49 be 94 74 0a bd 8c ef dd 3e
       0.49064112 -0.19664353 -0.033802584 0.43346822
000230 6b 6e a9 be ff 7a ad be 9b ad a2 3d f4 61 81 bd
       -0.33092055 -0.338829 0.07943269 -0.06317511
000240 d1 2c ec 3d bb 1b d6 be 58 46 58 3c d7 bc 64 be
       0.115319856 -0.41818032 0.013200365 -0.22337662
000250 f8 9d 80 be 9d 58 e9 be 28 b2 7b 3e a1 e9 ce 3d
       -0.2512052 -0.4557542 0.2457968 0.10103155
000260 9d 32 d5 be d8 6f c6 3e 27 d8 0e 3e f9 e6 bf 3d
       -0.41640177 0.38757205 0.13949643 0.093702264
000270 fa b4 9e be cb bb 8d 3d 09 d9 f9 3e a7 41 b2 3e
       -0.3099745 0.06920584 0.48798397 0.34815714
000280 f8 f8 c4 be 3b f0 e6 3e 3d db a6 3c 1c 7d 78 3e
       -0.38471198 0.45105156 0.020368213 0.24266475
000290 5c 68 c1 3e 93 60 ca 3e 64 e2 bf be e8 ba d3 3e
       0.37774932 0.39526805 -0.3747741 0.41353536
0002a0 d5 e9 a8 be 1f 7c 18 3d 74 26 a8 be 7d 12 c8 bd
       -0.329909 0.037227746 -0.32841837 -0.09769151
0002b0 67 5d 9c bc f3 56 4f bd 74 3c 4e bd 39 91 13 3d
       -0.019087506 -0.05062003 -0.05035062 0.036027167
0002c0 bd 40 e9 3e 95 fc 8e 3e 2b 13 87 3e bd 5b 40 3e
       0.45557204 0.2792708 0.26381811 0.18784995
0002d0 27 49 c4 3e 7c 49 be bc 41 ca 2b 3d 7e e4 cf 3d
       0.3833706 -0.0232284 0.04194093 0.10151003
0002e0 f4 11 df be 1e 45 d0 be 7b 3a 91 3d 93 df 4c be
       -0.43568385 -0.40677732 0.070912324 -0.20007162
0002f0 43 af b4 bb b7 3e eb bd 12 d0 af 3d 72 62 99 3e
       -0.005514057 -0.11486571 0.08584608 0.2995792
000300 26 b9 30 be d1 68 cd 3e 17 83 c8 3e 94 84 b7 be
       -0.17258129 0.4011903 0.39162514 -0.35843337
000310 b5 a2 c3 be 1c 6c cc be d0 0c 90 be 9d e6 40 be
       -0.38210073 -0.3992623 -0.28134775 -0.18837972
000320 91 d2 15 bd a7 06 00 be 83 4d 86 be 14 f1 26 be
       -0.036577765 -0.12502538 -0.26231012 -0.16302902
000330 f6 0b 39 be 34 85 f9 3e ec 52 45 be 9c 36 ae be
       -0.18070969 0.48734438 -0.19269913 -0.3402604
000340 27 f1 42 3e b0 68 04 bd 4a 45 a2 3e e6 5a 97 3e
       0.19037305 -0.0323264 0.31693488 0.29561538
000350 7e d9 e2 3e 89 8c b8 be 1a 12 97 3e 36 45 c7 3e
       0.44306558 -0.3604472 0.29505998 0.3891999
000360 14 89 82 be ee 0b e8 3e b2 ca bc 3e f6 ad d1 3c
       -0.25495207 0.45321602 0.36873394 0.025595646
000370 7c a6 70 3e 3b cf 2e be 62 af d6 be 65 b0 03 3e
       0.23501009 -0.1707124 -0.4193068 0.12860258
000380 3c 93 19 3e 03 52 a4 be ba 64 6b 3e 75 23 d4 be
       0.14997572 -0.3209382 0.22987643 -0.41433302
000390 c7 7b d5 3e db c4 f0 3e 4f ff fd 3d 17 33 94 be
       0.41695997 0.4702519 0.12402212 -0.28945228
0003a0 f7 96 76 3e 0d 67 9c 3d 40 45 11 3e 7a f8 15 3e
       0.24081026 0.07636843 0.14186573 0.14645568
0003b0 f9 62 af 3e c7 d0 4d be e1 f9 d7 bd 6e 54 e2 3d
       0.34255198 -0.20099173 -0.105457075 0.1105126
0003c0 e7 98 7c 3d 46 18 cc 3e 7b 23 7b be f4 25 ed bc
       0.061669257 0.3986227 -0.24525253 -0.028948762
0003d0 a0 f7 b3 3d 02 71 0b be f9 01 b0 3e 44 c1 55 3d
       0.08787465 -0.13617328 0.34376505 0.052186266
0003e0 89 7d e8 be bb 13 63 bd 8f e6 5e be fd c7 26 3d
       -0.45408276 -0.05543874 -0.21767639 0.040718067
0003f0 2f d9 57 bd c0 83 f8 be ea c5 98 bd 9b b3 41 bd
       -0.052697357 -0.48538017 -0.07459624 -0.047290426

feature_process_high.bias f4 [64]
000000 ef a1 21 be e3 a9 eb 3e b7 e1 0b be 2e 6b a1 3e
       -0.15784429 0.4602805 -0.13660322 0.31527084
000010 90 1f e5 3d 5f d2 c8 be da 5f 01 3e a6 d4 df 3e
       0.11187661 -0.39223 0.1263422 0.43716925
000020 0b 80 a4 be aa 41 98 be 75 35 fa 3e bf 41 c9 3e
       -0.3212894 -0.29737598 0.4886891 0.39307973
000030 4f 4c 83 be e9 90 95 3e b2 0b 7b bd a7 f8 f4 be
       -0.25644156 0.2921212 -0.06129045 -0.47845957
000040 94 8e e8 3c dd 5c 20 3e 51 35 0b be e0 7e 31 3e
       0.028388299 0.15660425 -0.13594557 0.17333555
000050 c8 16 e3 be 84 36 b0 3e 46 13 d5 3e c0 65 90 3e
       -0.44353318 0.34416592 0.41616267 0.2820263
000060 a5 0a 87 3d 13 5d 29 3e ed c4 ad be 81 5c f4 bd
       0.06593827 0.16539411 -0.33939305 -0.11931706
000070 ea 4e 32 bd 8a 31 82 be 92 04 b0 be 05 5f ab 3e
       -0.04353229 -0.2542842 -0.34378487 0.33470932
000080 27 2c b0 3e 62 79 dc be ed 94 19 3e 78 83 40 3e
       0.34408686 -0.43061358 0.14998217 0.18800151
000090 eb c7 ef 3e a9 67 90 3e 72 cf ea 3e 0b 93 0e be
       0.46832213 0.28204086 0.45861393 -0.1392328
0000a0 f5 c7 b2 3e 40 c8 d1 3e ef 99 eb be 9d 87 be be
       0.3491818 0.4097309 -0.4601588 -0.3721284
0000b0 dd 4e cf 3d 91 10 86 3e 39 c4 73 be 06 09 80 3d
       0.10122464 0.26184514 -0.23805322 0.06251721
0000c0 42 80 f1 ba c8 c3 fb 3d 90 75 86 be d1 27 8e 3e
       -0.0018425065 0.12293202 -0.26261568 0.27764753
0000d0 01 01 ae 3e 1e d8 ab be 62 3e 01 3c f2 0e 9d 3b
       0.3398514 -0.33563322 0.007888408 0.0047930414
0000e0 1e 0c 24 3e 5b 05 ed 3e d0 be 16 3e 90 46 e4 bd
       0.16020247 0.46293148 0.14721227 -0.11146271
0000f0 cc 6f e5 3e fa bb 38 be 12 ef 15 be 88 66 2e 3d
       0.44811857 -0.18040457 -0.1464198 0.04257825

feature_norm.weight f4 [64]
000000 8b d5 7b 3f 70 55 7e 3f 98 47 74 3f a6 1e 7c 3f
       0.98372716 0.9934912 0.95421743 0.98484266
000010 63 cc 70 3f 4f 44 54 3f 90 b2 75 3f d7 29 7f 3f
       0.9406187 0.8291673 0.9597559 0.9967322
000020 2b a8 76 3f 3b 9e 56 3f a2 e3 7d 3f 89 29 7a 3f
       0.96350354 0.8383519 0.99175465 0.9771963
000030 09 8d 53 3f f5 22 74 3f 5d 8b 56 3f da a8 78 3f
       0.8263708 0.9536584 0.838064 0.9713265
000040 b1 00 56 3f 06 2a 76 3f f3 2c 53 3f d1 de 73 3f
       0.83594805 0.9615787 0.8249046 0.95261866
000050 ab 80 7f 3f 21 50 7e 3f 46 ed 76 3f 1b a2 77 3f
       0.99805707 0.99341017 0.964558 0.9673173
000060 a7 da 65 3f 41 ee 6a 3f de 67 59 3f 25 fa 52 3f
       0.8978676 0.91769797 0.84924114 0.8241294
000070 65 1c 79 3f f9 9f 5a 3f a5 97 53 3f bc ef 7c 3f
       0.9730895 0.8540035 0.82653266 0.98803306
000080 25 db 78 3f fd e6 64 3f 0a 65 73 3f 43 65 78 3f
       0.9720939 0.8941496 0.9507605 0.97029513
000090 06 cf 7d 3f 61 53 7d 3f e1 38 7d 3f 93 7b 7d 3f
       0.9914402 0.9895535 0.98914915 0.99016684
0000a0 42 f0 7c 3f 1b f2 7b 3f 10 3f 69 3f 72 39 53 3f
       0.98804104 0.984163 0.9111185 0.8250953
0000b0 ec d7 5c 3f 8d 8e 75 3f 33 3c 7e 3f 74 be 6e 3f
       0.8626697 0.9592064 0.99310607 0.9325936
0000c0 93 91 79 3f fa e4 7d 3f 3a dc 73 3f 6a e5 7a 3f
       0.97487754 0.99177516 0.95257914 0.9800631
0000d0 22 67 77 3f 0b 7b 70 3f 7a 6c 7c 3f 2f fd 72 3f
       0.96641743 0.9393775 0.9860302 0.9491758
0000e0 5c b8 7b 3f 61 cd 79 3f 03 63 74 3f 7d d3 5a 3f
       0.98328185 0.9757901 0.9546358 0.85478956
0000f0 85 6e 7d 3f dd 10 74 3f 0f 05 7a 3f b1 bb 7a 3f
       0.98996764 0.9533823 0.9766397 0.97942644

feature_norm.bias f4 [64]
000000 71 72 a9 bb 38 da a9 3a f6 8a 1b bc fb 19 5a 3b
       -0.005171113 0.0012958711 -0.00949358 0.0033279646
000010 f8 eb 1e bc 27 d3 c1 3c fa c9 05 bb 8c 00 01 3c
       -0.009699814 0.023660256 -0.0020414577 0.007873666
000020 4b b8 48 3b 84 35 6e 3b 96 1a 58 3b 39 31 93 39
       0.0030627425 0.0036347816 0.003297483 0.000280747
000030 b1 8e 40 bb 49 85 7d bb cd 64 02 3c f7 3e 9f 3b
       -0.0029381926 -0.003868418 0.007958603 0.004859801
000040 cd 66 c3 bb 23 c1 1b 3b b3 fe 30 3a 5c a7 5f 3b
       -0.0059631825 0.0023766242 0.00067518203 0.0034126854
000050 71 10 22 bb 01 d4 da 3a 5e 8d 82 bb 07 fa 25 3c
       -0.0024729038 0.0016695262 -0.0039841374 0.010130412
000060 5a 9f 47 bc da e1 bc 3b 33 fe 56 bc 4e f5 d2 3a
       -0.0121839885 0.0057642283 -0.013122129 0.0016094835
000070 ca ca 0b 3b 02 9b c0 3c ba 9b 3b bc 9c 3d 9a 3a
       0.0021330588 0.023511413 -0.011450702 0.0011767629
000080 4e c2 15 3c e6 e8 34 3c dd 41 8f bb 05 6e 10 bc
       0.009140564 0.011041855 -0.004371865 -0.008815293
000090 fd d3 20 3b e0 01 a0 3b 5c 29 8e 3b 17 9b a3 3c
       0.0024540417 0.004883036 0.0043384265 0.019971414
0000a0 d5 e9 7c 3b b3 8a ad 3b ee c6 58 ba 73 79 91 bb
       0.0038591523 0.0052960753 -0.0008269389 -0.0044395267
0000b0 56 6d 82 3b a3 18 bc bb 4f 69 da 3b e7 06 7e 3b
       0.003980319 -0.0057402416 0.006665386 0.0038761438
0000c0 00 69 19 3b 8d dc 1d 3b b1 a9 b5 3b 6b bd 1f 3a
       0.0023408532 0.0024087757 0.0055439104 0.0006093594
0000d0 57 4c 35 3c 8a 04 88 38 f3 2e b9 3b d7 fa b2 3a
       0.011065564 6.485831e-05 0.0056513487 0.0013655078
0000e0 1b 6b b9 ba fa d1 e1 3a 31 59 35 3b 9c 29 7d ba
       -0.00141463 0.0017228716 0.002767157 -0.00096573844
0000f0 31 a0 d1 ba ad f1 a8 3b f8 3f f0 ba 9f 05 17 3b
       -0.0015993175 0.005155763 -0.0018329611 0.0023044122

graph_attention.learnable_adj_u f4 [8, 10, 4]
000000 ce 6f b3 3c 36 bf 79 3c da 5c cd 3d 8e 91 dd 34
       0.021903899 0.015243342 0.10027476 4.1270363e-07
000010 67 59 ef 3c c1 8b c7 bd 1b 3c 3b 34 84 e4 81 39
       0.029217435 -0.09743453 1.7437598e-07 0.00024775055
000020 c4 7e 38 3d 20 43 e3 bc 63 91 18 b2 c9 77 1f bd
       0.045042768 -0.027741969 -8.880622e-09 -0.038932595
000030 30 2c 60 bd 65 ff 2b 3c 7f cf 8c 35 44 d4 0a 3c
       -0.05472964 0.0104979025 1.0491202e-06 0.00847346
000040 9e 30 d4 26 15 bd 41 a8 01 2f 74 27 92 30 ea 3c
       1.4723633e-15 -1.0754653e-14 3.3887283e-15 0.028587613
000050 54 01 71 bd 17 32 da 38 05 00 f6 3c ad d4 12 3d
       -0.058839157 0.0001040438 0.030029306 0.035847355
000060 9a 35 9a bc ff ce 9e 3d 95 6c 5a bd 63 f3 cf 3c
       -0.018824387 0.07754325 -0.05332621 0.02538461
000070 c2 f9 b3 3d 47 4d da a8 82 52 01 3b b7 66 f5 bd
       0.08787872 -2.4236376e-14 0.0019733016 -0.11982482
000080 72 e4 07 bc 1e 91 03 bc 90 fa ec bd 69 bd b4 b8
       -0.008294212 -0.008030204 -0.115712285 -8.618349e-05
000090 26 91 76 3d 6b 60 bd ad ef 5b 05 3e ec 26 dd bd
       0.060197018 -2.152963e-11 0.13023351 -0.107984394
0000a0 26 45 0d 3c b1 31 cb 3d d4 1c 01 3e 08 65 f7 bb
       0.008622443 0.09921587 0.12608653 -0.0075498857
0000b0 90 8c de bd 47 73 bc bb 95 25 8f 3d 23 84 aa 2b
       -0.10866654 -0.005751047 0.0698959 1.2115902e-12
0000c0 af cd f9 3d d0 f5 89 bd 03 04 38 bd 7d 07 c0 3c
       0.12197434 -0.06736338 -0.0449257 0.02344107
0000d0 7c 03 81 3b fe e2 4b bd e6 9b ec 3d f6 71 f0 bb
       0.003937183 -0.049777023 0.11553173 -0.007337804
0000e0 bf 6e ba bd 57 61 82 3a 30 c9 03 bd 54 64 95 bc
       -0.091031544 0.0009947222 -0.03217429 -0.018236317
0000f0 4b 98 02 bd 75 72 5d 3a 2b ac 8c 3c a1 c7 5f 3d
       -0.03188352 0.00084475364 0.01717194 0.05463374
000100 a7 04 08 bd 6b 43 73 b9 00 36 ee 3d 97 72 c5 bc
       -0.03320756 -0.00023199401 0.116313934 -0.024102492
000110 30 95 ac bb 6f 09 f0 b7 2c ae d5 bd 41 20 8e bd
       -0.005266808 -2.8614622e-05 -0.10433611 -0.06939746
000120 ed 6c d8 3d 4c 0b 90 37 b7 14 a8 37 b3 51 09 3c
       0.10567651 1.7171398e-05 2.0036807e-05 0.008381295
000130 50 2f 29 3d 92 07 5f 3d 39 87 83 3d 01 65 15 3c
       0.041304886 0.05445058 0.06422276 0.0091183195
000140 0a 0d 95 3d 4c 10 4f 3d 12 1f 94 b6 cb d4 63 2c
       0.07277878 0.05055265 -4.414361e-06 3.2376764e-12
000150 39 37 d3 bc 9f 63 94 bd df 00 f6 3d 1a b8 90 bd
       -0.025783168 -0.07245564 0.12011885 -0.070663646
000160 3d 2c 37 bd 9e 16 ff bd ce ce 9a bd 9f 82 3a 39
       -0.044719923 -0.12455486 -0.07558976 0.00017787002
000170 c9 55 9a 3c f9 a2 bb bd c7 52 ce 28 f7 b7 8d bd
       0.018839734 -0.09161944 2.2906493e-14 -0.06919854
000180 e6 6e c6 37 28 74 20 3d b9 68 ea bb df 7f 58 bc
       2.365508e-05 0.039173275 -0.007153597 -0.013214081
000190 d7 51 4d 3d a1 6d 47 bd d2 db 74 b8 4d 2b bb bd
       0.050126877 -0.048688535 -5.8378857e-05 -0.09139118
0001a0 4c ee 78 3d 7d 77 27 3b e9 b2 0a bc a3 6b 81 3d
       0.060774133 0.0025553398 -0.008465507 0.06319358
0001b0 fa 26 f5 3d f0 5a 1d 3c 80 df 7d bd 39 d1 f5 b8
       0.11970325 0.009604201 -0.061980724 -0.00011721481
0001c0 2c 51 ad 3d 9a 5b 88 3d 22 b5 49 bb fd 4b 56 3d
       0.08462748 0.066580966 -0.003077813 0.05231856
0001d0 f5 bd 4f bd 3a dc 46 3a 88 aa d3 3d 2d 46 67 37
       -0.050718267 0.0007585917 0.10335261 1.3785012e-05
0001e0 eb 8e a8 bd 31 72 e0 3a ac 9c 01 3d fd 2e 74 3d
       -0.082303844 0.0017123875 0.031643555 0.059615124
0001f0 e3 e2 52 bd 08 cf 47 b7 88 4a 5b a8 7d b1 0b b7
       -0.051485907 -1.19095275e-05 -1.21731035e-14 -8.32637e-06
000200 8a 11 13 b9 c7 b2 a9 bb 6a 46 84 3b 26 95 94 3c
       -0.00014025546 -0.0051787826 0.0040367143 0.018137526
000210 c4 8b 07 b8 5a 4e a4 3d 2d e1 8d 29 4f d9 b2 39
       -3.2316675e-05 0.08022757 6.3007196e-14 0.00034112713
000220 84 0a e1 39 b3 e4 77 bb 73 6e b9 26 a1 13 f0 b0
       0.0004292318 -0.0037825524 1.2866891e-15 -1.7467877e-09
000230 94 1d da 3b 0d 07 e6 bc e7 da 81 bc e4 b9 fe bd
       0.006656358 -0.028079534 -0.015851451 -0.124377996
000240 44 4d 50 bc 3b d2 26 3b 5a 36 af 3d 80 c0 04 be
       -0.012713734 0.0025454897 0.085552886 -0.12964058
000250 e0 40 a8 bb 01 7d 3a 3d 4a 11 eb bc 2a 16 62 3d
       -0.005134687 0.04552937 -0.028694768 0.05519692
000260 76 5c 87 28 65 b7 f1 bd 9f 3e ae 36 42 21 22 bd
       1.502811e-14 -0.11802558 5.192894e-06 -0.0395825
000270 e0 99 08 38 b0 07 db bd 74 6f f1 3d bf af 3f bc
       3.2568234e-05 -0.10694826 0.11788836 -0.011699616
000280 e1 40 43 3d c8 83 3a bd 1e e7 bd bd 1f 70 04 3c
       0.047669295 -0.045535833 -0.09272598 0.008083372
000290 18 93 23 3d 1b 33 2b a8 eb ae c1 bd 52 48 6c ba
       0.0399352 -9.503489e-15 -0.09457191 -0.0009013462
0002a0 19 ef 71 bd 79 27 96 3a 0a 1a 37 36 2a af 73 3d
       -0.059065912 0.0011455856 2.7284282e-06 0.05949322
0002b0 99 ff 07 3e 13 82 85 bc 1d 5d a6 3d 32 8b 73 3d
       0.13281097 -0.016297376 0.08123229 0.05945892
0002c0 f0 ad a0 35 a9 54 03 be 65 79 72 bd 6c bf 51 3c
       1.1971551e-06 -0.12825264 -0.059197802 0.012801986
0002d0 d3 f9 8f 3d 09 08 e2 3c a6 3b 7c 2d 50 2f 29 bd
       0.07030072 0.027591722 1.4337786e-11 -0.041304886
0002e0 04 40 d2 bd 58 45 0c bd cb cf 55 a7 4e db 9c 33
       -0.10266116 -0.03424582 -2.9672333e-15 7.3042074e-08
0002f0 fd be 9a 3d 5a d4 85 bd 67 1d d2 3c 0e 62 c2 3d
       0.075559594 -0.065346435 0.025648786 0.09491359
000300 08 07 df bd 62 c4 df bc 8c 8b 86 ba 15 b4 e9 37
       -0.10890013 -0.027315322 -0.0010264977 2.7859622e-05
000310 3f e5 da 3d 73 ee 70 38 93 5a 63 3d 7f a0 af 3d
       0.106882565 5.7442532e-05 0.0555063 0.08575534
000320 3d ef a3 3d f3 35 e3 bd 92 06 4f bd 9e 1d f0 a6
       0.080046155 -0.11094274 -0.050543375 -1.6661373e-15
000330 a1 f9 84 a9 6a d4 af 2a d2 e3 be 3d 32 fd df 3d
       -5.905281e-14 3.1233637e-13 0.09320797 0.10936965
000340 4d 37 bd ba 23 89 85 bc 80 9f 38 2a b4 aa 06 33
       -0.0014436037 -0.016300743 1.639782e-13 3.135456e-08
000350 b6 2f 30 3d 6c 3e 9d 3b b9 79 10 3b 23 fb 47 3b
       0.04301425 0.004798701 0.0022045209 0.003051468
000360 dc a7 90 3d e7 10 1f 3d 0c 4f 6b ae ea 41 76 bd
       0.07063267 0.03883448 -5.350302e-11 -0.060121454
000370 08 4e 61 3d 9a 35 06 aa cc 9b 83 bd 17 0d 8d b6
       0.055006057 -1.1920188e-13 -0.064262 -4.2036513e-06
000380 ed 92 8c 3d f5 8c 82 bc 67 89 00 ae 7d f8 6a 3b
       0.06863961 -0.015936354 -2.9225868e-11 0.0035853677
000390 2f d5 84 3d 10 c7 4d b5 78 78 84 bd ec 39 2f bc
       0.06485974 -7.6658125e-07 -0.0646829 -0.010694962
0003a0 16 6c 34 bb be c3 83 30 12 75 65 bd 3a 79 d3 3d
       -0.0027530245 9.587138e-10 -0.05601985 0.103258565
0003b0 9e 50 2d 3a 76 6d 85 bd a8 c0 f2 3c 22 e3 03 a8
       0.0006611439 -0.06515019 0.029632881 -7.321212e-15
0003c0 98 cc 02 3e c1 fd f9 28 ac 49 20 a8 2b a8 fe bd
       0.12773359 2.7754602e-14 -8.897759e-15 -0.12434419
0003d0 a1 e8 b7 bd e0 c4 d7 a6 0a 25 c3 3d 21 92 31 bd
       -0.08979917 -1.4971985e-15 0.09528549 -0.04335225
0003e0 66 2a 15 38 3f 80 6e bd a6 21 9f bd 91 de bc bb
       3.5563855e-05 -0.058227774 -0.0777009 -0.0057638367
0003f0 65 11 5d bd a3 99 b8 bd 58 f4 02 bb 70 db 1e b4
       -0.053971667 -0.09013679 -0.0019982066 -1.4794728e-07

graph_attention.learnable_adj_v f4 [8, 4, 10]
000000 61 4c cb 37 ea 14 fa ba 53 9e 46 39 a4 24 90 3d
       2.4235052e-05 -0.0019079719 0.00018941732 0.07038239
000010 e0 49 90 3c bb 6d 7e bd 94 ba 47 b8 af a4 7a 3d
       0.017613351 -0.062116366 -4.761906e-05 0.06119221
000020 dd ab 22 32 93 3f be 2d 37 ea 2d 28 a2 a3 5f ba
       9.468718e-09 2.1628732e-11 9.654216e-15 -0.0008531158
000030 1f 3d 5e b8 bc 39 22 29 82 3b 15 3d 6d e9 f8 b8
       -5.2985848e-05 3.6021303e-14 0.036433704 -0.000118690405
000040 6c 3a 5f b8 cb 61 1f 35 06 15 97 ba bd 7f 62 3d
       -5.3221753e-05 5.9374423e-07 -0.0011526651 0.055297602
000050 fa ef 14 3d 1e 51 fb a9 84 96 b4 bc 93 68 e7 38
       0.036361672 -1.1160711e-13 -0.022044428 0.00011034417
000060 8a 1a 52 3d 33 b1 04 3a a9 fb 3a 3b 95 96 20 bc
       0.05129484 0.0005061805 0.0028531349 -0.009801527
000070 1b 68 99 bd 3a 58 b7 ba ff c3 21 28 9a a8 6d 3d
       -0.0749056 -0.0013988086 8.979795e-15 0.05802212
000080 a5 d0 33 36 ee 32 a3 b4 58 ff 0a b8 b9 0b 2c b5
       2.6794526e-06 -3.0398172e-07 -3.313957e-05 -6.409205e-07
000090 49 6d 2c bc 22 9b 39 bb 20 94 cf 34 51 40 d4 3c
       -0.0105241025 -0.0028321226 3.866453e-07 0.025909575
0000a0 d6 fc 52 3d 76 46 d8 3a 04 28 e3 bc 9d 74 83 3d
       0.051510654 0.0016500491 -0.027729042 0.064187266
0000b0 0c 44 92 3d 9a 9d 52 b9 50 28 17 a9 7a 51 79 3d
       0.07141885 -0.00020085872 -3.35637e-14 0.060868718
0000c0 9e f3 5f ba 19 90 bb 3b 9b e5 44 33 9f c7 49 3c
       -0.00085430767 0.005723965 4.584363e-08 0.01231566
0000d0 0e 81 50 3a ce ff 9b 3d 87 bb 51 3d 13 c2 d9 bc
       0.0007953801 0.0761715 0.05120423 -0.0265818
0000e0 3c f3 89 3c fc e9 98 b5 21 4b 18 bc 8e e1 69 33
       0.016839616 -1.1392981e-06 -0.009295256 5.445468e-08
0000f0 7d 01 d5 af 15 a2 b9 bc e0 a7 69 bd 2e 9a 49 bc
       -3.8745532e-10 -0.022660295 -0.057044864 -0.012304826
000100 bb 9c 34 29 65 dc 90 3c ba e2 7d 3c 69 e3 89 38
       4.010397e-14 0.017683217 0.01549595 6.5750275e-05
000110 3a 1c 8c 3d 68 c6 57 bd ba a1 a3 bc 57 68 5b 3b
       0.06841321 -0.05267945 -0.019974578 0.003347894
000120 03 4a 7d bd 98 20 8a 3d cb c9 16 30 84 df 9e ba
       -0.06183816 0.06744498 5.4856447e-10 -0.0012121056
000130 38 4f 70 3d 45 ca ab 3b cd 66 4d 3d 0e 9c 15 3d
       0.0586693 0.0052426183 0.050146867 0.03652578
000140 a4 06 f5 b3 2c 22 7b 3d 8a 1b 38 2f 8e 7d 8d a9
       -1.14099095e-07 0.061311886 1.6744486e-10 -6.283438e-14
000150 66 2f 4c 3a 5c c7 27 bd 25 82 86 bc d6 40 8b 3d
       0.00077890453 -0.04096161 -0.01641948 0.06799476
000160 fa 6a bc bc 5d 2e 30 3c 99 43 8c 3c 34 3f 3a bd
       -0.02300023 0.010753241 0.017122077 -0.04547043
000170 01 f4 07 ac 58 28 55 29 04 b9 0e 3d 28 9d b6 b8
       -1.9320103e-12 4.7330493e-14 0.034844413 -8.707709e-05
000180 3b eb 77 3d e0 23 4c bd 7c 33 37 3b 86 7a 38 3c
       0.060527068 -0.0498389 0.002795427 0.011259681
000190 50 6b 86 ba 57 c1 02 ba 5d f0 aa bc 1b 38 82 38
       -0.001025537 -0.00049879163 -0.020866567 6.2093335e-05
0001a0 e2 d6 18 3a 3a 2a 5f ba c9 35 38 3d 0c 45 02 b2
       0.000583036 -0.0008513067 0.04497317 -7.582695e-09
0001b0 24 39 3f b2 c7 9d 26 3d 39 99 0b 34 17 fb 28 3c
       -1.11306555e-08 0.040677812 1.3001126e-07 0.010313771
0001c0 e0 2c 7e 3c 58 94 bc bc 08 a4 6a 29 56 fc 69 3d
       0.015513629 -0.023019955 5.2100712e-14 0.057125412
0001d0 82 1d 99 bc 10 63 11 2f 5c 47 0f 3d 13 ca 18 2b
       -0.018690828 1.3222867e-10 0.034980163 5.428168e-13
0001e0 88 ef fe b6 a5 42 8a 3a 26 3a 44 bd 5c 95 40 3d
       -7.597675e-06 0.0010548426 -0.047907017 0.04701744
0001f0 95 77 29 3d f7 d5 e8 b8 a0 a9 8a ba 14 24 7d b5
       0.041373808 -0.00011102476 -0.0010579117 -9.4302345e-07
000200 4e 0c 9d 3d 89 91 d3 ba 2c 77 62 39 d8 62 8c bd
       0.076683626 -0.0016141395 0.00021597435 -0.068547904
000210 f5 73 77 39 dd a6 8d 3c c8 8d e4 39 00 5d ef a9
       0.00023598953 0.01729148 0.00043593184 -1.0629865e-13
000220 8c ea 59 a9 6f 36 5e 3d 72 08 68 3b 87 3f 40 b7
       -4.8387116e-14 0.05425113 0.0035405424 -1.1458883e-05
000230 22 ad 34 bd 22 03 07 3d 5a de aa ba d9 f1 9d 3c
       -0.044110425 0.032961972 -0.0013036237 0.019280361
000240 15 6a c5 b5 42 82 b9 a7 00 67 2b bd 2d d0 c8 ba
       -1.4708518e-06 -5.148904e-15 -0.041846275 -0.001532083
000250 b5 c6 1a 29 dd 8d 92 bd 63 b2 0f b6 b1 e9 6f 3c
       3.436722e-14 -0.071559645 -2.1412495e-06 0.014643119
000260 ba 51 f0 3c d5 94 0b 3d 07 66 86 b9 47 45 44 26
       0.029335845 0.034077484 -0.00025634488 6.809505e-16
000270 4c 31 34 bd 86 5d 11 3c 37 b1 2a 34 72 c0 4a 3d
       -0.043992326 0.008872395 1.5896954e-07 0.049499936
000280 11 73 38 b2 de ea 8e 3d 2f a9 ea 3b b9 b4 55 3d
       -1.0736373e-08 0.06978391 0.0071612815 0.052174304
000290 cc 96 8f a9 a1 e0 28 bd d3 a3 28 bd 3a 0b 8a bd
       -6.376635e-14 -0.041229848 -0.04117186 -0.067404225
0002a0 d1 13 42 33 ff cd 21 bd ba 1a f7 b9 41 b8 04 3c
       4.5187168e-08 -0.039503094 -0.00047131424 0.00810057
0002b0 41 0d 7c 3d f3 e3 07 b8 f1 ab e4 3c b6 8d 73 a9
       0.061536077 -3.2398802e-05 0.02791402 -5.4079754e-14
0002c0 a2 2e b8 b5 62 b4 cd ac f6 a9 93 bb 0d f5 b6 38
       -1.372264e-06 -5.846477e-12 -0.004506345 8.7240805e-05
0002d0 25 d6 87 a9 47 e4 d7 bb 0e 12 aa 3c a9 e7 87 bb
       -6.0323525e-14 -0.006588492 0.020760562 -0.004147489
0002e0 94 52 d4 bc 1c a9 4a 3a d0 61 07 29 d8 2e 3f bc
       -0.025918283 0.0007730888 3.006086e-14 -0.011668883
0002f0 bb 27 3d bd a7 ab 63 b9 f8 18 1d bd 30 5f 35 3c
       -0.046180468 -0.00021712352 -0.03835389 0.011070058
000300 f3 fc 02 ae e0 83 0d 3c 06 d9 d6 3b 05 ab 34 28
       -2.9783242e-11 0.0086373985 0.006556633 1.0029091e-14
000310 fe a1 11 b2 20 68 0e bc 0e cc 06 37 56 a5 60 bd
       -8.476944e-09 -0.0086918175 8.034533e-06 -0.054845177
000320 5d 05 d8 bb 46 01 31 3d 71 42 5e b5 cf ef 36 3d
       -0.006592436 0.043214105 -8.279813e-07 0.044662293
000330 fb 76 81 3c 36 10 50 b6 7b c2 35 bd 8c 9a 34 3d
       0.015803805 -3.1003851e-06 -0.044374924 0.0440927
000340 71 3f 25 27 20 d1 8a 3d b0 c4 78 bd a3 ce 12 36
       2.2932742e-15 0.06778169 -0.06073445 2.1875974e-06
000350 51 3b 5b bd 6d 84 6b ad bb 69 65 bd e8 d0 7c bd
       -0.053523365 -1.3387608e-11 -0.056009036 -0.061722666
000360 ee 74 3c 27 c0 b0 99 3d 41 82 60 a7 68 89 be a7
       2.6153629e-15 0.075044155 -3.1156855e-15 -5.288457e-15
000370 a0 31 86 3d 9e 62 08 a8 97 3c 4b bc 2d e7 a9 3c
       0.06552434 -7.570901e-15 -0.012404582 0.020740116
000380 55 6a fc 3c bf f9 5e 3d 60 01 2a 3d 44 46 85 3d
       0.030812422 0.054437395 0.041505218 0.06507543
000390 06 41 a6 ba df 1e e0 30 cc c9 93 ba d4 1a 66 af
       -0.0012684173 1.6306919e-09 -0.001127535 -2.092791e-10
0003a0 c3 a6 2c 3d de 58 2c bd e4 29 39 3c 6f 74 6a bc
       0.042151224 -0.042076938 0.011301491 -0.0143099865
0003b0 53 10 10 a9 8b 02 fa ac 80 50 8e bb 8b 38 f9 28
       -3.1988582e-14 -7.1057097e-12 -0.0043430924 2.7669075e-14
0003c0 57 be 02 bc 9d b3 79 3d 5f 63 8b ba 86 09 a7 3c
       -0.007979951 0.06096231 -0.0010634473 0.020390283
0003d0 f7 2d 8f b7 2e 94 2a bd be a8 23 3d 4f f7 c8 b8
       -1.7068332e-05 -0.04164522 0.039955847 -9.582808e-05
0003e0 2d f2 2d bb 4d 02 ad 29 54 cc c9 29 ad f3 fb 38
       -0.0026542053 7.6831425e-14 8.9616384e-14 0.00012014001
0003f0 2f f1 b4 b7 98 bc 1d b9 d7 28 3a 3c 5c aa 9c 3b
       -2.1569982e-05 -0.00015042943 0.011362276 0.0047810506

graph_attention.qkv_proj_low.weight f4 [12, 64]
000000 3b 2b a8 bd 40 dd bb bb 7f cc 81 bd a5 f0 f8 3b
       -0.082113706 -0.005733162 -0.06337833 0.0075970464
000010 f2 72 67 3b 54 45 82 3d e0 1e d4 bd fd 74 03 be
       0.0035316315 0.063608795 -0.103574514 -0.12837596
000020 f6 06 9b 3d 0b c4 b3 3d 2b 6b 0a be 1e e8 bc 3c
       0.07569687 0.087776266 -0.13517444 0.0230599
000030 3f 7e f3 bc 24 6c 5f bb de bf dd 3d e1 48 0a 3e
       -0.029723285 -0.0034091556 0.108276114 0.13504364
000040 97 d5 95 bd aa 6f 7c 3d 1e 88 ee 3c 95 4f 9e bc
       -0.0731613 0.06162993 0.02911764 -0.019325057
000050 02 70 21 3e 7d 85 6a bd 83 f7 2f bd fd 12 a4 bd
       0.15765384 -0.05725621 -0.042960655 -0.08011434
000060 ba 0d 88 3c 4a 48 a1 3c 62 b0 a8 3c bf 55 ae bb
       0.016608108 0.01968779 0.020591918 -0.0053202803
000070 c8 4b 3e bd dc 71 ad 3d 9e 69 39 bd 92 cf b8 bc
       -0.04645899 0.084689826 -0.04526674 -0.022559915
000080 6b 96 49 bc 11 fc be bc d6 45 11 3d 63 d0 e4 3b
       -0.012303929 -0.023313554 0.03546699 0.0069828494
000090 68 f1 a0 3d 6b ae 80 bc 18 df cd bd ce fb c0 3d
       0.078585446 -0.015708169 -0.100523174 0.09423028
0000a0 7f 79 38 bb 02 df 56 bd 53 4e 88 bc c0 74 42 3d
       -0.002814859 -0.05245877 -0.01663891 0.047474623
0000b0 02 08 d6 bd fb 16 6d 3c 0d 1e 9d 3d 44 2b e1 bd
       -0.10450746 0.014470811 0.07671747 -0.109945804
0000c0 a3 d3 87 bd e2 20 b0 bd 79 4a 13 3e a1 96 bc 3d
       -0.066321634 -0.08600022 0.14383878 0.09208418
0000d0 bb 6f 35 bc a9 35 02 3e d7 98 eb bc c4 a0 c3 bd
       -0.011074002 0.12715782 -0.028759403 -0.09552148
0000e0 15 16 3f 3d fd 5c 08 3d 2d 6c e5 3d 09 b2 b7 3c
       0.04665192 0.033291806 0.112022735 0.022423761
0000f0 44 d1 97 3d 42 b2 ab 3d 60 55 e3 3d 8f 74 ee bd
       0.07412961 0.08383609 0.11100268 -0.116433255
000100 30 33 cf 3d ff 29 da bd 10 d6 ec 3d af 53 d2 bb
       0.10117185 -0.10652541 0.11564267 -0.0064186673
000110 88 ee da bd ba d7 41 3d 39 58 e6 bc 3e 43 f1 bd
       -0.106900275 0.047324874 -0.02811824 -0.117804036
000120 01 91 21 bd 98 61 0f 3c d2 79 cc 3d d0 40 27 bd
       -0.039444927 0.0087512955 0.09984173 -0.040833294
000130 f2 ae 58 3d 4a 03 5b 3c f3 85 98 3b 72 97 09 3d
       0.052901216 0.013367483 0.00465464 0.033591695
000140 b0 48 b2 bd 74 fe cc bd 42 47 f9 bc 53 07 e2 bd
       -0.0870527 -0.100094706 -0.030429486 -0.11036553
000150 53 7f 34 bd e7 6f b0 3b de cb ac bd 98 cd 3d bd
       -0.04406674 0.0053844335 -0.08437322 -0.046338648
000160 17 dd cd bc 89 70 0f bc ab de 4a bd e8 e1 94 3b
       -0.025129838 -0.008754858 -0.04952876 0.0045435317
000170 d1 55 80 bc b5 6b 7d 3d 9a 53 84 3c 24 43 8e bd
       -0.01566592 0.061870296 0.016153146 -0.069464
000180 27 c0 1e bd c2 0e 1e 3c fe 00 97 bd 76 dc 06 3c
       -0.03875747 0.009647073 -0.07373236 0.008231273
000190 b2 4d 5b bc 5f f1 3b 3d 88 50 00 3d 9f 57 bd 3d
       -0.013385223 0.045884486 0.0313268 0.09245228
0001a0 b0 b5 5e 3a 97 af af bd cb 97 a5 3d 7a ba 3c bd
       0.00084957015 -0.08578413 0.08085593 -0.046076275
0001b0 ab 43 9d bc 04 7d 15 bd 48 b5 3b bd 07 34 39 bd
       -0.019197306 -0.036496177 -0.04582718 -0.045215633
0001c0 fe 74 e2 3d bc 4b 92 3d 7f bb 44 3d fa 90 ef 3d
       0.11057471 0.071433514 0.048030373 0.11697574
0001d0 45 99 e9 bd fb a4 88 3c da 6a a5 3d 73 20 a7 3d
       -0.11406187 0.016680231 0.08077021 0.08160486
0001e0 90 40 d6 bd dc f5 34 3d 81 7d 89 bd 4b 78 33 bb
       -0.10461533 0.044179782 -0.06713391 -0.0027384933
0001f0 2d 87 bb bc ad f3 df bd 84 ed e3 bd bd d6 aa bd
       -0.022891605 -0.10935149 -0.11129287 -0.08341739
000200 95 97 3d 3d 35 c1 7b 3d 89 e0 f4 bd 3a ca 38 bd
       0.046287138 0.061463553 -0.11956889 -0.045114733
000210 b1 1a 2d 3c 11 05 e3 bd 81 5a 7e 3d 14 4b ec 3d
       0.010565446 -0.11084951 0.06209803 0.115377575
000220 ac d9 a3 3b d8 4b 86 bd 3c 43 1c 3d 3e 7b 59 3d
       0.0050003137 -0.06557435 0.038150057 0.05309605
000230 49 5d 1f 3d 2b 41 6a bd 82 17 d7 bd b8 2a 37 3d
       0.038907323 -0.057191055 -0.10502531 0.044718474
000240 9f 35 ca 3b de 8a 57 bd 35 96 c7 bc 79 e3 6e bd
       0.006170943 -0.05262267 -0.024363616 -0.058322404
000250 a0 00 b7 3d fb 35 bf bc 07 68 dd 3d c5 7c fd 3d
       0.08935666 -0.02334117 0.10810857 0.123773135
000260 64 f6 9e 3c 25 fc 1a 3d d9 dc 10 bc ba f6 ba 3c
       0.019404598 0.03783812 -0.008841717 0.022822727
000270 3f c8 f3 bd b6 c3 5f 3d 4e 67 e0 bc 72 cc 5a 3d
       -0.11903428 0.054630004 -0.02739301 0.05341763
000280 f6 d3 2b 3b 90 69 3e bd 6e c2 e5 bb 6c 98 7e 3d
       0.0026218868 -0.04648739 -0.007011703 0.06215708
000290 30 15 af bd 6e 17 a9 bd 56 6d ce bc fd e3 92 bd
       -0.08548963 -0.08256422 -0.02519862 -0.071723916
0002a0 db 10 53 3d ea 4e c5 3d 66 95 a2 bc 02 88 ad 3d
       0.051529747 0.09634192 -0.01984663 0.08473207
0002b0 34 c4 53 bd 8b 5d 65 bd 10 54 88 bd 13 78 c0 bd
       -0.051700786 -0.055997413 -0.06656659 -0.09397902
0002c0 7c 03 cc bd f1 2b ee bd 18 71 02 be 89 70 1d 3d
       -0.09961602 -0.11629475 -0.12738454 0.0384374
0002d0 73 29 9e 3d a3 06 d1 3d e7 0d 9d 3d d8 35 b4 bc
       0.077227496 0.10206344 0.07668667 -0.021998331
0002e0 1d 87 96 3c ad 19 80 bd f8 92 3d 3d bf 42 02 be
       0.018374974 -0.06254897 0.04628274 -0.12720774
0002f0 58 00 8f 3d 98 10 21 3c 1c c8 d1 3c d4 fe 1e 3d
       0.069824874 0.009830616 0.025608115 0.03881724
000300 44 17 80 bd 81 ef ec 3d ab 28 52 3d f2 bb b5 3d
       -0.062544376 0.11569119 0.051308315 0.08873738
000310 18 80 8a 3c ab 7e 37 3d 6c 20 ac 3d 2a 49 8c 3d
       0.016906783 0.044798534 0.084046215 0.068498924
000320 e8 2f ab 3d df 25 88 bc b9 61 bd 3d e4 0f 21 3d
       0.08358747 -0.01661962 0.09247155 0.039321795
000330 6f 64 26 3d 09 87 fd 3d 78 71 c5 3c bd 9a 1e bd
       0.040623125 0.123792715 0.024101958 -0.03872179
000340 09 e0 9b bc 1a 1a fd 3c a5 a2 7c 3c 1c 62 e3 bc
       -0.019027727 0.030896235 0.015419637 -0.027756743
000350 a5 f9 cf 3d 93 48 a8 3d e4 c7 82 bd 03 be b6 ba
       0.10155038 0.082169674 -0.06385782 -0.0013942126
000360 f5 d3 88 bc 50 bd 93 bd 13 f5 92 3c 01 db c1 bb
       -0.016702631 -0.07213843 0.017939126 -0.005916
000370 10 87 8a bd ab 8c b8 bc ab 5e 07 bd d3 bb 04 3e
       -0.067640424 -0.022528013 -0.033049267 0.12962274
000380 30 f4 63 3d f8 5b 00 3e 37 71 29 3d 08 e3 02 3d
       0.055652797 0.12535083 0.041367736 0.031954795
000390 60 fe 79 3d f3 15 e5 3c c1 f0 b8 bd 1d bb b8 bd
       0.061033607 0.027964568 -0.09030295 -0.09020064
0003a0 de 0a c4 bc 1b 80 43 3c fd 51 84 3d 72 40 68 3d
       -0.023930963 0.011932398 0.064609505 0.056702085
0003b0 7f bc be 3d 4a 5a 1f 3d c9 90 49 bd a4 38 bb bd
       0.093132965 0.038904466 -0.049210344 -0.09141663
0003c0 10 e7 c0 bd 7d 59 98 bd 83 55 30 3d 1e fb 95 3d
       -0.09419072 -0.074389435 0.0430503 0.073232874
0003d0 48 3b f9 3d 88 55 1b bd 22 f3 af bc 61 e6 66 bd
       0.1216951 -0.037923366 -0.02147824 -0.05637205
0003e0 6a 02 91 3b b7 70 5a 3d a0 dc 91 b9 61 c9 9a 3b
       0.0044253366 0.05333015 -0.00027820934 0.0047237133
0003f0 c4 9f e2 3c 36 5c 1f 3d 0d 66 3f bd 4d aa 9d bd
       0.027664073 0.0389063 -0.046728183 -0.07698498

graph_attention.qkv_proj_low.bias f4 [12]
000000 bb 63 91 bd 0c 18 aa bd e2 1b 98 3d e4 3c 51 bd
       -0.070991 -0.08305368 0.07427193 -0.05108346
000010 bb 4e 23 3d 40 16 93 bc 0e 49 18 3d 47 c7 c6 3d
       0.039870005 -0.017954946 0.037179045 0.09705978
000020 b6 1b 80 bd 30 12 85 bd 22 65 81 3d 50 74 34 3a
       -0.062552854 -0.064976096 0.06318118 0.0006883787
