optim_results/models/trial_42_best.pt (torch, 64701 bytes, 58 tensors)

temp_conv.depthwise.weight f4 [1, 1, 3]
000000 53 05 68 3e 72 ee b3 3e 34 2c a4 be
       0.22658281 0.35142857 -0.32064974

temp_conv.pointwise.weight f4 [12, 1, 1]
000000 48 73 8a be 7d 0e 49 3e 14 e0 ff be 64 6b 12 3f
       -0.27041078 0.19634433 -0.49975646 0.57195115
000010 2e 73 62 3f 88 2f 46 bf 6e 06 5d 3f 53 00 2a 3e
       0.88457 -0.77416277 0.86337936 0.16601686
000020 9f a7 3a 3f 5c 95 11 3e cf 76 f5 3e 18 01 57 be
       0.7291202 0.14217132 0.47942206 -0.20996511

temp_conv.pointwise.bias f4 [12]
000000 5d 70 43 3f f0 16 1a 3e 77 95 ee be 61 aa 82 3e
       0.7634333 0.15047812 -0.46598408 0.25520614
000010 30 00 ec be 64 6b ef bd ee df cf be fe 98 29 3f
       -0.46093893 -0.11690405 -0.40600532 0.6624907
000020 8b fa 49 bf 6c 6c e9 be 97 82 90 be 08 3c 1b bf
       -0.78897923 -0.45590532 -0.28224632 -0.60638475

temp_conv.bn2.weight f4 [12]
000000 6b 3b 86 3f 19 90 7e 3f 75 94 81 3f 80 e7 7b 3f
       1.0486883 0.99438626 1.012343 0.98400116
000010 9f 4b 80 3f c4 99 87 3f 6b ba 7d 3f 6f 13 7b 3f
       1.0023078 1.05938 0.99112576 0.9807653
000020 01 a5 7c 3f 1d 99 80 3f e3 af 7e 3f 02 a2 89 3f
       0.98689276 1.0046726 0.9948713 1.0752566

temp_conv.bn2.bias f4 [12]
000000 19 58 41 bd de aa fe 3d 13 21 ac bc 36 db 19 bd
       -0.047203157 0.12434934 -0.021011865 -0.03756257
000010 86 f1 61 bc 55 69 7b bd ae 38 05 bd e6 65 13 3d
       -0.013790494 -0.06137975 -0.032524757 0.03598585
000020 26 39 1b 3d 24 11 1d 3d 03 d8 94 bc 26 25 db bc
       0.037896298 0.038346425 -0.018169409 -0.026751112

temp_conv.bn2.running_mean f4 [12]
000000 9f da 2c 3f 82 27 5c 3e 36 25 21 bf ac 7f e2 3e
       0.6752109 0.21499446 -0.62947404 0.4423803
000010 61 9b 2f be b8 7f bd be 76 fc fc bd 32 86 37 3f
       -0.17149116 -0.37011504 -0.123528406 0.7168914
000020 1a eb 0c bf 81 a6 d1 be e9 54 00 be d3 bf 2c bf
       -0.55046237 -0.40947345 -0.1253239 -0.674802

temp_conv.bn2.running_var f4 [12]
000000 de 59 d7 3c fc 3f 65 3c b3 ed b7 3d 6c e4 f0 3d
       0.02628797 0.013992306 0.089808844 0.11762318
000010 25 00 90 3e 77 65 5c 3e 9a 27 89 3e 07 f3 22 3c
       0.2812511 0.21523081 0.26788026 0.009945638
000020 b2 94 43 3e 81 0a ee 3b 7d 4a a9 3d a3 be 81 3c
       0.19099692 0.0072644358 0.08266161 0.015837973

feature_process_low.weight f4 [8, 240]
000000 e9 07 19 3c 03 74 89 bd b4 41 71 3d 17 08 5d bd
       0.009340265 -0.067115806 0.05890055 -0.053962793
000010 bc 31 59 3d 5f b4 8d 3c 40 82 ab bc f9 ff 21 3d
       0.053025946 0.017297922 -0.020936131 0.039550755
000020 84 60 0d 3c 6d 16 47 3d 5d 3d db 3b b6 1f ba bc
       0.008628968 0.04860537 0.0066906647 -0.0227202
000030 86 40 81 3c 07 3d 9d bc 8f 87 b6 3c a2 51 3c 3d
       0.015777837 -0.01919414 0.022281436 0.04597629
000040 ee d6 d6 3c 2b d6 1a bd 08 72 ec 3c 71 7d 9c 3d
       0.026225533 -0.037801903 0.028862968 0.076411135
000050 db d0 f0 3c 17 63 48 bd 86 0d 89 bd b5 27 d7 bc
       0.029396465 -0.048922624 -0.066920325 -0.026264051
000060 19 2f 44 bd 3e 06 75 3d da a1 d4 3c a6 a8 f9 3c
       -0.04789648 0.059820406 0.025956083 0.030475926
000070 6d 24 59 3c c0 e1 82 bc bd 4a 2a 3d b5 59 43 bd
       0.0132533135 -0.015976787 0.041575182 -0.047692973
000080 40 9e 79 3a b7 53 55 bd 69 b2 ad 3c d6 e7 8a bc
       0.0009522177 -0.05208179 0.021203237 -0.016956251
000090 d5 45 c0 3c 66 fe 8d bc 82 1f 53 3d 81 01 0a bd
       0.023470799 -0.01733322 0.05154372 -0.03369284
0000a0 bd 23 0f bd ba 34 1f bd f3 77 71 3d 2e b2 cd 3c
       -0.034946192 -0.038868643 0.058952283 0.025109377
0000b0 f7 3a 86 3d 88 2f 48 bd e5 4a 7b bd 6f e1 4e bd
       0.065542154 -0.048873454 -0.061350722 -0.05050796
0000c0 0d e7 2a bd d3 e9 bf 3c 8e 5a 9b 3c 5e 98 55 3d
       -0.041724253 0.023426926 0.018964078 0.05214726
0000d0 65 f0 15 bd 31 4e 3c bd 9f a9 f5 3c 55 de 03 bd
       -0.03660621 -0.045973007 0.029988108 -0.032194454
0000e0 ac 90 01 3d 97 f4 e7 bc 60 3f c9 3c 6d 28 cd 3b
       0.03163211 -0.028314872 0.024566352 0.0062609226
0000f0 01 a2 0a bd 6f 6d 58 3c 1d 87 4d 3c 62 3f 89 bc
       -0.033845905 0.013209685 0.012544421 -0.016753856
000100 12 40 26 3d af 83 55 3d d4 48 1c bd b2 65 f6 bc
       0.040588446 0.052127536 -0.03815539 -0.030077789
000110 f0 15 58 3d 0d 59 13 bd 9c 22 05 bd 5a f2 85 bd
       0.052755296 -0.035973597 -0.03250371 -0.065403655
000120 5f 65 22 bd f9 85 0e 3c 23 a5 10 bc 0e 15 1f bd
       -0.039647456 0.008698934 -0.008828434 -0.03883844
000130 30 e9 b6 3b 9e 5d 59 bd 62 5e 64 bd 94 1e 07 bd
       0.0055819973 -0.053067796 -0.055754073 -0.032988146
000140 58 d5 6c bd c3 f8 42 bd a2 43 80 3d 64 be 40 3c
       -0.057820648 -0.04760052 0.062629 0.011764143
000150 f8 94 b6 3c 6a 33 56 bd dd fc 0a bd de 95 91 bc
       0.02228783 -0.052295126 -0.033932555 -0.017771658
000160 69 ed 87 3b c1 53 93 bd be 8d 16 bd 39 8f 2d bd
       0.0041481745 -0.07193709 -0.03675627 -0.042372916
000170 93 95 62 bb 22 9d 05 bd 6e db 5f bb 47 12 18 bd
       -0.0034574016 -0.032620557 -0.003415789 -0.037126806
000180 4d a1 25 bd 37 2f 28 bd 2e 09 c5 bc f0 cf 44 bd
       -0.04043703 -0.041060653 -0.024052229 -0.048049867
000190 10 88 74 3d 4a 7c 84 bc da 63 5c 3d c9 64 b0 3c
       0.05970007 -0.016172547 0.053806163 0.021532433
0001a0 e1 f3 5c bd ba 6c 46 3d cd b4 86 bc ac 44 b7 bc
       -0.05394352 0.048443533 -0.016443634 -0.022371612
0001b0 49 4b 4f bd 3b 89 8d bd 9b 92 86 3c 82 c4 98 bc
       -0.050608907 -0.0691094 0.016427329 -0.01864839
0001c0 93 fe a8 3c 25 c3 54 bd 16 63 38 3d cc 5c 5a bd
       0.020629203 -0.051943917 0.04501637 -0.053311154
0001d0 48 6a b2 bc ab 2f 5e 3b 22 95 bd 3c 74 f1 de 3d
       -0.021779194 0.0033902924 0.023142401 0.10885897
0001e0 94 f6 6f 3d 38 4e 6d bd 22 89 7c 3c e8 dd e5 bc
       0.058584765 -0.057935923 0.015413554 -0.028059915
0001f0 7d 85 8b bb a6 74 24 bd 59 67 89 3d 8a b7 32 bd
       -0.0042578564 -0.040150307 0.06709165 -0.043632068
000200 3a 6e e1 3c 1e 8f e4 3b 3a 68 35 3c b6 0d 18 bd
       0.02751838 0.0069750687 0.011072213 -0.03712245
000210 1e 94 65 3d 57 ba d7 3b 95 21 0b 3c a9 e6 4d bd
       0.05604946 0.0065834927 0.008491893 -0.050268803
000220 28 31 fb 3c 71 dd 76 bc f5 4b f4 bc 40 fc 56 3d
       0.030663088 -0.015067444 -0.029821375 0.052486658
000230 29 53 51 3c 16 53 30 bd 4c 1c 0a bd 64 c7 92 bb
       0.012776175 -0.043047987 -0.033718392 -0.0044793356
000240 1c 00 1c 3d 86 2b 09 bc b0 a6 f1 bc 89 06 91 bc
       0.03808604 -0.008372193 -0.029498428 -0.017703312
000250 86 99 60 bd c1 c4 13 3c 3d 59 27 3d 5e 4a 84 bd
       -0.05483391 0.009019078 0.04085659 -0.06459497
000260 40 9c 35 3c f2 13 dc 3c 0a 21 59 3c 95 29 86 bc
       0.011084616 0.02686498 0.013252506 -0.01637725
000270 b0 21 13 3d 32 32 e8 3c 44 df ca 3c 94 d0 4b bc
       0.0359208 0.028344247 0.024764664 -0.012439866
000280 40 98 93 bc 23 7b b2 b9 b6 a8 58 bc c5 4c a6 bc
       -0.018016934 -0.0003404255 -0.013223818 -0.020300278
000290 16 f4 30 3d b0 9f 82 3d 3f db 0c 3b 0c 15 2a bc
       0.04320153 0.06378114 0.0021492986 -0.0103809945
0002a0 d4 19 ad bb ec ae 99 bc 12 85 c2 3b 15 f3 7d 3c
       -0.00528262 -0.018760167 0.0059362734 0.01549985
0002b0 5d 21 80 bd 5f 87 03 bd d9 26 5b 3d e0 32 fb 3c
       -0.062563635 -0.03211152 0.053503845 0.030663908
0002c0 7c 60 67 3a 18 2f 31 bd 5a 83 20 bd 69 bf 7c bd
       0.0008826328 -0.043257803 -0.039187767 -0.06170598
0002d0 e1 2a c3 bc 89 9b 58 3c f1 1d 20 3d 4b 98 f1 3c
       -0.023824157 0.013220676 0.039091054 0.029491564
0002e0 d1 43 61 bd ba 5c 00 bd 50 e9 a5 ba 41 d7 89 3d
       -0.054996315 -0.03133843 -0.0012658034 0.067305095
0002f0 5f 0d 0b 3b 3e 6a fe bc 81 23 8d 3c 54 d6 de bc
       0.0021217687 -0.03105652 0.017228844 -0.027201809
000300 90 75 3d bd 1e 10 26 3d e7 fe f4 bc f1 5f c7 bb
       -0.046254694 0.040542714 -0.029906703 -0.006084435
000310 80 e7 75 bd 5c 43 20 3d af 24 43 3d ee 5b aa 3c
       -0.06003523 0.03912674 0.047642406 0.020795789
000320 10 51 3b bd bc 3b 8f bd 9f ba 58 bd 85 0f 43 3d
       -0.045731604 -0.06993815 -0.05291235 0.047622222
000330 8e a9 09 3d af e5 7b 3d 19 db 2c 3d 4f 88 a9 3c
       0.033608966 0.06149834 0.042201135 0.02069488
000340 d7 3e ed bb 10 36 82 bd be e0 84 bd 14 df 7f bd
       -0.007240157 -0.06357968 -0.06488179 -0.062468603
000350 3e e6 ba 3c e6 38 24 bd 5a d0 4a bc 3e 48 00 bd
       0.022814866 -0.040093325 -0.012378776 -0.031318896
000360 05 8c cb bb 1e ff 52 bd 56 47 2c bd 3e 12 87 3c
       -0.00621176 -0.05151283 -0.04206022 0.01648819
000370 ae c4 87 bc b2 19 1c 3d c0 c8 a1 bc d4 d1 38 bd
       -0.016573276 0.038110442 -0.019749045 -0.045121983
000380 9e e3 01 bc ad 02 de bc ca 20 8c bc 68 2f 70 bd
       -0.007927803 -0.027100885 -0.017105479 -0.05863896
000390 1b ea 07 3d 9b 88 39 bd 0f 7b 08 3d b0 0f d8 3c
       0.033182245 -0.045296293 0.033320483 0.026374668
0003a0 34 1c 3b 3d ce 5e 4d bd 85 a5 30 3d c5 b6 0c bd
       0.045681193 -0.05013924 0.0431266 -0.03435399
0003b0 0e 94 4a 3c ab 59 61 3d 84 a4 b8 bc e0 95 5c 3d
       0.012364401 0.055017155 -0.022539385 0.05385387
0003c0 a0 75 7d bc f5 dc 12 bd c6 d6 1b 3d 34 18 66 bd
       -0.0154699385 -0.035855252 0.03804662 -0.056175426
0003d0 51 a9 27 3d da dd 2c 3d 68 19 78 3d d3 08 7b bc
       0.040932957 0.04220376 0.060571104 -0.015321928
0003e0 56 b9 59 bd 7e b2 65 3c 0b e2 f3 3c 91 a3 86 bd
       -0.053155266 0.014019607 0.029770872 -0.065741666
0003f0 96 76 80 bc 95 05 25 bd 7b 78 88 bb 12 e5 cc bc
       -0.015681546 -0.040288527 -0.004164753 -0.025011573

feature_process_low.bias f4 [8]
000000 8b 86 6d 3d 8c 7b 22 bd b0 e5 1f bd 79 90 a6 bb
       0.05798964 -0.039668605 -0.039037406 -0.0050831405
000010 3e a3 71 bc 9c 48 4a bc 1a 39 52 bd c4 a8 86 3c
       -0.014748393 -0.012346413 -0.051323988 0.016437896

feature_process_high.weight f4 [16, 8]
000000 28 d9 96 be 65 24 38 3d f1 ba 48 3e ad 73 a2 3d
       -0.29462552 0.044956584 0.19602562 0.0793222
000010 3a da 1f 3d de 7b 8c 3d b7 84 d4 bd 03 dd 6d bd
       0.039026476 0.06859563 -0.10376876 -0.0580721
000020 b4 1d 1d be 8b b5 5f be 80 7b 3a be d9 b2 a6 3e
       -0.15343362 -0.21846597 -0.18211174 0.32558325
000030 1c f0 92 bd 41 c0 07 3e 18 fe 6b 3e 0b 25 c1 bc
       -0.071747035 0.13256933 0.23046148 -0.023577234
000040 72 90 4e be cb 64 7e be 0c 30 c6 bd a4 cf 02 3e
       -0.20172289 -0.24843137 -0.09677133 0.12774521
000050 ff aa 9b be b0 4f 2d bd 39 15 0d 3e e5 12 9b 3e
       -0.30403897 -0.042312324 0.13777627 0.30287853
000060 18 ca c7 3d 2c 4f e1 3d 28 c7 87 3e a9 db 67 3e
       0.09755343 0.11001429 0.26519132 0.22642387
000070 2d 3c 02 3e 65 7a e5 bd 45 51 87 be 5d 7b 8d bc
       0.12718268 -0.112049855 -0.2642919 -0.017270738
000080 e7 6c 94 bd 8b ca d9 bb f7 35 88 bd 98 c5 03 3e
       -0.07247334 -0.0066464595 -0.06650918 0.12868345
000090 29 ea 82 3e e1 ae 28 be b7 83 ad be 18 35 5e be
       0.25569275 -0.16472961 -0.33889553 -0.21699941
0000a0 70 98 3a be ce ca 54 3e e0 0c 49 be 87 b3 bd bc
       -0.18222213 0.20780489 -0.19633818 -0.023156894
0000b0 df a7 b2 bd 8d 76 61 be 2a af 36 3e d5 04 f3 bd
       -0.08723425 -0.2201788 0.17840257 -0.11866156
0000c0 ef 40 18 bc d8 c2 80 be 4e ea 6c bd 77 9a 3b 3d
       -0.009292825 -0.25148654 -0.057840638 0.045801606
0000d0 eb 29 26 bb d0 f9 02 be e0 b0 e1 3d 0f ea fe bd
       -0.0025354575 -0.12790608 0.11020064 -0.12446987
0000e0 df e4 3e be 33 9a 88 be 1b 3a e2 bd 6f f1 99 be
       -0.18641995 -0.26680145 -0.11046239 -0.30067012
0000f0 83 d5 9f 3e 53 0f 29 be 8e 20 21 be 80 b8 0a 3c
       0.31217584 -0.16509752 -0.15735075 0.00846684
000100 58 93 b6 3d bc cd 15 bd 3f 72 7b 3e 29 fe 51 be
       0.08914822 -0.036573157 0.245553 -0.2050711
000110 40 11 f5 3d dd 74 40 3c 2f 7b 96 be 96 48 04 be
       0.11966181 0.011746612 -0.29390857 -0.12918314
000120 99 ba a7 3d 58 9e b2 3d e1 2d 84 3e a0 09 70 3e
       0.081898876 0.08721608 0.25816253 0.23441172
000130 ce b9 55 be 47 fc 0f be e6 d3 a6 bd c2 e3 72 be
       -0.2087166 -0.1406108 -0.08145885 -0.23719695
000140 a5 4d db bd 59 24 8c be f9 cf 20 3e b2 8c 7e 3e
       -0.10708169 -0.2737148 0.15704335 0.24858359
000150 9d 25 5a 3c 6c dc 83 be 48 32 84 be 3c 15 bf bd
       0.013314632 -0.25754106 -0.25819612 -0.09330222
000160 d7 dd d9 3d 81 25 2d 3d 8c 32 04 3e dc 52 be 3e
       0.10638016 0.042272095 0.12909907 0.37172592
000170 46 e5 16 3e 32 df b4 3d bf b3 65 bd 49 6f 6c 3e
       0.14735898 0.088316336 -0.056079622 0.23089327
000180 05 e6 f7 3d b0 bd b4 be 55 8c 5e be 3f 12 13 3c
       0.121044196 -0.3530097 -0.2173322 0.008976518
000190 3a 39 39 3e 6e 0c 16 3e 8e 59 55 be 5e d0 be be
       0.18088236 0.14653179 -0.20834944 -0.37268347
0001a0 88 07 e7 ba 1d 1d 94 bd 41 dd 66 3d 2c 14 ba bd
       -0.0017626146 -0.072321154 0.056363348 -0.09085879
0001b0 9b 7c 90 3e b3 e5 6c 3b fc f6 84 3e f0 a2 83 be
       0.28220066 0.0036147654 0.25969684 -0.2571025
0001c0 de a7 1e 3e 8a df a9 3d d3 d5 20 be 17 9d 34 3e
       0.15493724 0.0829459 -0.15706567 0.1763805
0001d0 2a fd af be 24 37 96 3e c4 79 e7 3c f8 4c 90 3c
       -0.34372836 0.29338944 0.028256305 0.017614827
0001e0 de cd 41 3e 42 15 a8 3d 83 8a 36 3e c1 b1 97 3e
       0.18926188 0.082071796 0.17826276 0.29627803
0001f0 99 83 a1 be b8 fe 6b 3e ad cb f1 3c a2 99 16 bb
       -0.31545714 0.23046386 0.029516065 -0.0022979756

feature_process_high.bias f4 [16]
000000 f7 f8 aa 3d 94 f5 85 3e bc 6c 48 be f2 07 20 be
       0.083482675 0.26163924 -0.19572729 -0.15628031
000010 56 32 55 3e 12 d0 1e be af f8 d5 3d b7 4c 33 bd
       0.20819983 -0.1550906 0.10447823 -0.043774333
000020 fd 94 bf 3d b7 66 88 3e 55 98 1c be d0 13 23 be
       0.09354589 0.26640865 -0.15292485 -0.15925527
000030 a8 9e 39 3e d8 37 97 3c 58 8d 7c bd 98 8d 77 be
       0.18126929 0.018459246 -0.061658233 -0.24175107

feature_norm.weight f4 [16]
000000 78 0a 7e 3f 19 2f 80 3f af 93 81 3f 65 62 7d 3f
       0.99234724 1.0014373 1.0123194 0.98978263
000010 eb 77 7d 3f e7 41 7d 3f 9b 89 7f 3f b4 2c 7e 3f
       0.99011105 0.98928684 0.99819344 0.9928696
000020 c7 4d 7e 3f f1 12 80 3f 71 ce 7c 3f 28 f3 84 3f
       0.9933743 1.000578 0.98752505 1.0386705
000030 05 40 83 3f 64 8b 80 3f 28 ff 77 3f 9c 7a 7c 3f
       1.0253912 1.0042539 0.9687371 0.9862459

feature_norm.bias f4 [16]
000000 03 72 e4 bb cb 13 86 bc ab 5c 13 3b 43 10 41 bb
       -0.006971599 -0.01636686 0.0022485654 -0.0029459156
000010 0d 57 8c bc fa e0 d2 3a 57 3a a5 bc bf b9 f4 ba
       -0.017131353 0.0016088777 -0.02016942 -0.0018671079
000020 64 b9 61 bc 19 8c 8e 3b b9 55 42 bc 1d 1f ee 3c
       -0.013777111 0.004350197 -0.011861258 0.02906757
000030 1e 4b 35 3c f0 3e 95 bb d0 21 ef bc 0f 04 a4 bc
       0.011065273 -0.004554622 -0.029190928 -0.020021467

graph_attention.learnable_adj_u f4 [4, 47, 8]
000000 50 01 13 bd 0d 3c 99 bd 8b b0 9e bd de 97 ac 3d
       -0.035889924 -0.07482157 -0.07748517 0.08427404
000010 ee 60 c3 3d 67 f2 88 bc f2 3e 18 3d 2c aa e8 bc
       0.09539972 -0.016717149 0.037169404 -0.028401457
000020 e2 9f d2 3c 6e 4e a6 bc d9 32 81 bd 21 fc 50 bd
       0.025711004 -0.02030107 -0.063085265 -0.0510217
000030 0e b2 f6 3d d7 74 a7 3c ae d0 87 bd 65 8a 61 3c
       0.1204568 0.020441456 -0.06631599 0.013765906
000040 23 c6 f7 bd d1 35 8c 3a d4 a6 be 3d 01 2b 65 3c
       -0.120983385 0.0010697191 0.09309164 0.013987304
000050 9d b1 ec 3c b1 f1 e9 bd 2e da ba bc 18 8d 92 3d
       0.028893286 -0.11423052 -0.022809114 0.07155818
000060 7e 18 b6 bd dd 5d 68 bd 37 d7 a7 3d 36 a5 0e 3d
       -0.0889139 -0.05673014 0.08195346 0.034825526
000070 39 33 68 3d be 98 e7 bd fa 10 9e 3d bf ad d8 bc
       0.056689475 -0.1130843 0.07718082 -0.026450036
000080 c2 c8 d0 3c 31 bf c8 3d 19 e0 e4 bd 92 1d 0e 3d
       0.025486354 0.09802092 -0.11175556 0.03469617
000090 1d 85 e0 bd 2d de b7 3d c1 d9 11 3d 72 13 5d 3c
       -0.10962889 0.089779235 0.035608057 0.013493406
0000a0 2b fd 46 bd 3e 47 3b 3d 18 e9 80 bd a1 e6 bd 3c
       -0.048581284 0.04572224 -0.06294459 0.023181261
0000b0 cf 90 d0 3d ba 6a ba bd 6b b9 0d bd 4f 08 e8 3c
       0.1018387 -0.09102388 -0.034600656 0.028324274
0000c0 f0 6f ac 3c 55 95 da 3a 81 aa d5 3d df 13 01 bd
       0.02104947 0.0016676584 0.10432912 -0.03151309
0000d0 ce 20 00 3d ae 9e 83 3d fa 9d c0 bc c5 48 a2 3d
       0.031281285 0.0642675 -0.02351283 0.07924036
0000e0 99 33 a2 3d a4 2f 5d 3d 31 5d f2 bc 8d b9 d7 3d
       0.07919998 0.05400051 -0.029585453 0.10533438
0000f0 84 81 8f bd 56 84 19 3d 64 78 c7 3c fb 4b af 3d
       -0.07007125 0.03747972 0.024349399 0.08559414
000100 b1 91 cb bd 9a 30 ad 3c b0 06 8f bd 05 a3 83 3d
       -0.09939898 0.02114134 -0.069836974 0.06427578
000110 67 91 2a 3d 59 31 c1 bd ac c7 f8 bb 9c f2 0a 3d
       0.041642573 -0.094332404 -0.007592162 0.033922777
000120 49 98 53 3d 7d f2 dc 3d d8 11 5f 3d d1 74 bd 3c
       0.051658902 0.107884385 0.054460377 0.023126991
000130 59 7b 84 3d 8d 01 eb bd 13 96 a5 3d 40 9a 69 bc
       0.06468839 -0.11474905 0.08085265 -0.0142579675
000140 8c 8f 8c 3d 7f 3d 0e 3d f8 8d d1 bb 19 d2 ae 3d
       0.06863317 0.034726616 -0.006395098 0.08536167
000150 fe c7 90 bd e4 12 0c 3d 31 bf 59 3d 73 c5 30 bd
       -0.070693955 0.034197703 0.05316085 -0.043157052
000160 52 f1 33 3d 80 a9 f5 bd c8 df 7a bd 1e 81 71 3d
       0.043931313 -0.1199522 -0.06124857 0.058961026
000170 01 02 80 3d 3f f7 e3 bd 83 e5 2b 3d 16 d2 3a 3c
       0.06250382 -0.11131143 0.041966926 0.011402627
000180 90 6e f2 3d 3e 3e f2 bd af c4 ec bc 5b a7 8c bd
       0.118374944 -0.11828278 -0.02890238 -0.06867858
000190 9b 1e 97 bd cd 40 a2 bc 29 42 e4 bd 50 93 c2 3d
       -0.073788844 -0.01980629 -0.111454315 0.09500754
0001a0 c8 bc 2f bd 57 0b 2e 3d ee 23 92 bd 7c 69 2b 3a
       -0.042904645 0.042491283 -0.07135759 0.0006538851
0001b0 a7 f1 af bd d0 e5 c7 3d 45 75 d1 3d 54 87 c3 3d
       -0.085910134 0.0976063 0.102274455 0.09547296
0001c0 e9 e2 2d bd e8 92 9a 3d a3 80 cf bd 7a e9 63 3d
       -0.042452727 0.075475514 -0.101319574 0.055642582
0001d0 87 3e 75 bc 78 ce cd bd 9b 51 c7 bd bd 68 e8 bd
       -0.014968521 -0.100491464 -0.09732362 -0.11348102
0001e0 c4 28 ba 3c aa a7 33 bd 93 c4 64 bd be 6f ec 3d
       0.022724517 -0.04386107 -0.05585153 0.11544751
0001f0 24 56 17 bd 3a 8a 27 3d a7 e2 ae bc 52 c7 95 3d
       -0.036947384 0.040903307 -0.02134831 0.07313408
000200 18 3a 14 3d 2c 46 9d 3d 72 b3 01 3d 3c ba d9 bc
       0.036188215 0.076794 0.031665273 -0.026578061
000210 41 81 db 3d 23 a5 0d bc 4e ad 94 bd bc 92 1a 3d
       0.107180126 -0.008645329 -0.07259618 0.037737593
000220 c5 18 71 bc 5e 30 b8 bd 66 f4 81 3c 59 d2 e6 bc
       -0.014715378 -0.089936 0.015863609 -0.028176473
000230 8b ce 45 bd 72 10 6d bd 9c 61 53 bd 6f 26 49 bd
       -0.048292678 -0.05787701 -0.05160676 -0.04910892
000240 cd 39 43 3c e5 ed ef 3d 0a 92 91 bd f8 b9 67 bd
       0.011915636 0.11715297 -0.07107933 -0.056573838
000250 28 7c a6 bd e1 c8 96 bb 51 4e 0b 3c 62 78 aa bd
       -0.0812915 -0.0046015834 0.008502559 -0.083237424
000260 24 e2 62 3d 2a be de bd 94 de e5 3d 7e f3 ba 3c
       0.055391446 -0.10876115 0.11224094 0.022821184
000270 e0 3e 48 bc 1b db 31 bd 29 06 5f 3d bb 5b b5 3d
       -0.012222022 -0.043421846 0.054449234 0.08855387
000280 74 72 a2 bd 84 02 f9 bc 3e d4 b6 3d c4 2c ba bc
       -0.079319865 -0.030396707 0.08927201 -0.022726424
000290 f8 df b6 bd 67 a0 1f bd 88 43 89 3b 97 75 b9 bc
       -0.089294374 -0.03897133 0.0041889586 -0.022639079
0002a0 9b 32 aa bd e8 97 9b bd 3b 4e 06 3d 47 68 aa 3d
       -0.083104335 -0.07597333 0.03278945 0.083206706
0002b0 65 ef e1 3d 95 92 60 bc a6 1c 3f 3d fc 3f c5 bd
       0.11031989 -0.013706823 0.04665818 -0.09631345
0002c0 4b 57 84 3d 3f 51 ed 3d 97 54 81 3d 03 64 44 bd
       0.06461962 0.11587762 0.06314962 -0.04794694
0002d0 61 7d ca 3d 7e 36 eb bd 64 6a 6e bc 9b 25 f6 bc
       0.098871954 -0.11485003 -0.014551733 -0.030047229
0002e0 2d ba f7 bd 6e ae 8d bd f2 f2 b4 bd 83 80 05 3d
       -0.12096057 -0.069180354 -0.08835401 0.03259326
0002f0 66 44 25 bc 8c 20 64 3d c2 79 df bc 40 dd cc 3d
       -0.010087108 0.0556951 -0.027279738 0.100031376
000300 08 0c 61 3c 81 df cd 3d 6c ad c9 3d 81 9e d2 bd
       0.013735779 0.100523956 0.09847531 -0.102841385
000310 fb c9 a6 bd 7d 97 95 3d e5 a3 ea 3d d6 f9 d3 bd
       -0.081439935 0.07304285 0.11457042 -0.10350387
000320 9f a2 e8 3a 7f f7 3e bd 83 d1 e9 3d cd 50 ce 3d
       0.001774866 -0.04662275 0.11416914 0.10074005
000330 27 c1 b4 3d c6 a6 85 3d 65 5e 3a bc ff 2a e5 3d
       0.088259034 0.0652595 -0.0113750445 0.111898415
000340 d7 6f 68 bd a2 65 c4 3b 94 b1 02 bd 70 2d b5 bd
       -0.056747284 0.005993561 -0.031907633 -0.08846557
000350 b8 62 6b bd ae dd f0 3c e7 44 31 bc 1f 86 a4 bd
       -0.057467192 0.02940258 -0.01081965 -0.08033394
000360 55 97 7c bc 14 92 ab 3c 50 c3 ad bd cb fd 95 3d
       -0.01541694 0.020943679 -0.084845185 0.07323798
000370 51 26 d3 bd 5d 12 98 3a 4b 29 cb bd e2 f4 df bd
       -0.10310043 0.0011602152 -0.099199854 -0.109353796
000380 52 cf 76 bc f4 66 e1 3d 39 c8 ea 3d de 85 32 3d
       -0.015064077 0.11005965 0.11463971 0.043584697
000390 37 80 c0 3d 85 c3 87 bd ac d2 8b 3d da 89 97 3d
       0.09399455 -0.06629089 0.06827292 0.0739934
0003a0 b1 5a ed bd c7 52 be bd 4a 97 56 3d db 98 37 3c
       -0.11589564 -0.09293132 0.052390374 0.011205877
0003b0 87 1b a8 bd d6 fb c3 bd 96 7e b3 3d e1 0b 59 3c
       -0.082083754 -0.09569518 0.08764379 0.013247461
0003c0 64 b5 8c b9 05 17 f0 bd ff e7 d9 3d b2 2d a4 bd
       -0.00026838027 -0.117231406 0.10639953 -0.08016528
0003d0 3f 54 5d 3d e8 e7 6e bc 6f 7c 81 3b 24 e4 73 3d
       0.05403542 -0.014581658 0.003951601 0.059543744
0003e0 a9 51 04 bd ce 59 0b bd 5c fc c5 3d 86 4f be bd
       -0.03230444 -0.03402119 0.09667274 -0.09292512
0003f0 a3 0a 5d 3d e3 2f 00 bd ae f7 25 bd 0c 41 a6 3d
       0.053965222 -0.03129567 -0.04051941 0.081178755

graph_attention.learnable_adj_v f4 [4, 8, 47]
000000 40 7b c0 bd 58 25 37 3d 0e ee ce 3c f0 3d 26 bd
       -0.09398508 0.04471335 0.025259998 -0.040586412
000010 0d 92 f9 3c c0 bc ca 3d fb 99 80 3d c3 be c0 bd
       0.03046515 0.098992825 0.062793694 -0.09411385
000020 f9 f8 da bc b4 9b bf 3d f4 b8 82 3c 12 56 50 3c
       -0.026730048 0.0935587 0.015957333 0.012715833
000030 2f 23 f1 3b ca 88 14 bd 5c 07 dd bc 14 4d e0 3b
       0.0073589305 -0.036263265 -0.026981048 0.006845126
000040 fd 01 9f 3d 1f 25 ee bc 75 1d dd bc b4 d7 a0 3c
       0.07764051 -0.029070435 -0.026991585 0.019634105
000050 5d a0 1a bd 7e 40 b8 3d 8d e7 9e 3d bb fc 8d 3b
       -0.03775059 0.08996676 0.077590086 0.0043331063
000060 76 99 88 bd 83 78 ec 3c 5e 23 b3 3d bd 2d 0b 3d
       -0.06669895 0.028866058 0.0874698 0.033979166
000070 d2 14 31 3d 8d 9e 5f bd d2 16 d0 bd 49 dc 1e bd
       0.043232746 -0.054594565 -0.10160603 -0.0387843
000080 4d 05 58 3b 19 ad bb 3d 4f 6b b0 3c 04 e5 9a bc
       0.0032962144 0.09163875 0.021535544 -0.018908031
000090 0f 50 d4 bc 58 8e a1 bc ad 2c 63 bd 17 de 30 bd
       -0.025917081 -0.019721195 -0.055462528 -0.04318055
0000a0 d8 f8 9c 3c 08 0d 8f 3d 84 6a b3 3d 31 b1 22 3d
       0.019161627 0.069849074 0.087605506 0.039719764
0000b0 1e f5 91 bd e2 46 c3 3d 73 f8 cb 3d 50 18 fb bc
       -0.071268305 0.09535004 0.09959497 -0.030651242
0000c0 88 0d 69 3b a3 35 bf 3d bd 8f 14 bd 80 47 48 3d
       0.0035561044 0.09336402 -0.036269892 0.048896313
0000d0 2a 8a 8c 3c f3 7e 6b 3d c0 31 13 3d e8 92 d1 3d
       0.017155726 0.057494115 0.035936117 0.10233098
0000e0 68 05 b3 3d 30 22 90 bd 50 3d 7e 3d c8 2b a7 bc
       0.087412655 -0.07037771 0.06207019 -0.020406619
0000f0 59 0c 5d bd ad b7 8d 3c 95 03 66 bc eb a7 89 bd
       -0.053966854 0.017299498 -0.01403894 -0.06721481
000100 ef 73 ba bd 85 72 6b bd d0 fb 2d 3c d8 bb 80 3d
       -0.09104144 -0.05748226 0.010619119 0.06285828
000110 00 f2 78 3d 23 53 e1 3c 26 62 c8 3d 40 eb b4 bd
       0.060777664 0.027505463 0.09784345 -0.08833933
000120 03 f5 84 bd 2f db 35 3d 3d 67 c0 bd 62 38 c7 3d
       -0.06492045 0.044398483 -0.09394691 0.09727551
000130 05 00 69 3c 82 b3 1b bd b6 7b bc 3d 81 f9 44 3d
       0.014221196 -0.03801299 0.092032835 0.048089508
000140 b2 a6 b1 3d bf 23 9f 3d aa 0d 93 bc 7c c1 bf 3d
       0.08674373 0.0777049 -0.017950851 0.09363076
000150 f1 2a 5f 3c 4c a2 23 3c a5 cc 12 3d f3 5e a5 bd
       0.013621078 0.009987425 0.035839695 -0.08074751
000160 d4 9a 7c bd 99 e1 c7 3d e7 3b 8a bd a4 46 64 3d
       -0.061671093 0.09759826 -0.06749707 0.05573143
000170 f3 53 7f 3d c2 7d ab bd 51 ac 41 bc 80 a6 90 ba
       0.06233592 -0.08373596 -0.011820869 -0.0011035949
000180 bb b6 9c 3d 97 37 e7 bc a0 c9 be 3d 35 40 b1 bd
       0.076520406 -0.02822475 0.09315801 -0.08654825
000190 e6 7d 30 3d 68 ab 66 3d 76 31 18 bd 50 ef 0a bd
       0.043088816 0.05631581 -0.037156545 -0.033919632
0001a0 89 8b 86 bd c2 2a e0 3c 5b 93 0d 3d 55 7e 14 bd
       -0.06569583 0.027364139 0.034564357 -0.036253292
0001b0 59 d3 aa 3d 62 77 81 bc b4 a7 83 bc 9d fa a4 3d
       0.083410926 -0.015803996 -0.016071178 0.08055613
0001c0 65 0b 94 3c 1f 27 62 3d 27 04 79 3d 75 44 8a bd
       0.01807184 0.05521309 0.060794976 -0.067513384
0001d0 3b 3c ab ba ca 8d ba 3d 42 9e 82 bd e9 52 5d 3c
       -0.0013064215 0.09109075 -0.063778415 0.013508537
0001e0 42 e9 9c 3d e5 95 3a 3c 3f 75 bd bc 8c c5 18 3d
       0.07661678 0.011388277 -0.023127196 0.03729777
0001f0 fb b8 ae bd 74 8c ad 3d 51 f0 a5 3d 68 9c ec bc
       -0.08531376 0.08474055 0.08102477 -0.028883174
000200 ee d4 18 bd a1 46 a5 bc 4c 2c d2 3d 67 2b 22 bd
       -0.03731244 -0.02017528 0.10262355 -0.039592173
000210 ef 02 fd 3c 82 8b c8 bd 0d 66 ff 3c 27 fa 7f 3d
       0.030885188 -0.09792234 0.031176591 0.062494423
000220 bc be 08 3d 2d 99 a0 bb a7 a5 f6 3b c5 ec b6 3d
       0.033385023 -0.0049010725 0.0075270715 0.08931879
000230 e7 98 37 3d 64 3e c3 bc 56 aa a9 bd 40 f3 99 3d
       0.044823553 -0.023833461 -0.08284442 0.075170994
000240 bf 49 1d bd 53 b3 83 3d 3e d0 a9 bc ad 60 e0 3a
       -0.038400408 0.06430688 -0.02072918 0.0017118655
000250 63 96 a6 bd 0b f2 20 bd 3e 6e 0b 3c 3e 23 cc bd
       -0.08134153 -0.03929333 0.0085101705 -0.099676594
000260 69 e1 ad bc de 79 75 3d 32 77 94 3d 1b 98 9b 3d
       -0.021225648 0.059930675 0.07249297 0.07597371
000270 71 d6 00 bd c4 05 05 3c 89 81 a9 bd 33 d8 5a 3d
       -0.031454507 0.00811905 -0.0827666 0.05342884
000280 17 9a 95 3c 32 cf b0 3d 11 72 83 bc 13 06 ca 3d
       0.018261952 0.08633269 -0.016045602 0.0986444
000290 63 4e 51 3d 42 45 b4 3d 2d f4 db bb 9a bd a5 bd
       0.051100146 0.088022724 -0.0067124576 -0.08092804
0002a0 24 a9 a5 bd d4 2b c7 bd 2e 71 8c 3c d6 58 a3 bd
       -0.08088902 -0.097251564 0.017143812 -0.079759285
0002b0 f3 00 0a bd 0d ad 56 3d 11 08 c0 3d be e9 d3 bc
       -0.03369231 0.052411128 0.093765385 -0.025868293
0002c0 b6 3f 92 3d 8f 0d 00 bc 05 16 a9 bc 66 fc 47 bc
       0.07141058 -0.007815733 -0.020640383 -0.012206173
0002d0 b9 8f 3f bd ee 41 e7 3c a6 5c 12 ba 6b d7 4d bd
       -0.046767924 0.02822968 -0.00055832637 -0.050254267
0002e0 9b 5b 86 3d d2 bb 3c bd a3 10 8f bd 96 a8 12 3d
       0.06560441 -0.046077557 -0.06985595 0.035805307
0002f0 43 8a cf bb b1 90 68 bd 15 70 ac bd 2a 27 fd bc
       -0.0063336208 -0.056778613 -0.084198155 -0.030902464
000300 55 bc a1 bd a2 c7 65 3d 93 7d 52 bc aa 98 59 3d
       -0.078972496 0.056098588 -0.012847322 0.053124107
000310 e7 a4 4d 3d 2d 1d 08 3c d8 17 82 bc 0e e3 59 bd
       0.05020609 0.008307737 -0.01588051 -0.05319505
000320 ba 38 be 3c cd ad b7 bd ab dd 4d bd e7 73 a8 3d
       0.023220409 -0.08968697 -0.050260227 0.082252316
000330 22 00 a4 bc 81 68 aa 3d ff 2c 7a 3d 49 1e b2 bc
       -0.020019595 0.08320714 0.061078068 -0.021742957
000340 8c 05 aa bd 33 a4 a9 3d e1 5b 0e 3c 09 a0 c7 3d
       -0.08301839 0.08283272 0.008688898 0.09747321
000350 27 0b bf bd 8c 1e ae 3c 7e ff b5 bd f1 2b 4d bc
       -0.09328299 0.0212548 -0.08886622 -0.0125226835
000360 6e 26 b9 bd de 42 c0 bd 60 7f aa 3b 7a 40 d0 3d
       -0.09040533 -0.09387754 0.0052031726 0.10168548
000370 ec 7b 01 3c cb 8f 1c bc a4 e6 c4 3d 2f b0 1a 3c
       0.00790308 -0.009555767 0.09614304 0.0094414195
000380 91 e4 6b bd 59 52 86 3d fc b9 96 3d 5f 29 b7 3d
       -0.057591025 0.06558675 0.073596925 0.08943438
000390 89 1e a6 3d 4a 5b c4 3d d2 af 1c bd 31 fc 72 3c
       0.08111293 0.095877245 -0.038253613 0.014830635
0003a0 1e 29 1a bd 82 f0 60 bc 43 01 a7 3d 40 e7 a6 bd
       -0.03763687 -0.0137292165 0.081545375 -0.08149576
0003b0 65 dd 66 3d 91 18 74 bd f4 45 14 3a 52 33 49 bc
       0.056363482 -0.05959374 0.0005656176 -0.012280302
0003c0 d3 4a 3e bd cb 1a 10 3c 7a 01 56 bd 38 53 bf 3d
       -0.046458077 0.00879545 -0.052247502 0.093420446
0003d0 85 f0 18 bd 61 b3 85 3d 56 43 c9 bc cb 4f a6 bd
       -0.037338752 0.065283544 -0.024568241 -0.08120688
0003e0 51 fa a3 3d fa 4e e9 bc 0a 04 2f bd f3 60 fd 3b
       0.080067284 -0.028480042 -0.04272846 0.0077325045
0003f0 2b bc 89 ba 24 6d ee 3c 80 01 cd bc 14 c8 f3 bc
       -0.0010508349 0.029104777 -0.02502513 -0.02975849

graph_attention.qkv_proj_low.weight f4 [24, 16]
000000 81 ad 47 3e 55 b1 3a ba 14 ba 22 bd 0f ab e8 bd
       0.1949978 -0.00071217614 -0.03972824 -0.11360752
000010 dd a7 53 bd d7 00 d6 3d fd cd a7 3b 0b ec 48 3e
       -0.05167376 0.10449379 0.0051209913 0.19621293
000020 c4 1e 06 bd de 30 0d bd f8 e5 04 3e a2 70 72 ba
       -0.032744184 -0.03447043 0.12978351 -0.0009248351
000030 e7 17 0a bd 95 2f e0 3d 11 2e 56 3e 77 41 68 3d
       -0.0337142 0.109465756 0.2091601 0.056703057
000040 76 32 2f 3e 1d d9 2e 3e 4a 7d a6 3d 86 be 8d 3d
       0.17109093 0.1707501 0.08129366 0.06921105
000050 1a cd ab 3d 91 ae b2 3b cb b1 5f 3e a2 cd 5f 3e
       0.083887294 0.005452939 0.21845166 0.21855786
000060 27 ec 8e 3d c6 d3 31 bc 6e be 51 3e 50 f0 3d be
       0.06978636 -0.010853713 0.204828 -0.18548703
000070 48 68 2b 3e b9 5b 0f 3e c6 d9 2f 3e 0b 62 e0 bc
       0.16738999 0.13999833 0.17172918 -0.0273905
000080 73 2e 3f be ff 54 4f 3e 73 06 d9 bd 6a 0b 73 3d
       -0.18670063 0.20247267 -0.10596933 0.059337057
000090 a5 73 03 3e 0e 2d 7d be 40 93 cf 3c e0 e9 dc bd
       0.12837084 -0.24724218 0.025338769 -0.107867956
0000a0 26 c1 24 3e f5 ad 1b be 9c a1 f0 3d 3c 8f f0 3d
       0.16089305 -0.15203078 0.117495745 0.1174607
0000b0 0e 1e e4 3d 05 d0 7b 3e f8 4b 58 3d 3e dc 79 be
       0.11138545 0.24591072 0.052806824 -0.24400422
0000c0 70 40 2e 3e 6a fd e3 3c 3a 26 9f bb 4b bf 7c be
       0.17016768 0.027830798 -0.004856852 -0.24682347
0000d0 96 30 68 bd 45 a4 ef bd 54 99 70 3e 75 27 33 3e
       -0.05668696 -0.11701254 0.2349599 0.1749552
0000e0 65 4a 3c 3e 1b 98 34 3e 10 1b 29 be f1 db f6 bd
       0.18387754 0.17636149 -0.1651423 -0.12053669
0000f0 57 ee e9 bd 9d 04 ee bd 99 f9 49 3e 0e 3e a5 3d
       -0.11422413 -0.11621974 0.1972412 0.080684766
000100 07 2f 3a 3e cd d1 cd bb ca e9 66 be 78 1f 86 bd
       0.18182002 -0.0062811137 -0.22550121 -0.06548971
000110 22 26 39 3e 6a 4f 15 3e 51 2e a4 3d 57 ec a2 bd
       0.18080953 0.14581075 0.08016647 -0.079552345
000120 49 b8 65 be 46 7d 06 be 87 c6 ed 3d 72 b5 11 be
       -0.2243358 -0.13133726 0.11610132 -0.14229372
000130 58 1a 09 3e 21 38 ab 3d 31 be a7 bd 05 f0 12 3e
       0.13388956 0.08360315 -0.08190573 0.14349373
000140 10 10 8f bd 26 8a 3b bc 53 02 cc bd ed ba 6d be
       -0.069854856 -0.011446511 -0.09961381 -0.23215838
000150 65 b6 22 3d 03 64 a5 3d 66 dc 0b be 14 b7 2b 3e
       0.039724726 0.08075716 -0.13658294 0.16769058
000160 cb 46 5d be 1a bf 77 be e4 b3 0e be 71 7b 98 bd
       -0.21609037 -0.24193993 -0.1393581 -0.074454196
000170 1b 08 47 bd fa 11 97 bd d0 86 c2 3d 89 e8 59 be
       -0.048591714 -0.07376476 0.0949837 -0.21280111
000180 af 36 62 3d f2 f3 81 3b a5 e0 8f 3d 9b 11 70 3e
       0.05522793 0.003965848 0.070252694 0.23444216
000190 7d 1c 19 3e 7d dc 03 be c0 47 51 be 77 b6 4d bd
       0.14952274 -0.12877078 -0.20437527 -0.05022284
0001a0 88 9a 03 be f1 27 b5 3d 97 21 e5 3b e5 f7 5e 3e
       -0.12851918 0.08845509 0.0069925296 0.21774252
0001b0 33 4f a1 3d 9c ce 89 bd c3 53 cf 39 22 7b 85 3d
       0.07876434 -0.06728861 0.00039544524 0.06517626
0001c0 dc 63 4a bc e8 d4 47 3e ce ed 4a be 23 b5 ec 3d
       -0.01235291 0.19514811 -0.19817278 0.115579866
0001d0 54 8c 20 be 22 76 59 be 29 12 63 bd f7 09 0f 3e
       -0.15678531 -0.2123647 -0.05543724 0.13968645
0001e0 5e ac 4a 3e 3c 2d 83 3d fb f9 c1 bc b6 3a 67 bd
       0.19792315 0.06405112 -0.02367877 -0.056452475
0001f0 70 fa dd bd 63 44 2a bd 05 f3 d7 bc 23 a5 51 3e
       -0.10838783 -0.041569125 -0.026360998 0.20473151
000200 ab 13 10 3e 29 48 47 be 3d 02 d6 bb 6d 3b 19 be
       0.14070003 -0.1946112 -0.0065310285 -0.14964075
000210 09 6b 49 bd d8 ce 4a be 64 a1 79 3d 9d e1 3e be
       -0.049174342 -0.19805467 0.06094493 -0.18640752
000220 cb 8e 80 3e 89 b8 41 3e ba f7 32 be a0 09 8a be
       0.25108942 0.18918051 -0.17477313 -0.26960468
000230 70 82 8d 3c eb 75 a0 bd 65 b1 9f 3d 06 fa 36 be
       0.017274112 -0.07834991 0.07797507 -0.17868814
000240 03 ec ce 3d c1 2a 63 be 1d c1 fb bd 46 f6 07 be
       0.101036094 -0.22184278 -0.12292693 -0.1327754
000250 40 49 ef 3d 62 82 49 bc 68 25 6e be 96 56 15 be
       0.11683893 -0.012299152 -0.23256457 -0.14583811
000260 b1 44 02 be 7a 64 79 be 7c 8e 0d 3d 6a 4e d7 3d
       -0.12721516 -0.24354735 0.03455971 0.10513003
000270 2b e3 0a bd ec e6 9a bd d6 ed 81 bb 28 f4 44 be
       -0.03390805 -0.07563576 -0.00396512 -0.19233763
000280 f1 6c 1c be a7 0c 60 bc 08 08 6e 3e 70 c4 71 bd
       -0.15275933 -0.013674892 0.23245251 -0.059025228
000290 88 f0 f6 3d f1 a5 d8 bd 58 5a 8a bd 3e a7 70 be
       0.120575964 -0.10578526 -0.06755513 -0.23501298
0002a0 5c 16 55 3e ce ba 68 3e 98 0c f2 3b 2b 53 3a 3e
       0.2080931 0.2272751 0.007386755 0.18195789
0002b0 68 53 68 3e ba e9 1d 3e e2 44 06 3e c2 8b 70 be
       0.22688067 0.15421191 0.13112214 -0.23490813
0002c0 66 b9 71 be 35 5a 49 be e0 26 8f 3d 77 c9 66 be
       -0.2360588 -0.19663318 0.06989837 -0.2253779
0002d0 ea d1 33 be 65 23 f4 bd 69 ba 6e be 60 98 09 3c
       -0.17560545 -0.119208135 -0.23313297 0.008398145
0002e0 1d 79 1e 3d 57 ad 11 be 07 8c 2e 3e 58 c1 b4 bd
       0.03868972 -0.1422628 0.17045604 -0.0882594
0002f0 9a fa 8f bd 0d d4 2c 3e 96 e2 3d 3e 73 88 d1 bc
       -0.0703022 0.16877766 0.18543467 -0.02557776
000300 28 db 35 be ac e3 f6 bd 5d 78 32 3d c6 1f 10 3e
       -0.17759383 -0.12055144 0.04357182 0.1407462
000310 44 c6 ed 3d 07 a5 f8 bd 4b 6e 6c be b6 d9 61 be
       0.11610082 -0.121408515 -0.23088948 -0.22055706
000320 d7 04 b0 bd 84 0c 62 3b 34 cb f7 bd 29 81 5b be
       -0.08594673 0.0034492323 -0.12099305 -0.2143599
000330 ee 23 7d 3c b5 b2 37 be dc 2f 2d be a1 c5 56 be
       0.015450461 -0.17939265 -0.16912788 -0.20973827
000340 6e ee 82 bd 8d 1c 65 3e 05 92 d0 3d bd ae 16 bd
       -0.06393133 0.22374173 0.10184101 -0.036787737
000350 e3 05 6b 3d a5 f0 a5 3d 18 77 f3 3b b9 48 50 be
       0.05737866 0.0810254 0.0074299686 -0.20340241
000360 a7 b1 1f be a9 35 2a be 33 2c 64 bb d2 67 71 be
       -0.15595113 -0.16622032 -0.0034816384 -0.2357476
000370 1c b9 13 bd 87 f6 a0 bd c0 57 7b 3e 77 ac 46 3e
       -0.036065206 -0.07859521 0.24545193 0.19401728
000380 ca 49 15 3e d3 af dc 3c ab d3 b0 bd 5a a0 58 3d
       0.1457893 0.026939308 -0.086341225 0.0528873
000390 61 2a 2d be 93 4f ee bd 24 a8 5e bd 36 df 68 bd
       -0.16910698 -0.11636271 -0.05435957 -0.056853496
0003a0 d5 19 6c be 53 5b e5 3d 21 3e 4b 3e 33 59 29 be
       -0.23056729 0.11199059 0.19847919 -0.16537933
0003b0 1b db 60 3d f6 50 50 bd 43 f7 24 bb 0d 31 96 3a
       0.054896455 -0.05085846 -0.0025171794 0.001145871
0003c0 8c 0c 63 3e f7 5e 0b 3d 55 c1 30 be 55 8f 98 bd
       0.22172755 0.034026112 -0.1726125 -0.074492134
0003d0 ab 1c f6 3d 83 36 f0 3d b1 ce 43 3b ca 77 07 bd
       0.12017187 0.11729147 0.0029877836 -0.033073224
0003e0 81 6c af bd 3a 68 a9 bd 86 6c 03 be e8 64 5e 3c
       -0.08565617 -0.08271833 -0.12834367 0.013573863
0003f0 bd ef ae 3d 07 76 3b 3e 7f 3e 8d bd 06 a4 a4 3c
       0.0854182 0.18306743 -0.06896686 0.020097744

graph_attention.qkv_proj_low.bias f4 [24]
000000 f3 af a5 bd 5a 25 3c be 07 cd 04 be 02 d8 fd 3d
       -0.080902 -0.18373623 -0.12968837 0.12394716
000010 b0 ff 30 3e 12 0e 0e 3d fd 60 bb bd 82 08 86 3e
       0.17285037 0.034681387 -0.091493584 0.26178366
000020 37 6d 29 3d ce 0e f2 bd f4 41 e1 bd 61 f8 0c bd
       0.04136392 -0.1181923 -0.10998908 -0.03441656
000030 97 fd f0 3d d9 31 c0 3d fe ca 54 3e 6f 82 76 3b
       0.117671184 0.09384508 0.2078056 0.0037614366
000040 14 cc 69 3e a8 66 b8 bd 2e 3c de bd c2 d5 b8 bd
       0.22831756 -0.09003955 -0.10851322 -0.09025146
000050 8d 1c 80 be 9f da 21 be 36 08 7a be 69 89 26 3c
       -0.25021783 -0.15806054 -0.24417195 0.010164597

graph_attention.qkv_proj_high.weight f4 [48, 24]
000000 3e 28 55 3a 50 ae 67 bd 0b 7c 16 be 51 15 40 3e
       0.0008131302 -0.05656272 -0.14695756 0.18758132
000010 c2 ef 93 bd db 4c d4 3d d5 d2 0b 3e c5 bb 00 be
       -0.072234645 0.103662215 0.13654645 -0.12571628
000020 c7 64 3a bd 6b 14 ea 3d 29 41 42 3e 08 1e ff bc
       -0.045506265 0.11429676 0.18970169 -0.03114225
000030 97 e2 19 3e 6d 66 11 be e3 39 03 be 15 f7 21 3e
       0.15027843 -0.14199229 -0.12815051 0.1581691
000040 44 99 cb bc f8 28 4d 3e ab 6c 5a 3c 7a f8 b2 bd
       -0.024853356 0.2003516 0.0133315725 -0.087387994
000050 18 20 3b 3e 72 bc 3d 3e 21 e9 6d 3c 1d 72 05 be
       0.18273962 0.18528917 0.014520914 -0.13031812
000060 31 e7 b6 bb 4d 7f d0 bd bd 10 0c 3e a8 9d cc 3b
       -0.0055817594 -0.10180531 0.1367826 0.00624438
000070 a7 cc 1d 3d c8 6b 08 3e 33 d2 83 3d 88 61 fd bd
       0.03852525 0.13322365 0.06436577 -0.12372118
000080 36 52 1b 3e 37 35 03 3e 63 b3 0c be 8b 14 1d 3e
       0.1516808 0.12813269 -0.13740306 0.15339868
000090 ba e5 82 3d da 39 ef bc 60 95 17 be ac ad 40 bd
       0.06391473 -0.02920239 -0.14803076 -0.047040626
0000a0 72 72 55 be 69 da e9 3d 16 e8 17 3e cf 47 70 bd
       -0.20844439 0.114186116 0.14834628 -0.058662232
0000b0 fa ee 3b 3e b9 2b 91 bd bd b4 08 3d 2c 78 10 be
       0.18352881 -0.070884176 0.03337549 -0.14108342
0000c0 0e f3 12 bc 94 79 af 3d b7 3a aa 3d 0d f6 d0 3b
       -0.008969082 0.08568111 0.0831198 0.006376988
0000d0 0b 37 d4 bd a2 f5 11 3e 58 5b 09 3e 87 08 47 3d
       -0.10362061 0.14253858 0.13413751 0.048592117
0000e0 49 4e e4 bd f3 44 0f 3d ef 34 8e bb 13 1d 34 3e
       -0.11147744 0.034977864 -0.0043398063 0.17589216
0000f0 1d 77 cb 3c 53 50 09 3d f1 b0 d0 3c d9 5f d4 3d
       0.024837071 0.03352387 0.025474997 0.10369844
000100 fd 8f c2 3a 93 67 2b 3e 50 58 ce 3d ca 0b 25 be
       0.0014843937 0.16738729 0.10075438 -0.16117778
000110 35 c0 9e bc 6e 8f 30 be e2 7f 22 be 1d 3b f5 3c
       -0.01937876 -0.17242214 -0.15869096 0.029935414
000120 10 43 46 3d 93 09 c7 bc f3 b2 39 3e 65 73 b9 bd
       0.0484038 -0.024296558 0.1813467 -0.09055213
000130 fd 2c c2 bd 6a 99 08 bd 92 e8 14 bc 0e 77 1d 3b
       -0.09481237 -0.033349432 -0.009088652 0.002402726
000140 62 f1 2c 3e 64 30 c1 bd 45 1d f6 bd f0 dd fc 3b
       0.16888955 -0.09433058 -0.120173015 0.0077168867
000150 fe a9 12 3e d5 f3 8a 3d 61 6a 01 3e 94 ba fd 3c
       0.1432266 0.067847885 0.12638237 0.030972756
000160 aa c9 39 3e 53 31 f1 3d 44 dc 1f 3e 8a ab e5 bc
       0.18143335 0.11776986 0.15611368 -0.028035898
000170 ef d1 3b be 13 32 c2 bd 8c 8d 7b 3d b3 48 0f 3e
       -0.18341802 -0.09482207 0.061414286 0.13992576
000180 03 9a c9 bd d0 d2 29 3e 01 0d 3a 3d 20 57 6d 3c
       -0.098438285 0.16584325 0.045422558 0.014486104
000190 50 b1 35 bb 6c 29 4d bd ab ae 34 3e fa fc fc 3c
       -0.0027724095 -0.05008833 0.17644756 0.030882347
0001a0 47 38 1b 3e ad 84 3d be 6d 55 be bd 9b 2a 23 3c
       0.15158187 -0.18507643 -0.092936374 0.009958888
0001b0 d1 a5 24 3e c3 ed d4 3d d0 3e 48 3d ac f3 42 be
       0.16078879 0.10396912 0.048888028 -0.19038266
0001c0 9b 79 8a 3c 5c b8 e9 bd fa 7d 23 be 32 bd aa 3c
       0.01690369 -0.11412117 -0.15966025 0.020842168
0001d0 31 3d 13 be 8d 8a 36 3e f8 23 df bd a5 77 94 3d
       -0.14378811 0.1782629 -0.10895532 0.07249383
0001e0 0d b4 d9 3d 16 9f 28 be f7 0e f7 3d 4e c6 a8 bc
       0.10630045 -0.16466936 0.12063401 -0.020602372
0001f0 d1 71 c2 3d 59 11 41 3e bc 2e c0 bd 4d 0b 9d bd
       0.09494365 0.18854274 -0.09383914 -0.07668171
000200 97 62 35 3e 55 a4 59 3c 3e c9 1c bc cf 93 18 3e
       0.1771339 0.013283809 -0.009569464 0.14900135
000210 a2 d9 c2 bd 76 2b 71 bb 52 30 15 3e 1c 17 b2 3d
       -0.095141664 -0.0036799586 0.14569214 0.08695814
000220 f9 7e fd bd 52 fb 9c 3d 30 c2 10 be 98 75 e9 bd
       -0.12377734 0.07665123 -0.14136577 -0.11399382
000230 13 19 fc 3d a5 16 65 bd 9e b1 d7 bd 7d d6 9b 3c
       0.1230947 -0.0559298 -0.10531925 0.019023174
000240 08 72 0f 3d ad 45 06 be 5b 83 f8 bd 58 bf 41 be
       0.035020858 -0.13112517 -0.12134429 -0.18920648
000250 7d c4 31 3d 2c e2 11 be 5a 25 d1 3b 74 28 fc bc
       0.043400276 -0.14246434 0.0063826265 -0.030781008
000260 a8 7a e1 bd 0a b6 98 bd ad 41 14 be 3f 33 ee bd
       -0.11009723 -0.07456596 -0.14478178 -0.11630868
000270 f9 cd 75 bb 1a 9c 2c be e3 aa 31 be 56 3c 25 3e
       -0.0037506802 -0.16856423 -0.17350344 0.16136298
000280 bd ac ea 3c 8b a6 93 bd 7a ff 06 3c 76 cc 15 3e
       0.028646821 -0.072095 0.008239621 0.14628777
000290 19 56 39 be 00 f5 e6 bd d7 90 14 be f4 d4 38 bc
       -0.1809925 -0.11277199 -0.14508377 -0.011281241
0002a0 a5 4e b5 bc 94 56 24 be b2 b9 21 3e c3 6f 15 be
       -0.022132227 -0.16048652 0.15793493 -0.14593415
0002b0 82 c5 36 3e 03 e0 1b be 09 23 22 bd 29 a9 5e 3d
       0.17848781 -0.15222172 -0.039584193 0.054360542
0002c0 94 dd 90 bd 8e 5a 34 3e 3d ef 02 be b5 33 aa bc
       -0.07073513 0.17612669 -0.12786575 -0.020776609
0002d0 a9 41 1a be b9 71 85 3d 92 35 39 3e eb d3 49 3e
       -0.1506411 0.065158315 0.18086842 0.19709747
0002e0 de 39 10 3d 96 1e ac bd 63 ee 55 3e 01 06 1f 3c
       0.035211436 -0.08404271 0.20891719 0.009706021
0002f0 ab d6 fe 3d 67 19 df bd df 8f c4 bd fd 35 2a be
       0.124432884 -0.10893517 -0.09597754 -0.16622157
000300 25 70 40 3e 91 5b 10 3d f1 04 11 be dd b2 c7 3c
       0.1879278 0.035243575 -0.14162041 0.02437728
000310 56 c5 b0 bd 65 5c 1e bc 4c 6e 9a 3d 84 bb b3 bd
       -0.08631389 -0.009665583 0.07540569 -0.08776
000320 6e 60 37 3d 5d cd 07 be 30 75 6e 3d 76 49 4e be
       0.044769697 -0.13261934 0.058217227 -0.2014521
000330 c3 69 f3 3c 7c 3d 4c 3e 62 79 67 3e 61 34 b0 3d
       0.029713517 0.1994533 0.22604898 0.086037405
000340 ff 9d 2b 3e 98 08 49 3e 86 3c 77 3d e3 f3 7a 3d
       0.1675949 0.19632185 0.060360454 0.061267745
000350 74 40 b7 3c 90 90 34 3e a2 22 34 3e da 99 c3 bd
       0.0223696 0.17633271 0.17591336 -0.09550829
000360 cf 96 f8 bb 31 1b cb bd 14 15 a1 3d 58 bd 40 be
       -0.007586337 -0.09917296 0.078653485 -0.18822229
000370 0d ad 9c 3d 66 82 a1 bd 1b 95 a9 3d 3d ae a9 3d
       0.07650194 -0.078862 0.08280393 0.082851864
000380 6a ef bc bd d3 fc cc 3d 2e af e2 3d c0 ca 39 be
       -0.09225352 0.1000916 0.11068569 -0.18143749
000390 61 48 4c 3e 8c 8e 30 3e c8 93 2a 3e 2f 1f b2 bb
       0.19949485 0.17241877 0.16657937 -0.0054358463
0003a0 4b 88 bf 3d 00 d1 eb bd d0 a4 8b bd 34 77 ac 3d
       0.09352168 -0.11514473 -0.06818545 0.08421174
0003b0 fa d3 a9 3d 30 c0 96 3d 06 6e 43 be 0e fa 2b 3e
       0.082923844 0.073608756 -0.1908494 0.16794607
0003c0 00 2b a9 bd 2c b5 3b 3e d6 fa 31 3e be 80 b3 3d
       -0.08260155 0.1833083 0.17380843 0.0876479
0003d0 96 a1 59 3e 56 c5 bc 3d 2a 53 01 3e 0f a6 47 bd
       0.21253046 0.09217326 0.12629381 -0.04874235
0003e0 1c 15 49 3e bc a0 37 3d f2 56 15 3e 3e 8e 6e bd
       0.19636959 0.044831023 0.14583948 -0.05824112
0003f0 b6 7f 10 3e d1 6f 37 3e fa f8 ee bd 7f 76 3d 3e
       0.14111218 0.17913748 -0.11668582 0.18502234

graph_attention.qkv_proj_high.bias f4 [48]
000000 a3 d1 1e 3e 56 f1 04 be 2b 63 25 be c4 05 ea bc
       0.15509658 -0.12982687 -0.16151111 -0.028567202
000010 bc 8b 29 be 1a 88 1c 3d be b3 01 3b 8b 5c 95 bd
       -0.1655721 0.038215734 0.0019790973 -0.07293042
000020 f5 f7 02 3e 4c fd 09 3e fd f6 32 be 67 22 23 be
       0.127899 0.13475531 -0.17477031 -0.15931092
000030 cd 61 da 3d 6b 01 12 be 24 ec 9b 3c c9 f0 98 bd
       0.10663185 -0.14258353 0.019033499 -0.07467801
000040 c4 7f 0d 3d 58 6e f6 bd 36 f0 00 bc 87 aa 8c bd
       0.034545675 -0.12032765 -0.007869771 -0.06868463
000050 eb 12 a5 bd 90 a4 f3 bd 11 25 c3 3c 34 27 db 3d
       -0.08060249 -0.11896622 0.023821386 0.10700837
000060 0f 0b e9 bb 1c 1d 05 bc 27 ed 13 3e b8 f9 e2 3d
       -0.007111914 -0.008124616 0.14445935 0.11082786
000070 e3 31 41 bd d5 8d 26 be 55 c1 35 3d e5 44 86 3d
       -0.047166716 -0.16265042 0.04437383 0.06556109
000080 c7 28 45 be 32 99 52 be 6a e3 76 3d a2 2e 65 3e
       -0.19253837 -0.20566252 0.060275473 0.2238107
000090 94 b4 51 be 27 b2 0d be 64 e5 a1 bd c7 7e 39 be
       -0.20479041 -0.13837491 -0.07905081 -0.18114768
0000a0 d2 a9 f1 bd dc f9 1d 3e fa e2 1e 3e 39 30 18 be
       -0.11799969 0.15427345 0.15516272 -0.14862145
0000b0 e4 a6 8a ba 04 a8 3c be fc cc 43 3d e1 c5 1d be
       -0.0010578302 -0.18423468 0.04780291 -0.15407516

graph_attention.out_proj_low.weight f4 [8, 16]
000000 b9 d4 f4 bd c5 9c a8 bd 8e 50 e5 3c 10 f5 30 3e
       -0.11954636 -0.082330264 0.027992513 0.17280984
000010 de 41 dc bd 7c 0e 31 3d c4 07 57 3e 79 3a 0d bc
       -0.10754751 0.043226704 0.20999056 -0.008619898
000020 fb ba 33 3d c4 d9 0f 3c 97 98 0d 3c c3 29 1e 3e
       0.04387949 0.008779947 0.008642337 0.15445618
000030 9c c3 ff 3d dd c5 04 be 1e c7 7e 3e 13 b4 0f 3e
       0.124884814 -0.12966104 0.24880645 0.14033537
000040 a5 17 30 bd 42 c6 5e 3e ff 9a de 3c ac 29 24 3e
       -0.0429913 0.21755317 0.027173517 0.16031522
000050 8a bf 53 be ad 9b 5f 3e a1 54 72 3e d7 95 35 be
       -0.20678535 0.2183673 0.23665096 -0.1773294
000060 b2 f7 6e be e1 63 81 bd 86 d3 1f be cd 45 ae 3d
       -0.23336676 -0.063178785 -0.15608034 0.08509407
000070 64 f1 c0 3d 03 ce fb bc 71 7c 2e 3e c3 b8 b7 3b
       0.094210416 -0.030737882 0.17039658 0.005606742
000080 08 d9 a0 bd 37 53 64 be 38 c1 cc 3d 4f 6a 73 be
       -0.078538954 -0.22297369 0.09997791 -0.23771022
000090 c4 cf 74 3c fc c1 4e 3d 03 c2 12 be e5 7e a5 3d
       0.014942113 0.050477967 -0.14331822 0.08080844
0000a0 cb 7c ed 3c 0a f0 31 3e 45 46 12 3e 77 85 3f be
       0.02899017 0.17376724 0.14284618 -0.18703257
0000b0 88 38 3e be 18 63 b1 bd 29 0c 43 be ea b5 84 3d
       -0.18576252 -0.08661479 -0.19047607 0.0648001
0000c0 45 9e 32 be 0a 4f 51 be fa a6 42 3d 23 f6 1e 3e
       -0.17443188 -0.20440307 0.047522523 0.15523581
0000d0 b7 75 ce bd 9a fa 83 be 76 1d 46 3d a0 91 d1 3d
       -0.10081046 -0.2577713 0.04836794 0.10232854
0000e0 ac f9 52 3e 11 fa 1a 3c b0 9b 3b 3e 4c 94 71 be
       0.20603055 0.009459035 0.18321109 -0.23591727
0000f0 99 f6 77 3e c9 93 28 be 00 e3 14 be c3 f1 43 3e
       0.24215163 -0.16462626 -0.14539719 0.19135194
000100 22 a2 2a bd e0 51 2c 3e b9 c0 24 be bf af 3e 3e
       -0.04165853 0.16828108 -0.16089143 0.1862173
000110 9c 01 83 3e 3f ee a2 3d cd bf 43 3e 4f 8a 22 be
       0.25587165 0.07955598 0.19116135 -0.15873073
000120 0d 46 6e bd 0a 30 a0 3d a7 4b 0f 3e 34 75 f2 bd
       -0.058172274 0.07821663 0.13993703 -0.11838761
000130 57 08 14 3e 76 65 a2 bd 09 6c 0c be 7d d1 24 3d
       0.14456306 -0.079295084 -0.13713087 0.040238846
000140 20 d8 67 be 3c 63 7d be 90 a5 a1 3d bd 18 a5 3d
       -0.22641039 -0.24744886 0.07892907 0.08061359
000150 b1 f3 b3 3d 49 8f c0 bc 09 06 3f be c5 7c 67 be
       0.08786715 -0.023505824 -0.18654646 -0.2260619
000160 c7 75 71 3e a3 e7 5d be 9f e0 87 3d 75 5b 43 3e
       0.23580085 -0.21670394 0.0663464 0.19077857
000170 8d c8 52 3e 89 4b 1d be cc 0b 8e bd 7e d5 40 be
       0.20584317 -0.15360846 -0.06935844 -0.18831441
000180 5b 40 2e 3e b9 80 5d be b0 c3 68 be 01 eb 29 be
       0.17016737 -0.21631135 -0.22730899 -0.16593553
000190 06 13 46 3e 84 14 0d 3e 25 28 32 3e 22 18 42 3e
       0.19343194 0.13777357 0.17398126 0.18954518
0001a0 41 0d d0 bd e2 73 13 be 2e b1 16 be 52 63 ab 3d
       -0.10158778 -0.14399675 -0.14716026 0.08368553
0001b0 f8 9b b2 3d 89 ce 83 3d 07 3b 35 be c4 2a f6 3c
       0.08721155 0.06435878 -0.17698298 0.03004969
0001c0 66 2a ef bd eb d4 d2 bc 93 89 91 bc cf 7f 85 3c
       -0.11678009 -0.025736293 -0.017765796 0.016296295
0001d0 86 26 57 be 42 9f 4d 3e b0 fd e7 bd f0 3f ae 3d
       -0.2101079 0.20080283 -0.11327684 0.08508289
0001e0 eb aa 27 3e ca 4c da 3d df 75 39 3e 16 5e 29 3e
       0.16373794 0.106591776 0.1811137 0.16539797
0001f0 ae f7 25 3e fc 24 53 3d c4 e2 1a 3e 5c 6f f7 bd
       0.16207764 0.051548943 0.15125567 -0.12081787

graph_attention.out_proj_low.bias f4 [8]
000000 23 79 23 be 21 4b e6 3d a8 a1 7b 3d 30 7e af 3c
       -0.15964179 0.112447985 0.061433464 0.021422476
000010 c2 4d 68 be c4 b6 ea 3d f7 a4 04 3e e1 4e 79 bd
       -0.22685912 0.11460641 0.12953554 -0.06086624
