optim_results/models/trial_14_best.pt (torch, 332455 bytes, 70 tensors)

temp_conv.depthwise.weight f4 [1, 1, 3]
0	0x3edb6762	0.42852312
1	0x3ef4edb6	0.4783761
2	0xbe1f519e	-0.15558478

temp_conv.pointwise.weight f4 [12, 1, 1]
0	0xbe241ac7	-0.1602584
1	0x3e29afaf	0.16570924
2	0xbecbd9ff	-0.39814755
3	0x3efed9bd	0.49775496
4	0x3f4a3ff0	0.7900381
5	0xbf2490e4	-0.64283586
6	0x3f4721b2	0.7778579
7	0x3e1d3867	0.15353547
8	0x3f25db8f	0.64788145
9	0x3df761d6	0.120792076
10	0x3ec92fc8	0.39294267
11	0xbe0b9e0a	-0.13634506

temp_conv.pointwise.bias f4 [12]
0	0x3f2e0d41	0.67988974
1	0x3d93319f	0.07187199
2	0xbec19c17	-0.378144
3	0x3e2f32b2	0.17109182
4	0xbebe85fb	-0.37211594
5	0xbd3c9eaf	-0.04604977
6	0xbea2fcc8	-0.31833482
7	0x3f12ab94	0.5729306
8	0xbf32c398	-0.698297
9	0xbebea9ba	-0.37238866
10	0xbe4a4078	-0.19751155
11	0xbf02e261	-0.51126677

temp_conv.bn2.weight f4 [12]
0	0x3f7ef6b8	0.9959521
1	0x3f7ecb37	0.9952883
2	0x3f81439b	1.0098757
3	0x3f81d5f1	1.0143415
4	0x3f7ff003	0.99975604
5	0x3f80e2bc	1.0069194
6	0x3f7f076b	0.99620694
7	0x3f7e802c	0.99414325
8	0x3f7eec32	0.99579155
9	0x3f7e5898	0.99353933
10	0x3f7ed8c6	0.9954952
11	0x3f80cf55	1.0063273

temp_conv.bn2.bias f4 [12]
0	0xbb66e80d	-0.0035233528
1	0x399ad4c1	0.00029531683
2	0x3be9612f	0.007122181
3	0xbb5e8a9d	-0.0033957132
4	0xbc853650	-0.01626125
5	0xbb0a74f6	-0.0021126843
6	0xbc8bc9d5	-0.017064014
7	0xbb926282	-0.0044673095
8	0xbc0c6f18	-0.008571409
9	0x3a268a69	0.0006353022
10	0xbc29c56b	-0.0103620095
11	0x3ac8e967	0.0015328348

temp_conv.bn2.running_mean f4 [12]
0	0x3f2281a9	0.63479096
1	0x3dfa475e	0.122206435
2	0xbefecc14	-0.49765074
3	0x3ea3a3d0	0.31960917
4	0xbe114ae1	-0.1418872
5	0xbe723ab7	-0.2365521
6	0xbdbbaee3	-0.09164216
7	0x3f1ecc5e	0.6203059
8	0xbf02875d	-0.509878
9	0xbeada74a	-0.33916694
10	0xbdab3f30	-0.083616614
11	0xbf0dae08	-0.55343676

temp_conv.bn2.running_var f4 [12]
0	0x3c8d93a1	0.017282309
1	0x3c9672fa	0.018365372
2	0x3dd9aaa8	0.10628253
3	0x3e29ca77	0.1658114
4	0x3ed536a9	0.41643265
5	0x3e8d5506	0.2760393
6	0x3eceb54e	0.403727
7	0x3c80ed12	0.015738044
8	0x3e8f8de5	0.28037944
9	0x3c1ddd00	0.00963521
10	0x3dd40833	0.103531264
11	0x3c4a003b	0.0123291565

feature_process_low.weight f4 [8, 240]
0	0x3b7c5382	0.0038501923
1	0xbda4458e	-0.08021079
2	0x3d34e920	0.044167638
3	0xbd825124	-0.063631326
4	0x3d32d986	0.043664478
5	0x3bd1d122	0.0064031044
6	0xbcc2b122	-0.023766104
7	0x3d0b3c4e	0.033993058
8	0x3bb3c635	0.0054862746
9	0x3d3fe7f8	0.046852082
10	0xbb6e2360	-0.0036337003
11	0xbcf24358	-0.029573128
12	0x3bdf7b67	0.0068201306
13	0xbccb7aca	-0.024838824
14	0x3cb3399c	0.021878056
15	0x3d5bce07	0.05366328
16	0x3d21ebc4	0.039531484
17	0xbcd572b1	-0.026055666
18	0x3d199945	0.037499685
19	0x3bd5d14d	0.0065251947
20	0x3d09ab91	0.033610884
21	0xbcaef98d	-0.02135923
22	0xbd77c7d2	-0.060493298
23	0xbcb38a9d	-0.021916682
24	0xbd437966	-0.047723196
25	0x3d60ce6a	0.05488435
26	0x3c88b662	0.01668853
27	0x3cd75df4	0.026289918
28	0x3c6a84f7	0.014313928
29	0xbc8c113f	-0.017098067
30	0x3d0697e9	0.032859717
31	0xbd55391a	-0.05205641
32	0x3bc80206	0.006103757
33	0xbd39aa0f	-0.045328196
34	0x3c68781f	0.014188795
35	0xbd00af6d	-0.0314173
36	0x3c114d57	0.008868537
37	0xbcc1b4ef	-0.023645846
38	0x3d3c05a0	0.045903802
39	0xbd137a05	-0.03600504
40	0xbd28c812	-0.041206427
41	0xbd6a835a	-0.057254173
42	0x3d382e72	0.04496617
43	0x3c50a259	0.012734019
44	0x3d663b87	0.056209113
45	0xbd73ffde	-0.059570186
46	0xbd8d40ce	-0.06897126
47	0xbd688f15	-0.05677708
48	0xbd48ea94	-0.049051836
49	0x3c9e7a44	0.01934541
50	0x3c4dd34b	0.012562583
51	0x3d2d8dcf	0.042371567
52	0xbd3521fd	-0.044221867
53	0xbd4f9b7c	-0.05068539
54	0x3cefff2a	0.029296476
55	0xbcdcbc07	-0.026945127
56	0x3d231e65	0.03982391
57	0xbc564d43	-0.013079944
58	0x3d1ea4c2	0.038731344
59	0xbd5dba09	-0.054132495
60	0xbcfba89e	-0.030720051
61	0x3d1172e0	0.035509944
62	0x3c8584c9	0.016298668
63	0xbc5accf3	-0.013354528
64	0x3d2ce396	0.04220923
65	0x3d35d3a7	0.0443913
66	0xbd3b9f7f	-0.045806404
67	0xbd1a9eb5	-0.03774901
68	0x3d564d6a	0.05231992
69	0xbd16d72f	-0.03682631
70	0xbd259da2	-0.040433533
71	0xbd8a93b8	-0.06766456
72	0xbd0f8238	-0.035036296
73	0x3c68311c	0.014171865
74	0xbc5f81ef	-0.013641818
75	0xbd60906f	-0.054825243
76	0xbc0d1215	-0.008610268
77	0xbd57d142	-0.0526898
78	0xbd802323	-0.06256702
79	0xbd053c05	-0.032527942
80	0xbd687b33	-0.056758117
81	0xbcc525d4	-0.02406589
82	0x3d87c9b5	0.066302694
83	0x3c7694af	0.015050097
84	0x3cc763fd	0.02433967
85	0xbd6f830d	-0.05847459
86	0xbd2b10f4	-0.041764215
87	0xbca71bbf	-0.020398973
88	0x3ba8edfb	0.0051553226
89	0xbd97e9b5	-0.07417623
90	0xbd27b038	-0.04093954
91	0xbd30f28d	-0.043200064
92	0xba6052a3	-0.00085572357
93	0xbcca3271	-0.024682255
94	0xbc33b391	-0.010968105
95	0xbd531585	-0.051534194
96	0xbd5efc20	-0.054439664
97	0xbd3d8854	-0.04627259
98	0xbce600e7	-0.028076602
99	0xbd47610b	-0.04867653
100	0x3d4a7f28	0.049437672
101	0xbcf4be07	-0.029875768
102	0x3d2951c5	0.041337747
103	0x3c468ac6	0.012118047
104	0xbd74154e	-0.05959063
105	0x3d2128fb	0.039345723
106	0xbcc935fa	-0.02456187
107	0xbcf7dd25	-0.030256817
108	0xbd6e14fe	-0.05812549
109	0xbd8d3892	-0.068955556
110	0x3c110b0a	0.00885273
111	0xbcb82c99	-0.022482203
112	0x3c60a90f	0.013712182
113	0xbd7053e4	-0.058673754
114	0x3d2b7b3d	0.041865576
115	0xbd403081	-0.046921257
116	0xbc180742	-0.009279074
117	0x3c930799	0.017947959
118	0x3d100c1f	0.03516781
119	0x3d42d626	0.04756751
120	0x3d73587e	0.059410565
121	0xbd0ffff8	-0.03515622
122	0x3c7de7d3	0.015497166
123	0xbcc5cb04	-0.024144657
124	0xbb2c26f4	-0.0026268335
125	0xbd34f9df	-0.04418361
126	0x3d6fc1cc	0.05853443
127	0xbd4c5df1	-0.049894277
128	0x3cebed4a	0.028799672
129	0x3bd5ed31	0.0065285196
130	0x3b948867	0.004532862
131	0xbd348139	-0.04406855
132	0x3d6afda8	0.05737081
133	0x3c56c18f	0.013107671
134	0x3b3dc7f6	0.0028958297
135	0xbd880ff2	-0.06643666
136	0x3c8505de	0.01623815
137	0xbc97de5d	-0.018538648
138	0xbd110737	-0.03540727
139	0x3d641988	0.05568841
140	0x3c8f3a9a	0.017483998
141	0xbc998949	-0.01874222
142	0xbcfed3cb	-0.03110685
143	0x3afc1c8c	0.0019234582
144	0x3d20acb0	0.039227188
145	0xbc70348e	-0.0146609675
146	0xbd14e9b2	-0.03635568
147	0xbcbfa314	-0.023393191
148	0xbd5d236b	-0.053988855
149	0x3c0d524e	0.00862558
150	0x3d0c8699	0.03430805
151	0xbd894109	-0.067018576
152	0x3c81cc5d	0.015844518
153	0x3d011381	0.03151274
154	0x3bda6b3f	0.0066656168
155	0xbd00ec3a	-0.031475283
156	0x3cb953c5	0.022622952
157	0x3ccd16c4	0.02503527
158	0x3c7950c1	0.015217007
159	0xbc20c8c4	-0.009813491
160	0xbc83fcf7	-0.016111834
161	0x3cb8c368	0.022554114
162	0xbc18369d	-0.009290365
163	0xbc88755d	-0.016657526
164	0x3d36d26a	0.04463426
165	0x3d6893b7	0.056781497
166	0xbbdc9b90	-0.0067324117
167	0xbc6f55c9	-0.014607855
168	0xbbba5c2f	-0.0056872587
169	0xbc948215	-0.018128434
170	0x3a8091b5	0.0009809049
171	0x3c5c2fac	0.0134391
172	0xbd6e8798	-0.05823478
173	0xbcc92274	-0.024552561
174	0x3d488a3d	0.04895996
175	0x3c8b6a0d	0.017018342
176	0xbc62003e	-0.013794003
177	0xbd434269	-0.047670756
178	0xbd3e2e1d	-0.046430696
179	0xbd5c1520	-0.053731084
180	0xbca75273	-0.020425057
181	0x3d1befca	0.038070478
182	0x3d31b64c	0.043386742
183	0x3d0082ba	0.03137467
184	0xbd56fe21	-0.05248845
185	0xbd19de7b	-0.03756569
186	0xbc21c3ac	-0.009873312
187	0x3d7920b1	0.060822193
188	0x3b915388	0.0044350065
189	0xbd047fc5	-0.032348413
190	0x3c162b5f	0.009165614
191	0xbcef40ed	-0.029205764
192	0xbd28240c	-0.041050002
193	0x3d3c332d	0.045947243
194	0xbd10a452	-0.035312958
195	0xbcaabace	-0.020841029
196	0xbd9759eb	-0.07390197
197	0x3d073fec	0.033019945
198	0x3d2c364a	0.04204396
199	0x3cbf409d	0.02334624
200	0xbd2a3946	-0.041558526
201	0xbd38c43e	-0.045109026
202	0xbd4c8464	-0.049930945
203	0x3d5e5702	0.054282196
204	0x3d1440ab	0.036194485
205	0x3d616f6e	0.05503791
206	0x3d0fe3b0	0.03512925
207	0x3c8e02ed	0.01733538
208	0xbbc57b9c	-0.0060266983
209	0xbd833031	-0.06405676
210	0xbd9415f6	-0.07230751
211	0xbd88e257	-0.06683796
212	0x3ccea171	0.025223466
213	0xbd09884b	-0.033577245
214	0xbc8f0379	-0.01745771
215	0xbd373e03	-0.044736873
216	0xbcb36626	-0.021899294
217	0xbd5e7bde	-0.054317348
218	0xbd5162e0	-0.051119685
219	0x3cb59ee3	0.02217049
220	0xbca6f646	-0.020381104
221	0x3c9b2f7c	0.01894354
222	0xbd08675b	-0.033301692
223	0xbd63665d	-0.055517543
224	0xbc8fe852	-0.017566834
225	0xbd12666c	-0.03574221
226	0xbcbfec06	-0.023427974
227	0xbd85e23d	-0.06537292
228	0x3cfc7a22	0.030819956
229	0xbd45342c	-0.048145458
230	0x3cc6996e	0.024243083
231	0x3ca39b01	0.019971373
232	0x3d116592	0.035497256
233	0xbd6c4cf8	-0.05769059
234	0x3d236be2	0.039897807
235	0xbcf99052	-0.030464325
236	0x3cd27b99	0.025693702
237	0x3d7e1ea8	0.062040955
238	0xbbecd58a	-0.0072276043
239	0xbb5639df	-0.0032688302
240	0xbc36395d	-0.011122075
241	0xbd630a0a	-0.055429496
242	0x3cc00e3a	0.023444284
243	0xbd89fa97	-0.06737249
244	0x3d222705	0.039587993
245	0x3d5d7256	0.054064117
246	0x3d8cf4c0	0.0688262
247	0xbc123730	-0.008924291
248	0xbd44f194	-0.04808195
249	0x3c9b42c6	0.018952738
250	0x3d11f70f	0.035636004
251	0xbd7a03e0	-0.06103885
252	0xbc444043	-0.011978212
253	0xbd15516e	-0.03645461
254	0xbb53507b	-0.0032244015
255	0xbcf63960	-0.030056655

feature_process_low.bias f4 [8]
0	0x3d84372b	0.06455835
1	0xbd03f2da	-0.032214023
2	0xbd43315b	-0.04765449
3	0xbbd2cda3	-0.006433205
4	0xbcf340c0	-0.029693961
5	0xbbc6f426	-0.006071585
6	0xbd235d55	-0.03988393
7	0x3d25646d	0.040378977

feature_process_high.weight f4 [64, 8]
0	0xbe9c0d47	-0.3047888
1	0x3d01df92	0.031707354
2	0x3e59aba4	0.21256882
3	0x3d90ede4	0.07076624
4	0x3d2d743a	0.04234717
5	0x3d38f1b3	0.045152377
6	0xbdcf054f	-0.101084344
7	0xbd7ee708	-0.062232047
8	0xbe1a7e21	-0.15087177
9	0xbe74f824	-0.23922783
10	0xbe402c98	-0.18767011
11	0x3eb6f4c3	0.35733613
12	0xbd5ecc64	-0.05439414
13	0x3df7a03a	0.12091108
14	0x3e75ed25	0.24016245
15	0xbd0e3fce	-0.034728818
16	0xbe457136	-0.19281468
17	0xbe81e0de	-0.25366873
18	0xbe03f883	-0.12887768
19	0x3dfc1bb5	0.12309972
20	0xbe9832a0	-0.29726124
21	0xbd6e289f	-0.058144208
22	0x3e1328ef	0.14371084
23	0x3e97bd19	0.29636458
24	0x3dd3304a	0.10311945
25	0x3d786921	0.060647134
26	0x3e6bc074	0.23022634
27	0x3e211055	0.15728886
28	0x3de92c15	0.11385361
29	0xbe04390a	-0.12912384
30	0xbe8c64e0	-0.27420712
31	0xbd841d30	-0.064508796
32	0xbd989526	-0.07450323
33	0x3cbc2b17	0.022969766
34	0xbd866db4	-0.06563893
35	0x3e0a587d	0.13510318
36	0x3e7d467b	0.24733917
37	0xbe1e85f4	-0.15480787
38	0xbeab63d9	-0.33474615
39	0xbe3bb38f	-0.18330215
40	0xbe2db72a	-0.16964403
41	0x3e49fd27	0.19725476
42	0xbe6daa26	-0.23209438
43	0xbd101992	-0.035180636
44	0xbd9f77f7	-0.07786553
45	0xbe651967	-0.22372971
46	0x3e248104	0.1606484
47	0xbe1b43d7	-0.15162598
48	0xbc813a47	-0.01577486
49	0xbe793aba	-0.24338809
50	0xbd31eb2e	-0.043437175
51	0x3d6d8f21	0.057997826
52	0xbc70dc3e	-0.014700947
53	0xbe0675bf	-0.13130854
54	0x3dd53b5c	0.104117125
55	0xbddb2903	-0.10701182
56	0xbe4cd15c	-0.2000174
57	0xbe88306c	-0.26599443
58	0xbdbd265b	-0.09235831
59	0xbeb06718	-0.34453654
60	0x3ea221e2	0.31666476
61	0xbe20515c	-0.15656036
62	0xbe24b616	-0.16085085
63	0x3d16a967	0.03678265
64	0x3db9f404	0.090797454
65	0xbcaafee7	-0.0208735
66	0x3e776501	0.24159624
67	0xbe589328	-0.21149886
68	0x3e01411c	0.12622494
69	0x3c1f56c3	0.009725275
70	0xbe943a2f	-0.2895064
71	0xbe0c77db	-0.13717596
72	0x3dafe5f9	0.08588786
73	0x3d6bcfbe	0.057571165
74	0x3e81aa0e	0.25325054
75	0x3e6abf0c	0.22924441
76	0xbe486619	-0.19570197
77	0xbe26b9c2	-0.16281798
78	0xbd95ec46	-0.07320456
79	0xbe83d802	-0.25750738
80	0xbdc5561b	-0.09635564
81	0xbe9c5abb	-0.30537972
82	0x3e0e72d4	0.13910991
83	0x3e7cccc1	0.24687482
84	0x3bc731bb	0.0060789264
85	0xbe8455dc	-0.25846756
86	0xbe887fb9	-0.26659945
87	0xbe10de64	-0.14147335
88	0x3dab8af2	0.08376111
89	0xbc84d53a	-0.016214956
90	0x3d7c21a4	0.06155552
91	0x3ea94c66	0.330661
92	0x3e26669c	0.1625008
93	0x3d883fbf	0.066527836
94	0xbd8d70d6	-0.06906287
95	0x3e2680d3	0.1626008
96	0x3e0fcd76	0.14043221
97	0xbe9f2684	-0.31084073
98	0xbe44e458	-0.19227731
99	0x3c66301e	0.014049558
100	0x3e004224	0.1252523
101	0x3e3a9971	0.18222596
102	0xbe56bd73	-0.20970707
103	0xbeb6f531	-0.3573394
104	0xbcc12faf	-0.023582308
105	0xbd2e0499	-0.042484853
106	0x3dbf7718	0.09348887
107	0xbd927815	-0.0715181
108	0x3e8c7670	0.2743411
109	0x3c1d457a	0.009599084
110	0x3e8b58bd	0.2721614
111	0xbe801b1e	-0.2502069
112	0x3e1e0ace	0.15433809
113	0x3d222013	0.03958137
114	0xbe31ffa3	-0.17382674
115	0x3e36b2ad	0.17841597
116	0xbeae23dd	-0.34011737
117	0x3e8dd7bc	0.27703655
118	0x3ce18474	0.027528979
119	0x3cf06e08	0.029349342
120	0x3e215f27	0.15758954
121	0x3c721b20	0.014776975
122	0x3e2b9df6	0.16759476
123	0x3e706c6d	0.23478861
124	0xbe83d568	-0.25748754
125	0x3e839ee9	0.25707176
126	0xbd8deae6	-0.06929569
127	0xbde5d17b	-0.11221596
128	0x3d91e233	0.07123222
129	0x3e89ad93	0.2689024
130	0xbe3f6516	-0.18690905
131	0xbe6ce367	-0.23133622
132	0x3e651e67	0.22374879
133	0xbe26e1cd	-0.16297074
134	0x3dc7fbaf	0.09764802
135	0xbd6d4c1e	-0.05793392
136	0x3dab987e	0.08378695
137	0x3e7e9d32	0.24864653
138	0xbe406b72	-0.18790987
139	0xbe3fd288	-0.18732655
140	0x3e2a6ed3	0.16643839
141	0x3b878100	0.004135251
142	0xbd2d08f8	-0.04224488
143	0xbe9d4465	-0.30716243
144	0x3e95ded5	0.2927157
145	0xbcdcb332	-0.026940916
146	0xbd63e577	-0.055638757
147	0xbe1d5156	-0.15363058
148	0xbdaeb69f	-0.08530926
149	0x3e301f85	0.17199524
150	0xbc9f134b	-0.01941838
151	0x3e997147	0.29969236
152	0xbca622d2	-0.020280275
153	0xbd338529	-0.043828163
154	0x3e4bf163	0.199163
155	0xbc446816	-0.011987707
156	0xbd85ed7d	-0.06539438
157	0x3de5c2b9	0.11218781
158	0x3e8f0bda	0.2793873
159	0x3da33f04	0.07971004
160	0x3e7ee275	0.24891074
161	0x3e62f548	0.2216388
162	0x3db9e1e0	0.09076285
163	0x3df6303a	0.12020917
164	0x3df5a350	0.1199404
165	0x3d033279	0.032030556
166	0x3e9d424a	0.30714637
167	0x3ea76772	0.3269611
168	0x3e01bdb5	0.12670024
169	0xbca728f6	-0.020405274
170	0x3e9c0f86	0.30480593
171	0xbe8fe103	-0.28101358
172	0x3e8a0637	0.26957867
173	0x3e34032f	0.1757934
174	0x3e6f8566	0.23390731
175	0xbcec2917	-0.028828187
176	0xbe88410c	-0.26612127
177	0x3e84a196	0.2590453
178	0xbe351b00	-0.17686081
179	0x3de7dd25	0.11321477
180	0x3e6fc7fe	0.23416135
181	0xbea4473d	-0.320856
182	0x3c806ce2	0.01567692
183	0xbe081a04	-0.13291174
184	0x3e861269	0.2618592
185	0xbe652001	-0.2237549
186	0x3e60ce47	0.21953689
187	0x3e6e9ff7	0.23303209
188	0x3e3d6e00	0.18498993
189	0x3ea979bf	0.33100697
190	0x3d74093f	0.05957913
191	0xbea3f994	-0.3202635
192	0x3e85f188	0.26160836
193	0x3d300ed8	0.042982906
194	0x3c031794	0.008001227
195	0xbeaecf82	-0.3414269
196	0xbdb45b6e	-0.08806501
197	0xbe278c12	-0.16362026
198	0x3eab1b3f	0.33419225
199	0x3e6e49b8	0.23270309
200	0x3e884c1f	0.26620576
201	0x3e77ee7e	0.24212071
202	0xbe625fd4	-0.22106868
203	0xbe172b23	-0.14762549
204	0xbe0d5e69	-0.13805546
205	0xbe0f5625	-0.13997705
206	0x3e8d597d	0.27607337
207	0x3df02533	0.11725845
208	0x3e95ad59	0.29233816
209	0xbc64970a	-0.013952026
210	0xbe9a4b50	-0.30135584
211	0xbdd280ff	-0.1027851
212	0x3e707a6b	0.23484199
213	0x3e5bb1c3	0.2145453
214	0x3de22bd3	0.11043515
215	0xbdcb15c6	-0.09916262
216	0xbea580e9	-0.32324913
217	0xbe4c6d59	-0.19963588
218	0x3e3f0829	0.18655457
219	0xbe09b429	-0.13447632
220	0x3e322495	0.17396767
221	0x3dc48775	0.09596149
222	0xbe09d5be	-0.13460442
223	0x3e6311a2	0.22174695
224	0xbdecf136	-0.11569445
225	0xbca719a5	-0.02039797
226	0xbe05291a	-0.1300396
227	0xbea6e95a	-0.32599908
228	0x3d476f38	0.04869005
229	0x3dc26b85	0.09493164
230	0xbe31ba65	-0.1735626
231	0x3e5d7b0a	0.21628967
232	0xbea02821	-0.31280616
233	0xbeb245c4	-0.34818852
234	0xbe60a4c5	-0.21937855
235	0xbdf3ba0e	-0.119007215
236	0xbd6e0d35	-0.058118064
237	0xbda8892c	-0.082292885
238	0x3e2b1038	0.16705406
239	0xbe9bb93f	-0.3041477
240	0x3d5e8c3e	0.054332964
241	0x3b1c66f2	0.002386507
242	0x3dd24bac	0.102683395
243	0x3eb7fa51	0.35933164
244	0x3e4b52be	0.19855782
245	0xbe4ade26	-0.19811305
246	0xbe917a9c	-0.28413856
247	0xbda6d029	-0.08145172
248	0xbe36cb13	-0.17850904
249	0x3e02e104	0.12781149
250	0x3bb126cb	0.005406236
251	0x3e937301	0.2879868
252	0x3e09b889	0.13449301
253	0xbd821ac9	-0.06352765
254	0x3c8551f9	0.01627444
255	0x3dbb2cf8	0.091394365

feature_process_high.bias f4 [64]
0	0x3e69f35c	0.2284674
1	0xbeaed011	-0.34143117
2	0xbdc00109	-0.093751974
3	0xbea44d17	-0.32090065
4	0xbe2f1474	-0.17097646
5	0x3e1e745a	0.15474072
6	0xbe83b2b5	-0.2572228
7	0xbea122d2	-0.31471878
8	0x3e8104c1	0.2519894
9	0x3e42f580	0.19038963
10	0xbc20ad9e	-0.009807019
11	0xbe809666	-0.25114745
12	0xbdbb599d	-0.09147952
13	0xbde02d00	-0.10946083
14	0x3e5dd841	0.21664526
15	0xbdccdd5e	-0.1000316
16	0xbdc0c545	-0.09412626
17	0xbe7adbf7	-0.24497972
18	0xbe282e02	-0.164238
19	0x3e4503d0	0.19239736
20	0x3e6c6581	0.23085596
21	0x3d6f7356	0.058459602
22	0xbe009778	-0.1255778
23	0x3ea7c3f0	0.32766676
24	0x3d852077	0.06500333
25	0xbdf78850	-0.120865464
26	0xbe011775	-0.12606604
27	0xbd521d23	-0.05129732
28	0x3e2fbf29	0.17162766
29	0x3decea8a	0.11568172
30	0x3e80d933	0.2516571
31	0xbc6d65d4	-0.01448961
32	0x3e91f0be	0.28503984
33	0xbe13ba42	-0.1442652
34	0xbe2ee735	-0.17080386
35	0xbe026855	-0.12735112
36	0xbea2744b	-0.3172935
37	0xbe7d017e	-0.247076
38	0xbea9c28d	-0.33156243
39	0xbcbfc99b	-0.023411563
40	0x3b94fa41	0.004546434
41	0xbdb55e0f	-0.08855831
42	0xbe8237b1	-0.25433114
43	0x3ea1ff3f	0.3164005
44	0xbdedd99b	-0.116137706
45	0x3e2bc9f1	0.16776253
46	0x3e7f24da	0.24916402
47	0xbe6843a1	-0.22682048
48	0xbd3aa50d	-0.04556756
49	0x3e52ff2a	0.2060515
50	0x3eb165cf	0.34647986
51	0xbd3f4b66	-0.046702765
52	0x3e83527c	0.25648868
53	0xbe8a6374	-0.27029002
54	0xbe766f23	-0.24065833
55	0x3e961945	0.29316154
56	0xbd170ba7	-0.036876347
57	0x3eb473dd	0.35244647
58	0x3c7d654b	0.015466045
59	0xbe116c92	-0.14201573
60	0x3eac1878	0.33612418
61	0x3e9db699	0.30803373
62	0x3cb3acc3	0.021932965
63	0xbe7541c5	-0.2395087

feature_norm.weight f4 [64]
0	0x3f7f22ff	0.99662775
1	0x3f7fae3d	0.9987524
2	0x3f81137f	1.0084075
3	0x3f7cc71d	0.9874132
4	0x3f826b0d	1.0188919
5	0x3f807f42	1.0038836
6	0x3f7eb38c	0.99492717
7	0x3f82aee1	1.0209619
8	0x3f80427d	1.0020291
9	0x3f7fb051	0.9987841
10	0x3f81d7dc	1.0144
11	0x3f7b326f	0.9812383
12	0x3f7f104c	0.9963424
13	0x3f7f8937	0.9981875
14	0x3f7eb683	0.9949724
15	0x3f82e8f7	1.0227345
16	0x3f7c541c	0.9856584
17	0x3f782322	0.9692861
18	0x3f784379	0.96977955
19	0x3f7ed12b	0.99537915
20	0x3f7fd2be	0.9993094
21	0x3f7f5029	0.9973169
22	0x3f81ccc7	1.0140618
23	0x3f7f20a5	0.99659187
24	0x3f7d309e	0.9890231
25	0x3f7ff8ef	0.9998922
26	0x3f7e621d	0.9936846
27	0x3f800b16	1.0003383
28	0x3f7d628e	0.9897851
29	0x3f802cb5	1.0013644
30	0x3f7eee5b	0.9958245
31	0x3f7f791e	0.99794185
32	0x3f7eba2e	0.9950284
33	0x3f705da9	0.93892914
34	0x3f802d97	1.0013913
35	0x3f77ef49	0.96849495
36	0x3f7bd399	0.9836975
37	0x3f7d551a	0.9895798
38	0x3f7fe363	0.9995634
39	0x3f7dc127	0.9912285
40	0x3f808669	1.0041019
41	0x3f7e1515	0.9925092
42	0x3f7f57f7	0.997436
43	0x3f7e35f2	0.99301064
44	0x3f7b2a70	0.9811163
45	0x3f7fb336	0.9988283
46	0x3f7fea54	0.9996693
47	0x3f80716c	1.0034614
48	0x3f78f62d	0.97250634
49	0x3f7d7081	0.9899979
50	0x3f801a78	1.0008078
51	0x3f7e85cc	0.9942291
52	0x3f7fac0b	0.9987189
53	0x3f811566	1.0084655
54	0x3f8256bd	1.018272
55	0x3f8031f5	1.0015246
56	0x3f7fd851	0.9993945
57	0x3f7f5d5a	0.9975182
58	0x3f8157dc	1.0104938
59	0x3f8109a8	1.0081072
60	0x3f7f46ca	0.9971739
61	0x3f7f5089	0.9973226
62	0x3f7d0e97	0.9885039
63	0x3f75b423	0.9597799

feature_norm.bias f4 [64]
0	0xbb010f1e	-0.0019692848
1	0x3ad19b59	0.0015991732
2	0x3c5315b0	0.012883589
3	0xbc2898bf	-0.010290324
4	0x3b9595ec	0.004564991
5	0x37ab68af	2.0433536e-05
6	0xb9c25089	-0.00037062567
7	0x3c3bc70c	0.011461031
8	0xbbe4696c	-0.006970575
9	0x3b459741	0.0030149969
10	0xbba989ba	-0.005173889
11	0xbb2c5f05	-0.0026301753
12	0xb8e30968	-0.000108259555
13	0x3bd64a0a	0.006539588
14	0xbb16c0ec	-0.0023003174
15	0x3c891229	0.016732292
16	0x3b2eba8a	0.002666148
17	0x3a656049	0.00087500043
18	0x3c0701a7	0.00824014
19	0xbb35d52e	-0.0027745473
20	0x3821158b	3.8405455e-05
21	0x3b1a49fa	0.0023542629
22	0x3bd8b951	0.0066138883
23	0xbc4e2551	-0.012582139
24	0xbc498330	-0.012299344
25	0x3c4b30c3	0.012401762
26	0xbbd0bf16	-0.0063704355
27	0xbaa0d2f8	-0.0012269905
28	0x3c00a7b8	0.007852487
29	0xbc679779	-0.014135235
30	0xbbfc1f9a	-0.007694197
31	0x39d66e38	0.0004089938
32	0xbbe95e25	-0.0071218186
33	0xbb03207b	-0.0020008374
34	0x3bda8538	0.006668713
35	0x3bbf3904	0.005835654
36	0x3c27407f	0.010208248
37	0xbbf512eb	-0.007479062
38	0xbb301f68	-0.0026874188
39	0xbb16b4f2	-0.0022996035
40	0x3c06e1dc	0.00823256
41	0x3b13ba7a	0.0022541569
42	0xbbe5ab66	-0.0070089577
43	0xbb33f345	-0.0027458232
44	0xbbada312	-0.0052989805
45	0xba48329c	-0.0007636936
46	0xbba02d73	-0.0048882305
47	0x3b4ba489	0.0031073412
48	0xbb4a8598	-0.0030902382
49	0xbc07c1eb	-0.00828598
50	0xba2a6eea	-0.0006501513
51	0xbb9e3576	-0.0048281504
52	0x3b5f5ec6	0.003408359
53	0x3bc24cfb	0.005929587
54	0x3b9f9079	0.0048695174
55	0xbaa5f01c	-0.0012660059
56	0x3b954d72	0.0045563513
57	0xb99b7185	-0.00029648482
58	0xbbaaf963	-0.0052177175
59	0x3b6f2555	0.0036490757
60	0xb9a18a09	-0.00030811157
61	0x3b8c93c3	0.0042900755
62	0xbc3dee7c	-0.011592504
63	0xbcaca0f0	-0.021072835

graph_attention.learnable_adj_u f4 [2, 10, 8]
0	0x3481cd0c	2.4177314e-07
1	0xbd0a3b0a	-0.03374771
2	0x3d3b3878	0.04570815
3	0x3cc11787	0.023570789
4	0x39eeb467	0.00045529308
5	0x3ce68c79	0.028143154
6	0x3e07534d	0.1321537
7	0x3ad1927d	0.0015989091
8	0x3db31c5a	0.08745642
9	0xbd86e61a	-0.06586857
10	0x3dff7d75	0.12475101
11	0xbb2ba414	-0.0026190327
12	0x3d7a199a	0.06105957
13	0xbe017317	-0.1264156
14	0xbd977667	-0.0739563
15	0xbd907d15	-0.070551075
16	0x3d6eb22b	0.058275383
17	0xb31a1800	-3.5877747e-08
18	0xbe165baa	-0.14683405
19	0x3e25afc4	0.1618033
20	0x3c2af188	0.010433562
21	0x3e16d749	0.14730562
22	0x3a00b173	0.00049092545
23	0x3a82095d	0.0009921003
24	0x3dce9b6f	0.1008824
25	0xbdbbc0d8	-0.091676414
26	0x3e1cd430	0.15315318
27	0xbdaaa30a	-0.083318785
28	0x389ec974	7.571551e-05
29	0xbdadeef5	-0.08492843
30	0xbdb38b2e	-0.08766781
31	0x3de5a72b	0.112135254
32	0xbc3218c4	-0.010870162
33	0xbb55f50c	-0.003264728
34	0x3deb29b6	0.11482565
35	0x3e256f9b	0.16155855
36	0xbe1286c0	-0.14309216
37	0x2e04d210	3.0199898e-11
38	0x3c60dec1	0.013724984
39	0x3e20a97d	0.15689655
40	0xbd04a0de	-0.032379977
41	0xbca15b56	-0.019696873
42	0xbd90d036	-0.07070963
43	0x3c20a08c	0.009803902
44	0x3c0f6e97	0.008754394
45	0x2e22381a	3.6884364e-11
46	0xb91efadf	-0.00015161511
47	0xbdc31c34	-0.09526864
48	0xbd0dddce	-0.034635358
49	0xbcedcfa6	-0.029029679
50	0x3c2f1d4d	0.010688138
51	0x3d2631aa	0.040574707
52	0x3d3abeb9	0.045592044
53	0xbde2a1fe	-0.11066054
54	0xb7da31e1	-2.6010852e-05
55	0xbb64ad88	-0.0034893472
56	0x3e29c991	0.16580798
57	0x3dcefd70	0.10106933
58	0xbddaaae0	-0.10677123
59	0xbd809582	-0.06278516
60	0xbddee507	-0.10883527
61	0xbc165fcb	-0.009178112
62	0xbe0c0141	-0.13672353
63	0x3d3d5492	0.04622323
64	0xbd25b857	-0.040459003
65	0xbd581397	-0.052753057
66	0x35362406	6.7852704e-07
67	0xbc99affe	-0.018760677
68	0x3ddee8ca	0.10884245
69	0x3e13a014	0.14416534
70	0xbe105489	-0.14094748
71	0x3d2ba36a	0.04190389
72	0x2f890e45	2.4930294e-10
73	0x3d6bc267	0.057558443
74	0xbce5dba1	-0.028058829
75	0xb7c0f5fe	-2.3002733e-05
76	0xad1e78b5	-9.0080625e-12
77	0x3cb89f55	0.022536913
78	0x3d5548ca	0.05207137
79	0x3cfc3128	0.030785158
80	0x39eb103f	0.00044834797
81	0xbdf2fb36	-0.11864321
82	0xbd8b9ce7	-0.06817036
83	0xbd898041	-0.067139156
84	0xbe298e91	-0.16558291
85	0x3e201e61	0.15636589
86	0xbd2f31e9	-0.042772207
87	0xbdb4852d	-0.08814464
88	0xbd2f49b3	-0.042794894
89	0x3d7b7b78	0.061397046
90	0xbda33286	-0.07968621
91	0xbe028802	-0.12747195
92	0xbddb1fcd	-0.10699425
93	0x3bc1f721	0.0059193526
94	0xb460265c	-2.0875581e-07
95	0xbe1299e3	-0.14316516
96	0xbdbd771a	-0.092512324
97	0xbe09fef0	-0.13476157
98	0x3cb8dd16	0.02256636
99	0x3d2f08f1	0.042733137
100	0x3b0f2222	0.0021840413
101	0xbc9acc17	-0.018896146
102	0xbd7537a7	-0.059867527
103	0x3d021bb4	0.0317647
104	0xbbe213c2	-0.006899328
105	0xbadc8df8	-0.0016826978
106	0xbca47614	-0.020075835
107	0x3b1bf0a1	0.002379455
108	0x3bf30a31	0.0074169864
109	0x3dfe5fdb	0.12420627
110	0x3e0f2d81	0.13982202
111	0xbc250bb9	-0.010073596
112	0x3a9a9ce9	0.001179603
113	0xbdb63b14	-0.08897987
114	0xbddcabf6	-0.107749864
115	0x3e01036c	0.12598962
116	0x39bc1501	0.00035873803
117	0xbd541e2d	-0.05178659
118	0x3d58cd63	0.052930247
119	0x3d083fb4	0.033263877
120	0x3ccd8fd0	0.02509299
121	0x3d1784b0	0.036991775
122	0x35eec60d	1.7790022e-06
123	0xbdd1b9b3	-0.102404974
124	0xbe0f6470	-0.14003158
125	0x3e249a69	0.16074528
126	0x3dc4025b	0.09570762
127	0xbdea9edc	-0.11456081
128	0x3dec4597	0.11536711
129	0xbe1a9cc5	-0.15098865
130	0x3db4c0a4	0.08825806
131	0x3dc32f83	0.095305465
132	0x3da3d316	0.07999246
133	0x3d17979c	0.03700982
134	0xbd99997d	-0.07499979
135	0xbd1c0851	-0.03809387
136	0x3bb17374	0.0054153744
137	0x3d0164ed	0.03159039
138	0x3e0c66d5	0.13711102
139	0x34df3d44	4.1581563e-07
140	0x3d0eaf3e	0.034835093
141	0xbddecca7	-0.10878878
142	0xbb9109de	-0.004426225
143	0x3d94a6b0	0.072583556
144	0x3821f5f8	3.8614467e-05
145	0x3def8c30	0.116966605
146	0xbdf535cc	-0.119731516
147	0xbdb5b3f8	-0.08872217
148	0x3c93244a	0.01796164
149	0xb486657c	-2.5033285e-07
150	0xbe07109d	-0.13189931
151	0x3d1a5152	0.03767521
152	0x346e5d8e	2.2199512e-07
153	0x3c068028	0.008209266
154	0x3bc1eec6	0.0059183566
155	0xbdc0054f	-0.093760125
156	0xbdb7554d	-0.08951817
157	0xbdf41a91	-0.1191913
158	0x3dd13596	0.10215299
159	0xbd8059d0	-0.062671304

graph_attention.learnable_adj_v f4 [2, 8, 10]
0	0x3e0db70a	0.13839355
1	0xbc91471d	-0.017734105
2	0x3bb902b8	0.005646076
3	0x3e1abcd0	0.15111089
4	0xbd6c9052	-0.057754822
5	0xbe192a23	-0.1495748
6	0x3a725ede	0.00092457037
7	0xbdc815c5	-0.09769777
8	0x3d78cac7	0.06074026
9	0x3cfb7908	0.03069736
10	0x3dc981e8	0.09839231
11	0xb9225fd6	-0.00015485226
12	0xbda93db5	-0.08263723
13	0xbe12c3a0	-0.14332438
14	0xbda5eab8	-0.0810141
15	0x3e0b7710	0.13619637
16	0xbba3e1fd	-0.005001305
17	0x2da3036b	1.8532472e-11
18	0xbb9e9e53	-0.004840651
19	0xbd56b3ac	-0.052417442
20	0x3df50dd1	0.11965526
21	0xbc1d58ac	-0.009603661
22	0xbd41edae	-0.04734581
23	0x3e1355b7	0.14388166
24	0x3d90f4e4	0.07077959
25	0x3d69710e	0.056992583
26	0x3dc5e266	0.09662323
27	0xbda113ed	-0.07865129
28	0x3c991f24	0.018691607
29	0xbc444673	-0.011979687
30	0x336ea198	5.5560662e-08
31	0x3d365d31	0.044522468
32	0xbca11546	-0.019663464
33	0x3e20f7ba	0.157195
34	0x2c034696	1.8655403e-12
35	0x3d873a47	0.066029124
36	0x389998fc	7.324104e-05
37	0xbe1cd1fd	-0.15314479
38	0xbd90c320	-0.07068467
39	0xbdfbe758	-0.12299985
40	0x39a59b5e	0.0003158701
41	0xbdb11c70	-0.08648002
42	0xbdea27e0	-0.11433387
43	0x3ba4c908	0.0050288476
44	0xbe07d628	-0.13265288
45	0xbd72f166	-0.059312247
46	0xbda65e7f	-0.081234924
47	0x3d4431e3	0.04789914
48	0x3e11a72b	0.14223926
49	0x3cb88888	0.02252604
50	0xbd8018fb	-0.06254765
51	0x3dd86287	0.105656676
52	0x3e1457c6	0.14486608
53	0xbc34eb01	-0.011042357
54	0x3dcfa21b	0.10138341
55	0x3c1174ae	0.008877916
56	0xbdbc4e38	-0.091946065
57	0xbc216929	-0.009851732
58	0xbdeb368d	-0.11485014
59	0x3c785634	0.015157271
60	0x3d7a796d	0.061150957
61	0xbe218864	-0.15774685
62	0xbd05faf9	-0.03271005
63	0x2fb10678	3.220071e-10
64	0x3decb4d0	0.11557925
65	0xbd738fac	-0.059463188
66	0xb653810a	-3.151656e-06
67	0xb1e04e51	-6.5281616e-09
68	0xbd5050be	-0.05085825
69	0xbd243d75	-0.040097672
70	0xbc2e0cb7	-0.010623149
71	0xbc71943e	-0.014744816
72	0xbc94679e	-0.018115815
73	0x38c36ffa	9.319182e-05
74	0xb82454bd	-3.9179566e-05
75	0xbd43047a	-0.04761169
76	0x3d940ca1	0.07228971
77	0x3dc55364	0.09635046
78	0xbab463ff	-0.0013762711
79	0xbb49c406	-0.0030787005
80	0xbe1f65d7	-0.15566193
81	0xbdcc806a	-0.099854305
82	0xb4e5245f	-4.2681037e-07
83	0xbb51f977	-0.0032039562
84	0x3c6364fb	0.013879056
85	0xbd4bd880	-0.049767017
86	0xbb90efe7	-0.00442313
87	0x3a906a2b	0.0011017969
88	0x3e210fb8	0.15728652
89	0x3de63606	0.11240773
90	0xbdab3ed3	-0.08361592
91	0xb8204ec5	-3.8220332e-05
92	0xbadbdf05	-0.0016774839
93	0xb2b0b130	-2.0569672e-08
94	0x3d0be5b9	0.034154627
95	0xbd0135e4	-0.031545535
96	0xbba154b1	-0.004923426
97	0xbe233656	-0.15938696
98	0xbcbfbce4	-0.0234055
99	0xbe20dd15	-0.15709336
100	0x3cbe1411	0.023202928
101	0xbdde5336	-0.10855715
102	0xbd491f2a	-0.049101986
103	0xbdc9cbf8	-0.09853357
104	0x3dda0244	0.106449634
105	0xbc659f0d	-0.014014971
106	0x3e0658ce	0.13119814
107	0xbd4b651a	-0.049656965
108	0x3dd873c2	0.10568954
109	0xbb6d545b	-0.003621361
110	0xbdd5c205	-0.10437397
111	0x3dfd4c54	0.12368074
112	0xbdb56288	-0.08856684
113	0xbd8c60af	-0.068543784
114	0x3d763784	0.060111538
115	0xb8a8385f	-8.021364e-05
116	0x2e0927e8	3.1185637e-11
117	0x3e237125	0.1596113
118	0xbde9607c	-0.11395356
119	0xbcc7d85d	-0.024395162
120	0x3d0492d1	0.032366578
121	0xbb5a80ac	-0.0033340855
122	0xae2ea22d	-3.970706e-11
123	0xbca8fb79	-0.020627724
124	0xbaaab225	-0.0013023062
125	0x3deb876a	0.115004376
126	0xbb3d7f4b	-0.0028914984
127	0x3d012267	0.03152695
128	0x3dd747e3	0.10511758
129	0x3de05bdf	0.10955023
130	0x3d38de7e	0.04513406
131	0x3db89453	0.090126656
132	0xbc1dee94	-0.009639401
133	0x37ef17ae	2.8502047e-05
134	0xbd154aee	-0.03644841
135	0xbe1e4082	-0.15454295
136	0x3dffb842	0.12486316
137	0xbe1af608	-0.15132916
138	0xbd9eefe5	-0.077606
139	0xbcc1519b	-0.023598483
140	0xbe112600	-0.14174652
141	0xbde13a35	-0.1099743
142	0xbd612196	-0.05496367
143	0x39ac41b6	0.00032855355
144	0xbe079901	-0.1324196
145	0xbdc6e3c6	-0.09711413
146	0xbd8adaf6	-0.06780045
147	0xbdd61ca3	-0.10454681
148	0x3be33b04	0.0069345254
149	0x33132165	3.4256477e-08
150	0x3bb35d4b	0.005473768
151	0x3e0e2ad8	0.13883531
152	0xbd1c25ce	-0.03812199
153	0xbcdaed22	-0.026724402
154	0x3c90dd38	0.01768361
155	0x3e083cee	0.13304493
156	0x3c910e08	0.017706886
157	0xb84207f5	-4.6260615e-05
158	0x3c98172f	0.018565742
159	0xbe21df77	-0.15807901

graph_attention.qkv_proj_low.weight f4 [24, 64]
0	0xbc164f92	-0.0091742445
1	0xbd737b6b	-0.059443872
2	0x3db162ad	0.08661399
3	0x3b07de6b	0.0020731937
4	0x3cdcd135	0.026955226
5	0x3d9465a3	0.07245948
6	0x3d199a1a	0.03750048
7	0xbda0d51c	-0.078531474
8	0x3dd71973	0.10502901
9	0x3d9991a0	0.07498479
10	0xbdadf33c	-0.08493659
11	0x3daf6de7	0.08565884
12	0x3d0edadc	0.03487669
13	0xbcce81e4	-0.025208421
14	0xbdb4cbec	-0.088279575
15	0xbd2c3e87	-0.04205182
16	0xbe038834	-0.12844926
17	0x3d6b066b	0.057379168
18	0x3da991b2	0.08279742
19	0xbd12e6db	-0.035864692
20	0x3ded8948	0.1159845
21	0xbd3be6c1	-0.04587436
22	0x3c850d38	0.016241655
23	0xbdae9075	-0.08523647
24	0xbbe9f355	-0.007139603
25	0x3d33b70a	0.04387573
26	0x3d599929	0.05312458
27	0xbbd4d189	-0.006494705
28	0xbd6e2dce	-0.05814915
29	0x3dae09f9	0.08497996
30	0x3daaa18b	0.08331593
31	0x3c887b74	0.01666043
32	0xbd6dfd7e	-0.058103077
33	0x3c0008bd	0.007814583
34	0xbbaab28a	-0.005209272
35	0x3dd4130b	0.10355195
36	0x3cb6813a	0.022278417
37	0x3b07192f	0.0020614376
38	0x3b8f4eba	0.0043733986
39	0x3d829b14	0.06377235
40	0xbbb3253f	-0.0054670866
41	0x3dced798	0.10099715
42	0x3d74f0d5	0.059799988
43	0xbdbb1595	-0.09134976
44	0xbcbfbef9	-0.023406493
45	0xbddd9504	-0.10819438
46	0xbdc145ef	-0.09437167
47	0x3c9aab5f	0.018880544
48	0x3cede407	0.029039396
49	0xbbda121c	-0.006654991
50	0x3df61613	0.12015929
51	0xbd920f3c	-0.07131812
52	0xbd660dcb	-0.056165498
53	0xbcdee361	-0.027208032
54	0xb9d860d5	-0.00041270876
55	0xbc0aa952	-0.008463221
56	0x3ddb4668	0.10706788
57	0xbd4b10b2	-0.04957647
58	0xbd84026f	-0.06445777
59	0x3c4d6e05	0.012538438
60	0x3dc1925f	0.09451746
61	0x3cfda81c	0.03096395
62	0x3d920e9e	0.07131694
63	0x3ca5225f	0.020157991
64	0x3dd29c9b	0.102837764
65	0x3d90e8e4	0.0707567
66	0x3dc6e3f7	0.097114496
67	0xbc2c1528	-0.010503091
68	0xbdda6865	-0.10664443
69	0xbd7ada59	-0.06124339
70	0x3d3befd0	0.045883
71	0x3dbbcbe9	0.09169752
72	0xbd45620c	-0.048189208
73	0x3dda7119	0.10666103
74	0x3cfe4593	0.031039035
75	0x3beb5b1d	0.0071824924
76	0x3bdbc663	0.006706999
77	0xbd14a824	-0.036293164
78	0x3de5d61e	0.1122248
79	0x3cd949f5	0.026524523
80	0x3d95ba5f	0.07310938
81	0xbddddcf9	-0.10833163
82	0xbd633005	-0.055465717
83	0x3c23bc33	0.009993601
84	0x3dc98782	0.09840299
85	0x3d6ba11f	0.057526704
86	0x3c8297d9	0.015941547
87	0xbdfd9f80	-0.12383938
88	0x3bd5d5b1	0.006525718
89	0xbd8b1b28	-0.06792289
90	0xbdd5272c	-0.10407862
91	0x3c9aa33b	0.018876662
92	0xbdaea904	-0.08528331
93	0x3dea1590	0.11429894
94	0xbd851821	-0.06498743
95	0x3d175c46	0.036953233
96	0x3d937eae	0.072018966
97	0xbdabb94b	-0.08384951
98	0x3d8c0a22	0.0683787
99	0xbc1394b5	-0.0090076225
100	0x3d79e43c	0.061008677
101	0x3e0139d2	0.12619713
102	0xbd5478da	-0.051873066
103	0xbd4a82d6	-0.04944118
104	0x3dd74675	0.105114855
105	0x3c6cbdef	0.014449581
106	0xbc1a61a4	-0.009422693
107	0x3dbf1927	0.09330969
108	0xbd33295a	-0.043740608
109	0xbb89bf19	-0.004203689
110	0x3dae9b30	0.085256934
111	0x3d5612bc	0.05226396
112	0xbd9a6060	-0.07537913
113	0x3cce8284	0.02520872
114	0xbdc39a22	-0.09550883
115	0xbd848204	-0.06470111
116	0x3d9cc590	0.076548696
117	0xbd307ad4	-0.043085888
118	0xbd88afec	-0.066741794
119	0x3bd31de1	0.006442771
120	0x3d063014	0.032760695
121	0xbda56e01	-0.08077622
122	0xbdb628a9	-0.08894474
123	0xbe015f38	-0.1263398
124	0x3cf31425	0.029672692
125	0xbda475f3	-0.080303095
126	0x3bf74c5a	0.0075469436
127	0xbd01a7d0	-0.03165418
128	0xbdaca62d	-0.08430133
129	0xbcdc44ca	-0.02688827
130	0xbdc619b4	-0.09672871
131	0xbd949293	-0.07254519
132	0x3c2188bd	0.009859261
133	0xbde0d84e	-0.10978757
134	0xbdd6dcbe	-0.10491322
135	0x3de32c42	0.11092426
136	0x3c09cc92	0.00841059
137	0xbd798793	-0.06092031
138	0xbc80bb4a	-0.015714306
139	0x3daa30b1	0.083100684
140	0xbdd66a2b	-0.10469469
141	0xbd6d03e3	-0.057865035
142	0xbdb40c96	-0.08791463
143	0xbccec64e	-0.025241043
144	0x3ba3b786	0.004996243
145	0xbda8d796	-0.08244245
146	0x3da7150e	0.08158313
147	0xbdbe8c9c	-0.09304163
148	0x3df75e9f	0.120785944
149	0xbdaae20c	-0.08343896
150	0xbba4a4c4	-0.0050245244
151	0x3ca556c8	0.020182982
152	0xbd6d069a	-0.057867624
153	0x3dd52c15	0.104087986
154	0xbdb43447	-0.087990336
155	0x3aabcc05	0.0013107067
156	0xbdaa420a	-0.08313377
157	0x3cfc558e	0.030802514
158	0x3dd7628b	0.105168425
159	0x3dfc4ab8	0.12318939
160	0x3c653fc3	0.013992253
161	0xbd9e1bff	-0.077201836
162	0x3df60400	0.12012482
163	0x3be7c7a7	0.007073361
164	0x3dc7aa26	0.0974925
165	0xbd847261	-0.064671285
166	0xbd5e5ee4	-0.054289714
167	0xbdc0def9	-0.09417529
168	0x3de88d20	0.113550425
169	0x3c8da154	0.017288841
170	0xbdacd897	-0.08439749
171	0x3bfd6a3a	0.0077336105
172	0xbd8c39c9	-0.06846959
173	0x3baaec7e	0.0052161803
174	0x3d161e60	0.03665006
175	0xbd7f2a55	-0.06229623
176	0x3c930490	0.017946512
177	0xbd918e07	-0.07107168
178	0x3cb9c810	0.022678405
179	0xbdf156b4	-0.117841154
180	0x3c807d48	0.015684739
181	0x3e103a78	0.14084804
182	0x3e02a471	0.12758042
183	0x3d3d5e5f	0.046232577
184	0x3dbf66be	0.093457684
185	0x3df8ade1	0.1214254
186	0x3d37b35c	0.044848785
187	0x3d53db41	0.05172277
188	0x3c2c97e4	0.01053426
189	0x3de405d4	0.11133924
190	0x3de8415d	0.11340592
191	0xbd355a23	-0.044275414
192	0xbc53f161	-0.012935967
193	0xbd9a2ef4	-0.07528487
194	0x3d6992ed	0.057024885
195	0xbdf8cb7b	-0.12148186
196	0x3ca9d575	0.020731667
197	0xbd0c0703	-0.034186374
198	0x3d3c17e6	0.04592123
199	0x3d05bdb3	0.032651614
200	0xbd83e2ae	-0.0643972
201	0x3d89b86c	0.06724629
202	0x3d8a1592	0.067423955
203	0xbdddf39c	-0.108374804
204	0x3df7704f	0.12081968
205	0x3db81cad	0.089898445
206	0x3d93da0e	0.07219325
207	0x3c0715cb	0.008244942
208	0x3d3fa175	0.046784837
209	0xbd9a3d51	-0.075312264
210	0xbd136855	-0.03598817
211	0x3d586258	0.052828163
212	0x3d56b864	0.052421942
213	0x3d320cd7	0.043469276
214	0xbe0a950d	-0.13533421
215	0x3dd1cd27	0.10244208
216	0xbd3a09ac	-0.04541938
217	0x3dfefcbf	0.12450551
218	0x3ddbdb31	0.10735167
219	0x3d2d1cf7	0.04226395
220	0x3dec8d71	0.11550415
221	0x3d96ea86	0.073689505
222	0x3d908f29	0.07058556
223	0xbd4985ec	-0.049199983
224	0x3deb7937	0.11497729
225	0x3d2a8d08	0.041638404
226	0x3d9a77cf	0.07542383
227	0xbc21ccce	-0.009875489
228	0x3d903964	0.070421964
229	0x3de6bda1	0.112666376
230	0xbdde0564	-0.10840872
231	0x3dd0b239	0.10190243
232	0xbda312b0	-0.07962549
233	0xbdac271d	-0.08405898
234	0xbdea6859	-0.11445684
235	0x3cf5e3f0	0.030015916
236	0xbd9a2890	-0.07527268
237	0xbd2ff66b	-0.042959612
238	0xbd80a7e5	-0.06282023
239	0x3d0d0955	0.034432728
240	0xbded04ed	-0.11573205
241	0xbd8f2ddc	-0.06991169
242	0xba812a57	-0.0009854537
243	0x3c4ba750	0.012430027
244	0xbd70f204	-0.058824554
245	0x3cc95bed	0.024579966
246	0xbdd2ea43	-0.10298588
247	0xbde07bf6	-0.10961144
248	0xbca239e7	-0.019803
249	0xbd90ca4c	-0.07069835
250	0x3d8c1863	0.06840589
251	0xbdc66533	-0.09687271
252	0xbc45ed10	-0.012080446
253	0x3d4f6f80	0.050643444
254	0xbde51039	-0.11184735
255	0x3dac6903	0.08418467

graph_attention.qkv_proj_low.bias f4 [24]
0	0x3d8b20d3	0.0679337
1	0x3d160bc8	0.03663233
2	0xbb98b847	-0.0046606394
3	0x3da5ebce	0.08101617
4	0xbd8e8b77	-0.069601946
5	0x3d2103b0	0.039310157
6	0x3d61f313	0.055163454
7	0xbd349ccd	-0.04409485
8	0x3d342d9e	0.043988816
9	0xbe000af6	-0.12504181
10	0xbd8b3ec3	-0.0679908
11	0x3d7893eb	0.06068794
12	0x3d82e29e	0.0639088
13	0xbde269d1	-0.11055339
14	0x3d47bd6b	0.048764627
15	0x3c7e6ae1	0.015528412
16	0x3e03227e	0.12806126
17	0xbdfc54be	-0.12320851
18	0xbcd51202	-0.026009563
19	0xbd94d5ae	-0.07267319
20	0xbda522ff	-0.080633156
21	0xbc8740f9	-0.016510474
22	0xbdec059c	-0.115245074
23	0x3dcda89f	0.100419275

graph_attention.qkv_proj_high.weight f4 [192, 24]
0	0xbd892957	-0.06697338
1	0x3d9a4624	0.075329095
2	0xbdee5006	-0.11636357
3	0xbb149c7d	-0.0022676282
4	0xbe0a1d15	-0.13487656
5	0x3e285980	0.16440392
6	0x3e3ad328	0.18244612
7	0x3e19bac2	0.15012649
8	0xbd85ee34	-0.06539574
9	0x3deea0dd	0.11651776
10	0xbe34506d	-0.17608805
11	0x3da4676d	0.080275394
12	0xbd038e3d	-0.03211807
13	0xbe1f86f7	-0.15578829
14	0xbe25405b	-0.16137831
15	0xbe351878	-0.17685115
16	0x3d4c83ae	0.049930267
17	0xbd91533f	-0.07095956
18	0xbdaf2a68	-0.0855301
19	0x3e481878	0.19540584
20	0xbd844203	-0.06457903
21	0x3dadc4fb	0.08484837
22	0xbc96aa7b	-0.018391838
23	0x3e00e372	0.12586764
24	0x3d770ce8	0.060315043
25	0x3e0d5a86	0.13804063
26	0x3d5fd7d8	0.054649204
27	0xbd377e43	-0.044798147
28	0x3e461373	0.19343357
29	0xbc8cefc1	-0.017204167
30	0xbddfc54f	-0.109263055
31	0x3d4f8553	0.050664257
32	0xbc8a5588	-0.016886488
33	0xbe26c5ba	-0.16286364
34	0x3cabf750	0.020991951
35	0xbd7dd963	-0.061974894
36	0xbdbcc13a	-0.092165425
37	0xbda4aa9e	-0.08040355
38	0xbda00843	-0.07814076
39	0xbd8dc08e	-0.069214925
40	0x3cc4e2e7	0.024033977
41	0x3e4c2c87	0.19938861
42	0xbddbfcbd	-0.107415654
43	0xbdbcb9a9	-0.09215099
44	0xbe132a99	-0.14371718
45	0x3bfe1814	0.007754335
46	0x3d036931	0.03208274
47	0xbe06c082	-0.13159373
48	0x3dcf29ca	0.101153925
49	0xbe38496a	-0.17996755
50	0x3e42342c	0.18965214
51	0x3d16f6d8	0.036856502
52	0xbc8ccd91	-0.017187865
53	0xbd8f3efd	-0.06994436
54	0x3dcb94d0	0.09940493
55	0x3e0d8f71	0.1382425
56	0xbe04367a	-0.12911406
57	0xbd678e7c	-0.056532368
58	0x3e13493c	0.14383405
59	0xbd422f1d	-0.047408212
60	0xbe1a76e0	-0.1508441
61	0xbd68d5fb	-0.056844693
62	0x3b971e48	0.004611764
63	0xbcf42247	-0.029801501
64	0xbdf9ed12	-0.12203421
65	0xbe03fec8	-0.1289016
66	0x3d70e251	0.058809582
67	0x3e14afef	0.14520238
68	0x3e3c3b16	0.18381914
69	0xbc0cce3b	-0.008594091
70	0x3dc4c3ab	0.09607633
71	0xbe2007c5	-0.15627964
72	0x3ddf7df4	0.109126955
73	0x3e4e251e	0.20131347
74	0x3de21d6e	0.110407695
75	0xbda1cc49	-0.079002924
76	0x3e351957	0.17685448
77	0xbe40ad43	-0.18816094
78	0xbc61e488	-0.013787396
79	0xbd784924	-0.060616627
80	0xbe437a61	-0.19089653
81	0xbe00d8c4	-0.1258269
82	0xbe19bde8	-0.1501385
83	0x3d27502a	0.040847935
84	0xbcd5e003	-0.026107794
85	0x3dd7e22a	0.10541184
86	0xbd2db2f5	-0.042406995
87	0x3e34eb2f	0.1766784
88	0x3cf009a9	0.029301481
89	0x3e2e00f1	0.16992547
90	0x3e320b08	0.1738702
91	0xbe270029	-0.16308655
92	0xbe119203	-0.14215855
93	0x3e0cacd1	0.13737799
94	0x3e55f5fa	0.20894614
95	0xbe2b9c48	-0.16758835
96	0x3c2abd57	0.010421119
97	0xbd9905d8	-0.07471818
98	0x3e41dec1	0.1893263
99	0x3e268b93	0.16264181
100	0x3e1aa9d5	0.15103848
101	0x3ddcda04	0.10783771
102	0xbc0a098a	-0.008425126
103	0x3e350a7b	0.17679779
104	0xbdbae0b3	-0.09124889
105	0x3a948466	0.0011330962
106	0xbd774582	-0.060369022
107	0xbe23d11e	-0.1599774
108	0xbdcf2c6c	-0.10115895
109	0x3d774310	0.06036669
110	0xbc90c86c	-0.017673694
111	0xbdfcc692	-0.12342562
112	0xbc2f0f91	-0.010684864
113	0x3d0e9873	0.034813356
114	0xbe0ab4a1	-0.13545467
115	0x3dff6a0b	0.12471398
116	0xbe30b121	-0.1725507
117	0x3c968f02	0.018378738
118	0xbe15c0d7	-0.14624344
119	0xbe35e975	-0.17764838
120	0xbcae3fc1	-0.021270635
121	0x3e42e935	0.19034274
122	0x3e46f630	0.1942985
123	0x3d8fdf77	0.070250444
124	0x3e28fa10	0.16501641
125	0xbddd64ac	-0.10810217
126	0x3dffdbc4	0.12493089
127	0x3de70215	0.11279694
128	0xbe3d615f	-0.18494175
129	0xbe286d7a	-0.16448012
130	0x3da867c0	0.08222914
131	0x3bb952dc	0.0056556296
132	0xbe13c946	-0.14432248
133	0xbe1764b7	-0.14784513
134	0x3e17b0f1	0.14813592
135	0x3d0a351e	0.033742063
136	0x3c18c17e	0.009323476
137	0xbe45effb	-0.19329827
138	0x3e3ead14	0.18620712
139	0xbe0017de	-0.12509105
140	0x3daf11d1	0.0854832
141	0xbc07ffcf	-0.008300736
142	0x3cc6e319	0.02427821
143	0x3dd55cb8	0.10418075
144	0xbd51993c	-0.051171526
145	0xbd4919ca	-0.04909686
146	0x3e27717e	0.16351888
147	0xbe1c3d46	-0.15257749
148	0x3dd33fe5	0.10314921
149	0xbd524534	-0.05133553
150	0xbd6a6fb9	-0.057235453
151	0x3dfcb318	0.12338847
152	0x3d27d63e	0.0409758
153	0xbe4cea04	-0.20011145
154	0x3e337526	0.17525157
155	0xbdeb034d	-0.11475239
156	0x3e274263	0.16333918
157	0xbd42b03c	-0.04753135
158	0x3e4e7eec	0.20165604
159	0x3d8ea9e9	0.069660015
160	0xbb5f1b43	-0.003404335
161	0x3da3947b	0.07987305
162	0x3b3c92de	0.0028774063
163	0xbdbfb306	-0.09360318
164	0x3dd2877a	0.10279746
165	0x3e16f144	0.14740473
166	0xbbf5d9ac	-0.007502755
167	0x3e48e37a	0.19618025
168	0x3c820883	0.0158732
169	0xbdce3624	-0.1006892
170	0xbdd8659e	-0.10566257
171	0x3e069338	0.13142097
172	0xbd8b2154	-0.06793466
173	0x3e01c505	0.12672813
174	0xbe3bf8fe	-0.18356702
175	0xbb24577d	-0.002507656
176	0xbe07cc22	-0.13261464
177	0x3d757bcd	0.05993252
178	0x3e1fb773	0.15597324
179	0x3d86daf2	0.06584729
180	0xbd9dee1b	-0.07711431
181	0xbe32cfd6	-0.17462096
182	0xbdbb47f9	-0.09144587
183	0xbdd8e30c	-0.10590181
184	0x3e4ba7ac	0.1988818
185	0xbdd4541d	-0.10367606
186	0x3db3cb59	0.0877902
187	0x3e23e553	0.16005449
188	0x3d8a28e6	0.06746082
189	0xbe226af6	-0.15861115
190	0xbb8dc43b	-0.004326371
191	0xbd621b6d	-0.055201937
192	0x3e082b62	0.13297799
193	0xbc32a0f3	-0.010902631
194	0xbbf03539	-0.0073305634
195	0x3e37965d	0.17928453
196	0x3d7268c8	0.05918196
197	0x3dba298c	0.09089956
198	0xbd615c08	-0.05501941
199	0x3df7b743	0.12095501
200	0x3d0e3f9d	0.034728635
201	0xbd4e894c	-0.050423905
202	0x3d0ce0c7	0.034394052
203	0xbe3081f3	-0.17237072
204	0xbb04a847	-0.0020241903
205	0x3dd30fb8	0.103057325
206	0xbe3e63ac	-0.1859271
207	0xbdc5e07d	-0.09661958
208	0x3e087865	0.13327177
209	0x3bfdc46e	0.0077443635
210	0x3b0c33a5	0.0021393087
211	0x3cca7ff0	0.024719208
212	0xbdc5424a	-0.09631784
213	0x3e38798f	0.18015121
214	0xbaf09fb5	-0.0018358143
215	0xbd87a402	-0.06623079
216	0x3ddc92b7	0.10770171
217	0xbe25c1c0	-0.16187191
218	0xbd0fe6f0	-0.03513235
219	0x3c825c03	0.015913015
220	0xbd4a5dc5	-0.04940583
221	0x3de08cec	0.10964379
222	0xbe22d7d1	-0.1590264
223	0xbd856f2a	-0.065153435
224	0xbda13595	-0.07871548
225	0x3e32f800	0.17477417
226	0x3d938a0a	0.07204063
227	0xbe290ecb	-0.1650955
228	0x3d8b34f2	0.06797208
229	0x3c2119fe	0.009832857
230	0x3e4002af	0.18751024
231	0x3dfb6bb4	0.12276402
232	0xbdd660d9	-0.10467691
233	0x3e3a9ad8	0.1822313
234	0xbcd41fb9	-0.025894033
235	0xbd1cb9aa	-0.038263
236	0x3d668df4	0.05628772
237	0x3e5bf1e6	0.21478996
238	0x3da36e83	0.07980063
239	0xbe428230	-0.18994975
240	0xbd7b6a7f	-0.06138086
241	0x3e47dfa6	0.19518909
242	0xbd8da35d	-0.06915925
243	0xbdcdf8a8	-0.10057193
244	0xbe199b3a	-0.1500062
245	0xbde15a2e	-0.110035285
246	0xbdc7b99b	-0.09752198
247	0x3d2062e4	0.03915681
248	0x3db0a705	0.086256064
249	0x3e3aa25d	0.18225999
250	0x3dff2ba9	0.124594994
251	0xbc35cf02	-0.011096718
252	0x3dcb5732	0.099287406
253	0x3e03c457	0.12867866
254	0xbe2f7e63	-0.17138056
255	0x3deb4902	0.114885345

graph_attention.qkv_proj_high.bias f4 [192]
0	0x3de90f37	0.11379855
1	0xbe49d9d5	-0.19712003
2	0xbdee8ef1	-0.11648358
3	0x3db6e8b9	0.08931107
4	0xbe51a65b	-0.20473616
5	0xbd96b663	-0.07359006
6	0xbde2c0f2	-0.11071958
7	0x3dcb6c97	0.09932821
8	0x3beaeb09	0.0071691317
9	0xbe1df137	-0.15424047
10	0x3e1d9982	0.1539059
11	0xbdd54e79	-0.10415358
12	0xbcdce2ed	-0.026963675
13	0x3d78ef57	0.060775127
14	0xbe15972c	-0.14608449
15	0xbce7a4b6	-0.028276782
16	0xbd95bb11	-0.07311071
17	0xbd731322	-0.05934442
18	0xbdaea00a	-0.08526619
19	0x3e02068c	0.1269781
20	0xbdddbdab	-0.10827192
21	0xbe12052d	-0.14259787
22	0x3da2591d	0.07927153
23	0x3d6e2212	0.05813796
24	0xbbc1c92a	-0.005913873
25	0x3c118c73	0.008883583
26	0x3e45abec	0.19303864
27	0xbda29345	-0.07938246
28	0xbe409862	-0.1880813
29	0xbe53e944	-0.20694453
30	0x3d328306	0.043581985
31	0x3d8bf471	0.06833733
32	0x3c2461c9	0.010033079
33	0xbe224775	-0.15847571
34	0xbe171b2a	-0.14756456
35	0xbe0005b9	-0.12502183
36	0x3e093c54	0.1340192
37	0x3d2d610c	0.04232888
38	0xbde3f369	-0.11130411
39	0xbe48ce63	-0.1960998
40	0x3df41362	0.119177595
41	0x3baa41f4	0.0051958505
42	0x3e518f3a	0.20464793
43	0xbe1f71a1	-0.1557069
44	0xbe1ed180	-0.15509605
45	0x3d359e30	0.044340312
46	0x3e0c90a6	0.13727054
47	0x3e08e05f	0.13366841
48	0x3e545887	0.20736896
49	0x3e03c67f	0.12868689
50	0x3dcf5f69	0.1012562
51	0xbdecfd80	-0.11571789
52	0x3e53df40	0.20690632
53	0xbdac248d	-0.08405409
54	0x3e0929ea	0.13394895
55	0x3dbdafe9	0.09262068
56	0xbde9d6b9	-0.11417908
57	0xbc337f78	-0.010955684
58	0xbbedc028	-0.007255573
59	0x3e1ed970	0.15512633
60	0x3e231d59	0.15929164
61	0x3d6bac2f	0.057537254
62	0xbddd1f68	-0.10797006
63	0x3d78eabc	0.060770735
64	0x3e1bd882	0.1521931
65	0xbdcb7126	-0.09933691
66	0x3e29f1f2	0.16596201
67	0x3d67ac03	0.056560528
68	0x3de96236	0.113956854
69	0x3d9c8780	0.07643032
70	0x3e073248	0.13202775
71	0xbe3db75f	-0.18526982
72	0x3dcdf075	0.10055629
73	0xbe2c3f47	-0.16821013
74	0xbce54877	-0.027988655
75	0x3e12ad44	0.14323908
76	0xbe24aebe	-0.16082284
77	0xbe21c133	-0.15796356
78	0xbdcc0d28	-0.09963447
79	0x3b9ded12	0.0048195207
80	0xbcbf8b46	-0.02338184
81	0xbe2e26ae	-0.17006943
82	0x3cb92faa	0.022605736
83	0xbd1c4034	-0.038147166
84	0xbdc8eaa3	-0.098103784
85	0x3b2d20a0	0.002641715
86	0x3d8981ea	0.06714232
87	0x3ce8ffb6	0.028442245
88	0xbe08080f	-0.13284324
89	0x3e0ccdbf	0.13750361
90	0x3cf1bb2e	0.0295082
91	0xbdb709b0	-0.089373946
92	0x3e39685e	0.18106219
93	0x3d5f5d89	0.05453256
94	0x3dd3afd3	0.1033627
95	0x3e1abef3	0.15111904
96	0xbbbc3a90	-0.005744286
97	0x3e28ca7b	0.1648349
98	0xbb336616	-0.002737408
99	0x3e2b7340	0.16743183
100	0x3c834e06	0.016028415
101	0x3daac092	0.08337511
102	0x3dd561d1	0.104190476
103	0xbdf2393b	-0.11827322
104	0x3e24f21d	0.16107984
105	0x3c891a5a	0.016736198
106	0x3d889b2a	0.0667022
107	0xbe0f6925	-0.14004953
108	0xbd9385c8	-0.07203251
109	0x3e1b251e	0.15150878
110	0xbe07738a	-0.13227668
111	0x3cc4fc7d	0.024046177
112	0x3e3b36a8	0.18282568
113	0xbe416efb	-0.18889992
114	0x3c39f1eb	0.011349182
115	0x3d12344c	0.035694405
116	0x3e15277b	0.14565842
117	0xbd7c7534	-0.06163521
118	0xbe41b8dc	-0.18918175
119	0xbde7481c	-0.11293051
120	0x3d84bb4c	0.064810365
121	0xbe198cc7	-0.14995109
122	0xbe22d29d	-0.15900655
123	0xbbdca962	-0.006734059
124	0x3d56ce6f	0.052442964
125	0xbdf73742	-0.120710865
126	0xbd91e894	-0.07124439
127	0x3deb4c5c	0.11489174
128	0xbe11a090	-0.14221406
129	0xbe2d87e2	-0.16946366
130	0xbd854569	-0.065073796
131	0x3e26db13	0.16294508
132	0xbd7992fb	-0.060931187
133	0xbe0ab1ea	-0.13544431
134	0xbe0d2fb8	-0.13787735
135	0xbd4541a2	-0.048158295
136	0x3e0eefc1	0.13958646
137	0x3d9a4302	0.07532312
138	0xbd85f8a4	-0.06541565
139	0xbe30ad2e	-0.17253563
140	0xbdf087e9	-0.11744673
141	0x3d2ea89f	0.04264128
142	0x3e27ec15	0.16398652
143	0x3dd5bd87	0.1043654
144	0xbcd58e16	-0.026068728
145	0x3dd77490	0.105202794
146	0x3c89fb24	0.016843386
147	0x3cc21142	0.02368987
148	0x3dd0e579	0.102000184
149	0xbd553fd8	-0.05206284
150	0x3d6e6323	0.058200013
151	0x3c6276e3	0.01382229
152	0x3d88e6c2	0.066846386
153	0xbd2efb56	-0.04272016
154	0x3e07abb3	0.13249092
155	0xbe3ba3b3	-0.18324165
156	0x3e0ad9fa	0.13559714
157	0xbe2e5ee3	-0.17028384
158	0xbe0a1cbe	-0.13487527
159	0xbe01bca6	-0.1266962
160	0xbcbecd7c	-0.023291342
161	0xbcb30876	-0.02185462
162	0xbe4f8a51	-0.20267607
163	0x3dd8689d	0.105668284
164	0x3d53fe82	0.05175639
165	0x3e4c4a33	0.1995018
166	0xbe176238	-0.14783561
167	0xbe26f3e0	-0.16303968
168	0x3d4364ba	0.047703482
169	0x3e1eec67	0.15519868
170	0x3e082492	0.132952
171	0x3dabd1d2	0.083896294
172	0x3d0d8c3b	0.034557562
173	0x3dd689d3	0.10475507
174	0xbda931bd	-0.0826144
175	0xbe4c1a49	-0.19931902
176	0xbe2aaeed	-0.16668291
177	0xbdff403c	-0.124634236
178	0x3d36f67c	0.04466866
179	0x3e386a70	0.18009353
180	0x3e05bcc0	0.13060284
181	0xbe074bfd	-0.13212581
182	0x3d5fdfcb	0.054656785
183	0x3e35d96e	0.17758724
184	0xba5926de	-0.0008283685
185	0xbd1910c7	-0.037369516
186	0xbdece926	-0.11567907
187	0xbc0bdded	-0.008536798
188	0x3e1d499d	0.15360112
189	0xbd7581f8	-0.0599384
190	0xbd14e334	-0.03634949
191	0x3dd908f7	0.10597413
