optim_results/models/trial_1_best.pt (torch, 411083 bytes, 58 tensors)

feature_extractor.depthwise.weight f4 [1, 1, 5]
00000000: c26b 633e 2960 423e 954b a2be aac7 973e
00000010: afa3 babe
0.22209075 0.18981995 -0.3169829 0.2964452 -0.36453006

feature_extractor.pointwise.weight f4 [8, 1, 1]
00000000: ac2c abbe ed37 9f3e 64c4 113f 3ede e9be
00000010: 7e81 0e3f c36e 113e 49f8 e33e 9d28 053e
-0.3343252 0.31097355 0.56940293 -0.4567737 0.5566634 0.14202408 0.44525364 0.13003774

feature_extractor.pointwise.bias f4 [8]
00000000: c7a8 4c3e abb7 e1ba 1202 ed3e 8d57 2e3b
00000010: 5276 3fbe f267 113d 4133 3abe f533 bfb9
0.19986258 -0.0017220875 0.46290642 0.0026602477 -0.1869748 0.03549952 -0.18183614 -0.0003646907

feature_extractor.bn2.weight f4 [8]
00000000: b206 843f fe4e 803f 0efb 7f3f 9e26 823f
00000010: 2f81 803f 1815 803f 23d1 803f 4fc8 803f
1.0314543 1.0024107 0.99992454 1.0168035 1.0039424 1.0006437 1.0063823 1.0061129

feature_extractor.bn2.bias f4 [8]
00000000: 69f4 c3bd 09bc f83c 5593 a63c 9e98 e8bd
00000010: c601 cc3c a53c e13d 6ed9 5a3d 2009 993d
-0.09568102 0.0303631 0.020333925 -0.113572344 0.02490319 0.10997895 0.053430013 0.074724436

feature_extractor.bn2.running_mean f4 [8]
00000000: 9e73 943d deca f23d b759 2f3f 8de1 31be
00000010: 778c db3c 9fa1 ba3d ff56 36bc 1444 4b3d
0.07248615 0.118551 0.6849627 -0.17371197 0.026800377 0.09112858 -0.01112914 0.04962547

feature_extractor.bn2.running_var f4 [8]
00000000: b3b5 a43c 6797 8f3c e139 703d cd2a 1a3d
00000010: 26aa 653d 6f1e 6f3b 19f1 123d 496b 463b
0.020106172 0.017528249 0.058648948 0.037638474 0.05607047 0.0036486646 0.03587446 0.003027635

feature_projection_low.weight f4 [16, 160]
00000000: b6a0 17bd da7c 6c3d 3271 bcbc 0283 97bc
00000010: 42b6 81bc cf43 52bd 1593 863b 1d60 a1bd
00000020: f69e 7a3d 03eb 8bbd ef96 563d a94b 0c3b
00000030: 7125 f9bc cd89 293d da0e 093c 5f4b 713d
00000040: eb5a 523c 7e74 a3bc 6e71 1ebd 6b0c fbbc
00000050: 2c45 db3c 760e 843d 54e2 0d3d 1236 29bd
00000060: ab74 233d d971 2e3c 4897 1f3d a5fa 45bd
00000070: a918 a5bd 663e 11bd 5c07 93bd 7e08 623d
00000080: 3fcb 0b3c f1ab d83c ed18 8d3c 7700 9dbb
00000090: 57a6 5b3d d2e5 57bd 14af 17b9 89dc 16bd
000000a0: 5748 963c 74d9 04bd a429 4b3c 215b bebc
000000b0: bea1 733d e286 4fbd 7214 48bd dc90 3bbd
000000c0: 49ed 8d3d b748 bd3c 3e4c 883d 86c9 9abd
000000d0: fc6e bbbd 1455 8fbd eab4 80bd 421a ed3c
000000e0: 674c a13c 7c72 8b3d 7c99 34bd 6b31 0ebd
000000f0: 1031 e83c f034 e2bc 71c3 ac3d de33 acbb
00000100: e1d3 563d 5352 73bd 68a1 1fbd 311b 893c
00000110: 3361 6f3c 86ba bdbc b158 203d 128a 3b3d
00000120: 9fc8 65bd 1d8e 34bd d50f 8a3d 4f8d ecbc
00000130: 3a02 ccbc 2564 95bd 1371 d0bd 37ab 673c
00000140: 6c7e 7fbc ec77 82bd 18fb 03bc 3c52 78bd
00000150: 2c4e 98bd 9ba2 42bd cfac 94bd a8fe 4bbd
00000160: a45a 9f3d 1d48 273c f930 603c 9b5b acbd
00000170: 16df 87bd 5471 0bbd f7ef 5f3b 62aa 94bd
00000180: c715 33bd acaf 2ebd d735 cbbb 6b80 45bc
00000190: cb5e 42bc 7cc1 73bd 2656 87bd e193 56bd
000001a0: 6b87 07bd 94d9 83bd 4a6b 873d 6875 6dbc
000001b0: ca1d 893d f188 a93c fb70 9fbd b6d6 2d3d
000001c0: 69ec 14bd 0c6c 1dbd ca2e 97bd 536d a6bd
000001d0: 0390 503c 48f5 81bc d861 d03c f0c0 3abd
000001e0: b36d 4e3d 83b8 82bd 1632 d5bc 4387 203c
000001f0: 7bf2 0a3d 46e9 7d3d c513 903d 0c75 82bd
00000200: 86ff 923c d8ed 1bbd d5a0 9fbc 7992 8abd
00000210: 58b2 673d dee4 86bd 1b26 093d afb3 c63c
00000220: f686 8c3c 9152 22bd 8d04 843d 0ac2 023d
00000230: 0619 643b 8ec0 9abd 5b74 b73c 7e3e 92bc
00000240: 098d 2fbd 4e4c 853d 67c3 8b3c c9c4 30bd
00000250: a0b9 28bd 95ab fbbb a465 0a3d 600a 00bd
00000260: 8fde 72bd 57e8 0dbd e5eb 8bbd c8de d63c
00000270: 0787 583d 8424 92bd 7263 463c 5467 6b3d
00000280: 8b62 4c3b d44b 7cbc f505 cf3d 8fb3 923d
00000290: 4604 1f3d d3a1 8ebc 918b bbbc f8c2 f33b
000002a0: 5946 c6bc 6d12 00bd 5bd3 233d 3bad 633d
000002b0: e093 85bc 2d99 cebc 47dd 3fbb ddef 56bc
000002c0: 6570 b03c 2d66 cd3c daa2 ffbd 8091 0abd
000002d0: d522 623d 4923 293c 58af 4ebd a7c4 99bd
000002e0: 94cc 86bd d6ed 9cbd a452 ccbc 32c9 ef3c
000002f0: ffb9 523d 70fd 0f3d 2d7f 96bd 1813 4ebd
00000300: ee7f adbc 7199 913d f366 a33b b31b a2bc
00000310: af70 d53c 4f55 11bd 1753 5fbd c100 6a3d
00000320: 87b8 22bd 171d 0cbd b38c 01be 7fa4 e63c
00000330: 32bc 2c3d c04e b33c 9384 60bd 53ec 98bd
00000340: 7fb2 82bd 4d03 6e3d 46aa 0e3d a85a 813d
00000350: 2aee 073d 3922 583c 1509 e7bb 1be4 72bd
00000360: fdb7 99bd 0302 a3bd c1bc e73c 944a 1bbd
00000370: 666c 0abd 295c 10bd b87f 273d 767e 06bd
00000380: 5c36 12bd 16ba fe3c 73ae a7bc 230c 233d
00000390: 4d64 efbc c72a 80bd 8f41 a4bc c495 30bd
000003a0: bd63 bbbc 24cf a5bd 3ec3 0d3d b052 75bd
000003b0: 5207 163d 16ce 033d 128a 963b fb12 82bd
000003c0: 9381 3b3d 0f56 67bd 4521 81bc 4044 493d
000003d0: 5873 f9bc ecf5 e6bb 8b1f 90bc d33d 80bd
000003e0: 0ed6 203d e903 a6bd 3c49 3a3d 7e7b 603d
000003f0: 3392 863d 9113 c9bc 189a 91bd 1e3e 913c
-0.0370185 0.057736255 -0.023003194 -0.018495087 -0.015833978 -0.0513342 0.004106889 -0.0787966
0.061186753 -0.06831934 0.052390035 0.0021407402 -0.030413361 0.041391183 0.008365357 0.05890977
0.012839059 -0.019953009 -0.038682394 -0.03064557 0.026766382 0.06448071 0.03463967 -0.04131133
0.039906185 0.010647261 0.038962632 -0.048334736 -0.08061344 -0.0354599 -0.07179138 0.05518388
0.008532344 0.026449176 0.0172238 -0.004791315 0.05362543 -0.052709408 -0.00014465704 -0.036831412
0.018345041 -0.032433942 0.012400065 -0.023236813 0.05948042 -0.050665744 -0.048847623 -0.045792446
0.06930024 0.023105962 0.06655167 -0.07557969 -0.09152028 -0.06998649 -0.062845066 0.028943185
0.019689752 0.068089455 -0.044091687 -0.034715097 0.028343707 -0.027613133 0.08435715 -0.0052552065
0.052448157 -0.059404682 -0.03897229 0.016736599 0.014610576 -0.02316023 0.039147083 0.04578597
-0.05609953 -0.044080842 0.06741301 -0.028875975 -0.024903405 -0.07294492 -0.10177817 0.014139942
-0.015594106 -0.063705295 -0.008055471 -0.0606253 -0.07436785 -0.047518354 -0.07259523 -0.049803406
0.0778096 0.010210064 0.013683551 -0.0841591 -0.06634347 -0.034043625 0.003417013 -0.072590604
-0.04372194 -0.042648003 -0.0062014866 -0.012054543 -0.011863421 -0.059510693 -0.066082284 -0.052387122
-0.03308813 -0.06437984 0.06612261 -0.014493324 0.06695135 0.020695182 -0.07785221 0.042441092
-0.03635827 -0.03843312 -0.07381971 -0.08126321 0.012729648 -0.01586403 0.02543728 -0.045594156
0.050397586 -0.06382849 -0.02602486 0.009797874 0.033922654 0.061990045 0.07035021 -0.06369981
0.017944109 -0.038068622 -0.01948587 -0.06766219 0.056566566 -0.06586622 0.033483606 0.024255602
0.017154198 -0.039629523 0.064461805 0.03192333 0.0034804954 -0.07556258 0.02239435 -0.017852064
-0.04285911 0.065086946 0.017060949 -0.04315642 -0.04119265 -0.0076803663 0.03378834 -0.031259894
-0.05929428 -0.034645405 -0.06832103 0.026229277 0.052863147 -0.07135871 0.012108671 0.05747159
0.0031186666 -0.015398938 0.10108558 0.07163154 0.038822435 -0.017411148 -0.022893699 0.0074390136
-0.024203466 -0.031267572 0.039996486 0.055585127 -0.016305864 -0.025219524 -0.0029276179 -0.013118711
0.021537969 0.025073135 -0.12482233 -0.033830166 0.055209 0.010323354 -0.05046019 -0.075082116
-0.06581989 -0.07662551 -0.02494175 0.029270742 0.05144691 0.035153806 -0.073484756 -0.050311178
-0.021179166 0.07109345 0.0049866377 -0.019788599 0.026054708 -0.035481747 -0.0545226 0.057129625
-0.03972676 -0.03420743 -0.12651329 0.02815461 0.042171665 0.021888137 -0.054813933 -0.0746695
-0.06381702 0.058108617 0.034830354 0.063161194 0.033186115 0.013191753 -0.007050643 -0.05929957
-0.07505796 -0.07959368 0.028288247 -0.03791292 -0.033794783 -0.03524414 0.040893286 -0.032835446
-0.035696372 0.031094592 -0.020468926 0.039806496 -0.029222632 -0.06258159 -0.020050792 -0.043111578
-0.022874707 -0.080961496 0.034610026 -0.05989331 0.036628075 0.03217896 0.004594096 -0.063512765
0.04577787 -0.056478556 -0.015762934 0.049137354 -0.030450508 -0.007048359 -0.017593166 -0.06261792
0.03926664 -0.081062146 0.045479998 0.05480527 0.06570854 -0.024545463 -0.07109469 0.017729815

feature_projection_low.bias f4 [16]
00000000: 2921 953d 5306 3dbd e117 c1bc dd8a 90ba
00000010: 319c 87bc 6d11 6dbc 0181 853d a9a6 eebc
00000020: 38a4 60bd ec16 c53a 0134 6e3d 96da cd3c
00000030: 60ba 4b3d 6e0b 123c ea76 8a3d f39a 163d
0.072817154 -0.04614861 -0.023570957 -0.0011027713 -0.01655397 -0.014469487 0.06518746 -0.029132204
-0.05484411 0.0015036738 0.058155064 0.025128644 0.049738288 0.008913858 0.06760962 0.036768865

feature_projection_high.weight f4 [64, 16]
00000000: d5b8 313e f647 91b9 d6d1 6dbe f8df f2bd
00000010: ca86 953d db5c 403e 6ed0 f4bd 0b7e 493e
00000020: e3de 193d c6ec 3abc e3f0 df3c c820 0bbd
00000030: c204 623e 1d1f 5b3c c02d 103e 88bc 6abe
00000040: 53d0 f2bd 015b 0b3d eaa7 523e 4810 003e
00000050: cba8 f03c 1db6 84be 3add 3e3c 596b 1cbe
00000060: 83fa 55be a105 3c3c aec4 1bbe dd03 6f3e
00000070: c23e 06be 1331 9c3d 4a19 083e 951e 5dbe
00000080: ba41 163e 17ec 57bd 606b 163e d785 7b3e
00000090: c133 cebd 953e d7bd f401 5e3e 72dc ee3c
000000a0: 92ad 88bc 0cac 4b3e 0eb4 33be 0fb9 f2bb
000000b0: c0f1 3c3e 46f6 b33d 5465 23be d8de 863d
000000c0: 180c 49be e57f 08be 7e9a 273e 3876 97bd
000000d0: 8e93 0ebe 718f 453b 8985 893d d701 09be
000000e0: 7596 2abe 3f96 7ebe ede4 a13d 3062 28be
000000f0: bf35 8d3c 84db 41bd d0f9 22be cde8 a6bd
00000100: 0709 42be 904b 05be 53da b6bb 26a8 58be
00000110: 7664 64be 5213 2e3e a2ff 9f3c eca9 e6bd
00000120: 003d 51bc 1a0b 433e 5f03 5dbe 8818 0abe
00000130: 9fe1 34be 6f58 0cbc c433 4fbb a550 48be
00000140: 7410 273e 0bc4 48be fff4 663e afb0 2fbe
00000150: ba37 15bd e325 533d 849e 8abd 28e6 933e
00000160: 082e 2bbe 586d 743c 3259 4cbe 8f20 a73d
00000170: bdd6 663e 023f 673e 0f8e 333d bd28 1fbe
00000180: 634d 833e 7b04 4f3c 024a 013e cbd9 40be
00000190: 21d1 00be 9f06 8cbe c131 4a3e 734c b63d
000001a0: 5db8 42be d2a2 b83d 6e4a dfbd ef52 d9bc
000001b0: 4c93 683d d9ef 2abd e7e9 ad3d ab03 1fbe
000001c0: d718 603d 3a1d 84be 8755 423d b66d 7d3e
000001d0: 8dff 763e b2ef af3d 9b73 573e 2ec4 7d3e
000001e0: 039e a23d eaff cd3d f580 a63c 55b6 513e
000001f0: 8f23 5c3e a151 f8bd 9464 40bb 14bb e9bd
00000200: fd95 9e3d 29d6 73be c7a4 ad3d 9139 81bd
00000210: 0c18 803d 762f a13d 1d9b 07be 50b6 073e
00000220: 8600 bd3d a708 63be c414 923e dc06 603e
00000230: df6e 143e 85f3 aebc 029b a53d 1d30 0ebe
00000240: c3af 9ebd 47bb d73d bcab c83d b98f 843d
00000250: c6c5 7ebe 6f1a 0d3e 151c 19be 62e6 783e
00000260: def7 373e e824 f73d 3c86 7f3e 4c0d eb3d
00000270: fb95 fe3d ec06 2dbd 9119 7a3e b0bf 923d
00000280: 0231 fd3d 5c81 77bd f4f5 443e ce23 683e
00000290: 3fa2 45be 7e0c 363e 16c8 27be 967e 22be
000002a0: b293 55be f304 853d e499 38be 2d9f c1bd
000002b0: 5b50 e5bd 3d2a 953d 22b6 82be 52ca e8bd
000002c0: 8297 823a 1182 0f3c 219c 04be a056 7c3d
000002d0: b89f 14be 0d8f 63be e8c1 31bd d163 06be
000002e0: 3847 1c3e 6b3b 33be 4a73 70bc 52db da3d
000002f0: 0ddd 7bbe c6cc 5e3e ae52 0bbe 53f5 57bd
00000300: 2290 1dbe e055 c9bd 9cfa a8bd 08fa 5bbe
00000310: f0dd ee3d a9da 043c 30f3 8a3e 1f3f 283e
00000320: d2c1 733e dc1e 9b3d 6e03 c03d 91b9 6e3e
00000330: 606a 5e3e 9422 51be 6d34 62bd 2f46 81be
00000340: 908f 523c ef45 abbd 2f0b 5e3e 5744 0f3d
00000350: bb74 1d39 1d5d 30be 6a70 46be 9240 363d
00000360: 328d f1bd 12e5 e8bd 0f8c 2e3e 9f88 04be
00000370: e423 dfbd 2393 413e 43c9 ca3d 2039 0ebe
00000380: 55fb aa3d ad78 123e 85a3 6abe a286 413d
00000390: fa50 f33c c13c 4fbb 19ac 6a3e d808 2ebe
000003a0: 2bb8 ed3d 2a43 15be d423 33be 1da4 333e
000003b0: 5d62 febd caf1 843c a5f9 e83d d138 55be
000003c0: b8b0 60be 2d2a 5d3d a1c1 643e 131d 9abc
000003d0: 5705 373e bddd d53d aae5 a13d 0a5c 30be
000003e0: 4058 733e 6d53 e93d b4cd 113d 6312 463e
000003f0: 7d88 57be 0ff6 303d 063f f9bd 2d6f f8bc
0.17355664 -0.0002771017 -0.23224577 -0.11859125 0.073010996 0.18785422 -0.11953817 0.19676988
0.037566077 -0.01140899 0.027336543 -0.03396681 0.22072127 0.013374117 0.14079952 -0.22923481
-0.11856141 0.034022335 0.20571867 0.12506211 0.029377362 -0.2592019 0.011649424 -0.15275325
-0.20896344 0.011475951 -0.15211746 0.23341317 -0.13109878 0.07626548 0.13290897 -0.21593697
0.1467351 -0.052715387 0.14689398 0.24562775 -0.10068465 -0.105099835 0.21680433 0.02915785
-0.016684327 0.1988985 -0.17549154 -0.0074073146 0.18451595 0.08787207 -0.15956622 0.06585473
-0.1963352 -0.13330038 0.16367528 -0.07395595 -0.13923475 0.0030145312 0.06714923 -0.13379608
-0.16658957 -0.24862002 0.07904992 -0.16443706 0.017237542 -0.047328487 -0.15915608 -0.08149872
-0.18948756 -0.13017106 -0.0055802255 -0.21157894 -0.22303948 0.16999558 0.019531075 -0.11262879
-0.012770891 0.19047204 -0.21583317 -0.1348592 -0.17664193 -0.008566006 -0.0031616548 -0.19562013
0.1631487 -0.19606034 0.22554396 -0.17157243 -0.036430098 0.051549803 -0.06768516 0.28886533
-0.16716778 0.014918648 -0.199559 0.08160507 0.22542854 0.2258263 0.04383665 -0.15542884
0.2564498 0.012635346 0.12625888 -0.18833081 -0.12579776 -0.27348801 0.19745542 0.089013
-0.19015642 0.090154305 -0.10902868 -0.026528804 0.0567811 -0.041732643 0.08491879 -0.15528743
0.05471119 -0.25803548 0.047444846 0.24748883 0.24120922 0.0859064 0.21040194 0.24781868
0.079402946 0.10058577 0.020325163 0.2047971 0.2149794 -0.121249445 -0.0029356824 -0.114126354
0.07743452 -0.23812164 0.084786944 -0.06309808 0.062545866 0.078703806 -0.13242765 0.1325314
0.092286155 -0.2217127 0.28531468 0.21877617 0.14495419 -0.021356354 0.08086206 -0.13885541
-0.07748368 0.10533767 0.09798381 0.064727254 -0.24880132 0.13779615 -0.14952119 0.24306634
0.17965648 0.12067586 0.2495355 0.114771456 0.1243095 -0.04224293 0.24423815 0.07165468
0.12362863 -0.0604261 0.19234449 0.22669908 -0.19300173 0.17778203 -0.1638492 -0.15868601
-0.20857123 0.064950846 -0.18027455 -0.094541885 -0.11196967 0.07283447 -0.2552958 -0.113667145
0.0009963366 0.008759038 -0.12950183 0.06160605 -0.14514053 -0.22222538 -0.043397814 -0.13124014
0.15261543 -0.17503135 -0.014675925 0.10686363 -0.24596043 0.21757802 -0.13605759 -0.052724194
-0.15387014 -0.098308325 -0.08250925 -0.21482098 0.11663425 0.008108773 0.27138662 0.16430329
0.23804405 0.07574245 0.09375654 0.23312975 0.21720266 -0.20423347 -0.05522578 -0.25248858
0.012851611 -0.08362948 0.21683954 0.034977283 0.00015016172 -0.1722302 -0.1937882 0.044495173
-0.11794509 -0.11371817 0.17045616 -0.12942742 -0.108955175 0.18903784 0.09901669 -0.13888979
0.08348719 0.14303847 -0.2291394 0.047247536 0.029701699 -0.0031621906 0.22917213 -0.16995561
0.11607393 -0.14576402 -0.17494136 0.17543073 -0.12421105 0.016228575 0.11375741 -0.20822455
-0.21942413 0.0539953 0.22339489 -0.018812692 0.1787313 0.10442684 0.07905133 -0.1722261
0.23764133 0.11392865 0.035596564 0.19342951 -0.2104816 0.04320341 -0.12170224 -0.03032645

feature_projection_high.bias f4 [64]
00000000: 11f6 a33d bb32 103d 4266 313e b147 953d
00000010: b326 67bd eed9 0ebe 1b8c 13be 0bb6 083e
00000020: 579e 0a3e e1b0 f6bd 21bc 763d 4300 a5bd
00000030: 2612 513e 241d ccbd 34a4 503e 1203 2d3e
00000040: 7a2a 0e3e 1dc4 283e 4501 973d e514 a23d
00000050: 459b 38be 031e 64bd 3e40 d1bb acdf d13d
00000060: 8184 c3bd a7b7 de3d fe6f 2f3e e12f c03d
00000070: eee5 ee3d 3af2 ccbc 1393 d13d 2ba5 80bd
00000080: 45e4 593e 9fd0 583c 6bfb b2b8 216e 23be
00000090: 7a26 5a3e 4aa9 88bb d4d3 323e a553 0dbe
000000a0: 23c6 28be 1be2 1f3b d32a 4cbe bd11 bb3d
000000b0: 9cc1 bf3a 9b8a 4fbd a65f 1c3e 7642 213e
000000c0: cf20 f5bd c414 22be e244 0a3e 4331 aabd
000000d0: 2654 1d3d f379 41bd 6d45 483d 3973 cdbd
000000e0: f98c 143c e0b0 91bd 70c8 3cbd b652 d4bd
000000f0: 51e1 8e3d 850c 193e 342f 9d3b a374 363c
0.08005918 0.03520463 0.17324165 0.07289065 -0.05643339 -0.13950321 -0.14408915 0.13350694
0.13536964 -0.12045456 0.060238007 -0.080566905 0.2041708 -0.09966496 0.20375139 0.16895702
0.13883391 0.16481061 0.07373289 0.079141416 -0.1802798 -0.055692684 -0.006385832 0.1024774
-0.095467575 0.10874873 0.17132565 0.09384132 0.11664949 -0.025017846 0.1023313 -0.06281503
0.21278484 0.013233333 -8.534532e-05 -0.1595998 0.2130374 -0.0041705715 0.17463619 -0.13801439
-0.16481833 0.0024396244 -0.19938211 0.09134243 0.0014629844 -0.050669294 0.15270862 0.15748009
-0.11969148 -0.15828234 0.13502839 -0.08310177 0.03841033 -0.04723544 0.048894335 -0.100317426
0.009066814 -0.07113814 -0.04608959 -0.10367338 0.069765694 0.14946182 0.004796887 0.011136207

feature_norm.weight f4 [64]
00000000: 2923 803f dbcf 7c3f 92bb 813f 8d54 7f3f
00000010: 8c26 7d3f f5b1 7d3f 5fca 793f c863 813f
00000020: 0ed4 7e3f 7afd 7a3f 2c76 7e3f 8e1f 843f
00000030: 8cb5 7f3f d26d 7e3f 9d91 7e3f 291d 7c3f
00000040: 9104 823f 4938 7d3f 74be 803f b71e 803f
00000050: 2cdf 823f afa7 7f3f 1481 7e3f 038d 7e3f
00000060: 3d6a 813f 7eed 7f3f c360 7d3f 81b2 803f
00000070: fd80 803f b29f 7f3f ce61 7b3f bcba 7f3f
00000080: 8848 803f e9d7 7d3f b243 823f 5ce6 783f
00000090: a4bf 7c3f 4175 7d3f ea7e 803f 9747 7f3f
000000a0: d2c0 7e3f 49a4 7e3f fdf7 823f 58c5 823f
000000b0: 044d 7c3f 2ebf 7f3f c2ba 7e3f 261c 803f
000000c0: 5ebe 763f 8fd0 643f d632 813f d3b5 793f
000000d0: 89bb 843f 5375 7d3f c2c7 813f b098 803f
000000e0: 5ecc 823f 6b6d 813f f402 5d3f 3607 813f
000000f0: 13e1 7e3f dda3 803f 3eff 783f 16eb 853f
1.001073 0.9875466 1.0135367 0.9973839 0.9888694 0.99099666 0.9757442 1.0108576
0.9954232 0.98043025 0.99399066 1.032213 0.99886394 0.9938632 0.9944094 0.98481995
1.0157644 0.9891401 1.0058122 1.0009373 1.0224357 0.9986524 0.9941571 0.99433917
1.0110546 0.9997176 0.9897577 1.0054475 1.0039364 0.9985305 0.98196113 0.9989431
1.0022135 0.9915758 1.0176909 0.972265 0.9872992 0.9900704 1.0038731 0.9971861
0.9951297 0.9946943 1.023193 1.0216475 0.98555017 0.9990109 0.9950372 1.000859
0.9638423 0.89380735 1.0093639 0.97543067 1.0369731 0.9900715 1.0139086 1.0046597
1.0218618 1.0111517 0.8633263 1.0080326 0.99562186 1.0050007 0.9726447 1.0462368

feature_norm.bias f4 [64]
00000000: 021a efbb f830 92bc b3ef cfbb d47d ff3b
00000010: 7c52 61bb 18d2 f3bb e5b7 87bb 389e 153b
00000020: 8b80 da3b 2956 23bc 54c8 43ba f1d3 a93c
00000030: d568 82bc 82d6 16bc 153f 1839 2f8e c1bb
00000040: cb99 b0ba 1802 8fbb 8513 90bb 3bb1 9f39
00000050: c1ba 783c 9e00 993b 9bc7 34ba 104c d43a
00000060: f07f 013b 2f9e 37bc 9f83 9bbb 8b56 8cbc
00000070: e8f2 8dbc ca6c 38ba df1c 32bc 0f73 c03b
00000080: 7657 673c 0033 c3bb edd9 da3c a636 48bc
00000090: 87e7 32bb 45e3 b5bb 647b a7bc 4f9a 70bb
000000a0: 21b3 b5ba 90a0 82ba 9e3b d33b dc56 993c
000000b0: 9f34 3cbc cbbf be3b 516a 92bb 637c 993b
000000c0: dba6 5bbc 9c1d a83c 54e7 60bc 90fb 26bc
000000d0: 3929 35bc 47c5 2d3c 61b0 e63b b043 873b
000000e0: d43b 823b 3689 a0bb fd46 343b 4926 4d3c
000000f0: 213a e93a a30a 8dbc f134 84ba 9b02 8d3c
-0.0072968015 -0.017845616 -0.006345713 0.0077969823 -0.003438144 -0.0074408166 -0.004141795 0.0022829901
0.0066681555 -0.009969273 -0.0007468511 0.020730944 -0.015919128 -0.009206416 0.0001451935 -0.005906842
-0.0013473568 -0.0043642633 -0.004396858 0.0003045889 0.015181244 0.004669263 -0.00068961986 0.0016196985
0.0019760095 -0.0112071475 -0.004745915 -0.01713111 -0.01732774 -0.0007035254 -0.010871141 0.005873091
0.014119973 -0.0059570074 0.026715243 -0.01222006 -0.0027298646 -0.0055507743 -0.02044458 -0.003671307
-0.0013862589 -0.0009966064 0.006446316 0.018718176 -0.011487155 0.0058212033 -0.0044682403 0.0046840175
-0.013406481 0.020521931 -0.013727028 -0.010191813 -0.0110571915 0.010606117 0.007040069 0.004127942
0.003974417 -0.0048991693 0.0027508133 0.012521335 0.0017793813 -0.017216986 -0.0010086579 0.017213156

spatial_module.u f4 [8, 47, 16]
00000000: 7f88 0437 935f 76b1 5219 0eb3 2b94 77b2
00000010: c1e1 d130 b5ab 69b0 717d 7cb4 58d9 4136
00000020: e891 26b2 f054 9531 c2f2 e930 3d77 75b4
00000030: 1b81 922f a0a0 b531 c800 37b3 fc56 73b2
00000040: 2623 efb0 112e 4231 35ad 4035 3dbc dbb6
00000050: dcb7 872e d66d d732 6237 74b2 e826 90b0
00000060: fac5 45b5 5b68 fcb6 fb43 f130 91d4 61b0
00000070: 13df 81b0 f76b ec34 6ab7 2e31 095c 90b5
00000080: 5c68 0ab7 61d1 0eb1 2991 96b1 66c8 9e36
00000090: 34c1 3a2e 5c26 d935 3880 c0b0 55e9 9f30
000000a0: dc18 2bb7 80ff d936 2bea e4b5 5efa c633
000000b0: 06d9 4db1 2734 17b4 eca9 9db0 7745 d430
000000c0: 27c5 9c34 5155 8fb5 5ac4 40b4 a0c4 1431
000000d0: 18fc d5b0 9f0d 87b2 629d 89b0 13d0 96af
000000e0: 2f97 02b6 b822 3231 7a17 96b5 206c fd31
000000f0: de38 152e 9284 7eb1 3290 7b31 f96a 32b6
00000100: 50fe 2136 e8d3 57b4 3113 ceb0 ce97 deb1
00000110: 9501 4630 f98e a1b1 6d0a 38b1 f5fe 2cb0
00000120: 7084 ec33 4198 04b0 8c44 5430 edc9 26b5
00000130: f6e8 94b1 d368 1633 85aa 1eb1 24c5 67b6
00000140: 6957 9fb3 1cee 1232 fa5a 512e b35d 9936
00000150: d2c6 24b7 7bd0 c331 7012 2bb7 193d 42b1
00000160: 46ad 2ab1 d80c 4031 02d9 59af 0fb1 8031
00000170: fa59 fdb2 ae2a 8d32 3576 2331 91b7 74b0
00000180: ab99 4331 af90 0eb1 c7e1 48b1 b35d 93b1
00000190: 383c 6133 b046 4130 c5fa 64b0 5366 3730
000001a0: ce62 2a31 33b7 2f30 7b51 c2b0 9532 a130
000001b0: db17 df31 1195 80b1 f5cc e4b5 1654 bfb0
000001c0: ca1a 8e35 306f 84b0 4624 3fb2 3240 a1b1
000001d0: 228c a730 0611 6d32 f556 4133 0639 1c31
000001e0: eb3a d330 845f 5f35 779f 45b1 1420 ebb1
000001f0: 7bbe 1532 64dc 49b2 3e19 b8b6 0e39 13b3
00000200: 0613 3237 94c8 2331 77c5 bd32 4964 92b6
00000210: 8fb1 cc31 968f 8130 09be a6b6 4863 99ad
00000220: dd73 3232 71e1 e6b4 a5d8 7baf e0b2 c3b1
00000230: 0f16 68b6 95f6 35ad 2874 b633 f45d b930
00000240: a28c 92b1 2da7 3c31 6119 7eb5 56ac 3530
00000250: 9fc7 81b0 40fb bdb1 bf69 9330 a8d5 0bb1
00000260: 7237 b7b1 67f5 ea31 e1e3 80b6 be59 8e32
00000270: 71e3 07b2 01a6 58b3 3a8d 8732 bebf 3c34
00000280: ae13 4cb2 1f98 4931 f51f e2b0 18b0 8b30
00000290: c609 0b34 2925 41b1 4350 73b1 eca7 0931
000002a0: f83d 25b2 3932 f634 5b0a 39b7 d827 db30
000002b0: 03d1 1fb1 81b3 e9b1 305c a1af 240a 6730
000002c0: 8224 e3b1 f325 0531 2d5d 32b3 9849 5032
000002d0: 83d3 3f31 45c0 26b2 c262 bf36 4173 e930
000002e0: 413d 84b4 3bb1 2cb1 344a 7bb1 242d b535
000002f0: e38e c5af e9ba 82b0 dfc9 cb34 6abb 85b6
00000300: a2a7 08b0 6a93 cbb5 7b4e c6b1 6a48 1632
00000310: 6896 b7b6 696d fd31 cc2f c0b0 0b44 b0b0
00000320: e2e9 b7b1 58b0 64b3 5eb4 4e35 38b9 35b0
00000330: 8142 05b1 6bb6 d731 5efa 58b2 b70a c930
00000340: 9a71 1fb6 dc24 0537 09c6 9630 b0cc 97b6
00000350: 7d71 8d30 8ea4 fbb3 7a19 d0b5 5fc8 b0b3
00000360: be1e c830 a491 6730 4755 43b7 d6ad a131
00000370: 41dd b731 f282 afb1 fdc5 deaf 6312 9333
00000380: dc21 4331 dc34 b031 fe89 bab1 ef47 0fb1
00000390: 4111 2cb1 e990 d831 edc1 452f a300 f636
000003a0: d68f 2c37 e7d6 6e31 f59b ddb0 d263 9330
000003b0: e2c2 9eb0 2794 0132 2df4 abb5 749f c3b5
000003c0: 0f26 5231 7e57 8931 1d78 4f32 2483 6d33
000003d0: 1158 37b0 4e0d 2734 cb69 2334 3b93 1bb4
000003e0: 0a80 cd36 4d55 d1b1 b378 66b2 eb72 03b1
000003f0: 87b3 26b3 dacd bc30 ac9a 94b1 e65c ac30
7.899594e-06 -3.585204e-09 -3.308498e-08 -1.4410982e-08 1.5270915e-09 -8.5008917e-10 -2.3514964e-07 2.8885752e-06
-9.695647e-09 4.346127e-09 1.7021977e-09 -2.2860782e-07 2.664898e-10 5.2860543e-09 -4.260872e-08 -1.416424e-08
-1.7399528e-09 2.8256901e-09 7.1777623e-07 -6.5486224e-06 6.171749e-11 2.5079242e-08 -1.4215262e-08 -1.0488437e-09
-7.367631e-07 -7.522334e-06 1.7554379e-09 -8.21566e-10 -9.449387e-10 4.403698e-07 2.5424591e-09 -1.0755622e-06
-8.249739e-06 -2.0782738e-09 -4.3820774e-09 4.7320964e-06 4.2463102e-11 1.6178924e-06 -1.4006281e-09 1.163509e-09
-1.0198182e-05 6.496848e-06 -1.7055476e-06 9.265635e-08 -2.995479e-09 -1.4081944e-07 -1.1471548e-09 1.5444773e-09
2.9200712e-07 -1.0679161e-06 -1.7952826e-07 2.1648603e-09 -1.5569439e-09 -1.5722263e-08 -1.0012793e-09 -2.7432687e-10
-1.945951e-06 2.5922144e-09 -1.1182703e-06 7.3755615e-09 3.3929186e-11 -3.7037222e-09 3.6607273e-09 -2.6586333e-06
2.41389e-06 -2.0100526e-07 -1.4993927e-09 -6.4783086e-09 7.203423e-10 -4.701971e-09 -2.678145e-09 -6.293555e-10
1.10136966e-07 -4.8237686e-10 7.722256e-10 -6.213366e-07 -4.3338515e-09 3.5019934e-08 -2.3088955e-09 -3.4536433e-06
-7.419914e-08 8.552458e-09 4.76019e-11 4.5706634e-06 -9.821453e-06 5.6989484e-09 -1.0196687e-05 -2.8265446e-09
-2.483675e-09 2.7946978e-09 -1.9813132e-10 3.7454195e-09 -2.9493993e-08 1.6433969e-08 2.3786815e-09 -8.9027546e-10
2.8463585e-09 -2.0745963e-09 -2.923217e-09 -4.2889154e-09 5.2441663e-08 7.0313444e-10 -8.330228e-10 6.6720424e-10
2.479442e-09 6.392497e-10 -1.4138516e-09 1.1728668e-09 6.4928662e-09 -3.742237e-09 -1.7046974e-06 -1.3920978e-09
1.0587621e-06 -9.635865e-10 -1.1125911e-08 -4.693015e-09 1.2190677e-09 1.3799086e-08 4.50154e-08 2.2733402e-09
1.5369016e-09 8.321297e-07 -2.8757918e-09 -6.843047e-09 8.716252e-09 -1.1749851e-08 -5.486566e-06 -3.4277996e-08
1.0614056e-05 2.3833637e-09 2.2092292e-08 -4.362814e-06 5.9573675e-09 9.426795e-10 -4.9693085e-06 -1.7438176e-11
1.0387308e-08 -4.300487e-07 -2.2905285e-10 -5.6955827e-09 -3.4583534e-06 -1.0343411e-11 8.496164e-08 1.3487225e-09
-4.2651473e-09 2.745263e-09 -9.4659305e-07 6.609232e-10 -9.442721e-10 -5.5291878e-09 1.0725713e-09 -2.0348612e-09
-5.3323044e-09 6.8381953e-09 -3.841226e-06 1.6571786e-08 -7.909748e-09 -5.04424e-08 1.578029e-08 1.757862e-07
-1.18788375e-08 2.933582e-09 -1.6452747e-09 1.016363e-09 1.294894e-07 -2.810632e-09 -3.5406778e-09 2.0031576e-09
-9.618354e-09 4.5857612e-07 -1.102927e-05 1.5945671e-09 -2.3256355e-09 -6.8015997e-09 -2.9351233e-10 8.405172e-10
-6.61072e-09 1.9375619e-09 -4.1528597e-08 1.2123927e-08 2.7914389e-09 -9.706189e-09 5.7037405e-06 1.6985738e-09
-2.4631484e-07 -2.5130038e-09 -3.6567487e-09 1.3498689e-06 -3.5935618e-10 -9.511868e-10 3.7958577e-07 -3.9855267e-06
-4.971473e-10 -1.5167582e-06 -5.7714806e-09 8.747614e-09 -5.4713346e-06 7.3757076e-09 -1.3983423e-09 -1.2825024e-09
-5.3525904e-09 -5.324577e-08 7.700345e-07 -6.611063e-10 -1.939185e-09 6.278062e-09 -1.2629782e-08 1.462772e-09
-2.375897e-06 7.936e-06 1.0970221e-09 -4.5239794e-06 1.0291356e-09 -1.17180306e-07 -1.5504622e-06 -8.232086e-08
1.4560653e-09 8.424428e-10 -1.1642761e-05 4.7054796e-09 5.3511546e-09 -5.108057e-09 -4.0522244e-10 6.8485654e-08
2.8395482e-09 5.1282836e-09 -5.4290004e-09 -2.0850128e-09 -2.5039102e-09 6.3029018e-09 1.7985942e-10 7.3314454e-06
1.0285488e-05 3.4755716e-09 -1.6124192e-09 1.0724028e-09 -1.1551402e-09 7.542474e-09 -1.2811557e-06 -1.4575039e-06
3.0580656e-09 3.9971715e-09 1.2076296e-08 5.5300134e-08 -6.670016e-10 1.5557927e-07 1.5219045e-07 -1.4489062e-07
6.124382e-06 -6.092398e-09 -1.3415206e-08 -1.9128332e-09 -3.8813166e-08 1.3737307e-09 -4.324951e-09 1.254105e-09

spatial_module.v f4 [8, 16, 47]
00000000: e09c 10b4 2fb5 8531 6699 0232 8b37 99af
00000010: bd2c 7133 2e29 67b2 66e5 e531 ce41 4131
00000020: 18d3 dc32 8800 4f35 c26d 3bad 7d57 ffb1
00000030: 3445 0ab1 717b 33b3 8a06 dc33 5b4e 4eb0
00000040: 37ac 4832 f42f 5331 c6cc f5b0 26a5 40b2
00000050: b499 ebb4 ebce 3335 3484 e931 f2bc 3c31
00000060: 2af8 ae30 aefb b92e 59e1 1b35 7458 0b32
00000070: 19fc c8b1 d164 b5b0 5be0 aeb2 df29 2ab3
00000080: c70e 68b1 0807 f7b0 061b 73b1 1284 1732
00000090: 571d 99b1 a8bb b732 4527 4235 1895 1530
000000a0: c20d c534 4fad 59b1 aff5 a631 23e6 ec31
000000b0: f947 e8b0 38bb 1835 907c 1431 c382 d8b2
000000c0: 791a e9b0 2ac6 8831 861c 08b0 384f 8b32
000000d0: d10f 42b1 d93b 3230 a2f2 c734 54c3 b1b4
000000e0: 129a 7932 4991 93af 3b41 81b4 4e99 b531
000000f0: 9b1d 16b2 4ad3 1833 7c40 f933 dc14 1532
00000100: eae6 59b1 dbd9 87b4 24bb 9831 0ea9 25b2
00000110: 4bd0 afb2 cd85 3cb2 ab5f 49b2 36ef ae31
00000120: 82a3 4b2e 7d30 fa31 71db f0b1 4186 96b1
00000130: b12d 7332 21b5 88b2 8395 0bb6 f51a 1d30
00000140: d0de a5b4 9c90 18b2 9b3a edaf e865 c632
00000150: ee42 a732 0994 e4b1 700b 2432 e0af 94b1
00000160: eb32 6fb1 42fd 12b5 a5c7 8432 eacd edb3
00000170: 3a48 f5b2 91a0 0b32 1b01 3533 5679 9ab0
00000180: ba5f c5b3 f22a b02e f32e 2a32 fa9a 3531
00000190: 7840 e2af 005b a9b5 d9d5 c3b1 fa86 5332
000001a0: a364 772d 69cb f4b5 664e 77b2 13b7 1132
000001b0: d588 d0b0 3b08 4030 2337 f1b1 6d2e 5331
000001c0: 2713 4935 4e05 c933 7a04 41b1 5bf0 b430
000001d0: 91e7 df34 55c6 d4b2 1dba c4b1 e0c6 4dae
000001e0: 546e 3135 12dc 97b5 199a 8ab2 74c7 6fb0
000001f0: f1d9 36b1 e840 ddaf 7439 4fb5 992f bab0
00000200: d905 6031 b6af 3531 b7d4 e8b1 18c5 b032
00000210: 96a5 46b5 0ed4 a032 1554 9bb0 b334 55b4
00000220: fe13 ec31 fe7a 5bb1 d66c 89ad 8b0a f6b0
00000230: bc48 1cb0 7236 f030 0cb1 6f35 8ccc 9730
00000240: 037f 5930 2d7d 2fb2 8d0b d332 042c 5434
00000250: 2d32 9d35 34bd 0e36 128f f232 0807 992f
00000260: 45ef 7f31 3137 83b2 d3bc af32 9e84 83b1
00000270: 991c a7af e45b 0234 bfbe c8b2 fcd1 e9b1
00000280: 3712 90b1 3fcb 7731 8521 a232 9303 9b35
00000290: cbf5 89b2 bef6 8435 9193 40af 43a3 8132
000002a0: bd3e 60b2 6e2e a0b2 bac7 9f31 2474 1431
000002b0: 24f9 edb3 167c 8031 b7d8 76b3 ec5b 9732
000002c0: 9f3b dd35 dd90 bab1 b919 1433 be73 ba35
000002d0: 6ac5 0932 61fa 3333 421c 08b0 67d8 b632
000002e0: 88fd a632 acb9 80b0 92e7 9eb3 cbeb c534
000002f0: 57e6 80b5 2e70 cf31 1b43 26b1 6119 9135
00000300: 6e02 56b5 c885 1a32 6a23 472f 5660 9a30
00000310: c882 9535 0814 d531 0f1a 9534 d9d4 a233
00000320: ff56 25b1 290d 3532 2cba 5fb2 2a24 acb0
00000330: 0bab 4db1 b931 56b2 1e65 0b32 41c2 f62f
00000340: afd2 7d35 8e68 adb1 3a41 6432 6bb7 7eb1
00000350: 6ccc 9b32 c109 98b4 7d30 46ae e006 8331
00000360: ce33 5bb2 8dfe 1cb1 a9d7 1e32 9a3f d3b2
00000370: b2c7 2934 2aa9 a6b1 a9c2 0cae 4694 3d32
00000380: 0374 04b5 8571 6b34 cf00 84b5 57c7 0632
00000390: d79e 6730 e59a 9db0 1487 2a32 05cd 3e32
000003a0: ec84 4a31 0d24 1132 b459 9231 0173 f1b5
000003b0: 58cd 4bb1 0384 7332 501d f6af 174f d431
000003c0: dc47 83b5 e525 b8af 021d 80b2 97dc f5b2
000003d0: 26f6 a733 f9cc 01af f264 c7b1 19fe c635
000003e0: d265 7432 a95c b134 167e a6b4 5e77 b731
000003f0: 5a28 92b0 1095 5db2 d3f3 3db2 5eef 0935
-1.3468116e-07 3.8914076e-09 7.601875e-09 -2.7870004e-10 5.6152874e-08 -1.3455333e-08 6.6908568e-09 2.8122602e-09
2.5707365e-08 7.711428e-07 -1.06540905e-11 -7.431423e-09 -2.012098e-09 -4.1788955e-08 1.0245738e-07 -7.5053713e-10
1.1680689e-08 3.07318e-09 -1.7884296e-09 -1.1213421e-08 -4.3883995e-07 6.69838e-07 6.7962223e-09 2.7465004e-09
1.2730699e-09 8.457533e-11 5.8069924e-07 8.110977e-09 -5.8494263e-09 -1.3198137e-09 -2.0358291e-08 -3.961929e-08
-3.3768843e-09 -1.7973614e-09 -3.5376515e-09 8.819386e-09 -4.4562216e-09 2.138934e-08 7.2327776e-07 5.441776e-10
3.670412e-07 -3.167617e-09 4.859167e-09 6.8946675e-09 -1.6900678e-09 5.689685e-07 2.160764e-09 -2.5205173e-08
-1.6960505e-09 3.9806496e-09 -4.9517046e-10 1.6217754e-08 -2.8239706e-09 6.484107e-10 3.7243177e-07 -3.311094e-07
1.4528739e-08 -2.6842376e-10 -2.4075584e-07 5.285222e-09 -8.737881e-09 3.5582424e-08 1.1606696e-07 8.677684e-09
-3.1708915e-09 -2.530422e-07 4.4450577e-09 -9.642703e-09 -2.0467402e-08 -1.0973463e-08 -1.1721492e-08 5.0912616e-09
4.630208e-11 7.28147e-09 -7.009867e-09 -4.3808375e-09 1.4154851e-08 -1.5914852e-08 -2.0799641e-06 5.7154576e-10
-3.0895762e-07 -8.880445e-09 -4.315169e-10 2.3096575e-08 1.9471795e-08 -6.652503e-09 9.548657e-09 -4.3273616e-09
-3.480802e-09 -5.4757777e-07 1.545761e-08 -1.1073628e-07 -2.8554599e-08 8.127373e-09 4.2143352e-08 -1.123946e-09
-9.19094e-08 8.011182e-11 9.905977e-09 2.642706e-09 -4.1154968e-10 -1.2617966e-06 -5.6995586e-09 1.2312507e-08
1.406267e-11 -1.8238617e-06 -1.4395118e-08 8.481737e-09 -1.5172882e-09 6.986089e-10 -7.0202915e-09 3.0730931e-09
7.4906205e-07 9.360757e-08 -2.808774e-09 1.3165037e-09 4.1705474e-07 -2.477024e-08 -5.7255094e-09 -4.678824e-11
6.6098187e-07 -1.1314426e-06 -1.613539e-08 -8.7231133e-10 -2.660837e-09 -4.0245784e-10 -7.7197114e-07 -1.3546809e-09
3.2599614e-09 2.6438847e-09 -6.7762715e-09 2.0578725e-08 -7.400171e-07 1.8722883e-08 -1.1301632e-09 -1.9856343e-07
6.870777e-09 -3.1938607e-09 -1.562343e-11 -1.7901852e-09 -5.685583e-10 1.7477773e-09 8.9292075e-07 1.1044832e-09
7.9124635e-10 -1.0214802e-08 2.4568886e-08 1.9760051e-07 1.1712015e-06 2.126978e-06 2.8237569e-08 2.7835534e-10
3.7243393e-09 -1.5275505e-08 2.0458549e-08 -3.8276786e-09 -3.0397443e-10 1.2140623e-07 -2.3369806e-08 -6.805065e-09
-4.1930224e-09 3.6058763e-09 1.8874525e-08 1.154944e-06 -1.6060673e-08 9.906578e-07 -1.7514724e-10 1.509182e-08
-1.3052781e-08 -1.8647565e-08 4.6502153e-09 2.1602853e-09 -1.1081491e-07 3.7393972e-09 -5.747344e-08 1.7620515e-08
1.6483135e-06 -5.4297815e-09 3.448233e-08 1.3891765e-06 8.019336e-09 4.1904404e-08 -4.951667e-10 2.1285997e-08
1.9440236e-08 -9.365997e-10 -7.399571e-08 3.686567e-07 -9.603781e-07 6.0372463e-09 -2.4194324e-09 1.0810728e-06
-7.972475e-07 8.994398e-09 1.8111526e-10 1.1232355e-09 1.1139427e-06 6.201393e-09 2.7772373e-07 7.5824296e-08
-2.4060112e-09 1.0538579e-08 -1.3022639e-08 -1.2524926e-09 -2.9928653e-09 -1.2467745e-08 8.113856e-09 4.4885165e-10
9.455643e-07 -5.046849e-09 1.32861775e-08 -3.7066126e-09 1.8137335e-08 -2.8319303e-07 -4.5063054e-11 3.8133834e-09
-1.2759257e-08 -2.2845683e-09 9.245846e-09 -2.4592556e-08 1.5812e-07 -4.8504676e-09 -3.2005208e-11 1.1034961e-08
-4.934265e-07 2.1927379e-07 -9.835002e-07 7.845151e-09 8.4263035e-10 -1.1467277e-09 9.926016e-09 1.1106072e-08
2.9470426e-09 8.448308e-09 4.2593573e-09 -1.798937e-06 -2.9657112e-09 1.4174478e-08 -4.4767967e-10 6.1790035e-09
-9.781174e-07 -3.349633e-10 -1.4914352e-08 -2.8622066e-08 7.8213176e-08 -1.1805303e-10 -5.8031384e-09 1.4826102e-06
1.42258205e-08 3.3036238e-07 -3.101165e-07 5.3395715e-09 -1.0634367e-09 -1.2897786e-08 -1.1056687e-08 5.13848e-07

spatial_module.qkv_proj_low.weight f4 [48, 64]
00000000: 290b df3d e769 d03d 626a 4cbc b93c d6bd
00000010: a651 073d ce12 153d de9a b7bd 2ef3 cdbd
00000020: 72af 033b ca99 003e 2fe2 cabd e4e1 9dbd
00000030: efe9 08bd a900 e9bd fb61 89bd 88bd d33d
00000040: 1543 ee3d 9fa3 a9bd d7c2 b339 a19b d3bd
00000050: 33fd 373d f1ee b8bd 4392 93bd b315 4ebd
00000060: 0b84 623c 7271 c23d 0ac0 38bd 3b32 d23c
00000070: 77be d73d 2cf0 b5bc 735e ad3c f921 883c
00000080: 8278 d6b9 4725 9f3d 3042 af3d 02c5 80bd
00000090: a08c fb3d a0fc 8c3d 5cba cabc eaea ea3d
000000a0: 552c d63b 28d8 903d a69d ebbd 9cfd e53d
000000b0: 47bc e13d 040f bdbd 9d1b d5bd 35dd 26bd
000000c0: 0820 83bd 7eb3 95bc f730 613d d769 aabc
000000d0: df3e f03d 6230 533b dfa3 7dbd 0342 e6bd
000000e0: affd 6b3d d8ed ffbd 44e3 0fbd e526 25bc
000000f0: fdb7 81bd 263a 443d 8546 9b3c 0756 893d
00000100: bcd3 a33d b719 d1bd 6f30 a6bd b139 39bd
00000110: ac42 afbd 9f9c 263d 6a97 93bd 96d8 a6bd
00000120: 37bd e03c 8415 ac3d 34e9 05bd 3d3a 08be
00000130: 901c da3c 1a62 833d 6282 ce3d 006a a33c
00000140: 1a40 c93d 75e4 cbbd 09ca fe3d c93a a1bd
00000150: b400 cabd 6f79 b73d e505 04bd fa20 b13d
00000160: 631e d7bd f538 ca3d 4c8a f03d cbb2 f23c
00000170: f153 da3d b8fb cebd ae48 9fbc 1bdb 523d
00000180: dee2 943d aca9 78bd 9c3c 9a3d 26b8 ebbc
00000190: 526a 7abd 8cb5 e33c 051e d2bd eae3 d8bd
000001a0: 6dff 4c3d 6051 323d a1ce c93c 36fd 85bc
000001b0: 6daf a8bd 468b c8bd cf8b fc3d 40ad d9bd
000001c0: d557 273d 4a62 2cbd 7947 be3d 4010 92bd
000001d0: 254e 80bc ed3c eebd 8529 513d ee34 f0bd
000001e0: 62cc c9bd ccee e4bd 2b79 803d 1d46 cc3c
000001f0: 1ffe c03d fb1c d53d 1391 74bd 1818 c6bd
00000200: db76 9cbd f185 443d 27a2 233d 49c3 083d
00000210: 0b47 b0bd ec61 ad3c ad5f 73bd eb43 26bd
00000220: 96ff d8bb 2303 163c df24 e7bd 8fc7 b33d
00000230: d8ec 6fbd cfb6 613d 3b27 a73d f8f7 443d
00000240: f1f1 913d a294 903d 3a0f d73d aac9 183d
00000250: 4500 923d 88bc 14bd f26c 67bd 2157 823d
00000260: 2b99 fa3c b4bc 593a db6e d9bd e61e 3f3d
00000270: ef0a a53d c438 5dba da7c de3c 1ec8 333d
00000280: d38d e9bd f735 8ebc 864d 81bd 0d06 6ebd
00000290: 0a14 a53d 3e76 f53d 2ca1 ee3c 160f 853d
000002a0: 08bd bebd 263a b83c d4cd e0bc 1285 bdbd
000002b0: 6229 063d e594 563d 23fd 55bc faeb 673d
000002c0: d6c2 8f3d a8a5 113d 79a5 893c d0f3 893c
000002d0: 1b4a e7bc 32f1 943c d17f a7bd 0aa7 11bb
000002e0: 891a f2bd 0824 a7bd bcf0 93bd 6fd1 bd3d
000002f0: 4227 8fbd f6fa 41bc fbdf d43c c47b 183e
00000300: d9de 6c3d e387 b2bd 7135 053e 2ea7 f0bd
00000310: 1a2b 9d3c e9d7 ea3d 2d98 e73d 15bf b4bc
00000320: 7e7c b0bd 7bb2 6f3d adbf d53d 6d42 a1bd
00000330: ba32 8ebc c243 99bd 8ffb 4a3d e8ba ff3c
00000340: b6ce 923d e1af 1bbd b6e9 e9bd 1173 6fbd
00000350: 03be d6bd 3582 f0bc b775 083d 8f67 c8bd
00000360: 22a5 61bc ed12 e9bd 6ea7 aabd d501 b8bd
00000370: 8527 23bd 7032 a0bd 2970 ec3c 0547 b53d
00000380: b2f8 bb3d 549a 2c3d 2ad2 b13b b0da 83bc
00000390: 2d41 b43d 4414 8dbd 093b b13d 12e2 e9bd
000003a0: 97b7 b1bd 4b17 dc3c 54dd 93bd c664 6e3c
000003b0: 7618 e13d 0091 693d 6c83 f43d 92d5 5fbd
000003c0: 964a 68bd c91a bebd ff7f 00bd 8984 62bd
000003d0: bba9 833c ef41 db3d b39d cfbd 2c9f 8c3d
000003e0: 5256 913d c56d 683d e0ee 323c fab4 a1bd
000003f0: 1576 793d e436 58bd fd2b 9dbd 2b9a dc3d
0.108908005 0.10176449 -0.0124765355 -0.10460801 0.03303685 0.036394887 -0.089650854 -0.100561485
0.0020093587 0.12558666 -0.09906422 -0.07709101 -0.03342622 -0.11377079 -0.067081414 0.103388846
0.11633889 -0.08283161 0.00034286708 -0.10332418 0.044919204 -0.090299495 -0.072056316 -0.050313663
0.013825427 0.09494294 -0.045105018 0.025658717 0.10534375 -0.02220925 0.021163201 0.016617762
-0.00040907046 0.07770782 0.08557546 -0.06287576 0.122826815 0.06884122 -0.024747066 0.114705876
0.0065360465 0.070724785 -0.115046784 0.11230013 0.11022239 -0.0923138 -0.104056574 -0.040738303
-0.06402594 -0.018274065 0.054978337 -0.020802421 0.11730742 0.0032224883 -0.061923858 -0.112430595
0.05761498 -0.12496537 -0.035128847 -0.010080074 -0.06333921 0.047907017 0.018954525 0.067058615
0.079993695 -0.10209983 -0.08114707 -0.045221034 -0.085576385 0.04067671 -0.07206614 -0.08146779
0.027433975 0.08402541 -0.032693103 -0.13303466 0.026624948 0.06415196 0.10083462 0.019948006
0.098266795 -0.09955684 0.12440879 -0.078725405 -0.09863415 0.089587085 -0.032232184 0.08648868
-0.10503843 0.09874145 0.11745128 0.02962627 0.10660542 -0.10106605 -0.019443836 0.051478487
0.07269834 -0.060708687 0.075310916 -0.028774332 -0.06113655 0.02779653 -0.10259632 -0.10590346
0.05004828 0.043534636 0.024634661 -0.016356092 -0.08236585 -0.09792189 0.12331354 -0.10628748
0.040855248 -0.042085923 0.09290976 -0.07132006 -0.015662262 -0.116327144 0.051064987 -0.117288455
-0.09853436 -0.111783594 0.06273111 0.024935776 0.0942347 0.10405918 -0.059708666 -0.09672564
-0.076398574 0.0479793 0.039949562 0.033389363 -0.086073 0.021164857 -0.059417415 -0.040592115
-0.006622265 0.009156021 -0.112863295 0.08778297 -0.05857548 0.05510598 0.081617795 0.048088044
0.07126225 0.070595995 0.10500951 0.037301697 0.07128958 -0.03631261 -0.056500383 0.06364275
0.030590614 0.0008306012 -0.10616847 0.046660326 0.08058726 -0.00084389397 0.027159143 0.04389202
-0.11404004 -0.017359717 -0.063136145 -0.05811124 0.08060463 0.119854435 0.029129587 0.06497018
-0.093133986 0.022488665 -0.027441896 -0.09253897 0.03275431 0.05238809 -0.013060841 0.05662153
0.07019584 0.035558373 0.016802536 0.016839892 -0.028233578 0.018181417 -0.08178676 -0.0022224807
-0.118214674 -0.08161169 -0.07223651 0.09268462 -0.0698991 -0.011839619 0.025985708 0.14890963
0.05782971 -0.087173246 0.13008668 -0.11750637 0.019185591 0.11466963 0.11308322 -0.022063771
-0.08617495 0.05851982 0.1043695 -0.07873998 -0.017358173 -0.07483627 0.04955631 0.031217054
0.07168333 -0.038009528 -0.1142153 -0.058459345 -0.104854606 -0.029358963 0.033315387 -0.09785377
-0.013772281 -0.11380563 -0.08332716 -0.089847244 -0.03983261 -0.0782212 0.028862076 0.088514365
0.09178294 0.042139366 0.005426665 -0.01609549 0.08801494 -0.06888631 0.08653838 -0.114200726
-0.08677595 0.026866576 -0.07219949 0.014550393 0.10990994 0.05702305 0.11939129 -0.054647036
-0.056711756 -0.092824526 -0.031372067 -0.055302177 0.016072145 0.10705935 -0.101375006 0.06866297
0.070965424 0.05674531 0.01092121 -0.07895847 0.060903627 -0.052786723 -0.07674406 0.10771593

spatial_module.qkv_proj_low.bias f4 [48]
00000000: c0ef e63d d474 c9bb 6451 1bbd 0755 8f3c
00000010: 56cc 3b3d f92a 083d 06c4 fe3d 5a13 8e3d
00000020: cc36 c7bc e848 253d 99c7 113d f40f 6abd
00000030: 8a69 cfbd 41bb e7bc dff7 4ebd 778b 00be
00000040: 9eb2 3f3d 520d 60bd 104a fe3d f30d 313d
00000050: 7d56 663d cc92 223d 0d54 193d 9663 a13d
00000060: 3c23 883d 7adb 143c b105 00bd e1e5 cf3c
00000070: 85e3 2cbd 5ce5 b0bb 5399 093d 10ea 3b3d
00000080: 9834 f0bd 6e7f 543d 5257 25bd 1d4a 93bd
00000090: 73c1 1abd 30c0 2bbc 2c34 713d af7d e5bd
000000a0: a1b6 d23c 60be ee3d eebd a2bd 489d f73c
000000b0: 8978 82bd fd0a e73c bd36 503d e084 8fbd
0.112761974 -0.00614796 -0.037919417 0.017496599 0.045849167 0.033244107 0.12439732 0.06937285
-0.024318121 0.040352732 0.03559074 -0.05714412 -0.10127552 -0.028287532 -0.050529357 -0.12553202
0.046801202 -0.054700203 0.1241647 0.043226194 0.056234825 0.039690778 0.037433673 0.07880323
0.066473454 0.00908553 -0.031255428 0.02537817 -0.042209167 -0.0053984355 0.033593487 0.045877516
-0.117287815 0.05187934 -0.04036648 -0.0719187 -0.037782144 -0.010482833 0.058887646 -0.11205613
0.02572185 0.11657405 -0.079463825 0.030226365 -0.063706465 0.028203482 0.050833452 -0.07007766

spatial_module.qkv_proj_high.weight f4 [192, 48]
00000000: 8c5b 4a3d 1850 193e 2235 073d c004 a6bd
00000010: 274e 3f3c cc67 b93c d2b5 a73d 750b 3abd
00000020: de97 ffbc d4e9 d2bd e7b4 c13d b1a8 aabd
00000030: 6a47 15bd 8805 cb3d a86d 6cbd ebd1 8dbd
00000040: b2ef 1cbd d378 10be 4dd3 843d ad7c 9cbd
00000050: 0491 78bd 62e4 4cbd 6e73 9d3b dfb1 de3d
00000060: fb4d e73d b92a 78bc 281f d0bd 2143 553d
00000070: 8c74 9fbc 77ec f13d ee2f 49bd 3753 fdbd
00000080: e206 723d 46cb 08bd 3a33 fc3c c15f 383d
00000090: 6b01 9d3d ed8b 843d 999f a6bd 1137 ebbd
000000a0: 7b54 1c3e ab6e e83d 4408 64bd fd54 093e
000000b0: 88c8 893c 1e11 28bd 6a2e 86bd d93f 70bd
000000c0: b2c5 023e 7e9e a1bd 713a 19bd 65e8 1c3e
000000d0: ac85 77bd a06c 093e 1036 c83d 80cf 113d
000000e0: 6ec6 033d 9e1f 62bd 7eeb 863d 4da1 1c3d
000000f0: 4d8c 88bd 1338 e5bd 0c54 d6bd 4612 89bd
00000100: 3442 543d 15c4 d3bd 7709 c33c b01d 903d
00000110: ef96 b23d 2a06 8dbd ce90 5abb f8d9 10be
00000120: afc6 b63d 52b1 03be c295 c43c 171f 5abb
00000130: a6dc 0dbe d52d fdbd 27b1 dabd 07d8 c1bd
00000140: c57c e63d 928a babc 88a1 dfbd fa21 5b3b
00000150: 243e 1fbd 5bff 0bbd 1f8c 0d3e 6cc7 00be
00000160: acf1 d4bd 2e3f 9b3c 5faf cf3d 09b1 0abe
00000170: 55ef 163d 7132 003e 625e 63bc f2a7 87bd
00000180: 2a7a af3d 3124 b23d 0296 1f3c 7c4d c6bd
00000190: 18ea 693c be9d e4bd c06b a0bd 9432 583d
000001a0: b869 bf3d 2f2c a33c e57d efbd f53c fb3d
000001b0: 6f41 f93d ccc3 fc3d 7e40 c5bb 14a5 8fbd
000001c0: 1a81 d9bd 3405 b13d 5823 82bc 72ec 1cbe
000001d0: 5aa1 123e 5f19 1abd 7b03 563d 85d7 06bd
000001e0: 1bf2 0abd 622d de3d 2468 053e b4f1 e1bc
000001f0: ae8b 87bc 1dc8 b33d d980 88bc a8b8 63bc
00000200: 86de 0d3e b37a f23d ada0 64bd ae27 e23d
00000210: 8ca9 823c 4c2d dabb 7dea 093e 5175 00bb
00000220: 5413 f23b 9169 32bd a1d7 febd 3d55 cc3d
00000230: d5a1 03be 396c e5bd f7ea d03c a7a8 78b9
00000240: 0e13 b53c bf72 a03c a897 273e 235a e9bd
00000250: 4114 9cbd 3083 f53b 201f aabd 19fb 18be
00000260: a331 d73d 8c52 9b3c 7a46 3abd 2a45 2b3d
00000270: e5f6 383d 5fab 2fbc 7a37 fe3d 7fd0 42bd
00000280: 8e26 ea3d 7da3 01be 99d3 85bd bb4a 3c3c
00000290: 397b a03d 018d a2bd 085b 963d 5268 05be
000002a0: b815 85bd a3b4 b43d 48ba babd dcd7 c0bd
000002b0: c789 6fbd ef78 00be 7faa a83c f07c 55bc
000002c0: 18b1 e5bc cd7c 8f3d cfac 41bc 4502 f5bd
000002d0: 0309 d7bd acca 9d3d 4cc0 ac3d bad4 b33d
000002e0: 79bd c4bd 0aed 23bd badd ee3d a348 d53d
000002f0: 6697 953d 7d02 ed3d 0b4c 1fbd 1492 c1bd
00000300: d939 c83d 94cc c93d 1125 7ebc 1afa 873a
00000310: b214 8e3b 1891 15be 831e 38bc a482 94bd
00000320: 08d5 583d 4849 9bbd 58de 633d 7bce 013e
00000330: e238 5cbc 0589 07bd c76f aabd 2b58 63bd
00000340: 9c81 ebbd 619c 9d3d e2d2 e73d b06a d53c
00000350: 4ed8 0d3e 63fb 3e3d 077c 853d 435b ee3d
00000360: c1cd e5bd a1a4 e9bc febf 923d 1d6d caba
00000370: d312 f7bd eb07 59bd 9d31 b8bd 0b45 28bd
00000380: e22f c3bd 7d56 4cbd 3d96 8c3d d981 6dbd
00000390: 6f88 ad3d 5fb9 02be 109f 8abd d278 d23c
000003a0: dc0c 1f3e c59d 13be 6a30 603d cad3 663c
000003b0: 41ca 07be d1f8 e3bd 4dfc 963d 15c4 4cbd
000003c0: 06aa e93d 2670 bdbd b369 043e 17d4 60bd
000003d0: 87ee 883d 4cbd 023d 5b69 97bd 0105 d5bd
000003e0: 2275 13bd 339f 07bd 3337 8f3d e9e0 75bd
000003f0: 993b 093d 14db 99bd 9ef7 7abd 35f6 313d
0.049403712 0.1497196 0.033009656 -0.08106375 0.011676348 0.022632502 0.08188976 -0.045421083
-0.031200346 -0.102985054 0.094583325 -0.083329566 -0.03644506 0.099131644 -0.057721764 -0.06924804
-0.03831453 -0.14108591 0.06485615 -0.076409675 -0.060685173 -0.05002249 0.00480502 0.1087377
0.112941705 -0.015146905 -0.101621926 0.052065972 -0.019464754 0.1181268 -0.049117975 -0.123693876
0.059088595 -0.03339698 0.030786145 0.045013193 0.07666286 0.06472001 -0.081359096 -0.114851125
0.15266602 0.11349233 -0.055671945 0.13411327 0.016819254 -0.04103195 -0.065518215 -0.05865464
0.12770727 -0.07891558 -0.03740925 0.15323026 -0.060430214 0.13420343 0.097759366 0.035598278
0.03217166 -0.055205934 0.06587885 0.038239766 -0.06667385 -0.11192336 -0.104652494 -0.066929385
0.05182095 -0.10340134 0.023808224 0.070369124 0.087201945 -0.06885941 -0.003335047 -0.14145648
0.08924615 -0.12860611 0.023997191 -0.003328269 -0.13853702 -0.123622574 -0.106783204 -0.09465032
0.11254267 -0.022771154 -0.109194815 0.0033437 -0.03887762 -0.034179073 0.13822983 -0.12576073
-0.10397658 0.018951025 0.10140871 -0.13544096 0.03684934 0.12519242 -0.013877483 -0.0662383
0.08568223 0.08698309 0.0097403545 -0.09682748 0.014277004 -0.111628994 -0.07833052 0.05278261
0.09346336 0.01991853 -0.11693934 0.12267486 0.121706836 0.12342033 -0.006019651 -0.07013908
-0.10620327 0.086435705 -0.015885994 -0.15324572 0.14319363 -0.037621852 0.052249413 -0.03292038
-0.033922296 0.108485 0.13028008 -0.027581073 -0.016546097 0.08778403 -0.016663002 -0.013899006
0.13854417 0.11839809 -0.055817295 0.110427245 0.015949987 -0.006658232 0.13468356 -0.0019601176
0.007387558 -0.043557707 -0.12443472 0.099771954 -0.12854703 -0.112022825 0.025502665 -0.00023713951
0.022103813 0.019585965 0.16366446 -0.11394145 -0.076210506 0.0074924454 -0.08306718 -0.14939536
0.10507514 0.01896026 -0.045477368 0.041814007 0.045157332 -0.01072201 0.12412925 -0.04756212
0.11433135 -0.12660022 -0.065345 0.0114924265 0.07836003 -0.079370506 0.073415816 -0.13028076
-0.06498283 0.08823516 -0.091175616 -0.09416172 -0.058481004 -0.12546133 0.020589111 -0.013030276
-0.028038546 0.07006226 -0.011820986 -0.119633235 -0.10499766 0.07704672 0.08435115 0.08780809
-0.096064515 -0.04002098 0.11663385 0.10414245 0.073042676 0.1157274 -0.03889088 -0.0945169
0.097766586 0.09853473 -0.015511767 0.0010374219 0.004335963 -0.1460613 -0.011237743 -0.0725148
0.052937537 -0.07582337 0.055631965 0.12676422 -0.013441296 -0.033089656 -0.08322101 -0.055504005
-0.114993304 0.076958425 0.113195196 0.02605185 0.13852045 0.04662646 0.06517797 0.116385005
-0.11220885 -0.028520884 0.07165526 -0.0015443895 -0.12064137 -0.052986067 -0.08993838 -0.04108147
-0.09530617 -0.04988717 0.06864593 -0.05798516 0.08473288 -0.12766026 -0.0676862 0.025692377
0.15532249 -0.14415653 0.05473367 0.01408858 -0.13260747 -0.11131442 0.07372341 -0.049991686
0.114093825 -0.09249906 0.12930946 -0.054889765 0.066861205 0.03191881 -0.07393142 -0.10401345
-0.03600038 -0.03311081 0.0699295 -0.060028944 0.033504102 -0.07512489 -0.061271302 0.043447692
