optim_results/models/trial_43_best.pt (torch, 98706 bytes, 64 tensors)

feature_extractor.depthwise.weight f4 [1, 1, 3]
0	0x3eb6e54b	0.35721812
1	0xbdc73430	-0.09726751
2	0xbe8008dd	-0.25006762

feature_extractor.pointwise.weight f4 [16, 1, 1]
0	0xbd81bf97	-0.06335371
1	0x3ca6db9c	0.02036839
2	0xbd36e2da	-0.044649936
3	0xbd06cd60	-0.032910705
4	0xbe1dabc9	-0.15397562
5	0xbd7d64ea	-0.061863817
6	0x3dd9b8c2	0.10630943
7	0xbc9190f0	-0.017769307
8	0x3d3113db	0.043231826
9	0xbd52d043	-0.051468145
10	0x3d666291	0.056246344
11	0xbdc2823c	-0.094974965
12	0xbdbc8040	-0.09204149
13	0xbdc3de34	-0.09563866
14	0xbdef0431	-0.11670721
15	0xbd26b82b	-0.04070298

feature_extractor.pointwise.bias f4 [16]
0	0xbe2d7fd5	-0.16943295
1	0xb80ee2f0	-3.406679e-05
2	0xbd1d3254	-0.038378075
3	0xb70dabce	-8.444256e-06
4	0x3cc31c93	0.023817336
5	0x3c6b113c	0.014347371
6	0xbc148bbd	-0.009066519
7	0xbe255426	-0.16145381
8	0xb630a96f	-2.6324667e-06
9	0xbb35f5fa	-0.0027765022
10	0x3aed358e	0.0018097626
11	0xb8b6b13e	-8.71145e-05
12	0xb6136b48	-2.1967153e-06
13	0xbae4d1eb	-0.001745758
14	0xbe3115bd	-0.17293449
15	0x366dc7c6	3.5432035e-06

feature_extractor.bn2.weight f4 [16]
0	0x3f3c71b3	0.7361099
1	0x3f3c84d8	0.73640203
2	0x3f1aa3e6	0.6040634
3	0x3f39b35f	0.72539324
4	0x3f22cd88	0.63594866
5	0x3f2f066a	0.6836916
6	0x3f6462db	0.8921334
7	0x3f569f76	0.8383707
8	0x3f67d025	0.9055198
9	0x3f27c785	0.6553882
10	0x3f6a5a04	0.915436
11	0x3f3429db	0.70376366
12	0x3f389517	0.72102493
13	0x3f2bacd9	0.6706062
14	0x3f2e5c22	0.68109334
15	0x3f2f03c0	0.683651

feature_extractor.bn2.bias f4 [16]
0	0x3b38613b	0.0028134126
1	0xbcfbdfef	-0.030746428
2	0xbc88124a	-0.016610283
3	0xbca9dbab	-0.020734629
4	0x3cadba49	0.021206992
5	0xbb2aef07	-0.0026082413
6	0x3c4fdc8a	0.012686858
7	0x3c1e5ded	0.009665948
8	0xbc5e7cfd	-0.013579604
9	0xbc6c7c65	-0.014433955
10	0x3c51d2eb	0.012806634
11	0xbc217b18	-0.009856008
12	0xbade35a0	-0.0016953237
13	0xbca603ad	-0.020265425
14	0xbcb13e7b	-0.021636238
15	0x3b1235e7	0.002230996

feature_extractor.bn2.running_mean f4 [16]
0	0xbe3820f7	-0.17981325
1	0x3b037b65	0.0020062563
2	0xbd3681ef	-0.044557508
3	0xbb65dadd	-0.003507308
4	0x3c0e17da	0.008672679
5	0x3c0ddc99	0.008658552
6	0x3ad14381	0.0015965552
7	0xbe2ad68d	-0.16683407
8	0x3b881694	0.004153082
9	0xbc08db32	-0.0083530415
10	0x3bfc7929	0.007704873
11	0xbc260c61	-0.010134787
12	0xbc1f7f49	-0.009734937
13	0xbc4593a1	-0.012059123
14	0xbe418250	-0.18897367
15	0xbb8a32b5	-0.0042174705

feature_extractor.bn2.running_var f4 [16]
0	0x3938b777	0.00017615953
1	0x37895c8f	1.6374774e-05
2	0x38b307d9	8.536847e-05
3	0x384a917a	4.829604e-05
4	0x3a869a7a	0.0010269426
5	0x3929b0c6	0.00016182949
6	0x3a0032a3	0.0004890358
7	0x37566ffa	1.2781466e-05
8	0x388e597c	6.7877554e-05
9	0x38eb5a9c	0.000112225505
10	0x390713e2	0.0001288201
11	0x39cdf9b5	0.00039286693
12	0x39c1c4a9	0.00036958352
13	0x39d365f8	0.0004032103
14	0x3a1bb4d2	0.0005939725
15	0x38918352	6.938599e-05

feature_projection_low.weight f4 [4, 320]
0	0xbb4414d0	-0.0029919632
1	0x3bf58034	0.0074920896
2	0xbd6fe648	-0.058569223
3	0x3c8df7fc	0.017330162
4	0x3cc1642e	0.02360734
5	0x3c098d98	0.008395575
6	0x3d1811a2	0.03712619
7	0xbc0106e3	-0.007875177
8	0x3d59bb03	0.053156864
9	0x3bd64fcd	0.0065402747
10	0x3d3b30c9	0.045700822
11	0x3d358bd3	0.0443228
12	0xbc2ff6cc	-0.010739993
13	0x3d46909f	0.048477765
14	0xbce737f9	-0.028224932
15	0x3c8c8f1b	0.017158082
16	0xbcdd5961	-0.027020158
17	0x3d276890	0.040871203
18	0x3d4a1eb1	0.049345676
19	0xbd4d19dc	-0.05007349
20	0xbb217830	-0.0024638288
21	0x3c9a2572	0.018816683
22	0xbc44dff2	-0.012016283
23	0xbc12772b	-0.008939545
24	0xbc554a2e	-0.013018174
25	0x3ce0f3a0	0.02745992
26	0x3d0bcc79	0.034130547
27	0x3d4a2c17	0.049358454
28	0xbad7bfdd	-0.0016460378
29	0xbb39cb70	-0.0028350018
30	0xbbf17f72	-0.007369929
31	0x3ca350c7	0.019935979
32	0x3c226e98	0.009914063
33	0x3d25ec42	0.040508516
34	0x3d947fab	0.07250913
35	0x3b9e3bfa	0.004828927
36	0x3c5e0db9	0.013553076
37	0x3c43c2a9	0.011948266
38	0x3c05e4dd	0.008172241
39	0xbd543bb7	-0.05181476
40	0xbc8bf5d4	-0.017084993
41	0x3cb5e59b	0.022204211
42	0xbd698ed3	-0.057020973
43	0x3d33097a	0.04371021
44	0xbca83ce6	-0.020536851
45	0x3d0685b0	0.032842338
46	0x3d813bf0	0.0631026
47	0x3d332f4e	0.043746285
48	0x3a541c88	0.00080914097
49	0x3c257cdf	0.010100572
50	0xbcb207ce	-0.021732237
51	0x3d38c4af	0.045109447
52	0xbbdbac30	-0.006703876
53	0x3ceeb4b0	0.029138893
54	0x3c7679fc	0.015043732
55	0x3ce0645b	0.027391603
56	0xbc562e12	-0.013072507
57	0xbcd00c54	-0.025396504
58	0x3c9f60a8	0.019455269
59	0xbd5663a0	-0.052341104
60	0xbba00dc2	-0.0048844526
61	0xbc87a3d9	-0.01655762
62	0x3bd4edcc	0.006498074
63	0xbd1883f3	-0.03723521
64	0x3c6b0c56	0.014346203
65	0xbc3f6bb7	-0.011683396
66	0x3da3dd79	0.08001227
67	0x3c1e5b04	0.0096652545
68	0x3b082d60	0.0020778999
69	0x3d410653	0.047125172
70	0x3bdfc5db	0.006829006
71	0x3d00b543	0.031422865
72	0xbb207ad7	-0.002448728
73	0xbbe7642b	-0.0070615015
74	0x3cf947da	0.03042977
75	0x3cabacb6	0.020956378
76	0x3cd19227	0.025582386
77	0x3d088d37	0.033337798
78	0x3b94fc98	0.004546713
79	0x3cac39bf	0.02102363
80	0x3d52662d	0.051366974
81	0xba7539e2	-0.00093546335
82	0xbbf8305c	-0.0075741243
83	0x3c95bc5a	0.01827829
84	0x3c048a25	0.008089577
85	0xbbbfe4ce	-0.005856133
86	0x3c4184da	0.011811459
87	0xbcc4e83c	-0.02403652
88	0x3d09fd27	0.03368869
89	0x3c90f41d	0.017694527
90	0x3d6cdecf	0.057829674
91	0xbca7b467	-0.020471765
92	0x3c8b136f	0.01697704
93	0x3d2be7dc	0.041969165
94	0xbbc3292d	-0.0059558363
95	0xbcb5e327	-0.022203041
96	0xbd28dde2	-0.04122723
97	0x3cfd24f9	0.030901419
98	0x3aa852e0	0.0012842081
99	0xbd42bcd6	-0.04754337
100	0x3d7eb9dd	0.06218897
101	0xbcf3b71a	-0.029750396
102	0x3c7f2b20	0.015574247
103	0x3a9515e4	0.0011374322
104	0xbbb5a887	-0.0055437717
105	0x3d809e0b	0.06280144
106	0x3c5dfee9	0.013549545
107	0x3d1d4f79	0.03840587
108	0xbb0bd672	-0.0021337536
109	0xbcce6fc4	-0.025199778
110	0x3d5290dc	0.05140768
111	0x3d844d20	0.06460023
112	0x3d227800	0.039665222
113	0x3c993a84	0.01870466
114	0x3cae00f3	0.021240687
115	0xbc7847c1	-0.015153826
116	0x3be18938	0.006882813
117	0xbcec72ec	-0.028863393
118	0x3bf662bd	0.0075190947
119	0xbd1fedf8	-0.039045304
120	0x116de720	1.8767224e-28
121	0x3d10b46e	0.03532832
122	0xbc600208	-0.013672359
123	0x3d919775	0.07108966
124	0x3d955b70	0.07292831
125	0xbad16436	-0.00159753
126	0x3c153bb4	0.009108473
127	0xbd2f3a16	-0.042780004
128	0xbceb7c32	-0.028745744
129	0xbc55502e	-0.013019605
130	0x3cb0f32b	0.021600327
131	0xbd46382b	-0.04839341
132	0x3d333562	0.04375208
133	0x3be5d461	0.007013843
134	0x3941190a	0.00018415242
135	0xbce10b61	-0.027471246
136	0x3d3b0401	0.045658115
137	0x3cc2412b	0.023712715
138	0xbcf720ed	-0.030167067
139	0xbd3db54a	-0.04631547
140	0x3a795d38	0.0009512487
141	0xbc44cad7	-0.012011251
142	0xbc9f6fb6	-0.019462448
143	0x3d069833	0.032859992
144	0x3d3aa015	0.045562822
145	0x3d5d7590	0.054067194
146	0xbce18be1	-0.02753252
147	0x3d905a21	0.07048441
148	0xbbd342ad	-0.0064471574
149	0x3d44befe	0.048033707
150	0xbc91f92f	-0.017819015
151	0x3cc60706	0.02417327
152	0x3c29cf31	0.01036434
153	0x3c9e8820	0.019352019
154	0xbb995ed5	-0.0046804943
155	0xbd273ad8	-0.040827602
156	0x3ce5a4ec	0.028032742
157	0x3d737e46	0.059446596
158	0xbc0fd80e	-0.008779539
159	0x3cd50b89	0.026006477
160	0x0f7f8775	1.2598559e-29
161	0xbd1ccf2b	-0.03828351
162	0x3ca19406	0.019723903
163	0xbca1dfb7	-0.019759996
164	0x3b48cda8	0.0030640159
165	0x3d1f82d6	0.038943134
166	0x3c060482	0.008179786
167	0xbc8db3af	-0.017297594
168	0xbcae176f	-0.021251408
169	0x3d162508	0.03665641
170	0x3ceb8698	0.028750703
171	0x3d5b8f81	0.053603653
172	0x3d44c0fc	0.048035607
173	0x3d08ed43	0.033429395
174	0x3c27a63a	0.010232503
175	0x3d71914c	0.058976457
176	0xbc0db14d	-0.008648229
177	0xbc6648ad	-0.014055413
178	0xbca9004b	-0.020630023
179	0xbc6af1ed	-0.014339906
180	0x3d3e4df6	0.046461068
181	0xbb0b68f3	-0.0021272271
182	0x3d0484b0	0.032353103
183	0x3d252491	0.040318076
184	0xbb625175	-0.0034533415
185	0x3ca2f9e3	0.019894546
186	0xbc84d20e	-0.016213443
187	0x3d6895f6	0.05678364
188	0xbc0c1594	-0.0085500665
189	0x3cfd2e81	0.030905964
190	0x3cfb584e	0.030681755
191	0xbc6c22eb	-0.014412622
192	0x3cb7e2ce	0.022447016
193	0x3d3632c2	0.044482
194	0xbc8aca82	-0.016942266
195	0xbc4d4d50	-0.01253064
196	0x3bf44126	0.0074540554
197	0xbba9db7f	-0.0051836367
198	0x3d08d9c5	0.033410806
199	0xbcbd836d	-0.023133958
200	0x0f540f68	1.0455374e-29
201	0x3d378d57	0.044812527
202	0x3c887d71	0.016661378
203	0x3ccc618f	0.024948863
204	0x3ce1f702	0.027583603
205	0x3d25364e	0.040334992
206	0xbd26dede	-0.040739886
207	0x3d76d2ab	0.060259502
208	0x3c3b918e	0.011448277
209	0xbbc226ac	-0.00592502
210	0x3d019a34	0.0316412
211	0xbbbaf135	-0.0057050237
212	0x3cdbbf99	0.02682476
213	0xbc1cc8e6	-0.009569382
214	0x3da30ff6	0.07962029
215	0x3d7e3050	0.062057793
216	0xbb60b2fe	-0.0034286375
217	0xbba27c70	-0.0049586818
218	0xbd5869b2	-0.052835174
219	0xbd2a4118	-0.041565984
220	0x3cd79278	0.026314959
221	0x3cecbe99	0.028899478
222	0xbd0e954e	-0.034810357
223	0x3d6424a1	0.055698995
224	0xbc83543b	-0.016031375
225	0x3cc1f1f0	0.023674935
226	0x3d42848a	0.04748968
227	0x3cb8a807	0.02254106
228	0x3c943885	0.018093357
229	0x3a3c4efe	0.00071834016
230	0xbc15ed9d	-0.00915089
231	0x3c2e58b2	0.010641264
232	0x3cd438d1	0.025905998
233	0x3cf0dac4	0.02940119
234	0xbd4781f2	-0.04870791
235	0x3bed021d	0.007232918
236	0xbc15e4a6	-0.009148752
237	0x3be5cc90	0.007012911
238	0x3cb41549	0.021982806
239	0x3c83cc41	0.016088607
240	0x3d33f8fa	0.043938614
241	0x3d0efda9	0.034909878
242	0xbd49d1c2	-0.049272306
243	0xbce805cc	-0.028323077
244	0x3c102aaa	0.008799234
245	0x3b35d187	0.0027743296
246	0x3d01f733	0.03172989
247	0x3d011815	0.031517107
248	0x3d80f2de	0.06296323
249	0xbcf07cfc	-0.029356472
250	0xbc8e2b28	-0.017354563
251	0x3d6dfe09	0.058103595
252	0xbba66ec0	-0.0050791204
253	0xbb38398a	-0.0028110468
254	0x3cd02456	0.025407951
255	0xbd374d1b	-0.044751268

feature_projection_low.bias f4 [4]
0	0x3c80f6f9	0.015742766
1	0x3d75213d	0.05984615
2	0xbc116749	-0.008874723
3	0xbd38c093	-0.045105528

feature_projection_high.weight f4 [32, 4]
0	0xbe01bb6e	-0.12669155
1	0xbcd1e0f7	-0.025619967
2	0x3d061060	0.03273046
3	0xbe821d08	-0.25412774
4	0xbeb94258	-0.3618343
5	0x3dfbaccb	0.12288817
6	0xbc3da6cf	-0.011575415
7	0xbcea74e8	-0.028620198
8	0x3e8bd595	0.27311388
9	0xbec7e6e6	-0.3904335
10	0x3e76dbea	0.24107328
11	0x3e7705f7	0.24123369
12	0xbd8058c6	-0.06266932
13	0x3e2667cf	0.16250537
14	0xbeaf49a3	-0.34235868
15	0xbe95ca4d	-0.29255906
16	0x3dde08f7	0.10841554
17	0x3e6c5937	0.23080908
18	0xbeafc3af	-0.34328982
19	0x3e6b6c37	0.229905
20	0x3c9dfda2	0.01928598
21	0x3ed5ca4e	0.4175591
22	0x3eb4c711	0.35308126
23	0x3daa9de2	0.08330895
24	0xbda641a9	-0.081179924
25	0xbe88d1f8	-0.26722693
26	0xbe584f56	-0.21124014
27	0xbedbbc0d	-0.4291691
28	0xbe24e619	-0.161034
29	0xbe576a26	-0.21036586
30	0xbe89dc3e	-0.26925844
31	0xbec5aecf	-0.3860993
32	0xbde6f44e	-0.11277066
33	0x3e20c98b	0.15701883
34	0x3e7800e6	0.24219093
35	0x3ed3d51d	0.4137353
36	0x3dce01d9	0.10058946
37	0x3d031414	0.03200157
38	0x3e706ef6	0.23479828
39	0x3eb1c54a	0.34720832
40	0x3ea2960d	0.31755105
41	0xbe9772cf	-0.2957978
42	0xbdafe5eb	-0.08588775
43	0x3eba2dec	0.3636316
44	0xbeac40bb	-0.33643135
45	0x3dde2fca	0.10848959
46	0x3d587ba9	0.052852307
47	0xbe825616	-0.25456303
48	0xbe911a3b	-0.28340325
49	0x3ea219d8	0.31660342
50	0xbe1c1813	-0.15243559
51	0xbe0cfe39	-0.13768853
52	0xbe1c9878	-0.15292537
53	0x3e8f6ee1	0.2801428
54	0x3ca89832	0.020580385
55	0xbd974c1e	-0.07387565
56	0xbcd3d39c	-0.02585774
57	0x3e8a6151	0.27027372
58	0x3ebe7ee0	0.37206173
59	0xbdc16292	-0.09442629
60	0xb9c47ee2	-0.00037478568
61	0xbdfc1c7b	-0.1231012
62	0x3e3087aa	0.17239252
63	0xbe737a17	-0.23777042
64	0xbeb145a1	-0.34623435
65	0x3e7c4969	0.24637379
66	0xbc2e63a9	-0.010643878
67	0x3e9e0f3e	0.30871004
68	0xbea5886b	-0.3233064
69	0xbd054f43	-0.032546293
70	0xbe41b43d	-0.18916412
71	0x3c8b5332	0.017007444
72	0xbe01bd3d	-0.12669845
73	0xbe23a2b1	-0.1598003
74	0x3e48f858	0.19625986
75	0x3e0e8c3c	0.13920683
76	0x3ed21a5c	0.41035736
77	0xbed870f7	-0.42273685
78	0x3e71a4ab	0.23597972
79	0x3d2bde6d	0.04196017
80	0xbed946c6	-0.42436808
81	0xbd7c53d6	-0.06160339
82	0x3e135009	0.14386
83	0xbe97a8d7	-0.29621002
84	0x3dd96dd9	0.10616655
85	0x3d680ff1	0.056655828
86	0x3e7f22c6	0.24915609
87	0x3e661cf7	0.22471987
88	0x3ec0aea5	0.37633243
89	0x3e957ff9	0.29199198
90	0x3e002587	0.12514316
91	0x3df5d584	0.120036155
92	0x3e10c498	0.14137495
93	0xbe2cb274	-0.1686495
94	0xbec5e95c	-0.38654602
95	0xbe7b8314	-0.24561721
96	0x3e1181d8	0.14209688
97	0x3e321053	0.1738904
98	0x3d023cc7	0.031796243
99	0xbd0e195f	-0.034692165
100	0xbe56da33	-0.20981674
101	0xbdb671ec	-0.089084476
102	0x3da5e8ac	0.08101019
103	0xbe28dc13	-0.16490202
104	0xbd812549	-0.0630594
105	0xbdff1b6f	-0.124564044
106	0xbb9f70d1	-0.0048657437
107	0xbecd4275	-0.40089765
108	0x3d429108	0.047501594
109	0xbda24408	-0.07923132
110	0xbda352b1	-0.079747565
111	0xbe3318ca	-0.17489925
112	0x3e8bfa27	0.2733929
113	0x3d81ce6e	0.063382015
114	0x3eaae620	0.33378696
115	0x3dc93103	0.09823801
116	0xbdcb1561	-0.09916187
117	0x3ea42dd5	0.32066217
118	0x3e623da4	0.22093827
119	0xbe00f8a2	-0.12594846
120	0xbebf9ded	-0.37425175
121	0xbedcaf3c	-0.43102443
122	0x3e34b6f4	0.17647916
123	0x3dc49997	0.095996074
124	0x3ee2c090	0.4428754
125	0x3e941d16	0.2892844
126	0x3eea953a	0.45816976
127	0xbe9f8919	-0.31159285

feature_projection_high.bias f4 [32]
0	0x3ed3be5d	0.41356173
1	0x3ecf06c0	0.40434837
2	0xbdfa5684	-0.12223533
3	0x3ebfdd96	0.37473744
4	0xbe849d86	-0.2590143
5	0x3ebdd7ea	0.37078792
6	0xbe6c8029	-0.23095764
7	0x3da76b12	0.08174719
8	0xbe78bc51	-0.24290587
9	0xbe969687	-0.29411718
10	0x3ecd4224	0.40089524
11	0x3ed41c2c	0.41427743
12	0xbe654b59	-0.22392024
13	0xbe8015e0	-0.2501669
14	0x3ea40b4a	0.32039863
15	0xbeaf2db8	-0.34214568
16	0x3d5d11a4	0.0539719
17	0x3e82023f	0.2539234
18	0xbe7c4b86	-0.24638185
19	0x3e7dcbc7	0.24784766
20	0x3d530f73	0.051528405
21	0xbd236dea	-0.039899744
22	0xbeadd3f3	-0.33950767
23	0xbe175f3c	-0.14782423
24	0xbe9292a7	-0.28627512
25	0x3e4461a2	0.19177869
26	0xbdc9dc2e	-0.09856449
27	0xbc4a7a42	-0.01235825
28	0xbe8efa3d	-0.27925292
29	0xbc84bb28	-0.016202524
30	0x3e273eb4	0.16332513
31	0x3e1fafee	0.15594456

feature_norm.weight f4 [32]
0	0x3f549c29	0.8305078
1	0x3f568dc1	0.8381005
2	0x3f3bb8d1	0.7332888
3	0x3f63cd1e	0.8898486
4	0x3f254c3b	0.64569443
5	0x3f5d5c61	0.86469084
6	0x3f451f78	0.7700114
7	0x3f6be464	0.9214537
8	0x3f0ea4f4	0.5572045
9	0x3f04c6e4	0.51865983
10	0x3f636fe4	0.88842607
11	0x3f654a7d	0.89566785
12	0x3f054380	0.5205612
13	0x3ea0242b	0.31277594
14	0x3f663fe2	0.8994123
15	0x3eb36954	0.35041296
16	0x3f47a5a0	0.779871
17	0x3f6a10b0	0.91431713
18	0x3e9fb99e	0.31196302
19	0x3f7065a5	0.939051
20	0x3f54caa2	0.83121693
21	0x3f3d79c2	0.7401391
22	0x3f27afe2	0.6550275
23	0x3f33a0af	0.7016706
24	0x3e7d5ea1	0.2474313
25	0x3f644d87	0.891808
26	0x3f2dc4c5	0.6787837
27	0x3f012908	0.50453234
28	0x3f19901d	0.59985524
29	0x3f3234cb	0.69611806
30	0x3f58300b	0.8444831
31	0x3f7156c6	0.9427303

feature_norm.bias f4 [32]
0	0xbd17d57c	-0.03706883
1	0x3bebd9c0	0.0071975887
2	0xbbd4a268	-0.006489087
3	0x3939628b	0.00017679685
4	0x3ca54528	0.020174578
5	0x3b439532	0.0029843566
6	0x3c818e2c	0.015814863
7	0xbb9eb163	-0.0048429235
8	0x3c4e804f	0.012603833
9	0x3c4ef9aa	0.012632767
10	0x3c212e3e	0.009837685
11	0x3bfbc68c	0.0076835807
12	0x3cc9f5d3	0.024653351
13	0x3c4549a8	0.012041487
14	0x3b409d45	0.0029390615
15	0xbb4f5053	-0.003163357
16	0xbbdb6c89	-0.006696288
17	0xbc48ecf7	-0.012263528
18	0x3df27244	0.11838201
19	0xbb648e4d	-0.0034874857
20	0x3ba13c68	0.004920531
21	0xbb8beb88	-0.004270021
22	0x3c89f364	0.01683969
23	0x3bc509ea	0.0060131447
24	0x3dcde01f	0.10052513
25	0xbc23281c	-0.009958293
26	0xba02e951	-0.00049938733
27	0xbae1993b	-0.0017211804
28	0xbbf269df	-0.0073978747
29	0xbcdc086e	-0.026859488
30	0xbb44edb1	-0.0030048902
31	0x3cc139fd	0.023587221

spatial_module.u f4 [8, 10, 4]
0	0xb4ae03f3	-3.24129e-07
1	0x3114d214	2.165625e-09
2	0x194cc45d	1.0586208e-23
3	0xa656974f	-7.4451226e-16
4	0xb3d26f51	-9.7991354e-08
5	0x99f65e44	-2.5473877e-23
6	0x18806bbe	3.3196016e-24
7	0x278eae6f	3.960204e-15
8	0x154b112b	4.1009067e-26
9	0x9bbe2e79	-3.1462896e-22
10	0x2f15e639	1.3633263e-10
11	0x184c5b7a	2.6412566e-24
12	0x1bf6d07e	4.083202e-22
13	0x305e0f63	8.0784995e-10
14	0x97a61471	-1.0732659e-24
15	0x9adad0bc	-9.0499915e-23
16	0x1855834b	2.759589e-24
17	0xa6505210	-7.227571e-16
18	0xa9206327	-3.5613138e-14
19	0x15acb8c5	6.976176e-26
20	0xaf9f89a4	-2.901973e-10
21	0x1af9f47e	1.03378985e-22
22	0xa1e9aa5d	-1.5833789e-18
23	0x230ebf4f	7.738347e-18
24	0x1624e587	1.332024e-25
25	0x337a9be1	5.8349432e-08
26	0x184b5241	2.6278663e-24
27	0x9acdddfb	-8.514464e-23
28	0x205034f1	1.7635802e-19
29	0x9a214a9c	-3.335429e-23
30	0x18e1fa09	5.8413608e-24
31	0x34d44e37	3.9544986e-07
32	0x31905aa7	4.2012576e-09
33	0xb2d1a758	-2.4406901e-08
34	0xaf6bbcca	-2.1440197e-10
35	0x96504d77	-1.682655e-25
36	0x35726d98	9.0311505e-07
37	0x1965a1b7	1.18716806e-23
38	0x98978395	-3.916545e-24
39	0x2778ffb8	3.455554e-15
40	0x94fa494e	-2.5272463e-26
41	0x968b2c66	-2.248468e-25
42	0x0f89c3c8	1.3584655e-29
43	0x9922418f	-8.388443e-24
44	0x97f59a2a	-1.587167e-24
45	0x341b0d3f	1.4440319e-07
46	0xb1c2547e	-5.6557488e-09
47	0xb575b757	-9.1536407e-07
48	0xb26739f3	-1.3459146e-08
49	0x18b72c01	4.7348824e-24
50	0x10875513	5.337919e-29
51	0x3131ddae	2.58829e-09
52	0xb054495c	-7.72294e-10
53	0x16087b49	1.1024894e-25
54	0x3224877c	9.576862e-09
55	0x159d1132	6.3438924e-26
56	0x1df438d5	6.4645025e-21
57	0x98af5339	-4.5320473e-24
58	0x966b53ad	-1.9009552e-25
59	0x1e542526	1.1230869e-20
60	0x2df5f6e7	2.7962922e-11
61	0x98719801	-3.1225262e-24
62	0x929555b8	-9.424353e-28
63	0x26a5928a	1.1488894e-15
64	0xb1edd9b2	-6.922357e-09
65	0x9cf296d1	-1.6053202e-21
66	0xa90f803a	-3.1863597e-14
67	0xa5e68e2b	-3.9994977e-16
68	0x1d069594	1.7812082e-21
69	0x26a10899	1.117395e-15
70	0x0f999aee	1.5146642e-29
71	0x1b795a20	2.0625918e-22
72	0x2cc19fcb	5.5031305e-12
73	0x1e4a36c2	1.0705115e-20
74	0x96f6f53c	-3.9898208e-25
75	0xa43681cf	-3.957491e-17
76	0x17e9137f	1.5062194e-24
77	0xb53a4ee8	-6.9405223e-07
78	0x178ed8b5	9.231239e-25
79	0x3271cc1a	1.4074454e-08
80	0x9ab9d3e8	-7.685656e-23
81	0x1ab84d67	7.6225667e-23
82	0x1881d3bc	3.3559516e-24
83	0xa2090b63	-1.857299e-18
84	0xb06f723a	-8.711002e-10
85	0x35ff56c7	1.9024236e-06
86	0x20d70f90	3.6432715e-19
87	0x9a1bfcbd	-3.225741e-23
88	0x9a4e1af5	-4.2621577e-23
89	0x1a14c424	3.0764124e-23
90	0x17b4950c	1.1669852e-24
91	0x278b6bfa	3.869732e-15
92	0x9a14ff12	-3.0811727e-23
93	0x9a545298	-4.390729e-23
94	0x97428856	-6.285686e-25
95	0x2cddb4c5	6.3012672e-12
96	0x9ab3706d	-7.42143e-23
97	0x99bace92	-1.9315382e-23
98	0x3394b0f5	6.923975e-08
99	0x33f93cc2	1.1606018e-07
100	0x1b4e65f6	1.7072866e-22
101	0x9a975a31	-6.259785e-23
102	0x1763bc05	7.358497e-25
103	0x33f4c266	1.1397496e-07
104	0xaa8472ff	-2.3527705e-13
105	0x1a13005d	3.039918e-23
106	0x99a07de4	-1.6594459e-23
107	0x1b28731c	1.3933828e-22
108	0x30394ff2	6.7416217e-10
109	0x1d386edd	2.4409512e-21
110	0xaf357b5e	-1.6505683e-10
111	0x9a116186	-3.0064076e-23
112	0x9ba0654a	-2.6535236e-22
113	0x2343c6e3	1.0613087e-17
114	0x2b75c555	8.731534e-13
115	0x3214ec6f	8.668493e-09
116	0x9c0c90bc	-4.650918e-22
117	0x1ae4e488	9.46678e-23
118	0xb4334fda	-1.6699724e-07
119	0xb4e5397a	-4.2696394e-07
120	0x942c1a59	-8.688977e-27
121	0x995be292	-1.136779e-23
122	0x99f90156	-2.5746536e-23
123	0xb511c7d7	-5.4307515e-07
124	0xb2849f22	-1.5439188e-08
125	0x98663c1a	-2.9757147e-24
126	0x199b78ad	1.6075365e-23
127	0x1710210e	4.657063e-25
128	0x136878d1	2.9342084e-27
129	0xa22e0e70	-2.358904e-18
130	0xaa209388	-1.426204e-13
131	0x35af0c30	1.3042063e-06
132	0xb0a4d303	-1.1992544e-09
133	0x1a8756b8	5.597479e-23
134	0x9aa1c6ab	-6.6909005e-23
135	0x9a240630	-3.3919403e-23
136	0x30132d20	5.3542415e-10
137	0x18beec5b	4.9352507e-24
138	0x9a715551	-4.990655e-23
139	0x173c6788	6.087675e-25
140	0xb4b40b84	-3.353599e-07
141	0x18b38bd6	4.6411614e-24
142	0x248c552f	6.085963e-17
143	0xb544accf	-7.326716e-07
144	0x1d20aa97	2.1264017e-21
145	0x9b13a083	-1.2211419e-22
146	0x1ac3cf52	8.0985054e-23
147	0xb30bef03	-3.258084e-08
148	0x2ee1b45a	1.0263852e-10
149	0x9a83fd34	-5.45894e-23
150	0x9a126d01	-3.0280145e-23
151	0x34638442	2.1189138e-07
152	0x9c02e24f	-4.330589e-22
153	0xb5419181	-7.210984e-07
154	0xa39ddfbb	-1.7116728e-17
155	0x19247f23	8.504276e-24
156	0x0fd869b9	2.1339967e-29
157	0x1e4cd435	1.08435535e-20
158	0x9a00c43c	-2.6628296e-23
159	0xb57f339e	-9.5070016e-07
160	0x271a616c	2.1424606e-15
161	0x994b8c88	-1.0523234e-23
162	0x318c9c5f	4.0923136e-09
163	0x910c8256	-1.1084216e-28
164	0x1645469c	1.5935814e-25
165	0x97340e36	-5.8179074e-25
166	0xa447f9db	-4.3362882e-17
167	0xa6b87172	-1.2798314e-15
168	0x0fed7ae5	2.3417342e-29
169	0x1a131a06	3.041991e-23
170	0x98810457	-3.33501e-24
171	0x1a068ace	2.7822676e-23
172	0x9081ab46	-5.1145417e-29
173	0x1a2d87f6	3.588539e-23
174	0x9b89d73c	-2.280384e-22
175	0x23f097d3	2.6085152e-17
176	0x0e2011f7	1.9730172e-30
177	0x9981357c	-1.335989e-23
178	0xab0f78c6	-5.097141e-13
179	0x265db950	7.6925923e-16
180	0xadfd6255	-2.8806438e-11
181	0x9a3126a4	-3.6633956e-23
182	0xa214b53a	-2.015368e-18
183	0xad0bac41	-7.939483e-12
184	0x0ef5c537	6.0587074e-30
185	0x9a3b9c85	-3.879713e-23
186	0x1826e821	2.1572192e-24
187	0x1195f167	2.365683e-28
188	0x90991369	-6.0377765e-29
189	0x998621c9	-1.3868921e-23
190	0x21a5c0b9	1.1231848e-18
191	0x10bfafbb	7.560697e-29
192	0x90c32284	-7.696712e-29
193	0xb337767c	-4.271577e-08
194	0x98009a48	-1.6621504e-24
195	0x33e10c3b	1.0479604e-07
196	0x8b71a0d5	-4.6535908e-32
197	0x1835c99f	2.3495494e-24
198	0x1eb709e9	1.9379977e-20
199	0x91a1a3b2	-2.5502206e-28
200	0x32ec8ee7	2.7539e-08
201	0x190d10d5	7.292928e-24
202	0x98ed969d	-6.1415145e-24
203	0x1a85d561	5.535224e-23
204	0x97eb960e	-1.5224398e-24
205	0xaaef0ebd	-4.2465155e-13
206	0x1961c295	1.1671523e-23
207	0x1a923b46	6.0479946e-23
208	0xb5f722c4	-1.8413052e-06
209	0x1b4cd29c	1.6942536e-22
210	0x9b786f47	-2.0550035e-22
211	0x3111d7d0	2.1222952e-09
212	0x98acbf71	-4.4654264e-24
213	0x34201ef0	1.4912416e-07
214	0x17d3a235	1.3676502e-24
215	0xad7e2d20	-1.4448248e-11
216	0x191be904	8.060369e-24
217	0x3153aa43	3.0801324e-09
218	0xb3733849	-5.6629037e-08
219	0x1a442183	4.055892e-23
220	0xa5628187	-1.9646261e-16
221	0x9a1cb659	-3.2407343e-23
222	0x355ad2dc	8.151817e-07
223	0x3241d65a	1.12828165e-08
224	0x1907a50b	7.0126666e-24
225	0x35284cb3	6.269649e-07
226	0x9d310e44	-2.343313e-21
227	0x1abe3381	7.866537e-23
228	0x17f26500	1.5664379e-24
229	0x2cde5511	6.3190638e-12
230	0x9ea28295	-1.7206425e-20
231	0x19e1415e	2.3290856e-23
232	0x18579a1b	2.7865902e-24
233	0x982b3d96	-2.2132325e-24
234	0x9819cb38	-1.9877386e-24
235	0x1a14751f	3.0700292e-23
236	0x97abb76f	-1.1096921e-24
237	0x26946744	1.0297553e-15
238	0x21c99850	1.3660607e-18
239	0xb5ec4b07	-1.7605206e-06
240	0xad23a4b6	-9.3020504e-12
241	0xb281e0bf	-1.511978e-08
242	0x9b5221a0	-1.7381658e-22
243	0xa20534b8	-1.805277e-18
244	0x18a142b9	4.1684897e-24
245	0x34893699	2.5557964e-07
246	0xa73ba696	-2.604177e-15
247	0x19bc1907	1.9448853e-23
248	0x9700c9e0	-4.1613833e-25
249	0x34bd5d1d	3.5271742e-07
250	0xb1a93204	-4.9242335e-09
251	0x9a5d5386	-4.57692e-23
252	0x2d356e45	1.0313144e-11
253	0x154ebff1	4.1752784e-26
254	0x9a35f3e0	-3.7626923e-23
255	0x19b7f2fc	1.9019897e-23

spatial_module.v f4 [8, 4, 10]
0	0x1fa2e879	6.899426e-20
1	0xa1b2cce7	-1.2115986e-18
2	0x20571237	1.8217235e-19
3	0x9e80b955	-1.3629179e-20
4	0xa097616d	-2.5644866e-19
5	0x20de38cb	3.7645845e-19
6	0xa0372b45	-1.551502e-19
7	0x21924bdd	9.913426e-19
8	0xaa9265da	-2.6005484e-13
9	0x9f00980b	-2.723082e-20
10	0xaf5807d0	-1.9647861e-10
11	0x225383f2	2.8665684e-18
12	0x9e1b178b	-8.2105e-21
13	0x27571301	2.9847546e-15
14	0x9dd10768	-5.5329497e-21
15	0x9e51ac14	-1.1099953e-20
16	0x9df61c88	-6.514516e-21
17	0x9e9c3ca2	-1.654222e-20
18	0xac06fbb4	-1.9182269e-12
19	0x9e51bb47	-1.1103096e-20
20	0x9b998c14	-2.540225e-22
21	0x9fa8a57f	-7.142456e-20
22	0x2d60e897	1.2784571e-11
23	0x9b6fe712	-1.984428e-22
24	0x1e992fd8	1.6219293e-20
25	0x9a499a8f	-4.1690677e-23
26	0x96b02c39	-2.8462242e-25
27	0x2d8a492d	1.572128e-11
28	0x99a64e3c	-1.7195596e-23
29	0x21b26905	1.2089548e-18
30	0x1e6233bf	1.1975041e-20
31	0x1f118c0f	3.0820798e-20
32	0x9db62c19	-4.8220595e-21
33	0xa10367ad	-4.452174e-19
34	0x1f5b8261	4.64829e-20
35	0x28b5a3d1	2.016608e-14
36	0xab490e29	-7.1429196e-13
37	0x9e9685a4	-1.593714e-20
38	0xa54419a7	-1.7008981e-16
39	0x245a680c	4.7359346e-17
40	0xae205c5f	-3.646183e-11
41	0xa053d7cb	-1.7943795e-19
42	0xacc862e0	-5.695319e-12
43	0x293747fa	4.0696592e-14
44	0xa193f608	-1.0026231e-18
45	0x1e476fc9	1.0558089e-20
46	0x9d2d0b08	-2.2902062e-21
47	0x9d2efa39	-2.315807e-21
48	0x9a543941	-4.3886822e-23
49	0x9ac22037	-8.0288565e-23
50	0x9f51389f	-4.4304307e-20
51	0x2de6f2be	2.6255772e-11
52	0x9ed2b5cd	-2.2309806e-20
53	0x9f968819	-6.3752626e-20
54	0x9f970135	-6.3952984e-20
55	0x2438c6aa	4.0066915e-17
56	0x1e2e4f38	9.227865e-21
57	0x9fb8bd8c	-7.824061e-20
58	0x1f6c7750	5.0073637e-20
59	0x9fcc79f4	-8.6599115e-20
60	0x9c8354af	-8.690743e-22
61	0x9c5787bc	-7.1312965e-22
62	0x9ac9d4d7	-8.347551e-23
63	0x9d8668c5	-3.5577834e-21
64	0x1a99672d	6.3446006e-23
65	0x9d625d3e	-2.9959056e-21
66	0x9b9c7a0b	-2.5886904e-22
67	0x201ca09a	1.3266853e-19
68	0x9d2d0f40	-2.2904243e-21
69	0x9aae9042	-7.2197774e-23
70	0x1ee68291	2.4406198e-20
71	0x9e480acb	-1.0590144e-20
72	0x9efc71e3	-2.672864e-20
73	0x9e0f3138	-7.580535e-21
74	0xad19c132	-8.739941e-12
75	0x9efb423d	-2.6603054e-20
76	0x2d137b62	8.383379e-12
77	0xadfe7943	-2.8930308e-11
78	0xa02a8006	-1.444192e-19
79	0x1eab4388	1.813326e-20
80	0x9bde37b2	-3.6762811e-22
81	0x9aa7b624	-6.9363845e-23
82	0x99cc23af	-2.1107518e-23
83	0x9bbec9a9	-3.1563183e-22
84	0x1ba0b7a0	2.6588444e-22
85	0x1a66eb76	4.775309e-23
86	0x9a8e9096	-5.8963415e-23
87	0x9b1a7520	-1.2776427e-22
88	0xb02afce1	-6.2205e-10
89	0x27919fb9	4.0418756e-15
90	0xa703311b	-1.8206522e-15
91	0x20671c0c	1.9575741e-19
92	0xa48132e4	-5.6031044e-17
93	0x1e0dc8d3	7.506007e-21
94	0xb00168ab	-4.707867e-10
95	0x20251093	1.3981528e-19
96	0xa91f8155	-3.541727e-14
97	0x2085dc27	2.267676e-19
98	0x2033fe17	1.5245961e-19
99	0x9b27ee60	-1.3890939e-22
100	0x2386cf9e	1.4616238e-17
101	0x1ea25b4e	1.719018e-20
102	0xad2e2951	-9.899929e-12
103	0x1ddff607	5.9281995e-21
104	0x1f132833	3.1161713e-20
105	0x1f9b1bb5	6.569089e-20
106	0x25611d9e	1.9525674e-16
107	0x9f6958a0	-4.9412978e-20
108	0xa1027ff4	-4.421506e-19
109	0x9c7c2212	-8.342384e-22
110	0x9f00a264	-2.723938e-20
111	0x1ef36c9f	2.577355e-20
112	0x29f49011	1.0860768e-13
113	0x2e01f9ab	2.9552954e-11
114	0xaeab722e	-7.796462e-11
115	0x1f00bddd	2.7262106e-20
116	0x9fc045a3	-8.143037e-20
117	0xaf0a9a5f	-1.260587e-10
118	0x9e2164ae	-8.544089e-21
119	0x1f2c569d	3.649406e-20
120	0x1f6a881e	4.966402e-20
121	0x1d8abeee	3.6725713e-21
122	0x1e48434a	1.0601827e-20
123	0x1e72688b	1.2832992e-20
124	0x1e19807d	8.126323e-21
125	0x1f3964e5	3.9258732e-20
126	0x1ec581dd	2.0911897e-20
127	0x1e77301e	1.30860215e-20
128	0xa22160ef	-2.1870885e-18
129	0x1c18722e	5.0440155e-22
130	0x1f153a84	3.160038e-20
131	0x9ffd69ec	-1.073249e-19
132	0x2718a131	2.118162e-15
133	0x1d8d02b7	3.7325196e-21
134	0x2092cc33	2.486849e-19
135	0xaf6e55ea	-2.1676497e-10
136	0x1f157c9c	3.1655052e-20
137	0x1ef07429	2.5459031e-20
138	0xae116873	-3.3061952e-11
139	0x9ffeda3a	-1.0793421e-19
140	0x948ae604	-1.4025164e-26
141	0xae8e91d3	-6.483316e-11
142	0x2fc1c18d	3.5244022e-10
143	0x9e5f6645	-1.18266705e-20
144	0x964f178c	-1.6728757e-25
145	0x9523a25e	-3.3045673e-26
146	0x9449d769	-1.0190389e-26
147	0x9aea2dc4	-9.685407e-23
148	0xa684a49a	-9.203955e-16
149	0x963523d1	-1.4632365e-25
150	0x1f1b2a04	3.285728e-20
151	0x1f83b53c	5.5780485e-20
152	0x207d47d7	2.1453703e-19
153	0x1eee161c	2.5208374e-20
154	0x9ff9af94	-1.0574607e-19
155	0xaebb2d02	-8.5117705e-11
156	0x292b8c62	3.809139e-14
157	0x2e65195c	5.2091095e-11
158	0xa17a1f57	-8.4744773e-19
159	0x20cec615	3.5028837e-19
160	0x182d34f5	2.2386462e-24
161	0x1897f46f	3.92794e-24
162	0x1c0abf9a	4.590801e-22
163	0x18dde935	5.736264e-24
164	0x18a3723d	4.2249864e-24
165	0x16acf51e	2.794279e-25
166	0x9887284a	-3.4937364e-24
167	0x1e113ba1	7.688567e-21
168	0xa0630e69	-1.9232416e-19
169	0x1a1d1c84	3.2489874e-23
170	0x9ce8c397	-1.5403031e-21
171	0x1d3045ce	2.3329494e-21
172	0x9d1e7b53	-2.0974883e-21
173	0x1c1f81ef	5.277662e-22
174	0x9c0ba1d2	-4.620039e-22
175	0x2f49caa3	1.8352835e-10
176	0x9c6dcdbb	-7.868262e-22
177	0xace66106	-6.547765e-12
178	0x20280c96	1.4234318e-19
179	0x9e002c96	-6.785484e-21
180	0xa0d9f5d9	-3.6923918e-19
181	0xadc556dc	-2.243488e-11
182	0xa8a93b10	-1.8788383e-14
183	0x9bf0618e	-3.9767713e-22
184	0x294a24c4	4.48849e-14
185	0x1c0bbcb1	4.623512e-22
186	0x9ce367ad	-1.5048399e-21
187	0x219976ee	1.0399164e-18
188	0x1bc3799e	3.2338637e-22
189	0x9b4709f7	-1.6464114e-22
190	0x23b54b25	1.9655884e-17
191	0x22211796	2.1832055e-18
192	0x1dcd7470	5.438344e-21
193	0x9f5f0300	-4.7224568e-20
194	0x9d9a9271	-4.0914877e-21
195	0x1d5c2952	2.913812e-21
196	0x1da1942e	4.276956e-21
197	0x1de6adc9	6.1060183e-21
198	0x1f714cc2	5.1097228e-20
199	0x9d8eb044	-3.776934e-21
200	0x9f3460a5	-3.8196425e-20
201	0x1cb69724	1.2082819e-21
202	0xa4c76860	-8.647931e-17
203	0x278075af	3.565473e-15
204	0x210048af	4.3464283e-19
205	0x268735dc	9.382105e-16
206	0xa07ebabc	-2.1576422e-19
207	0xa05dc65c	-1.878506e-19
208	0xae0d15af	-3.2078947e-11
209	0xa62b8ecc	-5.952107e-16
210	0x202ebd0c	1.4800924e-19
211	0xa475a24c	-5.3263377e-17
212	0x248e75a4	6.1781974e-17
213	0x302e4fcd	6.3414235e-10
214	0x27ca9aa5	5.623393e-15
215	0x9ff0dcff	-1.0200956e-19
216	0x9c9fd174	-1.057588e-21
217	0xa00f1463	-1.2119317e-19
218	0x1edf310a	2.3631325e-20
219	0xa22f9b33	-2.3799084e-18
220	0xa024d046	-1.3960252e-19
221	0x2e0baa72	3.1756327e-11
222	0x1e87c787	1.4376204e-20
223	0x1f515fd4	4.433674e-20
224	0x1f5764ab	4.561129e-20
225	0x2ee7cdf5	1.0541249e-10
226	0x9f097092	-2.9103994e-20
227	0x1fc624cf	8.3917156e-20
228	0x2b8bcffe	9.934273e-13
229	0x9f3e5115	-4.0301134e-20
230	0xad6d57df	-1.3491402e-11
231	0x1fd65ee5	9.0789515e-20
232	0x245750cb	4.6689128e-17
233	0xac9416c6	-4.2089414e-12
234	0xafc2693a	-3.5363162e-10
235	0xa08805c6	-2.3043117e-19
236	0xa0ba968d	-3.1609252e-19
237	0x20553e37	1.8062387e-19
238	0xa0263ee2	-1.4081553e-19
239	0x1ff3c0ed	1.0323367e-19
240	0x9f30085c	-3.7276364e-20
241	0x1e14057b	7.836188e-21
242	0x1ffd31b6	1.0723191e-19
243	0x9e17ffc6	-8.046766e-21
244	0x9f461a23	-4.194975e-20
245	0x2dafb067	1.9973535e-11
246	0x9f96f3b1	-6.3930625e-20
247	0x9ee94584	-2.4698586e-20
248	0x9f3e926d	-4.0355186e-20
249	0x1e86ed94	1.4286062e-20
250	0x1d77e226	3.2807094e-21
251	0xa059ab67	-1.8437327e-19
252	0x9e32963d	-9.45431e-21
253	0x9f175d1a	-3.2052506e-20
254	0x9ec414a7	-2.0760849e-20
255	0x9f20c18f	-3.4041426e-20

spatial_module.qkv_proj_low.weight f4 [12, 32]
0	0xbda5b8f0	-0.08091915
1	0xbd3cbb18	-0.046076864
2	0xbdf2c3ff	-0.118537895
3	0x3d33d752	0.043906517
4	0x3e361b97	0.17783962
5	0xbca34622	-0.019930903
6	0xbc33077c	-0.010927077
7	0x3d6caa3a	0.05777953
8	0x3e091ddc	0.13390297
9	0x3dfc1e2d	0.12310443
10	0xbcb87681	-0.022517445
11	0xbe0f88d0	-0.14017034
12	0xbb260d14	-0.0025337385
13	0x3daead77	0.085291795
14	0x3da9c9eb	0.08290466
15	0x3cf775a4	0.030207463
16	0x3cb1bebd	0.021697396
17	0xbda1cd65	-0.07900504
18	0xbd45b842	-0.048271425
19	0xbe221251	-0.158273
20	0xbd953734	-0.0728592
21	0xbdc7f6f7	-0.09763902
22	0x3dc2c883	0.09510901
23	0x3c164f6a	0.009174207
24	0x3d24d631	0.04024333
25	0xbd910756	-0.07081477
26	0xbe185578	-0.14876354
27	0xbdaed362	-0.08536412
28	0xbdbda5ec	-0.09260163
29	0xbc11c662	-0.008897396
30	0xbd5d1a84	-0.053980365
31	0x3e0169f8	0.1263808
32	0xbd03f30c	-0.03221421
33	0x3d8f147d	0.0698633
34	0x3e01a02a	0.12658754
35	0xbc84f6ea	-0.016231019
36	0x3d22aae4	0.039713755
37	0xbe0d8b03	-0.1382256
38	0x3e0f8e51	0.14019133
39	0xbe2411f1	-0.16022469
40	0x3d62b808	0.055351287
41	0x3e08682c	0.13320988
42	0xbdba0a8c	-0.09084043
43	0xbd573c33	-0.052547645
44	0x3db14a4b	0.086567484
45	0x3d855d6e	0.06511961
46	0x3ddd9cdf	0.108209364
47	0x3c792373	0.015206206
48	0x3de1e24b	0.1102949
49	0xbdff6b2e	-0.12471615
50	0x3c1c9586	0.009557134
51	0x3d8c1d0d	0.068414785
52	0x3dc84003	0.09777834
53	0x3e0aae9f	0.13543175
54	0x3e033903	0.12814717
55	0xbde12c7d	-0.109948136
56	0x3da3d58d	0.07999716
57	0x3d96c789	0.07362277
58	0xbd206198	-0.039155573
59	0xbdac7087	-0.084199004
60	0x3dafd0e6	0.08584766
61	0xbd1292e2	-0.03578461
62	0xbe2c956c	-0.16853875
63	0xbe21d57d	-0.15804096
64	0x3e1c0d2b	0.15239398
65	0x3e21c88a	0.15799156
66	0xbcaa4539	-0.020784961
67	0x3de23d47	0.11046844
68	0xbda07c26	-0.078361794
69	0x3db7db85	0.08977417
70	0xbe01321f	-0.12616776
71	0x3b81a832	0.003956818
72	0x3d42f301	0.047595028
73	0xbd927f5d	-0.07153199
74	0xbe0ed6a7	-0.13949071
75	0xbdd2712b	-0.10275491
76	0xbd8fadea	-0.07015593
77	0x3d0c75d3	0.034292053
78	0xbdf59ee3	-0.11993196
79	0x3c29b202	0.010357382
80	0x3cac1ba9	0.021009283
81	0x3da1e7d8	0.07905549
82	0x3d30c6f1	0.043158475
83	0xbe05074a	-0.12991062
84	0x3df29cd5	0.118463196
85	0x3bcf50bb	0.0063267625
86	0xbda6cb6e	-0.0814427
87	0xbdd52ace	-0.10408555
88	0xbd663839	-0.05620596
89	0x3e148657	0.14504372
90	0x3db80b85	0.08986572
91	0xbb665fd4	-0.0035152333
92	0x3be2a9b6	0.006917204
93	0x3e03b3ba	0.12861529
94	0x3dde1217	0.10843294
95	0xbcb8a694	-0.022540368
96	0x3e18d1e3	0.14923815
97	0xbdda7159	-0.106661506
98	0xbd85e0ee	-0.065370426
99	0x3e15df13	0.14635877
100	0x3df73175	0.1206998
101	0xbe271534	-0.16316682
102	0x3e0bd69d	0.13656087
103	0x3cbaa769	0.022784906
104	0x3dc6eab2	0.09712733
105	0x3b0afa32	0.0021206257
106	0x3d1cf701	0.0383215
107	0xbdf78cf7	-0.12087434
108	0x3deff71f	0.117170565
109	0xbcd76fca	-0.026298422
110	0x3c2fb27a	0.0107237045
111	0x3d949159	0.07254285
112	0xbdda056b	-0.10645565
113	0x3c9df047	0.019279612
114	0xbdd03b78	-0.10167593
115	0x3e02228d	0.12708493
116	0x3d962b3d	0.07332466
117	0xbca030e7	-0.019554568
118	0x3defea8a	0.11714657
119	0xbd1f4283	-0.03888179
120	0x3cae3f6f	0.021270482
121	0x3d891107	0.06692701
122	0xbda60cdc	-0.081079215
123	0xbd0c98c2	-0.03432537
124	0xbd433a4f	-0.04766303
125	0x3d84ea29	0.06489975
126	0xbe2e7037	-0.17034994
127	0xbdc667df	-0.096877806
128	0x3c871047	0.016487254
129	0x3e0397a5	0.12850817
130	0x3cf2f016	0.029655498
131	0xbd6fc644	-0.05853869
132	0xbda59446	-0.080849215
133	0x3dfd0ea9	0.12356312
134	0xbc345f5c	-0.011009064
135	0xbe060292	-0.13086918
136	0xbdbf9287	-0.0935412
137	0xbdb87d52	-0.09008278
138	0x3d626d31	0.055279914
139	0x3cc1771b	0.023616364
140	0xbdb9e1bc	-0.090762585
141	0xbd28477e	-0.041083805
142	0x3dc09960	0.09404254
143	0xbc4c1944	-0.012457196
144	0x3c5f141a	0.013615632
145	0x3e0db1c0	0.13837337
146	0xbd2ab1d6	-0.041673504
147	0xbd21c484	-0.039494053
148	0xbd4d2c4c	-0.050091073
149	0xbd8ae2d2	-0.06781544
150	0xbd05681e	-0.032569997
151	0x3df049f7	0.11732858
152	0xbbfdc44a	-0.0077443467
153	0xbd8e97a0	-0.06962514
154	0xbce6fcc4	-0.0281967
155	0x3da7e33f	0.08197641
156	0xbd61be8e	-0.055113368
157	0xbcbcd6f8	-0.023051724
158	0x3c0160c6	0.007896608
159	0xbc8aed89	-0.016958969
160	0x3db18dd6	0.08669631
161	0x3e07190d	0.1319315
162	0x3e06877e	0.13137624
163	0xbc083ab5	-0.008314778
164	0xb99317a6	-0.00028055644
165	0xbe2f1a2a	-0.17099825
166	0xbd0f32db	-0.03496061
167	0x3d28ea37	0.04123899
168	0x3ddc05fa	0.107433274
169	0x3cf0ab42	0.029378537
170	0x3dfd1e88	0.12359339
171	0xbdb141fd	-0.086551644
172	0xbdd42c85	-0.10360054
173	0x3d0006cf	0.031256493
174	0x3e21106a	0.15728918
175	0x3d958860	0.07301402
176	0x3dac47e7	0.08412152
177	0x3d26430e	0.040591292
178	0x3bf05fe0	0.007335648
179	0x3d65759a	0.056020357
180	0xbda0294f	-0.07820379
181	0x3c3ab5ed	0.011395914
182	0xbdb81cbf	-0.08989858
183	0xbd90f176	-0.07077305
184	0x3c56c530	0.013108537
185	0x3bf527ed	0.007481566
186	0xbe041f92	-0.12902668
187	0x3ca7912a	0.020454962
188	0x3e0fc550	0.14040112
189	0x3dae018c	0.08496389
190	0x3d8ff19e	0.07028507
191	0x3d9e49c7	0.07728916
192	0x3d551e33	0.052030753
193	0x3baf70f5	0.0053540417
194	0xbe3c396e	-0.18381283
195	0x3dc58240	0.09643984
196	0x3e00145c	0.12507766
197	0x3d9d2a48	0.0767408
198	0x3e236abd	0.15958686
199	0xbde6f191	-0.11276544
200	0xbdeae79d	-0.11469958
201	0xbdab4e65	-0.08364562
202	0xbd8af5ed	-0.06785188
203	0xbdaf8eaf	-0.085721366
204	0xbd15e8d8	-0.03659901
205	0xbd59712d	-0.05308645
206	0x3c9d9e25	0.019240448
207	0x3cd1933f	0.025582908
208	0x3dd00f4f	0.1015917
209	0x3d956c9c	0.07296106
210	0xbdeb3f43	-0.114866756
211	0x3d6c104e	0.057632737
212	0xbd9dfba5	-0.07714013
213	0x3d57cf93	0.052688193
214	0x3de4b3eb	0.11167129
215	0x3e06a83c	0.13150114
216	0x3dc4a25c	0.0960128
217	0x3e0d4b50	0.1379826
218	0x3e1babda	0.15202275
219	0x3c8eb701	0.017421247
220	0xbbcc2ad6	-0.0062306924
221	0x3d6dd306	0.058062576
222	0x3dc542b3	0.096318625
223	0xbddf3e5d	-0.10900567
224	0x3bbe8da5	0.005815225
225	0x3d2255f5	0.039632756
226	0x3ddfde74	0.109311014
227	0xbd69f6d6	-0.057120167
228	0xbdc89d31	-0.09795607
229	0xbdd9dde6	-0.10638027
230	0xbd4cf646	-0.050039552
231	0x3e169e72	0.1470888
232	0xbd68666e	-0.05673831
233	0xbd0862aa	-0.03329722
234	0x3dff2ffa	0.12460323
235	0xbda673d5	-0.08127562
236	0xbe033a2d	-0.12815161
237	0xbcc5c656	-0.024142426
238	0xbd9f9134	-0.07791367
239	0x3cc34e95	0.023841182
240	0xbe116bb9	-0.14201249
241	0xbe2e42c9	-0.17017664
242	0x3d88d766	0.06681709
243	0xbda9c981	-0.08290387
244	0xbdbf2799	-0.093337245
245	0xbdd004f7	-0.10157197
246	0xbdfe3318	-0.12412089
247	0xbdd8d050	-0.105866075
248	0xbd84bb2d	-0.064810134
249	0x3d3b35ae	0.04570549
250	0xbe04674e	-0.12930033
251	0xbcba15e9	-0.022715526
252	0xbd24ec51	-0.04026443
253	0xbc64a880	-0.013956189
254	0xbc1f8a1c	-0.009737518
255	0xbdd67009	-0.10470588

spatial_module.qkv_proj_low.bias f4 [12]
0	0x3db37e5d	0.08764336
1	0x3d197f30	0.03747481
2	0x3de96990	0.113970876
3	0xbd874d28	-0.06606513
4	0xbcfb36c4	-0.030665763
5	0xbcb2884b	-0.021793505
6	0xbe0c17ab	-0.13680904
7	0x3dbb05d1	0.09131969
8	0xbe074f32	-0.13213804
9	0x3cc94530	0.024569124
10	0x3d6016f5	0.054709394
11	0x3d5af532	0.053456493

spatial_module.qkv_proj_high.weight f4 [96, 12]
0	0x3d1fbda4	0.038999215
1	0x3cfc01dc	0.030762605
2	0x3e38d32f	0.1804931
3	0x3c326358	0.010887943
4	0x3d320831	0.043464843
5	0xbde5372a	-0.11192162
6	0x3cebe8c7	0.02879752
7	0x3e0120a8	0.12610114
8	0xbc9edc02	-0.019392017
9	0xbdddb5b8	-0.10825676
10	0xbdbb3c2f	-0.091423385
11	0x3d66cdfc	0.056348786
12	0x3d807996	0.06273191
13	0x3d67d470	0.05659908
14	0x3ce91213	0.028451001
15	0xbd86253c	-0.06550071
16	0xbc1bd334	-0.009510804
17	0xbd16736f	-0.03673118
18	0x3cf59ffc	0.029983513
19	0xbcc9c263	-0.024628824
20	0xbcbb371e	-0.02285343
21	0xbda82a5b	-0.08211204
22	0xbd87974d	-0.06620655
23	0xbdb24648	-0.08704811
24	0xbd520c6c	-0.051281378
25	0xbd6b834a	-0.057498254
26	0x3a796154	0.0009513099
27	0x3d6c76ed	0.057730604
28	0x3d457c35	0.048214156
29	0xbdffec68	-0.12496263
30	0x3a7d2201	0.0009656251
31	0x3db1c61b	0.08680364
32	0x3cd167e6	0.025562238
33	0xbd860e35	-0.065456785
34	0xbdaeea8e	-0.085408315
35	0xbde766ee	-0.11298929
36	0xbdb10d26	-0.08645086
37	0xbc1fdb6d	-0.009756905
38	0xbd2595cc	-0.04042606
39	0xbe0fd1d9	-0.14044894
40	0x3d426799	0.04746208
41	0x3dcf16d0	0.10111773
42	0xbc876758	-0.01652877
43	0x3dc301f4	0.09521857
44	0x3cf294dd	0.029612
45	0x3c32ac58	0.010905348
46	0x3c9ad7fb	0.018901816
47	0xbe3b9fac	-0.18322629
48	0x3e177984	0.14792448
49	0x3d0432e7	0.032275107
50	0x3e6d2d20	0.23161745
51	0xbd8202e1	-0.06348205
52	0xbe18183a	-0.14852992
53	0xbdf844e4	-0.12122515
54	0x3d9db8a7	0.07701235
55	0xbe4e612a	-0.20154253
56	0xbc5ebf5a	-0.013595426
57	0xbd1b8830	-0.037971675
58	0xbd0c9b91	-0.034328047
59	0x3e281ae8	0.16416514
60	0xbd860e31	-0.065456755
61	0xbda563f3	-0.080757044
62	0xbdecaef3	-0.115568064
63	0x3d94f49b	0.07273217
64	0xbdf77a14	-0.120838314
65	0x3b344c40	0.002751127
66	0xbd216264	-0.039400473
67	0x3d9af318	0.07565898
68	0x3dc2bff7	0.09509271
69	0xbc350d16	-0.011050483
70	0x3bfa35f7	0.0076358276
71	0xbddae768	-0.106886685
72	0xbd2147b6	-0.03937503
73	0xbd60e18b	-0.054902595
74	0x3df113ee	0.117713794
75	0x3e1b9fd6	0.15197691
76	0x3dafac31	0.08577765
77	0xbd47c09e	-0.04876768
78	0xbd4a9d40	-0.04946637
79	0x3cb423aa	0.021989662
80	0x3db13c1d	0.08654044
81	0x3cbb00b2	0.02282748
82	0xbcdff783	-0.027339702
83	0x3d938a81	0.07204152
84	0xbd82c1a9	-0.06384594
85	0x3dbdf71b	0.09275647
86	0x3e054a48	0.13016617
87	0xbdc25c05	-0.094902076
88	0xbd978758	-0.07398862
89	0x3d3241b7	0.0435197
90	0xbd1b37fc	-0.037895188
91	0x3e0f39da	0.13986912
92	0xbd234c7a	-0.039867856
93	0xbdff55c6	-0.12467532
94	0xbdd39a1a	-0.10332127
95	0x3e355280	0.17707253
96	0xbddec776	-0.10877888
97	0xbc412a0c	-0.01178981
98	0xbe479784	-0.19491392
99	0xbd5c0a28	-0.053720623
100	0xbdd5d535	-0.10441057
101	0xbccbc25a	-0.024872947
102	0x3db7526f	0.0895127
103	0xbd8db665	-0.069195546
104	0x3db07714	0.08616462
105	0xbe37607c	-0.179079
106	0xbc059129	-0.008152285
107	0x3bf91ad3	0.0076020746
108	0xbe201c9d	-0.15635915
109	0xbe5d1592	-0.2159026
110	0x3da3212d	0.07965312
111	0x3d813b2a	0.06310113
112	0xbe5ab16d	-0.21356745
113	0xbc9b5742	-0.018962506
114	0xbdd79f26	-0.10528402
115	0xbd935111	-0.071931966
116	0x3d53a9db	0.05167566
117	0x3c820414	0.015871085
118	0xbe0b416a	-0.13599172
119	0xbdfdc6c4	-0.12391427
120	0xbe4491af	-0.19196199
121	0xbd94e18d	-0.07269583
122	0x3ce61d06	0.028090011
123	0x3d17d889	0.03707174
124	0xbbdce1aa	-0.0067407684
125	0xbdb0ca19	-0.08632297
126	0x3e373413	0.17890958
127	0x3e2136d0	0.15743566
128	0x3e1cc64b	0.15310018
129	0x3e54631e	0.20740935
130	0x3d696fe8	0.056991488
131	0x3e3f5b12	0.18687084
132	0x3e328db9	0.17436875
133	0xbd75ad0b	-0.05997948
134	0xbd0419b1	-0.032251064
135	0xbdb83bd7	-0.089957885
136	0x3dc54b1e	0.09633468
137	0xbd4f85da	-0.05066476
138	0xbe02dd44	-0.12779719
139	0xbd964383	-0.073370956
140	0x3c9e3ee4	0.019317098
141	0xbd49c3a7	-0.049258854
142	0xbe0dd54d	-0.13850899
143	0xbdd4b4c3	-0.1038604
144	0xbdae4e57	-0.08511036
145	0xbd495edf	-0.04916274
146	0xbd9229c7	-0.07136875
147	0xbd42b6ac	-0.04753749
148	0xbdc507dd	-0.096206404
149	0xbd8c49da	-0.068500236
150	0x3cc9caf2	0.024632905
151	0x3dcbc905	0.09950451
152	0xbd77d01a	-0.060501195
153	0xbd9bb1ab	-0.07602247
154	0x3cb14750	0.02164045
155	0x3e1e21e9	0.15442623
156	0xbe0ba543	-0.13637261
157	0x3dd14163	0.1021755
158	0x3d817861	0.063217886
159	0x3dd4fa80	0.103993416
160	0xbe0d4cf0	-0.1379888
161	0x3c8c261d	0.017108018
162	0x3e0b861f	0.13625382
163	0x3e3ce344	0.1844607
164	0x3d49fbb7	0.04931232
165	0x3e029fcf	0.12756275
166	0xba1d2c2d	-0.00059956574
167	0x3d79ebf6	0.061016046
168	0x3e07d1e7	0.13263665
169	0xbc79a3fd	-0.015236852
170	0x3e237e55	0.1596616
171	0xbd70427a	-0.058657147
172	0x3c7d0fd4	0.015445668
173	0xbd585c2a	-0.05282227
174	0x3d09e2d8	0.0336636
175	0xbe1ac5e5	-0.15114553
176	0x3d9e8ba5	0.07741479
177	0xbc085a30	-0.008322284
178	0x3ce9d3fd	0.028543467
179	0xbdc94a62	-0.098286405
180	0xbe2faf2b	-0.17156665
181	0xbdac448d	-0.084115125
182	0x3dc97fdb	0.098388396
183	0xbd6e11d8	-0.058122486
184	0xbde6e9fd	-0.112750985
185	0xbdfe4473	-0.124153994
186	0xbd2732ec	-0.040820047
187	0xbd3d99c1	-0.04628921
188	0x3d3d15c7	0.046163347
189	0x3d9deb09	0.07710845
190	0x3d7e21bd	0.062043894
191	0xbe2af5eb	-0.16695373
192	0x3cc57b3c	0.024106614
193	0xbe101344	-0.14069849
194	0xbe57e7b3	-0.2108448
195	0x3dcaff67	0.099119954
196	0x3dab785d	0.08372567
197	0x3db5ca7e	0.08876513
198	0xbdbf8eb0	-0.09353387
199	0x3b017bf1	0.0019757713
200	0xbc94f330	-0.018182367
201	0x3e17319c	0.14765018
202	0xbd1552e7	-0.036456015
203	0xbd184ba6	-0.03718152
204	0x3d27228a	0.040804423
205	0xbd2f3385	-0.042773742
206	0x3e40bb6b	0.18821494
207	0xbce29887	-0.027660621
208	0x3d00f77d	0.031486023
209	0xbdec69f8	-0.115436494
210	0xbe004e53	-0.12529878
211	0x3c2cd1e3	0.010548088
212	0xbcd6bd5f	-0.026213346
213	0x3db5ea37	0.088825636
214	0x3ba73266	0.0051024435
215	0xbdfcf3c9	-0.12351186
216	0x3d7459e4	0.05965604
217	0x3d8e25b0	0.06940782
218	0x3e28db42	0.1648989
219	0x3e1153b3	0.14192085
220	0x3a3c8ee6	0.00071929244
221	0x3d61ebe3	0.0551566
222	0x3dc7d04e	0.09756528
223	0xbd3ec16c	-0.04657118
224	0x3df2ec2f	0.11861455
225	0xbd8d442a	-0.06897767
226	0x3c444153	0.011978465
227	0xbc979cda	-0.01850741
228	0x3d66b13b	0.056321364
229	0xbd3d9b63	-0.046290766
230	0x3d8df023	0.06930568
231	0xbd77db32	-0.060511775
232	0x3d9c022a	0.076176
233	0xbe217f79	-0.15771283
234	0x3c53300c	0.012889873
235	0xbdc86bd2	-0.0978619
236	0x3d47e876	0.048805676
237	0x3d5d1f34	0.053984836
238	0xbd4eb56c	-0.050465986
239	0xbdb0c2f1	-0.08630932
240	0xbe131e56	-0.14367041
241	0xbd93a693	-0.07209506
242	0x3dcea168	0.100893795
243	0xbd5ede4b	-0.054411214
244	0x3d87b484	0.066262275
245	0xbdccd09c	-0.100007266
246	0xbcd49cbb	-0.025953641
247	0x3e1111f8	0.14167011
248	0xbe03ab8d	-0.1285841
249	0x3db5969c	0.08866617
250	0x3d1b7e2e	0.03796213
251	0xbd207dac	-0.03918235
252	0xbdd58635	-0.104259886
253	0xbe2976b4	-0.16549188
254	0x3cfbbd53	0.030729925
255	0xbd9834a3	-0.07431915

spatial_module.qkv_proj_high.bias f4 [96]
0	0xbe0fe787	-0.14053164
1	0xbd1efa7b	-0.038813096
2	0xbdbec8c8	-0.0931564
3	0x3deaa1dc	0.114566535
4	0x3c8d667d	0.017260784
5	0xbd0ef2c0	-0.034899473
6	0x3ce692bb	0.028146138
7	0xbd684c8a	-0.05671362
8	0x3d4be061	0.04977453
9	0x3e394e46	0.18096265
10	0x3dfca30e	0.12335788
11	0xbe6f8d34	-0.23393708
12	0xbe04d73b	-0.12972729
13	0x3d90595f	0.07048296
14	0x3e0b585a	0.13607922
15	0x3d36c7f2	0.044624276
16	0xbe03fc0f	-0.12889121
17	0x3e2bf8d7	0.16794144
18	0x3e177c16	0.14793429
19	0x3e00fdea	0.1259686
20	0xbe2a4386	-0.1662732
21	0x3e4fd275	0.20295127
22	0xbe11165b	-0.14168684
23	0x3e35087f	0.17679022
24	0xbdb7ef50	-0.08981192
25	0xbe16f022	-0.14740041
26	0x3b46e0f7	0.0030346492
27	0x3c2ff996	0.010740658
28	0x3dd2b5e7	0.10288601
29	0x3dca5c5f	0.098809
30	0xbd4cd1cb	-0.05000476
31	0xbd4efc0b	-0.050533336
32	0xbd105aa8	-0.035242707
33	0xbd2409d9	-0.040048454
34	0xbd572a83	-0.052530777
35	0xbd2a3e93	-0.04156358
36	0x3e171c39	0.1475686
37	0xbd39a0d7	-0.045319404
38	0x3cb57d92	0.022154603
39	0x3d953767	0.07285958
40	0xbdaefa3a	-0.08543821
41	0x3d99b2b7	0.0750479
42	0x3e299cd2	0.16563728
43	0x3e09af0a	0.13445678
44	0x3d9ac9e8	0.07558042
45	0xbc271e2e	-0.0102000665
46	0xbc574018	-0.01313784
47	0xbb8d914b	-0.004320299
48	0x3d89ec4d	0.06734524
49	0xbca0b7b6	-0.01961885
50	0xbc205cbb	-0.009787734
51	0x3c410dd3	0.011783081
52	0xbd8ec266	-0.06970672
53	0xbd31f81e	-0.043449514
54	0x3d8b012f	0.06787335
55	0x3a98a45b	0.0011645661
56	0xba42dde4	-0.0007433577
57	0x3d779735	0.060446937
58	0x3b243704	0.0025057206
59	0xbda4fd79	-0.080561586
60	0xbda2c24a	-0.07947214
61	0xbcde3816	-0.027126353
62	0xbc28da70	-0.010305986
63	0x3b72bd77	0.00370392
64	0xbc87aeb9	-0.016562806
65	0xbdce3c1e	-0.1007006
66	0xbe37cc9d	-0.17949148
67	0xbe40fe4d	-0.18847008
68	0xbd6b03fb	-0.057376843
69	0xbe1589c1	-0.1460333
70	0x3e49a6ea	0.19692579
71	0x3e3cac55	0.18425114
72	0x3e828e0a	0.25498992
73	0xbe7e1669	-0.24813236
74	0xbe5b0f43	-0.2139254
75	0x3c209e13	0.009803313
76	0xbc7eb595	-0.015546222
77	0xbdf51ddb	-0.11968585
78	0x3e59e70c	0.21279544
79	0x3e2bf8b6	0.16794094
80	0xbe818f6b	-0.25304732
81	0xbe32aa3f	-0.17447756
82	0x3dc7a574	0.097483546
83	0xbe3c1e82	-0.18371013
84	0x3e23a9a1	0.15982677
85	0x3d8865b5	0.06660024
86	0xbd4814b8	-0.048847884
87	0x3e5d66b6	0.21621212
88	0x3da5b43e	0.08091019
89	0xbe063d88	-0.1310941
90	0x3b58d08b	0.0033083286
91	0xbe6cdcfe	-0.23131177
92	0x3e6e635c	0.2328009
93	0xbe07b5b4	-0.13252908
94	0xbe245851	-0.16049315
95	0xbdcb7295	-0.09933964

spatial_module.out_proj_low.weight f4 [4, 32]
0	0x3d89faef	0.06737315
1	0xbd3c0998	-0.045907587
2	0x3d925380	0.071448326
3	0xbdea3493	-0.11435809
4	0x3de8f0ba	0.1137404
5	0xbe075c46	-0.13218793
6	0xbdc79d2e	-0.097467765
7	0xbd879c40	-0.06621599
8	0xbcc87ff5	-0.024475077
9	0xbda28044	-0.07934621
10	0xbce6785b	-0.028133562
11	0x3cd4e554	0.025988258
12	0x3c8b1887	0.016979469
13	0x3da4ddb0	0.08050096
14	0x3dc643b2	0.096808806
15	0xbd796abc	-0.060892805
16	0x3d437c65	0.047726054
17	0x3c982be9	0.018575625
18	0x3dfb024e	0.12256299
19	0x3e1d4d9e	0.1536164
20	0x3d76e89f	0.06028044
21	0xbcb99ad7	-0.022656841
22	0xbdbeb24f	-0.093113534
23	0xbdf74a4b	-0.12074717
24	0xbc4a41de	-0.0123448055
25	0x3d37de1f	0.044889566
26	0x3d8686b0	0.06568658
27	0x3de2a77b	0.110671006
28	0x3e2c3938	0.16818702
29	0x3d75caa6	0.060007714
30	0xbde8372f	-0.113386504
31	0xbd880d93	-0.06643214
32	0xbe334caf	-0.17509721
33	0x3e12c90a	0.14334503
34	0xbdca5d63	-0.09881093
35	0x3d964c9f	0.07338833
36	0x3e26571b	0.16244166
37	0x3dd8c1c3	0.10583832
38	0x3da19c20	0.078911066
39	0xbcb99a8b	-0.0226567
40	0x3dce2517	0.10065668
41	0x3e182023	0.14856009
42	0x3d9a5ac1	0.07536841
43	0xbcccff65	-0.025024125
44	0xbc23df75	-0.010002007
45	0x3c912c1d	0.01772123
46	0x3dcaef37	0.09908908
47	0x3e2ad189	0.16681494
48	0xbd5e175a	-0.05422149
49	0x3e249a67	0.16074525
50	0x3cf6afbc	0.030113094
51	0xbe0b0813	-0.13577299
52	0x3ded73bb	0.115943395
53	0x3cdb9dd0	0.02680865
54	0x3c508b09	0.012728461
55	0x3dae98ab	0.08525213
56	0x3dcc97cd	0.09989891
57	0xbd80f8ec	-0.06297478
58	0x3d76f623	0.060293328
59	0xbdb4d1e9	-0.088291
60	0x3ba8738c	0.0051407274
61	0x3dc61b54	0.09673181
62	0xbd7d3a9f	-0.061823484
63	0x3ddaff53	0.106932305
64	0xbde2a342	-0.11066295
65	0x3d7e20b3	0.062042903
66	0x3d5134c3	0.051075708
67	0x3e1a7362	0.15083078
68	0xbdcd7751	-0.100325234
69	0x3d857880	0.06517124
70	0x3d46cc5a	0.04853473
71	0xbdb1db94	-0.08684459
72	0xbcbfaabc	-0.023396842
73	0x3cca1213	0.024666822
74	0x3dbcba3c	0.09215209
75	0x3e3b6990	0.18301988
76	0xbe005985	-0.12534149
77	0xbcfb60ad	-0.030685747
78	0xbd8ab79f	-0.06773304
79	0x3da419d1	0.080127366
80	0xbe18a43e	-0.14906403
81	0xbe19d7ab	-0.15023677
82	0xbe21cfd9	-0.15801944
83	0x3cdd4778	0.027011618
84	0xbdb18275	-0.08667461
85	0xbd9b4710	-0.075819135
86	0xbe10991e	-0.1412091
87	0x3e172e4c	0.14763755
88	0xbe29530e	-0.16535589
89	0xbdf2f2ef	-0.11862742
90	0xbcaa0ec7	-0.020759
91	0x3ccfb973	0.025356984
92	0xbe26e948	-0.16299927
93	0x3daaa309	0.08331878
94	0x3dcd8095	0.10034291
95	0xbdf6e0f6	-0.12054627
96	0xbe2d71a6	-0.16937885
97	0x3b9c866a	0.0047767656
98	0xbd287573	-0.041127633
99	0x3e09241e	0.13392684
100	0x3dbc508b	0.0919505
101	0x3da90084	0.082520515
102	0xbd8bdddd	-0.068294264
103	0xbd1ab324	-0.037768498
104	0xbde7ff10	-0.11327946
105	0x3cd20c9e	0.025640782
106	0x3e383137	0.17987524
107	0xbe0a5c47	-0.13511764
108	0x3d8a0a80	0.06740284
109	0x3c67a52f	0.014138504
110	0x3d24136a	0.040057577
111	0x3dea2737	0.11433261
112	0xbde270ea	-0.11056693
113	0xbc36231f	-0.011116772
114	0xbdf4e2e6	-0.1195734
115	0x3d9cffb1	0.07665957
116	0xbe17bb17	-0.14817463
117	0xbd644b12	-0.055735655
118	0xbc509027	-0.012729681
119	0x3e032b35	0.12809451
120	0x3d8f9fab	0.07012876
121	0x3dea6bfc	0.11446378
122	0x3e00be5f	0.12572621
123	0x3d88e2d6	0.066838905
124	0xbd20bc16	-0.039241873
125	0x3cedb223	0.029015606
126	0x3d277971	0.0408873
127	0xbc6711cb	-0.014103363

spatial_module.out_proj_low.bias f4 [4]
0	0x3e060aa7	0.13090001
1	0xbd20ee4c	-0.039289758
2	0xbdfe5b00	-0.124197006
3	0xbdd65dca	-0.104671076
