optim_results/models/trial_49_best.pt (torch, 50301 bytes, 58 tensors)

temp_conv.depthwise.weight f4 [1, 1, 3]
0.20475835 0.35859916 -0.35250333
00000000: 2cac 513e 4f9a b73e 517b b4be

temp_conv.pointwise.weight f4 [12, 1, 1]
-0.323227 0.20272326 -0.5409916 0.5932719 0.89179844 -0.73295265 0.8562274 0.17010793
0.71412057 0.14352247 0.4373517 -0.1710661
00000000: 027e a5be b096 4f3e 6d7e 0abf abe0 173f
00000010: e74c 643f c9a2 3bbf b831 5b3f c630 2e3e
00000020: 9bd0 363f 8ef7 123e 90ec df3e f42b 2fbe

temp_conv.pointwise.bias f4 [12]
0.7694873 0.14720452 -0.46687862 0.25558043 -0.46008754 -0.11828367 -0.40575838 0.66408813
-0.78981966 -0.4550187 -0.2825914 -0.59760123
00000000: 1ffd 443f c8bc 163e b70a efbe 70db 823e
00000010: 9890 ebbe b53e f2bd 90bf cfbe ae01 2a3f
00000020: 9f31 4abf 36f8 e8be d2af 90be 65fc 18bf

temp_conv.bn2.weight f4 [12]
1.1123207 1.0033201 1.0671586 1.0056341 1.010239 1.0145258 0.9867954 0.98507273
0.9704586 1.0043157 0.9579249 1.0303495
00000000: 8660 8e3f cb6c 803f a798 883f 9eb8 803f
00000010: 834f 813f fbdb 813f a09e 7c3f ba2d 7c3f
00000020: fa6f 783f 6b8d 803f 913a 753f 7ee2 833f

temp_conv.bn2.bias f4 [12]
-0.01218616 0.019422736 0.004935102 0.044787012 0.011505203 -0.08639227 0.044592958 0.010279992
-0.07326018 0.06950203 -0.026977737 -0.011777639
00000000: 76a8 47bc 6e1c 9f3c a3b6 a13b 9672 373d
00000010: 5280 3c3c 6eee b0bd 1ba7 363d 696d 283c
00000020: 6f09 96bd 1557 8e3d 6a00 ddbc 00f7 40bc

temp_conv.bn2.running_mean f4 [12]
0.66029334 0.21591392 -0.6499964 0.4563715 -0.15843377 -0.36607882 -0.116128 0.72177935
-0.54825777 -0.4061735 -0.13454197 -0.6554235
00000000: fc08 293f 8a18 5d3e 2a66 26bf 86a9 e93e
00000010: 763c 22be af6e bbbe 84d4 edbd 88c6 383f
00000020: 9f5a 0cbf f9f5 cfbe 5fc5 09be d6c9 27bf

temp_conv.bn2.running_var f4 [12]
0.035839826 0.014188963 0.10060798 0.12111737 0.27332172 0.18453953 0.25198185 0.0099720955
0.17527373 0.007120999 0.06583024 0.010076563
00000000: c8cc 123d d378 683c 8e0b ce3d 620c f83d
00000010: d3f0 8b3e eef7 3c3e c403 813e 0062 233c
00000020: f57a 333e 4557 e93b 01d2 863d 2b18 253c

feature_process_low.weight f4 [4, 240]
0.011110283 -0.03241459 0.0728129 -0.041693434 0.053986378 0.018194532 -0.017224511 0.040584058
0.006986817 0.047724336 0.0054798275 -0.019774418 0.011125199 -0.019073721 0.029553369 0.05816496
0.03973929 -0.02255399 0.0312249 -0.09689423 0.040426865 -0.029966684 -0.06343055 -0.03689534
-0.0605733 0.03989355 0.011660886 0.018206783 0.010240953 -0.01759974 0.043415707 -0.045036424
-0.0019110059 -0.046031993 0.01353618 -0.025612734 0.0003557226 -0.026336458 0.0472986 -0.039790947
-0.031182798 -0.00571609 0.07533448 0.031579807 0.06206037 -0.048857007 -0.05998865 -0.046139285
-0.044750724 0.030903902 0.015713494 0.051239785 -0.03392783 -0.043791674 0.0328864 -0.017322134
0.046935372 -0.007584142 0.036621056 -0.1550283 -0.022044409 0.031300418 0.017619105 -0.029059634
0.025385365 0.031954035 -0.054435838 -0.043020625 0.047088396 -0.037417926 -0.030133164 -0.059926268
-0.04260237 0.012908223 -0.013857407 -0.048364595 -0.018307585 -0.055022374 -0.06053426 -0.03360235
-0.04983563 -0.031684637 0.064245135 3.514715e-05 0.007979666 -0.07128969 -0.04957862 -0.029278405
-0.0018812292 -0.07275328 -0.03410074 -0.037289366 -0.003544344 -0.025468431 -0.008615281 -0.043997716
-0.061899595 -0.050606713 -0.023012975 -0.051507268 0.05355834 0.01698574 0.070354894 0.032395132
-0.046634804 0.0465557 -0.017762564 -0.027918112 -0.047655527 -0.061217196 0.015905164 -0.015194672
0.027126292 -0.050996687 0.04683673 -0.03712255 -0.0036548707 0.018057954 0.034316264 -0.05901097
0.0680762 -0.040772386 0.019065542 -0.03885682 -0.018373962 -0.05935688 0.05081557 -0.055969197
0.023703778 0.0052766963 0.013587021 -0.032767735 0.053372238 0.010506172 0.0036855314 -0.057493288
0.008409303 -0.023200713 -0.03184222 0.043726753 0.023293514 -0.025895633 -0.031533077 -0.014541873
0.0233953 -0.0285906 -0.043166146 -0.029226594 -0.05826517 0.006748085 0.04307846 -0.059573658
0.0114255445 0.027189711 0.005399287 -0.024347197 0.015201746 0.018731546 0.02242885 -0.014958408
-0.013423285 0.012558172 -0.014891577 -0.034795646 0.027287845 0.043228835 -0.015095033 -0.023589315
-0.011374215 -0.019584531 0.007996731 0.017863795 -0.06291448 -0.029220127 0.046594795 0.023967063
-0.019444123 -0.04860814 -0.040949192 -0.06572251 -0.0104325535 0.03423698 0.044280976 0.017888859
-0.07052355 -0.050906677 -0.017203154 0.05437578 -0.0025245459 -0.032198507 0.021222994 -0.02337937
-0.046429053 0.042044546 -0.036598075 -0.014801052 -0.080353476 0.02850003 0.04604528 0.020186992
-0.040451396 -0.055333734 -0.053885788 0.036168054 0.018383417 0.041452184 0.027530452 0.007595548
-0.012801698 -0.065046646 -0.062038258 -0.058744103 0.020216366 -0.035152946 -0.01837659 -0.039359067
-0.029866045 -0.059582602 -0.04299145 0.00896951 -0.010203309 0.07270899 -0.0031949452 -0.03195163
-0.0015308089 -0.03086783 -0.020007186 -0.058811646 0.041607376 -0.041609116 0.02947791 0.02618999
0.045420107 -0.047915034 0.046931036 -0.021558145 0.031015396 0.06831152 -0.011889568 -0.109443784
-0.024315374 -0.09561844 0.01280678 -0.07666308 0.032906022 0.04100199 0.056552775 -0.019368181
-0.053241562 0.01231525 0.03310893 -0.06886936 -0.014762184 -0.044271212 -0.013147854 -0.037801865
00000000: e807 363c 29c5 04bd ee1e 953d bcc6 2abd
00000010: d220 5d3d b30c 953c 6b1a 8dbc 783b 263d
00000020: abf1 e43b 987a 433d 2090 b33b f6fd a1bc
00000030: 7746 363c 7e40 9cbc e819 f23c 623e 6e3d
00000040: aac5 223d 25c3 b8bc 5dcb ff3c 7b70 c6bd
00000050: a496 253d b17c f5bc e0e7 81bd 911f 17bd
00000060: b51b 78bd 6b67 233d 4d0d 3f3c 6426 953c
00000070: acc9 273c 542d 90bc abd4 313d 1d78 38bd
00000080: b87a faba 0b8c 3cbd dbc6 5d3c ccd1 d1bc
00000090: 4780 ba39 8ebf d7bc 2dbc 413d d5fb 22bd
000000a0: 1173 ffbc 0a4e bbbb f748 9a3d d459 013d
000000b0: 0433 7e3d 491e 48bd a9b6 75bd 8cfc 3cbd
000000c0: 894c 37bd 2e2a fd3c 96b9 803c cfe0 513d
000000d0: e9f7 0abd e65e 33bd e4b3 063d 26e7 8dbc
000000e0: 4e3f 403d 6584 f8bb f6ff 153d bdbf 1ebe
000000f0: 7a96 b4bc de34 003d f155 903c 780e eebc
00000100: f8f4 cf3c 3ce2 023d 1df8 5ebd 6536 30bd
00000110: c3df 403d 8a43 19bd d3d9 f6bc 3f75 75bd
00000120: d37f 2ebd 037d 533c 2d0a 63bc f419 46bd
00000130: caf9 95bc 245f 61bd c6f2 77bd 9ea2 09bd
00000140: 7220 4cbd c0c7 01bd f492 833d f76a 1338
00000150: 25bd 023c 5400 92bd f312 4bbd 44d9 efbc
00000160: 9493 f6ba acff 94bd 38ad 0bbd bcbc 18bd
00000170: 3a48 68bb 2ca3 d0bc 1c27 0dbc f336 34bd
00000180: 6e8a 7dbd fc48 4fbd b585 bcbc 49f9 52bd
00000190: fd5f 5b3d ae25 8b3c 3a16 903d c2b0 043d
000001a0: 2304 3fbd 31b1 3e3d cc82 91bc 86b4 e4bc
000001b0: 7132 43bd e2be 7abd 8c4b 823c 13f3 78bc
000001c0: f537 de3c e7e1 50bd dfd7 3f3d d10d 18bd
000001d0: 8e86 6fbb 46ee 933c 368f 0c3d 7db5 71bd
000001e0: 896b 8b3d f200 27bd 572f 9c3c 5428 1fbd
000001f0: fe84 96bc 3320 73bd fd23 503d f53f 65bd
00000200: 6d2e c23c 23e8 ac3b 199c 5e3c 7637 06bd
00000210: d99c 5a3d 1422 2c3c f588 713b 157e 6bbd
00000220: 2cc7 093c 6c0f bebc fd6c 02bd d31a 333d
00000230: 0ad2 be3c 1423 d4bc d428 01bd 0941 6ebc
00000240: 80a7 bf3c d536 eabc fcce 30bd 9c6c efbc
00000250: 75a7 6ebd 0a1f dd3b 0a73 303d 8203 74bd
00000260: 3532 3b3c f5bc de3c 81ec b03b c673 c7bc
00000270: be10 793c e672 993c b5bc b73c 1c14 75bc
00000280: 57ed 5bbc cbc0 4d3c cdfb 73bc e185 0ebd
00000290: c28a df3c b810 313d 2851 77bc 613e c1bc
000002a0: ea5a 3abc bd6f a0bc b904 033c 1857 923c
000002b0: 4fd9 80bd 0c5f efbc 2fda 3e3d 9356 c43c
000002c0: 4849 9fbc 5419 47bd 57ba 27bd 8699 86bd
000002d0: 4ded 2abc 133c 0c3d f85f 353d a88b 923c
000002e0: a76e 90bd 8583 50bd a1ed 8cbc 23b9 5e3d
000002f0: da72 25bb 95e2 03bd d8db ad3c 1886 bfbc
00000300: 642c 3ebd e736 2c3d dde7 15bd 1d80 72bc
00000310: 5d90 a4bd e578 e93c fa99 3c3d 315f a53c
00000320: 5db0 25bd a0a5 62bd 58b7 5cbd f424 143d
00000330: d298 963c c4c9 293d 8b87 e13c 13e4 f83b
00000340: 37be 51bc 2d37 85bd d41b 7ebd a89d 70bd
00000350: cb9c a53c 89fc 0fbd 818a 96bc f936 21bd
00000360: a3a9 f4bc e30c 74bd cd17 30bd daf4 123c
00000370: c82b 27bc 73e8 943d 4962 51bb b6df 02bd
00000380: 6ca5 c8ba 88de fcbc 1ce6 a3bc 7be4 70bd
00000390: 7f6c 2a3d 526e 2abd a87b f13c 648c d63c
000003a0: 6f0a 3a3d 8e42 44bd c23a 403d b59a b0bc
000003b0: 0014 fe3c e9e6 8b3d 76cc 42bc 1024 e0bd
000003c0: 0931 c7bc 9ad3 c3bd 87d3 513c 8801 9dbd
000003d0: 77c8 063d b4f1 273d e2a3 673d 05aa 9ebc
000003e0: d313 5abd e7c5 493c 3b9d 073d 610b 8dbd
000003f0: 16dd 71bc bb55 35bd 196a 57bc 21d6 1abd

feature_process_low.bias f4 [4]
0.020786334 -0.017303409 -0.035916075 -0.005328428
00000000: 1a48 aa3c e1bf 8dbc bc1c 13bd 189a aebb

feature_process_high.weight f4 [16, 4]
-0.10820549 -0.44911394 0.39408937 -0.26210496 -0.05273229 0.030777989 -0.037287083 -0.46002042
0.23087855 -0.22240604 -0.24564622 0.13068418 -0.2757099 -0.23032773 -0.1950063 -0.22085685
-0.20119289 -0.14942645 0.14316337 -0.39904782 -0.30878899 -0.05036783 0.08670945 0.2285979
-0.34694836 0.16912322 0.28506523 0.26816744 -0.48169437 -0.20277222 -0.45186 -0.3421824
0.310723 -0.0755434 0.23035699 -0.26097742 0.080974 -0.28420272 0.2460633 -0.22799571
-0.10454917 -0.42506847 0.026917422 0.47675592 0.25048077 -0.26163527 0.04702656 -0.027348315
-0.40623948 0.45390412 -0.009598544 0.1104422 -0.19851214 -0.22135231 0.075145595 0.17645797
0.11364865 -0.25063702 0.4888601 -0.060290962 -0.2871772 -0.23357429 0.5337498 0.04379266
00000000: d79a ddbd 43f2 e5be 15c6 c93e 9f32 86be
00000010: d0fd 57bd 1f22 fc3c 57ba 18bd cc87 ebbe
00000020: 6d6b 6c3e 69be 63be af8a 7bbe 13d2 053e
00000030: d929 8dbe 08db 6bbe bbaf 47be 4c28 62be
00000040: 8205 4ebe 3f03 19be 6b99 123e ff4f ccbe
00000050: 9719 9ebe 7f4e 4ebd b994 b13d 9115 6a3e
00000060: 37a3 b1be a32e 2d3e 12f4 913e 3e4d 893e
00000070: a5a0 f6be 85a3 4fbe 325a e7be 8832 afbe
00000080: 1617 9f3e 80b6 9abd b4e2 6b3e d59e 85be
00000090: b2d5 a53d 0583 91be 05f8 7b3e b577 69be
000000a0: e01d d6bd 93a2 d9be ed81 dc3c 5a19 f43e
000000b0: 043f 803e 0ff5 85be ec9e 403d 9309 e0bc
000000c0: 9ffe cfbe 1f66 e83e 3643 1dbc 852f e23d
000000d0: c446 4bbe 2eaa 62be efe5 993d 66b1 343e
000000e0: a0c0 e83d 7f53 80be df4b fa3e a8f3 76bd
000000f0: e408 93be 192e 6fbe d4a3 083f ef5f 333d

feature_process_high.bias f4 [16]
-0.07610722 -0.15499105 -0.13531095 -0.3782869 -0.34692442 0.31148627 0.42297664 0.5008624
-0.3116795 0.2733162 -0.29941043 0.2984429 0.3516942 0.38447154 0.3531475 0.28365436
00000000: 1ade 9bbd f9b5 1ebe f48e 0abe d2ae c1be
00000010: 14a0 b1be 217b 9f3e 6590 d83e 8538 003f
00000020: 7594 9fbe 1af0 8b3e 534c 99be 82cd 983e
00000030: 4311 b43e 74d9 c43e c0cf b43e 253b 913e

feature_norm.weight f4 [16]
1.0501117 0.9396961 0.9702356 1.0035795 1.0047387 0.9923304 1.0030025 1.0095518
0.9913667 0.99555415 0.97640896 1.0119138 1.0215653 0.9893014 0.9997948 0.9987986
00000000: 0f6a 863f ec8f 703f 5c61 783f 4b75 803f
00000010: 479b 803f 5d09 7e3f 6362 803f fe38 813f
00000020: 35ca 7d3f a3dc 7e3f f0f5 793f 6486 813f
00000030: a7c2 823f db42 7d3f 8df2 7f3f 44b1 7f3f

feature_norm.bias f4 [16]
0.0040799365 -0.05427301 -0.025841547 0.013905223 3.6631038e-05 0.030042006 7.055606e-05 0.012344489
-0.006087642 -0.019119807 -0.024015378 0.006477998 -0.019909767 -0.04154049 0.0043226196 -0.04555716
00000000: fdb0 853b 604d 5ebd a7b1 d3bc bcd2 633c
00000010: 47a4 1938 a71a f63c 7ff7 9338 8a40 4a3c
00000020: d87a c7bb 24a1 9cbc e6bb c4bc 6345 d43b
00000030: cf19 a3bc 5c26 2abd c3a4 8d3b 259a 3abd

graph_attention.learnable_adj_u f4 [4, 47, 4]
0.07965115 0.036876064 -0.034697916 0.08112722 0.06274114 -0.15436625 -0.10130575 0.00575648
0.065073825 0.08343455 -0.10208944 -0.1701462 -0.008933635 -0.019605255 0.049765453 -0.04716321
0.13111457 0.011443103 0.1252363 -0.11941692 0.0686056 0.020435106 -0.08577473 0.08502004
-0.16875793 0.13865095 0.013820745 0.016558636 0.07930877 0.014236499 0.073513135 0.10910982
-0.13384752 0.113456674 -0.02567999 -0.039881837 0.0345195 0.13413791 -0.09322924 -0.115578234
0.106433265 -0.08054738 0.05521398 -0.025266219 0.04720549 0.13087314 -0.08691531 -0.08322202
0.08414076 0.00938997 -0.018874824 -0.15064232 0.1453036 -0.006494803 -0.03158788 -0.070398435
-0.033843227 0.08335419 -0.0039416053 0.14666706 -0.009901424 -0.024602804 0.096802644 -0.004437623
-0.03422991 0.057319388 0.1352491 0.042797387 0.11941758 0.11113764 0.048499424 0.059628095
0.055339877 0.01778899 0.14590009 0.1583173 0.061051544 -0.008564392 0.1537646 -0.13348088
0.1260144 0.09086433 0.11012543 -0.013177202 -0.12795474 0.1223366 -0.074988715 0.045123428
0.09716169 -0.16026981 0.01138132 -0.060920823 0.12172203 -0.1091934 0.10412875 0.106941365
0.09461832 0.16464075 0.025973652 -0.15544307 0.12242682 0.015700141 0.0034033908 -0.1633677
-0.038545378 -0.08323988 0.1679676 0.12211194 0.12793593 0.11744851 -0.10630749 -0.07365342
-0.067116015 -0.06875074 0.13350001 0.058269534 0.13743109 -0.008022518 -0.1528785 -0.049755722
0.12052829 0.104409285 0.053091075 -0.05030528 -0.16007182 -0.09215076 0.089416005 -0.06917528
0.082034394 0.046826165 -0.065870434 0.10445606 -0.05510808 -0.0056976415 -0.06532604 -0.16267867
0.027652122 0.04955782 -0.08634634 0.10520526 -0.15384375 -0.16532062 -0.10592592 -0.05927075
-0.019046308 -0.03314172 0.07826997 -0.1505115 0.025252746 0.0029699528 0.04529796 0.17048332
0.10554854 -0.09495956 -0.14053495 -0.04151997 -0.086028315 0.05990534 0.0015721199 0.13794035
0.0673657 -0.0315335 0.005894397 0.041071504 -0.02128078 0.13838814 -0.13409479 0.08358942
-0.10932072 -0.15024672 -0.035208084 0.083572105 0.121174365 0.04303628 -0.0148224505 -0.009614101
-0.06952232 -0.015389839 -0.011849513 0.14593889 0.100368544 -0.13723727 0.00070943503 -0.10548361
-0.027223835 -0.1363016 0.044582963 -0.12366386 0.16930701 0.12951617 -0.11805257 -0.16145973
0.0066914763 -0.047874115 0.050346274 -0.116089806 0.07020144 -0.14813179 -0.090511814 -0.09015711
0.08298668 -0.004490042 -0.16481504 -0.09794627 -0.07936558 -0.15912147 0.021959856 0.061111446
-0.031466156 -0.06824697 -0.001040059 -0.13621819 -0.10442574 -0.0039112456 0.15235545 -0.052737247
0.085004896 -0.067493334 -0.045652546 -0.16325712 0.142084 0.1669929 -0.003602027 0.10896502
0.14027584 0.08518636 0.088325076 -0.16326503 -0.16115218 -0.13163207 0.05364229 -0.14834227
-0.13091253 -0.083125845 -0.15806773 0.00023108107 0.024741784 -0.10036104 0.11229133 -0.06510856
-0.048281487 0.1306605 0.14724039 -0.019674396 -0.12311508 -0.08603553 0.0218385 0.10053118
0.08537966 -0.07573076 -0.16212903 -0.15008646 -0.054563344 0.0021513049 -0.077032976 -0.13560481
00000000: 2420 a33d 5b0b 173d 671f 0ebd 0726 a63d
00000010: 6d7e 803d 3012 1ebe 6479 cfbd dba0 bc3b
00000020: 6d45 853d bcdf aa3d 4514 d1bd ce3a 2ebe
00000030: 625e 12bc 339b a0bc dcd6 4b3d 362e 41bd
00000040: e642 063e da7b 3b3c f23d 003e dc90 f4bd
00000050: 1881 8c3d 8667 a73c a9aa afbd fd1e ae3d
00000060: e1ce 2cbe 84fa 0d3e 6870 623c faa5 873c
00000070: a36c a23d 3440 693c 0e8e 963d f874 df3d
00000080: 530f 09be f95b e83d d85e d2bc 235b 23bd
00000090: 5264 0d3d 735b 093e f9ee bebd 48b4 ecbd
000000a0: aff9 d93d 06f6 a4bd 0e28 623d 1afb cebc
000000b0: 8b5a 413d 9c03 063e a700 b2bd 4e70 aabd
000000c0: fe51 ac3d 64d8 193c 609f 9abc fb41 1abe
000000d0: 78ca 143e 5bd2 d4bb 4b62 01bd 0e2d 90bd
000000e0: 329f 0abd 9ab5 aa3d 9528 81bb e42f 163e
000000f0: 9539 22bc d28b c9bc 7740 c63d 7b69 91bb
00000100: a934 0cbd bcc7 6a3d bd7e 0a3e 504c 2f3d
00000110: 3491 f43d 229c e33d 55a7 463d 973c 743d
00000120: 11ac 623d 37ba 913c d566 153e ee1d 223e
00000130: 2f11 7a3d aa51 0cbc 7874 1d3e 36af 08be
00000140: eb09 013e 1417 ba3d 7189 e13d 31e5 57bc
00000150: 9106 03be 9d8b fa3d af93 99bd 58d3 383d
00000160: b5fc c63d c51d 24be b778 3a3c 1d88 79bd
00000170: 6649 f93d caa0 dfbd 7441 d53d 1304 db3d
00000180: 40c7 c13d 9697 283e b2c6 d43c 782c 1fbe
00000190: eaba fa3d 959d 803c 6c0b 5f3b dd49 27be
000001a0: c2e1 1dbd ac79 aabd b3ff 2b3e d315 fa3d
000001b0: a301 033e d888 f03d beb7 d9bd 9bd7 96bd
000001c0: 1f74 89bd 30cd 8cbd 3ab4 083e 09ac 6e3d
000001d0: bcba 0c3e e170 03bc 2e8c 1cbe a8cc 4bbd
000001e0: 89d7 f63d 89d4 d53d 0776 593d e90c 4ebd
000001f0: dee9 23be 8ab9 bcbd bd1f b73d c5ab 8dbd
00000200: a601 a83d cbcc 3f3d 14e7 86bd 0fed d53d
00000210: 03b9 61bd 48b3 babb a9c9 85bd 3d95 26be
00000220: b486 e23c 24fd 4a3d 5ad6 b0bd db75 d73d
00000230: 3789 1dbe cf49 29be b0ef d8bd e3c5 72bd
00000240: 0107 9cbc 9dbf 07bd 024c a03d b01f 1abe
00000250: d9de ce3c 8aa3 423b 5b8a 393d 2e93 2e3e
00000260: d529 d83d 287a c2bd 65e8 0fbe d810 2abd
00000270: 9d2f b0bd 4d5f 753d 970f ce3a 3c40 0d3e
00000280: 07f7 893d 4529 01bd c925 c13b 983a 283d
00000290: 0855 aebc 9fb5 0d3e 2550 09be ee30 ab3d
000002a0: 8be3 dfbd 47da 19be 5a36 10bd da27 ab3d
000002b0: 442a f83d cf46 303d ddd9 72bc 7684 1dbc
000002c0: b861 8ebd aa25 7cbc 7624 42bc 0171 153e
000002d0: 068e cd3d ed87 0cbe 61f9 393a ca07 d8bd
000002e0: 8504 dfbc a692 0bbe a09c 363d 7a43 fdbd
000002f0: d15e 2d3e e39f 043e 8cc5 f1bd b355 25be
00000300: 2c44 db3b a617 44bd e537 4e3d 7ec0 edbd
00000310: c6c5 8f3d dcaf 17be 425e b9bd 4aa4 b8bd
00000320: ecf4 a93d 3421 93bb 46c5 28be 0e98 c8bd
00000330: 6c8a a2bd bdf0 22be 28e5 b33c ff4f 7a3d
00000340: a8e2 00bd 11c5 8bbd 9752 88ba c87c 0bbe
00000350: 2add d5bd e829 80bb 1103 1c3e 0303 58bd
00000360: 0c17 ae3d f239 8abd 2afe 3abd e02c 27be
00000370: 787e 113e 3000 2b3e fc0f 6cbb 0d29 df3d
00000380: 78a4 0f3e 3076 ae3d c7e3 b43d f32e 27be
00000390: 1405 25be 8fca 06be 05b8 5b3d 09e7 17be
000003a0: ef0d 06be e23d aabd 82dc 21be 5a4e 7239
000003b0: 48af ca3c 178a cdbd fff8 e53d a357 85bd
000003c0: cfc2 45bd decb 053e 2fc6 163e 332c a1bc
000003d0: c223 fcbd 6533 b0bd a7e6 b23c 4be3 cd3d
000003e0: 88db ae3d bb18 9bbd 2705 26be 44b0 19be
000003f0: d07d 5fbd e8fc 0c3b 77c3 9dbd fddb 0abe

graph_attention.learnable_adj_v f4 [4, 4, 47]
0.06637747 0.118286744 0.10371601 -0.09706629 -0.028325215 -0.1218339 0.004778896 -0.04461591
0.10963765 0.019972296 0.0013902932 -0.091375895 -0.0991294 0.01988622 -0.06276753 -0.058014054
0.08860716 -0.06585443 -0.056226887 0.0969916 0.049354162 -0.07177756 0.03825665 0.063684046
-0.112199984 0.023598017 0.028860964 -0.004919907 0.12111842 -0.083496325 0.06848167 -0.06710475
-0.108145736 0.086091325 -0.060599856 0.005937313 0.06643346 -0.10543647 -0.10813092 0.043007985
0.1101441 -0.013366958 0.088959254 0.044389907 0.03604024 -0.08053987 0.12022373 0.057860967
0.019532474 0.08934863 -0.10853999 0.027220529 -0.059463754 -0.012827776 0.041387517 0.055947967
0.028979266 -0.0977679 -0.07905692 0.0022056699 -0.02187801 -0.10573398 0.124448955 0.015889285
-0.08975869 0.055403408 0.054887146 -0.061969623 0.06334383 -0.078363515 0.043768473 0.119994655
0.08338959 0.062364165 -0.025700534 0.023715174 0.04408233 0.030853942 -0.025592003 0.017625466
-0.051164657 -0.07140612 -0.116575256 -0.10299209 -0.07929474 0.12075072 0.025279095 -0.11427419
-0.06457229 0.029506402 -0.037809204 -0.035756968 -0.047436085 -0.030853054 0.014530555 0.007480604
0.08116011 0.08083943 0.103962585 -0.0040184692 -0.05640562 0.0004310596 -0.08365276 0.05168139
-0.0152408965 -0.04045822 -0.10709795 0.06087703 0.07051028 0.11523505 -0.04475239 0.03806239
0.0047616838 -0.08046385 -0.07897054 0.064688005 -0.07255014 0.09198617 0.044132054 0.043140307
0.0831931 0.061824396 0.054480813 0.065541536 -0.053607203 -0.06698663 -0.023142517 0.07013041
0.08840414 0.09302561 -0.03984685 -0.016028428 -0.08676102 0.07789016 -0.08376805 -0.05198038
0.104313 0.030698068 -0.052882705 -0.085062206 -0.086868905 0.101945736 -0.115459576 0.109159224
0.10105384 0.007827244 -0.01012539 0.09824401 0.055705413 0.11943962 0.10204511 -0.08283738
0.07795625 0.06370835 -0.08969074 0.060669277 -0.065613575 -0.075262114 0.0023566799 -0.015522723
-0.03396587 -0.08284343 0.06910336 0.12595266 -0.027990833 -0.08511301 -0.0065137357 -0.109750524
-0.10258116 -0.04208093 0.07936922 -0.09677767 -0.020159012 -0.06559566 -0.11631667 -0.02843662
-0.007358432 -0.021240026 0.09235906 0.050600145 0.07864792 0.049479272 0.013253475 0.06856286
-0.08058757 0.0643657 0.060169276 -0.053612247 -0.0043354733 -0.09556022 -0.11053851 -0.00013955036
0.022618769 -0.027248552 0.039027434 -0.09752148 -0.069437414 0.08718743 -0.12293381 0.019835383
0.09725245 0.094702594 0.043091036 -0.11506752 0.016262414 -0.044422463 -0.035510562 0.096787564
-0.042929847 -0.09046869 -0.101404116 0.07975816 0.006095401 0.12476459 0.025833443 -0.11772258
0.03125323 0.11559092 0.078349136 0.037908155 -0.09490682 -0.075747505 0.08577499 -0.08446673
0.028818453 -0.01618486 0.04232832 0.008265562 -0.09621632 -0.05035327 0.11017763 0.014870178
0.06405261 -0.063730195 0.10000225 -0.027041147 -0.04257884 0.025625149 -0.045263138 -0.05076275
-0.018076193 -0.007211819 -0.07184656 0.043178845 -0.122429825 0.07754492 0.1171598 0.020436862
-0.029516371 -0.11569915 0.059321493 0.1035064 0.107996576 0.011264216 0.041997477 0.1210437
00000000: e9f0 873d 5240 f23d 0f69 d43d b1ca c6bd
00000010: 480a e8bc 0d84 f9bd 4998 9c3b 2cbf 36bd
00000020: b489 e03d f19c a33c 803a b63a 4923 bbbd
00000030: 5b04 cbbd 6de8 a23c 438c 80bd 25a0 6dbd
00000040: ac77 b53d b0de 86bd 2a4e 66bd 88a3 c63d
00000050: 9727 4a3d 1d00 93bd 01b3 1c3d c86c 823d
00000060: 1bc9 e5bd a150 c13c d46d ec3c 2c37 a1bb
00000070: ef0c f83d 1f00 abbd 1e40 8c3d 376e 89bd
00000080: 837b ddbd a650 b03d 8e37 78bd cb8d c23b
00000090: 440e 883d 13ef d7bd be73 ddbd 2429 303d
000000a0: 3b93 e13d 1601 5bbc 4530 b63d 31d2 353d
000000b0: ee9e 133d 16f2 a4bd dc37 f63d 9fff 6c3d
000000c0: 9102 a03c 6afc b63d 374a debd 96fd de3c
000000d0: 4490 73bd 982b 52bc f585 293d b229 653d
000000e0: ed65 ed3c 893a c8bd 98e8 a1bd 008d 103b
000000f0: 8339 b3bc 0f8b d8bd 18df fe3d 3f2a 823c
00000100: 67d3 b7bd afee 623d 58d1 603d dcd3 7dbd
00000110: 69ba 813d 0d7d a0bd 9246 333d c2bf f53d
00000120: 29c8 aa3d 9171 7f3d ed89 d2bc 5346 c23c
00000130: ac8f 343d 68c1 fc3c 52a6 d1bc 4863 903c
00000140: 0892 51bd 5f3d 92bd 02bf eebd 84ed d2bd
00000150: 4865 a2bd 274c f73d 1b16 cf3c 9608 eabd
00000160: 7a3e 84bd 69b7 f13c d3dd 1abd e675 12bd
00000170: 574c 42bd 8bbf fcbc 9111 6e3c db1f f53b
00000180: 4637 a63d 258f a53d 56ea d43d 5dad 83bb
00000190: 9409 67bd d7ff e139 2352 abbd ddaf 533d
000001a0: f4b4 79bc 85b7 25bd 2c56 dbbd 315a 793d
000001b0: b267 903d 5b00 ec3d 484e 37bd 4fe7 1b3d
000001c0: e607 9c3b 3bca a4bd 4ebb a1bd 257b 843d
000001d0: 2b95 94bd 3f63 bc3d d0c3 343d e4b3 303d
000001e0: 2561 aa3d 943b 7d3d 4627 5f3d a43a 863d
000001f0: 3a93 5bbd 4930 89bd 6095 bdbc 88a0 8f3d
00000200: 3b0d b53d 3684 be3d 7336 23bd 0d4e 83bc
00000210: c3af b1bd e084 9f3d 958e abbd 61e9 54bd
00000220: 0ea2 d53d 847a fb3c 899b 58bd 1835 aebd
00000230: 53e8 b1bd edc8 d03d 1276 ecbd df8e df3d
00000240: 51f5 ce3d d73d 003c f7e4 25bc 2834 c93d
00000250: 5c2b 643d c29c f43d 07fd d03d a5a6 a9bd
00000260: 87a7 9f3d 8679 823d c7af b7bd 5980 783d
00000270: 6960 86bd 0623 9abd 8772 1a3b 0553 7ebc
00000280: cc1f 0bbd d1a9 a9bd 1086 8d3d bcf9 003e
00000290: 084d e5bc bb4f aebd 2d71 d5bb e2c4 e0bd
000002a0: 1216 d2bd 0e5d 2cbd 548c a23d 5f33 c6bd
000002b0: 8324 a5bc 0457 86bd 6f37 eebd eaf3 e8bc
000002c0: 001f f1bb 90ff adbc bf26 bd3d 1942 4f3d
000002d0: 2912 a13d c7aa 4a3d 1a25 593c af6a 8c3d
000002e0: 190b a5bd 2ad2 833d 0f74 763d 8498 5bbd
000002f0: 9610 8ebb 14b5 c3bd 0462 e2bd 4454 12b9
00000300: ff4a b93c 5b38 dfbc 3bdb 1f3d 57b9 c7bd
00000310: 3435 8ebd 538f b23d b9c4 fbbd d07d a23c
00000320: 4b2c c73d 6ff3 c13d 3a80 303d 85a8 ebbd
00000330: c138 853c 54f4 35bd 8673 11bd 8f38 c63d
00000340: 35d7 2fbd a647 b9bd f6ac cfbd 3f58 a33d
00000350: eebb c73b 9484 ff3d a8a0 d33c 8918 f1bd
00000360: 6303 003d efba ec3d 8375 a03d 9545 1b3d
00000370: 825e c2bd 8221 9bbd ccaa af3d e5fc acbd
00000380: ad14 ec3c 1d96 84bc 7660 2d3d 486c 073c
00000390: 100d c5bd 3b3f 4ebd cfa4 e13d 0ca2 733c
000003a0: 042e 833d fa84 82bd fbcd cc3d 6585 ddbc
000003b0: 2667 2ebd d5eb d13c d765 39bd 9aec 4fbd
000003c0: 8614 94bc 1f51 ecbb 4a24 93bd 4ddc 303d
000003d0: 7dbc fabd dfcf 9e3d 7af1 ef3d 356b a73c
000003e0: 51cc f1bc adf3 ecbd 18fb 723d 2afb d33d
000003f0: 4f2d dd3d 8c8d 383c 8c05 2c3d c2e5 f73d

graph_attention.qkv_proj_low.weight f4 [12, 16]
0.016741902 0.079638556 -0.10700948 0.13745683 -0.022024654 0.0235778 -0.1980143 -0.05052296
-0.12835526 -0.08853321 -0.13942677 -0.21229234 0.033139396 0.19972262 0.22726114 0.15474023
-0.17206256 -0.1697942 0.08548181 0.12930906 -0.22734098 0.094252594 0.21636191 0.0017229001
-0.1386286 0.20904674 0.07936268 0.17681359 -0.17858016 0.15145084 -0.15158276 0.23761986
-0.14946844 0.16878714 0.04979576 0.042764995 -0.07849316 0.10951243 -0.10134174 -0.23024213
-0.11168636 0.18651073 -0.065640725 0.083450735 -0.07606308 0.19662149 0.14153832 0.07336347
-0.097841755 -0.2919718 0.0069648856 -0.1417223 0.22192599 -0.2317883 0.11795846 0.2641966
0.11877565 0.08162857 -0.21317485 0.24035254 -0.021421475 -0.21843335 0.23343502 -0.096476994
0.011681694 0.15290004 -0.16712403 -0.17924851 0.033101667 -0.03414833 0.05481418 -0.19428177
-0.012374176 -0.12692475 -0.090965725 -0.23921013 0.15165123 0.044177596 -0.23978406 0.19069111
0.036550898 0.09765269 -0.14363903 0.036312595 0.22611947 0.16113228 -0.20518826 0.22862238
0.019061323 0.12055237 0.17003295 0.2125782 -0.22234535 0.20491059 -0.16114312 0.017697021
-0.218842 -0.022633726 -0.009317699 -0.060851976 -0.09191297 0.012897917 0.2448842 0.13312104
0.13532066 0.098776095 0.17538789 -0.0066293827 0.02448891 0.037174694 -0.21528757 -0.21989426
0.03685356 -0.11206425 0.014669573 -0.047624048 0.0050360444 0.15120569 -0.08893979 0.20144516
0.188012 -0.17579044 -0.19698247 -0.19330706 -0.1543436 -0.11093811 -0.019727627 -0.06739357
-0.13801098 -0.005397435 -0.089712374 0.25193098 -0.08668294 -0.18933868 0.09426143 -0.021145808
0.20289575 0.16104181 0.21082066 -0.18694454 0.13898519 0.19326079 -0.11160189 0.23356065
0.20416765 0.012938831 0.11299292 -0.06400702 -0.17420946 0.06247732 0.071663715 -0.16004904
0.14745256 -0.21132742 0.21723287 0.23414192 0.04989423 -0.14997604 0.12994912 0.06003752
0.09631611 0.035960697 0.19371963 -0.11887844 -0.08037543 0.07720207 0.03626087 0.20215864
-0.13734773 -0.006367539 0.07193252 -0.0626025 0.19830465 0.043096956 -0.23912248 -0.029234434
-0.06896835 -0.026540373 -0.010615772 -0.24501202 -0.05209561 -0.030914681 -0.086073145 0.25561854
-0.070542134 0.14582385 0.09107358 -0.23231257 0.07467572 0.19899763 -0.19387883 -0.15828143
00000000: 5026 893c 8a19 a33d c927 dbbd 7cc1 0c3e
00000010: 0c6d b4bc 3b26 c13c 43c4 4abe 2af1 4ebd
00000020: 906f 03be e650 b5bd e4c5 0ebe 2a63 59be
00000030: 2dbd 073d 1684 4c3e 25b7 683e 3974 1e3e
00000040: 2b31 30be 88de 2dbe 1611 af3d 9869 043e
00000050: 13cc 68be 8107 c13d fa8d 5d3e efd2 e13a
00000060: a8f4 0dbe 5910 563e e788 a23d 9f0e 353e
00000070: b8dd 36be ee15 1b3e 8338 1bbe 9f52 733e
00000080: 410e 19be 89d6 2c3e a4f6 4b3d 592a 2f3d
00000090: 06c1 a0bd 0e48 e03d 428c cfbd 98c4 6bbe
000000a0: d1bb e4bd abfc 3e3e a56e 86bd 38e8 aa3d
000000b0: f6c6 9bbd 2557 493e 6cef 103e 963f 963d
000000c0: 4261 c8bd 547d 95be b239 e43b a71f 11be
000000d0: 9140 633e ea59 6dbe 3494 f13d c744 873e
000000e0: a640 f33d e12c a73d 824a 5abe fa1e 763e
000000f0: 177c afbc feac 5fbe 9709 6f3e bb95 c5bd
00000100: 9364 3f3c d491 1c3e 9022 2bbe ec8c 37be
00000110: 9d95 073d 1fdf 0bbd d584 603d cdf1 46be
00000120: 0ebd 4abc 90f8 01be 3d4c babd 80f3 74be
00000130: 764a 1b3e 91f3 343d f489 75be 8844 433e
00000140: 65b6 153d 22fe c73d 1c16 13be 84bc 143d
00000150: dd8b 673e dcff 243e df1c 52be fc1b 6a3e
00000160: 7e26 9c3c 29e4 f63d 1e1d 2e3e 1aae 593e
00000170: 80ae 63be 15d4 513e b402 25be 58f9 903c
00000180: 1e18 60be 5d6a b9bc 43a9 18bc ec3f 79bd
00000190: de3c bcbd c951 533c ecc2 7a3e e250 083e
000001a0: 8091 0a3e 1f4b ca3d e298 333e 4b3b d9bb
000001b0: f79c c83c 7e44 183d 5874 5cbe f62b 61be
000001c0: c2f3 163d f181 e5bd a658 703c 6f11 43bd
000001d0: 6705 a53b aad5 1a3e 1126 b6bd a447 4e3e
000001e0: 3886 403e 6902 34be c6b5 49be 49f2 45be
000001f0: 400c 1ebe 8533 e3bd d59b a1bc a405 8abd
00000200: c052 0dbe f7dc b0bb 1fbb b7bd 19fd 803e
00000210: d386 b1bd 00e2 41be 230c c13d f939 adbc
00000220: e7c3 4f3e 25e8 243e 5fe1 573e 646e 3fbe
00000230: 2252 0e3e 28e6 453e 888f e4bd 862a 6f3e
00000240: 5311 513e 64fd 533c d568 e73d 1d16 83bd
00000250: f763 32be 38e8 7f3d 6dc4 923d e5e3 23be
00000260: cefd 163e 3766 58be 4b72 5e3e e6c2 6f3e
00000270: e45d 4c3d 5293 19be 6211 053e e7e9 753d
00000280: 6141 c53d 864b 133d 705e 463e 8a76 f3bd
00000290: e09b a4bd 1e1c 9e3d 4786 143d ad02 4f3e
000002a0: e2a4 0cbe caa6 d0bb 5b51 933d bd35 80bd
000002b0: 6010 4b3e 6f86 303d 86dc 74be 0d7d efbc
000002c0: 473f 8dbd 326b d9bc c6ed 2dbc 6ee4 7abe
000002d0: 3562 55bd c940 fdbc 1e47 b0bd 6fe0 823e
000002e0: 6578 90bd d952 153e c984 ba3d 59e3 6dbe
000002f0: 95ef 983d 09c6 4b3e 2c88 46be 8714 22be

graph_attention.qkv_proj_low.bias f4 [12]
0.30712825 0.18678774 -0.15236406 0.19130489 -0.042199884 -0.2682221 -0.035945214 0.08308776
-0.09218841 0.1128564 -0.208533 0.16672361
00000000: ea3f 9d3e 4945 3f3e 5305 1cbe 6ee5 433e
00000010: c9d9 2cbd 6854 89be 4a3b 13bd ea29 aa3d
00000020: 47cd bcbd 4221 e73d ad89 55be 98b9 2a3e

graph_attention.qkv_proj_high.weight f4 [48, 12]
0.23292872 0.22069639 0.10349517 0.14975788 -0.23725154 -0.09272143 0.022489425 -0.20642917
-0.21035635 0.20865619 0.16058862 -0.26216474 0.07952806 0.17656554 0.33400366 0.22332798
0.23691861 -0.11725547 0.24465337 0.18776253 -0.27091157 -0.21357821 0.015550919 0.14655802
-0.16233103 0.06911176 0.043569934 0.09417945 -0.1584682 0.14071268 0.22726771 -0.23431581
-0.008016345 0.014855538 0.052845597 0.25136918 0.06544047 -0.023749374 0.31087193 -0.08057768
-0.0929663 -0.0052586775 -0.17679536 -0.00861206 -0.19947799 0.04203895 -0.011923478 0.024964219
-0.24538548 -0.300273 0.12125646 0.21413423 -0.2271812 0.11062135 -0.24840409 0.027621673
0.26396745 0.21975331 -0.18116523 0.17644607 0.1494591 -0.03788874 0.25037742 -0.14858763
-0.040028285 -0.14137846 0.0013575949 0.099327594 0.016613895 -0.16704686 -0.08282414 0.095069714
-0.27051866 -0.067572795 -0.02585966 -0.13533306 0.120024554 0.018306153 0.17883947 -0.012496634
-0.1836976 0.20064023 0.08391587 -0.0783117 -0.18576336 0.03825841 -0.31100056 0.05401867
0.155594 -0.24152212 -0.22497647 -0.18377799 0.23849778 0.24066997 0.074873134 0.2831694
-0.11004129 -0.30744162 0.13974738 0.029065026 0.35458964 -0.031379364 0.1702459 0.15148942
0.1779585 -0.24910578 0.19090083 -0.30714017 0.2641809 -0.025608692 -0.22953555 0.036036257
-0.013235755 -0.2844979 -0.14496545 0.011851652 0.19816865 -0.051675867 0.13334186 -0.023311852
0.014247426 0.04628165 -0.15847287 -0.27636522 -0.05429232 -0.29575655 -0.16988273 -0.0073896255
-0.21280073 -0.081975274 -0.09202431 -0.09515741 -0.1674484 -0.0075684036 -0.006656656 0.021851374
0.0736495 -0.17423113 -0.14240672 -0.025778038 -0.21284324 0.060652174 -0.062675305 0.0512073
0.05403684 0.22559771 0.030719137 -0.24708869 0.1590256 -0.229344 -0.04876655 -0.13269739
-0.10353016 -0.06449894 0.22857374 0.1266648 0.079850994 0.29704526 -0.23694281 0.04041802
0.19040017 0.1672039 -0.21689193 0.07281754 -0.15556243 0.023562891 -0.078933045 -0.26302156
-0.28191236 -0.17000994 0.16448565 0.11757707 -0.23844515 -0.1394346 0.013858302 -0.2857058
0.16664425 0.30206805 0.025240792 -0.24381249 0.053642105 0.116031945 0.2640558 -0.18273662
-0.23227918 0.09501805 0.014385544 -0.12932941 -0.1159653 -0.10966208 0.20249602 -0.08537489
0.27144855 0.2886276 0.08619994 0.056110054 -0.038539127 0.23574337 -0.34831858 0.12233919
-0.11375985 0.15304986 -0.08021025 -0.16179508 0.053378917 0.15322553 -0.15424155 -0.18670924
-0.100543685 -0.025711821 -0.022754984 0.20501794 -0.11682913 0.28750202 -0.21233462 -0.23164327
-0.044813067 -0.22267418 -0.15330736 -0.2660185 -0.27992854 0.1313681 0.039069008 0.27369294
0.16121663 -0.005041118 -0.037499525 -0.23687796 0.1563278 -0.3401213 0.1438923 -0.016638145
0.12708092 0.13154522 -0.2468483 0.28102216 0.0719032 0.18490265 -0.010874298 0.12617922
0.13412851 0.13665597 0.24829103 -0.058185488 0.19953349 0.03628364 0.21075395 0.24241932
0.09245587 -0.09818764 -0.051852103 0.061278477 -0.03107633 -0.072219886 0.2525425 0.1644341
00000000: de84 6e3e 3cfe 613e 47f5 d33d 215a 193e
00000010: 11f2 72be bce4 bdbd be3b b83c 2b62 53be
00000020: a867 57be f8a9 553e 5871 243e 753a 86be
00000030: 9cdf a23d 99cd 343e 8702 ab3e 17b0 643e
00000040: cb9a 723e a323 f0bd 6a86 7a3e d244 403e
00000050: ecb4 8abe 3fb4 5abe 48c9 7e3c 4e13 163e
00000060: 1b3a 26be 778a 8d3d 6376 323d 28e1 c03d
00000070: 7d45 22be fc16 103e deb8 683e 7cf0 6fbe
00000080: fd56 03bc a464 733c a074 583d 76b3 803e
00000090: a705 863d 0c8e c2bc 9b2a 9f3e e905 a5bd
000000a0: 1e65 bebd fc50 acbb d809 35be 9919 0dbc
000000b0: f543 4cbe 0931 2c3d b15a 43bc c381 cc3c
000000c0: 5546 7bbe 62bd 99be 4f55 f83d 0146 5b3e
000000d0: 30a2 68be 728d e23d a45d 7ebe d946 e23c
000000e0: be26 873e 0307 613e 6183 39be 47ae 343e
000000f0: ce0b 193e 3931 1bbd 7831 803e 5b27 18be
00000100: b3f4 23bd 84c5 10be 53f1 b13a 446c cb3d
00000110: dd19 883c 550e 2bbe b49f a9bd e9b3 c23d
00000120: 6c81 8abe 9b63 8abd a3d7 d3bc c094 0abe
00000130: 6fcf f53d c9f6 953c b221 373e afbe 4cbc
00000140: 391b 3cbe a274 4d3e 15dc ab3d e261 a0bd
00000150: c038 3ebe dab4 1c3d 773b 9fbe ae42 5d3d
00000160: 0954 1f3e 9351 77be 3b60 66be 4c30 3cbe
00000170: c338 743e 3072 763e 1657 993d 94fb 903e
00000180: 545d e1bd fd68 9dbe f019 0f3e c719 ee3c
00000190: c68c b53e a687 00bd f154 2e3e 0b20 1b3e
000001a0: c13a 363e 9615 7fbe 827b 433e 7a41 9dbe
000001b0: b842 873e 52c9 d1bc 5e0b 6bbe c19a 133d
000001c0: c8da 58bc b5a9 91be d371 14be 6e2d 423c
000001d0: b9ec 4a3e 13aa 53bd c58a 083e 7ff8 bebc
000001e0: 096e 693c d491 3d3d b646 22be be7f 8dbe
000001f0: a061 5ebd 676d 97be bdf5 2dbe ac24 f2bb
00000200: 6fe8 59be a7e2 a7bd 3e77 bcbd e3e1 c2bd
00000210: 9877 2bbe 5f00 f8bb 1420 dabb a701 b33c
00000220: 8dd5 963d a569 32be 11d3 11be 772c d3bc
00000230: 94f3 59be 6a6e 783d e95b 80bd bfbe 513d
00000240: bc55 5d3d 1603 673e b3a6 fb3c d104 7dbe
00000250: 9bd7 223e 27d9 6abe 6fbf 47bd d3e1 07be
00000260: 9f07 d4bd 0518 84bd 3c0f 6a3e 6bb4 013e
00000270: eb88 a33d 5116 983e 23a1 72be 5e8d 253d
00000280: 43f8 423e 8037 2b3e eb18 5ebe 5d21 953d
00000290: c24b 1fbe f706 c13c a6a7 a1bd c3aa 86be
000002a0: d156 90be 1617 2ebe ed6e 283e 3fcc f03d
000002b0: f72a 74be f2c7 0ebe ee0d 633c 0848 92be
000002c0: caa4 2a3e aaa8 9a3e c7c5 ce3c fba9 79be
000002d0: d3b7 5b3d 28a2 ed3d 5232 873e 4f1f 3bbe
000002e0: 98da 6dbe d398 c23d 58b1 6b3c ee6e 04be
000002f0: 377f edbd 8396 e0bd 1e5b 4f3e 08d9 aebd
00000300: 4efb 8a3e ffc6 933e 9889 b03d a8d3 653d
00000310: 34db 1dbd b666 713e d056 b2be f88c fa3d
00000320: edfa e8bd 1ab9 1c3e 4645 a4bd 9cad 25be
00000330: daa3 5a3d 27e7 1c3e 7ff1 1dbe b530 3fbe
00000340: d9e9 cdbd 99a1 d2bc a968 babc 39f0 513e
00000350: 1c44 efbd 7733 933e 3f6e 59be e533 6dbe
00000360: e88d 37bd b304 64be 9bfc 1cbe 9433 88be
00000370: cb52 8fbe 5c85 063e d306 203d 7b21 8c3e
00000380: f915 253e f62f a5bb 1a99 19bd 2390 72be
00000390: 6514 203e 6124 aebe 8158 133e b84c 88bc
000003a0: 8021 023e cab3 063e cdc5 7cbe 23e2 8f3e
000003b0: fc41 933d 1f57 3d3e 1d2a 32bc 2035 013e
000003c0: fc58 093e 8bef 0b3e 0140 7e3e e853 6ebd
000003d0: 8252 4c3e 279e 143d e2cf 573e c53c 783e
000003e0: 8159 bd3d 9a16 c9bd df62 54bd 24ff 7a3d
000003f0: ca93 febc 05e8 93bd 404d 813e 6a61 283e

graph_attention.qkv_proj_high.bias f4 [48]
0.1865301 0.23768567 0.09125439 0.2364242 -0.2131151 -0.28287145 -0.29434252 0.16749024
0.06378467 -0.2225742 0.1316043 0.23744476 -0.29211843 0.22502026 0.052329212 0.02325914
0.2627813 0.24060199 0.08991092 0.15397787 0.10531132 0.025412967 -0.2324843 0.06381581
-0.22161298 0.0527127 0.1072647 -0.009824868 -0.22811913 -0.1582658 0.23574871 0.095698856
0.13997234 -0.06579417 -0.020996073 -0.080056354 0.1997572 -0.15991789 0.22868602 0.15912883
-0.18228842 -0.043206114 -0.037349384 -0.20065904 0.13007441 -0.0039022341 0.24986194 -0.19155729
00000000: bf01 3f3e df63 733e 95e3 ba3d 2f19 723e
00000010: d83a 5abe 87d4 90be 10b4 96be 9082 2b3e
00000020: 89a1 823d 7eea 63be 47c3 063e b824 733e
00000030: 8c90 95be b66b 663e 2857 563d f489 be3c
00000040: 458b 863e 5e60 763e 3723 b83d 60ac 1d3e
00000050: 76ad d73d db2e d03c 5d10 6ebe ddb1 823d
00000060: 83ee 62be 46e9 573d 98ad db3d 7cf8 20bc
00000070: 1098 69be 6e10 22be 1c68 713e c3fd c33d
00000080: e954 0f3e 18bf 86bd f5ff abbc 96f4 a3bd
00000090: 278d 4c3e 84c1 23be ab2c 6a3e abf2 223e
000000a0: d1a9 3abe e5f8 30bd abfb 18bd 9079 4dbe
000000b0: 3a32 053e a0bc 7fbb cfdb 7f3e 9827 44be

graph_attention.out_proj_low.weight f4 [4, 16]
0.11501953 -0.21439579 -0.14123248 0.010519089 0.18271172 0.13271071 -0.20475376 0.014356042
-0.13004057 -0.00208397 -0.20776275 -0.073115684 0.16340688 -0.23186484 -0.25153726 0.048587993
0.03907032 -0.05476648 0.21951512 -0.14447042 -0.13556299 -0.1812853 -0.016077284 -0.029661031
0.14562827 -0.012640724 0.084983684 -0.12659536 0.18361352 0.21469691 -0.21835409 -0.05503975
-0.24452011 0.11089998 -0.23167393 -0.09236977 0.24400406 -0.22639948 0.17252414 0.017071411
0.172267 -0.16047879 0.1610023 0.034560516 0.034421142 0.18651684 -0.24098977 -0.20733471
0.2647147 -0.14419518 -0.17652807 -0.007646566 -0.084268175 -0.03311715 -0.21580215 0.062776156
-0.20847201 0.0423171 0.15005085 0.08103705 0.00012866025 0.047139842 -0.078724906 0.00909151
00000000: 5c8f eb3d 928a 5bbe 3f9f 10be 4258 2c3c
00000010: c818 3b3e 51e5 073e f8aa 51be 9b35 6b3c
00000020: 5b29 05be 3793 08bb c2bf 54be adbd 95bd
00000030: 2254 273e fa6d 6dbe 7ec9 80be 3404 473d
00000040: 3308 203d d152 60bd 92c8 603e 0ef0 13be
00000050: 06d1 0abe dba2 39be 82b4 83bc b1fb f2bc
00000060: 941f 153e 0a1b 4fbc ed0b ae3d 37a2 01be
00000070: 2f05 3c3e 82d9 5b3e 3798 5fbe 5c71 61bd
00000080: 7b63 7abe 871f e33d ee3b 6dbe 5d2c bdbd
00000090: 33dc 793e 44d5 67be 2baa 303e 58d9 8b3c
000000a0: c366 303e 8d54 24be c9dd 243e 548f 0d3d
000000b0: 2ffd 0c3d 45fe 3e3e 06c6 76be 8d4f 54be
000000c0: af88 873e e7a7 13be c6c3 34be 0b90 fabb
000000d0: cb94 acbd d9a5 07bd 3dfb 5cbe c990 803d
000000e0: b079 55be b254 2d3d eea6 193e c1f6 a53d
000000f0: f9e8 0639 b515 413d 863a a1bd 8ff4 143c

graph_attention.out_proj_low.bias f4 [4]
-0.13712808 -0.14117523 -0.12924336 0.21362032
00000000: 4e6b 0cbe 3d90 10be 5f58 04be 49bf 5a3e

graph_attention.out_proj_high.weight f4 [16, 4]
-0.09652762 0.16504821 0.35134906 -0.053917356 -0.28133288 -0.3286915 -0.1865077 0.17409869
-0.42922723 -0.08759894 0.17146479 0.4114393 0.16564889 0.09661409 0.35535863 0.2384091
0.16039437 -0.15854682 -0.40672228 -0.1255164 -0.09957244 0.029405305 -0.0754223 0.20962149
0.33770683 -0.2119705 -0.4594312 -0.22453782 -0.2259148 0.2737703 -0.33453628 -0.039468173
-0.10363471 -0.28598216 0.24315596 -0.21184447 -0.020701304 -0.35398954 -0.06371979 0.08459152
-0.01177336 -0.2097252 0.1548967 -0.11627904 -0.26497573 -0.37238544 -0.11157414 -0.47679925
0.42083773 -0.2270183 -0.21049128 0.049627014 0.11821514 -0.06350694 0.34835246 -0.30666658
0.17217292 -0.0052993977 -0.41131085 -0.20302948 0.12092844 0.08769952 0.34529755 0.32475972
00000000: 46b0 c5bd 6602 293e 06e4 b33e 72d8 5cbd
00000010: dd0a 90be 414a a8be e0fb 3ebe ed46 323e
00000020: acc3 dbbe 1367 b3bd 7794 2f3e 2ca8 d23e
00000030: dd9f 293e 9cdd c53d 91f1 b53e 8421 743e
00000040: 6c3e 243e 195a 22be e73d d0be 5f87 00be
00000050: a3ec cbbd 65e3 f03c 0277 9abd 04a7 563e
00000060: e9e7 ac3e cb0e 59be 913a ebbe 3eed 65be
00000070: 3656 67be 9f2b 8c3e 5748 abbe 61a9 21bd
00000080: 6f3e d4bd 416c 92be e0fd 783e c2ed 58be
00000090: c895 a9bc 1e3e b5be 857f 82bd 523e ad3d
000000a0: 0de5 40bc 34c2 56be 3e9d 1e3e b523 eebd
000000b0: e6aa 87be 4ea9 bebe fc80 e4bd 081f f4be
000000c0: 0b78 d73e 7c77 68be 078b 57be b245 4b3d
000000d0: c81a f23d ed0f 82bd 415b b23e 6703 9dbe
000000e0: 194e 303e 92a6 adbb 5697 d2be f6e6 4fbe
000000f0: 54a9 f73d ce9b b33d d7ca b03e e846 a63e

graph_attention.out_proj_high.bias f4 [16]
-0.24826545 -0.22205333 -0.10869711 -0.3565576 -0.14350373 -0.41591704 0.2426975 0.38198096
0.021443345 -0.3505496 -0.34797534 -0.17467959 0.051853634 0.008026424 0.10512315 0.50057507
00000000: 4c39 7ebe f361 63be 979c debd b88e b6be
00000010: a4f2 12be 14f3 d4be b285 783e 0293 c33e
00000020: f4a9 af3c 3d7b b3be d329 b2be 35df 32be
00000030: 7a64 543d 4381 033c ce4a d73d b025 003f

temporal_module.fusion_weight f4 [3]
0.98185486 1.015048 1.007469
00000000: d75a 7b3f 18ed 813f bff4 803f

temporal_module.scales.0.0.weight f4 [16, 16, 3]
-0.10614958 -0.13239646 -0.13970669 0.0030067065 -0.11545676 -0.017312098 -0.102484405 -0.15013708
0.05106006 0.039450694 0.035209656 0.092808805 -0.08758538 -0.054096807 -0.092393555 0.11925989
0.07693122 0.092570886 -0.08695685 -0.05673583 0.15553501 -0.04543875 -0.0227143 0.11109016
-0.19344889 -0.10139271 0.020764638 0.09442887 -0.05278768 -0.15359545 0.014090992 0.07865037
-0.14966336 -0.004573404 -0.097608104 -0.052051067 0.04219087 0.05569035 0.050031785 -0.16924933
-0.0680404 0.05161779 0.020463267 0.0033278032 -0.03975956 0.08856491 -0.18601519 -0.17073117
0.10802987 -0.032255158 0.113571696 -0.085985884 -0.04336201 -0.08068838 0.118842885 0.10377969
0.011797316 0.008204604 -0.027244084 -0.057669938 -0.055907696 0.0069861533 -0.04410721 0.11109567
0.010440435 0.015805993 -0.09457378 0.027930498 -0.15095569 0.04304337 0.04479328 0.026665708
0.08249181 0.03521547 -0.053297617 -0.11012184 -0.15050864 0.0628116 0.059166104 -0.11040067
0.027985273 -0.07610965 0.10541416 -0.07178421 0.116893984 0.07792844 0.06718966 0.08308374
0.088563636 0.05019436 -0.117170885 -0.053586528 -0.025986219 0.07350041 -0.036301143 0.078072935
0.09222889 0.064963065 0.05544247 -0.016139328 0.068933435 -0.04189808 0.135603 0.010126027
0.00092822086 -0.11765174 0.14922099 -0.023303937 0.10684185 -0.116078064 -0.10676397 -0.0048282957
-0.09890064 0.052339368 -0.008279479 -0.07706546 0.09732205 0.10197267 -0.11914158 -0.09795565
0.06935358 -0.101473145 0.0050808243 -0.04077527 0.02035683 -0.08153397 -0.014022336 -0.06515312
-0.088365525 -0.08264701 0.018214995 0.0769901 -0.0008148191 -0.0035241705 0.12785423 0.099702686
-0.03410361 -0.14698008 0.040891293 0.036386263 -0.08993992 -0.12081745 0.030420871 0.14559905
-0.12222062 -0.028171761 -0.053767286 -0.12901267 -0.11493789 0.12564558 0.12441417 -0.08419841
0.02048695 -0.08220394 0.11818567 -0.06718707 -0.09518449 -0.11345918 0.009633196 0.14253499
-0.08024152 0.0935655 0.0931217 -0.052359566 -5.0288156e-05 0.025147527 -0.006661516 0.09680635
0.050803404 -0.07785257 0.10945276 0.07180594 -0.0386641 0.123570964 -0.017394915 0.09118414
-0.14485796 0.087452136 0.09895331 -0.14663327 -0.11356365 -0.056132667 -0.06108337 0.042246062
0.11787496 -0.026113432 0.07792965 -0.04210718 -0.062572084 -0.08695568 0.09980614 -0.10546117
-0.029376267 0.004188279 -0.09065758 0.057712704 0.03715766 0.10564893 0.094455995 -0.11089177
-0.10193354 -0.056620408 -0.105324626 0.043167267 -0.08487345 -0.10386602 0.056466665 0.0869451
-0.03460013 -0.13865232 0.029288577 0.076786004 0.12127474 0.017669594 0.11140377 -0.12213557
0.1244775 -0.115860336 -0.120971486 0.1086059 -0.033664897 0.09344023 -0.117595114 0.08550905
0.1131769 0.04459471 0.11201114 -0.105515994 -0.011040236 0.0518746 0.08972457 -0.085363254
0.0791702 -0.05713645 -0.07489363 0.030803502 -0.11017807 -0.13118805 0.048435982 0.049473513
0.033674233 -0.039468568 -0.10525454 -0.107296556 0.14544754 -0.1304792 0.03456374 0.10571543
0.10313089 -0.10934775 -0.06669051 -0.12262843 0.1083259 -0.11579442 -0.12900339 -0.104873575
00000000: f364 d9bd f092 07be 450f 0fbe 2a0c 453b
00000010: 9874 ecbd 1ad2 8dbc 58e3 d1bd 89bd 19be
00000020: 5a24 513d 0d97 213d 0038 103d 8b12 be3d
00000030: f75f b3bd 9d94 5dbd d538 bdbd 873e f43d
00000040: 1e8e 9d3d ce95 bd3d 6f16 b2bd d463 68bd
00000050: 9244 1f3e fc1d 3abd 5713 babc 3d83 e33d
00000060: 7717 46be fba6 cfbd 9a1a aa3c ec63 c13d
00000070: e537 58bd 2048 1dbe e7dd 663c 7213 a13d
00000080: 5a41 19be 7edc 95bb c2e6 c7bd 8033 55bd
00000090: 55d0 2c3d 901b 643d 21ee 4c3d b24f 2dbe
000000a0: c458 8bbd 2d6d 533d 95a2 a73c 4617 5a3b
000000b0: ecda 22bd 8561 b53d c47a 3ebe 27d4 2ebe
000000c0: c43e dd3d fc1d 04bd 4798 e83d 5e19 b0bd
000000d0: 5d9c 31bd f33f a5bd e663 f33d 728a d43d
000000e0: 8849 413c 9a6c 063c fc2e dfbc 5037 6cbd
000000f0: 78ff 64bd 1aec e43b c3a9 34bd 2086 e33d
00000100: 5c0e 2b3c 927b 813c e6af c1bd 80ce e43c
00000110: 2194 1abe 3f4e 303d 2979 373d 0b72 da3c
00000120: 77f1 a83d 193e 103d 9a4e 5abd 8f87 e1bd
00000130: f01e 1abe 5ea3 803d 2858 723d bf19 e2bd
00000140: 5f41 e53c 60df 9bbd 61e3 d73d 9a03 93bd
00000150: 1d66 ef3d f298 9f3d bc9a 893d cf27 aa3d
00000160: da60 b53d 9a98 4d3d 4af7 efbd 8c7d 5bbd
00000170: 0de1 d4bc 6287 963d 82b0 14bd b4e4 9f3d
00000180: 80e2 bc3d 5b0b 853d a517 633d a036 84bc
00000190: f92c 8d3d 529d 2bbd 83db 0a3e a3e7 253c
000001a0: d953 733a 65f3 f0bd 63cd 183e e6e7 bebc
000001b0: e6cf da3d 56ba edbd 11a7 dabd ae36 9ebb
000001c0: 6b8c cabd ce61 563d a7a6 07bc 7fd4 9dbd
000001d0: c850 c73d 0cd7 d03d 8000 f4bd f99c c8bd
000001e0: 4009 8e3d 27d1 cfbd 0b7d a63b f803 27bd
000001f0: 5ec3 a63c 48fb a6bd f1bd 65bc 006f 85bd
00000200: fcf8 b4bd d642 a9bd 9d37 953c fcac 9d3d
00000210: 9699 55ba c5f5 66bb 38ec 023e ec30 cc3d
00000220: 3ab0 0bbd f281 16be a17d 273d c309 153d
00000230: 6c32 b8bd 246f f7bd 3135 f93c eb17 153e
00000240: ce4e fabd 77c8 e6bc 163b 5cbd e61b 04be
00000250: 8e64 ebbd 3ca9 003e dbcc fe3d 3770 acbd
00000260: 40d4 a73c 8a5a a8bd 540b f23d 6099 89bd
00000270: 16f0 c2bd 495d e8bd 8dd4 1d3c b1f4 113e
00000280: ab55 a4bd 459f bf3d 97b6 be3d fc76 56bd
00000290: 7fec 52b8 3002 ce3c d948 dabb 6842 c63d
000002a0: 3b17 503d 2b71 9fbd c528 e03d fe0e 933d
000002b0: 3f5e 1ebd c612 fd3d c87f 8ebc c0be ba3d
000002c0: a555 14be 1b1a b33d 08a8 ca3d 0827 16be
000002d0: 0f94 e8bd 5eeb 65bd 8e32 7abd 350a 2d3d
000002e0: 6d68 f13d d6eb d5bc 9599 9f3d 9478 2cbd
000002f0: cb25 80bd d215 b2bd 2967 cc3d 07fc d7bd
00000300: 7fa6 f0bc d53d 893b aeaa b9bd 2864 6c3d
00000310: a132 183d 775e d83d 2572 c13d 391b e3bd
00000320: 88c2 d0bd cdea 67bd 70b4 d7bd 29d0 303d
00000330: 22d2 adbd b5b7 d4bd 9749 673d 4610 b23d
00000340: deb8 0dbd e0fa 0dbe 99ee ef3c fb41 9d3d
00000350: e45e f83d d3bf 903c a927 e43d 3722 fabd
00000360: 0fee fe3d 2f48 edbd e6bf f7bd c56c de3d
00000370: 34e4 09bd 975d bf3d b5d5 f0bd 5e1f af3d
00000380: 4ac9 e73d f1a8 363d 1966 e53d c518 d8bd
00000390: 1be2 34bc 767a 543d 84c1 b73d eed2 aebd
000003a0: fc23 a23d e907 6abd d561 99bd a057 fc3c
000003b0: 0aa5 e1bd 2956 06be cf64 463d bda4 4a3d
000003c0: feed 093d cba9 21bd b18f d7bd 4cbe dbbd
000003d0: 33f0 143e 579c 05be b592 0d3d 5581 d83d
000003e0: 4a36 d33d b7f1 dfbd 0995 88bd 9d24 fbbd
000003f0: f8d9 dd3d a025 edbd 7719 04be f5c7 d6bd

temporal_module.scales.0.0.bias f4 [16]
0.05578753 -0.0033171037 0.13231508 0.07958409 -0.08389121 0.12863697 -0.025852917 -0.03289471
0.043397382 0.14343688 0.04339581 -0.13924405 -0.045710552 0.13427481 -0.05093885 -0.06944271
00000000: 7781 643d c463 59bb 9b7d 073e fcfc a23d
00000010: 28cf abbd 69b9 033e 7fc9 d3bc 9abc 06bd
00000020: 74c1 313d 1ee1 123e cebf 313d fe95 0ebe
00000030: fd3a 3bbd 567f 093e 41a5 50bd fb37 8ebd

temporal_module.scales.0.1.weight f4 [16]
0.95712596 0.9772605 1.0092909 1.0041671 0.9864096 0.98761725 0.9672826 0.96631324
1.0006089 1.0471246 1.0755683 1.0132124 1.0110205 1.0119636 0.9875384 0.9699682
00000000: 3506 753f be2d 7a3f 7230 813f 8c88 803f
00000010: 5785 7c3f 7cd4 7c3f d59f 773f 4e60 773f
00000020: f413 803f 2e08 863f 39ac 893f f2b0 813f
00000030: 1f69 813f 0688 813f 51cf 7c3f d64f 783f

temporal_module.scales.0.1.bias f4 [16]
-0.039442718 -0.025672628 0.0133005725 -0.010453547 -0.029266356 -0.018864196 -0.013723039 -0.0376752
-0.004290637 0.04925543 0.06538552 0.022445468 -0.011504837 0.01800323 -0.0070436215 -0.05919826
00000000: b08e 21bd 674f d2bc a5ea 593c 5b45 2bbc
00000010: ffbf efbc 1689 9abc 99d6 60bc 4f51 1abd
00000020: 7998 8cbb 10c0 493d d8e8 853d 8fdf b73c
00000030: c97e 3cbc 837b 933c 2ece e6bb e079 72bd

temporal_module.scales.0.1.running_mean f4 [16]
-0.024753323 0.3371185 0.32136858 0.19416481 -0.20148346 0.24463075 -0.016452532 0.44939598
-0.0713421 0.32092714 -0.3735048 -0.5121469 -0.017046284 0.0013645077 -0.050930582 0.16978692
00000000: 7bc7 cabc cc9a ac3e 6c8a a43e 24d3 463e
00000010: ae51 4ebe 7c80 7a3e 76c7 86bc 3b17 e63e
00000020: cf1b 92bd 9050 a43e 053c bfbe 0f1c 03bf
00000030: a6a4 8bbc 48d9 b23a 969c 50bd 9fdc 2d3e

temporal_module.scales.0.1.running_var f4 [16]
1.7794864 1.8305932 0.2863614 0.07150785 1.1639479 0.39439005 1.8988316 0.71809536
0.13546406 0.6213126 1.1687254 0.8564821 0.89619553 0.30970994 1.5532941 0.24486338
00000000: 36c6 e33f e150 ea3f f69d 923e b572 923d
00000010: 3ffc 943f 7eed c93e ea0c f33f 19d5 373f
00000020: 17b7 0a3e 580e 1f3f cb98 953f 6942 5b3f
00000030: 126d 653f 4d92 9e3e 57d2 c63f 77bd 7a3e
