old results/report/optim_results/models/trial_89_best.pt (torch, 64701 bytes, 58 tensors)

temp_conv.depthwise.weight f4 [1, 1, 3]
0.24995068 0.35498297 -0.30647
00000000: 12f3 7f3e 54c0 b53e a3e9 9cbe

temp_conv.pointwise.weight f4 [12, 1, 1]
-0.2608276 0.19650607 -0.50196177 0.57600576 0.8880649 -0.7621634 0.86569667 0.17557898
0.73427343 0.14444782 0.48215225 -0.2097945
00000000: 328b 85be e338 493e 9180 00bf 1d75 133f
00000010: 3958 633f 241d 43bf 4c9e 5d3f faca 333e
00000020: 58f9 3b3f 21ea 133e a9dc f63e 5fd4 56be

temp_conv.pointwise.bias f4 [12]
0.7706019 0.1479865 -0.46767098 0.25456938 -0.46075657 -0.11733627 -0.40634492 0.6613088
-0.7894418 -0.4577546 -0.28258032 -0.59235454
00000000: 2b46 453f c689 173e 9272 efbe eb56 823e
00000010: 49e8 ebbe 004e f0bd 710c d0be 894b 293f
00000020: dc18 4abf d05e eabe 5eae 90be 8ca4 17bf

temp_conv.bn2.weight f4 [12]
1.0373424 0.9949613 1.0143161 0.9872296 1.0071831 1.0456315 0.99347156 0.9886302
0.99319607 1.0072303 0.9975594 1.0764042
00000000: a3c7 843f c9b5 7e3f 1cd5 813f 14bb 7c3f
00000010: 60eb 803f 41d7 853f 2754 7e3f de16 7d3f
00000020: 1942 7e3f ecec 803f 0e60 7f3f 9dc7 893f

temp_conv.bn2.bias f4 [12]
-0.041168503 0.099396974 -0.012408432 -0.032260574 0.0057802983 -0.050147828 -0.027493246 0.026155509
0.022429137 0.036484633 -0.011849852 -0.023643788
00000000: 4ea0 28bd a490 cb3d bc4c 4bbc aa23 04bd
00000010: a868 bd3b cf67 4dbd 8439 e1bc 1444 d63c
00000020: 4fbd b73c e970 153d e225 42bc 9eb0 c1bc

temp_conv.bn2.running_mean f4 [12]
0.68678004 0.21127768 -0.6295641 0.44015086 -0.17457731 -0.36316755 -0.1274208 0.71788913
-0.553002 -0.41088125 -0.12699051 -0.66000664
00000000: d1d0 2f3f 2d59 583e 1d2b 21bf 745b e13e
00000010: 65c4 32be 19f1 b9be 997a 02be 95c7 373f
00000020: 8a91 0dbf 075f d2be cd09 02be 32f6 28bf

temp_conv.bn2.running_var f4 [12]
0.024858985 0.014247968 0.09294607 0.12242375 0.29108426 0.214647 0.2765577 0.01138695
0.19871761 0.007755582 0.086056784 0.016293006
00000000: 12a5 cb3c 4f70 693c 825a be3d 4eb9 fa3d
00000010: ff08 953e 6ccc 5b3e f998 8d3e 5490 3a3c
00000020: a17c 4b3e 8a22 fe3b 8a3e b03d e978 853c

feature_process_low.weight f4 [8, 240]
0.008801185 -0.069088034 0.057805564 -0.053533867 0.053333756 0.015767703 -0.02143315 0.03974302
0.009648689 0.04814402 0.004630876 -0.02259755 0.015620199 -0.02018132 0.025935536 0.05080773
0.028580837 -0.036844704 0.03382107 0.05827298 0.034532517 -0.044005968 -0.06437598 -0.023810731
-0.04477817 0.062340006 0.028212713 0.03257941 0.017447485 -0.011889247 0.04274475 -0.046911564
0.0043671085 -0.04671809 0.0262517 -0.01348083 0.028157309 -0.012231589 0.057733007 -0.040404543
-0.03515887 -0.041527968 0.05810232 0.024654046 0.06660962 -0.048862424 -0.061800748 -0.050000396
-0.04118014 0.024035903 0.019299157 0.05320369 -0.03596907 -0.04562071 0.033112813 -0.028424468
0.034038596 -0.02562648 0.03141328 -0.0069589447 -0.029801043 0.016277093 0.013873782 -0.014593888
0.04266041 0.054263867 -0.037063956 -0.028506277 0.056139894 -0.03269154 -0.030693926 -0.064228654
-0.036425665 0.014521725 -0.004275598 -0.036144335 0.008535488 -0.045180175 -0.051173165 -0.036771186
-0.053190883 -0.044547506 0.06401099 0.013623186 0.024498524 -0.049711797 -0.032175716 -0.015914628
0.007886037 -0.06814202 -0.035344433 -0.040759906 0.0010609595 -0.026946 0.0021097544 -0.0341614
-0.036791418 -0.03688112 -0.017813776 -0.05223006 0.059015483 -0.016978927 0.053414267 0.02172806
-0.053140447 0.04834464 -0.016369125 -0.022803403 -0.05121188 -0.067014694 0.016931454 -0.016365524
0.021724265 -0.052087646 0.04528405 -0.049745593 -0.019328497 0.0059075337 0.028111193 0.09478767
0.06277571 -0.054456104 0.016268194 -0.026037054 -0.0026612931 -0.03813487 0.06878222 -0.04194272
0.03139286 0.011038845 0.012731407 -0.03623263 0.060325067 0.012679792 0.0142217735 -0.04760454
0.03466757 -0.009460133 -0.024332417 0.051492363 0.0166149 -0.03922764 -0.032322757 -0.0020345722
0.039751463 -0.0063650464 -0.027548667 -0.016182113 -0.051124558 0.012486713 0.041731514 -0.06312005
0.015275361 0.032343917 0.017983347 -0.013220839 0.040582716 0.03436959 0.028401801 -0.015820803
-0.013738809 0.0036024668 -0.011547517 -0.017734256 0.045761738 0.065720595 0.0037099414 -0.008910167
-0.0012594145 -0.015127857 0.0076613426 0.016657794 -0.058787417 -0.026165282 0.059482027 0.03455676
0.004647877 -0.03743424 -0.034879345 -0.06443971 -0.019638294 0.01795451 0.040732276 0.031327862
-0.052953124 -0.02919392 -2.5081532e-05 0.06864416 0.005958313 -0.027631886 0.018375633 -0.026181825
-0.041996997 0.04617922 -0.023561291 -0.0028668314 -0.055940714 0.04456003 0.052729726 0.017675085
-0.04128388 -0.06606466 -0.051895294 0.049380794 0.036406264 0.06386065 0.043565612 0.022517452
-0.003977265 -0.059788585 -0.06356852 -0.06124893 0.027012503 -0.033847764 -0.007292728 -0.027905552
-0.001925819 -0.04519681 -0.037553705 0.01533186 -0.016413122 0.037034515 -0.021183848 -0.045738548
-0.007434832 -0.028140761 -0.015759116 -0.05973527 0.036293212 -0.04431492 0.031504747 0.027358145
0.045465287 -0.051069707 0.045894053 -0.033481166 0.015461894 0.056103792 -0.015382402 0.041377407
-0.012365427 -0.030899407 0.041248426 -0.05561418 0.04156129 0.045334354 0.061874107 -0.01453298
-0.052282378 0.016693927 0.034628008 -0.06320709 -0.0128752235 -0.037404016 -0.0038465755 -0.02614885
00000000: d832 103c 077e 8dbd 87c5 6c3d 5446 5bbd
00000010: 7f74 5a3d 452b 813c 9394 afbc 94c9 223d
00000020: 8915 1e3c aa32 453d 9abe 973b 7f1e b9bc
00000030: ddeb 7f3c 4c53 a5bc c376 d43c c41b 503d
00000040: 5c22 ea3c 79ea 16bd f687 0a3d a6af 6e3d
00000050: f871 0d3d 9a3f 34bd 8ed7 83bd b90e c3bc
00000060: 5069 37bd 3c58 7f3d 591e e73c fd71 053d
00000070: 07ee 8e3c 1ecb 42bc 1e15 2f3d 5726 40bd
00000080: f619 8f3b 785b 3fbd ce0d d73c b3de 5cbc
00000090: 28aa e63c 0167 48bc 7279 6c3d 3c7f 25bd
000000a0: bf02 10bd 3b19 2abd b3fc 6d3d 48f7 c93c
000000b0: a06a 883d f723 48bd c822 7dbd 37cd 4cbd
000000c0: 82ac 28bd f1e6 c43c 4419 9e3c 1dec 593d
000000d0: 4e54 13bd c8dc 3abd 4da1 073d 6eda e8bc
000000e0: 0e6c 0b3d a0ee d1bc 36ab 003d dc07 e4bb
000000f0: 5121 f4bc 8a57 853c dc4e 633c 341b 6fbc
00000100: afbc 2e3d ca43 5e3d 60d0 17bd ff85 e9bc
00000110: f2f2 653d 90e7 05bd d471 fbbc 508a 83bd
00000120: 1433 15bd 87ec 6d3c 511a 8cbb 150c 14bd
00000130: 6ed8 0b3c d90e 39bd f49a 51bd 629d 16bd
00000140: afde 59bd 7277 36bd 3218 833d c933 5f3c
00000150: 21b1 c83c 999e 4bbd afca 03bd 655f 82bc
00000160: 7034 013c 0b8e 8bbd 53c5 10bd dcf3 26bd
00000170: e50f 8b3a dcbd dcbc ce43 0a3b d3ec 0bbd
00000180: 99b2 16bd a810 17bd 32ee 91bc 30ef 55bd
00000190: 38ba 713d 6417 8bbc ebc8 5a3d 0bff b13c
000001a0: cca9 59bd 0705 463d 8b18 86bc 34ce babc
000001b0: 8cc3 51bd 003f 89bd d5b3 8a3c fe10 86bc
000001c0: 16f7 b13c db59 55bd c57b 393d 09c2 4bbd
000001d0: cc56 9ebc fc93 c13b 7249 e63c 0a20 c23d
000001e0: 8d90 803d 5d0d 5fbd e044 853c a94b d5bc
000001f0: 1769 2ebb 4f33 1cbd b1dd 8c3d 21cc 2bbd
00000200: cd95 003d 46dc 343c 6497 503c ab68 14bd
00000210: 6b17 773d e7be 4f3c 7102 693c fafc 42bd
00000220: 95ff 0d3d acfe 1abc c754 c7bc a8e9 523d
00000230: f91b 883c 29ad 20bd de64 04bd 7556 05bb
00000240: 6ed2 223d e191 d0bb bead e1bc 5a90 84bc
00000250: fc67 51bd 1295 4c3c aaee 2a3d 1645 81bd
00000260: 8245 7a3c 0e7b 043d d051 933c 389c 58bc
00000270: 103a 263d 21c7 0c3d e5aa e83c a19a 81bc
00000280: be18 61bc 5d17 6c3b cc31 3dbc 6e47 91bc
00000290: a970 3b3d 8598 863d 7d22 733b f3fb 11bc
000002a0: f012 a5ba d5da 77bc 000c fb3b ed75 883c
000002b0: 13cb 70bd 9358 d6bc 6da3 733d 648b 0d3d
000002c0: 384d 983b a554 19bd a5dd 0ebd f7f8 83bd
000002d0: 7de0 a0bc 5615 933c e3d6 263d a551 003d
000002e0: 60e5 58bd 1628 efbc 2e66 d2b7 4f95 8c3d
000002f0: f43d c33b 445c e2bc 7f88 963c 447b d6bc
00000300: 0b05 2cbd 6c26 3d3d 9c03 c1bc 73e1 3bbb
00000310: 1722 65bd 9484 363d 20fb 573d 57cb 903c
00000320: 4919 29bd e94c 87bd 2990 54bd 8443 4a3d
00000330: bc1e 153d 5fc9 823d db71 323d 8576 b83c
00000340: b853 82bb e0e4 74bd 3630 82bd 28e0 7abd
00000350: 5349 dd3c f4a3 0abd d6f7 eebb 2f9a e4bc
00000360: c36b fcba 4a20 39bd ead1 19bd 7b32 7b3c
00000370: d074 86bc 81b1 173d c089 adbc 5858 3bbd
00000380: e49f f3bb 7487 e6bc 4319 81bc f8ac 74bd
00000390: 31a8 143d 9083 35bd 1f0b 013d 301e e03c
000003a0: cf39 3a3d 782e 51bd 67fb 3b3d 8c23 09bd
000003b0: e253 7d3c 17cd 653d 7806 7cbc 5b7b 293d
000003c0: 5c98 4abc c120 fdbc 1cf4 283d b2cb 63bd
000003d0: 2c3c 2a3d 84b0 393d b46f 7d3d bc1b 6ebc
000003e0: 0c26 56bd b4c1 883c 19d6 0d3d b872 81bd
000003f0: 9af2 52bc f434 19bd d416 7cbb 1d36 d6bc

feature_process_low.bias f4 [8]
0.060979497 -0.03810368 -0.040607404 -0.0059508476 -0.015304475 -0.0113136675 -0.05021681 0.016389359
00000000: a3c5 793d 9b12 1cbd f353 26bd 54ff c2bb
00000010: 9fbf 7abc f65c 39bc 24b0 4dbd fa42 863c

feature_process_high.weight f4 [16, 8]
-0.29399756 0.045014095 0.19557934 0.07887126 0.04042585 0.06862706 -0.10319267 -0.061665725
-0.15127127 -0.22520246 -0.1838766 0.3292716 -0.06810579 0.12334365 0.23504364 -0.023484744
-0.19914284 -0.24840163 -0.12040397 0.12029978 -0.30866963 -0.04219912 0.13591975 0.3031176
0.081411324 0.114730604 0.26091224 0.21459197 0.13442926 -0.112998426 -0.27565932 -0.043955646
-0.07215588 -0.007293697 -0.058024894 0.12995617 0.25216833 -0.15928923 -0.33837137 -0.21077566
-0.1811502 0.20606807 -0.20232101 -0.026124544 -0.08794847 -0.22149819 0.17568181 -0.12253232
-0.010848537 -0.25314096 -0.051662385 0.04921794 -0.005861553 -0.12963612 0.11205971 -0.11622887
-0.18709987 -0.26634216 -0.10475155 -0.30015913 0.3114157 -0.16519356 -0.15334755 0.012437925
0.08624538 -0.035288468 0.23816575 -0.20976688 0.11984241 0.0081405165 -0.29456595 -0.1326817
0.08311248 0.089849114 0.25257298 0.23695876 -0.20741306 -0.14781727 -0.08065882 -0.2406463
-0.104637444 -0.2761205 0.15324248 0.25296846 0.02298066 -0.25274718 -0.26341483 -0.101946026
0.10815406 0.043410458 0.10612683 0.3590308 0.15152058 0.08930578 -0.072130166 0.21931785
0.12213582 -0.3536344 -0.21286064 0.0077571413 0.17655686 0.15460177 -0.20888892 -0.37211055
-0.0066779777 -0.061058667 0.079893656 -0.09255674 0.2986072 0.0026474781 0.25438085 -0.25652692
0.15119225 0.085801825 -0.14630495 0.19235209 -0.34913984 0.292027 0.05003045 0.03685486
0.17990537 0.073725976 0.16717866 0.29395926 -0.32497752 0.23216802 0.03408812 -0.008120729
00000000: d986 96be b360 383d f345 483e 4187 a13d
00000010: 9395 253d 588c 8c3d ae56 d3bd 3395 7cbd
00000020: dbe6 1abe 799b 66be 264a 3cbe 4a96 a83e
00000030: 0c7b 8bbd 989b fc3d 48af 703e 1463 c0bc
00000040: 1aec 4bbe ff5c 7ebe 5b96 f6bd bb5f f63d
00000050: f209 9ebe fcd8 2cbd 8c2e 0b3e 3b32 9b3e
00000060: fbba a63d e1f7 ea3d 4a96 853e ffbd 5b3e
00000070: d3a7 093e b86b e7bd 3823 8dbe d60a 34bd
00000080: 76c6 93bd f7ff eebb 83ab 6dbd 3b13 053e
00000090: 351c 813e b71c 23be 033f adbe 93d5 57be
000000a0: 707f 39be 8203 533e 3d2d 4fbe 2403 d6bc
000000b0: 541e b4bd 6cd0 62be efe5 333e 3af2 fabd
000000c0: 10be 31bc b19b 81be f09b 53bd c098 493d
000000d0: 4512 c0bb 55bf 04be 907f e53d 6709 eebd
000000e0: 1c97 3fbe 005e 88be fb87 d6bd 75ae 99be
000000f0: e171 9f3e 8028 29be 2407 1dbe 70c8 4b3c
00000100: 6ba1 b03d a48a 10bd b9e1 733e 21cd 56be
00000110: f06f f53d cd5f 053c 59d1 96be b6dd 07be
00000120: e036 aa3d d002 b83d 3f51 813e 51a5 723e
00000130: 1764 54be 695d 17be 7430 a5bd fc6b 76be
00000140: 284c d6bd ab5f 8dbe 99eb 1c3e 1585 813e
00000150: f041 bc3c 1468 81be 4fde 86be 14c9 d0bd
00000160: e07f dd3d 2acf 313d 0659 d93d e3d2 b73e
00000170: 3628 1b3e f3e5 b63d fbb8 93bd dc94 603e
00000180: 5822 fa3d 910f b5be 24f8 59be 9e2f fe3b
00000190: 52cb 343e ed4f 1e3e fae6 55be 4685 bebe
000001a0: f0d2 dabb a718 7abd 499f a33d 638e bdbd
000001b0: 0be3 983e 5081 2d3b 353e 823e 7f57 83be
000001c0: 24d2 1a3e deb8 af3d f7d0 15be f2f7 443e
000001d0: 75c2 b2be 9084 953e bbec 4c3d 1ff5 163d
000001e0: 1d39 383e a5fd 963d e230 2b3e d481 963e
000001f0: 7463 a6be 74bd 6d3e fc9f 0b3d ce0c 05bc

feature_process_high.bias f4 [16]
0.080655605 0.25900212 -0.19829802 -0.17195398 0.20936641 -0.15570284 0.10582059 -0.038626015
0.092931986 0.26650798 -0.15055855 -0.16171047 0.17913418 0.018158939 -0.036831353 -0.26311398
00000000: c42e a53d ed9b 843e a30e 4bbe b414 30be
00000010: 2664 563e 9170 1fbe 77b8 d83d 5036 1ebd
00000020: 2053 be3d bc73 883e 052c 1abe 6e97 25be
00000030: f36e 373e 0ec2 943c 79dc 16bd e0b6 86be

feature_norm.weight f4 [16]
0.99106574 0.9949443 1.0135449 0.9935024 0.9861137 0.9907171 0.9991915 0.9919901
0.9939624 1.0013131 0.98826534 1.0209361 1.0212146 1.007155 0.985519 0.9884016
00000000: 7cb6 7d3f abb4 7e3f d7bb 813f 2c56 7e3f
00000010: f371 7c3f a39f 7d3f 04cb 7f3f 10f3 7d3f
00000020: 5274 7e3f 072b 803f f5fe 7c3f 09ae 823f
00000030: 29b7 823f 74ea 803f f94a 7c3f e307 7d3f

feature_norm.bias f4 [16]
-0.025980834 -0.024245732 0.0006561797 0.00043161315 -0.019439347 0.002349608 -0.01793974 0.00087856856
-0.012226326 0.0059267506 -0.0071884994 0.01991313 0.008151951 -0.0040533156 0.0045758463 -0.01723224
00000000: c2d5 d4bc fc9e c6bc 7903 2c3a 234a e239
00000010: 443f 9fbc e2fb 193b 5df6 92bc bd4f 663a
00000020: ee50 48bc 3035 c23b 818d ebbb dc20 a33c
00000030: c38f 053c add1 84bb fbf0 953b a02a 8dbc

graph_attention.learnable_adj_u f4 [4, 47, 8]
-0.035889924 -0.07482157 -0.07748517 0.08427404 0.09539972 -0.016717149 0.037169404 -0.028401457
0.025711004 -0.02030107 -0.063085265 -0.0510217 0.1204568 0.020441456 -0.06631599 0.013765906
-0.120983385 0.0010697191 0.09309164 0.013987304 0.028893286 -0.11423052 -0.022809114 0.07155818
-0.0889139 -0.05673014 0.08195346 0.034825526 0.056689475 -0.1130843 0.07718082 -0.026450036
0.025486354 0.09802092 -0.11175556 0.03469617 -0.10962889 0.089779235 0.035608057 0.013493406
-0.048581284 0.04572224 -0.06294459 0.023181261 0.1018387 -0.09102388 -0.034600656 0.028324274
0.02104947 0.0016676584 0.10432912 -0.03151309 0.031281285 0.0642675 -0.02351283 0.07924036
0.07919998 0.05400051 -0.029585453 0.10533438 -0.07007125 0.03747972 0.024349399 0.08559414
-0.09939898 0.02114134 -0.069836974 0.06427578 0.041642573 -0.094332404 -0.007592162 0.033922777
0.051658902 0.107884385 0.054460377 0.023126991 0.06468839 -0.11474905 0.08085265 -0.0142579675
0.06863317 0.034726616 -0.006395098 0.08536167 -0.070693955 0.034197703 0.05316085 -0.043157052
0.043931313 -0.1199522 -0.06124857 0.058961026 0.06250382 -0.11131143 0.041966926 0.011402627
0.118374944 -0.11828278 -0.02890238 -0.06867858 -0.073788844 -0.01980629 -0.111454315 0.09500754
-0.042904645 0.042491283 -0.07135759 0.0006538851 -0.085910134 0.0976063 0.102274455 0.09547296
-0.042452727 0.075475514 -0.101319574 0.055642582 -0.014968521 -0.100491464 -0.09732362 -0.11348102
0.022724517 -0.04386107 -0.05585153 0.11544751 -0.036947384 0.040903307 -0.02134831 0.07313408
0.036188215 0.076794 0.031665273 -0.026578061 0.107180126 -0.008645329 -0.07259618 0.037737593
-0.014715378 -0.089936 0.015863609 -0.028176473 -0.048292678 -0.05787701 -0.05160676 -0.04910892
0.011915636 0.11715297 -0.07107933 -0.056573838 -0.0812915 -0.0046015834 0.008502559 -0.083237424
0.055391446 -0.10876115 0.11224094 0.022821184 -0.012222022 -0.043421846 0.054449234 0.08855387
-0.079319865 -0.030396707 0.08927201 -0.022726424 -0.089294374 -0.03897133 0.0041889586 -0.022639079
-0.083104335 -0.07597333 0.03278945 0.083206706 0.11031989 -0.013706823 0.04665818 -0.09631345
0.06461962 0.11587762 0.06314962 -0.04794694 0.098871954 -0.11485003 -0.014551733 -0.030047229
-0.12096057 -0.069180354 -0.08835401 0.03259326 -0.010087108 0.0556951 -0.027279738 0.100031376
0.013735779 0.100523956 0.09847531 -0.102841385 -0.081439935 0.07304285 0.11457042 -0.10350387
0.001774866 -0.04662275 0.11416914 0.10074005 0.088259034 0.0652595 -0.0113750445 0.111898415
-0.056747284 0.005993561 -0.031907633 -0.08846557 -0.057467192 0.02940258 -0.01081965 -0.08033394
-0.01541694 0.020943679 -0.084845185 0.07323798 -0.10310043 0.0011602152 -0.099199854 -0.109353796
-0.015064077 0.11005965 0.11463971 0.043584697 0.09399455 -0.06629089 0.06827292 0.0739934
-0.11589564 -0.09293132 0.052390374 0.011205877 -0.082083754 -0.09569518 0.08764379 0.013247461
-0.00026838027 -0.117231406 0.10639953 -0.08016528 0.05403542 -0.014581658 0.003951601 0.059543744
-0.03230444 -0.03402119 0.09667274 -0.09292512 0.053965222 -0.03129567 -0.04051941 0.081178755
00000000: 5001 13bd 0d3c 99bd 8bb0 9ebd de97 ac3d
00000010: ee60 c33d 67f2 88bc f23e 183d 2caa e8bc
00000020: e29f d23c 6e4e a6bc d932 81bd 21fc 50bd
00000030: 0eb2 f63d d774 a73c aed0 87bd 658a 613c
00000040: 23c6 f7bd d135 8c3a d4a6 be3d 012b 653c
00000050: 9db1 ec3c b1f1 e9bd 2eda babc 188d 923d
00000060: 7e18 b6bd dd5d 68bd 37d7 a73d 36a5 0e3d
00000070: 3933 683d be98 e7bd fa10 9e3d bfad d8bc
00000080: c2c8 d03c 31bf c83d 19e0 e4bd 921d 0e3d
00000090: 1d85 e0bd 2dde b73d c1d9 113d 7213 5d3c
000000a0: 2bfd 46bd 3e47 3b3d 18e9 80bd a1e6 bd3c
000000b0: cf90 d03d ba6a babd 6bb9 0dbd 4f08 e83c
000000c0: f06f ac3c 5595 da3a 81aa d53d df13 01bd
000000d0: ce20 003d ae9e 833d fa9d c0bc c548 a23d
000000e0: 9933 a23d a42f 5d3d 315d f2bc 8db9 d73d
000000f0: 8481 8fbd 5684 193d 6478 c73c fb4b af3d
00000100: b191 cbbd 9a30 ad3c b006 8fbd 05a3 833d
00000110: 6791 2a3d 5931 c1bd acc7 f8bb 9cf2 0a3d
00000120: 4998 533d 7df2 dc3d d811 5f3d d174 bd3c
00000130: 597b 843d 8d01 ebbd 1396 a53d 409a 69bc
00000140: 8c8f 8c3d 7f3d 0e3d f88d d1bb 19d2 ae3d
00000150: fec7 90bd e412 0c3d 31bf 593d 73c5 30bd
00000160: 52f1 333d 80a9 f5bd c8df 7abd 1e81 713d
00000170: 0102 803d 3ff7 e3bd 83e5 2b3d 16d2 3a3c
00000180: 906e f23d 3e3e f2bd afc4 ecbc 5ba7 8cbd
00000190: 9b1e 97bd cd40 a2bc 2942 e4bd 5093 c23d
000001a0: c8bc 2fbd 570b 2e3d ee23 92bd 7c69 2b3a
000001b0: a7f1 afbd d0e5 c73d 4575 d13d 5487 c33d
000001c0: e9e2 2dbd e892 9a3d a380 cfbd 7ae9 633d
000001d0: 873e 75bc 78ce cdbd 9b51 c7bd bd68 e8bd
000001e0: c428 ba3c aaa7 33bd 93c4 64bd be6f ec3d
000001f0: 2456 17bd 3a8a 273d a7e2 aebc 52c7 953d
00000200: 183a 143d 2c46 9d3d 72b3 013d 3cba d9bc
00000210: 4181 db3d 23a5 0dbc 4ead 94bd bc92 1a3d
00000220: c518 71bc 5e30 b8bd 66f4 813c 59d2 e6bc
00000230: 8bce 45bd 7210 6dbd 9c61 53bd 6f26 49bd
00000240: cd39 433c e5ed ef3d 0a92 91bd f8b9 67bd
00000250: 287c a6bd e1c8 96bb 514e 0b3c 6278 aabd
00000260: 24e2 623d 2abe debd 94de e53d 7ef3 ba3c
00000270: e03e 48bc 1bdb 31bd 2906 5f3d bb5b b53d
00000280: 7472 a2bd 8402 f9bc 3ed4 b63d c42c babc
00000290: f8df b6bd 67a0 1fbd 8843 893b 9775 b9bc
000002a0: 9b32 aabd e897 9bbd 3b4e 063d 4768 aa3d
000002b0: 65ef e13d 9592 60bc a61c 3f3d fc3f c5bd
000002c0: 4b57 843d 3f51 ed3d 9754 813d 0364 44bd
000002d0: 617d ca3d 7e36 ebbd 646a 6ebc 9b25 f6bc
000002e0: 2dba f7bd 6eae 8dbd f2f2 b4bd 8380 053d
000002f0: 6644 25bc 8c20 643d c279 dfbc 40dd cc3d
00000300: 080c 613c 81df cd3d 6cad c93d 819e d2bd
00000310: fbc9 a6bd 7d97 953d e5a3 ea3d d6f9 d3bd
00000320: 9fa2 e83a 7ff7 3ebd 83d1 e93d cd50 ce3d
00000330: 27c1 b43d c6a6 853d 655e 3abc ff2a e53d
00000340: d76f 68bd a265 c43b 94b1 02bd 702d b5bd
00000350: b862 6bbd aedd f03c e744 31bc 1f86 a4bd
00000360: 5597 7cbc 1492 ab3c 50c3 adbd cbfd 953d
00000370: 5126 d3bd 5d12 983a 4b29 cbbd e2f4 dfbd
00000380: 52cf 76bc f466 e13d 39c8 ea3d de85 323d
00000390: 3780 c03d 85c3 87bd acd2 8b3d da89 973d
000003a0: b15a edbd c752 bebd 4a97 563d db98 373c
000003b0: 871b a8bd d6fb c3bd 967e b33d e10b 593c
000003c0: 64b5 8cb9 0517 f0bd ffe7 d93d b22d a4bd
000003d0: 3f54 5d3d e8e7 6ebc 6f7c 813b 24e4 733d
000003e0: a951 04bd ce59 0bbd 5cfc c53d 864f bebd
000003f0: a30a 5d3d e32f 00bd aef7 25bd 0c41 a63d

graph_attention.learnable_adj_v f4 [4, 8, 47]
-0.09398508 0.04471335 0.025259998 -0.040586412 0.03046515 0.098992825 0.062793694 -0.09411385
-0.026730048 0.0935587 0.015957333 0.012715833 0.0073589305 -0.036263265 -0.026981048 0.006845126
0.07764051 -0.029070435 -0.026991585 0.019634105 -0.03775059 0.08996676 0.077590086 0.0043331063
-0.06669895 0.028866058 0.0874698 0.033979166 0.043232746 -0.054594565 -0.10160603 -0.0387843
0.0032962144 0.09163875 0.021535544 -0.018908031 -0.025917081 -0.019721195 -0.055462528 -0.04318055
0.019161627 0.069849074 0.087605506 0.039719764 -0.071268305 0.09535004 0.09959497 -0.030651242
0.0035561044 0.09336402 -0.036269892 0.048896313 0.017155726 0.057494115 0.035936117 0.10233098
0.087412655 -0.07037771 0.06207019 -0.020406619 -0.053966854 0.017299498 -0.01403894 -0.06721481
-0.09104144 -0.05748226 0.010619119 0.06285828 0.060777664 0.027505463 0.09784345 -0.08833933
-0.06492045 0.044398483 -0.09394691 0.09727551 0.014221196 -0.03801299 0.092032835 0.048089508
0.08674373 0.0777049 -0.017950851 0.09363076 0.013621078 0.009987425 0.035839695 -0.08074751
-0.061671093 0.09759826 -0.06749707 0.05573143 0.06233592 -0.08373596 -0.011820869 -0.0011035949
0.076520406 -0.02822475 0.09315801 -0.08654825 0.043088816 0.05631581 -0.037156545 -0.033919632
-0.06569583 0.027364139 0.034564357 -0.036253292 0.083410926 -0.015803996 -0.016071178 0.08055613
0.01807184 0.05521309 0.060794976 -0.067513384 -0.0013064215 0.09109075 -0.063778415 0.013508537
0.07661678 0.011388277 -0.023127196 0.03729777 -0.08531376 0.08474055 0.08102477 -0.028883174
-0.03731244 -0.02017528 0.10262355 -0.039592173 0.030885188 -0.09792234 0.031176591 0.062494423
0.033385023 -0.0049010725 0.0075270715 0.08931879 0.044823553 -0.023833461 -0.08284442 0.075170994
-0.038400408 0.06430688 -0.02072918 0.0017118655 -0.08134153 -0.03929333 0.0085101705 -0.099676594
-0.021225648 0.059930675 0.07249297 0.07597371 -0.031454507 0.00811905 -0.0827666 0.05342884
0.018261952 0.08633269 -0.016045602 0.0986444 0.051100146 0.088022724 -0.0067124576 -0.08092804
-0.08088902 -0.097251564 0.017143812 -0.079759285 -0.03369231 0.052411128 0.093765385 -0.025868293
0.07141058 -0.007815733 -0.020640383 -0.012206173 -0.046767924 0.02822968 -0.00055832637 -0.050254267
0.06560441 -0.046077557 -0.06985595 0.035805307 -0.0063336208 -0.056778613 -0.084198155 -0.030902464
-0.078972496 0.056098588 -0.012847322 0.053124107 0.05020609 0.008307737 -0.01588051 -0.05319505
0.023220409 -0.08968697 -0.050260227 0.082252316 -0.020019595 0.08320714 0.061078068 -0.021742957
-0.08301839 0.08283272 0.008688898 0.09747321 -0.09328299 0.0212548 -0.08886622 -0.0125226835
-0.09040533 -0.09387754 0.0052031726 0.10168548 0.00790308 -0.009555767 0.09614304 0.0094414195
-0.057591025 0.06558675 0.073596925 0.08943438 0.08111293 0.095877245 -0.038253613 0.014830635
-0.03763687 -0.0137292165 0.081545375 -0.08149576 0.056363482 -0.05959374 0.0005656176 -0.012280302
-0.046458077 0.00879545 -0.052247502 0.093420446 -0.037338752 0.065283544 -0.024568241 -0.08120688
0.080067284 -0.028480042 -0.04272846 0.0077325045 -0.0010508349 0.029104777 -0.02502513 -0.02975849
00000000: 407b c0bd 5825 373d 0eee ce3c f03d 26bd
00000010: 0d92 f93c c0bc ca3d fb99 803d c3be c0bd
00000020: f9f8 dabc b49b bf3d f4b8 823c 1256 503c
00000030: 2f23 f13b ca88 14bd 5c07 ddbc 144d e03b
00000040: fd01 9f3d 1f25 eebc 751d ddbc b4d7 a03c
00000050: 5da0 1abd 7e40 b83d 8de7 9e3d bbfc 8d3b
00000060: 7699 88bd 8378 ec3c 5e23 b33d bd2d 0b3d
00000070: d214 313d 8d9e 5fbd d216 d0bd 49dc 1ebd
00000080: 4d05 583b 19ad bb3d 4f6b b03c 04e5 9abc
00000090: 0f50 d4bc 588e a1bc ad2c 63bd 17de 30bd
000000a0: d8f8 9c3c 080d 8f3d 846a b33d 31b1 223d
000000b0: 1ef5 91bd e246 c33d 73f8 cb3d 5018 fbbc
000000c0: 880d 693b a335 bf3d bd8f 14bd 8047 483d
000000d0: 2a8a 8c3c f37e 6b3d c031 133d e892 d13d
000000e0: 6805 b33d 3022 90bd 503d 7e3d c82b a7bc
000000f0: 590c 5dbd adb7 8d3c 9503 66bc eba7 89bd
00000100: ef73 babd 8572 6bbd d0fb 2d3c d8bb 803d
00000110: 00f2 783d 2353 e13c 2662 c83d 40eb b4bd
00000120: 03f5 84bd 2fdb 353d 3d67 c0bd 6238 c73d
00000130: 0500 693c 82b3 1bbd b67b bc3d 81f9 443d
00000140: b2a6 b13d bf23 9f3d aa0d 93bc 7cc1 bf3d
00000150: f12a 5f3c 4ca2 233c a5cc 123d f35e a5bd
00000160: d49a 7cbd 99e1 c73d e73b 8abd a446 643d
00000170: f353 7f3d c27d abbd 51ac 41bc 80a6 90ba
00000180: bbb6 9c3d 9737 e7bc a0c9 be3d 3540 b1bd
00000190: e67d 303d 68ab 663d 7631 18bd 50ef 0abd
000001a0: 898b 86bd c22a e03c 5b93 0d3d 557e 14bd
000001b0: 59d3 aa3d 6277 81bc b4a7 83bc 9dfa a43d
000001c0: 650b 943c 1f27 623d 2704 793d 7544 8abd
000001d0: 3b3c abba ca8d ba3d 429e 82bd e952 5d3c
000001e0: 42e9 9c3d e595 3a3c 3f75 bdbc 8cc5 183d
000001f0: fbb8 aebd 748c ad3d 51f0 a53d 689c ecbc
00000200: eed4 18bd a146 a5bc 4c2c d23d 672b 22bd
00000210: ef02 fd3c 828b c8bd 0d66 ff3c 27fa 7f3d
00000220: bcbe 083d 2d99 a0bb a7a5 f63b c5ec b63d
00000230: e798 373d 643e c3bc 56aa a9bd 40f3 993d
00000240: bf49 1dbd 53b3 833d 3ed0 a9bc ad60 e03a
00000250: 6396 a6bd 0bf2 20bd 3e6e 0b3c 3e23 ccbd
00000260: 69e1 adbc de79 753d 3277 943d 1b98 9b3d
00000270: 71d6 00bd c405 053c 8981 a9bd 33d8 5a3d
00000280: 179a 953c 32cf b03d 1172 83bc 1306 ca3d
00000290: 634e 513d 4245 b43d 2df4 dbbb 9abd a5bd
000002a0: 24a9 a5bd d42b c7bd 2e71 8c3c d658 a3bd
000002b0: f300 0abd 0dad 563d 1108 c03d bee9 d3bc
000002c0: b63f 923d 8f0d 00bc 0516 a9bc 66fc 47bc
000002d0: b98f 3fbd ee41 e73c a65c 12ba 6bd7 4dbd
000002e0: 9b5b 863d d2bb 3cbd a310 8fbd 96a8 123d
000002f0: 438a cfbb b190 68bd 1570 acbd 2a27 fdbc
00000300: 55bc a1bd a2c7 653d 937d 52bc aa98 593d
00000310: e7a4 4d3d 2d1d 083c d817 82bc 0ee3 59bd
00000320: ba38 be3c cdad b7bd abdd 4dbd e773 a83d
00000330: 2200 a4bc 8168 aa3d ff2c 7a3d 491e b2bc
00000340: 8c05 aabd 33a4 a93d e15b 0e3c 09a0 c73d
00000350: 270b bfbd 8c1e ae3c 7eff b5bd f12b 4dbc
00000360: 6e26 b9bd de42 c0bd 607f aa3b 7a40 d03d
00000370: ec7b 013c cb8f 1cbc a4e6 c43d 2fb0 1a3c
00000380: 91e4 6bbd 5952 863d fcb9 963d 5f29 b73d
00000390: 891e a63d 4a5b c43d d2af 1cbd 31fc 723c
000003a0: 1e29 1abd 82f0 60bc 4301 a73d 40e7 a6bd
000003b0: 65dd 663d 9118 74bd f445 143a 5233 49bc
000003c0: d34a 3ebd cb1a 103c 7a01 56bd 3853 bf3d
000003d0: 85f0 18bd 61b3 853d 5643 c9bc cb4f a6bd
000003e0: 51fa a33d fa4e e9bc 0a04 2fbd f360 fd3b
000003f0: 2bbc 89ba 246d ee3c 8001 cdbc 14c8 f3bc

graph_attention.qkv_proj_low.weight f4 [24, 16]
0.19493182 -0.0018250815 -0.037993964 -0.11056405 -0.052999638 0.10850772 0.0047216066 0.19867441
-0.027352126 -0.03680596 0.12815556 -0.010310221 -0.030460395 0.10970917 0.18776445 0.0556072
0.16465506 0.16957468 0.08546266 0.068116255 0.07856488 0.013450539 0.21939386 0.21894991
0.068678394 -0.015302965 0.20039424 -0.19815286 0.17047134 0.14226016 0.15683986 -0.027960736
-0.18839513 0.19899589 -0.11025816 0.0627024 0.13294451 -0.24583721 0.022876352 -0.10760852
0.16201073 -0.1521706 0.11844116 0.14807327 0.115228795 0.2459484 0.05316396 -0.23671944
0.17165892 0.028755708 -0.0062746564 -0.24877243 -0.05589264 -0.12002585 0.23595761 0.1709725
0.18085013 0.17744493 -0.16597815 -0.11010364 -0.11350277 -0.11476661 0.20393203 0.0843837
0.18873282 -0.0050542224 -0.22579865 -0.064928174 0.17975378 0.14885695 0.0807392 -0.08212885
-0.2297968 -0.13016713 0.11935761 -0.11617232 0.12789151 0.079643495 -0.09214028 0.14475375
-0.06954005 -0.012828731 -0.09982671 -0.23208085 0.04148971 0.07990865 -0.13811271 0.16774051
-0.21626385 -0.24207522 -0.13634631 -0.07915688 -0.046800226 -0.07226697 0.11321995 -0.21606982
0.048386153 0.0024346474 0.070899695 0.23114555 0.14752492 -0.13198052 -0.20557083 -0.049745973
-0.12794955 0.08663927 0.0063531995 0.19933924 0.084884405 -0.06536729 0.022235913 0.064551935
-0.01568281 0.19372025 -0.19690071 0.112652086 -0.15661578 -0.21297126 -0.05527629 0.13816133
0.19358227 0.063150525 -0.021557655 -0.034009438 -0.10783027 -0.0387554 -0.009699701 0.20842704
0.13784912 -0.19612123 -0.0046846108 -0.15736051 -0.04931088 -0.20118535 0.06363957 -0.1868131
0.24658872 0.18609539 -0.17366396 -0.23821123 0.018834118 -0.078617215 0.08992381 -0.17350048
0.09946197 -0.22072576 -0.12197309 -0.13299027 0.11519238 -0.011473165 -0.23050138 -0.14296144
-0.12518097 -0.24384278 0.03245555 0.09025773 -0.033700097 -0.078301325 -0.013784751 -0.19662344
-0.15401006 -0.012402444 0.2320269 -0.058452956 0.116769694 -0.10361303 -0.0669535 -0.23455377
0.20837392 0.22833855 0.0066853305 0.17744824 0.2218929 0.15096 0.11411339 -0.23869167
-0.23430516 -0.19914684 0.072528176 -0.22287722 -0.17429666 -0.11975494 -0.2362879 0.010053602
0.041423015 -0.14379695 0.1729307 -0.09944021 -0.06807452 0.17214301 0.20147453 -0.027877916
-0.17821908 -0.119594984 0.045956258 0.14106196 0.117756635 -0.11575816 -0.22759934 -0.22184826
-0.08757534 0.0033760222 -0.12144085 -0.20986572 0.016197199 -0.18061961 -0.19563244 -0.2115904
-0.069347106 0.22229381 0.10586808 -0.03621474 0.05412029 0.088856414 0.007579631 -0.20124133
-0.15402408 -0.17038234 -0.0037994892 -0.23576632 -0.0338511 -0.07793628 0.2362512 0.19319944
0.14511605 0.025693856 -0.08579879 0.05248867 -0.16747853 -0.11106901 -0.05385456 -0.059378047
-0.2343199 0.11104939 0.2010954 -0.15326284 0.05536539 -0.045438297 0.0044155675 0.0019625418
0.2171065 0.04073344 -0.16943051 -0.08449437 0.11508281 0.09638066 0.00786626 -0.039356098
-0.09377329 -0.084038734 -0.13619438 0.040634036 0.08075009 0.17959476 -0.03929621 0.02581579
00000000: 359c 473e 9337 efba 8f9f 1bbd 686f e2bd
00000010: 2616 59bd 4c39 de3d b5b7 9a3b 4e71 4b3e
00000020: 9111 e0bc d9c1 16bd 363b 033e 34ec 28bc
00000030: 1488 f9bc 34af e03d 5345 403e 60c4 633d
00000040: 569b 283e fca4 2d3e 0c07 af3d 8980 8b3d
00000050: a0e6 a03d a65f 5c3c c9a8 603e 6834 603e
00000060: 42a7 8c3d 4ab9 7abc 2634 4d3e 95e8 4abe
00000070: 0a90 2e3e a6ac 113e a19a 203e ea0d e5bc
00000080: a7ea 40be 94c5 4b3e 08cf e1bd 1e6a 803d
00000090: 9b22 083e c0bc 7bbe 3067 bb3c db61 dcbd
000000a0: 24e6 253e 9cd2 1bbe 4791 f23d 85a0 173e
000000b0: 13fd eb3d e6d9 7b3e 74c2 593d 9566 72be
000000c0: 5bc7 2f3e 1791 eb3c a29b cdbb 33be 7ebe
000000d0: aeef 64bd 1dd0 f5bd df9e 713e 6a13 2f3e
000000e0: c730 393e 20b4 353e 2df6 29be 047e e1bd
000000f0: 2474 e8bd c20a ebbd 8fd3 503e 5cd1 ac3d
00000100: 2d43 413e e49d a5bb c337 67be 10f9 84bd
00000110: 6011 383e f56d 183e 985a a53d 2c33 a8bd
00000120: da4f 6bbe 884a 05be c371 f43d c1eb edbd
00000130: fef5 023e 211c a33d 0bb4 bcbd 543a 143e
00000140: 046b 8ebd 992f 52bc f271 ccbd 9aa6 6dbe
00000150: 1df1 293d 25a7 a33d 6b6d 0dbe 2bc4 2b3e
00000160: 4574 5dbe 91e2 77be 5e9e 0bbe 011d a2bd
00000170: 98b1 3fbd b500 94bd dcdf e73d 6841 5dbe
00000180: 8f30 463d 9b8e 1f3b dc33 913d 6bb1 6c3e
00000190: c610 173e e725 07be 2981 52be 6fc2 4bbd
000001a0: 3505 03be ee6f b13d 802e d03b 961f 4c3e
000001b0: e0d7 ad3d 49df 85bd 1728 b63c ce33 843d
000001c0: 3d79 80bc 9a5e 463e 57a0 49be 23b6 e63d
000001d0: e35f 20be 2315 5abe 6469 62bd 2a7a 0d3e
000001e0: 6e3a 463e 1055 813d ae99 b0bc 7b4d 0bbd
000001f0: 1ed6 dcbd fbbd 1ebd 7feb 1ebc e66d 553e
00000200: 5228 0d3e 01d4 48be 5d81 99bb 1d23 21be
00000210: 35fa 49bd 8803 4ebe 7655 823d ef4b 3fbe
00000220: c181 7c3e ca8f 3e3e f7d4 31be a5ed 73be
00000230: 024a 9a3c 1002 a1bd f929 b83d 1caa 31be
00000240: b8b2 cb3d ef05 62be 07cd f9bd 9a2e 08be
00000250: fce9 eb3d f1f9 3bbc 8e08 6cbe 7c64 12be
00000260: 712f 00be ecb1 79be 1cf0 043d 0bd9 b83d
00000270: 1d09 0abd 725c a0bd 70d9 61bc a857 49be
00000280: d0b4 1dbe 9f33 4bbc 7698 6d3e 5e6c 6fbd
00000290: f324 ef3d 1133 d4bd eb1e 89bd dd2e 70be
000002a0: f95f 553e 95d1 693e 9e10 db3b feb4 353e
000002b0: e437 633e 4295 1a3e 48b4 e93d 976b 74be
000002c0: b1ed 6fbe 26ed 4bbe a789 943d ed39 64be
000002d0: d37a 32be 1442 f5bd 75f5 71be ddb7 243c
000002e0: 2eab 293d 823f 13be bf14 313e 4fa7 cbbd
000002f0: a76a 8bbd 4246 303e 574f 4e3e 3a60 e4bc
00000300: 107f 36be 37ee f4bd a13c 3c3d 8c72 103e
00000310: 642a f13d 9d12 edbd cd0f 69be 312c 63be
00000320: b35a b3bd 4140 5d3b fbb5 f8bd 0ae7 56be
00000330: fdaf 843c 59f4 38be df53 48be 27ab 58be
00000340: db05 8ebd fda0 633e 5dd1 d83d e855 14bd
00000350: 3dad 5d3d 5afa b53d 8e5e f83b 3512 4ebe
00000360: 7db8 1dbe b578 2ebe da00 79bb ba6c 71be
00000370: 73a7 0abd 0e9d 9fbd d6eb 713e 13d6 453e
00000380: 4d99 143e ec7b d23c 47b7 afbd 5cfe 563d
00000390: 7e7f 2bbe 2678 e3bd 9996 5cbd 6536 73bd
000003a0: 8ef1 6fbe dd6d e33d f4eb 4d3e eff0 1cbe
000003b0: d2c6 623d 821d 3abd 77b0 903b fd9d 003b
000003c0: 2b51 5e3e 1cd8 263d 317f 2dbe 620b adbd
000003d0: 89b0 eb3d 3963 c53d 7ce1 003c dc33 21bd
000003e0: 360c c0bd 801c acbd 8a76 0bbe e06f 263d
000003f0: 4e60 a53d b0e7 373e 10f5 20bd a37b d33c

graph_attention.qkv_proj_low.bias f4 [24]
-0.07860363 -0.18664032 -0.12774362 0.12141512 0.17074083 0.03819437 -0.091452986 0.2578381
0.039801147 -0.11583698 -0.11286536 -0.030147195 0.11563369 0.094624326 0.20879114 0.00052712875
0.23076728 -0.08735325 -0.10732466 -0.09219181 -0.24846727 -0.15666574 -0.23606032 -0.000746325
00000000: f1fa a0bd a41e 3fbe 39cf 02be 7ea8 f83d
00000010: afd6 2e3e b371 1c3d b44b bbbd 5b03 843e
00000020: 8706 233d f03b edbd f425 e7bd 40f7 f6bc
00000030: 5bd1 ec3d 66ca c13d 58cd 553e 032f 0a3a
00000040: 424e 6c3e 43e6 b2bd 08cd dbbd 0fcf bcbd
00000050: 346e 7ebe fc6c 20be ccb9 71be 06a5 43ba

graph_attention.qkv_proj_high.weight f4 [48, 24]
0.0007993459 -0.056067046 -0.14531647 0.19146594 -0.071732864 0.100688204 0.13939482 -0.12629145
-0.03468307 0.11407924 0.19531992 -0.031052714 0.14904158 -0.14152953 -0.12709482 0.1601552
-0.020775333 0.20009843 0.013275431 -0.08822409 0.18064964 0.18630758 0.018341448 -0.12723255
-0.0068616075 -0.10295275 0.13955438 0.008254291 0.037382413 0.13034101 0.06707049 -0.12462427
0.16346446 0.12785989 -0.13120979 0.1540886 0.06516262 -0.027837526 -0.14759643 -0.046069853
-0.20531338 0.115816966 0.1494766 -0.059091657 0.18350494 -0.06812496 0.036706068 -0.13859192
-0.00846445 0.085888125 0.08424301 0.008627585 -0.103189155 0.1402689 0.13685797 0.047185894
-0.09970576 0.035212494 0.00085913524 0.17647628 0.024938188 0.03325289 0.024829978 0.105227396
0.0046808706 0.1673547 0.10173297 -0.16170356 -0.019437738 -0.17178504 -0.15461148 0.033290572
0.048322763 -0.021709569 0.18368277 -0.08875806 -0.093351394 -0.035289314 -0.004321628 0.0009125519
0.17992158 -0.094768554 -0.11454072 0.00773976 0.14350465 0.068293355 0.12473525 0.032457102
0.18388447 0.116910584 0.15278257 -0.029926438 -0.18510385 -0.094560675 0.06695329 0.14067785
-0.09529645 0.1669886 0.047294367 0.011165703 0.0016490985 -0.049621634 0.19053715 0.026998417
0.1459664 -0.18262434 -0.091916464 0.011021751 0.16096081 0.10248224 0.04686926 -0.18931036
0.01664456 -0.11673325 -0.16213444 0.018611014 -0.14332199 0.17790459 -0.10001721 0.070973486
0.10420908 -0.15833618 0.12484507 -0.020386796 0.09844646 0.185496 -0.08454515 -0.07647672
0.17393573 0.011682723 -0.0054011876 0.1465436 -0.09717012 -0.0020903498 0.14674863 0.088462405
-0.12205246 0.07149493 -0.14870945 -0.11783592 0.11922777 -0.05572909 -0.10019096 0.013571015
0.036155608 -0.12976722 -0.119127564 -0.19199434 0.047803577 -0.1426095 0.017969886 -0.03331111
-0.11538659 -0.0728178 -0.14370067 -0.11593485 -0.0032943122 -0.16973795 -0.17439343 0.16254652
0.02853674 -0.07509747 0.0056612305 0.14437306 -0.1807977 -0.11330564 -0.1376209 -0.013165032
-0.021322014 -0.15819623 0.15985213 -0.14757267 0.18286905 -0.15325941 -0.027228395 0.052645158
-0.07380857 0.17718253 -0.12630014 -0.02130386 -0.15059635 0.06478925 0.18103087 0.19855793
0.035973832 -0.0883806 0.20644715 0.007234476 0.12335455 -0.10994199 -0.0875701 -0.1685385
0.19110349 0.034281023 -0.14707835 0.022842346 -0.093210496 0.0021738268 0.068980105 -0.092512846
0.035841294 -0.13267785 0.03967997 -0.19700204 0.02797368 0.20362219 0.2204931 0.0775435
0.16061752 0.19870739 0.059277534 0.072961465 0.023688225 0.18281978 0.15899403 -0.09792702
-0.0045544747 -0.10058297 0.07349709 -0.19080725 0.06911407 -0.06560465 0.076060265 0.07499727
-0.10078206 0.1008311 0.09057242 -0.17567286 0.19815093 0.17640796 0.15976371 -0.015145975
0.085143805 -0.112014994 -0.069071226 0.097624 0.08555538 0.08089423 -0.20842929 0.16592348
-0.08026037 0.18144836 0.16890839 0.08460262 0.20472038 0.105233245 0.12042762 -0.05712039
0.18878715 0.0460144 0.1273805 -0.051770277 0.14038458 0.18261296 -0.12408977 0.17545632
00000000: 328b 513a 8fa6 65bd d7cd 14be a60f 443e
00000010: aee8 92bd 9e35 ce3d 84bd 0e3e 8c52 01be
00000020: d60f 0ebd 60a2 e93d f201 483e 4362 febc
00000030: 5b9e 183e 1eed 10be 2525 02be baff 233e
00000040: 0831 aabc 9ae6 4c3e 3181 593c d5ae b4bd
00000050: 38fc 383e 6ac7 3e3e ce40 963c 4049 02be
00000060: 56d7 e0bb e4d8 d2bd 58e7 0e3e 013d 073c
00000070: 4d1e 193d 1d78 053e 415c 893d 023b ffbd
00000080: 3a63 273e b4ed 023e dc5b 06be 67c9 1d3e
00000090: fb73 853d 860b e4bc 8523 17be beb3 3cbd
000000a0: ac3d 52be 7231 ed3d 6510 193e 180a 72bd
000000b0: b8e8 3b3e 1985 8bbd 1a59 163d 0aeb 0dbe
000000c0: 7aae 0abc 1de6 af3d 9987 ac3d b75a 0d3c
000000d0: d654 d3bd a7a2 0f3e 7f24 0c3e ff45 413d
000000e0: 8932 ccbd fa3a 103d 9737 613a 33b6 343e
000000f0: 2c4b cc3c 2f34 083d 3d68 cb3c 7681 d73d
00000100: fd61 993b 085f 2b3e 6059 d03d 9e95 25be
00000110: e43b 9fbc 6be8 2fbe 7952 1ebe b25b 083d
00000120: 17ee 453d 44d8 b1bc 5617 3c3e c9c6 b5bd
00000130: 042f bfbd 878b 10bd 719c 8dbb 5238 6f3a
00000140: 5d3d 383e 0416 c2bd 5394 eabd d09d fd3b
00000150: e2f2 123e 63dd 8b3d 3275 ff3d bdf1 043d
00000160: 364c 3c3e d16e ef3d 0973 1c3e 4a28 f5bc
00000170: dd8b 3dbe 07a9 c1bd ce1e 893d db0d 103e
00000180: c92a c3bd 0fff 2a3e bdb7 413d 5af0 363c
00000190: 9026 d83a 0e40 4bbd 2c1c 433e c92b dd3c
000001a0: 3778 153e e001 3bbe b33e bcbd 9394 343c
000001b0: e9d2 243e 35e2 d13d fbf9 3f3d 93da 41be
000001c0: 2c5a 883c d811 efbd 9206 26be 2076 983c
000001d0: 00c3 12be 9f2c 363e d3d5 ccbd 8c5a 913d
000001e0: 926b d53d e122 22be c6ae ff3d 3602 a7bc
000001f0: 4c9e c93d aaf2 3d3e 0226 adbd d49f 9cbd
00000200: 351c 323e e468 3f3c 72fc b0bb 870f 163e
00000210: 2101 c7bd 40fe 08bb 4645 163e c72b b53d
00000220: a4f6 f9bd ef6b 923d 4a47 18be f553 f1bd
00000230: b02d f43d 3044 64bd eb30 cdbd f658 5e3c
00000240: e717 143d b3e1 04be 27f9 f3bd 2a9a 44be
00000250: afcd 433d 3a08 12be 9535 933c 3b71 08bd
00000260: ce4f ecbd 8021 95bd 4526 13be 406f edbd
00000270: 63e5 57bb c9cf 2dbe 3194 32be 9872 263e
00000280: e2c5 e93c b4cc 99bd d881 b93b 88d6 133e
00000290: 0823 39be ca0c e8bd 7eec 0cbe 25b2 57bc
000002a0: 81ab aebc 31fe 21be 47b0 233e 4a1d 17be
000002b0: 0642 3b3e 09f0 1cbe 150e dfbc 73a2 573d
000002c0: f328 97bd 566f 353e d354 01be 6f85 aebc
000002d0: ee35 1abe 3ab0 843d 2860 393e c552 4b3e
000002e0: 4c59 133d e300 b5bd e266 533e 2f0f ed3b
000002f0: 4fa1 fc3d 4429 e1bd f457 b3bd 5b95 2cbe
00000300: a2b0 433e 426a 0c3d b59b 16be df1f bb3c
00000310: 25e5 bebd c376 0e3b 7145 8d3d 6077 bdbd
00000320: 52ce 123d b4dc 07be 7787 223d e7ba 49be
00000330: 0f29 e53c 5682 503e f1c8 613e 20cf 9e3d
00000340: eb78 243e f379 4b3e 00cd 723d d26c 953d
00000350: cf0d c23c 1c35 3b3e 55cf 223e f68d c8bd
00000360: b43d 95bb 72fe cdbd a485 963d fa62 43be
00000370: ad8b 8d3d bb5b 86bd 7cc5 9b3d 2b98 993d
00000380: d366 cebd 8980 ce3d 087e b93d 96e3 33be
00000390: 14e8 4a3e 4aa4 343e 1999 233e d326 78bc
000003a0: e05f ae3d 1e68 e5bd 3775 8dbd 17ef c73d
000003b0: a937 af3d e0ab a53d 7d6e 55be d8e7 293e
000003c0: 8d5f a4bd 99cd 393e 52f6 2c3e 2344 ad3d
000003d0: 38a2 513e 8784 d73d c2a2 f63d 12f7 69bd
000003e0: 6b51 413e 9879 3c3d 0970 023e 120d 54bd
000003f0: fac0 0f3e e4fe 3a3e c722 febd d2aa 333e

graph_attention.qkv_proj_high.bias f4 [48]
0.15576519 -0.13186255 -0.16102861 -0.025903914 -0.16448493 0.04291653 0.0030266591 -0.07074181
0.12637125 0.13260542 -0.17723729 -0.16340937 0.11219299 -0.13806279 0.02465799 -0.07243199
0.035016954 -0.12219948 -0.013636695 -0.06445799 -0.080527164 -0.117623776 0.019188706 0.111655176
-0.0009083464 -0.002421585 0.14791426 0.12947844 -0.047257125 -0.16337699 0.04274009 0.06482202
-0.18657261 -0.20285535 0.0557383 0.219265 -0.19551805 -0.13114214 -0.08154723 -0.17513368
-0.11829027 0.15746884 0.16066387 -0.15326945 -0.0019200185 -0.1828332 0.05282791 -0.14585032
00000000: e980 1f3e fa06 07be afe4 24be 7234 d4bc
00000010: bd6e 28be 3ec9 2f3d ea5a 463b 15e1 90bd
00000020: 7767 013e b7c9 073e b17d 35be c954 27be
00000030: 70c5 e53d 5560 0dbe 8eff c93c 3957 94bd
00000040: f06d 0f3d b943 fabd 726c 5fbc 8d02 84bd
00000050: 6deb a4bd bce4 f0bd a231 9d3c 78ab e43d
00000060: 181e 6eba 74b3 1ebb d676 173e ff95 043e
00000070: b090 41bd 4c4c 27be 3c10 2f3d 68c1 843d
00000080: e40c 3fbe 50b9 4fbe d84d 643d 0187 603e
00000090: e235 48be 204a 06be 3c02 a7bd 3e56 33be
000000a0: 2b42 f2bd 833f 213e 1285 243e abf2 1cbe
000000b0: 21a9 fbba a038 3bbe 1462 583d c959 15be

graph_attention.out_proj_low.weight f4 [8, 16]
-0.12483794 -0.087676175 0.03377412 0.1750572 -0.10761515 0.045466922 0.20685357 -0.012143328
0.04076479 0.007445262 0.008861821 0.15673691 0.1221159 -0.13194314 0.2457904 0.14157559
-0.037956517 0.22382957 0.028092772 0.16033092 -0.20741059 0.21966788 0.23722775 -0.17248349
-0.2283723 -0.064272314 -0.15583059 0.078865975 0.097794525 -0.028577566 0.17308076 0.0011239056
-0.07703971 -0.21542808 0.09954454 -0.23721926 0.017772613 0.053129084 -0.14499272 0.082389526
0.030891854 0.17211615 0.14440373 -0.18586116 -0.1877674 -0.0827844 -0.18613023 0.064881146
-0.17408639 -0.20569152 0.048285205 0.15401715 -0.09719364 -0.2585059 0.045273475 0.09699702
0.19994631 0.009058352 0.18474562 -0.2325125 0.24191305 -0.16685858 -0.1481094 0.19300014
-0.04831652 0.16657482 -0.15741903 0.18792056 0.2552713 0.08341214 0.19151418 -0.1552295
-0.056675438 0.07700984 0.13951467 -0.118786156 0.141047 -0.080650754 -0.13768002 0.04351185
-0.22507732 -0.2514772 0.074041136 0.07933116 0.09042141 -0.027636098 -0.18762605 -0.22925352
0.23542958 -0.21941672 0.06703871 0.19372234 0.2073955 -0.15497378 -0.07066467 -0.17826664
0.17281467 -0.21422854 -0.22732559 -0.16498724 0.20050234 0.14319514 0.16607729 0.18820783
-0.110804394 -0.14040478 -0.14705746 0.08351963 0.084844865 0.06322721 -0.17383644 0.026311798
-0.11944714 -0.0252571 -0.012549679 0.018221453 -0.21642396 0.20247549 -0.10763271 0.086807124
0.1719838 0.10257596 0.17952777 0.15450132 0.16441216 0.05464286 0.15557052 -0.11793675
00000000: 09ab ffbd 918f b3bd bb56 0a3d 3242 333e
00000010: 5565 dcbd 863b 3a3d 6cd1 533e cff4 46bc
00000020: fbf8 263d 62f7 f33b 2c31 113c a47f 203e
00000030: e717 fa3d 1a1c 07be 7bb0 7b3e 31f9 103e
00000040: 4b78 1bbd 9433 653e d022 e63c ca2d 243e
00000050: 7163 54be 9ef0 603e d5eb 723e 839f 30be
00000060: 6eda 69be 34a1 83bd 0e92 1fbe 7c84 a13d
00000070: 7f48 c83d 801b eabc 153c 313e 0450 933a
00000080: ffc6 9dbd 2e99 5cbe 02de cb3d 9be9 72be
00000090: df97 913c e29d 593d f978 14be d7bb a83d
000000a0: ea10 fd3c 373f 303e 92de 133e 6352 3ebe
000000b0: 1946 40be de8a a9bd ec98 3ebe 68e0 843d
000000c0: b443 32be cca0 52be b5c6 453d acb6 1d3e
000000d0: 760d c7bd e35a 84be ae70 393d 60a6 c63d
000000e0: babe 4c3e 7b69 143c f52d 3d3e c217 6ebe
000000f0: 0eb8 773e fadc 2abe fea9 17be d4a1 453e
00000100: 8be7 45bd 9792 2a3e 7432 21be 3f6e 403e
00000110: ebb2 823e fcd3 aa3d 4b1c 443e 7bf4 1ebe
00000120: 8124 68bd 56b7 9d3d efdc 0e3e 2846 f3bd
00000130: a06e 103e 392c a5bd fefb 0cbe 7b39 323d
00000140: ab7a 66be 9fc1 80be e1a2 973d 6078 a23d
00000150: dc2e b93d 1965 e2bc 0b21 40be 6fc1 6abe
00000160: 7414 713e c7ae 60be 974b 893d 265f 463e
00000170: 7c5f 543e 72b1 1ebe a3b8 90bd 888b 36be
00000180: 54f6 303e ba5e 5bbe 0ac8 68be 6af2 28be
00000190: 7c50 4d3e bfa1 123e 2a10 2a3e 8eb9 403e
000001a0: 6aed e2bd 45c6 0fbe 3b96 16be 570c ab3d
000001b0: 25c3 ad3d 447d 813d 2e02 32be d78b d73c
000001c0: b4a0 f4bd fae7 cebc 2b9d 4dbc 2845 953c
000001d0: 3e9e 5dbe bc55 4f3e 8a6e dcbd efc7 b13d
000001e0: 851c 303e 5813 d23d 21d6 373e 9835 1e3e
000001f0: a95b 283e 31d1 5f3d e14d 1f3e d388 f1bd

graph_attention.out_proj_low.bias f4 [8]
-0.14817575 0.10867672 0.055263292 0.0154679855 -0.22127223 0.10463557 0.12869623 -0.05859075
00000000: 62bb 17be e691 de3d c35b 623d 6f6d 7d3c
00000010: 3095 62be 2c4b d63d f2c8 033e dbfc 6fbd

graph_attention.out_proj_high.weight f4 [16, 8]
0.08798528 0.16196436 -0.35447776 -0.053346194 -0.13408802 -0.19546461 0.20776309 0.33262378
0.04312486 0.20886075 -0.25594676 0.044031348 -0.04574906 -0.2274227 0.07021324 0.11337286
-0.013913881 0.15386108 0.1548118 0.3219743 0.022666676 0.02050613 -0.010207141 0.04565953
-0.23237288 -0.053402036 -0.28350103 -0.23627646 -0.28485492 0.25337547 -0.20624113 -0.027556846
0.02802063 0.29567495 0.16391578 -0.26060355 0.34233183 -0.34650856 0.046656385 0.31275976
0.32949212 -0.07013365 -0.24897385 0.17827621 0.28532493 -0.17441662 -0.07176941 -0.20814696
0.15297315 0.10582023 0.15850726 -0.13326803 -0.3440352 -0.1458757 -0.26360422 -0.08662308
0.09863978 -0.34673557 0.0055983947 -0.326704 -0.2519713 -0.24406835 -0.114176445 -0.15722783
0.046023898 0.20675577 0.27343628 0.10288316 -0.005129838 -0.08206874 0.24469928 -0.20265214
0.25124848 -0.34438217 -0.27160093 0.08933328 -0.15336636 0.079705246 0.3066155 0.16439416
0.32552725 -0.17064154 -0.15002462 -0.045638207 -0.056477167 -0.17539628 -0.03090192 0.30196506
-0.21634199 0.17257172 0.18479347 0.2176288 0.09638934 -0.14968723 0.1475629 -0.2016781
-0.2343165 0.30999097 0.3057513 -0.27284175 0.26972693 0.07497052 0.09580042 0.34043396
0.022975048 -0.06823703 0.19368558 -0.09079943 -0.06287959 -0.1468805 0.3241289 0.15156391
-0.052812077 0.0075567295 0.016626855 -0.21577637 0.09878702 -0.26949263 -0.020932563 -0.08981245
-0.1288463 0.3385223 0.08176751 0.18476248 -0.2274375 0.066603474 0.07831649 0.18943347
00000000: a031 b43d fcd9 253e 1c7e b5be 8a81 5abd
00000010: 5f4e 09be e027 48be d9bf 543e aa4d aa3e
00000020: b1a3 303d 98df 553e 740b 83be 375a 343d
00000030: 5e63 3bbd 7fe1 68be f6cb 8f3d 0830 e83d
00000040: 0cf7 63bc c28d 1d3e fc86 1e3e d1d9 a43e
00000050: 77af b93c 79fc a73c da3b 27bc 7d05 3b3d
00000060: 28f3 6dbe 18bc 5abd 0c27 91be 75f2 71be
00000070: 81d8 91be 6eba 813e e030 53be e5be e1bc
00000080: 858b e53c b562 973e 8ad9 273e d46d 85be
00000090: 1e46 af3e 9269 b1be c41a 3f3d 0c22 a03e
000000a0: 31b3 a83e 3ba2 8fbd 00f3 7ebe 0a8e 363e
000000b0: 1c16 923e 459a 32be d7fb 92bd 7a24 55be
000000c0: fea4 1c3e 47b8 d83d ba4f 223e 6a77 08be
000000d0: 6225 b0be 7160 15be 22f7 86be 7167 b1bd
000000e0: a703 ca3d 5387 b1be bd72 b73b bf45 a7be
000000f0: 6202 81be 0eed 79be 57d5 e9bd 5500 21be
00000100: 8e83 3c3d c9b7 533e d7ff 8b3e 68b4 d23d
00000110: 3318 a8bb a813 a8bd 7392 7a3e 0b84 4fbe
00000120: a4a3 803e dc52 b0be 470f 8bbe 5ef4 b63d
00000130: 120c 1dbe 813c a33d b5fc 9c3e f156 283e
00000140: 82ab a63e a8bc 2ebe 0ea0 19be 21ef 3abd
00000150: 9a54 67bd 159b 33be 0626 fdbc 2a9b 9a3e
00000160: c188 5dbe a4b6 303e 803a 3d3e 16da 5e3e
00000170: c667 c53d 9c47 19be bb1a 173e b484 4ebe
00000180: aaf0 6fbe 23b7 9e3e 6f8b 9c3e eab1 8bbe
00000190: a619 8a3e 258a 993d 0333 c43d 5c4d ae3e
000001a0: 2b36 bc3c dbbf 8bbd 8355 463e 0df5 b9bd
000001b0: 04c7 80bd d767 16be 39f4 a53e 9233 1b3e
000001c0: 7a51 58bd 719e f73b 0b35 883c 7bf4 5cbe
000001d0: d950 ca3d f0fa 89be c47a abbc 97ef b7bd
000001e0: 49f0 03be cb52 ad3e b975 a73d 6032 3d3e
000001f0: 60e5 68be 6767 883d 6564 a03d d9fa 413e

graph_attention.out_proj_high.bias f4 [16]
-0.12319314 -0.091666386 -0.29416025 0.22227582 0.20139995 0.18215029 0.18060066 0.16999823
0.32367373 0.10485255 0.12550221 0.1096004 -0.23095077 0.10059774 0.11460794 -0.2692782
00000000: af4c fcbd 96bb bbbd 2c9c 96be 469c 633e
00000010: ca3b 4e3e 9b85 3a3e 61ef 383e 0414 2e3e
00000020: 90b8 a53e efbc d63d a783 003e 2d76 e03d
00000030: 5c7e 6cbe 3006 ce3d 91b7 ea3d d5de 89be

temporal_module.fusion_weight f4 [3]
1.026448 1.0155761 0.9728385
00000000: a662 833f 66fe 813f f20b 793f
