save/MSAGATNet.japan.w-20.h-10.pt (torch, 66373 bytes, 58 tensors)

temp_conv.depthwise.weight f4 [1, 1, 3]
000000 a2 22 b4 3e 6b 6c 73 3e 9f 75 b8 be
       0.35182673 0.23771827 -0.36027238

temp_conv.pointwise.weight f4 [12, 1, 1]
000000 5e 8f 7f be 72 b9 5d 3e a9 8a 01 bf 47 17 18 3f
       -0.24957034 0.21652773 -0.50602204 0.5941052
000010 6c 94 62 3f f8 3c 3f bf 36 84 61 3f ea 2c 42 3e
       0.88507724 -0.74702406 0.8809236 0.18962446
000020 e5 e8 3b 3f 00 0e ef 3d 04 1c fc 3e 42 a4 4a be
       0.73402244 0.11672592 0.49240124 -0.19789222

temp_conv.pointwise.bias f4 [12]
000000 71 c1 44 3f d6 e0 16 3e c7 95 ec be 34 91 82 3e
       0.7685767 0.14734206 -0.4620802 0.25501406
000010 51 d7 eb be f8 11 f0 bd ee c5 cf be e2 ed 29 3f
       -0.4606271 -0.11722177 -0.40580696 0.66378605
000020 14 0e 4a bf 75 7a ed be d6 6b 90 be fb 5f 1a bf
       -0.7892773 -0.4638249 -0.28207272 -0.60302705

temp_conv.bn2.weight f4 [12]
000000 c5 a1 83 3f 1c ac 81 3f 5d 8d 82 3f ab ea 80 3f
       1.0283743 1.0130649 1.0199391 1.0071615
000010 10 ce 80 3f b0 d0 82 3f 38 8b 82 3f 32 53 80 3f
       1.0062885 1.0219936 1.0198736 1.0025389
000020 69 52 7e 3f 6c 33 7b 3f 38 3b 81 3f a7 b4 87 3f
       0.993445 0.9812534 1.0096197 1.0602006

temp_conv.bn2.bias f4 [12]
000000 e1 cf 45 bd 37 d9 5c 3d 1b b7 c3 bc 13 39 8d 3d
       -0.048293952 0.05391809 -0.023891022 0.06895652
000010 03 da c6 3c fc 59 98 bd b4 ff b0 3d b5 0f a1 3d
       0.024273878 -0.07439038 0.086425215 0.07864324
000020 26 4d 7c 3b 12 3e ab bc 5a 49 a5 3d f1 73 3f bd
       0.0038498132 -0.02090362 0.08070631 -0.04674143

temp_conv.bn2.running_mean f4 [12]
000000 70 0b 2f 3f d3 96 62 3e dc 77 22 bf 1c 42 ea 3e
       0.6837683 0.22127847 -0.6346414 0.45753562
000010 25 77 22 be a6 8e be be ad f5 d7 bd 44 7f 3a 3f
       -0.15865763 -0.37218207 -0.10544906 0.7285044
000020 b4 fc 09 bf 29 14 d9 be f8 5e e9 bd 3d b0 2b bf
       -0.5390122 -0.42398193 -0.11395067 -0.67065793

temp_conv.bn2.running_var f4 [12]
000000 a0 a9 ac 3c bf 63 82 3c eb 70 b1 3d 16 95 f4 3d
       0.021076977 0.015916703 0.086641155 0.119424984
000010 2d f2 87 3e 41 cb 41 3e ab 7f 86 3e d4 7f 48 3c
       0.26551953 0.18925191 0.26269278 0.012237508
000020 75 c3 3a 3e 4b a8 97 3b 38 97 a8 3d 11 e2 59 3c
       0.18238623 0.0046282164 0.08231968 0.013298527

feature_process_low.weight f4 [8, 240]
000000 b0 81 af 3b c4 2b 81 bb 3f 01 c4 3d 66 fa ea bc
       0.005356036 -0.003941985 0.0957055 -0.028683852
000010 47 2f 88 3d 2d 5b 68 3c 2b 24 a0 bc bd 0c 0b 3d
       0.066496424 0.014181894 -0.019548496 0.033947695
000020 2c 7a d7 3b 9d 53 3d 3d 5a 78 eb 3b d0 0e c7 bc
       0.0065758433 0.046222318 0.007185978 -0.024299055
000030 60 ac 24 3c 92 13 b9 bc b5 0d 93 3c 0e b9 3a 3d
       0.010050863 -0.02259234 0.017950872 0.04558664
000040 b9 27 f2 3c ec 69 09 bd 1d 3f ee 3c ff 70 4e 3b
       0.029559957 -0.03354828 0.02908283 0.0031500456
000050 ac 64 34 3d f1 77 1c bd b5 48 85 bd 47 86 ee bc
       0.04404132 -0.038200323 -0.065080084 -0.029116763
000060 76 f6 66 bd 76 dd 36 3d 11 94 57 3c e3 16 e8 3c
       -0.056387387 0.044644795 0.01315786 0.028331226
000070 dd cb a3 3c 68 c0 b9 bb 56 fc 51 3d 97 d2 31 bd
       0.01999467 -0.0056686886 0.051266037 -0.043413725
000080 6f 32 61 ba 38 77 50 bd 79 92 b5 3c ba b2 ba bc
       -0.0008590584 -0.050894946 0.02216457 -0.022790302
000090 e9 d7 7a 3c f1 fd 89 bc 19 5d 4f 3d ba 6e 2b bd
       0.015310266 -0.016844722 0.050625894 -0.041853644
0000a0 85 bb 1a bd a9 8b 99 3c 1e cd b8 3d 4b 58 4c 3d
       -0.03777649 0.018743353 0.09023498 0.04988889
0000b0 89 d4 93 3d 3d 79 34 bd a6 7a 81 bd f5 99 48 bd
       0.07218272 -0.044060934 -0.063222215 -0.04897495
0000c0 a8 53 32 bd 56 7a ab 3c 72 74 a0 3c be 31 3d 3d
       -0.043536812 0.020932358 0.019586775 0.046190016
0000d0 69 26 20 bd 22 83 5d bd 7f 60 b6 3c 6e 63 1f bd
       -0.03909913 -0.054080136 0.02226281 -0.038913183
0000e0 e1 99 c5 3c 60 30 b8 bc b2 a5 f2 3c f6 b4 77 bd
       0.024121227 -0.022484004 0.029620025 -0.060475312
0000f0 ce 30 af bc 18 83 ad 3c 97 e9 51 3c 56 e8 ab bc
       -0.021385577 0.021180674 0.01281204 -0.02098481
000100 cb 86 00 3d c5 b4 15 3d 45 b7 53 bd f2 24 07 bd
       0.03137855 0.03654935 -0.05168845 -0.03299422
000110 05 74 6d 3d 0d 27 cc bc 2c c8 b6 bc d8 f0 7c bd
       0.057971973 -0.024920965 -0.022312246 -0.061753124
000120 07 b1 31 bd a3 3d 2b 3c 63 af fc bb 1d e4 45 bd
       -0.043381717 0.010451707 -0.0077113374 -0.04831325
000130 88 59 29 bb 29 8b 3d bd 83 49 70 bd 69 50 28 bd
       -0.0025840718 -0.04627529 -0.058663856 -0.04109231
000140 9b 77 3a bd 15 5a 1e bd 5c d9 81 3d ca b6 00 3c
       -0.04552422 -0.038660128 0.06340286 0.00785608
000150 d4 54 4a 3c 52 05 8e bd 73 b2 3d bd f6 6a a0 bc
       0.012349326 -0.069346085 -0.04631276 -0.019582253
000160 4d 68 23 3c a8 0f 79 bd 66 37 d6 bc 75 78 17 bd
       0.009973598 -0.060805947 -0.026149463 -0.03698011
000170 0b 09 9c bb 09 a2 00 bd dd 07 9b 37 2d a9 35 bd
       -0.00476182 -0.03140453 1.8481102e-05 -0.04435079
000180 8e 00 47 bd 53 d4 26 bd 44 fa c6 bc 91 86 6b bd
       -0.048584513 -0.040729832 -0.024289258 -0.05750138
000190 23 fa 4e 3d 70 25 41 3d 34 7c b9 3d c4 9c 3e 3d
       0.050531518 0.047154844 0.09056893 0.046536222
0001a0 49 aa 16 bd 26 de 44 3d 51 ed 9e bc 10 b3 ec bc
       -0.03678349 0.04806342 -0.01940027 -0.028893977
0001b0 8f 4c 62 bd bb 1d 8a bd 88 92 58 3c 6e 76 a5 bc
       -0.055248793 -0.06743952 0.0132185295 -0.020198073
0001c0 ed 79 7c 3c 4e b1 80 bd 69 e7 19 3d aa 17 64 bd
       0.015409929 -0.06283818 0.037574206 -0.05568663
0001d0 09 c4 95 bc 8b 7b 90 3b 38 d3 bd 3c 5e cc 2e 3d
       -0.018281953 0.0044092587 0.023172006 0.04267537
0001e0 bc 41 8f 3d 8a 8b 4d bd 03 41 63 3c 9c f9 03 bd
       0.0699496 -0.050181903 0.0138704805 -0.032220468
0001f0 de 97 76 bc f3 54 67 bd 64 d6 5e 3d ec 21 3c bd
       -0.015050856 -0.0564775 0.054403678 -0.045930788
000200 11 8d 0c 3d 37 ee 9e 3c 01 c8 aa 3c 3e 3f 0b bd
       0.03431422 0.019400699 0.020847322 -0.03399586
000210 6c f1 57 3d ea 03 fb 3b 38 27 31 3c 43 10 73 bd
       0.052720472 0.0076603787 0.010812573 -0.05934168
000220 64 d2 b0 3c 22 bc 69 bc 40 73 01 bd 03 06 27 3d
       0.021584697 -0.014266046 -0.03160405 0.040777218
000230 e5 b4 ce 3c c4 21 05 bd 91 8f 09 bd 06 e1 fc bb
       0.025232742 -0.032502905 -0.03358418 -0.0077172546
000240 3a e5 e2 3c 9d 0b d1 bc f1 8b 2d bd 25 85 a4 bc
       0.027697194 -0.025518233 -0.042369787 -0.02008302
000250 8d 0f 44 bd 5a 1a 8f 3c 3e a0 4c 3d dc c4 77 bd
       -0.047866393 0.01746862 0.049957506 -0.060490474
000260 0d 37 1d 3c 2f 1e ce 3c d7 f9 75 3c 90 cc c2 bc
       0.009595645 0.025160877 0.01501318 -0.023779184
000270 4b f1 e4 3c 94 ec f0 3c 05 14 ab 3c 61 10 9a bc
       0.027947089 0.029409684 0.02088357 -0.018806638
000280 3b 69 d7 bb db 7b 13 3c 0d a1 5a bc db fc c2 bc
       -0.0065738237 0.009001697 -0.013344062 -0.023802212
000290 5c 43 09 3d d7 bb 40 3d 9a bb 45 bc ea 4c 5d bc
       0.033511505 0.047054138 -0.0120686535 -0.013507107
0002a0 32 26 b6 3a ce 96 f9 bb 34 fb 87 3c 0f 77 99 3c
       0.0013896881 -0.0076168543 0.016599275 0.01873353
0002b0 57 b6 82 bd 73 c7 fc bc 94 ea 60 3d ad 82 c6 3c
       -0.06382435 -0.030856824 0.05491121 0.024232233
0002c0 b4 94 eb bb d6 68 20 bd 39 76 33 bd 6b 7f 85 bd
       -0.0071893577 -0.03916248 -0.043813918 -0.06518444
0002d0 b3 38 21 bc 60 bb c1 3c 4a 2f 23 3d 4a aa d4 3c
       -0.009840178 0.023648918 0.03984002 0.025960106
0002e0 b6 a9 83 bd b0 a3 44 bd 07 41 7a bc b7 b2 82 3d
       -0.06428854 -0.048007667 -0.015274293 0.063817434
0002f0 9d 23 1c 3c cb 2a a4 bc 5e 77 e1 3c fa 6b bd bc
       0.009529975 -0.020039937 0.027522739 -0.023122776
000300 c0 fb 40 bd d7 0e 29 3d f0 47 dc bc e2 f2 1e bc
       -0.047115088 0.041273918 -0.026889771 -0.009701462
000310 c4 20 8b bd e5 e6 2d 3d 90 e7 3c 3d 3f 59 5b 3c
       -0.06793359 0.042456526 0.046119273 0.013387977
000320 c0 b2 09 bd f3 a2 7e bd ac e1 5d bd f2 78 32 3d
       -0.033617735 -0.06216712 -0.054170296 0.043572374
000330 df b2 c4 3c 9b 91 3e 3d 37 1e f2 3c 96 f8 91 3c
       0.024011074 0.04652558 0.029555423 0.01781873
000340 27 aa 4c 3a 96 c2 57 bd f3 c9 61 bd 1a f1 6f bd
       0.0007807337 -0.052675806 -0.055124234 -0.05857954
000350 ea e3 a8 3c 82 b8 1a bd fb 83 37 bc f0 a7 1f bd
       0.02061649 -0.037773617 -0.0112009 -0.038978517
000360 20 6c 80 bc 5b 65 44 bd 54 77 39 bd d1 9f 0f 3c
       -0.015676558 -0.047948223 -0.045279816 0.008766131
000370 cd 12 b2 bc df d5 c9 3d bb 19 93 3c 3c b5 c7 bc
       -0.02173748 0.09855246 0.017956605 -0.024378411
000380 bb 84 8b 3b fb 59 a7 bc bd 37 a1 bc 12 73 7b bd
       0.004257766 -0.020428648 -0.019679898 -0.061389036
000390 3e a8 f8 3c 5c 07 48 bd d3 2c dc 3c 9b 7b ac 3c
       0.030353662 -0.048835143 0.026876843 0.021055033
0003a0 4b cd 18 3d 4a 33 65 bd d6 7f 04 3d 30 de 21 bd
       0.037305158 -0.055957116 0.032348476 -0.039518535
0003b0 84 f1 61 3c 8f 00 5a 3d 5d 79 3d bc f8 a1 41 bc
       0.013790492 0.05322319 -0.01156458 -0.0118184015
0003c0 f6 0e 8f bc 9c 10 aa bd ac a9 c4 3b aa ad 9d bd
       -0.017463189 -0.08303949 0.006001672 -0.076991394
0003d0 e5 13 fb 3c 79 89 3e 3d 79 d8 7f 3d 21 66 0d bb
       0.030649135 0.046517823 0.062462304 -0.0021575766
0003e0 8e e6 27 bd a2 f8 09 3d e0 c8 49 3d 37 2d 40 bd
       -0.04099136 0.03368438 0.049263835 -0.04691812
0003f0 79 6b 69 3b 2e b5 c9 bc c3 e5 3e 3c 6a a8 68 bc
       0.0035617037 -0.024622526 0.011651459 -0.014200309

feature_process_low.bias f4 [8]
000000 f0 06 4d 3d ab ba b2 bc 50 4c 4a bd 65 08 d2 bb
       0.050055444 -0.021817526 -0.049389184 -0.006409692
000010 53 28 20 bd b5 e9 25 3c f0 cc 00 bd b8 9f a8 3c
       -0.039100956 0.010126521 -0.031445444 0.020583972

feature_process_high.weight f4 [16, 8]
000000 00 4c 9c be 7c 1e d5 3c 23 71 54 3e a6 14 12 3d
       -0.30526733 0.026015513 0.20746283 0.035664223
000010 df 44 d5 3c 90 49 be 3d 04 2c ca bd 63 ed a7 bd
       0.026033817 0.09291375 -0.098716766 -0.08199575
000020 02 62 38 be 39 58 85 be 44 8d 3f be 64 d6 9d 3e
       -0.18006137 -0.2604387 -0.18706232 0.3082763
000030 b5 d3 9b bd 03 a9 23 3e 6a d7 62 3e 69 6f 44 bd
       -0.07608739 0.15982442 0.22152486 -0.04795781
000040 c8 12 42 be 0e 5d 80 be b5 22 11 be 94 86 28 3e
       -0.18952477 -0.25070995 -0.14173396 0.16457587
000050 08 47 8e be b2 7e 9d bd e8 6e 03 3e 08 0d 90 3e
       -0.27788568 -0.07690181 0.12835276 0.28134942
000060 ab 13 1b 3e 96 71 a9 3d 4f 93 71 3e f7 7d 2a 3e
       0.15144221 0.08273618 0.2359135 0.16649614
000070 b2 66 51 3e 08 8b 1a be 7b 58 87 be 89 e6 4d bc
       0.20449331 -0.15092099 -0.26434693 -0.012567171
000080 8f e4 58 bd 5e 28 87 3c 60 22 65 bd 8e c3 46 3e
       -0.052952345 0.01649874 -0.055940986 0.19410536
000090 d5 21 7e 3e b4 66 4f be 29 bd ab be 1f 7b 2c be
       0.24817593 -0.20254022 -0.33542755 -0.16843842
0000a0 cc d5 33 be 8a 91 6f 3e ef f5 64 be dd 33 78 3a
       -0.17562026 0.23395362 -0.22359441 0.00094681774
0000b0 4e c8 c9 bd 9b 45 45 be f9 a7 3b 3e 04 3d 15 be
       -0.09852658 -0.19264834 0.18325795 -0.14574057
0000c0 80 94 e2 3b f3 89 81 be ba f2 e0 bc ab 6d ce 3d
       0.0069146752 -0.2530056 -0.027459491 0.10079511
0000d0 63 47 0a 3d 03 bd 6d be bd 9a ab 3d 7c 22 8f bd
       0.033759486 -0.23216633 0.08379123 -0.06988999
0000e0 93 b2 30 be 17 c4 86 be 38 07 a6 bd 03 df a5 be
       -0.1725562 -0.2632148 -0.081068456 -0.32396707
0000f0 01 be b3 3e 61 52 76 be d9 a9 26 be 5a 42 76 3d
       0.351059 -0.24054863 -0.16275729 0.06012187
000100 20 04 ae 3d 94 20 3b bd ce 4b 6e 3e 0d 59 57 be
       0.084968805 -0.045685366 0.23271105 -0.21030064
000110 19 c3 24 3e 30 77 12 bc 5b a1 99 be 15 33 11 be
       0.16090049 -0.008939549 -0.30005917 -0.14179642
000120 17 d9 a6 3d e4 55 a9 3d 1d 84 6a 3e 02 52 95 3e
       0.08146875 0.082683355 0.2290196 0.2916413
000130 4d 8a 45 be 5e ea 26 be 78 08 ad bd 42 61 8b be
       -0.19291039 -0.16300341 -0.08448881 -0.2722264
000140 73 4d 94 bd 31 a0 8e be d5 a8 18 3e 49 3a 81 3e
       -0.07241335 -0.2785659 0.14908154 0.2523978
000150 3f 6e ee 3c 8f 56 94 be 84 6f 8d be 73 d2 08 be
       0.029105304 -0.2897229 -0.27624142 -0.1336153
000160 ec fc 01 3e aa 00 24 3d ea 4e 9e 3d 06 0d ad 3e
       0.12694138 0.040039696 0.077298954 0.33799
000170 a9 b7 6c 3e da 79 0a 3d 37 29 70 bd 88 47 5f 3e
       0.23116936 0.033807613 -0.058633056 0.21804631
000180 d2 8c ec 3d 9e ea 9c be 56 5a 4c be 8e 30 de bb
       0.11550297 -0.3064775 -0.19956335 -0.0067806905
000190 46 48 bc 3d 59 3a 37 3e 33 27 57 be 37 d0 bf be
       0.091934726 0.17893352 -0.21011047 -0.37463543
0001a0 0c f1 08 bd 50 13 6c bd c8 a6 be 3d e2 1a 0f be
       -0.033433005 -0.057635605 0.09309155 -0.13975099
0001b0 67 b8 6f 3e 1c df 92 3d 0a f2 8b 3e d4 b2 72 be
       0.23410188 0.07171461 0.273331 -0.2370103
0001c0 09 f4 f9 3d 20 99 0b 3d cf d0 1d be b9 ad f0 3d
       0.12204749 0.03408158 -0.15411685 0.11751885
0001d0 62 55 b5 be 95 97 a8 3e 2f 1e 2e 3d 10 8a cf 3c
       -0.35416704 0.32928148 0.042509254 0.025334388
0001e0 b8 63 2f 3e 3f 90 c6 3d a3 7d 08 3e b1 c1 86 3e
       0.17127883 0.096954815 0.13329177 0.2631965
0001f0 8a 1e 91 be 81 36 7b 3e 12 48 fb 3b 8b 0e 7f bd
       -0.28343612 0.2453251 0.0076685036 -0.06226973

feature_process_high.bias f4 [16]
000000 60 90 ae 3d b8 00 7a 3e 74 b0 46 be 9b 2e 63 be
       0.08523631 0.24414337 -0.19403249 -0.22185747
000010 db da 53 3e ec b3 16 be 09 91 c2 3d 2c a4 6c bd
       0.20688955 -0.14717072 0.095003195 -0.057773754
000020 16 28 72 3d 35 fa 76 3e 77 40 21 be ae d2 41 be
       0.05912026 0.24118884 -0.15747248 -0.18928024
000030 d9 d0 41 3e 3a aa 2f 3d 72 5a 90 bc 68 bd 86 be
       0.18927325 0.04288695 -0.017621253 -0.2631638

feature_norm.weight f4 [16]
000000 9a 50 83 3f 9e 81 81 3f 9b d6 81 3f a6 ca 7e 3f
       1.0258973 1.0117681 1.0143617 0.99527967
000010 6b 05 80 3f 07 4a 80 3f e1 30 80 3f fc 4a 7f 3f
       1.0001653 1.0022591 1.0014917 0.9972379
000020 cc b9 7a 3f a9 a8 7b 3f ba 6d 7d 3f 7b f9 7d 3f
       0.97939754 0.9830423 0.98995554 0.992088
000030 69 6c 7d 3f 81 b7 84 3f 6d 31 7f 3f 9f b5 7f 3f
       0.98993546 1.0368501 0.9968479 0.99886507

feature_norm.bias f4 [16]
000000 df 1b 49 3c 39 c1 65 3c 90 fd 04 3b 4c 8c ba bb
       0.012274711 0.014023119 0.0020292737 -0.005692994
000010 d8 af 91 bc 88 e3 81 3b 7f 1f 44 bd e4 90 f7 3a
       -0.017784044 0.0039638914 -0.0478816 0.0018887785
000020 99 f9 0e bd 22 80 ff bb 88 71 ae 39 0b d3 fd 3a
       -0.034906004 -0.007797257 0.00033272454 0.0019365264
000030 fd 58 02 3d 9d c8 b8 3c f4 f0 88 3c 0e 91 51 3c
       0.031823147 0.022556597 0.016716458 0.012790931

graph_attention.learnable_adj_u f4 [4, 47, 8]
000000 50 01 13 bd 0d 3c 99 bd 8b b0 9e bd de 97 ac 3d
       -0.035889924 -0.07482157 -0.07748517 0.08427404
000010 ee 60 c3 3d 67 f2 88 bc f2 3e 18 3d 2c aa e8 bc
       0.09539972 -0.016717149 0.037169404 -0.028401457
000020 e2 9f d2 3c 6e 4e a6 bc d9 32 81 bd 21 fc 50 bd
       0.025711004 -0.02030107 -0.063085265 -0.0510217
000030 0e b2 f6 3d d7 74 a7 3c ae d0 87 bd 65 8a 61 3c
       0.1204568 0.020441456 -0.06631599 0.013765906
000040 23 c6 f7 bd d1 35 8c 3a d4 a6 be 3d 01 2b 65 3c
       -0.120983385 0.0010697191 0.09309164 0.013987304
000050 9d b1 ec 3c b1 f1 e9 bd 2e da ba bc 18 8d 92 3d
       0.028893286 -0.11423052 -0.022809114 0.07155818
000060 7e 18 b6 bd dd 5d 68 bd 37 d7 a7 3d 36 a5 0e 3d
       -0.0889139 -0.05673014 0.08195346 0.034825526
000070 39 33 68 3d be 98 e7 bd fa 10 9e 3d bf ad d8 bc
       0.056689475 -0.1130843 0.07718082 -0.026450036
000080 c2 c8 d0 3c 31 bf c8 3d 19 e0 e4 bd 92 1d 0e 3d
       0.025486354 0.09802092 -0.11175556 0.03469617
000090 1d 85 e0 bd 2d de b7 3d c1 d9 11 3d 72 13 5d 3c
       -0.10962889 0.089779235 0.035608057 0.013493406
0000a0 2b fd 46 bd 3e 47 3b 3d 18 e9 80 bd a1 e6 bd 3c
       -0.048581284 0.04572224 -0.06294459 0.023181261
0000b0 cf 90 d0 3d ba 6a ba bd 6b b9 0d bd 4f 08 e8 3c
       0.1018387 -0.09102388 -0.034600656 0.028324274
0000c0 f0 6f ac 3c 55 95 da 3a 81 aa d5 3d df 13 01 bd
       0.02104947 0.0016676584 0.10432912 -0.03151309
0000d0 ce 20 00 3d ae 9e 83 3d fa 9d c0 bc c5 48 a2 3d
       0.031281285 0.0642675 -0.02351283 0.07924036
0000e0 99 33 a2 3d a4 2f 5d 3d 31 5d f2 bc 8d b9 d7 3d
       0.07919998 0.05400051 -0.029585453 0.10533438
0000f0 84 81 8f bd 56 84 19 3d 64 78 c7 3c fb 4b af 3d
       -0.07007125 0.03747972 0.024349399 0.08559414
000100 b1 91 cb bd 9a 30 ad 3c b0 06 8f bd 05 a3 83 3d
       -0.09939898 0.02114134 -0.069836974 0.06427578
000110 67 91 2a 3d 59 31 c1 bd ac c7 f8 bb 9c f2 0a 3d
       0.041642573 -0.094332404 -0.007592162 0.033922777
000120 49 98 53 3d 7d f2 dc 3d d8 11 5f 3d d1 74 bd 3c
       0.051658902 0.107884385 0.054460377 0.023126991
000130 59 7b 84 3d 8d 01 eb bd 13 96 a5 3d 40 9a 69 bc
       0.06468839 -0.11474905 0.08085265 -0.0142579675
000140 8c 8f 8c 3d 7f 3d 0e 3d f8 8d d1 bb 19 d2 ae 3d
       0.06863317 0.034726616 -0.006395098 0.08536167
000150 fe c7 90 bd e4 12 0c 3d 31 bf 59 3d 73 c5 30 bd
       -0.070693955 0.034197703 0.05316085 -0.043157052
000160 52 f1 33 3d 80 a9 f5 bd c8 df 7a bd 1e 81 71 3d
       0.043931313 -0.1199522 -0.06124857 0.058961026
000170 01 02 80 3d 3f f7 e3 bd 83 e5 2b 3d 16 d2 3a 3c
       0.06250382 -0.11131143 0.041966926 0.011402627
000180 90 6e f2 3d 3e 3e f2 bd af c4 ec bc 5b a7 8c bd
       0.118374944 -0.11828278 -0.02890238 -0.06867858
000190 9b 1e 97 bd cd 40 a2 bc 29 42 e4 bd 50 93 c2 3d
       -0.073788844 -0.01980629 -0.111454315 0.09500754
0001a0 c8 bc 2f bd 57 0b 2e 3d ee 23 92 bd 7c 69 2b 3a
       -0.042904645 0.042491283 -0.07135759 0.0006538851
0001b0 a7 f1 af bd d0 e5 c7 3d 45 75 d1 3d 54 87 c3 3d
       -0.085910134 0.0976063 0.102274455 0.09547296
0001c0 e9 e2 2d bd e8 92 9a 3d a3 80 cf bd 7a e9 63 3d
       -0.042452727 0.075475514 -0.101319574 0.055642582
0001d0 87 3e 75 bc 78 ce cd bd 9b 51 c7 bd bd 68 e8 bd
       -0.014968521 -0.100491464 -0.09732362 -0.11348102
0001e0 c4 28 ba 3c aa a7 33 bd 93 c4 64 bd be 6f ec 3d
       0.022724517 -0.04386107 -0.05585153 0.11544751
0001f0 24 56 17 bd 3a 8a 27 3d a7 e2 ae bc 52 c7 95 3d
       -0.036947384 0.040903307 -0.02134831 0.07313408
000200 18 3a 14 3d 2c 46 9d 3d 72 b3 01 3d 3c ba d9 bc
       0.036188215 0.076794 0.031665273 -0.026578061
000210 41 81 db 3d 23 a5 0d bc 4e ad 94 bd bc 92 1a 3d
       0.107180126 -0.008645329 -0.07259618 0.037737593
000220 c5 18 71 bc 5e 30 b8 bd 66 f4 81 3c 59 d2 e6 bc
       -0.014715378 -0.089936 0.015863609 -0.028176473
000230 8b ce 45 bd 72 10 6d bd 9c 61 53 bd 6f 26 49 bd
       -0.048292678 -0.05787701 -0.05160676 -0.04910892
000240 cd 39 43 3c e5 ed ef 3d 0a 92 91 bd f8 b9 67 bd
       0.011915636 0.11715297 -0.07107933 -0.056573838
000250 28 7c a6 bd e1 c8 96 bb 51 4e 0b 3c 62 78 aa bd
       -0.0812915 -0.0046015834 0.008502559 -0.083237424
000260 24 e2 62 3d 2a be de bd 94 de e5 3d 7e f3 ba 3c
       0.055391446 -0.10876115 0.11224094 0.022821184
000270 e0 3e 48 bc 1b db 31 bd 29 06 5f 3d bb 5b b5 3d
       -0.012222022 -0.043421846 0.054449234 0.08855387
000280 74 72 a2 bd 84 02 f9 bc 3e d4 b6 3d c4 2c ba bc
       -0.079319865 -0.030396707 0.08927201 -0.022726424
000290 f8 df b6 bd 67 a0 1f bd 88 43 89 3b 97 75 b9 bc
       -0.089294374 -0.03897133 0.0041889586 -0.022639079
0002a0 9b 32 aa bd e8 97 9b bd 3b 4e 06 3d 47 68 aa 3d
       -0.083104335 -0.07597333 0.03278945 0.083206706
0002b0 65 ef e1 3d 95 92 60 bc a6 1c 3f 3d fc 3f c5 bd
       0.11031989 -0.013706823 0.04665818 -0.09631345
0002c0 4b 57 84 3d 3f 51 ed 3d 97 54 81 3d 03 64 44 bd
       0.06461962 0.11587762 0.06314962 -0.04794694
0002d0 61 7d ca 3d 7e 36 eb bd 64 6a 6e bc 9b 25 f6 bc
       0.098871954 -0.11485003 -0.014551733 -0.030047229
0002e0 2d ba f7 bd 6e ae 8d bd f2 f2 b4 bd 83 80 05 3d
       -0.12096057 -0.069180354 -0.08835401 0.03259326
0002f0 66 44 25 bc 8c 20 64 3d c2 79 df bc 40 dd cc 3d
       -0.010087108 0.0556951 -0.027279738 0.100031376
000300 08 0c 61 3c 81 df cd 3d 6c ad c9 3d 81 9e d2 bd
       0.013735779 0.100523956 0.09847531 -0.102841385
000310 fb c9 a6 bd 7d 97 95 3d e5 a3 ea 3d d6 f9 d3 bd
       -0.081439935 0.07304285 0.11457042 -0.10350387
000320 9f a2 e8 3a 7f f7 3e bd 83 d1 e9 3d cd 50 ce 3d
       0.001774866 -0.04662275 0.11416914 0.10074005
000330 27 c1 b4 3d c6 a6 85 3d 65 5e 3a bc ff 2a e5 3d
       0.088259034 0.0652595 -0.0113750445 0.111898415
000340 d7 6f 68 bd a2 65 c4 3b 94 b1 02 bd 70 2d b5 bd
       -0.056747284 0.005993561 -0.031907633 -0.08846557
000350 b8 62 6b bd ae dd f0 3c e7 44 31 bc 1f 86 a4 bd
       -0.057467192 0.02940258 -0.01081965 -0.08033394
000360 55 97 7c bc 14 92 ab 3c 50 c3 ad bd cb fd 95 3d
       -0.01541694 0.020943679 -0.084845185 0.07323798
000370 51 26 d3 bd 5d 12 98 3a 4b 29 cb bd e2 f4 df bd
       -0.10310043 0.0011602152 -0.099199854 -0.109353796
000380 52 cf 76 bc f4 66 e1 3d 39 c8 ea 3d de 85 32 3d
       -0.015064077 0.11005965 0.11463971 0.043584697
000390 37 80 c0 3d 85 c3 87 bd ac d2 8b 3d da 89 97 3d
       0.09399455 -0.06629089 0.06827292 0.0739934
0003a0 b1 5a ed bd c7 52 be bd 4a 97 56 3d db 98 37 3c
       -0.11589564 -0.09293132 0.052390374 0.011205877
0003b0 87 1b a8 bd d6 fb c3 bd 96 7e b3 3d e1 0b 59 3c
       -0.082083754 -0.09569518 0.08764379 0.013247461
0003c0 64 b5 8c b9 05 17 f0 bd ff e7 d9 3d b2 2d a4 bd
       -0.00026838027 -0.117231406 0.10639953 -0.08016528
0003d0 3f 54 5d 3d e8 e7 6e bc 6f 7c 81 3b 24 e4 73 3d
       0.05403542 -0.014581658 0.003951601 0.059543744
0003e0 a9 51 04 bd ce 59 0b bd 5c fc c5 3d 86 4f be bd
       -0.03230444 -0.03402119 0.09667274 -0.09292512
0003f0 a3 0a 5d 3d e3 2f 00 bd ae f7 25 bd 0c 41 a6 3d
       0.053965222 -0.03129567 -0.04051941 0.081178755

graph_attention.learnable_adj_v f4 [4, 8, 47]
000000 40 7b c0 bd 58 25 37 3d 0e ee ce 3c f0 3d 26 bd
       -0.09398508 0.04471335 0.025259998 -0.040586412
000010 0d 92 f9 3c c0 bc ca 3d fb 99 80 3d c3 be c0 bd
       0.03046515 0.098992825 0.062793694 -0.09411385
000020 f9 f8 da bc b4 9b bf 3d f4 b8 82 3c 12 56 50 3c
       -0.026730048 0.0935587 0.015957333 0.012715833
000030 2f 23 f1 3b ca 88 14 bd 5c 07 dd bc 14 4d e0 3b
       0.0073589305 -0.036263265 -0.026981048 0.006845126
000040 fd 01 9f 3d 1f 25 ee bc 75 1d dd bc b4 d7 a0 3c
       0.07764051 -0.029070435 -0.026991585 0.019634105
000050 5d a0 1a bd 7e 40 b8 3d 8d e7 9e 3d bb fc 8d 3b
       -0.03775059 0.08996676 0.077590086 0.0043331063
000060 76 99 88 bd 83 78 ec 3c 5e 23 b3 3d bd 2d 0b 3d
       -0.06669895 0.028866058 0.0874698 0.033979166
000070 d2 14 31 3d 8d 9e 5f bd d2 16 d0 bd 49 dc 1e bd
       0.043232746 -0.054594565 -0.10160603 -0.0387843
000080 4d 05 58 3b 19 ad bb 3d 4f 6b b0 3c 04 e5 9a bc
       0.0032962144 0.09163875 0.021535544 -0.018908031
000090 0f 50 d4 bc 58 8e a1 bc ad 2c 63 bd 17 de 30 bd
       -0.025917081 -0.019721195 -0.055462528 -0.04318055
0000a0 d8 f8 9c 3c 08 0d 8f 3d 84 6a b3 3d 31 b1 22 3d
       0.019161627 0.069849074 0.087605506 0.039719764
0000b0 1e f5 91 bd e2 46 c3 3d 73 f8 cb 3d 50 18 fb bc
       -0.071268305 0.09535004 0.09959497 -0.030651242
0000c0 88 0d 69 3b a3 35 bf 3d bd 8f 14 bd 80 47 48 3d
       0.0035561044 0.09336402 -0.036269892 0.048896313
0000d0 2a 8a 8c 3c f3 7e 6b 3d c0 31 13 3d e8 92 d1 3d
       0.017155726 0.057494115 0.035936117 0.10233098
0000e0 68 05 b3 3d 30 22 90 bd 50 3d 7e 3d c8 2b a7 bc
       0.087412655 -0.07037771 0.06207019 -0.020406619
0000f0 59 0c 5d bd ad b7 8d 3c 95 03 66 bc eb a7 89 bd
       -0.053966854 0.017299498 -0.01403894 -0.06721481
000100 ef 73 ba bd 85 72 6b bd d0 fb 2d 3c d8 bb 80 3d
       -0.09104144 -0.05748226 0.010619119 0.06285828
000110 00 f2 78 3d 23 53 e1 3c 26 62 c8 3d 40 eb b4 bd
       0.060777664 0.027505463 0.09784345 -0.08833933
000120 03 f5 84 bd 2f db 35 3d 3d 67 c0 bd 62 38 c7 3d
       -0.06492045 0.044398483 -0.09394691 0.09727551
000130 05 00 69 3c 82 b3 1b bd b6 7b bc 3d 81 f9 44 3d
       0.014221196 -0.03801299 0.092032835 0.048089508
000140 b2 a6 b1 3d bf 23 9f 3d aa 0d 93 bc 7c c1 bf 3d
       0.08674373 0.0777049 -0.017950851 0.09363076
000150 f1 2a 5f 3c 4c a2 23 3c a5 cc 12 3d f3 5e a5 bd
       0.013621078 0.009987425 0.035839695 -0.08074751
000160 d4 9a 7c bd 99 e1 c7 3d e7 3b 8a bd a4 46 64 3d
       -0.061671093 0.09759826 -0.06749707 0.05573143
000170 f3 53 7f 3d c2 7d ab bd 51 ac 41 bc 80 a6 90 ba
       0.06233592 -0.08373596 -0.011820869 -0.0011035949
000180 bb b6 9c 3d 97 37 e7 bc a0 c9 be 3d 35 40 b1 bd
       0.076520406 -0.02822475 0.09315801 -0.08654825
000190 e6 7d 30 3d 68 ab 66 3d 76 31 18 bd 50 ef 0a bd
       0.043088816 0.05631581 -0.037156545 -0.033919632
0001a0 89 8b 86 bd c2 2a e0 3c 5b 93 0d 3d 55 7e 14 bd
       -0.06569583 0.027364139 0.034564357 -0.036253292
0001b0 59 d3 aa 3d 62 77 81 bc b4 a7 83 bc 9d fa a4 3d
       0.083410926 -0.015803996 -0.016071178 0.08055613
0001c0 65 0b 94 3c 1f 27 62 3d 27 04 79 3d 75 44 8a bd
       0.01807184 0.05521309 0.060794976 -0.067513384
0001d0 3b 3c ab ba ca 8d ba 3d 42 9e 82 bd e9 52 5d 3c
       -0.0013064215 0.09109075 -0.063778415 0.013508537
0001e0 42 e9 9c 3d e5 95 3a 3c 3f 75 bd bc 8c c5 18 3d
       0.07661678 0.011388277 -0.023127196 0.03729777
0001f0 fb b8 ae bd 74 8c ad 3d 51 f0 a5 3d 68 9c ec bc
       -0.08531376 0.08474055 0.08102477 -0.028883174
000200 ee d4 18 bd a1 46 a5 bc 4c 2c d2 3d 67 2b 22 bd
       -0.03731244 -0.02017528 0.10262355 -0.039592173
000210 ef 02 fd 3c 82 8b c8 bd 0d 66 ff 3c 27 fa 7f 3d
       0.030885188 -0.09792234 0.031176591 0.062494423
000220 bc be 08 3d 2d 99 a0 bb a7 a5 f6 3b c5 ec b6 3d
       0.033385023 -0.0049010725 0.0075270715 0.08931879
000230 e7 98 37 3d 64 3e c3 bc 56 aa a9 bd 40 f3 99 3d
       0.044823553 -0.023833461 -0.08284442 0.075170994
000240 bf 49 1d bd 53 b3 83 3d 3e d0 a9 bc ad 60 e0 3a
       -0.038400408 0.06430688 -0.02072918 0.0017118655
000250 63 96 a6 bd 0b f2 20 bd 3e 6e 0b 3c 3e 23 cc bd
       -0.08134153 -0.03929333 0.0085101705 -0.099676594
000260 69 e1 ad bc de 79 75 3d 32 77 94 3d 1b 98 9b 3d
       -0.021225648 0.059930675 0.07249297 0.07597371
000270 71 d6 00 bd c4 05 05 3c 89 81 a9 bd 33 d8 5a 3d
       -0.031454507 0.00811905 -0.0827666 0.05342884
000280 17 9a 95 3c 32 cf b0 3d 11 72 83 bc 13 06 ca 3d
       0.018261952 0.08633269 -0.016045602 0.0986444
000290 63 4e 51 3d 42 45 b4 3d 2d f4 db bb 9a bd a5 bd
       0.051100146 0.088022724 -0.0067124576 -0.08092804
0002a0 24 a9 a5 bd d4 2b c7 bd 2e 71 8c 3c d6 58 a3 bd
       -0.08088902 -0.097251564 0.017143812 -0.079759285
0002b0 f3 00 0a bd 0d ad 56 3d 11 08 c0 3d be e9 d3 bc
       -0.03369231 0.052411128 0.093765385 -0.025868293
0002c0 b6 3f 92 3d 8f 0d 00 bc 05 16 a9 bc 66 fc 47 bc
       0.07141058 -0.007815733 -0.020640383 -0.012206173
0002d0 b9 8f 3f bd ee 41 e7 3c a6 5c 12 ba 6b d7 4d bd
       -0.046767924 0.02822968 -0.00055832637 -0.050254267
0002e0 9b 5b 86 3d d2 bb 3c bd a3 10 8f bd 96 a8 12 3d
       0.06560441 -0.046077557 -0.06985595 0.035805307
0002f0 43 8a cf bb b1 90 68 bd 15 70 ac bd 2a 27 fd bc
       -0.0063336208 -0.056778613 -0.084198155 -0.030902464
000300 55 bc a1 bd a2 c7 65 3d 93 7d 52 bc aa 98 59 3d
       -0.078972496 0.056098588 -0.012847322 0.053124107
000310 e7 a4 4d 3d 2d 1d 08 3c d8 17 82 bc 0e e3 59 bd
       0.05020609 0.008307737 -0.01588051 -0.05319505
000320 ba 38 be 3c cd ad b7 bd ab dd 4d bd e7 73 a8 3d
       0.023220409 -0.08968697 -0.050260227 0.082252316
000330 22 00 a4 bc 81 68 aa 3d ff 2c 7a 3d 49 1e b2 bc
       -0.020019595 0.08320714 0.061078068 -0.021742957
000340 8c 05 aa bd 33 a4 a9 3d e1 5b 0e 3c 09 a0 c7 3d
       -0.08301839 0.08283272 0.008688898 0.09747321
000350 27 0b bf bd 8c 1e ae 3c 7e ff b5 bd f1 2b 4d bc
       -0.09328299 0.0212548 -0.08886622 -0.0125226835
000360 6e 26 b9 bd de 42 c0 bd 60 7f aa 3b 7a 40 d0 3d
       -0.09040533 -0.09387754 0.0052031726 0.10168548
000370 ec 7b 01 3c cb 8f 1c bc a4 e6 c4 3d 2f b0 1a 3c
       0.00790308 -0.009555767 0.09614304 0.0094414195
000380 91 e4 6b bd 59 52 86 3d fc b9 96 3d 5f 29 b7 3d
       -0.057591025 0.06558675 0.073596925 0.08943438
000390 89 1e a6 3d 4a 5b c4 3d d2 af 1c bd 31 fc 72 3c
       0.08111293 0.095877245 -0.038253613 0.014830635
0003a0 1e 29 1a bd 82 f0 60 bc 43 01 a7 3d 40 e7 a6 bd
       -0.03763687 -0.0137292165 0.081545375 -0.08149576
0003b0 65 dd 66 3d 91 18 74 bd f4 45 14 3a 52 33 49 bc
       0.056363482 -0.05959374 0.0005656176 -0.012280302
0003c0 d3 4a 3e bd cb 1a 10 3c 7a 01 56 bd 38 53 bf 3d
       -0.046458077 0.00879545 -0.052247502 0.093420446
0003d0 85 f0 18 bd 61 b3 85 3d 56 43 c9 bc cb 4f a6 bd
       -0.037338752 0.065283544 -0.024568241 -0.08120688
0003e0 51 fa a3 3d fa 4e e9 bc 0a 04 2f bd f3 60 fd 3b
       0.080067284 -0.028480042 -0.04272846 0.0077325045
0003f0 2b bc 89 ba 24 6d ee 3c 80 01 cd bc 14 c8 f3 bc
       -0.0010508349 0.029104777 -0.02502513 -0.02975849

graph_attention.qkv_proj_low.weight f4 [24, 16]
000000 4e 22 73 3e 65 d6 0a bc 07 51 54 bd 7f c4 cf bd
       0.23743555 -0.008473967 -0.051835086 -0.101449005
000010 c6 1c 86 bd 86 82 eb 3d 2b 52 a4 bc e9 ca 53 3e
       -0.06548457 0.11499505 -0.020058712 0.20682873
000020 66 ed 9c bb f5 f9 26 bd 3e ee 03 3e 9e b6 c2 bb
       -0.0047890423 -0.04076572 0.12883851 -0.00594218
000030 ec e0 ba bc 11 f6 d3 3d d9 24 55 3e 87 28 54 3d
       -0.02281233 0.10349668 0.20814838 0.051796462
000040 5f 1a 54 3e d2 c2 2b 3e c7 5c 8e 3d d4 57 b9 3d
       0.20713185 0.16773537 0.069512896 0.09049955
000050 92 03 58 3d fb 24 16 3d 8c ba 45 3e 84 5e 6f 3e
       0.05273778 0.03665636 0.19309443 0.23375899
000060 1f ec c1 3d d0 89 e7 bc 71 92 5d 3e e7 8d 41 be
       0.09468865 -0.028263956 0.21637894 -0.18901788
000070 17 95 5e 3e 3c 75 26 3e d9 8a 3e 3e a4 d3 5e bd
       0.21736561 0.16255659 0.18607654 -0.054401055
000080 c0 19 43 be 05 c2 4f 3e ac 6b ec bd 39 5e 88 3d
       -0.19052792 0.20288856 -0.11543974 0.066585965
000090 4c 98 1e 3e 38 3a 71 be b2 96 de 3c d6 fa bd bd
       0.15487784 -0.23557365 0.027171466 -0.09276359
0000a0 a3 c6 2f 3e 00 02 1e be d2 e0 08 3e e8 19 27 3e
       0.17165618 -0.1543045 0.13367012 0.16318476
0000b0 83 b9 00 3e 97 3b 79 3e 90 9a 88 3d d4 e1 68 be
       0.12570767 0.24339138 0.066701055 -0.22742397
0000c0 1b 05 15 3e 4b 8d c4 3c 51 b8 ed bb 78 61 72 be
       0.14552729 0.023993155 -0.0072546382 -0.23669994
0000d0 4e 6a 29 bd 93 f9 f3 bd fd 5a 81 3e d2 36 2d 3e
       -0.041361146 -0.11912837 0.2526473 0.16915444
0000e0 0b a9 28 3e 30 a6 2f 3e 8f aa 20 be 76 b2 bf bd
       0.16470735 0.17153239 -0.15690063 -0.093602106
0000f0 bd b8 ed bd 97 25 01 be 8f a9 4a 3e 28 86 e6 3d
       -0.11607502 -0.12611996 0.19791244 0.11256057
000100 19 de 57 3e d7 d0 b9 bc 1d 2d 6e be b0 f9 8f bd
       0.21080817 -0.02268259 -0.23259397 -0.07030046
000110 3c b0 27 3e 0b d9 1b 3e 28 2b 85 3d 89 b3 bc bd
       0.16375822 0.15219514 0.06502372 -0.09213931
000120 6f 99 69 be 3d 2b 0c be c1 d8 e8 3d b7 d0 f0 bd
       -0.22812437 -0.13688369 0.113694675 -0.11758559
000130 55 84 ee 3d 9d 5e a1 3d 0e dd aa bd 83 4f 1d 3e
       0.11646334 0.07879374 -0.08342944 0.15362363
000140 d1 86 5f bd d2 0c 60 bb eb 36 cd bd 2e a2 6b be
       -0.05457193 -0.003418733 -0.100202404 -0.23011085
000150 bf 74 3b 3d 71 5f 2c 3d a4 46 09 be 27 bd 1c 3e
       0.045765635 0.042083208 -0.13405854 0.15306531
000160 2d df 51 be 27 86 79 be 41 db 23 be ed aa d9 bd
       -0.20495291 -0.24367581 -0.16001607 -0.10628305
000170 00 6a af bb da 1d ba ba b8 e7 cb 3d 69 41 79 be
       -0.0053532124 -0.001419957 0.09956306 -0.24341358
000180 15 1e 66 3d c8 09 71 3b 4b 1c 80 3d 62 eb 80 3e
       0.056181032 0.0036779512 0.062553965 0.25179583
000190 83 b2 18 3e 68 c7 06 be 22 a0 5d be 5f 60 59 bd
       0.14911847 -0.13162005 -0.21643117 -0.053070422
0001a0 5e d4 f5 bd 13 6b a1 3d fa cb 64 3c a7 05 40 3e
       -0.120033965 0.07881751 0.013964647 0.18752156
0001b0 9e 62 f1 3d a1 67 8e bc 49 06 d9 3b 8b 9c b0 3c
       0.11786388 -0.017383398 0.0066230637 0.02155902
0001c0 f0 fa 1c bc af bf 58 3e fe c2 41 be 44 35 01 3e
       -0.009581313 0.21166871 -0.1892204 0.12617975
0001d0 85 b4 29 be d5 29 36 be 1c 5b 41 bd 84 69 06 3e
       -0.16572769 -0.17789395 -0.04720603 0.13126189
0001e0 45 3f 3c 3e a6 a1 74 3d 77 58 1c bc 95 a5 90 bc
       0.1838351 0.059724472 -0.009542576 -0.01765708
0001f0 f9 23 ce bd 37 89 8e bb f2 cf da 3b 06 1e 5b 3e
       -0.10065455 -0.0043498534 0.006677621 0.21398172
000200 5c 84 25 3e db 6f 5b be ab 83 9f bc 1c b4 17 be
       0.16163772 -0.21429388 -0.019471964 -0.148148
000210 37 c8 45 bd 02 6f 54 be b8 f9 32 3d cc 02 53 be
       -0.048286643 -0.20745471 0.04369518 -0.20606536
000220 99 21 82 3e cd 09 40 3e 3c 96 37 be bb e5 76 be
       0.25416258 0.18753739 -0.17928404 -0.24111073
000230 29 a0 e7 3c 66 5e 40 bd d3 27 9c 3d 05 b8 31 be
       0.028274613 -0.046965025 0.07624783 -0.17355354
000240 90 11 c8 3d 32 ba 58 be a1 6c fc bd 19 7f 07 be
       0.09768975 -0.21164778 -0.12325407 -0.13232078
000250 66 4e eb 3d f8 e6 d6 3c 54 ec 6c be 33 a9 08 be
       0.11489563 0.026233181 -0.23137027 -0.13345794
000260 d0 31 01 be 18 60 69 be c1 eb 3c 3d c6 23 e1 3d
       -0.12616658 -0.22790563 0.04612327 0.10993151
000270 2c f3 7c bd 72 31 04 be 16 4c b0 3b 9d 5c 3e be
       -0.061755344 -0.12909487 0.005380164 -0.18590017
000280 48 de 26 be 25 f9 4a bc 56 cb 72 3e 2b 0f 8d bd
       -0.16295731 -0.012388502 0.23710379 -0.06887659
000290 f6 55 ff 3d 00 d1 b9 bd 89 97 5d bd 70 9e 6b be
       0.124675676 -0.09073067 -0.054099593 -0.23009658
0002a0 a8 87 51 3e 73 bb 7c 3e e5 c8 b3 3a 50 e7 3b 3e
       0.20461905 0.24680881 0.0013716487 0.18349957
0002b0 fe 3e 36 3e f6 35 c3 3d 36 11 e3 3d e7 ae 46 be
       0.17797467 0.095317766 0.11087267 -0.19402657
0002c0 39 62 3d be ef a0 45 be 14 85 95 3d 8a 68 5a be
       -0.184945 -0.19299673 0.07300773 -0.21328941
0002d0 b6 f4 49 be 6a 15 0a be c3 6e 82 be 81 94 97 3b
       -0.19722256 -0.13484731 -0.2547513 0.0046258573
0002e0 08 64 6e 3d 7e 27 21 be 0e 65 28 3e 6e 1a f9 bd
       0.058200866 -0.15737721 0.164448 -0.12163244
0002f0 94 bc 00 bd a1 43 75 3e f9 a5 5e 3e 1a d3 a0 bd
       -0.031429842 0.2395158 0.21743001 -0.078527644
000300 03 b2 43 be 59 b7 e3 bd 98 cc 63 3d ae 0c 19 3e
       -0.19110875 -0.11118955 0.055615038 0.14946243
000310 72 5e ef 3d cd bc 9a bd d1 28 58 be 73 57 4e be
       0.11687936 -0.07555542 -0.2110932 -0.20150547
000320 f8 1a ab bd b4 c6 88 3a 20 79 ff bd fc d0 1a be
       -0.08354753 0.0010435195 -0.12474275 -0.15118784
000330 3c ec d0 bb 49 e7 6a be 10 f9 49 be 4a cd 36 be
       -0.0063758176 -0.22939791 -0.19723916 -0.17851749
000340 b9 d8 04 bd 41 fd 5e 3e a6 3e d5 3d 93 10 ac bc
       -0.032433245 0.21776296 0.1041234 -0.021003997
000350 54 25 0c 3d 5a 15 bf 3d 4a 27 81 bc e6 5f 47 be
       0.034215286 0.09330244 -0.015765805 -0.19470176
000360 04 54 05 be 9a 62 36 be 8c 45 3f bc e2 38 69 be
       -0.1302033 -0.17811051 -0.011674296 -0.22775605
000370 26 23 7e bc f2 ad 84 bd ea 36 7b 3e 33 e6 41 3e
       -0.01551131 -0.0647849 0.24532667 0.1893547
000380 ce fc 3a 3e d6 eb 32 3c dd f5 bd bd 20 a8 8e 3d
       0.182605 0.0109204855 -0.0927541 0.06965661
000390 6f 05 3a be 32 1b eb bd 6f 72 92 bd 64 77 98 bd
       -0.18166135 -0.114797965 -0.07150733 -0.07444647
0003a0 a1 5b 61 be b1 c8 bf 3d 1e ea 3e 3e 2a e4 15 be
       -0.2200761 0.09364451 0.18643996 -0.14637819
0003b0 c2 b7 bf 3d 61 2c ef 3b ee 6d 6e 3c e2 fb 9f 3a
       0.09361221 0.0072989915 0.0145525765 0.0012205804
0003c0 09 01 5d 3e a7 e4 0a 3c e1 4e 38 be 95 08 ad bd
       0.21582426 0.0084773665 -0.1799884 -0.084489025
0003d0 92 62 ee 3d 3c ae 8d 3d 6b ff a1 bc 73 42 7b bd
       0.116398945 0.06917998 -0.019775113 -0.061342668
0003e0 65 f5 bc bd 55 1e b3 bd 8c 20 07 be 0e a4 bb 3c
       -0.09226493 -0.0874602 -0.1319601 0.022905376
0003f0 7c 48 a5 3d 33 fd 59 3e 57 65 6e bd 8b c4 d2 3b
       0.08070466 0.21287994 -0.058202114 0.006432121

graph_attention.qkv_proj_low.bias f4 [24]
000000 fb 4a 9b bd ee 40 37 be be fb c7 bd 26 f4 f4 3d
       -0.07582661 -0.17895862 -0.09764813 0.1196063
000010 08 4c 09 3e fd af e5 3c 42 18 bf bd 92 db 88 3e
       0.1340791 0.02803802 -0.09330799 0.2673002
000020 34 e8 7f 3c bb 99 95 bd 8a 8e a0 bd f3 bf 2a bd
       0.015619326 -0.073047124 -0.07839687 -0.041686963
000030 72 fc 0e 3e ca e8 a8 3d 1d 92 27 3e 14 46 5f bd
       0.13963488 0.08247526 0.16364332 -0.05451019
000040 4f 47 4e 3e 9b 95 94 bd e5 05 ff bd 29 e8 ec bd
       0.2014439 -0.072550975 -0.12452296 -0.115677185
000050 47 95 5d be c6 4a 0e be 45 f9 50 be fb 64 93 bc
       -0.21638976 -0.13895711 -0.20407589 -0.017992487

graph_attention.qkv_proj_high.weight f4 [48, 24]
000000 28 cb 82 bd 90 74 aa bd 11 20 d7 bd 70 df 61 3e
       -0.06386405 -0.08323014 -0.10504163 0.22057891
000010 e5 46 5a bd 36 f6 65 3d 68 bd 3b 3e 60 d0 ea bd
       -0.053290267 0.05614301 0.18333972 -0.114655256
000020 5e e5 a5 3c 98 33 b9 3d 49 63 7c 3e c1 3f c2 bd
       0.020250972 0.09043044 0.2464725 -0.09484816
000030 1b 9c 42 3e 1f 02 46 be 44 b8 2c be 1b 94 63 3e
       0.19004862 -0.19336747 -0.16867167 0.22224467
000040 6e 1b 5c 3c 78 6c 1e 3e c8 99 0e 3d bf 42 11 be
       0.013434274 0.15471065 0.034814626 -0.14185618
000050 b3 0d 69 3e 07 6d da 3d 2a f2 8c 3d 4b 5f 1f be
       0.22759132 0.106653266 0.06882127 -0.15563695
000060 f3 76 8b bd 91 5f f8 bd 08 bf 30 3e 29 50 68 3d
       -0.06809797 -0.12127603 0.17260373 0.05671707
000070 64 d3 5b 3d 9b b6 a2 3d 96 29 d9 3d e9 f5 cb bd
       0.053668395 0.079449855 0.10603635 -0.09959013
000080 4d f5 59 3e 52 6e c6 3d cb 15 a2 bd 00 bd ae 3d
       0.21284981 0.09689011 -0.07914313 0.08532143
000090 b6 08 c5 3d 66 8c 88 bd d4 11 35 be 9f dd 84 3c
       0.09620802 -0.06667404 -0.17682582 0.016218958
0000a0 c9 c8 1e be 80 e4 a1 3d c8 ef 29 3e 30 39 dd bd
       -0.15506281 0.07904911 0.16595376 -0.10801923
0000b0 b3 ec 5c 3e b6 70 11 be 60 25 aa 3d 1b c9 23 be
       0.21574669 -0.14203152 0.0830791 -0.15994684
0000c0 a3 18 83 bd c5 30 4d 3d a0 19 e6 3d 45 1b 0c 3c
       -0.064011835 0.05009534 0.11235356 0.008551423
0000d0 9d a0 c1 bd 79 81 f3 3d 5c 1e 2b 3e c0 3d 12 3d
       -0.09454463 0.11889929 0.167108 0.03570342
0000e0 8f 7e 6d bd b1 aa 04 3d dc 91 00 3d 87 fb 0d 3e
       -0.057982024 0.032389347 0.031389102 0.13865481
0000f0 d6 eb 98 3d 67 11 93 bc b0 f1 9c bc 32 3a 15 3e
       0.07466857 -0.017952634 -0.019158214 0.14572981
000100 74 f0 11 3c 19 2a 12 3e 32 21 03 3e 04 b5 44 be
       0.008907426 0.14273871 0.12805632 -0.19209677
000110 57 12 16 3d c7 ff 6b be d0 84 01 be 2f 96 94 3c
       0.036638584 -0.2304679 -0.1264832 0.01813802
000120 82 b9 9a bc a2 a1 39 bd 77 5d 6a 3e a6 c1 a0 bd
       -0.018887285 -0.04532016 0.22887217 -0.078494355
000130 d1 3a 8f bd 1a 34 8a bd 16 bd 25 3d 4d 81 17 bb
       -0.0699364 -0.06748219 0.04046353 -0.002311784
000140 68 56 68 3e 76 b3 e0 bd 8f 40 7a bd 95 e5 34 bd
       0.22689211 -0.109717295 -0.061096724 -0.04416426
000150 a4 3a 47 3e 3d b8 8c 3c 71 0d 95 3d 8a 41 b2 3d
       0.19455963 0.017177695 0.07277954 0.08703907
000160 56 0d 4e 3e 7e c9 9b 3d a9 50 25 3e 7f ec a2 bd
       0.20122275 0.07606791 0.1614405 -0.07955264
000170 d3 19 0e be f7 8c 2c be b6 b5 f1 3d 92 de e0 3d
       -0.13877039 -0.16850649 0.11802237 0.10979952
000180 bc 01 cf bd 7c 88 05 3e ac b0 de 3c 2a a7 0d 3c
       -0.10107753 0.13040346 0.027183853 0.008645812
000190 35 3f 28 3c dd d4 29 bd e6 b4 55 3e 86 ba 79 3b
       0.010268976 -0.041462768 0.20869789 0.0038105561
0001a0 76 c6 22 3e 80 07 28 be 61 07 be bd 30 a8 a5 3c
       0.1589602 -0.16409111 -0.09278751 0.0202218
0001b0 72 15 44 3e 80 01 97 3d 93 bc e2 3c 4a f5 40 be
       0.19148806 0.07373333 0.02767781 -0.1884357
0001c0 b9 cd f1 3b cf 16 fe bd 33 7c 0e be 5e a1 a1 3c
       0.0073792604 -0.12406694 -0.13914566 0.019730266
0001d0 d9 53 d4 bd 17 de 25 3e 3e cd 9c bd ac 15 be 3d
       -0.10367555 0.16198002 -0.07656334 0.09281477
0001e0 ed e9 cb 3d 3a 16 4c be af 55 c7 3d c5 52 9d bc
       0.09956727 -0.19930354 0.0973314 -0.019204507
0001f0 2b 28 c8 3d cc 4a 44 3e 93 d9 99 bd 10 f8 be bd
       0.097732864 0.19169158 -0.07512202 -0.09324658
000200 2b c9 48 3e 8c 7c f9 3c d3 29 65 bc ab 29 1d 3e
       0.1960799 0.030454896 -0.013987022 0.15347926
000210 e9 b7 88 bd 73 a6 fd bc 11 56 ee 3d 0e 9f ab 3d
       -0.06675703 -0.030963158 0.116375096 0.08379947
000220 4d f0 06 be 72 e9 88 3d 5e a2 f8 bd 60 f8 e8 bd
       -0.13177605 0.06685151 -0.12140344 -0.11375499
000230 5e 1b 27 3e ad 3a 94 bd d7 6f a6 bd c1 6d 16 3d
       0.16319034 -0.07237754 -0.081268005 0.036725763
000240 56 b2 00 3d ee 83 26 be 83 cc 10 be a1 4e 46 be
       0.031420074 -0.16261265 -0.14140515 -0.19365932
000250 1e 80 59 3d 40 3d 09 be 7a 8a 01 3d 5d d4 57 bd
       0.053100698 -0.13402271 0.031626202 -0.05269276
000260 ca bf d6 bd 57 cf 62 bd 10 15 18 be a7 f5 da bd
       -0.104857996 -0.055373516 -0.14851785 -0.10691386
000270 a5 86 c1 3c c6 81 4a be 20 42 42 be 36 99 25 3e
       0.023623774 -0.19776067 -0.18970537 0.16171727
000280 2b 98 94 3c 67 a1 a1 bd 32 bf d9 3c f7 3a 17 3e
       0.018138966 -0.07892113 0.026580427 0.14768587
000290 46 a2 15 be 35 2b 02 be 31 5e fa bd 4a 2d 18 3c
       -0.14612684 -0.12711795 -0.12224997 0.0092881415
0002a0 69 8d e1 bc 78 10 48 be b3 58 0f 3e bd 65 18 be
       -0.02753325 -0.19537532 0.1399868 -0.1488256
0002b0 f3 99 3e 3e c0 7e 14 be 37 48 83 bc 2e fe 0a 3d
       0.18613414 -0.14501476 -0.016025646 0.03393381
0002c0 07 05 7f bd 59 c0 47 3e 3a eb 07 be fb 59 5b bc
       -0.062260654 0.19506969 -0.13273326 -0.013388152
0002d0 bd 6a f7 bd b2 ef 23 3d 97 cb 1c 3e a9 c6 47 3e
       -0.120809056 0.040023513 0.15312038 0.19509377
0002e0 67 86 cc 3c 12 f3 b7 bd b6 89 68 3e 4f 57 1c 3c
       0.024966432 -0.08981909 0.22708783 0.0095423
0002f0 c5 66 29 3e 15 1c fd bd 8b 81 8b bd 7f d0 19 be
       0.1654311 -0.12358872 -0.06811818 -0.15020941
000300 84 77 23 3e f8 63 fa 3c 0e 15 0d be a5 7a cc 3c
       0.1596356 0.030565247 -0.13777563 0.024960825
000310 de fc 07 be 36 80 96 bc b7 78 8c 3d 0c 60 cf bd
       -0.13280055 -0.018371683 0.06858962 -0.10125741
000320 c0 06 23 3d 54 ab 0c be 48 7f 7f 3d a1 d4 53 be
       0.03980136 -0.13737231 0.062377244 -0.2068658
000330 6a 6a 32 3d 41 a0 3f 3e 04 30 1e 3e a2 62 43 3d
       0.043558516 0.18713476 0.15448004 0.047701485
000340 71 90 1d 3e ab 54 32 3e be d8 6d 3d 8c 73 b5 3d
       0.15387131 0.17415111 0.05806803 0.088599294
000350 a9 28 01 3d bb f0 40 3e a0 1f f3 3d 61 3e e7 bd
       0.031532917 0.18841831 0.11871266 -0.11291195
000360 20 fc 0d bd 71 10 dd bd 6f 20 aa 3d 21 f6 47 be
       -0.034664273 -0.107941516 0.083069675 -0.19527484
000370 52 1b f5 3c bc 0e a5 bd 81 87 9c 3d 04 f7 75 3d
       0.029920254 -0.08059451 0.07643033 0.060050026
000380 82 c6 c5 bd 2c 30 cc 3d 72 c3 df 3d d3 2c 3a be
       -0.09657003 0.099701256 0.1092595 -0.18181162
000390 f2 67 5d 3e 2a 3e 22 3e c7 2c c3 3d dc 65 42 bd
       0.21621683 0.15844026 0.09530025 -0.047460422
0003a0 27 5b 91 3d 14 a9 09 be c2 1a 8b bd cf 32 f3 3d
       0.07097464 -0.13443404 -0.06792213 0.11874925
0003b0 be 17 ca 3d 3f e1 b4 3d 91 af 80 be c8 3b 1d 3e
       0.0986781 0.08832025 -0.25133947 0.15354836
0003c0 61 40 e6 bd 57 34 33 3e 4d 59 37 3e 3a 0a ac 3d
       -0.11242748 0.17500435 0.1790516 0.08400388
0003d0 69 3e 22 3e 37 fc b4 3d ca 58 f4 3d 36 d6 8a bd
       0.1584412 0.08837169 0.11930998 -0.06779139
0003e0 fc ca 44 3e 6f fb 31 3d 2a 27 13 3e ed 3a 69 bd
       0.19218057 0.043452676 0.14370409 -0.05694096
0003f0 0e 5d 21 3e 39 e9 2a 3e e1 82 40 be 07 63 10 3e
       0.15758154 0.1669053 -0.18799926 0.14100276

graph_attention.qkv_proj_high.bias f4 [48]
000000 27 79 27 3e ab 69 fa bd 4e 8f 30 be 9a f8 af bc
       0.1635481 -0.12227186 -0.17242166 -0.021480847
000010 b9 b5 34 be a7 df ad 3c e3 5f 49 bc 5d 2b b9 bd
       -0.17647447 0.02122481 -0.012290928 -0.09041474
000020 36 28 02 3e 7d 2e 05 3e 3f f6 37 be 6e b4 25 be
       0.12710652 0.13006015 -0.17965029 -0.1618211
000030 9f 52 04 3e 63 00 d8 bd 04 e2 67 3d c2 75 2a bd
       0.12922142 -0.10546949 0.05661203 -0.04161621
000040 c6 0c b2 3d a0 0b 05 be cd 91 d2 bd 95 d2 91 bd
       0.086938426 -0.12992716 -0.102817155 -0.071202435
000050 ee 2c de bd f3 a3 d7 bd 09 60 e0 3c 95 9c 0b 3e
       -0.108484134 -0.10529318 0.027389543 0.1363395
000060 09 50 7b bc 72 0a 9c 3b 9a 21 22 3e 54 53 29 3e
       -0.015338906 0.0047619874 0.1583313 0.16535693
000070 c6 7d 0a bd 8c 75 1c be 6d 74 23 3d 1f 46 c9 3c
       -0.033811353 -0.15279216 0.039905954 0.02456957
000080 be bc 21 be 90 15 39 be fe ae a4 3c 53 0c 51 3e
       -0.15794656 -0.18074632 0.020102974 0.20414858
000090 cd 04 55 be 94 0b c4 bd d8 64 b8 bd 25 f4 35 be
       -0.20802613 -0.09572521 -0.090036094 -0.17768915
0000a0 43 76 f1 bd 32 75 2d 3e d9 43 1e 3e a5 a2 0e be
       -0.11790135 0.16939238 0.1545557 -0.13929231
0000b0 56 6e 24 bd cd ba 1b be 32 de df 3d 64 ef 1d be
       -0.040144287 -0.15207978 0.10931052 -0.15423352

graph_attention.out_proj_low.weight f4 [8, 16]
000000 5a 37 e3 bd 72 31 0e be 8c 51 33 3c 6d 67 2a 3e
       -0.11094542 -0.1388605 0.010944735 0.16641016
000010 a6 f1 08 be 9f fa 10 3d 52 c3 45 3e 0a e6 17 bd
       -0.13373432 0.03539526 0.1931279 -0.037084617
000020 8c 3f be 3c 65 a9 6d 3c 04 8e f7 bb 85 80 15 3e
       0.02322366 0.014505719 -0.0075547714 0.14599808
000030 ab 2b 10 3e 28 8e 08 be 43 31 79 3e be 47 28 3e
       0.14079158 -0.13335478 0.24335198 0.16433617
000040 1f 7d 57 bd ca ea 7a 3e dd 5c 0d 3d 63 09 27 3e
       -0.05260956 0.24503627 0.03451239 0.16312174
000050 14 f9 3e be 29 c3 69 3e dd 29 6d 3e 73 09 2d be
       -0.18649703 0.22828354 0.23160501 -0.16898136
000060 15 86 69 be be bd a2 bd 3c 78 1e be 86 73 a4 3d
       -0.22805054 -0.07946347 -0.15475553 0.08029847
000070 3a 02 f4 3d c4 70 d6 bc 23 6e 3a 3e e4 c6 64 bc
       0.11914487 -0.026176818 0.18206076 -0.013963435
000080 9a 26 88 bd b5 3f 5e be c5 3c d0 3d 3f d3 79 be
       -0.06647988 -0.2170399 0.10167841 -0.2439699
000090 01 12 a7 3c e9 c4 3b 3d 5e 6b 07 be a5 4e bf 3d
       0.020394327 0.045842085 -0.13224551 0.09341172
0000a0 52 79 62 3d 00 c3 29 3e b7 6c 19 3e 43 9f 54 be
       0.05529148 0.16578293 0.14982878 -0.20763879
0000b0 d0 44 38 be ea 7a b2 bd 86 bb 51 be 83 75 9c 3d
       -0.17995 -0.0871485 -0.20481691 0.07639601
0000c0 47 eb 1f be c8 52 40 be d2 c1 9d 3d 21 24 1a 3e
       -0.15617095 -0.18781579 0.07702984 0.15052845
0000d0 9e 7c 26 bd da ad 6e be 16 cd 0c 3d 67 b7 10 3e
       -0.040646188 -0.23308507 0.034375273 0.14132462
0000e0 23 f9 45 3e 05 26 67 3c 8c 2e 29 3e df b4 50 be
       0.1933332 0.014108186 0.16521662 -0.20381497
0000f0 57 71 6d 3e 56 82 17 be 12 07 4b be d5 49 55 3e
       0.23187767 -0.14795813 -0.19826916 0.20828946
000100 b3 a5 3b bd d6 f7 25 3e e7 c5 27 be ba e2 42 3e
       -0.04581232 0.16207823 -0.16384088 0.19031802
000110 30 8a 85 3e e1 29 b4 3d 82 56 4b 3e 0a 5d 21 be
       0.2608199 0.0879705 0.19857219 -0.15758148
000120 07 03 1b bd 7d 15 7b 3d a0 d3 08 3e 7f 6f f8 bd
       -0.037844684 0.06129979 0.13361979 -0.12130641
000130 d6 60 22 3e 3c 57 92 bd 3b a5 23 be 29 61 93 3d
       0.15857252 -0.07145545 -0.15980999 0.07196266
000140 3e f4 5c be 7d 94 69 be f2 9d a4 3d 66 a3 ba 3d
       -0.21577546 -0.2281055 0.08037938 0.09113197
000150 2a 29 cd 3d e2 03 bb bc 33 6d 31 be 79 13 47 be
       0.10017617 -0.022829 -0.17326812 -0.19441022
000160 8f 92 72 3e 89 e2 59 be f9 6b 9b 3d 9e 97 4d 3e
       0.2368872 -0.21277823 0.075889535 0.20077369
000170 a2 87 3a 3e 0d c0 22 be 2f 92 a2 bd 17 f6 44 be
       0.18215802 -0.15893574 -0.079380386 -0.19234501
000180 2f d9 19 3e 27 c2 7b be a7 50 66 be f7 11 21 be
       0.15024255 -0.24585782 -0.22491704 -0.1572951
000190 9d e9 53 3e 89 b4 27 3e 47 78 27 3e 76 da 2f 3e
       0.20694585 0.16377462 0.16354476 0.1717318
0001a0 ee 15 fc bd 67 27 18 be 7d fa 22 be 66 8b bf 3d
       -0.1230887 -0.14858781 -0.15915866 0.0935276
0001b0 ed a2 a5 3d 61 25 7c 3d a6 1f 44 be 30 e1 2b 3d
       0.08087716 0.061559085 -0.19152698 0.041962802
0001c0 de 45 06 be b5 13 b0 bc 4b fd b1 bc 2e aa dd 3c
       -0.1311259 -0.021493772 -0.021727225 0.027058687
0001d0 d2 32 5f be 49 68 51 3e f1 dc e6 bd 34 e2 8f 3d
       -0.2179673 0.20449938 -0.1127261 0.07025567
0001e0 7d 1d 40 3e 82 c7 ca 3d de 9d 44 3e d2 93 0d 3e
       0.18761249 0.09901334 0.19200847 0.1382592
0001f0 61 66 31 3e bc 3a 39 3d ea 95 4f 3e 3c f6 10 be
       0.1732421 0.04522203 0.20272031 -0.14156431

graph_attention.out_proj_low.bias f4 [8]
000000 b1 50 0b be 13 0e cb 3d b0 8f 72 3d 4f e1 13 bd
       -0.13605 0.09914794 0.059219062 -0.036103543
000010 f5 a0 72 be 5f 3c b0 3d 1a 12 19 3e a7 64 c0 bc
       -0.23694213 0.08605265 0.14948311 -0.023485495
