save/MSTAGAT-Net.region785.w-20.h-5.none.pt (torch, 148105 bytes, 64 tensors)

feature_extractor.depthwise.weight f4 [1, 1, 3]
00000000: c67b 873e 90a9 9b3e fb54 59be
0.2646162 0.30402803 -0.21223824

feature_extractor.pointwise.weight f4 [16, 1, 1]
00000000: 085f 08bd 29a9 013d d559 0abe 56e2 5a3e
00000010: a4a8 f23e b1d6 adbe 4ed1 ec3e 2c96 b83c
00000020: 1f32 b03e cfb4 be3c 40af 063e 8852 ffbc
00000030: 3ee7 be3e 205e 623c 33ff f6bd c28f 9b3c
-0.033293754 0.031655464 -0.1351083 0.21375403 0.47394288 -0.3395286 0.46253437 0.022532545
0.3441324 0.023279576 0.1315279 -0.031167284 0.372858 0.013816386 -0.12060394 0.018989448

feature_extractor.pointwise.bias f4 [16]
00000000: ceda edbd 7ad6 6bb5 69f9 a2bd ab4f 8e3e
00000010: 6372 c7be ad40 eebd 7150 97bc 3abd 66be
00000020: 2d0f d233 96b2 12bf e6e4 fc3e 3f84 e3be
00000030: 1e6e bf3e be48 9339 6bb8 0fbd a201 753e
-0.11613999 -8.7856426e-07 -0.079577275 0.27795157 -0.38954458 -0.1163343 -0.018470975 -0.22533122
9.7816475e-08 -0.5730375 0.49393386 -0.44436833 0.373887 0.00028092222 -0.035087984 0.23926404

feature_extractor.bn2.weight f4 [16]
00000000: 2eb4 263f bfe8 233f 483e 1e3f 73ee 1c3f
00000010: f16c 223f 89f2 203f 3361 283f 1236 1c3f
00000020: c66a 283f 315f 203f 5856 233f 9224 1f3f
00000030: 6bbe 2b3f 1e91 1d3f 35f1 263f 5f51 1f3f
0.6511868 0.6402702 0.61813784 0.61301345 0.6344748 0.6287008 0.65773314 0.61020005
0.65787923 0.6264525 0.63803625 0.62165177 0.6708743 0.61549556 0.652118 0.6223354

feature_extractor.bn2.bias f4 [16]
00000000: d6de b83b cf5f 05bb a96d d73b e027 213b
00000010: 0302 68bc 3001 c73b 5dcc 903b b40e e83c
00000020: d67c c83b 2ebb cd3c 2c47 8b3d 7d7c 433c
00000030: 8ebb 923c eb44 773c cae5 50bb 998b 803c
0.0056417985 -0.0020351296 0.006574352 0.0024590418 -0.014160636 0.0060731396 0.0044188933 0.028327323
0.006118397 0.025113668 0.06800684 0.011931536 0.017911699 0.015092115 -0.0031875246 0.015691565

feature_extractor.bn2.running_mean f4 [16]
00000000: 1b93 02be f850 d23b 3bea e3bd 47f3 a73e
00000010: 17ed 99be c06f 42be e177 963d ad2e 68be
00000020: e52b 8f3d ca73 13bf 244c 073f ba7e eabe
00000030: f6b3 e93e 4808 533b cffd 7fbd aeb4 7f3e
-0.12751429 0.0064183436 -0.1112866 0.32802793 -0.30063698 -0.18987942 0.07347084 -0.22674055
0.06990794 -0.57598555 0.52850556 -0.4579981 0.45645112 0.003220098 -0.06249791 0.24971268

feature_extractor.bn2.running_var f4 [16]
00000000: 3e9c ac39 c702 9939 c6e6 b43b 9a54 5e3c
00000010: 5e62 853d 1d22 0a3d 463b 7e3d e386 1639
00000020: 81d9 0d3d 6c17 2439 e3bc ab3b 1ef3 9839
00000030: 1024 263d 58f1 7338 a2d3 903b cfd3 1139
0.00032922806 0.00029184503 0.0055206744 0.013569975 0.06512903 0.03372394 0.062068246 0.00014355364
0.034631256 0.00015648984 0.005241023 0.00029172836 0.040561736 5.8160484e-05 0.00441976 0.00013907182

feature_projection_low.weight f4 [16, 320]
00000000: d8d0 853c a12e d33c e0e3 b03b 4cd6 803b
00000010: 7606 9d3c 900c ab3a a6c1 683c 12a3 063d
00000020: 5d02 de3c 4573 babb bd1a ab3c a364 d53b
00000030: cc63 953c 4d0b 56bc 0f4a 60bc 9cac 473b
00000040: 82eb 78bc 9bdc 253d 0aab a13c b258 b03c
00000050: e3ab 2a3c bea3 b23c 41e9 293d eb90 053c
00000060: 6452 af3b 7f39 d1bb e0f6 053d 0cb6 0cbc
00000070: 1838 e73a 277d c8ba cb6b 7b3c f5b1 54b9
00000080: 962d 9e3b 01bc 3c3c cde2 ec3c c871 0e3d
00000090: dc10 533d bfc2 83bc 3822 63bd 0565 6cbd
000000a0: 3902 3abc 9649 473c 482e 923a 669a 0e3d
000000b0: 67ef 403b c00a 78bc 9d27 823c 0a46 8e3b
000000c0: a5be f63c 3299 42bb 9efe 8a3c 10a9 5cbc
000000d0: 5844 4dbc e359 713c 7b45 3d3c b0cd b53a
000000e0: 057c e13c 8967 0f3d ec2e 803b bb79 9a3b
000000f0: af49 2f3c 0479 363c e76b 403c 753e 953b
00000100: 47f5 3bb8 e494 bc3c a378 d73b ea64 97bc
00000110: 9db1 13bc 9674 34bb 6300 09bc 3e0a aa3b
00000120: 16a7 523a 4068 233b 6f5a 023d 9f58 c93c
00000130: b0c6 ef3c d1dd 9abc 5b1f 16bd dff6 25bd
00000140: 1e87 d63b d8cc acba 0009 163c 241e f13b
00000150: fe9c 343c 4fa5 d93b cfe2 9f3c 77f3 83bc
00000160: 904f 9dbc c24c c5bb 517c 0d3c 85c8 1bbc
00000170: 9cac d23c e092 4c3c 73e0 d13c c582 0a3d
00000180: 9549 43ba 243a d23c d555 10bd cf6d 30bd
00000190: e04a 9fbc 3dbf 7bbc 513e 493c ccf7 ea3b
000001a0: f8e0 b73c 455e 7ebc b301 fc3c e2ac b2bb
000001b0: 1fbc 253b 9264 883c aa11 cd3c f6f4 e03c
000001c0: 7e5c b23c 48f8 65bc 8e65 603c 1254 aebb
000001d0: e552 0a3c 8453 2d3c d120 063d bab7 1ebb
000001e0: be8e 893c 6b45 043d dd6c 103d ab6f 503c
000001f0: 58c0 133d 6b46 023d 0988 bb3c c12d 03bd
00000200: ca69 da39 eb79 0f3c 4010 61ba 5c36 ae3c
00000210: 0d47 a23c 63be 0b3c 32f5 433c 8058 cd3c
00000220: 903e 293d 6584 253b 9152 2cbd a585 dfbc
00000230: 92e9 153c 4abc 063d f051 193d c8a6 ecbb
00000240: f16c 703c 70e8 2c3d 7bd7 b33c 337a 86bc
00000250: 6a0a c03b 9012 603c 2af2 343c 59c0 453c
00000260: 29b6 2a3c b35d 963c cabb 533c f1eb 853c
00000270: 0b6e d33c ed59 1d3d 1021 a8bc ce08 01bd
00000280: a5cd 4b3c 7a1f b23c e8a2 d43c e64b ec3c
00000290: bd38 31bc 242e 833b 87d7 303d ed2b d63b
000002a0: 3ebd 32bc da3c 60ba f686 63bb 5c96 c8bb
000002b0: df6f 7e3b 80f5 de3c f401 c93c 5df7 053d
000002c0: 0c0e aa3b 4cc9 65bb 627a 4abc b924 df3c
000002d0: b602 003c 3377 2c3c c41e 033d a2ad 583c
000002e0: 2371 39bb 95a2 213d b457 88bb 7a31 efbb
000002f0: 6d52 a6bc 9562 853c 38d2 803c 0143 063c
00000300: 4142 6f3b ba30 4c3b 4091 293c ee2d 533d
00000310: a025 013d 5381 173d cde1 183c 6a59 08bb
00000320: d5e3 3f3c 1876 843b 9e8d 403b ccee b9bb
00000330: 5d6f a43c 6738 9eba 5d70 4e3c 7a86 5bbc
00000340: 04ef c1bb b760 08bc c7fb f6bb e588 9d3c
00000350: 3a74 563c 43c8 ff3c 603c 113c b4f3 e43b
00000360: ebf6 603c a70e 453c 30b5 c2bc be04 8cbd
00000370: 28af ff3b 85b1 a5bb 56b1 9b3c 843d b93c
00000380: 2013 f63c ae7f 72bc c4a4 a93c 3bbe d13b
00000390: d1ae 993c d1ad e63c 6f3b d53b 2a04 8a3b
000003a0: c676 8039 9f61 8fbc 288b 7d3c a628 62bc
000003b0: 5117 d53c 11c7 113d 69c7 143d f0b2 2b3c
000003c0: d4b9 b33b e23e 0e3d 97d6 083d 8c90 5c3a
000003d0: 0d04 413b 22cd dcb7 9b82 983c f034 49bc
000003e0: 71d3 89bc b9c9 1bbb ec7a 40bc d356 b33c
000003f0: 2004 c53c 14f1 653c 362c 9b3c 66e3 b93c
0.016334936 0.02577907 0.0053982586 0.003931796 0.01916812 0.0013050009 0.014206326 0.03287036
0.027100736 -0.0056900107 0.020886773 0.006512241 0.018236063 -0.013064218 -0.013689532 0.0030467873
-0.015192868 0.04049359 0.019734878 0.021526668 0.010416958 0.021806594 0.041482214 0.008152227
0.005350398 -0.006385028 0.03270614 -0.008588325 0.0017640619 -0.0015296087 0.015345524 -0.0002028419
0.0048272116 0.011519433 0.02891674 0.03477648 0.05152975 -0.016084073 -0.055452555 -0.057713527
-0.011353069 0.01216354 0.0011152709 0.034815215 0.002943957 -0.015139282 0.01588803 0.0043418454
0.030120203 -0.0029693362 0.016967114 -0.013468042 -0.012528501 0.014730903 0.01155221 0.0013870504
0.027524957 0.03501085 0.0039118435 0.0047142184 0.01069872 0.011137251 0.011744476 0.0045545646
-4.4812707e-05 0.023020215 0.0065756603 -0.018480737 -0.009014514 -0.002753531 -0.008361909 0.0051892092
0.0008035762 0.0024933964 0.031824525 0.02457839 0.029269546 -0.018904598 -0.036650997 -0.040518638
0.006546869 -0.0013183607 0.009157419 0.0073583294 0.011023758 0.006642021 0.01951733 -0.016107304
-0.019202977 -0.006021113 0.008635596 -0.009508257 0.025717072 0.01248619 0.025619721 0.033816118
-0.0007449624 0.02566249 -0.035238106 -0.04307347 -0.019444883 -0.015365419 0.012282924 0.007170653
0.02244614 -0.015525405 0.030762529 -0.005452738 0.002528913 0.016649518 0.025032837 0.027460556
0.02177262 -0.014036246 0.0136960875 -0.0053200806 0.008442615 0.010578994 0.03274614 -0.0024218396
0.016791698 0.032292765 0.03526007 0.012721936 0.036072105 0.031805437 0.022892015 -0.032026056
0.0004165902 0.008757095 -0.000858549 0.021266155 0.01980927 0.008529278 0.011960315 0.025066614
0.04131943 0.0025255915 -0.04207093 -0.027285406 0.009149926 0.03289441 0.037431657 -0.0072220303
0.014674411 0.042213857 0.021953335 -0.016415691 0.0058606165 0.013676301 0.011044065 0.012069785
0.010419407 0.018355226 0.01292319 0.016347857 0.025809309 0.038415838 -0.020523578 -0.031502537
0.012439166 0.021743525 0.025956586 0.028844785 -0.01081675 0.004003303 0.043174293 0.006535998
-0.010909377 -0.00085539895 -0.0034717894 -0.00612144 0.0038824005 0.027216673 0.024537064 0.032706607
0.005189663 -0.003506261 -0.01235828 0.02723919 0.007813146 0.010526466 0.032011762 0.013224991
-0.0028296195 0.03946169 -0.0041608457 -0.0072995992 -0.020302976 0.01628236 0.01572524 0.008194686
0.0036507996 0.0031156973 0.010349572 0.051557474 0.031530023 0.036988568 0.009331179 -0.0020805248
0.011712034 0.004042398 0.0029381285 -0.0056742188 0.020072633 -0.0012071253 0.012600032 -0.013398761
-0.0059183855 -0.00832384 -0.0075373384 0.019230315 0.013089234 0.031223422 0.008864492 0.0069870595
0.013730745 0.012027419 -0.023768038 -0.06836842 0.0078028627 -0.0050565624 0.019005459 0.02261234
0.030038416 -0.014800949 0.02070845 0.006400851 0.018760117 0.028159054 0.006507329 0.004211922
0.00024502556 -0.017502604 0.015475072 -0.013803637 0.026012095 0.035590235 0.036322985 0.010479674
0.005484799 0.03472794 0.033407774 0.0008413873 0.0029451877 -2.6321566e-05 0.018616965 -0.012280688
-0.016824456 -0.002377136 -0.011748057 0.021891987 0.024049819 0.014034528 0.01894198 0.02269144

feature_projection_low.bias f4 [16]
00000000: e553 9b3c 30dc 24bb febc 0f3d 2dce 1cbc
00000010: 0450 01bc 7054 36bd 7ca7 5ebc a39d 39bc
00000020: 6c41 1a3d 4e94 ec3c 10d8 2bbd 8b7a f7bc
00000030: f045 463d b2ea 9abc 383f cb3c ba17 253d
0.018960902 -0.0025155656 0.035092346 -0.0095706405 -0.007892612 -0.04451412 -0.013589736 -0.011329087
0.037660047 0.028879311 -0.0419541 -0.0302098 0.04840654 -0.01891074 0.024810418 0.04030583

feature_projection_high.weight f4 [32, 16]
00000000: 24d5 67bd 84da b6bd 2da3 713d 5afd 843d
00000010: 2836 953d 0ce6 233d 304b 863d 1945 f2bd
00000020: 44ae 5f3c 560f cf3c 4c95 a43d 77cc 23bd
00000030: 84c5 e2bb 5d87 e5bd 9a18 f3bd 2377 a83d
00000040: 37bb c43c edbe 823d 076f 22ba 820c 94bb
00000050: c6e4 4e3c a731 783d c2fe 03be fbcd 0b3d
00000060: a910 933d 538d c63d 4741 70bd f907 b13d
00000070: 7fee c1bd b300 a63d e1cb 1f3e 2e84 a63c
00000080: bbf9 253d cba7 97bd d36e f4bc 6895 04bd
00000090: 1bd6 adbd 747b 10bc ac93 a53d cfd8 62bc
000000a0: 1425 363d 2a76 99bd 19a7 433d b460 373d
000000b0: 4559 083e 5e75 8dbd 5949 f9bd 71bc 46bd
000000c0: 29d0 203e 8d6b 033c 2aa2 303e 0df8 babd
000000d0: abb8 b5bd 9b11 c73d 0837 653d 9f58 b9bd
000000e0: 54a6 dd3d 2015 a9bd 026d 20be 3fc0 eb3c
000000f0: 8743 bfbd aa2b bfbd a77b ccbd b835 c63c
00000100: 13a2 5e3d 957e 623d 8b2c 4fbd a617 17bc
00000110: 20d4 b33d aa97 39bd e88d 7abd f5d6 d0bc
00000120: c6db 38bd 1947 88bd ac37 a43d b517 b3ba
00000130: 231d d43b a55a 8b3d ee59 b23d 00af a83d
00000140: a9b8 f33d 0591 a53c 68b7 0d3e 11e2 893d
00000150: 1770 c63c 9a27 42b9 9708 92bd 20b1 a6bd
00000160: 112f e23d 5824 a2bd 8e1b 62bd 6018 e3bd
00000170: 645d b8bd 4d92 513d 5a3c 523d 2323 e8bd
00000180: 8419 c63b 4efe b0bc aab1 413b a9f9 8f3c
00000190: 7f10 4ebc f6ab 05bd 5da2 7c3d 526c 88bc
000001a0: baf1 82bc 41b8 84bc 89ad 223d ea9f 963c
000001b0: af01 7dbc cb5f f33c a94b 5c3d 35d1 023d
000001c0: e19a 13be cf0d 44bc 80dc 233e eb51 0d3e
000001d0: 10a8 65bd 9b99 f93d 1516 16be 2a37 3d3d
000001e0: 41d8 083e 139d be3c c83d 23be 11ed f33c
000001f0: db26 c33d 786a 103e eb1f ccbd c4ab 36bc
00000200: 2b29 88bc 4b95 54bb 8bc2 f7bc 6e4d e2bc
00000210: 468c 8e3b 4d67 2e3d 2d5b 04bd bca1 e63d
00000220: 82ad 5cbb 5e74 163d 0c01 503c b8e8 bbbc
00000230: 1936 3dba d094 debc c25f d13c 81bb 78bd
00000240: 9c8a 51bd 3ad0 24bc 45d4 44bc e852 263c
00000250: 296f 1f3d 9fe8 26bd eb2b a4bc af18 473c
00000260: 4036 6bbc ff22 a43c 0a57 72b9 0f00 33bd
00000270: bb01 0d3b dfb0 1ebd 722a 213c 9778 40bd
00000280: 49c2 f13d 3b31 a03a f6f5 bd3c c41c 6bbd
00000290: 4421 d4bd 9ab3 563d 2e55 de3d 120b 4e3b
000002a0: dcf6 b7bd 27ad e6bc 6bbb e3bd a7c5 4f3c
000002b0: b2b7 413b ee5b 8e3d 0ba9 f43d 5726 52bd
000002c0: adb4 133e 489c fa3d 639e 863c 2d88 1cbe
000002d0: 80d0 d9bd 5954 a63d 9636 0f3e 377d 9b3d
000002e0: ca6d 963c 4abf 62bd 35bc 2cbe 47dd a4bd
000002f0: a69d e1bb ad79 3a3c 2e3c 293e bc44 9fbd
00000300: 60d9 8b3c b483 5e3c 7bba acbc 733d 31bc
00000310: 395b 43bc 76e4 973c 353e 1b3d 107d 22bb
00000320: bcbe 243c 50aa ed3c 84cd 0c3d 4fbd aabc
00000330: b3d0 71bc b014 6ebb 2e4b c0bb 975c a93b
00000340: 4943 e83d 1c8f 8c3d 1797 14bd 951e 3bbd
00000350: c1a3 babb 9136 483c e260 c43d d52f 663c
00000360: 99a6 80bc f8a1 313d 3202 ad3d a135 643d
00000370: 4864 30bc 04b1 cbbd b7ed b43d 983a 8c3c
00000380: c1c7 9bbd 4164 9ebc 1af3 473d 54ce cbbb
00000390: 50d4 d9bb 1382 b13c d2ee b93d 904b 56bb
000003a0: 9fd3 1abd f4f8 cebc f700 21bd 596d 9a3c
000003b0: 9767 8bbd c25a b03d 7d51 41bb 539c acbd
000003c0: c407 8d3d 3e8b 79bb 8b9a 203e 6f40 3cbc
000003d0: 5126 a93b 029b 9dbd 9293 d6bd e7cb b8bb
000003e0: 5b55 693d 7aa9 77bd 2f77 093d d496 62bd
000003f0: 7b0f 97bd d705 a9bc 3d4c c5bc 3626 cfbd
-0.05659975 -0.08928397 0.058993507 0.064936355 0.0728572 0.04001431 0.0655731 -0.118295856
0.013652388 0.025275867 0.080362886 -0.039989915 -0.0069205184 -0.11207459 -0.11869927 0.082258485
0.024015052 0.063840725 -0.0006196354 -0.0045180926 0.012627786 0.060594227 -0.12890151 0.034131985
0.07180912 0.09694924 -0.058656003 0.08644099 -0.09469318 0.08105602 0.15605117 0.0203267
0.040521365 -0.07405051 -0.029838001 -0.032369047 -0.08488103 -0.008818496 0.08084807 -0.0138456365
0.044468954 -0.07493241 0.04776678 0.044769958 0.13315304 -0.06907152 -0.12172193 -0.048519555
0.15704407 0.008021248 0.1724936 -0.09129343 -0.08873113 0.09720155 0.055960685 -0.09050106
0.1082274 -0.082559824 -0.15666583 0.028778194 -0.09339052 -0.093345 -0.09984522 0.024195537
0.054353785 0.0552965 -0.05057959 -0.009221947 0.08780694 -0.045310654 -0.06117049 -0.025493124
-0.045131467 -0.06654186 0.08018431 -0.0013663681 0.0064732 0.068043984 0.08708559 0.082365036
0.119004555 0.020210752 0.13839495 0.06732572 0.02422337 -0.00018516034 -0.07130545 -0.08139253
0.110441335 -0.07917088 -0.05520206 -0.110886335 -0.09002188 0.051164914 0.051327087 -0.11334827
0.006045522 -0.021605637 0.002955536 0.017575102 -0.012577175 -0.032634698 0.06167828 -0.016653214
-0.015984405 -0.01620114 0.039716277 0.0183868 -0.015442296 0.029708764 0.053783093 0.031937797
-0.1441455 -0.011966183 0.16002083 0.1380078 -0.05606848 0.12187501 -0.14656861 0.046195187
0.13363744 0.023268258 -0.15941536 0.029776128 0.095288955 0.14103115 -0.09967025 -0.011149351
-0.016621193 -0.0032437618 -0.030244133 -0.027624812 0.004350218 0.042578984 -0.032313515 0.11261317
-0.0033672755 0.03673207 0.012695562 -0.022938117 -0.0007217839 -0.027170569 0.025558356 -0.060725693
-0.05115758 -0.010059411 -0.0120135 0.010151602 0.03892437 -0.04074919 -0.020040473 0.012151881
-0.014356196 0.020036219 -0.00023111343 -0.043701228 0.0021515924 -0.038742896 0.00983678 -0.046990003
0.11804635 0.0012221703 0.023188572 -0.05740048 -0.103579074 0.052417375 0.108560905 0.0031439704
-0.089826316 -0.028158737 -0.111197315 0.012681401 0.0029558954 0.06951128 0.11946305 -0.051306095
0.14424391 0.122368395 0.016432947 -0.15286322 -0.10635471 0.08121557 0.13985667 0.07592242
0.018362898 -0.05535821 -0.1686867 -0.08050018 -0.0068852482 0.011381549 0.16526863 -0.07776782
0.017071426 0.013581205 -0.021085015 -0.010817873 -0.011923605 0.018541556 0.037901122 -0.0024793781
0.01005524 0.029011875 0.034375682 -0.020842222 -0.01475923 -0.0036328249 -0.005868337 0.0051685083
0.113409586 0.068632334 -0.036276903 -0.045683462 -0.0056957905 0.012220041 0.095887914 0.01404949
-0.01570444 0.043367356 0.08447684 0.055715207 -0.010766096 -0.099458724 0.08834403 0.017117783
-0.076064594 -0.019334914 0.048815824 -0.0062196646 -0.006647624 0.02166847 0.090787545 -0.0032698847
-0.037799474 -0.025265194 -0.03930756 0.01885097 -0.068068676 0.08611061 -0.0029498034 -0.08428254
0.06886247 -0.003807738 0.15683953 -0.011489972 0.0051620384 -0.07695581 -0.104773656 -0.0056395414
0.056966167 -0.06046436 0.033560928 -0.055319622 -0.073759995 -0.020632667 -0.024084205 -0.1011471

feature_projection_high.bias f4 [32]
00000000: 446b 16be 16aa ee3d f233 a3bc 7c35 013e
00000010: e7c7 ad3d 2e9e 39bc 95b6 d73b 9be9 babd
00000020: 5172 3b3d f9fe 66bd c2bb d3bd dbc8 3e3e
00000030: 91a1 b4bc 1d6d 173e 91bc 773d 793a 0fbd
00000040: 83b9 cfbd 9bf0 1a3e fc56 653d de45 4a3e
00000050: f7f6 36be 6ced 333d 257a dcbd a1fc a9bc
00000060: 6b61 59be 343a 57be 817e dc3c 05e8 453e
00000070: 1e11 8c3c 5ef0 99bc 843b 2f3e 51ed 1a3d
-0.14689356 0.11653535 -0.01992223 0.12618059 0.08485394 -0.011329217 0.006583045 -0.09126588
0.045763317 -0.056395505 -0.10338546 0.18631308 -0.022049697 0.14787717 0.060482565 -0.034967873
-0.101428054 0.15130846 0.055991158 0.19753215 -0.17867647 0.043927595 -0.10765485 -0.020750346
-0.21228568 -0.21018296 0.02691579 0.1932679 0.017098006 -0.018791374 0.17112547 0.03782398

feature_norm.weight f4 [32]
00000000: 837b 1b3f 58ca 203f 1d48 173f a6f0 2f3f
00000010: 242a 1f3f ebea 203f 6c49 173f b0bb 3d3f
00000020: 93b5 173f 38b1 163f ff89 1b3f 29ee 2c3f
00000030: f4a7 153f e8ac 1a3f e960 1b3f e89b 1b3f
00000040: a1be 193f 37b4 1d3f 9a62 1b3f 76f7 203f
00000050: 7255 283f 57e5 1e3f 253b 163f 95d7 153f
00000060: f588 3f3f d1e5 2e3f b3ce 273f 0098 1f3f
00000070: 7559 193f 4089 263f 21da 193f e5d8 1b3f
0.6073534 0.6280875 0.5909441 0.68726575 0.62173676 0.62858456 0.5909641 0.74114513
0.59261435 0.58864164 0.6075744 0.67550904 0.584594 0.60420084 0.6069475 0.6078477
0.600565 0.6160311 0.6069733 0.62877595 0.6575538 0.62068695 0.58684 0.5853208
0.74818355 0.6831942 0.6554977 0.6234131 0.59902126 0.65053177 0.60098463 0.6087783

feature_norm.bias f4 [32]
00000000: 2f9f 3e3c cf9e 0fbb f250 a23b 37ae 7bbb
00000010: e623 cbbc 7f7f 6abc d39d 13bc 097c d83b
00000020: 2a4a 18bc 37a4 29b9 239d 0f3b a16c 2abb
00000030: 070b 77bc 710e 21bc 7d5c a2bc 4ac7 7b3c
00000040: 56a4 b837 087f dcba 433e 823c 9b19 c83b
00000050: 71aa 0e3c 9838 bfbb 8044 193c 8a04 1ebb
00000060: 2ca2 143b 56e7 a83b edbb 463b 7a38 943c
00000070: 4d8c 9cbb f0e3 ed3b 636d 043c 804f 613b
0.011634632 -0.0021914726 0.004953497 -0.00384034 -0.024797391 -0.014312624 -0.009009796 0.006606583
-0.009295026 -0.00016178271 0.002191373 -0.002600469 -0.015078313 -0.009830103 -0.019819492 0.015367338
2.2011034e-05 -0.0016822526 0.01589883 0.006106568 0.008707629 -0.005835604 0.009354711 -0.0024111592
0.002267967 0.0051545305 0.0030324415 0.018093336 -0.0047774673 0.0072598383 0.00808272 0.003437966

spatial_module.u f4 [4, 10, 16]
00000000: 61ff 932e 8815 a637 56f9 852a ef9c ad29
00000010: 1d52 87ae 389d 65aa ad12 aab7 1841 f6b6
00000020: e70d efab 7b05 c4b5 bf69 a9ae fc07 e634
00000030: 2b75 a92c 872e 04ad 5656 6db8 7889 bd2d
00000040: 5e30 23b4 5a95 e4b8 5972 182d 5ed2 2ea9
00000050: 5c3b f038 d4d1 0d2c fd0d 8532 be21 b9b7
00000060: 32e7 75aa f4d0 942f 2c0f 1aab 8b92 82b2
00000070: 6ac5 a237 1ed1 a32a e09d 2432 2a33 932f
00000080: cc05 54b1 9cd8 cb2b 3f5f 522a ea38 21b9
00000090: 0cfa 85af 97f5 1db1 371d e6aa 7970 722b
000000a0: deeb 5cad a982 0029 f31f bea9 3621 a9ab
000000b0: f275 ff29 4815 e438 3562 ecb1 129c 482b
000000c0: fb5b 21b8 5ce5 cfad c4d5 8fac 8952 0332
000000d0: bd98 00ac ea62 06aa 5e3a a630 a1f1 632a
000000e0: 57f4 902a 5996 1935 f5ac abab c061 ee37
000000f0: 6be3 db37 5da3 f32b 6b42 3e2b 7f73 042c
00000100: 6fde 9e36 ab60 092e 7e86 4628 5e68 d430
00000110: 9398 a9b6 123e eaab af32 87ab 5fc1 e1b8
00000120: 7f1b f537 3085 af2a dd26 1438 e770 ceab
00000130: 9562 3e2a 88fe 0d2c 4cc7 4fad d39c 852c
00000140: e5aa 1db2 35b0 4538 a3ab 072b cfe9 31af
00000150: 51c8 c3ac e623 69a7 33fa 15b5 014c a52b
00000160: a3ad 72ac e50d 04ad 2334 2832 92f7 60a9
00000170: e9dd 422c 53dc 9db8 024a 9cb8 5d72 9738
00000180: ef6b 8a28 3f21 beb7 ef41 d0a9 660c 62a9
00000190: 794a 1837 420a d138 334f e4ab 33a9 d0b0
000001a0: 38e5 acaf b8a8 7e2a 7343 932f 3658 5038
000001b0: 52df 042d 51b0 2dac e3d6 f9ad 2320 9cab
000001c0: 1397 832e 65c8 8637 caca 112d cf88 7aad
000001d0: ee14 60b7 6029 81aa f850 9fa8 e47d 3436
000001e0: 4a0f d92c 0736 1536 b81e 0036 dfd4 642d
000001f0: 3123 2dab 8ccc f738 a12b a22c 88d9 a02d
00000200: c979 252d e73b d92b 1b0a c1ab 3ba3 2e32
00000210: 0a4b 9738 e82a 48aa 360d 0736 c9e0 abb2
00000220: ef94 8db8 0829 042b 2c93 022b 3243 08ad
00000230: a445 c9ae 26d0 2632 1554 0038 e808 2cb9
00000240: 4fca 92ab 6583 76b0 6ab4 672b 3eeb 4839
00000250: ef7d 09ab 3b52 76ab d195 282c 01be 7fad
00000260: 2fcb 9fb7 7502 0c30 58bc a2a8 e07b 952c
00000270: 8d63 d9b5 cfcd 3eb7 3277 70b8 ff54 ffaf
00000280: fed6 e329 747d 37ab e7f8 70ad 3b2d 1bae
00000290: 01b4 2739 ca70 f92d a066 cab8 2e8d 8235
000002a0: 6dff ce31 6055 76aa 7c1a c9a9 a786 832b
000002b0: 3f12 a228 15cf 3db9 c166 4838 2f68 1b32
000002c0: 33ea c330 6e75 a8b0 bfec 81a9 1b01 5128
000002d0: 1766 052c 4012 362c 370d 6fb7 1df4 8032
000002e0: 34c8 faa9 c821 fcab 9d28 122b 9044 e92b
000002f0: 2798 ff2a c417 dfb8 f561 132c e5e5 ae2b
00000300: 707d 312c 25e6 522e 469c 002a de34 95b2
00000310: a2db 9132 81dc 60b7 163e f52a 1dac d8a8
00000320: 1a20 5734 8919 05b0 6331 3cb2 3491 88a9
00000330: 416e e42b 879d 7cb8 8d1b e4ac 96aa 43b6
00000340: 537a 99ab 7a8f b5aa 1cef 25b8 6e20 9332
00000350: 0386 cca9 27db 0ba9 4008 00b6 1d66 0fac
00000360: 2cea 8cb8 27f3 022b e248 412a d7c8 35aa
00000370: 552a 92aa 68bf 3caa c527 9236 b15f 6bac
00000380: a2f4 f7ad c5de f5ac 347e 87aa 3bee a2b4
00000390: 211f 74b7 6d91 0cac 179c bd2b ea43 d130
000003a0: ec9b a22d 0643 c136 0323 6c39 bbe5 482b
000003b0: c92c b42c d6cb e22b 9683 deb7 d763 0230
000003c0: bfd4 f22a 10e0 d4ad 6481 ccb1 3271 20ad
000003d0: 2ef9 d428 7801 c736 9bcf e8b5 6b26 0838
000003e0: 115a 55ae d681 e02b 5925 fab6 fdaa 60af
000003f0: 0365 c32d fa85 fa2d 4731 a12d f86b 2f2c
6.7301505e-11 1.9798768e-05 2.3798558e-13 7.709967e-14 -6.1536755e-11 -2.0393832e-13 -2.0274276e-05 -7.338949e-06
-1.698583e-12 -1.4604733e-06 -7.7040145e-11 4.2846648e-07 4.816277e-12 -7.5136624e-12 -5.658561e-05 2.154786e-11
-1.5198154e-07 -0.00010899706 8.66559e-12 -3.8818226e-14 0.00011455148 2.0153783e-12 1.5489599e-08 -2.2069431e-05
-2.1840583e-13 2.7069513e-10 -5.4732846e-13 -1.5200632e-08 1.9403833e-05 2.909972e-13 9.581953e-09 2.6775498e-10
-3.0853355e-09 1.4484139e-12 1.8684792e-13 -0.00015375359 -2.4370228e-10 -2.2986109e-09 -4.087648e-13 8.613176e-13
-1.2557925e-11 2.853504e-14 -8.443237e-14 -1.201739e-12 1.1344735e-13 0.00010875851 -6.879669e-09 7.1270865e-13
-3.8471055e-05 -2.3635031e-11 -4.088037e-12 7.64397e-09 -1.827468e-12 -1.1935909e-13 1.2094679e-09 2.0245482e-13
2.5749083e-13 5.7215726e-07 -1.2198286e-12 2.841733e-05 2.6212734e-05 1.7311531e-12 6.7593733e-13 1.8822441e-12
4.7346616e-06 3.1236052e-11 1.1020371e-14 1.5454693e-09 -5.0543545e-06 -1.6643928e-12 -9.606394e-13 -0.00010764854
2.921908e-05 3.1178662e-13 3.5322144e-05 -1.4668517e-12 1.6909592e-13 2.0178598e-12 -1.18108405e-11 3.7974983e-12
-9.17746e-09 4.7132566e-05 4.819983e-13 -1.6181122e-10 -5.564473e-12 -3.2354706e-15 -5.5870913e-07 1.174505e-12
-3.4486656e-12 -7.5064165e-12 9.7907416e-09 -4.9952725e-14 2.7692243e-12 -7.527382e-05 -7.452445e-05 7.221543e-05
1.5367886e-14 -2.2665246e-05 -9.248493e-14 -5.0192835e-14 9.0772455e-06 9.967807e-05 -1.6222357e-12 -1.5182081e-09
-3.1449487e-10 2.2618268e-13 2.678707e-10 4.9673217e-05 7.552918e-12 -2.4682654e-12 -2.8403451e-11 -1.1093386e-12
5.9840265e-11 1.606736e-05 8.287324e-12 -1.4241232e-11 -1.33563135e-05 -2.2943713e-13 -1.768766e-14 2.6895368e-06
6.1692084e-12 2.2234178e-06 1.9091367e-06 1.3007566e-11 -6.1510785e-13 0.000118159776 4.6091607e-12 1.8286497e-11
9.406206e-12 1.5435404e-12 -1.371628e-12 1.0165247e-08 7.214218e-05 -1.7778454e-13 2.0124257e-06 -2.000924e-08
-6.751145e-05 4.6952763e-13 4.638952e-13 -7.745625e-12 -9.1527924e-11 9.709799e-09 3.0595886e-05 -0.00016406516
-1.0430076e-12 -8.9681e-10 8.231806e-13 0.00019161121 -4.8846945e-13 -8.7510874e-13 2.39574e-12 -1.4537261e-11
-1.9048892e-05 5.0935195e-10 -1.8067294e-14 4.2485876e-12 -1.6196733e-06 -1.1372801e-05 -5.733147e-05 -4.6444623e-10
1.011812e-13 -6.518876e-13 -1.3697688e-11 -3.5283092e-11 0.00015993418 2.8358111e-11 -9.651226e-05 9.726843e-07
6.0244276e-09 -2.187881e-13 -8.9307874e-14 9.345483e-13 1.7993526e-14 -0.00018101589 4.7779413e-05 9.045876e-09
1.4254681e-09 -1.2256984e-09 -5.76982e-14 1.160207e-14 1.8957108e-12 2.5873886e-12 -1.4248587e-05 1.5012171e-08
-1.113696e-13 -1.7915053e-12 5.192598e-13 1.6574676e-12 4.5402676e-13 -0.00010637895 2.0944334e-12 1.2427252e-12
2.5222845e-12 4.795288e-11 1.1422902e-13 -1.7369924e-08 1.6980099e-08 -1.34027805e-05 4.3563823e-13 -2.405546e-14
2.0035114e-07 -4.8421406e-10 -1.09542695e-08 -6.064802e-14 1.6230976e-12 -6.022819e-05 -6.4832085e-12 -2.9156558e-06
-1.0905256e-12 -3.2251616e-13 -3.9561754e-05 1.71278e-08 -9.082667e-14 -3.1054284e-14 -1.9078288e-06 -2.0378207e-12
-6.719338e-05 4.652272e-13 1.716713e-13 -1.614571e-13 -2.5964184e-13 -1.6764162e-13 4.355769e-06 -3.3448628e-12
-2.8189288e-11 -6.988051e-12 -2.4068388e-13 -3.0348187e-07 -1.4550781e-05 -1.9975924e-12 1.3472581e-12 1.5226054e-09
1.8486511e-11 5.759651e-06 0.00022519757 7.137309e-13 5.12088e-12 1.6114842e-12 -2.6525737e-05 4.7435605e-10
4.3135458e-13 -2.4201113e-11 -5.9518914e-09 -9.120081e-12 2.3644793e-14 5.930833e-06 -1.7345768e-06 3.2460706e-05
-4.8510588e-11 1.5952194e-12 -7.4549284e-06 -2.0433429e-10 2.2213792e-11 2.8481207e-11 1.8325464e-11 2.492893e-12

spatial_module.v f4 [4, 16, 10]
00000000: 5848 4135 8283 a5b8 a373 6aad ac74 8caf
00000010: 2c7c 79ab e91d 4e37 e205 b9ac 436a 04a9
00000020: 6170 7732 9e8c 27aa 3485 4937 17b8 e436
00000030: 66b4 f52d 05b2 00ac 67e6 332c 7579 49b8
00000040: cd01 2aab b583 c3ab 9eeb bc39 915f 20aa
00000050: 2539 aa39 c48f a939 5074 952f 9dff 2929
00000060: 530e d130 a586 3caa dc4e 2eb0 9ba2 4e2b
00000070: cb62 68ad 2e04 acb7 50d1 9ab7 9292 94b6
00000080: 004c d6b6 bef7 a138 1fe1 3f2b 5b75 f62a
00000090: ae6d b82b f1c5 942f a298 3a38 e0ff f82c
000000a0: 66de ceb1 db46 8dae 9f9f bb39 c215 3dab
000000b0: 5bd7 a5a9 a4c7 8c28 c078 4bad 72a6 05af
000000c0: 112d d72b 8a1e 42b6 5f52 60b3 1243 3a2e
000000d0: c079 7eaa 80ae 1a2f 1714 42aa 99fd d430
000000e0: c10a 2239 1f82 1bb0 17ff 0aab 7821 83a9
000000f0: c3c0 7e2f 6678 abab 10f4 cc2a a38d faaf
00000100: 2af0 ce37 0cb2 a62e e577 87aa eb6c 85b6
00000110: f3fb 1bb8 5601 a62e 9421 1c32 a631 2628
00000120: f8f7 ed36 0b0d 3faf e568 1fab 573e 132b
00000130: b57e 032a 2164 042a 0615 9838 301a 0d32
00000140: edf8 9338 498b 4c2a 8c01 7839 d031 f52d
00000150: 3151 27b2 3c1f 4db0 d1f9 d3b7 1ada da35
00000160: a77e 71ab 3da9 c039 b27a 8d2c 6404 d12d
00000170: 9612 bf30 9e12 d037 0355 552b f3b4 a830
00000180: 3d60 2bb6 2365 40b3 2a30 bb2d d621 94b7
00000190: e329 9539 7f93 a92a 3798 a62c 53f1 722e
000001a0: 5dc2 3c29 e99f 1b34 3df7 58ac daa6 a037
000001b0: d651 332c 45f5 212b 0507 1cb6 2df3 d3b9
000001c0: 8d06 ccad 6190 9932 ba18 36b0 2ba7 112c
000001d0: eadf ccb6 c807 e6b6 3622 2f32 4b87 ae39
000001e0: 463f 7caa 043c 27ac 4c86 1eaa 6dd5 1738
000001f0: 41dc 8cb0 35d3 d32c 2623 03ab 5322 48b8
00000200: df0d 2732 0e5c 8c2e 99d1 1536 f255 5c2e
00000210: 3576 142b 4931 65ac c142 63b6 217d 9739
00000220: 2c8d 9d32 c590 2735 7b58 9f32 1412 b8b5
00000230: 02e0 04ad 85a1 c8b1 7a20 33ab aa64 2d2c
00000240: e300 97b8 9b26 c6aa 8dfa b538 9169 4c39
00000250: fb0d 2bab 1a5d 96ac e5a0 2b39 790a 63ac
00000260: 6b0b 822b 3abc 9ab7 c46b f72b 133c 99ab
00000270: 86cc c2b0 7406 1daf 2777 3d32 3398 8b39
00000280: a270 162a 1333 1234 298a 072c 2a90 812f
00000290: 4822 e035 3d03 cdb1 a102 be39 4f45 13ab
000002a0: 8809 b82d 2bda 97af 9ff8 85b9 f8c8 50aa
000002b0: 908b 8b39 1175 a9ac 4029 892b 3d1e 1e35
000002c0: 6ea2 cd38 ef35 e02a f1e5 83a9 ecfe b439
000002d0: 0fc7 1c38 f24d a532 1b0e ddb4 5f3c 602b
000002e0: e06c 612d bcac 0e32 87d4 fa2d a5ea 4429
000002f0: c664 362b c469 6533 67f7 9fb2 2129 8034
00000300: 7669 78ae 7427 b1b0 ccc0 ecb6 b5a7 81b3
00000310: f765 08ab 0f5f 3b37 a2e0 b22b 9c69 2639
00000320: 199b 6136 4952 7ab9 c93e 8b2e ab47 d02d
00000330: 1c7e 85b9 893c 8dac 4a87 0aab f8ed c9b8
00000340: f028 19b5 0b56 1a36 f806 dcab 927a 3037
00000350: 1260 f72b 66c0 b239 27e9 80a9 61b2 7139
00000360: 01ba 542d 2acc 85b6 3749 bdad b819 b9ad
00000370: 8963 23b8 68dd 84b8 8651 7eaa fde4 b02f
00000380: 90cc 5138 f5fc 0eac 9270 52b9 6b43 4b2e
00000390: bcc6 4629 5e71 ac29 6640 9ab2 48b9 0fab
000003a0: 8787 8a38 7562 df36 2ca4 d5ab 6588 5636
000003b0: edda cc2b 0403 7ab9 2490 ea38 832e c029
000003c0: 0423 a5a9 10b7 eb37 36a0 9838 3141 57b7
000003d0: 8ecb 6c2d 1560 4cb0 42c9 ed2b a9f9 c82a
000003e0: 2473 542c c9f9 d32d 468d 09af eeef e5ab
000003f0: af03 622c 0657 8e39 7693 e62b b90e d828
7.2003377e-07 -7.892308e-05 -1.33270365e-11 -2.5548752e-10 -8.8634894e-13 1.2285521e-05 -5.2586694e-12 -2.9402055e-14
1.4402844e-08 -1.4881366e-13 1.2011547e-05 6.8163604e-06 2.7933388e-11 -1.8288715e-12 2.556533e-12 -4.803525e-05
-6.039863e-13 -1.3892139e-12 0.00036033703 -1.4244011e-13 0.00032467503 0.00032341306 2.7185587e-10 3.7747247e-14
1.5210823e-09 -1.6744468e-13 -6.3412897e-10 7.341156e-13 -1.320961e-11 -2.0505944e-05 -1.84557e-05 -4.4278067e-06
-6.3865446e-06 7.723224e-05 6.816925e-13 4.377981e-13 1.3104429e-12 2.706169e-10 4.4488006e-05 7.0769918e-12
-6.020673e-09 -6.424524e-11 0.00035786346 -6.7176484e-13 -7.36483e-14 1.5629703e-14 -1.1566026e-11 -1.2155413e-10
1.5289177e-12 -2.8926029e-06 -5.222898e-08 4.2351074e-11 -2.2601972e-13 1.4068213e-10 -1.7237631e-13 1.5497107e-09
0.0001545353 -5.6573585e-10 -4.9381457e-13 -5.8233746e-14 2.3169648e-10 -1.2183698e-12 3.6407032e-13 -4.5575374e-10
2.4668949e-05 7.5804335e-11 -2.406401e-13 -3.9763886e-06 -3.7189526e-05 7.549043e-11 9.08803e-09 9.225617e-15
7.0920178e-06 -1.7375983e-10 -5.663372e-13 5.2311405e-13 1.1679098e-13 1.1758694e-13 7.251841e-05 8.2132345e-09
7.055872e-05 1.8167164e-13 0.000236517 2.7875396e-11 -9.73914e-09 -7.462295e-10 -2.526949e-05 1.6305742e-06
-8.5796165e-13 0.00036747186 4.021083e-12 2.3762499e-11 1.3902361e-09 2.4804202e-05 7.579078e-13 1.2275038e-09
-2.5537004e-06 -4.4795467e-08 2.1280828e-11 -1.7658731e-05 0.00028450703 3.0122777e-13 4.734903e-12 5.523877e-11
4.191297e-14 1.4493675e-07 -3.083269e-12 1.9151183e-05 2.5482858e-12 5.753907e-13 -2.3249897e-06 -0.00040426236
-2.3195024e-11 1.78772e-08 -6.6246353e-10 2.0698536e-12 -6.105741e-06 -6.85544e-06 1.0194119e-08 0.00033288667
-2.2404049e-13 -2.3765443e-12 -1.4079813e-13 3.6199974e-05 -1.0248941e-09 6.0204294e-12 -4.658933e-13 -4.7715683e-05
9.723833e-09 6.382815e-11 2.2324732e-06 5.0098543e-11 5.274421e-13 -3.2570216e-12 -3.3864492e-06 0.00028894193
1.8341403e-08 6.2423015e-07 1.8550272e-08 -1.371433e-06 -7.553071e-12 -5.8391287e-09 -6.3638645e-13 2.4640658e-12
-7.200406e-05 -3.5198653e-13 8.677421e-05 0.00019494283 -6.0770806e-13 -4.2735928e-12 0.00016367769 -3.2264454e-12
9.240225e-13 -1.844588e-05 1.7580317e-12 -1.0887978e-12 -1.4173487e-09 -1.428136e-10 1.102834e-08 0.00026625543
1.3361754e-13 1.361589e-07 1.9261348e-12 2.3567398e-10 1.6699278e-06 -5.9666534e-09 0.00036241583 -5.2321076e-13
2.092261e-11 -2.7621758e-10 -0.00025552974 -1.8543836e-13 0.00026616128 -4.816266e-12 9.745885e-13 5.890359e-07
9.8054166e-05 3.9827817e-13 -5.857457e-14 0.00034522207 3.7378686e-05 1.9243974e-08 -4.117472e-07 7.966457e-13
1.2813944e-11 8.304763e-09 2.851609e-11 4.3724264e-14 6.479924e-13 5.341441e-08 -1.8622542e-08 2.3871783e-07
-5.648234e-11 -1.2889658e-09 -7.0557926e-06 -6.037536e-08 -4.845841e-13 1.1168201e-05 1.2710009e-12 0.00015870336
3.3617891e-06 -0.00023872512 6.332141e-11 2.367869e-11 -0.00025461696 -4.0141818e-12 -4.92152e-13 -9.628752e-05
-5.7056513e-07 2.2997872e-06 -1.5633874e-12 1.0518956e-05 1.757707e-12 0.00034094154 -5.7247874e-14 0.00023050002
1.2092106e-11 -3.9874767e-06 -2.1519326e-11 -2.1043486e-11 -3.8954928e-05 -6.3354906e-05 -2.2588016e-13 3.217692e-10
5.0019997e-05 -2.0319833e-12 -0.00020069096 4.6216735e-11 4.4137206e-14 7.6580005e-14 -1.7957245e-08 -5.1060935e-13
6.605597e-05 6.65738e-06 -1.5180127e-12 3.1967877e-06 1.4555836e-12 -0.00023842981 0.00011184838 8.534581e-14
-7.333546e-14 2.8099428e-05 7.2777664e-05 -1.2830177e-05 1.3460245e-11 -7.435131e-10 1.6895723e-12 3.5700373e-13
3.0190928e-12 2.409885e-11 -1.2510268e-10 -1.6338023e-12 3.2118576e-12 0.00027149188 1.6383412e-12 2.3987202e-14

spatial_module.qkv_proj_low.weight f4 [48, 32]
00000000: acdc a4bc 0f23 27bc ac74 953c 11a8 8f3d
00000010: f582 7b3d 94dc 923c b3a1 b1bb ef85 67bc
00000020: e268 42bc 3f7e 33b8 65dd 583d 78e6 23bd
00000030: eb8a 4b3b 0b35 0cbd 016e 463c dcef 50bb
00000040: b312 b8bb 1385 483b c26d 8ebc b777 b73d
00000050: 967e 2ebd d34e 0c3d 8631 683c 0baf ee3a
00000060: 2cc8 863d 56d2 0abd 2d63 0bbd ed3b d9bc
00000070: 445f 423b e361 673c bd13 88bc 8f65 39bc
00000080: 2abc 0c3d 03fa 183d 0ab9 213d 7073 e1b7
00000090: be27 22bc 949b 313c 9ea4 d13b 5032 2ebd
000000a0: 0758 2e3c 95e2 2138 887b a039 bd31 333d
000000b0: bedd 983b ec15 a9bd 5973 533d a73c 2e3c
000000c0: f3fa 35bc 9c61 533d 2339 f7bc 4957 56bd
000000d0: 521f 5d3d d822 313b 4ef9 a6bc 18e2 dfbb
000000e0: 029c 9b3d 7567 863d 7410 723d 3a36 1ebc
000000f0: 4a6a 3c3c a668 073d 4cb1 ca3d 9b82 7abd
00000100: a05e 39bd d03f a0bd e4e9 b73a 9936 84bd
00000110: a1bd a9bc 673f 693c 2213 d93b 6574 8dbd
00000120: 6c96 5abc 0a5e a1bb 895f d9bb 9885 8b3c
00000130: 9d7c 68bc 86de b33c e432 a5bc 02bd 303c
00000140: 9ad5 cb3b 3074 cebc f343 033a 48e4 fdbc
00000150: 2d89 f23b 3669 883d 10fc d93b 1ace 85bb
00000160: 03f6 d6bd 73b4 4bbd ad5d ef3c 7c0d e23c
00000170: 85eb 353d 9881 053d f1e2 953d 9837 4ebd
00000180: 010f 06bd 0b60 85bc 522e 023d 73be 56bd
00000190: 10a0 5e3d 8853 7b3c 6327 853c 3d78 cf3d
000001a0: 16fa c63a 4e7d 253b f3ca 7a3c 1a40 dfbc
000001b0: 096c 8a3a b2d7 6e3d 34d3 1d3b dfa0 033c
000001c0: dae1 82b9 76a8 7abc 3b1a 813c 7a39 92bd
000001d0: f47c 373d 697b 1fba 80b5 463c 656a 6b3b
000001e0: 0b39 aebd 5261 abbd ed6c b23c c11a 04bc
000001f0: 1394 f0bc b29c 90bc d023 2fbc 9e9f 023d
00000200: c348 4ebd 243f 053c 3644 fab9 b830 a6bd
00000210: 52b7 ca3d 69b3 f5bc c3b7 0e3d a373 f93d
00000220: 511b 413b 0563 113a 410e 80bc 4654 94bb
00000230: 2173 e9bb e7f5 99bd 301e d83c 5f17 3e3c
00000240: f14d 8abc da35 16bd 761a 0bbd 7843 4e3a
00000250: b3f8 b4bd 9ca1 a0bd c29c 993c aa72 5a3c
00000260: 3fd8 2a3c 3db4 63bd f86c a83d a909 943d
00000270: 152d 803d bd32 60bc 1715 b0bb 73f6 9c3d
00000280: 1ddd 083c 6932 523d 1004 823c b0b9 1bbd
00000290: 0ca0 973d b7f5 78bb 3f89 c73c 2a11 c23d
000002a0: a93f d0b9 b359 5039 0a04 2d3b 02a5 8cbd
000002b0: dc28 5abb 484a 1abd e2bb 16bd 0427 0b3c
000002c0: c1ce 913a 40ef 18bd afd1 ddbc baa8 f4bd
000002d0: 546b f0ba 0cda 1f3d e79d 693b f423 e93a
000002e0: 5d29 613d 81f2 d23c 5d20 77ba 54ba 6ebd
000002f0: ce6a 3e3d 73e9 8dbd e802 96bd 27c0 c43c
00000300: 3525 d9ba f7ac 3abd ce37 183c a7c0 bebd
00000310: 5d3d 653c 4cf9 e83c 09b9 a13a 280b fbbc
00000320: ccec 6ebc 8b83 1f39 7141 293c 0666 4cbd
00000330: 36e1 e1b9 6562 c0bc 23dc 41bc 06e6 993c
00000340: 14fd 213c 9f75 1ebd 7452 4fbb e46a 39bd
00000350: 1175 aabc 3242 43bb a256 de3b 7a77 7eba
00000360: 7a35 72bd 89a2 d33c 5b0b a83d 53d1 cbbc
00000370: f8f4 00bb 3f87 983c 3cae cdbd 9cea 4b3d
00000380: a7d8 bcba 8ecb 67bb 30ef 3c3d 2c0e 513d
00000390: 361e 3abd 1926 a0bd c37b 24bd 139d d4bd
000003a0: b515 0b3b c48b 27ba 12aa 89bb 6f21 42bd
000003b0: 9030 023c ed10 9d3d e222 703d 5d35 62bd
000003c0: 943a 05bd 940a f23c eb38 c4bb 4c0e c13d
000003d0: c94f a6bd 24e9 c43d 0045 d13b 7fe4 bb3a
000003e0: 31cf 73bc adf1 21bd c91b 95bd 4f5f d03c
000003f0: b185 883d a194 533d d7dc 133c 253c 1fbb
-0.020124756 -0.01020123 0.01824411 0.07014478 0.061404187 0.017927445 -0.0054208874 -0.014131053
-0.011865826 -4.27945e-05 0.052945513 -0.040014714 0.0031058143 -0.034230273 0.012111188 -0.0031881249
-0.0056174635 0.0030596897 -0.017386321 0.08958381 -0.04260119 0.03425486 0.014171964 0.0018210126
0.065811485 -0.033892 -0.03403013 -0.026517833 0.0029658834 0.014122459 -0.016610974 -0.011315717
0.034359135 0.037347805 0.039483108 -2.6875845e-05 -0.009897171 0.010840315 0.0063977977 -0.04252845
0.010641105 3.8596412e-05 0.00030609616 0.043748606 0.0046651056 -0.082561344 0.051623676 0.010634578
-0.011107194 0.05160676 -0.030178612 -0.052329335 0.053984948 0.0027028825 -0.02038255 -0.0068323724
0.075981155 0.065627016 0.059097722 -0.009656483 0.011499951 0.033058785 0.09897098 -0.06115971
-0.045256257 -0.07824671 0.0014031497 -0.06455726 -0.020720305 0.014236308 0.0066245953 -0.06906966
-0.013341527 -0.0049245404 -0.006633703 0.017031476 -0.014189866 0.021956693 -0.020165868 0.0107872505
0.0062205316 -0.025201887 0.00050073786 -0.030992642 0.0074016065 0.066606924 0.0066523626 -0.004083407
-0.10496142 -0.049732637 0.029219473 0.02759432 0.044414062 0.032594293 0.07318676 -0.050345987
-0.032729153 -0.016281148 0.031782456 -0.05242772 0.054351866 0.01533974 0.016254133 0.101303555
0.0015180733 0.002525169 0.015307176 -0.027252246 0.0010560761 0.05831117 0.0024082186 0.00803396
-0.00024963805 -0.015298953 0.015759578 -0.07139869 0.0447969 -0.0006083758 0.012128234 0.003592157
-0.08506974 -0.08368172 0.021780455 -0.008063019 -0.029367482 -0.017652843 -0.010689691 0.031890504
-0.05036236 0.00813273 -0.00047734537 -0.08114761 0.09898247 -0.029992776 0.034843218 0.12180259
0.0029465745 0.0005546066 -0.015631797 -0.0045266477 -0.00712432 -0.07517605 0.026381582 0.011602252
-0.016882868 -0.03667245 -0.033960782 0.000786833 -0.08836498 -0.078433245 0.018751506 0.013333002
0.010427534 -0.05559181 0.08223909 0.07228405 0.06258599 -0.013683972 -0.005373608 0.07664194
0.008353499 0.051317606 0.015871078 -0.038018882 0.074035734 -0.0037988254 0.024357436 0.0947593
-0.00039720282 0.00019869841 0.0026400113 -0.0686741 -0.0033288514 -0.037668496 -0.036800273 0.008493189
0.001112424 -0.03733754 -0.027077524 -0.119462445 -0.0018342533 0.039026305 0.0035647096 0.0017787204
0.054971088 0.0257504 -0.0009427125 -0.058283165 0.046488576 -0.069292925 -0.07324773 0.024017407
-0.0016566875 -0.04557511 0.009290649 -0.09314089 0.013991681 0.028439187 0.001233847 -0.030644968
-0.014582824 0.00015212425 0.010330544 -0.049901985 -0.0004308314 -0.023484418 -0.01183227 0.018786442
0.009886999 -0.03868639 -0.003163484 -0.045267954 -0.020807775 -0.0029794094 0.00678523 -0.00097071344
-0.05913303 0.025834339 0.08205291 -0.024880087 -0.0019677263 0.018619178 -0.10042998 0.049784288
-0.0014407829 -0.003536913 0.046126544 0.051038906 -0.045438968 -0.078197666 -0.04015709 -0.10381522
0.0021222655 -0.0006391371 -0.004201182 -0.047395166 0.0079461485 0.07669244 0.058627017 -0.055226672
-0.032526568 0.02954606 -0.0059882305 0.09426555 -0.081206866 0.096147805 0.0063863993 0.0014335065
-0.014880941 -0.03953712 -0.0728069 0.025436072 0.066661246 0.051655415 0.00902482 -0.0024297324

spatial_module.qkv_proj_low.bias f4 [48]
00000000: 2ecf 14bd fdec 833c 745d 7a3d b32d e53c
00000010: cace 8e3d dac9 763c 1457 033c 838e 8ebc
00000020: 85d2 4abd 89b4 34bc 304a 8c3d 465a a13d
00000030: c36f dabc 3a99 383d 2362 573d ab7d a8bd
00000040: bb69 c6bd ed28 f3bc 3e2f fdbb 73ca d13c
00000050: aab3 db3c f8bc 393d e781 44bd 296c 153d
00000060: f565 b03c 8d81 2dbd 6469 33bd e253 323c
00000070: 112a b23d 0ab1 07bd f54a 3c3b b43d 86bd
00000080: e9e2 683d 08ad 933c f1c8 aabb caa3 1f3d
00000090: e657 173d 9d0c f93b 64c9 303c df28 b9b9
000000a0: c762 4d3d f81a fd3c 980b 18bd 5dd0 17bd
000000b0: a5c9 da3c c4a7 44bd 8789 933d b9e7 f9bb
-0.036330394 0.016104216 0.06112428 0.027975893 0.06973036 0.015062774 0.0080163665 -0.01740194
-0.049517173 -0.011029371 0.06850088 0.078785464 -0.02666462 0.045068003 0.052583825 -0.08227094
-0.09688135 -0.0296826 -0.007726579 0.02560923 0.026819069 0.04534623 -0.047975447 0.036480103
0.021532992 -0.042359877 -0.04380168 0.010884257 0.0869943 -0.033127822 0.0028731201 -0.06554738
0.056857023 0.018026844 -0.0052119424 0.03897456 0.03694906 0.0076003806 0.010790203 -0.000353164
0.05014303 0.030896649 -0.03712043 -0.037063945 0.02670748 -0.048011556 0.07203966 -0.0076265004

spatial_module.qkv_proj_high.weight f4 [96, 48]
00000000: b341 72bb bccd 713b d286 34ba 4905 563b
00000010: 440e 17b9 4e3a 1c3c ceb5 5a3b e18f 03bc
00000020: d04e 8a3b 3333 933b e866 4d3b afbf d0b8
00000030: 8228 23bb 8d30 aaba 8138 5aba 5be6 c23b
00000040: 4dd2 fdbb 977a 943b d579 43bc 963a aebb
00000050: 8df2 463a 03b9 0cba 3b9e c93b 449e b2ba
00000060: 529e a9b9 2b9c d4ba ddb7 c1bb 2525 5c3b
00000070: ab95 563b 6710 a7bb 5720 3abb 26a0 40bb
00000080: 97b8 823b afaa 533a b032 4c3b b36c 963b
00000090: a296 203b f3e0 c6ba 9503 beba a598 d93a
000000a0: 196b 433b fade 803b 7f3a 943b 8bcf 0ebc
000000b0: e24e 383b 44e1 913b 49d3 9e3b 6680 e53b
000000c0: 00e9 89bb 32cf 833b 77a1 00ba 469a 513b
000000d0: 0296 dcb8 28b0 1c3c 6e7d 583b 71cb 03bc
000000e0: 103d 793b 7554 8e3b 2080 573b 5993 80b7
000000f0: 1bb5 1dbb b25c acba ae78 7eba 88f9 c73b
00000100: 1042 f5bb cc28 6b3b 9e1c 2dbc 1eca a3bb
00000110: 266f 483a b466 0bba 2e1d c63b ebca abba
00000120: 129b acb9 00a7 e2ba f4a8 d1bb 8cdb 5a3b
00000130: be29 873b a573 afbb 39f7 29bb 490d 40bb
00000140: efb4 723b 2c3a b73a a3a9 3b3b 23c2 993b
00000150: 2b2e 1f3b ef3f b4ba f020 4dbb 2458 e93a
00000160: 4fb8 3e3b 4a34 8f3b b3c5 943b 67e7 1bbc
00000170: 0b04 f93a adaa 8e3b c5a1 823b 6fbf ee3b
00000180: f806 80bb ae13 663b 0995 beb9 ca58 553b
00000190: b48e b4b8 d4cb 1c3c 03d9 5a3b 3ce2 03bc
000001a0: 1974 813b 6331 933b f68b 0d3b d1da ceb8
000001b0: f491 15bb 74b5 aeba e118 3eba a38f c83b
000001c0: ff15 fcbb 413c 8f3b b036 45bc cef4 a6bb
000001d0: 97c6 a439 3e67 a8b9 73ff cb3b bb0f b4ba
000001e0: 6640 e836 95ea e2ba e5c3 dbbb 2b2a 553b
000001f0: 219a 723b 7bcc 98bb 8d7c 34bb 5473 38bb
00000200: 239b 773b a775 c03a f8f1 4c3b d9fc 923b
00000210: 3041 293b b52b b1ba 7676 32bb 686a f33a
00000220: bb19 413b 6e96 953b 45fe 8e3b 6854 02bc
00000230: f26c 583b 4bb6 893b c6b2 9c3b 2471 f33b
00000240: 4326 92bb 3646 673b 4a37 2cba ade3 593b
00000250: ce84 f8b8 dda4 1d3c d07e 5a3b c179 02bc
00000260: 1091 893b cc49 913b e108 6d3b 400a 02b9
00000270: 0bca 18bb 262a 97ba 2fdc 42ba 4702 cb3b
00000280: 0651 febb e146 933b f9d4 20bc dba7 adbb
00000290: 1daa 453a 38e4 08ba 9a16 cc3b 3b53 b1ba
000002a0: e6df e5b9 f694 cdba 51dc debb f7db 5a3b
000002b0: 3016 653b 20cf afbb 2ad1 35bb b141 43bb
000002c0: e7c3 993b b803 843a a9a1 613b cf31 963b
000002d0: 3ff6 1e3b 544b b9ba a643 32bb ef8d 023b
000002e0: 0bc8 443b 367c 833b 1713 8d3b 6bfa ffbb
000002f0: 4251 453b 0f04 973b d90d 9c3b 475b f13b
00000300: 3935 81bb 1df8 773b 4ece 35ba 43c4 5d3b
00000310: fa14 00ba deac 1d3c 730e 5b3b 2de6 03bc
00000320: ae1b 863b a50e 9c3b 720e 753b 55ce eab8
00000330: 1b0d 16bb 394f aaba 743c 86ba 3eb4 c83b
00000340: e68f fdbb 3485 913b 3fbe 1ebc d025 aabb
00000350: 1bf0 1e3a 0039 1aba 4118 cb3b 4543 b4ba
00000360: dff0 8bba c898 8aba 2690 d4bb 6d22 5b3b
00000370: 3a44 6b3b 733a adbb d426 3dbb 79cb 39bb
00000380: 589f 893b afb2 753a 5eea 3e3b e1b2 9b3b
00000390: 69ea 2a3b e20e ceba 2674 25bb 0b23 c03a
000003a0: 9ec4 3c3b 304b 8f3b 82ee 833b 8c5d f0bb
000003b0: c693 843a 4233 973b 9fe3 893b 512b e03b
000003c0: 4169 78bb 2047 753b c5cc c6ba 190f 5c3b
000003d0: 2802 b3b9 5270 1c3c 15e5 5b3b 8161 00bc
000003e0: c64f 8c3b bf0d 953b 0d2e 5d3b 158a 1039
000003f0: aad0 1fbb 5f4b b0ba d9af 94ba 8385 cd3b
-0.003696543 0.003689631 -0.0006886545 0.0032656959 -0.00014405797 0.009535385 0.0033372524 -0.008029909
0.004220821 0.0044921874 0.0031341854 -9.953917e-05 -0.002489597 -0.001298444 -0.000832446 0.0059478707
-0.007746017 0.0045312154 -0.0119309025 -0.0053170426 0.00075892435 -0.0005368145 0.0061528957 -0.0013627489
-0.0003235215 -0.0016220858 -0.005911811 0.0033591476 0.0032743018 -0.005098391 -0.0028400624 -0.002939233
0.00398929 0.0008074445 0.0031158142 0.0045905947 0.0024503847 -0.0015173241 -0.0014496917 0.0016601278
0.0029818474 0.003932831 0.004523575 -0.008716474 0.002812319 0.0044519026 0.0048469645 0.0070038317
-0.004208684 0.0040225023 -0.00049068726 0.0031982823 -0.000105183586 0.009563483 0.0033033746 -0.00804411
0.003803078 0.004343564 0.0032882765 -1.5327403e-05 -0.0024064246 -0.0013150184 -0.0009707314 0.0061027445
-0.007484682 0.003588247 -0.010565905 -0.0049984595 0.0007645957 -0.0005317733 0.006045959 -0.0013106739
-0.00032921933 -0.0017292202 -0.0063983146 0.003339502 0.004124849 -0.005354362 -0.002593471 -0.0029304794
0.0037034114 0.0013979129 0.0028635047 0.0046923324 0.0024288993 -0.0013751964 -0.003130015 0.0017802757
0.0029101556 0.004370247 0.004540169 -0.00951562 0.0018998397 0.004353842 0.0039865696 0.0072860043
-0.0039070807 0.0035106945 -0.00036350664 0.0032554143 -8.6096494e-05 0.009570081 0.003339351 -0.008049544
0.0039506075 0.0044919713 0.0021598316 -9.863603e-05 -0.002282259 -0.0013329224 -0.0007251632 0.0061206385
-0.007693052 0.0043711965 -0.012036964 -0.005095101 0.00031428479 -0.00032120378 0.0062255203 -0.0013737598
6.9216358e-06 -0.0017312343 -0.006706702 0.0032526355 0.0037018138 -0.004663048 -0.0027540058 -0.0028144913
0.0037781678 0.0014683501 0.0031272154 0.004485708 0.0025826208 -0.0013517054 -0.0027231253 0.001857114
0.00294648 0.0045650518 0.0043638074 -0.007954694 0.003302392 0.004202639 0.0047820536 0.007429259
-0.0044601276 0.0035289652 -0.0006569518 0.0033247278 -0.00011850298 0.009621826 0.0033339746 -0.007963599
0.004198201 0.004433846 0.0036168622 -0.00012401585 -0.0023313786 -0.0011532947 -0.00074333226 0.00619534
-0.0077611236 0.0044945334 -0.009816402 -0.005299551 0.00075403025 -0.00052219955 0.0062282803 -0.0013528833
-0.000438451 -0.0015684653 -0.006801166 0.003339527 0.0034955852 -0.0053652674 -0.002774308 -0.0029793794
0.004692543 0.0010071909 0.0034428632 0.0045835744 0.002425566 -0.0014136829 -0.0027200966 0.0019921025
0.0030026461 0.00401261 0.004305254 -0.0078118346 0.0030108248 0.004608638 0.004762393 0.0073656174
-0.003943112 0.0037837096 -0.0006935344 0.0033838905 -0.0004885938 0.009623734 0.003342536 -0.008050484
0.004092655 0.004762488 0.0037392643 -0.00011196422 -0.0022895995 -0.0012993581 -0.0010241405 0.006125002
-0.0077381013 0.004440928 -0.009688913 -0.005192496 0.0006063 -0.00058831275 0.0061979597 -0.0013752958
-0.0010676644 -0.0010574097 -0.0064869104 0.0033437267 0.003589882 -0.0052865087 -0.0028862255 -0.002835004
0.0041999035 0.0009372634 0.0029131393 0.0047515486 0.002607966 -0.0015720988 -0.0025246232 0.0014658881
0.0028803716 0.0043729767 0.004026235 -0.0073353704 0.0010114841 0.0046142647 0.0042080428 0.006841101
-0.0037904533 0.0037426427 -0.0015167227 0.0033578335 -0.00034143147 0.009548264 0.0033553292 -0.007835747
0.0042819707 0.004548758 0.0033749372 0.0001378435 -0.0024385848 -0.0013450197 -0.0011343911 0.0062720194

spatial_module.qkv_proj_high.bias f4 [96]
00000000: e554 1dbb 51cb 61bb f6a5 1bbb a4ba 80bb
00000010: d0fd 81bb b2ad 47bb 3b7b 29bb f05a 76ba
00000020: d210 98ba a99e 45ba 3373 40ba ff12 42ba
00000030: cdaa 3cba 9624 77ba fe90 43ba 9ed5 40ba
00000040: 6fc5 8ebb 1bac 83bb 5b0b 90bb 7cb6 87bb
00000050: 05ad 1dbb f12a 5cbb 4a5c 42bb 98e4 8dbb
00000060: 2acf 0fbb ea30 01bb 27d3 fcba be4b 06bb
00000070: 810e d0ba 1310 1cbb 3086 1fbb 5553 01bb
00000080: ae09 13ba e728 1dba 4aa6 2cba 5d03 03ba
00000090: 30d8 efb9 6a93 fdb9 16bd 13ba f539 0dba
000000a0: b8f9 deb8 930d f1b8 e9d9 fdb8 0ba6 fcb8
000000b0: 6d67 01b9 ed84 fdb8 4597 08b9 549b fab8
000000c0: 1704 2bbb 9316 e2ba 90b5 3abb b475 e9ba
000000d0: 6af2 f2ba 6e9c 05bb e679 2cbb b236 4bbb
000000e0: 84bd 6fb8 e56a 5fb9 af68 bdb8 d95b 22b9
000000f0: d966 5ab9 a7c5 1d38 a0a0 99b9 d86e 82b9
00000100: d943 88bd 157d 173d e558 f73c 1b0f bb3c
00000110: c11f 813b 4e85 5bbc de2b 003d 2eea 093c
00000120: e2a1 7bbc 9e38 c7bd 41f2 9e3c da08 72bd
00000130: b457 143d ade2 363d a8dc d43c e9c4 923a
00000140: 31d9 c0bb 5fb1 b23d 97ca 56bd c571 8ebd
00000150: c4ea 0e3d 0464 c93d 5280 a53d aaa8 9f3c
00000160: d7d7 21bd 1470 913d e9fc 47bd dbbb 673d
00000170: 5218 403d 0b18 0cbc b500 90bd df6f a1bd
-0.00240069 -0.0034453461 -0.0023750043 -0.0039284993 -0.0039670244 -0.003046852 -0.0025860805 -0.0009397706
-0.0011601693 -0.0007538596 -0.0007341385 -0.00074033433 -0.0007197082 -0.0009427754 -0.0007460265 -0.000735605
-0.004357032 -0.0040183193 -0.004395885 -0.004141627 -0.0024059427 -0.003359493 -0.002965706 -0.004330229
-0.0021943548 -0.0019712993 -0.0019289003 -0.0020491923 -0.0015873463 -0.0023813292 -0.0024341457 -0.0019733508
-0.00056090474 -0.00059951696 -0.00065860583 -0.00049977546 -0.00045746705 -0.00048365752 -0.0005635781 -0.00053873594
-0.00010632299 -0.00011494304 -0.00012104569 -0.00012047224 -0.00012340928 -0.000120887395 -0.00013026323 -0.00011949861
-0.0026094967 -0.0017249159 -0.0028489567 -0.0017811568 -0.001853538 -0.0020387429 -0.0026317774 -0.0031007943
-5.715854e-05 -0.00021306759 -9.031721e-05 -0.0001548374 -0.00020828414 3.7615795e-05 -0.0002930211 -0.00024878117
-0.06653566 0.036984522 0.030193755 0.022834351 0.003940553 -0.0133984815 0.031291835 0.008417649
-0.01535842 -0.09727596 0.019402625 -0.059090473 0.036216453 0.04464977 0.025984123 0.00111976
-0.0058852662 0.08725237 -0.0524393 -0.069552936 0.03489186 0.098335296 0.08081116 0.019489605
-0.03951248 0.07101455 -0.04882518 0.056575637 0.046898194 -0.008550654 -0.07031385 -0.07882666
