old/old results/report/optim_results/models/trial_71_best.pt (torch, 64701 bytes, 58 tensors)

temp_conv.depthwise.weight f4 [1, 1, 3]
0	0x3e6ba4ed	0.23012133
1	0x3eb29f88	0.34887338
2	0xbea22e06	-0.31675738

temp_conv.pointwise.weight f4 [12, 1, 1]
0	0xbe8db6a5	-0.2767841
1	0x3e494cb7	0.1965817
2	0xbf0035d5	-0.5008214
3	0x3f12954c	0.5725906
4	0x3f62b075	0.885505
5	0xbf46a4cd	-0.77595216
6	0x3f5cee06	0.86300695
7	0x3e2fb317	0.17158161
8	0x3f3a5827	0.7279076
9	0x3e0f176e	0.13973781
10	0x3ef5c902	0.4800492
11	0xbe53e3df	-0.20692395

temp_conv.pointwise.bias f4 [12]
0	0x3f454e5c	0.7707269
1	0x3e1aeb9f	0.15128945
2	0xbef1a7f9	-0.47198465
3	0x3e827b1c	0.2548455
4	0xbeebee08	-0.4608004
5	0xbdf0da04	-0.11760333
6	0xbecff3ca	-0.40615684
7	0x3f2a5e06	0.6654972
8	0xbf4a1f6d	-0.789542
9	0xbeeb666b	-0.45976576
10	0xbe9092d6	-0.28237027
11	0xbf19569d	-0.59897786

temp_conv.bn2.weight f4 [12]
0	0x3f871dff	1.0556029
1	0x3f7eb7e5	0.9949935
2	0x3f81b4e3	1.0133327
3	0x3f7bfd31	0.98433214
4	0x3f8064f7	1.0030812
5	0x3f87e9f5	1.0618273
6	0x3f7da7b1	0.99084
7	0x3f7c3016	0.98510873
8	0x3f7c3ddf	0.9853191
9	0x3f804a8f	1.0022753
10	0x3f7ec4c2	0.9951898
11	0x3f89139f	1.0709113

temp_conv.bn2.bias f4 [12]
0	0xbd4b3950	-0.049615204
1	0x3dffd6de	0.124921545
2	0xbcbdddad	-0.023176992
3	0xbd1650ec	-0.036698267
4	0xbc20be1d	-0.009810952
5	0xbd91aa1c	-0.07112524
6	0xbd09b47e	-0.033619396
7	0x3cff3280	0.03115201
8	0x3cfdc7ac	0.030979
9	0x3d1bbb47	0.0380204
10	0xbcb65ce8	-0.022261098
11	0xbcddc37d	-0.027070755

temp_conv.bn2.running_mean f4 [12]
0	0x3f2dc3e2	0.6787702
1	0x3e5ddff7	0.21667467
2	0xbf235cf9	-0.6381374
3	0x3ee3c9e1	0.4448996
4	0xbe2ae68d	-0.1668951
5	0xbec00962	-0.3750716
6	0xbdf532bd	-0.11972568
7	0x3f38f132	0.72243035
8	0xbf0c4404	-0.54791284
9	0xbed3b15b	-0.4134625
10	0xbdfbea87	-0.12300592
11	0xbf2af013	-0.66772574

temp_conv.bn2.running_var f4 [12]
0	0x3cdb2b48	0.026754037
1	0x3c5e5825	0.01357082
2	0x3db36165	0.08758811
3	0x3dea8a86	0.114522025
4	0x3e8c38b1	0.27387002
5	0x3e573c8d	0.21019192
6	0x3e852f0d	0.2601246
7	0x3c28fe29	0.010314503
8	0x3e3d8e8a	0.18511406
9	0x3bdf9cb4	0.0068241004
10	0x3da4ea8d	0.080525495
11	0x3c754078	0.014968984

feature_process_low.weight f4 [8, 240]
0	0x3c1f5953	0.009725886
1	0xbd891c19	-0.06694812
2	0x3d734df5	0.059400517
3	0xbd55e630	-0.052221477
4	0x3d5e4fe0	0.054275393
5	0x3c9607e4	0.01831431
6	0xbc9f72c5	-0.019463906
7	0x3d228fa2	0.03968776
8	0x3c11c783	0.008897665
9	0x3d4586f9	0.048224423
10	0x3bd935f3	0.0066287457
11	0xbcb53ce0	-0.022123754
12	0x3c8e1788	0.017345205
13	0xbc95aa4a	-0.018269677
14	0x3cbbc391	0.022920402
15	0x3d37e212	0.04489333
16	0x3cd0b81d	0.025478417
17	0xbd1855bc	-0.037191138
18	0x3cf58746	0.02997173
19	0x3d9b80d2	0.0759293
20	0x3d03962f	0.032125648
21	0xbd3f5ea9	-0.046721134
22	0xbd855c37	-0.06511729
23	0xbcca820c	-0.024720214
24	0xbd425679	-0.047445748
25	0x3d766c61	0.060161952
26	0x3cd94aba	0.02652489
27	0x3cfdeb7c	0.030996077
28	0x3c6d33d5	0.01447769
29	0xbc7b7a16	-0.015348932
30	0x3d2da4c3	0.042393457
31	0xbd3a57f0	-0.04549402
32	0x3b8c8438	0.0042882226
33	0xbd4360db	-0.04769979
34	0x3ce7d605	0.028300295
35	0xbbc83e6b	-0.0061109564
36	0x3cf2c7de	0.02963632
37	0xbc8b40c7	-0.016998662
38	0x3d486ed8	0.048933834
39	0xbd1904df	-0.03735816
40	0xbd0c62ec	-0.034274027
41	0xbd1cf4a3	-0.03831924
42	0x3d72f854	0.059318855
43	0x3cdd21df	0.02699369
44	0x3d881164	0.06643942
45	0xbd41d6db	-0.047324043
46	0xbd73a052	-0.059479065
47	0xbd4e33ae	-0.050342254
48	0xbd24618b	-0.040132087
49	0x3cbf6d24	0.023367472
50	0x3c9d99e0	0.019238412
51	0x3d58ec5e	0.052959792
52	0xbd133590	-0.035939753
53	0xbd3c2d2b	-0.045941513
54	0x3cef6a2c	0.029225431
55	0xbd09d63e	-0.033651583
56	0x3cfa4dff	0.03055477
57	0xbce3708b	-0.027763626
58	0x3cd466e7	0.025927974
59	0x3bb92350	0.0056499615
60	0xbd00e46d	-0.031467844
61	0x3c7e126b	0.015507321
62	0x3c6b1bf3	0.014349925
63	0xbc7a68de	-0.015283791
64	0x3d26de64	0.040739432
65	0x3d5618d7	0.052269783
66	0xbd1b4eaa	-0.037916817
67	0xbcf345e4	-0.029696412
68	0x3d5c5154	0.053788498
69	0xbd0e7a97	-0.03478488
70	0xbd00a299	-0.031405065
71	0xbd81649a	-0.06318016
72	0xbd1138d3	-0.035454582
73	0x3c516150	0.012779549
74	0xbb35d330	-0.0027744286
75	0xbce6f7c1	-0.02819431
76	0x3c2f7227	0.010708368
77	0xbd5834cf	-0.052784737
78	0xbd702a56	-0.058634125
79	0xbd10bef7	-0.03533837
80	0xbd617327	-0.05504146
81	0xbd3a14b5	-0.045429904
82	0x3d83acc4	0.06429437
83	0x3c565f1b	0.013084198
84	0x3cba4a4b	0.022740504
85	0xbd53d7e4	-0.05171956
86	0xbd0a88c9	-0.033821855
87	0xbc8c6061	-0.0171358
88	0x3bbe8203	0.0058138384
89	0xbd919ccd	-0.071099855
90	0xbd11597f	-0.03548574
91	0xbd21511f	-0.039384004
92	0x3ac301cc	0.0014877855
93	0xbce5b3e7	-0.028039886
94	0x3b9650d7	0.0045872736
95	0xbcdce871	-0.026966305
96	0xbd0e7634	-0.034780696
97	0xbd257e9f	-0.04040396
98	0xbcd8b47d	-0.026453251
99	0xbd4caa63	-0.04996718
100	0x3d78ae0d	0.060712863
101	0xbc72960d	-0.014806283
102	0x3d60ddaa	0.054898895
103	0x3cba0cee	0.022711243
104	0xbd5ca7c2	-0.053870924
105	0x3d477877	0.04869887
106	0xbc76975b	-0.015050734
107	0xbcad52de	-0.021157678
108	0xbd49b8af	-0.049248394
109	0xbd8adfb0	-0.06780946
110	0x3c865566	0.016398143
111	0xbc8c2ace	-0.017110255
112	0x3cafe2e9	0.021470504
113	0xbd53f8f0	-0.051751077
114	0x3d3a0704	0.045416847
115	0xbd5d6b06	-0.054057144
116	0xbcadd763	-0.021220868
117	0x3b68434a	0.0035440498
118	0x3cc1f333	0.023675537
119	0x3ddf1339	0.10892338
120	0x3d7b6533	0.061375808
121	0xbd640930	-0.055672824
122	0x3c8a38f3	0.016872859
123	0xbcd9bf17	-0.026580377
124	0xbb871ecc	-0.0041235443
125	0xbd23e82c	-0.04001634
126	0x3d8a65bf	0.06757688
127	0xbd316eea	-0.043318667
128	0x3cecc232	0.028901193
129	0x3c09dce8	0.008414485
130	0x3c4d90d1	0.012546734
131	0xbd0dae8f	-0.0345903
132	0x3d77fcdb	0.060543876
133	0x3c3a9b41	0.0113895545
134	0x3c81a35b	0.015824964
135	0xbd224687	-0.03961804
136	0x3d124424	0.035709515
137	0xbc611b5a	-0.013739431
138	0xbd084103	-0.033265125
139	0x3d4c7803	0.04991914
140	0x3c7ce016	0.015434286
141	0xbd269c33	-0.040676307
142	0xbd03376f	-0.032035287
143	0xbb446b77	-0.002997128
144	0x3d1beaa8	0.038065583
145	0xbc0afce4	-0.008483145
146	0xbcf1721e	-0.02947336
147	0xbc8ec81b	-0.017429402
148	0xbd5af6ff	-0.05345821
149	0x3c1ced44	0.009578053
150	0x3d2ae0bb	0.041718226
151	0xbd7efb1c	-0.062251195
152	0x3c7db4e3	0.015485021
153	0x3cff4c76	0.03116439
154	0x3c9d2c9f	0.019186316
155	0xbbaf07c7	-0.0053415033
156	0x3d262a6f	0.04056781
157	0x3ced12fc	0.028939717
158	0x3caf6121	0.02140862
159	0xbc7f5141	-0.015583337
160	0xbc77af4d	-0.015117479
161	0x3af1d3c4	0.0018449952
162	0xbc3f4d56	-0.011676153
163	0xbc9b0642	-0.018923882
164	0x3d32671a	0.043555357
165	0x3d82765e	0.06370233
166	0x3b0fca84	0.0021940777
167	0xbc286ba5	-0.010279571
168	0xbb7ab28c	-0.0038253395
169	0xbc907cb1	-0.017637582
170	0x3be34b59	0.0069364724
171	0x3c927d65	0.017882058
172	0xbd715476	-0.05891844
173	0xbcde5a84	-0.02714277
174	0x3d7a40cf	0.061096963
175	0x3d28c929	0.041207466
176	0x3bbb537e	0.00571674
177	0xbd2e1db7	-0.042508807
178	0xbd2b9b16	-0.04189595
179	0xbd81a82d	-0.06330905
180	0xbcb067d8	-0.021533892
181	0x3c7f2ee6	0.015575146
182	0x3d27a01a	0.04092417
183	0x3cfa13a0	0.030526936
184	0xbd5f9b15	-0.054591257
185	0xbd00a561	-0.031407718
186	0xba650ee9	-0.00087378785
187	0x3d8a3f84	0.06750396
188	0x3b50e997	0.0031877512
189	0xbcf65059	-0.03006761
190	0x3c973605	0.018458376
191	0xbcd0289e	-0.025409993
192	0xbd2bcaff	-0.04194164
193	0x3d373ec5	0.044737596
194	0xbcb7c0c1	-0.02243078
195	0x3b80e701	0.003933788
196	0xbd552d6a	-0.052045263
197	0x3d218fd6	0.039443813
198	0x3d35f122	0.044419415
199	0x3c88ca29	0.01669796
200	0xbd3028f7	-0.043007817
201	0xbd8a9feb	-0.06768783
202	0xbd51c7a4	-0.051215783
203	0x3d469893	0.04848535
204	0x3d0c8491	0.034306113
205	0x3d7dd1bb	0.061967593
206	0x3d2e5498	0.042561144
207	0x3cadf63c	0.021235578
208	0xbbcc6fa6	-0.0062388955
209	0xbd802472	-0.062569514
210	0xbd82c8c9	-0.06385953
211	0xbd7734f9	-0.060353253
212	0x3cdc858d	0.02691915
213	0xbd10629f	-0.035250302
214	0xbbc22fc4	-0.0059261043
215	0xbca94f70	-0.020667762
216	0xba3e67ad	-0.00072633737
217	0xbd538e92	-0.051649638
218	0xbd38f143	-0.04515196
219	0x3c6618f5	0.014044036
220	0xbc7dabdb	-0.015482868
221	0x3d1cb2b7	0.038256373
222	0xbc9a0de8	-0.01880546
223	0xbd343005	-0.043991107
224	0xbbd887f2	-0.006608003
225	0xbcd96ac6	-0.026540171
226	0xbc854ee9	-0.016272979
227	0xbd71327f	-0.058886047
228	0x3d10892a	0.03528706
229	0xbd370047	-0.044678
230	0x3d0cd090	0.03437859
231	0x3ce12d15	0.027487317
232	0x3d40239f	0.04690897
233	0xbd4ea84e	-0.050453477
234	0x3d31df17	0.043425646
235	0xbd0c6c95	-0.03428324
236	0x3c566062	0.013084503
237	0x3d5f3318	0.054492086
238	0xbcb436b3	-0.021998739
239	0x3d5ab83c	0.053398356
240	0xbc72b0a8	-0.014812626
241	0xbd088918	-0.033333868
242	0x3d226844	0.039650217
243	0xbd627d20	-0.05529511
244	0x3d277bca	0.04088954
245	0x3d2d97ca	0.042381085
246	0x3d7548e1	0.059883956
247	0xbc6e5356	-0.014546236
248	0xbd56d018	-0.052444547
249	0x3c72078e	0.014772309
250	0x3cff3fdf	0.031158386
251	0xbd86cae6	-0.065816686
252	0xbc85099c	-0.016239934
253	0xbd280e4e	-0.041029267
254	0xbb758fec	-0.0037469817
255	0xbcc1045e	-0.023561653

feature_process_low.bias f4 [8]
0	0x3d701a2e	0.058618717
1	0xbd1fdaca	-0.039027013
2	0xbd224c42	-0.039623506
3	0xbbc02298	-0.005863499
4	0xbc7af603	-0.015317443
5	0xbc5058bd	-0.012716469
6	0xbd4d4a91	-0.05011994
7	0x3c8e7b6d	0.017392838

feature_process_high.weight f4 [16, 8]
0	0xbe964788	-0.2935145
1	0x3d3d7085	0.046249885
2	0x3e4b3bcf	0.19847034
3	0x3da52ff2	0.080657855
4	0x3d24ab48	0.04020241
5	0x3d8ed00e	0.06973277
6	0xbdd4061a	-0.10352726
7	0xbd6ad48f	-0.057331618
8	0xbe1f84f7	-0.15578066
9	0xbe6281eb	-0.22119872
10	0xbe3818a3	-0.17978148
11	0x3ea6771a	0.32512742
12	0xbd91312d	-0.07089458
13	0x3e025681	0.12728311
14	0x3e6d231b	0.23157923
15	0xbcb74e25	-0.02237613
16	0xbe4af5bd	-0.19820304
17	0xbe7c35f6	-0.2462996
18	0xbdc5da77	-0.096608095
19	0x3dff2fc9	0.12460286
20	0xbe9c038d	-0.3047146
21	0xbd237dbf	-0.039914843
22	0x3e0d6945	0.13809688
23	0x3e9af964	0.30268395
24	0x3dbb6c88	0.0915156
25	0x3de0699a	0.10957642
26	0x3e86ec59	0.26352194
27	0x3e5b9ea5	0.21447237
28	0x3dfc2220	0.12311196
29	0xbde0dfc4	-0.1098018
30	0xbe864c45	-0.26230064
31	0xbc7ab937	-0.015302948
32	0xbd95141c	-0.07279226
33	0xbb3c2d87	-0.002871366
34	0xbd84a357	-0.06476467
35	0x3e0406ea	0.12893263
36	0x3e829136	0.25501412
37	0xbe278e35	-0.16362841
38	0xbead8d38	-0.33896804
39	0xbe5c4707	-0.2151147
40	0xbe3ae7e9	-0.18252529
41	0x3e566dc3	0.20940308
42	0xbe49e09a	-0.19714585
43	0xbc90c4fc	-0.017672054
44	0xbdb5752c	-0.088602394
45	0xbe63e261	-0.22254325
46	0x3e3aa8f0	0.18228507
47	0xbdedd663	-0.11613157
48	0xbc323685	-0.010877256
49	0xbe81385e	-0.25238317
50	0xbd6729e7	-0.056436446
51	0x3d35759a	0.044301607
52	0xbb2f76d7	-0.0026773715
53	0xbe0406c0	-0.128932
54	0x3de1178a	0.10990818
55	0xbdfc40a0	-0.12317014
56	0xbe3d8c5b	-0.18510573
57	0xbe88ff01	-0.26757053
58	0xbde95aa2	-0.1139424
59	0xbe9b49eb	-0.30329832
60	0x3ea0ab6d	0.31380787
61	0xbe27e3bd	-0.16395469
62	0xbe21a42d	-0.15785284
63	0x3c07097a	0.0082420055
64	0x3db359e3	0.08757379
65	0xbd0db800	-0.034599304
66	0x3e7c2f79	0.24627484
67	0xbe52c2fc	-0.20582193
68	0x3df600ec	0.120118946
69	0x3c33cd2e	0.010974212
70	0xbe9667c7	-0.2937605
71	0xbe05cdf1	-0.13066842
72	0x3da82926	0.082109734
73	0x3dabb750	0.083845735
74	0x3e84c0d3	0.25928363
75	0x3e6eaccb	0.23308103
76	0xbe541fb0	-0.20715213
77	0xbe12d26a	-0.14338079
78	0xbda96ce2	-0.08272721
79	0xbe7555e1	-0.23958541
80	0xbdde2331	-0.10846556
81	0xbe8d8007	-0.2763674
82	0x3e1de5eb	0.15419738
83	0x3e8242f3	0.25441703
84	0x3c1bd5b5	0.009511401
85	0xbe842429	-0.25808838
86	0xbe8386da	-0.2568882
87	0xbdbc1c76	-0.09185116
88	0x3dd23841	0.10264636
89	0x3d2222e5	0.03958406
90	0x3e00f695	0.12594064
91	0x3ebdeceb	0.37094817
92	0x3e13eff1	0.14446999
93	0x3dafa7b6	0.0857691
94	0xbd62c77c	-0.055366024
95	0x3e6a7120	0.22894716
96	0x3df80033	0.12109413
97	0xbeb4ab83	-0.35287103
98	0xbe5d5997	-0.21616207
99	0x3c0501db	0.008118118
100	0x3e373927	0.17892896
101	0x3e162bf3	0.14665203
102	0xbe55b143	-0.20868401
103	0xbebf801b	-0.37402424
104	0xbae7269e	-0.001763541
105	0xbd86e9b1	-0.06587542
106	0x3d8425e2	0.06452538
107	0xbdb596e7	-0.08866673
108	0x3e92d31d	0.28676692
109	0xbb53e245	-0.0032330912
110	0x3e84acd2	0.259131
111	0xbe831c26	-0.25607413
112	0x3e1ab155	0.1510671
113	0x3dab9873	0.08378687
114	0xbe22ef5c	-0.15911621
115	0x3e3a2641	0.18178655
116	0xbeb117eb	-0.3458856
117	0x3e949ef7	0.2902753
118	0x3d1683e3	0.03674687
119	0x3cb6f907	0.022335542
120	0x3e3f14da	0.18660298
121	0x3dad03d2	0.08447994
122	0x3e36264c	0.17788047
123	0x3e973fc0	0.29540825
124	0xbea0c040	-0.31396675
125	0x3e6e9158	0.23297632
126	0x3ce55b47	0.027997626
127	0x3b50b05b	0.0031843397

feature_process_high.bias f4 [16]
0	0x3da751b4	0.081698805
1	0x3e86b09b	0.26306614
2	0xbe48baa1	-0.19602443
3	0xbe234e2d	-0.1594779
4	0x3e54942a	0.20759645
5	0xbe1ae228	-0.15125334
6	0x3dd4efad	0.10397277
7	0xbd2ca067	-0.04214516
8	0x3dc087ae	0.09400879
9	0x3e882a1b	0.26594624
10	0xbe1c017a	-0.15234938
11	0xbe227e64	-0.15868527
12	0x3e3916de	0.1807513
13	0x3c9c5c25	0.019086907
14	0xbd6338db	-0.055474143
15	0xbe7a5115	-0.24444993

feature_norm.weight f4 [16]
0	0x3f7df63d	0.99203855
1	0x3f7fe447	0.999577
2	0x3f818baa	1.0120747
3	0x3f7d636f	0.9897985
4	0x3f7d1eaa	0.98874915
5	0x3f7da230	0.99075603
6	0x3f7f0193	0.9961178
7	0x3f7e8f77	0.9943766
8	0x3f7f127f	0.996376
9	0x3f7ff211	0.9997874
10	0x3f7d26d7	0.9888739
11	0x3f84d659	1.0377914
12	0x3f82f327	1.0230454
13	0x3f808529	1.0040637
14	0x3f78651b	0.97029275
15	0x3f7ce8ac	0.9879253

feature_norm.bias f4 [16]
0	0xbcb2d82e	-0.021831598
1	0xbc8bdf60	-0.017074287
2	0x3a9d3a24	0.0011995477
3	0xbb72fd03	-0.0037077076
4	0xbca3c165	-0.019989679
5	0x3b0a6128	0.0021115039
6	0xbcb656ea	-0.02225824
7	0xba2c057e	-0.00065620977
8	0xbc4a8ef2	-0.012363182
9	0x3ba7d47d	0.005121766
10	0xbc3beb58	-0.011469685
11	0x3cf81250	0.03028217
12	0x3c1a9a6c	0.009436231
13	0xbbb272ec	-0.0054458287
14	0xbcb94f7c	-0.022620909
15	0xbca98d98	-0.0206974

graph_attention.learnable_adj_u f4 [4, 47, 8]
0	0xbd130150	-0.035889924
1	0xbd993c0d	-0.07482157
2	0xbd9eb08b	-0.07748517
3	0x3dac97de	0.08427404
4	0x3dc360ee	0.09539972
5	0xbc88f267	-0.016717149
6	0x3d183ef2	0.037169404
7	0xbce8aa2c	-0.028401457
8	0x3cd29fe2	0.025711004
9	0xbca64e6e	-0.02030107
10	0xbd8132d9	-0.063085265
11	0xbd50fc21	-0.0510217
12	0x3df6b20e	0.1204568
13	0x3ca774d7	0.020441456
14	0xbd87d0ae	-0.06631599
15	0x3c618a65	0.013765906
16	0xbdf7c623	-0.120983385
17	0x3a8c35d1	0.0010697191
18	0x3dbea6d4	0.09309164
19	0x3c652b01	0.013987304
20	0x3cecb19d	0.028893286
21	0xbde9f1b1	-0.11423052
22	0xbcbada2e	-0.022809114
23	0x3d928d18	0.07155818
24	0xbdb6187e	-0.0889139
25	0xbd685ddd	-0.05673014
26	0x3da7d737	0.08195346
27	0x3d0ea536	0.034825526
28	0x3d683339	0.056689475
29	0xbde798be	-0.1130843
30	0x3d9e10fa	0.07718082
31	0xbcd8adbf	-0.026450036
32	0x3cd0c8c2	0.025486354
33	0x3dc8bf31	0.09802092
34	0xbde4e019	-0.11175556
35	0x3d0e1d92	0.03469617
36	0xbde0851d	-0.10962889
37	0x3db7de2d	0.089779235
38	0x3d11d9c1	0.035608057
39	0x3c5d1372	0.013493406
40	0xbd46fd2b	-0.048581284
41	0x3d3b473e	0.04572224
42	0xbd80e918	-0.06294459
43	0x3cbde6a1	0.023181261
44	0x3dd090cf	0.1018387
45	0xbdba6aba	-0.09102388
46	0xbd0db96b	-0.034600656
47	0x3ce8084f	0.028324274
48	0x3cac6ff0	0.02104947
49	0x3ada9555	0.0016676584
50	0x3dd5aa81	0.10432912
51	0xbd0113df	-0.03151309
52	0x3d0020ce	0.031281285
53	0x3d839eae	0.0642675
54	0xbcc09dfa	-0.02351283
55	0x3da248c5	0.07924036
56	0x3da23399	0.07919998
57	0x3d5d2fa4	0.05400051
58	0xbcf25d31	-0.029585453
59	0x3dd7b98d	0.10533438
60	0xbd8f8184	-0.07007125
61	0x3d198456	0.03747972
62	0x3cc77864	0.024349399
63	0x3daf4bfb	0.08559414
64	0xbdcb91b1	-0.09939898
65	0x3cad309a	0.02114134
66	0xbd8f06b0	-0.069836974
67	0x3d83a305	0.06427578
68	0x3d2a9167	0.041642573
69	0xbdc13159	-0.094332404
70	0xbbf8c7ac	-0.007592162
71	0x3d0af29c	0.033922777
72	0x3d539849	0.051658902
73	0x3ddcf27d	0.107884385
74	0x3d5f11d8	0.054460377
75	0x3cbd74d1	0.023126991
76	0x3d847b59	0.06468839
77	0xbdeb018d	-0.11474905
78	0x3da59613	0.08085265
79	0xbc699a40	-0.0142579675
80	0x3d8c8f8c	0.06863317
81	0x3d0e3d7f	0.034726616
82	0xbbd18df8	-0.006395098
83	0x3daed219	0.08536167
84	0xbd90c7fe	-0.070693955
85	0x3d0c12e4	0.034197703
86	0x3d59bf31	0.05316085
87	0xbd30c573	-0.043157052
88	0x3d33f152	0.043931313
89	0xbdf5a980	-0.1199522
90	0xbd7adfc8	-0.06124857
91	0x3d71811e	0.058961026
92	0x3d800201	0.06250382
93	0xbde3f73f	-0.11131143
94	0x3d2be583	0.041966926
95	0x3c3ad216	0.011402627
96	0x3df26e90	0.118374944
97	0xbdf23e3e	-0.11828278
98	0xbcecc4af	-0.02890238
99	0xbd8ca75b	-0.06867858
100	0xbd971e9b	-0.073788844
101	0xbca240cd	-0.01980629
102	0xbde44229	-0.111454315
103	0x3dc29350	0.09500754
104	0xbd2fbcc8	-0.042904645
105	0x3d2e0b57	0.042491283
106	0xbd9223ee	-0.07135759
107	0x3a2b697c	0.0006538851
108	0xbdaff1a7	-0.085910134
109	0x3dc7e5d0	0.0976063
110	0x3dd17545	0.102274455
111	0x3dc38754	0.09547296
112	0xbd2de2e9	-0.042452727
113	0x3d9a92e8	0.075475514
114	0xbdcf80a3	-0.101319574
115	0x3d63e97a	0.055642582
116	0xbc753e87	-0.014968521
117	0xbdcdce78	-0.100491464
118	0xbdc7519b	-0.09732362
119	0xbde868bd	-0.11348102
120	0x3cba28c4	0.022724517
121	0xbd33a7aa	-0.04386107
122	0xbd64c493	-0.05585153
123	0x3dec6fbe	0.11544751
124	0xbd175624	-0.036947384
125	0x3d278a3a	0.040903307
126	0xbcaee2a7	-0.02134831
127	0x3d95c752	0.07313408
128	0x3d143a18	0.036188215
129	0x3d9d462c	0.076794
130	0x3d01b372	0.031665273
131	0xbcd9ba3c	-0.026578061
132	0x3ddb8141	0.107180126
133	0xbc0da523	-0.008645329
134	0xbd94ad4e	-0.07259618
135	0x3d1a92bc	0.037737593
136	0xbc7118c5	-0.014715378
137	0xbdb8305e	-0.089936
138	0x3c81f466	0.015863609
139	0xbce6d259	-0.028176473
140	0xbd45ce8b	-0.048292678
141	0xbd6d1072	-0.05787701
142	0xbd53619c	-0.05160676
143	0xbd49266f	-0.04910892
144	0x3c4339cd	0.011915636
145	0x3defede5	0.11715297
146	0xbd91920a	-0.07107933
147	0xbd67b9f8	-0.056573838
148	0xbda67c28	-0.0812915
149	0xbb96c8e1	-0.0046015834
150	0x3c0b4e51	0.008502559
151	0xbdaa7862	-0.083237424
152	0x3d62e224	0.055391446
153	0xbddebe2a	-0.10876115
154	0x3de5de94	0.11224094
155	0x3cbaf37e	0.022821184
156	0xbc483ee0	-0.012222022
157	0xbd31db1b	-0.043421846
158	0x3d5f0629	0.054449234
159	0x3db55bbb	0.08855387
160	0xbda27274	-0.079319865
161	0xbcf90284	-0.030396707
162	0x3db6d43e	0.08927201
163	0xbcba2cc4	-0.022726424
164	0xbdb6dff8	-0.089294374
165	0xbd1fa067	-0.03897133
166	0x3b894388	0.0041889586
167	0xbcb97597	-0.022639079
168	0xbdaa329b	-0.083104335
169	0xbd9b97e8	-0.07597333
170	0x3d064e3b	0.03278945
171	0x3daa6847	0.083206706
172	0x3de1ef65	0.11031989
173	0xbc609295	-0.013706823
174	0x3d3f1ca6	0.04665818
175	0xbdc53ffc	-0.09631345
176	0x3d84574b	0.06461962
177	0x3ded513f	0.11587762
178	0x3d815497	0.06314962
179	0xbd446403	-0.04794694
180	0x3dca7d61	0.098871954
181	0xbdeb367e	-0.11485003
182	0xbc6e6a64	-0.014551733
183	0xbcf6259b	-0.030047229
184	0xbdf7ba2d	-0.12096057
185	0xbd8dae6e	-0.069180354
186	0xbdb4f2f2	-0.08835401
187	0x3d058083	0.03259326
188	0xbc254466	-0.010087108
189	0x3d64208c	0.0556951
190	0xbcdf79c2	-0.027279738
191	0x3dccdd40	0.100031376
192	0x3c610c08	0.013735779
193	0x3dcddf81	0.100523956
194	0x3dc9ad6c	0.09847531
195	0xbdd29e81	-0.102841385
196	0xbda6c9fb	-0.081439935
197	0x3d95977d	0.07304285
198	0x3deaa3e5	0.11457042
199	0xbdd3f9d6	-0.10350387
200	0x3ae8a29f	0.001774866
201	0xbd3ef77f	-0.04662275
202	0x3de9d183	0.11416914
203	0x3dce50cd	0.10074005
204	0x3db4c127	0.088259034
205	0x3d85a6c6	0.0652595
206	0xbc3a5e65	-0.0113750445
207	0x3de52aff	0.111898415
208	0xbd686fd7	-0.056747284
209	0x3bc465a2	0.005993561
210	0xbd02b194	-0.031907633
211	0xbdb52d70	-0.08846557
212	0xbd6b62b8	-0.057467192
213	0x3cf0ddae	0.02940258
214	0xbc3144e7	-0.01081965
215	0xbda4861f	-0.08033394
216	0xbc7c9755	-0.01541694
217	0x3cab9214	0.020943679
218	0xbdadc350	-0.084845185
219	0x3d95fdcb	0.07323798
220	0xbdd32651	-0.10310043
221	0x3a98125d	0.0011602152
222	0xbdcb294b	-0.099199854
223	0xbddff4e2	-0.109353796
224	0xbc76cf52	-0.015064077
225	0x3de166f4	0.11005965
226	0x3deac839	0.11463971
227	0x3d3285de	0.043584697
228	0x3dc08037	0.09399455
229	0xbd87c385	-0.06629089
230	0x3d8bd2ac	0.06827292
231	0x3d9789da	0.0739934
232	0xbded5ab1	-0.11589564
233	0xbdbe52c7	-0.09293132
234	0x3d56974a	0.052390374
235	0x3c3798db	0.011205877
236	0xbda81b87	-0.082083754
237	0xbdc3fbd6	-0.09569518
238	0x3db37e96	0.08764379
239	0x3c590be1	0.013247461
240	0xb98cb564	-0.00026838027
241	0xbdf01705	-0.117231406
242	0x3dd9e7ff	0.10639953
243	0xbda42db2	-0.08016528
244	0x3d5d543f	0.05403542
245	0xbc6ee7e8	-0.014581658
246	0x3b817c6f	0.003951601
247	0x3d73e424	0.059543744
248	0xbd0451a9	-0.03230444
249	0xbd0b59ce	-0.03402119
250	0x3dc5fc5c	0.09667274
251	0xbdbe4f86	-0.09292512
252	0x3d5d0aa3	0.053965222
253	0xbd002fe3	-0.03129567
254	0xbd25f7ae	-0.04051941
255	0x3da6410c	0.081178755

graph_attention.learnable_adj_v f4 [4, 8, 47]
0	0xbdc07b40	-0.09398508
1	0x3d372558	0.04471335
2	0x3cceee0e	0.025259998
3	0xbd263df0	-0.040586412
4	0x3cf9920d	0.03046515
5	0x3dcabcc0	0.098992825
6	0x3d8099fb	0.062793694
7	0xbdc0bec3	-0.09411385
8	0xbcdaf8f9	-0.026730048
9	0x3dbf9bb4	0.0935587
10	0x3c82b8f4	0.015957333
11	0x3c505612	0.012715833
12	0x3bf1232f	0.0073589305
13	0xbd1488ca	-0.036263265
14	0xbcdd075c	-0.026981048
15	0x3be04d14	0.006845126
16	0x3d9f01fd	0.07764051
17	0xbcee251f	-0.029070435
18	0xbcdd1d75	-0.026991585
19	0x3ca0d7b4	0.019634105
20	0xbd1aa05d	-0.03775059
21	0x3db8407e	0.08996676
22	0x3d9ee78d	0.077590086
23	0x3b8dfcbb	0.0043331063
24	0xbd889976	-0.06669895
25	0x3cec7883	0.028866058
26	0x3db3235e	0.0874698
27	0x3d0b2dbd	0.033979166
28	0x3d3114d2	0.043232746
29	0xbd5f9e8d	-0.054594565
30	0xbdd016d2	-0.10160603
31	0xbd1edc49	-0.0387843
32	0x3b58054d	0.0032962144
33	0x3dbbad19	0.09163875
34	0x3cb06b4f	0.021535544
35	0xbc9ae504	-0.018908031
36	0xbcd4500f	-0.025917081
37	0xbca18e58	-0.019721195
38	0xbd632cad	-0.055462528
39	0xbd30de17	-0.04318055
40	0x3c9cf8d8	0.019161627
41	0x3d8f0d08	0.069849074
42	0x3db36a84	0.087605506
43	0x3d22b131	0.039719764
44	0xbd91f51e	-0.071268305
45	0x3dc346e2	0.09535004
46	0x3dcbf873	0.09959497
47	0xbcfb1850	-0.030651242
48	0x3b690d88	0.0035561044
49	0x3dbf35a3	0.09336402
50	0xbd148fbd	-0.036269892
51	0x3d484780	0.048896313
52	0x3c8c8a2a	0.017155726
53	0x3d6b7ef3	0.057494115
54	0x3d1331c0	0.035936117
55	0x3dd192e8	0.10233098
56	0x3db30568	0.087412655
57	0xbd902230	-0.07037771
58	0x3d7e3d50	0.06207019
59	0xbca72bc8	-0.020406619
60	0xbd5d0c59	-0.053966854
61	0x3c8db7ad	0.017299498
62	0xbc660395	-0.01403894
63	0xbd89a7eb	-0.06721481
64	0xbdba73ef	-0.09104144
65	0xbd6b7285	-0.05748226
66	0x3c2dfbd0	0.010619119
67	0x3d80bbd8	0.06285828
68	0x3d78f200	0.060777664
69	0x3ce15323	0.027505463
70	0x3dc86226	0.09784345
71	0xbdb4eb40	-0.08833933
72	0xbd84f503	-0.06492045
73	0x3d35db2f	0.044398483
74	0xbdc0673d	-0.09394691
75	0x3dc73862	0.09727551
76	0x3c690005	0.014221196
77	0xbd1bb382	-0.03801299
78	0x3dbc7bb6	0.092032835
79	0x3d44f981	0.048089508
80	0x3db1a6b2	0.08674373
81	0x3d9f23bf	0.0777049
82	0xbc930daa	-0.017950851
83	0x3dbfc17c	0.09363076
84	0x3c5f2af1	0.013621078
85	0x3c23a24c	0.009987425
86	0x3d12cca5	0.035839695
87	0xbda55ef3	-0.08074751
88	0xbd7c9ad4	-0.061671093
89	0x3dc7e199	0.09759826
90	0xbd8a3be7	-0.06749707
91	0x3d6446a4	0.05573143
92	0x3d7f53f3	0.06233592
93	0xbdab7dc2	-0.08373596
94	0xbc41ac51	-0.011820869
95	0xba90a680	-0.0011035949
96	0x3d9cb6bb	0.076520406
97	0xbce73797	-0.02822475
98	0x3dbec9a0	0.09315801
99	0xbdb14035	-0.08654825
100	0x3d307de6	0.043088816
101	0x3d66ab68	0.05631581
102	0xbd183176	-0.037156545
103	0xbd0aef50	-0.033919632
104	0xbd868b89	-0.06569583
105	0x3ce02ac2	0.027364139
106	0x3d0d935b	0.034564357
107	0xbd147e55	-0.036253292
108	0x3daad359	0.083410926
109	0xbc817762	-0.015803996
110	0xbc83a7b4	-0.016071178
111	0x3da4fa9d	0.08055613
112	0x3c940b65	0.01807184
113	0x3d62271f	0.05521309
114	0x3d790427	0.060794976
115	0xbd8a4475	-0.067513384
116	0xbaab3c3b	-0.0013064215
117	0x3dba8dca	0.09109075
118	0xbd829e42	-0.063778415
119	0x3c5d52e9	0.013508537
120	0x3d9ce942	0.07661678
121	0x3c3a95e5	0.011388277
122	0xbcbd753f	-0.023127196
123	0x3d18c58c	0.03729777
124	0xbdaeb8fb	-0.08531376
125	0x3dad8c74	0.08474055
126	0x3da5f051	0.08102477
127	0xbcec9c68	-0.028883174
128	0xbd18d4ee	-0.03731244
129	0xbca546a1	-0.02017528
130	0x3dd22c4c	0.10262355
131	0xbd222b67	-0.039592173
132	0x3cfd02ef	0.030885188
133	0xbdc88b82	-0.09792234
134	0x3cff660d	0.031176591
135	0x3d7ffa27	0.062494423
136	0x3d08bebc	0.033385023
137	0xbba0992d	-0.0049010725
138	0x3bf6a5a7	0.0075270715
139	0x3db6ecc5	0.08931879
140	0x3d3798e7	0.044823553
141	0xbcc33e64	-0.023833461
142	0xbda9aa56	-0.08284442
143	0x3d99f340	0.075170994
144	0xbd1d49bf	-0.038400408
145	0x3d83b353	0.06430688
146	0xbca9d03e	-0.02072918
147	0x3ae060ad	0.0017118655
148	0xbda69663	-0.08134153
149	0xbd20f20b	-0.03929333
150	0x3c0b6e3e	0.0085101705
151	0xbdcc233e	-0.099676594
152	0xbcade169	-0.021225648
153	0x3d7579de	0.059930675
154	0x3d947732	0.07249297
155	0x3d9b981b	0.07597371
156	0xbd00d671	-0.031454507
157	0x3c0505c4	0.00811905
158	0xbda98189	-0.0827666
159	0x3d5ad833	0.05342884
160	0x3c959a17	0.018261952
161	0x3db0cf32	0.08633269
162	0xbc837211	-0.016045602
163	0x3dca0613	0.0986444
164	0x3d514e63	0.051100146
165	0x3db44542	0.088022724
166	0xbbdbf42d	-0.0067124576
167	0xbda5bd9a	-0.08092804
168	0xbda5a924	-0.08088902
169	0xbdc72bd4	-0.097251564
170	0x3c8c712e	0.017143812
171	0xbda358d6	-0.079759285
172	0xbd0a00f3	-0.03369231
173	0x3d56ad0d	0.052411128
174	0x3dc00811	0.093765385
175	0xbcd3e9be	-0.025868293
176	0x3d923fb6	0.07141058
177	0xbc000d8f	-0.007815733
178	0xbca91605	-0.020640383
179	0xbc47fc66	-0.012206173
180	0xbd3f8fb9	-0.046767924
181	0x3ce741ee	0.02822968
182	0xba125ca6	-0.00055832637
183	0xbd4dd76b	-0.050254267
184	0x3d865b9b	0.06560441
185	0xbd3cbbd2	-0.046077557
186	0xbd8f10a3	-0.06985595
187	0x3d12a896	0.035805307
188	0xbbcf8a43	-0.0063336208
189	0xbd6890b1	-0.056778613
190	0xbdac7015	-0.084198155
191	0xbcfd272a	-0.030902464
192	0xbda1bc55	-0.078972496
193	0x3d65c7a2	0.056098588
194	0xbc527d93	-0.012847322
195	0x3d5998aa	0.053124107
196	0x3d4da4e7	0.05020609
197	0x3c081d2d	0.008307737
198	0xbc8217d8	-0.01588051
199	0xbd59e30e	-0.05319505
200	0x3cbe38ba	0.023220409
201	0xbdb7adcd	-0.08968697
202	0xbd4dddab	-0.050260227
203	0x3da873e7	0.082252316
204	0xbca40022	-0.020019595
205	0x3daa6881	0.08320714
206	0x3d7a2cff	0.061078068
207	0xbcb21e49	-0.021742957
208	0xbdaa058c	-0.08301839
209	0x3da9a433	0.08283272
210	0x3c0e5be1	0.008688898
211	0x3dc7a009	0.09747321
212	0xbdbf0b27	-0.09328299
213	0x3cae1e8c	0.0212548
214	0xbdb5ff7e	-0.08886622
215	0xbc4d2bf1	-0.0125226835
216	0xbdb9266e	-0.09040533
217	0xbdc042de	-0.09387754
218	0x3baa7f60	0.0052031726
219	0x3dd0407a	0.10168548
220	0x3c017bec	0.00790308
221	0xbc1c8fcb	-0.009555767
222	0x3dc4e6a4	0.09614304
223	0x3c1ab02f	0.0094414195
224	0xbd6be491	-0.057591025
225	0x3d865259	0.06558675
226	0x3d96b9fc	0.073596925
227	0x3db7295f	0.08943438
228	0x3da61e89	0.08111293
229	0x3dc45b4a	0.095877245
230	0xbd1cafd2	-0.038253613
231	0x3c72fc31	0.014830635
232	0xbd1a291e	-0.03763687
233	0xbc60f082	-0.0137292165
234	0x3da70143	0.081545375
235	0xbda6e740	-0.08149576
236	0x3d66dd65	0.056363482
237	0xbd741891	-0.05959374
238	0x3a1445f4	0.0005656176
239	0xbc493352	-0.012280302
240	0xbd3e4ad3	-0.046458077
241	0x3c101acb	0.00879545
242	0xbd56017a	-0.052247502
243	0x3dbf5338	0.093420446
244	0xbd18f085	-0.037338752
245	0x3d85b361	0.065283544
246	0xbcc94356	-0.024568241
247	0xbda64fcb	-0.08120688
248	0x3da3fa51	0.080067284
249	0xbce94efa	-0.028480042
250	0xbd2f040a	-0.04272846
251	0x3bfd60f3	0.0077325045
252	0xba89bc2b	-0.0010508349
253	0x3cee6d24	0.029104777
254	0xbccd0180	-0.02502513
255	0xbcf3c814	-0.02975849

graph_attention.qkv_proj_low.weight f4 [24, 16]
0	0x3e485734	0.19564515
1	0xba913300	-0.0011077821
2	0xbd20aa0c	-0.03922467
3	0xbde20b1a	-0.11037274
4	0xbd564fbf	-0.052322146
5	0x3ddbde1c	0.107357234
6	0x3b8ca86b	0.004292538
7	0x3e473211	0.19452693
8	0xbd03668b	-0.032080214
9	0xbd0db980	-0.034600735
10	0x3e05caaa	0.13065591
11	0x3a17d544	0.0005791972
12	0xbd135e19	-0.03597841
13	0x3de0a602	0.109691635
14	0x3e51a370	0.20472503
15	0x3d662097	0.056183424
16	0x3e2edd75	0.17076667
17	0x3e2f9ce2	0.1714969
18	0x3da40962	0.08009602
19	0x3d91be0b	0.07116326
20	0x3db07f06	0.08617978
21	0x3b723847	0.0036959813
22	0x3e5ff95f	0.21872471
23	0x3e5eccce	0.21757814
24	0x3d8d61e5	0.069034375
25	0xbc177285	-0.009243612
26	0x3e52f46a	0.20601049
27	0xbe3ee8ce	-0.18643495
28	0x3e2dd2e6	0.16974983
29	0x3e12fa0c	0.14353198
30	0x3e27f39d	0.16401525
31	0xbce1fc99	-0.027586268
32	0xbe3cc710	-0.18435311
33	0x3e4a6201	0.19763948
34	0xbdd624fb	-0.10456272
35	0x3d88fd25	0.066889085
36	0x3e04595d	0.12924714
37	0xbe7c9f16	-0.24670061
38	0x3c91832f	0.017762749
39	0xbdd780aa	-0.105225876
40	0x3e2a3bf5	0.16624434
41	0xbe1f629c	-0.1556496
42	0x3df26ca8	0.11837131
43	0x3df5d544	0.12003568
44	0x3de50976	0.11183445
45	0x3e7776d9	0.2416643
46	0x3d568623	0.052374016
47	0xbe76fec2	-0.2412062
48	0x3e3351ac	0.17511624
49	0x3cd2a412	0.025713
50	0xbba525d4	-0.00503991
51	0xbe7bf4a4	-0.24605042
52	0xbd5f5dc3	-0.054532778
53	0xbdee4d39	-0.11635823
54	0x3e6cd8c0	0.23129559
55	0x3e35cf3d	0.17754836
56	0x3e3e3f88	0.18578923
57	0x3e3371cb	0.17523877
58	0xbe28f0b7	-0.16498075
59	0xbdf4ecc8	-0.11959225
60	0xbde733ed	-0.11289201
61	0xbdef2d9e	-0.11678623
62	0x3e49d438	0.19709861
63	0x3da9863a	0.08277555
64	0x3e4018c6	0.1875945
65	0xbbeeb740	-0.0072850287
66	0xbe65923e	-0.22419068
67	0xbd86caa4	-0.065816194
68	0x3e3aefcb	0.18255536
69	0x3e1f807d	0.15576358
70	0x3d9fac95	0.07796589
71	0xbda331d0	-0.07968485
72	0xbe650ec7	-0.22368918
73	0xbe06e772	-0.13174227
74	0x3de2ffa5	0.110839166
75	0xbe125f95	-0.14294274
76	0x3e05c006	0.13061532
77	0x3daa4e1d	0.0831568
78	0xbdb1f114	-0.0868856
79	0x3e146123	0.1449018
80	0xbd91034e	-0.070807084
81	0xbc3e7d50	-0.0116265565
82	0xbdcafc55	-0.0991141
83	0xbe708da0	-0.23491526
84	0x3d210dea	0.03931991
85	0x3da23854	0.079209
86	0xbe0c7363	-0.13715892
87	0x3e2dbbae	0.16966125
88	0xbe5dab04	-0.21647269
89	0xbe77f710	-0.2421534
90	0xbe0bff8b	-0.136717
91	0xbd8fde94	-0.07024875
92	0xbd35b0b0	-0.044357955
93	0xbd9726c2	-0.07380439
94	0x3dcc0ce1	0.09963394
95	0xbe5b13f9	-0.21394338
96	0x3d4ddae6	0.050257586
97	0x3b9f484d	0.004860914
98	0x3d8df5f6	0.06931679
99	0x3e6dcda9	0.23222984
100	0x3e161e7d	0.14660068
101	0xbe0b8dfc	-0.13628381
102	0xbe4f577a	-0.20248213
103	0xbd4d3f9c	-0.05010949
104	0xbe05ba20	-0.13059282
105	0x3db56841	0.088577755
106	0x3c11ea93	0.0089060245
107	0x3e6155ae	0.2200534
108	0x3da93d51	0.08263648
109	0xbd89ecfc	-0.06734654
110	0x3bd54147	0.006508026
111	0x3d849a21	0.0647471
112	0xbc624ccb	-0.013812254
113	0x3e48fef5	0.19628508
114	0xbe4a8577	-0.19777475
115	0x3de2eb5b	0.11080047
116	0xbe21929d	-0.15778585
117	0xbe58fb2f	-0.21189569
118	0xbd5845ac	-0.05280082
119	0x3e102689	0.140772
120	0x3e484044	0.19555765
121	0x3d839ee5	0.06426791
122	0xbcc46e30	-0.023978323
123	0xbd71215a	-0.058869697
124	0xbddcdb77	-0.10784047
125	0xbd26b6a9	-0.040701542
126	0xbcd25655	-0.025675932
127	0x3e532d55	0.20622762
128	0x3e0a972a	0.13534227
129	0xbe49184f	-0.19638179
130	0xbb9c3727	-0.004767317
131	0xbe13dc40	-0.14439487
132	0xbd43d484	-0.047810093
133	0xbe530851	-0.20608641
134	0x3d75028c	0.059816882
135	0xbe40d9de	-0.1883311
136	0x3e824dd3	0.2545
137	0x3e3e259d	0.18569036
138	0xbe3c8033	-0.18408279
139	0xbe844b8f	-0.25838897
140	0x3cd5ddf1	0.026106806
141	0xbd87fdf8	-0.066402376
142	0x3da97188	0.082736075
143	0xbe342437	-0.1759194
144	0x3dca0d46	0.09865813
145	0xbe625122	-0.22101262
146	0xbdfd70b2	-0.123750106
147	0xbe076414	-0.1322177
148	0x3dec9b71	0.115530856
149	0xbc7177c7	-0.01473803
150	0xbe6b994b	-0.23007695
151	0xbe173383	-0.14765744
152	0xbe036817	-0.12832676
153	0xbe78f5da	-0.24312535
154	0x3d0cbfc5	0.034362573
155	0x3dd36052	0.10321106
156	0xbd103392	-0.03520543
157	0xbd9a5de4	-0.075374395
158	0xbb902da6	-0.004399973
159	0xbe479ae8	-0.19492686
160	0xbe1f85cb	-0.15578382
161	0xbc7023e7	-0.014656997
162	0x3e6e8360	0.23292303
163	0xbd600857	-0.054695453
164	0x3df5ff0a	0.120115355
165	0xbdd7b6f5	-0.10532943
166	0xbd8a51ac	-0.06753859
167	0xbe71e565	-0.23622663
168	0x3e571c01	0.21006776
169	0x3e682cb4	0.22673303
170	0x3c0c9e72	0.008582698
171	0x3e3de46e	0.1854417
172	0x3e6717bd	0.22567649
173	0x3e1f276f	0.15542386
174	0x3e03f810	0.12887597
175	0xbe71e13c	-0.23621076
176	0xbe74910c	-0.23883456
177	0xbe49407d	-0.19653507
178	0x3d8f546e	0.069985256
179	0xbe69536e	-0.22785732
180	0xbe3495ce	-0.17635271
181	0xbdf9b13f	-0.1219201
182	0xbe6dfbb2	-0.23240545
183	0x3c221f20	0.009895116
184	0x3d1bfc25	0.03808226
185	0xbe12382f	-0.14279245
186	0x3e31d7d9	0.17367496
187	0xbda70257	-0.08154743
188	0xbd8a5156	-0.06753795
189	0x3e2b8b5f	0.16752385
190	0x3e425aa6	0.18979892
191	0xbcd93f9e	-0.026519593
192	0xbe2f6d0b	-0.1713144
193	0xbdf64588	-0.12024981
194	0x3d36d288	0.044634372
195	0x3e10c723	0.14138465
196	0x3df1f449	0.11814172
197	0xbdeb11cf	-0.11478006
198	0xbe6ee01d	-0.2332768
199	0xbe62cee6	-0.22149238
200	0xbdb1b343	-0.086767696
201	0x3b8bc426	0.004265326
202	0xbdfae3db	-0.12250491
203	0xbe62bc54	-0.22142154
204	0x3c474a6f	0.012163742
205	0xbe38279b	-0.17983858
206	0xbe399255	-0.18122227
207	0xbe578908	-0.21048367
208	0xbd872cb1	-0.06600321
209	0x3e661004	0.22467047
210	0x3dd168a3	0.10225036
211	0xbd083381	-0.033252243
212	0x3d69558c	0.05696635
213	0x3dae4321	0.085088976
214	0x3c0be5e7	0.0085387
215	0xbe52ca2c	-0.20584935
216	0xbe1ee425	-0.15516718
217	0xbe29be92	-0.16576603
218	0xbb601664	-0.0034193033
219	0xbe6e9c36	-0.23301777
220	0xbd09a9e5	-0.03360929
221	0xbd98afa6	-0.07455377
222	0x3e77f7d2	0.2421563
223	0x3e4646c7	0.19362937
224	0x3e17ac1f	0.14811753
225	0x3cd08ad0	0.025456816
226	0xbdb0dfba	-0.086364225
227	0x3d56db5a	0.052455284
228	0xbe2b676a	-0.16738668
229	0xbdea0a3e	-0.11427735
230	0xbd6af48e	-0.05736213
231	0xbd620898	-0.055183977
232	0xbe6b5a94	-0.22983772
233	0x3de3fae7	0.1113184
234	0x3e4bfcc7	0.19920646
235	0xbe24a8dd	-0.16080041
236	0x3d67ed00	0.056622505
237	0xbd48a4ec	-0.048985407
238	0xbb9229ce	-0.00446055
239	0x3b2c191b	0.0026260081
240	0x3e5bcd84	0.21465117
241	0x3d13bb5b	0.036067348
242	0xbe303562	-0.17207864
243	0xbd9c2b12	-0.076254025
244	0x3df44d21	0.11928774
245	0x3de296df	0.110639326
246	0x3bc86ccc	0.006116485
247	0xbd181346	-0.037127756
248	0xbdb05e59	-0.086117454
249	0xbdabd1bb	-0.08389612
250	0xbe0d2b90	-0.13786149
251	0x3c3ad13d	0.011402425
252	0x3db52ffd	0.08847044
253	0x3e45691a	0.19278374
254	0xbd64330d	-0.05571275
255	0x3cbaa487	0.02278353

graph_attention.qkv_proj_low.bias f4 [24]
0	0xbda76495	-0.081734814
1	0xbe3b39e5	-0.18283804
2	0xbe05f2c3	-0.13080887
3	0x3dff001a	0.12451191
4	0x3e30a46f	0.17250226
5	0x3d1e94d2	0.038716145
6	0xbdbbf557	-0.09177654
7	0x3e852c53	0.2601038
8	0x3d29c5bb	0.041448336
9	0xbdfd1f53	-0.1235949
10	0xbde012d5	-0.10941092
11	0xbd09b6d2	-0.033621617
12	0x3dee8103	0.11645701
13	0x3dc5ceae	0.09658562
14	0x3e56421c	0.20923656
15	0x3b1babab	0.0023753445
16	0x3e6b0231	0.22950055
17	0xbdb838b4	-0.0899519
18	0xbddbf24b	-0.10739573
19	0xbdaffee1	-0.08593536
20	0xbe80f0ab	-0.25183615
21	0xbe235346	-0.15949735
22	0xbe7751c5	-0.24152286
23	0x3bfa9b67	0.00764792

graph_attention.qkv_proj_high.weight f4 [48, 24]
0	0x3b517ebb	0.0031966406
1	0xbd629d37	-0.055325713
2	0xbe17a6cd	-0.14809723
3	0x3e4065c1	0.18788816
4	0xbd9044f5	-0.070444025
5	0x3dd6c528	0.10486823
6	0x3e0cc2a3	0.13746123
7	0xbe02908c	-0.12750453
8	0xbd32c501	-0.04364491
9	0x3ded297c	0.11580178
10	0x3e42179a	0.18954316
11	0xbcfb23da	-0.030656744
12	0x3e19da81	0.15024759
13	0xbe12fce8	-0.14354289
14	0xbe034441	-0.12819006
15	0x3e2359d6	0.15952238
16	0xbccc531f	-0.024941979
17	0x3e4bc660	0.19899893
18	0x3c48418d	0.01222266
19	0xbdb3bee7	-0.08776646
20	0x3e3ada93	0.18247442
21	0x3e3c2fec	0.18377656
22	0x3c81cd64	0.015845008
23	0xbe042b9c	-0.1290726
24	0xbb57d85e	-0.0032935361
25	0xbdce30d5	-0.10067908
26	0x3e0bcb0e	0.13651678
27	0x3bc34818	0.005959522
28	0x3d258c1a	0.040416814
29	0x3e09bb17	0.13450275
30	0x3d85d6db	0.06535121
31	0xbe00f407	-0.12593089
32	0x3e1ccf35	0.15313418
33	0x3e0471b1	0.12933995
34	0xbe0bfa29	-0.13669647
35	0x3e1db66f	0.15401624
36	0x3d855751	0.06510795
37	0xbcfc95b6	-0.030833106
38	0xbe17bd14	-0.14818221
39	0xbd3b8831	-0.04578418
40	0xbe560971	-0.20902039
41	0x3de79df4	0.11309424
42	0x3e16be73	0.14721088
43	0xbd735da5	-0.05941548
44	0x3e3b5b02	0.18296435
45	0xbd93d085	-0.07217506
46	0x3d0f932a	0.035052456
47	0xbe0fb0a3	-0.14032225
48	0xbbdb3f51	-0.0066908975
49	0x3db119f2	0.08647527
50	0x3da7ab21	0.08186937
51	0x3bc5bed9	0.0060347137
52	0xbdd0f00f	-0.102020375
53	0x3e134b43	0.14384179
54	0x3e0a83bc	0.13526815
55	0x3d3ee4bc	0.046604857
56	0xbdde3736	-0.108503744
57	0x3d14b869	0.03630868
58	0xbb8e41f5	-0.004341359
59	0x3e34d5a2	0.1765962
60	0x3ccebd6d	0.02523681
61	0x3d03e811	0.032203738
62	0x3ccc8305	0.024964819
63	0x3dd67aaa	0.10472615
64	0x3a3ac1e7	0.00071242306
65	0x3e2a18be	0.16611001
66	0x3dccebab	0.100058876
67	0xbe254c6e	-0.16142437
68	0xbc99fbbc	-0.018796794
69	0xbe322fc4	-0.17401034
70	0xbe21441a	-0.15748635
71	0x3cfecaa1	0.03110248
72	0x3d4ffd44	0.050778642
73	0xbcc50d2a	-0.024054129
74	0x3e38188d	0.17978115
75	0xbdbc8a1f	-0.09206032
76	0xbdbfac71	-0.093590625
77	0xbd018ff3	-0.03163142
78	0xbc03d881	-0.008047224
79	0xb63e2108	-2.8331433e-06
80	0x3e2ee61b	0.17079966
81	0xbdbdc15f	-0.09265398
82	0xbdf81c0a	-0.12114723
83	0x3c0f6071	0.008751021
84	0x3e14894b	0.14505498
85	0x3d8895c5	0.06669191
86	0x3e005197	0.12531124
87	0x3cfefce0	0.03112644
88	0x3e3831f3	0.17987804
89	0x3df081e1	0.117435224
90	0x3e1ef86f	0.15524457
91	0xbce415bd	-0.027842397
92	0xbe3a7619	-0.18209113
93	0xbdc2d2f8	-0.09512895
94	0x3d801c9e	0.06255458
95	0x3e10677b	0.14101975
96	0xbdcaf254	-0.09909502
97	0x3e282265	0.1641937
98	0x3d2d0234	0.04223843
99	0x3c7877e9	0.015165308
100	0xbbae1f40	-0.005313784
101	0xbd46fd9c	-0.048581704
102	0x3e325918	0.17416799
103	0x3cecc3ee	0.02890202
104	0x3e1bb76b	0.15206687
105	0xbe3d7dd5	-0.18505032
106	0xbdbe36a2	-0.09287764
107	0x3c18fb80	0.009337306
108	0x3e253a7d	0.16135593
109	0x3dd82678	0.10554212
110	0x3d2fa116	0.042878233
111	0xbe40101f	-0.1875615
112	0x3c85022b	0.016236385
113	0xbde91183	-0.11380293
114	0xbe23ef79	-0.1600932
115	0x3cc550ee	0.024086442
116	0xbe115e7f	-0.14196204
117	0x3e3a4645	0.18190868
118	0xbde1389f	-0.10997128
119	0x3d956cac	0.07296118
120	0x3dd8c7f1	0.10585011
121	0xbe2b8fa7	-0.16754018
122	0x3df31712	0.11869635
123	0xbca7a14c	-0.020462655
124	0x3dbc2db2	0.09188403
125	0x3e415cdd	0.18883081
126	0xbdc29118	-0.09500331
127	0xbd9f13d0	-0.07767451
128	0x3e3802c2	0.17969802
129	0x3c5f0956	0.013613066
130	0xbc17e6bb	-0.009271319
131	0x3e18513c	0.14874738
132	0xbdc0d756	-0.09416072
133	0xbb4664b0	-0.0030272417
134	0x3e1176f1	0.14205529
135	0x3db50ec5	0.08840708
136	0xbdfd53b5	-0.123694815
137	0x3d9f287f	0.07771396
138	0xbe0e4878	-0.13894832
139	0xbde3aa03	-0.111164115
140	0x3dffed2a	0.12496407
141	0xbd582f64	-0.05277957
142	0xbdd56c93	-0.104210995
143	0x3ca86873	0.020557618
144	0x3d0dae2c	0.03458993
145	0xbe06ccc0	-0.13164043
146	0xbdfd2eba	-0.12362428
147	0xbe412167	-0.18860398
148	0x3d297100	0.04136753
149	0xbe112ce9	-0.14177288
150	0x3b9a80ef	0.004715077
151	0xbd03f9fd	-0.03222083
152	0xbde05111	-0.10952962
153	0xbd98e315	-0.074651875
154	0xbe13b678	-0.14425075
155	0xbdef0c0e	-0.11672221
156	0xbb5deed2	-0.0033864272
157	0xbe2b8174	-0.16748601
158	0xbe361d34	-0.17784578
159	0x3e26ea2d	0.16300268
160	0x3ce9f2d4	0.028558172
161	0xbd95fca2	-0.073235765
162	0x3bf947fa	0.007607457
163	0x3e183e63	0.14867549
164	0xbe3815bd	-0.17977042
165	0xbde07d45	-0.10961393
166	0xbe150473	-0.14552478
167	0xbc36e81c	-0.011163738
168	0xbcb708bf	-0.022343038
169	0xbe281d4d	-0.16417427
170	0x3e1f6898	0.15567243
171	0xbe1608bc	-0.1465177
172	0x3e33f2d5	0.17573102
173	0xbe1a1717	-0.1504787
174	0xbd266568	-0.040624052
175	0x3d56dde1	0.052457694
176	0xbd8cc3c5	-0.068732776
177	0x3e358f2c	0.17730397
178	0xbe03a31b	-0.12855189
179	0xbca66443	-0.02031148
180	0xbe186f85	-0.14886291
181	0x3d857b14	0.06517616
182	0x3e342e49	0.17595781
183	0x3e4bf685	0.19918258
184	0x3d0b8635	0.034063537
185	0xbda829ba	-0.08211084
186	0x3e58911f	0.2114911
187	0x3c51cc4c	0.012805056
188	0x3e023745	0.12716396
189	0xbdda02de	-0.10645078
190	0xbdc3f880	-0.09568882
191	0xbe289f8a	-0.1646711
192	0x3e3fabd6	0.18717894
193	0x3d0f17b3	0.03493471
194	0xbe12e97b	-0.14346878
195	0x3cc8ac32	0.024496172
196	0xbdbcafe2	-0.092132345
197	0xbc29c9d1	-0.010363058
198	0x3d963a2b	0.073353134
199	0xbdb47fcc	-0.08813438
200	0x3d2c2b63	0.042033564
201	0xbe09ab09	-0.13444151
202	0x3d63831c	0.055544958
203	0xbe4cd585	-0.20003326
204	0x3ced6188	0.02897717
205	0x3e4f08e7	0.2021824
206	0x3e653637	0.22383963
207	0x3d9e8a34	0.07741204
208	0x3e2c8dc8	0.1685096
209	0x3e48ec8e	0.19621488
210	0x3d7449e5	0.059640784
211	0x3d895757	0.06706112
212	0x3cc3f458	0.023920223
213	0x3e379f43	0.17931847
214	0x3e2dd7cd	0.16976853
215	0xbdc5252f	-0.09626233
216	0xbc0ac319	-0.0084693665
217	0xbdca7dc2	-0.09887268
218	0x3d9e90d2	0.07742466
219	0xbe406a1c	-0.18790478
220	0x3d929554	0.07157388
221	0xbda25093	-0.079255246
222	0x3da4641b	0.08026906
223	0x3da7386d	0.08165059
224	0xbdc3f699	-0.09568519
225	0x3dc7f774	0.09763995
226	0x3ddf431d	0.10901473
227	0xbe392eca	-0.18084255
228	0x3e4af821	0.19821216
229	0x3e33d6a2	0.17562345
230	0x3e273934	0.16330415
231	0xbc703b75	-0.014662613
232	0x3dc1c9e6	0.09462337
233	0xbded171d	-0.11576674
234	0xbd8eb321	-0.0696776
235	0x3db89a5b	0.09013816
236	0x3dad301f	0.08456444
237	0x3d9d916a	0.07693751
238	0xbe4a464d	-0.1975338
239	0x3e2a6b72	0.1664255
240	0xbdab5c49	-0.08367211
241	0x3e3b8d3e	0.18315598
242	0x3e3138a0	0.17306757
243	0x3db32dc4	0.087489635
244	0x3e53fd84	0.20702177
245	0x3dbd8aaa	0.09254964
246	0x3dfe7535	0.12424699
247	0xbd4d6f90	-0.050155222
248	0x3e463029	0.19354309
249	0x3d309461	0.043110255
250	0x3e14593c	0.14487165
251	0xbd6840a9	-0.05670229
252	0x3e0fb6a8	0.14034522
253	0x3e3a0ea3	0.18169646
254	0xbdf6ad3a	-0.12044759
255	0x3e33c23a	0.1755456

graph_attention.qkv_proj_high.bias f4 [48]
0	0x3e1fc4f6	0.15602478
1	0xbe043629	-0.12911285
2	0xbe24ce85	-0.16094406
3	0xbced2a05	-0.0289507
4	0xbe291f16	-0.16515765
5	0x3d1ab427	0.037769463
6	0x3b4aa996	0.0030923835
7	0xbd990947	-0.07472473
8	0x3e038a60	0.12845755
9	0x3e0b32ba	0.1359357
10	0xbe324455	-0.17408879
11	0xbe235f40	-0.15954304
12	0x3ddd3146	0.10800414
13	0xbe135369	-0.14387287
14	0x3ca369ef	0.019947974
15	0xbd9a80b8	-0.075440824
16	0x3d10f3f4	0.0353889
17	0xbdf48ee2	-0.11941315
18	0xbc36a8cf	-0.011148646
19	0xbd8d51b6	-0.06900351
20	0xbda55159	-0.080721565
21	0xbdef6db1	-0.11690844
22	0x3ce32247	0.027726306
23	0x3dd3baa7	0.103383355
24	0xbbb12aa3	-0.005406694
25	0xbbe6abcd	-0.007039523
26	0x3e0c1b24	0.13682228
27	0x3de039fb	0.10948559
28	0xbd566986	-0.05234673
29	0xbe275eb3	-0.16344719
30	0x3d38c32b	0.045108
31	0x3d832b42	0.06404735
32	0xbe44d136	-0.19220433
33	0xbe52d703	-0.20589833
34	0x3d58211e	0.052765958
35	0x3e6589e3	0.22415881
36	0xbe4e4350	-0.20142865
37	0xbe0bfea1	-0.13671352
38	0xbda2fca8	-0.079583466
39	0xbe30b41c	-0.17256206
40	0xbdf16377	-0.117865495
41	0x3e1db507	0.15401088
42	0x3e226dcf	0.15862201
43	0xbe1a0504	-0.15040976
44	0x3b80df77	0.003932889
45	0xbe3ce420	-0.18446398
46	0x3d48c920	0.049019933
47	0xbe1ae566	-0.15126571

graph_attention.out_proj_low.weight f4 [8, 16]
0	0xbdfc8151	-0.12329353
1	0xbdb4c189	-0.088259764
2	0x3d028033	0.03186054
3	0x3e2e3b2a	0.17014757
4	0xbdd847bb	-0.105605565
5	0x3d400bba	0.046886183
6	0x3e513a7a	0.20432463
7	0xbc32187a	-0.0108700935
8	0x3d22043f	0.03955483
9	0x3c0a7016	0.008449575
10	0x3c0203d0	0.007935479
11	0x3e1e48a1	0.15457393
12	0x3e0226f3	0.1271017
13	0xbdfec423	-0.12439754
14	0x3e7d0a27	0.24710904
15	0x3e129fdd	0.14318796
16	0xbd30dc78	-0.043179005
17	0x3e60b3c0	0.21943569
18	0x3ce36d5e	0.027762111
19	0x3e249b80	0.16074944
20	0xbe53dcae	-0.20689651
21	0x3e5fe760	0.21865606
22	0x3e717a80	0.23581886
23	0xbe3807e0	-0.17971754
24	0xbe72225d	-0.23645921
25	0xbd831d6a	-0.06402095
26	0xbe1d53de	-0.15364024
27	0x3db2aca5	0.087243356
28	0x3dc027ba	0.09382577
29	0xbd058181	-0.032594208
30	0x3e2dbf62	0.16967538
31	0x3b6be60b	0.003599527
32	0xbd9c99d9	-0.076465316
33	0xbe62fce6	-0.22166786
34	0x3dca54f5	0.098794855
35	0xbe735de5	-0.23766287
36	0x3c6aacd2	0.01432343
37	0x3d3f6ded	0.046735693
38	0xbe13c832	-0.14431837
39	0x3da1b1f9	0.07895274
40	0x3cf6dd2e	0.030134764
41	0x3e338750	0.17532086
42	0x3e15758d	0.14595623
43	0xbe3fe251	-0.18738677
44	0xbe40161b	-0.18758433
45	0xbdb67e5b	-0.08910819
46	0xbe40bc15	-0.18821748
47	0x3d8256e3	0.063642286
48	0xbe33f830	-0.17575145
49	0xbe512d6a	-0.2042748
50	0x3d4223c8	0.047397405
51	0x3e1ed7f7	0.15512072
52	0xbdd02d72	-0.10164918
53	0xbe83b2f1	-0.2572246
54	0x3d4aaadf	0.04947936
55	0x3dd1b94f	0.10240423
56	0x3e4fc27c	0.20289034
57	0x3c171956	0.009222349
58	0x3e3bcf01	0.18340684
59	0xbe718348	-0.23585236
60	0x3e78de36	0.24303517
61	0xbe285a1a	-0.16440621
62	0xbe15e12e	-0.1463668
63	0x3e4443eb	0.19166534
64	0xbd289bc8	-0.04116419
65	0x3e2e2852	0.17007568
66	0xbe23cca9	-0.1599604
67	0x3e3efde5	0.1865154
68	0x3e84e5eb	0.25956663
69	0x3da985e2	0.08277489
70	0x3e410d13	0.18852644
71	0xbe21e026	-0.15808162
72	0xbd73f5c9	-0.05956057
73	0x3da39038	0.07986492
74	0x3e10e401	0.14149477
75	0xbdec309d	-0.1153271
76	0x3e0f9b2b	0.14024036
77	0xbda541b0	-0.080691695
78	0xbe0e23e8	-0.13880885
79	0x3d0f6725	0.035010476
80	0xbe65a95b	-0.22427885
81	0xbe7f6db4	-0.24944192
82	0x3d9d0d2e	0.076685295
83	0x3da46437	0.08026927
84	0x3db4a21f	0.08819985
85	0xbcccc1ff	-0.024994848
86	0xbe3e2b83	-0.18571286
87	0xbe6707f0	-0.22561622
88	0x3e72bdec	0.23705262
89	0xbe5e4ad7	-0.21708237
90	0x3d84a738	0.06477207
91	0x3e416732	0.18887022
92	0x3e556f1a	0.20843163
93	0xbe1e0c00	-0.15434265
94	0xbd8cf65e	-0.06882928
95	0xbe3e0074	-0.1855486
96	0x3e2d7014	0.16937286
97	0xbe5de079	-0.21667661
98	0xbe65c44e	-0.22438166
99	0xbe24656b	-0.16054313
100	0x3e4617ed	0.19345064
101	0x3e0e7d70	0.13915038
102	0x3e354fdf	0.1770625
103	0x3e432f03	0.19060902
104	0xbdd2fd31	-0.10302199
105	0xbe133f5d	-0.1437964
106	0xbe169c4a	-0.14708057
107	0x3db3036e	0.087408885
108	0x3da53f51	0.08068717
109	0x3d75ef76	0.06004282
110	0xbe35a924	-0.17740303
111	0x3cede659	0.029040502
112	0xbdf742bf	-0.12073278
113	0xbce8fb05	-0.028440008
114	0xbc973b00	-0.01846075
115	0x3c8b15d7	0.016978187
116	0xbe598ca4	-0.21245056
117	0x3e4e4e7d	0.20147128
118	0xbde5e416	-0.112251446
119	0x3daae02a	0.08343537
120	0x3e270050	0.16308713
121	0x3dd6e840	0.10493517
122	0x3e396a96	0.18107066
123	0x3e26c4a5	0.16285951
124	0x3e27a6d4	0.16372234
125	0x3d4d247b	0.05008362
126	0x3e19b80e	0.15011618
127	0xbdf4f929	-0.11961586

graph_attention.out_proj_low.bias f4 [8]
0	0xbe1f7376	-0.15571389
1	0x3de79dd9	0.11309404
2	0x3d7bc6c8	0.06146887
3	0x3cabe6ca	0.020984072
4	0xbe63a159	-0.22229518
5	0x3de59152	0.11209358
6	0x3e0c5c61	0.13707115
7	0xbd5faf27	-0.054610398

graph_attention.out_proj_high.weight f4 [16, 8]
0	0x3db4631a	0.088079646
1	0x3e2981dd	0.16553445
2	0xbeb6b21d	-0.35682765
3	0xbd79c1dd	-0.060975898
4	0xbe10d907	-0.1414529
5	0xbe427328	-0.18989241
6	0x3e5b606f	0.21423505
7	0x3eaa5312	0.33266503
8	0x3d312f0c	0.043257758
9	0x3e54c5b9	0.2077855
10	0xbe81f55c	-0.25382507
11	0x3d49a790	0.049232066
12	0xbd22017e	-0.039552204
13	0xbe6c2d31	-0.23064114
14	0x3d89a66b	0.06721195
15	0x3dd2e11f	0.10296845
16	0xbc299968	-0.010351516
17	0x3e2215eb	0.15828674
18	0x3e200c72	0.15629748
19	0x3ea4a343	0.3215581
20	0x3cb48daa	0.022040207
21	0x3cb7fdd9	0.022459911
22	0xbc249b3e	-0.010046778
23	0x3d487e8c	0.04894881
24	0xbe6c1bb3	-0.23057441
25	0xbd52f201	-0.051500324
26	0xbe924881	-0.2857094
27	0xbe75eea2	-0.24016812
28	0xbe8ff32e	-0.2811522
29	0x3e837195	0.25672594
30	0xbe56faf0	-0.20994163
31	0xbca96971	-0.020680161
32	0x3cdb593e	0.026775952
33	0x3e96d1d5	0.29456964
34	0x3e280aa6	0.16410312
35	0xbe866507	-0.26248953
36	0x3eaef9cc	0.34174955
37	0xbeb1e9d8	-0.3474872
38	0x3d3c141e	0.045917623
39	0x3e9d5632	0.30729824
40	0x3ea814e1	0.3282843
41	0xbd8bc5ec	-0.0682486
42	0xbe80e091	-0.2517133
43	0x3e30dde8	0.1727215
44	0x3e900486	0.2812845
45	0xbe339774	-0.17538244
46	0xbd8475d8	-0.064677894
47	0xbe4b582d	-0.19857855
48	0x3e1ce0da	0.15320149
49	0x3dda46cd	0.106580354
50	0x3e25d12f	0.16193078
51	0xbe0c5586	-0.137045
52	0xbeb1fa38	-0.34761214
53	0xbe1000e6	-0.14062843
54	0xbe85bec4	-0.26122105
55	0xbdb4ff02	-0.088377014
56	0x3dcfd0bc	0.10147235
57	0xbeb2b02a	-0.34900028
58	0x3b0207ef	0.0019841155
59	0xbea20ee4	-0.31651986
60	0xbe810502	-0.25199133
61	0xbe746b30	-0.23869014
62	0xbdf0b4bf	-0.117532246
63	0xbe1d008a	-0.15332237
64	0x3d4065d2	0.046972103
65	0x3e536fff	0.20648192
66	0x3e8d49db	0.2759541
67	0x3dd7b13e	0.10531853
68	0xbba5c0f3	-0.0050584017
69	0xbda66140	-0.08124018
70	0x3e7745ff	0.24147795
71	0xbe511656	-0.20418677
72	0x3e81da64	0.2536193
73	0xbeafb5db	-0.34318432
74	0xbe8b1a9b	-0.27168736
75	0x3db8bdfa	0.0902061
76	0xbe1e818f	-0.1547911
77	0x3da5fe36	0.081051275
78	0x3e9e3597	0.3090026
79	0x3e2e29c8	0.17008126
80	0x3ea2ffed	0.3183588
81	0xbe34c421	-0.17652942
82	0xbe12e7af	-0.14346193
83	0xbd45be4a	-0.048277177
84	0xbd658e40	-0.056043863
85	0xbe378108	-0.17920315
86	0xbcf7735c	-0.030206375
87	0x3e98aee0	0.2982092
88	0xbe59a614	-0.2125476
89	0x3e3250bd	0.17413612
90	0x3e39ffab	0.18163936
91	0x3e5f5c0d	0.21812458
92	0x3dbe5f93	0.09295573
93	0xbe131560	-0.14363623
94	0x3e16ee61	0.14739372
95	0xbe5834ba	-0.21113864
96	0xbe6f1e97	-0.23351513
97	0x3e9f3ccb	0.3110107
98	0x3e9dc77b	0.30816254
99	0xbe8dfa35	-0.27729955
100	0x3e897aeb	0.2685159
101	0x3dab863f	0.08375215
102	0x3dc5ba49	0.09654672
103	0x3ead5ffe	0.338623
104	0x3cc6f55f	0.024286924
105	0xbd8c83ff	-0.06861114
106	0x3e40409b	0.18774645
107	0xbdad6289	-0.0846606
108	0xbd69e89a	-0.05710659
109	0xbe174928	-0.14774
110	0x3ea4c1d2	0.32179123
111	0x3e0f34e8	0.13985026
112	0xbd51c22a	-0.05121056
113	0x3c0312e6	0.008000111
114	0x3c6dc2dc	0.01451179
115	0xbe62e419	-0.22157325
116	0x3dbeea03	0.09321978
117	0xbe842a01	-0.25813296
118	0xbc1616a1	-0.009160669
119	0xbdd5b33e	-0.10434578
120	0xbe00b9eb	-0.12570922
121	0x3eae6be6	0.34066695
122	0x3da4de02	0.08050157
123	0x3e41bf40	0.18920612
124	0xbe67dc0f	-0.2264254
125	0x3d8bb865	0.0682228
126	0x3da0627b	0.07831284
127	0x3e433647	0.19063674

graph_attention.out_proj_high.bias f4 [16]
0	0xbe07f81e	-0.13278243
1	0xbdaaab83	-0.083334945
2	0xbe94477d	-0.2896079
3	0x3e6b00e2	0.22949556
4	0x3e49a4f0	0.19691825
5	0x3e34fa92	0.1767371
6	0x3e346dd4	0.17620021
7	0x3e2b19c6	0.1670905
8	0x3ea7fec1	0.3281155
9	0x3de18dbb	0.11013361
10	0x3dffa82c	0.12483248
11	0x3dd5a47b	0.10431763
12	0xbe668bbc	-0.22514242
13	0x3db8469a	0.08997841
14	0x3dee1092	0.11624254
15	0xbe83d570	-0.25748777

temporal_module.fusion_weight f4 [3]
0	0x3f84521a	1.0337555
1	0x3f8132b6	1.0093601
2	0x3f797fba	0.9746052
