old/old results/report/optim_results/models/trial_99_best.pt (torch, 64701 bytes, 58 tensors)

temp_conv.depthwise.weight f4 [1, 1, 3]
0.22677411 0.35386977 -0.31758073
00000000: 7937 683e 6b2e b53e f199 a2be

temp_conv.pointwise.weight f4 [12, 1, 1]
-0.2715651 0.1941445 -0.5007722 0.572895 0.8848848 -0.7761061 0.86353064 0.166318
0.7277872 0.14018749 0.4787173 -0.21339299
00000000: 950a 8bbe d1cd 463e 9b32 00bf 3fa9 123f
00000010: cf87 623f e4ae 46bf 5810 5d3f 444f 2a3e
00000020: 4350 3a3f 4f8d 0f3e 6f1a f53e b183 5abe

temp_conv.pointwise.bias f4 [12]
0.7643289 0.14816226 -0.4657038 0.25447032 -0.4608043 -0.11640315 -0.40612707 0.66428494
-0.7889929 -0.45925686 -0.28258198 -0.5980611
00000000: 0fab 433f d9b7 173e ba70 eebe ef49 823e
00000010: 8bee ebbe c664 eebd e3ef cfbe 940e 2a3f
00000020: 70fb 49bf b723 ebbe 96ae 90be 881a 19bf

temp_conv.bn2.weight f4 [12]
1.0497153 0.992942 1.0132135 0.98488736 1.002448 1.0629697 0.99118644 0.98162454
0.9857084 1.0030674 0.9943553 1.0788548
00000000: 125d 863f 7231 7e3f fbb0 813f 9421 7c3f
00000010: 3750 803f 640f 883f 65be 7d3f bf4b 7b3f
00000020: 6357 7c3f 8364 803f 128e 7e3f ea17 8a3f

temp_conv.bn2.bias f4 [12]
-0.050660122 0.12311345 -0.023264682 -0.03685058 -0.01441703 -0.070851855 -0.032143492 0.03267065
0.03277444 0.0373053 -0.019144014 -0.02805967
00000000: fd80 4fbd e822 fc3d 9395 bebc a2f0 16bd
00000010: 6835 6cbc c71a 91bd e5a8 03bd a9d1 053d
00000020: 7e3e 063d 71cd 183d e8d3 9cbc 65dd e5bc

temp_conv.bn2.running_mean f4 [12]
0.6745213 0.2128713 -0.6313324 0.44411314 -0.1679541 -0.3731077 -0.12032862 0.7195607
-0.54819787 -0.4128618 -0.12408825 -0.66812897
00000000: 6ead 2c3f effa 593e 009f 21bf cc62 e33e
00000010: 29fc 2bbe f907 bfbe da6e f6bd 2135 383f
00000020: b256 0cbf 9f62 d3be fb21 febd 800a 2bbf

temp_conv.bn2.running_var f4 [12]
0.02607087 0.013546752 0.088732466 0.11611831 0.2768963 0.21283667 0.26372513 0.0098588895
0.18721218 0.006958507 0.08111176 0.01608999
00000000: 9492 d53c 32f3 5d3c 5eb9 b53d 70cf ed3d
00000010: 5ac5 8d3e dbf1 593e fb06 873e 2e87 213c
00000020: 8db4 3f3e 3004 e43b ec1d a63d 28cf 833c

feature_process_low.weight f4 [8, 240]
0.00903519 -0.06645267 0.058501717 -0.053063218 0.053452898 0.016478017 -0.020698616 0.04000228
0.008641874 0.04858437 0.005640358 -0.02259069 0.017059848 -0.019108467 0.022668622 0.045021392
0.025131505 -0.038110066 0.029557802 0.073931456 0.031037882 -0.04757985 -0.06561477 -0.024959479
-0.047291923 0.06053667 0.026904518 0.031779174 0.014842415 -0.015347218 0.042223234 -0.047244757
0.0024842124 -0.049304463 0.026524214 -0.0085761305 0.029827453 -0.014983319 0.050778 -0.037113212
-0.03419634 -0.038410977 0.059944794 0.025942259 0.06631844 -0.049068354 -0.06014621 -0.049887605
-0.041960556 0.023672543 0.018806547 0.052733548 -0.03723404 -0.0459765 0.030873086 -0.033324096
0.03054676 -0.028891385 0.024551569 0.004567608 -0.032276094 0.014354537 0.013647154 -0.015866224
0.04100157 0.052511882 -0.037521463 -0.028970962 0.054166112 -0.035238724 -0.03164787 -0.065013
-0.0381558 0.011036895 -0.003914861 -0.030842597 0.010188866 -0.050886255 -0.05589771 -0.03570036
-0.056212332 -0.04609784 0.063896395 0.012680376 0.023105582 -0.051593352 -0.033133175 -0.016364507
0.005930683 -0.071631104 -0.036055043 -0.041438296 -0.0014586031 -0.03048884 0.002473065 -0.02845867
-0.034570884 -0.038810123 -0.024376715 -0.050106473 0.05962449 -0.015916944 0.054079812 0.022482825
-0.053712662 0.048015878 -0.016170884 -0.022177115 -0.05064265 -0.068846814 0.0160663 -0.017743496
0.021580786 -0.052352127 0.044729304 -0.05421868 -0.022547103 0.0028967133 0.023691084 0.106936775
0.060153153 -0.056743916 0.01664508 -0.026734633 -0.0038422788 -0.039618198 0.06775845 -0.04236552
0.029175062 0.0075903675 0.011533901 -0.036591224 0.057943687 0.009181331 0.014178065 -0.04230346
0.03666306 -0.014137933 -0.030250182 0.049406774 0.0144799035 -0.04163411 -0.032656405 -0.0031382455
0.038494088 -0.007797847 -0.028828427 -0.016613804 -0.05352472 0.009447077 0.04133868 -0.06429877
0.012816688 0.029009692 0.018384773 -0.007903311 0.041717123 0.029514706 0.0241992 -0.014777935
-0.016407961 0.0010913925 -0.012264695 -0.019191634 0.04377606 0.06423267 0.0027278422 -0.009579616
-0.0038480985 -0.018243736 0.007055076 0.015786722 -0.060747426 -0.029372184 0.05917126 0.039319944
0.006021057 -0.041565828 -0.03975004 -0.06328165 -0.022360463 0.0146986665 0.04010298 0.030524554
-0.054260496 -0.030962702 -0.0007915339 0.06841362 0.0038290045 -0.030503098 0.017809078 -0.027001387
-0.044523638 0.04274985 -0.023847854 0.0020404865 -0.052836843 0.04033981 0.047366902 0.018518383
-0.044269495 -0.068630084 -0.052076764 0.048489973 0.034377124 0.062227454 0.04285373 0.021755496
-0.005660851 -0.06303018 -0.06430291 -0.06185442 0.02438062 -0.037856612 -0.0072855805 -0.022978917
-0.00060663256 -0.05018527 -0.0415427 0.01578551 -0.016823005 0.038415454 -0.019414766 -0.0449147
-0.0073885447 -0.026757194 -0.018214028 -0.059160784 0.034466736 -0.044504732 0.033088423 0.02581796
0.04621465 -0.050764695 0.043294296 -0.035192765 0.011845713 0.05375131 -0.021894613 0.052054282
-0.014707282 -0.03492842 0.039494712 -0.055923034 0.041156087 0.04330686 0.060423743 -0.015351113
-0.052722305 0.014175539 0.032057654 -0.06544488 -0.016061269 -0.040260356 -0.0044082603 -0.024996998
00000000: 5508 143c 5618 88bd 7f9f 6f3d d158 59bd
00000010: 6df1 5a3d e8fc 863c 2590 a9bc 6ed9 233d
00000020: a696 0d3c 6800 473d c1d2 b83b 1c10 b9bc
00000030: 18c1 8b3c 5c89 9cbc 8cb3 b93c 5a68 383d
00000040: 96e0 cd3c 4d19 1cbd 3423 f23c 6069 973d
00000050: 2843 fe3c 17e3 42bd 0961 86bd d277 ccbc
00000060: 2db5 41bd 4df5 773d dd66 dc3c e12a 023d
00000070: 9a2d 733c e672 7bbc 45f2 2c3d b883 41bd
00000080: 2bce 223b 7af3 49bd 4f49 d93c e682 0cbc
00000090: b458 f43c 987c 75bc 98fc 4f3d 0604 18bd
000000a0: 7611 0cbd d454 1dbd ac88 753d dc84 d43c
000000b0: f6d1 873d e6fb 48bd df5b 76bd f256 4cbd
000000c0: d5de 2bbd ecec c13c 3010 9a3c 22ff 573d
000000d0: b982 18bd db51 3cbd 8ee9 fc3c d97e 08bd
000000e0: 333d fa3c a0ad ecbc 5f20 c93c dfab 953b
000000f0: f033 04bd 4b2f 6b3c 5098 5f3c e2f9 81bc
00000100: 43f1 273d b316 573d 1bb0 19bd 8354 edbc
00000110: 49dd 5d3d 7b56 10bd 32a1 01bd 8925 85bd
00000120: 4249 1cbd 18d4 343c 3c48 80bb 9da9 fcbc
00000130: 34ef 263c 1b6e 50bd fff4 64bd 8a3a 12bd
00000140: e73e 66bd 17d1 3cbd 1ddc 823d 5ac1 4f3c
00000150: eb47 bd3c 8d53 53bd a7b6 07bd dc0e 86bc
00000160: 2d56 c23b 54b3 92bd 74ae 13bd 34bb 29bd
00000170: 992e bfba bbc3 f9bc 2513 223b 2822 e9bc
00000180: 339a 0dbd 5df7 1ebd adb1 c7bc 723c 4dbd
00000190: cf38 743d 4064 82bc cb82 5d3d e72d b83c
000001a0: cf01 5cbd 4cac 443d cd78 84bc c8ac b5bc
000001b0: ab6e 4fbd 8fff 8cbd 799d 833c cf5a 91bc
000001c0: 30ca b03c 2f6f 56bd 1336 373d 6814 5ebd
000001d0: b4b4 b8bc c9d6 3d3b ce13 c23c ab01 db3d
000001e0: 2763 763d 4f6c 68bd 435b 883c 9702 dbbc
000001f0: bece 7bbb b146 22bd f1c4 8a3d 7887 2dbd
00000200: 8a00 ef3c 9eb8 f83b b0f8 3c3c aee0 15bd
00000210: 5c56 6d3d 4b6d 163c 1d4b 683c 6546 2dbd
00000220: 012c 163d caa2 67bc 3bcf f7bc c25e 4a3d
00000230: 1e3d 6d3c 8788 2abd b9c2 05bd 06ab 4dbb
00000240: faab 1d3d 1585 ffbb 9829 ecbc ac19 88bc
00000250: bd3c 5bbd eac7 1a3c bf52 293d 13af 83bd
00000260: 16fd 513c bca5 ed3c aa9b 963c e47c 01bc
00000270: 93df 2a3d d3c8 f13c 673d c63c 271f 72bc
00000280: fd69 86bc 0e0d 8f3a dcf1 48bc c637 9dbc
00000290: 874e 333d 6b8c 833d 99c5 323b d2f3 1cbc
000002a0: 6130 7cbb e373 95bc 442e e73b 2853 813c
000002b0: 4bd2 78bd ef9d f0bc 905d 723d f30d 213d
000002c0: 494c c53b ee40 2abd f0d0 22bd cf99 81bd
000002d0: 4a2d b7bc add2 703c 0643 243d a10e fa3c
000002e0: 4140 5ebd 7ea5 fdbc f17e 4fba 711c 8c3d
000002f0: 09f0 7a3b a2e1 f9bc 58e4 913c 0332 ddbc
00000300: 6b5e 36bd 771a 2f3d 935c c3bc afb9 053b
00000310: 726b 58bd 5b3b 253d cc03 423d ddb3 973c
00000320: ee53 35bd ee8d 8cbd 724e 55bd 6c9d 463d
00000330: 07cf 0c3d 37e2 7e3d 6587 2f3d 9538 b23c
00000340: a97e b9bb f815 81bd 3eb1 83bd 0f5b 7dbd
00000350: deb9 c73c 890f 1bbd e1bb eebb 483e bcbc
00000360: 6c06 1fba 128f 4dbd ae28 2abd 9d50 813c
00000370: 66d0 89bc 8659 1d3d b70b 9fbc 7af8 37bd
00000380: 9b1b f2bb e731 dbbc 9635 95bc 9452 72bd
00000390: fe2c 0d3d 984a 36bd ba87 073d 3080 d33c
000003a0: 934b 3d3d a4ee 4fbd 5c55 313d 4a26 10bd
000003b0: 8514 423c 552a 5c3d 555c b3bc df36 553d
000003c0: d0f6 70bc 1a11 0fbd 35c5 213d 8d0f 65bd
000003d0: 4993 283d 8962 313d e37e 773d 3c83 7bbc
000003e0: 58f3 57bd 8540 683c e34e 033d f707 86bd
000003f0: ec92 83bc 0be8 24bd 2b73 90bb 81c6 ccbc

feature_process_low.bias f4 [8]
0.05818274 -0.039557625 -0.03894091 -0.0051282346 -0.014615583 -0.012754781 -0.05189005 0.015997179
00000000: 0651 6e3d 2d07 22bd 8180 1fbd c00a a8bb
00000010: 3376 6fbc 6ef9 50bc a98a 54bd 840c 833c

feature_process_high.weight f4 [16, 8]
-0.29295966 0.04478511 0.19735777 0.08023242 0.039158422 0.07006173 -0.10323419 -0.057143148
-0.15559761 -0.2171551 -0.18362261 0.32421562 -0.07404674 0.12807524 0.23128933 -0.022433106
-0.19961216 -0.2483097 -0.09542949 0.12842317 -0.30390134 -0.040642433 0.13732317 0.30342177
0.08746029 0.11124483 0.26370806 0.22077474 0.12609184 -0.11787772 -0.26385662 -0.01930069
-0.07299668 -0.0072642616 -0.06751297 0.12810689 0.25723946 -0.16536212 -0.3386741 -0.2178385
-0.18193206 0.20682396 -0.19707096 -0.020836705 -0.0872523 -0.22132067 0.17862308 -0.119243935
-0.010343962 -0.25173703 -0.057994492 0.04509811 -0.0022230376 -0.12936307 0.109554306 -0.12465021
-0.18568166 -0.2672592 -0.1120023 -0.3004565 0.3132439 -0.16431236 -0.15778838 0.007184598
0.08756787 -0.035738215 0.24483544 -0.20581207 0.11658065 0.011264282 -0.29441896 -0.12894776
0.082629286 0.08720393 0.25957808 0.2346881 -0.20893012 -0.14173667 -0.08193721 -0.2371883
-0.11054937 -0.2733011 0.15567604 0.24876578 0.013502712 -0.26052642 -0.25931668 -0.095926166
0.10424197 0.043760363 0.1305773 0.37146336 0.14530833 0.09013378 -0.05757592 0.22845891
0.120524935 -0.35073137 -0.21510784 0.008589801 0.18203607 0.1453662 -0.20847812 -0.373981
-0.002279055 -0.06911632 0.06039117 -0.09051233 0.28406405 0.0011964877 0.2596565 -0.25765267
0.15322442 0.07925847 -0.15771939 0.18018572 -0.34625655 0.29062483 0.031455535 0.019733666
0.18681952 0.08407261 0.17754255 0.2978143 -0.3161149 0.23273578 0.030496798 -0.0036964915
00000000: cffe 95be 9770 373d 2818 4a3e e550 a43d
00000010: 9564 203d 867c 8f3d 726c d3bd ef0e 6abd
00000020: fb54 1fbe e85d 5ebe 9107 3cbe 97ff a53e
00000030: d1a5 97bd 2826 033e 1cd7 6c3e a2c5 b7bc
00000040: 2167 4cbe e644 7ebe 8970 c3bd 5d81 033e
00000050: f598 9bbe ae78 26bd 729e 0c3e 195a 9b3e
00000060: 611e b33d 54d4 e33d be04 873e c612 623e
00000070: 381e 013e e069 f1bd 3718 87be 7b1c 9ebc
00000080: 497f 95bd 0b09 eebb 3d44 8abd 742e 033e
00000090: e4b4 833e b054 29be b166 adbe 0e11 5fbe
000000a0: 664c 3abe a9c9 533e f8cc 49be bdb1 aabc
000000b0: 55b1 b2bd e3a1 62be f8e8 363e 2a36 f4bd
000000c0: b979 29bc ade3 80be a28b 6dbd ccb8 383d
000000d0: 62b0 11bb c177 04be 025e e03d 9c48 ffbd
000000e0: 5523 3ebe 33d6 88be 7661 e5bd 6fd5 99be
000000f0: 8161 a03e 8041 28be 4793 21be c76c eb3b
00000100: c956 b33d 3c62 12bd 24b6 7a3e 66c0 52be
00000110: d6c1 ee3d d38d 383c 15be 96be e20a 04be
00000120: 8b39 a93d f997 b23d 6be7 843e 1452 703e
00000130: c7f1 55be 6b23 11be b2ce a7bd 7de1 72be
00000140: b567 e2bd 1fee 8bbe 8a69 1f3e 75bc 7e3e
00000150: 7b3a 5d3c b863 85be 28c5 84be f074 c4bd
00000160: d07c d53d 113e 333d 0eb6 053e 7230 be3e
00000170: b5cb 143e 0f98 b83d bad4 6bbd 22f1 693e
00000180: c7d5 f63d 1093 b3be 3b45 5cbe 3dbc 0c3c
00000190: aa67 3a3e e1da 143e 4a7b 55be 707a bfbe
000001a0: 335c 15bb db8c 8dbd bb5c 773d 875e b9bd
000001b0: d870 913e 77d3 9c3a b2f1 843e 0deb 83be
000001c0: dde6 1c3e 4452 a23d 3181 21be 9b82 383e
000001d0: 8a48 b1be c7cc 943e 85d7 003d 7fa8 a13c
000001e0: 9e4d 3f3e 432e ac3d b7cd 353e 1e7b 983e
000001f0: d0d9 a1be 4a52 6e3e 6cd4 f93c d640 72bb

feature_process_high.bias f4 [16]
0.08339753 0.26043805 -0.19544917 -0.15659645 0.20797303 -0.15557088 0.10385612 -0.042828746
0.09290674 0.26664713 -0.15143469 -0.1589937 0.18145308 0.01901799 -0.05889803 -0.24443151
00000000: 53cc aa3d 2358 853e d423 48be d25a 20be
00000010: e2f6 543e f94d 1fbe 84b2 d43d 326d 2fbd
00000020: e445 be3d f985 883e b211 1bbe 3fcf 22be
00000030: d6ce 393e 9ecb 9b3c 103f 71bd 414c 7abe

feature_norm.weight f4 [16]
0.9927173 0.99914414 1.012738 0.98946124 0.989824 0.9899814 0.9967112 0.99302965
0.9928571 1.0011874 0.9877333 1.0425626 1.026281 1.0050212 0.96901923 0.98550177
00000000: b922 7e3f e9c7 7f3f 66a1 813f 554d 7d3f
00000010: 1b65 7d3f 6c6f 7d3f 7728 7f3f 3137 7e3f
00000020: e22b 7e3f e926 803f 17dc 7c3f b172 853f
00000030: 2d5d 833f 89a4 803f a511 783f d849 7c3f

feature_norm.bias f4 [16]
-0.010269625 -0.020950356 0.0022413034 -0.0032313112 -0.018346032 0.0017947662 -0.020580439 -0.0014942626
-0.013886519 0.005456576 -0.011675498 0.030109571 0.010631595 -0.0045293393 -0.025284126 -0.023927948
00000000: ee41 28bc 15a0 abbc d5e2 123b 68c4 53bb
00000010: 6b4a 96bc 5c3e eb3a 4f98 a8bc 22db c3ba
00000020: 4884 63bc 14cd b23b 974a 3fbc 59a8 f63c
00000030: 2430 2e3c da6a 94bb a820 cfbc 8b04 c4bc

graph_attention.learnable_adj_u f4 [4, 47, 8]
-0.035889924 -0.07482157 -0.07748517 0.08427404 0.09539972 -0.016717149 0.037169404 -0.028401457
0.025711004 -0.02030107 -0.063085265 -0.0510217 0.1204568 0.020441456 -0.06631599 0.013765906
-0.120983385 0.0010697191 0.09309164 0.013987304 0.028893286 -0.11423052 -0.022809114 0.07155818
-0.0889139 -0.05673014 0.08195346 0.034825526 0.056689475 -0.1130843 0.07718082 -0.026450036
0.025486354 0.09802092 -0.11175556 0.03469617 -0.10962889 0.089779235 0.035608057 0.013493406
-0.048581284 0.04572224 -0.06294459 0.023181261 0.1018387 -0.09102388 -0.034600656 0.028324274
0.02104947 0.0016676584 0.10432912 -0.03151309 0.031281285 0.0642675 -0.02351283 0.07924036
0.07919998 0.05400051 -0.029585453 0.10533438 -0.07007125 0.03747972 0.024349399 0.08559414
-0.09939898 0.02114134 -0.069836974 0.06427578 0.041642573 -0.094332404 -0.007592162 0.033922777
0.051658902 0.107884385 0.054460377 0.023126991 0.06468839 -0.11474905 0.08085265 -0.0142579675
0.06863317 0.034726616 -0.006395098 0.08536167 -0.070693955 0.034197703 0.05316085 -0.043157052
0.043931313 -0.1199522 -0.06124857 0.058961026 0.06250382 -0.11131143 0.041966926 0.011402627
0.118374944 -0.11828278 -0.02890238 -0.06867858 -0.073788844 -0.01980629 -0.111454315 0.09500754
-0.042904645 0.042491283 -0.07135759 0.0006538851 -0.085910134 0.0976063 0.102274455 0.09547296
-0.042452727 0.075475514 -0.101319574 0.055642582 -0.014968521 -0.100491464 -0.09732362 -0.11348102
0.022724517 -0.04386107 -0.05585153 0.11544751 -0.036947384 0.040903307 -0.02134831 0.07313408
0.036188215 0.076794 0.031665273 -0.026578061 0.107180126 -0.008645329 -0.07259618 0.037737593
-0.014715378 -0.089936 0.015863609 -0.028176473 -0.048292678 -0.05787701 -0.05160676 -0.04910892
0.011915636 0.11715297 -0.07107933 -0.056573838 -0.0812915 -0.0046015834 0.008502559 -0.083237424
0.055391446 -0.10876115 0.11224094 0.022821184 -0.012222022 -0.043421846 0.054449234 0.08855387
-0.079319865 -0.030396707 0.08927201 -0.022726424 -0.089294374 -0.03897133 0.0041889586 -0.022639079
-0.083104335 -0.07597333 0.03278945 0.083206706 0.11031989 -0.013706823 0.04665818 -0.09631345
0.06461962 0.11587762 0.06314962 -0.04794694 0.098871954 -0.11485003 -0.014551733 -0.030047229
-0.12096057 -0.069180354 -0.08835401 0.03259326 -0.010087108 0.0556951 -0.027279738 0.100031376
0.013735779 0.100523956 0.09847531 -0.102841385 -0.081439935 0.07304285 0.11457042 -0.10350387
0.001774866 -0.04662275 0.11416914 0.10074005 0.088259034 0.0652595 -0.0113750445 0.111898415
-0.056747284 0.005993561 -0.031907633 -0.08846557 -0.057467192 0.02940258 -0.01081965 -0.08033394
-0.01541694 0.020943679 -0.084845185 0.07323798 -0.10310043 0.0011602152 -0.099199854 -0.109353796
-0.015064077 0.11005965 0.11463971 0.043584697 0.09399455 -0.06629089 0.06827292 0.0739934
-0.11589564 -0.09293132 0.052390374 0.011205877 -0.082083754 -0.09569518 0.08764379 0.013247461
-0.00026838027 -0.117231406 0.10639953 -0.08016528 0.05403542 -0.014581658 0.003951601 0.059543744
-0.03230444 -0.03402119 0.09667274 -0.09292512 0.053965222 -0.03129567 -0.04051941 0.081178755
00000000: 5001 13bd 0d3c 99bd 8bb0 9ebd de97 ac3d
00000010: ee60 c33d 67f2 88bc f23e 183d 2caa e8bc
00000020: e29f d23c 6e4e a6bc d932 81bd 21fc 50bd
00000030: 0eb2 f63d d774 a73c aed0 87bd 658a 613c
00000040: 23c6 f7bd d135 8c3a d4a6 be3d 012b 653c
00000050: 9db1 ec3c b1f1 e9bd 2eda babc 188d 923d
00000060: 7e18 b6bd dd5d 68bd 37d7 a73d 36a5 0e3d
00000070: 3933 683d be98 e7bd fa10 9e3d bfad d8bc
00000080: c2c8 d03c 31bf c83d 19e0 e4bd 921d 0e3d
00000090: 1d85 e0bd 2dde b73d c1d9 113d 7213 5d3c
000000a0: 2bfd 46bd 3e47 3b3d 18e9 80bd a1e6 bd3c
000000b0: cf90 d03d ba6a babd 6bb9 0dbd 4f08 e83c
000000c0: f06f ac3c 5595 da3a 81aa d53d df13 01bd
000000d0: ce20 003d ae9e 833d fa9d c0bc c548 a23d
000000e0: 9933 a23d a42f 5d3d 315d f2bc 8db9 d73d
000000f0: 8481 8fbd 5684 193d 6478 c73c fb4b af3d
00000100: b191 cbbd 9a30 ad3c b006 8fbd 05a3 833d
00000110: 6791 2a3d 5931 c1bd acc7 f8bb 9cf2 0a3d
00000120: 4998 533d 7df2 dc3d d811 5f3d d174 bd3c
00000130: 597b 843d 8d01 ebbd 1396 a53d 409a 69bc
00000140: 8c8f 8c3d 7f3d 0e3d f88d d1bb 19d2 ae3d
00000150: fec7 90bd e412 0c3d 31bf 593d 73c5 30bd
00000160: 52f1 333d 80a9 f5bd c8df 7abd 1e81 713d
00000170: 0102 803d 3ff7 e3bd 83e5 2b3d 16d2 3a3c
00000180: 906e f23d 3e3e f2bd afc4 ecbc 5ba7 8cbd
00000190: 9b1e 97bd cd40 a2bc 2942 e4bd 5093 c23d
000001a0: c8bc 2fbd 570b 2e3d ee23 92bd 7c69 2b3a
000001b0: a7f1 afbd d0e5 c73d 4575 d13d 5487 c33d
000001c0: e9e2 2dbd e892 9a3d a380 cfbd 7ae9 633d
000001d0: 873e 75bc 78ce cdbd 9b51 c7bd bd68 e8bd
000001e0: c428 ba3c aaa7 33bd 93c4 64bd be6f ec3d
000001f0: 2456 17bd 3a8a 273d a7e2 aebc 52c7 953d
00000200: 183a 143d 2c46 9d3d 72b3 013d 3cba d9bc
00000210: 4181 db3d 23a5 0dbc 4ead 94bd bc92 1a3d
00000220: c518 71bc 5e30 b8bd 66f4 813c 59d2 e6bc
00000230: 8bce 45bd 7210 6dbd 9c61 53bd 6f26 49bd
00000240: cd39 433c e5ed ef3d 0a92 91bd f8b9 67bd
00000250: 287c a6bd e1c8 96bb 514e 0b3c 6278 aabd
00000260: 24e2 623d 2abe debd 94de e53d 7ef3 ba3c
00000270: e03e 48bc 1bdb 31bd 2906 5f3d bb5b b53d
00000280: 7472 a2bd 8402 f9bc 3ed4 b63d c42c babc
00000290: f8df b6bd 67a0 1fbd 8843 893b 9775 b9bc
000002a0: 9b32 aabd e897 9bbd 3b4e 063d 4768 aa3d
000002b0: 65ef e13d 9592 60bc a61c 3f3d fc3f c5bd
000002c0: 4b57 843d 3f51 ed3d 9754 813d 0364 44bd
000002d0: 617d ca3d 7e36 ebbd 646a 6ebc 9b25 f6bc
000002e0: 2dba f7bd 6eae 8dbd f2f2 b4bd 8380 053d
000002f0: 6644 25bc 8c20 643d c279 dfbc 40dd cc3d
00000300: 080c 613c 81df cd3d 6cad c93d 819e d2bd
00000310: fbc9 a6bd 7d97 953d e5a3 ea3d d6f9 d3bd
00000320: 9fa2 e83a 7ff7 3ebd 83d1 e93d cd50 ce3d
00000330: 27c1 b43d c6a6 853d 655e 3abc ff2a e53d
00000340: d76f 68bd a265 c43b 94b1 02bd 702d b5bd
00000350: b862 6bbd aedd f03c e744 31bc 1f86 a4bd
00000360: 5597 7cbc 1492 ab3c 50c3 adbd cbfd 953d
00000370: 5126 d3bd 5d12 983a 4b29 cbbd e2f4 dfbd
00000380: 52cf 76bc f466 e13d 39c8 ea3d de85 323d
00000390: 3780 c03d 85c3 87bd acd2 8b3d da89 973d
000003a0: b15a edbd c752 bebd 4a97 563d db98 373c
000003b0: 871b a8bd d6fb c3bd 967e b33d e10b 593c
000003c0: 64b5 8cb9 0517 f0bd ffe7 d93d b22d a4bd
000003d0: 3f54 5d3d e8e7 6ebc 6f7c 813b 24e4 733d
000003e0: a951 04bd ce59 0bbd 5cfc c53d 864f bebd
000003f0: a30a 5d3d e32f 00bd aef7 25bd 0c41 a63d

graph_attention.learnable_adj_v f4 [4, 8, 47]
-0.09398508 0.04471335 0.025259998 -0.040586412 0.03046515 0.098992825 0.062793694 -0.09411385
-0.026730048 0.0935587 0.015957333 0.012715833 0.0073589305 -0.036263265 -0.026981048 0.006845126
0.07764051 -0.029070435 -0.026991585 0.019634105 -0.03775059 0.08996676 0.077590086 0.0043331063
-0.06669895 0.028866058 0.0874698 0.033979166 0.043232746 -0.054594565 -0.10160603 -0.0387843
0.0032962144 0.09163875 0.021535544 -0.018908031 -0.025917081 -0.019721195 -0.055462528 -0.04318055
0.019161627 0.069849074 0.087605506 0.039719764 -0.071268305 0.09535004 0.09959497 -0.030651242
0.0035561044 0.09336402 -0.036269892 0.048896313 0.017155726 0.057494115 0.035936117 0.10233098
0.087412655 -0.07037771 0.06207019 -0.020406619 -0.053966854 0.017299498 -0.01403894 -0.06721481
-0.09104144 -0.05748226 0.010619119 0.06285828 0.060777664 0.027505463 0.09784345 -0.08833933
-0.06492045 0.044398483 -0.09394691 0.09727551 0.014221196 -0.03801299 0.092032835 0.048089508
0.08674373 0.0777049 -0.017950851 0.09363076 0.013621078 0.009987425 0.035839695 -0.08074751
-0.061671093 0.09759826 -0.06749707 0.05573143 0.06233592 -0.08373596 -0.011820869 -0.0011035949
0.076520406 -0.02822475 0.09315801 -0.08654825 0.043088816 0.05631581 -0.037156545 -0.033919632
-0.06569583 0.027364139 0.034564357 -0.036253292 0.083410926 -0.015803996 -0.016071178 0.08055613
0.01807184 0.05521309 0.060794976 -0.067513384 -0.0013064215 0.09109075 -0.063778415 0.013508537
0.07661678 0.011388277 -0.023127196 0.03729777 -0.08531376 0.08474055 0.08102477 -0.028883174
-0.03731244 -0.02017528 0.10262355 -0.039592173 0.030885188 -0.09792234 0.031176591 0.062494423
0.033385023 -0.0049010725 0.0075270715 0.08931879 0.044823553 -0.023833461 -0.08284442 0.075170994
-0.038400408 0.06430688 -0.02072918 0.0017118655 -0.08134153 -0.03929333 0.0085101705 -0.099676594
-0.021225648 0.059930675 0.07249297 0.07597371 -0.031454507 0.00811905 -0.0827666 0.05342884
0.018261952 0.08633269 -0.016045602 0.0986444 0.051100146 0.088022724 -0.0067124576 -0.08092804
-0.08088902 -0.097251564 0.017143812 -0.079759285 -0.03369231 0.052411128 0.093765385 -0.025868293
0.07141058 -0.007815733 -0.020640383 -0.012206173 -0.046767924 0.02822968 -0.00055832637 -0.050254267
0.06560441 -0.046077557 -0.06985595 0.035805307 -0.0063336208 -0.056778613 -0.084198155 -0.030902464
-0.078972496 0.056098588 -0.012847322 0.053124107 0.05020609 0.008307737 -0.01588051 -0.05319505
0.023220409 -0.08968697 -0.050260227 0.082252316 -0.020019595 0.08320714 0.061078068 -0.021742957
-0.08301839 0.08283272 0.008688898 0.09747321 -0.09328299 0.0212548 -0.08886622 -0.0125226835
-0.09040533 -0.09387754 0.0052031726 0.10168548 0.00790308 -0.009555767 0.09614304 0.0094414195
-0.057591025 0.06558675 0.073596925 0.08943438 0.08111293 0.095877245 -0.038253613 0.014830635
-0.03763687 -0.0137292165 0.081545375 -0.08149576 0.056363482 -0.05959374 0.0005656176 -0.012280302
-0.046458077 0.00879545 -0.052247502 0.093420446 -0.037338752 0.065283544 -0.024568241 -0.08120688
0.080067284 -0.028480042 -0.04272846 0.0077325045 -0.0010508349 0.029104777 -0.02502513 -0.02975849
00000000: 407b c0bd 5825 373d 0eee ce3c f03d 26bd
00000010: 0d92 f93c c0bc ca3d fb99 803d c3be c0bd
00000020: f9f8 dabc b49b bf3d f4b8 823c 1256 503c
00000030: 2f23 f13b ca88 14bd 5c07 ddbc 144d e03b
00000040: fd01 9f3d 1f25 eebc 751d ddbc b4d7 a03c
00000050: 5da0 1abd 7e40 b83d 8de7 9e3d bbfc 8d3b
00000060: 7699 88bd 8378 ec3c 5e23 b33d bd2d 0b3d
00000070: d214 313d 8d9e 5fbd d216 d0bd 49dc 1ebd
00000080: 4d05 583b 19ad bb3d 4f6b b03c 04e5 9abc
00000090: 0f50 d4bc 588e a1bc ad2c 63bd 17de 30bd
000000a0: d8f8 9c3c 080d 8f3d 846a b33d 31b1 223d
000000b0: 1ef5 91bd e246 c33d 73f8 cb3d 5018 fbbc
000000c0: 880d 693b a335 bf3d bd8f 14bd 8047 483d
000000d0: 2a8a 8c3c f37e 6b3d c031 133d e892 d13d
000000e0: 6805 b33d 3022 90bd 503d 7e3d c82b a7bc
000000f0: 590c 5dbd adb7 8d3c 9503 66bc eba7 89bd
00000100: ef73 babd 8572 6bbd d0fb 2d3c d8bb 803d
00000110: 00f2 783d 2353 e13c 2662 c83d 40eb b4bd
00000120: 03f5 84bd 2fdb 353d 3d67 c0bd 6238 c73d
00000130: 0500 693c 82b3 1bbd b67b bc3d 81f9 443d
00000140: b2a6 b13d bf23 9f3d aa0d 93bc 7cc1 bf3d
00000150: f12a 5f3c 4ca2 233c a5cc 123d f35e a5bd
00000160: d49a 7cbd 99e1 c73d e73b 8abd a446 643d
00000170: f353 7f3d c27d abbd 51ac 41bc 80a6 90ba
00000180: bbb6 9c3d 9737 e7bc a0c9 be3d 3540 b1bd
00000190: e67d 303d 68ab 663d 7631 18bd 50ef 0abd
000001a0: 898b 86bd c22a e03c 5b93 0d3d 557e 14bd
000001b0: 59d3 aa3d 6277 81bc b4a7 83bc 9dfa a43d
000001c0: 650b 943c 1f27 623d 2704 793d 7544 8abd
000001d0: 3b3c abba ca8d ba3d 429e 82bd e952 5d3c
000001e0: 42e9 9c3d e595 3a3c 3f75 bdbc 8cc5 183d
000001f0: fbb8 aebd 748c ad3d 51f0 a53d 689c ecbc
00000200: eed4 18bd a146 a5bc 4c2c d23d 672b 22bd
00000210: ef02 fd3c 828b c8bd 0d66 ff3c 27fa 7f3d
00000220: bcbe 083d 2d99 a0bb a7a5 f63b c5ec b63d
00000230: e798 373d 643e c3bc 56aa a9bd 40f3 993d
00000240: bf49 1dbd 53b3 833d 3ed0 a9bc ad60 e03a
00000250: 6396 a6bd 0bf2 20bd 3e6e 0b3c 3e23 ccbd
00000260: 69e1 adbc de79 753d 3277 943d 1b98 9b3d
00000270: 71d6 00bd c405 053c 8981 a9bd 33d8 5a3d
00000280: 179a 953c 32cf b03d 1172 83bc 1306 ca3d
00000290: 634e 513d 4245 b43d 2df4 dbbb 9abd a5bd
000002a0: 24a9 a5bd d42b c7bd 2e71 8c3c d658 a3bd
000002b0: f300 0abd 0dad 563d 1108 c03d bee9 d3bc
000002c0: b63f 923d 8f0d 00bc 0516 a9bc 66fc 47bc
000002d0: b98f 3fbd ee41 e73c a65c 12ba 6bd7 4dbd
000002e0: 9b5b 863d d2bb 3cbd a310 8fbd 96a8 123d
000002f0: 438a cfbb b190 68bd 1570 acbd 2a27 fdbc
00000300: 55bc a1bd a2c7 653d 937d 52bc aa98 593d
00000310: e7a4 4d3d 2d1d 083c d817 82bc 0ee3 59bd
00000320: ba38 be3c cdad b7bd abdd 4dbd e773 a83d
00000330: 2200 a4bc 8168 aa3d ff2c 7a3d 491e b2bc
00000340: 8c05 aabd 33a4 a93d e15b 0e3c 09a0 c73d
00000350: 270b bfbd 8c1e ae3c 7eff b5bd f12b 4dbc
00000360: 6e26 b9bd de42 c0bd 607f aa3b 7a40 d03d
00000370: ec7b 013c cb8f 1cbc a4e6 c43d 2fb0 1a3c
00000380: 91e4 6bbd 5952 863d fcb9 963d 5f29 b73d
00000390: 891e a63d 4a5b c43d d2af 1cbd 31fc 723c
000003a0: 1e29 1abd 82f0 60bc 4301 a73d 40e7 a6bd
000003b0: 65dd 663d 9118 74bd f445 143a 5233 49bc
000003c0: d34a 3ebd cb1a 103c 7a01 56bd 3853 bf3d
000003d0: 85f0 18bd 61b3 853d 5643 c9bc cb4f a6bd
000003e0: 51fa a33d fa4e e9bc 0a04 2fbd f360 fd3b
000003f0: 2bbc 89ba 246d ee3c 8001 cdbc 14c8 f3bc

graph_attention.qkv_proj_low.weight f4 [24, 16]
0.19546819 -0.0007669918 -0.03867735 -0.11244347 -0.05295841 0.105543844 0.0044175745 0.19534871
-0.031597994 -0.035228256 0.12878133 0.0024687934 -0.033759773 0.110178806 0.20667157 0.056770567
0.17239559 0.17303452 0.080271535 0.0678663 0.082710326 0.0056459466 0.21904117 0.21654157
0.06798877 -0.010128543 0.20478302 -0.18478687 0.16816711 0.14634939 0.17164479 -0.02793327
-0.18136926 0.20078889 -0.105773956 0.06097143 0.12866989 -0.24501008 0.020886716 -0.10739842
0.16204926 -0.15267123 0.11971515 0.11466862 0.11142919 0.24526203 0.054338995 -0.24374503
0.17293409 0.02736504 -0.0051593287 -0.24707785 -0.056182 -0.11741938 0.23294882 0.17517744
0.18370186 0.17665096 -0.16458559 -0.12459593 -0.113267384 -0.11699608 0.19784293 0.08082144
0.18638259 -0.006882673 -0.22380659 -0.06393435 0.18074252 0.14810166 0.07836973 -0.07929027
-0.22342123 -0.1323262 0.11742034 -0.14573017 0.1332562 0.083071336 -0.08138411 0.1436102
-0.072095975 -0.012333145 -0.09958371 -0.23183177 0.039381847 0.079700366 -0.13707623 0.16879162
-0.21566364 -0.24192461 -0.13914102 -0.07281618 -0.04706286 -0.07406197 0.09662392 -0.21276996
0.051988795 0.004948908 0.06893455 0.23247546 0.14891331 -0.13130017 -0.20264105 -0.05101871
-0.13002242 0.08930079 0.005985193 0.2201574 0.080470696 -0.066352904 0.0027900545 0.06504605
-0.0124187805 0.19488084 -0.1980634 0.115895785 -0.15690874 -0.21066487 -0.05433713 0.141133
0.19717033 0.06415064 -0.021506933 -0.061385445 -0.10984974 -0.041963976 -0.023831613 0.20403075
0.13886692 -0.19296739 -0.005945976 -0.1472674 -0.04877003 -0.20929876 0.059455074 -0.18960336
0.25172105 0.18795936 -0.18031935 -0.26932833 0.023571823 -0.0722738 0.08124916 -0.17821224
0.09926642 -0.22108047 -0.12347501 -0.13369785 0.11700662 -0.011985224 -0.23065333 -0.14666608
-0.12783806 -0.2438106 0.033568684 0.105316125 -0.034242563 -0.074894845 -0.006569173 -0.19303678
-0.1545407 -0.0142041445 0.23357233 -0.05736375 0.12088446 -0.10519626 -0.06752946 -0.23493756
0.20955893 0.22598256 0.0077490658 0.18695046 0.22800466 0.15413266 0.12882984 -0.23493202
-0.2391389 -0.19794543 0.06905018 -0.22566076 -0.17653257 -0.12003532 -0.23323463 0.009289226
0.038898934 -0.14268641 0.17055324 -0.083726026 -0.06897049 0.16877732 0.18590368 -0.025578856
-0.172524 -0.11915754 0.04508849 0.14111163 0.11691933 -0.117765635 -0.23194098 -0.2209686
-0.0862496 0.0038239826 -0.12059273 -0.21876226 0.013090276 -0.179734 -0.17181565 -0.21038496
-0.06300965 0.22404368 0.10375399 -0.034543 0.055756237 0.08140156 0.006732929 -0.2036439
-0.1544657 -0.16701128 -0.0035819549 -0.23313285 -0.03688765 -0.07678771 0.24627161 0.19353025
0.14896849 0.025986928 -0.08602097 0.05303831 -0.16944143 -0.11605728 -0.05692296 -0.056202445
-0.23052199 0.11199985 0.19933322 -0.16684255 0.055257272 -0.05051256 -0.00010122908 0.00055923685
0.21525419 0.035453077 -0.17305252 -0.07560575 0.12068729 0.10311101 0.0043860227 -0.037865717
-0.0870321 -0.08343564 -0.1306119 0.009754902 0.089586265 0.18996361 -0.06650788 0.020804847
00000000: d028 483e f30f 49ba 246c 1ebd c348 e6bd
00000010: ebea 58bd 5f27 d83d 4dc1 903b 7e09 483e
00000020: e66c 01bd 814b 10bd 41df 033e 7bcb 213b
00000030: b047 0abd 6da5 e13d b6a1 533e 4188 683d
00000040: 7888 303e f62f 313e 6765 a43d 7dfd 8a3d
00000050: 0864 a93d a201 b93b 544c 603e 13bd 5d3e
00000060: b23d 8b3d 30f2 25bc a4b2 513e c538 3dbe
00000070: 0034 2c3e 9ddc 153e a7c3 2f3e 50d4 e4bc
00000080: ddb8 39be 9a9b 4d3e 04a0 d8bd 2ebd 793d
00000090: 0ac2 033e ece3 7abe 9e1a ab3c b4f3 dbbd
000000a0: 3ef0 253e d955 1cbe 372d f53d 62d7 ea3d
000000b0: fd34 e43d f825 7b3e 9192 5e3d 4c98 79be
000000c0: a215 313e a62c e03c 960f a9bb fa01 7dbe
000000d0: 191f 66bd 9279 f0bd 238a 6e3e b761 333e
000000e0: 571c 3c3e fde3 343e 2089 28be 272c ffbd
000000f0: bbf8 e7bd a49b efbd 5697 4a3e b685 a53d
00000100: 14db 3e3e 0c88 e1bb 8e2d 65be 03f0 82bd
00000110: 9114 393e f6a7 173e 4f80 a03d f062 a2bd
00000120: 89c8 64be 8580 07be 137a f03d 4a3a 15be
00000130: 5074 083e 4e21 aa3d b6ac a6bd 8d0e 133e
00000140: 0ea7 93bd f610 4abc 8bf2 cbbd 4f65 6dbe
00000150: dc4e 213d f239 a33d b65d 0cbe b6d7 2c3e
00000160: eed6 5cbe 16bb 77be fc7a 0ebe a620 95bd
00000170: fcc4 40bd cdad 97bd c3e2 c53d 5ee0 59be
00000180: 34f2 543d 732a a23b 8f2d 8d3d 0c0e 6e3e
00000190: bb7c 183e 8d73 06be 2381 4fbe fff8 50bd
000001a0: 9924 05be 55e3 b63d 701f c43b f170 613e
000001b0: d2cd a43d 08e4 87bd 59d9 363b dd36 853d
000001c0: 2478 4bbc d88e 473e 22d1 4abe c55a ed3d
000001d0: afac 20be 88b8 57be 9c90 5ebd 2b85 103e
000001e0: 05e7 493e 6961 833d 4f2f b0bc 4e6f 7bbd
000001f0: e7f8 e0bd 6be2 2bbd 843a c3bc 70ed 503e
00000200: 2133 0e3e 3e99 45be 76d6 c2bb 44cd 16be
00000210: 15c3 47bd 6a52 56be 2a87 733d 6227 42be
00000220: 95e1 803e 6b78 403e a3a5 38be 67e5 89be
00000230: b219 c13c 4904 94bd f665 a63d 457d 36be
00000240: 314c cb3d eb62 62be 77e0 fcbd 17e8 08be
00000250: 2ba1 ef3d ac5d 44bc 6330 6cbe a22f 16be
00000260: fbe7 02be 7ca9 79be 517f 093d fbaf d73d
00000270: ee41 0cbd 7862 99bd 3842 d7bb 6fab 45be
00000280: eb3f 1ebe 80b8 68bc 962d 6f3e 40f6 6abd
00000290: 4692 f73d 2371 d7bd e34c 8abd 7993 70be
000002a0: 9e96 563e f967 673e e0eb fd3b f16f 3f3e
000002b0: 0e7a 693e f4d4 1d3e f8eb 033e 0592 70be
000002c0: d4e0 74be 35b2 4abe 2e6a 8d3d 9d13 67be
000002d0: f4c4 34be 14d5 f5bd 0fd5 6ebe d631 183c
000002e0: 7d54 1f3d 631c 12be 82a5 2e3e 8d78 abbd
000002f0: 6640 8dbd f6d3 2c3e 895d 3e3e c08a d1bc
00000300: 22aa 30be de08 f4bd b5ae 383d 917f 103e
00000310: 6773 ef3d 1c2f f1bd f081 6dbe 9845 62be
00000320: a1a3 b0bd c89b 7a3b 52f9 f6bd 3703 60be
00000330: 9978 563c 310c 38be 71f0 2fbe 286f 57be
00000340: 340b 81bd b56b 653e f97c d43d f67c 0dbd
00000350: a760 643d dcb5 a63d e79f dc3b 0788 50be
00000360: 422c 1ebe 0105 2bbe 3bbf 6abb 61ba 6ebe
00000370: 8117 17bd e042 9dbd a02e 7c3e cb2c 463e
00000380: 328b 183e 8ae2 d43c c32b b0bd b33e 593d
00000390: 0e82 2dbe 70af edbd 0d28 69bd 8934 66bd
000003a0: f50d 6cbe 2d60 e53d 021e 4c3e c6d8 2abe
000003b0: 7355 623d 42e6 4ebd f34a d4b8 c099 123a
000003c0: 986b 5c3e 3f37 113d ae34 31be 30d7 9abd
000003d0: e62a f73d dd2b d33d a0b8 8f3b 1519 1bbd
000003e0: e33d b2bd 4ee0 aabd 20bf 05be 06d3 1f3c
000003f0: 0179 b73d d285 423e 4935 88bd ed6e aa3c

graph_attention.qkv_proj_low.bias f4 [24]
-0.08202603 -0.18356195 -0.12998582 0.123703904 0.17256284 0.03671311 -0.09109893 0.26174727
0.041808024 -0.122758225 -0.10957055 -0.034867987 0.11793451 0.09563829 0.20943865 0.0021249852
0.23055153 -0.090081945 -0.10795634 -0.08814327 -0.25158146 -0.15937632 -0.24533506 0.008758257
00000000: 43fd a7bd aaf7 3bbe 011b 05be 7958 fd3d
00000010: 50b4 303e 7c60 163d 1392 babd bd03 863e
00000020: e43e 2b3d aa68 fbbd 8666 e0bd bcd1 0ebd
00000030: a687 f13d 02de c33d 1677 563e 5643 0b3b
00000040: b315 6c3e e27c b8bd 3718 ddbd 7584 b4bd
00000050: 49cf 80be 8c33 23be 1d39 7bbe cb7e 0f3c

graph_attention.qkv_proj_high.weight f4 [48, 24]
0.0021135819 -0.05696358 -0.1488538 0.18648301 -0.07237128 0.10578978 0.13682668 -0.12788364
-0.044051766 0.11643423 0.18854505 -0.03013393 0.15302731 -0.14390998 -0.12986408 0.15790227
-0.02714905 0.2002175 0.013517127 -0.08694483 0.18376261 0.18479718 0.014615152 -0.12858233
-0.004489928 -0.102336705 0.13556 0.0049259444 0.038261674 0.13505523 0.06494129 -0.12571043
0.1532653 0.12994903 -0.13788474 0.15443018 0.06757332 -0.030900352 -0.14967945 -0.047676798
-0.21059944 0.11417013 0.14876409 -0.05858004 0.18451692 -0.071360886 0.033862755 -0.13963327
-0.007848088 0.085175686 0.08129501 0.005222151 -0.10365113 0.14430574 0.13475944 0.046596456
-0.10927174 0.036619168 -0.005176589 0.1767819 0.027547544 0.03180941 0.02373232 0.103294864
-0.00066568964 0.16720602 0.10113278 -0.16094711 -0.018054297 -0.17307286 -0.1586103 0.0313956
0.04945205 -0.025816863 0.17943367 -0.09265449 -0.09516537 -0.031041684 -0.009057398 -0.0002022368
0.17094284 -0.09226837 -0.12164165 0.009079349 0.14687209 0.06587526 0.123862915 0.030315792
0.1785 0.11933501 0.15671209 -0.027378157 -0.18123074 -0.09497779 0.06125741 0.14153257
-0.097356 0.16641344 0.044020284 0.015096258 -0.0030304333 -0.05052974 0.1787884 0.031153845
0.15281929 -0.18527924 -0.09309595 0.009628867 0.1606301 0.105300084 0.049386933 -0.19039363
0.017728679 -0.11557251 -0.15901285 0.021433465 -0.14426488 0.1795073 -0.10811425 0.073157966
0.10681918 -0.16569138 0.11984458 -0.020629264 0.094727 0.18849888 -0.09095911 -0.07653561
0.1785909 0.013616024 -0.010120364 0.14891954 -0.09447878 -0.0030140555 0.14585114 0.08725268
-0.1232914 0.07641718 -0.13850743 -0.11310688 0.12311836 -0.05505984 -0.103817485 0.019958489
0.03584372 -0.13059075 -0.12229263 -0.1886879 0.043554842 -0.14289437 0.008068319 -0.030550325
-0.10927397 -0.07477475 -0.14485621 -0.11660399 -0.0040622544 -0.16750096 -0.1731194 0.16139111
0.029452195 -0.07394175 0.008795844 0.14671892 -0.18156494 -0.11171281 -0.1439127 -0.011000705
-0.021330314 -0.1608932 0.15677927 -0.14586547 0.1784121 -0.15224016 -0.03716771 0.0541752
-0.06947823 0.17635757 -0.12811255 -0.020725809 -0.15028062 0.06594429 0.18094985 0.197152
0.03561381 -0.084880464 0.21035786 0.010429306 0.12438228 -0.107973345 -0.0946865 -0.16551687
0.18725109 0.035435513 -0.14194316 0.02499529 -0.08934376 -0.00953151 0.0741405 -0.08760432
0.043099213 -0.13437325 0.058151685 -0.20116127 0.028778866 0.20198567 0.223875 0.083164714
0.1687376 0.19637208 0.05931257 0.065106414 0.02182105 0.17944445 0.16963081 -0.09735489
-0.008552739 -0.09840866 0.07895737 -0.18700872 0.07424732 -0.07967461 0.08158366 0.0833619
-0.09397013 0.0976541 0.11266357 -0.18255818 0.19818299 0.17522229 0.16516879 -0.008390069
0.09560523 -0.11575157 -0.069724575 0.08747791 0.0817335 0.07658259 -0.19725916 0.16556983
-0.08376753 0.18404907 0.17420197 0.08882173 0.21012573 0.09124099 0.12531532 -0.04830948
0.19476144 0.042459264 0.14883243 -0.059338357 0.13992713 0.18193577 -0.118159235 0.18168622
00000000: 0584 0a3b a552 69bd 216d 18be 67f5 3e3e
00000010: 6537 94bd 50a8 d83d 4b1c 0c3e eef3 02be
00000020: a06f 34bd 1275 ee3d f411 413e 6edb f6bc
00000030: 31b3 1c3e 235d 13be 17fb 04be 22b1 213e
00000040: af67 debc d105 4d3e f176 5d3c 2210 b2bd
00000050: 442c 3c3e 793b 3d3e 6474 6f3c 16ab 03be
00000060: 3f20 93bb e895 d1bd 3ed0 0a3e d169 a13b
00000070: 46b8 1c3d eb4b 0a3e f0ff 843d 3cba 00be
00000080: 94f1 1c3e 5c11 053e a831 0dbe f222 1e3e
00000090: e163 8a3d bc22 fdbc 9245 19be bf48 43bd
000000a0: 61a7 57be 07d2 e93d 9d55 183e a0f1 6fbd
000000b0: 01f2 3c3e a825 92bd acb3 0a3d 06fc 0ebe
000000c0: 4495 00bc 9770 ae3d 007e a63d 941e ab3b
000000d0: 0b47 d4bd e2c4 133e 61fe 093e eddb 3e3d
000000e0: ddc9 dfbd fbfd 153d 60a0 a9bb 5006 353e
000000f0: 63ab e13c 954a 023d 486a c23c 428c d33d
00000100: ad81 2eba 0e38 2b3e b41e cf3d 52cf 24be
00000110: 9be6 93bc 033a 31be bd6a 22be ac98 003d
00000120: 3c8e 4a3d e37d d3bc 76bd 373e a3c1 bdbd
00000130: 10e6 c2bd 214b febc 7b65 14bc 870f 54b9
00000140: a40b 2f3e 33f7 bcbd 421f f9bd 8dc1 143c
00000150: a365 163e 9ce9 863d d7ab fd3d d358 f83c
00000160: b4c8 363e ea65 f43d 2279 203e 2848 e0bc
00000170: 8d94 39be b783 c2bd 0de9 7a3d eaed 103e
00000180: 9562 c7bd 4968 2a3e 9d4e 343d 4c56 773c
00000190: 3c9a 46bb 46f8 4ebd 4e14 373e 5936 ff3c
000001a0: a97c 1c3e d7b9 3dbe 17a9 bebd 65c2 1d3c
000001b0: 387c 243e 92a7 d73d f449 4a3d 8cf6 42be
000001c0: bc3b 913c 48b1 ecbd 44d4 22be 3c95 af3c
000001d0: 2cba 13be c3d0 373e 016b ddbd d8d3 953d
000001e0: 04c4 da3d 00ab 29be 1371 f53d b4fe a8bc
000001f0: 3b00 c23d da05 413e c548 babd b4be 9cbd
00000200: 88e0 363e be15 5f3c e2cf 25bc 5d7e 183e
00000210: 177e c1bd 7687 45bb 005a 153e 88b1 b23d
00000220: 3480 fcbd 9c80 9c3d e4d4 0dbe 94a4 e7bd
00000230: 7b25 fc3d 6d86 61bd 439e d4bd fc7f a33c
00000240: ddd0 123d 95b9 05be 8f74 fabd 6737 41be
00000250: 9066 323d e752 12be fc30 043c ad44 fabc
00000260: 08cb dfbd 8123 99bd 3055 14be 13ce eebd
00000270: a91c 85bb 5f85 2bbe 3646 31be b643 253e
00000280: bb45 f13c c66e 97bd 721c 103c 7c3d 163e
00000290: 29ec 39be b0c9 e4bd da5d 13be 4d3c 34bc
000002a0: e9bc aebc 30c1 24be bf8a 203e c25d 15be
000002b0: a9b1 363e d8e4 1bbe 2b3d 18bd d1e6 5d3d
000002c0: 9a4a 8ebd 1497 343e f02f 03be 2cc9 a9bc
000002d0: 2ae3 19be cd0d 873d eb4a 393e 37e2 493e
000002e0: c9df 113d cfd5 adbd 0d68 573e aedf 2a3c
000002f0: 23bc fe3d 2121 ddbd ffea c1bd 417d 29be
00000300: c0be 3f3e d424 113d 8c59 11be ecc2 cc3c
00000310: dcf9 b6bd 0d2a 1cbc f9d6 973d e569 b3bd
00000320: cd88 303d 2499 09be 7630 6e3d 38fd 4dbe
00000330: a8c1 eb3c 55d5 4e3e 7d3f 653e 4352 aa3d
00000340: 8dc9 2c3e c315 493e bdf1 723d 8356 853d
00000350: 0fc2 b23c 49c0 373e b3b3 2d3e 0062 c7bd
00000360: ca20 0cbc 7b8a c9bd 67b4 a13d 377f 3fbe
00000370: fb0e 983d 712c a3bd 5515 a73d a5b9 aa3d
00000380: 6973 c0bd dffe c73d 28bc e63d 88f0 3abe
00000390: 7bf0 4a3e 796d 333e 0222 293e 8076 09bc
000003a0: adcc c33d 290f edbd c2cb 8ebd 9e27 b33d
000003b0: e563 a73d 55d7 9c3d 4efe 49be 238b 293e
000003c0: 508e abbd 5c77 3c3e 0062 323e 2be8 b53d
000003d0: 332b 573e 8edc ba3d a952 003e 29e0 45bd
000003e0: 8b6f 473e c4e9 2d3d 8767 183e c70c 73bd
000003f0: 0f49 0f3e 5f4d 3a3e 78fd f1bd f40b 3a3e

graph_attention.qkv_proj_high.bias f4 [48]
0.15487415 -0.13016477 -0.16183275 -0.030349733 -0.1650668 0.037651673 0.0027953454 -0.07292184
0.12854317 0.13609211 -0.17343056 -0.1590055 0.1073411 -0.14265303 0.019088406 -0.074495874
0.035307128 -0.11856793 -0.009156251 -0.07021103 -0.080179036 -0.11965562 0.025944913 0.105310075
-0.0077323103 -0.008827168 0.1389344 0.1014412 -0.048047855 -0.16271296 0.042738166 0.064939946
-0.19338226 -0.20587526 0.0587856 0.22518808 -0.20385258 -0.1391962 -0.078776844 -0.17788024
-0.117211334 0.15319669 0.15862723 -0.15119392 0.0005211262 -0.18627524 0.04705624 -0.15244469
00000000: 5497 1e3e ea49 05be 7cb7 25be 01a0 f8bc
00000010: 4507 29be a438 1a3d 1d32 373b 0c58 95bd
00000020: d2a0 033e bb5b 0b3e c897 31be 56d2 22be
00000030: a7d5 db3d a313 12be 4a5f 9c3c 4b91 98bd
00000040: 359e 103d bed3 f2bd 1a04 16bc cdca 8fbd
00000050: e834 a4bd 010e f5bd 6d8a d43c cfac d73d
00000060: 525f fdbb d39f 10bc d244 0e3e 67c0 cf3d
00000070: d4cd 44bd 3a9e 26be 370e 2f3d 3cff 843d
00000080: 0006 46be f7d0 52be 2bc9 703d b497 663e
00000090: bbbe 50be 7389 0ebe c155 a1bd 3d26 36be
000000a0: 7f0c f0bd 98df 1c3e 2d6f 223e 94d2 1abe
000000b0: 309c 083a f0be 3ebe 0bbe 403d 761a 1cbe

graph_attention.out_proj_low.weight f4 [8, 16]
-0.12143456 -0.089614876 0.028778829 0.16993652 -0.10981805 0.04286564 0.20741172 -0.010095923
0.04252303 0.009454618 0.007992424 0.15312696 0.12775093 -0.12675773 0.24606965 0.14250088
-0.04049585 0.22074732 0.027862165 0.1607251 -0.2068732 0.21776298 0.23717077 -0.17536208
-0.2335351 -0.06324542 -0.15626559 0.087196164 0.09214524 -0.030636631 0.16950795 0.0047355886
-0.07691091 -0.21999231 0.098383404 -0.23726287 0.014896823 0.048698068 -0.14301826 0.081872575
0.03131755 0.17393796 0.14615327 -0.18715757 -0.18589516 -0.08716214 -0.18870772 0.06334287
-0.17464277 -0.20407733 0.0472659 0.15513049 -0.10141329 -0.25810555 0.049623776 0.10135301
0.20698287 0.00875676 0.18305239 -0.23651287 0.24189386 -0.16452192 -0.14560536 0.19177103
-0.03998545 0.16696946 -0.16150773 0.18561655 0.2582527 0.08178053 0.18902569 -0.15682355
-0.05835119 0.07869503 0.1414112 -0.1180828 0.14549196 -0.0805427 -0.13989817 0.036529083
-0.22647779 -0.24655274 0.07848177 0.08097596 0.088919066 -0.022616128 -0.18666965 -0.22765481
0.23557301 -0.21815284 0.06639251 0.1910727 0.20583883 -0.15440883 -0.065431505 -0.18776849
0.17266022 -0.21352771 -0.2260576 -0.16192833 0.19210288 0.13536566 0.1769476 0.192664
-0.09688995 -0.14564104 -0.14834625 0.0850035 0.08418414 0.064065136 -0.17739734 0.032050323
-0.118090935 -0.026763732 -0.016221754 0.016735956 -0.21153103 0.20024163 -0.111647025 0.08409
0.16347773 0.10589789 0.1788323 0.16467048 0.16261226 0.052339137 0.15038222 -0.11832162
00000000: afb2 f8bd 0188 b7bd 94c1 eb3c d703 2e3e
00000010: 49e8 e0bd e293 2f3d bd63 543e 5f69 25bc
00000020: a12c 2e3d 8be7 1a3c a8f2 023c 50cd 1c3e
00000030: 24d1 023e c7cc 01be aff9 7b3e c0eb 113e
00000040: fade 25bd 960b 623e 323f e43c 1f95 243e
00000050: 91d6 53be 42fd 5e3e e5dc 723e 1e92 33be
00000060: d323 6fbe d186 81bd 1604 20be e793 b23d
00000070: a5b6 bc3d acf9 fabc 7e93 2d3e ff2c 9b3b
00000080: 7883 9dbd aa45 61be 3d7d c93d 0af5 72be
00000090: ce11 743c a077 473d 6173 12be cfac a73d
000000a0: d546 003d cb1c 323e 34a9 153e 3ca6 3fbe
000000b0: 4d5b 3ebe 1082 b2bd 993c 41be e8b9 813d
000000c0: 8ed5 32be a6f9 50be e399 413d 87da 1e3e
000000d0: c5b1 cfbd 6926 84be 4d42 4b3d 2b92 cf3d
000000e0: 51f3 533e 8378 0f3c 1672 3b3e 6e30 72be
000000f0: 06b3 773e 6f78 28be 9219 15be a05f 443e
00000100: c9c7 23bd 0bfa 2a3e 4862 25be 4412 3e3e
00000110: b339 843e 8d7c a73d f38f 413e 5a96 20be
00000120: a801 6fbd dc2a a13d 19ce 103e 65d5 f1bd
00000130: d8fb 143e 92f3 a4bd 7741 0fbe 859f 153d
00000140: cbe9 67be 5278 7cbe 0dbb a03d b9d6 a53d
00000150: 331b b63d 7545 b9bc 5426 3fbe 581e 69be
00000160: 0d3a 713e 7563 5fbe ccf8 873d 90a8 433e
00000170: 6ac7 523e 591d 1ebe f400 86bd 6246 40be
00000180: d7cd 303e 02a7 5abe a57b 67be 8ad0 25be
00000190: 9eb6 443e 4c9d 0a3e c031 353e b649 453e
000001a0: 3d6e c6bd ed22 15be 14e8 17be 5116 ae3d
000001b0: bc68 ac3d 9534 833d a6a7 35be 3347 033d
000001c0: a9d9 f1bd 9d3f dbbc 7ce3 84bc d819 893c
000001d0: 979b 58be 240c 4d3e 32a7 e4bd 6137 ac3d
000001e0: b566 273e fee0 d83d d01f 373e 619f 283e
000001f0: d483 263e 9061 563d ccfd 193e 9b52 f2bd

graph_attention.out_proj_low.bias f4 [8]
-0.157017 0.11143943 0.060533196 0.02261742 -0.22269411 0.11353789 0.127539 -0.06192674
00000000: 10c9 20be 5b3a e43d a8f1 773d 2b48 b93c
00000010: ed09 64be 8e86 e83d 9599 023e e5a6 7dbd

graph_attention.out_proj_high.weight f4 [16, 8]
0.08759684 0.16358034 -0.3567074 -0.058485836 -0.14192328 -0.19457632 0.21495697 0.32434744
0.04251891 0.20678306 -0.2512298 0.047806483 -0.040170163 -0.23002388 0.06760921 0.10266451
-0.010217299 0.15651263 0.15674031 0.3223319 0.021851044 0.01989908 -0.009042199 0.045832615
-0.23093572 -0.04723805 -0.28407654 -0.2470447 -0.28035393 0.2537541 -0.21444714 -0.0114900125
0.0275942 0.2955172 0.16321392 -0.2627038 0.34275538 -0.348486 0.0468307 0.30842593
0.32919273 -0.06814396 -0.25131652 0.1748983 0.28279048 -0.1768704 -0.06776227 -0.20413867
0.15255728 0.104590945 0.16298862 -0.13652752 -0.34753224 -0.14555731 -0.26130012 -0.09112556
0.10358414 -0.34605265 -3.7037677e-05 -0.3194077 -0.24873887 -0.23233148 -0.11604179 -0.15069187
0.04713097 0.20623042 0.2749344 0.107407995 -0.0038626916 -0.082632124 0.2426871 -0.20248027
0.25196353 -0.3447543 -0.27116928 0.08977418 -0.15465137 0.08186723 0.30752528 0.1746869
0.31650275 -0.17990954 -0.13955791 -0.046278562 -0.055187568 -0.18156767 -0.031536285 0.29978287
-0.21577835 0.17007439 0.18522984 0.22191651 0.091780424 -0.14620036 0.14467372 -0.19945242
-0.23507002 0.3104578 0.30826324 -0.2783318 0.26913998 0.08159889 0.09736697 0.3397453
0.027358692 -0.063438006 0.18552287 -0.087995164 -0.058786005 -0.14758979 0.32216847 0.13451657
-0.055469666 0.0015436615 0.019137105 -0.21859288 0.09243202 -0.25614458 -0.0071481783 -0.10232806
-0.12533335 0.3413139 0.07870904 0.18629241 -0.22771771 0.06689197 0.07786578 0.19033232
00000000: f965 b33d 9b81 273e 5aa2 b6be d88e 6fbd
00000010: 5654 11be 043f 47be ae1d 5c3e de10 a63e
00000020: 4f28 2e3d f0be 533e 31a1 80be bbd0 433d
00000030: 7889 24bd 618b 6bbe b376 8a3d c541 d23d
00000040: 7566 27bc d944 203e 8880 203e b008 a53e
00000050: f600 b33c 6503 a33c bb25 14bc fbba 3b3d
00000060: 6a7a 6cbe af7c 41bd 7b72 91be 49f9 7cbe
00000070: 8d8a 8fbe 0fec 813e 0898 5bbe 9b40 3cbc
00000080: 3b0d e23c 084e 973e 8d21 273e 1d81 86be
00000090: a27d af3e c26c b2be 8cd1 3f3d 01ea 9d3e
000000a0: f38b a83e 0f8f 8bbd 8fac 80be 8a18 333e
000000b0: eac9 903e 841d 35be f2c6 8abd ba09 51be
000000c0: fa37 1c3e c733 d63d 7de6 263e dfcd 0bbe
000000d0: bfef b1be fa0c 15be 21c9 85be 0aa0 babd
000000e0: ec23 d43d d02d b1be e758 1bb8 6889 a3be
000000f0: 67b5 7ebe 4ee8 6dbe 51a7 edbd f84e 1abe
00000100: 670c 413d 112e 533e 34c4 8c3e b9f8 db3d
00000110: 3625 7dbb 083b a9bd f882 783e fd56 4fbe
00000120: 5d01 813e a383 b0be b3d6 8abe 86db b73d
00000130: ee5c 1ebe 02aa a73d f473 9d3e 1fe1 323e
00000140: a60c a23e 353a 38be 45e8 0ebe 978e 3dbd
00000150: 5c0c 62bd e0ec 39be 312c 01bd 247d 993e
00000160: 00f5 5cbe fb27 2e3e e4ac 3d3e 153e 633e
00000170: 60f7 bb3d 8cb5 15be 5925 143e 413d 4cbe
00000180: 32b6 70be 53f4 9e3e aed4 9d3e 8181 8ebe
00000190: b7cc 893e 521d a73d 5568 c73d 19f3 ad3e
000001a0: 561f e03c c9eb 81bd b5f9 3d3e cf36 b4bd
000001b0: 98c9 70bd c721 17be 44f3 a43e b6be 093e
000001c0: 2934 63bd af54 ca3a 6bc5 9c3c d0d6 5fbe
000001d0: 004d bd3d 6225 83be 443b eabb 6091 d1bd
000001e0: 6357 00be b2c0 ae3e 3532 a13d 70c3 3e3e
000001f0: d52e 69be a8fe 883d 1878 9f3d 7ae6 423e

graph_attention.out_proj_high.bias f4 [16]
-0.1365333 -0.08226615 -0.28917766 0.23371446 0.19570845 0.1784745 0.1769377 0.16714355
0.32835135 0.10641598 0.12380117 0.10435553 -0.22939804 0.09016816 0.11429596 -0.2601705
00000000: 63cf 0bbe 287b a8bd 180f 94be d852 6f3e
00000010: cc67 483e 05c2 363e 282f 353e ae27 2b3e
00000020: ab1d a83e 9ff0 d93d 788b fd3d 5ab8 d53d
00000030: 52e7 6abe 16aa b83d 0014 ea3d 1135 85be

temporal_module.fusion_weight f4 [3]
1.0264814 1.0116221 0.97568774
00000000: be63 833f d57c 813f acc6 793f
